onpolicy/scripts/results/MPE/simple_spread/rmappo/check/wandb/run-20220704_211918-3hfqzos3/files/actor.pt (torch, 147692 bytes, 22 tensors)

base.feature_norm.weight f4 [18]
00000000: 20bb 823f 33bb 7c3f 3d15 783f 673b 7b3f
00000010: 95a2 823f 682b 803f ba54 7c3f 15f8 833f
00000020: bcd9 803f 1803 803f 1975 803f 3f1d 803f
00000030: e641 803f f69a 7a3f b2b1 823f f9e2 7f3f
00000040: 7a9c 803f 60cb 813f
1.0213356 0.98723143 0.9690741 0.98137516 1.0205866 1.0013247 0.9856678 1.0310084
1.0066447 1.0000944 1.0035735 1.0008925 1.0020111 0.978927 1.0210478 0.9995571
1.0047753 1.014019

base.feature_norm.bias f4 [18]
00000000: b684 08bc 418b 323c 7c7f 2cbc 1c03 0d3d
00000010: f333 64bc c79f aebc af17 9f3c 714a 03bc
00000020: 3c93 c03b 3ec4 77bc f437 883c f93f 973c
00000030: 05cd b93c 12f6 6bbc 9021 89bc 9b04 973c
00000040: fbb0 98bb 71d6 23bb
-0.008332422 0.0108974585 -0.0105284415 0.034426793 -0.013928401 -0.021316422 0.019420473 -0.008013354
0.0058769267 -0.015122471 0.016628243 0.018463122 0.022680769 -0.014401929 -0.016739637 0.018434813
-0.0046597696 -0.0024999643

base.mlp.fc1.0.weight f4 [64, 18]
00000000: b795 86ba 06f6 ec3c 659c 5cbe 32c4 b1bd
00000010: 4de6 05be 0d5c b9bc 30a0 0f3e 54c1 443e
00000020: 35b2 e9be 17be 353e 2dee 213e 2e01 133d
00000030: 0e6d 163d e72d 503e 007e d4bd 762a 50be
00000040: 8e3f 90be 567e a53d b94a 19be e7fc 5e3e
00000050: 8b4f dcbd e85a f63d deaa 893d 6d86 a93d
00000060: 99f6 45be 8857 313e 0c4e afbe a1bb 5c3e
00000070: 281c 0c3e cd68 ed3d 4b4b 5fbe b407 d9bd
00000080: aa11 c8bd 84ca 793c 2ff3 9a3e f3c1 0dbe
00000090: 14c6 83be 9d93 cabd 24d0 81bd 1274 fc3d
000000a0: 9c4b b43d b58e b33d 1f01 afbe 223e 4bbe
000000b0: 1914 d6be d38f 4f3d f3ef 823e 08f0 ee3e
000000c0: cf2e be3e 318c 9f3d e899 673e b1e7 bbbb
000000d0: 6b2d 773d 3267 413e eb65 803d 01af b93d
000000e0: 23f5 41bf 3259 8bbe 6d0c cf3e 055c 983e
000000f0: 549b 733d 4dcc 6f3e 3001 be3c f5d4 063e
00000100: 4063 93be 3333 62be 34a7 173e b724 01be
00000110: eaac 9b3d 9af5 c5bd 31ca 9dbe c38a d93d
00000120: 271c ef3c 8abb d9bd a215 64be 484c ebbd
00000130: 021a 92be 44fd 823c 2206 363b d0d2 54be
00000140: 03b6 9fbd 3efb 29be d0db aebd 18d2 593d
00000150: 66dc d4bd 4a06 ef3d e669 1cbe 0d37 a43e
00000160: b472 1a3e d90d 2dbe d670 073f b714 34be
00000170: 5c1b 583e 7b1e 2fbe 4311 5b3e b1a0 5c3d
00000180: a9d2 653c 3de6 81be 5e65 b7be 2b97 613e
00000190: 1a4e 35be 3088 8e3e ceec 62bd f3cf 903d
000001a0: cde9 bc3e f473 29be 3f2d a03c 98ff d13c
000001b0: 1677 363e 55cf 80be d38d 243e 99c1 583d
000001c0: 534b 8abd cba9 0ebe 38be 2e3e b7ac 9fbe
000001d0: f7a1 9cbd 6bbf 933e fcde 633e 796a 82be
000001e0: 911d 53be 4de6 f43c 1895 023e 4d56 0dbe
000001f0: 7cf2 b53d 082a d8bd a6ae 993d 838b c93e
00000200: 6edf 353d 7d7b c8bd 2168 7d3d 2fb7 91be
00000210: b613 123e 092e 6e3e 7973 26be c5d3 dabd
00000220: 2150 c23c 026d 82bc 023b 81be 3191 9fbb
00000230: 3d0b ca3d bb70 63be eeb8 76be 2794 293d
00000240: ae75 8b3e 442a adbe c2f3 a63d 1f48 19be
00000250: 7aa2 a23e 0307 88be 8251 a93e 6509 aa3e
00000260: b590 513d 6f6d 1b3e 2861 0b3e 195a 803e
00000270: daef 653e 828b d1bd 9002 cf3b b01a 94bd
00000280: e3c1 c9be 919f ba3d 637d e1bc e6e0 c93e
00000290: 0658 963e c60d 50bd e852 29be 659b 3a3c
000002a0: b695 663d f870 203e 9726 943e ddea 15be
000002b0: 61b2 04be 46d1 cb3d 3c82 333e 0b1b 8c3e
000002c0: 9f57 05bd 4ab2 28be d8c9 87bc 82d4 a2ba
000002d0: 0cce 6d3d 0238 a83d 5b0a 4d3e ff26 11bc
000002e0: 3952 f83d 3895 0a3f 6f6d da3d c4b0 c23e
000002f0: fb14 173e 1e8f 713e 6c6d 233e 7975 223e
00000300: 79c5 82bd 24f6 c239 57f0 3e3e 461b b03e
00000310: f896 5dbe 14a9 68be db76 c9bd 8110 eebd
00000320: 2e53 ee3c e5d7 dabe 963b 99be e3da 0a3e
00000330: a26d 8abb b468 e1bc 30c2 21be 1122 25be
00000340: 512a 703e 0e6b 85be b916 b73e 4c98 5dbe
00000350: f80b b33e 2814 1b3e 4938 b63d df07 663e
00000360: 8c06 77be 68ec 68bd 8f8b 43b9 2fa0 f23d
00000370: 284f 133d 0cb7 103f b46e 3dbe 73d3 163e
00000380: f1d1 ff3d 8a80 8dbd 9726 a4be 10ea 8b3d
00000390: e98e 5b3e 0c61 28be fb5d 42be 93cb 31be
000003a0: 84e2 a43e 6433 bb3c 7589 b0bc 1faf bdbd
000003b0: 566e 2ebb decc c43d 85db 063e f89b 7b3d
000003c0: 8a39 ba3e a8d2 35bc d4bd 0cbe 1a11 02be
000003d0: 7ec9 99be 98d9 3e3e 763f c6be 4330 f6be
000003e0: 3752 2cbd edc6 893d 490a b23c 36f2 073e
000003f0: 20b7 403e 0467 6c3e 6e5f a33e b862 7b3d
-0.0010268007 0.028925907 -0.21544035 -0.086799994 -0.13076134 -0.022626901 0.1402595 0.19214374
-0.45643774 0.17748295 0.15813513 0.035889797 0.036725096 0.2033001 -0.10375595 -0.20328698
-0.28173488 0.08080737 -0.1496991 0.21776162 -0.10757359 0.12029058 0.067220435 0.08277593
-0.19332351 0.17318547 -0.34239233 0.2155595 0.13682616 0.11592255 -0.21806066 -0.105971724
-0.09768994 0.015246037 0.3026366 -0.13843517 -0.2573706 -0.09891436 -0.06338528 0.12326826
0.08803484 0.087674536 -0.34180543 -0.1984792 -0.41812208 0.05067427 0.25573692 0.46667504
0.37145087 0.07790411 0.22617304 -0.005734407 0.06034605 0.18887022 0.06269439 0.090665825
-0.75764674 -0.27216488 0.40439168 0.29757705 0.059474304 0.23417778 0.023193926 0.13167174
-0.2878666 -0.22089843 0.14809877 -0.12611662 0.0760134 -0.096659854 -0.30818322 0.1062217
0.029188229 -0.10631473 -0.22273877 -0.11489159 -0.28535467 0.015989907 0.0027774652 -0.20783544
-0.07798388 -0.16599748 -0.0853802 0.053178877 -0.103936 0.116711214 -0.15274772 0.3207325
0.15082818 -0.16899814 0.5290655 -0.17586027 0.21104187 -0.17101471 0.21393304 0.053864185
0.014027276 -0.2537097 -0.35819525 0.22030322 -0.17705575 0.27838278 -0.055401616 0.07070913
0.36897126 -0.16548139 0.019552825 0.025634572 0.17818865 -0.25158182 0.16069727 0.052919004
-0.06752648 -0.13931958 0.1706475 -0.31186458 -0.0764808 0.28856978 0.2225303 -0.25471857
-0.20616747 0.029894972 0.12752187 -0.13802452 0.08884141 -0.10554892 0.07504015 0.39364251
0.044402532 -0.097891785 0.061866883 -0.2846007 0.14265332 0.23259749 -0.16254987 -0.10684923
0.023719849 -0.01592112 -0.25240332 -0.004869603 0.09865425 -0.22210972 -0.24093983 0.041401055
0.2723822 -0.3382131 0.08151962 -0.14968918 0.31764585 -0.2656785 0.33069998 0.33210292
0.051163394 0.15178464 0.13611281 0.2506874 0.22454777 -0.10231687 0.006317444 -0.07231653
-0.39405736 0.09112466 -0.02752561 0.39429396 0.29364032 -0.050794385 -0.16535532 0.011389588
0.05629512 0.15668094 0.28935692 -0.14640374 -0.12958671 0.09952025 0.17530149 0.27364382
-0.032554265 -0.16474262 -0.016575739 -0.0012422951 0.05805783 0.08213808 0.20023482 -0.008859395
0.12125058 0.5413394 0.10665404 0.38025486 0.14754097 0.23589751 0.1595971 0.15865125
-0.06385321 0.00037185953 0.1864637 0.34395808 -0.21639621 -0.22720748 -0.09837123 -0.116242416
0.029092398 -0.4274284 -0.29928273 0.13560061 -0.004224495 -0.027515747 -0.15796733 -0.16126277
0.23453642 -0.2605824 0.35759524 -0.21640128 0.3497007 0.15144408 0.08897454 0.2246394
-0.24123591 -0.05686608 -0.00018648639 0.11846959 0.03596416 0.5652931 -0.18499261 0.14729099
0.12491215 -0.069092825 -0.32060692 0.06831753 0.21441235 -0.1644327 -0.18981163 -0.17362814
0.32204068 0.022851653 -0.02154992 -0.09261917 -0.0026616058 0.09609388 0.13169678 0.06142804
0.36372024 -0.011097588 -0.13744289 -0.12701836 -0.3003654 0.18637693 -0.38720292 -0.48083696
-0.042070594 0.06727395 0.02173342 0.1327599 0.18819857 0.23086172 0.31908745 0.061373442

base.mlp.fc1.0.bias f4 [64]
00000000: 6bf5 79bc 2b79 9cbc 1929 a93c fba2 1bbd
00000010: 8438 8cbc 1963 e5bb 777c 9ebc 96d4 9c3c
00000020: f2a0 89bc f51c 3db9 ff2f 18bb 62d6 513c
00000030: 0d51 b7bb 65cf 023b 700f 193b 18cb 0abc
00000040: a3db 0dbd 4dc3 953b 49d9 e23b b28f 88bc
00000050: a5d7 2f3c 6674 943b 7388 263c c183 d93b
00000060: 9180 a1bc ef09 513c 817b 88ba 7471 8b3c
00000070: 98e3 e1ba f940 0abc 30bc 67bc 8676 b33b
00000080: 63ec aebc 6307 743c c982 7e3c 3343 e6ba
00000090: 2a71 41bc ba5a 643c ceed 72bb c27d 853c
000000a0: ebe3 a03b dcb4 1e3b 9b28 a1bb 6f08 0e3d
000000b0: 2b9a 973c 0505 0a3c 798e ca3c ccf5 d93a
000000c0: 8063 c13c f101 e03b 7395 b33c 4a39 9fbc
000000d0: 8de3 d3bb 1217 c13c 3a82 b03c bca3 bc3b
000000e0: 40c5 613c 4a2a 523b f1e4 ddbb 0288 08bd
000000f0: a92b 6d3c d456 61bc 0a89 c6bc 6fae 12bd
-0.015256266 -0.019100746 0.02064948 -0.037997227 -0.017116793 -0.0070003388 -0.019346459 0.019144338
-0.016800378 -0.00018035232 -0.0023221967 0.0128074605 -0.005594379 0.0019960043 0.0023355149 -0.008471273
-0.03463329 0.004570401 0.006922875 -0.016670082 0.010732566 0.0045304773 0.010164368 0.0066380207
-0.019714626 0.012758716 -0.0010412784 0.017021872 -0.0017233966 -0.008438342 -0.0141439885 0.0054767756
-0.021352952 0.014894339 0.015534111 -0.0017567634 -0.011806766 0.0139376465 -0.0037068012 0.016295318
0.0049099824 0.0024216687 -0.0049181706 0.03467601 0.01850613 0.008424048 0.02472614 0.0016629039
0.023607016 0.006836169 0.021921849 -0.019436497 -0.006466335 0.023570571 0.021546472 0.0057568233
0.013779938 0.0032068663 -0.0067716767 -0.033332832 0.014475741 -0.013753612 -0.024235267 -0.035810884

base.mlp.fc1.2.weight f4 [64]
00000000: 0de4 7a3f e714 823f 5621 803f bf20 7f3f
00000010: 8da9 793f ec84 803f 09f9 803f 8af5 813f
00000020: b8c4 7e3f e07d 793f 720c 813f d1d7 7d3f
00000030: bda7 803f e503 833f 4f3a 783f 0de6 803f
00000040: 7ce6 7f3f 96f3 823f 10a2 803f 526e 7a3f
00000050: c1fd 7f3f 61c3 7d3f d227 7e3f c90c 853f
00000060: 7533 7f3f 3f0e 823f eda6 803f e6ea 803f
00000070: b716 813f 47a5 7e3f b839 813f 308c 7e3f
00000080: b908 7f3f 9e72 7f3f 7844 813f e7d4 793f
00000090: b039 823f 7fb5 803f be51 7c3f afb8 803f
000000a0: 10ed 813f a733 7c3f c08c 813f 010b 823f
000000b0: 2c45 803f be2b 7e3f 7210 823f af18 7f3f
000000c0: d51f 7a3f f1fe 7e3f 88ad 803f b6fc 803f
000000d0: 279d 7d3f bd17 7f3f 1dc7 803f 1f52 7e3f
000000e0: 9a53 7b3f 0cb2 7d3f 1394 833f e94e 803f
000000f0: f549 843f f23d 803f 10a6 7b3f 55d4 7a3f
0.9800423 1.0162629 1.0010173 0.9965934 0.9752434 1.0040565 1.0076 1.0153058
0.9951892 0.97457695 1.0081923 0.99157435 1.005119 1.0235564 0.9696397 1.0070206
0.99961066 1.0230587 1.0049458 0.97824585 0.9999657 0.9912625 0.9927951 1.0394527
0.9968789 1.0160598 1.0050942 1.0071685 1.0085057 0.99470943 1.0095739 0.9943266
0.99622685 0.99784267 1.009902 0.9759049 1.0173855 1.0055388 0.9856223 1.0056361
1.0150471 0.98516315 1.0121078 1.0159608 1.002111 0.99285495 1.0161269 0.9964704
0.9770482 0.9960776 1.0052958 1.0077121 0.9906792 0.99645597 1.0060765 0.99344057
0.9817444 0.990998 1.0279564 1.0024081 1.033507 1.0018904 0.98300266 0.9798024

base.mlp.fc1.2.bias f4 [64]
00000000: 251c a7bc 04cb 60bc 637e 863c fcc5 25bc
00000010: 6dc8 a3bc d707 c9bb 1693 a9bc 79b9 883c
00000020: 18e9 a4bc 12bc d53b 5415 b9bb 93c2 9e3c
00000030: 4fb8 8dbc 85a9 19bc 7fe3 433b dcaf fdbb
00000040: b0c0 efbc e6af 00bb 6420 7f3c d271 62bc
00000050: 60ec 0f3a 9e3f d13a 2761 fb3b af7e 843b
00000060: b280 87bc 21d0 853c a2bc 483b 351c 703c
00000070: f50d a2b9 8646 3abc fc6c 04bc ed01 433c
00000080: 503d 8fbc 25f5 7c3c 9fb2 8d3c 7ccf a4bc
00000090: fbbe 26bc 644e c13c 95e8 c9bb 0eac 813c
000000a0: f1f5 803c 6c2e 0abc 44af 55bc 7673 973c
000000b0: 785b 8b3c 8f7b 113c a5f0 b03c d921 15b9
000000c0: cc92 a03c 1010 68bc 6f2a 8e3c 9306 c3bb
000000d0: ab56 58bc 8c37 073d 33c7 9f3c be5f 86bb
000000e0: 661a 553c bb28 2cbc e057 b0bb a6b6 ebbc
000000f0: 45c0 7f3c e3f7 5bbc 6839 c5bc cd4b b7bc
-0.020399163 -0.013720278 0.016417688 -0.010118004 -0.019993031 -0.006134968 -0.020700019 0.016690003
-0.020130679 0.006522664 -0.0056482945 0.01937989 -0.0172998 -0.0093787955 0.0029890237 -0.0077419113
-0.029266685 -0.0019636094 0.015571687 -0.013821082 0.000549024 0.0015964394 0.0076714936 0.004043422
-0.016540859 0.016334595 0.0030630012 0.014655163 -0.00030909447 -0.011369353 -0.0080826245 0.011902315
-0.01748529 0.015439306 0.017297087 -0.020118468 -0.010177369 0.02359695 -0.006161759 0.015829112
0.015742274 -0.008433919 -0.013042275 0.018487673 0.01701139 0.008879556 0.021599123 -0.00014222357
0.019601248 -0.014163986 0.017354218 -0.0059517114 -0.013204257 0.033011958 0.019504165 -0.004100769
0.013006782 -0.010507758 -0.0053815693 -0.028773617 0.0156098055 -0.0134258 -0.024075225 -0.022375012

base.mlp.fc_h.0.weight f4 [64, 64]
00000000: 2024 093d 93ad 17be 0b51 243d bab4 213e
00000010: 5ee3 85be be42 3c3e 8e2c c9bd b0b6 36be
00000020: 3a72 7bbe 83e7 563e f7fa 713d 5cc5 0cbf
00000030: b4eb a9be 71c9 9ebd 096e 82be b829 6e3e
00000040: f834 11bd a454 943e 7be2 2c3e bd64 bdbb
00000050: 086f abbd 17ff 993c 5ff3 c13e 3ced b9be
00000060: 53e4 20be bdc6 013e 22b4 90be 8804 243e
00000070: b8de 933e 8056 30bb 3433 b6bd c764 09be
00000080: 7fe6 d83e 1a25 99bb b8f8 043c 73d1 26be
00000090: 20b2 703c c225 e8be cc68 c3be 22f9 0cbd
000000a0: bf71 29bd 27f3 833d 68a3 19bd 8df3 4bbe
000000b0: 5107 ad3e f6b5 1f3b 74e0 30bd 9a0a 583e
000000c0: 3c43 bfbd 9b34 3d3d e15a a03e 8b29 9cbe
000000d0: 11a8 763e 6a95 b73d f3a1 743e 3689 2ebe
000000e0: ae6d 64be 463b 093c 22f1 233e 847b 9f3d
000000f0: ca2d 24be 6b29 d7bd fd68 2ebe a78e 0ebe
00000100: 7f1e bc3e 9075 2ebd 4530 243d 885e 4fbe
00000110: 33a0 eb3d 7612 1d3f fb3b 1ebf 3434 e7bd
00000120: e36b aebd 7b0d fe3c 1e66 97be 0cb3 253d
00000130: 286d 6a3d 4716 0f3c 30f0 64be b442 223d
00000140: 6d8d 093d 2f71 48be 5b24 043e f678 113d
00000150: 0380 013e 37d9 a9bc 9565 9e3d 534a 8bbd
00000160: d8ff 47bc 8a10 dbbe 630c c83d 2a09 9b3e
00000170: 99cb 40be 7932 613e 2680 873d 31c0 b6bb
00000180: 79fa 6dbe a0cf dd3d 2397 aebd 7cfd fe3d
00000190: 8bca 82be 86f5 bd3d 1898 613e 119e 1b3e
000001a0: bab2 a3be f0a5 123d 2792 733e 25af 58be
000001b0: 87b0 d13e 9e1d 79be 5966 033e 3269 d73d
000001c0: 8058 1b3d 5b4d 003e a7f0 0f3d 67bc 983e
000001d0: 9f3a 71bd 5dc7 b3be 1dfe 103e cb3a 7cbe
000001e0: 00f7 c9bd c701 dcbd e939 df3d 8256 4f3e
000001f0: a5f4 1d3e 1802 1cbe b07c 8c3e 4964 963b
00000200: 2e70 94be f470 7c3e 876c 5a3e a7f7 9fbd
00000210: 52a9 863c 3897 dbbd 6712 8fbc 5907 223e
00000220: 852f 8cbe 06b2 673e cb50 3fbe 4420 25be
00000230: 417a ee3e fb37 0b3d 9616 b4bd aa2a 0f3c
00000240: a58d dcbd b8e4 d63e 4ce9 293e 30d1 e53e
00000250: 7237 393e d42d 69be 16b4 a33e 740f a93e
00000260: 9607 583e aadb 7c3e 2c5f 763e 8403 4c3e
00000270: 4c29 e0bd cee1 1fbd f7c6 1cbe 9b14 26be
00000280: fd2f d03c 236c 20bb bb59 98be 08ed 263e
00000290: c070 eabb 232d 2bbe 725e 69bd ed51 f53d
000002a0: 99c6 f0bb 8a09 2c3c def5 a13e b2c7 d53d
000002b0: 4033 f3bd 165b 463d 1072 69be 2810 823d
000002c0: a103 1bbe dcf6 103e 17fe 8a3d aadc 9a3e
000002d0: 02eb 1bbe 74a2 643e a8b6 bf3e 93e9 8dbc
000002e0: 2a95 d23b c3c7 edbd 0548 48be f248 01bf
000002f0: 1e05 c63d 9b7b 8fbe bc67 fe3d a47b 583e
00000300: 134e fb3d a0f4 a7be 9e2e 84bd 7347 a73b
00000310: 00ed c2bd 44eb 99be cca3 1a3d 9a31 f53d
00000320: e332 71be 33ac de3e c087 45be edba 17be
00000330: 5e5c 11bd f7f0 8abc 10d0 833e 5fea f4be
00000340: 7259 41bd 0f90 85bd 7081 1cbe 248c 273e
00000350: 83ee fcbd a686 83bc bf02 043e 2686 a5bd
00000360: f308 ed3e a9f7 60be bd64 a2be 9274 1abd
00000370: 2a35 1fbe 642a f13d 5d45 e9be 4677 53bd
00000380: 8f02 df3d 6141 35be c658 b73e 3f17 403d
00000390: 3214 8c3c 1310 9c3e a331 58be 448d 0bbe
000003a0: c84b 6b3e 81ec 33be c0b5 4b3e ee99 bdbe
000003b0: 2981 30bd 6788 493e 9084 94bd cd90 2cbe
000003c0: 6a9d ee3d 3fb6 233c fd47 0bbe a87b fc3e
000003d0: ea52 7c3d 953d c1bd 7155 d03d 6b4c 483c
000003e0: 94b1 693c 8b31 69be 7618 423e 004b 923e
000003f0: 2047 a23d 714d b3bd 52a7 48be 82d5 51be
0.033481717 -0.14812307 0.04011635 0.15791598 -0.2615003 0.18384835 -0.09822951 -0.17843127
-0.24555293 0.20986752 0.05907723 -0.54988647 -0.3318764 -0.07753266 -0.25474575 0.23258102
-0.035450906 0.28970826 0.1688327 -0.005779831 -0.08370787 0.018798394 0.3788099 -0.36313808
-0.15712099 0.12673469 -0.2826243 0.16017354 0.28880858 -0.0026907027 -0.08896485 -0.1341735
0.42363355 -0.0046736123 0.00811594 -0.16290836 0.014690906 -0.45341307 -0.3816589 -0.03441728
-0.041368242 0.06442862 -0.037509352 -0.19917126 0.33794644 0.0024369932 -0.043182805 0.21097794
-0.09338996 0.046192747 0.31319335 -0.30500445 0.2408755 0.08964045 0.23889904 -0.1704453
-0.22307464 0.008375948 0.16009954 0.077872306 -0.16033092 -0.10505947 -0.17032237 -0.13921605
0.36742017 -0.042592585 0.040085096 -0.20250905 0.11505165 0.61356294 -0.6181027 -0.11289254
-0.085166715 0.031012287 -0.29570097 0.040453956 0.057233006 0.008733339 -0.2235725 0.039614394
0.03358214 -0.19574426 0.12904494 0.035515748 0.12646489 -0.020733459 0.07734219 -0.068012856
-0.012206994 -0.42786056 0.097679876 0.3028043 -0.18827666 0.2199191 0.06616239 -0.00557711
-0.23240079 0.10830617 -0.08524921 0.12450692 -0.25545153 0.092753455 0.22030675 0.15197016
-0.31972295 0.03580278 0.23786221 -0.21160562 0.40954992 -0.24327704 0.12832011 0.10518111
0.037926197 0.12529509 0.035141613 0.2983124 -0.058893796 -0.3511304 0.14159437 -0.24631803
-0.09861565 -0.107425265 0.10899717 0.20247844 0.15425356 -0.15235174 0.2743888 0.0045895916
-0.28991836 0.24652463 0.21330462 -0.07810908 0.01643816 -0.10722202 -0.01746483 0.15823115
-0.27380005 0.22626504 -0.18683164 -0.1612559 0.46577647 0.033988934 -0.087933704 0.008738199
-0.10769204 0.41971374 0.16592902 0.4488616 0.18087557 -0.22771388 0.31973332 0.33019602
0.21096644 0.2469317 0.24059743 0.19923216 -0.10945377 -0.039033704 -0.15310274 -0.16218798
0.025413508 -0.0024478517 -0.2975596 0.16301358 -0.007154554 -0.16716437 -0.056974836 0.11978517
-0.0073478934 0.010500321 0.31632894 0.104384795 -0.118750095 0.04842671 -0.22797418 0.06350738
-0.15138103 0.1415667 0.06786745 0.30246478 -0.15226367 0.22327596 0.37444043 -0.01732329
0.006426473 -0.11610367 -0.19558723 -0.5050193 0.09668945 -0.2802399 0.124221295 0.21140915
0.12270751 -0.32803822 -0.06454204 0.005104953 -0.095178604 -0.30062306 0.037753865 0.11972351
-0.23554568 0.43490753 -0.19290066 -0.148174 -0.03548848 -0.016960604 0.25744677 -0.4783506
-0.047204442 -0.065216176 -0.15283751 0.16362053 -0.1235018 -0.016055416 0.12891673 -0.080822274
0.4629589 -0.21969475 -0.31717482 -0.037708826 -0.15547624 0.117756635 -0.45560732 -0.05162742
0.1088916 -0.17700721 0.35809916 0.04689717 0.017099474 0.30481014 -0.21112685 -0.13628107
0.22978127 -0.17570688 0.19893551 -0.37031502 -0.043091927 0.1968094 -0.07251847 -0.16852112
0.11651118 0.009992181 -0.1360168 0.49313092 0.06160251 -0.09435574 0.10172547 0.012225251
0.014263529 -0.22772805 0.18954644 0.28572845 0.07923722 -0.08755005 -0.19595078 -0.20491603

base.mlp.fc_h.0.bias f4 [64]
00000000: 0000 0000 0000 0000 0000 0000 0000 0000
00000010: 0000 0000 0000 0000 0000 0000 0000 0000
00000020: 0000 0000 0000 0000 0000 0000 0000 0000
00000030: 0000 0000 0000 0000 0000 0000 0000 0000
00000040: 0000 0000 0000 0000 0000 0000 0000 0000
00000050: 0000 0000 0000 0000 0000 0000 0000 0000
00000060: 0000 0000 0000 0000 0000 0000 0000 0000
00000070: 0000 0000 0000 0000 0000 0000 0000 0000
00000080: 0000 0000 0000 0000 0000 0000 0000 0000
00000090: 0000 0000 0000 0000 0000 0000 0000 0000
000000a0: 0000 0000 0000 0000 0000 0000 0000 0000
000000b0: 0000 0000 0000 0000 0000 0000 0000 0000
000000c0: 0000 0000 0000 0000 0000 0000 0000 0000
000000d0: 0000 0000 0000 0000 0000 0000 0000 0000
000000e0: 0000 0000 0000 0000 0000 0000 0000 0000
000000f0: 0000 0000 0000 0000 0000 0000 0000 0000
0.0 0.0 0.0 0.0 0.0 0.0 0.0 0.0
0.0 0.0 0.0 0.0 0.0 0.0 0.0 0.0
0.0 0.0 0.0 0.0 0.0 0.0 0.0 0.0
0.0 0.0 0.0 0.0 0.0 0.0 0.0 0.0
0.0 0.0 0.0 0.0 0.0 0.0 0.0 0.0
0.0 0.0 0.0 0.0 0.0 0.0 0.0 0.0
0.0 0.0 0.0 0.0 0.0 0.0 0.0 0.0
0.0 0.0 0.0 0.0 0.0 0.0 0.0 0.0

base.mlp.fc_h.2.weight f4 [64]
00000000: 0000 803f 0000 803f 0000 803f 0000 803f
00000010: 0000 803f 0000 803f 0000 803f 0000 803f
00000020: 0000 803f 0000 803f 0000 803f 0000 803f
00000030: 0000 803f 0000 803f 0000 803f 0000 803f
00000040: 0000 803f 0000 803f 0000 803f 0000 803f
00000050: 0000 803f 0000 803f 0000 803f 0000 803f
00000060: 0000 803f 0000 803f 0000 803f 0000 803f
00000070: 0000 803f 0000 803f 0000 803f 0000 803f
00000080: 0000 803f 0000 803f 0000 803f 0000 803f
00000090: 0000 803f 0000 803f 0000 803f 0000 803f
000000a0: 0000 803f 0000 803f 0000 803f 0000 803f
000000b0: 0000 803f 0000 803f 0000 803f 0000 803f
000000c0: 0000 803f 0000 803f 0000 803f 0000 803f
000000d0: 0000 803f 0000 803f 0000 803f 0000 803f
000000e0: 0000 803f 0000 803f 0000 803f 0000 803f
000000f0: 0000 803f 0000 803f 0000 803f 0000 803f
1.0 1.0 1.0 1.0 1.0 1.0 1.0 1.0
1.0 1.0 1.0 1.0 1.0 1.0 1.0 1.0
1.0 1.0 1.0 1.0 1.0 1.0 1.0 1.0
1.0 1.0 1.0 1.0 1.0 1.0 1.0 1.0
1.0 1.0 1.0 1.0 1.0 1.0 1.0 1.0
1.0 1.0 1.0 1.0 1.0 1.0 1.0 1.0
1.0 1.0 1.0 1.0 1.0 1.0 1.0 1.0
1.0 1.0 1.0 1.0 1.0 1.0 1.0 1.0

base.mlp.fc_h.2.bias f4 [64]
00000000: 0000 0000 0000 0000 0000 0000 0000 0000
00000010: 0000 0000 0000 0000 0000 0000 0000 0000
00000020: 0000 0000 0000 0000 0000 0000 0000 0000
00000030: 0000 0000 0000 0000 0000 0000 0000 0000
00000040: 0000 0000 0000 0000 0000 0000 0000 0000
00000050: 0000 0000 0000 0000 0000 0000 0000 0000
00000060: 0000 0000 0000 0000 0000 0000 0000 0000
00000070: 0000 0000 0000 0000 0000 0000 0000 0000
00000080: 0000 0000 0000 0000 0000 0000 0000 0000
00000090: 0000 0000 0000 0000 0000 0000 0000 0000
000000a0: 0000 0000 0000 0000 0000 0000 0000 0000
000000b0: 0000 0000 0000 0000 0000 0000 0000 0000
000000c0: 0000 0000 0000 0000 0000 0000 0000 0000
000000d0: 0000 0000 0000 0000 0000 0000 0000 0000
000000e0: 0000 0000 0000 0000 0000 0000 0000 0000
000000f0: 0000 0000 0000 0000 0000 0000 0000 0000
0.0 0.0 0.0 0.0 0.0 0.0 0.0 0.0
0.0 0.0 0.0 0.0 0.0 0.0 0.0 0.0
0.0 0.0 0.0 0.0 0.0 0.0 0.0 0.0
0.0 0.0 0.0 0.0 0.0 0.0 0.0 0.0
0.0 0.0 0.0 0.0 0.0 0.0 0.0 0.0
0.0 0.0 0.0 0.0 0.0 0.0 0.0 0.0
0.0 0.0 0.0 0.0 0.0 0.0 0.0 0.0
0.0 0.0 0.0 0.0 0.0 0.0 0.0 0.0

base.mlp.fc2.0.0.weight f4 [64, 64]
00000000: a4ba 463d d443 1bbe bd4a e53c b612 243e
00000010: cd13 88be 7cd6 303e e91c 91bd c2b1 2ebe
00000020: cd6e 67be 2a61 433e eeb2 a33d 356b 06bf
00000030: 9b73 b1be db2e 96bd cb07 7bbe ac5a 523e
00000040: 964d dbbc 575f 9d3e 7856 2d3e 1e2b 27bd
00000050: 49e8 99bd 280d 4a3b e2ab b13e 54ac bfbe
00000060: b2bf 1dbe ee12 cc3d 07d8 7cbe 850e 233e
00000070: 1d98 933e 3118 0bbb 3c39 6dbd c834 31be
00000080: 44d6 dc3e 860d 143c ab14 293b 9000 39be
00000090: 25b4 0a3d 4ad1 f0be 8df7 b6be 13ce f6bc
000000a0: 2113 33bd 555a a73d 8e4b 2dbd 1c26 5fbe
000000b0: 4fff bc3e 45c1 ffbb e673 bcbc e5ce 673e
000000c0: 9d44 b6bd 536d 6a3d 3ed9 8e3e 7a15 a6be
000000d0: c697 7a3e cc10 903d e5c0 853e a7f5 40be
000000e0: 167c 4dbe 265d e63b 9084 383e a939 743d
000000f0: 7284 0dbe 34ae f9bd 1e9e 37be eef8 0cbe
00000100: 921c c23e e5ad 11bd 60e9 b13c 85b8 36be
00000110: 0494 e53d f0b9 1a3f 3a21 1ebf 7da9 f7bd
00000120: 3e08 a4bd d9e2 423d c04a 8abe 6864 593d
00000130: dc60 813d a2ed 83bb 8564 70be d680 133d
00000140: 6280 473d 2c39 4abe eb9f 083e 0536 213d
00000150: e3ff 073e 898d c0bc 38d6 a13d 8f6b cfbd
00000160: 4601 18bd e6a9 d4be f461 853d ba44 8d3e
00000170: de56 36be 70ac 573e 712e 9a3d 2767 8cbc
00000180: ea47 74be 0b44 b73d 08b0 d5bd 991c fd3d
00000190: 1050 7bbe 2218 d83d 850c 763e 348a 153e
000001a0: 84f2 afbe 4624 3f3d 6195 793e 9314 72be
000001b0: 3a57 e03e 94aa 80be cb10 dc3d 7657 063e
000001c0: daaf f13c 0e63 093e 5b1f e63c bead 963e
000001d0: 119b 06bd 0627 aebe ae23 0b3e f6cb 8bbe
000001e0: e47a debd a70c c6bd 4992 f23d 4845 313e
000001f0: 21f3 383e cb72 0abe 28dd 953e 470b 963c
00000200: 8836 98be e3dd 693e c618 593e 980e 87bd
00000210: 127a 9a3b 580e e6bd 3b0e babc 08b2 1b3e
00000220: 466c 80be 5c03 673e 6d6a 4dbe 5faf 12be
00000230: 9a7e eb3e 3896 c43c 304b c1bd c356 85ba
00000240: 0154 f0bd 6ada d33e 167e 3b3e c06d e83e
00000250: 9f82 483e 105d 5fbe 3530 ab3e 4856 aa3e
00000260: 88a3 603e be1d 873e d108 5c3e 5da4 3e3e
00000270: 5313 f5bd 9a1c 2fbd b861 32be 24cc 24be
00000280: a0a9 183d 7af9 0b3c 9cb0 96be 505f 113e
00000290: 8cea 8ebb 2188 32be 7018 46bd a694 fd3d
000002a0: a6bd 19bc 927b 68bb 0419 a93e f58d ea3d
000002b0: 7b21 eebd 21d3 9a3d 2a2a 73be 781e 913d
000002c0: 25f4 1bbe 48ba 003e 181d 913d 9fe9 9e3e
000002d0: 4008 13be dc67 603e 64f6 bf3e 6dee 97bc
000002e0: 1171 5a3b b6c2 e6bd f3fb 53be e3bf 03bf
000002f0: b3d4 d53d a31e 8abe f011 e93d 1555 5a3e
00000300: e720 e73d 6b9f a2be 25a6 8bbd 543a ad3c
00000310: 48f2 e4bd 8a2f 93be 7dce 603d e5ef f13d
00000320: 9d64 76be 0e78 d73e de39 3bbe 51f1 1dbe
00000330: ba73 acbc 2f4f 6cb8 24af 7d3e c91e fbbe
00000340: 5d6a 40bd d433 a5bd c8d4 19be 54a6 333e
00000350: 924a 08be aa29 7cbc b7d9 de3d 7332 a9bd
00000360: 411e fb3e 91b1 54be 5514 a6be 57cd 31bd
00000370: 3f23 27be eed4 003e a2f7 e9be e5e8 65bd
00000380: 5701 d73d 6a4d 3cbe 9a33 b83e 559c 453d
00000390: d893 b93c 0533 a13e cab3 4ebe b976 0bbe
000003a0: 4540 683e aa5c 1ebe 4891 373e f5e4 bdbe
000003b0: ffb4 41bd 72a0 343e 34c6 a7bd cd5a 2ebe
000003c0: 181e d23d 4705 893c 9123 0abe cc8e 013f
000003d0: 63a7 703d 06a1 bdbd 34db ac3d d68c e53c
000003e0: b2c6 d73c b600 7dbe bdc7 3b3e 6d1a 9b3e
000003f0: bb94 753d 6b80 8ebd 3cc0 3fbe 5653 4cbe
0.048517838 -0.15162593 0.02798974 0.16022763 -0.26577607 0.1726932 -0.07085592 -0.17059997
-0.22600861 0.19080034 0.079931125 -0.52507335 -0.34658512 -0.07333156 -0.24514692 0.20542401
-0.026770394 0.307368 0.16927516 -0.040812604 -0.07515008 0.0030830596 0.3470145 -0.37436163
-0.15405157 0.09964548 -0.24691783 0.15923508 0.2882699 -0.0021224136 -0.05791591 -0.1730529
0.43132222 0.009036427 0.0025799673 -0.18066621 0.033863205 -0.47034675 -0.3573574 -0.03012756
-0.043719415 0.08171526 -0.042308383 -0.21791881 0.36913535 -0.007805022 -0.023004483 0.22637518
-0.08899806 0.057233166 0.27900118 -0.3243826 0.2447196 0.07034454 0.2612373 -0.18843709
-0.20066866 0.007030147 0.18019319 0.0596253 -0.13820055 -0.1219143 -0.1793141 -0.13766834
0.37912422 -0.03556623 0.021717727 -0.17843826 0.11209872 0.6043997 -0.6176945 -0.12092874
-0.080093846 0.04757962 -0.27010155 0.05307427 0.063173026 -0.004026131 -0.23475845 0.03601154
0.04870642 -0.19748372 0.13342254 0.039358158 0.13281207 -0.02350499 0.07902187 -0.10127937
-0.03711059 -0.41535872 0.06512824 0.27591497 -0.17806575 0.21061873 0.07528389 -0.01713903
-0.23855558 0.08948525 -0.10433966 0.1235897 -0.2454226 0.10551478 0.24028213 0.14603502
-0.34364712 0.046665452 0.2437339 -0.23640661 0.4381655 -0.2513014 0.107453905 0.13119301
0.029502798 0.13416693 0.028091123 0.2942943 -0.032862727 -0.34014148 0.1358783 -0.27304047
-0.10863283 -0.09670382 0.11844308 0.17311585 0.18061496 -0.13520353 0.2927029 0.018315924
-0.29729104 0.2283855 0.21200857 -0.065945804 0.004714259 -0.112332046 -0.022711864 0.15204632
-0.25082606 0.22559875 -0.2006013 -0.14324711 0.45995027 0.023997411 -0.09438169 -0.0010172952
-0.117347725 0.41377574 0.18309817 0.45396233 0.19581078 -0.21812844 0.33435217 0.33268952
0.21937382 0.2638988 0.21487738 0.18617387 -0.119665764 -0.042751886 -0.17420089 -0.16093498
0.037271142 0.008543367 -0.29431617 0.14196515 -0.0043614563 -0.17434742 -0.04836315 0.12381868
-0.009383595 -0.0035474044 0.33026898 0.114528574 -0.1162748 0.07559801 -0.23746553 0.070858896
-0.15229852 0.1257106 0.07085627 0.31037614 -0.14358616 0.21914619 0.3749267 -0.018546307
0.0033331553 -0.11267607 -0.2070158 -0.5146467 0.1044096 -0.269765 0.113803744 0.21321519
0.112855725 -0.3176225 -0.06818799 0.021145977 -0.11179024 -0.28747207 0.054884423 0.118133344
-0.24061818 0.42083782 -0.18283793 -0.15424086 -0.021051276 -5.634053e-05 0.24773842 -0.49046925
-0.046976436 -0.08066526 -0.15022576 0.17543918 -0.13309696 -0.015390793 0.108813696 -0.082615755
0.4904652 -0.20770861 -0.32437387 -0.043408718 -0.16322039 0.12581226 -0.4569674 -0.05613031
0.104983024 -0.18388906 0.3597687 0.048244793 0.022653505 0.31484237 -0.20185772 -0.13619508
0.22680767 -0.15465036 0.17926514 -0.37088743 -0.047291752 0.1763933 -0.08192101 -0.17026825
0.10259646 0.01672615 -0.1349013 0.50608516 0.058753382 -0.092592284 0.08440247 0.028021257
0.026339862 -0.24707302 0.18337913 0.302936 0.059956294 -0.069580875 -0.18725675 -0.19953665

base.mlp.fc2.0.0.bias f4 [64]
00000000: f069 b639 12e7 90bb dc76 663c 91e3 54bb
00000010: 36a1 41bc f19d 59bc 216e 013d 7cd9 bcbc
00000020: 1d1f c1bc 7006 043d 3cfc b3bc 8b4a 3bbc
00000030: 6ab9 01bb e5fa 6bbb ed82 9fbc 813c 2f3c
00000040: 7a76 1bbc c7d3 8e3b 1218 b4bb 617c 503a
00000050: 1200 12bc ae28 ca3a 8cd8 6e3c b316 5b3b
00000060: 9feb 51bb 48f4 6cbc 3852 b83a 59a0 6fbb
00000070: 2c2d cf3c 5ce8 8e3c e321 e43b 23a7 9d3c
00000080: d43b 3fbc 12d5 b6bc 49f3 c43b ce87 0b3b
00000090: 6161 9cbb 31d6 97bb 4cc5 973c ad22 963c
000000a0: 891a 87bc 27f5 6eba cba9 03bc 71e9 103a
000000b0: 102c abbc c7c9 883c bd98 df3b 7a62 d93b
000000c0: f840 953c 76a7 22bc 12db 003c 752a 68bc
000000d0: ab29 eb3b d5d9 9bbc e113 c6bb e44b b43b
000000e0: b6dc f53a 9023 0fbc b6fa b4ba 792d 253c
000000f0: 10c4 c1bc f1a3 42ba 8f2e a63c e910 0639
0.00034792675 -0.004422077 0.014066424 -0.0032484273 -0.011818221 -0.013282285 0.031599168 -0.023052923
-0.023574406 0.0322327 -0.02197086 -0.011431347 -0.0019794353 -0.00360077 -0.01947161 0.010695578
-0.009488696 0.004358742 -0.0054960335 0.0007953104 -0.00891115 0.00154235 0.014577996 0.0033430278
-0.003203131 -0.014462538 0.0014062589 -0.003656408 0.025290094 0.017444782 0.0069620474 0.019244736
-0.011671979 -0.022318397 0.006010447 0.0021290663 -0.0047723507 -0.004633688 0.018526696 0.018327082
-0.016492145 -0.000911551 -0.008036087 0.00055279495 -0.020895034 0.016697777 0.0068236277 0.006634054
0.018219456 -0.009927621 0.00786473 -0.014170279 0.007176598 -0.019024769 -0.00604485 0.005502211
0.0018757794 -0.008736506 -0.0013807628 0.010081642 -0.02365306 -0.0007424942 0.020285873 0.00012785535

base.mlp.fc2.0.2.weight f4 [64]
00000000: 757d 7f3f 5967 813f 991d 813f 3909 823f
00000010: e9fb 813f 9996 7d3f 4034 7b3f 080f 7b3f
00000020: 539b 7f3f 12f1 7f3f 431e 7e3f cae5 813f
00000030: 1458 793f ec48 7d3f 1365 823f 3666 823f
00000040: 8412 823f e951 793f 5ded 7b3f 9c4d 833f
00000050: 3ef4 7e3f 47cd 813f 9b33 7d3f 515b 7d3f
00000060: 8950 7b3f 61a8 7f3f 7455 7c3f 9b9c 813f
00000070: 65ee 813f 239c 813f fd94 843f d1b0 7f3f
00000080: 7a27 813f 467d 813f b638 823f 02ff 803f
00000090: a39d 7e3f c6a6 7a3f 8ff7 7b3f 2647 7e3f
000000a0: 1002 7e3f ac02 7d3f e9c6 803f 48f0 7d3f
000000b0: 64f0 7c3f 0d9c 7a3f c27e 803f aa63 803f
000000c0: 57ec 7d3f 385d 7f3f 4a59 7f3f 5084 823f
000000d0: 3433 803f c086 803f 29b3 793f 6fb6 7c3f
000000e0: 8c35 7f3f ef5e 7b3f 6779 7e3f 4e49 813f
000000f0: 5066 813f 213b 823f dcd8 813f 6690 823f
0.9980081 1.0109664 1.0087157 1.0159065 1.0155002 0.9905792 0.981266 0.9806981
0.9984638 0.9997722 0.99264926 1.0148251 0.9740002 0.98939395 1.0187095 1.0187442
1.01619 0.9739061 0.9840906 1.025806 0.99591434 1.0140771 0.9890687 0.9896746
0.9816976 0.998663 0.9856789 1.0125917 1.0150877 1.0125774 1.0357968 0.99879175
1.0090172 1.0116355 1.0173557 1.0077822 0.99459285 0.97910726 0.9842462 0.99327314
0.992219 0.988322 1.0060703 0.99194765 0.98804307 0.97894365 1.0038683 1.0030415
0.9918875 0.99751616 0.9974562 1.0196629 1.0015626 1.0041122 0.97539 0.9871587
0.9969108 0.9819173 0.99403995 1.0100496 1.0109348 1.0174295 1.0144305 1.0200317

base.mlp.fc2.0.2.bias f4 [64]
00000000: 2c41 1b3c b6e7 913b 0887 333c e996 0ebc
00000010: fe16 ed3b 8aa0 78bc ebc1 8d3c 4245 74bc
00000020: 65ac a5bc c437 623c f9de 90bc 6b8f edba
00000030: 79bd 2a3c 4457 84bc 2435 48bc 2ab7 463c
00000040: ace3 853a 648b ecba a3d9 72bc 87f4 2dbb
00000050: 22d0 17bc 5446 f03b d505 093c cee1 bc3a
00000060: 6cfb d33b aca7 88bc 95b3 613c e4f9 4f3c
00000070: 2e77 1abb dab8 a43c 463a 4bbb 3a11 8c3c
00000080: 1bcb ffbb 54a2 d0bb e123 1d3c 550e dc3b
00000090: cf12 cdbc 301b 4c3b dc4f 1b3b 5867 e13c
000000a0: 4cf2 fdbb 15c1 bdbb f1e1 9b3b a928 693b
000000b0: 1636 11bc dd24 9a3a f8c3 b83b e2b1 6cba
000000c0: e7e2 9cbc 3a6e 9d3b 2877 d53c 6530 0abc
000000d0: 5438 ed3b c756 91bc f6b7 023b c0d0 563c
000000e0: 63f7 883c 4035 00bd b8a0 debb 258c b43c
000000f0: a9ab 7cbb 6e20 903c 704b e63b f365 31bc
0.009475987 0.004452671 0.010957487 -0.008702972 0.007235407 -0.015174994 0.017304381 -0.0149090905
-0.020223806 0.013807241 -0.017684447 -0.0018124407 0.01042115 -0.016154893 -0.012219701 0.012128631
0.0010214946 -0.0018046913 -0.014822396 -0.0026543455 -0.009265931 0.0073326025 0.008363207 0.0014410557
0.006469181 -0.016681515 0.013775726 0.012693856 -0.0023569572 0.020107675 -0.0031010075 0.017098058
-0.0078061945 -0.0063670073 0.009591074 0.0067155757 -0.025033383 0.0031144135 0.0023698723 0.027515098
-0.0077498313 -0.0057908394 0.004757159 0.0035577214 -0.008862993 0.0011760254 0.0056385957 -0.0009029192
-0.019151164 0.0048044 0.026057795 -0.00843439 0.007239381 -0.017741574 0.0019946075 0.013111293
0.016719526 -0.031300783 -0.0067940615 0.022039482 -0.0038554466 0.017593589 0.007028036 -0.010827529

rnn.rnn.weight_ih_l0 f4 [192, 64]
00000000: 45ce fcbc 4569 71bd d0e3 6cbc 1002 2a3d
00000010: 3f35 7f3b 939d 183d 99cc 3fbd 97f8 e23a
00000020: bd68 04bd d344 1dbd 6e4d fd3d 532a 2a3c
00000030: ab0f abbb c1b3 3b3c e500 aebd 27ae 983d
00000040: bb4e 3bbd 9ef2 d3bc 8de6 6dbd 41cc daba
00000050: 1d72 74bd bb1b 873c 045e dcbd e110 fabd
00000060: c434 5bbd a05d 283d aea9 643d 22c3 1d3b
00000070: 93ff 033d 5750 9aba ee32 e1bd dcb8 0abc
00000080: 1123 32bd ce72 a63d ff07 ef3d 72ed 79bd
00000090: d5ca 853d 86ff ef3d a0e4 673d 98c8 0e3c
000000a0: b7fc c4bd 86e1 993d 1cda 82bd 34ca 85bc
000000b0: 9489 e63d 30f5 83bd 0af5 1fbe 4287 3f3b
000000c0: 2892 163e 7b50 b83d 8217 443d d74d 07bd
000000d0: 7773 15be fa57 6cbd d797 13bd 707f 20bd
000000e0: 4334 273c 146c bd3d 4d3e d3bc 24d2 b13c
000000f0: dbb8 7c3d 6a24 e2bd af46 08bd 5a78 833b
00000100: c8bf bcbc b1e7 87bd 3ff0 33bd 5cb1 223e
00000110: ac22 4c3e 86bd 9f3d 7430 753d 7dc6 0c3e
00000120: edf2 603c 8f79 ac3d 0ef7 a2bd 7722 0bbe
00000130: b168 10bc b4da e23c 20d9 dc3d a4d3 59be
00000140: 45f6 20bc d6fb d4bd 60b0 03be f4a9 1dbd
00000150: e003 bc3c c9df 6abb bc18 763d 8d90 ebbd
00000160: 7714 d83c d659 13bc a01b 9abb 7639 493d
00000170: 89b1 95bd 6bec 573d 0afc 55bd d086 0fbd
00000180: 7e34 5abd 170a 32bd cbd1 8ebc 2f97 043d
00000190: 3e1e 90bb bc27 803d f6ee 27bd 0d4a fdbd
000001a0: 228b 3abd e7ab 6fbd a3e2 4dbc 38b5 803d
000001b0: 4725 f83d 13d2 d83d 27f4 52bc 35c9 17bd
000001c0: 52c6 5d3c e75f 08bd 2483 d43d fc8b 4b3c
000001d0: ff53 e9bc b653 81bc fa5b f93d 1b45 d5bc
000001e0: d031 ab3d 4239 593d 55c8 cf3d c670 f23b
000001f0: 52f1 57bd 2487 9f3d c8a2 f33d 1356 fc3c
00000200: 6d45 bf3b ee98 0abc cc22 2f3d 01d8 f13d
00000210: 516a 05bb c257 103e 2222 94bc 371b ce3d
00000220: 5a1d e63c 900f 55bc 440c 833d 2e9a 00bd
00000230: 5cc0 ec3d 01c9 50bc bdf1 78bd f017 3fbd
00000240: f41e 023e 6678 073d 42d6 673d 4183 8dbc
00000250: 2b3c d43c a9fe cd3d 6d3b 183d 4a20 c43c
00000260: 5760 903d e9e7 cd3c 1cbc 02bd 14fb 733d
00000270: cf4f 26bd e6b8 32bd f11f 92bd 2666 83bc
00000280: 867d 1bbe 58f2 14bd 3190 b53b 46c9 f63c
00000290: 7b18 2d3d 8a08 c2bd c2ab d8bc 5a43 00bd
000002a0: cb47 2abe 5f10 35be 18f3 b3bc e9ab d9bd
000002b0: f4e4 c23d e475 a2bd 86fb 7d3d 8b3b 84bd
000002c0: c68c 1e3d f8d4 253d ae43 873d d796 e13c
000002d0: fa6c 82bc f6c5 1c3c 6516 6cbc fb16 aebd
000002e0: d7eb b6bc 84c1 0d3d d247 373d 5499 873d
000002f0: a1c8 23bd 20cb e0bd eace df3d ca6c b5bd
00000300: 3a79 103d bb6c 383e aa18 9abd e2f2 63bd
00000310: e5a2 263b b997 49bd fb54 00be 6100 b33d
00000320: 5f6a 8cbd ada1 6ebd 914f 7dbd d652 70bb
00000330: 4cb4 713c b9ad 903c fb6e 08bc 17e9 c1bd
00000340: 76fa 203d 3bbf e33d b938 9dbc 6f5c 54bd
00000350: 7add 28bd 2460 20bd 1f33 3cbd 72fa 18be
00000360: 5f6d 3abe 75e3 75bd a6a7 4fbd 2273 893d
00000370: 8e7b 07bd 05e1 40bd 29ae b83c d7ef d3bd
00000380: bb44 fbbc 6416 9cba 0927 ea3d d9a0 e8bc
00000390: 4956 7d3c d515 903b bf33 bfbc ccbe 07bd
000003a0: 5ca8 87bc 27bf 02be 634e 2b3d 11e4 06bd
000003b0: 44f5 d93c 2064 5bbb d2a7 5ebc f2a8 88bd
000003c0: 49a9 28bd 25f6 9bbc ca1e 923c 8829 7e3c
000003d0: 1de5 aa3d 0be7 59bd 2da0 433d eff3 47bc
000003e0: aec7 5c3d 7329 08be f5ff 17bd 601e 97bd
000003f0: a7bb 033e f63a a33d 2eed 963c 50f5 153d
-0.030860076 -0.058938283 -0.014458612 0.041505873 0.003894165 0.03725965 -0.04682598 0.0017316517
-0.03232645 -0.038395714 0.12368284 0.010386067 -0.0052203736 0.011456431 -0.08496264 0.07455092
-0.04572938 -0.025872525 -0.0580812 -0.0016692952 -0.05967914 0.016492715 -0.107601196 -0.12210251
-0.053517118 0.041104913 0.05582588 0.0024072607 0.032226156 -0.0011773211 -0.10996042 -0.0084669255
-0.043490473 0.08127366 0.11671447 -0.06101746 0.06532828 0.11718659 0.05661452 0.008714817
-0.09618514 0.07513718 -0.06389257 -0.01633177 0.1125671 -0.0644325 -0.15620819 0.0029224907
0.14704192 0.089997254 0.04787398 -0.03303322 -0.14594828 -0.05770109 -0.036033478 -0.039184034
0.010205331 0.0924913 -0.025786543 0.021706648 0.06169973 -0.11042102 -0.033270534 0.0040121498
-0.023040667 -0.066359885 -0.04393029 0.1588797 0.19935101 0.077998206 0.05986066 0.13747592
0.013729793 0.08421623 -0.07957278 -0.13587366 -0.008814023 0.027692176 0.10783601 -0.2127214
-0.00982434 -0.103995964 -0.1286025 -0.038492158 0.022951066 -0.0035838953 0.060082182 -0.1150218
0.026376946 -0.0089935865 -0.004703 0.049127065 -0.07309253 0.0527157 -0.052242316 -0.035040677
-0.053272717 -0.043466654 -0.017434021 0.032370742 -0.0043981364 0.06257579 -0.040999375 -0.1236764
-0.045542844 -0.05851355 -0.012566241 0.06284565 0.12116485 0.105869435 -0.012875593 -0.03705712
0.013536053 -0.033294585 0.103765756 0.012423512 -0.028482435 -0.015786987 0.12175746 -0.026033929
0.0835911 0.05303312 0.10145632 0.0073986975 -0.052720375 0.07789448 0.118962824 0.030802762
0.0058371336 -0.008459313 0.042757794 0.118087776 -0.002035756 0.14095977 -0.018082682 0.100637846
0.028090168 -0.013004199 0.06398824 -0.031397037 0.11560127 -0.012743236 -0.060777415 -0.046653688
0.1270712 0.033073805 0.056600817 -0.0172745 0.025907597 0.10058338 0.037166048 0.023941178
0.07049625 0.025134997 -0.031917676 0.05956562 -0.040603455 -0.043633364 -0.071349986 -0.01603992
-0.15184602 -0.03636393 0.0055408706 0.030125272 0.042259675 -0.09474285 -0.026449088 -0.03131423
-0.1662895 -0.17682026 -0.021966502 -0.106284924 0.095163256 -0.07932642 0.06200745 -0.064566694
0.03870847 0.040486306 0.06604706 0.027537746 -0.015921105 0.009568682 -0.014409636 -0.08500477
-0.022329254 0.03460838 0.044746228 0.06621042 -0.039986257 -0.10976243 0.109281376 -0.088586405
0.03527186 0.18010227 -0.075242355 -0.055651553 0.0025426683 -0.04921696 -0.12532417 0.08740307
-0.06856226 -0.058259655 -0.06184346 -0.0036670468 0.014752459 0.017660962 -0.008327241 -0.094682865
0.03930136 0.11120459 -0.019192087 -0.051845964 -0.04122684 -0.039154187 -0.04594719 -0.14939287
-0.18205784 -0.060031373 -0.05069699 0.06711413 -0.033076815 -0.047089595 0.022543984 -0.1034848
-0.030672422 -0.0011908528 0.114332266 -0.02839701 0.0154624665 0.004397134 -0.023340104 -0.033140942
-0.016559772 -0.12768231 0.041822802 -0.032932345 0.02660621 -0.0033476427 -0.013589816 -0.06672849
-0.041177068 -0.01903827 0.017836947 0.0155128315 0.08344481 -0.053198855 0.047760177 -0.012204154
0.053901367 -0.13297062 -0.037109334 -0.073788404 0.12864552 0.0797023 0.018423643 0.0366109

rnn.rnn.weight_hh_l0 f4 [192, 64]
00000000: 108d 52bd 8754 643c c49d cc3d f375 d7bd
00000010: 5af3 1dbd 8f65 073e d9d7 c63d 534b d33d
00000020: 42ab abbc c516 93bd 3c3d 1d3d e953 b83c
00000030: ee15 9eb8 0af2 e5bc 8477 82bd 10f0 0fbe
00000040: ec45 0d3b 8f59 b0bd bd4e 68bd 6e02 213d
00000050: 921c 2f3d b227 92ba 2fa4 4dbd c1c3 9b3d
00000060: dcec 053d ba45 873d a502 97bc 0b0e 2cbc
00000070: 7dcc 563c 2100 f93d ab22 af3c 2821 2abd
00000080: e1dd bb3d 9c92 6a3c a782 10bd 100c 083d
00000090: 0e4e a1bc c246 293d 2b47 803d ebff 0e3d
000000a0: 5cdb dabc 8913 32bd 7364 8ebd ea0b 17bd
000000b0: 8341 16bd 6af5 24bd bdd0 dc3d 186d 483d
000000c0: 562e a73c 7fad 52bd 7f91 d53d 8056 c73d
000000d0: efaa 933d 3527 0ebe 765b 8ebd 9dff 673c
000000e0: 11e8 e8bd 4af8 39ba 0dd1 4d3c 73db dabd
000000f0: a957 e7bd 5797 83bd 95cd 5cbd a1b3 7cbd
00000100: a96a 72ba 08ab 67bd 4966 96bd a0e2 0c3c
00000110: ac6a 613d 0c97 9d3c dd4f fe3c 42aa 2ebc
00000120: 259f 85bd 0f02 993c 28c1 34bd 3133 b9bc
00000130: 564d 183e 8e53 633d 5c92 bfbd 5355 25bd
00000140: 9482 9f3d 38bc b43c 2615 af3d 27f3 793d
00000150: 3124 123e 9b23 eebd 11df 8d3c bed3 fdbd
00000160: 083b 353d b79c 03bd 2335 2e3b 85f1 803d
00000170: 7353 c43b 1415 513d efba f13d e294 bd3d
00000180: 7d15 61bd 4b4f 973d 4996 7abc a8fa 78bc
00000190: a4d0 2bbd 0cf1 b3bd 34a0 163d b626 0bbb
000001a0: b31e 11be daad c13a 1ffd 023b 0fe1 10bd
000001b0: 0173 513c 7582 a0bc 81a5 893d 152c 133e
000001c0: fc10 05be 00d4 5a3d 63f2 f2bc 99ee e4bc
000001d0: a7cd bc3d 5efe 953d 4aff f83c 8967 bfbc
000001e0: 8204 59bd afdb 723d 9161 033c c812 34bd
000001f0: 8ac5 2e3d aa28 03bd 9310 43bd c6ec 133d
00000200: f5f8 9e3c 65a8 4bbd e828 f0bb 2c0d f43c
00000210: 9c51 d6bb c8c8 183d 49d6 a9bd 11db f6bc
00000220: 27a6 813d 1ca1 54bc bad6 6bbd fdcb ae3d
00000230: 30df 4c3d 7c53 bfbd 99f7 f23b 7fde ddbc
00000240: d913 873d a35c 59bd 52a3 1e3d c4d1 ec3d
00000250: 4507 463c 4ec0 8ebd e317 043e 8038 3a3a
00000260: 8f78 a83c 2c5a 983d 107b acba ffd4 f0ba
00000270: de40 f4bd 92b0 f23d f56b 943b f10d c1bd
00000280: 7293 033e f958 83bd b85f 143e 9aa3 dfbd
00000290: 576d bf3b 9550 313d 47bf 93bd dd23 413d
000002a0: 7fa9 7cbd bb36 2d3b 19a6 19bd 0aa5 8b3d
000002b0: 27cf 84bd 4a2f c9bd 966e 02be ea4f 62bd
000002c0: c93b 4a3d 2dfd e73d 12b4 f3bd 0a79 183d
000002d0: 3d7f 02bd 6abd 793d 1d6e aa3c 9eb1 203c
000002e0: 70a3 e7bd fbf1 fbbb 2fd7 833d 1b06 473b
000002f0: 589f 5fbc b14e 2ebe 9dd5 3dbd bee2 483d
00000300: ebfb aabd 27ac 16bd 235b a7ba 50f2 2b3d
00000310: 316a 20bb 8287 8abd fc23 bb3c cd46 623d
00000320: 4bd3 3dbd 8492 b2b9 3020 4cbc 3083 5d3d
00000330: 8c74 8bbc f4af e23c e990 8f3c 8262 f4bd
00000340: 1c1e 193d 4531 28bd 9ad7 9b3c bf85 a8bd
00000350: 6213 6c3d f7f6 9abc e59d 51bd 6b90 bd3d
00000360: 6b49 7dbc 65c0 c43c c3a6 02bc f679 80bc
00000370: dabc 2a3c b648 a0bd f3dc a93c 8e39 d63d
00000380: 06f6 d53d 7f8f 293e 3b02 b6bd ac53 f6bc
00000390: 7898 a4bd a78e 9b3d 59eb 9c3c d358 8ebd
000003a0: 950b adbb 476e a1bd 373f 1b3c c71a 1e3c
000003b0: 0980 293d 8063 a5bd 100a 193e 0010 113d
000003c0: ab4c 16bc d211 813d d398 f73d 762f 14bd
000003d0: 8723 d53d b734 423c b2f0 a2bd 5e27 39bc
000003e0: a5b0 0dbd c068 01bd 9223 113d eaf4 153c
000003f0: 398d 85bb 207f 3b3d 8f2e 16bd 11f0 e23d
-0.05140406 0.0139361685 0.09991029 -0.10520544 -0.038562156 0.13222335 0.097091384 0.10317101
-0.020955686 -0.07182077 0.038388476 0.022500949 -7.538112e-05 -0.028069515 -0.06370452 -0.1405642
0.002155657 -0.08610832 -0.056715716 0.039308958 0.042751856 -0.0011150746 -0.050205406 0.076056965
0.03269659 0.06605096 -0.018433878 -0.010501395 0.013110277 0.12158228 0.021378836 -0.041535527
0.091731794 0.014317181 -0.03528085 0.03321463 -0.01969054 0.041327246 0.06263574 0.03491203
-0.026715927 -0.04347566 -0.06952753 -0.036876597 -0.03668357 -0.040273108 0.10782001 0.048932165
0.020407837 -0.05143499 0.10428142 0.097332954 0.07210337 -0.13882144 -0.069510385 0.014160064
-0.11372388 -0.0007094188 0.012562049 -0.10686388 -0.11296017 -0.0642535 -0.053906996 -0.061694745
-0.0009247461 -0.056559592 -0.07343728 0.0085989535 0.05503337 0.019237064 0.031043941 -0.01066071
-0.06524495 0.01867774 -0.04412952 -0.022607418 0.14873251 0.055499606 -0.09354088 -0.040364575
0.07788578 0.022062406 0.085489556 0.061022904 0.14271618 -0.11627885 0.01731828 -0.12393902
0.04424575 -0.032131877 0.0026581965 0.06296066 0.0059913932 0.051045492 0.11803233 0.09256913
-0.054952133 0.07388171 -0.01529462 -0.01519648 -0.041947022 -0.087862104 0.036773875 -0.002123279
-0.14171867 0.0014776543 0.0019987298 -0.035370883 0.012783767 -0.019593457 0.067210205 0.14372285
-0.1299476 0.053424835 -0.029656595 -0.027945803 0.092189126 0.07323907 0.030395169 -0.0233648
-0.052982815 0.059291538 0.008018867 -0.043963224 0.042668857 -0.032021202 -0.04762323 0.036114477
0.019405821 -0.04972114 -0.007329095 0.029791437 -0.0065404903 0.037300855 -0.08292825 -0.030133756
0.06330519 -0.012977865 -0.057577826 0.085350014 0.050017536 -0.09342095 0.00741477 -0.027083633
0.065955825 -0.05306686 0.038729973 0.11563447 0.012086694 -0.06970273 0.12899737 0.0007103756
0.0205653 0.07439074 -0.0013159234 -0.0018374025 -0.11926435 0.11850084 0.004529471 -0.09426487
0.12849215 -0.064134546 0.14489639 -0.109198764 0.0058418917 0.04328974 -0.07214218 0.047153343
-0.06168508 0.0026430327 -0.03751192 0.06818588 -0.06484824 -0.09823473 -0.12737498 -0.055251993
0.04937342 0.11327586 -0.1189958 0.037224807 -0.031859625 0.060971655 0.02080446 0.009807972
-0.1131047 -0.0076887584 0.064375274 0.003036863 -0.01364883 -0.17022206 -0.046346296 0.049044363
-0.08348831 -0.03678527 -0.001276825 0.041979134 -0.0024477358 -0.06764127 0.022844307 0.055243302
-0.046344083 -0.00034059968 -0.012458846 0.05408019 -0.017023347 0.027671792 0.017525153 -0.119328514
0.03738223 -0.041062612 0.019023705 -0.08228635 0.057635672 -0.01891659 -0.05117597 0.09256061
-0.015459399 0.024017522 -0.007974329 -0.015683156 0.010421002 -0.078263685 0.02073524 0.104601964
0.10447316 0.16558646 -0.08887144 -0.030069195 -0.080368936 0.07595568 0.019155191 -0.069505356
-0.0052809217 -0.07882362 0.009475521 0.009649939 0.04138187 -0.08075619 0.14945245 0.03541565
-0.0091735525 0.06302227 0.12089696 -0.036178075 0.10407167 0.0118533885 -0.07956065 -0.01130089
-0.03459229 -0.031594038 0.035434313 0.00915263 -0.004075673 0.045775533 -0.036665495 0.11080945

rnn.rnn.bias_ih_l0 f4 [192]
00000000: c5c5 65ba 1940 513c b866 0e3c 1c6c 13b9
00000010: 8952 e73b 03e5 c83b 50d2 d53b 0c30 9aba
00000020: bb11 5e3b 6648 d93b db17 e5b9 4af1 f5b9
00000030: e89c 3c3c 36e6 b6ba 7045 dd3b ddb0 d33b
00000040: eb67 6bba b09a 943a c8ce d83a db1a d43b
00000050: 477a 16bb 3a6c 84bb 49c3 4cba 96f6 a539
00000060: af38 e2b9 bf80 5738 b9f4 913b 7f4b 3a3a
00000070: dfc7 d7b9 6daf 553b 7f8a 28bc ae9c 5cbb
00000080: 99e8 dd3b a4c4 bb3a bb73 26bc 389d a8bb
00000090: 9c25 2e3c 066d d33a 1598 9bbb 6e41 b4bb
000000a0: f84d ad3b 92ef 0c3a e260 52ba 7e92 b33b
000000b0: bddb d63b a830 023a 4d40 0fbc 086d 6b3b
000000c0: e6fb 1d3b 4531 1e3a eef2 8c3a 2e77 13bc
000000d0: 17f7 193c a582 cd3a cd34 113c 78de 4d3b
000000e0: c2e1 49ba 1a0f cc3b cdaf 8bbb 1e98 563b
000000f0: 45be 7c3b 806b 8a3b 6b2b 663b dcc2 b0bb
00000100: 5db5 a3b8 d5d6 08bc ce2c baba 3e65 1d3c
00000110: d763 9fba 28e6 283c d711 2c3c 6995 03bc
00000120: 0c19 1f3c 935d b7bb de28 403c e3bf c63b
00000130: ccff cc3b e4be 14bc 9310 683b e2fa cabb
00000140: a851 3f3b 25df 7dbc ac30 733c ff24 f2bb
00000150: faf0 acbc b3f3 963b 4cab 03bc 13f3 6abc
00000160: c070 80bc 80ed 9e3b 7508 483b c877 dfba
00000170: 2e2c 33bb 4bf9 b5ba d18d d4bb a240 80bc
00000180: db19 d1bc 9ff9 caba e873 9b3c d6f4 983c
00000190: 3bd0 7aba 3865 cebb b8bb 9ebb 48d8 823c
000001a0: 9b98 3b3c 2390 5339 b653 353c eab0 83b8
000001b0: b629 28bb c319 87bb 9de3 1f3c 338f df39
000001c0: ec69 423c dda4 5a3b 4c40 2b3c a37d d3bc
000001d0: 0c20 67bc 56bf 61ba 40f3 7a3b b774 9f3b
000001e0: 0a39 9c3b 5536 b1bb 7d94 1f3c f500 c7bb
000001f0: a6f5 12bc fc6d 31bc c679 66bb 2a0f 15bb
00000200: 3db1 16b9 cbab 583c 720d 2abb a58f 103c
00000210: 8e0a fc3b 312b a93b 240f f43c d769 34bc
00000220: bebc 603c 6dbd c9bb d6fa 77bc 94fe 5abc
00000230: 12d6 26bc addf a9bb 3768 cabb cb24 3a3a
00000240: 9f3c c2bb fcba a53b 0be2 c83b 693a 82bc
00000250: 7c35 68bc 04b4 cf3b 4def 0bbd b5da d1bb
00000260: 2cc2 b7bc 1cf6 173c d1d3 aabc 725a 2dbc
00000270: beeb a63b 632e abba 8763 873c 00fa 013c
00000280: f720 223c 2fc0 9f3a f7ef fdbb 023c c33b
00000290: 8cd7 e13b 97b2 27bc 61e1 ca3c 5034 bbbc
000002a0: 19db bb3c 66d8 063c 747c b33c c585 a83b
000002b0: 9614 3abc 8ca8 90bc 6faf 7b3c fb0b 9bba
000002c0: 57ab c33b dd95 57bc 2992 0ebc 3d24 813c
000002d0: 4e7d d1bb 495f b03c 99c9 edbc e22e 953c
000002e0: 6c2c 75bb 4222 fc3c 5ed2 183c 219f 6fbc
000002f0: f390 34bd bcd9 8a3c ae16 1e3c 2aba 04bc
-0.00087651267 0.01277163 0.008691482 -0.00014059286 0.0070593995 0.006130816 0.0065253153 -0.0011763587
0.003388508 0.006630945 -0.00043696057 -0.00046909816 0.011512019 -0.0013954106 0.0067526624 0.0064602927
-0.00089800236 0.0011337604 0.0016541118 0.006472928 -0.0022961067 -0.004041222 -0.0007811082 0.00031654973
-0.00043148312 5.13799e-05 0.004454222 0.00071065867 -0.0004115691 0.0032605783 -0.010286926 -0.0033662724
0.0067721126 0.0014325571 -0.010159428 -0.005145695 0.010629084 0.0016130514 -0.004748354 -0.005500964
0.0052888356 0.0005376275 -0.0008025301 0.0054801097 0.0065569566 0.0004966357 -0.008743358 0.0035923142
0.0024106442 0.00060345634 0.0010753551 -0.009000583 0.00939729 0.0015679194 0.008862686 0.003141312
-0.0007701182 0.006227386 -0.0042629004 0.0032744478 0.0038565558 0.004224241 0.0035121094 -0.005394323
-7.806227e-05 -0.008352001 -0.0014204027 0.009606658 -0.0012160492 0.01030878 0.0105023 -0.008031228
0.0097105615 -0.0055958717 0.0117284935 0.006065355 0.0062560793 -0.009078715 0.003541027 -0.0061944583
0.0029192958 -0.015495096 0.014843147 -0.007389664 -0.021111 0.004606688 -0.008036446 -0.01434018
-0.015678763 0.0048500896 0.003052262 -0.0017049247 -0.0027339566 -0.0013883499 -0.0064866324 -0.01565582
-0.025525024 -0.001548577 0.018976167 0.018671434 -0.0009567772 -0.0062986873 -0.004844155 0.015972272
0.011449958 0.00020176223 0.0110673215 -6.2795196e-05 -0.0025659627 -0.004122944 0.009758857 0.00042640566
0.011866074 0.0033362426 0.010452341 -0.025816744 -0.014106762 -0.000861158 0.003829196 0.0048662084
0.004767542 -0.005408088 0.009739992 -0.006073112 -0.0089697 -0.010829445 -0.0035167797 -0.0022744634
-0.00014371141 0.013224552 -0.0025947955 0.00882331 0.007691688 0.0051626195 0.029792376 -0.011011562
0.013716875 -0.0061566145 -0.015135488 -0.01336636 -0.010182874 -0.005184135 -0.006176974 0.00071008195
-0.0059276368 0.0050576907 0.006130462 -0.015896993 -0.014172908 0.006338598 -0.034163762 -0.0064042457
-0.022431456 0.009274986 -0.020852955 -0.010580646 0.0050940206 -0.0013060089 0.01652695 0.00793314
0.009895555 0.0012188012 -0.0077495533 0.005958081 0.0068921503 -0.01023545 0.024765672 -0.022852093
0.022931622 0.008230304 0.02190993 0.0051428997 -0.011357447 -0.017658494 0.015361651 -0.0011829132
0.005971353 -0.013158289 -0.0087018395 0.01576435 -0.0063931113 0.02152981 -0.029026793 0.018210832
-0.003741051 0.030778054 0.009327499 -0.014625342 -0.044083547 0.016949527 0.009648962 -0.008101026
