onpolicy/scripts/results/MPE/simple_spread/rmappo/check/wandb/run-20220704_211343-3a4khxa0/files/critic.pt (torch, 156012 bytes, 21 tensors)

base.feature_norm.weight f4 [54]
0	0x3f761877	0.9613108
1	0x3f781408	0.96905565
2	0x3f8051c3	1.0024952
3	0x3f82dea2	1.0224192
4	0x3f7f6d53	0.9977619
5	0x3f7e36c7	0.99302334
6	0x3f7b956a	0.9827486
7	0x3f7dae17	0.99093765
8	0x3f7f85fe	0.9981383
9	0x3f74113d	0.95338804
10	0x3f83114c	1.0239654
11	0x3f809e7c	1.0048366
12	0x3f85d135	1.045447
13	0x3f826924	1.0188336
14	0x3f80776d	1.0036446
15	0x3f827c00	1.0194092
16	0x3f7cee87	0.98801464
17	0x3f7bfb6f	0.9843053
18	0x3f71b203	0.9441225
19	0x3f72d054	0.94849133
20	0x3f7385f0	0.9512625
21	0x3f7e100d	0.9924324
22	0x3f80195c	1.0007739
23	0x3f80bf2e	1.0058343
24	0x3f7fcf37	0.9992556
25	0x3f7ecf77	0.99535316
26	0x3f7b2d9d	0.98116475
27	0x3f7f36de	0.99693096
28	0x3f81fae2	1.0154688
29	0x3f7e8834	0.9942658
30	0x3f828a34	1.0198426
31	0x3f7d7aea	0.99015677
32	0x3f84bcaf	1.0370082
33	0x3f80837d	1.0040127
34	0x3f81470b	1.0099806
35	0x3f7a83e4	0.978575
36	0x3f7c449c	0.9854219
37	0x3f71f68e	0.9451684
38	0x3f8054cc	1.0025878
39	0x3f7de489	0.9917684
40	0x3f7ff6c3	0.99985904
41	0x3f7e5737	0.9935183
42	0x3f803b4a	1.0018094
43	0x3f7dcf1c	0.9914415
44	0x3f7cf582	0.98812115
45	0x3f7f21c7	0.99660915
46	0x3f80ad1a	1.0052826
47	0x3f83674d	1.02659
48	0x3f803f58	1.0019331
49	0x3f808ab1	1.0042325
50	0x3f818614	1.0119042
51	0x3f7d6b50	0.9899187
52	0x3f803626	1.0016525
53	0x3f830b0e	1.0237749

base.feature_norm.bias f4 [54]
0	0xba07b2a9	-0.0005176464
1	0xbba88e00	-0.005143881
2	0x3956b1b2	0.00020474827
3	0xbc75d5f9	-0.015004628
4	0x3c4fa41b	0.012673403
5	0xbad6188d	-0.0016334221
6	0x3c74d219	0.014942669
7	0xbb1f4451	-0.0024302194
8	0xb87b212c	-5.9873957e-05
9	0x3c0c180e	0.008550657
10	0x3c209dda	0.00980326
11	0x3c67cfde	0.0141486805
12	0x3cfaee08	0.03063108
13	0x3d2a9bb9	0.041652415
14	0xbbfcd91f	-0.0077163125
15	0x3b8e9284	0.004350962
16	0xbd5252ec	-0.05134861
17	0xbbbbf976	-0.005736525
18	0x3c7e4d36	0.015521338
19	0x3a9e02b4	0.0012055249
20	0x3b80c4c6	0.003929707
21	0x3b8ec07f	0.0043564434
22	0xbc50f698	-0.012754105
23	0xbb2ae538	-0.0026076566
24	0x3c020da8	0.007937826
25	0x3c1ef8d5	0.009702881
26	0xbc7633ec	-0.015027028
27	0xbc20070d	-0.009767306
28	0xbbfea5e3	-0.00777124
29	0xbc346048	-0.011009283
30	0x38ba8db0	8.8955625e-05
31	0xbc71117a	-0.014713639
32	0x3c592d3d	0.013255415
33	0x3d0ef113	0.034897875
34	0xbcc89f96	-0.024490159
35	0x3be6dff8	0.007045742
36	0x3bee7938	0.007277634
37	0xbc82afe8	-0.01595302
38	0xbb4afd5b	-0.0030973766
39	0xbb4dcb9b	-0.0031401876
40	0x3a572156	0.00082065666
41	0xbc5a54ed	-0.013325912
42	0x3a5e1662	0.0008471963
43	0x3c63b926	0.013899123
44	0x3cb63a6e	0.022244658
45	0x3b7dcf93	0.003872846
46	0x3cb24a9b	0.02176409
47	0x38a628c5	7.923091e-05
48	0xbd280240	-0.04101777
49	0xbcb86bdb	-0.022512367
50	0x3ac2b0aa	0.0014853675
51	0x3bd981a3	0.0066377684
52	0xbc106457	-0.008812985
53	0x3bde0be3	0.0067763194

base.mlp.fc1.0.weight f4 [64, 54]
0	0xbe354f56	-0.17706046
1	0x3ec1f11e	0.3787927
2	0x3dda250a	0.10651596
3	0x3e4d749f	0.20064019
4	0xbdce8653	-0.10084214
5	0xbcf1eac3	-0.029530888
6	0xbd4c4de4	-0.04987897
7	0x3c991cdb	0.018690517
8	0x3ddbf091	0.10739244
9	0x3dcca79d	0.09992907
10	0x3e4852ff	0.1956291
11	0xbe2fb928	-0.17160475
12	0xbe5d8b42	-0.21635154
13	0x3d836cc7	0.06417232
14	0xbe89f8d9	-0.26947668
15	0x3eb4bd73	0.35300788
16	0x3e2c1836	0.1680611
17	0x3f0ef0bc	0.5583608
18	0xbe0bfdb5	-0.13671
19	0xbe9a9639	-0.30192736
20	0xbe458633	-0.19289474
21	0xbe2b4575	-0.16725715
22	0xbdc7b485	-0.09751228
23	0x3e283c40	0.16429234
24	0x3e909975	0.28242078
25	0x3ded939a	0.116004184
26	0x3dcb3ff0	0.099243045
27	0x3e292693	0.16518621
28	0x3c540e59	0.012942874
29	0x3e2241ca	0.15845409
30	0x3e8ba3a0	0.27273273
31	0x3e649f59	0.22326411
32	0x3ec7772f	0.38958117
33	0xbeb0cd39	-0.34531572
34	0xbd9dc8e0	-0.077043295
35	0xbe8b9fdc	-0.272704
36	0x3d4ebeb9	0.050474856
37	0x3cf27ec0	0.029601455
38	0xbdf04ecd	-0.1173378
39	0xbd4989d8	-0.049203724
40	0xbe58d6e9	-0.21175732
41	0xbe258178	-0.1616267
42	0x3e057ec6	0.13036641
43	0x3da03e82	0.078244224
44	0xbe8d50e7	-0.27600786
45	0x3e08b1e0	0.13349104
46	0x3eb5cc33	0.35507354
47	0x3e6b3bf9	0.22972097
48	0x3ea2102c	0.31652963
49	0xbdfa958e	-0.122355565
50	0xbe22a5a7	-0.15883504
51	0xbc7e6e83	-0.015529278
52	0xbc51bb7b	-0.0128010465
53	0xbcf8f48e	-0.03039005
54	0x3e8c1841	0.27362254
55	0x3de8e794	0.11372295
56	0x3e5b56ea	0.21419874
57	0xbcce891f	-0.025211869
58	0xbdb88fbe	-0.09011792
59	0x3e011c4d	0.12608452
60	0x3ee4f334	0.447168
61	0xbe1ff118	-0.15619314
62	0x3f2b8927	0.6700615
63	0x3e8c29df	0.27375695
64	0x3da6318e	0.081149206
65	0xbe3b336d	-0.18281336
66	0xbd5e88dc	-0.054329738
67	0x3d952054	0.07281557
68	0x3e86ca91	0.2632642
69	0x3db2ebc3	0.08736374
70	0xbadc9c05	-0.0016831165
71	0xbe973fdd	-0.2954091
72	0x3e9a2c6d	0.3011202
73	0xbe14a669	-0.14516605
74	0x3db42af5	0.08797256
75	0x3e80df1b	0.25170216
76	0xbd9c8bf0	-0.076438785
77	0x3d6a4bbf	0.057201143
78	0x3d97c56f	0.07410704
79	0xbe991bd4	-0.29904044
80	0xbe31f15f	-0.17377232
81	0x3dae882a	0.08522065
82	0xbe93ca5b	-0.28865322
83	0x3e71e2b2	0.23621634
84	0x3e5a293c	0.21304792
85	0xbe113111	-0.14178874
86	0x3d183dce	0.037168317
87	0xbaec06f6	-0.0018007446
88	0xbddba0af	-0.10724007
89	0xbd248527	-0.040166046
90	0x3e4c8d04	0.19975668
91	0x3e2709b7	0.163123
92	0x3df641ed	0.12024293
93	0x3e272cae	0.16325638
94	0xbcedaf7e	-0.029014345
95	0x3e0a8009	0.13525404
96	0xbebece95	-0.37266985
97	0xbda6081a	-0.08107014
98	0xbd9817b5	-0.07426397
99	0xbe568501	-0.20949174
100	0x3b26205a	0.0025348873
101	0xbd8496ee	-0.064741
102	0x3c4867f5	0.012231817
103	0xbea1732a	-0.31533176
104	0xbe4e7fcc	-0.20165938
105	0xbc111c8a	-0.008856902
106	0x3eea9131	0.45813897
107	0x3dffcbfa	0.12490077
108	0x3ea75052	0.32678467
109	0x3e354b5c	0.17704529
110	0xbd42ad39	-0.04752848
111	0xbf1e3d00	-0.6181183
112	0x3e31565d	0.17318101
113	0x3e2e12d0	0.16999364
114	0x3d54abc0	0.051921606
115	0x3d253b64	0.040339842
116	0xbde6ff73	-0.11279192
117	0x3e3d671a	0.18496361
118	0x3e214585	0.15749176
119	0x3d922729	0.071363755
120	0x3df0aa5d	0.11751244
121	0x3dbe669a	0.092969134
122	0xbd86e555	-0.0658671
123	0xbe17243d	-0.14759918
124	0x3e1e13d2	0.15437248
125	0x3e4d03c9	0.20020975
126	0x3e678308	0.22608578
127	0xbe386edc	-0.1801104
128	0xbdc4fc04	-0.09618381
129	0x3dfdfb4e	0.12401448
130	0x3eb868e7	0.36017534
131	0xbe328796	-0.17434534
132	0x3a7aa24a	0.0009560926
133	0x3ec46912	0.38361412
134	0x3e847e51	0.25877622
135	0x3c9c946d	0.019113744
136	0xbd8691f8	-0.0657081
137	0x3e86c23a	0.26320058
138	0xbd0f5c8f	-0.03500038
139	0x3ed3a3e9	0.4133599
140	0xbe9655e8	-0.29362416
141	0x3d0467b2	0.032325454
142	0xbe7c19a6	-0.24619159
143	0x3e830524	0.2558986
144	0xbded9819	-0.11601276
145	0xbe137389	-0.14399542
146	0x3e7748a4	0.24148804
147	0xbd32e942	-0.043679483
148	0x3ef472f3	0.4774395
149	0xbe37bd87	-0.17943393
150	0xbe92374f	-0.28557822
151	0x3e6b4e56	0.22979102
152	0xbe73bd72	-0.23802736
153	0x3d58a87a	0.052895047
154	0x3cd7e8ce	0.026356127
155	0x3d7e37e6	0.062065028
156	0x3e918e89	0.28429058
157	0xbe0f620f	-0.1400225
158	0xbe0abe4c	-0.13549155
159	0xbdecafa0	-0.11556935
160	0x3e083337	0.13300787
161	0xbea4a45e	-0.32156652
162	0x3dc1ea72	0.09468545
163	0x3d2840c7	0.0410774
164	0xbe9212b3	-0.2852989
165	0xbe75066b	-0.2392823
166	0x3ac06284	0.0014677797
167	0xbe2adef0	-0.16686606
168	0xbd9a82ec	-0.075445026
169	0x3e82cd2a	0.25547153
170	0xbeb8eeed	-0.36119786
171	0xbd0ba8e4	-0.034096614
172	0x3e46527a	0.193674
173	0x3d3438ea	0.04399959
174	0xbe66977e	-0.22518727
175	0x3e6df2a0	0.23237085
176	0xbd3a7095	-0.045517523
177	0x3e77b517	0.24190174
178	0x3e55ea1b	0.20890085
179	0xbde4b4b6	-0.111672804
180	0x3efb2c32	0.49057156
181	0x3d833c8b	0.06408032
182	0xbebc8c2d	-0.36825696
183	0x3d92b14a	0.071627215
184	0xbb0c9e3b	-0.0021456617
185	0x3e845c46	0.2585165
186	0xbe0b692b	-0.13614337
187	0x3eaa4810	0.33258104
188	0x3e7532e1	0.2394519
189	0xbd64e335	-0.055880744
190	0x3dc6eb62	0.097128645
191	0xbdac23d5	-0.08405272
192	0xbde2f5fd	-0.11082075
193	0xbdd8736a	-0.105688885
194	0x3e88176c	0.2658037
195	0x3e8462c2	0.25856596
196	0x3e9134b5	0.28360525
197	0xbdaae286	-0.08343987
198	0xbd0d6d5b	-0.034528118
199	0x3ee0d0be	0.43909258
200	0xbe1958ec	-0.14975327
201	0xbe249d19	-0.16075553
202	0xbc51678a	-0.012781033
203	0x3d84643f	0.06464433
204	0xbe802037	-0.25024578
205	0xbef0f3dd	-0.47061053
206	0x3ddc1b0c	0.10747346
207	0xbe1bb944	-0.15207392
208	0x3ea26e59	0.31724814
209	0x3da4c617	0.08045595
210	0xbd3c0141	-0.045899633
211	0xbe17304e	-0.1476452
212	0xbcab4d16	-0.02091078
213	0x3e88b449	0.26700047
214	0xbdb20405	-0.08692173
215	0x3e706448	0.23475754
216	0x3e295253	0.1653531
217	0x3e7dee25	0.24797876
218	0x3e52f90d	0.20602818
219	0xbe08be8d	-0.1335394
220	0xbd01f3a8	-0.03172651
221	0xbe27e1c7	-0.16394721
222	0x3e5f21c4	0.21790224
223	0xbebc13f7	-0.36733982
224	0x3dacdd92	0.08440699
225	0xbe005413	-0.12532072
226	0xbe002f90	-0.12518144
227	0x3e56e8df	0.20987271
228	0xbe806ad6	-0.2508151
229	0x3c4932f8	0.012280218
230	0x3e5d1ef2	0.21593836
231	0x3dc6862e	0.096935615
232	0x3eec9785	0.4620935
233	0x3e4d8a8c	0.20072383
234	0xbe3d6434	-0.18495256
235	0xbc87cc07	-0.01657678
236	0xbd31e6e9	-0.043433104
237	0xbe9ad7e7	-0.30242845
238	0xbcef7763	-0.029231733
239	0x3e26e717	0.16299091
240	0xbe656b9a	-0.22404328
241	0xbd8cbc9d	-0.06871913
242	0xbdba23f0	-0.09088886
243	0x3d77461c	0.060369596
244	0xbe34af83	-0.17645077
245	0x3c148a26	0.00906614
246	0x3d143466	0.036182784
247	0xbd821d4e	-0.06353246
248	0xbdb49548	-0.08817536
249	0x3e884c59	0.2662075
250	0xbe9891b9	-0.29798678
251	0x3e9f6551	0.31131986
252	0xbe407611	-0.18795039
253	0xbe81cb9b	-0.2535065
254	0xbea76b3f	-0.3269901
255	0xbe73a81f	-0.23794602

base.mlp.fc1.0.bias f4 [64]
0	0xbcbaf427	-0.022821499
1	0x3cb61955	0.022228876
2	0xbc057ff8	-0.008148186
3	0x3bdb6249	0.006695066
4	0x3b948e80	0.004533589
5	0xbd51630c	-0.05111985
6	0xbc2e8277	-0.010651222
7	0x3c815939	0.015789615
8	0xbb340b5e	-0.0027472596
9	0x3c7dfeb5	0.015502621
10	0xbc6930be	-0.014232812
11	0x3c0190a9	0.007908025
12	0xbbc439fe	-0.0059883585
13	0x3d2fd70c	0.042929694
14	0x3c26fa51	0.010191516
15	0x3ce1fa4d	0.027585173
16	0x3c997853	0.018734133
17	0x3c01270d	0.007882846
18	0xb9c2ba6c	-0.0003714146
19	0x3b9833a3	0.0046448275
20	0xbbbe46e7	-0.005806792
21	0xbd1522a6	-0.036409996
22	0x3cb3a714	0.021930255
23	0x3c78e80d	0.015192044
24	0xbb920500	-0.0044561625
25	0xbc5919ae	-0.013250751
26	0x3beaf763	0.007170604
27	0x3cde663e	0.027148362
28	0xbc14cf6d	-0.009082657
29	0xbca8050c	-0.020510219
30	0x3c3e7636	0.011624863
31	0x3c6841f8	0.014175884
32	0xbca249e9	-0.019810634
33	0x3b148765	0.002266371
34	0x3cab851d	0.020937497
35	0xbd2239a3	-0.039605748
36	0x3c78d83f	0.015188276
37	0x3c8b7cbf	0.017027257
38	0xbbabf532	-0.0052477354
39	0x3c1f69aa	0.009729782
40	0x3bd8350b	0.00659812
41	0xbcc49e98	-0.024001405
42	0x3ab1a807	0.0013554104
43	0xbc7ade34	-0.015311766
44	0x3b86b4ac	0.0041108932
45	0x3c8d9a7b	0.017285576
46	0xbbd3de3c	-0.0064657014
47	0x39cb59b1	0.00038786003
48	0x3d01ac98	0.03165874
49	0x3c580a79	0.013186091
50	0x3b9efd0b	0.0048519424
51	0xbbeb99ec	-0.00718998
52	0x3c94918a	0.018135805
53	0x3c983c56	0.018583458
54	0xbcc8c845	-0.024509558
55	0xbc7d8fc2	-0.015476169
56	0x3b8ed5c2	0.004358978
57	0x3be5239e	0.0069927713
58	0xbca51cf4	-0.020155407
59	0xbc3f2dfd	-0.011668679
60	0x3c38c7f7	0.011278144
61	0xbb0436a9	-0.0020174182
62	0x39dbf8dd	0.00041956353
63	0xbc931f56	-0.017959278

base.mlp.fc1.2.weight f4 [64]
0	0x3f7f1c74	0.9965279
1	0x3f806a4c	1.0032439
2	0x3f7f6547	0.9976391
3	0x3f79e288	0.97611284
4	0x3f80905e	1.0044057
5	0x3f822bcc	1.0169616
6	0x3f7b02a8	0.9805093
7	0x3f8190ec	1.0122352
8	0x3f8064aa	1.003072
9	0x3f7f6ca7	0.99775165
10	0x3f800a4f	1.0003146
11	0x3f7f6d76	0.997764
12	0x3f8168b1	1.0110074
13	0x3f84f67d	1.0387722
14	0x3f7d566c	0.98959994
15	0x3f7c1415	0.9846814
16	0x3f811d43	1.0087055
17	0x3f771607	0.96517986
18	0x3f787797	0.9705748
19	0x3f7f5e63	0.997534
20	0x3f806c73	1.0033096
21	0x3f80d4ec	1.0064979
22	0x3f82fd61	1.0233575
23	0x3f83b728	1.029027
24	0x3f7f8af4	0.998214
25	0x3f7a985f	0.9788875
26	0x3f765210	0.9621897
27	0x3f7e910c	0.99440074
28	0x3f836eab	1.0268148
29	0x3f7cc0e9	0.9873186
30	0x3f81d971	1.0144483
31	0x3f7f2661	0.99667937
32	0x3f7e199e	0.9925784
33	0x3f7d733e	0.9900397
34	0x3f7de2de	0.99174297
35	0x3f80daed	1.0066811
36	0x3f7f1c64	0.99652696
37	0x3f7d2f17	0.9889998
38	0x3f802532	1.0011351
39	0x3f7e26f0	0.99278164
40	0x3f80ea9a	1.0071595
41	0x3f7b9e60	0.98288536
42	0x3f7e4ad7	0.99332947
43	0x3f7f2b1f	0.9967517
44	0x3f7e52e6	0.9934524
45	0x3f7dae39	0.9909397
46	0x3f7d98dd	0.99061376
47	0x3f78642d	0.97027856
48	0x3f81a823	1.0129436
49	0x3f77e1cd	0.9682892
50	0x3f7d97e4	0.9905989
51	0x3f7ad98a	0.9798819
52	0x3f810bd1	1.0081731
53	0x3f7e971f	0.9944934
54	0x3f7c9f75	0.9868081
55	0x3f7f0c10	0.9962778
56	0x3f80ec18	1.007205
57	0x3f7f4046	0.9970745
58	0x3f7aff6c	0.9804599
59	0x3f7f1e3e	0.9965552
60	0x3f806290	1.0030079
61	0x3f7b4f1a	0.98167574
62	0x3f821f66	1.0165832
63	0x3f828362	1.0196345

base.mlp.fc1.2.bias f4 [64]
0	0xbc47ce2b	-0.01219515
1	0x3d2308b0	0.039803207
2	0xbc51fc37	-0.01281648
3	0xbb7042f5	-0.0036661003
4	0x3bd885ec	0.0066077616
5	0xbd43f64b	-0.047842305
6	0xbc38fa7e	-0.011290191
7	0x3cc44854	0.02396027
8	0xbc67cda9	-0.014148154
9	0xbbee82d8	-0.0072787814
10	0xbc91d239	-0.017800437
11	0x3b1c58c9	0.002385663
12	0xbc80a741	-0.015704753
13	0x3d3be78f	0.04587513
14	0xbba660c9	-0.0050774557
15	0x3d425cdc	0.04745184
16	0x3c267c85	0.010161524
17	0x3bebab53	0.0071920543
18	0x39d3172e	0.00040262326
19	0x3b322c61	0.0027187096
20	0xbaefd797	-0.0018298504
21	0xbcd23aea	-0.025662858
22	0x3cd1908a	0.025581617
23	0x3c934896	0.017978948
24	0x3940c1de	0.00018382768
25	0xbcd9370c	-0.026515506
26	0xbb338ad1	-0.0027395973
27	0x3c516b63	0.012781951
28	0xbc980684	-0.018557794
29	0xbcb065cd	-0.021532917
30	0x3adc6682	0.0016815218
31	0x3baa8db7	0.005204882
32	0xbcc3f997	-0.023922725
33	0x3bc98b8f	0.00615067
34	0x3c4c27b7	0.012460641
35	0xbcc5f02b	-0.024162373
36	0x3b018cdc	0.0019767797
37	0x3b7b2ebb	0.0038327414
38	0xbadb71f1	-0.0016742331
39	0xbb17295e	-0.0023065428
40	0xbaa5abed	-0.0012639739
41	0xbc814fdc	-0.01578515
42	0x391a62a4	0.00014723331
43	0xbbedf1ef	-0.0072615067
44	0x3b499dca	0.0030764216
45	0x3c59fcbd	0.013304886
46	0xbb316446	-0.0027067824
47	0xbc2ce762	-0.010553213
48	0x3d10fb18	0.03539571
49	0x3b8b8115	0.004257331
50	0x3aabb818	0.0013101129
51	0xbc608fe9	-0.013706186
52	0xbb89f2e7	-0.0042098644
53	0x3ca9c6e8	0.020724729
54	0xbca8bfbf	-0.020599244
55	0xbb71cf28	-0.0036897156
56	0x39fe37d8	0.00048488262
57	0x3c424833	0.011858034
58	0xbc9cb5a9	-0.019129591
59	0xbbeeefc8	-0.0072917677
60	0x3c36fd2a	0.011168757
61	0xbc8b10e4	-0.016975828
62	0xbbf20de4	-0.00738691
63	0xbc82ddd1	-0.01597491

base.mlp.fc_h.0.weight f4 [64, 64]
0	0x3e0d0e6a	0.1377503
1	0xbc04992f	-0.008093162
2	0xbe8b785f	-0.27240273
3	0x3e59ee1e	0.21282241
4	0x3ef9075f	0.48638436
5	0x3e081083	0.13287549
6	0xbed7589e	-0.42059797
7	0x3c0ddea1	0.008659036
8	0x3ed83426	0.42227286
9	0x3e3c6b6f	0.18400358
10	0xbc9e80cd	-0.019348526
11	0x3dbad76a	0.09123118
12	0x3d36bd1a	0.044613935
13	0xbe479951	-0.1949208
14	0xbec87ccb	-0.3915771
15	0xbe82fe65	-0.25584713
16	0x3db49493	0.08817401
17	0xbe7cc3cc	-0.24684066
18	0x3e8e896b	0.27839217
19	0xbebb091d	-0.3653039
20	0xbde688b3	-0.11256542
21	0xbeb88e8c	-0.36046255
22	0xbe8579e4	-0.26069558
23	0x3e86e36f	0.26345393
24	0xbe9a5cff	-0.30149075
25	0x3e367f8d	0.17822094
26	0x3e5e10b6	0.21686062
27	0x3d2f2274	0.042757466
28	0xbe2fddfa	-0.17174521
29	0xbdb00707	-0.0859509
30	0x3d65dda0	0.05611956
31	0x3dc29760	0.09501529
32	0xbe486b62	-0.19572213
33	0x3e661aeb	0.22471206
34	0x3e944b19	0.28963545
35	0x3dd4a0e3	0.10382249
36	0xb9f1d02a	-0.00046122196
37	0x3df65d06	0.120294616
38	0x3de0ae94	0.10970798
39	0xbe64e8be	-0.22354409
40	0xbe123ade	-0.14280269
41	0xbe25a30e	-0.16175482
42	0x3dce4ef1	0.10073651
43	0x3bed2246	0.0072367517
44	0x3e31f8eb	0.17380111
45	0xbe835400	-0.25650024
46	0x3d23e010	0.040008605
47	0xbe48a3e9	-0.19593777
48	0x3d87e854	0.0663611
49	0x3e47e2ee	0.1952016
50	0x3c875d9e	0.016524132
51	0xbce77b66	-0.028257083
52	0x3e74b3a0	0.23896646
53	0x3dd2f8a8	0.10301334
54	0xbdaaa74e	-0.08332692
55	0xbd699cc7	-0.05703428
56	0xbe6af8c9	-0.22946467
57	0x3e1c7a69	0.15281071
58	0xbe2372c9	-0.15961756
59	0x3da8aefe	0.08236502
60	0xbe1e5f23	-0.1546598
61	0x3e975a22	0.29560953
62	0xbe73f53e	-0.23824021
63	0xbea00241	-0.3125172
64	0xbe693d7f	-0.22777365
65	0xbcc956f2	-0.024577592
66	0xbdaf15e1	-0.08549095
67	0xbe801c9f	-0.25021836
68	0xbdca71de	-0.09885
69	0xbe625479	-0.22102536
70	0x3e6aca11	0.22928645
71	0x3ecd67c6	0.40118235
72	0x3d1551a0	0.036454797
73	0xbdede935	-0.11616746
74	0xbe07d928	-0.13266432
75	0x3e8b0b7a	0.27157193
76	0x3d2b626b	0.041841906
77	0xbe3489c7	-0.17630683
78	0x3e90c9ce	0.28278965
79	0xbd6d4f54	-0.05793698
80	0x3ea69f25	0.32543293
81	0xbe6c9c15	-0.23106416
82	0xbc8ff1f1	-0.017571421
83	0xbe8bd734	-0.27312624
84	0x3d83ad7e	0.064295754
85	0x3e92c611	0.28666738
86	0x3e0b121a	0.13581124
87	0xbe4b92e9	-0.1988026
88	0x3d5d2e79	0.053999398
89	0x3dec5b27	0.115408234
90	0x3d24c84f	0.04023009
91	0x3e31c7bb	0.17361347
92	0xbe5bed07	-0.21477138
93	0xbd848d00	-0.06472206
94	0xbc75ea60	-0.015009493
95	0x3e6028d3	0.21890573
96	0xbdc34401	-0.09534455
97	0x3e865271	0.26234773
98	0x3e50cb3b	0.20390026
99	0xbc2c4ca7	-0.010516322
100	0x3e91a540	0.28446388
101	0xbe3cb196	-0.18427119
102	0xbecfcd37	-0.40586254
103	0xbc045030	-0.008075759
104	0xbdcdfe89	-0.10058314
105	0xbe1f67a3	-0.15566878
106	0x3e8ce738	0.27520156
107	0x3c2d7640	0.010587275
108	0x3d1b0f17	0.037856188
109	0x3eba7f0c	0.36425054
110	0xbd01518f	-0.03157192
111	0xbe8859dc	-0.26631057
112	0x3e865b71	0.2624164
113	0x3e60f2e8	0.21967661
114	0xbdef41dd	-0.11682484
115	0xbda7ea22	-0.08198954
116	0x3b2c76d5	0.0026315947
117	0x3ebbb04f	0.3665795
118	0x3e782b6e	0.24235317
119	0x3f17693e	0.5914496
120	0x3e3ffa5c	0.18747848
121	0xbe88729c	-0.2664994
122	0x3e06853f	0.13136767
123	0x3d737f58	0.059447616
124	0xbc3cf4dd	-0.011532989
125	0x3e4729e2	0.19449571
126	0xbd7da5e4	-0.061925784
127	0xbe88b163	-0.26697835
128	0x3ed7dabc	0.4215907
129	0xbd7bf3dd	-0.061511863
130	0x3dd4f298	0.103978336
131	0xbe11e0b2	-0.1424587
132	0x3ca7ba34	0.02047453
133	0x3ebe055d	0.37113467
134	0x3d92a4ce	0.0716034
135	0x3d29ba0f	0.041437205
136	0x3dd840ab	0.105592094
137	0x3e5d4029	0.21606506
138	0xbd1f7cda	-0.038937427
139	0xbc879959	-0.016552614
140	0xbdd4deeb	-0.10394081
141	0x3d93b5c6	0.07212405
142	0xbd956e65	-0.07296447
143	0xbd87052e	-0.06592785
144	0x3e00f8d0	0.12594914
145	0xbe1a3cc1	-0.15062238
146	0x3ebf4e92	0.37364632
147	0xbde1bcbb	-0.110223256
148	0x3e062983	0.13101773
149	0xbda6e728	-0.08149558
150	0x3e7af7a9	0.24508537
151	0xbd589715	-0.052878458
152	0xbd520951	-0.051278416
153	0xbd4a04fd	-0.049321163
154	0x3e3f9cf4	0.18712217
155	0x3ebec93a	0.372629
156	0x3eb94629	0.3618634
157	0x3cf1e9e5	0.029530475
158	0x3d26be13	0.040708613
159	0x3f086371	0.53276736
160	0xbe48078f	-0.19534133
161	0xbe070883	-0.1318684
162	0xbd0a7fb2	-0.033813186
163	0x3e89b695	0.26897112
164	0xbe46215c	-0.19348663
165	0xbe461f34	-0.1934784
166	0xbe715309	-0.23566832
167	0xbe5cdcc1	-0.21568586
168	0xbe0f20ce	-0.13977358
169	0xbe0059bd	-0.12534232
170	0xbeaa5d31	-0.33274224
171	0xbdc5ad6d	-0.09652219
172	0xbded1e09	-0.115779944
173	0x3e865ed8	0.26244235
174	0x3ec46f3a	0.3836611
175	0xbe3b361b	-0.18282358
176	0xbe20f8fe	-0.15719983
177	0xbeab4c94	-0.33456862
178	0xbe45b90e	-0.19308874
179	0xbeaf2206	-0.34205645
180	0x3e0a00c6	0.13476858
181	0xbe63929d	-0.22223897
182	0x3d48c830	0.04901904
183	0x3ccfe44b	0.025377413
184	0x3ee2c008	0.44287133
185	0x3daf69ff	0.08565139
186	0xbd0c645c	-0.034275398
187	0xbd807fad	-0.06274352
188	0xbd4dfe07	-0.050291087
189	0xbd20d6a1	-0.039267186
190	0x3e6d58e6	0.23178443
191	0x3ea9784a	0.33099586
192	0x3df00790	0.117201924
193	0xbd34dc35	-0.04415532
194	0x3c69975b	0.014257277
195	0xbe637da8	-0.22215903
196	0x3e93ceee	0.28868812
197	0x3e58955a	0.21150723
198	0xbdf5458e	-0.11976157
199	0xbe042006	-0.12902841
200	0x3ec30f1f	0.38097474
201	0x3eb61388	0.35561776
202	0x3e271a6a	0.1631867
203	0xbd5ba9b7	-0.05362865
204	0xbd69eeef	-0.05711263
205	0xbe41bbe2	-0.18919328
206	0x3e18b6b1	0.14913441
207	0x3edf46cb	0.43608698
208	0x3e448751	0.19192244
209	0x3e467ad4	0.19382793
210	0xbd6e33b8	-0.05815479
211	0xbde14506	-0.10999493
212	0xbd2b2775	-0.041785676
213	0xbe72f2f4	-0.23725492
214	0xbb9edc6c	-0.0048480537
215	0xbeed7c7c	-0.46384037
216	0xbd289aba	-0.041163184
217	0xbddb78fb	-0.107164346
218	0xbe927a08	-0.28608727
219	0xbe0ea870	-0.13931441
220	0xbe7237b5	-0.23654063
221	0x3dfb39f0	0.1226691
222	0xbe7d2286	-0.24720201
223	0xbe4accc4	-0.19804674
224	0x3d0d4e5f	0.03449857
225	0x3e88ea54	0.26741278
226	0x3e1472f5	0.14496978
227	0x3d89e4e7	0.06733113
228	0xbe443d58	-0.19164026
229	0xbdfb29f9	-0.12263865
230	0x3c30eef7	0.010799161
231	0x3ef9f6fd	0.4882125
232	0x3e697795	0.22799523
233	0x3dc2240b	0.09479531
234	0xbd7bc497	-0.06146678
235	0xbe51c91e	-0.20486876
236	0x3e7964c7	0.2435485
237	0xbb6da7d1	-0.0036263356
238	0x3d3961f4	0.04525943
239	0xbe61b89f	-0.22043084
240	0xbdb5dccc	-0.08880004
241	0x3cd6be36	0.026213747
242	0x3e1d9960	0.15390539
243	0xbc2216da	-0.009893144
244	0xbe42b752	-0.19015244
245	0xbea63058	-0.32458758
246	0x3e4d9c68	0.20079195
247	0xbe71ccf5	-0.23613341
248	0x3ecad7fc	0.39617908
249	0xbed12d9d	-0.40855113
250	0x3e3aefb7	0.18255506
251	0xbd1002d1	-0.035158936
252	0xbc8ab33b	-0.016931167
253	0x3e2b3d00	0.16722488
254	0x3e0e0376	0.13868508
255	0xbe886bc0	-0.26644707

base.mlp.fc_h.0.bias f4 [64]
0	0x00000000	0.0
1	0x00000000	0.0
2	0x00000000	0.0
3	0x00000000	0.0
4	0x00000000	0.0
5	0x00000000	0.0
6	0x00000000	0.0
7	0x00000000	0.0
8	0x00000000	0.0
9	0x00000000	0.0
10	0x00000000	0.0
11	0x00000000	0.0
12	0x00000000	0.0
13	0x00000000	0.0
14	0x00000000	0.0
15	0x00000000	0.0
16	0x00000000	0.0
17	0x00000000	0.0
18	0x00000000	0.0
19	0x00000000	0.0
20	0x00000000	0.0
21	0x00000000	0.0
22	0x00000000	0.0
23	0x00000000	0.0
24	0x00000000	0.0
25	0x00000000	0.0
26	0x00000000	0.0
27	0x00000000	0.0
28	0x00000000	0.0
29	0x00000000	0.0
30	0x00000000	0.0
31	0x00000000	0.0
32	0x00000000	0.0
33	0x00000000	0.0
34	0x00000000	0.0
35	0x00000000	0.0
36	0x00000000	0.0
37	0x00000000	0.0
38	0x00000000	0.0
39	0x00000000	0.0
40	0x00000000	0.0
41	0x00000000	0.0
42	0x00000000	0.0
43	0x00000000	0.0
44	0x00000000	0.0
45	0x00000000	0.0
46	0x00000000	0.0
47	0x00000000	0.0
48	0x00000000	0.0
49	0x00000000	0.0
50	0x00000000	0.0
51	0x00000000	0.0
52	0x00000000	0.0
53	0x00000000	0.0
54	0x00000000	0.0
55	0x00000000	0.0
56	0x00000000	0.0
57	0x00000000	0.0
58	0x00000000	0.0
59	0x00000000	0.0
60	0x00000000	0.0
61	0x00000000	0.0
62	0x00000000	0.0
63	0x00000000	0.0

base.mlp.fc_h.2.weight f4 [64]
0	0x3f800000	1.0
1	0x3f800000	1.0
2	0x3f800000	1.0
3	0x3f800000	1.0
4	0x3f800000	1.0
5	0x3f800000	1.0
6	0x3f800000	1.0
7	0x3f800000	1.0
8	0x3f800000	1.0
9	0x3f800000	1.0
10	0x3f800000	1.0
11	0x3f800000	1.0
12	0x3f800000	1.0
13	0x3f800000	1.0
14	0x3f800000	1.0
15	0x3f800000	1.0
16	0x3f800000	1.0
17	0x3f800000	1.0
18	0x3f800000	1.0
19	0x3f800000	1.0
20	0x3f800000	1.0
21	0x3f800000	1.0
22	0x3f800000	1.0
23	0x3f800000	1.0
24	0x3f800000	1.0
25	0x3f800000	1.0
26	0x3f800000	1.0
27	0x3f800000	1.0
28	0x3f800000	1.0
29	0x3f800000	1.0
30	0x3f800000	1.0
31	0x3f800000	1.0
32	0x3f800000	1.0
33	0x3f800000	1.0
34	0x3f800000	1.0
35	0x3f800000	1.0
36	0x3f800000	1.0
37	0x3f800000	1.0
38	0x3f800000	1.0
39	0x3f800000	1.0
40	0x3f800000	1.0
41	0x3f800000	1.0
42	0x3f800000	1.0
43	0x3f800000	1.0
44	0x3f800000	1.0
45	0x3f800000	1.0
46	0x3f800000	1.0
47	0x3f800000	1.0
48	0x3f800000	1.0
49	0x3f800000	1.0
50	0x3f800000	1.0
51	0x3f800000	1.0
52	0x3f800000	1.0
53	0x3f800000	1.0
54	0x3f800000	1.0
55	0x3f800000	1.0
56	0x3f800000	1.0
57	0x3f800000	1.0
58	0x3f800000	1.0
59	0x3f800000	1.0
60	0x3f800000	1.0
61	0x3f800000	1.0
62	0x3f800000	1.0
63	0x3f800000	1.0

base.mlp.fc_h.2.bias f4 [64]
0	0x00000000	0.0
1	0x00000000	0.0
2	0x00000000	0.0
3	0x00000000	0.0
4	0x00000000	0.0
5	0x00000000	0.0
6	0x00000000	0.0
7	0x00000000	0.0
8	0x00000000	0.0
9	0x00000000	0.0
10	0x00000000	0.0
11	0x00000000	0.0
12	0x00000000	0.0
13	0x00000000	0.0
14	0x00000000	0.0
15	0x00000000	0.0
16	0x00000000	0.0
17	0x00000000	0.0
18	0x00000000	0.0
19	0x00000000	0.0
20	0x00000000	0.0
21	0x00000000	0.0
22	0x00000000	0.0
23	0x00000000	0.0
24	0x00000000	0.0
25	0x00000000	0.0
26	0x00000000	0.0
27	0x00000000	0.0
28	0x00000000	0.0
29	0x00000000	0.0
30	0x00000000	0.0
31	0x00000000	0.0
32	0x00000000	0.0
33	0x00000000	0.0
34	0x00000000	0.0
35	0x00000000	0.0
36	0x00000000	0.0
37	0x00000000	0.0
38	0x00000000	0.0
39	0x00000000	0.0
40	0x00000000	0.0
41	0x00000000	0.0
42	0x00000000	0.0
43	0x00000000	0.0
44	0x00000000	0.0
45	0x00000000	0.0
46	0x00000000	0.0
47	0x00000000	0.0
48	0x00000000	0.0
49	0x00000000	0.0
50	0x00000000	0.0
51	0x00000000	0.0
52	0x00000000	0.0
53	0x00000000	0.0
54	0x00000000	0.0
55	0x00000000	0.0
56	0x00000000	0.0
57	0x00000000	0.0
58	0x00000000	0.0
59	0x00000000	0.0
60	0x00000000	0.0
61	0x00000000	0.0
62	0x00000000	0.0
63	0x00000000	0.0

base.mlp.fc2.0.0.weight f4 [64, 64]
0	0x3de27c96	0.11058919
1	0x3c6e4cf9	0.014544719
2	0xbe767008	-0.24066174
3	0x3e60c8d9	0.21951617
4	0x3eebc56b	0.46049055
5	0x3e36b08a	0.17840782
6	0xbed29ead	-0.41136685
7	0x3cc4ca6b	0.024022302
8	0x3edb2c36	0.42807168
9	0x3e4a195d	0.19736238
10	0xbd0f2de7	-0.034955885
11	0x3da0f401	0.0785904
12	0x3cf49a51	0.02985874
13	0xbe420db1	-0.18950535
14	0xbecc9cba	-0.39963323
15	0xbe71e82d	-0.23623724
16	0x3dfbab43	0.12288525
17	0xbe852cc8	-0.26010728
18	0x3e85ebd3	0.26156482
19	0xbebb31db	-0.36561474
20	0xbdf58216	-0.119877025
21	0xbebd4a54	-0.3697077
22	0xbe956042	-0.29175
23	0x3e8a5d1b	0.2702416
24	0xbe83bd97	-0.25730583
25	0x3e381e2e	0.17980263
26	0x3e4c87b6	0.19973645
27	0x3d552a4e	0.052042298
28	0xbe549939	-0.20761575
29	0xbdf2a121	-0.11847139
30	0x3db54838	0.08851665
31	0x3dd5b51d	0.10434935
32	0xbe4d5549	-0.20052065
33	0x3e4aa6ba	0.19790164
34	0x3e916b82	0.28402334
35	0x3dbdfd02	0.09276773
36	0x3cbb1a5a	0.022839714
37	0x3dc9ad6d	0.098475315
38	0x3dd9c0fe	0.106325135
39	0xbe672eff	-0.22576521
40	0xbdfc16bc	-0.12309024
41	0xbe36d7c3	-0.17855744
42	0x3dad17df	0.08451819
43	0x3d073c69	0.033016596
44	0x3e2ee665	0.17080076
45	0xbe830269	-0.25587776
46	0x3d3bedb6	0.045880996
47	0xbe4ce05c	-0.20007461
48	0x3da8032d	0.08203731
49	0x3e4b5fc4	0.1986075
50	0x3d0e05af	0.03467339
51	0xbd0434a4	-0.032276765
52	0x3e81ed02	0.25376135
53	0x3de3c70f	0.11121952
54	0xbdcd3e40	-0.10021639
55	0xbdacfe59	-0.084469505
56	0xbe57d34f	-0.21076702
57	0x3e200c9e	0.15629813
58	0xbe11144b	-0.14167897
59	0x3dc833c7	0.09775501
60	0xbe09f0d8	-0.13470781
61	0x3ea53b8e	0.32272
62	0xbe87d188	-0.26527047
63	0xbea2ee91	-0.31822637
64	0xbe670130	-0.22559047
65	0xbd042712	-0.032263823
66	0xbd84fab5	-0.06493131
67	0xbe7f3c1c	-0.24925274
68	0xbdeb0848	-0.11476189
69	0xbe8a8852	-0.2705713
70	0x3e50b337	0.20380865
71	0x3ecbf002	0.3983155
72	0x3cc96b9f	0.02458745
73	0xbe093a83	-0.13401227
74	0xbe167b4f	-0.14695476
75	0x3e915d68	0.28391576
76	0x3d1ef2c7	0.03880575
77	0xbe387e31	-0.18016888
78	0x3e97ee81	0.29674152
79	0xbd86bd22	-0.06579043
80	0x3eaeebb3	0.341642
81	0xbe4dba5f	-0.20090626
82	0x3bab23c8	0.0052227713
83	0xbe83d4b6	-0.25748223
84	0x3d8a1f83	0.06744292
85	0x3e97bc87	0.29636022
86	0x3de23910	0.1104604
87	0xbe4c5d9a	-0.19957581
88	0x3d685a26	0.056726597
89	0x3de5d664	0.112225324
90	0x3d4c4728	0.049872547
91	0x3e379d9c	0.17931217
92	0xbe5a407e	-0.21313664
93	0xbd827ce5	-0.06371478
94	0xbc11e483	-0.008904579
95	0x3e707367	0.23481523
96	0xbdca14bd	-0.09867237
97	0x3e888cba	0.26669866
98	0x3e491a5f	0.19638966
99	0xbcea2bff	-0.028585432
100	0x3e89e9e0	0.26936245
101	0xbe332e43	-0.17498116
102	0xbeca85d0	-0.39555216
103	0xbc15776a	-0.009122709
104	0xbdcf9559	-0.10135908
105	0xbdf7f5f1	-0.121074565
106	0x3e8ff539	0.28116778
107	0x3bd5a426	0.006519812
108	0x3cf54121	0.029938282
109	0x3ebfa30a	0.37429076
110	0xbd144d0a	-0.036206283
111	0xbe7f2f18	-0.24920309
112	0x3e8ab01f	0.27087495
113	0x3e5ab4d5	0.21358044
114	0xbdca9806	-0.098922774
115	0xbdaaa4bd	-0.083322026
116	0xbc6732ab	-0.014111201
117	0x3eb4423f	0.35206792
118	0x3e69d8d1	0.22836615
119	0x3f15666c	0.5835941
120	0x3e4368f5	0.19083007
121	0xbe9859d7	-0.29756042
122	0x3e0dc9e4	0.13846546
123	0x3d4aa177	0.04947039
124	0xbc5ba440	-0.0134058595
125	0x3e52c60e	0.20583364
126	0xbca90bc6	-0.020635497
127	0xbe85dd1b	-0.26145253
128	0x3ed53eb5	0.41649404
129	0xbd9f6738	-0.07783359
130	0x3dc3fdb6	0.09569876
131	0xbe03a053	-0.12854128
132	0x3d27e1fd	0.040987004
133	0x3ec01592	0.37516457
134	0x3da60ed3	0.08108296
135	0x3d28480d	0.041084338
136	0x3de8f53e	0.11374901
137	0x3e67ed9a	0.22649232
138	0xbc3326f0	-0.010934576
139	0xbcf8530e	-0.030313041
140	0xbdd22e70	-0.102627635
141	0x3db0e82c	0.08638033
142	0xbda090b0	-0.07840097
143	0xbd7f72df	-0.06236541
144	0x3df21368	0.11820108
145	0xbe0518ef	-0.12997793
146	0x3eb23da2	0.34812647
147	0xbde5293d	-0.11189506
148	0x3def3fb8	0.11682075
149	0xbd8df271	-0.06931008
150	0x3e6ad6ae	0.22933456
151	0xbd296c40	-0.041363
152	0xbd37d565	-0.044881243
153	0xbd3c2892	-0.04593713
154	0x3e46acd1	0.19401862
155	0x3ec37f54	0.3818308
156	0x3eb858f7	0.36005375
157	0x3d22e8cc	0.039772794
158	0x3d3a3c59	0.04546771
159	0x3f082d18	0.5319381
160	0xbe558d08	-0.2085458
161	0xbe03ba98	-0.12864149
162	0xbd2581d7	-0.040407028
163	0x3e8e28ae	0.2776541
164	0xbe4dfc20	-0.2011571
165	0xbe464fc0	-0.1936636
166	0xbe77f96d	-0.24216242
167	0xbe737e9e	-0.2377877
168	0xbe0c9a9f	-0.13730858
169	0xbe1094aa	-0.14119211
170	0xbea5c145	-0.32374015
171	0xbdc98315	-0.09839455
172	0xbdc7be39	-0.09753079
173	0x3e7be61b	0.24599497
174	0x3ebf5619	0.37370375
175	0xbe39a4a1	-0.18129207
176	0xbe221788	-0.15829289
177	0xbea5a275	-0.32350507
178	0xbe543abd	-0.20725532
179	0xbea46718	-0.32109904
180	0x3e114943	0.14188103
181	0xbe51ffe6	-0.20507774
182	0x3d283d91	0.04107434
183	0x3cf28436	0.029604059
184	0x3ede0454	0.43362677
185	0x3dc0d9ac	0.094165176
186	0xbd445b0c	-0.04793839
187	0xbd7874cc	-0.06065826
188	0xbd0c6bd5	-0.034282524
189	0xbd43fe1d	-0.047849763
190	0x3e5ed45d	0.21760698
191	0x3eaf7f97	0.3427703
192	0x3de1d031	0.110260375
193	0xbd44b197	-0.048020925
194	0x3cada8a4	0.021198578
195	0xbe413e9d	-0.18871541
196	0x3e969248	0.2940848
197	0x3e6d7ec0	0.23192883
198	0xbdca0c05	-0.09865574
199	0xbe0ada2f	-0.13559793
200	0x3ebf03a8	0.37307477
201	0x3eb7c53d	0.35892668
202	0x3e32d2a6	0.17463169
203	0xbd896cf6	-0.06710236
204	0xbd8b711e	-0.06808685
205	0xbe48048a	-0.19532982
206	0x3e18de9d	0.1492867
207	0x3ee39c93	0.44455394
208	0x3e48e39d	0.19618078
209	0x3e465d33	0.1937149
210	0xbd5148d8	-0.05109486
211	0xbdd8cf44	-0.10586408
212	0xbd4a3868	-0.0493702
213	0xbe87df68	-0.26537633
214	0x3cfd47a4	0.03091795
215	0xbee85e66	-0.4538452
216	0xbcb1a18b	-0.021683475
217	0xbdda5be2	-0.106620565
218	0xbe933d4a	-0.28757697
219	0xbddbecaa	-0.107384995
220	0xbe683b5d	-0.22678895
221	0x3debcfd4	0.115142494
222	0xbe718b75	-0.23588355
223	0xbe51529a	-0.20441666
224	0x3cead086	0.028663885
225	0x3e860327	0.2617428
226	0x3e1b0a91	0.1514075
227	0x3d2b6ce6	0.0418519
228	0xbe57331c	-0.2101559
229	0xbdf9d3a4	-0.1219857
230	0xbc0f790c	-0.008756887
231	0x3ef4cca8	0.4781239
232	0x3e7bf138	0.24603736
233	0x3db3219c	0.08746645
234	0xbd599f51	-0.05313045
235	0xbe3dcec1	-0.18535902
236	0x3e7b5c62	0.2454696
237	0xbc534379	-0.012894505
238	0x3ceab2b1	0.02864966
239	0xbe7e8f79	-0.24859418
240	0xbda06906	-0.07832532
241	0x3d18c3e9	0.03729621
242	0x3e2bc7cc	0.16775435
243	0x388f4024	6.8307185e-05
244	0xbe3d9e8e	-0.18517515
245	0xbea7d23c	-0.32777584
246	0x3e4a1eb7	0.1973828
247	0xbe741f14	-0.2383998
248	0x3ecb0701	0.3965378
249	0xbed8dd63	-0.42356405
250	0x3e33160c	0.17488879
251	0xbd180b9b	-0.037120443
252	0xbcccc092	-0.024994168
253	0x3e319658	0.17342508
254	0x3e0caa45	0.13736828
255	0xbe86678e	-0.2625088

base.mlp.fc2.0.0.bias f4 [64]
0	0x3c974d3c	0.018469445
1	0x3c9cc17c	0.01913523
2	0xbc224393	-0.009903806
3	0xbc6925bb	-0.014230187
4	0xbbaaf160	-0.0052167624
5	0xbae32c4f	-0.001733193
6	0x3c024a46	0.0079522785
7	0xbba6b22f	-0.005087159
8	0x3b57f097	0.00329498
9	0x3abd8344	0.0014458676
10	0xbc8b259e	-0.01698571
11	0xbc6575bc	-0.014005121
12	0xbbd53619	-0.006506693
13	0xbc735145	-0.014850919
14	0xbc1c466b	-0.009538273
15	0x3c42327e	0.011852859
16	0x3c299407	0.010350234
17	0x3c52ddb1	0.012870238
18	0xbb761dc5	-0.0037554365
19	0x39029cae	0.00012456134
20	0xb983bd1d	-0.00025127167
21	0xbc71f727	-0.014768398
22	0x3bcdc598	0.0062796585
23	0xbcfd9129	-0.030953007
24	0xbc0b98c5	-0.00852031
25	0x3c46e9d2	0.012140708
26	0xbc61fd8d	-0.013793361
27	0xbb61b486	-0.0034439876
28	0xbcc309a9	-0.023808317
29	0xbbfc1a6a	-0.0076935785
30	0x3bde43d3	0.0067829876
31	0xbbcec147	-0.0063096615
32	0x3c41f784	0.0118387975
33	0xbca82f3c	-0.020530336
34	0xbc8b08fe	-0.016972061
35	0x3ae51016	0.0017476107
36	0x3c725a5b	0.01479205
37	0x3c121be8	0.008917786
38	0xbc923bfa	-0.017850865
39	0xbc754327	-0.014969624
40	0x3c298ffe	0.010349272
41	0xbc2ba4d7	-0.010476313
42	0x3ccb92ab	0.02485021
43	0xbd3678da	-0.044548847
44	0x3b8a2990	0.0042163804
45	0xbd27af92	-0.04093892
46	0x3b73b5f6	0.0037187315
47	0x3c14c058	0.009079061
48	0x3c00bae6	0.00785706
49	0x3cbeccb8	0.023290977
50	0x3c17bc44	0.009261195
51	0xbc64dc28	-0.013968505
52	0xbc958567	-0.018252088
53	0x3ca81119	0.020515965
54	0xbcb2b8ab	-0.021816572
55	0x3b31f2dc	0.0027152812
56	0xbb1d2e8a	-0.0023984038
57	0xbbb8da38	-0.005641248
58	0x3c02d4f6	0.007985344
59	0x3ae99dcb	0.0017823515
60	0xbd0671fd	-0.03282355
61	0x3c545202	0.012959005
62	0x3c6f0ee2	0.014590951
63	0x3b4f30a4	0.0031614685

base.mlp.fc2.0.2.weight f4 [64]
0	0x3f80ef33	1.0072998
1	0x3f8011bd	1.0005413
2	0x3f7df4aa	0.9920145
3	0x3f7e41bb	0.99319047
4	0x3f7a037c	0.97661567
5	0x3f815a72	1.0105727
6	0x3f81ed3e	1.0150526
7	0x3f79f182	0.97634137
8	0x3f81f698	1.015338
9	0x3f821b3e	1.0164564
10	0x3f81790d	1.0115067
11	0x3f80976f	1.0046214
12	0x3f7ef990	0.9959955
13	0x3f7b5901	0.98182684
14	0x3f803f14	1.001925
15	0x3f7c7345	0.9861339
16	0x3f7edb43	0.99553317
17	0x3f799932	0.9749938
18	0x3f7db411	0.99102885
19	0x3f7feca7	0.9997048
20	0x3f7f0bb1	0.99627215
21	0x3f8212e9	1.0162021
22	0x3f7e3dfa	0.9931332
23	0x3f833ea7	1.0253495
24	0x3f7f59d2	0.9974643
25	0x3f7a0eb9	0.97678715
26	0x3f7f9501	0.99836737
27	0x3f8015c9	1.0006648
28	0x3f81079d	1.0080448
29	0x3f80b9bf	1.0056685
30	0x3f7cf528	0.9881158
31	0x3f806c13	1.0032982
32	0x3f810c32	1.0081847
33	0x3f7df254	0.9919789
34	0x3f80aefe	1.0053403
35	0x3f809c87	1.0047768
36	0x3f7f644c	0.99762416
37	0x3f7fc25e	0.99905956
38	0x3f806789	1.0031596
39	0x3f7f4d1b	0.9972703
40	0x3f809202	1.0044558
41	0x3f809d23	1.0047954
42	0x3f81db91	1.0145131
43	0x3f834489	1.025529
44	0x3f7e3bb4	0.9930985
45	0x3f7e789f	0.99402803
46	0x3f7f2730	0.9966917
47	0x3f80d03b	1.0063547
48	0x3f7f2946	0.99672353
49	0x3f8041e2	1.0020106
50	0x3f7dce2e	0.9914273
51	0x3f81598c	1.0105453
52	0x3f7ee9a4	0.9957526
53	0x3f7ddf67	0.9916901
54	0x3f7ff6cc	0.9998596
55	0x3f802b88	1.0013285
56	0x3f822e4f	1.0170382
57	0x3f7b4a05	0.9815982
58	0x3f7fab2d	0.9987057
59	0x3f7ddc7d	0.99164563
60	0x3f85d35e	1.0455129
61	0x3f80fff0	1.0078106
62	0x3f816eed	1.0111977
63	0x3f820364	1.0157285

base.mlp.fc2.0.2.bias f4 [64]
0	0x3c39661b	0.011315848
1	0x3cb086ba	0.021548618
2	0xb9bc5e13	-0.00035928245
3	0xbc70f964	-0.014707897
4	0x3b495691	0.0030721764
5	0xb8c8b788	-9.5709285e-05
6	0x3d237764	0.03990878
7	0xb9f3e68f	-0.0004652035
8	0x3bdd4059	0.0067520556
9	0x3bb9f384	0.0056747813
10	0xbbed4520	-0.0072409064
11	0xbc36ee8f	-0.011165275
12	0xbbe9c10d	-0.007133609
13	0xbca25c8b	-0.019819519
14	0xbc537c6c	-0.012908082
15	0x3be86d46	0.0070931045
16	0x3bf7811f	0.007553234
17	0x3becf2e6	0.007231104
18	0xbb654ae6	-0.003498727
19	0x3baaf1f8	0.005216833
20	0x3ae51a0d	0.0017479077
21	0xbc1cd2c7	-0.009571738
22	0x3b056c71	0.0020358826
23	0xbccdb795	-0.025111953
24	0xbb98a403	-0.0046582236
25	0x3c10b11e	0.0088312905
26	0xbc3a3f41	-0.01136762
27	0xbb4d4a56	-0.0031324825
28	0xbc82bcbf	-0.015959142
29	0xbba087a9	-0.0048989845
30	0x3bb8aa51	0.0056355377
31	0xbbcb1f12	-0.006198772
32	0x3bfc7a0d	0.0077049793
33	0xbb68fcc6	-0.0035551055
34	0xbc928437	-0.01788531
35	0x3bb18061	0.0054169153
36	0x3c761cf8	0.015021555
37	0x3c020727	0.007936276
38	0xbc92afdf	-0.017906127
39	0xbc954146	-0.018219601
40	0xb882a6da	-6.2299616e-05
41	0x3afa5d43	0.001910128
42	0x3d341289	0.04396299
43	0xbd228981	-0.039681915
44	0xbafc97a8	-0.0019271271
45	0xbd2c7198	-0.04210052
46	0x3c5be645	0.0134216
47	0x3c0d0cc8	0.008609004
48	0xbaa557ae	-0.0012614632
49	0x3c023658	0.007947527
50	0x3c21eef6	0.009883633
51	0xbabd29f5	-0.001443206
52	0xb91fb838	-0.00015232048
53	0x3c9c46eb	0.019076785
54	0xbc264cc5	-0.010150139
55	0x3b84efba	0.004056898
56	0x3b8c2e40	0.0042779744
57	0xbb5a2ad1	-0.003328968
58	0x398a089d	0.00026327829
59	0x39057f43	0.00012731277
60	0xbb5bcda8	-0.0033539329
61	0x3c0ce41a	0.0085993055
62	0x3c4831e2	0.012218924
63	0x3b9184bd	0.0044408725

rnn.rnn.weight_ih_l0 f4 [192, 64]
0	0xbd6b7f69	-0.057494555
1	0xbe2caeee	-0.16863605
2	0x3d83205c	0.064026564
3	0xbdc3cac4	-0.09560159
4	0x3da2cf79	0.079497285
5	0xbd1a32f0	-0.037646234
6	0x3cdcdeef	0.026961772
7	0xbd9311b2	-0.071811095
8	0xbb4793d0	-0.0030453093
9	0xbe1de89f	-0.15420769
10	0xbba13901	-0.0049201255
11	0xbddd6b85	-0.10811523
12	0x3cca66a1	0.02470714
13	0x3d5418be	0.05178141
14	0x3d6f0326	0.058352612
15	0x3db1cc37	0.08681529
16	0x3c60389d	0.013685373
17	0x3d151b5a	0.036403038
18	0x3dafc829	0.085830994
19	0xbd9dede2	-0.07711388
20	0x3c905c1c	0.017622046
21	0x3d3b7144	0.045762315
22	0x3ca22a6e	0.019795623
23	0xbdec4606	-0.115367934
24	0xbe299bc4	-0.16563326
25	0xbbd2df74	-0.006435329
26	0x3d1d2036	0.038360797
27	0xbdd2ba2f	-0.10289418
28	0x3e1daff0	0.15399146
29	0xbda9afa5	-0.08285455
30	0x3d44665e	0.047949187
31	0x3db1a951	0.08674873
32	0x3cb1a0e8	0.021683171
33	0x3abbb587	0.0014321067
34	0x3c0a1386	0.008427506
35	0x3d61b354	0.05510266
36	0x3d305a09	0.043054614
37	0xbbc13c51	-0.005897083
38	0x3bd4be73	0.00649243
39	0xbd59f363	-0.053210627
40	0x3d037ab0	0.032099426
41	0x3d0134ed	0.031544615
42	0xbccce71c	-0.025012545
43	0xbd5737a2	-0.05254329
44	0x3d4a9782	0.049460895
45	0x3d74a1ec	0.059724733
46	0x3c749162	0.01492724
47	0x3db4df84	0.08831695
48	0xbd413b2f	-0.047175582
49	0x3b6ee892	0.003645454
50	0x3c0895f2	0.008336531
51	0x3da592ed	0.080846645
52	0x3d8b1850	0.067917466
53	0xbd3269dd	-0.04355799
54	0x3dbfdacb	0.09367903
55	0xbd6d847b	-0.05798767
56	0xbd52e92f	-0.051491912
57	0xbd2865f5	-0.04111286
58	0xbc8e647b	-0.017381897
59	0xbd91c743	-0.07118084
60	0xbddf9d5c	-0.10918686
61	0xbe3b1e0d	-0.18273182
62	0x3d39c0e0	0.045349956
63	0x3d8cd3e4	0.068763524
64	0x3d8f5286	0.06998162
65	0xbd242f6d	-0.04008429
66	0x3af6fc5c	0.001884352
67	0xbd80e40e	-0.06293498
68	0x3d28e5b4	0.041234687
69	0x3d8371a2	0.06418158
70	0x3e495e5a	0.19664899
71	0x3d29bfe2	0.04144276
72	0xbd94a7d3	-0.072585724
73	0xbe09a9fc	-0.1344375
74	0xbd6720b3	-0.05642767
75	0xbdcbc235	-0.099491514
76	0xbe2f6b56	-0.17130789
77	0xbce855ef	-0.028361289
78	0xbcfc1ce5	-0.030775497
79	0xbca6caa8	-0.020360306
80	0xbca5c083	-0.020233398
81	0x3da12a52	0.078694
82	0x3e0074bd	0.12544532
83	0xbdedcef6	-0.1161174
84	0xbc78091d	-0.0151388915
85	0xbcab3649	-0.020899909
86	0xbd586315	-0.052828867
87	0x3dc787df	0.09742712
88	0x3ce3711f	0.027763901
89	0x3bd44e91	0.0064790924
90	0x3e2bc649	0.16774859
91	0x3dae0312	0.08496679
92	0xbd2f4025	-0.042785782
93	0x3dd55361	0.10416294
94	0xbd3ba58f	-0.045812186
95	0xbe1de59e	-0.15419623
96	0x3d021ba9	0.03176466
97	0x3cd1f3ff	0.025629042
98	0xbd7dfb46	-0.06200721
99	0xbc8a1d8e	-0.016859796
100	0x3d58548a	0.052814998
101	0xbd9a5293	-0.07535281
102	0xbadf2758	-0.0017025275
103	0x3c018771	0.007905827
104	0x3c85ea1c	0.016346984
105	0xbd13f597	-0.036122885
106	0x3d1bd9c2	0.038049467
107	0xbb9f5a13	-0.0048630326
108	0xbde0758f	-0.109599225
109	0xbcbb2cf1	-0.022848578
110	0x3e72e8cd	0.23721619
111	0xbdb3970d	-0.08769045
112	0x3dba3851	0.09092773
113	0x3d6ed519	0.058308695
114	0xbcacc75f	-0.021091161
115	0x3d80bec4	0.06286386
116	0x3d8f5bfc	0.069999665
117	0xbda275ba	-0.07932611
118	0x3d8391b9	0.06424279
119	0x3db47f64	0.0881336
120	0xbd79e810	-0.061012328
121	0xbd775180	-0.06038046
122	0xbd13c0f2	-0.03607268
123	0xbd0d5e46	-0.034513734
124	0x3d1fba40	0.03899598
125	0xbd94b794	-0.07261577
126	0x3c3f6b88	0.011683352
127	0xbd5f7c13	-0.054561686
128	0x3d1db264	0.038500205
129	0x3d191bcb	0.03738002
130	0xbd3966ce	-0.045264058
131	0xbd170dad	-0.036878277
132	0x3c308b6e	0.01077543
133	0xbd7dacc3	-0.061932337
134	0x3d7f9cf2	0.062405534
135	0x3e1b19b5	0.15146525
136	0x3d9f27ca	0.07771261
137	0x3e036298	0.1283058
138	0xbce8ff7f	-0.028442143
139	0xbd5b878b	-0.05359606
140	0xbde789c6	-0.11305575
141	0x3a6de93b	0.00090755866
142	0x3d375534	0.04475899
143	0xbdc4a9d3	-0.09602704
144	0x3c1e4cbd	0.0096618505
145	0x3b2f74e7	0.002677256
146	0x3e06d7c6	0.13168249
147	0x3dc415ab	0.09574445
148	0x3e045439	0.12922753
149	0xbd0b6100	-0.034028053
150	0x3db880b6	0.09008925
151	0xbd4935ff	-0.04912376
152	0x3d77719a	0.060411073
153	0x3df5da32	0.12004508
154	0xbdfd22c5	-0.123601474
155	0x3d76c473	0.060245942
156	0xbdce35e2	-0.10068871
157	0x3cf33d78	0.029692397
158	0xbca52296	-0.020158093
159	0x3dabdfce	0.08392297
160	0x3db3e20d	0.0878335
161	0xbd4446f5	-0.047919232
162	0xbdb989c6	-0.09059481
163	0xbe2adaa8	-0.16684973
164	0xbc8d7cd8	-0.017271444
165	0x3d4e5eb4	0.050383285
166	0xbddc1466	-0.10746078
167	0x3d255a64	0.040369406
168	0xbe074bd6	-0.13212523
169	0xbe057832	-0.13034132
170	0xbd1b95ee	-0.03798478
171	0x3dd0c5b4	0.10193959
172	0xbd4928f0	-0.049111307
173	0x3e3ae687	0.18252002
174	0xbdbc51f0	-0.09195316
175	0x3db1200e	0.08648692
176	0x3dcd2c2a	0.10018189
177	0x3db41e1d	0.08794806
178	0x3d42921f	0.047502633
179	0x3caaa9d1	0.020832928
180	0xbe559c03	-0.20860295
181	0x3dd5234f	0.10407125
182	0xbd9803c4	-0.07422593
183	0xbc6f0eeb	-0.014590959
184	0x3d921c5e	0.07134317
185	0x3cd8d8c2	0.026470546
186	0x3dd523e8	0.10407239
187	0x3e15bd32	0.14622954
188	0x3e0b22d3	0.13587503
189	0xbd83fd3d	-0.06444786
190	0x3d2afc1d	0.04174434
191	0xbe07730c	-0.1322748
192	0xbba8e8dc	-0.005154712
193	0xbd7f9177	-0.062394585
194	0xbd9d34e0	-0.07676101
195	0xbd847772	-0.06468095
196	0xbe1c7ea3	-0.15282683
197	0x3d82414b	0.0636011
198	0x3d13f45a	0.036121704
199	0xbde9e83b	-0.114212476
200	0xbe14cd03	-0.14531331
201	0xbd73ee92	-0.05955369
202	0x3b5f56e1	0.0034078883
203	0xbdd69bee	-0.1047896
204	0x3d880dec	0.066432804
205	0xbd5661f9	-0.052339528
206	0xbd23bed0	-0.039976895
207	0xbd58957a	-0.052876927
208	0x3db3ccfa	0.087793306
209	0xbd85de94	-0.06536594
210	0xbd460db9	-0.04835293
211	0xbd8bb0c2	-0.06820823
212	0x3d8d92a5	0.06912736
213	0xbd0e5d1b	-0.03475676
214	0x3cb46bad	0.022024
215	0x3d9f698b	0.077838026
216	0xbd13b0db	-0.036057334
217	0xbd0ea9bf	-0.03482985
218	0x3b9bb678	0.0047519766
219	0x3d547c60	0.051876426
220	0x3cc809af	0.02441868
221	0xbcc6ca5a	-0.02426641
222	0x3c9b6aa0	0.018971741
223	0xbda2efdb	-0.07955905
224	0xbcaf62f2	-0.021409485
225	0xbd93b63f	-0.07212495
226	0x3d838009	0.06420905
227	0x3d3d42ed	0.046206404
228	0xbba8b9ac	-0.005149087
229	0x3de22893	0.11042895
230	0xbe14a4ec	-0.14516038
231	0x3d929871	0.07157982
232	0xbda87136	-0.08224718
233	0x3e0104a4	0.12599427
234	0xbd5ea6a0	-0.054358125
235	0x3db709b3	0.08937397
236	0xbc920a76	-0.017827254
237	0x3da07a90	0.07835877
238	0x3e4249d5	0.18973477
239	0x3d3a08c2	0.04541851
240	0x3d91764a	0.0710264
241	0x3d86eab7	0.06587737
242	0xbdcf71b6	-0.101291105
243	0x3dc4610d	0.095888235
244	0xbd6cc128	-0.057801396
245	0x3d886b7c	0.06661126
246	0xbd6ce89d	-0.057839025
247	0x39a286a1	0.00030999354
248	0xbda95178	-0.08267492
249	0x3c7fbeca	0.0156094525
250	0xbcaa88c8	-0.020817176
251	0xbc6b789a	-0.014372015
252	0xbd48da73	-0.049036454
253	0x3c949ff9	0.018142687
254	0xbd8dbada	-0.06920405
255	0xbd8239a1	-0.06358648

rnn.rnn.weight_hh_l0 f4 [192, 64]
0	0xbd97b994	-0.07408443
1	0xbd3393f3	-0.043842267
2	0x3e29c38c	0.16578501
3	0x3e0c8c62	0.13725427
4	0x3c516559	0.012780511
5	0xbe0e226d	-0.1388032
6	0x3dac48a7	0.08412295
7	0x3c628dc3	0.013827744
8	0xbc875aef	-0.016522853
9	0xbce24655	-0.027621428
10	0xbdd500fa	-0.10400577
11	0xbc3da5c3	-0.011575165
12	0xbdf397c2	-0.1189418
13	0x3da9932a	0.082800224
14	0xbca6e971	-0.020374985
15	0xbd6187b8	-0.055061072
16	0x3d87d989	0.066332884
17	0xbd5f7221	-0.0545522
18	0xbdc3fa49	-0.095692225
19	0xbde86e49	-0.1134916
20	0x3dd8ba12	0.10582365
21	0xbdfaab97	-0.122397594
22	0x3e08d63d	0.13362975
23	0x3e1051ed	0.14093752
24	0x3deca479	0.11554808
25	0x3de00db9	0.109401174
26	0xbcfd7773	-0.030940747
27	0x3da0178a	0.0781699
28	0x3dc03794	0.09385601
29	0x3af72b6e	0.0018857548
30	0x3a9f245e	0.0012141576
31	0xbdd1ad55	-0.102381386
32	0xbbe5ae2b	-0.007009288
33	0x3b86314f	0.0040952335
34	0xbd3bf795	-0.04589041
35	0x3d7306cc	0.059332654
36	0xbc27f62d	-0.010251564
37	0xbdcbce59	-0.09951467
38	0xbdd68b99	-0.10475845
39	0xbcf51fd2	-0.0299224
40	0xbdc3b2c5	-0.09555582
41	0xbd94d71b	-0.072675906
42	0xbdd2438e	-0.10266791
43	0x3d70ffbe	0.058837645
44	0xbc58de75	-0.013236632
45	0xbd677456	-0.05650743
46	0x3d78ee3c	0.060774073
47	0xbc5a7fca	-0.013336131
48	0xbd7d4811	-0.061836306
49	0x3c6bdf87	0.014396555
50	0x3d56d7ab	0.05245177
51	0x3dd6e87e	0.10493563
52	0x3c9a93a3	0.018869227
53	0x3d5e4439	0.05426428
54	0xbdd0b60a	-0.10190971
55	0x3da1114d	0.07864628
56	0xbd6f2476	-0.05838438
57	0xbc755283	-0.014973286
58	0x3d08dc12	0.033413
59	0x3e1ca7c2	0.1529837
60	0xbd98db5e	-0.07463716
61	0xbd5ad8e6	-0.053429507
62	0xbbdf7656	-0.0068195267
63	0xbd199766	-0.0374979
64	0xbd8ff244	-0.070286304
65	0xbdb60609	-0.0888787
66	0x3cd71eec	0.026259862
67	0xbdfb2bc3	-0.12264206
68	0xbdc05b95	-0.09392468
69	0x3e2d4238	0.16919792
70	0x3d3bc76c	0.04584448
71	0xbdc05fc8	-0.09393269
72	0x3d87482c	0.066055626
73	0x3e2facb9	0.17155732
74	0xbd861011	-0.06546033
75	0xbdc0e8f2	-0.09419431
76	0xbd94b6c0	-0.07261419
77	0xbc100314	-0.008789796
78	0x3d59a60a	0.053136863
79	0x3cc79ff1	0.024368258
80	0xbd2e29ce	-0.042520337
81	0xbe1d6d09	-0.15373625
82	0x3e2ef955	0.170873
83	0xbbb106c2	-0.005402417
84	0xbcf82808	-0.030292526
85	0x3e00f03e	0.12591645
86	0xbca810bf	-0.020515798
87	0x3dae1229	0.084995575
88	0xbd9146fd	-0.07093618
89	0xbd98e59c	-0.074656695
90	0x3d1fcb2b	0.039012115
91	0xbdcd7f85	-0.10034088
92	0x3d19cabd	0.037546862
93	0xbddb3f11	-0.10705388
94	0x3d2aeefe	0.041731827
95	0xbcb1553f	-0.021647094
96	0xbbfdded1	-0.007747509
97	0x3e3e7989	0.1860105
98	0x3db8a28c	0.09015378
99	0x3c77d772	0.01512705
100	0x3da1ae5b	0.07894584
101	0xbc322c1d	-0.010874775
102	0xbd8fd988	-0.07023913
103	0xbd073f0d	-0.033019114
104	0xbd7f5153	-0.062333416
105	0xbdfb669a	-0.12275429
106	0x3cfd9050	0.030952603
107	0xbd470fb5	-0.048598964
108	0xbd3abfa2	-0.04559291
109	0x3d43a099	0.04776058
110	0xbd9ec41e	-0.0775225
111	0x3e2099f8	0.15683734
112	0xbd4b1c77	-0.049587693
113	0xbc1bf102	-0.00951791
114	0x3d6151d9	0.055009697
115	0x3e0945e4	0.13405567
116	0x3e37a81a	0.1793522
117	0xbdfa14e4	-0.12211016
118	0x3c18f593	0.009335893
119	0x3e6a8e43	0.22905831
120	0x3d3ce3c3	0.046115648
121	0xbe17e0fe	-0.14831921
122	0x3dd09e1f	0.10186409
123	0x3c7ca00e	0.015419019
124	0x3c582628	0.013192691
125	0x3dc969a4	0.098346025
126	0x3db85646	0.0900083
127	0xbc51fe26	-0.012816941
128	0xbdab9590	-0.08378136
129	0x3bc622f5	0.0060466477
130	0xbd8b6857	-0.068070106
131	0x3c1a1e76	0.0094066765
132	0x3d442fa2	0.04789699
133	0x3d84a593	0.06476893
134	0x3d0da755	0.03458341
135	0x3d2d4ea9	0.042311344
136	0xbd871a48	-0.065968096
137	0xbe0ca0de	-0.13733241
138	0xbde7a892	-0.11311449
139	0x3cd3d5d1	0.025858792
140	0x3dd4141e	0.103553995
141	0xbc8c1f19	-0.017104672
142	0x3dae3aff	0.08507346
143	0x3b4f2392	0.0031606895
144	0x3dae62c0	0.08514929
145	0xbc14c965	-0.009081219
146	0xbdbd8f73	-0.092558764
147	0xbd070ae5	-0.032969374
148	0xbd3e6184	-0.046479717
149	0x3d97d489	0.07413585
150	0x3e0f1876	0.13974175
151	0xbde9b80e	-0.11412059
152	0x3dea660e	0.11445247
153	0x3aeac24a	0.0017910686
154	0xbd08a3a5	-0.03335919
155	0x3d467ec0	0.048460722
156	0xbd6cdb0a	-0.05782608
157	0x3cfc19d1	0.030774029
158	0x3d9aa587	0.07551103
159	0xbd3c2988	-0.045938045
160	0x3e806829	0.25079468
161	0xbdddac6b	-0.10823902
162	0xbda528a0	-0.08064389
163	0x3d7fa78a	0.062415637
164	0xbca98b52	-0.020696316
165	0xbdd4e94d	-0.10396061
166	0x3c47605d	0.012168971
167	0x3e06da0c	0.13169116
168	0x3df2ae88	0.118496954
169	0x3d3f4620	0.046697736
170	0x3da05060	0.0782783
171	0x3d8de37c	0.06928155
172	0xbb484bc6	-0.0030562743
173	0xbcc5ba7a	-0.02413677
174	0xbd563254	-0.05229409
175	0x3e1bff0f	0.15234016
176	0x3e319038	0.17340171
177	0x3d81a54d	0.06330357
178	0x3be0e6a0	0.00686343
179	0xbdb084c5	-0.08619074
180	0xbc6fb107	-0.014629609
181	0xbd3ed823	-0.046592843
182	0xbbb45e9c	-0.0055044424
183	0x3adda9aa	0.0016911526
184	0x3ceed499	0.029154109
185	0x3b25f70e	0.0025324258
186	0x3e1f03fc	0.15528864
187	0xbde1b7b2	-0.11021365
188	0xbc1a9123	-0.009434017
189	0xbd567b5a	-0.05236373
190	0xbe02965f	-0.12752675
191	0x3e6dc7f8	0.23220813
192	0xbd0be8cc	-0.03415756
193	0xbe125955	-0.1429189
194	0x3dc67f1f	0.09692215
195	0xbd5876fa	-0.05284784
196	0xbd814a4c	-0.06312999
197	0xbda7c065	-0.08190993
198	0x3cd89894	0.026439942
199	0xbd792d11	-0.060833994
200	0x3d4ec255	0.0504783
201	0xbbcdd237	-0.006281163
202	0x3d492663	0.049108874
203	0xbdc431b5	-0.09579793
204	0xbdae442c	-0.085090965
205	0x3d3a65c3	0.045507204
206	0xbbbe9c4e	-0.005816973
207	0xbe1c1cce	-0.15245363
208	0x3b955673	0.0045574247
209	0x3d0e4b1f	0.03473961
210	0x3d23a184	0.039948955
211	0x3d6b7c24	0.057491437
212	0xbcd2d3a7	-0.02573569
213	0x3dae4c37	0.085106306
214	0x3c269616	0.010167619
215	0x3d098cd8	0.033581585
216	0xbe16d255	-0.14728673
217	0xbd06b39a	-0.032886125
218	0xbc95a5ec	-0.018267594
219	0xbd41c4c4	-0.04730679
220	0x3dcedb50	0.10100424
221	0xbd42f80b	-0.047599833
222	0xbc721ce8	-0.0147774
223	0xbd3592c0	-0.044329405
224	0x3d8a8d34	0.067652136
225	0x3de4443a	0.11145826
226	0xbdcfa430	-0.10138738
227	0xbd649aa4	-0.05581154
228	0xbd1f6f4e	-0.038924508
229	0x3dbf46cd	0.09339676
230	0xbe0927c0	-0.1339407
231	0x3dcce368	0.10004312
232	0x3d94b2e3	0.072606824
233	0xbb10a874	-0.0022073062
234	0xbe1587e9	-0.14602627
235	0xbe2a16ba	-0.16610232
236	0x3d7f4edb	0.06233106
237	0x3d4ab69f	0.049490567
238	0xbd63eb19	-0.05564413
239	0xbd402ea6	-0.046919487
240	0xbda4a96d	-0.08040128
241	0xbc638424	-0.013886485
242	0xbdd14d73	-0.102198504
243	0xbc82da03	-0.015973097
244	0x3d6a7444	0.057239786
245	0xbc03bf1f	-0.008041172
246	0xbc6564a3	-0.014001044
247	0x3d78b303	0.060717594
248	0x3bdb075f	0.0066842283
249	0xbe48d3d4	-0.19612056
250	0x3dacff31	0.084471114
251	0x3e717269	0.235788
252	0x3daeba2c	0.08531603
253	0x3bd6f8af	0.006560407
254	0x3d884abc	0.066548795
255	0xbcdbd667	-0.026835633
