onpolicy/scripts/results/MPE/simple_spread/rmappo/check/wandb/run-20220704_235932-2fsucdl4/files/critic.pt (torch, 156012 bytes, 21 tensors)

base.feature_norm.weight f4 [54]
0.98607713 0.9891593 1.0002421 1.0143802 0.99717754 0.99808383 0.9932365 0.9969229
1.0040421 0.9850805 1.0164312 0.99587256 1.0173973 1.0124737 0.994237 1.0011481
0.9877268 0.99484 0.99500376 0.97642195 0.97666836 0.9953977 1.003797 1.0042161
1.0010539 0.9975882 0.9833603 0.99931 1.0022001 0.9945743 1.0083131 0.99167335
1.0044458 0.99339676 1.0047109 0.9893064 0.99781996 0.97668004 1.003831 1.0018969
1.0032111 0.99546283 1.007519 0.98676676 1.0035436 1.0028018 1.0051743 1.021625
1.0067747 0.9933404 0.9956177 0.9831206 1.0169115 1.0097783
00000000: 8d6f 7c3f 8b39 7d3f ef07 803f 36d7 813f
00000010: 0747 7f3f 6c82 7f3f bf44 7e3f 5736 7f3f
00000020: 7484 803f 3c2e 7c3f 6b1a 823f 81f1 7e3f
00000030: 133a 823f bd98 813f 5186 7e3f 9f25 803f
00000040: aadb 7c3f d6ad 7e3f 91b8 7e3f caf6 793f
00000050: f006 7a3f 62d2 7e3f 6c7c 803f 278a 803f
00000060: 8922 803f f161 7f3f 80bd 7b3f c8d2 7f3f
00000070: 1848 803f 6c9c 7e3f 6710 813f 4ede 7d3f
00000080: ae91 803f 404f 7e3f 5e9a 803f 2f43 7d3f
00000090: 2171 7f3f b407 7a3f 897d 803f 283e 803f
000000a0: 3969 803f a7d6 7e3f 62f6 803f bf9c 7c3f
000000b0: 1e74 803f cf5b 803f 8da9 803f 9cc4 823f
000000c0: fedd 803f 8e4b 7e3f cde0 7e3f cbad 7b3f
000000d0: 282a 823f 6a40 813f

base.feature_norm.bias f4 [54]
-0.009897391 -0.0039221467 -0.0022095179 -0.014354123 0.012227026 -0.005342712 0.00980128 -0.0076858015
-0.007308222 0.019807002 0.0022397381 0.007014944 0.02212966 0.024927646 -0.009470099 0.0024076193
-0.0284515 -0.010021155 0.008849164 -0.002349901 -0.0015821003 0.0042901067 -0.014703316 0.007105941
0.006598331 0.006874829 -0.006173891 -0.0079284115 -0.004927464 -0.00023092223 -0.009324862 -0.012195831
0.008018057 0.025317289 -0.020335712 0.0047427965 -0.00045041105 -0.009172706 0.00028687142 -0.007188429
-0.00786023 -0.006228902 0.0022093216 0.023905214 0.015962375 0.016823005 0.010137943 0.00015156447
-0.025489822 -0.006935471 -0.006021103 0.0046536485 -0.0029652358 0.008936357
00000000: ab28 22bc 5a85 80bb 8fcd 10bb 8e2d 6bbc
00000010: dd53 483c eb11 afbb 8c95 203c 2dd9 fbbb
00000020: cf79 efbb 4b42 a23c 92c8 123b 9edd e53b
00000030: 4349 b53c 1035 cc3c 7928 1bbc 26c9 1d3b
00000040: 1f13 e9bc c52f 24bc 15fc 103c cc00 1abb
00000050: 7a5e cfba 0694 8c3b 2de6 70bc f4d8 e83b
00000060: d036 d83b 3f46 e13b 5a4e cabb 2be6 01bc
00000070: 9076 a1bb b723 72b9 4ec7 18bc 06d1 47bc
00000080: 2b5e 033c 3466 cf3c 1497 a6bc 7669 9b3b
00000090: 2625 ecb9 1e49 16bc 3b67 9639 ea8c ebbb
000000a0: 32c8 00bc d11b ccbb 44ca 103b ded4 c33c
000000b0: 87c3 823c 66d0 893c 9d19 263c 47ed 1e39
000000c0: 08d0 d0bc f342 e3bb ac4c c5bb a27d 983b
000000d0: 6754 42bb cc69 123c

base.mlp.fc1.0.weight f4 [64, 54]
-0.18240896 0.41025072 0.10598192 0.2006072 -0.0991349 -0.03100768 -0.04870209 0.019328393
0.11641241 0.098151244 0.20213197 -0.17016646 -0.2039204 0.06511945 -0.2661829 0.35694334
0.16975152 0.5616452 -0.13766876 -0.31166798 -0.1886459 -0.16647059 -0.100593515 0.16304517
0.2793404 0.11654254 0.099031076 0.16294652 0.006345724 0.15880767 0.2792925 0.22335052
0.39391854 -0.34020746 -0.07433608 -0.26875618 0.034431413 0.036657088 -0.10854892 -0.049268685
-0.21954417 -0.16279231 0.12422519 0.07907205 -0.28073844 0.13230479 0.34271088 0.23061784
0.31153476 -0.12159014 -0.1550434 -0.011576868 -0.009393301 -0.026072081 0.2801186 0.099064976
0.21725157 -0.012574099 -0.10229076 0.1224455 0.43783692 -0.16644415 0.67263013 0.2609375
0.08224578 -0.18051854 -0.07009826 0.05539124 0.2780535 0.100866176 0.017181708 -0.28058165
0.31256035 -0.15213685 0.091479205 0.2675321 -0.09599327 0.05148958 0.06531619 -0.31115466
-0.17055357 0.068378605 -0.2866935 0.2377299 0.20491432 -0.15386415 0.049700346 0.008274015
-0.09088669 -0.027384797 0.22180855 0.15697023 0.10956977 0.1593561 -0.032525998 0.14565267
-0.36813402 -0.07488418 -0.059713304 -0.20820028 0.019731404 -0.045411006 0.025141906 -0.29930884
-0.18826844 0.003969346 0.4728941 0.13769013 0.34313223 0.15885687 -0.055771094 -0.61561674
0.17136778 0.1620231 0.05790372 0.039416473 -0.11433812 0.18783015 0.16209541 0.07569657
0.12462775 0.091933 -0.050661687 -0.13255727 0.17069073 0.21578068 0.237756 -0.21936613
-0.1061262 0.13101977 0.35286224 -0.18370129 0.005922409 0.3794888 0.25180396 0.017219847
-0.06617404 0.26195845 -0.03163237 0.4085412 -0.278882 0.046361018 -0.23048759 0.27024004
-0.110512614 -0.14675112 0.23711765 -0.04535381 0.47032472 -0.18391407 -0.28353807 0.23232245
-0.24406 0.06237296 0.023770142 0.067699656 0.28526556 -0.1295159 -0.12099954 -0.101174474
0.14815493 -0.3061515 0.06622621 0.039058622 -0.2987685 -0.25097585 0.019398043 -0.15614088
-0.07246781 0.26910838 -0.35067028 -0.034452297 0.17784151 0.058338232 -0.23232728 0.23096338
-0.070211895 0.2175111 0.18266693 -0.13635641 0.4865271 0.08199871 -0.38528597 0.07845096
0.0159468 0.25700477 -0.12666397 0.32812676 0.25609866 -0.07428021 0.10609749 -0.10399159
-0.10350864 -0.12253904 0.24172097 0.23577617 0.2582388 -0.1070319 -0.053732306 0.4660676
-0.16021119 -0.17577912 0.00045861382 0.08172918 -0.2469518 -0.45496678 0.11701274 -0.15516633
0.31492743 0.07655591 -0.06098883 -0.1368582 -0.04505633 0.24333453 -0.1117183 0.21001501
0.1770579 0.26096436 0.2107963 -0.13391286 -0.035071056 -0.16779031 0.21618956 -0.36240587
0.07461866 -0.12526396 -0.1307883 0.20840737 -0.25042045 0.0026566423 0.21538538 0.09599951
0.46294105 0.20006303 -0.20491545 -0.023341784 -0.045714274 -0.3051296 -0.026993528 0.16216408
-0.2204542 -0.06408201 -0.091960676 0.06289419 -0.17042644 0.0102133015 0.042293683 -0.06725624
-0.08932991 0.26434374 -0.29813847 0.3101564 -0.20418653 -0.25050458 -0.3232993 -0.24849448
00000000: 6ac9 3abe 620c d23e 0d0d d93d f96b 4d3e
00000010: 3d07 cbbd d103 febc d87b 47bd 9456 9e3c
00000020: a169 ee3d 8503 c93d affb 4e3e 1e40 2ebe
00000030: 82d0 50be 595d 853d 2049 88be 47c1 b63e
00000040: 58d3 2d3e fbc7 0f3f 0af9 0cbe f292 9fbe
00000050: 642c 41be 4477 2abe f903 cebd 50f5 263e
00000060: b405 8f3e dbad ee3d ced0 ca3d 74db 263e
00000070: cbef cf3b 7a9e 223e 6dff 8e3e 00b6 643e
00000080: b1af c93e ac2f aebe 843d 98bd 699a 89be
00000090: f407 0d3d be25 163d e54e debd f6cd 49bd
000000a0: 30d0 60be 07b3 26be c769 fe3d 87f0 a13d
000000b0: f3bc 8fbe e87a 073e cd77 af3e 1527 6c3e
000000c0: 7c81 9f3e 4004 f9bd b2c3 1ebe e7ac 3dbc
000000d0: 5ce6 19bc 1e95 d5bc b56b 8f3e 94e2 ca3d
000000e0: 3277 5e3e 9803 4ebc d17d d1bd b5c4 fa3d
000000f0: 292c e03e 5670 2abe 7d31 2c3f 9a99 853e
00000100: 7a70 a83d dad9 38be ad8f 8fbd ede1 623d
00000110: 075d 8e3e ed92 ce3d a7c0 8c3c 66a8 8fbe
00000120: e907 a03e c3c9 1bbe 7359 bb3d f8f9 883e
00000130: 1f98 c4bd bde6 523d 7fc4 853d aa4f 9fbe
00000140: 98a5 2ebe 150a 8c3d 7ec9 92be 786f 733e
00000150: 0fd5 513e 908e 1dbe 9792 4b3d bc8f 073c
00000160: cd22 babd 1556 e0bc c821 633e cebc 203e
00000170: 1e66 e03d 3f2e 233e fb39 05bd f925 153e
00000180: 107c bcbe e15c 99bd f095 74bd 7432 55be
00000190: c1a3 a13c e400 3abd 66f6 cd3c 023f 99be
000001a0: 71c9 40be 4a11 823b 2d1f f23e a4fe 0c3e
000001b0: 07af af3e 60ab 223e 3b70 64bd 0f99 1dbf
000001c0: 097b 2f3e 62e9 253e 732c 6d3d 2b73 213d
000001d0: 1b2a eabd 8c56 403e 57fc 253e ce06 9b3d
000001e0: d53c ff3d 5e47 bc3d a182 4fbd 18bd 07be
000001f0: 8dc9 2e3e 9cf5 5c3e 4f76 733e 84a1 60be
00000200: b158 d9bd 0c2a 063e 5caa b43e 311c 3cbe
00000210: c410 c23b 5b4c c23e 73ec 803e a310 8d3c
00000220: 4186 87bd 6b1f 863e f290 01bd 502c d13e
00000230: 9fc9 8ebe 0de5 3d3d f004 6cbe e75c 8a3e
00000240: 7054 e2bd ed45 16be f8ce 723e ebc4 39bd
00000250: 67ce f03e f853 3cbe e72b 91be f0e5 6d3e
00000260: ddea 79be ca7a 7f3d 9ab9 c23c 1ea6 8a3d
00000270: 540e 923e d19f 04be 9bce f7bd 9034 cfbd
00000280: edb5 173e e4bf 9cbe 9ba1 873d effb 1f3d
00000290: 2ff8 98be e87f 80be a5e8 9e3c 65e3 1fbe
000002a0: 016a 94bd 93c8 893e 0e8b b3be da1d 0dbd
000002b0: 161c 363e 12f4 6e3d 34e7 6dbe aa81 6c3e
000002c0: 41cb 8fbd 3bbb 5e3e 0a0d 3b3e 04a1 0bbe
000002d0: 141a f93e f1ee a73d 3444 c5be e6aa a03d
000002e0: dda2 823c 2196 833e 33b4 01be 3b00 a83e
000002f0: 5d1f 833e 3920 98bd a449 d93d 8bf9 d4bd
00000300: 56fc d3bd c0f5 fabd b485 773e 4f6f 713e
00000310: e037 843e 8a33 dbbd 6816 5cbd 6aa0 ee3e
00000320: 670e 24be 71ff 33be 1b72 f039 a161 a73d
00000330: efe0 7cbe 68f1 e8be 60a4 ef3d ece3 1ebe
00000340: 2b3e a13e 58c9 9c3d 6ccf 79bd 8e24 0cbe
00000350: fc8c 38bd b02c 793e 90cc e4bd 2d0e 573e
00000360: ab4e 353e 1f9d 853e fcda 573e 7420 09be
00000370: aba6 0fbd 39d1 2bbe cc60 5d3e 438d b9be
00000380: abd1 983d 3245 00be 5eed 05be be68 553e
00000390: 1c37 80be 101b 2e3b fc8d 5c3e 649b c43d
000003a0: 9c06 ed3e 53dd 4c3e 5bd5 51be 4537 bfbc
000003b0: e43e 3bbd f239 9cbe 8821 ddbc 570e 263e
000003c0: bfbe 61be 6e3d 83bd e155 bcbd abce 803d
000003d0: 4584 2ebe b155 273c 243c 2d3d a4bd 89bd
000003e0: 9af2 b6bd 1058 873e 9ba5 98be d2cc 9e3e
000003f0: 4616 51be 2342 80be 7c87 a5be 5675 7ebe

base.mlp.fc1.0.bias f4 [64]
-0.016233332 0.00126884 -0.008197445 0.010580919 0.0012465245 -0.030777402 9.320675e-05 0.00051885715
-0.01293261 -0.0008077115 -0.012196833 0.0073096193 -0.006030221 0.018718189 0.013213516 0.010791658
0.0057196254 0.006741873 0.0046733017 0.0036468296 -0.0037971823 -0.017886866 0.018496312 0.0075724227
-0.011226536 -0.0006162917 0.010245614 0.010077163 0.011657537 -0.017972568 0.008262302 0.013773478
-0.004530281 0.0060613137 -0.013348171 -0.014243334 0.010251786 0.0038438519 -0.0010082634 0.009059319
-0.0011572533 -0.01088122 0.004852419 -0.014685948 0.0071131047 0.005028644 -0.007826677 0.007153092
0.015438881 -0.00529705 -0.0014730566 -0.0043962854 0.0021570907 0.0058932137 -0.011827294 -0.019036684
-8.968341e-05 0.0054223286 -0.011937865 -0.011565644 0.0034983482 -0.0028857512 -0.005652685 -0.008475375
00000000: c4fb 84bc 354f a63a 944e 06bc 975b 2d3c
00000010: 6c62 a33a e420 fcbc fe77 c338 ea03 083a
00000020: 4ce3 53bc 9abc 53ba 3ad5 47bc 8885 ef3b
00000030: 2999 c5bb e356 993c 817d 583c 7fcf 303c
00000040: b26b bb3b eeea dc3b 7f22 993b a6ff 6e3b
00000050: 26da 78bb 7a87 92bc 9485 973c 1622 f83b
00000060: 81ef 37bc a38e 21ba 38dd 273c af1a 253c
00000070: 41ff 3e3c 353b 93bc 9b5e 073c 27aa 613c
00000080: c072 94bb fc9d c63b 49b2 5abc df5c 69bc
00000090: 1bf7 273c 22e9 7b3b b527 84ba 8a6d 143c
000000a0: faae 97ba 2547 32bc 0a01 9f3b 559d 70bc
000000b0: 0c15 e93b 53c7 a43b 763b 00bc 7c64 ea3b
000000c0: 5cf3 7c3c e092 adbb 9413 c1ba b70e 90bb
000000d0: fa5d 0d3b dc1b c13b 44c7 41bc d2f2 9bbc
000000e0: 6a14 bcb8 caad b13b 0997 43bc d47d 3dbc
000000f0: 8b44 653b df1e 3dbb 293a b9bb 4ddc 0abc

base.mlp.fc1.2.weight f4 [64]
0.9990296 0.99850506 0.99633354 0.9954447 1.0030534 1.0227478 0.99488056 1.0097498
0.99951315 0.9936228 1.0056877 0.9973175 1.0037111 1.0282655 0.9956975 0.9735693
1.0079267 0.9739423 0.99048936 0.9989807 1.0082319 1.0043894 1.026531 1.0156678
1.0005094 0.984969 0.9832429 1.0151302 1.0154817 0.98704547 1.0176164 1.0006946
0.9938265 0.99358743 1.0045761 1.0104666 1.0007259 0.9971254 1.0041367 0.99738425
1.0068102 0.9879576 0.99364567 1.0052819 0.9949866 0.9968817 0.9899868 0.97241104
0.99887615 0.96477216 0.9923916 1.0148531 1.0104117 0.9922623 0.99294287 0.97787845
1.0033396 0.9956426 0.9915602 0.99610376 1.0102758 0.98676956 1.0043211 1.0156834
00000000: 67c0 7f3f 079e 7f3f b70f 7f3f 77d5 7e3f
00000010: 0e64 803f 66e9 823f 7eb0 7e3f 7b3f 813f
00000020: 18e0 7f3f 105e 7e3f 60ba 803f 3350 7f3f
00000030: 9b79 803f 349e 833f 08e6 7e3f d63b 793f
00000040: be03 813f 4854 793f b690 7d3f 33bd 7f3f
00000050: be0d 813f d58f 803f 5e65 833f 6701 823f
00000060: b110 803f ee26 7c3f cfb5 7b3f c9ef 813f
00000070: 4efb 813f 03af 7c3f 4141 823f c316 803f
00000080: 6a6b 7e3f bf5b 7e3f f395 803f f856 813f
00000090: c917 803f 9c43 7f3f 8d87 803f 9354 7f3f
000000a0: 28df 803f caea 7c3f 905f 7e3f 14ad 803f
000000b0: 71b7 7e3f a433 7f3f c66f 7d3f eeef 783f
000000c0: 59b6 7f3f 4ffb 763f 600d 7e3f b5e6 813f
000000d0: 2c55 813f e704 7e3f 8131 7e3f 3e56 7a3f
000000e0: 6f6d 803f 6fe2 7e3f e4d6 7d3f a800 7f3f
000000f0: b850 813f ee9c 7c3f 988d 803f ea01 823f

base.mlp.fc1.2.bias f4 [64]
-0.0101851085 0.017787887 -0.011972989 0.006400398 0.0060964166 -0.033283733 0.0009833381 0.0051391684
-0.010625709 -0.019916255 -0.01443572 0.0030334054 -0.011110154 0.01804862 0.0016425567 0.026463777
0.0052081496 0.006614531 0.00448031 0.0041158088 -0.0032046456 -0.01504611 0.021667724 0.005734771
-0.0059488756 -0.015959902 -3.593366e-05 0.0043210345 0.009587364 -0.016290613 0.0031175576 0.010460478
-0.008871334 0.009016328 0.0043219132 -0.015244533 -0.002027932 -0.0022271636 0.0005911395 0.00021950291
-0.009745311 -0.009608094 0.0040432247 -0.009507058 0.0063622785 0.0026126339 -0.0042448645 0.0074958624
0.01941275 -0.008097603 -0.0054268925 -0.006292807 -0.008178618 0.008190588 -0.010365219 -0.014294382
-0.00440999 0.009268939 -0.012340244 -0.006846951 0.004437124 -0.012063424 -0.010996761 -0.010315745
00000000: 71df 26bc e7b7 913c 5b2a 44bc 6eba d13b
00000010: 73c4 c73b 8654 08bd 5ae3 803a 7866 a83b
00000020: 7417 2ebc 6a27 a3bc cc83 6cbc 19cc 463b
00000030: 5d07 36bc b3da 933c 0f4b d73a 90ca d83c
00000040: 20a9 aa3b b5be d83b 90cf 923b e8dd 863b
00000050: 0805 52bb f683 76bc 8380 b13c bfea bb3b
00000060: c9ee c2bb 57be 82bc 79b7 16b8 7797 8d3b
00000070: 5214 1d3c e473 85bc f04f 4c3b 6d62 2b3c
00000080: 1259 11bc 38b9 133c d69e 8d3b 35c4 79bc
00000090: 0ee7 04bb 9bf5 11bb b3f6 1a3a 5d2a 6639
000000a0: ccaa 1fbc 446b 1dbc 077d 843b 7ec3 1bbc
000000b0: a97a d03b b938 2b3b 8118 8bbb da9f f53b
000000c0: 7d07 9f3c cfab 04bc 13d4 b1bb e433 cebb
000000d0: 9cff 05bc d131 063c e1d2 29bc fc32 6abc
000000e0: ad81 90bb bfdc 173c bc2e 4abc 635c e0bb
000000f0: 4b65 913b aba5 45bc c22b 34bc 5f03 29bc

base.mlp.fc_h.0.weight f4 [64, 64]
0.1377503 -0.008093162 -0.27240273 0.21282241 0.48638436 0.13287549 -0.42059797 0.008659036
0.42227286 0.18400358 -0.019348526 0.09123118 0.044613935 -0.1949208 -0.3915771 -0.25584713
0.08817401 -0.24684066 0.27839217 -0.3653039 -0.11256542 -0.36046255 -0.26069558 0.26345393
-0.30149075 0.17822094 0.21686062 0.042757466 -0.17174521 -0.0859509 0.05611956 0.09501529
-0.19572213 0.22471206 0.28963545 0.10382249 -0.00046122196 0.120294616 0.10970798 -0.22354409
-0.14280269 -0.16175482 0.10073651 0.0072367517 0.17380111 -0.25650024 0.040008605 -0.19593777
0.0663611 0.1952016 0.016524132 -0.028257083 0.23896646 0.10301334 -0.08332692 -0.05703428
-0.22946467 0.15281071 -0.15961756 0.08236502 -0.1546598 0.29560953 -0.23824021 -0.3125172
-0.22777365 -0.024577592 -0.08549095 -0.25021836 -0.09885 -0.22102536 0.22928645 0.40118235
0.036454797 -0.11616746 -0.13266432 0.27157193 0.041841906 -0.17630683 0.28278965 -0.05793698
0.32543293 -0.23106416 -0.017571421 -0.27312624 0.064295754 0.28666738 0.13581124 -0.1988026
0.053999398 0.115408234 0.04023009 0.17361347 -0.21477138 -0.06472206 -0.015009493 0.21890573
-0.09534455 0.26234773 0.20390026 -0.010516322 0.28446388 -0.18427119 -0.40586254 -0.008075759
-0.10058314 -0.15566878 0.27520156 0.010587275 0.037856188 0.36425054 -0.03157192 -0.26631057
0.2624164 0.21967661 -0.11682484 -0.08198954 0.0026315947 0.3665795 0.24235317 0.5914496
0.18747848 -0.2664994 0.13136767 0.059447616 -0.011532989 0.19449571 -0.061925784 -0.26697835
0.4215907 -0.061511863 0.103978336 -0.1424587 0.02047453 0.37113467 0.0716034 0.041437205
0.105592094 0.21606506 -0.038937427 -0.016552614 -0.10394081 0.07212405 -0.07296447 -0.06592785
0.12594914 -0.15062238 0.37364632 -0.110223256 0.13101773 -0.08149558 0.24508537 -0.052878458
-0.051278416 -0.049321163 0.18712217 0.372629 0.3618634 0.029530475 0.040708613 0.53276736
-0.19534133 -0.1318684 -0.033813186 0.26897112 -0.19348663 -0.1934784 -0.23566832 -0.21568586
-0.13977358 -0.12534232 -0.33274224 -0.09652219 -0.115779944 0.26244235 0.3836611 -0.18282358
-0.15719983 -0.33456862 -0.19308874 -0.34205645 0.13476858 -0.22223897 0.04901904 0.025377413
0.44287133 0.08565139 -0.034275398 -0.06274352 -0.050291087 -0.039267186 0.23178443 0.33099586
0.117201924 -0.04415532 0.014257277 -0.22215903 0.28868812 0.21150723 -0.11976157 -0.12902841
0.38097474 0.35561776 0.1631867 -0.05362865 -0.05711263 -0.18919328 0.14913441 0.43608698
0.19192244 0.19382793 -0.05815479 -0.10999493 -0.041785676 -0.23725492 -0.0048480537 -0.46384037
-0.041163184 -0.107164346 -0.28608727 -0.13931441 -0.23654063 0.1226691 -0.24720201 -0.19804674
0.03449857 0.26741278 0.14496978 0.06733113 -0.19164026 -0.12263865 0.010799161 0.4882125
0.22799523 0.09479531 -0.06146678 -0.20486876 0.2435485 -0.0036263356 0.04525943 -0.22043084
-0.08880004 0.026213747 0.15390539 -0.009893144 -0.19015244 -0.32458758 0.20079195 -0.23613341
0.39617908 -0.40855113 0.18255506 -0.035158936 -0.016931167 0.16722488 0.13868508 -0.26644707
00000000: 6a0e 0d3e 2f99 04bc 5f78 8bbe 1eee 593e
00000010: 5f07 f93e 8310 083e 9e58 d7be a1de 0d3c
00000020: 2634 d83e 6f6b 3c3e cd80 9ebc 6ad7 ba3d
00000030: 1abd 363d 5199 47be cb7c c8be 65fe 82be
00000040: 9394 b43d ccc3 7cbe 6b89 8e3e 1d09 bbbe
00000050: b388 e6bd 8c8e b8be e479 85be 6fe3 863e
00000060: ff5c 9abe 8d7f 363e b610 5e3e 7422 2f3d
00000070: fadd 2fbe 0707 b0bd a0dd 653d 6097 c23d
00000080: 626b 48be eb1a 663e 194b 943e e3a0 d43d
00000090: 2ad0 f1b9 065d f63d 94ae e03d bee8 64be
000000a0: de3a 12be 0ea3 25be f14e ce3d 4622 ed3b
000000b0: ebf8 313e 0054 83be 10e0 233d e9a3 48be
000000c0: 54e8 873d eee2 473e 9e5d 873c 667b e7bc
000000d0: a0b3 743e a8f8 d23d 4ea7 aabd c79c 69bd
000000e0: c9f8 6abe 697a 1c3e c972 23be feae a83d
000000f0: 235f 1ebe 225a 973e 3ef5 73be 4102 a0be
00000100: 7f3d 69be f256 c9bc e115 afbd 9f1c 80be
00000110: de71 cabd 7954 62be 11ca 6a3e c667 cd3e
00000120: a051 153d 35e9 edbd 28d9 07be 7a0b 8b3e
00000130: 6b62 2b3d c789 34be cec9 903e 544f 6dbd
00000140: 259f a63e 159c 6cbe f1f1 8fbc 34d7 8bbe
00000150: 7ead 833d 11c6 923e 1a12 0b3e e992 4bbe
00000160: 792e 5d3d 275b ec3d 4fc8 243d bbc7 313e
00000170: 07ed 5bbe 008d 84bd 60ea 75bc d328 603e
00000180: 0144 c3bd 7152 863e 3bcb 503e a74c 2cbc
00000190: 40a5 913e 96b1 3cbe 37cd cfbe 3050 04bc
000001a0: 89fe cdbd a367 1fbe 38e7 8c3e 4076 2d3c
000001b0: 170f 1b3d 0c7f ba3e 8f51 01bd dc59 88be
000001c0: 715b 863e e8f2 603e dd41 efbd 22ea a7bd
000001d0: d576 2c3b 4fb0 bb3e 6e2b 783e 3e69 173f
000001e0: 5cfa 3f3e 9c72 88be 3f85 063e 587f 733d
000001f0: ddf4 3cbc e229 473e e4a5 7dbd 63b1 88be
00000200: bcda d73e ddf3 7bbd 98f2 d43d b2e0 11be
00000210: 34ba a73c 5d05 be3e cea4 923d 0fba 293d
00000220: ab40 d83d 2940 5d3e da7c 1fbd 5999 87bc
00000230: ebde d4bd c6b5 933d 656e 95bd 2e05 87bd
00000240: d0f8 003e c13c 1abe 924e bf3e bbbc e1bd
00000250: 8329 063e 28e7 a6bd a9f7 7a3e 1597 58bd
00000260: 5109 52bd fd04 4abd f49c 3f3e 3ac9 be3e
00000270: 2946 b93e e5e9 f13c 13be 263d 7163 083f
00000280: 8f07 48be 8308 07be b27f 0abd 95b6 893e
00000290: 5c21 46be 341f 46be 0953 71be c1dc 5cbe
000002a0: ce20 0fbe bd59 00be 315d aabe 6dad c5bd
000002b0: 091e edbd d85e 863e 3a6f c43e 1b36 3bbe
000002c0: fef8 20be 944c abbe 0eb9 45be 0622 afbe
000002d0: c600 0a3e 9d92 63be 30c8 483d 4be4 cf3c
000002e0: 08c0 e23e ff69 af3d 5c64 0cbd ad7f 80bd
000002f0: 07fe 4dbd a1d6 20bd e658 6d3e 4a78 a93e
00000300: 9007 f03d 35dc 34bd 5b97 693c a87d 63be
00000310: eece 933e 5a95 583e 8e45 f5bd 0620 04be
00000320: 1f0f c33e 8813 b63e 6a1a 273e b7a9 5bbd
00000330: efee 69bd e2bb 41be b1b6 183e cb46 df3e
00000340: 5187 443e d47a 463e b833 6ebd 0645 e1bd
00000350: 7527 2bbd f4f2 72be 6cdc 9ebb 7c7c edbe
00000360: ba9a 28bd fb78 dbbd 087a 92be 70a8 0ebe
00000370: b537 72be f039 fb3d 8622 7dbe c4cc 4abe
00000380: 5f4e 0d3d 54ea 883e f572 143e e7e4 893d
00000390: 583d 44be f929 fbbd f7ee 303c fdf6 f93e
000003a0: 9577 693e 0b24 c23d 97c4 7bbd 1ec9 51be
000003b0: c764 793e d1a7 6dbb f461 393d 9fb8 61be
000003c0: ccdc b5bd 36be d63c 6099 1d3e da16 22bc
000003d0: 52b7 42be 5830 a6be 689c 4d3e f5cc 71be
000003e0: fcd7 ca3e 9d2d d1be b7ef 3a3e d102 10bd
000003f0: 3bb3 8abc 003d 2b3e 7603 0e3e c06b 88be

base.mlp.fc_h.0.bias f4 [64]
0.0 0.0 0.0 0.0 0.0 0.0 0.0 0.0
0.0 0.0 0.0 0.0 0.0 0.0 0.0 0.0
0.0 0.0 0.0 0.0 0.0 0.0 0.0 0.0
0.0 0.0 0.0 0.0 0.0 0.0 0.0 0.0
0.0 0.0 0.0 0.0 0.0 0.0 0.0 0.0
0.0 0.0 0.0 0.0 0.0 0.0 0.0 0.0
0.0 0.0 0.0 0.0 0.0 0.0 0.0 0.0
0.0 0.0 0.0 0.0 0.0 0.0 0.0 0.0
00000000: 0000 0000 0000 0000 0000 0000 0000 0000
00000010: 0000 0000 0000 0000 0000 0000 0000 0000
00000020: 0000 0000 0000 0000 0000 0000 0000 0000
00000030: 0000 0000 0000 0000 0000 0000 0000 0000
00000040: 0000 0000 0000 0000 0000 0000 0000 0000
00000050: 0000 0000 0000 0000 0000 0000 0000 0000
00000060: 0000 0000 0000 0000 0000 0000 0000 0000
00000070: 0000 0000 0000 0000 0000 0000 0000 0000
00000080: 0000 0000 0000 0000 0000 0000 0000 0000
00000090: 0000 0000 0000 0000 0000 0000 0000 0000
000000a0: 0000 0000 0000 0000 0000 0000 0000 0000
000000b0: 0000 0000 0000 0000 0000 0000 0000 0000
000000c0: 0000 0000 0000 0000 0000 0000 0000 0000
000000d0: 0000 0000 0000 0000 0000 0000 0000 0000
000000e0: 0000 0000 0000 0000 0000 0000 0000 0000
000000f0: 0000 0000 0000 0000 0000 0000 0000 0000

base.mlp.fc_h.2.weight f4 [64]
1.0 1.0 1.0 1.0 1.0 1.0 1.0 1.0
1.0 1.0 1.0 1.0 1.0 1.0 1.0 1.0
1.0 1.0 1.0 1.0 1.0 1.0 1.0 1.0
1.0 1.0 1.0 1.0 1.0 1.0 1.0 1.0
1.0 1.0 1.0 1.0 1.0 1.0 1.0 1.0
1.0 1.0 1.0 1.0 1.0 1.0 1.0 1.0
1.0 1.0 1.0 1.0 1.0 1.0 1.0 1.0
1.0 1.0 1.0 1.0 1.0 1.0 1.0 1.0
00000000: 0000 803f 0000 803f 0000 803f 0000 803f
00000010: 0000 803f 0000 803f 0000 803f 0000 803f
00000020: 0000 803f 0000 803f 0000 803f 0000 803f
00000030: 0000 803f 0000 803f 0000 803f 0000 803f
00000040: 0000 803f 0000 803f 0000 803f 0000 803f
00000050: 0000 803f 0000 803f 0000 803f 0000 803f
00000060: 0000 803f 0000 803f 0000 803f 0000 803f
00000070: 0000 803f 0000 803f 0000 803f 0000 803f
00000080: 0000 803f 0000 803f 0000 803f 0000 803f
00000090: 0000 803f 0000 803f 0000 803f 0000 803f
000000a0: 0000 803f 0000 803f 0000 803f 0000 803f
000000b0: 0000 803f 0000 803f 0000 803f 0000 803f
000000c0: 0000 803f 0000 803f 0000 803f 0000 803f
000000d0: 0000 803f 0000 803f 0000 803f 0000 803f
000000e0: 0000 803f 0000 803f 0000 803f 0000 803f
000000f0: 0000 803f 0000 803f 0000 803f 0000 803f

base.mlp.fc_h.2.bias f4 [64]
0.0 0.0 0.0 0.0 0.0 0.0 0.0 0.0
0.0 0.0 0.0 0.0 0.0 0.0 0.0 0.0
0.0 0.0 0.0 0.0 0.0 0.0 0.0 0.0
0.0 0.0 0.0 0.0 0.0 0.0 0.0 0.0
0.0 0.0 0.0 0.0 0.0 0.0 0.0 0.0
0.0 0.0 0.0 0.0 0.0 0.0 0.0 0.0
0.0 0.0 0.0 0.0 0.0 0.0 0.0 0.0
0.0 0.0 0.0 0.0 0.0 0.0 0.0 0.0
00000000: 0000 0000 0000 0000 0000 0000 0000 0000
00000010: 0000 0000 0000 0000 0000 0000 0000 0000
00000020: 0000 0000 0000 0000 0000 0000 0000 0000
00000030: 0000 0000 0000 0000 0000 0000 0000 0000
00000040: 0000 0000 0000 0000 0000 0000 0000 0000
00000050: 0000 0000 0000 0000 0000 0000 0000 0000
00000060: 0000 0000 0000 0000 0000 0000 0000 0000
00000070: 0000 0000 0000 0000 0000 0000 0000 0000
00000080: 0000 0000 0000 0000 0000 0000 0000 0000
00000090: 0000 0000 0000 0000 0000 0000 0000 0000
000000a0: 0000 0000 0000 0000 0000 0000 0000 0000
000000b0: 0000 0000 0000 0000 0000 0000 0000 0000
000000c0: 0000 0000 0000 0000 0000 0000 0000 0000
000000d0: 0000 0000 0000 0000 0000 0000 0000 0000
000000e0: 0000 0000 0000 0000 0000 0000 0000 0000
000000f0: 0000 0000 0000 0000 0000 0000 0000 0000

base.mlp.fc2.0.0.weight f4 [64, 64]
0.12471019 0.013051979 -0.24985471 0.22238052 0.4750795 0.1577556 -0.41546068 0.024391942
0.4202865 0.19073454 -0.028898245 0.094077446 0.027062591 -0.19855353 -0.40713966 -0.23700391
0.10654104 -0.25254312 0.2679291 -0.36418274 -0.12805662 -0.3757257 -0.2774766 0.26067728
-0.273297 0.1913246 0.20344132 0.04968547 -0.18672356 -0.0981078 0.085042424 0.110274315
-0.19180773 0.20569618 0.28643158 0.09993829 0.0058255945 0.10684805 0.10321019 -0.23914176
-0.12314857 -0.17314428 0.08189958 0.016304916 0.16226606 -0.26249593 0.055417623 -0.20084463
0.07390177 0.20887414 0.03800045 -0.0460171 0.23415513 0.09951425 -0.090577945 -0.08149326
-0.2047871 0.14979085 -0.1429525 0.1043268 -0.14518721 0.3143466 -0.2524965 -0.31927815
-0.22862607 -0.017982462 -0.077788636 -0.26539835 -0.11053066 -0.236876 0.22851259 0.40061992
0.02793125 -0.1203908 -0.14735126 0.26832092 0.046713687 -0.17214191 0.2944802 -0.057935987
0.35065165 -0.2093576 -0.0022916803 -0.26797232 0.066317566 0.28242043 0.13012037 -0.19954252
0.05111467 0.10540568 0.04090126 0.17349328 -0.21261634 -0.073301494 -0.018947402 0.214965
-0.09445368 0.26476064 0.19746187 -0.03163238 0.28077802 -0.18409306 -0.391425 0.008928561
-0.09153669 -0.13210234 0.27590522 0.0151516 0.033437654 0.37667185 -0.041343827 -0.27363476
0.2747684 0.2087129 -0.102946214 -0.082169436 0.001456265 0.36070168 0.23458977 0.58505183
0.1889052 -0.28184596 0.1424672 0.037266728 -0.0247345 0.20733759 -0.04250005 -0.26382363
0.41836223 -0.07085794 0.09933538 -0.13446625 0.040331475 0.37721044 0.085630424 0.039981015
0.10848615 0.22531717 -0.014549595 -0.026985047 -0.101077124 0.083928086 -0.07904621 -0.06049555
0.12119863 -0.12920848 0.3559676 -0.11181618 0.11908829 -0.07666045 0.24138403 -0.043870997
-0.048780575 -0.04324243 0.19268061 0.3822643 0.3684755 0.03670728 0.041505493 0.5234868
-0.20394287 -0.13059632 -0.033356275 0.27404034 -0.20095553 -0.19590965 -0.24342085 -0.23064925
-0.13759156 -0.13834468 -0.32579926 -0.09522144 -0.10365673 0.2531988 0.3739242 -0.19003928
-0.15998316 -0.32477653 -0.20143853 -0.32840142 0.13721971 -0.21045087 0.044918213 0.026964873
0.43447772 0.092341565 -0.045784697 -0.065255284 -0.03955104 -0.049553223 0.21629292 0.3372801
0.11370884 -0.06564051 0.015175726 -0.1997549 0.2955663 0.21561767 -0.107569054 -0.13724928
0.38568297 0.36111873 0.17632252 -0.05975335 -0.06119128 -0.19138579 0.15192439 0.42725924
0.18309908 0.19472997 -0.05865203 -0.10766794 -0.04882559 -0.2367264 0.012250396 -0.45614925
-0.03729366 -0.10182178 -0.2857236 -0.14024119 -0.22649884 0.12598339 -0.2464085 -0.20197546
0.026706161 0.27384838 0.14112526 0.067986436 -0.20253189 -0.10974947 -0.009261553 0.48775864
0.22309326 0.08498947 -0.039843407 -0.20201159 0.25513044 -0.014437196 0.039317675 -0.22089037
-0.08422543 0.035226595 0.1432682 0.0029552924 -0.19410405 -0.31686977 0.19633399 -0.2298879
0.38801825 -0.41042456 0.16608338 -0.030087108 -0.016549217 0.16399737 0.1356137 -0.26641965
00000000: 0e68 ff3d f8d7 553c ead9 7fbe b8b7 633e
00000010: 9f3d f33e af8a 213e 43b7 d4be 9cd1 c73c
00000020: cb2f d73e ea4f 433e 03bc ecbc adab c03d
00000030: 5eb2 dd3c 9e51 4bbe 9c74 d0be 27b1 72be
00000040: 3032 da3d 554d 81be 012e 893e 2976 babe
00000050: 4621 03be 1e5f c0be 6a11 8ebe 7e77 853e
00000060: 96ed 8bbe 99ea 433e ec52 503e fe82 4b3d
00000070: 7634 3fbe beec c8bd b92a ae3d 80d7 e13d
00000080: 3f69 44be 05a2 523e 29a7 923e 72ac cc3d
00000090: a1e4 be3b 27d3 da3d dd5f d33d 94e1 74be
000000a0: 5135 fcbd bc4c 31be f8ba a73d e391 853c
000000b0: 1329 263e de65 86be 97fd 623d 37aa 4dbe
000000c0: d059 973d 1ae3 553e 5ca6 1b3d 6d7c 3cbd
000000d0: 5dc6 6f3e 21ce cb3d ee80 b9bd f0e5 a6bd
000000e0: b6b3 51be c662 193e 2462 12be 4aa9 d53d
000000f0: f5ab 14be 0af2 a03e 3947 81be 6d78 a3be
00000100: f41c 6abe f54f 93bc a64f 9fbd 4be2 87be
00000110: e65d e2bd 9f8f 72be 34ff 693e 0e1e cd3e
00000120: 14d0 e43c 748f f6bd 40e3 16be 5c61 893e
00000130: da56 3f3d f845 30be 1cc6 963e 494e 6dbd
00000140: 9d88 b33e d761 56be 0430 16bb ab33 89be
00000150: 81d1 873d 6999 903e 463e 053e e054 4cbe
00000160: 9e5d 513d efde d73d 1488 273d 39a8 313e
00000170: 19b8 59be 181f 96bd 9537 9bbc c91f 5c3e
00000180: ee70 c1bd b58e 873e 7233 4a3e f490 01bd
00000190: 23c2 8f3e e482 3cbe dc68 c8be 1949 123c
000001a0: 9777 bbbd d645 07be 7343 8d3e 6b3e 783c
000001b0: ecf5 083d 22db c03e 2558 29bd db19 8cbe
000001c0: 72ae 8c3e d6b8 553e 77d5 d2bd 7348 a8bd
000001d0: 25e0 be3a e4ad b83e 4d38 703e f5c5 153f
000001e0: 5d70 413e 1d4e 90be ece2 113e ffa4 183d
000001f0: 02a0 cabc 4e50 543e 8814 2ebd e413 87be
00000200: 9333 d63e f81d 91bd 5970 cb3d 85b1 09be
00000210: 9e32 253d ba21 c13e 015f af3d 22c3 233d
00000220: fd2d de3d 8bb9 663e 6d61 6ebc bf0f ddbc
00000230: 8601 cfbd 7de2 ab3d fbe2 a1bd 2fca 77bd
00000240: fd36 f83d 3a4f 04be 6341 b63e e2ff e4bd
00000250: 90e4 f33d 2700 9dbd 602d 773e 13b2 33bd
00000260: 24ce 47bd f91e 31bd 114e 453e 25b8 c33e
00000270: d2a8 bc3e 5f5a 163d aa01 2a3d 3b03 063f
00000280: 66d6 50be 0bbb 05be 97a0 08bd 044f 8c3e
00000290: 49c7 4dbe 8a9c 48be 5143 79be 512f 6cbe
000002a0: cde4 0cbe 3aaa 0dbe 29cf a6be 7503 c3bd
000002b0: fb49 d4bd 46a3 813e fe72 bf3e a899 42be
000002c0: a0d2 23be 1c49 a6be e745 4ebe 3b24 a8be
000002d0: 5383 0c3e 6f80 57be 29fc 373d 70e5 dc3c
000002e0: dd73 de3e 931d bd3d bc88 3bbd 90a4 85bd
000002f0: 4500 22bd 52f8 4abd e47b 5d3e faaf ac3e
00000300: 2ee0 e83d 886e 86bd 9ca3 783c 8c8c 4cbe
00000310: 7754 973e e1ca 5c3e 2a4d dcbd 138b 0cbe
00000320: 3d78 c53e 8ee4 b83e e48d 343e eebf 74bd
00000330: b5a3 7abd a3fa 43be 1192 1b3e b9c1 da3e
00000340: 537e 3b3e 4b67 473e 1c3d 70bd 0281 dcbd
00000350: 58fd 47bd 6868 72be e3b5 483c 658c e9be
00000360: 3dc1 18bd f087 d0bd 5d4a 92be 639b 0fbe
00000370: 50ef 67be ca01 013e 8352 7cbe a8d2 4ebe
00000380: e1c6 da3c db35 8c3e 2483 103e 793c 8b3d
00000390: 8564 4fbe 55c4 e0bd c5bd 17bc 80bb f93e
000003a0: 8f72 643e f60e ae3d d732 23bd 20dc 4ebe
000003b0: 75a0 823e fd89 6cbc 920b 213d 1631 62be
000003c0: 627e acbd c349 103d e6b4 123e 94ad 413b
000003d0: 36c3 46be c13c a2be c70b 493e bc67 6bbe
000003e0: 54aa c63e 2b23 d2be c311 2a3e 3d79 f6bc
000003f0: 3992 87bc edee 273e 51de 0a3e 2868 88be

base.mlp.fc2.0.0.bias f4 [64]
0.010067466 0.009966312 -0.008152007 -0.010636455 -0.020482257 -0.00018964363 0.0036969602 0.0038830226
-0.00124067 -0.00903541 -0.0023308822 -0.0010291085 0.0030575178 -0.0138615165 -0.009460769 0.009223102
0.008538112 0.011086326 -0.0025734582 -0.0023532407 -0.0027809537 -0.003805224 0.00723904 -0.008453592
-0.006427426 -0.002938363 -0.008812188 -0.00087807304 -0.017300595 -0.0030426525 0.0077272677 -0.004874415
0.014221291 -0.0038896145 -0.013644558 -0.0054435753 0.0028769788 0.0024510731 -0.011757481 -0.0067638066
0.015048543 -0.007880839 0.01199139 -0.01450464 0.000877049 -0.028020618 0.0046245544 0.00090242294
0.0022684347 -0.0021363527 0.0027068509 -0.010004458 -0.0116484845 0.011254589 -0.010018851 -0.006897266
-0.0042749476 -0.0033792064 0.004464212 0.005864995 -0.017489504 0.010344949 0.013045572 -0.004890479
00000000: 03f2 243c be49 233c ff8f 05bc 8744 2ebc
00000010: 68ca a7bc 13db 46b9 b348 723b 4f7a 7e3b
00000020: fa9d a2ba 4209 14bc b7c1 18bb 27e3 86ba
00000030: a360 483b 6a1b 63bc 5701 1bbc 7e1c 173c
00000040: 70e3 0b3c 6ca3 353c 77a7 28bb d438 1abb
00000050: a940 36bb 1161 79bb 7835 ed3b ef80 0abc
00000060: 289d d2bb 8d91 40bb ff60 10bc 7c2e 66ba
00000070: fab9 8dbc 3d67 47bb 0535 fd3b 8fb9 9fbb
00000080: 6b00 693c e7e8 7ebb 6d8d 5fbc 0560 b2bb
00000090: b28b 3c3b 2fa2 203b 73a2 40bc eca2 ddbb
000000a0: 2a8e 763c a21e 01bc 8977 443c dfa4 6dbc
000000b0: c3e9 653a 7f8b e5bc 9389 973b 9490 6c3a
000000c0: 05aa 143b 0d02 0cbb 6c65 313b bde9 23bc
000000d0: 49d9 3ebc 2b65 383c 1b26 24bc 7602 e2bb
000000e0: dc14 8cbb ad75 5dbb 8648 923b 252f c03b
000000f0: 2646 8fbc dc7d 293c 18bd 553c 5040 a0bb

base.mlp.fc2.0.2.weight f4 [64]
1.0070672 1.0049202 0.99611086 0.9884819 0.9922354 1.010356 1.0212207 0.99650383
1.0083181 1.0076957 1.0080256 1.0059575 1.0039048 1.0060382 1.011454 0.9882264
1.002462 0.9890659 0.9952225 1.0042238 1.0036943 1.0099984 0.9956328 1.0204924
0.9994197 0.9867467 0.9967615 1.0083336 1.008081 1.0038847 0.9898451 1.003608
1.0166572 1.0000528 1.0110574 1.0013644 1.011808 1.0091051 1.0133044 1.0078747
1.0096289 1.0107349 1.0111946 1.0248919 0.9960355 0.9858243 1.0064025 1.0206336
1.0023383 1.005972 0.9962032 1.0027645 0.9950231 1.0107526 1.0044032 1.0086453
1.015953 0.99058306 1.0036027 0.9928155 1.0258137 1.003383 1.0087333 1.0104825
00000000: 94e7 803f 3aa1 803f 1f01 7f3f 260d 7d3f
00000010: 2403 7e3f 5853 813f 5cb7 823f e01a 7f3f
00000020: 9110 813f 2cfc 803f fc06 813f 37c3 803f
00000030: f47f 803f dcc5 803f 5377 813f 68fc 7c3f
00000040: ad50 803f 6c33 7d3f e7c6 7e3f 688a 803f
00000050: 0e79 803f a147 813f cbe1 7e3f 7f9f 823f
00000060: f8d9 7f3f 6f9b 7c3f c32b 7f3f 1311 813f
00000070: cc08 813f 4b7f 803f 7d66 7d3f 3a76 803f
00000080: d321 823f bb01 803f 546a 813f b52c 803f
00000090: ed82 813f 5b2a 813f f5b3 813f 0a02 813f
000000a0: 853b 813f c35f 813f d36e 813f a82f 833f
000000b0: 2ffc 7e3f fb5e 7c3f ccd1 803f 1fa4 823f
000000c0: 9f4c 803f b1c3 803f 2c07 7f3f 965a 803f
000000d0: d5b9 7e3f 5760 813f 4990 803f 4a1b 813f
000000e0: bf0a 823f da96 7d3f 0e76 803f 2829 7e3f
000000f0: dd4d 833f db6e 803f 2c1e 813f 7e57 813f

base.mlp.fc2.0.2.bias f4 [64]
0.006007666 0.009142392 -0.0034063398 -0.010667144 -0.007459742 0.00066018966 0.014021988 0.0064639514
0.00033626254 -0.0054972875 -0.00065648503 0.0019788472 0.003338852 -0.021732723 -0.010343274 0.005678307
0.002754664 0.006778814 -0.00094674004 0.0020594273 -0.0017566063 -0.0015095588 0.004552716 -0.0072381436
-0.00363489 -0.0076274853 -0.005748827 -0.002158905 -0.012030163 -0.0015399256 0.0068868515 -0.0035546871
0.009682402 0.0054659056 -0.0148658445 -0.0038496403 0.0050230697 0.0043215393 -0.010055241 -0.0074280514
0.007006407 -0.00070721837 0.022365373 -0.012963977 -0.0046411376 -0.024204815 0.0046773613 -0.0020861172
-0.0050165965 -0.0011960063 0.004859039 -0.0019593732 -0.0013506965 0.012126322 -0.00406031 -0.0026781894
-0.00030523323 -0.0040399707 0.0018980708 0.0036857661 0.0066861976 0.0055248323 0.008383333 -0.00249114
00000000: f4db c43b f9c9 153c e63c 5fbb 3fc5 2ebc
00000010: da70 f4bb 9410 2d3a 7bbc 653c 8ecf d33b
00000020: 654c b039 9722 b4bb f717 2cba 8caf 013b
00000030: a4d0 5a3b d308 b2bc d676 29bc 1711 ba3b
00000040: 9887 343b d020 de3b a62e 78ba 75f7 063b
00000050: ed3d e6ba 63dc c5ba f32e 953b f32d edbb
00000060: 5637 6ebb fcef f9bb a860 bcbb 6a7c 0dbb
00000070: 291a 45bc 54d7 c9ba 19ab e13b c1f5 68bb
00000080: f0a2 1e3c 571b b33b df8f 73bc 3f4a 7cbb
00000090: 9098 a43b b39b 8d3b bdbe 24bc 0367 f3bb
000000a0: 0096 e53b 9f64 39ba 9637 b73c dc66 54bc
000000b0: af14 98bb 2d49 c6bc 8d44 993b 3db7 08bb
000000c0: 4362 a4bb 50c3 9cba 9338 9f3b d468 00bb
000000d0: db09 b1ba 7bad 463c 590c 85bb 9084 2fbb
000000e0: b607 a0b9 bb61 84bb b0c8 f83a e58c 713b
000000f0: e417 db3b a709 b53b 3f5a 093c 6542 23bb

rnn.rnn.weight_ih_l0 f4 [192, 64]
-0.057888318 -0.12261507 0.04168639 -0.083664335 0.07642318 -0.02971022 0.026714232 -0.07493267
-0.0039062714 -0.15588598 0.006669347 -0.0982267 0.03340612 0.06124803 0.049128197 0.07590943
0.0010483426 0.049687117 0.058129176 -0.06036102 0.005539143 0.029547958 -0.021325475 -0.11206477
-0.15415114 -0.03942751 0.025398001 -0.09123741 0.16082011 -0.070303164 0.03810281 0.08779725
0.03999629 0.015143742 0.022615049 0.031844772 0.04971283 -0.022320684 0.0051627164 -0.0250582
0.03251089 0.035691377 -0.032374617 -0.06310139 0.04221597 0.057244334 0.014051022 0.086351566
-0.032067906 -0.0078833895 0.0036603936 0.0863268 0.058334168 -0.036533266 0.09911669 -0.048828308
-0.05497012 -0.034483045 -0.032100417 -0.06388919 -0.09652534 -0.1632424 0.04735825 0.043703854
0.05779126 -0.021970676 -0.019139081 -0.04194374 0.066153996 0.06343053 0.1474744 0.049947742
-0.069924675 -0.123213805 -0.019021377 -0.045476917 -0.15404637 0.005013853 -0.04829955 0.0057214885
-0.05647015 0.052316494 0.08764636 -0.10617905 -0.023325348 -0.039343063 -0.072836906 0.087205425
0.025586933 0.0038627097 0.14948744 0.10485059 -0.042242378 0.055904668 -0.0077192355 -0.11885445
0.047760304 0.034731023 -0.05988115 -0.04209281 0.05584739 -0.06530167 0.0020958416 0.002731579
-0.008294446 -0.033931438 0.044662677 -0.029840358 -0.084818855 -0.008158158 0.19025551 -0.031466316
0.0633874 0.04218941 -0.04459583 0.025702858 0.063949056 -0.08559349 0.04617616 0.103541836
-0.06225129 -0.017526519 -0.030973118 -0.04344779 0.050546233 -0.09015174 0.043297492 -0.029537981
0.0023083356 0.03949172 -0.022991799 -0.033620257 0.03756686 -0.054698262 0.043858767 0.12456082
0.053642746 0.10884242 -0.029693102 -0.009311472 -0.09193373 0.033788014 -0.0028301934 -0.07570665
-0.013630979 0.006129782 0.08157151 0.07544312 0.12020985 -0.022167196 0.067384526 -0.046342015
0.034702297 0.10307751 -0.112892136 0.03728448 -0.09428846 -0.0024917186 0.020477274 0.09461529
0.102673404 -0.025368087 -0.098604344 -0.1577334 -0.0003852157 0.053088445 -0.12724534 0.066490225
-0.13131675 -0.116528116 -0.03661122 0.107035846 -0.034309726 0.1582979 -0.10914301 0.05997914
0.13010775 0.09896229 0.020955583 0.01803183 -0.19288899 0.13125461 -0.053392824 -0.005129362
0.06120844 0.049911246 0.08509761 0.11496617 0.13902944 -0.06291496 0.030622879 -0.10319784
-0.032885216 -0.017398225 -0.0790561 -0.050316606 -0.14863609 0.056146134 0.025933415 -0.12655702
-0.16169766 -0.046193603 0.0101699885 -0.08924463 0.044259697 -0.04047075 -0.061646122 -0.05488879
0.06719836 -0.047882915 -0.06540601 -0.059505124 0.05319775 -0.062214416 0.03250801 0.07782514
-0.05552043 -0.026483612 0.0042405543 0.07755909 0.021682538 -0.053953897 0.04451963 -0.07347785
-0.023479063 -0.078729786 0.08577667 0.041331988 0.0059703724 0.09069004 -0.13750055 0.07582823
-0.079412125 0.11646509 -0.031594332 0.04944394 -0.017166423 0.077296264 0.1768256 0.07201131
0.06589542 0.053286646 -0.09801212 0.08569051 -0.06637491 0.04750664 -0.05270801 0.0064520068
-0.07477931 0.052734476 -0.012065753 -0.016549667 -0.064363495 0.008879897 -0.04725805 -0.047197394
00000000: 4d1c 6dbd 9c1d fbbd 59bf 2a3d 3558 abbd
00000010: c283 9c3d d962 f3bc ced7 da3c 4d76 99bd
00000020: 2e00 80bb 93a0 1fbe 8a8a da3b 152b c9bd
00000030: dbd4 083d 37df 7a3d a63a 493d 6776 9b3d
00000040: 8a68 893a b884 4b3d dc18 6e3d 1e3d 77bd
00000050: b381 b53b 8f0e f23c c3b2 aebc 3782 e5bd
00000060: ccd9 1dbe be7e 21bd 780f d03c aeda babd
00000070: 07ae 243e 1bfb 8fbd b111 1c3d 0bcf b33d
00000080: 26d3 233d 751d 783c 3243 b93c aa6f 023d
00000090: ae9f 4b3d ded9 b6bc 012c a93b db46 cdbc
000000a0: 242a 053d 1f31 123d 3f9b 04bd 4d3b 81bd
000000b0: a7ea 2c3d 0979 6a3d 4236 663c 17d9 b03d
000000c0: a359 03bd 5529 01bc 37e3 6f3b 1bcc b03d
000000d0: cfef 6e3d e8a3 15bd b1fd ca3d 3100 48bd
000000e0: 5928 61bd 183e 0dbd ba7b 03bd 56d8 82bd
000000f0: 14af c5bd 0429 27be b9fa 413d d002 333d
00000100: 87b6 6c3d d9fb b3bc 90c9 9cbc 33cd 2bbd
00000110: bf7b 873d dee7 813d 8703 173e 0196 4c3d
00000120: ab34 8fbd 8557 fcbd b8d2 9bbc 0146 3abd
00000130: 55be 1dbe 3f4b a43b c0d5 45bd 537b bb3b
00000140: 3e4d 67bd d249 563d ef7f b33d 6774 d9bd
00000150: cd14 bfbc 3126 21bd 842b 95bd c298 b23d
00000160: b09b d13c 8425 7d3b 3c13 193e e8bb d63d
00000170: 5806 2dbd 4bfc 643d a4f1 fcbb f669 f3bd
00000180: 4fa0 433d 1e42 0e3d f045 75bd 8369 2cbd
00000190: 3cc0 643d e2bc 85bd 635a 093b 4a04 333b
000001a0: 6ee5 07bc b1fb 0abd 36f0 363d c473 f4bc
000001b0: 82b5 adbd cba9 05bc 57d2 423e d3e2 00bd
000001c0: 41d1 813d cece 2c3d 1eaa 36bd cd8e d23c
000001d0: b9f7 823d a44b afbd 3723 3d3d be0d d43d
000001e0: 35fb 7ebd c693 8fbc 56bb fdbc 4ff6 31bd
000001f0: 9109 4f3d 7aa1 b8bd b658 313d a3f9 f1bc
00000200: 7247 173b 12c2 213d 4c59 bcbc 65b5 09bd
00000210: b5df 193d 490b 60bd 40a5 333d be19 ff3d
00000220: 7fb8 5b3d c6e8 de3d f33e f3bc 258f 18bc
00000230: c047 bcbd 4d65 0a3d c47a 39bb 170c 9bbd
00000240: 7854 5fbc 57dc c83b f70e a73d ec81 9a3d
00000250: 9530 f63d fb97 b5bc e600 8a3d 20d1 3dbd
00000260: ff23 0e3d 4d1a d33d fe33 e7bd 9cb7 183d
00000270: 4f1a c1bd 1a4c 23bb f5bf a73c a9c5 c13d
00000280: 6f46 d23d bcd0 cfbc 13f1 c9bd dd84 21be
00000290: c7f6 c9b9 4573 593d 9a4c 02be 072c 883d
000002a0: e677 06be 4ba6 eebd a6f5 15bd 9c35 db3d
000002b0: 5b88 0cbd d818 223e 5f86 dfbd b0ac 753d
000002c0: f73a 053e beac ca3d 0bab ab3c 7db7 933c
000002d0: b184 45be 9c67 063e 6fb2 5abd 3514 a8bb
000002e0: b4b5 7a3d bc6f 4c3d a847 ae3d 6273 eb3d
000002f0: bc5d 0e3e 8fd9 80bd d5dc fa3c 6459 d3bd
00000300: a6b2 06bd b986 8ebc 2ae8 a1bd c918 4ebd
00000310: 0f34 18be 7df9 653d 5072 d43c 2a98 01be
00000320: 1294 25be 8135 3dbd 06a0 263c e3c5 b6bd
00000330: a849 353d a8c4 25bd a580 7cbd 11d3 60bd
00000340: 4b9f 893d e020 44bd 96f3 85bd a5bb 73bd
00000350: e2e5 593d 8bd4 7ebd 1e27 053d c962 9f3d
00000360: 6469 63bd 29f4 d8bc 59f4 8a3b 4dd7 9e3d
00000370: 949f b13c c3fe 5cbd 375a 363d 8e7b 96bd
00000380: 2a57 c0bc 153d a1bd aeab af3d bb4b 293d
00000390: 1da3 c33b b3bb b93d f2cc 0cbe d54b 9b3d
000003a0: d3a2 a2bd 4085 ee3d 0f69 01bd bb85 4a3d
000003b0: 99a0 8cbc 814d 9e3d c511 353e aa7a 933d
000003c0: 2ef4 863d 1943 5a3d 94ba c8bd 827e af3d
000003d0: 92ef 87bd 5396 423d 5be4 57bd 5b6b d33b
000003e0: e525 99bd 1b00 583d 70af 45bc 2b93 87bc
000003f0: 02d1 83bd fd7c 113c a891 41bd 0e52 41bd

rnn.rnn.weight_hh_l0 f4 [192, 64]
-0.08011478 -0.06003408 0.15304366 0.132241 0.035824407 -0.13507129 0.08049814 0.010915837
0.0027048348 -0.022059906 -0.098219894 0.00033308193 -0.09844136 0.08026377 -0.028040787 -0.066947125
0.047743477 -0.051142782 -0.09484886 -0.116133176 0.115000896 -0.11531619 0.12790847 0.12974392
0.1245496 0.101799116 -0.040816363 0.08022317 0.0969507 0.034133606 0.0070381905 -0.10236564
0.0005496069 -0.0027906531 -0.056053814 0.0694261 -0.018068843 -0.10525151 -0.09404614 0.0038583733
-0.075735815 -0.06412202 -0.073683344 0.07388323 -0.003943559 -0.020883804 0.08654881 0.006711521
-0.035830915 0.0122598745 0.05887043 0.08919059 0.0030183382 0.06205369 -0.1376018 0.07265583
-0.029853785 0.003161798 0.044690162 0.13247052 -0.08078024 -0.050173312 0.0068451916 -0.048459616
-0.03562807 -0.116976544 0.008456611 -0.07489085 -0.07902364 0.17315654 0.019973474 -0.07362257
0.05311154 0.14409877 -0.08399056 -0.05326986 -0.048708778 -0.012427557 0.030532248 -0.0036736822
-0.06890528 -0.1376641 0.13111627 -0.00017961084 0.0057218377 0.09287674 -0.015893757 0.031876903
-0.022120414 -0.06749995 0.06774449 -0.06285012 0.017809758 -0.06214352 0.049254872 -0.020136233
0.000962696 0.1300328 0.12176115 0.052417878 0.051152017 -0.008896449 -0.030317208 -0.042201377
-0.051997636 -0.07803681 0.059838835 -0.011641209 -0.062159866 0.082330436 -0.03123993 0.17974196
-0.037639342 -0.019958658 0.061069634 0.110024326 0.1497354 -0.10302964 -0.021857647 0.18924113
0.051545314 -0.08869996 0.11385218 -0.007252184 -0.005816606 0.08165638 0.059847888 -0.0037279052
-0.104098044 0.001644458 -0.05551248 0.014427538 0.038517322 0.050582547 0.06762273 0.01770356
-0.040087596 -0.14335227 -0.09752298 0.025394332 0.08443953 -0.008389014 0.10493164 -0.014281704
0.06570142 -0.036982447 -0.072274074 -0.048268422 -0.027268331 0.073787846 0.10497652 -0.10819335
0.10510762 0.03713288 -0.04501505 0.06843196 -0.02809231 0.025634162 0.048629988 -0.065454416
0.2187548 -0.08847164 -0.04658799 0.051044535 0.0081731975 -0.09030429 -0.023448648 0.14578246
0.10096047 0.04209285 0.03494175 0.051353175 -0.016065778 0.009268428 -0.04597465 0.1260045
0.15794215 0.08713212 -0.0069250744 -0.09033456 0.0031403352 -0.04671025 0.0037233492 -0.0015707895
0.018776275 -0.0122500975 0.13871713 -0.08114338 -0.0066723577 -0.07729666 -0.12889656 0.20340948
-0.01213547 -0.12485389 0.09077713 -0.023641042 -0.052746695 -0.049799174 0.014287723 -0.056778997
0.050599493 -0.0152223455 0.050424505 -0.07647139 -0.07410108 0.038871013 -0.028143957 -0.12118281
-0.0066087916 0.026668077 0.06713197 0.08467062 -0.032672755 0.048042815 0.033756025 0.020555254
-0.13164915 -0.044469316 -0.01773739 -0.037827674 0.06834705 -0.018679354 -0.00632202 -0.07379687
0.07317956 0.08469654 -0.09386392 -0.054906104 -0.071425244 0.08916629 -0.11930444 0.074959494
0.09733151 0.026707325 -0.10735244 -0.14121766 0.047199663 0.06586945 -0.032917846 -0.03561696
-0.06214447 -0.02974831 -0.10427742 -0.03184893 0.03875348 -0.0016058187 -0.0053664497 0.06857501
0.012063283 -0.17019148 0.076950334 0.21282445 0.07676945 0.0162922 0.053389072 -0.023272593
00000000: 3813 a4bd 4ce6 75bd 7ab7 1c3e 2f6a 073e
00000010: 9dbc 123d 2150 0abe 35dc a43d 57d8 323c
00000020: 9943 313b fab6 b4bc 8327 c9bd 80a1 ae39
00000030: a09b c9bd 5561 a43d cbb5 e5bc 931b 89bd
00000040: aa8e 433d 187b 51bd 1e40 c2bd 3bd7 edbd
00000050: 9785 eb3d e52a ecbd 70fa 023e 97db 043e
00000060: dc13 ff3d 0e7c d03d 0f2f 27bd 0c4c a43d
00000070: 178e c63d aecf 0b3d 9fa0 e63b 14a5 d1bd
00000080: 7f13 103a 64e3 36bb af98 65bd 452f 8e3d
00000090: 1c05 94bc 1b8e d7bd 439b c0bd c3dc 7c3b
000000a0: 611b 9bbd 6852 83bd 4be7 96bd 1750 973d
000000b0: f838 81bb 8314 abbc 8140 b13d 52ec db3b
000000c0: 70c3 12bd a4dd 483c 1f22 713d 8ea9 b63d
000000d0: 50cf 453b 032c 7e3d 7ce7 0cbe 94cc 943d
000000e0: ed8f f4bc 2b36 4f3b 080d 373d 5aa6 073e
000000f0: 1c70 a5bd 8882 4dbd a14d e03b 977d 46bd
00000100: bdee 11bd 6691 efbd 998d 0a3c 6060 99bd
00000110: 25d7 a1bd f34f 313e 699f a33c 6ec7 96bd
00000120: 7c8b 593d a18e 133e 3e03 acbd 7f31 5abd
00000130: db82 47bd f49c 4bbc c41e fa3c 29c2 70bb
00000140: 361e 8dbd d1f7 0cbe 5843 063e eb55 3cb9
00000150: 417e bb3b 2936 be3d a033 82bc 5b91 023d
00000160: df35 b5bc 6a3d 8abd a0bd 8a3d 90b7 80bd
00000170: c5e5 913c 348a 7ebd 7abf 493d bef4 a4bc
00000180: 6f5d 7c3a 5127 053e e95d f93d 21b4 563d
00000190: c784 513d 69c2 11bc cb5b f8bc 5adb 2cbd
000001a0: 79fb 54bd c3d1 9fbd 9119 753d c5ba 3ebc
000001b0: 589b 7ebd dc9c a83d e2ea ffbc 470e 383e
000001c0: b62b 1abd 5780 a3bc 2724 7a3d 6f54 e13d
000001d0: 3d54 193e 3401 d3bd cf0e b3bc 6dc8 413e
000001e0: 2e21 533d 53a8 b5bd 552b e93d bba3 edbb
000001f0: 3a99 bebb 763b a73d 0f23 753d df4f 74bb
00000200: 5b31 d5bd db8a d73a 0e61 63bd 7b61 6c3c
00000210: 57c4 1d3d a52f 4f3d c97d 8a3d 0e07 913c
00000220: e432 24bd f0ca 12be 21ba c7bd c607 d03c
00000230: a2ee ac3d 1372 09bc 66e6 d63d cffd 69bc
00000240: 778e 863d e87a 17bd 6e04 94bd 1cb5 45bd
00000250: d661 dfbc 151e 973d eefd d63d 7a94 ddbd
00000260: aa42 d73d a618 183d b361 38bd 0e26 8c3d
00000270: d821 e6bc bcfe d13c 3d30 473d f70c 86bd
00000280: 4201 603e 9f30 b5bd 0cd3 3ebd 1314 513d
00000290: e0e8 053c 75f1 b8bd 6117 c0bc ff47 153e
000002a0: 5dc4 ce3d 8d69 2c3d 151f 0f3d b557 523d
000002b0: 619c 83bc 9bda 173c ea4f 3cbd 5307 013e
000002c0: 96bb 213e 5372 b23d bceb e2bb 5301 b9bd
000002d0: 15ce 4d3b 3f53 3fbd 6f03 743b f3e2 cdba
000002e0: b4d0 993c a2b4 48bc dd0b 0e3e 802e a6bd
000002f0: cba3 dabb b64d 9ebd 76fd 03be 934a 503e
00000300: dad3 46bc 65b3 ffbd 5ce9 b93d dcaa c1bc
00000310: eb0c 58bd 38fa 4bbd 0e17 6a3c 1891 68bd
00000320: 6a41 4f3d 2567 79bc ed89 4e3d 089d 9cbd
00000330: 4fc2 97bd 3637 1f3d 288e e6bc b12e f8bd
00000340: 908e d8bb 0377 da3c 7c7c 893d ca67 ad3d
00000350: ded3 05bd 8bc8 443d c243 0a3d 7e63 a83c
00000360: 09cf 06be 7525 36bd 014e 91bc 31f1 1abd
00000370: 8af9 8b3d 7205 99bc f328 cfbb d022 97bd
00000380: 2adf 953d 6175 ad3d ba3b c0bd 39e5 60bd
00000390: 6647 92bd d19c b63d e355 f4bd 5d84 993d
000003a0: be55 c73d 52c9 da3c 99db dbbd 5d9b 10be
000003b0: 6f54 413d 90e6 863d ddd4 06bd 17e3 11bd
000003c0: 338b 7ebd bab2 f3bc 668f d5bd 0674 02bd
000003d0: f8bb 1e3d 567a d2ba 0bd9 afbb 0e71 8c3d
000003e0: 13a5 453c ad46 2ebe 2398 9d3d a7ee 593e
000003f0: 4d39 9d3d 3877 853c 80ae 5a3d 2aa6 bebc
