onpolicy/scripts/results/MPE/simple_spread/rmappo/check/wandb/run-20220704_181308-2ipaxemr/files/critic.pt (torch, 156012 bytes, 21 tensors)

base.feature_norm.weight f4 [54]
00000000: cc62 613f 0156 5d3f 87fe 783f d888 853f
00000010: f168 7d3f 9740 793f 3a03 7a3f ff5b 7f3f
00000020: 5b72 7b3f 68bd 713f f8f8 7b3f adf9 803f
00000030: 369c 813f d042 863f fe0a 823f 7a18 833f
00000040: d4d8 803f 33be 7a3f e4cc 603f 880b 633f
00000050: ec14 6a3f 0b0b 803f b30d 743f 5cea 7b3f
00000060: 34be 6e3f f198 7d3f b94d 723f a34e 7d3f
00000070: e695 7f3f 7ef8 803f a3e7 813f f397 7d3f
00000080: a2e1 843f 5216 863f f777 7f3f 5691 7a3f
00000090: 5e1f 5d3f cd24 653f 47c0 733f fccf 813f
000000a0: fa22 703f 9a39 743f f4c7 703f 5fa1 6e3f
000000b0: eace 753f 5876 803f 5b4a 813f b2f9 883f
000000c0: 8a61 793f fbee 883f afe3 7c3f 0fd2 7c3f
000000d0: f0ee 7e3f 9d7f 863f
0.8804138 0.86459357 0.9726338 1.0432386 0.9898825 0.9736418 0.97661173 0.9974975
0.9822137 0.94429636 0.9842677 1.0076195 1.0125797 1.048914 1.0159605 1.0241845
1.0066171 0.9794647 0.8781264 0.8868947 0.91438174 1.000337 0.95333403 0.9840448
0.93258977 0.99061495 0.94649845 0.98948115 0.998381 1.0075834 1.0148815 0.9905998
1.0381358 1.0475562 0.99792427 0.97878015 0.8637599 0.8950928 0.95215267 1.0141597
0.9380337 0.95400393 0.94055104 0.9321498 0.9601885 1.0036116 1.0100816 1.0701201
0.9741446 1.0697931 0.9878492 0.98758024 0.9958334 1.0507694

base.feature_norm.bias f4 [54]
00000000: 9b18 363c 3e39 bbbb d62d 013d 09d4 c6bc
00000010: b61a 393d 2e83 d9bc 9940 083c e689 01bd
00000020: efd4 84bc a018 e23b 0d58 ea3b c80f d03c
00000030: 7987 a33d f09a cb3d e495 9bbd 5677 ef3b
00000040: 5e0b 07be dbaa af3b 3fbe 863d 3e4e 843c
00000050: 771d eebc 30b1 a33c 70c6 fbbc ee51 a03c
00000060: b266 4b3c f9e0 973b 6508 c93a d79a 3ebc
00000070: 84e1 8fbc 49ba 193d 4767 8a3c 0d14 47bd
00000080: dc03 8d3d 74e0 c63d f454 1fbd f4bc 203d
00000090: de02 4d3c 426d 89bc 7108 7c3d ac96 18bd
000000a0: cd3c ae3b cf7b 79bd e039 16bd 5dd4 d93c
000000b0: 6fbb 103d bc78 0ebd f7e3 5e3d 0068 ad3c
000000c0: 29f3 10be 4e0b 1bbd e1b9 b3bc b15d 8bbc
000000d0: d12c f53b 7cb1 d13c
0.011114265 -0.005713611 0.031537853 -0.024271028 0.04519149 -0.02655181 0.0083161825 -0.03162565
-0.016214816 0.006899908 0.0071516098 0.02539815 0.07984824 0.09941661 -0.07596949 0.007307927
-0.1318793 0.0053609437 0.06579255 0.01615059 -0.029066784 0.01998195 -0.03073427 0.019570317
0.012414621 0.004634973 0.0015337585 -0.011633596 -0.017563589 0.03753117 0.01689495 -0.048603106
0.06885502 0.0971078 -0.038899377 0.0392427 0.012512891 -0.016775731 0.061531488 -0.037253067
0.0053173066 -0.06090909 -0.036676288 0.02659052 0.035335 -0.03478311 0.054416623 0.021167755
-0.14155258 -0.037852578 -0.02193922 -0.017012449 0.007482149 0.025597326

base.mlp.fc1.0.weight f4 [64, 54]
00000000: 7533 2ebe 8e61 c13e 8c40 e83d 4a75 693e
00000010: 9156 d8bd 8a4d 923b 9df7 94bd d936 a6bb
00000020: 8b1e e53d 83c8 b03d 3733 453e 0787 34be
00000030: eb3c 6bbe a9a4 5c3d e704 8bbe 69dc af3e
00000040: 3d39 363e 2487 0c3f 5431 0ebe 2d0e 98be
00000050: 2475 41be a0a5 10be caaa cabd ccee 403e
00000060: 6a4d 893e b4a2 bb3d a8ca d13d 8326 203e
00000070: 091a 573c bff6 203e 1df6 853e 14f8 603e
00000080: a476 be3e 95bf babe fb83 a6bd 9c46 92be
00000090: 7c5c 563d 1c9a 4d3d 9372 f6bd 6a5e 11bd
000000a0: 24f9 54be f626 fcbd 6aab fa3d 4b3c 853d
000000b0: b3c2 88be a3c8 063e 7775 b93e a84a 6f3e
000000c0: 64c2 a63e 8793 f2bd 1f80 27be 7324 afbc
000000d0: 335b a2bc b4b6 2dbd 4f23 603e 37ba 7d3d
000000e0: 1af3 583e b662 98bd 9362 83bd be99 0a3e
000000f0: f264 f13e 35db cfbd f0de 293f 8fc0 963e
00000100: 7adf 9a3d 8783 41be 0c49 43bd d6f6 e53d
00000110: 0132 553e 5379 183d 6b9d 89bd 60f1 afbe
00000120: 8b34 a63e 3cb6 c3bd 5cac b03d 4cef 423e
00000130: 8cf5 28bd d6b6 873d 18b5 c73d f256 6ebe
00000140: b9f6 39be 3e3a de3d 6cc7 96be 0354 693e
00000150: 3130 5c3e 21d8 ddbd 3fe2 6ebb 7aed 21bd
00000160: 7214 24be 742b aebd 7c4b 7f3e 733f 1e3e
00000170: 4408 043e a98e 253e c382 efbb 3f0d d53d
00000180: 967d b6be e398 7dbd faed b8bd 9953 6abe
00000190: c8ca 9bbc 2d61 e7bd 30c2 98bb fda8 bbbe
000001a0: 6d34 83be fdba 75bd e582 cf3e b858 993d
000001b0: c1ac 9c3e 7cb6 0a3e dd0a 12bc 4e73 20bf
000001c0: 8e9a 033e 8a7e 183e c9fc a43c 1240 0a3d
000001d0: 56bc 15be 168f 093e 6208 e73d 0e4e 8c3d
000001e0: c878 8f3d d1e3 bf3d 77fe 5dbc d6cb b9bd
000001f0: 0f80 463e 5d2a 843e f542 3d3e 779e 50be
00000200: 91d5 00be 3ebe cf3d b931 c23e 0131 39be
00000210: d2bd cd3c 7aec c73e 8f4e 943e f733 70bc
00000220: 73d8 0abc a247 8e3e b7a6 debc 4092 d93e
00000230: 2d89 6cbe 5fe2 c53d 8e6d 43be 0d9a a03e
00000240: 47da 99bd dc81 d0bd 0d5d 663e 4c82 89bd
00000250: 45de fb3e 2878 44be a75a 89be 3874 6e3e
00000260: 80f4 5ebe f511 163a 3173 c33d c783 a73d
00000270: 06dc 933e 456d 0cbe 694f a9bd 34b3 7ebd
00000280: 35a2 3e3e 8e9b 85be 14ab e53d f0bc debc
00000290: f727 8abe 43ba 79be abea 52bd e9e6 43be
000002a0: 4d91 7abd d263 943e fba6 c7be 4556 5cbd
000002b0: 4e91 1f3e 80ce ba3c d7d0 56be 9c5b 5c3e
000002c0: 1c9c 35b9 eb2e 963e dd4d 7a3e 5100 71bd
000002d0: b8f2 bd3e 05ce 593d 6370 cabe 2b34 013d
000002e0: 6756 98bb d315 813e 742e c1bd 9c7e c93e
000002f0: 8e0d 7f3e 74c0 53bd 4d55 1d3e b43a 46bd
00000300: 6760 38bd da90 c7bd 657e a43e ac2b a33e
00000310: 7540 aa3e 1a4f f3bc 5714 36bd 2faf d43e
00000320: 8c34 05be b782 51be 5937 53bd 55af 603d
00000330: 23d8 7abe 54e7 cfbe d1d2 a53d 83eb 16be
00000340: 66d7 a33e 3afa e73d 6484 bdbd 83c7 12be
00000350: 8f52 e63c 5329 a23e a61b 22bd 39b1 933e
00000360: 8191 283e 5f38 5c3e a726 513e 936a 07be
00000370: 5bf7 2abd 9dac 57be 8d49 853e 2fc9 b7be
00000380: ce29 983d d6e7 12be c56f 0cbe 2ca5 4d3e
00000390: fadb 6cbe 4cb7 1cbc 70c8 5d3e 88ce d63d
000003a0: b464 e83e aebf 563e 787a 45be 49e7 953a
000003b0: da64 68bd 4a5b a2be b27b dbbc c00f 133e
000003c0: 1a83 3ebe 397c 4ebd 40bf afbd 6a96 723d
000003d0: 0998 24be 0e76 993c 98b5 853d abe7 89bd
000003e0: 5759 96bd 19f3 903e d302 96be 3f1f a53e
000003f0: 4135 35be d95f 7ebe e470 a0be da08 87be
-0.17011817 0.3776974 0.11340436 0.22798648 -0.10563386 0.00446481 -0.07273791 -0.0050724563
0.11187466 0.086319946 0.19257818 -0.17629634 -0.22972457 0.05386797 -0.27152178 0.34347847
0.17795272 0.5489371 -0.13886005 -0.29698315 -0.18892342 -0.14125681 -0.09895857 0.18841094
0.26816875 0.091618925 0.10243732 0.15639691 0.013128766 0.15719126 0.26164332 0.21969634
0.3719989 -0.3647429 -0.08130642 -0.28569496 0.052334294 0.0501958 -0.12033572 -0.03549043
-0.20798165 -0.12312119 0.12239726 0.065056406 -0.26711044 0.13162474 0.3622243 0.23368323
0.32570183 -0.11844545 -0.16357468 -0.021379685 -0.019818878 -0.042410567 0.21888469 0.061945166
0.21186486 -0.074407026 -0.06415286 0.1353521 0.47147328 -0.10149232 0.663558 0.29443786
0.07562156 -0.1889783 -0.047677085 0.11228721 0.20819856 0.03722508 -0.06719478 -0.34363842
0.32461962 -0.09556243 0.08626625 0.19036597 -0.041249797 0.0662667 0.09751338 -0.23275355
-0.18160523 0.108509526 -0.29449022 0.22785954 0.21502759 -0.10832239 -0.003645077 -0.039533116
-0.16023424 -0.08504382 0.24931139 0.15453891 0.12893778 0.16167702 -0.007309289 0.10402917
-0.3564269 -0.061913382 -0.090297654 -0.22883452 -0.019017592 -0.11297832 -0.004661821 -0.36652365
-0.25625935 -0.05999278 0.40529552 0.07487625 0.3060055 0.13546175 -0.008913723 -0.6267594
0.12851927 0.14892021 0.020140069 0.03375251 -0.14622626 0.13433489 0.11280896 0.06850825
0.07005459 0.093696244 -0.013549439 -0.09072082 0.19384788 0.2581357 0.18482573 -0.2037295
-0.12581469 0.10143708 0.3792856 -0.180851 0.025114927 0.39047605 0.28966185 -0.014660827
-0.008474457 0.27789026 -0.027179105 0.42494392 -0.23099203 0.096623175 -0.1908476 0.3136753
-0.07512336 -0.10181019 0.22496434 -0.06714305 0.49193016 -0.19186461 -0.26826975 0.23286521
-0.21772957 0.00057247217 0.095434554 0.081794314 0.28878802 -0.13713558 -0.082670994 -0.06218262
0.18616565 -0.2609524 0.11214271 -0.027189702 -0.26983616 -0.2438746 -0.051493328 -0.19131054
-0.061173726 0.28982407 -0.38994583 -0.05379321 0.15582773 0.022803545 -0.20978104 0.21519321
-0.0001731966 0.2933267 0.24443765 -0.058838192 0.37099242 0.05317499 -0.3953887 0.031543892
-0.004648972 0.25211963 -0.09432688 0.39354408 0.24907514 -0.05169721 0.15364571 -0.048395827
-0.04501381 -0.09744425 0.3212768 0.31869256 0.33252302 -0.029700805 -0.04445299 0.41539904
-0.13008326 -0.2046002 -0.051566456 0.05485471 -0.24496512 -0.40606177 0.08096851 -0.14738278
0.32000273 0.11327024 -0.09253767 -0.1433392 0.028115539 0.31672153 -0.03957715 0.28846148
0.16461755 0.21505879 0.20424901 -0.13224249 -0.041739803 -0.2106194 0.26032677 -0.35895678
0.074298486 -0.14346251 -0.13714512 0.2008254 -0.2313079 -0.009565186 0.21658492 0.104886115
0.4538933 0.20971557 -0.19285 0.0011436726 -0.056736805 -0.31710273 -0.026792381 0.14361477
-0.18604699 -0.050411437 -0.085814 0.059225477 -0.16073622 0.01873305 0.06528777 -0.0673364
-0.07341259 0.2831047 -0.2929903 0.322504 -0.17696096 -0.2484125 -0.3133613 -0.2637394

base.mlp.fc1.0.bias f4 [64]
00000000: 43c4 3dbd 6a17 853d 41c7 883c bcc8 0b3d
00000010: 0ff1 903c 8f1d 09be 650b 75bc 0f08 003e
00000020: f053 073d 019d 9bbd d042 27bd e8f4 f63c
00000030: fb3d 773b 6e2e 963d 33e7 be3c 0989 8e3d
00000040: 20bd 68bc ce8b 5f3c 0568 ca3b ff79 083c
00000050: f24f 183a bb08 9ebd 3a7d 4e3d 2048 11bc
00000060: 0d7e 4cbc c601 29bd 4956 933c 614d f43c
00000070: f81b 51bd 4910 70bd 5b16 0b3d 9968 b43d
00000080: fb59 583c b345 f93b 3289 2d3d 4329 a5bd
00000090: 4935 0e3d 18a6 0c3d f529 f7bc 87e6 763b
000000a0: b33c 033c 76e5 0dbd 7eec 693c 3a32 e1bd
000000b0: c690 a33c 1306 d8bc 6438 9d3b e8c1 e6bb
000000c0: 57e5 b63d 151c 863c 16c8 883b 3caa 71bd
000000d0: 094c 2cbc 304c 673d 93c1 27bd b49a 283d
000000e0: 8bae 3f3d 84a2 343d a691 16bd 921b 08bd
000000f0: 8c25 463d 80f2 98bc 81d6 0cbd ccf6 b9bc
-0.046329748 0.064986065 0.016696574 0.034126982 0.01769307 -0.13390182 -0.01495633 0.12503074
0.033039033 -0.075983055 -0.0408352 0.030146077 0.0037726152 0.073330745 0.023303604 0.06959731
-0.014205247 0.013644172 0.006176951 0.008329867 0.00058102526 -0.07716509 0.050412394 -0.008867294
-0.012481225 -0.041261457 0.01798548 0.029822053 -0.051052064 -0.05860928 0.033956867 0.08809013
0.013205047 0.0076071857 0.042367168 -0.08064511 0.034718785 0.034338087 -0.030171374 0.0037674026
0.008010077 -0.03464266 0.014277576 -0.10995908 0.019966494 -0.026370084 0.004797982 -0.0070421584
0.08930462 0.016370812 0.0041742427 -0.05900024 -0.010516175 0.056469142 -0.04095609 0.04116316
0.046797317 0.0441003 -0.036759995 -0.033229418 0.04837565 -0.01867032 -0.034384254 -0.02270069

base.mlp.fc1.2.weight f4 [64]
00000000: 77d3 7d3f e36f 7e3f 52bb 753f d72e 783f
00000010: a954 803f fd20 833f 1990 6f3f 38b3 783f
00000020: 07bf 7c3f 01c8 7f3f f081 7d3f 95c7 773f
00000030: 1084 823f c9a6 843f f909 7c3f 7940 7e3f
00000040: baec 7f3f f242 693f 808d 723f e0e7 7c3f
00000050: aea6 7a3f ab54 823f 4282 7e3f 4194 833f
00000060: ab82 7d3f 69a8 813f 6348 6d3f 25c1 653f
00000070: aebf 763f 8d6f 823f 1b17 813f 25fd 773f
00000080: 8246 7b3f 339a 7a3f ff9a 7d3f f7b1 743f
00000090: 7c44 7f3f 891b 773f 0b8e 6e3f eb98 753f
000000a0: 8875 803f 0da6 703f f8c3 7c3f acfb 7f3f
000000b0: 1fee 783f 32ed 793f cd85 6f3f 6df1 763f
000000c0: 9347 7b3f c5a0 713f bcd0 793f a16c 713f
000000d0: 632a 743f a7c8 813f 2b9a 773f df66 6f3f
000000e0: dc09 803f 4959 7e3f 0eab 783f 15cd 7d3f
000000f0: 257c 793f b411 7f3f 0707 7e3f ae00 803f
0.99150795 0.99389476 0.95988953 0.9694647 1.0025836 1.0244442 0.9357925 0.97148466
0.98728985 0.99914557 0.99026394 0.96788913 1.0196552 1.0363399 0.9845272 0.9931713
0.9997059 0.91117775 0.9474716 0.98791313 0.97910583 1.0182089 0.9941751 1.0279619
0.9902751 1.012952 0.9268858 0.8974784 0.9638623 1.0190293 1.0085176 0.9687064
0.9815446 0.9789154 0.9906463 0.9558405 0.99713874 0.9652639 0.9318549 0.9593646
1.0035868 0.94003373 0.98736525 0.99993396 0.97238344 0.97627556 0.9356354 0.96462137
0.9815609 0.9438594 0.9758413 0.9430638 0.95377177 1.0139359 0.96719617 0.93516344
1.0003009 0.9935499 0.9713601 0.99141055 0.97455055 0.9963639 0.9922947 1.0000207

base.mlp.fc1.2.bias f4 [64]
00000000: 013d 28bd ceab 393d 1507 efbc 6859 1e3d
00000010: 3d7b 3d3c 0051 25be b726 02bd 1e6d ad3d
00000020: fb41 e5bb a3b0 03be 41a0 0dbd a3a1 8f3c
00000030: 377d 66bb 0e96 c73d 772c 6f3b de12 c53d
00000040: 7470 813b b6b4 e43b 7a63 56bb c8bb 5f3b
00000050: 4397 a13a 3a66 a5bd a426 1e3d 9279 4d3c
00000060: 636b 03bc f8ec 95bd 8348 aabb 1338 e43c
00000070: 767d 81bd c02a 39bd e157 743c 61bc b13d
00000080: 4fb5 b9bc a17e 103c b7d6 803d c2c7 93bd
00000090: fd1f 933a d392 2db9 fcc9 04bd afdc 913c
000000a0: 82ee bb3b c4dc 4abd 3376 093c d595 c6bd
000000b0: 9d81 7b3c 7d0e 88bc 02ff 883b 0861 9239
000000c0: e820 933d 9fbc 96ba 0c9c e63b 82fb 9dbd
000000d0: b511 dfbc deb5 7e3d 96e3 f1bc 2863 1e3d
000000e0: df88 d73b dac9 2a3d 2368 2bbd f1a5 f6bc
000000f0: aefb c43c 1b6f 37bd b9ac e2bc bf18 eabc
-0.041073803 0.04532986 -0.029178182 0.038659483 0.011565027 -0.1614418 -0.031775203 0.08468078
-0.006996391 -0.1286035 -0.03457666 0.01753313 -0.0035169849 0.097454175 0.003649501 0.09622739
0.003950173 0.0069795502 -0.0032713101 0.0034139026 0.0012328405 -0.08076139 0.03861107 0.012541192
-0.008021208 -0.07320589 -0.0051966324 0.02785877 -0.06322758 -0.045206785 0.01491353 0.086785085
-0.022669462 0.008819253 0.062909536 -0.07215835 0.0011224743 -0.00016553262 -0.03241919 0.017805425
0.0057352195 -0.049526945 0.008389997 -0.09696547 0.015350726 -0.016608471 0.00418079 0.00027919584
0.07184011 -0.0011500305 0.007037645 -0.07713987 -0.027230123 0.06218516 -0.029527467 0.03866878
0.0065775956 0.041696407 -0.04184736 -0.030108424 0.024045791 -0.044783693 -0.027670251 -0.028576253

base.mlp.fc_h.0.weight f4 [64, 64]
00000000: 6a0e 0d3e 2f99 04bc 5f78 8bbe 1eee 593e
00000010: 5f07 f93e 8310 083e 9e58 d7be a1de 0d3c
00000020: 2634 d83e 6f6b 3c3e cd80 9ebc 6ad7 ba3d
00000030: 1abd 363d 5199 47be cb7c c8be 65fe 82be
00000040: 9394 b43d cec3 7cbe 6a89 8e3e 1b09 bbbe
00000050: b188 e6bd 8a8e b8be e479 85be 6ee3 863e
00000060: ff5c 9abe 907f 363e b610 5e3e 7a22 2f3d
00000070: fadd 2fbe 0507 b0bd a3dd 653d 6297 c23d
00000080: 5f6b 48be f21a 663e 194b 943e e3a0 d43d
00000090: 55d9 f1b9 025d f63d 8fae e03d c1e8 64be
000000a0: dd3a 12be 0da3 25be f14e ce3d 5222 ed3b
000000b0: e8f8 313e 0154 83be 18e0 233d eda3 48be
000000c0: 57e8 873d ece2 473e ac5d 873c 637b e7bc
000000d0: a0b3 743e a7f8 d23d 45a7 aabd ce9c 69bd
000000e0: ccf8 6abe 6a7a 1c3e c772 23be f6ae a83d
000000f0: 265f 1ebe 235a 973e 3cf5 73be 4002 a0be
00000100: 7f3d 69be f256 c9bc e115 afbd 9f1c 80be
00000110: de71 cabd 7954 62be 11ca 6a3e c667 cd3e
00000120: a051 153d 35e9 edbd 28d9 07be 7a0b 8b3e
00000130: 6b62 2b3d c789 34be cec9 903e 544f 6dbd
00000140: 289f a63e 129c 6cbe eff1 8fbc 33d7 8bbe
00000150: 7aad 833d 11c6 923e 1b12 0b3e ea92 4bbe
00000160: 7e2e 5d3d 2e5b ec3d 54c8 243d b9c7 313e
00000170: 09ed 5bbe fb8c 84bd 6aea 75bc d328 603e
00000180: 0044 c3bd 7252 863e 3ecb 503e a74c 2cbc
00000190: 40a5 913e 97b1 3cbe 36cd cfbe 4050 04bc
000001a0: 90fe cdbd a867 1fbe 37e7 8c3e 3276 2d3c
000001b0: 150f 1b3d 0a7f ba3e 9851 01bd da59 88be
000001c0: 745b 863e ebf2 603e dd41 efbd 15ea a7bd
000001d0: 0076 2c3b 4eb0 bb3e 6d2b 783e 3c69 173f
000001e0: 5afa 3f3e 9c72 88be 3f85 063e 607f 733d
000001f0: a8f4 3cbc df29 473e e1a5 7dbd 65b1 88be
00000200: bcda d73e ddf3 7bbd 98f2 d43d b2e0 11be
00000210: 34ba a73c 5d05 be3e cea4 923d 0fba 293d
00000220: ab40 d83d 2940 5d3e da7c 1fbd 5999 87bc
00000230: ebde d4bd c6b5 933d 656e 95bd 2e05 87bd
00000240: d0f8 003e c03c 1abe 924e bf3e b6bc e1bd
00000250: 8429 063e 26e7 a6bd a6f7 7a3e 1a97 58bd
00000260: 5b09 52bd ff04 4abd f89c 3f3e 3dc9 be3e
00000270: 2946 b93e e8e9 f13c 14be 263d 7263 083f
00000280: 8a07 48be 8308 07be a57f 0abd 96b6 893e
00000290: 5f21 46be 361f 46be 0c53 71be c1dc 5cbe
000002a0: d020 0fbe bd59 00be 325d aabe 71ad c5bd
000002b0: 0e1e edbd d85e 863e 386f c43e 1c36 3bbe
000002c0: f9f8 20be 944c abbe 0fb9 45be 0622 afbe
000002d0: c500 0a3e 9e92 63be 3cc8 483d 10e4 cf3c
000002e0: 0ac0 e23e 006a af3d 6064 0cbd ad7f 80bd
000002f0: 07fe 4dbd abd6 20bd ec58 6d3e 4978 a93e
00000300: 9007 f03d 35dc 34bd 5b97 693c a87d 63be
00000310: eece 933e 5a95 583e 8e45 f5bd 0620 04be
00000320: 1f0f c33e 8813 b63e 6a1a 273e b7a9 5bbd
00000330: efee 69bd e2bb 41be b1b6 183e cb46 df3e
00000340: 5287 443e d37a 463e b333 6ebd 0745 e1bd
00000350: 7927 2bbd f4f2 72be 3adc 9ebb 7c7c edbe
00000360: b79a 28bd fc78 dbbd 087a 92be 73a8 0ebe
00000370: b237 72be f339 fb3d 8622 7dbe c4cc 4abe
00000380: 524e 0d3d 54ea 883e f472 143e f1e4 893d
00000390: 573d 44be fb29 fbbd ecee 303c fbf6 f93e
000003a0: 9777 693e 0324 c23d 90c4 7bbd 1fc9 51be
000003b0: c564 793e 74a7 6dbb fb61 393d 9cb8 61be
000003c0: cddc b5bd 6abe d63c 6299 1d3e ca16 22bc
000003d0: 51b7 42be 5830 a6be 639c 4d3e facc 71be
000003e0: fcd7 ca3e 9e2d d1be b9ef 3a3e d602 10bd
000003f0: 45b3 8abc 033d 2b3e 7603 0e3e bf6b 88be
0.1377503 -0.008093162 -0.27240273 0.21282241 0.48638436 0.13287549 -0.42059797 0.008659036
0.42227286 0.18400358 -0.019348526 0.09123118 0.044613935 -0.1949208 -0.3915771 -0.25584713
0.08817401 -0.24684069 0.27839214 -0.36530384 -0.112565406 -0.3604625 -0.26069558 0.2634539
-0.30149075 0.17822099 0.21686062 0.04275749 -0.17174521 -0.08595089 0.056119572 0.0950153
-0.19572209 0.22471216 0.28963545 0.10382249 -0.00046129027 0.120294586 0.109707944 -0.22354414
-0.14280267 -0.1617548 0.10073651 0.0072367573 0.17380106 -0.25650027 0.040008634 -0.19593783
0.06636112 0.19520158 0.016524158 -0.028257078 0.23896646 0.10301333 -0.083326854 -0.057034306
-0.22946471 0.15281072 -0.15961753 0.08236496 -0.15465984 0.29560956 -0.23824018 -0.31251717
-0.22777365 -0.024577592 -0.08549095 -0.25021836 -0.09885 -0.22102536 0.22928645 0.40118235
0.036454797 -0.11616746 -0.13266432 0.27157193 0.041841906 -0.17630683 0.28278965 -0.05793698
0.32543302 -0.23106411 -0.017571418 -0.2731262 0.064295724 0.28666738 0.13581125 -0.19880262
0.053999417 0.11540829 0.04023011 0.17361344 -0.2147714 -0.064722024 -0.015009502 0.21890573
-0.09534454 0.26234776 0.2039003 -0.010516322 0.28446388 -0.1842712 -0.4058625 -0.008075774
-0.100583196 -0.15566885 0.27520153 0.010587262 0.03785618 0.36425048 -0.031571954 -0.2663105
0.26241648 0.21967666 -0.11682484 -0.081989445 0.002631545 0.36657947 0.24235316 0.5914495
0.18747845 -0.2664994 0.13136767 0.059447646 -0.01153294 0.19449566 -0.061925773 -0.2669784
0.4215907 -0.061511863 0.103978336 -0.1424587 0.02047453 0.37113467 0.0716034 0.041437205
0.105592094 0.21606506 -0.038937427 -0.016552614 -0.10394081 0.07212405 -0.07296447 -0.06592785
0.12594914 -0.15062237 0.37364632 -0.11022322 0.13101774 -0.08149557 0.24508533 -0.052878477
-0.051278453 -0.04932117 0.18712223 0.37262908 0.3618634 0.02953048 0.040708616 0.5327674
-0.19534126 -0.1318684 -0.033813138 0.26897115 -0.19348668 -0.19347844 -0.23566836 -0.21568586
-0.1397736 -0.12534232 -0.33274227 -0.09652222 -0.11577998 0.26244235 0.38366103 -0.1828236
-0.15719976 -0.33456862 -0.19308876 -0.34205645 0.13476856 -0.22223899 0.049019083 0.025377303
0.4428714 0.0856514 -0.034275413 -0.06274352 -0.050291087 -0.039267223 0.23178452 0.33099583
0.117201924 -0.04415532 0.014257277 -0.22215903 0.28868812 0.21150723 -0.11976157 -0.12902841
0.38097474 0.35561776 0.1631867 -0.05362865 -0.05711263 -0.18919328 0.14913441 0.43608698
0.19192246 0.19382791 -0.058154773 -0.10999494 -0.04178569 -0.23725492 -0.0048480304 -0.46384037
-0.041163173 -0.10716435 -0.28608727 -0.13931446 -0.23654059 0.12266912 -0.24720201 -0.19804674
0.03449852 0.26741278 0.14496976 0.0673312 -0.19164024 -0.122638665 0.010799151 0.48821244
0.22799526 0.09479525 -0.061466753 -0.20486878 0.24354847 -0.003626314 0.045259457 -0.22043079
-0.08880005 0.026213843 0.15390542 -0.009893129 -0.19015242 -0.32458758 0.20079188 -0.23613349
0.39617908 -0.40855116 0.1825551 -0.035158955 -0.016931185 0.16722493 0.13868508 -0.26644704

base.mlp.fc_h.0.bias f4 [64]
00000000: 0000 0000 0000 0000 0000 0000 0000 0000
00000010: 0000 0000 0000 0000 0000 0000 0000 0000
00000020: 0000 0000 0000 0000 0000 0000 0000 0000
00000030: 0000 0000 0000 0000 0000 0000 0000 0000
00000040: 0000 0000 0000 0000 0000 0000 0000 0000
00000050: 0000 0000 0000 0000 0000 0000 0000 0000
00000060: 0000 0000 0000 0000 0000 0000 0000 0000
00000070: 0000 0000 0000 0000 0000 0000 0000 0000
00000080: 0000 0000 0000 0000 0000 0000 0000 0000
00000090: 0000 0000 0000 0000 0000 0000 0000 0000
000000a0: 0000 0000 0000 0000 0000 0000 0000 0000
000000b0: 0000 0000 0000 0000 0000 0000 0000 0000
000000c0: 0000 0000 0000 0000 0000 0000 0000 0000
000000d0: 0000 0000 0000 0000 0000 0000 0000 0000
000000e0: 0000 0000 0000 0000 0000 0000 0000 0000
000000f0: 0000 0000 0000 0000 0000 0000 0000 0000
0.0 0.0 0.0 0.0 0.0 0.0 0.0 0.0
0.0 0.0 0.0 0.0 0.0 0.0 0.0 0.0
0.0 0.0 0.0 0.0 0.0 0.0 0.0 0.0
0.0 0.0 0.0 0.0 0.0 0.0 0.0 0.0
0.0 0.0 0.0 0.0 0.0 0.0 0.0 0.0
0.0 0.0 0.0 0.0 0.0 0.0 0.0 0.0
0.0 0.0 0.0 0.0 0.0 0.0 0.0 0.0
0.0 0.0 0.0 0.0 0.0 0.0 0.0 0.0

base.mlp.fc_h.2.weight f4 [64]
00000000: 0000 803f 0000 803f 0000 803f 0000 803f
00000010: 0000 803f 0000 803f 0000 803f 0000 803f
00000020: 0000 803f 0000 803f 0000 803f 0000 803f
00000030: 0000 803f 0000 803f 0000 803f 0000 803f
00000040: 0000 803f 0000 803f 0000 803f 0000 803f
00000050: 0000 803f 0000 803f 0000 803f 0000 803f
00000060: 0000 803f 0000 803f 0000 803f 0000 803f
00000070: 0000 803f 0000 803f 0000 803f 0000 803f
00000080: 0000 803f 0000 803f 0000 803f 0000 803f
00000090: 0000 803f 0000 803f 0000 803f 0000 803f
000000a0: 0000 803f 0000 803f 0000 803f 0000 803f
000000b0: 0000 803f 0000 803f 0000 803f 0000 803f
000000c0: 0000 803f 0000 803f 0000 803f 0000 803f
000000d0: 0000 803f 0000 803f 0000 803f 0000 803f
000000e0: 0000 803f 0000 803f 0000 803f 0000 803f
000000f0: 0000 803f 0000 803f 0000 803f 0000 803f
1.0 1.0 1.0 1.0 1.0 1.0 1.0 1.0
1.0 1.0 1.0 1.0 1.0 1.0 1.0 1.0
1.0 1.0 1.0 1.0 1.0 1.0 1.0 1.0
1.0 1.0 1.0 1.0 1.0 1.0 1.0 1.0
1.0 1.0 1.0 1.0 1.0 1.0 1.0 1.0
1.0 1.0 1.0 1.0 1.0 1.0 1.0 1.0
1.0 1.0 1.0 1.0 1.0 1.0 1.0 1.0
1.0 1.0 1.0 1.0 1.0 1.0 1.0 1.0

base.mlp.fc_h.2.bias f4 [64]
00000000: 0000 0000 0000 0000 0000 0000 0000 0000
00000010: 0000 0000 0000 0000 0000 0000 0000 0000
00000020: 0000 0000 0000 0000 0000 0000 0000 0000
00000030: 0000 0000 0000 0000 0000 0000 0000 0000
00000040: 0000 0000 0000 0000 0000 0000 0000 0000
00000050: 0000 0000 0000 0000 0000 0000 0000 0000
00000060: 0000 0000 0000 0000 0000 0000 0000 0000
00000070: 0000 0000 0000 0000 0000 0000 0000 0000
00000080: 0000 0000 0000 0000 0000 0000 0000 0000
00000090: 0000 0000 0000 0000 0000 0000 0000 0000
000000a0: 0000 0000 0000 0000 0000 0000 0000 0000
000000b0: 0000 0000 0000 0000 0000 0000 0000 0000
000000c0: 0000 0000 0000 0000 0000 0000 0000 0000
000000d0: 0000 0000 0000 0000 0000 0000 0000 0000
000000e0: 0000 0000 0000 0000 0000 0000 0000 0000
000000f0: 0000 0000 0000 0000 0000 0000 0000 0000
0.0 0.0 0.0 0.0 0.0 0.0 0.0 0.0
0.0 0.0 0.0 0.0 0.0 0.0 0.0 0.0
0.0 0.0 0.0 0.0 0.0 0.0 0.0 0.0
0.0 0.0 0.0 0.0 0.0 0.0 0.0 0.0
0.0 0.0 0.0 0.0 0.0 0.0 0.0 0.0
0.0 0.0 0.0 0.0 0.0 0.0 0.0 0.0
0.0 0.0 0.0 0.0 0.0 0.0 0.0 0.0
0.0 0.0 0.0 0.0 0.0 0.0 0.0 0.0

base.mlp.fc2.0.0.weight f4 [64, 64]
00000000: 503d b43d c281 893c cbaf 6fbe 4979 4b3e
00000010: 12af db3e 645a 103e 563a d1be 4cce 703c
00000020: fe62 e33e 9a29 5d3e 8fcc 66bd 92e6 843d
00000030: 1019 493d 731a 16be 3bdb cdbe 0f57 79be
00000040: e401 083e f4a8 9bbe f5db 5d3e 34cf c8be
00000050: e317 e0bd 0b24 b5be 99ee 8bbe eb1d 943e
00000060: d906 8bbe 7aea 373e 734f 363e 37b6 9c3c
00000070: 1e39 65be ea1f f4bd d4c3 ab3d 4299 003e
00000080: bca1 60be f3e3 3c3e e83e a53e 19c8 5f3d
00000090: ed76 7c3d 4207 e33d 19b4 d73d 776b 28be
000000a0: 2785 07be 2cae 26be 672a ba3d 3f91 083d
000000b0: ee4d 3c3e a7cb 65be 49cf 253d dcf9 45be
000000c0: d6c5 a33d f9d2 2b3e 8db9 023c f34f f9bc
000000d0: 3a3c 843e f1f5 243e fa1f 8abd 2607 b8bd
000000e0: e505 75be eeee 333e e073 07be acc2 8f3d
000000f0: 8623 e1bd 08ab a83e fd7a 9abe cf65 92be
00000100: 32bf 85be 4d79 76bd 2aaf babd ff3c 49be
00000110: 71d4 35be ae29 6cbe 9cff 0f3e 5d2f b53e
00000120: aa44 063c 537f d3bd 23b8 20be ff09 903e
00000130: c40f 4d3d a143 11be 6ff9 a43e d40f b2bd
00000140: cb75 cd3e 0635 12be 0038 903c a9bd 82be
00000150: 7ee1 a13d 82aa 993e 72f0 773d 362b 0dbe
00000160: 1779 f63d fc93 da3d 3782 4e3d 33f1 6d3e
00000170: 2687 56be 90e8 c9bd e0f2 6b3c 3fab 793e
00000180: 429c f9bd 6fda 933e 8275 303e aa26 bfbd
00000190: 0cf0 943e eace 22be 2f3b a1be 5820 03bd
000001a0: c3a0 afbd 4267 d2bd abbf 883e fd8e 2d3c
000001b0: ec6a 333d 40f5 c03e cada 91bd f314 8bbe
000001c0: c9f9 8e3e 88b2 7b3e 494a c8bd 0840 85bd
000001d0: 3baa 38bd 781e b73e 47ca 3a3e 8dc4 093f
000001e0: 9ebd 3b3e 7fcf 9cbe 01fe 003e 0d3f 5a3d
000001f0: b720 143a ef3f 7c3e ba3c 68bd 5168 9dbe
00000200: b052 d83e ccf4 82bd d866 bc3d 25dc f6bd
00000210: 99fa 243d b765 c33e e9b7 e53d cb7f 503d
00000220: 863f bc3d 4424 6d3e 8efa 34bc 1ed2 26bd
00000230: 032d d3bd 8793 963d c7c3 b7bd 74d4 11bd
00000240: f0c8 d83d 2e4b f9bd e04c c73e f23f 0cbe
00000250: 9d8d c93d af20 dcbd 50af 6a3e 9576 3cbd
00000260: 9af3 73bd 9690 5bbd f3d3 343e 78a8 be3e
00000270: 2e83 bb3e d8a4 293d 6971 b83c 0b66 fc3e
00000280: 8742 3fbe 9593 f8bd b939 42bd e8ea 873e
00000290: c4ca 60be e691 46be 4112 77be e2eb 4fbe
000002a0: 45cb d2bd 6fd8 0abe de42 a3be 31f0 c4bd
000002b0: 3080 cbbd b410 813e 3ac3 be3e 1665 3fbe
000002c0: b1cf 0bbe dc2d a5be bdcf 44be 5521 9ebe
000002d0: 0b01 113e d9a6 5ebe b59a 163d 7eb0 fc3c
000002e0: c422 e03e 9aa7 9e3d b7ec f7bc dc02 85bd
000002f0: 3747 a9bd 8e1a e8bc 9a41 683e 42da b53e
00000300: 3e31 ea3d 8f92 06bd df66 773b c215 50be
00000310: 52f5 9c3e 09ea 7a3e f770 97bd 64e9 0cbe
00000320: a699 c53e 98c2 af3e a1cf 273e 74b2 a1bd
00000330: ba93 3cbd eb7e 61be 6c18 243e c263 e93e
00000340: 2e7a 3a3e a13f 273e 3c8f 79bd 77f6 fabd
00000350: 4f0b 99bc 19a6 90be b2ee 7c3d dbbe e7be
00000360: e6af 99bc 4715 d5bd 6f4e 8dbe d49e ebbd
00000370: c12d 6abe e680 0a3e e110 74be ed15 5cbe
00000380: 6aa0 ee3c d753 843e 1a3e 183e 04af 4c3d
00000390: 4f44 53be ff0f f3bd 27e6 9bbc 08b0 f33e
000003a0: 74a5 793e 141a 8f3d ec95 cebc 0582 24be
000003b0: adcd 713e a73c 30bc ac41 203d ad35 8abe
000003c0: 5e98 ccbd f74d 863c 6946 253e d727 cd3c
000003d0: 19e3 25be b7ac a4be 1420 453e 46af 48be
000003e0: b10b c83e 9c98 d0be 053b 103e c96c f6bc
000003f0: 07ef f8bc e42b 213e e344 0d3e 444f 70be
0.08800757 0.016785506 -0.23406903 0.19870485 0.42907006 0.14096981 -0.4086482 0.0146976225
0.44411463 0.21597901 -0.056347426 0.0648929 0.049096167 -0.14658527 -0.40206322 -0.24349616
0.13281971 -0.30402339 0.21665938 -0.39220583 -0.10942056 -0.3537906 -0.27330473 0.28929076
-0.27153662 0.1796054 0.17803745 0.019129856 -0.2238507 -0.119201496 0.083869606 0.12558463
-0.21936697 0.1844633 0.32274556 0.054634187 0.061636854 0.11085369 0.10532398 -0.16447245
-0.13234387 -0.16277379 0.09090119 0.033341642 0.18389103 -0.22440968 0.040480886 -0.19333595
0.079967186 0.16779698 0.007978809 -0.03043363 0.258272 0.16109444 -0.0674438 -0.089857385
-0.2392803 0.17571613 -0.13227797 0.070195526 -0.10993104 0.32942986 -0.30171958 -0.285933
-0.26122433 -0.060174275 -0.09115441 -0.19652174 -0.17756821 -0.23062775 0.14062351 0.35387698
0.008195082 -0.103270195 -0.15695243 0.28132626 0.050063863 -0.14185955 0.32221553 -0.08694425
0.4012893 -0.1427804 0.017604828 -0.25535324 0.07904337 0.300129 0.06053204 -0.13786015
0.12034815 0.10672757 0.05041715 0.23236541 -0.20949993 -0.09858811 0.014401168 0.24381731
-0.12188007 0.2887759 0.17232326 -0.093335465 0.2908939 -0.15899244 -0.31490466 -0.032013267
-0.08575585 -0.10273601 0.2670873 0.010593173 0.04380314 0.3768711 -0.07121809 -0.2716442
0.27924946 0.24579823 -0.09779794 -0.065063536 -0.04508422 0.35765433 0.18241225 0.5381554
0.18334052 -0.30627057 0.12596895 0.053282786 0.0005650627 0.24633764 -0.05669854 -0.3074365
0.42250586 -0.063943475 0.091993034 -0.12053708 0.04027805 0.3816354 0.11216719 0.050903123
0.09191804 0.23158365 -0.011046065 -0.040727727 -0.1031132 0.07352357 -0.089728884 -0.035603
0.10585201 -0.121725425 0.38925838 -0.13696268 0.09841464 -0.107484214 0.22918439 -0.046011526
-0.05955849 -0.053604685 0.17658977 0.37237906 0.3662352 0.041416973 0.022515016 0.49296603
-0.18677722 -0.12137524 -0.04741833 0.26546407 -0.21952349 -0.19391593 -0.24128057 -0.20304826
-0.10292677 -0.13559125 -0.31886953 -0.096161254 -0.09936559 0.25208056 0.3725832 -0.18690905
-0.13653447 -0.3226155 -0.19219871 -0.30884805 0.14160554 -0.21743335 0.036768634 0.030845877
0.43776524 0.07746811 -0.030264242 -0.06494686 -0.08265536 -0.028332975 0.22681275 0.3551808
0.114351735 -0.032854613 0.0037750525 -0.203208 0.30655915 0.2450334 -0.07394593 -0.13760906
0.38593787 0.3432815 0.16387798 -0.07895365 -0.04603932 -0.22021072 0.16024941 0.45583922
0.1821067 0.16332866 -0.060927615 -0.12254041 -0.01868215 -0.28251722 0.061751075 -0.452628
-0.018760633 -0.10404449 -0.27598903 -0.115049034 -0.22869016 0.13525733 -0.23834564 -0.21492739
0.029129226 0.25845215 0.1486744 0.049971595 -0.20631526 -0.118682854 -0.019030644 0.4759524
0.24379522 0.06987396 -0.025217973 -0.16065224 0.23613615 -0.010756648 0.03912513 -0.26994076
-0.09989999 0.016394598 0.1614014 0.025043411 -0.16199912 -0.3216302 0.19250518 -0.19598112
0.3907142 -0.40741432 0.14085014 -0.03008117 -0.030387415 0.15739399 0.1379581 -0.23467737

base.mlp.fc2.0.0.bias f4 [64]
00000000: 2937 533d f276 873d 3d70 d7bc 7d1c 33bd
00000010: cbd6 9bbd 8691 303c b3ea 873d 1877 553d
00000020: b3ef 193b 353c 60bc 717a bbbb b7d6 4bbc
00000030: 0af0 73bd 1edc 463c 8e78 edbc 7d65 f33c
00000040: 3433 4a3a bfa5 343d 9e0c 23b9 86e8 d9bc
00000050: 2944 94bc ae4e c9bc 0f40 e53c a53e 9cbc
00000060: f601 a6bc 92f3 2f3d e221 afbc 3812 ebbc
00000070: 877c 6bbd 2839 cd3b 682d 613c d0ad d3bb
00000080: 33e6 ee3c c8c3 93bd 4f92 07bd 7ebe d3bc
00000090: 340d 17bc fd13 ba3c 66ee 3cbd 87a8 3abd
000000a0: 52d1 6f3d e38d c2bc 6049 993d 8fb4 eebd
000000b0: 86c7 443c 7463 69bd 8e16 c33d be79 98bb
000000c0: 7e96 c63c 4c29 813d 34ea 3f3d 81c4 f5bc
000000d0: f42d 87bc b906 1c3d 52f2 5bbc 6399 803b
000000e0: 226b e83b 7075 80bc 3315 6f3c 277f b53b
000000f0: b03b 5fbd dedf ed3c 2cdf d23a 5453 9cbb
0.051566277 0.06614484 -0.026298637 -0.04372834 -0.07609328 0.010776883 0.06636562 0.05211553
0.002348882 -0.0136862295 -0.0057213833 -0.012441329 -0.05955509 0.012137441 -0.028988149 0.02971148
0.00077133183 0.04410338 -0.00015549592 -0.026600134 -0.018098908 -0.02457365 0.027984647 -0.01907284
-0.020264607 0.042956896 -0.021378461 -0.02869521 -0.057491805 0.006262917 0.013743736 -0.006459929
0.029162502 -0.07215077 -0.033098515 -0.02584767 -0.009219456 0.02271461 -0.046125792 -0.045570876
0.058549233 -0.023749297 0.07484698 -0.116555326 0.012010461 -0.05697961 0.09525786 -0.0046531847
0.024241682 0.06306705 0.046854213 -0.030000927 -0.016501404 0.03809235 -0.013424473 0.003924535
0.0070928494 -0.015680999 0.014592457 0.0055388394 -0.05450028 0.029037412 0.0016088239 -0.0047706757

base.mlp.fc2.0.2.weight f4 [64]
00000000: 298e 753f c135 673f 8dcf 793f 3468 723f
00000010: 8cef 733f a938 5c3f 41e9 773f 0065 663f
00000020: 0abc 763f e567 783f 989b 783f f864 733f
00000030: bb45 723f 0e7e 653f da0a 6c3f cce6 753f
00000040: 0556 623f 3443 6b3f bce9 6b3f ea2f 793f
00000050: 66fd 703f b481 733f cda4 763f 208a 7e3f
00000060: fa93 743f efa5 633f fa9f 773f 443c 753f
00000070: f7bb 7d3f 2178 773f 2e8e 743f 84d7 803f
00000080: f33b 6a3f 8515 683f 0a11 673f 888d 743f
00000090: 7715 693f 4cdf 723f 87be 693f 0656 763f
000000a0: 4dc1 703f ca5d 713f 9529 783f 909b 6b3f
000000b0: 85ad 733f 320d 653f 4329 773f 01ec 713f
000000c0: fd41 703f 5630 723f 8020 753f 39c9 683f
000000d0: c585 7a3f 21c6 773f 65be 783f a76e 6a3f
000000e0: 103e 783f b15e 713f 529f 713f 67cb 783f
000000f0: 2c7c 733f 2c2d 6e3f 9e5e 783f 32da 733f
0.95920044 0.90316397 0.9758232 0.9469025 0.95287395 0.86023957 0.9684029 0.89997864
0.96380675 0.9703353 0.9711242 0.9507594 0.9463765 0.8964547 0.9220406 0.96055293
0.88412505 0.9189942 0.92153525 0.97338736 0.94136655 0.95119786 0.96345216 0.9942951
0.95538294 0.8892507 0.9672848 0.95795083 0.99114937 0.9666768 0.9552945 1.006577
0.91497725 0.90657836 0.90260375 0.9552846 0.9104838 0.94871974 0.91306347 0.9622501
0.94044954 0.94283736 0.9693845 0.92034245 0.95186645 0.8947326 0.96547335 0.9450074
0.9385069 0.94605005 0.95752716 0.9093204 0.97860366 0.96786696 0.9716552 0.9157509
0.969697 0.9428511 0.9438373 0.9718537 0.95111346 0.93037677 0.97019374 0.95254815

base.mlp.fc2.0.2.bias f4 [64]
00000000: 6a62 1a3d 9757 cb3d 5b5e 82bc 34f2 46bd
00000010: 2520 95bd 78eb f5bb 5634 023e c884 573d
00000020: b69d 92bb 2439 2ebb db6a 6cbc ac72 04bc
00000030: f845 0cbd 6d89 283d 1c60 44bd a6e8 c43c
00000040: 673d aa3c f2e7 e53c c654 a039 6a77 8abc
00000050: 0a40 76bc 4cdf bfbc d94e 4a3c 260e 96bc
00000060: 076b a3bc fd0c 003d afff 22bc 244c dabc
00000070: d6a3 5bbd eb3f f33b 4ed4 713c ad2d 4ebc
00000080: fa81 b13c a6c5 ca37 1398 00bd 7132 95bc
00000090: 85de 92ba 43c4 fe3c af34 80bd f75d 1bbd
000000a0: bf8b f83c 26d2 56bc af77 ea3d 16cd 03be
000000b0: 7168 373b 6d44 f5bd 1526 6f3d 9805 58bc
000000c0: bb89 613c 10ed 293d 7f60 123d 59c7 eebb
000000d0: bf09 863c 882e 5c3d bd63 9dbc 1ff5 933c
000000e0: 7c0a 5a3c 778c bbbb dccd 963c a9b8 4f3b
000000f0: 40df 35bd 1d90 a73c 1e83 853c 48fc 503b
0.03769151 0.09928816 -0.015914133 -0.048570827 -0.07281522 -0.0075048767 0.12715277 0.052616864
-0.004474367 -0.0026584351 -0.014429773 -0.0080839805 -0.034246415 0.041146684 -0.04794322 0.024036717
0.020781232 0.028064702 0.0003058074 -0.016902644 -0.015029917 -0.023421906 0.0123479 -0.018317293
-0.019948496 0.031262387 -0.009948655 -0.026647635 -0.053623043 0.007423391 0.01476009 -0.012584132
0.021668423 2.4172314e-05 -0.03139503 -0.018212529 -0.0011205232 0.031099444 -0.062600486 -0.03793141
0.030340074 -0.013111627 0.11448609 -0.12871203 0.0027985836 -0.11975942 0.058385927 -0.013184927
0.013765748 0.041485846 0.035736557 -0.0072869477 0.01636207 0.053755313 -0.019212598 0.018061219
0.013308164 -0.005723532 0.018408708 0.003169576 -0.04440236 0.02045446 0.016297873 0.0031888653

rnn.rnn.weight_ih_l0 f4 [192, 64]
00000000: 7369 bbbd 233d 25be 2e16 773d 568d 0bbe
00000010: 40c5 c63d 1f6b 5dbc be28 f93c f106 bbbd
00000020: 5389 4cbd 967b 13be f9ab b8bc 9e9e 10bd
00000030: 3cb9 1d3d d84e 553d 5dbd d83c de61 9d3d
00000040: d437 4abd d4fa c33c 25c2 ff3c 31a9 9abd
00000050: 7238 bfbc bf7f 7b3d e583 95bc 2428 d1bd
00000060: 79f0 3cbe 27d8 1539 feae 6e3d 29f6 cabd
00000070: 2251 3d3e 5c3e 05bd eade ab3d 1c85 b63d
00000080: 7758 0b3d 04d7 e73c 29ff a83c fe06 c3bb
00000090: 747e c53d 9597 50bd c4b1 8e3d 4239 a9bc
000000a0: f9f1 1a3c b073 843d 300f 3fbd 6179 7bbd
000000b0: c0ba 9a39 c6d1 833d 11bb 263d 178c 6bbb
000000c0: 503d 73bc 97a3 943c 25cd f1bc 989f 803d
000000d0: 3f96 ab3d a70b 58bd f28c e23d b075 97bd
000000e0: 542a 9cbd 6f39 1ebc 397b 973c 8a99 bbbc
000000f0: 250d 14be 069b 54be 4aa8 bf3d 8271 bb3d
00000100: e227 a9bb df3a acbd 9062 983c d321 04bd
00000110: 98b3 733d 10f3 993c d2da 463e e5ae 783c
00000120: a88c 2cbe fcbe 24be 36ee 82bd b38c bdbd
00000130: a795 2cbe 2f9d f63c 6b17 b8bb a498 6fbd
00000140: 0b0f c7bc 1d1d bc3d 34d6 863d 83e3 fcbd
00000150: 8006 69bd ed72 0f3d 0b7b edbd 568a dc3d
00000160: df91 ab3c 3b49 62bb 2ee2 373e 3424 fa3d
00000170: 7c25 fabb c446 f23d 9fed 1bbd 3778 d9bd
00000180: a262 b13c ca2e 953d ca9b 81bc 9712 0c3d
00000190: 7594 8a3d 61ac afb9 6dc2 5bbc a95f 023d
000001a0: 2d23 0d3d 7e2d 253d e2b6 6c3d b2a3 b1bd
000001b0: ffc6 8ebd 03c6 24bd d0eb 5b3e 67f6 a3bd
000001c0: 29a1 5e3d a412 51bc 056e 68bd 8665 803d
000001d0: ceec bf3d 26fb babd 2090 e03d 9506 883d
000001e0: b10c 2cbd 3bc5 efbc 5b46 b0bd 774a 0dbd
000001f0: 6dab 63bc 2dbd bfbd c85c 22bd 89c8 d3bc
00000200: c1f1 343d 1665 863d e23f b6bd 24e1 74bd
00000210: 4a2c c33d c097 c8bd 0158 c13b 884a 463e
00000220: 30ee bf3d ea29 cb3d d412 aa3c 147e 4cbd
00000230: 3b27 ddbd 9241 8a3c 6b91 503d 3c03 6fbd
00000240: 36ab ddbc 96ed d13c 942e c33d 999d b63d
00000250: f0c9 153e 25ec 35bc 8c70 1d3e 8f5c 2dbd
00000260: 6800 a13d 259e 343e fbbc 1dbe f837 f93a
00000270: 943b 10be ae46 07bc d698 483c 03a5 db3d
00000280: f29b 9d3d b9cd c6bd f89a bebd 7e47 d5bd
00000290: e26b d53c e3ec 473d cf0e 1abe e76c 3e3c
000002a0: c7e0 c0bd 784d 0abe e521 bdbc 2a42 7e3d
000002b0: 729c 32bc b005 203e fc7e f2bd bbef c73d
000002c0: 43ce 9e3d d3d4 0f3e 62ed a53c 9031 1abb
000002d0: ebcd 30be 3d3e 073e 0203 c8bd cd67 67bd
000002e0: e69b 3a3d 4f76 1b3c c2b3 b23d 8154 053e
000002f0: 8fbe 383e a012 adbd 88ae 29bc 35fe c4bd
00000300: 5eb9 32bd 26a7 92bd cd1b c5bd 1634 b7bd
00000310: 6288 24be 7d9e b13d af5e 353d ca15 bbbd
00000320: f9d6 3abe 85e6 b9bd 20ce fcbc bd95 babd
00000330: 4a69 6e3d d5c0 a8bd e008 febb 6ff3 a1bd
00000340: 4983 e73d 6904 8dbd 94c5 2d3a 8acc 87bd
00000350: 6a3a 743d b911 e6bb a1dd a03d 57eb 893d
00000360: ddea 29bd 619b 72bc d787 293c 8fe2 c63d
00000370: 5cd6 543d fc65 343b f297 beb7 19fd a8bd
00000380: ecee cebd a46e ccbd 35f2 d53d cf95 b23d
00000390: f565 f1bc d1d2 b33d e421 bebd 37f6 553d
000003a0: 0c87 42bd 4212 113e 6756 80bd 6c40 913d
000003b0: 3f91 c1bd 2855 ef3d 0e49 5a3e 9c02 5c3d
000003c0: 3837 3a3d 002c 933d d0bc 76bd 0016 e73d
000003d0: e264 80bd d277 433d 3a1b d8bd 0829 d3bc
000003e0: a7e4 b9bd 9363 003d 13c4 3ebc f5cf 753c
000003f0: 9184 91bd bc95 3bbd bc0c 54bd 8b40 89bd
-0.09150972 -0.16136603 0.060323887 -0.13628134 0.09705591 -0.013514309 0.030414935 -0.09132183
-0.04993565 -0.14402613 -0.02254294 -0.03530752 0.03850673 0.052077144 0.026457483 0.07684682
-0.049369648 0.023923315 0.031220505 -0.07551802 -0.023342345 0.061401125 -0.018251369 -0.10212734
-0.18451108 0.0001429027 0.058272354 -0.099102326 0.18487981 -0.032530174 0.08392127 0.08912107
0.034019914 0.02830077 0.020629482 -0.0059517613 0.0964326 -0.05092581 0.069675 -0.020657185
0.009457105 0.06467378 -0.046645343 -0.061395053 0.00029512309 0.064364955 0.040705744 -0.0035941654
-0.014846161 0.018144412 -0.029516766 0.0628044 0.083782665 -0.052745488 0.110620394 -0.07395494
-0.07625261 -0.009657248 0.018491374 -0.022900362 -0.14458139 -0.20762262 0.093582705 0.09152509
-0.005162225 -0.08409666 0.018601686 -0.03225882 0.059497446 0.018792659 0.19419411 0.015178417
-0.16850531 -0.1608848 -0.063930914 -0.09255352 -0.16853963 0.030104248 -0.005618026 -0.05849518
-0.024299165 0.091852404 0.06583825 -0.12348082 -0.056890965 0.03502171 -0.11595734 0.10768573
0.02094358 -0.0034528512 0.17957374 0.122139364 -0.007633863 0.11829904 -0.03806841 -0.10618632
0.021653477 0.07284315 -0.015821356 0.034197416 0.06766597 -0.00033507033 -0.013413054 0.03182951
0.034457374 0.040326588 0.0577916 -0.086738005 -0.06971549 -0.0402279 0.21476674 -0.08005982
0.054352913 -0.012760792 -0.056745548 0.06269364 0.09371339 -0.09129934 0.1096499 0.066418804
-0.04200429 -0.029268852 -0.08607169 -0.034494843 -0.013895852 -0.09362254 -0.039639264 -0.025852459
0.044175867 0.06562249 -0.088989034 -0.059785023 0.09529932 -0.09794569 0.0059003835 0.19364369
0.093716025 0.09920104 0.020760931 -0.049924925 -0.10798498 0.01687697 0.05091993 -0.058352694
-0.027059179 0.025625985 0.095303684 0.08916778 0.14627814 -0.0111036645 0.15374964 -0.0423246
0.078614056 0.17638452 -0.15404122 0.0019013872 -0.14085227 -0.008256597 0.01224347 0.10724833
0.0769576 -0.09707207 -0.09306902 -0.10414027 0.02605242 0.048809897 -0.15044712 0.011622644
-0.09417873 -0.13506114 -0.023087451 0.062074818 -0.010901557 0.1562717 -0.118406266 0.09762522
0.07754185 0.1404603 0.020254795 -0.0023528077 -0.17266051 0.13207336 -0.09766199 -0.056495477
0.045558833 0.009488656 0.08725692 0.13020517 0.18041442 -0.08450818 -0.010356553 -0.09618799
-0.04363381 -0.07160787 -0.09624443 -0.089454815 -0.16067651 0.08672807 0.04427975 -0.09135015
-0.18246068 -0.09077171 -0.030860007 -0.091105916 0.05820588 -0.08239905 -0.007752523 -0.079077594
0.113043375 -0.06885607 0.00066288677 -0.066308096 0.05962602 -0.0070211557 0.07854772 0.06734341
-0.04148375 -0.014807553 0.010347328 0.09711181 0.05196224 0.0027526608 -2.272052e-05 -0.082513995
-0.101041645 -0.099820405 0.10446588 0.0871998 -0.029467562 0.087804444 -0.09283808 0.052236762
-0.047492072 0.14167121 -0.0626648 0.070923656 -0.094515316 0.11686164 0.2131693 0.053713426
0.045462817 0.07186127 -0.06023866 0.11283493 -0.06269242 0.04772169 -0.10552068 -0.025776401
-0.09076815 0.03134496 -0.011643427 0.015003194 -0.07105363 -0.045797095 -0.051769957 -0.06701764

rnn.rnn.weight_hh_l0 f4 [192, 64]
00000000: e269 bdbd d6f7 63bd e0e8 313e f4cd 9c3d
00000010: 0bfe 3c3c 96fb f3bd 7c5b 0e3e 9bac 853c
00000020: 945d ecbc f160 ecbc 594d 6abd efd8 2ebd
00000030: f02f 08be 5149 ca3d 1846 3cbd 22b7 d5bd
00000040: 42e6 ec3d f772 2fbd 4735 51bd cd4d 1ebe
00000050: 5a17 b83d 3c85 1ebe 4850 b93d bcf3 2b3e
00000060: 4600 c23d 7dde 0c3e fd86 08bd b7fc 823d
00000070: 3df7 bd3d d8ee aa3c 8650 833c 3370 b3bd
00000080: a01d 4cbd 1a56 223d 98b4 edbb 36b4 353d
00000090: ab48 6e3d 2da5 febd 9990 14be ea65 0dbb
000000a0: 8a0e c6bd 5561 74bc 65dd 0abe a978 5f3d
000000b0: b622 28bd 5705 843c 8bf2 373d 6296 3bbd
000000c0: a676 8cbd 32b0 773d 6754 8f3d d733 c13d
000000d0: 6249 6f3d 458d e43b 9976 61bd 362e 4b3d
000000e0: 07b8 98bb 1901 e6bc 671f 8cbb ed90 373e
000000f0: 88e9 45bd 9c01 55bd 2aa8 933b f6e2 eabd
00000100: 16c2 53bd 1e4b f7ba 45f7 a63d 1e78 2ebe
00000110: eead 14be f1ca 7c3e b93d 3f3b e58b 2a3c
00000120: 2a92 733d 9b2c 8f3e 0b3d a93c 8a0b b7bd
00000130: fe6d 33bd 035b b23d b125 153e 8a9d a7bd
00000140: e1e5 b4bd 4c5a 18be 03af ae3e 72f0 cb3c
00000150: 875b a8bc 6c82 843d 7f86 8fbc c21d c13d
00000160: 24f6 45bd 676a 743c 2f20 d53d 8980 89bd
00000170: 76e6 63bc 21e1 a8bd 240f 323e d3ad d7bd
00000180: daa3 8cbd 2e1c 4e3e 586a a43c 5463 b3bd
00000190: 77b3 d8bc 7f29 593b 386d 46be 9916 ebbd
000001a0: 7462 42be c7bc 10be 4d1f e2bd 7f40 56bd
000001b0: 47a1 08be f0e8 7a3d bbdf 01be 2969 293d
000001c0: 3fb9 06be 7dae 98bc f751 193e 0c95 3a3e
000001d0: 6fb8 773e 732f 24be af53 e13d 58bd 773e
000001e0: b11b 823d b3fc 34be 3f41 133d d7fe 533d
000001f0: bed7 353d 33b2 923d adeb b73d 7ce2 68bc
00000200: a237 a8bc 2d59 343e cf83 9f3d a80a 42bd
00000210: 0506 a6bd a9b8 733e 7b28 d9bd a116 0e3e
00000220: 6f40 abbd 0fae 75bd 59cf 9cbd 6397 a83d
00000230: a415 333e 8489 6f3d 4758 f93d 255e 08be
00000240: 276e e43d 6372 903d 79cd 4a3d 70df 4a3b
00000250: 0f32 ae3c 6bfa 9b3d 0d11 103e f1df 27be
00000260: 9276 e83d 160b a73c d534 77bc 99a6 263e
00000270: 8ddd 16be d7fa af3d 50a7 613e 3880 14bd
00000280: 061a b13e cf4a f6bd 8eda 54be de28 4dbd
00000290: eaba 0abe 61e2 7b3d fbf1 d3bc 5f1d 1fbd
000002a0: f6c8 d9bd 3d2d 873c 976c 32bb 9767 ca3d
000002b0: adcc 96bd c6d1 79bd b0a6 16be 63d8 0e3e
000002c0: 30a9 483e f32e cb3c c39f 673d d161 9abd
000002d0: c8f7 3cbc 0150 b2bd c5ee 443d 73b5 3dbc
000002e0: e6b2 0abe 023e 9c3c 48ec de3d 853c 0ebe
000002f0: a26b 07be 0ad9 b4bc 12ca b3bd d573 9f3e
00000300: c8c9 58bd fccd 20be 2e9d bd3d ab7b 71bd
00000310: dcdc 4abd 3537 a7bd 41f5 313d 60c1 11bd
00000320: 945f 283d 1127 8d3c 1dcd ec3c 8d37 fcbd
00000330: ef0f bcbd 2aa4 a13d c12b 16bd e1ee 20be
00000340: e068 b63c 68f9 1f3d d61c 7a3d aac8 ae3d
00000350: 7778 a0bc 4485 b83d aa23 1f3d 3447 683d
00000360: 5da3 38be 8823 7cbc 5328 5a3d 43a5 61bd
00000370: 5252 fb3d a4b1 56bd aa84 c3bb 3f3a a6bd
00000380: 9005 823d 3e13 b73d 4e56 bcbd 0ecb 41bd
00000390: 2d47 fcbc 66a0 a53d 0361 23be f571 893d
000003a0: 43ea 5a3d 1cc4 b4bc 508f 1fbe 9615 ffbd
000003b0: 3c8b 473d 9dc7 9f3d d87e 9fbd 1c19 50bd
000003c0: a7f0 00be 42e4 073b e24c 9cbd 097a 5bbb
000003d0: 54c5 163d e035 4abd 4668 213d ec0f 223d
000003e0: 089e fe3c 80f7 4dbe 8704 da3c b562 8b3e
000003f0: 140d c53d 3733 a5bc 5eff c53d 8983 00bd
-0.09248711 -0.055656277 0.17373991 0.0765647 0.011535178 -0.119132206 0.13902086 0.016317656
-0.028853215 -0.028854819 -0.05720267 -0.042687353 -0.13299537 0.09877265 -0.045965284 -0.104353204
0.11567356 -0.04283425 -0.0510762 -0.15459366 0.08988829 -0.15480512 0.090485156 0.16792196
0.094727084 0.13756748 -0.03333186 0.06395858 0.092756726 0.020865843 0.016029608 -0.08761635
-0.04983294 0.039632894 -0.0072541945 0.044361316 0.05817477 -0.124338485 -0.14508285 -0.0021575638
-0.09670742 -0.014915784 -0.13561018 0.05455843 -0.041048728 0.016115827 0.04490904 -0.045797713
-0.06858568 0.060470767 0.0699852 0.09433716 0.058419593 0.0069748485 -0.055044744 0.049604617
-0.0046606096 -0.028076695 -0.0042762044 0.17926379 -0.048318416 -0.052003488 0.0045061307 -0.114690706
-0.051698767 -0.0018866991 0.08152632 -0.17038009 -0.14519474 0.24686791 0.0029181077 0.01040933
0.059465565 0.2796372 0.02065899 -0.08937748 -0.04380607 0.08708765 0.1456516 -0.08184345
-0.088329084 -0.14878196 0.34117898 0.024894927 -0.020551456 0.064701885 -0.017520187 0.09429504
-0.04833044 0.014917946 0.10406529 -0.06713969 -0.013909927 -0.08246065 0.17388588 -0.10531201
-0.0686719 0.20127937 0.02007024 -0.0875918 -0.026452763 0.0033136306 -0.19377601 -0.114789195
-0.1898287 -0.14134513 -0.110411264 -0.052307602 -0.13342772 0.061257303 -0.12683003 0.041360054
-0.13156603 -0.01863789 0.14972673 0.1822092 0.2419145 -0.16033725 0.110022895 0.24193323
0.06352938 -0.17674522 0.035950895 0.051756706 0.0443952 0.07162895 0.089804985 -0.014214154
-0.02053434 0.17612143 0.07788812 -0.047373444 -0.08106617 0.23800911 -0.10603424 0.1387582
-0.08361899 -0.05998045 -0.07656736 0.08232 0.17488724 0.058480754 0.12175041 -0.13317163
0.111538224 0.070530675 0.04951236 0.0030955933 0.021264104 0.07616123 0.14069004 -0.1639402
0.113507405 0.020391028 -0.01508828 0.1627449 -0.14732952 0.08592766 0.22036481 -0.03625509
0.34590167 -0.12025987 -0.20786497 -0.050087802 -0.13547865 0.06149519 -0.025872221 -0.03884637
-0.106340334 0.016501063 -0.002722537 0.098830394 -0.073632576 -0.06099107 -0.14712024 0.13949732
0.1959579 0.02480266 0.056548845 -0.07538188 -0.011533685 -0.08706666 0.04807927 -0.011578905
-0.13544807 0.019072536 0.10884911 -0.13890274 -0.13224652 -0.022076149 -0.08778776 0.3114306
-0.05292681 -0.15703577 0.09258495 -0.05895583 -0.049527034 -0.08164827 0.043446783 -0.035584807
0.041106775 0.017230542 0.0289064 -0.12315283 -0.091827266 0.0789264 -0.03666282 -0.15716125
0.022266805 0.03905621 0.061062656 0.085343674 -0.019588692 0.090097934 0.03885237 0.05670853
-0.18031068 -0.015389331 0.053261112 -0.055089246 0.12271561 -0.052415505 -0.0059667425 -0.08116578
0.06348717 0.08939217 -0.09196149 -0.04731279 -0.030795658 0.08087234 -0.15954976 0.06711189
0.053446066 -0.022066168 -0.15582013 -0.12455289 0.04871677 0.07801745 -0.077878654 -0.050805196
-0.12591802 0.0020735417 -0.07631852 -0.0033489487 0.03680928 -0.049367785 0.039406084 0.039565966
0.031081215 -0.20113945 0.026613487 0.27223745 0.09621635 -0.020166023 0.09667848 -0.03137544
