onpolicy/scripts/results/MPE/simple_spread/rmappo/check/wandb/run-20220705_095303-3qhh8bzw/files/actor.pt (torch, 147692 bytes, 22 tensors)

base.feature_norm.weight f4 [18]
00000000: d117 623f 4fee 703f 83b5 773f bcdb 683f
00000010: 2cc7 823f 99c1 883f ef2a 853f aa29 833f
00000020: 8635 833f f3ee 8e3f 0963 833f d3fc 6e3f
00000030: d744 7e3f 5b39 823f 8a07 6f3f d9a3 7a3f
00000040: 35e8 863f 7adb 633f
0.8831759 0.9411363 0.9676134 0.9096029 1.0217032 1.0684081 1.0403727 1.024709
1.0250709 1.1166672 1.0264598 0.9335453 0.9932379 1.0173753 0.9337088 0.9790626
1.0539614 0.8900677

base.feature_norm.bias f4 [18]
00000000: af6c c2ba db73 cdbc b4c9 de3c bec3 06bd
00000010: 38f3 a9bd a2ef 6839 a3f9 0bbd 8a6d 95bc
00000020: 663b 07bc b16f 98bc c9b3 bcbb b131 6bbd
00000030: 246b 3d3d 8c16 0ebc 2c2f 5c3d 4fe1 87bd
00000040: a9a2 dc3d bd7f 093d
-0.0014833416 -0.025079658 0.027195789 -0.032901518 -0.082983434 0.00022214514 -0.03417362 -0.018240709
-0.008253908 -0.018607946 -0.0057587367 -0.057420436 0.046244755 -0.008672368 0.053755924 -0.06634771
0.107732125 0.033569086

base.mlp.fc1.0.weight f4 [64, 18]
00000000: 6e96 12be 1182 a03e 45c0 363e 0eb5 fb3d
00000010: 078e 533e 20d4 9d3d e055 a83a 943e 853e
00000020: b0b6 9dbe 9c46 d0be 2a39 86bd 3920 a3bc
00000030: f94d 2bbe ede5 0cbe 414d 903e f43f ddbd
00000040: cd45 c63d e7c0 3d3e 955f 153e fe1d 51be
00000050: c74a 02be 7489 df3c 35d7 6c3d 47f3 0abf
00000060: 6b5a 8c3d 0fb4 7ebe 883a 51be 7298 8cbe
00000070: 7455 1c3e 1650 f9bd a45f 35be 1946 783e
00000080: e352 10be d2e3 613c 09c8 9ebe 88bc f93d
00000090: 5717 523d 7a5e 153e f3c3 e2bb d18f 35be
000000a0: acb3 ccbd 87c4 ad3e 8c93 32bf dc5c 333e
000000b0: 6842 68be 1737 12bd beef debd 22fc ac3d
000000c0: a98e 033d b2c2 79be 2b4a deb9 7f41 8cbd
000000d0: 117d 153e 051f 153c fcbc 4f3d a573 6f3c
000000e0: a876 e83c d031 18be 4c90 a5be 9cc1 993e
000000f0: 6e77 4c3e 5d48 18bf c041 4b3e f55c d5be
00000100: 851a b43e a9c0 21be 5079 713c 2750 683e
00000110: 0455 8f3e 38db f73b 61a7 643e 083d 4d3e
00000120: bc8e c1bd 32d6 5a3e 66a3 61be 3067 873e
00000130: 0cdb 90be 946c 2e3e 9335 d8bd 7d81 1d3e
00000140: bab0 f9be db7c 93be c54a e8bb 7835 d7be
00000150: cf4b b5bd ba2d a93e 885f 6a3e 5855 a53d
00000160: 5202 14be 7d28 04bd ae15 823a a175 a73e
00000170: 96cb c5be 0535 863e 6c01 9f3d 9c1b 85be
00000180: b8a4 cb3d 7364 2d3d c1e5 973e 93b0 86be
00000190: 9a37 c8bd 043a 663e f4cf f8bc cfed 51bc
000001a0: 7719 743e ff92 293e 3308 c1be 5ad4 70be
000001b0: dfbd 41bd 5d55 b5bc 00c1 ae3e 915a d63d
000001c0: ef76 823e 2482 15bc 217d 01bf 0c72 0b3d
000001d0: ac9f 693e 6be3 51be 09df e43d fed0 00be
000001e0: db2f bdbd 2be2 793e 6441 9e3d f738 44be
000001f0: 2a42 10be de2c b43c b1d4 84be a860 30bf
00000200: 67b5 d5bd 12b6 b5be 38f3 23bd 8cbb 1d3e
00000210: ff40 db3e 0591 023e 82ab 0cbe 7ab4 8abe
00000220: a77c 94be 3940 bd3e a431 9f3d 294f b93c
00000230: a4b7 15bd 9233 9bbe 5fe5 10be 6b72 5b3e
00000240: a9a4 bcbd 1996 7ebe c035 403e bd8d 853e
00000250: 8a51 4d3e 3d1e 523e e715 afbe 4acc 61be
00000260: 2bf7 a1bd ee54 a13e 7022 d5be 8590 163e
00000270: e44d a2be e6be 86bd 0ddd a6bd 0746 a63d
00000280: 1e14 8ebe 97f8 a3be 25da 913c 3b34 90be
00000290: d1ed 7f3e e3cf d53d 4765 75bd dee7 17be
000002a0: 1e26 b6bd c04f 53be a426 4abe ba1f 4fbd
000002b0: d4fe 10be 5660 92bb ac9b f83e af4c 7cbe
000002c0: 787e d63e 2b98 92bc 7bab 023e eff6 8cbe
000002d0: c789 28be b1c7 9cbe 3f94 43be 1f86 25bd
000002e0: fcd0 9cbe 3ae2 30be 9676 53be 02f7 74be
000002f0: 2f51 07be 3943 c4bd db31 0b3e 0227 2a3e
00000300: 0041 5fbe c37a fc3d 42a2 afbc bc8b 7bbe
00000310: 5bae 42be 516d d7be 5ebc 3d3d 235d c43d
00000320: 6af8 b53e 749f 6dbe 5ca6 403e 29ee 663d
00000330: f91d 4a3d b849 9f3d cc52 e4bd 0b38 f43d
00000340: 5570 103e 7ec8 65be 8813 2e3d 62b1 733c
00000350: 014a 803d 4d3f b53d eaab 4e3e 83b9 a23e
00000360: a1a3 273e 4d8d 893e a74c 693d aed1 603e
00000370: 479b 61be ea81 8b3e bad1 6d3e b531 fa3d
00000380: d798 fdbe baef 813c 9e9f 0b3e 9cfe b83e
00000390: 45e7 7bbd c7d7 b6bd 6c95 6b3e 2ac0 a83e
000003a0: d634 ffbe 6be2 85be 5f93 0c3d d137 013e
000003b0: d935 4c3e 1982 953c eecb 223d 39ae ca3e
000003c0: e448 dc3d fc84 13be bc7d ac3d 99ff fa3c
000003d0: 7979 81be e22f 9ebe 4103 05bf fbeb c0be
000003e0: 89cd 5a3b 4009 0a3f 699e 5f3e 93ea 01be
000003f0: c5fb 4e3d f2b2 09be 35c1 043e 2b7d 443c
-0.14315197 0.31349233 0.17846783 0.12290393 0.20659648 0.07706475 0.0012842976 0.26024306
-0.30803442 -0.4067887 -0.06553872 -0.019912826 -0.16728963 -0.13759585 0.2818394 -0.10803214
0.09681282 0.18530618 0.14587243 -0.20421597 -0.12723838 0.027287222 0.057822425 -0.5427746
0.06853183 -0.24873374 -0.20432484 -0.27460057 0.15266973 -0.12173478 -0.17712265 0.2424549
-0.14094119 0.013787227 -0.3101199 0.121941626 0.05129179 0.14586821 -0.0069203316 -0.17730643
-0.09995207 0.33939 -0.6975639 0.17515892 -0.22681582 -0.03569707 -0.10885571 0.08446528
0.032118473 -0.24390677 -0.000423984 -0.0684843 0.1459849 0.009101634 0.05071734 0.014614974
0.028376892 -0.14862752 -0.32336652 0.30030525 0.19967434 -0.5948542 0.198493 -0.41672483
0.35176483 -0.1579615 0.014738396 0.22686826 0.2799455 0.0075639747 0.22329475 0.20042813
-0.094510525 0.21370772 -0.22034988 0.26445913 -0.2829212 0.17033607 -0.105570935 0.15381427
-0.48767644 -0.28806195 -0.0070889913 -0.4203298 -0.0885235 0.330427 0.22888005 0.08072919
-0.1445401 -0.032265175 0.0009924674 0.3270693 -0.38631886 0.26212326 0.07763943 -0.25997627
0.09943527 0.042332124 0.29667476 -0.2630659 -0.0977623 0.22483069 -0.030372597 -0.012813046
0.23837839 0.16559981 -0.37701568 -0.23518506 -0.047300216 -0.022135431 0.34131622 0.10466493
0.25481364 -0.009125266 -0.50581557 0.03404431 0.22814816 -0.2049691 0.11175353 -0.12579724
-0.09237643 0.24402682 0.07727316 -0.19162355 -0.1408774 0.02199405 -0.2594352 -0.68897486
-0.104349904 -0.3549047 -0.040026873 0.15403575 0.42823026 0.12750633 -0.137373 -0.27090818
-0.29001352 0.3696306 0.0777314 0.022620754 -0.036552086 -0.30312783 -0.14149998 0.21430366
-0.09211094 -0.24861945 0.18770504 0.260847 0.20050636 0.20519347 -0.34196398 -0.22050586
-0.07908472 0.3151011 -0.41627836 0.14703567 -0.3170005 -0.0657938 -0.08147631 0.081188254
-0.27749723 -0.32025596 0.017804215 -0.2816485 0.24993064 0.10440042 -0.05991104 -0.14834544
-0.08893989 -0.20635891 -0.19741303 -0.050567366 -0.14159709 -0.0044670505 0.48556268 -0.24638627
0.41893363 -0.017894825 0.12760727 -0.27532145 -0.16458808 -0.30621102 -0.1909952 -0.04041111
-0.30628192 -0.17273799 -0.20650706 -0.23922351 -0.13214563 -0.09583134 0.13593237 0.16616443
-0.2180214 0.123281024 -0.021439675 -0.24565023 -0.19011824 -0.4207559 0.04632222 0.09588077
0.35541087 -0.23205358 0.18813461 0.05637947 0.04934499 0.077777326 -0.11148605 0.11924752
0.14105351 -0.22439763 0.042499095 0.014873834 0.06264115 0.08849964 0.20182768 0.3178216
0.16371013 0.26865616 0.056957867 0.21954986 -0.2203189 0.27247554 0.23224536 0.12216512
-0.4953067 0.01586138 0.13635108 0.36131752 -0.061499853 -0.08927875 0.23006219 0.3295911
-0.49844998 -0.26149306 0.03432023 0.12618949 0.19942416 0.018250512 0.039745264 0.39586046
0.1075609 -0.14406198 0.084224194 0.030639457 -0.2528799 -0.30895907 -0.5195809 -0.3768004
0.0033386669 0.53920364 0.21837772 -0.12687139 0.050533075 -0.13447168 0.12964328 0.011992733

base.mlp.fc1.0.bias f4 [64]
00000000: 4771 87bc bc30 8abc 5f60 8a3d a139 4a3d
00000010: 5d02 2e3d f8f3 4fbd 99c6 f33c 4b12 ddbc
00000020: e064 96bd b635 733d 2246 533d 2a16 9e3c
00000030: 56f8 1bbd 09fc da3c 4fb7 98bd 4ce8 ee3b
00000040: 0d51 a03b 57d4 e3bc ca8c 13bd cab9 4e3d
00000050: d499 eb39 0e87 3c3d b989 23bc 74ee 7dbd
00000060: ecfa ce3c 811e fabc 825c dfbb d131 11bd
00000070: 1dec cbbc 755f 653d 519f ca3d f2af 49bc
00000080: 839e 233c b335 e9bc efb5 943c 5bfb 6b3c
00000090: a985 483d 8bd9 d63c 951b 9fba 5412 b33a
000000a0: 688d df3d ee82 3d3d 3568 a63c 5ba3 25bd
000000b0: 1a3e 7abd a2dc a5bd 03f3 2e3d d7de 003d
000000c0: 753d 1c3d da93 e93c 3e1e 01bd 710e 513d
000000d0: 4a5c 98bd 9064 6d3b 0056 82bd c442 8a3d
000000e0: 49b9 063d e6bf a2bd c088 38bd 231a 3fbd
000000f0: ff7d c6bb ea4e bdbc d7eb b1bc 0766 98bc
-0.016533507 -0.016868941 0.067566626 0.049371365 0.042482723 -0.050769776 0.029757785 -0.026986262
-0.07343459 0.059377395 0.051580556 0.019297678 -0.03807863 0.026731508 -0.07456838 0.0072908755
0.0048924745 -0.027811212 -0.03602294 0.05047015 0.00044937304 0.046027236 -0.009981566 -0.061994985
0.025266133 -0.030532124 -0.0068164477 -0.0354479 -0.024892861 0.055999238 0.098936684 -0.012310015
0.009986523 -0.028467989 0.018153159 0.0144031895 0.048955593 0.02622678 -0.0012138957 0.0013662078
0.10915643 0.046267442 0.020313362 -0.04043899 -0.06109438 -0.08098723 0.042712223 0.031462517
0.038144547 0.028512884 -0.03152298 0.051039163 -0.07439478 0.003622327 -0.063640594 0.06751016
0.032891545 -0.07946758 -0.04505229 -0.046655785 -0.0060575004 -0.023108918 -0.021718903 -0.018603338

base.mlp.fc1.2.weight f4 [64]
00000000: 1b3f 853f 402c 7b3f f58a 863f 63e2 8e3f
00000010: 0bff 7f3f b153 873f dc02 833f 3e0a 883f
00000020: c6ff 8c3f 0799 773f 2702 793f 02fa 803f
00000030: a4ad 7a3f ddc7 8e3f b471 873f 90f7 833f
00000040: ea75 773f 88aa 863f 62d6 763f 22c4 853f
00000050: ac73 8c3f 0999 813f 60b2 8a3f 7ccb 7d3f
00000060: abb2 733f 90f0 703f e8de 873f a0fe 7e3f
00000070: 988c 743f 4a38 893f b4db 8c3f 5c99 7a3f
00000080: 1465 8c3f 060f 833f c761 833f f755 803f
00000090: 4479 8b3f 742a 833f ecd8 823f 426b 863f
000000a0: 1802 783f 4613 873f df81 873f e063 8c3f
000000b0: 50a4 883f 34b0 7e3f a92f 853f e8fe 893f
000000c0: d7fa 783f e2ba 693f 53a8 823f 5a12 893f
000000d0: 27c0 803f afa8 703f 0463 7d3f 7ebf 773f
000000e0: 0405 843f d08d 773f 567b 873f 7b75 883f
000000f0: 2217 893f b650 553f a5a4 813f b935 783f
1.0409883 0.98114395 1.0511156 1.1162838 0.9999854 1.0572416 1.0235248 1.0628126
1.1015556 0.96717876 0.9726891 1.0076296 0.97921205 1.1154743 1.0581574 1.0309925
0.966643 1.0520792 0.9642087 1.045048 1.09728 1.0124828 1.0835686 0.9913862
0.951945 0.9411707 1.06149 0.99607277 0.9552703 1.0720303 1.1004548 0.9789026
1.0968347 1.023896 1.0264214 1.0026234 1.0896382 1.0247331 1.0222449 1.0501482
0.96878195 1.0552757 1.0586509 1.096798 1.0675144 0.99487615 1.040517 1.0780916
0.9725775 0.91300786 1.0207618 1.0708725 1.005864 0.9400739 0.9897921 0.9677657
1.0314031 0.96700764 1.0584514 1.0660852 1.0710185 0.8332628 1.012837 0.96956974

base.mlp.fc1.2.bias f4 [64]
00000000: 9fdd 97bc d98f 1e3c befa 303d e68f 8c3d
00000010: 131c c3bc 67ec 36bc 159f 3e3d 12f3 f93c
00000020: 9eb0 dcbd 7fe3 a13d 67aa 9a3c 0fd5 a3bc
00000030: 1d74 28bd 8452 693c 6e7e 9cbd cf52 4bbc
00000040: 323e afbb 18bd 09bc ab37 1fbd 2083 073d
00000050: f52a 8fbc 1d4c 56bd 0d8b 40bd f903 b0bd
00000060: 0da9 103d 5505 38bc 2670 c8bc 4fb4 2fbd
00000070: bd07 30bd 35ba 233d d9f4 ef3d f6aa a1bc
00000080: e9b3 663c e367 93bc 3cd9 05bd cdd5 33bc
00000090: 1cd7 cb3c 1872 8a3c 5732 d63c 7159 51bc
000000a0: a0fe b53d 3040 b53c 7207 883d d4cc e4bc
000000b0: b9af 79bd 42af 01bd 6de1 103c 8c83 793a
000000c0: b427 2abc 3c5f 3b3d 0c2a 13bd 0665 02b8
000000d0: 5004 06bd 82a5 9cbb fd78 53bd 2df9 363b
000000e0: 4950 d23c 6fc3 80bd 71a4 843b 9bb9 2fbd
000000f0: 922e c4bc 1893 90bd e87b 7bbc ed17 16bb
-0.018538294 0.009677851 0.043207876 0.06863384 -0.023817098 -0.011164761 0.04653843 0.030511413
-0.107758746 0.079047196 0.018880082 -0.019999055 -0.04112636 0.014240865 -0.07641302 -0.01240988
-0.0053479904 -0.0084069 -0.03887145 0.033084035 -0.017476538 -0.05231868 -0.04700761 -0.08594508
0.03531747 -0.01123174 -0.024467539 -0.042896565 -0.04297613 0.039972503 0.11716623 -0.01973484
0.01408098 -0.017993873 -0.032677874 -0.010976267 0.024882846 0.016900107 0.02614705 -0.012777672
0.088864565 0.022125334 0.06642045 -0.0279297 -0.060958598 -0.03166128 0.008842808 0.0009518198
-0.0103854425 0.04574512 -0.03592877 -3.10885e-05 -0.032718956 -0.0047804723 -0.051629055 0.0027919516
0.025673049 -0.06287276 0.0040479233 -0.042901617 -0.023947988 -0.07059306 -0.015349366 -0.0022902444

base.mlp.fc_h.0.weight f4 [64, 64]
00000000: 8a17 48be 5438 523e 1f11 2fbe 2b4d e7bd
00000010: 09df b83e be02 82bd 2f10 a53d 22f9 45bd
00000020: a623 16bd c141 2a3d a4ac 9b3b e97a 7fbe
00000030: 51ca df3d 01e2 abbd 6203 373e 89f9 ac3e
00000040: b2b9 68be b042 b0bd 268a d23e 9407 91be
00000050: 7145 9fbe 3516 c43d c842 073f 0492 4dbe
00000060: 1ee9 5ebe 3ccc 04be d09f 2dbb 7398 6f3d
00000070: bfb9 2e3e e262 4a3d 8a2f afbc 8b51 a63e
00000080: 952d c03e fe31 52be 5aa9 cfbd 75cf 473b
00000090: 459e 5fbe c7b9 543d a9bc bfbc b0d9 3b3e
000000a0: 8687 833e 75ae 393d 4914 16be 9d92 863c
000000b0: 8edf b2be 61e1 333e d0e2 aebe ec6e 89be
000000c0: 7cd5 06be 4053 dbbd d9be 3cbd 417b 93be
000000d0: 4df3 763d 155f 463e f730 85be cb5b 543e
000000e0: 69f1 26bd 90e7 393d 6831 f2bd 11c3 0fbf
000000f0: 9e77 eebd 4868 433d e0ef a23c 3538 0bbe
00000100: 55f6 ae3d 7247 123c 5b1a f83e 7648 afbd
00000110: d7a2 1abe 962d 103e d7a6 43bd 0d4b 25be
00000120: 6e0b c2be 6b79 b93c 740f d7bd 5de9 70bc
00000130: 9275 f7bd 26b7 233d 8a0d 8e3e 96b8 dd3d
00000140: 876f 1a3e dfed cebe 9f8e 27be cf96 213e
00000150: 9acd bcbd d995 a0be 9e48 443d af90 db3c
00000160: a5f7 12bd 88ca 1cbd 2e85 083e 2216 903d
00000170: 44d1 da3e 97cc c93d 3c01 7fbd 3a1f d83e
00000180: c120 19be 25b1 8dbd 363d 393e 44ff 1d3e
00000190: 2e69 94be 8c6a 68be d4a7 223e 3eb4 47be
000001a0: dad7 2cbe df29 e3bc e5d8 fa3e 3b72 adbe
000001b0: 7134 6e3e c3c9 793e d855 26bd fcda 113e
000001c0: 30b3 93be 23bf 59bd 9857 7e3c 0527 8dbe
000001d0: 2b91 963c 0682 81be ef8e 56bd 5123 743e
000001e0: 7093 9abe 71f2 2dbc 84a4 77be 86bb 523b
000001f0: c876 783d 7d74 07be 7841 d43e f3d2 0a3e
00000200: 4a48 bfbe 0c84 423e 7ce8 bebd 8ca9 0fbd
00000210: 40d7 29be 7a0b f8bc 4d39 d93d 45da 1e3e
00000220: 7f65 373e 56e9 9c3d 9b87 9ebd df5b cebc
00000230: 73c4 043e a39f 293c df07 29bd 04ee 563d
00000240: 9ff7 6dbe 0c40 b33b efa5 a8be 1534 20ba
00000250: e53d 7a3e e706 b0bd c30f 9d3d 1a87 d23e
00000260: 1b18 b6bd 2005 293e 9bd5 3ebe 7576 69bc
00000270: 61e4 ffbc 4067 c8bd 9e62 babe 81ab d03e
00000280: 280d 693e f29e a83e 5aba 09be 8cb6 043e
00000290: 2fc9 a13e 8816 f2bd 9706 f33e fdd8 90be
000002a0: 1d49 d33d 3ee6 f8bd b2c7 babe b6a0 3cbe
000002b0: 76a8 77be 05fd 0abe 890a bbbd 12ff 313d
000002c0: 8301 2d3e 7d43 cf3e 503c 10bc e190 523e
000002d0: 5413 7f3e d378 4bbe ff11 a3bd 2a87 9a3e
000002e0: d3aa b5be b679 403e 0ad8 45bd c602 763d
000002f0: a28c 95be a3da 8dbe 4caf 933d 34e3 033e
00000300: 30f3 3fbd 3e81 6fbd 801e 453d a8ce a73c
00000310: 09d9 febd bebe 21bb dc53 17be 0fa4 d93d
00000320: 2bcc 6abe 3cc0 eabd 9e46 0fbe 3445 c93d
00000330: 17e5 e5bd 445a 19be 85f0 d9bd 69a1 4ebd
00000340: bd9b 153e 8034 dabc 8474 303e 1ba9 8fbd
00000350: a2bf 683e 33be 2fbe 1568 91be 9c63 813e
00000360: dfb5 a0be f5cb c63d d554 bbbe 27eb 97be
00000370: 8c8d c03e 1650 74bd c5e3 db3c e64a 843e
00000380: f97f 49be 7e31 b9be edb4 cb3d e934 2e3d
00000390: 39ac bbbd 00bb 383e 432d 673c 1d9d 28be
000003a0: a7d8 753d 2dd2 3cbe 55c3 8a3e 8e5b a9bc
000003b0: b526 b4be 3b71 4cbd 02ed 5dbc ba61 90be
000003c0: 5a74 d93e d5d0 3bbd f884 fabd b996 82be
000003d0: 8610 6e3e e833 953e 1f59 afbe 704b ccbc
000003e0: 3d98 193f 04b3 b13e ca4b 9f3e 970e 6b3e
000003f0: 99d2 1cbe 2dfb 46bd 19b4 c4bd 0add ffbc
-0.1954023 0.205293 -0.17096375 -0.112940155 0.36107662 -0.06348179 0.080597274 -0.048333295
-0.03665509 0.041566614 0.004750805 -0.2494923 0.10927261 -0.08392716 0.17872384 0.3378413
-0.22727087 -0.0860647 0.41121024 -0.28326094 -0.31107667 0.09574548 0.52836275 -0.20075232
-0.21768615 -0.12968534 -0.002649296 0.058494996 0.17063044 0.04941071 -0.021384973 0.32484087
0.37534776 -0.20526883 -0.10139723 0.0030488644 -0.21837719 0.051934984 -0.02340539 0.1834476
0.25689334 0.04533239 -0.14656176 0.016427333 -0.34936184 0.17566444 -0.3415742 -0.2684244
-0.13167375 -0.10709238 -0.046080444 -0.28804973 0.060290623 0.19372208 -0.2601392 0.20738141
-0.04075757 0.04538685 -0.1182583 -0.5615702 -0.11643909 0.047706872 0.019889772 -0.1359566
0.08543078 0.008928167 0.48457608 -0.08558743 -0.15101181 0.1407989 -0.047766533 -0.16141911
-0.37899345 0.022640904 -0.10500994 -0.014704076 -0.12082972 0.039969586 0.27744704 0.108262226
0.15081607 -0.40415856 -0.16363 0.15780185 -0.09218903 -0.31364325 0.047920816 0.026802389
-0.035880703 -0.038279086 0.13332054 0.070354715 0.42737782 0.098534755 -0.062257037 0.42211324
-0.14953901 -0.06918553 0.18089756 0.15429407 -0.28986496 -0.22696894 0.15884334 -0.1950235
-0.16879216 -0.027729927 0.48993602 -0.33876213 0.23262192 0.24393372 -0.04060921 0.14243692
-0.28847647 -0.053160798 0.015523814 -0.27568832 0.018379768 -0.25294513 -0.052382406 0.23841597
-0.3019061 -0.010616885 -0.24183851 0.003215523 0.060660154 -0.1322803 0.414562 0.13557033
-0.3735984 0.18995684 -0.093216866 -0.035073802 -0.16586018 -0.03027891 0.106066324 0.1551295
0.17909811 0.07661693 -0.077407084 -0.025190292 0.12965564 0.010353002 -0.041267272 0.052473083
-0.23238991 0.0054702815 -0.32939097 -0.00061112765 0.24437673 -0.085950665 0.07669022 0.411187
-0.088913165 0.16505861 -0.18636172 -0.014249434 -0.03123683 -0.097853184 -0.36403364 0.40755847
0.22758925 0.32933766 -0.13449994 0.12960261 0.31598803 -0.11820704 0.47465965 -0.2829055
0.103166796 -0.1215329 -0.3648048 -0.18420681 -0.24185356 -0.13573082 -0.09132869 0.043456145
0.16895108 0.40481177 -0.008803442 0.2056308 0.24909717 -0.1987031 -0.07962417 0.30181247
-0.3548189 0.18796429 -0.048301734 0.06006124 -0.29208857 -0.2770587 0.072111696 0.1287964
-0.04686278 -0.058472864 0.04812479 0.020484284 -0.1244374 -0.0024680342 -0.14778084 0.10626995
-0.22929446 -0.11462447 -0.13991782 0.098276526 -0.11225336 -0.1497584 -0.106415786 -0.0504469
0.1461019 -0.026636362 0.17231947 -0.07014676 0.22729352 -0.17162399 -0.2839972 0.25271308
-0.31388757 0.097068705 -0.3658816 -0.29671595 0.37607992 -0.05964669 0.026842007 0.25838393
-0.19677724 -0.36170572 0.09946618 0.042530928 -0.09163708 0.18040085 0.014109912 -0.16466184
0.06002107 -0.1843955 0.27102152 -0.02067354 -0.3518578 -0.049912672 -0.013545277 -0.2819956
0.42471582 -0.045853455 -0.12232393 -0.25505617 0.2324849 0.29141164 -0.34247681 -0.024938315
0.5999792 0.3470689 0.3111251 0.22954784 -0.15314712 -0.048579384 -0.096046634 -0.03123333

base.mlp.fc_h.0.bias f4 [64]
00000000: 0000 0000 0000 0000 0000 0000 0000 0000
00000010: 0000 0000 0000 0000 0000 0000 0000 0000
00000020: 0000 0000 0000 0000 0000 0000 0000 0000
00000030: 0000 0000 0000 0000 0000 0000 0000 0000
00000040: 0000 0000 0000 0000 0000 0000 0000 0000
00000050: 0000 0000 0000 0000 0000 0000 0000 0000
00000060: 0000 0000 0000 0000 0000 0000 0000 0000
00000070: 0000 0000 0000 0000 0000 0000 0000 0000
00000080: 0000 0000 0000 0000 0000 0000 0000 0000
00000090: 0000 0000 0000 0000 0000 0000 0000 0000
000000a0: 0000 0000 0000 0000 0000 0000 0000 0000
000000b0: 0000 0000 0000 0000 0000 0000 0000 0000
000000c0: 0000 0000 0000 0000 0000 0000 0000 0000
000000d0: 0000 0000 0000 0000 0000 0000 0000 0000
000000e0: 0000 0000 0000 0000 0000 0000 0000 0000
000000f0: 0000 0000 0000 0000 0000 0000 0000 0000
0.0 0.0 0.0 0.0 0.0 0.0 0.0 0.0
0.0 0.0 0.0 0.0 0.0 0.0 0.0 0.0
0.0 0.0 0.0 0.0 0.0 0.0 0.0 0.0
0.0 0.0 0.0 0.0 0.0 0.0 0.0 0.0
0.0 0.0 0.0 0.0 0.0 0.0 0.0 0.0
0.0 0.0 0.0 0.0 0.0 0.0 0.0 0.0
0.0 0.0 0.0 0.0 0.0 0.0 0.0 0.0
0.0 0.0 0.0 0.0 0.0 0.0 0.0 0.0

base.mlp.fc_h.2.weight f4 [64]
00000000: 0000 803f 0000 803f 0000 803f 0000 803f
00000010: 0000 803f 0000 803f 0000 803f 0000 803f
00000020: 0000 803f 0000 803f 0000 803f 0000 803f
00000030: 0000 803f 0000 803f 0000 803f 0000 803f
00000040: 0000 803f 0000 803f 0000 803f 0000 803f
00000050: 0000 803f 0000 803f 0000 803f 0000 803f
00000060: 0000 803f 0000 803f 0000 803f 0000 803f
00000070: 0000 803f 0000 803f 0000 803f 0000 803f
00000080: 0000 803f 0000 803f 0000 803f 0000 803f
00000090: 0000 803f 0000 803f 0000 803f 0000 803f
000000a0: 0000 803f 0000 803f 0000 803f 0000 803f
000000b0: 0000 803f 0000 803f 0000 803f 0000 803f
000000c0: 0000 803f 0000 803f 0000 803f 0000 803f
000000d0: 0000 803f 0000 803f 0000 803f 0000 803f
000000e0: 0000 803f 0000 803f 0000 803f 0000 803f
000000f0: 0000 803f 0000 803f 0000 803f 0000 803f
1.0 1.0 1.0 1.0 1.0 1.0 1.0 1.0
1.0 1.0 1.0 1.0 1.0 1.0 1.0 1.0
1.0 1.0 1.0 1.0 1.0 1.0 1.0 1.0
1.0 1.0 1.0 1.0 1.0 1.0 1.0 1.0
1.0 1.0 1.0 1.0 1.0 1.0 1.0 1.0
1.0 1.0 1.0 1.0 1.0 1.0 1.0 1.0
1.0 1.0 1.0 1.0 1.0 1.0 1.0 1.0
1.0 1.0 1.0 1.0 1.0 1.0 1.0 1.0

base.mlp.fc_h.2.bias f4 [64]
00000000: 0000 0000 0000 0000 0000 0000 0000 0000
00000010: 0000 0000 0000 0000 0000 0000 0000 0000
00000020: 0000 0000 0000 0000 0000 0000 0000 0000
00000030: 0000 0000 0000 0000 0000 0000 0000 0000
00000040: 0000 0000 0000 0000 0000 0000 0000 0000
00000050: 0000 0000 0000 0000 0000 0000 0000 0000
00000060: 0000 0000 0000 0000 0000 0000 0000 0000
00000070: 0000 0000 0000 0000 0000 0000 0000 0000
00000080: 0000 0000 0000 0000 0000 0000 0000 0000
00000090: 0000 0000 0000 0000 0000 0000 0000 0000
000000a0: 0000 0000 0000 0000 0000 0000 0000 0000
000000b0: 0000 0000 0000 0000 0000 0000 0000 0000
000000c0: 0000 0000 0000 0000 0000 0000 0000 0000
000000d0: 0000 0000 0000 0000 0000 0000 0000 0000
000000e0: 0000 0000 0000 0000 0000 0000 0000 0000
000000f0: 0000 0000 0000 0000 0000 0000 0000 0000
0.0 0.0 0.0 0.0 0.0 0.0 0.0 0.0
0.0 0.0 0.0 0.0 0.0 0.0 0.0 0.0
0.0 0.0 0.0 0.0 0.0 0.0 0.0 0.0
0.0 0.0 0.0 0.0 0.0 0.0 0.0 0.0
0.0 0.0 0.0 0.0 0.0 0.0 0.0 0.0
0.0 0.0 0.0 0.0 0.0 0.0 0.0 0.0
0.0 0.0 0.0 0.0 0.0 0.0 0.0 0.0
0.0 0.0 0.0 0.0 0.0 0.0 0.0 0.0

base.mlp.fc2.0.0.weight f4 [64, 64]
00000000: 3092 39be 4dfe b83e 8f44 6bbe b6a3 40be
00000010: 76a8 aa3e 3ada a1bc 4ad6 d63d f0e0 80bd
00000020: 802f 8dbd 1115 26ba 9a2d 59bc 37b2 31be
00000030: 8cd6 123d caca 1abe c938 8f3e c6b8 c33e
00000040: 82b7 1abe ba68 a3bd 5d6e ad3e 8845 98be
00000050: 2539 a8be 0879 003e 6746 203f d76f 14be
00000060: d2f1 79be e537 53bd a7b1 bd3d d3f1 a8bd
00000070: 55f0 a03d ddd9 fd3d 83e4 8b3d f933 a03e
00000080: 3713 933e 95c5 79be dc42 9dbd 7a89 5b3d
00000090: f084 73be ffd4 383e 3a8a a63d 77d2 853e
000000a0: 09f2 ac3d c9fd a5bd b238 6fbd f948 bebd
000000b0: 487c e0be b04a 303e 1e9b 84be acfa a0be
000000c0: 4be9 1bbe 7961 9fbc 1135 6dbd 12eb 9fbe
000000d0: 4546 2cbd 7b17 f43d 27c0 1dbe 4ae8 303e
000000e0: ee85 91bd 247f 9bbd 3dfc 0ebe ccef 24bf
000000f0: bca2 e2bd fd3a cbbc c5e0 253e c63a a6bd
00000100: 5af3 723c 9657 033e 2cdb cf3e 828d 1fbe
00000110: 9c3d 65be bc43 323e 34f4 dbbd 93a9 66bd
00000120: fd04 e0be d1d8 af3c f35a 9dbd a2c3 a0bc
00000130: ef9c 26be e805 08bd c503 a33e a6a6 833e
00000140: d626 963e a071 cabe d648 60be e905 263e
00000150: 4969 49bd c650 87be af0d 133e b630 9c3d
00000160: 9992 37bd a37d 07bd 4486 393e ba06 483c
00000170: 9da8 963e 8e34 f53d 5bf5 4c3d e25f d63e
00000180: 3eb0 6abe 0c9f b8bd 3b81 3b3e 57f7 0f3e
00000190: ab03 8fbe e9e5 23be 54ea 643e bd00 81be
000001a0: 8067 87be a0f9 24be c0ff fd3e c1a6 dcbe
000001b0: 107a 443e f815 913e aa4a 1d3d cabc 073e
000001c0: be0e 5cbe 646e edbc 8e4a 6cbd 6316 79be
000001d0: 25fd 5bbd d8eb b6be a778 103d f88f 323e
000001e0: c69e a9be 94b7 27be 86c0 54be 8638 b4bb
000001f0: ff69 f03d 3943 18be 2f2b 003f 5985 543e
00000200: b468 c9be 1458 143e 68a7 b2bd a62d c03d
00000210: aa6f 6dbe 0564 12bd ed4e 123e 52b9 333e
00000220: c5a5 623e ff16 dd3d ac4a c7bd 8f14 d0bc
00000230: 1821 0a3e 5e77 c93d 3fee 29be 4514 38bd
00000240: c920 99be 44c2 c93d e7e4 87be d860 91bc
00000250: 3351 f33d 4d68 85bd b2d0 183d c20b bc3e
00000260: 56fe d5bd c292 0e3e aff5 84be 3ba6 253e
00000270: bde9 813d 3570 43be 9baf ffbe 5fb8 a83e
00000280: 91a6 683e c624 b73e f136 c5bd 84a8 9b3d
00000290: 7edf 9b3e f1fe 70bd 808a dd3e f475 a4be
000002a0: 09b5 2c3e 1653 75bd 034e e8be ca88 01be
000002b0: 6f8b 3abe 6f79 3abe eac8 4ebe 192c 943c
000002c0: 34e0 3e3e e709 ce3e f631 8fbc 252c a83e
000002d0: 1ce3 ab3e f21e 39be af32 89bd 7ae4 a53e
000002e0: 07a0 a1be 1658 8d3e aa82 76bd ec4f ed3d
000002f0: dc44 acbe 7c0e 63be b5b1 893c e258 ee3d
00000300: d4bd c3bd 4de6 13bc 8d44 093d 9e06 1bbc
00000310: 9180 0bbe d9ec d4bd c0c5 f6bd 7483 453e
00000320: 5059 3abe 4843 adbc 05c8 85bd 40b4 733d
00000330: 0704 06be dd7d 62be 92ae d0bd 4596 82bd
00000340: e43c f13d eb0f be3b 8c9e f53d 29e9 e6bd
00000350: 0da5 403e 0478 53be 0ce8 9fbe 3647 7f3e
00000360: c610 76be 1340 cb3d 24c5 b2be a011 86be
00000370: a158 a43e 7414 4b3b 295f 61bd 650d 9c3e
00000380: 9153 4bbe 8f5b b3be 77ff 843d ee83 cd3d
00000390: 0856 d8bd d765 703e 5469 ab3d e362 62be
000003a0: 699b aebd 5333 38be eeea a73e 53f5 813d
000003b0: 54e9 dabe c398 06bd 22f4 933d 00b7 93be
000003c0: f720 b13e c12f 87bc 6cc9 77be 6175 a7be
000003d0: 2493 603e e640 793e 0bcb b0be 403c 85bb
000003e0: 8f04 213f 6f32 8d3e 307c c13e 4967 7f3e
000003f0: 9912 78bd 53ff 07bc d59c d9bd 0536 cdbc
-0.18122172 0.36131516 -0.22975372 -0.18812451 0.3333165 -0.019757379 0.10490091 -0.062929034
-0.068938255 -0.00063355366 -0.013255501 -0.1735314 0.03584914 -0.1511642 0.2797301 0.38226908
-0.15109065 -0.079789594 0.33873263 -0.29740548 -0.32856098 0.1254617 0.62607425 -0.14495789
-0.24408653 -0.051566977 0.092624 -0.08249249 0.0785834 0.1239507 0.068306945 0.31289652
0.28725597 -0.24391778 -0.07678768 0.053597905 -0.2378118 0.18050002 0.081318334 0.26137134
0.08444602 -0.08105046 -0.05840368 -0.09291262 -0.4384482 0.17215991 -0.25899595 -0.31441247
-0.15225713 -0.019455658 -0.057911936 -0.31234032 -0.0420592 0.11918541 -0.15405332 0.17276111
-0.07105623 -0.075926095 -0.13963409 -0.644284 -0.11066195 -0.024808401 0.16199024 -0.08116679
0.014828527 0.1282638 0.40596902 -0.15581325 -0.22386783 0.17408651 -0.107399374 -0.056314062
-0.43753806 0.02146569 -0.07683363 -0.019624535 -0.16270803 -0.033208758 0.31838813 0.2571308
0.29326504 -0.39539814 -0.21902785 0.16213192 -0.049172673 -0.26428813 0.14360689 0.076264784
-0.04481754 -0.0330788 0.18117625 0.012208635 0.29425517 0.11972915 0.050038677 0.41870028
-0.22918794 -0.09014711 0.18311016 0.14059196 -0.27932486 -0.16005673 0.22355014 -0.25195876
-0.26446152 -0.1611085 0.49609184 -0.43095973 0.19187188 0.28337073 0.038401283 0.13255611
-0.21489999 -0.028983302 -0.05768829 -0.24324946 -0.053708214 -0.3572681 0.035271313 0.17437732
-0.33128947 -0.16378623 -0.20776567 -0.005499902 0.11738967 -0.14869393 0.5006589 0.20753993
-0.39337695 0.14486724 -0.087233365 0.09383707 -0.23187128 -0.035739917 0.1428792 0.17551163
0.22133549 0.10795402 -0.097310394 -0.025400428 0.13489187 0.098372206 -0.1659479 -0.044941206
-0.29907826 0.09851506 -0.26541826 -0.017746374 0.11880722 -0.065140344 0.037308402 0.3672772
-0.10448901 0.13923171 -0.25968692 0.16176693 0.0634341 -0.19085772 -0.49938664 0.32953164
0.2271979 0.35770243 -0.0962962 0.07600501 0.30443949 -0.05883688 0.4326973 -0.3212124
0.16865934 -0.05989369 -0.45372018 -0.12649837 -0.18217252 -0.18210386 -0.2019383 0.018087434
0.18640214 0.4024193 -0.017479878 0.3284618 0.33571708 -0.18078211 -0.0669912 0.32400876
-0.31567404 0.27606267 -0.060183205 0.115875095 -0.33646286 -0.22173494 0.01680837 0.11638047
-0.09557691 -0.009027076 0.03351264 -0.009462027 -0.13623263 -0.103967376 -0.120494366 0.19288427
-0.18198133 -0.021150246 -0.06532291 0.05949807 -0.13087474 -0.22118326 -0.10189547 -0.06376318
0.11779192 0.0058002374 0.11993131 -0.112749405 0.18812962 -0.20651251 -0.31231725 0.24929509
-0.24029836 0.099243306 -0.3491603 -0.26185322 0.32098868 0.0030987533 -0.055022392 0.3047897
-0.19856097 -0.3503079 0.064940386 0.10034929 -0.10563284 0.23476349 0.08369699 -0.22108035
-0.08525736 -0.17988329 0.32796425 0.0634562 -0.4275614 -0.03286053 0.07224299 -0.28850555
0.34595463 -0.016502263 -0.2419793 -0.3270674 0.2193113 0.24341163 -0.3452991 -0.0040660203
0.6289758 0.2757754 0.3779006 0.24941744 -0.06056461 -0.00830062 -0.106256165 -0.025050173

base.mlp.fc2.0.0.bias f4 [64]
00000000: 97ec 12bc a8ac 143c 9d59 adbc d372 c43b
00000010: 3ea7 b03c ca4f 623d 94cf 1fbc 1c9b 34bd
00000020: 1b09 a5b7 25ee d9bb 3f83 12bc 92d9 63bd
00000030: 5ffa 693c 5f79 00bd eba4 13bd 736c 18bd
00000040: 3c8f bf3c 2961 4e3c da38 4bbd 77e3 39be
00000050: 9aba 9b3c bf70 c93c d197 01bc 6d7b 33bc
00000060: 0986 913c db38 87bd 7c1f 19bc 5f03 3cbc
00000070: 742a 973d 9191 53bd 9e23 73bd 088e 663c
00000080: e91d 9b3d 1eae 283d 2e69 a33a 426a bdbc
00000090: ea13 b93c 6c2f e1bc 2297 193d 6a4a 343d
000000a0: 66a5 29bc 2759 84bb 3528 a5bb 93a3 373c
000000b0: cba8 ff3c 1e8d 3c3d 36de d43b 00ba 7ebd
000000c0: 124a 7f3c 4b05 653d f4ac a3bc 0663 d5bc
000000d0: 72ae c43d 89cc 823d 4942 8abc c23b 403d
000000e0: 1443 843d ff53 3f3d 3e25 b23d 7832 78bd
000000f0: fe54 633d 9987 23bb 5f8a f63b cd21 903d
-0.00896754 0.009074368 -0.021160895 0.0059951334 0.021564122 0.055251874 -0.00975408 -0.044093236
-1.9673773e-05 -0.0066507035 -0.008942424 -0.055627413 0.0142808845 -0.03136575 -0.03604595 -0.0372128
0.02338373 0.012596407 -0.049614765 -0.18153177 0.019009877 0.024589894 -0.007909731 -0.01095472
0.017764108 -0.06602641 -0.009345885 -0.011475413 0.07381144 -0.051652495 -0.05936014 0.014071949
0.07574064 0.041181676 0.0012467259 -0.023121957 0.022592504 -0.027488433 0.037497647 0.04401628
-0.0103543755 -0.004038948 -0.0050401934 0.011208433 0.031208416 0.046033017 0.006496216 -0.062189102
0.015581625 0.05591325 -0.019979931 -0.026048195 0.09603585 0.06386668 -0.01687731 0.04693199
0.06458107 0.046710964 0.0869851 -0.060595006 0.055500977 -0.0024952649 0.0075238193 0.07037697

base.mlp.fc2.0.2.weight f4 [64]
00000000: 967c 803f a9a2 873f 3060 853f a8b2 713f
00000010: 5502 793f 7d07 863f 2925 793f 0f37 763f
00000020: 3fb0 8a3f e188 813f 0b4a 933f 4bcd 853f
00000030: 31ce 823f 9f61 843f 606e 703f 056e 833f
00000040: 29ed 7c3f 5bad 853f 9496 803f 80b4 733f
00000050: 17f3 853f daa0 7e3f 30b6 6e3f 6ea6 783f
00000060: 2967 723f 0073 763f 00e7 813f 2fd3 803f
00000070: c320 833f 05af 7b3f d59d 723f 1766 823f
00000080: d065 853f 5d18 703f 32f0 8a3f 033b 723f
00000090: a713 763f 3d38 863f 310b 6b3f 374c 663f
000000a0: f8f4 6f3f c4d5 813f 4a2b 813f 9064 813f
000000b0: bec5 8e3f 1c3e 653f ceb8 853f 7f5b 883f
000000c0: a296 813f c859 8d3f aff7 893f b682 6e3f
000000d0: 1a11 783f 629c 7a3f 68a6 863f ec80 833f
000000e0: c6c7 843f 682e 8c3f 119f 803f 1471 823f
000000f0: 3efc 803f bcbc 8c3f d6c0 853f aead 7f3f
1.0038021 1.0596515 1.0419979 0.9441323 0.97269183 1.0471035 0.97322327 0.9617776
1.0835036 1.0119897 1.1506971 1.0453275 1.0219175 1.0342292 0.9391842 1.026795
0.9879938 1.0443529 1.0045953 0.95197296 1.046481 0.9946419 0.93246746 0.9712895
0.9468866 0.96269226 1.0148621 1.0064448 1.0244373 0.98313934 0.9477208 1.0187405
1.0421696 0.93787175 1.0854552 0.94621295 0.9612374 1.0485913 0.9181395 0.89960045
0.9373317 1.0143361 1.0091336 1.0108814 1.1154096 0.89547896 1.0447023 1.0652922
1.0124094 1.1043024 1.0778712 0.931682 0.96901095 0.9789487 1.0519533 1.0273719
1.0373466 1.0951662 1.0048543 1.0190759 1.0076978 1.0995097 1.0449474 0.9987439

base.mlp.fc2.0.2.bias f4 [64]
00000000: f1b8 62bb ecd9 103a c8b2 973c bc6d 2bbc
00000010: 4dce b43b 9db9 293b 4cdb 21bd c129 73bb
00000020: 3955 ed3a 7473 473b 8b8d 8b3c a44e 57bd
00000030: bc3f 7fbd afff 4ebc e5fa 013c dcda 38bd
00000040: 8735 b83c 221c a3bb 63e8 863c 0fba e1bc
00000050: 7357 913b 02f2 53bc cddf 33bc e132 c1bc
00000060: 268e 93bc 102e f8bc d2c9 a23b 4733 8cbb
00000070: 0f7f ab39 d0c9 a6bc 5f2f cf3c e5b9 debb
00000080: 8edf 2c3d 937b 60bc 722b 1e3c dd4e ba3c
00000090: 9fe4 61bb a452 193d a4c6 893c b99f 0dbd
000000a0: 100e 9b3b 2f37 993c 6218 0f3d af2c db3b
000000b0: 07fe b6bb 32ea 7b3c 8d99 fe3c cb70 de3c
000000c0: 7541 083d bd06 c93b d932 0abc 9a97 333c
000000d0: 028c 523d 63be 303c 6774 203c d10d 073d
000000e0: b7c5 2b3d 5ba9 cb3b 6e3a aabb 2993 07bc
000000f0: 81a7 753d 0e28 0b3c 904f ae3c 6e7f 00ba
-0.0034595097 0.0005525637 0.018517867 -0.010463174 0.005517757 0.0025897988 -0.03951578 -0.0037103745
0.0018107063 0.0030433806 0.017035266 -0.052565232 -0.06231664 -0.012634202 0.007933353 -0.045130596
0.022486461 -0.004977719 0.016468232 -0.02755454 0.0044354736 -0.012936117 -0.010978651 -0.023583831
-0.018012118 -0.030295402 0.0049679065 -0.0042785737 0.00032710328 -0.020359904 0.025291143 -0.0067970627
0.042205386 -0.013701337 0.009653913 0.022742683 -0.0034468544 0.037432328 0.016818352 -0.03457615
0.004731901 0.018703071 0.034935363 0.0066886763 -0.0055844816 0.015375661 0.031079078 0.027153393
0.03326555 0.0061348365 -0.008434975 0.010961438 0.051403053 0.010787579 0.0097933775 0.03297216
0.041936602 0.006215257 -0.0051949536 -0.008274832 0.059974197 0.0084934365 0.021278173 -0.0004901801

rnn.rnn.weight_ih_l0 f4 [192, 64]
00000000: 32ba aabb dfa9 1d3e aeb8 37be d46c 5cbd
00000010: 6d80 3d3e 8e01 efbc f92c d7bc 45b1 ebbd
00000020: e9cb 973d 35b9 c33d eb4e 093e b778 03bd
00000030: 0574 70be 7203 863d d9b7 a33d f52a bdbd
00000040: 3962 d03c fa83 ad3d fd6f f63d 049f b93c
00000050: b76e bbbd dc96 5f3d 6368 b73c 6678 89bd
00000060: 61c6 7fbc bce2 3a3d 23dd a2bd 4cee c53b
00000070: 2c24 2abe 90da f2bd 6826 1fbe fa17 fe3d
00000080: 3604 363e 96d9 0fbe a8ac 883d b58d 4dbc
00000090: 8cdc e43c 5b8a 07bd 9051 733d c383 a6bc
000000a0: d6ed bd3d 4470 353e 7962 31bc 9c58 193d
000000b0: 6e19 d5bc ca14 15bd d2fd 0b3e f960 8cbd
000000c0: 3925 b2bd e41b 22be d9d0 2b3e 09f3 a43c
000000d0: d36d fcbd fe2b 603d 3301 66bb 097c 153d
000000e0: 2015 19bb da0c 9b3d f7d8 adbd f632 c53c
000000f0: 94c7 2dbe 9f2a 06bd 6b19 e23c 0e36 943e
00000100: 0b83 893d 69ec 193c 8551 02be d5c4 a43d
00000110: 6052 b03d 7dae a83d 591b 813c 1694 7bbd
00000120: 84ea 793c 36ad 3b3d 71df 0d3d 67ba 4bbb
00000130: 8b63 613d 86ea 8f3d bde3 b3bd 84b4 353e
00000140: 358e 823d 2bf2 e33d 3a7f 52bd 68cb 58bd
00000150: 25a0 d9bc d927 563d f4be 1bbe c4c9 363d
00000160: 8de5 873a 0634 24be 0524 24bd d870 2e3d
00000170: 99a7 8a3e 9aef c13c 7bac 5fbb 2f8e 763e
00000180: b5d3 943d 9d12 babd ea05 93bd bbdc 183d
00000190: af87 db3d 2fd1 2b3d b938 b1bd 3661 cd3d
000001a0: febf 19be 0003 27be 7368 f8bb b8f2 18be
000001b0: 6a08 51bd 85ce 7b3d d8ee 493d 914a 14be
000001c0: db61 afbd 790d 3d3e fbe7 483d 1e40 a13c
000001d0: bf7b 583d 33a3 af3c 4953 b33d ae8a a73d
000001e0: 49c1 83ba 77f1 bfbc 4698 86bd b021 2cbe
000001f0: 0a32 033e b08a 273e 2ccd 943c 4149 853d
00000200: feae 023e fedd 493d 69a8 3c3d 5596 95bd
00000210: 862a 39be eb47 f0bd 6d89 083e 35fd 83be
00000220: e6b8 433c 7bf8 0bbc a62f 9fbd 7f61 41be
00000230: c304 9cbd 278d 2d3e c803 d3bc 262b 31be
00000240: 2ee2 e8bd b26d 1d3d 415f ce3c 81a4 ab3d
00000250: 9196 1bbe 2237 1bbe 7a4f 193d 7b0c bcbd
00000260: dc00 85bc fe57 9b3d 28ab eabd 5989 a03c
00000270: f488 083e ccfc 853d 11e7 cfbd f065 78bc
00000280: d884 b83d 7d28 823c b215 883c 0816 59bb
00000290: af48 f7bb 9918 723d b118 c43c f891 2dbe
000002a0: 1ab9 bfbd 3586 0bbe 8430 df3d 5c74 81bd
000002b0: 50e3 c43c e980 5e3e 19ec 01bd 8cb8 70bd
000002c0: 3320 693e 9492 abbb 2868 6abc ca66 553e
000002d0: deac 823b 0661 27bd b95b d03d 7d2d 35be
000002e0: 5f9b c0bc b332 643e 1fd6 0c3e 0f65 503d
000002f0: 6131 fa3b 9766 2abd 87bb 43be 28d4 873c
00000300: 1c5d ab3d 2528 c83d c196 75bd c72b 283e
00000310: c9bf cfbb c6b9 13bd 7b14 1d3e 60ea aebc
00000320: ec0e 27bc 8f34 b73c b3ee c13c 8560 29bd
00000330: 2389 e1bd 83ff 3d3d b9ec aa3d 8188 173d
00000340: 43cd d2bd b057 18be 0a29 9ebc 9ddd cd3d
00000350: ded1 15bd 54e3 d6bc 2fd3 36bd a35e ddbc
00000360: 04de cdbd a866 ec3b 4f00 59be 631a 3abd
00000370: d407 41bd a1a3 053e 8f9d 11be c9ae d43c
00000380: 7929 a33d 2954 83bd a714 ebbc 64ae 47bd
00000390: 4ced 883e 2870 da3d a650 7cbc de1e 20bd
000003a0: c683 003d d676 0abe 46c1 543d 1dbf bd3c
000003b0: 7396 73bd d859 053c 2c86 253c 2f8a ffbc
000003c0: e190 06bd db47 d03c b3be 1f3e 704f 8f3d
000003d0: 6337 143d c190 f3bc 45ef 143e 0b00 dc3d
000003e0: 7471 0fbd fe40 ee3d 3ef8 2d3c 01e0 f03d
000003f0: 8c34 b2be d99f 9a3b 1911 eabd ee01 f63d
-0.0052101845 0.15396832 -0.17941543 -0.053814724 0.18506022 -0.029175546 -0.026266562 -0.11508421
0.0741194 0.0955681 0.13409011 -0.032097545 -0.23481758 0.06543626 0.079940505 -0.09236709
0.025437461 0.08472438 0.12033079 0.022658832 -0.091519766 0.05458723 0.022388643 -0.06712417
-0.015611262 0.045626387 -0.07952335 0.00604037 -0.16615361 -0.11858094 -0.15541995 0.12406917
0.17775044 -0.14047846 0.066735566 -0.012545993 0.027937196 -0.03309093 0.059403956 -0.0203265
0.09273879 0.17718607 -0.0108267 0.03743802 -0.026013102 -0.03639678 0.13671044 -0.068544336
-0.08698506 -0.15830952 0.16778888 0.02013542 -0.12325635 0.054729454 -0.003509593 0.036495242
-0.0023358539 0.075708106 -0.084886484 0.024072152 -0.16970664 -0.03275549 0.02760001 0.2894749
0.067144476 0.0093947435 -0.1272641 0.08045355 0.08609462 0.08236406 0.01576011 -0.061420523
0.015253667 0.045819484 0.03463692 -0.0031086446 0.055026572 0.07027154 -0.08783672 0.17744642
0.0637478 0.11130174 -0.051390864 -0.05292836 -0.02656562 0.052284095 -0.15209562 0.044626012
0.0010368094 -0.1603547 -0.040073413 0.042588085 0.27080992 0.023673821 -0.0034129906 0.24077676
0.072669424 -0.090855815 -0.071788624 0.03731988 0.10719239 0.04194754 -0.08653397 0.10028307
-0.15014645 -0.16309738 -0.0075808107 -0.1493634 -0.051033415 0.06147625 0.049300045 -0.1448157
-0.08563586 0.1846217 0.04904936 0.019683894 0.05285239 0.021440124 0.0875612 0.08180748
-0.001005211 -0.02343057 -0.065720126 -0.16809726 0.12812057 0.16361499 0.01816424 0.06508113
0.12762067 0.049283974 0.046059046 -0.07304064 -0.18082628 -0.11732467 0.13333674 -0.2577912
0.011945939 -0.008543129 -0.0777276 -0.18884848 -0.07618096 0.16948377 -0.025758639 -0.17301616
-0.11371265 0.03843469 0.025191905 0.08380986 -0.15194155 -0.1515775 0.03742931 -0.09182068
-0.016235761 0.075851426 -0.11458427 0.019596742 0.13333493 0.06542358 -0.10151494 -0.015161023
0.09009713 0.015888447 0.016611908 -0.0033124704 -0.0075465064 0.05910549 0.023937555 -0.16950214
-0.09361477 -0.13625415 0.108979255 -0.06321022 0.024034172 0.21728863 -0.0317193 -0.058769748
0.2276619 -0.0052359793 -0.014307059 0.20839992 0.0039878925 -0.040864013 0.10173745 -0.17693134
-0.023511587 0.22284965 0.13753556 0.050877627 0.007635281 -0.041601744 -0.19114505 0.016580656
0.083673686 0.09773282 -0.059958223 0.1642295 -0.0063400012 -0.03606584 0.15339844 -0.021351993
-0.010196429 0.02236393 0.023673391 -0.041351814 -0.11012485 0.046386253 0.083459325 0.036995415
-0.10293057 -0.148772 -0.019306678 0.10052035 -0.036577098 -0.026231445 -0.044634994 -0.027022665
-0.10052112 0.007214386 -0.21191524 -0.04543532 -0.047126606 0.130507 -0.1422026 0.02596225
0.07966895 -0.06412537 -0.028696371 -0.048750296 0.26743543 0.10665923 -0.015400087 -0.039091937
0.03137567 -0.13521895 0.051942132 0.023162419 -0.05946965 0.008139096 0.01010279 -0.03119382
-0.03285301 0.025424888 0.1560009 0.069975734 0.036185633 -0.02973211 0.14544399 0.10742196
-0.035020307 0.1163349 0.010618268 0.11761475 -0.34805715 0.0047187624 -0.11429042 0.12012087

rnn.rnn.weight_hh_l0 f4 [192, 64]
00000000: d56f 353e a52b ca3b 3fe1 5dbd 942f f13c
00000010: fd90 7dbe 2a22 60bd 5c58 003e c89f d5bd
00000020: 3b3a b03d 7495 913d 91bb 48be bc80 f33d
00000030: a147 61bd 8f04 65bd 22d5 473d f744 b13d
00000040: 6438 b33d 5ab9 51bd f577 8c3d 38f3 acbd
00000050: 88bd 8f3d 0fca 553e deec 95bd 9250 803c
00000060: ec51 62bd 352b 863d 96fe 003e 8a09 0cbd
00000070: 1382 55bd 6685 973d 2a13 eebd 6b1d de3d
00000080: eeae 043e 8e84 3a3d be53 183d d535 873e
00000090: 0ea2 02be 990c efbc 52aa 43bd 0792 10be
000000a0: 6086 db3d a834 8e3d 55b0 e43d c387 0fbe
000000b0: 04a9 303c 21d8 b1bb 54b7 523d bc28 a03d
000000c0: 93d0 36bb 1e27 283e ffad e83d 8841 cf3c
000000d0: e260 a7bd 30c4 a63d 20ab 893e 3350 07be
000000e0: d9e0 c0bd aad9 9cbd f696 283c 7971 a6bd
000000f0: b11c 5d3e 9417 9abc 176e e2bc 09ab c63d
00000100: 4782 ecbd b8fa 173e 869a ea3d 22cc 8b3d
00000110: 65d3 de3a f808 07be 27e9 85bd a39a 1ebc
00000120: aa23 b8bc f728 b33c 7173 cf3c 9ca8 cbbc
00000130: 2b06 963c a4fe d23c d198 9bbb 2fb1 64bd
00000140: d675 13be 5977 813e 84e2 41be c15c 713d
00000150: 0199 4f3e 54c4 a23d 4416 fc3d 1707 2c3e
00000160: 06a6 673d 28d3 2fbe d0b4 b8bc 55d9 a9bd
00000170: a105 b23d eecf a9bc 2dae c0bd 154b bfbd
00000180: dc37 8c3d c341 803d bbf6 5fbd 34e5 56be
00000190: 843a 173c 9379 31be 8d56 9abd d761 c2bd
000001a0: 78d9 2cbd 714f 723c 6036 57bd fb33 e5bd
000001b0: f1be f63d 4195 1a3d f5ac 0a3d e4c7 ef3c
000001c0: fb8a 69bd 30df 2a3b 98d2 c13c c114 6c3d
000001d0: 7e6a 1b3e f6ba 203d 313a db3d 2f67 f3bd
000001e0: 7c2c e3bd bf70 25be 5524 6e3d 9ab6 05bd
000001f0: fea5 2dbd f648 f3bd f26f 42bd b575 6ebd
00000200: 6cd3 0a3d dc98 cb3c b9f0 273d 39a6 bfbc
00000210: b4d0 f0bd 8ec9 58be f0a7 e53c 88f3 06bd
00000220: 8c7c abbc 3bb8 2bbd 1e6a 283d 285d e13d
00000230: bdd3 78be def1 dc3b 3066 873d c1b8 0d3e
00000240: 7181 17bd f4da d13d 5752 8e3a 5b94 6ebe
00000250: 21a0 16bd 9a89 79bd 6adf 32bd 5a55 2bbe
00000260: b880 66bc 8527 b0bd 3b5a f63d f65b 26bb
00000270: 93eb a8bd 1575 8a3d b48b 093d e7cb c63c
00000280: 9b01 fb3d 97cd 0bbd f242 b13d 0ec6 3bbe
00000290: b73c afbd d4d3 e2bc 211f cf3c 29ff 583d
000002a0: 0ce2 7a3c 566e b5bd 503a d9bd 982f 533d
000002b0: 5c32 84bd 46df eabd 9dbd 0a3e a5ed ed3d
000002c0: 2e01 083e 6f13 d5bc dd26 6ebc 73a5 dfbc
000002d0: 570c 863d 718e 2abd 12cf 593e 54a8 04bd
000002e0: 121c e2bd 032a c5bd 49ee 8fbd dee8 4f3d
000002f0: a229 a53c 4d4e 85bd 3533 c9bc bec0 94bd
00000300: 8013 babc 4a2f d9bc 5bd6 0ebd ac81 123d
00000310: 6b10 23bd 1685 f43b 0f7f 1f3e f829 8ebd
00000320: 4597 6ebd e92e ffbd 8a0c af3b 7733 fc3d
00000330: 9fd7 7bbd ef7b 8f3d 4404 ef3b f90b 603d
00000340: 72d8 2bbe 7cd0 d3bd cbdc 55be 2d16 0dbe
00000350: d951 05bd 46ae f9bd 499c b43c 49bf 8dbd
00000360: eb81 b13d ceb8 aabc e163 703d ac8c 013d
00000370: dd2b 213e 5feb 9b3d fbd1 6ebc cc41 59bd
00000380: a31f 53bc 0d8e 8f3d 7efb afbb bb62 f6bd
00000390: 9299 a53d 5252 b63c 8f84 03bd 238b 53bc
000003a0: 6c5c babc b1dc fd3d 5c55 01be 5c95 97bd
000003b0: ba15 b63d 7600 ecbd 1d41 f83d fa97 273e
000003c0: 85f7 0c3d df43 8c3d 20fd 253d dde3 e6bd
000003d0: da0f 65bb 4136 55bd 1369 b33d 0f43 f23d
000003e0: 29bd 2bbd 3d82 73bd 7e30 4bbe 48b3 bdbd
000003f0: 00df 0b3e ccc9 8ebd 7649 9fbd bddd 6b3c
0.17718442 0.0061697536 -0.05416989 0.029441632 -0.2476234 -0.05472008 0.12533706 -0.104308665
0.086048566 0.07108584 -0.19602801 0.118897885 -0.05499995 -0.05591255 0.048787244 0.08655732
0.0875099 -0.051202156 0.068588175 -0.08444828 0.07018572 0.2087786 -0.073205695 0.015663419
-0.055253908 0.0655121 0.12597117 -0.034188785 -0.052126 0.073984906 -0.11624749 0.10845455
0.12957355 0.04553657 0.037189238 0.26408258 -0.12757131 -0.029180812 -0.047769852 -0.14118205
0.10718989 0.06943637 0.11166445 -0.14016633 0.010782484 -0.005427376 0.051444367 0.078202695
-0.0027895316 0.16421172 0.11361312 0.025299802 -0.08172776 0.081428885 0.2688837 -0.13214187
-0.09417886 -0.076587036 0.010289898 -0.08127112 0.21592976 -0.018810071 -0.027640386 0.09700591
-0.11548286 0.14841735 0.11455254 0.068260446 0.0017000256 -0.13187015 -0.06538611 -0.009680423
-0.022477943 0.02187012 0.025323601 -0.024860673 0.018313488 0.025756188 -0.0047484417 -0.055833038
-0.1440042 0.25286368 -0.18934065 0.058926348 0.2027321 0.07947603 0.12308934 0.1679958
0.056554817 -0.17170393 -0.022547156 -0.08293406 0.0869248 -0.020729031 -0.094082214 -0.09340493
0.06846592 0.06262543 -0.05467866 -0.20985872 0.00923026 -0.17331533 -0.075360395 -0.09491318
-0.04219958 0.014789448 -0.05254209 -0.11191555 0.12048138 0.037739996 0.03385635 0.02927012
-0.057017308 0.0026072972 0.02365999 0.05763698 0.15177342 0.0392408 0.107044585 -0.11884915
-0.11092469 -0.1615629 0.058140118 -0.032644846 -0.04239463 -0.118791506 -0.04747004 -0.058217723
0.033893034 0.024853162 0.041001055 -0.02339469 -0.11758557 -0.21170637 0.02803418 -0.032947093
-0.020933412 -0.041923743 0.041116826 0.11004096 -0.24299522 0.0067427 0.066112876 0.1384001
-0.03698868 0.1024684 0.001085828 -0.2329878 -0.036773805 -0.060922243 -0.043670096 -0.16731778
-0.014068775 -0.08601288 0.12028929 -0.0025384403 -0.08248057 0.06760613 0.033580497 0.02426715
0.122561656 -0.034131613 0.08655347 -0.1833727 -0.08556502 -0.027688898 0.025283398 0.052977715
0.015312683 -0.088589355 -0.10606825 0.05155906 -0.06454918 -0.11468367 0.13548894 0.11617593
0.132817 -0.026010243 -0.014535633 -0.027300572 0.065453224 -0.04163975 0.21270397 -0.032387093
-0.1104051 -0.09627154 -0.07027871 0.05075919 0.020161454 -0.06509075 -0.02456055 -0.07263325
-0.022714376 -0.026511807 -0.034872394 0.035768196 -0.03981058 0.007462154 0.15575813 -0.06941599
-0.05824973 -0.12460119 0.005342071 0.12314504 -0.06148493 0.0700606 0.0072942097 0.054698918
-0.16781786 -0.103424996 -0.20885007 -0.1377799 -0.03254876 -0.12191443 0.022047179 -0.069212504
0.08667358 -0.020840075 0.058689002 0.031628296 0.15739389 0.07613253 -0.01457643 -0.053041264
-0.012885961 0.07009516 -0.0053705564 -0.1203055 0.08085932 0.02225605 -0.03210884 -0.012911591
-0.022749148 0.12395609 -0.12630218 -0.07401535 0.08890863 -0.115235254 0.121217944 0.16366568
0.03441574 0.06848883 0.040524602 -0.1127393 -0.0034952075 -0.052053694 0.08760276 0.11829197
-0.041928444 -0.059450377 -0.19842717 -0.09262711 0.13659286 -0.069720834 -0.077776834 0.014396128

rnn.rnn.bias_ih_l0 f4 [192]
00000000: 5066 aabc 82f4 8b3c 2902 a6bc e294 68bd
00000010: a375 4ebd bc4c 153d 620f 4cbc cd0d 793d
00000020: 8900 c6bc 5e92 cebd 6577 073d ce3c f0bd
00000030: 6a40 75bd 8b88 28bc bfdc b6bc ac2f 9abd
00000040: 79df 213d 79e7 3dbc feb0 8c3a 93bb 9b3b
00000050: bc73 8b3b 23f9 c73c a4c5 f4ba e618 f539
00000060: ef16 3e3d 871a 5aba 6da4 b5bc 7e80 40bd
00000070: 90d1 833c d0f9 d03b 6f3f 623d b7ca 8bbd
00000080: db52 183c c683 163d edf5 ac3c 5a01 74bd
00000090: b2a0 b6bd 3c89 8dbc bf09 b03c ed4b bbbc
000000a0: eefb c93b a23c 803d 68a3 22bd e47b a53c
000000b0: 8ee1 b5bd bd18 7b3d 6496 d23c 22b7 913c
000000c0: 2ae0 583d 25ca d0bc 7104 163d de44 0d3d
000000d0: 2c5c e4bc 293a 14bc 3aee 0fbd 6150 d53a
000000e0: d10a 9e3c 6023 a53a 027a f53c 1230 e23c
000000f0: c78d 8d3c 99db ce3b 6814 663d 762c a73b
00000100: e8c6 49be 7639 12be ef9e 61bc e762 3b3e
00000110: 8e5d 3cbe 5235 0c3e 2181 7fbe 61b3 b03c
00000120: 6612 a7bc 1770 80be 6e60 0cbd 7b64 3fbd
00000130: 6a1e 083d a24d 61be c80e 8cbd d867 243d
00000140: b399 5bbe 9295 163d c3ad 47be 88f9 1c3d
00000150: 292f 2abe c596 45bc 91ad 5cbc eb4d a13c
00000160: 9e48 09bd 6919 83bd c34d 88be 2817 dfbd
00000170: 16e2 8cbd 88c2 a1bd 529d ebbd df9d 2e3d
00000180: 5b5c 2abd 3101 193e 2dd2 8bbd 2b34 b6bc
00000190: 0e66 163b 1c8c 0ebe 1124 14be e957 93bd
000001a0: 5b03 31be b154 0b3d f932 52bd 039b 2ebe
000001b0: b0b9 3cbe a3e1 de3d d666 053e ddcc e53d
000001c0: a5b4 91bc 19e9 36be 3d60 00be 9e06 85be
000001d0: 5cb1 15be c4c6 45bc 2da3 103e 110d ccbd
000001e0: 45c8 19bd f538 16be 89b0 a4bd dd55 32be
000001f0: 3617 37be d8b0 babc 7fd7 f2bd 04b0 ae3d
00000200: 4375 f13a 4a6d a5bc d986 fcbc ca14 66bd
00000210: d221 dcbc bee3 573d f0ad ee3c 1a7a 063b
00000220: 5518 40bc e778 893c b4f6 8bbb 5624 1bbc
00000230: d80f d2b9 9298 593c 8b29 863d 7ec4 25bd
00000240: 9e1b 253c 05bb 7cbc 9bf4 a4bc 160a 9ebd
00000250: 8aa3 86ba 903b 18bb 3885 f3bb 578a 093d
00000260: df91 31bd c71b a7bb c844 883c 1c14 4cbd
00000270: ec61 e13b 7b16 f93c 994d bd3b d827 823d
00000280: 1f7e f1bc f69d e1bc 585c 5ebd cd8c 9fbc
00000290: 062a e3bc 03a2 643b e2f1 35bd 400c 08bd
000002a0: c452 21bc 3d00 63bd e1ea 413d 1814 343d
000002b0: 079b 3d3d b67e b53c c768 88bc 32a7 dfbc
000002c0: af61 fb3c 79d3 883c b892 b13c 4e5b ca3b
000002d0: 6cd7 743d 4a9b 58bc bb00 4b3d 8511 c03c
000002e0: 400a 0bbd bbe7 1fbb 9e4e a5bb aa34 883c
000002f0: bd95 9f3c 9c28 2bbc 2195 ea3c 0c6c 483d
-0.02080074 0.017084364 -0.020264702 -0.05678261 -0.050405156 0.036450133 -0.012454839 0.060804177
-0.024170177 -0.10086511 0.033072848 -0.117303476 -0.059875883 -0.010286461 -0.022322057 -0.07528624
0.03951976 -0.011590832 0.00107339 0.004752585 0.00425574 0.02441079 -0.0018674624 0.00046748592
0.04640859 -0.0008319993 -0.02217313 -0.04699754 0.016091138 0.006377436 0.055236276 -0.06825774
0.009297098 0.036746763 0.02111336 -0.0595716 -0.08917369 -0.017277353 0.021489022 -0.022863353
0.0061640656 0.06261565 -0.039706618 0.020200677 -0.08880912 0.06130289 0.025706477 0.01778752
0.052948155 -0.025487015 0.03662533 0.034489505 -0.027875982 -0.00904707 -0.0351393 0.0016274565
0.019292267 0.0012599044 0.029965404 0.027610812 0.017279519 0.006312799 0.056171805 0.0051017357
-0.19704783 -0.14279732 -0.013770803 0.18299447 -0.18395063 0.13692215 -0.24951603 0.02156991
-0.020394515 -0.25085518 -0.03427165 -0.046726685 0.03323213 -0.22002271 -0.06838757 0.040138096
-0.2144535 0.036763735 -0.19499879 0.03832391 -0.16619553 -0.012059872 -0.013469116 0.019690474
-0.03351652 -0.06401331 -0.26621827 -0.108930886 -0.0687906 -0.07898432 -0.11504616 0.042631026
-0.041591983 0.1494186 -0.06827197 -0.022241673 0.0022949013 -0.13920635 -0.14466883 -0.07194502
-0.17286436 0.034016315 -0.051318143 -0.1705132 -0.18430209 0.108828805 0.1302751 0.11220715
-0.017786333 -0.17862357 -0.12536712 -0.2598161 -0.14618438 -0.012071315 0.14124747 -0.0996343
-0.037544508 -0.14670165 -0.08041484 -0.17415567 -0.17879948 -0.022789404 -0.11857509 0.08529666
0.0018421788 -0.020193715 -0.03082602 -0.05617217 -0.026871596 0.052707426 0.029135674 0.0020519556
-0.011724551 0.016781284 -0.0042713527 -0.009469112 -0.00040066126 0.0132810045 0.065508924 -0.040470593
0.010077385 -0.015425448 -0.020136168 -0.077167675 -0.0010272127 -0.0023228861 -0.0074316524 0.033579197
-0.043352004 -0.005099747 0.01663436 -0.049823865 0.0068781283 0.030406227 0.0057770726 0.06355256
-0.029479085 -0.027541142 -0.054287285 -0.019476319 -0.02773 0.0034886606 -0.04442013 -0.033214808
-0.009846393 -0.05542015 0.04734314 0.043964475 0.046290424 0.022155147 -0.016651524 -0.027301405
0.030686228 0.0167024 0.021676406 0.006175435 0.059775755 -0.013220618 0.049561244 0.023445854
-0.033945322 -0.0024399597 -0.0050447723 0.016626675 0.01948058 -0.010446694 0.028635563 0.048931167
