onpolicy/scripts/results/MPE/simple_spread/rmappo/check/wandb/run-20220705_095303-3qhh8bzw/files/critic.pt (torch, 156012 bytes, 21 tensors)

base.feature_norm.weight f4 [54]
000000 4b cc 53 3f e4 73 65 3f 89 5b 81 3f 31 53 80 3f
       0.827336 0.8962996 1.0106059 1.0025388
000010 ed c8 82 3f f6 60 7b 3f 16 2b 85 3f 8a ed 6d 3f
       1.0217568 0.98194826 1.0403774 0.9294058
000020 4a 18 7c 3f 09 34 6f 3f 94 8b 83 3f 04 a4 81 3f
       0.9847456 0.93438774 1.0276971 1.0128179
000030 73 9b 81 3f 12 f9 81 3f c9 4e 81 3f 2a 86 82 3f
       1.0125564 1.0154135 1.0102168 1.0197194
000040 a9 b9 81 3f eb 10 81 3f a3 f7 5f 3f 8f 42 50 3f
       1.0134784 1.0083288 0.8748724 0.8135156
000050 64 04 85 3f ed 4f 80 3f 69 72 79 3f 9d d8 77 3f
       1.0391965 1.0024391 0.974402 0.968149
000060 02 8c 80 3f 29 4b 77 3f 5c 27 7c 3f 3f cb 6e 3f
       1.0042727 0.9659906 0.9849756 0.9327888
000070 2d 27 87 3f 53 a8 7e 3f db 37 7f 3f e8 15 78 3f
       1.055883 0.9947559 0.99694604 0.96908426
000080 95 91 7d 3f f3 ca 87 3f 6c f8 82 3f 08 4d 7e 3f
       0.99050266 1.060881 1.0232062 0.9933629
000090 9f 5e 5a 3f 50 4d 5c 3f 7e 54 70 3f d3 b9 7a 3f
       0.8530063 0.8605547 0.93878925 0.97939795
0000a0 31 f3 74 3f b9 b3 7e 3f aa 4c 68 3f 83 95 78 3f
       0.9568358 0.99492985 0.9074198 0.97103137
0000b0 c4 e5 78 3f 29 d0 7c 3f e1 37 81 3f 49 4f 82 3f
       0.97225595 0.9875513 1.0095178 1.0180446
0000c0 08 d7 80 3f ed 08 82 3f 98 89 81 3f f3 6c 7f 3f
       1.0065622 1.0158974 1.0120115 0.9977562
0000d0 7d 37 80 3f 6c d5 7e 3f
       1.0016934 0.99544406

base.feature_norm.bias f4 [54]
000000 6d 80 e4 3b f2 ce 33 3c de 05 f5 bd 35 19 85 ba
       0.0069733174 0.010974633 -0.1196401 -0.0010154607
000010 bd e7 67 bd f2 b3 22 bd 80 00 28 3d 85 8c 29 bd
       -0.056617487 -0.03972239 0.0410161 -0.041393775
000020 62 94 02 3d 88 21 9c 3c eb 3e 2d bd c0 c9 1d bd
       0.03187979 0.019058958 -0.04229633 -0.038522482
000030 ff c8 cd 3c 2b 0e ab bc d6 48 80 bc ee 36 f7 bc
       0.025120256 -0.02088078 -0.01565973 -0.03017756
000040 74 55 f8 bd 2d 6a d7 bc 7a aa 1c 3c 02 d7 57 bd
       -0.12125674 -0.026295746 0.009562129 -0.05269528
000050 b7 7d a7 bc 74 43 1f 3d ff 6d 63 3d 18 f0 67 3d
       -0.020445688 0.038882688 0.055524822 0.056625456
000060 2f 5f d3 bb b3 07 46 bc f0 25 a2 bc ef 35 da bc
       -0.0064505558 -0.012086797 -0.01979348 -0.026637046
000070 82 8c 17 bd d1 0f cd 3b 87 90 6e 3d 9d 38 47 ba
       -0.036999233 0.006257989 0.0582433 -0.00075996836
000080 9c 64 58 bc 68 66 34 3b be 6e 35 3d 3c f9 73 bc
       -0.013207581 0.002752686 0.044295065 -0.014890965
000090 4d e4 cf bc 49 b5 19 bd 11 c8 cb 3b 40 01 3c bc
       -0.025377417 -0.037526403 0.006218918 -0.011474907
0000a0 fc e0 75 3c cd 18 10 3d 72 09 22 bc 77 b5 07 bd
       0.015007254 0.035179902 -0.009889947 -0.033132043
0000b0 97 9a b8 bc c0 da 86 bd a8 fd 2e 3c 45 89 17 bd
       -0.022534652 -0.06584692 0.010680594 -0.036996145
0000c0 41 77 08 bd 30 38 8f bb 7a 9b 09 3d f7 bc 92 3c
       -0.033316854 -0.0043707117 0.03359554 0.017912371
0000d0 3e 6e 29 3c 17 93 db bc
       0.010341225 -0.026803536

base.mlp.fc1.0.weight f4 [64, 54]
000000 87 bf 92 3e 6c 04 3d be 21 ea 79 3d 7d 54 b0 3d
       0.2866175 -0.18458718 0.0610143 0.08609865
000010 19 9e 9e bd 48 de f5 bd 5d 24 66 3e 7e cd 53 3d
       -0.077449985 -0.120052874 0.22474809 0.051709644
000020 17 55 95 be 98 6f 8e bd 04 98 8b bd 76 1b 80 3e
       -0.2916648 -0.069548786 -0.06816104 0.2502095
000030 df 98 5a 3d 46 67 a3 bd 2a 54 2d bc d5 e7 24 3e
       0.053368445 -0.07978682 -0.010579148 0.16104062
000040 0a 13 a2 3e 0d af 5a 3e 2c 7b 9a 3e 3b 4e 16 3e
       0.3165515 0.21355839 0.30172098 0.1467828
000050 1a f3 cf 3b 68 4a 2a 3e 48 a7 51 3d da 90 30 3e
       0.0063461186 0.16629946 0.051184922 0.17242756
000060 6b 11 97 3d ce bd 9d bd b7 db c7 bd d1 87 2b 3e
       0.07376369 -0.07702218 -0.09758704 0.16751029
000070 22 70 99 3d 4d ed a3 be ac 14 82 3e c7 fe 95 be
       0.07492091 -0.32016984 0.25406396 -0.29295942
000080 01 e2 37 be 61 41 c6 be 20 a2 4c be 0e cc 8a be
       -0.17957307 -0.38721755 -0.19983721 -0.27108806
000090 51 d4 35 3e ea 43 1b bd 60 48 60 bc ee 54 e8 3d
       0.17756774 -0.037906565 -0.013689131 0.11344324
0000a0 d1 2f 5a 3e 31 5d e2 3e 6b f7 9c 3d f2 d0 64 3e
       0.21307303 0.44211724 0.07664379 0.22345331
0000b0 f8 d2 ed 3e b8 d4 a9 be 3d 44 0c be d0 d7 34 3a
       0.4645002 -0.33170104 -0.13697906 0.00068986136
0000c0 71 72 c9 3d 04 d0 2d bd 16 f5 ef 3c c8 00 f0 bd
       0.09836281 -0.042434707 0.02929167 -0.11718899
0000d0 fb a8 71 3e 50 8f af bd 74 17 b5 3e 1a d9 e7 3d
       0.23599617 -0.085722566 0.35369456 0.11320706
0000e0 8f 29 99 3e 88 b3 2b be 7b d0 e5 be bf 68 33 bd
       0.2991452 -0.16767704 -0.4488562 -0.043801066
0000f0 16 cf cb 3d 07 6b 7e bd 6a a2 0c 3e 18 9d be 3d
       0.09951608 -0.062113788 0.13733831 0.09307307
000100 24 59 44 3e b6 ac d2 3e 90 bc 76 be 92 7a 39 3d
       0.1917463 0.41147393 -0.24095368 0.045282908
000110 11 af 1c be a6 4c 26 3e 6f e7 2a 3e 8d 90 b3 3e
       -0.15301158 0.16240177 0.16689847 0.3507122
000120 6d b3 5f be 15 d3 05 3d b1 24 86 3e 6c 8b 1e be
       -0.21845789 0.032672007 0.26199868 -0.15482873
000130 ee 16 4d 3d 53 ed 86 3d e2 2e 0a 3d a2 45 37 be
       0.050070696 0.06588235 0.033736117 -0.17897657
000140 58 cb 87 3e f8 f1 cd be 6b f7 49 3e 3e 2c 8a bd
       0.26522326 -0.4022367 0.19723289 -0.0674672
000150 02 49 84 3e c3 18 c1 3d 4d 89 91 3d 11 78 f4 3d
       0.2583695 0.09428551 0.07106266 0.11936963
000160 bc 2e e1 bd 8d 39 23 3e 56 33 fb bd 47 04 1b 3c
       -0.10995242 0.15939923 -0.12265651 0.009461469
000170 c1 93 01 bf ce db a4 3d f2 29 08 be 33 7d 83 bd
       -0.5061608 0.08049737 -0.13297251 -0.06420364
000180 14 74 15 3d 4b b3 43 3e 5b b9 05 3d 4f e5 3c 3d
       0.036487654 0.19111364 0.032647472 0.046117123
000190 7e a2 52 3e 5b 5c e6 be 05 a5 df bd 93 10 c1 3d
       0.20569798 -0.44992337 -0.10920147 0.094269894
0001a0 8b 24 86 3d af b7 94 3d 95 0f 82 bd 47 2d ec 3d
       0.06549939 0.07261597 -0.06350628 0.115320735
0001b0 1b 50 c4 3c 59 53 c5 bd b8 e9 b0 3d 88 ac 66 be
       0.023963979 -0.09635038 0.08638328 -0.22526753
0001c0 76 b2 b1 bd 3c 4e 46 3e 2e bb e2 bc 71 db 43 be
       -0.08676617 0.19365782 -0.027677145 -0.19126679
0001d0 8e bd 39 3e 79 a8 0a be a5 43 01 be d4 81 a8 3e
       0.18138716 -0.1354083 -0.1262346 0.3291155
0001e0 82 3f 61 3e 93 2d 8b be 65 36 e6 3d 21 65 b7 bc
       0.21996883 -0.27183208 0.11240844 -0.02238709
0001f0 f1 b8 8c be 75 3f 31 be 15 5a 13 be 4e d7 56 bd
       -0.2748485 -0.17309363 -0.14389832 -0.052451424
000200 7c fa fd bd 33 c5 a8 3e 02 e7 d7 3d 25 e9 87 3e
       -0.12401292 0.3296295 0.10542108 0.26545063
000210 1a b0 11 bd cd 07 cb bd e9 08 ab be 0c 8d 83 3e
       -0.035568334 -0.09913597 -0.33405235 0.25693548
000220 6b 5c 30 be a6 01 6b be 2d db 88 3e 36 77 ac 3e
       -0.17222755 -0.22949848 0.26729718 0.336847
000230 17 6f c7 3c dd 4f c0 bc 05 b5 c3 bc 90 e3 dd be
       0.024344964 -0.023475582 -0.023890028 -0.4333768
000240 90 e2 a3 bd 6a 97 86 3e 0a f8 b3 3c 0d 7e 06 be
       -0.08002198 0.26287395 0.02196886 -0.13134022
000250 fd 5f 95 be 06 10 ab 3e 60 d8 9b 3e 77 7e 00 3d
       -0.29174796 0.33410662 0.3043852 0.031370606
000260 a6 10 19 3e 93 e4 e1 be 43 ad 14 3e 6a be 3b 3d
       0.14947757 -0.441197 0.14519219 0.04583589
000270 6a 7f 67 3e 3c 84 fe 3c 9d 14 26 3c 51 b3 8f 3c
       0.22607198 0.031068914 0.0101367505 0.01754156
000280 d4 79 fd bc 3c e4 48 be 8e ee 5e 3e 91 48 18 be
       -0.030941881 -0.19618315 0.21770689 -0.14871432
000290 7b 39 98 bd 31 cf 09 3e d4 24 52 bd 7e 9b 9e be
       -0.074328385 0.13457943 -0.051304653 -0.30978006
0002a0 e9 cd 05 bf 47 19 51 be 9f 4b c1 bd 3a bd 85 bd
       -0.5226732 -0.20419799 -0.09438252 -0.06530233
0002b0 6a 0d 22 be 86 9d 32 be 02 11 81 be fe f2 56 3d
       -0.1582543 -0.17442903 -0.25208288 0.05247783
0002c0 c4 25 9e bd 1c e3 07 be fe 83 6e 3c d8 52 87 3e
       -0.07722047 -0.13270229 0.014557837 0.26430392
0002d0 e7 c2 97 3e 3f 77 a7 be 61 73 1e 3e 70 4d 81 3e
       0.29640886 -0.32708165 0.15473701 0.25254393
0002e0 cf fd 07 be fe c1 29 bd 7d 78 0d 3e 16 49 33 3e
       -0.13280414 -0.04144477 0.13815494 0.17508349
0002f0 47 92 3b be 14 8e 3d 3e 64 21 f8 3d ba ee a5 bb
       -0.18317519 0.1851123 0.12115744 -0.005063859
000300 c8 38 16 bd 86 49 84 bd 78 8b ce bd a8 3f ff 3d
       -0.036675245 -0.06459336 -0.10085195 0.12463313
000310 55 43 5a be 8d 3f e2 be 13 67 f2 bd a6 81 71 3e
       -0.21314748 -0.4418911 -0.11836066 0.23584613
000320 13 c1 df bc 09 d1 3c be 6b 47 de be 05 47 a9 bd
       -0.027313745 -0.18439116 -0.43413863 -0.08265499
000330 26 d3 f6 bc b8 bd e5 bd ee 2a 5c bc 0c 09 a9 3e
       -0.03012998 -0.112178266 -0.01343797 0.33014715
000340 67 db 62 3e e6 2a 1c be e9 3b b0 3d 6a f1 1a 3d
       0.22154008 -0.1525074 0.08605177 0.037827887
000350 80 4f ca 3d 0a 65 9f 3e 81 9b b9 3e 9e 56 aa bc
       0.09878445 0.31131774 0.36251453 -0.020793255
000360 7f 2d b2 3d c1 1e 63 bc 70 f5 ac 3d 19 2b 18 3d
       0.08700084 -0.013862313 0.08445251 0.037150476
000370 5d 41 d0 3e 02 f9 06 be f5 3f a0 3e 50 c1 c4 3c
       0.40674868 -0.13180926 0.31298795 0.02401796
000380 c8 1b df bd f7 2b a4 3d a7 cb 50 3d 11 80 28 be
       -0.10893971 0.08016198 0.050975468 -0.16455103
000390 f2 f3 42 be 41 86 37 bc d8 37 4b 3e 23 a7 8c 3e
       -0.1903837 -0.011201442 0.19845521 0.27471265
0003a0 29 61 f3 3e 6d 14 63 be fa 4f 3c be 56 3c 0e be
       0.47535065 -0.2217576 -0.18389884 -0.13890204
0003b0 e2 0f 53 be 3e 56 0c bf 42 3b 85 be 75 c0 75 3e
       -0.20611528 -0.54819095 -0.26021773 0.23999198
0003c0 34 23 23 bc cb a1 91 bc c6 31 43 3d 31 4c 9e be
       -0.009957124 -0.017777344 0.04765489 -0.30917504
0003d0 4f c6 c5 3e d3 8c b1 3d f6 74 e1 3e 3f ab 95 3d
       0.3862786 0.08669438 0.44034547 0.07308053
0003e0 e3 47 21 3c 0c f2 f7 bd c0 0b 79 3e 09 f6 70 be
       0.009843799 -0.12106714 0.24320889 -0.23531355
0003f0 2e 79 51 3e bb 78 47 3d 08 fe 55 3e 71 b5 5b 3d
       0.20456383 0.048699122 0.20897686 0.053639833

base.mlp.fc1.0.bias f4 [64]
000000 30 63 92 bd 96 1c 9c bd 87 81 43 3d de fc 95 bc
       -0.07147825 -0.0762264 0.04773095 -0.018309053
000010 de 9d 35 bb 1a 34 63 bd ae 52 0d bd e5 b8 3d 3b
       -0.0027712504 -0.05546961 -0.034502678 0.0028949317
000020 c0 e2 dd 3b 28 d7 64 3c 7e ed 73 bc ed 54 2b bb
       0.0067714155 0.013967313 -0.0148881655 -0.002614315
000030 ed e9 a0 3c 1e c5 7a 3d 2b ff c5 bd 87 5e d8 3c
       0.019642795 0.06122314 -0.0966781 0.026412262
000040 d0 c6 94 bc f9 7c 0b bd ae 2a da bc 7c bd 83 3d
       -0.018161207 -0.03405473 -0.02663168 0.06432626
000050 ab d7 3d bd 48 fa c6 b9 23 62 d5 b9 9e 87 06 3d
       -0.046348255 -0.00037951977 -0.00040699643 0.03284418
000060 30 89 4a bd 1c e5 e5 3c e6 8d d8 bc 17 97 05 bd
       -0.04944724 0.02806335 -0.02643485 -0.032614794
000070 0b d5 08 3d 9e f6 b6 bc bc 6b 29 3c b3 59 9e 3d
       0.0334063 -0.022334393 0.010340627 0.077319525
000080 e3 0f 7b bc 34 0f 83 3d cd 24 c4 3c dd 4c 82 bc
       -0.015323612 0.06399384 0.02394333 -0.015905792
000090 36 fb 05 3d be 1a 89 3c 67 d2 9f 3d c2 cb 13 3d
       0.032710277 0.016736384 0.07803803 0.03608299
0000a0 a5 f6 f0 bc 1c ad f8 3d 14 f6 b4 bc fb e5 94 3c
       -0.029414484 0.12142393 -0.022089995 0.01817607
0000b0 48 b4 5d 3d 17 c0 c1 3d 84 55 50 3b ed fc 86 bc
       0.054127008 0.09460466 0.0031789253 -0.016478026
0000c0 fa 62 f6 3c d2 c1 8d bd e1 20 fe bc a9 83 b4 bb
       0.030076493 -0.06921734 -0.031021537 -0.005508859
0000d0 ab 9f 8f bc 5c 2d 18 bc 65 82 17 3d 2d c7 bd 3c
       -0.01753219 -0.009288158 0.03698959 0.023166263
0000e0 fa a7 ac bc ef a1 f6 bc 11 08 4d bc 68 4e a3 3c
       -0.021076191 -0.030106513 -0.01251413 0.019934848
0000f0 03 41 2b 3d 25 01 e6 3b d7 26 1d bc 84 86 eb 3c
       0.041810047 0.0070191794 -0.00959178 0.028750665

base.mlp.fc1.2.weight f4 [64]
000000 19 12 80 3f 75 9a 7b 3f a0 c3 80 3f 2d ce 76 3f
       1.0005523 0.9828256 1.00597 0.9640835
000010 e8 e6 7c 3f a1 b5 7d 3f 1e 29 69 3f 19 f9 83 3f
       0.98789835 0.9910527 0.91078365 1.0310394
000020 63 b5 7c 3f a0 d3 7a 3f 5f ce 7c 3f d7 66 83 3f
       0.98714274 0.97979164 0.987524 1.0265759
000030 c1 bb 74 3f 03 12 80 3f 7c 9e 67 3f 4a ac 6e 3f
       0.9559899 1.0005497 0.904762 0.9323164
000040 2e 80 78 3f 34 57 70 3f 7f 7b 70 3f 8a a6 7b 3f
       0.97070587 0.9388306 0.9393844 0.98300993
000050 b4 ed 80 3f ac 08 82 3f 9b 93 70 3f 52 4e 86 3f
       1.0072541 1.0158896 0.9397523 1.0492651
000060 ed 9f 81 3f 3a 5b 78 3f ce 11 7c 3f 7a ef 7a 3f
       1.012693 0.970142 0.9846467 0.9802166
000070 10 ec 7f 3f 0f c9 64 3f 05 95 7b 3f 84 6d 83 3f
       0.9996958 0.8936929 0.9827426 1.0267797
000080 ef fc 76 3f f5 a0 6c 3f 86 81 7c 3f 21 c5 72 3f
       0.96479696 0.924331 0.9863514 0.94832045
000090 5d d8 80 3f 78 a0 7b 3f 3b dd 69 3f a4 75 84 3f
       1.0066029 0.9829173 0.91353196 1.0348401
0000a0 e9 08 7e 3f 34 a5 83 3f fe 03 7e 3f bc 08 7f 3f
       0.99232346 1.0284791 0.9922484 0.996227
0000b0 a8 17 7b 3f ce 4c 70 3f 79 1a 83 3f 14 b2 7f 3f
       0.9808297 0.93867195 1.0242454 0.998811
0000c0 e6 bd 72 3f ee ae 5f 3f a5 65 77 3f 23 69 65 3f
       0.9482101 0.87376297 0.9663947 0.8961355
0000d0 9e da 7e 3f c9 7e 7a 3f 60 e5 7e 3f d6 0e 78 3f
       0.99552333 0.9784971 0.9956875 0.9689764
0000e0 da 34 72 3f 93 47 7a 3f 0c 54 7e 3f 57 49 80 3f
       0.94611895 0.97765464 0.99346995 1.0022382
0000f0 ae 61 81 3f 84 39 84 3f 16 24 7d 3f c6 7b 6e 3f
       1.0107934 1.0330052 0.9888319 0.93157613

base.mlp.fc1.2.bias f4 [64]
000000 49 6c 99 bd 74 39 9e bd be 15 41 3d e5 5f ad bb
       -0.07491357 -0.07725802 0.047139876 -0.0052909725
000010 a2 15 7d 3c 13 2e 8a bd e9 cc 64 bd aa df 59 bc
       0.015447052 -0.06747069 -0.05585948 -0.013297955
000020 37 d8 de 38 02 f5 13 bb 5b 54 55 bc 8c 2d a0 bb
       0.00010626058 -0.0022576456 -0.0130206 -0.004888242
000030 46 b8 3e 3c 2b 3e 65 3d 73 1e aa bd bb 47 6b 3c
       0.011640614 0.05596749 -0.08306589 0.014360364
000040 b1 58 a2 bc ca 58 be bc b4 0c aa bc ce a4 e2 3d
       -0.019817682 -0.023235697 -0.02075801 0.1106659
000050 79 ba 48 bd f8 59 e4 bb bd 93 8c bb f1 23 ca 3c
       -0.04900596 -0.006968733 -0.0042900727 0.024675341
000060 7a 48 2b bd 70 cb 8a 3c 9a 3c b0 bc 6f 40 ca bc
       -0.041817166 0.01694271 -0.021513272 -0.024688927
000070 cd 5a 9c 3c a6 ef 2d bd e0 e4 0e 3c 36 9a 5a 3d
       0.019086266 -0.042464875 0.00872156 0.053369723
000080 60 c2 9e bc d5 ab b4 3d c4 6a b7 3c 8e 0c 1d bd
       -0.019379795 0.08821837 0.022389777 -0.03834205
000090 e0 3a de 3c 79 70 95 3c 03 83 70 3d 32 30 0b 3d
       0.027127683 0.018242108 0.058718693 0.03398151
0000a0 a8 51 56 3b 8e a5 05 3e 29 64 9a bc 41 d7 6d 3c
       0.003270248 0.13051435 -0.018846588 0.014516653
0000b0 1a bb 33 3d 58 bb 9a 3d b6 b2 dd 3b 10 ff 6d bc
       0.043879606 0.07555264 0.006765689 -0.014526144
0000c0 c7 8e e6 3c d1 95 84 bd 38 5a 3f bc c4 7d aa bc
       0.028144253 -0.06473888 -0.011679225 -0.020811923
0000d0 ab e9 09 bd 95 08 57 bc c5 67 b8 3c a6 1d af 3c
       -0.03367011 -0.013124605 0.022510419 0.021376442
0000e0 06 f1 c6 bc 82 10 e4 bc 49 e6 f9 bc 61 a5 52 3b
       -0.02428485 -0.027839903 -0.030505316 0.003214203
0000f0 a1 02 06 3d bb 4c 7f 3a 8b e3 a4 bc 0f 8c a3 3c
       0.03271735 0.0009738912 -0.020128032 0.019964246

base.mlp.fc_h.0.weight f4 [64, 64]
000000 dd 10 5d 3e b8 87 d8 3d 50 d9 4c 3e ad 75 e4 3c
       0.21588464 0.10572761 0.20004773 0.027888143
000010 ad 05 20 3e 39 db 0a bd 89 d9 5d be 3c ac 7b be
       0.15627165 -0.033900473 -0.21665014 -0.24577421
000020 66 69 df 3e 2a 13 af 3e c8 f3 4b be b4 7a fd 3d
       0.436351 0.3419431 -0.19917214 0.123769194
000030 4a f0 36 be 2b 7a 88 be fe 5b 12 bd 89 c0 8e bd
       -0.178651 -0.26655707 -0.03573226 -0.06970317
000040 d4 a3 94 be f9 05 bd 3d 3a c0 8c 3e d0 18 90 bd
       -0.2903124 0.09229655 0.27490407 -0.070359826
000050 fa b4 ab 3e 59 47 30 be 68 d4 e8 3e 3a 87 78 3c
       0.33536512 -0.17214717 0.45474553 0.015168959
000060 e9 5e a1 bd 00 96 07 ba db 5c f2 3c 00 64 6c 3e
       -0.07879431 -0.0005172193 0.029585293 0.23085022
000070 9a 2b 37 3d d0 f1 a1 3e 8a 8f b4 3d bb 75 92 3e
       0.044719316 0.316298 0.088164404 0.28605446
000080 e3 ff d5 3e c9 11 df 3d 64 52 bd be 3c e1 39 be
       0.4179679 0.10892064 -0.36976922 -0.18152326
000090 bc b3 37 be ee 80 91 3c 98 c4 e3 3d 30 69 b7 bd
       -0.17939657 0.017761674 0.11121482 -0.0895561
0000a0 a7 0c ac 3e 3b 57 48 3e 4b 61 07 be c3 bb 98 bd
       0.33603403 0.19564526 -0.13220708 -0.07457688
0000b0 7f 11 c9 3d 66 60 06 be ca 85 49 3b ce d3 be 3e
       0.0981779 -0.1312271 0.003074991 0.3727097
0000c0 68 44 3d bd a6 00 51 bd 20 0a 65 bd 72 26 24 be
       -0.046207815 -0.05102601 -0.05591786 -0.1603029
0000d0 70 d9 0d be f2 f8 92 bc ca 52 8f 3e c8 a7 79 3d
       -0.13852477 -0.017940972 0.2799285 0.060951024
0000e0 5e ce 25 be 0d dc a3 3e 80 57 3e 3e 9f 55 c7 3d
       -0.16192004 0.32003823 0.18588066 0.09733128
0000f0 0d 97 fc 3d 52 5f 52 be 26 e3 84 3e 91 5c b0 3e
       0.12333498 -0.20544174 0.2595455 0.34445623
000100 f5 38 07 3e e5 c5 b6 3c 48 09 52 be 93 e1 af bc
       0.13205321 0.02231116 -0.20511353 -0.021469867
000110 5d 92 a0 be b8 de 38 be 5e 51 66 bd d9 56 ab 3e
       -0.31361666 -0.1805371 -0.05622994 0.33464697
000120 20 a0 8b 3e 6e 6b cc 3e 17 f5 97 3e fa d1 3b be
       0.27270603 0.39925712 0.29679176 -0.18341818
000130 a9 26 a8 be b3 22 6b 3e 85 56 53 3e a0 ca a9 be
       -0.32841995 0.22962455 0.20638473 -0.33162403
000140 a5 7f 81 3e 75 d8 45 3d 97 98 17 3e fe 28 98 3c
       0.25292698 0.048302133 0.14804302 0.018574234
000150 d2 e5 a2 ba 2f 7c 15 3e 60 15 47 bc 00 f8 33 be
       -0.0012428111 0.14598154 -0.012151092 -0.17575073
000160 18 f6 ee 3d 1a e1 a7 bc 59 06 04 be 8e e9 3a 3e
       0.116680324 -0.020493079 -0.12893046 0.18253157
000170 36 ca cd bd 57 72 93 3e 49 e3 98 bd 65 ee 4b be
       -0.10048334 0.28798172 -0.07465226 -0.19915159
000180 55 c3 8a bd f9 a4 72 be 30 73 36 3e a4 44 d6 3c
       -0.06775538 -0.23695745 0.17817378 0.026155777
000190 ae 55 fb 3d 1a 5b 3d be 4f f7 13 bb 4d 92 04 3e
       0.122722015 -0.18491784 -0.0022577827 0.12946434
0001a0 db 88 27 3d e3 e5 e1 3d be 8d 00 bf e2 db 76 3e
       0.040902 0.110301755 -0.5021628 0.24107316
0001b0 d0 5e 73 bd 76 81 d5 3d 17 8f c3 3e 8b 23 39 be
       -0.059416592 0.10425083 0.38195106 -0.18079965
0001c0 3b 7d 31 3e 83 e0 64 be dd 2d 6d 3b a4 61 24 be
       0.17332928 -0.2235127 0.0036190667 -0.16052872
0001d0 c5 eb e2 be e1 4f 23 3e 87 9e 19 3c b6 f8 13 be
       -0.44320503 0.1594844 0.009376175 -0.14450344
0001e0 e0 6e 9d 3d 06 f4 0a 3f 6b 8c 3a be c9 42 33 3e
       0.07687163 0.542786 -0.18217628 0.17505945
0001f0 44 eb 5f 3c 30 07 07 3d 75 a1 c0 bd 38 d9 7a be
       0.013666932 0.03296584 -0.094057955 -0.24496925
000200 11 74 4c 3d 4b e6 84 3d 5e c7 64 be 9b 8f 23 be
       0.049915377 0.064892374 -0.22341678 -0.1597275
000210 9a 98 20 be 63 e6 4e 3e d1 c7 a2 3d 29 cb 28 3e
       -0.15683213 0.20205073 0.07948268 0.1648375
000220 51 2b 1b 3e d7 7d 8d bd 30 6f 20 3e 84 76 26 bf
       0.15153243 -0.06908768 0.15667415 -0.6502459
000230 4b 4f 6d 3e 3d 2e ee bc c4 2f b6 3c cf b6 27 3e
       0.23174779 -0.029074783 0.022239573 0.1637833
000240 cd c8 b5 be c6 9a 2e be 1d f9 aa bb 70 c9 c7 bd
       -0.3550476 -0.17051229 -0.005217685 -0.09755218
000250 2c a0 3b bd 7b f8 88 bd 2d 3c dc 3d 37 c6 68 bc
       -0.04580705 -0.06688019 0.10753665 -0.014207414
000260 81 21 d4 3d d0 83 0b bf aa 2f 86 3e 84 7e 22 be
       0.10357953 -0.54498005 0.2620824 -0.15868574
000270 0c 7f 99 be 4a 6f 64 3e a8 35 d2 bd d8 10 f9 bc
       -0.29979742 0.22308078 -0.1026414 -0.03040354
000280 46 3e f3 3d 48 55 2e 3e fe ea 00 bf 45 6f 35 3d
       0.11877112 0.1702472 -0.5035857 0.044295568
000290 b6 41 30 3e 3d 36 07 3d f4 45 d0 3d 5d 3e 7f be
       0.17212567 0.03301071 0.101695925 -0.24926133
0002a0 c7 99 95 3d 42 67 67 bc 1c d4 1d be 83 06 76 bd
       0.07304721 -0.01412374 -0.15412945 -0.060064804
0002b0 2f e0 53 3d b9 36 4e 3e 75 cf ae be b8 67 e5 bd
       0.05172747 0.20138063 -0.34142652 -0.112014234
0002c0 0b 7a 05 3e 31 f7 74 3e af 0e 06 be 37 df a3 be
       0.13034837 0.23922421 -0.13091539 -0.32006237
0002d0 19 c7 84 3e c4 8d 8e 3d b7 74 9e be 86 d9 94 3a
       0.2593315 0.069606334 -0.3094842 0.0011356331
0002e0 0c 70 ed 3e 42 3f f7 3d 60 cc ec bd 94 a7 0c 3e
       0.46374547 0.12072612 -0.11562419 0.13735801
0002f0 cb 74 29 3e c8 98 03 3e 80 7e 10 be a4 9e c8 3d
       0.16548459 0.1285125 -0.14110756 0.09795883
000300 c2 43 8a 3e 7a 17 d3 bc 51 6a b5 3d 48 95 bf be
       0.2700482 -0.02576803 0.08858169 -0.3741858
000310 04 32 b9 be 31 9f a5 3d 73 d5 3f bd aa 3b 18 3c
       -0.3617097 0.08087004 -0.04683442 0.009291569
000320 48 0f 65 3d 53 46 a3 3e e9 de 89 3e 30 e1 51 be
       0.055922776 0.3188959 0.2692788 -0.20496058
000330 99 6a 83 3e 7b 1f ad 3e 2d 33 eb be 6c 1a 97 3e
       0.25667265 0.3381308 -0.45937482 0.29512346
000340 6a ae 49 bb fb c1 9d be b8 b0 5c 3b a4 e8 c1 bd
       -0.0030774125 -0.30812058 0.0033674669 -0.09468201
000350 20 86 db 3c 8f 05 44 3e ac 22 3d be a5 d3 ea 3d
       0.026797354 0.19142745 -0.18470258 0.11466149
000360 93 32 f4 3e eb 67 5f bd 88 2e 9b be 75 f4 81 bd
       0.47694835 -0.054542463 -0.30308938 -0.063454546
000370 cb ed 0d 3e ff a4 89 bd b8 f5 3b 3e c4 10 b6 3e
       0.13860242 -0.06720924 0.18355453 0.35559666
000380 1b 40 91 3d dc 1a 1b be 92 05 cf bd ca 86 ac 3e
       0.07092305 -0.15146965 -0.10108484 0.33696586
000390 0b 54 dc 3c 74 29 56 3c ac c6 71 3c 8e c6 ec bb
       0.026895544 0.013071407 0.01475684 -0.007225818
0003a0 22 73 2c bb 89 eb 93 bd 6c ab 74 3e 68 c5 22 3e
       -0.0026313742 -0.07222659 0.23893517 0.15895617
0003b0 f5 63 07 be 9b f0 be 3e d3 82 ac 3d c1 65 26 3e
       -0.13221724 0.37292942 0.0842339 0.16249754
0003c0 4a ba bd 3d 1c a0 b7 be b8 f2 a5 3d 8c aa 4d 3d
       0.092640474 -0.3586434 0.081029356 0.050211474
0003d0 3b b9 65 3d 7c 58 f1 bd 83 a8 b2 3e 51 f6 9a 3d
       0.056084853 -0.11784455 0.3489419 0.075665124
0003e0 85 44 0b be a9 3e 7f bd 9c 4e b8 3e ea 72 99 ba
       -0.13600357 -0.062315617 0.35997474 -0.0011707221
0003f0 58 e2 8d be e4 ea 1f be c7 75 d4 bc 93 5e 59 3e
       -0.2771175 -0.15616947 -0.025935067 0.21227483

base.mlp.fc_h.0.bias f4 [64]
000000 00 00 00 00 00 00 00 00 00 00 00 00 00 00 00 00
       0.0 0.0 0.0 0.0
000010 00 00 00 00 00 00 00 00 00 00 00 00 00 00 00 00
       0.0 0.0 0.0 0.0
000020 00 00 00 00 00 00 00 00 00 00 00 00 00 00 00 00
       0.0 0.0 0.0 0.0
000030 00 00 00 00 00 00 00 00 00 00 00 00 00 00 00 00
       0.0 0.0 0.0 0.0
000040 00 00 00 00 00 00 00 00 00 00 00 00 00 00 00 00
       0.0 0.0 0.0 0.0
000050 00 00 00 00 00 00 00 00 00 00 00 00 00 00 00 00
       0.0 0.0 0.0 0.0
000060 00 00 00 00 00 00 00 00 00 00 00 00 00 00 00 00
       0.0 0.0 0.0 0.0
000070 00 00 00 00 00 00 00 00 00 00 00 00 00 00 00 00
       0.0 0.0 0.0 0.0
000080 00 00 00 00 00 00 00 00 00 00 00 00 00 00 00 00
       0.0 0.0 0.0 0.0
000090 00 00 00 00 00 00 00 00 00 00 00 00 00 00 00 00
       0.0 0.0 0.0 0.0
0000a0 00 00 00 00 00 00 00 00 00 00 00 00 00 00 00 00
       0.0 0.0 0.0 0.0
0000b0 00 00 00 00 00 00 00 00 00 00 00 00 00 00 00 00
       0.0 0.0 0.0 0.0
0000c0 00 00 00 00 00 00 00 00 00 00 00 00 00 00 00 00
       0.0 0.0 0.0 0.0
0000d0 00 00 00 00 00 00 00 00 00 00 00 00 00 00 00 00
       0.0 0.0 0.0 0.0
0000e0 00 00 00 00 00 00 00 00 00 00 00 00 00 00 00 00
       0.0 0.0 0.0 0.0
0000f0 00 00 00 00 00 00 00 00 00 00 00 00 00 00 00 00
       0.0 0.0 0.0 0.0

base.mlp.fc_h.2.weight f4 [64]
000000 00 00 80 3f 00 00 80 3f 00 00 80 3f 00 00 80 3f
       1.0 1.0 1.0 1.0
000010 00 00 80 3f 00 00 80 3f 00 00 80 3f 00 00 80 3f
       1.0 1.0 1.0 1.0
000020 00 00 80 3f 00 00 80 3f 00 00 80 3f 00 00 80 3f
       1.0 1.0 1.0 1.0
000030 00 00 80 3f 00 00 80 3f 00 00 80 3f 00 00 80 3f
       1.0 1.0 1.0 1.0
000040 00 00 80 3f 00 00 80 3f 00 00 80 3f 00 00 80 3f
       1.0 1.0 1.0 1.0
000050 00 00 80 3f 00 00 80 3f 00 00 80 3f 00 00 80 3f
       1.0 1.0 1.0 1.0
000060 00 00 80 3f 00 00 80 3f 00 00 80 3f 00 00 80 3f
       1.0 1.0 1.0 1.0
000070 00 00 80 3f 00 00 80 3f 00 00 80 3f 00 00 80 3f
       1.0 1.0 1.0 1.0
000080 00 00 80 3f 00 00 80 3f 00 00 80 3f 00 00 80 3f
       1.0 1.0 1.0 1.0
000090 00 00 80 3f 00 00 80 3f 00 00 80 3f 00 00 80 3f
       1.0 1.0 1.0 1.0
0000a0 00 00 80 3f 00 00 80 3f 00 00 80 3f 00 00 80 3f
       1.0 1.0 1.0 1.0
0000b0 00 00 80 3f 00 00 80 3f 00 00 80 3f 00 00 80 3f
       1.0 1.0 1.0 1.0
0000c0 00 00 80 3f 00 00 80 3f 00 00 80 3f 00 00 80 3f
       1.0 1.0 1.0 1.0
0000d0 00 00 80 3f 00 00 80 3f 00 00 80 3f 00 00 80 3f
       1.0 1.0 1.0 1.0
0000e0 00 00 80 3f 00 00 80 3f 00 00 80 3f 00 00 80 3f
       1.0 1.0 1.0 1.0
0000f0 00 00 80 3f 00 00 80 3f 00 00 80 3f 00 00 80 3f
       1.0 1.0 1.0 1.0

base.mlp.fc_h.2.bias f4 [64]
000000 00 00 00 00 00 00 00 00 00 00 00 00 00 00 00 00
       0.0 0.0 0.0 0.0
000010 00 00 00 00 00 00 00 00 00 00 00 00 00 00 00 00
       0.0 0.0 0.0 0.0
000020 00 00 00 00 00 00 00 00 00 00 00 00 00 00 00 00
       0.0 0.0 0.0 0.0
000030 00 00 00 00 00 00 00 00 00 00 00 00 00 00 00 00
       0.0 0.0 0.0 0.0
000040 00 00 00 00 00 00 00 00 00 00 00 00 00 00 00 00
       0.0 0.0 0.0 0.0
000050 00 00 00 00 00 00 00 00 00 00 00 00 00 00 00 00
       0.0 0.0 0.0 0.0
000060 00 00 00 00 00 00 00 00 00 00 00 00 00 00 00 00
       0.0 0.0 0.0 0.0
000070 00 00 00 00 00 00 00 00 00 00 00 00 00 00 00 00
       0.0 0.0 0.0 0.0
000080 00 00 00 00 00 00 00 00 00 00 00 00 00 00 00 00
       0.0 0.0 0.0 0.0
000090 00 00 00 00 00 00 00 00 00 00 00 00 00 00 00 00
       0.0 0.0 0.0 0.0
0000a0 00 00 00 00 00 00 00 00 00 00 00 00 00 00 00 00
       0.0 0.0 0.0 0.0
0000b0 00 00 00 00 00 00 00 00 00 00 00 00 00 00 00 00
       0.0 0.0 0.0 0.0
0000c0 00 00 00 00 00 00 00 00 00 00 00 00 00 00 00 00
       0.0 0.0 0.0 0.0
0000d0 00 00 00 00 00 00 00 00 00 00 00 00 00 00 00 00
       0.0 0.0 0.0 0.0
0000e0 00 00 00 00 00 00 00 00 00 00 00 00 00 00 00 00
       0.0 0.0 0.0 0.0
0000f0 00 00 00 00 00 00 00 00 00 00 00 00 00 00 00 00
       0.0 0.0 0.0 0.0

base.mlp.fc2.0.0.weight f4 [64, 64]
000000 03 e1 62 3e 20 a4 cd 3d d6 a5 70 3e 86 2f 04 3d
       0.22156148 0.1004107 0.23500761 0.032271884
000010 d8 f4 29 3e 61 98 df bc ad 15 53 be 87 cf 71 be
       0.16597307 -0.02729434 -0.20613737 -0.23614322
000020 17 41 e3 3e 58 55 b0 3e 0e d3 45 be cf b7 fe 3d
       0.44385597 0.34440112 -0.19318792 0.124374025
000030 62 c3 2c be 4f c0 86 be e0 0e cd bc 3a 34 84 bd
       -0.16871408 -0.26318595 -0.025031507 -0.06455274
000040 4f 7d 92 be d7 59 ec 3d b7 7c 8c 3e dd 40 8b bd
       -0.28611228 0.11540573 0.274389 -0.06799481
000050 a1 7c a9 3e b1 e5 34 be ae 2b e0 3e 6f 92 9e 3c
       0.33102897 -0.17665745 0.43783325 0.019356934
000060 f1 eb b1 bd f0 60 1a 3c 2d fb 7f 3c 2b b1 5e 3e
       -0.086875804 0.009422526 0.01562385 0.21747272
000070 4d 18 25 3d 34 61 a0 3e 59 97 d0 3d c3 33 8d 3e
       0.04030638 0.3132416 0.10185117 0.27578554
000080 a8 dc d1 3e 89 c4 02 3e 4a 37 bf be 9d 9b 3b be
       0.4098866 0.12770285 -0.3734687 -0.1832108
000090 42 76 2a be 43 9c 0a 3b b0 1d 01 3e 42 7d 97 bd
       -0.16646674 0.0021150268 0.12608981 -0.07396938
0000a0 98 f9 a4 3e 47 61 39 3e 11 c0 1c be d2 aa 95 bd
       0.32221675 0.18103515 -0.15307643 -0.07307972
0000b0 94 68 f6 3d 7a e2 f9 bd 74 7e 77 3b 87 38 bf 3e
       0.120316654 -0.122014 0.003776458 0.37347814
0000c0 f4 91 51 bd a2 ef a2 bd 4b 17 43 bd 7c d2 2e be
       -0.051164582 -0.079558626 -0.047629636 -0.17072481
0000d0 c2 ca 25 be 7e d2 1d 3c c4 e0 90 3e 9b 11 19 3d
       -0.16190627 0.009632705 0.28296483 0.037370306
0000e0 38 8f 43 be fb c5 a1 3e 30 de 4b 3e 61 d3 d2 3d
       -0.19097602 0.3159636 0.19908977 0.102942236
0000f0 7e 1c ea 3d 25 46 47 be fd da 74 3e 64 fc b5 3e
       0.11431216 -0.19460352 0.23911662 0.3554412
000100 25 bf 1e 3e 81 42 64 3d 9a 0e 42 be af fe 9c bd
       0.15502603 0.055727486 -0.18950883 -0.076657645
000110 98 a5 a3 be 65 73 2b be 71 e8 31 bd eb 0a b9 3e
       -0.31962276 -0.16743238 -0.043434564 0.36141142
000120 9b 29 8b 3e 35 7b d0 3e 72 ad 98 3e 66 d1 37 be
       0.2718018 0.40719 0.29819828 -0.17950973
000130 cb d5 a0 be 4c 17 4b 3e 72 8f 4c 3e ed 6a ac be
       -0.3141311 0.19833106 0.19976595 -0.33675328
000140 ff 3f 80 3e 2e 86 88 3d 65 a5 0f 3e 0f b3 73 3d
       0.25048825 0.06666218 0.14027937 0.059496935
000150 66 09 1b 3b 9c 11 18 3e 5f b2 40 bc d9 79 2a be
       0.0023656725 0.14850467 -0.011761277 -0.16648044
000160 f6 a3 1c 3e d1 0b 53 bd f3 00 fc bd 9f a1 48 3e
       0.15296921 -0.05152494 -0.123048685 0.19592904
000170 c3 d3 cd bd 73 a9 58 3e f1 34 95 bd 3b d0 4d be
       -0.10050156 0.2115839 -0.072854884 -0.20098965
000180 71 68 cb bd 9f e5 82 be 5e b1 3d 3e 96 f7 44 3d
       -0.0993203 -0.25565812 0.18524691 0.04808768
000190 fa 4e f5 3d 02 bf 4c be cd 71 2c bd 06 84 be 3d
       0.11977954 -0.19994739 -0.042100716 0.09302525
0001a0 46 4b f4 3c 14 19 ca 3d af 05 01 bf ca e8 77 3e
       0.02982105 0.098680645 -0.503993 0.24209896
0001b0 be 1a 4c bd 12 8f c8 3d f4 f1 c5 3e b8 4c 15 be
       -0.04983019 0.097929135 0.38661158 -0.14580047
0001c0 da 5b 31 3e 37 24 52 be ad 1a a8 3c 76 46 07 be
       0.17320195 -0.20521627 0.020520533 -0.13210472
0001d0 c1 d3 e7 be 91 ac 0e 3e 73 4f fa ba 38 35 25 be
       -0.45278743 0.13933016 -0.0019097164 -0.16133583
0001e0 7c 67 a4 3d cb 3f 0c 3f 4f d3 1e be 32 fd ed 3d
       0.080275506 0.5478484 -0.15510295 0.11620559
0001f0 64 d2 cf bc d4 46 61 ba b5 55 aa bd 1a 69 88 be
       -0.025368877 -0.0008593623 -0.083171286 -0.26642686
000200 a2 73 62 3d a1 71 ba 3d 22 5e 1c be e3 ec 26 be
       0.055286057 0.09103704 -0.15270284 -0.16301303
000210 ea 14 08 be cc f8 53 3e 43 9d a0 3d dd c8 dc 3d
       -0.13289228 0.20700377 0.07842495 0.10780499
000220 8f b3 12 3e e4 ea 4c bd a8 fd 0a 3e 9d b8 29 bf
       0.14326309 -0.050028697 0.13573325 -0.6629732
000230 ce 0a 93 3e 2e 7b ba bc 0d 7e 23 3d e2 19 36 3e
       0.2871918 -0.022763815 0.039915133 0.17783311
000240 b2 a1 a3 be 88 27 17 be c0 97 16 3d bd fd d8 bd
       -0.319593 -0.14761174 0.036765814 -0.10595272
000250 53 12 88 bd e2 83 69 bd be 55 aa 3d c6 23 9d bc
       -0.0664412 -0.05701054 0.08317135 -0.019182097
000260 23 22 cc 3d 77 4b 10 bf c0 a8 7a 3e 5b 2c 2e be
       0.099674486 -0.5636515 0.24478436 -0.17009108
000270 8b 78 ad be 5c d1 53 3e 3c f0 cd bd e1 e9 24 bc
       -0.3388103 0.20685333 -0.10055587 -0.010065527
000280 86 d9 eb 3d 29 4d 19 3e d0 a2 f8 be 73 64 a6 3d
       0.11516099 0.1497084 -0.48561716 0.08124628
000290 92 af 28 3e 42 1d d0 3c 0e d9 b3 3d 4b 70 67 be
       0.16473225 0.025404576 0.08781634 -0.2260143
0002a0 44 03 a1 3d 4c af 3c bd d3 31 1f be f2 fa 48 bd
       0.07861951 -0.046065614 -0.1554635 -0.049067445
0002b0 f0 ff 5d 3d 2d 18 2b 3e ff 71 b1 be b0 d3 04 be
       0.05419916 0.16708441 -0.34657285 -0.12971377
0002c0 ce 10 c4 3d f2 57 5f 3e 41 86 f1 bd 7a c6 ab be
       0.09573518 0.21810892 -0.11793185 -0.33549863
0002d0 c4 dd 77 3e 3a 24 81 3d 67 86 88 be 44 d3 1d bd
       0.2420569 0.06305738 -0.2666504 -0.038531557
0002e0 21 e1 e5 3e 81 e0 03 3e 1d 5f dc bd 1d 7e 21 3e
       0.44898322 0.1287861 -0.10760329 0.15770765
0002f0 f2 21 53 3e 6a d1 d2 3d 91 42 11 be ed 1b da 3d
       0.20618418 0.10293849 -0.1418555 0.10649858
000300 56 83 8b 3e 4c f0 06 3c 90 8d cc 3d ae 9c c2 be
       0.2724864 0.008236002 0.099879384 -0.38010162
000310 c2 75 ba be c0 83 78 3d 82 3e 60 bd 2a 2c 85 bb
       -0.36417967 0.06067252 -0.054747112 -0.0040641027
000320 eb 7e 32 3d c2 9f a3 3e 19 59 95 3e 54 11 0f be
       0.04357807 0.31957823 0.2916954 -0.13971454
000330 b2 de 84 3e 00 d3 c0 3e a1 1d d1 be 1c ef 8a 3e
       0.25951153 0.3766098 -0.40842918 0.2713555
000340 b5 b0 cc 3b 3b ef 95 be e8 6a 47 3d b6 13 a3 bd
       0.006246651 -0.2928408 0.048685938 -0.07962744
000350 22 48 b5 ba 88 0f 3b 3e b2 c1 67 be bc 2d b6 3d
       -0.0013830701 0.18267643 -0.22632483 0.08895442
000360 54 7c fe 3e 6e fb 7a bd da 13 9b be a6 5d 58 bd
       0.4970423 -0.06127494 -0.30288583 -0.052823685
000370 0f 3f 14 3e 85 49 33 bd ef 88 36 3e 5f 38 bb 3e
       0.1447718 -0.043771286 0.17825674 0.36566445
000380 ef a3 5c 3d fb 78 1a be 35 92 6f bd b1 52 a7 3e
       0.053867277 -0.15085213 -0.058489043 0.32680276
000390 be 84 80 3c b0 c3 f6 3b 19 f2 2e 3d a6 3c 13 bc
       0.015688296 0.007530652 0.04271135 -0.008986628
0003a0 78 bb 8b bb 10 73 c4 bd 3f 9e 87 3e 35 9d 05 3e
       -0.0042642914 -0.09592259 0.2648792 0.13048251
0003b0 3d 71 ca bd 17 38 af 3e 28 90 8b 3d ca b6 04 3e
       -0.0988488 0.3422248 0.06814605 0.12960353
0003c0 dc 8d b7 3d 76 33 9a be c3 12 88 3d 75 fd 46 3d
       0.089626044 -0.30117387 0.066442035 0.04858156
0003d0 50 34 3d 3b 66 14 0d be 76 28 b0 3e b7 83 57 3d
       0.0028870292 -0.13777313 0.3440587 0.052615847
0003e0 94 90 d0 bd ea 7b d1 bc c2 bf b6 3e 4c 59 8f bb
       -0.10183826 -0.025571782 0.35693175 -0.0043746587
0003f0 af e9 a3 be fc d5 36 be df 5b 60 bc 7a 79 2f 3e
       -0.32014224 -0.17855066 -0.013693779 0.17136183

base.mlp.fc2.0.0.bias f4 [64]
000000 78 3c 11 bc 8e ce 9b bc 3f bc 31 bd 0e b8 b8 3c
       -0.0088645145 -0.019019391 -0.043392416 0.022548702
000010 28 b2 94 3b a2 31 3b 3c d1 a9 79 3c 90 a2 b1 bd
       0.0045378394 0.011425408 0.015238241 -0.086735845
000020 5f da f4 bb e3 a0 b2 bc 14 77 ad bd 2e 5b 3e bd
       -0.007472321 -0.021805232 -0.08469978 -0.046473674
000030 d8 05 8c bd e2 45 9e bc ca ef 18 3d 1a 58 95 3c
       -0.06837052 -0.019320432 0.037338056 0.018230487
000040 91 bf 90 bc 4e da 96 3c 3d 20 aa 3d 9f ef cd bc
       -0.017669471 0.018414643 0.0830693 -0.025138674
000050 8c a9 fe 3b 3b 98 d0 3b 98 c4 3d 3d e0 6c c7 bc
       0.0077716764 0.0063658035 0.046330065 -0.024343908
000060 2d 83 8f 3c df 8b 7c bc 7e e8 f9 3d 4f 7b 8d 3d
       0.017518604 -0.015414207 0.122025475 0.06908285
000070 bb 75 86 bd 76 f9 7f 3c 73 f1 a8 bb de 37 30 bc
       -0.06565424 0.015623441 -0.005155736 -0.010755507
000080 87 9b 05 3d bf 66 2b 3c 0d 86 aa bb d9 4b 5f bc
       0.032619026 0.010461508 -0.0052039684 -0.013628923
000090 02 a0 bc 3c c4 e4 65 bd da 91 86 bc 08 00 32 3d
       0.023025516 -0.05612637 -0.01642697 0.04345706
0000a0 19 b7 e4 bc 61 a1 a6 bb cf 69 be bc 7e e3 28 3d
       -0.027919339 -0.005085156 -0.023243813 0.04123258
0000b0 4e 8c f2 3c 7c 4b 6f 3c c8 03 82 bc 69 43 36 ba
       0.029607918 0.014605399 -0.015870944 -0.0006952794
0000c0 5c b6 9a bc 0f 95 3e 3d 5a 28 9b bc 24 c2 19 3d
       -0.018885784 0.046528872 -0.01894014 0.037538663
0000d0 dd e5 29 3d 40 ad 41 bd 02 4b 97 3c 70 7b bb bc
       0.04147898 -0.047284365 0.018468384 -0.022886008
0000e0 e1 9d 83 bd f0 3b f8 3c 32 6b 14 bd cc 1c 81 bc
       -0.064265974 0.030302018 -0.036235042 -0.015760802
0000f0 3a d4 76 bc 9c 6f 3a 3b 44 c8 e2 3c 05 0f c0 3d
       -0.015065247 0.0028447872 0.027683385 0.09377865

base.mlp.fc2.0.2.weight f4 [64]
000000 d9 a9 7a 3f 94 20 6e 3f af 7a 77 3f 7e 3a 6c 3f
       0.97915417 0.9301846 0.96671575 0.9227675
000010 9c cb 73 3f 3f ab 74 3f ad 57 7c 3f e2 81 77 3f
       0.9523256 0.955738 0.9857128 0.9668256
000020 8f ca 7c 3f 57 f6 7a 3f 2d 23 78 3f 93 a1 75 3f
       0.9874658 0.98032135 0.96928674 0.9594967
000030 b3 ab 69 3f 1e 70 7c 3f 50 42 70 3f fc 65 77 3f
       0.9127762 0.9860858 0.93851185 0.9663999
000040 9a 19 77 3f fb 85 81 3f 6a 3f 7c 3f c6 0a 79 3f
       0.9652344 1.0119013 0.9853426 0.97282064
000050 f4 de 61 3f 36 fd 6d 3f bc 25 76 3f 68 cc 7c 3f
       0.88230824 0.92964494 0.9615133 0.987494
000060 d2 2e 6c 3f 9d 98 80 3f e9 aa 6f 3f 90 93 75 3f
       0.9225894 1.0046574 0.93620163 0.9592829
000070 aa ed 75 3f 4c 1d 74 3f 26 89 6a 3f 3e c7 74 3f
       0.9606577 0.95357203 0.9161552 0.9561652
000080 57 08 78 3f 1e f1 6d 3f 25 4f 7c 3f 64 b0 76 3f
       0.96887726 0.9294604 0.98558265 0.963629
000090 4f e4 77 3f 52 96 7b 3f 55 10 65 3f 74 37 7a 3f
       0.96832746 0.98276246 0.89478046 0.97740865
0000a0 f1 84 7f 3f c5 5c 77 3f 09 62 77 3f 49 33 70 3f
       0.9981223 0.9662593 0.96633965 0.93828255
0000b0 96 aa 78 3f 20 25 74 3f e3 8d 71 3f 60 d6 6b 3f
       0.97135293 0.9536915 0.94357127 0.92123985
0000c0 73 d9 65 3f 26 c6 72 3f bf db 79 3f ff a4 6b 3f
       0.89784926 0.948336 0.9760093 0.9204864
0000d0 9a d8 74 3f da 75 7f 3f 07 f5 75 3f d5 c1 70 3f
       0.9564301 0.997892 0.9607701 0.94045764
0000e0 8a 8a 76 3f 6f 45 79 3f 11 cc 6e 3f 42 3b 84 3f
       0.96305144 0.9737157 0.9328013 1.0330584
0000f0 0c 3b 7b 3f dc a5 78 3f 03 85 6a 3f 89 11 78 3f
       0.98136973 0.9712808 0.9160921 0.96901757

base.mlp.fc2.0.2.bias f4 [64]
000000 32 71 f0 ba 6f 5b 89 bc 4f 71 e6 bc 74 3a 9e 3c
       -0.0018344282 -0.016767232 -0.028130202 0.019314982
000010 49 2f a8 3b fb 78 a4 3c 08 47 be 3c c0 77 70 bd
       0.00513259 0.02007722 0.02322723 -0.058707952
000020 db da 9f bc ab e9 17 bc 77 61 70 bd c0 a7 e4 bc
       -0.019513538 -0.009272019 -0.0586867 -0.02791202
000030 67 5d 35 bd 34 1f 67 bc 7f f6 24 3d 3b e9 a3 ba
       -0.04427853 -0.0141065605 0.04027414 -0.0012505421
000040 07 2d 85 bc e8 0b 41 3c f6 83 07 3d 20 ee 83 bc
       -0.016256822 0.011782624 0.033084832 -0.016104758
000050 ea dd be ba e6 ef 16 3c 14 a6 6d 3d c6 19 b4 bc
       -0.0014561985 0.00921247 0.058019713 -0.021984946
000060 b7 8c 08 3d 8c 7c 83 bc 12 8c 35 3d af 22 15 3d
       0.03333732 -0.0160506 0.044323035 0.03641003
000070 c4 cd 38 bd a8 8b c5 3c 4c 53 13 ba cd 71 34 bc
       -0.04511811 0.024114445 -0.0005620017 -0.01101346
000080 8d 71 56 3d d6 e8 bf 3c 47 ce 9d bb 95 b8 b9 ba
       0.052354384 0.023426455 -0.00481585 -0.001416939
000090 4b 78 fd bb ba 8c ac bc cb 1e 04 bd 9a d6 76 3d
       -0.0077352873 -0.021063197 -0.03225593 0.060263254
0000a0 d7 65 8a bc 86 f9 bd bc f1 6b 92 bc 9a c7 88 3d
       -0.016894264 -0.023190271 -0.017873736 0.06678696
0000b0 bd 66 02 3d 62 e9 23 3d eb d3 39 bc 7a 30 99 3c
       0.03183626 0.040017493 -0.011342029 0.018699873
0000c0 84 5f 5c bd 3d a7 3e 3d c3 5c 3b bd eb 7e 4e 3d
       -0.05380203 0.04654621 -0.04574276 0.050414007
0000d0 42 72 41 3b b7 9d 3a bd ab 28 6e 3d 39 4c ca bc
       0.0029517566 -0.045560565 0.058144253 -0.024694549
0000e0 f2 f4 53 bd 7b 91 26 3d 96 d5 8d bd 51 eb a2 bc
       -0.05174727 0.040666085 -0.06925504 -0.019887598
0000f0 1e ca 67 bc fa e3 cf bb e1 31 fa 3c 7c a6 4c 3d
       -0.01414731 -0.0063443156 0.030541362 0.04996346

rnn.rnn.weight_ih_l0 f4 [192, 64]
000000 e5 2a 89 bb 21 02 27 3b d3 ad a2 3d 78 db b9 bc
       -0.0041860216 0.0025483447 0.079433106 -0.022687659
000010 67 2d 3b be 22 7e 91 bd d1 22 4d bd 40 f9 5d be
       -0.18279038 -0.07104136 -0.05008203 -0.21677113
000020 97 07 4d bd 7c 6a 16 3c 89 81 e4 bd bc fb ff 3d
       -0.050056066 0.009180661 -0.11157519 0.124991864
000030 21 cf 85 3c d2 6c 44 bd ca 41 37 bc 90 24 8a 3c
       0.016334118 -0.04795534 -0.011185119 0.016863137
000040 81 f8 01 bc f0 1a f3 bb d0 fa 57 3d 81 13 a5 bd
       -0.007932783 -0.0074189827 0.052729428 -0.08060361
000050 20 5b a5 3d 02 71 40 3e f9 d2 e1 3c c2 8f 7a 3d
       0.08074021 0.18793109 0.02756642 0.061172254
000060 57 ec 91 bc 6b 7a a5 bc 81 cd 48 3d b8 9f bf bc
       -0.017812891 -0.020199975 0.04902411 -0.02339159
000070 42 e9 57 3e ca 92 3f be 72 42 6a 3d 24 cd 85 bd
       0.21085075 -0.1870834 0.057192273 -0.06533268
000080 b4 e5 7a 3d 8d af db bb c2 22 95 3d cc 64 52 3d
       0.06125422 -0.006704277 0.0728202 0.05136566
000090 5a f1 cb 3c 6a 90 85 bd 95 23 92 3b 98 ed db bd
       0.024895359 -0.065216854 0.004459808 -0.10738677
0000a0 bc fd 26 bd 9f 39 d2 3c f8 0c a8 bd b3 69 01 bc
       -0.040769324 0.025662242 -0.082055986 -0.007898736
0000b0 fb f5 f0 bc 92 51 0b bc fb aa 41 3d f3 0e 07 be
       -0.029414168 -0.008503335 0.0472822 -0.13189296
0000c0 bb f1 3b 3d 19 b1 36 be 79 00 0e 3c c3 f2 f0 3c
       0.04588483 -0.17840995 0.008667105 0.029412633
0000d0 64 72 93 bd 74 d8 af 3d b9 bd ac bd 72 d5 35 bd
       -0.07199553 0.08586207 -0.08434624 -0.04439301
0000e0 1e 4d cb bd 96 b0 31 bd 72 22 ee bd f4 1f 91 3c
       -0.09926818 -0.043381296 -0.11627664 0.017715432
0000f0 49 99 d6 bc f1 f3 3d bd 2e e8 30 be 8d 3d 2a bc
       -0.026196139 -0.04637522 -0.1727607 -0.010390651
000100 86 f9 cc 3c 36 5a 2c 3e 46 e8 a3 3c 3c 7e 5d bd
       0.025021326 0.16831288 0.020008218 -0.054075465
000110 a5 eb 89 3d 17 54 0f be f5 d6 db 3d 71 ec b4 3c
       0.06734399 -0.13996921 0.10734359 0.0220854
000120 f8 31 15 3d b8 72 35 bd 05 af 5f bd 60 d6 c6 3d
       0.036424607 -0.044298857 -0.05461027 0.097088575
000130 ed 83 47 be b2 c3 03 be 28 d5 72 bd e4 88 44 be
       -0.1948392 -0.1286762 -0.059285313 -0.19192845
000140 46 45 1a bd 35 88 1c be 0b 95 11 be 9a 84 fb 3c
       -0.03766372 -0.15286334 -0.14217012 0.030702878
000150 3b 5b c9 bd 42 55 70 3d b5 27 29 bd dc 28 3a bd
       -0.09831854 0.05867506 -0.041297633 -0.045449123
000160 17 6a ab 3d 7b ec c5 bc b0 61 15 bd 0a 1d 96 bc
       0.083698444 -0.024160614 -0.036470115 -0.018324394
000170 35 55 2e 3d 5e fd 1e 3e 62 aa 62 3d 73 a7 a6 3d
       0.04256173 0.1552634 0.05533827 0.08137407
000180 9f 72 a6 bd 43 a2 5c bd 08 b7 fc bc 28 cb 2b 3e
       -0.08127331 -0.053865682 -0.030848995 0.16776717
000190 30 ae 25 3d c4 d5 6f bd 8b 9a c8 3c 64 8a 16 bc
       0.04044932 -0.058553472 0.024487754 -0.009188268
0001a0 41 07 82 bd 7d d1 5b 3e 6f eb 1f bd 4c 28 11 be
       -0.0634904 0.21466632 -0.039042886 -0.14175528
0001b0 5b ad 58 bc cf e5 af bd 19 b7 67 bd 1f 9b 71 bd
       -0.013224925 -0.085887544 -0.0565711 -0.058985826
0001c0 d6 74 33 bd ce e5 b3 3c c2 75 a8 bd d0 b6 e4 bc
       -0.043812595 0.021960165 -0.082255855 -0.027919203
0001d0 bc 6e 1e bd 53 b7 7c bd f6 d3 4d bd f7 de 8f bb
       -0.038679823 -0.06169827 -0.05025097 -0.004390593
0001e0 3e bb 24 3e 56 ed e3 3c 17 af e0 bd 37 57 9f bd
       0.16087052 0.027823132 -0.10970896 -0.07780307
0001f0 8d 37 8f bc a4 46 a0 3c b0 94 5f 3c 72 14 7d 3d
       -0.017482543 0.019564934 0.01364629 0.061787076
000200 cc 53 3a 3d 11 77 8d 3c 43 cb 9f bc 92 53 1a be
       0.04549007 0.01726869 -0.019506102 -0.15070942
000210 d6 0d 79 3d 5d c6 81 bc 99 9c 5d 3d bd 36 04 3c
       0.06080421 -0.015841657 0.05410442 0.008069691
000220 9b 40 af 3d 9f 8c 14 be 14 d3 14 3d 34 76 26 3d
       0.085572444 -0.14506768 0.036334112 0.04064007
000230 2b 60 bf bc 61 39 9b bd 4c 6c e3 bb 6c b0 31 3c
       -0.023361286 -0.075793035 -0.0069404 0.010845285
000240 a7 c6 85 bc d5 e0 63 ba 75 8d 08 3c 76 ef cb 3d
       -0.016330076 -0.00086928654 0.008334507 0.09957783
000250 80 ea 2f bd 14 9b 6e bd 41 57 ab 3d 65 13 db bd
       -0.042948246 -0.058253363 0.08366252 -0.106970586
000260 30 ad c9 3d 96 f0 93 3c 56 ef eb bd 3b 89 50 bd
       0.09847486 0.018059056 -0.11520259 -0.050912123
000270 85 e7 a6 bd c2 bf b7 3b 01 77 da 3c 28 f3 9c 3c
       -0.081496276 0.005607576 0.026668074 0.019158915
000280 03 f9 12 3d 45 62 66 3d de ba 05 bd 45 87 ee 3d
       0.035882007 0.05624606 -0.032648914 0.11646894
000290 bf 40 c2 3d 34 66 51 bd 7d d4 8d 3d bd b8 f2 3d
       0.094850056 -0.05112286 0.069252945 0.11851642
0002a0 ee 2e 78 bc 1b 9a 09 bc c0 05 0f be 05 e1 0a bd
       -0.015147908 -0.008398558 -0.13967037 -0.033906
0002b0 67 d1 62 bc 58 49 9c 3c 74 99 b9 bd ba f8 e9 bd
       -0.013843871 0.019077942 -0.09062472 -0.11424394
0002c0 1c 14 ae 3c 66 3c c6 bc ea 50 98 bd 8b 40 7e bd
       0.021249823 -0.024198722 -0.07437308 -0.06207327
0002d0 f5 41 3c 3c a6 72 94 3c 17 f5 6f bd 4b ad 8f bd
       0.011490335 0.018121075 -0.058583345 -0.07015475
0002e0 c1 7c de bd 76 3f 0b 3c 84 51 14 3e c8 de eb bd
       -0.10863639 0.008499017 0.1448422 -0.115171015
0002f0 91 a5 b9 3d fd 30 1b be e2 31 ae 3d 9f a0 56 bd
       0.090647824 -0.15155406 0.08505608 -0.052399274
000300 77 e7 33 3c dc 79 31 bd 0e 80 32 3d 16 cd 1d 3e
       0.0109804785 -0.043329105 0.043579154 0.15410265
000310 9c 43 8f bd da 9e 2b 3c 11 d6 98 3c 80 36 c0 bd
       -0.06995317 0.010474885 0.018656762 -0.09385395
000320 15 c9 f6 3c 7b 06 0b 3e 1a 68 ab 3d e3 9a a7 3b
       0.03012518 0.13576691 0.08369465 0.0051148995
000330 fe 29 69 3b db a2 f5 3d 76 4a f6 3d e1 25 a0 bd
       0.0035578008 0.11993953 0.12025921 -0.07819725
000340 40 0d 61 3d f1 52 3f 3c a7 d3 74 bd 99 5c 13 bc
       0.054944277 0.01167749 -0.05977216 -0.008994245
000350 d2 fa 39 bd 50 9a 19 3d dc d7 04 be 57 d9 bc bc
       -0.045405217 0.03750068 -0.12972969 -0.023052854
000360 1f 60 23 3b b0 3f 10 3b 48 89 6a 3c 23 2d c7 bd
       0.0024929119 0.0022010617 0.014314957 -0.09725406
000370 42 46 ac 3b b2 16 05 3d e1 a6 fa 3b 49 11 35 3d
       0.005257399 0.032492347 0.007649288 0.044205938
000380 9f 18 c1 3b f7 dd 46 3d d4 95 b8 3d 86 57 f5 bb
       0.0058928276 0.048551526 0.090129524 -0.0074872402
000390 39 fb cc 3d ec db ce 3d ba 8a b3 bd a5 9c 23 be
       0.100088544 0.101005405 -0.08766694 -0.15977724
0003a0 3c a9 8b 3d 71 9d ac bc b2 bd db b8 28 31 27 be
       0.06819388 -0.021071168 -0.00010478067 -0.16327345
0003b0 87 2b 02 bb ee 23 27 3d 85 96 34 3c ca 4d fd 3b
       -0.001986237 0.04080575 0.011022215 0.0077302204
0003c0 25 d0 81 bc 0a 5f 58 bd 01 3c 24 bd 87 5e 17 3d
       -0.015846321 -0.05282501 -0.040096287 0.036955383
0003d0 f1 33 c8 3b 30 d4 88 3e 43 72 ca 3d d4 97 48 3d
       0.0061097075 0.26724386 0.09885075 0.04897292
0003e0 8e 8f 37 be b0 7c 36 bd 94 ee 87 3c 69 26 22 bd
       -0.17925856 -0.044552505 0.016593255 -0.039587412
0003f0 47 ad 8e bc 3a 84 5e bc 1d 2b ad bd 83 22 c2 3b
       -0.01741661 -0.01358133 -0.08455489 0.0059245243
