onpolicy/scripts/results/MPE/simple_spread/rmappo/check/wandb/run-20220705_000815-26bjy7ur/files/actor.pt (torch, 147692 bytes, 22 tensors)

base.feature_norm.weight f4 [18]
0.8233895 0.8994002 0.8085331 0.7746134 1.1708326 1.15144 1.1585077 1.1791667
1.1143796 1.1154516 1.0705472 1.0591669 1.0684177 1.0091823 1.1381152 1.0216262
1.0893468 1.1087259
00000000: a7c9 523f 173f 663f 06fc 4e3f 104d 463f
00000010: d8dd 953f 6362 933f fb49 943f efee 963f
00000020: fea3 8e3f 1ec7 8e3f b107 893f c892 873f
00000030: e9c1 883f e32c 813f c2ad 913f a6c4 823f
00000040: b76f 8b3f bbea 8d3f

base.feature_norm.bias f4 [18]
0.039542295 -0.026212564 0.05062133 -0.008934828 -0.021652425 -0.044195186 -0.030144222 0.029942432
-0.025485493 0.04430588 0.036254898 -0.013041108 0.011800414 0.013066345 0.009493073 0.027284784
0.003225856 0.02860339
00000000: 1af7 213d bbbb d6bc 5058 4f3d 6363 12bc
00000010: 6d60 b1bc 0306 35bd 04f1 f6bc d549 f53c
00000020: f4c6 d0bc 157a 353d 0480 143d 5faa 55bc
00000030: 8656 413c 3914 563c d688 1b3c 5784 df3c
00000040: e268 533b a851 ea3c

base.mlp.fc1.0.weight f4 [64, 18]
0.115524784 -0.1473851 -0.2685277 0.13113059 -0.49234694 -0.25274298 0.061069284 0.035704736
-0.069148466 -0.02124154 -0.25459415 -0.52687216 -0.23227163 -0.2614356 0.5940657 0.31600735
-0.102733225 0.25461552 -0.21430607 -0.0068275942 -0.07312024 -0.21318331 -0.14585952 0.38068697
0.049392015 0.14817442 0.14859952 0.03628753 -0.35919815 0.16534318 0.20173074 0.12607308
-0.20460425 -0.05448952 -0.12741274 0.00955701 -0.081369884 0.22542015 0.21141182 -0.11146628
0.3874033 -0.68921506 0.03626182 0.18477255 0.1421208 0.10728324 0.10150265 -0.07976072
-0.17623179 -0.21220641 -0.16127989 0.08600617 0.15143871 -0.16990101 -0.30929884 0.04949413
-0.17140958 0.33988097 0.7449535 -0.53215635 -0.10476559 0.24450755 -0.064690314 -0.019591609
0.13865171 -0.0320471 -0.09907066 -0.017468544 0.05493985 0.09940933 -0.032094788 0.12311753
-0.23396128 -0.22133955 0.08800317 -0.15849945 -0.06061091 -0.008497893 0.18831703 0.38538125
0.2088181 -0.3731041 0.009208207 0.20786016 -0.21777287 -0.06945792 -0.20296364 0.15483256
-0.20495936 5.807962e-05 -0.10655116 0.3836616 -0.31589386 0.39365026 0.12897654 -0.342582
-0.17468862 -0.011227725 -0.09625902 0.2665979 0.3178068 -0.14012939 0.06653378 0.11042879
0.012849456 -0.16851927 -0.18701366 0.34813553 -0.20029074 -0.009303917 0.11196069 0.15445775
0.095330335 -0.27786252 0.3547135 0.069460124 0.11313484 0.06014655 0.23234658 0.20855413
-0.12145636 0.08071054 0.28095904 -0.16188565 0.4014676 -0.20636947 -0.084884994 0.2892679
-0.10138519 0.1705154 -0.3574421 -0.20695995 0.41246182 -0.071484044 -0.2294098 -0.026408266
0.07377079 -0.17237498 0.05604771 -0.4515563 0.16278215 0.3162386 0.15272377 -0.41493797
-0.09846256 0.50070125 -0.16733938 0.25941357 0.08813043 0.09402569 -0.18519716 0.3278658
-0.08337966 -0.4042458 0.4724756 0.32499072 -0.04653786 -0.29390043 0.3378609 0.339856
-0.13468798 0.13023359 0.105803676 0.2889778 0.21776764 -0.13895993 0.2088921 -0.012380041
-0.025049726 0.32832256 -0.26754272 -0.5453942 -0.40002036 -0.17957637 -0.09341581 -0.20635301
-0.07226822 -0.103036396 -0.38952404 0.30280408 -0.013226927 -0.29001218 0.15497188 -0.123844184
-0.029143086 0.056641415 0.07838625 -0.005893151 -0.54289794 0.6877999 -0.26948738 -0.000112318216
0.10699393 0.07840155 0.27384663 -0.12881318 -0.01934184 -0.12006628 -0.024953173 -0.025499322
-0.06763309 0.2776654 -0.33257678 -0.7534599 0.024846118 -0.11773456 -0.16134292 0.041070122
-0.08611139 0.091074735 -0.3037152 0.05505724 0.16460292 -0.040110916 -0.14667057 0.018373087
-0.31635487 -0.3713641 0.008483264 -0.15991624 0.11250559 -0.43414307 0.2741036 0.15565066
-0.025994461 -0.021984328 0.046988208 -0.29373145 0.2157383 -0.35135496 0.44119167 0.15946972
-0.07833296 0.28656167 -0.2099138 0.20898837 0.14062111 0.23396029 0.013871347 0.09386838
-0.07759133 0.6028676 0.09599784 -0.49789527 0.04680461 -0.12679093 0.022239152 -0.020266287
-0.4057425 -0.24376802 0.38610107 -0.32810724 0.4781179 0.21989743 0.041466955 0.32901296
00000000: 4298 ec3d 1fec 16be 767c 89be 1947 063e
00000010: e614 fcbe 8767 81be c923 7a3d 213f 123d
00000020: b69d 8dbd bd02 aebc 2a5a 82be 18e1 06bf
00000030: 9dd8 6dbe e3da 85be b114 183f b7cb a13e
00000040: cc65 d2bd f75c 823e 0d73 5bbe 03ba dfbb
00000050: 10c0 95bd ba4c 5abe 335c 15be 67e9 c23e
00000060: 484f 4a3d 09bb 173e 792a 183e 3ca2 143d
00000070: d2e8 b7be b94f 293e 8192 4e3e 4d19 013e
00000080: c783 51be 6730 5fbd 7c78 02be 0195 1c3c
00000090: 41a5 a6bd 8ad4 663e 577c 583e 6f48 e4bd
000000a0: ba59 c63e 6670 30bf 4687 143d 0435 3d3e
000000b0: 1d88 113e 51b7 db3d 9fe0 cf3d 9759 a3bd
000000c0: 1b76 34be a34c 59be 8e26 25be 0124 b03d
000000d0: c012 1b3e 88fa 2dbe 6b5c 9ebe 5bba 4a3d
000000e0: fe85 2fbe e104 ae3e 46b5 3e3f 663b 08bf
000000f0: 578f d6bd 3060 7a3e 5b7c 84bd 957e a0bc
00000100: b7fa 0d3e d243 03bd 8fe5 cabd 311a 8fbc
00000110: 9c08 613d 1e97 cb3d d375 03bd 0b25 fc3d
00000120: 8c93 6fbe d6a6 62be 023b b43d ae4d 22be
00000130: 2543 78bd bf3a 0bbc 2ed6 403e b150 c53e
00000140: 69d4 553e 8007 bfbe 05de 163c 4bd9 543e
00000150: daff 5ebe f43f 8ebd b3d5 4fbe 6d8c 1e3e
00000160: dee0 51be 849a 7338 7f37 dabd 4b6f c43e
00000170: d7bc a1be 878c c93e 6d12 043e e866 afbe
00000180: 93e1 32be 7ef4 37bc 7323 c5bd 857f 883e
00000190: 93b7 a23e 147e 0fbe dd42 883d 7d28 e23d
000001a0: 8686 523c 5190 2cbe 8280 3fbe d23e b23e
000001b0: 0419 4dbe 756f 18bc a54b e53d 2c2a 1e3e
000001c0: 8d3c c33d ff43 8ebe 029d b53e 1c41 8e3d
000001d0: 3db3 e73d 3b5c 763d 43ec 6d3e 378f 553e
000001e0: 1dbe f8bd 914b a53d ddd9 8f3e 5ac5 25be
000001f0: 298d cd3e 8552 53be 2fd8 adbd ec1a 943e
00000200: 0aa3 cfbd 979b 2e3e a702 b7be 4fed 53be
00000210: 322e d33e 3a66 92bd 67ea 6abe 2656 d8bc
00000220: 2415 973d 1183 30be 4992 653d 6332 e7be
00000230: 5db0 263e 07ea a13e 9f63 1c3e c072 d4be
00000240: bda6 c9bd f52d 003f 045b 2bbe dbd1 843e
00000250: ba7d b43d 8a90 c03d 53a4 3dbe 07de a73e
00000260: f5c2 aabd 4ef9 cebe 52e8 f13e 2f65 a63e
00000270: 7c9e 3ebd 1e7a 96be 1bfc ac3e 9b01 ae3e
00000280: a5eb 09be f45b 053e 99af d83d e6f4 933e
00000290: 7bfe 5e3e 834b 0ebe d0e7 553e a8d5 4abc
000002a0: 1535 cdbc e519 a83e 5cfb 88be f49e 0bbf
000002b0: 78cf ccbe dee2 37be ca50 bfbd 344e 53be
000002c0: 5c01 94bd bf04 d3bd b26f c7be 2309 9b3e
000002d0: c1b5 58bc 7a7c 94be f3b0 1e3e 05a2 fdbd
000002e0: 7bbd eebc d400 683d f888 a03d 551b c1bb
000002f0: 5cfb 0abf a713 303f 40fa 89be 628c ebb8
00000300: a21f db3d fe90 a03d a035 8c3e 9ae7 03be
00000310: c772 9ebc 4fe5 f5bd 996a ccbc f4e3 d0bc
00000320: 3883 8abd 292a 8e3e 8147 aabe bfe2 40bf
00000330: 168a cb3c d11e f1bd 1437 25be 2539 283d
00000340: 2b5b b0bd 6485 ba3d 8f80 9bbe b383 613d
00000350: ab8d 283e 584b 24bd cf30 16be 2883 963c
00000360: 44f9 a1be 6f23 bebe 63fd 0a3c 15c1 23be
00000370: 5569 e63d 0048 debe 4f57 8c3e e362 1f3e
00000380: 56f2 d4bc 7a18 b4bc b576 403d f863 96be
00000390: 80ea 5c3e cce4 b3be e0e3 e13e 084c 233e
000003a0: 086d a0bd 36b8 923e a5f3 56be 0c01 563e
000003b0: fbfe 0f3e 4993 6f3e a544 633c 113e c03d
000003c0: 34e8 9ebd 8855 1a3f 849a c43d 21ec febe
000003d0: 31b6 3f3d 7bd5 01be e22e b63c 7c05 a6bc
000003e0: 7bbd cfbe 539e 79be 0aaf c53e acfd a7be
000003f0: dfcb f43e cb2c 613e 41d9 293d 6374 a83e

base.mlp.fc1.0.bias f4 [64]
0.0043658363 0.024569934 0.047636997 0.025653126 0.08044399 -0.024828296 0.040828113 0.021032719
0.02608647 0.031206636 0.03430598 -0.11515491 -0.027360963 -0.1156904 -0.0018044119 0.01704077
0.0048308275 0.09711757 -0.011147225 0.028080216 -0.0759511 -0.040316936 -0.013587936 0.037400544
-0.015693624 0.060517274 -0.13250682 -0.056112226 -0.01714172 -0.031553116 -0.08656773 -0.019023519
0.105600275 0.09119204 0.033141218 0.03254687 0.037916083 0.0001440599 -0.10735443 0.0031037037
0.0017145762 0.11199021 0.041665956 -0.019542689 -0.020774132 0.08478508 0.09110775 0.073408976
-0.024264773 -0.0016525162 0.0012208223 -0.10903781 0.05404487 0.04353231 0.03988563 -0.0375129
-0.040506754 -0.06023239 -0.09029449 0.09711247 -0.001143189 -0.0028548744 0.0083595645 0.112675786
00000000: 4a0f 8f3b e346 c93c 031f 433d 8126 d23c
00000010: d2bf a43d b664 cbbc 613b 273d cf4c ac3c
00000020: 4bb3 d53c 0fa5 ff3c 6d84 0c3d 56d6 ebbd
00000030: 1924 e0bc 17ef ecbd 0482 ecba 1699 8b3c
00000040: eb4b 9e3b 94e5 c63d daa2 36bc 7b08 e63c
00000050: 408c 9bbd 5f23 25bd ef9f 5ebc 5031 193d
00000060: ea8f 80bc f6e0 773d deaf 07be efd5 65bd
00000070: cb6c 8cbc d73d 01bd 6c4a b1bd 36d7 9bbc
00000080: f544 d83d e4c2 ba3d 16bf 073d de4f 053d
00000090: e54d 1b3d c90e 1739 a4dc dbbd 8267 4b3b
000000a0: a1bb e03a 205b e53d eca9 2a3d fd17 a0bc
000000b0: 832e aabc cda3 ad3d b396 ba3d 7257 963d
000000c0: ebc6 c6bc 3e99 d8ba 0004 a03a 374f dfbd
000000d0: 275e 5d3d ef4e 323d 1d5f 233d 20a7 19bd
000000e0: 69ea 25bd 3db6 76bd 51ec b8bd e7e2 c63d
000000f0: 0fd7 95ba d818 3bbb 8ef6 083c 90c2 e63d

base.mlp.fc1.2.weight f4 [64]
0.9328061 1.0595969 1.1944323 1.0838107 0.9835367 0.9661082 0.9445755 1.1360064
1.0828675 1.0234495 1.1495633 1.102899 0.9263975 1.0995052 0.87722063 1.0446504
1.2837278 1.1011358 0.98586154 1.1200942 1.0308645 1.1044433 1.1229924 0.9508506
0.98739284 0.94858485 0.9903127 0.9845281 0.95047575 1.1079633 1.0091975 0.98459923
1.1206108 0.9987456 0.9880033 1.104361 1.0489913 1.1134955 0.9443685 1.144578
1.0951831 1.1440462 1.3675658 1.1137091 1.036032 1.0868536 1.1109773 0.95127445
0.95098364 1.2590624 1.1324999 0.982952 1.0620733 1.0256906 1.0867479 1.2225069
0.91684514 1.1054194 1.1029246 0.8701701 1.0227349 0.9432219 1.057295 0.8452019
00000000: 61cc 6e3f dfa0 873f 28e3 983f 4fba 8a3f
00000010: 10c9 7b3f de52 773f b3cf 713f a868 913f
00000020: 679b 8a3f 6500 833f e424 933f cb2b 8d3f
00000030: 6328 6d3f 96bc 8c3f 8891 603f 1bb7 853f
00000040: 3151 a43f 05f2 8c3f 6c61 7c3f 3f5f 8f3f
00000050: 5ef3 833f 665e 8d3f 37be 8f3f f26a 733f
00000060: c7c5 7c3f 75d6 723f 2285 7d3f 090a 7c3f
00000070: 6152 733f bed1 8d3f 622d 813f b20e 7c3f
00000080: 2d70 8f3f cbad 7f3f c9ed 7c3f b45b 8d3f
00000090: 5945 863f 0587 8e3f 22c2 713f 8881 923f
000000a0: f62e 8c3f 1b70 923f 650c af3f 058e 8e3f
000000b0: b29c 843f 051e 8b3f 8134 8e3f b986 733f
000000c0: aa73 733f f528 a13f c2f5 903f bea2 7b3f
000000d0: 05f2 873f d449 833f 8e1a 8b3f 1b7b 9c3f
000000e0: 5db6 6a3f 627e 8d3f a22c 8d3f 78c3 5e3f
000000f0: fae8 823f fe76 713f 7155 873f 275f 583f

base.mlp.fc1.2.bias f4 [64]
-0.019042792 -0.051531333 0.03429837 -0.048941474 -0.005946162 0.016791735 0.0042104195 -0.026827836
0.019422231 0.024187032 0.018271392 -0.012807399 0.035145804 -0.04713218 -0.055579282 0.008031839
-0.036520746 0.0041086217 -0.012320242 -0.052810844 0.009044052 0.014903731 -0.018770158 0.062439073
0.0049138474 0.032216206 -0.07242025 -0.039991662 -0.006948789 -0.043474913 -0.055117074 -0.039680142
-0.0005720313 0.049667746 -0.02673603 -0.01003403 0.03262016 0.04143891 -0.043585196 -0.01324138
0.01967729 0.07967056 0.056446537 0.004376479 -0.0027284082 0.07735197 0.00026346833 0.13211071
-0.009100568 -0.031565577 0.030854627 -0.06738398 0.040561393 0.008241202 0.12553176 -0.035397407
0.010330629 -0.020295188 -0.09203781 0.10338547 -0.041004494 0.0217779 0.008972768 0.055637628
00000000: a1ff 9bbc 8512 53bd 737c 0c3d db76 48bd
00000010: 06d8 c2bb d28e 893c 8ff7 893b 0dc6 dbbc
00000020: 5f1b 9f3c e223 c63c e3ad 953c 20d6 51bc
00000030: 0cf5 0f3d ac0d 41bd 1aa7 63bd f997 033c
00000040: c796 15bd 9ea1 863b d7da 49bc 2f50 58bd
00000050: 812d 143c c72e 743c e0c3 99bc 1dc0 7f3d
00000060: 5704 a13b 24f5 033d 1151 94bd 4cce 23bd
00000070: abb2 e3bb c012 32bd 71c2 61bd a587 22bd
00000080: 5ff4 15ba 6870 4b3d 8505 dbbc c665 24bc
00000090: b89c 053d d9bb 293d 6486 32bd 60f2 58bc
000000a0: 4532 a13c 522a a33d 7c34 673d 9168 8f3b
000000b0: 18cf 32bb b66a 9e3d 1f22 8a39 0848 073e
000000c0: 8c1a 15bc e84a 01bd d8c2 fc3c 9d00 8abd
000000d0: b423 263d 1b06 073c 668b 003e dffc 10bd
000000e0: cc41 293c 1842 a6bc 527e bcbd c3bb d33d
000000f0: 54f4 27bd 9167 b23c 8402 133c 48e4 633d

base.mlp.fc_h.0.weight f4 [64, 64]
-0.1998647 0.16396421 0.025759948 0.07842875 -0.21931799 -0.38117188 -0.30978692 0.057714786
-0.6221764 0.45958602 -0.09859755 0.23880884 0.05068842 0.19860329 0.17110156 0.03143083
0.19707488 -0.21155627 -0.15641095 -0.06827003 -0.15692136 -0.16684704 -0.12967892 0.114997946
-0.32872975 -0.037646912 -0.08130519 -0.23418456 0.23646109 0.20499656 0.19841959 0.106643945
-0.0051036202 -0.11129687 -0.22741587 0.036851298 -0.23568535 -0.09689501 0.030349908 0.0849211
0.40486053 -0.27971748 0.349327 -0.096414424 -0.044322107 -0.06718366 -0.23220377 0.19044448
0.20390442 0.041924205 -0.13710353 0.03671926 -0.11358392 0.043598343 -0.1080091 0.15126568
0.086339265 0.008586955 0.2915627 0.33022478 -0.24900024 0.391069 -0.11457726 -0.08983854
0.2217666 0.033245925 -0.51162463 0.12039953 -0.15665275 -0.3663562 0.2219141 0.43658286
0.006097431 -0.07349853 0.169499 -0.29726097 -0.084939025 -0.069414444 -0.14399135 -0.23953666
-0.24584183 0.08175593 0.34596252 -0.24601386 0.34276852 0.1702571 0.047083966 -0.2417069
-0.12200039 -0.29648852 -0.14546394 0.055876896 0.13382086 -0.1811234 0.1287305 -0.18647635
0.2357769 -0.099195234 -0.02743178 0.10845528 0.11936924 0.05865522 -0.018352048 0.13804998
0.22604294 -0.07407345 0.3060747 -0.049205545 0.015844518 -0.02119123 0.14500797 0.030241946
0.10477333 0.1371889 0.436091 0.05749536 0.22661929 -0.08764828 -0.43132344 0.32959148
0.48030677 -0.05065738 0.027555944 0.12455036 0.13604076 -0.111437514 -0.07214047 -0.057973698
0.1370817 -0.10213789 -0.15840843 -0.10965262 -0.102426015 -0.14994825 -0.17014647 -0.014184595
0.021357818 -0.01066669 -0.24492621 0.27222267 -0.61198616 0.15910302 -0.2772233 -0.017571535
-0.19067164 -0.14261673 -0.22398658 0.44154558 0.36351886 0.03956241 -0.2711071 0.024924587
-0.03753743 -0.27529418 0.6121755 0.049139377 -0.030868715 0.19681922 0.12289938 -0.25832313
0.24026045 0.04275784 0.0513052 0.16782992 0.32314128 -0.14583327 -0.32583 0.3621972
-0.017160375 -0.23576458 -0.18356535 0.09097154 0.12939708 -0.13887668 -0.18216826 -0.11089044
-0.32841402 0.10295083 -0.20134489 -0.020011747 -0.051438138 0.07136735 0.02656946 0.05123331
-0.094302066 -0.27844423 0.011052848 -0.06643834 -0.11877273 -0.059418697 -0.19889367 -0.026698658
-0.13400927 -0.100417495 -0.19672321 -0.23768827 -0.2261176 -0.15503997 0.09173306 0.2920469
0.22669454 -0.06694545 0.2183059 0.23005874 -0.21922287 -0.24060927 -0.15378918 0.5138338
0.046275783 0.22929385 0.04488446 0.11420617 -0.035501882 -0.39387855 0.1633838 0.21169536
-0.44241026 0.13572626 -0.33415762 0.09835377 0.1724634 0.17260264 -0.092639945 0.29070607
0.15370591 0.11436008 -0.05005451 0.27726558 0.12926 0.22143227 -0.05792206 -0.041299462
-0.16683157 -0.07264317 0.020326784 0.38162473 -0.28620237 -0.034709573 -0.16005972 0.14593354
-0.14188573 0.16760287 0.07145474 0.07053741 -0.037478957 -0.41770706 0.23362377 -0.12156468
0.1399982 0.10948098 0.3416438 -0.24258819 -0.26105157 -0.15961081 0.18923971 0.11650034
00000000: 55a9 4cbe 3ce6 273e 8706 d33c 419f a03d
00000010: e594 60be f628 c3be 649c 9ebe 5766 6c3d
00000020: f446 1fbf dc4e eb3e 83ed c9bd 4e8a 743e
00000030: a99e 4f3d a95e 4b3e 3f35 2f3e 9dbd 003d
00000040: ffcd 493e 35a2 58be 312a 20be 28d1 8bbd
00000050: feaf 20be f3d9 2abe 8dca 04be 0b84 eb3d
00000060: 444f a8be a633 1abd 5683 a6bd 14ce 6fbe
00000070: db22 723e 9eea 513e 812e 4b3e 2468 da3d
00000080: 453c a7bb 9def e3bd b5df 68be 63f1 163d
00000090: 8057 71be e470 c6bd 5fa0 f83c 1deb ad3d
000000a0: e149 cf3e 2137 8fbe fdda b23e ed74 c5bd
000000b0: 198b 35bd 9697 89bd d3c6 6dbe e103 433e
000000c0: 52cc 503e b7b8 2b3d de64 0cbe ef66 163d
000000d0: b09e e8bd 2d94 323d e033 ddbd 64e5 1a3e
000000e0: a4d2 b03d 4db0 0c3c b547 953e 3913 a93e
000000f0: ebf9 7ebe 323a c83e 7ca7 eabd 45fd b7bd
00000100: c916 633e e12c 083d d5f9 02bf 0794 f63d
00000110: 9469 20be 0a93 bbbe 733d 633e ca87 df3e
00000120: f5cc c73b 6686 96bd 2591 2d3e 9732 98be
00000130: 83f4 adbd 2929 8ebd 7872 13be 1949 75be
00000140: f6bd 7bbe a76f a73d 0022 b13e 0feb 7bbe
00000150: 5b7f af3e e157 2e3e 1edb 403d 0382 77be
00000160: 57db f9bd 58cd 97be 80f4 14be 2cdf 643d
00000170: 5608 093e 6a78 39be eed1 033e a8f3 3ebe
00000180: 806f 713e df26 cbbd 9db8 e0bc cd1d de3d
00000190: dc77 f43d 7540 703d 0957 96bc f95c 0d3e
000001a0: cd77 673e d2b3 97bd d3b5 9c3e c18b 49bd
000001b0: 5dcc 813c 3b99 adbc f87c 143e f5bd f73c
000001c0: 6693 d63d 3f7b 0c3e 5247 df3e 4180 6b3d
000001d0: e30e 683e f180 b3bd 6dd6 dcbe 37c0 a83e
000001e0: c5ea f53e 1d7e 4fbd 01bd e13c 4214 ff3d
000001f0: 454e 0b3e 5a39 e4bd 62be 93bd d475 6dbd
00000200: 255f 0c3e ac2d d1bd d235 22be 8e91 e0bd
00000210: bbc4 d1bd 098c 19be e03a 2ebe 8166 68bc
00000220: 97f6 ae3c 57c3 2ebc f0cd 7abe c560 8b3e
00000230: 20ab 1cbf e7eb 223e 36f0 8dbe 2ef2 8fbc
00000240: 6d3f 43be 1f0a 12be bd5c 65be 4312 e23e
00000250: 251f ba3e 320c 223d 8dce 8abe a62e cc3c
00000260: d9c0 19bd 5cf3 8cbe 89b7 1c3f 5f46 493d
00000270: 63e0 fcbc fa8a 493e acb2 fb3d ee42 84be
00000280: d606 763e d822 2f3d 6725 523d 9bdb 2b3e
00000290: c672 a53e 5155 15be 31d3 a6be e971 b93e
000002a0: ea93 8cbc 456c 71be 8ef8 3bbe 494f ba3d
000002b0: ab80 043e b035 0ebe 518a 3abe 871a e3bd
000002c0: e225 a8be e2d7 d23d 5b2d 4ebe adef a3bc
000002d0: ccb0 52bd 0c29 923d 32a8 d93c 05da 513d
000002e0: 7121 c1bd 3e90 8ebe 0117 353c d310 88bd
000002f0: 1e3f f3bd 0561 73bd c8aa 4bbe 25b7 dabc
00000300: ba39 09be b0a7 cdbd cf71 49be 8e64 73be
00000310: 5f8b 67be ccc2 1ebe 8bde bb3d 2c87 953e
00000320: 9d22 683e b21a 89bd 958b 5f3e 8594 6b3e
00000330: f67b 60be 4762 76be e97a 1dbe 9d8a 033f
00000340: ad8b 3d3d 02cc 6a3e c4d8 373d ede4 e93d
00000350: 6c6a 11bd 73aa c9be 154e 273e abc6 583e
00000360: 9983 e2be d3fb 0a3e b516 abbe b46d c93d
00000370: 3f9a 303e bfbe 303e 03ba bdbd 6dd7 943e
00000380: 1565 1d3e 9e35 ea3d f505 4dbd c1f5 8d3e
00000390: bc5c 043e 24bf 623e af3f 6dbd a029 29bd
000003a0: e5d5 2abe f1c5 94bd 5b84 a63c 5164 c33e
000003b0: 1e89 92be a02b 0ebd b2e6 23be 9a6f 153e
000003c0: 7e4a 11be 16a0 2b3e dd56 923d eb75 903d
000003d0: 8983 19bd b3dd d5be 123b 6f3e e7f6 f8bd
000003e0: b05b 0f3e 9037 e03d f0eb ae3e 0a69 78be
000003f0: 8da8 85be 0471 23be 0ec8 413e bb97 ee3d

base.mlp.fc_h.0.bias f4 [64]
0.0 0.0 0.0 0.0 0.0 0.0 0.0 0.0
0.0 0.0 0.0 0.0 0.0 0.0 0.0 0.0
0.0 0.0 0.0 0.0 0.0 0.0 0.0 0.0
0.0 0.0 0.0 0.0 0.0 0.0 0.0 0.0
0.0 0.0 0.0 0.0 0.0 0.0 0.0 0.0
0.0 0.0 0.0 0.0 0.0 0.0 0.0 0.0
0.0 0.0 0.0 0.0 0.0 0.0 0.0 0.0
0.0 0.0 0.0 0.0 0.0 0.0 0.0 0.0
00000000: 0000 0000 0000 0000 0000 0000 0000 0000
00000010: 0000 0000 0000 0000 0000 0000 0000 0000
00000020: 0000 0000 0000 0000 0000 0000 0000 0000
00000030: 0000 0000 0000 0000 0000 0000 0000 0000
00000040: 0000 0000 0000 0000 0000 0000 0000 0000
00000050: 0000 0000 0000 0000 0000 0000 0000 0000
00000060: 0000 0000 0000 0000 0000 0000 0000 0000
00000070: 0000 0000 0000 0000 0000 0000 0000 0000
00000080: 0000 0000 0000 0000 0000 0000 0000 0000
00000090: 0000 0000 0000 0000 0000 0000 0000 0000
000000a0: 0000 0000 0000 0000 0000 0000 0000 0000
000000b0: 0000 0000 0000 0000 0000 0000 0000 0000
000000c0: 0000 0000 0000 0000 0000 0000 0000 0000
000000d0: 0000 0000 0000 0000 0000 0000 0000 0000
000000e0: 0000 0000 0000 0000 0000 0000 0000 0000
000000f0: 0000 0000 0000 0000 0000 0000 0000 0000

base.mlp.fc_h.2.weight f4 [64]
1.0 1.0 1.0 1.0 1.0 1.0 1.0 1.0
1.0 1.0 1.0 1.0 1.0 1.0 1.0 1.0
1.0 1.0 1.0 1.0 1.0 1.0 1.0 1.0
1.0 1.0 1.0 1.0 1.0 1.0 1.0 1.0
1.0 1.0 1.0 1.0 1.0 1.0 1.0 1.0
1.0 1.0 1.0 1.0 1.0 1.0 1.0 1.0
1.0 1.0 1.0 1.0 1.0 1.0 1.0 1.0
1.0 1.0 1.0 1.0 1.0 1.0 1.0 1.0
00000000: 0000 803f 0000 803f 0000 803f 0000 803f
00000010: 0000 803f 0000 803f 0000 803f 0000 803f
00000020: 0000 803f 0000 803f 0000 803f 0000 803f
00000030: 0000 803f 0000 803f 0000 803f 0000 803f
00000040: 0000 803f 0000 803f 0000 803f 0000 803f
00000050: 0000 803f 0000 803f 0000 803f 0000 803f
00000060: 0000 803f 0000 803f 0000 803f 0000 803f
00000070: 0000 803f 0000 803f 0000 803f 0000 803f
00000080: 0000 803f 0000 803f 0000 803f 0000 803f
00000090: 0000 803f 0000 803f 0000 803f 0000 803f
000000a0: 0000 803f 0000 803f 0000 803f 0000 803f
000000b0: 0000 803f 0000 803f 0000 803f 0000 803f
000000c0: 0000 803f 0000 803f 0000 803f 0000 803f
000000d0: 0000 803f 0000 803f 0000 803f 0000 803f
000000e0: 0000 803f 0000 803f 0000 803f 0000 803f
000000f0: 0000 803f 0000 803f 0000 803f 0000 803f

base.mlp.fc_h.2.bias f4 [64]
0.0 0.0 0.0 0.0 0.0 0.0 0.0 0.0
0.0 0.0 0.0 0.0 0.0 0.0 0.0 0.0
0.0 0.0 0.0 0.0 0.0 0.0 0.0 0.0
0.0 0.0 0.0 0.0 0.0 0.0 0.0 0.0
0.0 0.0 0.0 0.0 0.0 0.0 0.0 0.0
0.0 0.0 0.0 0.0 0.0 0.0 0.0 0.0
0.0 0.0 0.0 0.0 0.0 0.0 0.0 0.0
0.0 0.0 0.0 0.0 0.0 0.0 0.0 0.0
00000000: 0000 0000 0000 0000 0000 0000 0000 0000
00000010: 0000 0000 0000 0000 0000 0000 0000 0000
00000020: 0000 0000 0000 0000 0000 0000 0000 0000
00000030: 0000 0000 0000 0000 0000 0000 0000 0000
00000040: 0000 0000 0000 0000 0000 0000 0000 0000
00000050: 0000 0000 0000 0000 0000 0000 0000 0000
00000060: 0000 0000 0000 0000 0000 0000 0000 0000
00000070: 0000 0000 0000 0000 0000 0000 0000 0000
00000080: 0000 0000 0000 0000 0000 0000 0000 0000
00000090: 0000 0000 0000 0000 0000 0000 0000 0000
000000a0: 0000 0000 0000 0000 0000 0000 0000 0000
000000b0: 0000 0000 0000 0000 0000 0000 0000 0000
000000c0: 0000 0000 0000 0000 0000 0000 0000 0000
000000d0: 0000 0000 0000 0000 0000 0000 0000 0000
000000e0: 0000 0000 0000 0000 0000 0000 0000 0000
000000f0: 0000 0000 0000 0000 0000 0000 0000 0000

base.mlp.fc2.0.0.weight f4 [64, 64]
-0.22082509 0.25196785 -0.11522003 -0.009513994 -0.03273713 -0.65635484 -0.17169009 0.025274754
-0.5775492 0.5473817 -0.08887174 0.1383153 0.08674416 0.27659887 0.28014684 -0.01606567
0.19678248 -0.26062292 -0.048310854 0.10504286 -0.07245318 -0.11778403 -0.25205463 0.1631216
-0.29315454 0.11416137 -0.13667673 -0.13805711 0.093141995 0.1655129 0.25842425 0.12696272
0.038523376 -0.17091338 -0.22925691 0.033737157 -0.20671532 -0.30916923 0.11045647 0.15773012
0.33705422 -0.48446688 0.31690547 -0.022384368 -0.00022939357 -0.12275056 -0.28847262 0.14381881
0.2666023 0.057203714 -0.03290668 -0.12553148 0.030517837 -0.09002219 -0.074875 0.18014964
0.10722539 -0.12137287 0.3360292 0.42677444 -0.34248167 0.2806958 -0.15585004 -0.36619225
0.2824095 0.055644274 -0.5501359 -0.051988035 -0.22113813 -0.43303746 0.09442576 0.54003966
-0.08003135 -0.086896956 0.26216164 -0.28737807 -0.14794222 -0.16022256 0.0354085 -0.114833936
-0.28921318 0.073411465 0.33084854 -0.25178763 0.41331568 0.17619565 0.006462435 -0.14787017
-0.05316802 -0.33078215 -0.0018038072 0.09979532 0.18684179 -0.18663587 -0.011862919 -0.3058274
0.2567716 -0.072669595 -0.01815737 0.18680891 0.05389091 0.13802041 -0.21134172 0.17452118
0.2810308 0.012694237 0.23528306 -0.026236631 0.07133411 0.045236398 0.08286296 -0.08266269
0.085475475 0.10313256 0.4027079 -0.08717828 0.2826152 -0.042815156 -0.49259174 0.2415104
0.5311512 -0.10209232 -0.029532598 0.09460818 0.3608051 -0.06808413 -0.08018109 0.0723182
0.13675153 -0.030413423 -0.28721008 -0.23716481 -0.13114999 -0.19141877 -0.13225417 -0.007501415
-0.03506739 -0.20008843 -0.2075709 0.13344617 -0.57317066 0.0805942 -0.29421294 0.016959067
-0.14356771 -0.11456705 -0.13804445 0.563929 0.32711902 0.15913682 -0.28767416 -0.09521895
-0.15924129 -0.2492588 0.5765803 0.13655405 0.072256215 0.174771 0.08552798 -0.22573401
0.19513027 0.034177057 0.08445144 0.070804074 0.4091417 -0.122226045 -0.30418023 0.48858646
0.035350773 -0.18920644 -0.18941969 0.09254989 0.06940031 -0.20023265 -0.3286185 -0.20443863
-0.31086317 -0.0019040228 -0.1765722 0.00027882017 -0.008158335 0.13641456 0.09577916 0.08233577
-0.08298446 -0.3114664 0.06883653 -0.06311453 0.01800692 -0.019304408 -0.19975121 -0.042387642
-0.113551676 -0.22581889 -0.20885974 -0.20632368 -0.5222895 -0.16190423 -0.053958282 0.2736827
0.05886632 -0.13896158 0.2017423 0.20411338 -0.17250833 -0.43502483 -0.020299096 0.536904
0.1798028 0.7890443 0.09995695 0.09691918 0.051225092 -0.4698356 0.29371044 0.082891844
-0.38625562 0.12940243 -0.376897 0.0614593 0.48884797 0.15627888 -0.17465724 0.25614673
-0.14516324 0.04530583 0.30387458 0.26836416 0.0027775166 0.23517774 -0.35939756 -0.015233851
-0.35455954 0.02882576 0.0047256504 0.36604026 -0.12386611 0.040577315 -0.1674996 0.15858412
-0.00074625923 0.11604288 0.06810779 0.21383807 0.0032427309 -0.29628706 0.11465043 -0.3834057
0.29794428 0.25335512 0.30975774 -0.3673011 -0.28397906 0.19448458 0.1271992 0.14647074
00000000: f91f 62be ee01 813e 7bf8 ebbd 95e0 1bbc
00000010: 5e17 06bd df06 28bf 87cf 2fbe 000d cf3c
00000020: 44da 13bf 3521 0c3f 6302 b6bd 87a2 0d3e
00000030: eca6 b13d 5e9e 8d3e 686f 8f3e 279c 83bc
00000040: 5981 493e 5e70 85be 9ae1 45bd b620 d73d
00000050: 5562 94bd c138 f1bd 4e0d 81be 5909 273e
00000060: 5a18 96be 70cd e93d fcf4 0bbe d85e 0dbe
00000070: 3bc1 be3d 377c 293e 2f50 843e 8402 023e
00000080: b0ca 1d3d eb03 2fbe 53c2 6abe f92f 0a3d
00000090: 2ead 53be 6e4b 9ebe 0037 e23d 0184 213e
000000a0: 5f92 ac3e 0b0c f8be 6f41 a23e 6c5f b7bc
000000b0: 5e89 70b9 a564 fbbd afb2 93be 3d45 133e
000000c0: 1980 883e 714e 6a3d 28c9 06bd 538b 00be
000000d0: 8b00 fa3c 8e5d b8bd 1058 99bd 2679 383e
000000e0: fc98 db3d 5792 f8bd 050c ac3e 2e82 da3e
000000f0: c259 afbe 5cb7 8f3e 2797 1fbe 8d7d bbbe
00000100: fa97 903e 40eb 633d b5d5 0cbf 68f1 54bd
00000110: 0972 62be 16b7 ddbe 4b62 c13d 0a40 0a3f
00000120: 7ae7 a3bd 08f7 b1bd 0d3a 863e 3823 93be
00000130: 2a7e 17be 6211 24be 8108 113d 0e2e ebbd
00000140: c013 94be c058 963d fb64 a93e 4fea 80be
00000150: 1d9e d33e a26c 343e d5c2 d33b 476b 17be
00000160: b6c6 59bd 475c a9be ba6d ecba 7d61 cc3d
00000170: 7453 3f3e 791d 3fbe b05c 42bc 6995 9cbe
00000180: 9177 833e ccd3 94bd c4be 94bc d64a 3f3e
00000190: b7bc 5c3d 3955 0d3e f769 58be aeb5 323e
000001a0: 45e3 8f3e 7dfb 4f3c 0bee 703e 34ee d6bc
000001b0: 9e17 923d cd49 393d 0eb4 a93d 0e4b a9bd
000001c0: c40d af3d 2a37 d33d bb2f ce3e 878a b2bd
000001d0: f1b2 903e f25e 2fbd fc34 fcbe 814e 773e
000001e0: 86f9 073f c715 d1bd 59ee f1bc efc1 c13d
000001f0: 72bb b83e b16f 8bbd fc35 a4bd 901b 943d
00000200: 9808 0c3e 9225 f9bc 330d 93be 55db 72be
00000210: 2f4c 06be 4803 44be a36d 07be 6ece f5bb
00000220: d3a2 0fbd fbe3 4cbe 778d 54be 1da6 083e
00000230: 50bb 12bf 920e a53d 14a3 96be beed 8a3c
00000240: 6a03 13be 21a2 eabd 865b 0dbe a75d 103f
00000250: 257c a73e c3f4 223e 074a 93be 2702 c3bd
00000260: 2610 23be b33d 7fbe c49a 133f d3d4 0b3e
00000270: 11fb 933d 2bf7 323e 4b29 af3d d126 67be
00000280: 3bd0 473e 3efd 0b3d e0f4 ac3d ba01 913d
00000290: 057b d13e a651 fabd 83bd 9bbe 0128 fa3e
000002a0: f9cb 103d 55bf 41be 3cf7 41be cc8a bd3d
000002b0: c021 8e3d ca09 4dbe af40 a8be 5c58 51be
000002c0: 7529 9fbe 6790 f9ba 58cf 34be 9c2e 9239
000002d0: 8aaa 05bc 42b0 0b3e dd27 c43d a89f a83d
000002e0: c2f3 a9bd 8678 9fbe 2bfa 8c3d 3142 81bd
000002f0: 4083 933c 4724 9ebc 958b 4cbe aa9e 2dbd
00000300: c88d e8bd 113d 67be 54df 55be 8446 53be
00000310: c4b4 05bf 39ca 25be 5c03 5dbd 2420 8c3e
00000320: cf1d 713d f24b 0ebe 8995 4e3e 1903 513e
00000330: 06a6 30be 93bb debe 4a4a a6bc 8a72 093f
00000340: 3a1e 383e cffe 493f 3bb6 cc3d 907d c63d
00000350: 67d1 513d 4b8e f0be 3761 963e 33c3 a93d
00000360: 4cc3 c5be 1282 043e a5f8 c0be bfbc 7b3d
00000370: 484a fa3e 9207 203e 59d9 32be aa25 833e
00000380: aca5 14be 9b92 393d 7395 9b3e 0767 893e
00000390: ff06 363b 6fd2 703e f502 b8be 6797 79bc
000003a0: d488 b5be 0024 ec3c a1d9 9a3b a169 bb3e
000003b0: 84ad fdbd 6634 263d 0485 2bbe e063 223e
000003c0: 9ca0 43ba e4a7 ed3d 197c 8b3d 5ef8 5a3e
000003d0: ff83 543b f0b2 97be d8cd ea3d c04d c4be
000003e0: 278c 983e c3b7 813e 9198 9e3e e40e bcbe
000003f0: b465 91be f726 473e 8240 023e 6dfc 153e

base.mlp.fc2.0.0.bias f4 [64]
-0.111558944 -0.020605087 -0.13499175 0.047812164 -0.060924016 0.06869489 -0.04081397 -0.09148899
0.03227769 0.050391786 -0.025451219 -0.10301203 0.01869779 6.7742076e-05 0.020616276 0.028518356
-0.032788724 0.103097335 0.077760845 -0.055814605 0.028813424 -0.036195956 0.12860958 -0.11818499
-0.022761308 0.098349765 -0.012059185 -0.01696523 0.03581014 0.0020303887 0.021135086 -0.116195776
-0.051998656 -0.11559888 -0.12618273 -0.08661636 0.05074902 -0.00021168576 -0.015225418 -0.084048145
0.00050798676 -0.03169287 0.05116044 0.049771648 0.03250449 0.05907505 -0.20687006 -0.087831706
0.0026162728 -0.003937749 -0.17468886 0.018323774 -0.019640986 0.076776884 -0.04139414 0.003170215
0.0005642168 -0.018633228 0.010105381 0.20200808 -0.02526329 0.018517748 0.0020195607 0.04949791
00000000: 0479 e4bd 00cc a8bc 473b 0abe b0d6 433d
00000010: 768b 79bd e8af 8c3d 8d2c 27bd 945e bbbd
00000020: 9c35 043d 9e67 4e3d 137f d0bc f9f7 d2bd
00000030: 1c2c 993c c010 8e38 77e3 a83c 549f e93c
00000040: 784d 06bd b224 d33d 1441 9f3d db9d 64bd
00000050: 210a ec3c 3642 14bd 3bb2 033e f90a f2bd
00000060: ec75 babc 9a6b c93d e393 45bc abfa 8abc
00000070: a7ad 123d 4510 053b 7d23 ad3c 0df8 edbd
00000080: 8bfc 54bd 1bbf ecbd 0c36 01be eb63 b1bd
00000090: 34de 4f3d f7f7 5db9 0874 79bc 6f21 acbd
000000a0: 6a2a 053a 62d0 01bd 9c8d 513d 5bdd 4b3d
000000b0: 6e23 053d aef8 713d bfd5 53be 1ce1 b3bd
000000c0: c675 2b3b 3c08 81bb a3e1 32be bd1b 963c
000000d0: 22e6 a0bc 333d 9d3d e78c 29bd 62c3 4f3b
000000e0: f3e7 133a b6a4 98bc 0a91 253c 35db 4e3e
000000f0: f6f4 cebc 88b2 973c 9b5a 043b 52be 4a3d

base.mlp.fc2.0.2.weight f4 [64]
0.94220775 1.0373147 1.0059681 1.1636208 1.0272427 1.1163589 1.018981 0.86381626
1.230195 0.91375566 1.2069831 1.076496 1.0494053 0.97230977 0.93861103 1.1205785
0.9874747 0.91633415 1.1207893 0.9343859 1.0266751 0.8940673 0.8727383 0.929701
0.94023967 1.0733079 0.98109317 1.1244862 1.0089041 1.2200007 1.0193403 0.91550845
1.0336926 0.8419588 0.916214 1.112609 0.9467118 1.028884 0.9952904 0.927714
1.0002326 1.1537329 0.95950055 1.0572487 1.1304555 0.9773328 0.8814657 1.0589108
1.0152878 1.0339681 0.95288503 1.1608814 0.9096146 0.99045026 0.8422134 1.0192138
1.028785 1.1080354 0.8903616 0.986731 1.0556245 0.9467491 1.078623 1.0035521
00000000: 8734 713f bac6 843f 90c3 803f 87f1 943f
00000010: b07c 833f d9e4 8e3f f86d 823f 1023 5d3f
00000020: 0877 9d3f e4eb 693f 6c7e 9a3f 9fca 893f
00000030: ea52 863f 4be9 783f d048 703f 1e6f 8f3f
00000040: 24cb 7c3f e094 6a3f 0676 8f3f ea33 6f3f
00000050: 176a 833f 98e1 643f c76b 5f3f e200 6e3f
00000060: 8cb3 703f 2762 893f ec28 7b3f 2aef 8f3f
00000070: c523 813f fc28 9c3f be79 823f c35e 6a3f
00000080: 0a50 843f 9d8a 573f 008d 6a3f f969 8e3f
00000090: b45b 723f 79b2 833f 5acb 7e3f aa7e 6d3f
000000a0: 9f07 803f 85ad 933f d4a1 753f ed53 873f
000000b0: c4b2 903f 7b32 7a3f bca7 613f 648a 873f
000000c0: f3f4 813f 1159 843f 46f0 733f c397 943f
000000d0: 81dc 683f 268e 7d3f 4c9b 573f 9975 823f
000000e0: 3aaf 833f 1bd4 8d3f bdee 633f 679a 7c3f
000000f0: b41e 873f 265e 723f 5210 8a3f 6574 803f

base.mlp.fc2.0.2.bias f4 [64]
0.031085975 -0.064075425 -0.1373385 0.03427187 -0.0039229817 0.0064752446 0.0152358 0.03980907
-0.029864315 -0.033601187 0.02206041 0.014498621 -0.023038484 0.01589608 -0.015242665 -0.0028683592
-0.024218507 -0.018655064 0.046365086 -0.03334667 0.05908514 0.10701317 0.15013744 0.011657005
-0.010957846 0.059111636 -0.030269084 -0.04366493 0.04843168 0.009413772 0.035727896 -0.094358616
-0.012842518 0.09396822 -0.008055971 -0.0512309 -0.03962794 -0.02436445 -0.046085548 0.06421311
-0.04612196 -0.0031760074 0.027751124 -0.00102149 -0.001986942 0.05986599 -0.08934084 -0.024610484
-0.004009189 -0.014740707 -0.09287035 -0.017163733 0.06964626 0.04958514 -0.023386633 -0.0041243937
-0.005407866 -0.016344547 -0.0010611532 -0.015672531 -2.3203458e-05 0.050967433 -0.030398522 0.010370128
00000000: 04a8 fe3c fa39 83bd 77a2 0cbe a960 0c3d
00000010: 5b8c 80bb 4a2e d43b 949f 793c d60e 233d
00000020: 02a6 f4bc 66a1 09bd 08b8 b43c a08b 6d3c
00000030: 34bb bcbc 7f38 823c 5fbc 79bc 15fb 3bbb
00000040: e465 c6bc 81d2 98bc 51e9 3d3d 8596 08bd
00000050: 4203 723d b929 db3d a1bd 193e 06fd 3e3c
00000060: 8a88 33bc 0b1f 723d dff6 f7bc ffd9 32bd
00000070: 4c60 463d 393c 1a3c 6a57 123d 173f c1bd
00000080: 6d69 52bc 6972 c03d 31fd 03bc 7ed7 51bd
00000090: e850 22bd f497 c7bc 33c4 3cbd 2a82 833d
000000a0: 61ea 3cbd 9024 50bb 5356 e33c 84e3 85ba
000000b0: 5b37 02bb 0a36 753d 55f8 b6bd ed9b c9bc
000000c0: 845f 83bb 0283 71bc cf32 bebd f59a 8cbc
000000d0: b3a2 8e3d ca19 4b3d 5395 bfbc ec25 87bb
000000e0: 7834 b1bb 00e5 85bc 6516 8bba ae63 80bc
000000f0: 0ca5 c2b7 3ac3 503d 5206 f9bc 78e7 293c

rnn.rnn.weight_ih_l0 f4 [192, 64]
0.06645899 -0.3533944 -0.25662234 0.2129688 0.12910403 0.083000295 0.061052028 -0.021179125
-0.0032731306 -0.20540966 -0.06272295 -0.054355733 0.22222374 0.06761293 -0.18393733 -0.05632426
0.101774976 -0.029954903 -0.007259302 -0.19511253 0.09876582 -0.038967714 0.007938716 0.1419984
0.16648063 -0.076730676 -0.032220222 0.15560031 0.074761346 -0.23053238 -0.16807896 0.07058103
0.03896387 0.008747277 -0.20312655 -0.030434156 -0.06807618 -0.28802833 -0.015341371 0.066580646
0.15268365 0.07813971 -0.09783716 -0.10912018 -0.08508485 -0.20460469 -0.053694185 0.021355623
0.12437846 0.26113886 0.23877035 -0.027553363 0.076572426 0.030726897 -0.26364046 -0.14955793
-0.06799979 0.1914002 -0.15801898 -0.051745445 0.0017451824 0.048304178 -0.07550428 0.12125784
-0.017415693 0.15492679 0.12596774 -0.06766191 0.043204896 -0.19226925 0.013343601 0.3453985
0.055378098 0.06392151 -0.107683584 -0.12314129 -0.0190698 0.022273775 -0.38340008 0.07881875
-0.06327472 0.19615726 -0.043244604 0.08261838 0.13365494 -0.24787994 -0.21675304 0.031557646
0.074503414 -0.15935086 -0.022858292 -0.1543601 -0.0107694 -0.106287725 -0.0151386615 -0.029986585
0.14205252 -0.0045259483 0.1274463 0.059224885 0.16934147 -0.13620743 -0.16012661 0.063881114
-0.1779967 0.013449384 0.045804422 0.016497284 0.15162644 0.13664462 0.2578751 0.083281144
0.006720615 -0.08602627 0.10478643 -0.1058401 -0.051116638 -0.10767302 -0.023556687 0.1557431
0.010610825 -0.10856523 0.22563246 -0.10540131 0.11264382 -0.057170052 -0.14631097 -0.030408654
-0.19112886 0.038505144 0.0018121977 0.117104836 -0.12764758 0.18184327 0.34051383 0.020539721
-0.08995143 0.17470394 -0.15426956 -0.23328815 -0.07910806 0.15956555 -0.04848526 -0.050573792
0.071006514 0.089723855 0.04526117 -0.092757314 -0.25300962 0.05319132 0.047417194 0.17317314
0.06860419 0.10208489 0.13832664 0.027101362 -0.3324532 -0.07629332 -0.0951174 0.111040585
-0.0937166 0.16009712 -0.07006317 0.17793237 0.05773503 0.03712332 -0.16700831 -0.20858662
0.26645342 0.2980468 0.051229652 0.15924379 0.0109231295 0.1833117 0.02932305 0.0766923
-0.1537553 -0.18061788 -0.019377746 -0.08821675 -0.0081811175 0.014804184 -0.25158286 -0.10387586
-0.0011749612 -0.04513264 -0.0966526 0.1314788 0.16336887 -0.110529885 -0.13386676 -0.14832509
0.20591469 0.119116396 -0.009654384 -0.20813209 0.15356758 -0.23161042 -0.13736697 0.15933771
0.109384075 -0.1582907 0.066288635 0.016240153 0.07169745 0.005564139 0.021407116 0.13765766
0.043118678 0.11994418 -0.14095011 0.2329789 0.012707109 -0.16021402 -0.26800188 0.2293418
-0.23186943 0.16714697 -0.07160416 -0.17624316 0.03301991 0.08580487 -0.037459563 0.090650186
0.12311721 -0.113040164 -0.19573721 -0.19164981 -0.090017475 -0.20057982 0.08514076 0.097649604
0.10489517 0.07566881 0.049299415 -0.1909592 -0.031999134 0.031325012 -0.031621516 -0.1488518
-0.044599924 -0.018125001 0.059262842 0.008194955 0.103286 0.07921328 0.09745761 0.30820078
-0.1262485 0.0549607 -0.047795992 0.0705725 -0.054452106 0.09064204 0.03313544 0.014350877
00000000: a71b 883d 1cf0 b4be 0164 83be 7e14 5a3e
00000010: d933 043e 0ffc a93d b111 7a3d d87f adbc
00000020: 0582 56bb e956 52be e474 80bd 1ea4 5ebd
00000030: 9f8e 633e a678 8a3d 115a 3cbe 44b4 66bd
00000040: 666f d03d fc63 f5bc 70df edbb 94cb 47be
00000050: bc45 ca3d 9c9c 1fbd 6311 023c 0768 113e
00000060: e679 2a3e f924 9dbd 5af9 03bd b055 1f3e
00000070: 7a1c 993d ae10 6cbe e41c 2cbe c98c 903d
00000080: 9498 1f3d bd50 0f3c 6800 50be 0d51 f9bc
00000090: 866b 8bbd 7378 93be 605a 7bbc 6f5b 883d
000000a0: 1a59 1c3e b607 a03d d95e c8bd 677a dfbd
000000b0: f740 aebd e483 51be 6fee 5bbd fdf1 ae3c
000000c0: 22ba fe3d feb3 853e 3780 743e 97b7 e1bc
000000d0: 01d2 9c3d f9b6 fb3c e2fb 86be b725 19be
000000e0: 7943 8bbd 6afe 433e bacf 21be 08f3 53bd
000000f0: 9bbe e43a 9ada 453d fda1 9abd 0856 f83d
00000100: 5bab 8ebc 21a5 1e3e b0fd 003e 5492 8abd
00000110: 9ef7 303d 3be2 44be 1e9f 5a3c 12d8 b03e
00000120: 25d4 623d 48e9 823d 3689 dcbd 8031 fcbd
00000130: 4538 9cbc 7e77 b63c 044d c4be ba6b a13d
00000140: 2d96 81bd 73dd 483e 4121 31bd d333 a93d
00000150: d7dc 083e 3dd4 7dbe 82f4 5dbe 9742 013d
00000160: 3f95 983d df2c 23be 5041 bbbc 9310 1ebe
00000170: 2372 30bc 61ad d9bd 2608 78bc 6da6 f5bc
00000180: 3776 113e 684e 94bb 4881 023e cb95 723d
00000190: da67 2d3e f679 0bbe 3bf8 23be 1ad4 823d
000001a0: c444 36be ce5a 5c3c 6b9d 3b3d 5025 873c
000001b0: f643 1b3e 91ec 0b3e 3508 843e 4e8f aa3d
000001c0: 9b38 dc3b 8b2e b0bd 459a d63d b2c2 d8bd
000001d0: ae5f 51bd ac83 dcbd f4f9 c0bc 1f7b 1f3e
000001e0: 07d9 2d3c 7357 debd 320c 673e a4dc d7bd
000001f0: ceb1 e63d 252b 6abd 8bd2 15be 921b f9bc
00000200: 49b7 43be 92b7 1d3d 4487 ed3a a9d4 ef3d
00000210: 0cb6 02be 1f35 3a3e d457 ae3e eb42 a83c
00000220: 7538 b8bd 97e5 323e d7f8 1dbe 17e3 6ebe
00000230: 6803 a2bd 2765 233e 7b98 46bd 7726 4fbd
00000240: dd6b 913d 24c1 b73d c763 393d 8cf7 bdbd
00000250: 7a8a 81be 24df 593d 8838 423d 4d54 313e
00000260: 5b80 8c3d e211 d13d 80a5 0d3e ad03 de3c
00000270: 4e37 aabe ac3f 9cbd e9cc c2bd 3f69 e33d
00000280: 7dee bfbd 80f0 233e 477d 8fbd e733 363e
00000290: 917b 6c3d 9f0e 183d 3a04 2bbe bb97 55be
000002a0: 956c 883e 9799 983e 2fd6 513d ce10 233e
000002b0: edf6 323c 10b6 3b3e e536 f03c da10 9d3d
000002c0: 0872 1dbe e5f3 38be 14be 9ebc fcaa b4bd
000002d0: 180a 06bc 408d 723c 78cf 80be debc d4bd
000002e0: 2801 9aba 01dd 38bd ccf1 c5bd 61a2 063e
000002f0: 2b4a 273e 7e5d e2bd 5e14 09be 88e2 17be
00000300: 4ddb 523e 4cf3 f33d 6c2d 1ebc 9420 55be
00000310: d240 1d3e 482b 6dbe eda9 0cbe 6d29 233e
00000320: c204 e03d f516 22be 56c2 873d 120a 853c
00000330: 1dd6 923d 6253 b63b fa5d af3c 21f6 0c3e
00000340: 369d 303d 4ba5 f53d 3a55 10be 0592 6e3e
00000350: 7a31 503c 250f 24be 8b37 89be 94d8 6a3e
00000360: 2e6f 6dbe 9328 2b3e 34a5 92bd 1679 34be
00000370: e33f 073d 77ba af3d 336f 19bd cea6 b93d
00000380: e024 fc3d 9a81 e7bd 566f 48be d93f 44be
00000390: 155b b8bd cc64 4dbe 475e ae3d 84fc c73d
000003a0: 47d3 d63d 40f8 9a3d 2fee 493d cf8a 43be
000003b0: 8611 03bd a84e 003d 9085 01bd 9b6c 18be
000003c0: 69ae 36bd e27a 94bc 98bd 723d 2244 063c
000003d0: 9c87 d33d 923a a23d db97 c73d 7ecc 9d3e
000003e0: 4947 01be 791e 613d bbc5 43bd 5188 903d
000003f0: 2c09 5fbd 89a2 b93d 07b9 073d f11f 6b3c

rnn.rnn.weight_hh_l0 f4 [192, 64]
-0.006585329 -0.28450114 -0.38268548 -0.14972265 -0.2363701 0.3064486 -0.034663327 -0.01632244
0.106672235 0.11046459 0.071413524 -0.03182777 0.14048338 0.0189804 0.12436252 0.24580343
0.1403021 -0.030981591 -0.07123005 -0.16530587 -0.12649547 0.1339022 -0.05391084 -0.23755908
-0.36333796 0.04990422 -0.07814793 0.08362216 0.12688033 -0.033605814 0.10967337 -0.19925547
0.110025235 0.0075174067 0.30113828 -0.06591737 -0.24251643 0.045378618 0.13028592 -0.109643765
-0.26438358 0.21286955 -0.40635052 0.39047012 -0.1639336 0.030990534 0.11897568 -0.029245714
0.1735336 0.12986404 0.058160115 0.19419385 0.27775246 -0.19925325 -0.25497192 0.06970223
-0.011626963 0.021823522 0.18005528 0.059259657 -0.07773475 -0.2609362 -0.18996572 0.053739
0.24805516 0.0448818 0.05941802 0.12932259 -0.13717818 -0.09833231 0.11597105 -0.03907311
0.010647038 0.25379816 0.061137807 -0.26368225 0.10105678 -0.029970981 0.1548563 -0.21531795
0.02182995 0.029550795 0.063873805 -0.0052672634 0.025182193 0.10215437 -0.021265343 0.101565786
-0.17955467 0.12084761 0.07067221 0.038099885 0.07763548 -0.06896567 0.17130683 -0.21481872
0.0882594 -0.15282899 0.32810885 -0.11106989 -0.12588125 -0.11976696 0.119235516 0.06921228
-0.09106825 -0.056518596 -0.038954638 0.09469088 -0.001172958 0.27338985 0.14577693 0.09866034
-0.18786022 0.110599674 0.08659113 -0.04780612 -0.20288165 -0.023096325 -0.040347625 -0.15133065
-0.26427332 0.2755944 0.021655418 0.13175862 0.13703978 0.1616019 -0.06797279 -0.09902267
-0.07875622 -0.074496984 0.0812996 0.019822177 -0.00839785 -0.014429161 0.22555871 -0.17445174
-0.1510475 -0.07453261 -0.05944621 -0.084683456 -0.11406422 -0.050579242 -0.092660345 -0.049708165
0.10125606 -0.26595536 -0.007205291 -0.052047115 -0.044257578 -0.19899677 0.09498128 -0.110304475
-0.058023054 -0.25924402 -0.12921394 -0.2231241 0.12424927 0.18470433 0.10323044 0.032565426
-0.12723325 0.19007465 -0.21704242 -0.013219825 -0.0041783615 -0.049540482 0.18582366 -0.14664592
-0.026971497 0.372039 0.16244985 -0.11459777 -0.1835377 0.17206304 0.25041488 -0.10023453
0.068940476 -0.03070225 0.12730296 -0.14156659 -0.051606867 0.25544277 0.13239813 -0.03303345
-0.13094424 -0.10113312 -0.22097734 0.00034033364 0.12218383 0.39573765 0.10437264 0.20085867
0.040049575 -0.2781274 0.001478661 -0.11112112 0.17880717 0.14657716 0.11008453 -0.050901655
0.24118292 -0.07408828 0.06123354 0.058165755 0.05161903 -0.14716388 0.02883653 -0.073102325
0.12562485 0.014661204 -0.041143652 -0.22434896 0.22802271 0.27365714 -0.07632748 -0.18223189
-0.014520031 0.32655963 0.12871931 0.14233318 -0.17591003 0.0024532126 0.17478277 -0.13393801
-0.035974134 -0.04417604 -0.06799644 0.07377309 -0.078477405 0.20773938 0.06767882 0.049605913
0.10334743 0.09448424 -0.022885578 -0.116479635 -0.2180701 0.0075658024 0.16384289 -0.20697732
-0.13309512 0.20877407 0.1293978 0.098222986 0.15136416 -0.10679919 0.039811112 0.048529584
-0.020741634 0.27939874 0.09508511 -0.2503633 -0.33506733 -0.19865856 0.013582183 -0.05230149
00000000: bec9 d7bb 22aa 91be 5aef c3be e550 19be
00000010: 010b 72be d5e6 9c3e 22fb 0dbd a3b6 85bc
00000020: f976 da3d 423b e23d 4141 923d d65d 02bd
00000030: e0da 0f3e c97c 9b3c c7b1 fe3d e5b3 7b3e
00000040: 5bab 0f3e 1bcd fdbc 0fe1 91bd f145 29be
00000050: 0788 01be a91d 093e 9dd1 5cbd b042 73be
00000060: 6f07 babe 5e68 4c3d 060c a0bd 1842 ab3d
00000070: ebec 013e 40a6 09bd 6f9c e03d a009 4cbe
00000080: e954 e13d 9454 f63b cc2e 9a3e b0ff 86bd
00000090: 3a56 78be eede 393d ac69 053e e98c e0bd
000000a0: 495d 87be 7afa 593e 2d0d d0be b3eb c73e
000000b0: 36de 27be dcdf fd3c 85a9 f33d b594 efbc
000000c0: cbb2 313e 14fb 043e 4d39 6e3d c1da 463e
000000d0: 9235 8e3e 0b09 4cbe ae8b 82be 0bc0 8e3d
000000e0: 047f 3ebc 3ec7 b23c 6960 383e 41ba 723d
000000f0: 6633 9fbd 6e99 85be 6086 42be 6d1d 5c3d
00000100: 2c02 7e3e fad5 373d 4f60 733d 246d 043e
00000110: 7078 0cbe 7362 c9bd 3b82 ed3d 200b 20bd
00000120: ea70 2e3c d5f1 813e a36b 7a3d 5c01 87be
00000130: dbf6 ce3d b485 f5bc a692 1e3e 4f7c 5cbe
00000140: b9d4 b23c 8214 f23c 45d0 823d 0299 acbb
00000150: e34a ce3c 4f36 d13d a834 aebc b901 d03d
00000160: 2edd 37be f47e f73d 97bc 903d a00e 1c3d
00000170: 5aff 9e3d e03d 8dbd 0f6b 2f3e 70f9 5bbe
00000180: 58c1 b43d 347f 1cbe e2fd a73e 9c78 e3bd
00000190: 04e7 00be 6148 f5bd c031 f43d 2bbf 8d3d
000001a0: fe81 babd 0b80 67bd e68e 1fbd 4bed c13d
000001b0: f0bd 99ba c1f9 8b3e 8c46 153e 6f0e ca3d
000001c0: 6e5e 40be 1582 e23d b156 b13d 5ad0 43bd
000001d0: 35c0 4fbe 8134 bdbc 8d43 25bd 6cf6 1abe
000001e0: d54e 87be b61a 8d3e b466 b13c bbeb 063e
000001f0: 2854 0c3e f87a 253e 5135 8bbd 66cc cabd
00000200: f14a a1bd e091 98bd 6880 a63d 1e62 a23c
00000210: 2397 09bc 4a68 6cbc ddf8 663e 7aa3 32be
00000220: 32ac 1abe 8ea4 98bd de7d 73bd 856e adbd
00000230: 809a e9bd 2e2c 4fbd b5c4 bdbd ca9a 4bbd
00000240: 565f cf3d 4d2b 88be 5d1a ecbb 5b2f 55bd
00000250: 6f47 35bd cfc5 4bbe 8c85 c23d 50e7 e1bd
00000260: 95a9 6dbd a2bb 84be a950 04be a57a 64be
00000270: 6776 fe3d 2223 3d3e 7b6a d33d 5363 053d
00000280: 6f49 02be eea2 423e 5e40 5ebe f797 58bc
00000290: a3ea 88bb f6ea 4abd 8f48 3e3e 592a 16be
000002a0: 54f3 dcbc e57b be3e 4159 263e 3cb2 eabd
000002b0: 4ff1 3bbe 4b31 303e 6136 803e c347 cdbd
000002c0: aa30 8d3d 4983 fbbc b55b 023e d5f6 10be
000002d0: b961 53bd 65c9 823e 6093 073e 154e 07bd
000002e0: 3f16 06be e21e cfbd e247 62be cf6e b239
000002f0: 843b fa3d 209e ca3e 53c1 d53d e5ad 4d3e
00000300: 060b 243d b766 8ebe a1cf c13a 7893 e3bd
00000310: 3a19 373e 5318 163e 0074 e13d 417e 50bd
00000320: a8f8 763e 99bb 97bd 05d0 7a3d 373f 6e3d
00000330: 7a6e 533d 21b2 16be 963a ec3c acb6 95bd
00000340: cda3 003e 8c35 703c 3f86 28bd bcbb 65be
00000350: c97e 693e ca1c 8c3e 9551 9cbd ff9a 3abe
00000360: 6de5 6dbc d332 a73e ffce 033e cabf 113e
00000370: c221 34be 14c6 203b 41fa 323e 0c27 09be
00000380: 9d59 13bd eff1 34bd b841 8bbd 5916 973d
00000390: c3b8 a0bd a2b9 543e 319b 8a3d 922f 4b3d
000003a0: d1a7 d33d f480 c13d 897a bbbc e08c eebd
000003b0: c54d 5fbe 8dea f73b 6ec6 273e ddf1 53be
000003c0: 164a 08be dfc8 553e db80 043e 2229 c93d
000003d0: 35ff 1a3e 89b9 dabd fa10 233d f5c6 463d
000003e0: 5cea a9bc 5a0d 8f3e fbbb c23d 9e2f 80be
000003f0: f28d abbe 266d 4bbe ce87 5e3c 163a 56bd

rnn.rnn.bias_ih_l0 f4 [192]
-0.1945588 -0.20881662 0.016136918 0.074805215 -0.013214435 -0.03373865 0.02461106 0.114629984
-0.140003 0.08103245 -0.14316039 0.056937166 0.053248502 0.050810438 -0.03787834 -0.08580537
-0.34570512 0.075947285 -0.037056386 0.09206938 -0.120019026 0.034385998 0.04297737 0.06677939
-0.11796786 0.023069493 -0.0023468265 0.045167677 -0.07679897 0.11462646 -0.04414595 -0.022468727
-0.04660817 -0.06182307 0.032356676 -0.18470396 -0.07767279 0.020659333 0.045416217 0.039225373
-0.049865298 -0.18970178 -0.0035608206 0.016146082 0.22203293 0.0037955819 -0.06125863 -0.012825779
0.11732275 0.21330296 0.15959111 -0.18556814 0.0029632186 -0.14622028 -0.007512671 0.013569854
-0.074839056 -0.0067617805 -0.083623245 -0.117743336 0.17887679 -0.03940186 0.0059750844 -0.009634747
-0.45498717 -0.35497114 -0.36823007 -0.28987822 -0.15494268 0.11817603 -0.20374711 -0.32478067
-0.0062205624 -0.32383996 -0.16850764 -0.17012163 -0.5961687 -0.4692555 -0.4065033 0.38263628
-0.46620512 -0.25770137 -0.18947162 -0.049634572 -0.30458033 -0.050319545 -0.33623695 -0.3063894
0.21512933 0.024713406 0.015703049 0.088065065 -0.4029892 -0.45949802 -0.40037632 -0.2171281
-0.045876212 -0.55329555 -0.07990105 -0.086651325 -0.34378797 -0.10220547 -0.04008198 -0.40228128
0.28958994 -0.1565403 -0.24230115 -0.30255142 -0.07283788 0.09867155 -0.05660259 -0.15633692
-0.53211606 -0.6132893 -0.45954922 -0.21855284 -0.17162731 -0.26951438 -0.133675 -0.20353349
-0.3996413 -0.36348352 -0.06972705 -0.057464376 -0.2727468 -0.33649722 -0.28647873 -0.1284667
-0.031778704 -0.05462151 -0.02342242 -0.0041258927 0.06657849 -0.05854896 -0.040685795 -0.011012382
0.0040842644 -0.10898467 0.016350098 0.009333756 -0.0347501 0.008501312 -0.013354615 0.15835728
0.0003120575 -0.011321127 -0.14190963 0.15212804 -0.075320765 -0.095883355 -0.017292935 0.07509604
0.1395798 -0.028304344 -0.0131529635 0.04769627 -0.06680321 0.041442335 -0.016857008 0.014585999
-0.0692868 0.050534125 -0.080169715 0.020495914 0.0022038424 -0.012456216 0.08406777 0.0635498
0.015135551 -0.024883969 0.042648867 -0.081926346 0.099502854 -0.1143885 -0.11397267 0.053390756
0.007516973 -0.04270395 0.03265572 0.09179292 -0.030667063 -0.082228 -0.0015114134 0.011500584
-0.0036755842 -0.12210388 -0.06816404 0.059537362 -0.06528237 0.0071902163 -0.02843401 -0.023554966
00000000: 6c3a 47be 06d4 55be 9231 843c 7a33 993d
00000010: 5c81 58bc 8a31 0abd 229d c93c 20c3 ea3d
00000020: f25c 0fbe 57f4 a53d a398 12be f236 693d
00000030: 1a1b 5a3d 9b1e 503d 5126 1bbd baba afbd
00000040: 4300 b1be 408a 9b3d 70c8 17bd df8e bc3d
00000050: 89cc f5bd 55d8 0c3d 0a09 303d a2c3 883d
00000060: 2299 f1bd 3cfc bc3c 37cd 19bb be01 393d
00000070: c748 9dbd 47c1 ea3d 62d2 34bd 5610 b8bc
00000080: 35e8 3ebd 303a 7dbd 6f88 043d 0923 3dbe
00000090: e912 9fbd c33d a93c 5b06 3a3d c9aa 203d
000000a0: 8e3f 4cbd 2f41 42be a85c 69bb ca44 843c
000000b0: 9a5c 633e 4cbf 783b 54ea 7abd 3723 52bc
000000c0: e946 f03d 176c 5a3e da6b 233e 9305 3ebe
000000d0: 8f32 423b c5ba 15be da2c f6bb 1854 5e3c
000000e0: 3845 99bd ed91 ddbb aa42 abbd 6b23 f1bd
000000f0: 7a2b 373e d863 21bd a4ca c33b 0fdb 1dbc
00000100: 14f4 e8be c7be b5be a788 bcbe eb6a 94be
00000110: 4ba9 1ebe 4606 f23d 15a3 50be a749 a6be
00000120: dcd5 cbbb 5ace a5be 448d 2cbe 5d34 2ebe
00000130: 839e 18bf 4242 f0be 3321 d0be e7e8 c33e
00000140: 70b2 eebe 6ff1 83be d904 42be 9f4d 4bbd
00000150: f4f1 9bbe de1b 4ebd 4027 acbe 12df 9cbe
00000160: dd4a 5c3e c573 ca3c aea3 803c 755b b43d
00000170: 9a54 cebe 5343 ebbe 20fe ccbe d456 5ebe
00000180: b2e8 3bbd c7a4 0dbf 29a3 a3bd 4076 b1bd
00000190: fa04 b0be 1a51 d1bd 012d 24bd d0f7 cdbe
000001a0: 2245 943e 1a4c 20be cb1d 78be 05e8 9abe
000001b0: 072c 95bd 4f14 ca3d 1ed8 67bd c916 20be
000001c0: c238 08bf 8700 1dbf 094a ebbe 51cc 5fbe
000001d0: 12bf 2fbe cafd 89be 19e2 08be 156b 50be
000001e0: c99d ccbe 831a babe 0ecd 8ebd c45f 6bbd
000001f0: 78a5 8bbe 5d49 acbe 57ad 92be c68c 03be
00000200: 632a 02bd ceba 5fbd 60e0 bfbc 7f32 87bb
00000210: 4e5a 883d 09d1 6fbd 26a6 26bd 476d 34bc
00000220: 4bd5 853b 5b33 dfbd a4f0 853c 9cec 183c
00000230: 1f56 0ebd 1649 0b3c 51cd 5abc 6928 223e
00000240: a69b a339 407c 39bc c250 11be 74c7 1b3e
00000250: c641 9abd 7e5e c4bd eaa9 8dbc f4cb 993d
00000260: 02ee 0e3e 83de e7bc 877f 57bc 2a5d 433d
00000270: 1fd0 88bd 70bf 293d b517 8abc 1dfa 6e3c
00000280: 3de6 8dbd dffc 4e3d 0530 a4bd 0ce7 a73c
00000290: 576e 103b 2815 4cbc b92b ac3d 6626 823d
000002a0: 1afb 773c 77d9 cbbc 94b0 2e3d 00c9 a7bd
000002b0: 27c8 cb3d 8544 eabd 816a e9bd 44b0 5a3d
000002c0: f150 f63b 56ea 2ebd 01c2 053d edfd bb3d
000002d0: 7e39 fbbc 2767 a8bd 9e1a c6ba f26c 3c3c
000002e0: 12e2 70bb 9911 fabd 9799 8bbd 73dd 733d
000002f0: c3b2 85bd e89b eb3b 71ee e8bc 58f6 c0bc
