onpolicy/scripts/results/MPE/simple_spread/rmappo/check/wandb/run-20220704_212349-161ulbh1/files/actor.pt (torch, 147692 bytes, 22 tensors)

base.feature_norm.weight f4 [18]
000000 b6 2f 7e 3f 12 6a 7e 3f 66 18 80 3f 0c 64 7f 3f
       0.9929155 0.993806 1.0007446 0.99762034
000010 a4 d2 80 3f fb 2f 80 3f 71 39 7f 3f 1d 80 80 3f
       1.0064282 1.0014642 0.99697024 1.0039097
000020 a4 f1 80 3f 84 85 7e 3f 44 38 80 3f 85 35 7f 3f
       1.0073743 0.9942248 1.0017171 0.9969104
000030 93 15 80 3f 43 e7 7e 3f 3b 66 80 3f 23 1b 80 3f
       1.0006584 0.9957163 1.0031198 1.0008281
000040 18 92 80 3f 8e 6b 80 3f
       1.0044584 1.0032823

base.feature_norm.bias f4 [18]
000000 37 6e ae b9 89 90 4d 3c 2b bd ae bb eb e2 50 3c
       -0.00033269983 0.012546667 -0.005332609 0.012749414
000010 06 b5 46 bc 55 0f 40 bc a7 6e 57 bb d5 75 41 bc
       -0.01212812 -0.011722405 -0.003287235 -0.0118078785
000020 22 e5 b1 bb 2a ce 4c bc eb 1c f0 ba e0 60 0a 3b
       -0.005428926 -0.012500325 -0.0018319165 0.002111487
000030 df 1b 31 3c b9 b2 eb ba 13 24 05 bc 7f 20 47 3c
       0.010809868 -0.0017982341 -0.008126277 0.012153744
000040 18 95 14 3c 6f 57 44 3c
       0.00906875 0.011983736

base.mlp.fc1.0.weight f4 [64, 18]
000000 19 c0 70 3b 7d 61 d4 3c 24 0c 82 be a8 8c c1 bd
       0.0036735593 0.025925392 -0.25399888 -0.09450656
000010 58 e8 e2 bd b2 c8 fb bc 89 90 1e 3e 47 f1 25 3e
       -0.11079472 -0.030735347 0.15484823 0.16205321
000020 47 ed e0 be bf 34 30 3e af 31 43 3e 47 5d 41 3d
       -0.43931028 0.17207621 0.19061922 0.047208097
000030 06 7e 47 3d f7 83 45 3e c6 41 04 be c2 9d 69 be
       0.04870417 0.19288622 -0.12915716 -0.22814086
000040 7f 25 9d be 48 29 64 3d c4 84 f2 bd 38 4e 52 3e
       -0.3069267 0.05570343 -0.11841729 0.2053765
000050 96 87 ce bd 06 df f1 3d 54 20 b3 3d bd 2b eb 3d
       -0.10084455 0.118101165 0.087464005 0.11482952
000060 f4 2e 4e be 41 5b 35 3e e1 92 b1 be 62 5e 56 3e
       -0.20135099 0.17710592 -0.34682372 0.20934442
000070 98 64 e4 3d 70 76 f6 3d c2 12 62 be ee 56 bf bd
       0.11151999 0.12034309 -0.22077468 -0.093427524
000080 7c ee d6 bd 64 96 06 3c d7 65 97 3e 48 d5 14 be
       -0.10494706 0.008214567 0.29569885 -0.14534485
000090 f8 24 83 be ee 40 f5 bd 14 04 83 bd 7b d0 f0 3d
       -0.25614142 -0.11975275 -0.06397262 0.117585145
0000a0 df cc c1 3d 74 ba ba 3d 9c 8c ac be f8 3f 38 be
       0.09462904 0.09117594 -0.33701026 -0.17993152
0000b0 26 c7 cf be 6b c7 1b 3d 94 a6 88 3e d6 42 f4 3e
       -0.40581626 0.038031977 0.2668959 0.47707242
0000c0 85 8d c3 3e a4 98 9e 3d a7 4b 52 3e a4 f3 de bc
       0.38193908 0.07743958 0.20536672 -0.027215786
0000d0 11 8d 1f 3d 32 7c 2b 3e 8d 4f a0 3d 56 5d e2 3d
       0.03895289 0.16746596 0.07827673 0.11052959
0000e0 c5 4f 41 bf 43 ce 99 be 6e c9 bf 3e 51 54 98 3e
       -0.75512344 -0.30040178 0.37458366 0.29751828
0000f0 04 d3 3d 3d 97 f2 77 3e f4 29 d8 3c 60 c5 29 3e
       0.04634382 0.24213634 0.026387192 0.16579199
000100 36 47 99 be a8 72 50 be a6 0b 00 3e 87 e7 e4 bd
       -0.29937142 -0.20356238 0.12504444 -0.11176973
000110 1a 21 7d 3d cb 17 de bd 71 87 a4 be 47 90 bf 3d
       0.061799146 -0.10844382 -0.32134584 0.093536906
000120 60 68 a0 3c 98 68 e6 bd e2 ea 72 be 37 bb 02 be
       0.01958102 -0.112504184 -0.23722413 -0.1276673
000130 a3 83 93 be 98 04 11 3d c9 59 29 bb e7 43 51 be
       -0.28811368 0.03540477 -0.002584087 -0.20436059
000140 15 fa a3 bd e8 78 12 be 30 61 9f bd 1e 38 8e 3d
       -0.08006684 -0.14303935 -0.07782209 0.06944297
000150 91 56 d6 bd 1a 21 ff 3d ee 76 2a be de ca 9d 3e
       -0.1046573 0.124574855 -0.1664693 0.30818838
000160 92 3a 0d 3e f7 48 3a be d4 f6 02 3f 1a a8 46 be
       0.13791874 -0.18191896 0.5115788 -0.19400063
000170 ba 4c 40 3e 10 a9 36 be 34 d6 67 3e 72 fc 62 3d
       0.18779269 -0.1783793 0.22640306 0.05541653
000180 a7 41 0c 3d 97 17 83 be a6 df b6 be 40 62 5f 3e
       0.0342423 -0.25603935 -0.35717505 0.21814823
000190 c5 28 34 be 0a e9 92 3e 2e f1 47 bd 8c 15 a5 3d
       -0.17593677 0.2869342 -0.04881399 0.0806075
0001a0 89 b1 b8 3e 2c 0c 32 be 58 0a 37 3c eb 76 8d 3c
       0.3607295 -0.17387456 0.0111719 0.017268619
0001b0 bc f3 2c 3e 72 dc 8b be 70 9e 24 3e d1 38 3b 3d
       0.16889852 -0.27316624 0.16076064 0.04570848
0001c0 73 43 90 bd 4e 5c ee bd d4 38 44 3e 5b 91 92 be
       -0.07044115 -0.116386995 0.19162303 -0.28626522
0001d0 f1 d0 a1 bd dc 17 93 3e 3d 58 50 3e 1a c9 88 be
       -0.079011805 0.2872914 0.2034616 -0.26715928
0001e0 a9 ad 64 be 1e be 19 3d f6 ba f8 3d 83 3e 13 be
       -0.22331871 0.037534826 0.12145035 -0.14379315
0001f0 1f 80 aa 3d 76 8f e3 bd 56 f3 88 3d 4a 70 c5 3e
       0.083252184 -0.111113474 0.06687038 0.38562232
000200 7c 79 b6 3c 4c fa d8 bd 9e c3 91 3d 89 8f 8d be
       0.022274725 -0.10594615 0.07117389 -0.2764857
000210 85 df 19 3e 65 c7 7a 3e ec 01 1c be 28 aa 09 be
       0.15026672 0.24490125 -0.15235108 -0.13443816
000220 77 ac 89 3c 38 b7 86 bc 9a 97 74 be 2c 73 c7 3b
       0.01680587 -0.016444787 -0.23885956 0.0060867276
000230 14 b6 c2 3d 43 b7 67 be 23 eb 7a be 95 6c 18 3d
       0.09507385 -0.22628503 -0.2450376 0.037212927
000240 76 71 89 3e a0 18 b3 be fa 3f a4 3d 2f 38 17 be
       0.26844376 -0.34979725 0.08020015 -0.14767526
000250 09 40 a9 3e c5 ab 8c be 85 8f ad 3e be b6 a5 3e
       0.33056667 -0.274748 0.3389856 0.32365984
000260 3a 6e 5a 3d 92 26 15 3e 4e 8d 0f 3e 60 fe 6c 3e
       0.053327776 0.14565495 0.14018747 0.23143911
000270 ba df 63 3e 6a 57 b9 bd c5 6b 88 3c fa cb 7a bd
       0.22253314 -0.09049876 0.016652951 -0.061229683
000280 de 23 c4 be 2d 6b d1 3d 7e c2 9d bc 7f 59 ca 3e
       -0.38308614 0.1022552 -0.01925778 0.39521405
000290 6f de 9a 3e d1 8e 6c bd 5d 6e 39 be 61 c5 51 3c
       0.30247828 -0.057753388 -0.18108507 0.012803406
0002a0 52 05 0f 3d 57 af 38 3e e6 ac 95 3e 7c 41 06 be
       0.034917183 0.18035637 0.29233474 -0.13110918
0002b0 a2 bb 10 be 88 5e d7 3d c4 4f 21 3e d7 2d 90 3e
       -0.14134076 0.10516077 0.15753084 0.28159973
0002c0 2a 87 fa bc 86 f9 25 be 0f 7d 6b bc 6e 48 85 3a
       -0.03058203 -0.16208467 -0.014373078 0.001016868
0002d0 0e 4b 2d 3d 50 d1 7a 3d 23 6b 55 3e bc 6b 3b bc
       0.042307906 0.061234772 0.2084165 -0.01143926
0002e0 33 89 c2 3d f3 53 0d 3f 49 0a dc 3d 52 0c b5 3e
       0.09498825 0.5520622 0.10744149 0.35360962
0002f0 2a d6 15 3e 5f 1c 80 3e 93 0b 21 3e 48 32 35 3e
       0.14632478 0.25021645 0.15727071 0.17694962
000300 ad ed 7d bd 51 0d 83 3c 6f 90 4b 3e 50 c3 b5 3e
       -0.061994243 0.01599756 0.19879316 0.35500574
000310 2c d4 51 be c1 13 5d be ee 9c b2 bd 0e b4 d1 bd
       -0.20491093 -0.21589567 -0.08721338 -0.10239421
000320 9c 78 8a 3c 35 ae dd be 89 80 97 be 7d 21 12 3e
       0.016903214 -0.43296972 -0.29590252 0.14270587
000330 68 66 07 3c c8 08 0e bd b8 d6 19 be 57 2e 2f be
       0.008264162 -0.034676343 -0.15023315 -0.17107521
000340 07 31 7d 3e d7 4b 78 be f1 1c b7 3e 41 8a 6a be
       0.24725734 -0.2424768 0.35764268 -0.22904302
000350 91 08 ac 3e 51 64 0d 3e 0e 12 9a 3d c3 f8 57 3e
       0.33600286 0.13807799 0.07522975 0.21090989
000360 9f 5f 81 be 1c 6f 4b bd 33 c6 a6 3a 5b b3 01 3e
       -0.25268266 -0.04966651 0.0012723863 0.12666075
000370 fd 23 cd 3c 1c c4 11 3f d0 a0 3e be a5 35 02 3e
       0.025041575 0.56939864 -0.18616033 0.12715776
000380 8a 1d 09 3e 65 c5 a1 bd 3b a8 a0 be 2e c2 bb 3d
       0.13390175 -0.07898978 -0.3137835 0.09167896
000390 82 bf 59 3e 64 e5 34 be 01 13 3b be 28 db 29 be
       0.2126446 -0.1766563 -0.18268968 -0.16587508
0003a0 55 c0 a8 3e 74 b4 f8 3c 97 1b 1a bc 4d d3 bf bd
       0.32959238 0.030359484 -0.009405992 -0.09366474
0003b0 6b e3 59 bb fa 9f c1 3d 1e b5 0b 3e 24 49 04 3d
       -0.0033247124 0.09454341 0.1364331 0.032296315
0003c0 49 a9 bd 3e e7 e3 49 bc 70 49 05 be 2a 4d 01 be
       0.37043217 -0.012322403 -0.13016295 -0.12627092
0003d0 05 48 9d be 3e 21 2f 3e d1 04 b7 be ad 85 f8 be
       -0.3071901 0.17102525 -0.35745862 -0.48539487
0003e0 4d f7 21 bd c7 26 8f 3d 1e 5c c5 3c f2 71 0a 3e
       -0.039542485 0.06989818 0.024091776 0.13520029
0003f0 15 28 38 3e 10 8d 70 3e 15 97 a1 3e c8 df 97 3d
       0.1798404 0.23491311 0.3156058 0.0741573

base.mlp.fc1.0.bias f4 [64]
000000 22 58 e8 bb 43 60 05 bc 77 41 13 3c 2c d1 16 bc
       -0.0070905844 -0.008140626 0.008987776 -0.009205144
000010 71 ce 13 3c 2c b2 2a bb b7 31 38 bc 0e 20 f0 3a
       0.009021387 -0.002604614 -0.011242322 0.00183201
000020 a6 d5 0f bc 51 48 3c 3c d6 2b 36 bc 75 1c 3d 3c
       -0.008778965 0.011491851 -0.01111885 0.011542429
000030 87 b8 d2 3b c1 34 ce 3a c5 78 ed 3a 3c 48 dd 3b
       0.006430689 0.0015732275 0.0018117657 0.006752996
000040 8d 2c 55 bc d6 ed 2c 3c b3 d2 24 3b 41 b1 f1 bb
       -0.01301111 0.010554751 0.002515 -0.0073758666
000050 4b 3f a0 bb de 8c b1 3b eb be 2c 3b 7f 72 4c 3c
       -0.0048903576 0.005418404 0.0026358913 0.01247847
000060 fd e8 15 bb 50 46 39 ba bd 83 b4 bb 7f ce bf 39
       -0.0022874468 -0.00070676673 -0.0055088685 0.0003658421
000070 bf 4f 5c bb a4 4a eb ba e4 65 e0 39 15 3b 00 3c
       -0.0033616868 -0.0017951322 0.00042800524 0.007826586
000080 b1 53 7b ba 1b fb dd 3a ca f4 e2 37 b5 a7 0f 3c
       -0.0009587361 0.0016935797 2.7055288e-05 0.008768012
000090 39 7e 23 bc 64 9b 12 39 d9 88 c7 bb 6b f9 1c bb
       -0.009978824 0.00013981533 -0.0060893116 -0.0023952376
0000a0 fa 6f 77 bb ee c3 11 ba db cc c8 bb 2d 9e 4b 3c
       -0.0037755952 -0.0005560507 -0.0061279363 0.012427849
0000b0 96 05 37 3c 3c b3 eb 3b bf 79 3e 3c c0 3b 62 3b
       0.011170765 0.0071929973 0.011625706 0.0034520477
0000c0 b0 f1 31 3c 0a 30 51 bb 2b e5 7b 3b 1a 49 a8 3b
       0.010860845 -0.0031919503 0.0038436155 0.0051356675
0000d0 cf e0 3e bc e3 c7 e2 3b f8 64 a6 bb 21 3d 55 3b
       -0.011650278 0.006920801 -0.0050779544 0.0032537656
0000e0 b6 ea a4 b9 ca 2a 91 3b 85 08 b9 bb fd b8 b8 bb
       -0.0003145539 0.0044301497 -0.0056467676 -0.0056372867
0000f0 97 4c 2e 3c ee 41 28 bc 48 d5 0b bc 3a a4 ce bb
       0.010638378 -0.010269625 -0.008534737 -0.0063061984

base.mlp.fc1.2.weight f4 [64]
000000 55 3a 7f 3f 7a 2d 80 3f 9e 64 80 3f 99 1b 80 3f
       0.9969838 1.0013878 1.0030706 1.0008422
000010 c7 b0 7e 3f 79 e4 80 3f 66 d0 80 3f e6 1e 81 3f
       0.9948849 1.0069724 1.0063598 1.0087554
000020 64 1b 7e 3f bb 07 80 3f 72 dd 80 3f 46 35 80 3f
       0.99260545 1.0002359 1.006758 1.0016258
000030 d2 00 80 3f 7c 97 80 3f 75 24 7d 3f 03 e6 80 3f
       1.000025 1.0046229 0.98883754 1.0070194
000040 a5 3e 7f 3f ec 46 81 3f d3 21 80 3f 4c 81 7d 3f
       0.9970496 1.0099769 1.0010322 0.99025416
000050 f0 e1 80 3f cd 27 80 3f 85 2c 80 3f c1 5d 81 3f
       1.0068951 1.0012146 1.0013586 1.0106736
000060 10 0f 80 3f fa 3f 80 3f fe ba 80 3f f7 7e 80 3f
       1.0004597 1.0019524 1.0057065 1.0038747
000070 5d 0e 80 3f a8 79 80 3f b7 1e 80 3f 88 59 80 3f
       1.0004383 1.0037127 1.0009373 1.0027323
000080 dc 9b 80 3f 09 fa 7d 3f 54 12 80 3f 0d 18 7f 3f
       1.0047565 0.9920965 1.0005593 0.99646074
000090 07 19 80 3f 4e 3a 80 3f 73 00 80 3f e3 5e 81 3f
       1.0007638 1.0017793 1.0000137 1.0107082
0000a0 db cc 80 3f 17 05 7e 3f dc 13 80 3f e9 07 80 3f
       1.0062517 0.99226516 1.0006061 1.0002414
0000b0 ac b8 80 3f ac b4 7d 3f 2a 9e 80 3f 14 d6 7e 3f
       1.0056357 0.9910381 1.0048268 0.9954541
0000c0 43 6e 80 3f 40 80 7f 3f 71 c8 7f 3f 46 7e 80 3f
       1.0033649 0.9980507 0.99915224 1.0038536
0000d0 38 17 7d 3f 2a 12 7d 3f 6f 27 80 3f fe 25 7e 3f
       0.98863554 0.9885584 1.0012034 0.9927672
0000e0 db 39 7d 3f 0c 15 81 3f 44 f6 7f 3f 87 ef 80 3f
       0.98916405 1.0084548 0.99985147 1.0073098
0000f0 43 0d 81 3f 13 9e 7e 3f 99 f1 7f 3f ad ae 7f 3f
       1.0082172 0.9945995 0.99978024 0.9987591

base.mlp.fc1.2.bias f4 [64]
000000 a0 38 08 bc 29 45 9a bb 95 83 1f 3c e5 e7 12 bc
       -0.008314282 -0.0047079516 0.009735961 -0.008966421
000010 b8 47 cb 3b 56 32 30 bc 15 22 3b bc dc ab b7 39
       0.006203618 -0.0107541885 -0.0114217 0.00035032525
000020 b6 7a 0e bc fc df 35 3c 9f ba 19 bc df f9 31 3c
       -0.008696249 0.011100765 -0.009382873 0.010862797
000030 c6 43 67 3a 6a e9 4a 3a 38 2a 20 3a a0 4c b4 3b
       0.000882205 0.000774047 0.0006109807 0.0055022985
000040 6a 7e 43 bc 6a 19 8a 3b 20 43 6a 3b 20 03 12 bc
       -0.011931995 0.0042144554 0.0035745576 -0.008911878
000050 e1 d6 a4 bb 15 72 0e 3b 62 b7 43 3b 8a 2f 14 3c
       -0.0050304984 0.0021735479 0.0029863943 0.009044537
000060 93 10 91 bb 33 18 2f 3a eb ef 51 bb f2 56 85 ba
       -0.0044270246 0.0006679326 -0.0032033871 -0.0010173006
000070 f8 0c 0e bb 27 0b aa ba 46 9c 6b ba 62 f5 20 3c
       -0.002167521 -0.0012973294 -0.0008987825 0.009824129
000080 d2 95 6a bb f1 ac a8 ba 6f bd db 39 da bb 19 bc
       -0.0035794866 -0.0012868923 0.00041912074 -0.009383166
000090 e6 28 0c bc 84 b2 8e b8 ac dc 7c bb c0 6b 81 ba
       -0.008554673 -6.804339e-05 -0.003858368 -0.0009874031
0000a0 e9 6c 6c ba 1a 7f 2f bb 76 e2 07 bc eb 4c 43 3c
       -0.00090189144 -0.002677864 -0.008293739 0.011920194
0000b0 d6 5b 25 3c 95 06 fe 3b 36 ce 27 3c c7 51 08 3b
       0.010092696 0.0077522495 0.010242036 0.0020800696
0000c0 2e f9 1b 3c 25 76 02 bc e0 34 d1 3a 2d ed ed 3b
       0.009519858 -0.007962738 0.0015961193 0.0072609396
0000d0 ac dc 42 bc 3a 13 27 3c fd 10 c3 bb c4 9c 1a ba
       -0.011893433 0.010197455 -0.005952953 -0.00058979937
0000e0 f2 75 8f 3b a2 34 6d bb ad 25 84 bb e9 0a 6b bb
       0.004378074 -0.0036194702 -0.0040328116 -0.0035864657
0000f0 df fd 1e 3c 08 d3 22 bc 0b 8e f6 bb a9 4a 72 bb
       0.009704082 -0.009938009 -0.007524257 -0.003697077

base.mlp.fc_h.0.weight f4 [64, 64]
000000 20 24 09 3d 93 ad 17 be 0b 51 24 3d ba b4 21 3e
       0.033481717 -0.14812307 0.04011635 0.15791598
000010 5e e3 85 be be 42 3c 3e 8e 2c c9 bd b0 b6 36 be
       -0.2615003 0.18384835 -0.09822951 -0.17843127
000020 3a 72 7b be 83 e7 56 3e f7 fa 71 3d 5c c5 0c bf
       -0.24555293 0.20986752 0.05907723 -0.54988647
000030 b4 eb a9 be 71 c9 9e bd 09 6e 82 be b8 29 6e 3e
       -0.3318764 -0.07753266 -0.25474575 0.23258102
000040 f8 34 11 bd a4 54 94 3e 7b e2 2c 3e bd 64 bd bb
       -0.035450906 0.28970826 0.1688327 -0.005779831
000050 08 6f ab bd 17 ff 99 3c 5f f3 c1 3e 3c ed b9 be
       -0.08370787 0.018798394 0.3788099 -0.36313808
000060 53 e4 20 be bd c6 01 3e 22 b4 90 be 88 04 24 3e
       -0.15712099 0.12673469 -0.2826243 0.16017354
000070 b8 de 93 3e 80 56 30 bb 34 33 b6 bd c7 64 09 be
       0.28880858 -0.0026907027 -0.08896485 -0.1341735
000080 7f e6 d8 3e 1a 25 99 bb b8 f8 04 3c 73 d1 26 be
       0.42363355 -0.0046736123 0.00811594 -0.16290836
000090 20 b2 70 3c c2 25 e8 be cc 68 c3 be 22 f9 0c bd
       0.014690906 -0.45341307 -0.3816589 -0.03441728
0000a0 bf 71 29 bd 27 f3 83 3d 68 a3 19 bd 8d f3 4b be
       -0.041368242 0.06442862 -0.037509352 -0.19917126
0000b0 51 07 ad 3e f6 b5 1f 3b 74 e0 30 bd 9a 0a 58 3e
       0.33794644 0.0024369932 -0.043182805 0.21097794
0000c0 3c 43 bf bd 9b 34 3d 3d e1 5a a0 3e 8b 29 9c be
       -0.09338996 0.046192747 0.31319335 -0.30500445
0000d0 11 a8 76 3e 6a 95 b7 3d f3 a1 74 3e 36 89 2e be
       0.2408755 0.08964045 0.23889904 -0.1704453
0000e0 ae 6d 64 be 46 3b 09 3c 22 f1 23 3e 84 7b 9f 3d
       -0.22307464 0.008375948 0.16009954 0.077872306
0000f0 ca 2d 24 be 6b 29 d7 bd fd 68 2e be a7 8e 0e be
       -0.16033092 -0.10505947 -0.17032237 -0.13921605
000100 7f 1e bc 3e 90 75 2e bd 45 30 24 3d 88 5e 4f be
       0.36742017 -0.042592585 0.040085096 -0.20250905
000110 33 a0 eb 3d 76 12 1d 3f fb 3b 1e bf 34 34 e7 bd
       0.11505165 0.61356294 -0.6181027 -0.11289254
000120 e3 6b ae bd 7b 0d fe 3c 1e 66 97 be 0c b3 25 3d
       -0.085166715 0.031012287 -0.29570097 0.040453956
000130 28 6d 6a 3d 47 16 0f 3c 30 f0 64 be b4 42 22 3d
       0.057233006 0.008733339 -0.2235725 0.039614394
000140 6d 8d 09 3d 2f 71 48 be 5b 24 04 3e f6 78 11 3d
       0.03358214 -0.19574426 0.12904494 0.035515748
000150 03 80 01 3e 37 d9 a9 bc 95 65 9e 3d 53 4a 8b bd
       0.12646489 -0.020733459 0.07734219 -0.068012856
000160 d8 ff 47 bc 8a 10 db be 63 0c c8 3d 2a 09 9b 3e
       -0.012206994 -0.42786056 0.097679876 0.3028043
000170 99 cb 40 be 79 32 61 3e 26 80 87 3d 31 c0 b6 bb
       -0.18827666 0.2199191 0.06616239 -0.00557711
000180 79 fa 6d be a0 cf dd 3d 23 97 ae bd 7c fd fe 3d
       -0.23240079 0.10830617 -0.08524921 0.12450692
000190 8b ca 82 be 86 f5 bd 3d 18 98 61 3e 11 9e 1b 3e
       -0.25545153 0.092753455 0.22030675 0.15197016
0001a0 ba b2 a3 be f0 a5 12 3d 27 92 73 3e 25 af 58 be
       -0.31972295 0.03580278 0.23786221 -0.21160562
0001b0 87 b0 d1 3e 9e 1d 79 be 59 66 03 3e 32 69 d7 3d
       0.40954992 -0.24327704 0.12832011 0.10518111
0001c0 80 58 1b 3d 5b 4d 00 3e a7 f0 0f 3d 67 bc 98 3e
       0.037926197 0.12529509 0.035141613 0.2983124
0001d0 9f 3a 71 bd 5d c7 b3 be 1d fe 10 3e cb 3a 7c be
       -0.058893796 -0.3511304 0.14159437 -0.24631803
0001e0 00 f7 c9 bd c7 01 dc bd e9 39 df 3d 82 56 4f 3e
       -0.09861565 -0.107425265 0.10899717 0.20247844
0001f0 a5 f4 1d 3e 18 02 1c be b0 7c 8c 3e 49 64 96 3b
       0.15425356 -0.15235174 0.2743888 0.0045895916
000200 2e 70 94 be f4 70 7c 3e 87 6c 5a 3e a7 f7 9f bd
       -0.28991836 0.24652463 0.21330462 -0.07810908
000210 52 a9 86 3c 38 97 db bd 67 12 8f bc 59 07 22 3e
       0.01643816 -0.10722202 -0.01746483 0.15823115
000220 85 2f 8c be 06 b2 67 3e cb 50 3f be 44 20 25 be
       -0.27380005 0.22626504 -0.18683164 -0.1612559
000230 41 7a ee 3e fb 37 0b 3d 96 16 b4 bd aa 2a 0f 3c
       0.46577647 0.033988934 -0.087933704 0.008738199
000240 a5 8d dc bd b8 e4 d6 3e 4c e9 29 3e 30 d1 e5 3e
       -0.10769204 0.41971374 0.16592902 0.4488616
000250 72 37 39 3e d4 2d 69 be 16 b4 a3 3e 74 0f a9 3e
       0.18087557 -0.22771388 0.31973332 0.33019602
000260 96 07 58 3e aa db 7c 3e 2c 5f 76 3e 84 03 4c 3e
       0.21096644 0.2469317 0.24059743 0.19923216
000270 4c 29 e0 bd ce e1 1f bd f7 c6 1c be 9b 14 26 be
       -0.10945377 -0.039033704 -0.15310274 -0.16218798
000280 fd 2f d0 3c 23 6c 20 bb bb 59 98 be 08 ed 26 3e
       0.025413508 -0.0024478517 -0.2975596 0.16301358
000290 c0 70 ea bb 23 2d 2b be 72 5e 69 bd ed 51 f5 3d
       -0.007154554 -0.16716437 -0.056974836 0.11978517
0002a0 99 c6 f0 bb 8a 09 2c 3c de f5 a1 3e b2 c7 d5 3d
       -0.0073478934 0.010500321 0.31632894 0.104384795
0002b0 40 33 f3 bd 16 5b 46 3d 10 72 69 be 28 10 82 3d
       -0.118750095 0.04842671 -0.22797418 0.06350738
0002c0 a1 03 1b be dc f6 10 3e 17 fe 8a 3d aa dc 9a 3e
       -0.15138103 0.1415667 0.06786745 0.30246478
0002d0 02 eb 1b be 74 a2 64 3e a8 b6 bf 3e 93 e9 8d bc
       -0.15226367 0.22327596 0.37444043 -0.01732329
0002e0 2a 95 d2 3b c3 c7 ed bd 05 48 48 be f2 48 01 bf
       0.006426473 -0.11610367 -0.19558723 -0.5050193
0002f0 1e 05 c6 3d 9b 7b 8f be bc 67 fe 3d a4 7b 58 3e
       0.09668945 -0.2802399 0.124221295 0.21140915
000300 13 4e fb 3d a0 f4 a7 be 9e 2e 84 bd 73 47 a7 3b
       0.12270751 -0.32803822 -0.06454204 0.005104953
000310 00 ed c2 bd 44 eb 99 be cc a3 1a 3d 9a 31 f5 3d
       -0.095178604 -0.30062306 0.037753865 0.11972351
000320 e3 32 71 be 33 ac de 3e c0 87 45 be ed ba 17 be
       -0.23554568 0.43490753 -0.19290066 -0.148174
000330 5e 5c 11 bd f7 f0 8a bc 10 d0 83 3e 5f ea f4 be
       -0.03548848 -0.016960604 0.25744677 -0.4783506
000340 72 59 41 bd 0f 90 85 bd 70 81 1c be 24 8c 27 3e
       -0.047204442 -0.065216176 -0.15283751 0.16362053
000350 83 ee fc bd a6 86 83 bc bf 02 04 3e 26 86 a5 bd
       -0.1235018 -0.016055416 0.12891673 -0.080822274
000360 f3 08 ed 3e a9 f7 60 be bd 64 a2 be 92 74 1a bd
       0.4629589 -0.21969475 -0.31717482 -0.037708826
000370 2a 35 1f be 64 2a f1 3d 5d 45 e9 be 46 77 53 bd
       -0.15547624 0.117756635 -0.45560732 -0.05162742
000380 8f 02 df 3d 61 41 35 be c6 58 b7 3e 3f 17 40 3d
       0.1088916 -0.17700721 0.35809916 0.04689717
000390 32 14 8c 3c 13 10 9c 3e a3 31 58 be 44 8d 0b be
       0.017099474 0.30481014 -0.21112685 -0.13628107
0003a0 c8 4b 6b 3e 81 ec 33 be c0 b5 4b 3e ee 99 bd be
       0.22978127 -0.17570688 0.19893551 -0.37031502
0003b0 29 81 30 bd 67 88 49 3e 90 84 94 bd cd 90 2c be
       -0.043091927 0.1968094 -0.07251847 -0.16852112
0003c0 6a 9d ee 3d 3f b6 23 3c fd 47 0b be a8 7b fc 3e
       0.11651118 0.009992181 -0.1360168 0.49313092
0003d0 ea 52 7c 3d 95 3d c1 bd 71 55 d0 3d 6b 4c 48 3c
       0.06160251 -0.09435574 0.10172547 0.012225251
0003e0 94 b1 69 3c 8b 31 69 be 76 18 42 3e 00 4b 92 3e
       0.014263529 -0.22772805 0.18954644 0.28572845
0003f0 20 47 a2 3d 71 4d b3 bd 52 a7 48 be 82 d5 51 be
       0.07923722 -0.08755005 -0.19595078 -0.20491603

base.mlp.fc_h.0.bias f4 [64]
000000 00 00 00 00 00 00 00 00 00 00 00 00 00 00 00 00
       0.0 0.0 0.0 0.0
000010 00 00 00 00 00 00 00 00 00 00 00 00 00 00 00 00
       0.0 0.0 0.0 0.0
000020 00 00 00 00 00 00 00 00 00 00 00 00 00 00 00 00
       0.0 0.0 0.0 0.0
000030 00 00 00 00 00 00 00 00 00 00 00 00 00 00 00 00
       0.0 0.0 0.0 0.0
000040 00 00 00 00 00 00 00 00 00 00 00 00 00 00 00 00
       0.0 0.0 0.0 0.0
000050 00 00 00 00 00 00 00 00 00 00 00 00 00 00 00 00
       0.0 0.0 0.0 0.0
000060 00 00 00 00 00 00 00 00 00 00 00 00 00 00 00 00
       0.0 0.0 0.0 0.0
000070 00 00 00 00 00 00 00 00 00 00 00 00 00 00 00 00
       0.0 0.0 0.0 0.0
000080 00 00 00 00 00 00 00 00 00 00 00 00 00 00 00 00
       0.0 0.0 0.0 0.0
000090 00 00 00 00 00 00 00 00 00 00 00 00 00 00 00 00
       0.0 0.0 0.0 0.0
0000a0 00 00 00 00 00 00 00 00 00 00 00 00 00 00 00 00
       0.0 0.0 0.0 0.0
0000b0 00 00 00 00 00 00 00 00 00 00 00 00 00 00 00 00
       0.0 0.0 0.0 0.0
0000c0 00 00 00 00 00 00 00 00 00 00 00 00 00 00 00 00
       0.0 0.0 0.0 0.0
0000d0 00 00 00 00 00 00 00 00 00 00 00 00 00 00 00 00
       0.0 0.0 0.0 0.0
0000e0 00 00 00 00 00 00 00 00 00 00 00 00 00 00 00 00
       0.0 0.0 0.0 0.0
0000f0 00 00 00 00 00 00 00 00 00 00 00 00 00 00 00 00
       0.0 0.0 0.0 0.0

base.mlp.fc_h.2.weight f4 [64]
000000 00 00 80 3f 00 00 80 3f 00 00 80 3f 00 00 80 3f
       1.0 1.0 1.0 1.0
000010 00 00 80 3f 00 00 80 3f 00 00 80 3f 00 00 80 3f
       1.0 1.0 1.0 1.0
000020 00 00 80 3f 00 00 80 3f 00 00 80 3f 00 00 80 3f
       1.0 1.0 1.0 1.0
000030 00 00 80 3f 00 00 80 3f 00 00 80 3f 00 00 80 3f
       1.0 1.0 1.0 1.0
000040 00 00 80 3f 00 00 80 3f 00 00 80 3f 00 00 80 3f
       1.0 1.0 1.0 1.0
000050 00 00 80 3f 00 00 80 3f 00 00 80 3f 00 00 80 3f
       1.0 1.0 1.0 1.0
000060 00 00 80 3f 00 00 80 3f 00 00 80 3f 00 00 80 3f
       1.0 1.0 1.0 1.0
000070 00 00 80 3f 00 00 80 3f 00 00 80 3f 00 00 80 3f
       1.0 1.0 1.0 1.0
000080 00 00 80 3f 00 00 80 3f 00 00 80 3f 00 00 80 3f
       1.0 1.0 1.0 1.0
000090 00 00 80 3f 00 00 80 3f 00 00 80 3f 00 00 80 3f
       1.0 1.0 1.0 1.0
0000a0 00 00 80 3f 00 00 80 3f 00 00 80 3f 00 00 80 3f
       1.0 1.0 1.0 1.0
0000b0 00 00 80 3f 00 00 80 3f 00 00 80 3f 00 00 80 3f
       1.0 1.0 1.0 1.0
0000c0 00 00 80 3f 00 00 80 3f 00 00 80 3f 00 00 80 3f
       1.0 1.0 1.0 1.0
0000d0 00 00 80 3f 00 00 80 3f 00 00 80 3f 00 00 80 3f
       1.0 1.0 1.0 1.0
0000e0 00 00 80 3f 00 00 80 3f 00 00 80 3f 00 00 80 3f
       1.0 1.0 1.0 1.0
0000f0 00 00 80 3f 00 00 80 3f 00 00 80 3f 00 00 80 3f
       1.0 1.0 1.0 1.0

base.mlp.fc_h.2.bias f4 [64]
000000 00 00 00 00 00 00 00 00 00 00 00 00 00 00 00 00
       0.0 0.0 0.0 0.0
000010 00 00 00 00 00 00 00 00 00 00 00 00 00 00 00 00
       0.0 0.0 0.0 0.0
000020 00 00 00 00 00 00 00 00 00 00 00 00 00 00 00 00
       0.0 0.0 0.0 0.0
000030 00 00 00 00 00 00 00 00 00 00 00 00 00 00 00 00
       0.0 0.0 0.0 0.0
000040 00 00 00 00 00 00 00 00 00 00 00 00 00 00 00 00
       0.0 0.0 0.0 0.0
000050 00 00 00 00 00 00 00 00 00 00 00 00 00 00 00 00
       0.0 0.0 0.0 0.0
000060 00 00 00 00 00 00 00 00 00 00 00 00 00 00 00 00
       0.0 0.0 0.0 0.0
000070 00 00 00 00 00 00 00 00 00 00 00 00 00 00 00 00
       0.0 0.0 0.0 0.0
000080 00 00 00 00 00 00 00 00 00 00 00 00 00 00 00 00
       0.0 0.0 0.0 0.0
000090 00 00 00 00 00 00 00 00 00 00 00 00 00 00 00 00
       0.0 0.0 0.0 0.0
0000a0 00 00 00 00 00 00 00 00 00 00 00 00 00 00 00 00
       0.0 0.0 0.0 0.0
0000b0 00 00 00 00 00 00 00 00 00 00 00 00 00 00 00 00
       0.0 0.0 0.0 0.0
0000c0 00 00 00 00 00 00 00 00 00 00 00 00 00 00 00 00
       0.0 0.0 0.0 0.0
0000d0 00 00 00 00 00 00 00 00 00 00 00 00 00 00 00 00
       0.0 0.0 0.0 0.0
0000e0 00 00 00 00 00 00 00 00 00 00 00 00 00 00 00 00
       0.0 0.0 0.0 0.0
0000f0 00 00 00 00 00 00 00 00 00 00 00 00 00 00 00 00
       0.0 0.0 0.0 0.0

base.mlp.fc2.0.0.weight f4 [64, 64]
000000 05 d6 0f 3d f9 c0 17 be d0 df 1d 3d b9 59 22 3e
       0.035116214 -0.14819707 0.038543522 0.15854539
000010 0c a3 89 be 47 51 39 3e 37 e9 ba bd 62 99 34 be
       -0.26882207 0.18097411 -0.091265135 -0.17636636
000020 ad f2 71 be cb 1a 4e 3e b1 7d 74 3d 24 f3 0b bf
       -0.2362773 0.20127408 0.05969018 -0.5466788
000030 1f d4 ad be ac 7e 9c bd 97 e0 81 be 9c 42 66 3e
       -0.33950898 -0.07641348 -0.2536666 0.22486347
000040 46 0c 1a bd c2 cf 97 3e 64 7e 2f 3e fb 4c 83 bc
       -0.03760936 0.29650694 0.17138058 -0.016027918
000050 e1 df a0 bd 9a 3f 96 3c b5 c8 be 3e 9e 15 ba be
       -0.078552015 0.018340874 0.37262502 -0.36344618
000060 d1 da 1a be 6a a8 f9 3d 66 31 8d be 69 b7 20 3e
       -0.15122534 0.121903256 -0.2757675 0.15694965
000070 d6 69 94 3e b9 2f 2d 3a 99 73 b5 bd d8 69 12 be
       0.28986996 0.00066065375 -0.08859939 -0.14298189
000080 3d 14 db 3e 1b e4 ba 39 6c cc 60 3c 65 9e 2f be
       0.42788878 0.00035646636 0.013720613 -0.17150266
000090 6d c4 a4 3c f6 46 ec be 14 47 bf be a0 ea d9 bc
       0.020113194 -0.4614789 -0.37358916 -0.026601136
0000a0 61 81 1e bd 2b 95 86 3d be f6 15 bd 49 25 4b be
       -0.038697604 0.0657142 -0.036612265 -0.19838442
0000b0 8a ed b0 3e b1 30 6d 3b 85 b8 0e bd 23 7d 59 3e
       0.34556228 0.0036192352 -0.03484394 0.21239142
0000c0 5e d4 b4 bd 6d b8 29 3d 8c dc 9c 3e 2e 28 9f be
       -0.08829568 0.041435648 0.30637014 -0.31085342
0000d0 8a e5 76 3e dd 26 aa 3d 65 49 7c 3e 55 20 32 be
       0.24111 0.08308194 0.24637373 -0.17395146
0000e0 0b f5 5f be 8a b4 ea 3b da ba 29 3e 77 4a 97 3d
       -0.2187082 0.007162635 0.16575184 0.0738725
0000f0 56 dc 21 be b2 63 dd bd c0 c8 31 be a9 fe 10 be
       -0.15806708 -0.10810031 -0.17361736 -0.14159645
000100 f8 5d bc 3e 3b 80 33 bd e7 0f 2a 3d af e1 4b be
       0.36790442 -0.043823462 0.041519072 -0.1991031
000110 19 84 e8 3d 4c 5a 1d 3f 1a 28 1f bf 7b eb f7 bd
       0.11353321 0.6146591 -0.62170565 -0.12105461
000120 1f 8f a7 bd 7b 30 d7 3c a3 52 95 be 74 6d 43 3d
       -0.08181595 0.026268234 -0.2916461 0.047711805
000130 f0 3c 75 3d 81 67 12 3c 5e 9f 63 be 33 df 0c 3d
       0.059872568 0.00893581 -0.22228763 0.034392547
000140 f1 19 09 3d 86 58 42 be 7b 5f 07 3e 2f 22 02 3d
       0.033472005 -0.18979082 0.13220017 0.03177088
000150 ff 0e 08 3e fc 8d 69 bc 39 8f 99 3d 73 b3 99 bd
       0.1328697 -0.014255043 0.07498021 -0.0750493
000160 e0 06 6e bc a4 3e dc be 86 98 bc 3d d1 e2 99 3e
       -0.014528006 -0.4301654 0.09208779 0.3005586
000170 f7 30 40 be fe 7a 5e 3e 95 27 86 3d a6 d4 45 bc
       -0.18768679 0.21726605 0.065505184 -0.012074625
000180 86 24 69 be f6 bc de 3d 32 3e ad bd ff 63 f8 3d
       -0.22767839 0.10875885 -0.084591284 0.12128448
000190 c1 cd 7f be 7b 40 b8 3d 0d 13 67 3e 44 ec 1b 3e
       -0.24980833 0.08996674 0.22565861 0.15226847
0001a0 3e 5e a4 be 47 c2 16 3d 8d d8 74 3e 32 da 5b be
       -0.3210315 0.03680637 0.23910733 -0.21469954
0001b0 72 08 d6 3e ae 6f 78 be ed e6 00 3e ae 9e e9 3d
       0.41803318 -0.24261352 0.12588091 0.11407219
0001c0 1b 8d 0d 3d 6d 13 fe 3d 3c 1e 0e 3d 29 72 99 3e
       0.034558397 0.12406049 0.034696802 0.2996991
0001d0 85 c2 62 bd 7b d6 b2 be 8e 34 11 3e 22 f0 7f be
       -0.05536129 -0.3492926 0.14180204 -0.24993947
0001e0 59 0c d5 bd 7e 65 d4 bd 7d f7 de 3d 65 9d 47 3e
       -0.10402746 -0.103709206 0.108870484 0.19493635
0001f0 1f 00 25 3e 99 2b 18 be 20 e7 8b 3e 59 c2 a1 ba
       0.16113327 -0.14860381 0.27324772 -0.0012341245
000200 28 59 92 be 50 0d 7d 3e 32 82 5d 3e 67 85 90 bd
       -0.28583646 0.2471211 0.21631697 -0.070566945
000210 66 5f 94 3c fa b7 e1 bd 03 a8 d1 bc 17 c8 1f 3e
       0.018111896 -0.11021419 -0.02559281 0.15603672
000220 90 bf 8a be fb 9f 6b 3e 4e 02 3a be ab d6 1e be
       -0.27099276 0.23010246 -0.18164942 -0.15511577
000230 af 34 f3 3e 8f 11 da 3c e8 e0 b9 bd 10 ef 53 3b
       0.47501132 0.0266197 -0.090761006 0.0032338537
000240 b1 f5 d2 bd 98 20 d6 3e c7 26 24 3e ec f9 e3 3e
       -0.10300768 0.41821742 0.16030417 0.44526613
000250 07 06 3e 3e f5 5e 66 be f6 2a a6 3e 7d af a6 3e
       0.18556987 -0.2249716 0.32454652 0.32555762
000260 57 27 54 3e 63 28 77 3e fb de 76 3e c6 cb 4e 3e
       0.20718132 0.241365 0.24108498 0.20194921
000270 9b 5c e4 bd 7a 35 2a bd d0 58 1f be 61 9c 2d be
       -0.111504756 -0.041554905 -0.15561223 -0.16954185
000280 73 18 ce 3c 9c d7 49 bb e5 92 9a be 91 e8 22 3e
       0.025158143 -0.003079868 -0.30190197 0.1590903
000290 d5 48 ba bb 45 29 2e be a9 0e 64 bd b2 02 f2 3d
       -0.005684952 -0.1700793 -0.055678044 0.1181692
0002a0 ec cc 20 bc 6a a9 37 3c 2e 19 a1 3e 55 4a d0 3d
       -0.009814482 0.011209825 0.31464523 0.10170428
0002b0 c1 15 f1 bd e0 b4 4c 3d 05 2e 66 be 0d 6e 7e 3d
       -0.11771727 0.049977183 -0.22478493 0.06211667
0002c0 c1 a4 1c be d0 6d 12 3e 07 56 95 3d 36 1a 99 3e
       -0.15297224 0.14299703 0.07291799 0.2990281
0002d0 61 dc 13 be a9 5e 5e 3e 88 9d c2 3e 66 1d b2 bc
       -0.14439537 0.21715797 0.38010812 -0.021742534
0002e0 f4 d0 5f 3b 23 69 ec bd 1e 46 44 be fa 4e 03 bf
       0.0034151645 -0.11543491 -0.19167373 -0.51292384
0002f0 f3 33 d1 3d 35 89 8d be 1d 74 00 3e 2f c1 57 3e
       0.10214987 -0.27643743 0.12544294 0.21069787
000300 af 1c f0 3d 1c ac a8 be 40 7a 97 bd b1 19 78 3c
       0.11724221 -0.3294381 -0.07396364 0.015142844
000310 b6 d1 c6 bd 05 4b 9b be 78 46 22 3d 47 eb fc 3d
       -0.09707968 -0.30330673 0.039617985 0.12349563
000320 10 12 6f be f1 b7 dd 3e fd da 42 be 15 4b 18 be
       -0.23346734 0.433044 -0.1902885 -0.14872392
000330 6b 40 f9 bc 06 f0 26 bc e3 dd 80 3e 11 d2 f8 be
       -0.030426225 -0.010189062 0.25169286 -0.48597768
000340 cc a2 3f bd 00 36 92 bd 85 4e 1a be ac 95 26 3e
       -0.046786115 -0.07139206 -0.15069015 0.16268033
000350 64 1e fc bd c7 66 18 bc d6 61 fd 3d df 9a a3 bd
       -0.12310484 -0.009301848 0.12372176 -0.07988524
000360 20 0b ef 3e e1 08 5b be 91 93 a0 be ed 28 35 bd
       0.46688175 -0.21390106 -0.31362584 -0.044228483
000370 eb fb 24 be ca ae f6 3d d6 29 ea be 75 9d 6f bd
       -0.16111724 0.12045057 -0.45735043 -0.058499772
000380 52 e6 da 3d 8c aa 35 be ee 44 b3 3e 39 60 2d 3d
       0.10688461 -0.1774084 0.35013527 0.042328093
000390 ab 2d b3 3c ed 07 9b 3e bc 30 51 be 6e 85 0e be
       0.021872362 0.30279484 -0.20428747 -0.13918087
0003a0 57 0a 6f 3e 09 5c 2b be e2 f7 44 3e 28 8b bc be
       0.23343788 -0.16734327 0.19235185 -0.36824918
0003b0 e2 65 2f bd da e4 48 3e df af 93 bd c2 b9 2f be
       -0.042821772 0.1961855 -0.07211279 -0.17160705
0003c0 14 fc e9 3d 1f c7 3a 3c bd 87 08 be 71 90 f9 3e
       0.11425033 0.011400013 -0.1333303 0.48743013
0003d0 2a ae 77 3d bd 38 c8 bd db dd d2 3d 11 02 98 3c
       0.06046883 -0.09776447 0.10296222 0.018555673
0003e0 b9 5b a8 3c 8b fc 6f be 10 9a 44 3e 5e 5f 95 3e
       0.02055155 -0.23436181 0.19199395 0.29174322
0003f0 e8 f8 a1 3d 7e c9 af bd 65 9d 4a be b7 1e 55 be
       0.07908803 -0.085833535 -0.19786604 -0.20812498

base.mlp.fc2.0.0.bias f4 [64]
000000 7e 5e e7 bb f0 10 74 3b 04 4f aa 3b 5e 64 22 3b
       -0.007060825 0.003724154 0.0051974077 0.0024779062
000010 e8 82 78 3b b5 83 89 bb e2 15 b7 3b 94 37 08 bc
       0.0037919823 -0.004196609 0.0055873254 -0.008314032
000020 59 58 3f bc b6 a7 c9 3b 62 2f c8 bb 42 18 fe bb
       -0.011678779 0.006154026 -0.006109164 -0.0077543566
000030 3d 8c ce 3b a5 64 11 bc 16 67 24 bc 75 ac 74 3b
       0.006303339 -0.008874093 -0.010034343 0.0037334238
000040 2d 6e 98 bb fd 77 b9 3b 00 3e ce bb a1 ac 76 bb
       -0.004651806 0.0056600557 -0.006294012 -0.0037639516
000050 05 46 24 bb 5b db bc bb 1d 4e f3 3b 3e 53 f0 ba
       -0.002506615 -0.005763454 0.0074250833 -0.0018335355
000060 e6 dd be bb b8 4d 4f ba 6d 46 fb 3b 9f 2e db 3a
       -0.005824792 -0.00079080043 0.0076683075 0.0016722268
000070 dd f8 11 3c ad 81 c0 3b 6a 0e 3b 3b f0 7b 41 3c
       0.008909431 0.0058748336 0.0028542527 0.011809334
000080 d9 c5 b1 3a 03 7c d5 bb f0 18 dc 3b c4 bd fc 3b
       0.0013562992 -0.0065150275 0.00671684 0.0077130515
000090 9c e0 03 3b 77 72 be 3a ed b8 ae 3a 07 6e 18 3c
       0.0020122891 0.0014529963 0.0013330259 0.009303576
0000a0 7d ac 65 bb 57 37 af 39 fe 00 b0 bb 6d 10 f7 3b
       -0.0035045438 0.00033419832 -0.005371212 0.0075398
0000b0 4d 32 2a bc 50 ad 86 3b 97 21 0f 3c b9 04 9f bb
       -0.010387969 0.004110016 0.008736036 -0.004852858
0000c0 1f 3a 8f bb ab e5 7a ba 81 73 d8 3b 56 59 db 3b
       -0.0043709422 -0.00095709664 0.006605566 0.0066939993
0000d0 c6 55 d1 bb 89 3d 96 bb e3 c7 cb 3b 36 cf c8 b9
       -0.006388399 -0.0045849723 0.0062188967 -0.00038301357
0000e0 30 45 0f 3c 3f 09 07 bb 98 c0 0d bb a6 15 e2 3b
       0.008744523 -0.0020604876 -0.0021629687 0.0068995534
0000f0 b4 6f a0 bb 23 e6 58 3b 75 63 ea 3b 23 16 41 bb
       -0.0048961286 0.0033096157 0.0071529695 -0.0029462657

base.mlp.fc2.0.2.weight f4 [64]
000000 e0 51 7f 3f 92 0b 81 3f 39 2c 80 3f 69 cc 7f 3f
       0.99734306 1.0081656 1.0013496 0.9992128
000010 18 c2 7e 3f 63 eb 7f 3f 60 07 7e 3f ec 80 80 3f
       0.99514914 0.99968547 0.99230003 1.0039344
000020 f5 78 80 3f c6 4f 80 3f d2 eb 80 3f 49 ef 80 3f
       1.0036913 1.0024345 1.0071967 1.0073024
000030 71 43 80 3f ce 17 80 3f ad c7 7f 3f fe 6d 80 3f
       1.0020581 1.0007265 0.99914056 1.0033567
000040 38 3c 80 3f af f5 7f 3f 19 20 7f 3f 7f 0e 81 3f
       1.0018377 0.9998426 0.9965835 1.0082549
000050 55 e1 80 3f 4b 2c 80 3f 86 f4 80 3f 8e 6e 7e 3f
       1.0068766 1.0013517 1.0074623 0.99387443
000060 7c 3c 80 3f 2b 3e 7e 3f da 43 7f 3f 84 28 80 3f
       1.0018458 0.9931361 0.9971291 1.0012364
000070 8d d7 7f 3f 90 a5 80 3f fb 40 80 3f 98 55 7e 3f
       0.9993828 1.0050526 1.001983 0.99349356
000080 1a 7d 80 3f b9 08 81 3f 85 cb 7d 3f 13 00 80 3f
       1.0038178 1.0080787 0.9913867 1.0000023
000090 bb e0 7e 3f 6e f3 7d 3f 90 b7 7f 3f dd 27 80 3f
       0.9956166 0.9919957 0.9988947 1.0012165
0000a0 6d 13 80 3f 43 3b 80 3f bd ad 80 3f 8d 2b 7f 3f
       1.0005928 1.0018085 1.0053021 0.9967583
0000b0 40 0d 80 3f 8c 68 80 3f dd d8 80 3f c4 d8 7d 3f
       1.0004044 1.0031905 1.0066181 0.99158883
0000c0 2d 71 7e 3f 4c 2f 7e 3f 7f 9e 7d 3f e1 ed 80 3f
       0.9939144 0.9929092 0.9906997 1.0072595
0000d0 1e a7 7f 3f ec cb 7f 3f 7c db 7d 3f 37 96 7f 3f
       0.99864376 0.99920535 0.9916303 0.99838585
0000e0 21 4e 7e 3f 4f b6 7e 3f 21 8e 7f 3f db 72 80 3f
       0.99337965 0.9949693 0.99826247 1.0035051
0000f0 5b e3 7e 3f f6 98 80 3f 11 08 7e 3f a0 3e 80 3f
       0.99565667 1.004668 0.9923106 1.0019112

base.mlp.fc2.0.2.bias f4 [64]
000000 72 6d 67 bb 23 da 31 3b c6 2f 1d 3c d0 2f 9b 3b
       -0.0035313037 0.0027138076 0.00959391 0.0047359243
000010 3c c4 05 3c 93 7c 98 bb e1 0b 0b 3c 51 ea 69 b8
       0.008164462 -0.0046535223 0.008486719 -5.5769753e-05
000020 0e 69 22 bc d2 86 87 3b 0d e2 e6 bb c1 74 8b bb
       -0.009912742 0.004135945 -0.0070459903 -0.0042558615
000030 bd 33 ef 3b ae ce 12 bc 88 c0 2c bc df e6 86 3b
       0.007299869 -0.008960409 -0.01054395 0.0041168774
000040 8f 05 b9 b9 d4 ac c0 3b 08 bb 0d bc 12 ad 04 bc
       -0.0003529009 0.0058799777 -0.008650549 -0.008097904
000050 57 36 69 bb 53 17 10 38 de 37 eb 3b 46 79 b7 ba
       -0.0035585368 3.4353998e-05 0.0071782907 -0.0013997934
000060 5d 2d 71 bb 93 07 0b bc 4a 2a 29 3c 78 93 08 3a
       -0.003680072 -0.008485693 0.010325024 0.0005209963
000070 db 32 0d 3c 2f c2 13 3c 28 5b 07 3b fa eb 45 3c
       0.008618082 0.009018465 0.0020653699 0.012080187
000080 03 bb 71 3b e7 8a f0 ba 8e 6d f8 3b 0e bf 20 3c
       0.003688515 -0.0018351943 0.0075814193 0.009811176
000090 4f 00 ab bb 3b 61 9f ba f0 59 6f ba 64 21 41 3c
       -0.0052185426 -0.0012159714 -0.0009130528 0.011787746
0000a0 52 b7 9d 3a 9b 11 21 bc 4f 37 7b 3b 1d 63 17 3c
       0.0012032783 -0.009830858 0.0038332527 0.009239939
0000b0 89 6a 45 bc 70 43 a1 39 12 fa 21 3c 4e 79 7f bb
       -0.012049326 0.00030758558 0.009886282 -0.0038982215
0000c0 5d 33 d1 bb 91 c0 c1 3a c0 50 06 3c 7e df 30 3b
       -0.006384297 0.0014782121 0.008197963 0.002698868
0000d0 eb 9e 26 bb 16 2b 74 b9 16 8d ff 3b 5e 62 f6 3b
       -0.0025424312 -0.00023285704 0.007798801 0.0075190505
0000e0 ea a6 40 3c 30 99 e4 bb fd a7 0e bb 29 0d 07 3c
       0.011758545 -0.006976269 -0.002176761 0.008242884
0000f0 4b ff f5 bb 64 bb d5 3b dd 1c 0f 3c e9 ab 95 bb
       -0.00750724 0.006522583 0.008734909 -0.0045676124

rnn.rnn.weight_ih_l0 f4 [192, 64]
000000 7f ee 32 bd ee 84 57 bd 84 50 81 bc 89 82 1f 3d
       -0.04368448 -0.052617006 -0.015785463 0.038942847
000010 c6 64 56 3a 2b 61 61 3d 07 af 11 bd 92 8f 58 3c
       0.00081784686 0.055024307 -0.03556731 0.013217824
000020 19 c1 69 bc dc 6f 2d bd 04 30 0f 3e a8 7a e2 bb
       -0.0142672295 -0.042343006 0.1398316 -0.0069115944
000030 bc e3 b1 bc 79 5d cd 3c 8e 49 94 bd 35 c5 7c 3d
       -0.021715038 0.025068985 -0.07240592 0.06171151
000040 5b db 3f bd 67 71 b5 bc 3d 90 1b bd 29 45 18 bc
       -0.046840053 -0.022148801 -0.037979353 -0.009293833
000050 08 94 5c bd b9 35 41 3b 41 03 e0 bd b5 e3 fa bd
       -0.05385211 0.0029481484 -0.10938121 -0.12250463
000060 93 4e 63 bd 73 17 2e 3d 1e 5a 8a 3d 73 37 39 3c
       -0.055494856 0.04250283 0.0675547 0.011304724
000070 56 37 a8 3c 70 31 b7 bc 7f c0 df bd b8 37 66 bc
       0.020534199 -0.02236244 -0.109253876 -0.01405137
000080 31 a3 80 bd fe 9c 9e 3d a1 6d dd 3d 14 e5 81 bd
       -0.06281126 0.07744788 0.10811926 -0.06342521
000090 70 69 85 3d 1f 08 eb 3d ba a3 47 3d b6 04 db 3c
       0.06514251 0.11476158 0.048740126 0.026735645
0000a0 51 c4 af bd ac 68 a4 3d f1 be 59 bd 6b 0f a8 bb
       -0.08582366 0.08027777 -0.05316061 -0.005128791
0000b0 95 1c eb 3d e8 f4 96 bd aa f3 1c be 43 6e a0 bc
       0.11480061 -0.07370931 -0.15327325 -0.019583827
0000c0 e1 14 00 3e 23 ef c5 3d 0a 34 59 3d 23 cf 8c bc
       0.12507965 0.09664752 0.053028144 -0.017188614
0000d0 87 a1 20 be 01 d8 7f bd ea 47 a6 bc 75 cc 49 bd
       -0.15686618 -0.062461857 -0.020297963 -0.04926725
0000e0 6d f4 bf 3b 3c ff c5 3d 60 1b d1 bc b0 b8 12 3c
       0.0058579952 0.09667823 -0.025525749 0.008955166
0000f0 04 b3 7c 3d 95 f6 bc bd eb 62 3e bd be 12 37 3c
       0.06169416 -0.09226719 -0.046481054 0.011173902
000100 0d 3e e9 bc 22 e1 87 bd fa 92 41 bd 7b df 1e 3e
       -0.02847197 -0.066347376 -0.04725931 0.15514939
000110 68 15 57 3e 52 c2 ae 3d c1 3e 70 3d b6 e4 0f 3e
       0.2100426 0.085331574 0.058653597 0.1405209
000120 f7 c2 3c 3c f5 0a 9e 3d 55 d9 a2 bd ff 68 04 be
       0.011521093 0.07716934 -0.07951609 -0.12930678
000130 b8 12 26 bc f6 b4 04 3d 23 9b e4 3d 5f b4 55 be
       -0.010136299 0.03239914 0.111624025 -0.20869587
000140 80 ed 38 bc c9 20 cf bd 33 7f 03 be d3 92 0e bd
       -0.011287093 -0.10113675 -0.12841491 -0.03480799
000150 c5 a7 a8 3c 9f be ba bb 7c 09 61 3d e4 99 f9 bd
       0.020587811 -0.0056989933 0.054940686 -0.121875554
000160 dd 39 13 3d 02 ab b8 bc 91 c0 0b bc b6 1f 29 3d
       0.035943855 -0.02254248 -0.008529798 0.041290008
000170 a2 1e 98 bd 06 3c 28 3d 3b b5 64 bd a3 0e 07 bd
       -0.07427718 0.041072868 -0.055836897 -0.032972943
000180 b2 bc 2c bd 36 0a 22 bd f7 9d 70 bc 39 7c 22 3d
       -0.04217214 -0.03956052 -0.014686099 0.03966925
000190 f9 36 26 bc c6 c0 67 3d e6 07 19 bd f8 c9 f0 bd
       -0.010144942 0.056580327 -0.03736105 -0.117572725
0001a0 02 5a 41 bd a6 ab 83 bd 5c 4c 28 bc 50 6f 73 3d
       -0.04720498 -0.06429224 -0.010272112 0.059432328
0001b0 65 5f 00 3e 0b d0 d7 3d 04 a5 3f bc 0a d8 00 bd
       0.1253639 0.10537728 -0.011697058 -0.03145603
0001c0 ff 0d 1f 3c c9 21 a3 bc 1a e5 d5 3d 05 d0 bb 3c
       0.009707927 -0.019913571 0.10444088 0.02292634
0001d0 a2 b5 de bc 87 6a 8d bc 9a 64 f4 3d f4 a2 e9 bc
       -0.027186219 -0.01726271 0.11933251 -0.028520085
0001e0 c0 1f b1 3d 2c ca 5a 3d 09 2a c7 3d 0c 1f fd 39
       0.08648634 0.053415462 0.097248144 0.00048279052
0001f0 6e aa 69 bd e0 ea 9c 3d 00 b6 ef 3d d3 c6 c8 3c
       -0.0570473 0.07661986 0.117046356 0.02450887
000200 ed 2a 38 3c 4b 6e 2e bc 3f 44 24 3d 73 ee 00 3e
       0.011240703 -0.010646413 0.040104147 0.12590961
000210 61 a0 ef 3a 20 cc 03 3e ad e8 16 bc 80 3a b3 3d
       0.001828205 0.12870836 -0.009210748 0.08751392
000220 08 b7 f8 3c 9f 3f 92 bc c1 de 5c 3d e2 6b e3 bc
       0.030360714 -0.017852603 0.053923372 -0.027761403
000230 8e 3b 03 3e 20 49 c2 bc a3 31 87 bd eb 6d 31 bd
       0.12815687 -0.02371651 -0.06601264 -0.043317717
000240 5c 3e 08 3e fc bb cc 3c 4a ac 47 3d c3 54 63 bc
       0.13305038 0.024991982 0.048748292 -0.013875189
000250 a0 9d c9 3c 58 f8 c1 3d f1 5a 27 3d 04 6a b8 3c
       0.024611294 0.09471196 0.040858213 0.02251149
000260 c0 52 95 3d 1a 76 7f 3c b0 ef 43 bd 44 d5 60 3d
       0.07291174 0.015592122 -0.047836006 0.054890886
000270 36 ef e9 bc 70 e4 48 bd c4 cd 81 bd 93 a3 43 bc
       -0.028556447 -0.04904598 -0.06338075 -0.011940855
000280 e2 2f 0d be 80 8b f9 bc e9 51 f8 3a 57 29 b8 3c
       -0.13787797 -0.030462027 0.001894531 0.02248065
000290 fb f3 37 3d 30 ab d6 bd d1 c2 d2 bc a2 a6 03 bd
       0.044910412 -0.1048187 -0.025727661 -0.032141335
0002a0 2e ec 20 be 18 4f 2c be 1b 3d bc bc 90 0a dc bd
       -0.15715095 -0.16827047 -0.022978356 -0.10744202
0002b0 18 08 bb 3d 07 bd 89 bd 2f fd 8d 3d 19 22 35 bd
       0.09132403 -0.06725507 0.069330566 -0.04422197
0002c0 03 e1 24 3d fb f1 e0 3c 77 73 82 3d 2e 6b d7 3c
       0.04025365 0.027459135 0.063696794 0.026296224
0002d0 b7 30 2c bc 58 20 c6 bb bb c2 c5 bc 57 28 94 bd
       -0.010509661 -0.006046336 -0.024140706 -0.07234257
0002e0 e4 b5 8b bc b9 d8 04 3d 05 10 24 3d 51 95 a5 3d
       -0.017054506 0.032433245 0.04005434 0.080851205
0002f0 9e 20 10 bd 70 85 f5 bd 2d 45 f6 3d b8 44 ce bd
       -0.035187356 -0.11988342 0.12024913 -0.10071701
000300 90 88 e7 3c 99 cb 2e 3e 4a 03 95 bd 9c 51 66 bd
       0.02826336 0.17069854 -0.07276018 -0.056230173
000310 12 bb 03 3c 8b c9 46 bd 32 bc fd bd f4 2d a8 3d
       0.0080402065 -0.04853205 -0.12389411 0.0821189
000320 74 a4 9b bd 44 04 54 bd c9 6b 8b bd 4b 5c 8e 39
       -0.07599726 -0.05176188 -0.06807668 0.00027153114
000330 dd 63 2a 3c 8b e8 54 3c be 6c 59 bc 8b 90 c1 bd
       0.010399786 0.012994896 -0.013270555 -0.094513975
000340 48 65 3b 3d a3 5f f7 3d 62 5e c5 bc 51 8c 68 bd
       0.045750886 0.12078788 -0.024092857 -0.05677444
000350 46 3d 26 bd bb ad 27 bd ed 2b 31 bd 47 63 0f be
       -0.04058578 -0.040937167 -0.04325478 -0.14002715
000360 6a ba 37 be 2d 27 87 bd a0 ee 5f bd 62 05 81 3d
       -0.17942205 -0.06599269 -0.05467093 0.06299855
000370 92 b2 d0 bc 3b d6 3c bd 29 16 b5 3c 1f 0b d5 bd
       -0.025475774 -0.046102744 0.022105293 -0.10402512
000380 19 32 d5 bc f2 14 84 3b ec 68 f2 3d 77 75 a2 bc
       -0.026024865 0.004030817 0.118364185 -0.019831402
000390 31 4d 30 3c 1e 6f 87 3b 80 3d 95 bc e2 7c 00 bd
       0.010760591 0.0041331192 -0.018217802 -0.031369098
0003a0 48 e7 87 bc 0d 9a 00 be 9a 15 14 3d 2c 2a f2 bc
       -0.016589776 -0.12558766 0.036153413 -0.029561125
0003b0 0a fb ca 3c 60 63 50 3b 67 68 8d bc 7e 3d 73 bd
       0.024777908 0.0031797513 -0.017261697 -0.059384815
0003c0 d8 6e 2e bd ff 20 a3 bc fc 3c d6 3c 88 41 7d 3c
       -0.042586178 -0.019913195 0.026152126 0.015457518
0003d0 ea 38 ae 3d c2 13 73 bd b8 52 38 3d d8 e3 6a bc
       0.08506949 -0.059345014 0.04500076 -0.014336549
0003e0 ac f8 7e 3d ac 46 0d be 86 83 30 bd b0 2e 9c bd
       0.06224887 -0.1379649 -0.04309418 -0.076260924
0003f0 27 ac ff 3d bf ee 9b 3d a7 d0 c6 3c a3 33 e7 3c
       0.12484007 0.076138966 0.024269415 0.028222864
