onpolicy/scripts/results/MPE/simple_spread/rmappo/check/wandb/run-20220704_212349-161ulbh1/files/critic.pt (torch, 156012 bytes, 21 tensors)

base.feature_norm.weight f4 [54]
0.99395055 1.0082235 0.9992126 1.0093845 0.996203 1.0015119 0.99573314 1.0010741
1.0030594 0.9994198 1.0079266 0.997319 1.0033529 1.005586 0.9992249 0.99429506
0.9993729 0.99832505 1.0041595 0.9889316 1.0000612 0.99605465 0.9976151 1.0027603
1.0009527 1.0041277 0.9934333 1.0001581 0.99980325 0.997069 0.998564 0.9967383
0.9939504 0.99411047 1.0049218 1.0000014 1.0056114 0.9931789 0.99975145 0.9999105
1.0069026 0.99885505 1.0111879 0.9961634 0.9998684 1.0034522 0.99699986 1.0039066
1.004154 0.9971901 0.9931166 0.99528307 1.0036664 1.0009302
00000000: 8b73 7e3f 780d 813f 66cc 7f3f 8333 813f
00000010: 2907 7f3f 8b31 803f 5ee8 7e3f 3223 803f
00000020: 4064 803f fad9 7f3f bd03 813f 4c50 7f3f
00000030: de6d 803f 0bb7 803f 34cd 7f3f 1f8a 7e3f
00000040: e7d6 7f3f 3b92 7f3f 4c88 803f 9f2a 7d3f
00000050: 0102 803f 70fd 7e3f b463 7f3f 735a 803f
00000060: 381f 803f 4287 803f a551 7e3f 2e05 803f
00000070: 1bf3 7f3f ea3f 7f3f e4a1 7f3f 3e2a 7f3f
00000080: 8973 7e3f 067e 7e3f 47a1 803f 0c00 803f
00000090: e0b7 803f f940 7e3f b6ef 7f3f 22fa 7f3f
000000a0: 2fe2 803f f7b4 7f3f 9b6e 813f 9104 7f3f
000000b0: 60f7 7f3f 1f71 803f 623b 7f3f 0380 803f
000000c0: 1e88 803f da47 7f3f e43c 7e3f dfca 7e3f
000000d0: 2478 803f 7b1e 803f

base.feature_norm.bias f4 [54]
-0.007756083 -0.0046132314 -0.0030130325 -0.008568458 0.009942058 -0.005318436 0.010281523 -0.0064915693
-0.0038403168 0.004178989 -0.0001665326 0.003728306 0.0045080795 0.0068841213 -0.006219227 0.004861842
-0.0083982805 -0.011396195 0.0009029083 -0.0021104377 -0.0020340066 0.005550326 -0.0042833323 0.008611953
0.0025184408 0.0068427427 -0.0026483377 -0.0033675223 -0.0032788161 0.0027684318 0.00120423 -0.008696155
0.006407297 0.012464033 -0.0115593 0.0034068306 -0.0021000027 -0.004490723 -0.0062986007 -0.009249948
-0.0056514745 -0.003521446 0.0033892419 0.008115976 0.009721489 0.008268797 -0.0012113095 -0.004218048
-0.011322762 -0.010926621 -0.00045517567 0.0017919771 0.006116439 -0.009613501
00000000: bd26 febb 972a 97bb 4c76 45bb b862 0cbc
00000010: 03e4 223c 4646 aebb d573 283c 3bb7 d4bb
00000020: d3ad 7bbb e7ef 883b 419f 2eb9 9856 743b
00000030: 83b8 933b 3294 e13b a8ca cbbb 1650 9f3b
00000040: f198 09bc 1bb7 3abc 26b1 6c3a 454f 0abb
00000050: f84c 05bb 82df b53b 325b 8cbb 2619 0d3c
00000060: 6d0c 253b 1639 e03b bc8f 2dbb a6b1 5cbb
00000070: 68e1 56bb 946e 353b 41d7 9d3a 517a 0ebc
00000080: 4ef4 d13b f235 4c3c 3863 3dbc 2245 5f3b
00000090: 33a0 09bb ea26 93bb 7e64 cebb 188d 17bc
000000a0: 0130 b9bb 0fc8 66bb 0b1e 5e3b dff8 043c
000000b0: e146 1f3c d979 073c cdc4 9eba 8d37 8abb
000000c0: 1b83 39bc 9205 33bc a5a4 eeb9 c6e0 ea3a
000000d0: 696c c83b f281 1dbc

base.mlp.fc1.0.weight f4 [64, 54]
-0.17959206 0.42156744 0.10624621 0.20348752 -0.10381926 -0.024312273 -0.05243748 0.01849315
0.116801254 0.100727335 0.20399879 -0.17207024 -0.1976796 0.06543196 -0.26750588 0.35606754
0.16809124 0.5601274 -0.13029444 -0.30238795 -0.1868812 -0.16528586 -0.10478467 0.16862345
0.2755766 0.11745085 0.09739015 0.16690327 0.0035497493 0.15994433 0.28345743 0.22420442
0.39322257 -0.34047332 -0.075993836 -0.2695053 0.043537803 0.041077457 -0.10384543 -0.04695807
-0.22732835 -0.155417 0.11837274 0.078224786 -0.2857803 0.13356577 0.3344218 0.22983925
0.3073102 -0.12304965 -0.15609187 -0.012378968 -0.010217164 -0.027295366 0.28408274 0.09444871
0.22227061 -0.014388576 -0.09552269 0.13133492 0.4306298 -0.17066813 0.6623551 0.25639486
0.090871714 -0.16918303 -0.066848345 0.044299167 0.28380632 0.10698657 0.022783669 -0.27496275
0.31758645 -0.13772978 0.11235445 0.27822408 -0.0953878 0.05304635 0.04679796 -0.32905847
-0.18943614 0.047800854 -0.29272145 0.22955394 0.19869632 -0.17477953 0.055933468 0.0147047555
-0.08536183 -0.021322513 0.2249221 0.15852585 0.11742821 0.14460403 -0.024089731 0.16804858
-0.37977868 -0.06771738 -0.07337217 -0.20128992 0.019399839 -0.03385358 0.03379134 -0.27568755
-0.18240374 0.009909318 0.47910365 0.1436272 0.35535738 0.1647072 -0.052990686 -0.61315954
0.16076297 0.15336633 0.053734988 0.04538164 -0.116760194 0.18399899 0.15622953 0.073962465
0.1268689 0.09754747 -0.041603565 -0.12377386 0.1796635 0.22523457 0.23381448 -0.22798881
-0.11354155 0.12865925 0.34860772 -0.1872696 0.009377567 0.3867111 0.2598417 0.018000342
-0.05851855 0.2652684 -0.022986127 0.41873595 -0.2700905 0.055204332 -0.2213252 0.27903882
-0.09984591 -0.13493307 0.24039225 -0.03562368 0.45771736 -0.19653589 -0.28805655 0.23258165
-0.24730492 0.04649691 0.024345795 0.064700805 0.27751562 -0.13829225 -0.11216577 -0.09234217
0.15690476 -0.29619482 0.064164 0.034254387 -0.29648322 -0.25611904 0.025909374 -0.15416068
-0.07896303 0.27207017 -0.3545016 -0.030647544 0.17373116 0.07135332 -0.23451117 0.22518745
-0.07182358 0.21590853 0.18088205 -0.13797563 0.48781902 0.07775803 -0.38723594 0.08853812
0.021825597 0.24830005 -0.12769867 0.31721362 0.25625244 -0.08381573 0.11045007 -0.11709165
-0.10104389 -0.1405965 0.2401444 0.23449035 0.25640047 -0.10862845 -0.06130314 0.4843066
-0.16041538 -0.1937306 0.0053559504 0.09299808 -0.24978891 -0.4403171 0.1155984 -0.13551766
0.31723806 0.081869714 -0.06388025 -0.11969543 -0.04683194 0.24171162 -0.11342007 0.20873064
0.17512791 0.27202302 0.20615722 -0.13355497 -0.025977116 -0.16511105 0.21961315 -0.36594862
0.07671732 -0.12569845 -0.12361239 0.2087233 -0.24435756 0.0020698516 0.2177295 0.09826847
0.46511233 0.20231743 -0.20432886 -0.03521522 -0.04228087 -0.30448306 -0.026358163 0.16393383
-0.22386625 -0.06633153 -0.096805505 0.06219487 -0.17789605 0.010239258 0.040446304 -0.06766058
-0.087051734 0.26682264 -0.29615188 0.3123278 -0.20557238 -0.2659958 -0.3215362 -0.2488208
00000000: fbe6 37be b0d7 d73e 9d97 d93d 085f 503e
00000010: 319f d4bd 882a c7bc afc8 56bd f27e 973c
00000020: 7f35 ef3d 224a ce3d 0fe5 503e 2e33 30be
00000030: 856c 4abe 3101 863d 88f6 88be 7c4e b63e
00000040: 1c20 2c3e 8264 0f3f e86b 05be 98d2 9abe
00000050: c95d 3fbe b240 29be 5899 d6bd a0ab 2c3e
00000060: 6018 8d3e 128a f03d 7d74 c73d b1e8 2a3e
00000070: e9a2 683b 72c8 233e 5521 913e d895 653e
00000080: 7854 c93e 8552 aebe a8a2 9bbd 99fc 89be
00000090: b254 323d d640 283d eaac d4bd 1b57 40bd
000000a0: c3c8 68be a225 1fbe 686d f23d 5134 a03d
000000b0: cc51 92be 77c5 083e 5639 ab3e fb5a 6b3e
000000c0: c357 9d3e 7401 fcbd 8cd6 1fbe 28d1 4abc
000000d0: e465 27bc 889a dfbc 4b73 913e 536e c13d
000000e0: e89a 633e 10be 6bbc 66a1 c3bd a97c 063e
000000f0: 827b dc3e a0c3 2ebe 1b90 293f 3046 833e
00000100: f31a ba3d 513e 2dbe c9e7 88bd 0b73 353d
00000110: 104f 913e c61b db3d d1a4 ba3c ebc7 8cbe
00000120: b19a a23e 0909 0dbe 171a e63d 6373 8e3e
00000130: ae5a c3bd 2147 593d 38af 3f3d 5a7a a8be
00000140: 8cfb 41be d4ca 433d 96df 95be 3010 6b3e
00000150: 0c77 4b3e 68f9 32be 7e1a 653d 37ec 703c
00000160: 2fd2 aebd 8dac aebc fb51 663e 9a54 223e
00000170: 347e f03d 1413 143e d457 c5bc ed14 2c3e
00000180: 5a72 c2be 69af 8abd 2644 96bd f21e 4ebe
00000190: 69ec 9e3c 0daa 0abd ca68 0a3d eb26 8dbe
000001a0: 0cc8 3abe b15a 223c 134d f53e 0213 133e
000001b0: 67f1 b53e 01a9 283e c30c 59bd 06f8 1cbf
000001c0: 0c9f 243e 100c 1d3e 3819 5c3d 19e2 393d
000001d0: f81f efbd 3b6a 3c3e a2fa 1f3e a279 973d
000001e0: ece9 013e f8c6 c73d 8068 2abd 267d fdbd
000001f0: b5f9 373e e4a3 663e 106d 6f3e e675 69be
00000200: 7988 e8bd 40bf 033e b67c b23e 9ac3 3fbe
00000210: 5ea4 193c fffe c53e f909 853e 7475 933c
00000220: 26b1 6fbd 42d1 873e 674d bcbc 8f64 d63e
00000230: 4d49 8abe f01d 623d 13a3 62be 2dde 8e3e
00000240: 037c ccbd e52b 0abe 6329 763e 23ea 11bd
00000250: ee59 ea3e b440 49be 267c 93be e229 6e3e
00000260: 803d 7dbe 8b73 3e3d d570 c73c db81 843d
00000270: 8716 8e3e 7c9c 0dbe 2bb7 e5bd e41d bdbd
00000280: a4ab 203e d9a6 97be 6a68 833d 544e 0c3d
00000290: a6cc 97be 0922 83be e53f d43c 4cdc 1dbe
000002a0: 5eb7 a1bd c84c 8b3e 3c81 b5be 8f10 fbbc
000002b0: 95e6 313e b021 923d b223 70be 8a97 663e
000002c0: 3e18 93bd 2017 5d3e 2539 393e 7c49 0dbe
000002d0: 6ac3 f93e 9a3f 9f3d ca43 c6be 7953 b53d
000002e0: 98cb b23c 5e42 7e3e 71c3 02be d369 a23e
000002f0: 8533 833e 95a7 abbd a533 e23d bfcd efbd
00000300: 19f0 cebd 87f8 0fbe 6ae8 753e 3d1e 703e
00000310: ec46 833e 9878 debd 0019 7bbd 09f7 f73e
00000320: ee43 24be 5061 46be f880 af3b c775 be3d
00000330: aac8 7fbe 3e71 e1be dbbe ec3d 24c5 0abe
00000340: 076d a23e 4fab a73d a6d3 82bd e122 f5bd
00000350: d9d2 3fbd 4083 773e c848 e8bd 7cbd 553e
00000360: bb54 333e 9a46 8b3e e11a 533e a2c2 08be
00000370: f6cd d4bc df12 29be 45e2 603e 9e5d bbbe
00000380: f81d 9d3d 18b7 00be 7e28 fdbd 90bb 553e
00000390: de38 7abe 59a6 073b 7bf4 5e3e fb40 c93d
000003a0: 3423 ee3e 4d2c 4f3e 963b 51be d63d 10bd
000003b0: b52e 2dbd 34e5 9bbe 13ed d7bc 45de 273e
000003c0: 323d 65be d3d8 87bd f741 c6bd 0cc0 7e3d
000003d0: 622a 36be 90c2 273c 06ab 253d a191 8abd
000003e0: 2e48 b2bd fa9c 883e 38a1 97be 6ee9 9f3e
000003f0: 9181 52be 9a30 88be 65a0 a4be e1ca 7ebe

base.mlp.fc1.0.bias f4 [64]
-0.009576962 0.0064577204 -0.007312402 0.009794449 0.0008241538 -0.009330431 -0.00036538066 -0.0075053982
-0.0081424685 -0.004846718 -0.002291379 0.003624888 -0.007535675 0.0060041817 0.00831276 0.007023269
0.0005349917 0.003972352 0.0015728571 0.006489021 -0.007921816 -0.008492435 0.009591969 -0.001350106
-0.006295762 -0.007923482 0.00847614 -0.00016007974 -0.002519241 -0.00657276 0.0008002849 0.0100623695
-0.0016190985 0.007516586 -0.0073066563 -0.007854459 0.005236329 -0.0015254666 0.0040840404 0.0036478122
0.0037453892 -0.0016444916 0.0043092617 -0.0042529553 0.0045648674 -0.0010429072 -0.006511103 0.005970336
0.006161781 -0.0090414155 -0.004163705 0.0001167276 -0.004246345 0.0011904406 -0.0076289233 -0.0060906867
0.0008517189 0.0033171505 -0.0061634015 -0.007940438 0.0030498556 -0.0043683304 -0.0032710868 0.0038717687
00000000: b1e8 1cbc 499b d33b e09c efbb e678 203c
00000010: 060c 583a aade 18bc 9090 bfb9 d8ef f5bb
00000020: fd67 05bc 38d1 9ebb f62a 16bb 878f 6d3b
00000030: d3ed f6bb babe c43b 3e32 083c 7323 e63b
00000040: af3e 0c3a 812a 823b 5428 ce3a daa1 d43b
00000050: 81ca 01bc db23 0bbc a227 1d3c 0af6 b0ba
00000060: ae4c cebb 7ed1 01bc 82df 0a3c 14db 27b9
00000070: da19 25bb 4f60 d7bb 36ca 513a a3dc 243c
00000080: ee37 d4ba b24d f63b ad6c efbb fdaf 00bc
00000090: 8395 ab3b 2af2 c7ba 6ad3 853b 2210 6f3b
000000a0: 3475 753b fb8b d7ba b534 8d3b 605c 8bbb
000000b0: e294 953b 29b2 88ba 175b d5bb cfa2 c33b
000000c0: c4e8 c93b 7222 14bc b06f 88bb a7cb f438
000000d0: ec24 8bbb 8f08 9c3a 0cfc f9bb 6294 c7bb
000000e0: e345 5f3a 8d64 593b 5cf6 c9bb 9c18 02bc
000000f0: 16e0 473b 3624 8fbb bb5f 56bb 80bd 7d3b

base.mlp.fc1.2.weight f4 [64]
1.000112 1.0014908 1.0008223 1.0015395 1.0025177 1.0099194 0.9905659 1.0047603
1.001863 0.9990351 1.0014174 0.997245 1.0002823 1.0059233 0.99779934 0.99061495
1.0058366 0.99654675 1.0024236 0.9991068 1.0052165 1.0025152 1.0107299 1.0006006
1.0010958 0.9972236 1.001008 1.0088935 1.00686 0.997303 1.0004048 1.0031797
0.9957178 0.9969219 0.99967086 1.0053241 1.0017531 1.0027425 0.99928594 1.0020214
1.0022491 0.99535614 0.99547297 0.9986277 0.9967657 0.997938 0.99554217 0.9965329
0.99586385 0.9928473 0.99641573 1.0028738 1.0028564 0.99525213 0.99542993 0.9909897
1.0002007 1.001696 0.99522966 1.0006642 1.0043372 1.0004591 0.99998456 1.0081857
00000000: ac03 803f da30 803f f21a 803f 7232 803f
00000010: 8052 803f 0a45 813f ba95 7d3f fc9b 803f
00000020: 0c3d 803f c4c0 7f3f 722e 803f 734b 7f3f
00000030: 4009 803f 18c2 803f c76f 7f3f f198 7d3f
00000040: 41bf 803f b01d 7f3f 6b4f 803f 77c5 7f3f
00000050: efaa 803f 6b52 803f 995f 813f ae13 803f
00000060: e823 803f 0c4a 7f3f 0821 803f 6c23 813f
00000070: cae0 803f 404f 7f3f 440d 803f 3168 803f
00000080: 5de7 7e3f 4636 7f3f 6eea 7f3f 76ae 803f
00000090: 7239 803f de59 803f 34d1 7f3f 3d42 803f
000000a0: b349 803f a9cf 7e3f 51d7 7e3f 11a6 7f3f
000000b0: 092c 7f3f dd78 7f3f dadb 7e3f c81c 7f3f
000000c0: eff0 7e3f 3e2b 7e3f 1a15 7f3f 2b5e 803f
000000d0: 995d 803f d8c8 7e3f 7fd4 7e3f 80b1 7d3f
000000e0: 9406 803f 9337 803f 5fc7 7e3f c415 803f
000000f0: 1f8e 803f 0b0f 803f fdfe 7f3f 3b0c 813f

base.mlp.fc1.2.bias f4 [64]
-0.008750247 0.008815547 -0.0105874995 0.008880623 0.0061956965 -0.011402238 0.0016320355 -0.00976904
-0.008252772 -0.009207148 -0.0094413 0.0022352778 -0.0070238556 -0.0002269471 -0.0001528766 0.008006016
-0.0009429499 0.0041611283 0.0010092407 0.004508822 -0.006138219 -0.008958445 0.007858379 -0.0010700664
-0.0032960044 -0.006773885 -0.00035461606 -0.0016527559 -0.003039652 -0.0059110546 -0.0010671817 0.0067750015
-0.0063969395 0.008960033 -0.000611215 -0.0063940007 -0.0014490574 -0.004301626 0.0034646601 0.00037011725
0.0005561555 -0.0030762367 0.0039197793 -0.0042624907 0.0016639513 -0.00033193873 -0.0039362684 0.008983499
0.009097501 -0.00905487 -0.0060622273 -0.001090555 -0.0065217665 0.002954564 -0.0051103 -0.003217274
-0.00024351949 0.0074703447 -0.006705065 -0.0049590855 0.0011900464 -0.007565103 -0.009041053 -0.0017675221
00000000: 325d 0fbc 166f 103c 3177 2dbc 0880 113c
00000010: 4505 cb3b 74d0 3abc 06ea d53a 530e 20bc
00000020: a236 07bc 94d9 16bc afaf 1abc bd7d 123b
00000030: 5f28 e6bb a6f8 6db9 804d 20b9 aa2b 033c
00000040: 4c30 77ba 135a 883b 8048 843a bebe 933b
00000050: 1d23 c9bb 71c6 12bc 6ec0 003c 7841 8cba
00000060: c701 58bb 77f7 ddbb c3eb b9b9 49a1 d8ba
00000070: e634 47bb 85b1 c1bb ade0 8bba d500 de3b
00000080: 6b9d d1bb 1acd 123c f239 20ba c484 d1bb
00000090: 4cee bdba a7f4 8cbb 5a0f 633b 4c0c c239
000000a0: f7ca 113a b09a 49bb 7e71 803b 5dac 8bbb
000000b0: f118 da3a 1008 aeb9 d0fb 80bb 872f 133c
000000c0: af0d 153c e15a 14bc a6a5 c6bb f4f0 8eba
000000d0: 8bb4 d5bb 5ca1 413b 4e74 a7bb e7d8 52bb
000000e0: 4459 7fb9 cbc9 f43b 29b6 dbbb d37f a2bb
000000f0: 55fb 9b3a afe4 f7bb ed20 14bc 33ac e7ba

base.mlp.fc_h.0.weight f4 [64, 64]
0.1377503 -0.008093162 -0.27240273 0.21282241 0.48638436 0.13287549 -0.42059797 0.008659036
0.42227286 0.18400358 -0.019348526 0.09123118 0.044613935 -0.1949208 -0.3915771 -0.25584713
0.08817401 -0.24684066 0.27839217 -0.3653039 -0.11256542 -0.36046255 -0.26069558 0.26345393
-0.30149075 0.17822094 0.21686062 0.042757466 -0.17174521 -0.0859509 0.05611956 0.09501529
-0.19572213 0.22471206 0.28963545 0.10382249 -0.00046122196 0.120294616 0.10970798 -0.22354409
-0.14280269 -0.16175482 0.10073651 0.0072367517 0.17380111 -0.25650024 0.040008605 -0.19593777
0.0663611 0.1952016 0.016524132 -0.028257083 0.23896646 0.10301334 -0.08332692 -0.05703428
-0.22946467 0.15281071 -0.15961756 0.08236502 -0.1546598 0.29560953 -0.23824021 -0.3125172
-0.22777365 -0.024577592 -0.08549095 -0.25021836 -0.09885 -0.22102536 0.22928645 0.40118235
0.036454797 -0.11616746 -0.13266432 0.27157193 0.041841906 -0.17630683 0.28278965 -0.05793698
0.32543293 -0.23106416 -0.017571421 -0.27312624 0.064295754 0.28666738 0.13581124 -0.1988026
0.053999398 0.115408234 0.04023009 0.17361347 -0.21477138 -0.06472206 -0.015009493 0.21890573
-0.09534455 0.26234773 0.20390026 -0.010516322 0.28446388 -0.18427119 -0.40586254 -0.008075759
-0.10058314 -0.15566878 0.27520156 0.010587275 0.037856188 0.36425054 -0.03157192 -0.26631057
0.2624164 0.21967661 -0.11682484 -0.08198954 0.0026315947 0.3665795 0.24235317 0.5914496
0.18747848 -0.2664994 0.13136767 0.059447616 -0.011532989 0.19449571 -0.061925784 -0.26697835
0.4215907 -0.061511863 0.103978336 -0.1424587 0.02047453 0.37113467 0.0716034 0.041437205
0.105592094 0.21606506 -0.038937427 -0.016552614 -0.10394081 0.07212405 -0.07296447 -0.06592785
0.12594914 -0.15062238 0.37364632 -0.110223256 0.13101773 -0.08149558 0.24508537 -0.052878458
-0.051278416 -0.049321163 0.18712217 0.372629 0.3618634 0.029530475 0.040708613 0.53276736
-0.19534133 -0.1318684 -0.033813186 0.26897112 -0.19348663 -0.1934784 -0.23566832 -0.21568586
-0.13977358 -0.12534232 -0.33274224 -0.09652219 -0.115779944 0.26244235 0.3836611 -0.18282358
-0.15719983 -0.33456862 -0.19308874 -0.34205645 0.13476858 -0.22223897 0.04901904 0.025377413
0.44287133 0.08565139 -0.034275398 -0.06274352 -0.050291087 -0.039267186 0.23178443 0.33099586
0.117201924 -0.04415532 0.014257277 -0.22215903 0.28868812 0.21150723 -0.11976157 -0.12902841
0.38097474 0.35561776 0.1631867 -0.05362865 -0.05711263 -0.18919328 0.14913441 0.43608698
0.19192244 0.19382793 -0.05815479 -0.10999493 -0.041785676 -0.23725492 -0.0048480537 -0.46384037
-0.041163184 -0.107164346 -0.28608727 -0.13931441 -0.23654063 0.1226691 -0.24720201 -0.19804674
0.03449857 0.26741278 0.14496978 0.06733113 -0.19164026 -0.12263865 0.010799161 0.4882125
0.22799523 0.09479531 -0.06146678 -0.20486876 0.2435485 -0.0036263356 0.04525943 -0.22043084
-0.08880004 0.026213747 0.15390539 -0.009893144 -0.19015244 -0.32458758 0.20079195 -0.23613341
0.39617908 -0.40855113 0.18255506 -0.035158936 -0.016931167 0.16722488 0.13868508 -0.26644707
00000000: 6a0e 0d3e 2f99 04bc 5f78 8bbe 1eee 593e
00000010: 5f07 f93e 8310 083e 9e58 d7be a1de 0d3c
00000020: 2634 d83e 6f6b 3c3e cd80 9ebc 6ad7 ba3d
00000030: 1abd 363d 5199 47be cb7c c8be 65fe 82be
00000040: 9394 b43d ccc3 7cbe 6b89 8e3e 1d09 bbbe
00000050: b388 e6bd 8c8e b8be e479 85be 6fe3 863e
00000060: ff5c 9abe 8d7f 363e b610 5e3e 7422 2f3d
00000070: fadd 2fbe 0707 b0bd a0dd 653d 6097 c23d
00000080: 626b 48be eb1a 663e 194b 943e e3a0 d43d
00000090: 2ad0 f1b9 065d f63d 94ae e03d bee8 64be
000000a0: de3a 12be 0ea3 25be f14e ce3d 4622 ed3b
000000b0: ebf8 313e 0054 83be 10e0 233d e9a3 48be
000000c0: 54e8 873d eee2 473e 9e5d 873c 667b e7bc
000000d0: a0b3 743e a8f8 d23d 4ea7 aabd c79c 69bd
000000e0: c9f8 6abe 697a 1c3e c972 23be feae a83d
000000f0: 235f 1ebe 225a 973e 3ef5 73be 4102 a0be
00000100: 7f3d 69be f256 c9bc e115 afbd 9f1c 80be
00000110: de71 cabd 7954 62be 11ca 6a3e c667 cd3e
00000120: a051 153d 35e9 edbd 28d9 07be 7a0b 8b3e
00000130: 6b62 2b3d c789 34be cec9 903e 544f 6dbd
00000140: 259f a63e 159c 6cbe f1f1 8fbc 34d7 8bbe
00000150: 7ead 833d 11c6 923e 1a12 0b3e e992 4bbe
00000160: 792e 5d3d 275b ec3d 4fc8 243d bbc7 313e
00000170: 07ed 5bbe 008d 84bd 60ea 75bc d328 603e
00000180: 0144 c3bd 7152 863e 3bcb 503e a74c 2cbc
00000190: 40a5 913e 96b1 3cbe 37cd cfbe 3050 04bc
000001a0: 89fe cdbd a367 1fbe 38e7 8c3e 4076 2d3c
000001b0: 170f 1b3d 0c7f ba3e 8f51 01bd dc59 88be
000001c0: 715b 863e e8f2 603e dd41 efbd 22ea a7bd
000001d0: d576 2c3b 4fb0 bb3e 6e2b 783e 3e69 173f
000001e0: 5cfa 3f3e 9c72 88be 3f85 063e 587f 733d
000001f0: ddf4 3cbc e229 473e e4a5 7dbd 63b1 88be
00000200: bcda d73e ddf3 7bbd 98f2 d43d b2e0 11be
00000210: 34ba a73c 5d05 be3e cea4 923d 0fba 293d
00000220: ab40 d83d 2940 5d3e da7c 1fbd 5999 87bc
00000230: ebde d4bd c6b5 933d 656e 95bd 2e05 87bd
00000240: d0f8 003e c13c 1abe 924e bf3e bbbc e1bd
00000250: 8329 063e 28e7 a6bd a9f7 7a3e 1597 58bd
00000260: 5109 52bd fd04 4abd f49c 3f3e 3ac9 be3e
00000270: 2946 b93e e5e9 f13c 13be 263d 7163 083f
00000280: 8f07 48be 8308 07be b27f 0abd 95b6 893e
00000290: 5c21 46be 341f 46be 0953 71be c1dc 5cbe
000002a0: ce20 0fbe bd59 00be 315d aabe 6dad c5bd
000002b0: 091e edbd d85e 863e 3a6f c43e 1b36 3bbe
000002c0: fef8 20be 944c abbe 0eb9 45be 0622 afbe
000002d0: c600 0a3e 9d92 63be 30c8 483d 4be4 cf3c
000002e0: 08c0 e23e ff69 af3d 5c64 0cbd ad7f 80bd
000002f0: 07fe 4dbd a1d6 20bd e658 6d3e 4a78 a93e
00000300: 9007 f03d 35dc 34bd 5b97 693c a87d 63be
00000310: eece 933e 5a95 583e 8e45 f5bd 0620 04be
00000320: 1f0f c33e 8813 b63e 6a1a 273e b7a9 5bbd
00000330: efee 69bd e2bb 41be b1b6 183e cb46 df3e
00000340: 5187 443e d47a 463e b833 6ebd 0645 e1bd
00000350: 7527 2bbd f4f2 72be 6cdc 9ebb 7c7c edbe
00000360: ba9a 28bd fb78 dbbd 087a 92be 70a8 0ebe
00000370: b537 72be f039 fb3d 8622 7dbe c4cc 4abe
00000380: 5f4e 0d3d 54ea 883e f572 143e e7e4 893d
00000390: 583d 44be f929 fbbd f7ee 303c fdf6 f93e
000003a0: 9577 693e 0b24 c23d 97c4 7bbd 1ec9 51be
000003b0: c764 793e d1a7 6dbb f461 393d 9fb8 61be
000003c0: ccdc b5bd 36be d63c 6099 1d3e da16 22bc
000003d0: 52b7 42be 5830 a6be 689c 4d3e f5cc 71be
000003e0: fcd7 ca3e 9d2d d1be b7ef 3a3e d102 10bd
000003f0: 3bb3 8abc 003d 2b3e 7603 0e3e c06b 88be

base.mlp.fc_h.0.bias f4 [64]
0.0 0.0 0.0 0.0 0.0 0.0 0.0 0.0
0.0 0.0 0.0 0.0 0.0 0.0 0.0 0.0
0.0 0.0 0.0 0.0 0.0 0.0 0.0 0.0
0.0 0.0 0.0 0.0 0.0 0.0 0.0 0.0
0.0 0.0 0.0 0.0 0.0 0.0 0.0 0.0
0.0 0.0 0.0 0.0 0.0 0.0 0.0 0.0
0.0 0.0 0.0 0.0 0.0 0.0 0.0 0.0
0.0 0.0 0.0 0.0 0.0 0.0 0.0 0.0
00000000: 0000 0000 0000 0000 0000 0000 0000 0000
00000010: 0000 0000 0000 0000 0000 0000 0000 0000
00000020: 0000 0000 0000 0000 0000 0000 0000 0000
00000030: 0000 0000 0000 0000 0000 0000 0000 0000
00000040: 0000 0000 0000 0000 0000 0000 0000 0000
00000050: 0000 0000 0000 0000 0000 0000 0000 0000
00000060: 0000 0000 0000 0000 0000 0000 0000 0000
00000070: 0000 0000 0000 0000 0000 0000 0000 0000
00000080: 0000 0000 0000 0000 0000 0000 0000 0000
00000090: 0000 0000 0000 0000 0000 0000 0000 0000
000000a0: 0000 0000 0000 0000 0000 0000 0000 0000
000000b0: 0000 0000 0000 0000 0000 0000 0000 0000
000000c0: 0000 0000 0000 0000 0000 0000 0000 0000
000000d0: 0000 0000 0000 0000 0000 0000 0000 0000
000000e0: 0000 0000 0000 0000 0000 0000 0000 0000
000000f0: 0000 0000 0000 0000 0000 0000 0000 0000

base.mlp.fc_h.2.weight f4 [64]
1.0 1.0 1.0 1.0 1.0 1.0 1.0 1.0
1.0 1.0 1.0 1.0 1.0 1.0 1.0 1.0
1.0 1.0 1.0 1.0 1.0 1.0 1.0 1.0
1.0 1.0 1.0 1.0 1.0 1.0 1.0 1.0
1.0 1.0 1.0 1.0 1.0 1.0 1.0 1.0
1.0 1.0 1.0 1.0 1.0 1.0 1.0 1.0
1.0 1.0 1.0 1.0 1.0 1.0 1.0 1.0
1.0 1.0 1.0 1.0 1.0 1.0 1.0 1.0
00000000: 0000 803f 0000 803f 0000 803f 0000 803f
00000010: 0000 803f 0000 803f 0000 803f 0000 803f
00000020: 0000 803f 0000 803f 0000 803f 0000 803f
00000030: 0000 803f 0000 803f 0000 803f 0000 803f
00000040: 0000 803f 0000 803f 0000 803f 0000 803f
00000050: 0000 803f 0000 803f 0000 803f 0000 803f
00000060: 0000 803f 0000 803f 0000 803f 0000 803f
00000070: 0000 803f 0000 803f 0000 803f 0000 803f
00000080: 0000 803f 0000 803f 0000 803f 0000 803f
00000090: 0000 803f 0000 803f 0000 803f 0000 803f
000000a0: 0000 803f 0000 803f 0000 803f 0000 803f
000000b0: 0000 803f 0000 803f 0000 803f 0000 803f
000000c0: 0000 803f 0000 803f 0000 803f 0000 803f
000000d0: 0000 803f 0000 803f 0000 803f 0000 803f
000000e0: 0000 803f 0000 803f 0000 803f 0000 803f
000000f0: 0000 803f 0000 803f 0000 803f 0000 803f

base.mlp.fc_h.2.bias f4 [64]
0.0 0.0 0.0 0.0 0.0 0.0 0.0 0.0
0.0 0.0 0.0 0.0 0.0 0.0 0.0 0.0
0.0 0.0 0.0 0.0 0.0 0.0 0.0 0.0
0.0 0.0 0.0 0.0 0.0 0.0 0.0 0.0
0.0 0.0 0.0 0.0 0.0 0.0 0.0 0.0
0.0 0.0 0.0 0.0 0.0 0.0 0.0 0.0
0.0 0.0 0.0 0.0 0.0 0.0 0.0 0.0
0.0 0.0 0.0 0.0 0.0 0.0 0.0 0.0
00000000: 0000 0000 0000 0000 0000 0000 0000 0000
00000010: 0000 0000 0000 0000 0000 0000 0000 0000
00000020: 0000 0000 0000 0000 0000 0000 0000 0000
00000030: 0000 0000 0000 0000 0000 0000 0000 0000
00000040: 0000 0000 0000 0000 0000 0000 0000 0000
00000050: 0000 0000 0000 0000 0000 0000 0000 0000
00000060: 0000 0000 0000 0000 0000 0000 0000 0000
00000070: 0000 0000 0000 0000 0000 0000 0000 0000
00000080: 0000 0000 0000 0000 0000 0000 0000 0000
00000090: 0000 0000 0000 0000 0000 0000 0000 0000
000000a0: 0000 0000 0000 0000 0000 0000 0000 0000
000000b0: 0000 0000 0000 0000 0000 0000 0000 0000
000000c0: 0000 0000 0000 0000 0000 0000 0000 0000
000000d0: 0000 0000 0000 0000 0000 0000 0000 0000
000000e0: 0000 0000 0000 0000 0000 0000 0000 0000
000000f0: 0000 0000 0000 0000 0000 0000 0000 0000

base.mlp.fc2.0.0.weight f4 [64, 64]
0.13706796 0.0023879681 -0.26063412 0.21481982 0.4867213 0.14096493 -0.41188166 0.011812535
0.42016515 0.18478362 -0.022669284 0.09491911 0.033198968 -0.20000042 -0.3982122 -0.25143012
0.095262185 -0.25325006 0.27795348 -0.36317277 -0.1179418 -0.37007552 -0.25841027 0.2601608
-0.29552686 0.18993756 0.21396533 0.047642823 -0.17101489 -0.08819534 0.065600865 0.10021314
-0.19353548 0.21737556 0.29382038 0.099958375 -0.00041128605 0.119065605 0.10662206 -0.22487384
-0.13741696 -0.16033871 0.09380635 0.01183995 0.16706666 -0.25553998 0.042328954 -0.20220567
0.068213746 0.19911528 0.023646366 -0.037356045 0.23486811 0.09989133 -0.081797294 -0.06916324
-0.21785827 0.14917241 -0.15962867 0.09396242 -0.15823637 0.30266622 -0.23881446 -0.31830856
-0.22914194 -0.023990013 -0.08300125 -0.2585395 -0.1034399 -0.22517419 0.23045179 0.40093705
0.035673708 -0.11750349 -0.13713056 0.2690883 0.04309053 -0.17351009 0.2867348 -0.05998705
0.3363044 -0.2290933 -0.012739173 -0.27221406 0.06472322 0.2867603 0.12773895 -0.19884102
0.054524988 0.11136093 0.03942763 0.1699047 -0.2157198 -0.068211034 -0.017466653 0.22033982
-0.09713453 0.26495817 0.19849485 -0.01804518 0.2828121 -0.18337396 -0.40019605 -0.0010991481
-0.10027913 -0.14830005 0.28139272 0.012151411 0.040514927 0.3659497 -0.034551587 -0.2642758
0.26770613 0.21345924 -0.11383562 -0.080214925 0.0027364246 0.36791503 0.23744556 0.59076494
0.18544495 -0.2694352 0.1317153 0.054295093 -0.013031482 0.20116536 -0.054570887 -0.26456985
0.42125434 -0.061322983 0.10061945 -0.14034012 0.02965964 0.37955615 0.07879768 0.044815872
0.10448139 0.21677868 -0.02688861 -0.021044107 -0.09837387 0.08059328 -0.07526194 -0.06254514
0.12468773 -0.13995372 0.36763012 -0.11507557 0.12673315 -0.08231884 0.244601 -0.051533222
-0.04874511 -0.051144894 0.18797173 0.37447602 0.363079 0.030081846 0.038484093 0.53112835
-0.19677149 -0.13186432 -0.0349988 0.2701998 -0.19822918 -0.20022047 -0.23823893 -0.22264229
-0.13814186 -0.13037327 -0.3283421 -0.09395521 -0.11068254 0.26100892 0.3785913 -0.18366425
-0.15835597 -0.33226293 -0.19338807 -0.33448687 0.13576241 -0.21917057 0.047627497 0.029839078
0.43524215 0.0874753 -0.038103208 -0.06634797 -0.04483269 -0.044437844 0.22683097 0.3357091
0.11338979 -0.04584374 0.012715657 -0.21523045 0.288157 0.21902005 -0.11298543 -0.13293767
0.3844458 0.3593383 0.1660805 -0.056710877 -0.06044468 -0.18668368 0.14603992 0.43475422
0.19504808 0.1997277 -0.06534505 -0.10952642 -0.04837201 -0.24021544 0.0048272423 -0.45996818
-0.03661645 -0.10127375 -0.28665003 -0.13323772 -0.23469894 0.120925225 -0.2429203 -0.2004508
0.030344326 0.26929152 0.1457516 0.063661076 -0.19040729 -0.11977762 0.003985962 0.4902823
0.23018211 0.08625049 -0.057283226 -0.20105232 0.25015938 -0.008386099 0.041494064 -0.2256106
-0.08717478 0.03088382 0.15224081 -0.004139801 -0.19100729 -0.31869224 0.19746444 -0.23872985
0.3941093 -0.4077846 0.17320754 -0.027266044 -0.015987923 0.16832222 0.13268083 -0.2737566
00000000: 8b5b 0c3e 757f 1c3b d671 85be baf9 5b3e
00000010: 8933 f93e 1c59 103e 27e2 d2be 5d89 413c
00000020: e31f d73e eb37 3d3e efb4 b9bc f364 c23d
00000030: a4fb 073d e9cc 4cbe 78e2 cbbe 73bb 80be
00000040: d218 c33d fea9 81be eb4f 8e3e c8f1 b9be
00000050: 788b f1bd 8a7a bdbe 5a4e 84be cc33 853e
00000060: 4c4f 97be fe7e 423e ba19 5b3e 1f25 433d
00000070: 871e 2fbe c29f b4bd bf59 863d 8c3c cd3d
00000080: 2a2e 46be b397 5e3e a06f 963e fab6 cc3d
00000090: e1a1 d7b9 abd8 f33d ab5c da3d 5445 66be
000000a0: 08b7 0cbe d52f 24be 8b1d c03d 5afc 413c
000000b0: 8613 2b3e 23d6 82be 2061 2d3d 010f 4fbe
000000c0: a6b3 8b3d e0e4 4b3e 06b6 c13c a702 19bd
000000d0: 4481 703e d393 cc3d 5785 a7bd 75a5 8dbd
000000e0: 3d16 5fbe a7c0 183e b375 23be 5f6f c03d
000000f0: b708 22be 11f7 9a3e c78b 74be 57f9 a2be
00000100: 2fa4 6abe b486 c4bc 8ffc a9bd 4a5f 84be
00000110: 4cd8 d3bd 1094 66be 8efb 6b3e 9f47 cd3e
00000120: 981e 123d aba5 f0bd f46b 0cbe f1c5 893e
00000130: b27f 303d a1ac 31be e7ce 923e fbb4 75bd
00000140: 1730 ac3e 6f97 6abe f7b7 50bc a45f 8bbe
00000150: 9c8d 843d 3fd2 923e 00ce 023e fb9c 4bbe
00000160: 9855 5f3d 3311 e43d de7e 213d 7ffb 2d3e
00000170: a7e5 5cbe 3ab2 8bbd 3a16 8fbc c3a0 613e
00000180: 78ee c6bd 99a8 873e 3c42 4b3e 7cd3 93bc
00000190: bfcc 903e 62c6 3bbe 7fe6 ccbe 4a11 90ba
000001a0: 255f cdbd f8db 17be b512 903e b616 473c
000001b0: fbf2 253d c25d bb3e f785 0dbd 284f 87be
000001c0: c710 893e 0f95 5a3e a622 e9bd b947 a4bd
000001d0: 9655 333b 5c5f bc3e ee24 733e 5f3c 173f
000001e0: 48e5 3d3e 69f3 89be 60e0 063e 8864 5e3d
000001f0: ff81 55bc 4bfe 4d3e b985 5fbd b375 87be
00000200: a6ae d73e cf2d 7bbd 9211 ce3d 52b5 0fbe
00000210: c6f8 f23c 2f55 c23e ae60 a13d d990 373d
00000220: 57fa d53d 3bfb 5d3e 8145 dcbc b164 acbc
00000230: 3d78 c9bd 170e a53d ef22 9abd ab17 80bd
00000240: 485c ff3d 0750 0fbe 043a bc3e beac ebbd
00000250: 56c6 013e c896 a8bd af78 7a3e 8014 53bd
00000260: f4a8 47bd 4f7d 51bd a97b 403e 52bb bf3e
00000270: 7ee5 b93e 346e f63c 7fa1 1d3d 07f8 073f
00000280: 777e 49be 7107 07be e75a 0fbd a157 8a3e
00000290: 97fc 4abe 9806 4dbe e8f4 73be 57fc 63be
000002a0: 0f75 0dbe 9280 05be 751c a8be 976b c0bd
000002b0: 87ad e2bd f6a2 853e b8d6 c13e 7b12 3cbe
000002c0: 1128 22be 5e1e aabe 8607 46be dd41 abbe
000002d0: 4d05 0b3e 406e 60be 0d15 433d 1571 f43c
000002e0: 0fd8 de3e 4026 b33d 1c12 1cbd 72e1 87bd
000002f0: 7ca2 37bd 7504 36bd 6146 683e 10e2 ab3e
00000300: e838 e83d a5c6 3bbd 5555 503c 5f65 5cbe
00000310: 5089 933e cb46 603e e864 e7bd d020 08be
00000320: 14d6 c43e 31fb b73e 0211 2a3e aa49 68bd
00000330: d794 77bd 022a 3fbe 7d8b 153e 1b98 de3e
00000340: afba 473e 6b85 4c3e a0d3 85bd 634f e0bd
00000350: bb21 46bd 09fb 75be d82d 9e3b f380 ebbe
00000360: 21fb 15bd 9d68 cfbd cbc3 92be 786f 08be
00000370: eb54 70be a5a7 f73d 19c0 78be f942 4dbe
00000380: aa94 f83c 94e0 893e e83f 153e bd60 823d
00000390: 21fa 42be f84d f5bd ac9c 823b 4806 fb3e
000003a0: dcb4 6b3e 19a4 b03d d1a1 6abd a9e0 4dbe
000003b0: e414 803e d965 09bc aef5 293d 7706 67be
000003c0: b188 b2bd 1100 fd3c 04e5 1b3e 2ba7 87bb
000003d0: 6a97 43be a12b a3be 1e34 4a3e 9975 74be
000003e0: b2c8 c93e 25c9 d0be 515d 313e 0a5d dfbc
000003f0: 1bf9 82bc a95c 2c3e 7cdd 073e d329 8cbe

base.mlp.fc2.0.0.bias f4 [64]
0.0044984184 0.0028236927 -0.007825445 -0.0047016162 -0.0016332885 -0.0013847149 0.0052592484 -0.009288539
-0.0046014227 -0.005286279 -0.0035255859 0.0012580745 0.006679312 -0.0055748164 -0.0034536084 0.0059902035
0.004698837 0.007524822 0.0010633769 -0.001973355 -0.004288092 -0.0009527939 0.005778944 -0.0017094279
-0.006655985 -0.0022136194 -0.0027121636 -0.0011436822 -0.009810979 0.0010429167 0.004157746 -0.0007613881
0.010154651 -0.0003240525 -0.008241179 -0.0059947725 -0.007954233 0.0016064771 -0.006828819 0.0026352482
0.01029711 -0.0033420818 0.0028378589 0.008790835 0.0004944172 -0.0062750382 0.0016328412 -0.0025068037
0.0021042528 0.00036072198 0.002494058 -0.0005176915 -0.00685756 0.007144769 -0.0030570298 -0.007340165
-0.0070044133 -0.0021738922 0.0028409213 0.004388371 -0.0062872907 0.008934529 0.004721173 -0.002430686
00000000: 7867 933b b40d 393b 4c36 00bc 0410 9abb
00000010: 1114 d6ba 527f b5ba c655 ac3b f52e 18bc
00000020: 88c7 96bb 8638 adbb 840d 67bb fae5 a43a
00000030: 21de da3b f3ac b6bb ef55 62bb 7849 c43b
00000040: b4f8 993b c892 f63b 0261 8b3a 6753 01bb
00000050: 1f83 8cbb ebc4 79ba 4c5d bd3b e20e e0ba
00000060: 731a dabb 5f12 11bb 8ebe 31bb 9be7 95ba
00000070: 3abe 20bc 7ab2 883a b43d 883b e497 47ba
00000080: b15f 263c 97e5 a9b9 0306 07bc cc6f c4bb
00000090: 7952 02bc 6d90 d23a 49c4 dfbb 21b4 2c3b
000000a0: 36b5 283c d406 5bbb 5ffb 393b 6f07 103c
000000b0: c79b 013a d69e cdbb 0f05 d63a 3049 24bb
000000c0: 81e7 093b 491f bd39 5a73 233b b0b5 07ba
000000d0: 62b5 e0bb ab1e ea3b 7358 48bb c485 f0bb
000000e0: 4785 e5bb dc77 0ebb c02e 3a3b 53cc 8f3b
000000f0: 9e05 cebb 2162 123c 12b4 9a3b 254c 1fbb

base.mlp.fc2.0.2.weight f4 [64]
1.0003593 1.0026557 0.99734956 0.9965295 1.0043005 1.0068791 1.0040368 1.001483
1.0042772 1.0003723 1.0022401 1.0040811 0.9991583 1.0059564 1.0044957 0.9936304
1.0058064 0.9914456 0.99704725 1.0018262 1.002601 0.9977819 0.99747276 1.0063927
0.99979544 0.992093 0.99832416 1.0034295 0.9986649 0.9998247 0.9978238 1.0025214
1.0013922 0.9994866 1.002606 1.0002732 1.006079 1.0023794 1.0049636 1.0043678
1.0035706 1.003175 1.0048586 1.0015781 0.99641466 0.992612 1.0053009 1.0089747
0.99887395 0.9990709 0.99852586 1.0000474 0.99701303 0.9982389 1.0029838 1.0037484
1.0050122 0.99505407 1.0027039 0.99663085 1.003005 1.0022032 1.0041159 1.002837
00000000: c60b 803f 0657 803f 4d52 7f3f 8f1c 7f3f
00000010: eb8c 803f 6ae1 803f 4784 803f 9830 803f
00000020: 288c 803f 330c 803f 6749 803f bb85 803f
00000030: d7c8 7f3f 2ec3 803f 5193 803f 905e 7e3f
00000040: 44be 803f 61cf 7d3f 7d3e 7f3f d73b 803f
00000050: 3b55 803f a26e 7f3f 605a 7f3f 7ad1 803f
00000060: 98f2 7f3f cff9 7d3f 2c92 7f3f 6170 803f
00000070: 81a8 7f3f 83f4 7f3f 6171 7f3f 9f52 803f
00000080: 9f2d 803f 5bde 7f3f 6555 803f f408 803f
00000090: 32c7 803f f84d 803f a6a2 803f 208f 803f
000000a0: 0075 803f 0a68 803f 359f 803f b633 803f
000000b0: 0815 7f3f d21b 7e3f b3ad 803f 1526 813f
000000c0: 34b6 7f3f 1cc3 7f3f 649f 7f3f 8e01 803f
000000d0: 3f3c 7f3f 968c 7f3f c661 803f d47a 803f
000000e0: 3da4 803f ddbb 7e3f 9a58 803f 3323 7f3f
000000f0: 7862 803f 3248 803f df86 803f f65c 803f

base.mlp.fc2.0.2.bias f4 [64]
0.0032122212 -0.00015855822 -0.0029351362 -0.0045567383 -0.0008352301 -0.00035853044 0.007392601 -0.0051400517
-0.004323782 -0.0047344253 -0.00247979 0.0057435073 0.0043325783 -0.004340239 -0.0056675263 0.0041489857
0.0018751234 0.003579822 0.0017062316 -0.0007198593 -0.0018369176 0.0005637091 0.003433528 0.0009302842
-0.0022658065 -0.005855232 -0.0034100192 -0.0013762076 -0.0060712923 0.002133662 0.0055472367 -0.0023153876
0.006508742 0.00185413 -0.0072320444 -0.003932264 -0.006911938 0.0026607167 -0.00594258 0.0010048581
0.009417214 -0.0027357384 0.00858697 0.005460569 -0.0029486776 -0.0024407886 0.0017445884 -0.004032455
-0.006095924 -0.00436325 0.0039550085 0.00071593636 -0.0025476979 0.007688299 -0.00093100034 -0.0040208884
-0.0029506898 -0.003553598 3.6338384e-05 0.0034643235 0.009017339 0.0035248017 0.007079178 -0.0013593207
00000000: 2184 523b a642 26b9 6a5b 40bb b150 95bb
00000010: 58f3 5aba 24f9 bbb9 a23d f23b e16d a8bb
00000020: 83ae 8dbb 3d23 9bbb f983 22bb 0834 bc3b
00000030: 4df8 8d3b 9038 8ebb a8b6 b9bb 37f4 873b
00000040: b3c6 f53a 729b 6a3b a2a3 df3a f1b4 3cba
00000050: bac4 f0ba e1c5 133a 0a05 613b 51de 733a
00000060: ed7d 14bb 3fdd bfbb a17a 5fbb dd61 b4ba
00000070: b1f1 c6bb e9d4 0b3b 98c5 b53b c2bd 17bb
00000080: 4947 d53b 4706 f33a c9fa ecbb 39da 80bb
00000090: 8a7d e2bb 6b5f 2e3b f9b9 c2bb 71b5 833a
000000a0: a94a 1a3c 134a 33bb 5db0 0c3c 93ee b23b
000000b0: 9a3e 41bb a3f5 1fbb acaa e43a af22 84bb
000000c0: 51c0 c7bb 98f9 8ebb 0499 813b adad 3b3a
000000d0: 47f7 26bb 20ee fb3b 600e 74ba a8c1 83bb
000000e0: 5c60 41bb 7be3 68bb 0b6a 1838 b409 633b
000000f0: 76bd 133c 5c00 673b 73f8 e73b 3c2b b2ba

rnn.rnn.weight_ih_l0 f4 [192, 64]
-0.0424876 -0.09732896 0.02592848 -0.07414158 0.09838344 -0.05132807 0.008521275 -0.07182793
0.020157253 -0.13463461 0.026656693 -0.0773582 0.036925245 0.07336414 0.028092356 0.09471767
-0.014156181 0.053843692 0.044448074 -0.03270623 0.0029669143 0.013218964 -0.026421117 -0.1367026
-0.1607738 -0.043723546 0.009370556 -0.11282853 0.14185698 -0.071927994 0.055145074 0.103780895
0.05971207 0.024071654 0.018350108 0.016730163 0.06504711 -0.013667447 0.010592994 -0.017641457
0.0085348515 0.016011063 -0.027184509 -0.04548029 0.02920263 0.035487562 -0.003919663 0.09929649
-0.039343514 -0.015801422 0.011149454 0.0804481 0.035149705 -0.035308763 0.08311532 -0.040101532
-0.04201488 -0.031090582 -0.027087478 -0.08452455 -0.09306349 -0.15044244 0.065190434 0.045553982
0.05394018 0.008732671 -0.038731195 -0.011921108 0.06815801 0.03975978 0.10958264 0.034235105
-0.055655584 -0.10080427 0.007755571 -0.019518945 -0.13099356 0.018495318 -0.07452329 0.043120433
-0.072781585 0.044327952 0.08375453 -0.07458563 -0.043599837 -0.072417684 -0.06345857 0.054167375
0.00063595065 -0.014565266 0.120025 0.08709538 -0.05793314 0.04241137 -0.012137806 -0.08825915
0.06834733 0.043539736 -0.06444591 -0.07463487 0.05182627 -0.036660526 0.017526308 0.011897215
-0.04515087 -0.034335036 0.078879125 -0.03664815 -0.09169678 -0.017588776 0.17485256 -0.027035084
0.04451003 0.030504901 -0.030050248 0.005217004 0.03024186 -0.1162906 0.017268116 0.1334298
-0.024201185 0.010453615 -0.015406846 -0.05193401 0.046734817 -0.064140774 0.07207163 -0.001054223
-0.02782262 0.011512067 0.0056945113 -0.026339862 0.05385956 -0.029335024 0.071580485 0.10108143
0.020523347 0.07839863 -0.05962137 -0.01160287 -0.115089506 0.057043586 0.0029933292 -0.1033267
-0.02808595 0.026699921 0.05829857 0.04543035 0.1012182 0.006881983 0.038561895 -0.017951671
0.00878494 0.10777699 -0.0817638 0.036013365 -0.063346565 -0.028076893 0.044385497 0.063861296
0.08909601 0.0034079112 -0.07690678 -0.12882438 0.02595319 0.030311316 -0.124010295 0.09007625
-0.09872195 -0.0945264 -0.041928917 0.08410759 -0.028334303 0.1418277 -0.09623203 0.036049217
0.16137747 0.097188696 -0.0067793117 0.034749255 -0.16072063 0.14991201 -0.022110803 -0.015614178
0.04119226 0.04711471 0.06036323 0.09925124 0.12173184 -0.07991927 0.008821435 -0.08563733
-0.034602843 0.0075609516 -0.064065486 -0.024083914 -0.12129639 0.03185017 -0.003217203 -0.14735623
-0.14431489 -0.02098398 0.03914084 -0.059128854 0.03772563 -0.021119133 -0.088837095 -0.021994157
0.04420089 -0.034207303 -0.09025776 -0.048360344 0.034542374 -0.079130195 0.026960941 0.06724976
-0.060627706 -0.034148272 -0.0034756667 0.054696977 -0.005987281 -0.07919937 0.05276706 -0.042557508
-0.0028319743 -0.07189009 0.08431605 0.044832893 0.031440683 0.08820714 -0.12606175 0.10220538
-0.1091688 0.092158124 -0.009402324 0.0531856 0.0025740084 0.05028464 0.1460497 0.09078111
0.051772203 0.030493287 -0.09702159 0.08747589 -0.05416527 0.035105806 -0.040780075 0.00366422
-0.06532134 0.07397945 -0.0321017 -0.039894745 -0.08311447 0.020153765 -0.019368138 -0.016015967
00000000: 7a07 2ebd 6854 c7bd f767 d43c 8ad7 97bd
00000010: 427d c93d 623d 52bd d19c 0b3c 861a 93bd
00000020: d320 a53c a8dd 09be 235f da3c fa6d 9ebd
00000030: ed3e 173d f03f 963d f121 e63c 56fb c13d
00000040: 54ef 67bc 348b 5c3d 2f0f 363d f8f6 05bd
00000050: 9070 423b 5b94 583c 1971 d8bc c4fb 0bbe
00000060: e3a1 24be 7617 33bd f686 193c a512 e7bd
00000070: f542 113e fc4e 93bd cddf 613d 148b d43d
00000080: a594 743d eb31 c53c f752 963c b20d 893c
00000090: 6b37 853d 6ded 5fbc 3d8e 2d3c d184 90bc
000000a0: c3d5 0b3c a229 833c 0cb2 debc 8a49 3abd
000000b0: 5b3a ef3c 685b 113d 8470 80bb f55b cb3d
000000c0: aa26 21bd fc71 81bc 33ac 363c f9c1 a43d
000000d0: 23f9 0f3d ec9f 10bd 5d38 aa3d 8141 24bd
000000e0: cb17 2cbd adb1 febc 8fe6 ddbc 351b adbd
000000f0: 1298 bebd 950d 1abe 9082 853d d096 3a3d
00000100: 61f0 5c3d 7a13 0f3c 9aa4 1ebd c050 43bc
00000110: 6d96 8b3d 27db 223d dd6c e03d 1c3a 0c3d
00000120: 1cf7 63bd 7872 cebd 7222 fe3b 32e6 9fbc
00000130: 2d23 06be 7e83 973c ab9f 98bd 0d9f 303d
00000140: 830e 95bd 3a91 353d 7f87 ab3d 5ac0 98bd
00000150: be95 32bd b94f 94bd 91f6 81bd 9cde 5d3d
00000160: edb5 263a 27a3 6ebc abcf f53d 105f b23d
00000170: 4d4b 6dbd 8bb7 2d3d a6dd 46bc 37c1 b4bd
00000180: aff9 8b3d b956 323d 38fc 83bd 2bda 98bd
00000190: c847 543d 5929 16bd 5593 8f3c 89ec 423c
000001a0: 1ef0 38bd e5a2 0cbd 618b a13d 5f1c 16bd
000001b0: 85cb bbbd 5616 90bc 8d0c 333e ae78 ddbc
000001c0: 2650 363d 6ae5 f93c f02b f6bc 67f3 aa3b
000001d0: c7bd f73c c429 eebd dd75 8d3c d2a1 083e
000001e0: 9041 c6bc a445 2b3c ff6c 7cbc c2b8 54bd
000001f0: 026d 3f3d 3d5c 83bd 4a9a 933d db2d 8aba
00000200: 43ec e3bc 1c9d 3c3c 0699 ba3b b2c6 d7bc
00000210: d89b 5c3d 0150 f0bc ca98 923d c803 cf3d
00000220: 9420 a83c 768f a03d 8a35 74bd f719 3ebc
00000230: 0cb4 ebbd 89a6 693d bb2b 443b f39c d3bd
00000240: 8214 e6bc cbb9 da3c 7bca 6e3d 2d15 3a3d
00000250: 7d4b cf3d 4282 e13b 14f3 1d3d 620f 93bc
00000260: b5ee 0f3c 2fba dc3d c773 a7bd c082 133d
00000270: d8bb 81bd 8301 e6bc 91cd 353d b6c9 823d
00000280: f877 b63d 4357 5f3b 4d81 9dbd 8aea 03be
00000290: c99b d43c 704f f83c 1cf9 fdbd e679 b83d
000002a0: bc2e cabd 0f97 c1bd a8bd 2bbd 9a40 ac3d
000002b0: 571d e8bc 483b 113e 4c15 c5bd 58a8 133d
000002c0: 2340 253e de0a c73d fd24 debb 3c55 0e3d
000002d0: f393 24be 8982 193e b721 b5bc 9cd2 7fbc
000002e0: 37b9 283d 5bfb 403d 6f3f 773d 3c44 cb3d
000002f0: 8b4e f93d b7ac a3bd c887 103c a062 afbd
00000300: b6bb 0dbd dcc1 f73b c434 83bd a14b c5bc
00000310: 3e6a f8bd 5375 023d b6d7 52bb 8de4 16be
00000320: 48c7 13be 98e6 abbc 2552 203d 1931 72bd
00000330: 3186 1a3d 0802 adbc 39f0 b5bd 172d b4bc
00000340: fe0b 353d f51c 0cbd 0fd9 b8bd 7f15 46bd
00000350: 4e7c 0d3d 030f a2bd 31dd dc3c 3eba 893d
00000360: c254 78bd 0fdf 0bbd 03c8 63bb f009 603d
00000370: f430 c4bb 4833 a2bd 4622 583d c850 2ebd
00000380: a598 39bb 1d3b 93bd e5ad ac3d b2a2 373d
00000390: f2c7 003d f2a5 b43d 5516 01be 0e51 d13d
000003a0: e493 dfbd 66bd bc3d 350c 1abc 25d9 593d
000003b0: b2b0 283b 44f7 4d3d 0d8e 153e 72eb b93d
000003c0: 170f 543d 0fcd f93c 41b3 c6bd 8f26 b33d
000003d0: 67dc 5dbd 1bcb 0f3d 0209 27bd 6923 703b
000003e0: 32c7 85bd 8a82 973d 127d 03bd ac68 23bd
000003f0: eb37 aabd 8219 a53c eea9 9ebc eb33 83bc

rnn.rnn.weight_hh_l0 f4 [192, 64]
-0.058260873 -0.046353117 0.1313532 0.13528985 0.048467264 -0.13649842 0.07225314 0.007061698
-0.0093407435 -0.04223927 -0.10978684 0.01881167 -0.08231203 0.06389546 -0.04478455 -0.08150691
0.029862631 -0.04130287 -0.087489 -0.12557657 0.11211963 -0.12704998 0.12948716 0.10947753
0.14757109 0.113339506 -0.040050615 0.10334634 0.09414115 0.058900982 0.021621875 -0.088828884
0.020494064 -0.026034098 -0.07154966 0.08543677 -0.03927061 -0.08829478 -0.074351065 0.016463047
-0.07556555 -0.049945846 -0.060182508 0.07135316 -0.017863063 -0.0305701 0.112370536 0.026445396
-0.007419946 -0.0043120957 0.05284482 0.06309784 -0.008348076 0.06959355 -0.14204562 0.060723297
-0.027013287 0.025170239 0.053222567 0.109143965 -0.092595465 -0.03053821 -0.007910292 -0.042129274
0.0009912035 -0.09102245 0.01896067 -0.056272034 -0.057552103 0.19638988 0.0028066302 -0.043733116
0.021676177 0.11050734 -0.10537651 -0.022125155 -0.02400661 -0.005486093 -0.005294394 -0.026667368
-0.05670598 -0.10263585 0.09986313 -0.009526927 0.039694417 0.06344197 0.010669062 6.956766e-05
0.001371493 -0.07642697 0.09852491 -0.03267227 -0.014807215 -0.030484676 0.059861295 -0.016021233
0.007847282 0.09644949 0.12945326 0.080798425 0.023837402 -0.00634346 -0.013580862 -0.055523034
-0.030580925 -0.044058323 0.06326957 0.00096157315 -0.058326837 0.09359074 -0.0017686943 0.21159123
-0.004663371 -0.010846898 0.058144648 0.07459327 0.11585173 -0.08960963 -0.047192216 0.15526558
0.0719645 -0.0500385 0.1244839 -0.017837865 -0.009566333 0.062213093 0.030475415 0.021620117
-0.12014602 -0.024994781 -0.050202645 -0.0043720147 0.045637984 0.042622823 0.09570128 -0.012019346
-0.009418532 -0.11391649 -0.068559304 -0.001034641 0.05220205 -0.015117929 0.12895752 0.00058925035
0.04723123 -0.06955058 -0.046595253 -0.040692378 -0.044611655 0.08471107 0.072374515 -0.08077875
0.07678223 0.06625774 -0.07008962 0.056739155 0.004378156 0.02347675 0.02182786 -0.08105529
0.18420649 -0.05627777 -0.019531311 0.02305215 0.03708175 -0.08028368 -0.029782493 0.14220168
0.09943845 0.035992082 0.004158337 0.031512264 -0.039382506 0.036435995 -0.040693685 0.094188295
0.12841395 0.08604672 -0.016753223 -0.06548097 0.034490816 -0.059662916 0.021637365 0.024925675
0.0024507497 -0.0428729 0.10979274 -0.04930371 0.004434714 -0.060128845 -0.14805761 0.16951948
0.020506214 -0.120826714 0.07058901 0.0017855291 -0.029324578 -0.039106727 0.019571483 -0.07301352
0.029467931 -0.01920684 0.043536663 -0.040243547 -0.080615796 0.008205875 -0.04886181 -0.1067059
-0.032218263 0.004463491 0.056092773 0.08840581 -0.018624438 0.026715837 0.038307223 -0.014451156
-0.09720096 -0.024899222 -0.032828487 -0.0078015295 0.041693572 0.010584776 -0.012609784 -0.08881236
0.07585616 0.06208384 -0.08772983 -0.05020145 -0.09862164 0.11267694 -0.093632445 0.06614888
0.106886365 0.05850321 -0.09698713 -0.13520378 0.022487948 0.053899806 0.00037252097 -0.046832293
-0.035990227 -0.059163954 -0.08440603 -0.06641749 0.054742087 0.018979449 0.009855949 0.07776084
0.033262085 -0.1379661 0.09160946 0.186422 0.067168824 0.035764657 0.026173517 -0.030701632
00000000: f4a2 6ebd c4dc 3dbd 7481 063e 6c89 0a3e
00000010: 9c85 463d 3ec6 0bbe 74f9 933d d165 e73b
00000020: eb09 19bc 1603 2dbd ecd7 e0bd ee1a 9a3c
00000030: 3693 a8bd 9fdb 823d 0170 37bd 18ed a6bd
00000040: 7aa2 f43c 332d 29bd 6f2d b3bd 2597 00be
00000050: fa9e e53d 6419 02be 4898 043e c135 e03d
00000060: e01c 173e 8b1e e83d 1d0c 24bd 3fa7 d33d
00000070: 13cd c03d 2842 713d 5c20 b13c ebeb b5bd
00000080: 2be3 a73c 7645 d5bc a188 92bd 79f9 ae3d
00000090: 38da 20bd e5d3 b4bd 5f45 98bd 83dd 863c
000000a0: 1cc2 9abd 0494 4cbd ef81 76bd 9b21 923d
000000b0: 8f55 92bc 256e fabc 8622 e63d 04a4 d83c
000000c0: 0523 f3bb 7b4c 8dbb cf73 583d 7139 813d
000000d0: 5ec6 08bc 1087 8e3d 6874 11be feb8 783d
000000e0: f84a ddbc d131 ce3c e8ff 593d df86 df3d
000000f0: b1a2 bdbd 452b fabc 2b9a 01bc bf8f 2cbd
00000100: 45eb 813a fa69 babd 6853 9b3c 817d 66bd
00000110: c1bb 6bbd 6e1a 493e 71ef 373b 7f21 33bd
00000120: 3d92 b13c ac51 e23d a4cf d7bd d03f b5bc
00000130: 83a9 c4bc afc4 b3bb 997c adbb 8675 dabc
00000140: 8844 68bd bf32 d2bd 0a85 cc3d d416 1cbc
00000150: 9d96 223d dded 813d 4acd 2e3c dae4 9138
00000160: abc3 b33a be85 9cbd 6ec7 c93d 5cd3 05bd
00000170: f699 72bc 00bb f9bc 1e31 753d f63e 83bc
00000180: e391 003c 4f87 c53d 658f 043e a579 a53d
00000190: a846 c33c cddc cfbb 4482 5ebc 1f6c 63bd
000001a0: d984 fabc 8076 34bd 7a93 813d 1512 7c3a
000001b0: 1fe8 6ebd 80ac bf3d 88d3 e7ba 5fab 583e
000001c0: 31cf 98bb 30b7 31bc 1529 6e3d 5bc4 983d
000001d0: ac43 ed3d 4185 b7bd a04c 41bd f1fd 1e3e
000001e0: 2062 933d 2cf5 4cbd 6af1 fe3d b720 92bc
000001f0: 1cbc 1cbc 28d3 7e3d 94a7 f93c ac1c b13c
00000200: 1e0f f6bd dbc1 ccbc 4aa1 4dbd 1e43 8fbb
00000210: e5ee 3a3d 4595 2e3d 08ff c33d caec 44bc
00000220: 3050 1abc 0c4d e9bd d268 8cbd cb9c 87ba
00000230: d1d1 553d 31b1 77bc 710d 043e ec77 1a3a
00000240: 8975 413d 8970 8ebd aada 3ebd 0dad 26bd
00000250: b6ba 36bd ff7c ad3d 1739 943d 546f a5bd
00000260: 0040 9d3d 23b2 873d 268b 8fbd 5167 683d
00000270: a276 8f3b 5052 c03c 57d0 b23c 5100 a6bd
00000280: a0a0 3c3e 8583 66bd 2100 a0bc ddd7 bc3c
00000290: 08e3 173d c56b a4bd 6afa f3bc 519d 113e
000002a0: 63a6 cb3d 6f6c 133d a942 883b 0113 013d
000002b0: 8d4f 21bd e93d 153d 6cae 26bd cbe5 c03d
000002c0: f27e 033e 4339 b03d 0e3e 89bc e31a 86bd
000002d0: 3e46 0d3d 1a61 74bd d840 b13c ee30 cc3c
000002e0: c29c 203b 7e9b 2fbd 04db e03d b0f2 49bd
000002f0: 1451 913b aa49 76bd 6a9c 17be 8496 2d3e
00000300: a6fc a73c ff73 f7bd f990 903d 6a08 ea3a
00000310: 193a f0bc 602e 20bd 6054 a03c 1d88 95bd
00000320: bb66 f13c aa57 9dbc 8053 323d 6bd6 24bd
00000330: e519 a5bd ef71 063c 5223 48bd 9f88 dabd
00000340: 4cf7 03bd 7a42 923b 89c1 653d 1b0e b53d
00000350: 4792 98bc 2cdb da3c 09e8 1c3d 8bc4 6cbc
00000360: 4c11 c7bd 74f9 cbbc 2a77 06bd f9a3 ffbb
00000370: e1c6 2a3d c56b 2d3c 4499 4ebc 41e3 b5bd
00000380: 795a 9b3d a04b 7e3d b2ab b3bd 09a0 4dbd
00000390: 24fa c9bd 2bc3 e63d 5ec2 bfbd 1079 873d
000003a0: 3de7 da3d 10a1 6f3d 30a1 c6bd dc72 0abe
000003b0: a538 b83c 0bc6 5c3d eb4e c339 38d3 3fbd
000003c0: 7d6a 13bd e755 72bd 12dd acbd e505 88bd
000003d0: 3d39 603d ca7a 9b3c d97a 213c 1341 9f3d
000003e0: d33d 083d fc46 0dbe be9d bb3d 69e5 3e3e
000003f0: cf8f 893d f67d 123d d869 d63c fd81 fbbc
