onpolicy/scripts/results/MPE/simple_spread/rmappo/check/wandb/run-20220704_233751-1rpn6fkk/files/actor.pt (torch, 147692 bytes, 22 tensors)

base.feature_norm.weight f4 [18]
000000 ab b7 83 3f e8 75 7b 3f 1a 59 77 3f 5b c1 7a 3f
       1.0290426 0.98226786 0.96620333 0.9795129
000010 68 2f 83 3f 2f 39 80 3f 45 5d 7b 3f 38 8d 84 3f
       1.0248842 1.0017451 0.98189193 1.0355597
000020 e5 d2 80 3f f4 56 80 3f 54 30 80 3f d6 c2 80 3f
       1.006436 1.0026536 1.0014749 1.0059459
000030 e6 8c 7f 3f 58 d4 79 3f ea b1 82 3f d7 26 80 3f
       0.9982437 0.97589636 1.0210545 1.0011853
000040 97 a8 80 3f 23 0c 82 3f
       1.005145 1.0159954

base.feature_norm.bias f4 [18]
000000 e9 1f 2e bc 42 b2 ea 3b 7d 79 ed bb fd ec ec 3c
       -0.010627725 0.0071623633 -0.0072471485 0.028921599
000010 c2 86 a6 bc ce 2d 98 bc c9 a4 81 3c c7 3e 7c ba
       -0.02032793 -0.018576529 0.015825646 -0.00096223917
000020 27 47 89 3a 88 78 04 bc 57 8b aa 3c 0a 49 94 3c
       0.0010473476 -0.0080853775 0.020818396 0.018101234
000030 cf 2b da 3c 05 e5 96 bc b8 ac 8a bc f6 e9 6c 3c
       0.026632218 -0.018419752 -0.016928062 0.0144600775
000040 2c 47 d1 bb bc 09 c4 bb
       -0.006386658 -0.0059826057

base.mlp.fc1.0.weight f4 [64, 18]
000000 45 83 2a 3b 25 a8 ca 3c f2 e8 5b be 78 5b b4 bd
       0.0026018184 0.02473838 -0.2147558 -0.08806509
000010 1f b2 05 be 03 f2 94 bc fc cd 09 3e 9b d9 41 3e
       -0.13056229 -0.018181806 0.13457483 0.18930666
000020 35 51 e9 be 3e 11 3d 3e 3c 72 1e 3e 6e e4 12 3d
       -0.4556977 0.18463609 0.15473264 0.03586238
000030 2c 51 1a 3d 6e ba 4f 3e 3f 31 d1 bd 0c 55 4e be
       0.037675068 0.20285961 -0.10214471 -0.2014963
000040 81 64 8f be 12 eb a8 3d 2e 94 1e be 39 1f 5f 3e
       -0.28006366 0.08247961 -0.15486214 0.21789254
000050 f8 b2 e1 bd 26 58 f1 3d 76 15 84 3d 80 d9 a7 3d
       -0.11020464 0.11784391 0.06449406 0.08195782
000060 ef ef 43 be f1 df 2f 3e d6 26 ac be f8 44 5d 3e
       -0.19134496 0.1717527 -0.3362338 0.2160834
000070 a3 15 10 3e 82 5e f4 3d db c7 59 be 29 99 d5 bd
       0.14070754 0.119320884 -0.21267645 -0.104296036
000080 26 b1 ce bd ba a0 44 3c a3 49 99 3e 7d 15 11 be
       -0.10092382 0.012001211 0.29938993 -0.14168353
000090 dc 02 82 be e8 db c6 bd cf 78 81 bd 5c 03 f9 3d
       -0.25392807 -0.097099125 -0.063218705 0.12158844
0000a0 ae 53 b7 3d 30 be ab 3d f6 1d ae be 7b 3e 49 be
       0.089515075 0.08385885 -0.34007233 -0.1965274
0000b0 8e ea d6 be cd 29 4a 3d d0 78 82 3e a5 94 f2 3e
       -0.41975826 0.04935627 0.25482798 0.47379032
0000c0 1d 98 bf 3e 69 d9 97 3d f0 73 65 3e d8 62 fa bb
       0.3742074 0.074145146 0.22407508 -0.0076411776
0000d0 06 d9 6e 3d e4 54 3f 3e bd 70 65 3d 0b 64 c2 3d
       0.05831244 0.18684727 0.05601572 0.09491738
0000e0 53 99 41 bf cf c6 8a be a4 70 d2 3e a2 50 94 3e
       -0.7562458 -0.27104804 0.41101563 0.28967768
0000f0 14 ca 71 3d 41 02 77 3e fa f4 ca 3c c6 46 02 3e
       0.059030607 0.24121954 0.024775017 0.1272231
000100 e8 c4 8f be 0a e8 6a be a5 94 12 3e 91 2e f9 bd
       -0.28079915 -0.22940078 0.14314516 -0.12167085
000110 a2 9f 9f 3d ad 25 c3 bd e9 e4 9c be 0b 00 dd 3d
       0.077941194 -0.095286705 -0.30643395 0.10791024
000120 29 78 cd 3c f7 18 ce bd c8 1e 62 be 89 50 e5 bd
       0.02508171 -0.100633554 -0.22082055 -0.111970015
000130 cf f3 93 be 99 50 9f 3c 87 7b 5c 3b bb 5f 59 be
       -0.2889695 0.019447612 0.0033642964 -0.21227925
000140 47 2c a5 bd ec 0c 26 be 25 17 b3 bd c4 ed 43 3d
       -0.08065086 -0.16215867 -0.08744649 0.047834173
000150 09 e2 da bd 16 56 f3 3d 1c 0e 19 be 25 93 a5 3e
       -0.10687644 0.11881654 -0.14946789 0.32338825
000160 b4 92 1d 3e 33 f2 29 be 88 49 08 3f 17 7f 36 be
       0.15387994 -0.16596298 0.532372 -0.17821918
000170 9e 1a 52 3e f3 ff 30 be 4f d3 60 3e 2e f2 5b 3d
       0.20517966 -0.17285137 0.21955608 0.053697757
000180 35 50 86 3c 0b c5 81 be 08 36 b6 be 75 7f 63 3e
       0.016395668 -0.25345644 -0.35588098 0.2221659
000190 b1 79 32 be cf b1 90 3e 9a 38 52 bd db ec 80 3d
       -0.17429234 0.28260657 -0.05132351 0.062951766
0001a0 b6 18 bb 3e 8f 70 2d be 89 48 82 3c 30 cd b3 3c
       0.3654229 -0.16937469 0.015903728 0.021948427
0001b0 de 60 3b 3e a8 29 83 be 57 5d 23 3e 9f 19 5f 3d
       0.1829867 -0.2561772 0.15953575 0.054467794
0001c0 e0 77 91 bd db 6c 11 be 65 64 31 3e 3f 67 a3 be
       -0.071029425 -0.14201681 0.17323454 -0.31914708
0001d0 a9 7c 9f bd c1 3f 93 3e 1c 71 64 3e 4c 3f 80 be
       -0.07787449 0.28759578 0.22308773 -0.25048292
0001e0 ec 85 48 be ed 13 d5 3c fd 57 02 3e d2 79 0d be
       -0.19582337 0.026010478 0.12728877 -0.13816002
0001f0 7e 80 b5 3d ee 91 d8 bd 3e 26 ab 3d 59 33 c7 3e
       0.088623986 -0.10574709 0.083569035 0.38906363
000200 80 28 3d 3d e7 c3 b7 bd 9b ef 87 3d d0 86 96 be
       0.046181202 -0.08972912 0.06637498 -0.2939973
000210 7b 3a 10 3e 75 d2 6b 3e 6b f4 28 be b5 45 e1 bd
       0.14084809 0.23029502 -0.16499488 -0.10999624
000220 c1 ca db 3c 83 6a 98 bc 39 62 7e be 3f f0 52 bc
       0.026830079 -0.018605476 -0.24842156 -0.012874662
000230 95 af d3 3d 06 cd 5e be 2b 00 72 be a9 80 3c 3d
       0.10336224 -0.21757898 -0.23632877 0.046021137
000240 81 a3 87 3e 2f 04 ab be 23 28 ac 3d 20 d3 1e be
       0.2649193 -0.3340163 0.08406093 -0.15510225
000250 6f 4b a0 3e 0c 53 85 be 58 66 a7 3e 72 36 ae 3e
       0.3130755 -0.26039922 0.3269527 0.34025913
000260 e6 d9 35 3d ca d7 21 3e e4 60 06 3e cc eb 81 3e
       0.044397257 0.15804973 0.13122898 0.2537521
000270 36 89 65 3e 7f ab c1 bd 54 b9 88 3b 20 1c 98 bd
       0.22415623 -0.094565384 0.0041724835 -0.074272394
000280 c1 d2 ca be d6 62 b6 3d 8c fb f1 bc 49 ba c8 3e
       -0.39613917 0.0890557 -0.029538892 0.39204624
000290 cd 3f 95 3e 65 b7 53 bd fb bc 26 be f2 d0 36 3c
       0.2915024 -0.05168857 -0.16283028 0.011158215
0002a0 fc a2 63 3d 43 c3 24 3e 74 54 94 3e 2a 08 1a be
       0.055575356 0.16090111 0.28970683 -0.15042177
0002b0 51 3c 03 be 10 fb d9 3d 51 96 30 3e 6c 59 8d 3e
       -0.12815978 0.106435895 0.17244841 0.27607286
0002c0 ea ed 09 bd bf 56 2a be 3e 21 92 bc 5f 90 27 bb
       -0.03367416 -0.16634654 -0.017838117 -0.002556823
0002d0 69 ad 68 3d 13 f8 a5 3d 58 46 49 3e c7 86 14 bc
       0.056806 0.08103957 0.1965574 -0.009065337
0002e0 d7 90 03 3e c1 21 0c 3f 34 bc cd 3d 8a 11 c3 3e
       0.12848221 0.54739004 0.100456625 0.3809932
0002f0 a1 43 1c 3e e8 a6 71 3e 42 d8 28 3e 08 a5 1e 3e
       0.15260173 0.23598826 0.16488746 0.15492642
000300 71 48 82 bd d3 8c 1c 3b e7 d0 3a 3e 85 2f ae 3e
       -0.06361473 0.0023887649 0.18243752 0.3402063
000310 de 96 61 be 5f a7 6c be 46 2e d6 bd e4 36 f6 bd
       -0.22030208 -0.23110722 -0.10458045 -0.12022188
000320 2a a8 f4 3c 58 5e da be 37 0f 98 be 00 aa 08 3e
       0.029865343 -0.42650104 -0.29699108 0.133461
000330 26 e4 45 bb 5f c9 dc bc 32 dc 26 be 2c 0a 23 be
       -0.0030195802 -0.02695149 -0.16294935 -0.15921849
000340 78 e2 6e 3e a5 3a 84 be 10 78 b7 3e 4f d6 59 be
       0.23328578 -0.25825992 0.35833788 -0.21273158
000350 19 be b3 3e 45 12 1d 3e 4a 6f b9 3d 35 a4 67 3e
       0.3510597 0.15339 0.0905443 0.22621234
000360 10 a9 7c be f0 5f 72 bd c9 61 30 bb b8 3e ec 3d
       -0.24673867 -0.059173524 -0.0026913753 0.115354
000370 29 98 26 3d a9 21 10 3f 18 12 41 be 78 f5 1c 3e
       0.040672455 0.5630136 -0.18854558 0.15328014
000380 eb c7 02 3e 89 70 87 bd ac 98 a3 be d8 88 81 3d
       0.12771575 -0.06613261 -0.31952417 0.06324929
000390 fe 37 55 3e 93 a6 1f be 3c e4 45 be 64 dc 34 be
       0.2082214 -0.15590887 -0.19325346 -0.17662197
0003a0 29 36 a3 3e 92 7b a0 3c 2e d7 a2 bc 55 cd ae bd
       0.31877258 0.019590173 -0.019877996 -0.08535258
0003b0 37 d0 b0 bb 0c f2 c6 3d 69 44 05 3e b5 47 87 3d
       -0.005395915 0.097141355 0.13014378 0.06605474
0003c0 42 62 b9 3e d6 85 4d bc 88 52 09 be 76 42 06 be
       0.36207777 -0.012544116 -0.1341039 -0.1311129
0003d0 0b 6d 98 be e7 12 3e 3e 03 53 c9 be 27 cf f4 be
       -0.29770693 0.18561898 -0.39321145 -0.47814295
0003e0 28 6a 40 bd c1 84 7f 3d 94 73 8a 3c 8b f1 02 3e
       -0.04697624 0.062382463 0.016900815 0.12787454
0003f0 ac a3 36 3e 47 81 71 3e 01 b8 a5 3e e7 92 6e 3d
       0.17835873 0.23584472 0.32366946 0.058245566

base.mlp.fc1.0.bias f4 [64]
000000 57 f4 58 bc 33 d2 9a bc df 72 c5 3c f8 1d 32 bd
       -0.013241849 -0.018899059 0.024102626 -0.04348561
000010 2d e9 d5 bc 0c fb 5b bc 83 e9 90 bc 6a 03 a3 3c
       -0.026112163 -0.013426553 -0.017689472 0.019899089
000020 d0 6a 51 bc c4 0d e9 bb d1 6c 50 3a 6d 4c a2 3c
       -0.012781814 -0.0071122367 0.0007950785 0.019811833
000030 53 74 18 ba e9 be fe 3a 4b 15 ee b9 72 f4 90 bb
       -0.00058156735 0.0019435558 -0.00045410762 -0.0044236714
000040 54 fa f3 bc cc 3e 2b 3b 24 4f 2b 3c 5b 91 32 bc
       -0.029782452 0.002612996 0.01045588 -0.010898913
000050 bc 4b 42 3c de 02 e0 3b 7c f3 01 3c 12 60 e3 ba
       0.011858877 0.0068362793 0.007931586 -0.0017347357
000060 fe 90 b1 bc c0 d8 41 3c b5 38 10 bb 90 b1 e2 3c
       -0.021675583 0.011831462 -0.0022006456 0.027672559
000070 44 e3 39 bb 1b 68 d2 ba 87 66 44 bc 02 42 08 3b
       -0.002836422 -0.0016052754 -0.011987335 0.0020791297
000080 bc e7 e4 bc ca f0 4a 3c 76 5b 65 3c a4 c0 88 bb
       -0.02794253 0.01238651 0.013998857 -0.004173355
000090 5e 0c 27 bc 44 6b 65 3c 0f a3 9d 3b a8 25 ad 3c
       -0.01019582 0.014002625 0.004810698 0.02113612
0000a0 67 45 98 bb 25 2a 83 bb 23 f4 1f b9 a3 09 f7 3c
       -0.0046469453 -0.0040028268 -0.0001525437 0.030155962
0000b0 5a ac 92 3c 23 98 64 3a bc d2 b8 3c a0 bf 08 3b
       0.01790445 0.000872018 0.022561423 0.002086617
0000c0 5f 34 fb 3c b2 7f 53 3c cb 7a e6 3c a0 59 ab bc
       0.03066462 0.012908863 0.028134724 -0.02091676
0000d0 54 64 85 bb a2 61 8a 3c 83 69 d4 3c be 63 47 ba
       -0.004070798 0.016892258 0.025929218 -0.00076061103
0000e0 ea 2b 19 3c 84 1b 57 3c 48 fe d2 bb e9 9c 27 bd
       0.009348849 0.013129119 -0.006439004 -0.040921126
0000f0 c3 88 30 3c e8 01 86 bc da fa e8 bc 82 86 15 bd
       0.010774794 -0.01635833 -0.028439928 -0.03650523

base.mlp.fc1.2.weight f4 [64]
000000 2f 4d 79 3f 43 9c 81 3f 66 90 80 3f f6 70 7e 3f
       0.973834 1.0125812 1.0044067 0.99391115
000010 4d 0e 7a 3f 2f 64 80 3f a8 2f 81 3f 20 21 82 3f
       0.9767807 1.0030574 1.0092669 1.0166359
000020 5f 49 7d 3f e6 34 7a 3f 2f b1 81 3f 64 1f 7d 3f
       0.9894008 0.97736967 1.0132197 0.98876023
000030 c5 5f 80 3f cf 54 82 3f d7 7f 76 3f cd 20 81 3f
       1.0029227 1.0182132 0.9628882 1.0088135
000040 fc 7d 7f 3f e6 e7 82 3f 85 af 80 3f f3 66 7a 3f
       0.9980161 1.022702 1.0053564 0.9781334
000050 8a cb 7f 3f 02 16 80 3f 96 c3 7d 3f 76 e8 85 3f
       0.9991995 1.0006716 0.99126565 1.0461566
000060 f3 0c 7f 3f 6b 7f 82 3f e6 34 81 3f 78 67 80 3f
       0.99629134 1.0195135 1.0094268 1.0031576
000070 76 3a 80 3f fc 84 7f 3f 8d 4a 82 3f 09 cb 7e 3f
       1.0017841 0.99812293 1.0179001 0.9952856
000080 37 54 7d 3f 60 fa 7e 3f b8 46 82 3f d9 58 79 3f
       0.98956627 0.9960079 1.0177832 0.97401196
000090 6b 02 82 3f 19 7e 81 3f 4c aa 7b 3f 81 84 81 3f
       1.0156988 1.0116607 0.9830673 1.0118562
0000a0 b0 11 82 3f 88 3c 7b 3f 59 a1 80 3f 0a 9c 82 3f
       1.0161648 0.9813924 1.0049239 1.0203869
0000b0 ac 23 80 3f ec 40 7f 3f 97 c6 82 3f f6 e7 7d 3f
       1.0010886 0.9970844 1.0216855 0.9918207
0000c0 59 43 7b 3f 2b 42 7e 3f bb dd 80 3f ee 78 80 3f
       0.9814964 0.99319714 1.0067667 1.0036905
0000d0 e0 dd 7d 3f 17 70 80 3f 4b 41 81 3f 0a 34 7f 3f
       0.9916668 1.0034207 1.0098051 0.9968878
0000e0 07 5e 7b 3f 51 f9 7b 3f 9f 34 83 3f ad dc 7f 3f
       0.9819035 0.984273 1.0250434 0.999461
0000f0 a7 92 84 3f de c1 80 3f 9a c9 7b 3f 7c a8 78 3f
       1.0357255 1.0059164 0.98354495 0.97132087

base.mlp.fc1.2.bias f4 [64]
000000 e5 09 98 bc e9 8b 69 bc b9 da a0 3c 0e 6a 10 bc
       -0.018559406 -0.014254549 0.019635545 -0.008814348
000010 47 0c ef bc 85 3a 4a bc 7e f7 9d bc fa 4a 80 3c
       -0.029180659 -0.012343054 -0.019283053 0.015660752
000020 8a f1 75 bc 2a a9 4d 39 47 5f 84 38 1d 4a d4 3c
       -0.015011201 0.00019613342 6.311997e-05 0.025914246
000030 f0 c6 6c bc 7c 2d 15 bc a5 0f ec 39 e4 b3 f6 bb
       -0.014451727 -0.009105083 0.00045025084 -0.007528769
000040 8d d2 b6 bc ef e9 c2 bb a8 09 5e 3c 3e 37 e0 bb
       -0.022317195 -0.005948297 0.013552107 -0.006842523
000050 fa e4 3c 3b 40 78 ec 3b 90 a9 96 3b ad 7f 5d bb
       0.0028823004 0.0072164834 0.00459785 -0.0033798025
000060 f9 50 a8 bc 41 36 8f 3c 39 1b 03 3b 30 1b a6 3c
       -0.020546423 0.017481925 0.002000524 0.020276636
000070 ed bf 26 b9 a0 2a 2c bc cc 9e f6 bb 42 a8 15 3c
       -0.00015902492 -0.0105082095 -0.0075262543 0.009134354
000080 6d 88 ab bc 24 53 40 3c 33 74 6f 3c 69 c1 ba bc
       -0.020939076 0.011738572 0.014615106 -0.022797303
000090 29 60 12 bc 07 18 ef 3c 20 c7 e7 ba 3a 06 a2 3c
       -0.008934059 0.029186262 -0.0017683245 0.01977836
0000a0 bf 58 c6 3b 8a 7a 68 bc 0d 23 c9 bb 64 0a 44 3c
       0.00605306 -0.014189372 -0.0061382116 0.011965368
0000b0 43 f2 7c 3c d1 ee d0 3a 43 95 8a 3c 65 d5 09 3a
       0.015438619 0.0015940313 0.016916877 0.00052579335
0000c0 38 8e b9 3c 12 0b 1c bc ae 00 b8 3c a1 25 d3 bb
       0.022650823 -0.009524124 0.022461262 -0.0064436947
0000d0 b3 62 45 bc 8e ad ff 3c 9d 51 b0 3c 96 bf 45 bc
       -0.0120474575 0.031210687 0.021523291 -0.012069603
0000e0 9d c0 13 3c 1d 35 24 bb 84 aa 44 bb f4 65 10 bd
       0.009018091 -0.0025056072 -0.0030008862 -0.03525348
0000f0 e9 58 6b 3c 83 46 7b bc 57 77 db bc 33 ff 98 bc
       0.01436446 -0.0153366355 -0.026790304 -0.018676376

base.mlp.fc_h.0.weight f4 [64, 64]
000000 20 24 09 3d 93 ad 17 be 0b 51 24 3d ba b4 21 3e
       0.033481717 -0.14812307 0.04011635 0.15791598
000010 5e e3 85 be be 42 3c 3e 8e 2c c9 bd b0 b6 36 be
       -0.2615003 0.18384835 -0.09822951 -0.17843127
000020 3a 72 7b be 83 e7 56 3e f7 fa 71 3d 5c c5 0c bf
       -0.24555293 0.20986752 0.05907723 -0.54988647
000030 b4 eb a9 be 71 c9 9e bd 09 6e 82 be b8 29 6e 3e
       -0.3318764 -0.07753266 -0.25474575 0.23258102
000040 f8 34 11 bd a4 54 94 3e 7b e2 2c 3e bd 64 bd bb
       -0.035450906 0.28970826 0.1688327 -0.005779831
000050 08 6f ab bd 17 ff 99 3c 5f f3 c1 3e 3c ed b9 be
       -0.08370787 0.018798394 0.3788099 -0.36313808
000060 53 e4 20 be bd c6 01 3e 22 b4 90 be 88 04 24 3e
       -0.15712099 0.12673469 -0.2826243 0.16017354
000070 b8 de 93 3e 80 56 30 bb 34 33 b6 bd c7 64 09 be
       0.28880858 -0.0026907027 -0.08896485 -0.1341735
000080 7f e6 d8 3e 1a 25 99 bb b8 f8 04 3c 73 d1 26 be
       0.42363355 -0.0046736123 0.00811594 -0.16290836
000090 20 b2 70 3c c2 25 e8 be cc 68 c3 be 22 f9 0c bd
       0.014690906 -0.45341307 -0.3816589 -0.03441728
0000a0 bf 71 29 bd 27 f3 83 3d 68 a3 19 bd 8d f3 4b be
       -0.041368242 0.06442862 -0.037509352 -0.19917126
0000b0 51 07 ad 3e f6 b5 1f 3b 74 e0 30 bd 9a 0a 58 3e
       0.33794644 0.0024369932 -0.043182805 0.21097794
0000c0 3c 43 bf bd 9b 34 3d 3d e1 5a a0 3e 8b 29 9c be
       -0.09338996 0.046192747 0.31319335 -0.30500445
0000d0 11 a8 76 3e 6a 95 b7 3d f3 a1 74 3e 36 89 2e be
       0.2408755 0.08964045 0.23889904 -0.1704453
0000e0 ae 6d 64 be 46 3b 09 3c 22 f1 23 3e 84 7b 9f 3d
       -0.22307464 0.008375948 0.16009954 0.077872306
0000f0 ca 2d 24 be 6b 29 d7 bd fd 68 2e be a7 8e 0e be
       -0.16033092 -0.10505947 -0.17032237 -0.13921605
000100 7f 1e bc 3e 90 75 2e bd 45 30 24 3d 88 5e 4f be
       0.36742017 -0.042592585 0.040085096 -0.20250905
000110 33 a0 eb 3d 76 12 1d 3f fb 3b 1e bf 34 34 e7 bd
       0.11505165 0.61356294 -0.6181027 -0.11289254
000120 e3 6b ae bd 7b 0d fe 3c 1e 66 97 be 0c b3 25 3d
       -0.085166715 0.031012287 -0.29570097 0.040453956
000130 28 6d 6a 3d 47 16 0f 3c 30 f0 64 be b4 42 22 3d
       0.057233006 0.008733339 -0.2235725 0.039614394
000140 6d 8d 09 3d 2f 71 48 be 5b 24 04 3e f6 78 11 3d
       0.03358214 -0.19574426 0.12904494 0.035515748
000150 03 80 01 3e 37 d9 a9 bc 95 65 9e 3d 53 4a 8b bd
       0.12646489 -0.020733459 0.07734219 -0.068012856
000160 d8 ff 47 bc 8a 10 db be 63 0c c8 3d 2a 09 9b 3e
       -0.012206994 -0.42786056 0.097679876 0.3028043
000170 99 cb 40 be 79 32 61 3e 26 80 87 3d 31 c0 b6 bb
       -0.18827666 0.2199191 0.06616239 -0.00557711
000180 79 fa 6d be a0 cf dd 3d 23 97 ae bd 7c fd fe 3d
       -0.23240079 0.10830617 -0.08524921 0.12450692
000190 8b ca 82 be 86 f5 bd 3d 18 98 61 3e 11 9e 1b 3e
       -0.25545153 0.092753455 0.22030675 0.15197016
0001a0 ba b2 a3 be f0 a5 12 3d 27 92 73 3e 25 af 58 be
       -0.31972295 0.03580278 0.23786221 -0.21160562
0001b0 87 b0 d1 3e 9e 1d 79 be 59 66 03 3e 32 69 d7 3d
       0.40954992 -0.24327704 0.12832011 0.10518111
0001c0 80 58 1b 3d 5b 4d 00 3e a7 f0 0f 3d 67 bc 98 3e
       0.037926197 0.12529509 0.035141613 0.2983124
0001d0 9f 3a 71 bd 5d c7 b3 be 1d fe 10 3e cb 3a 7c be
       -0.058893796 -0.3511304 0.14159437 -0.24631803
0001e0 00 f7 c9 bd c7 01 dc bd e9 39 df 3d 82 56 4f 3e
       -0.09861565 -0.107425265 0.10899717 0.20247844
0001f0 a5 f4 1d 3e 18 02 1c be b0 7c 8c 3e 49 64 96 3b
       0.15425356 -0.15235174 0.2743888 0.0045895916
000200 2e 70 94 be f4 70 7c 3e 87 6c 5a 3e a7 f7 9f bd
       -0.28991836 0.24652463 0.21330462 -0.07810908
000210 52 a9 86 3c 38 97 db bd 67 12 8f bc 59 07 22 3e
       0.01643816 -0.10722202 -0.01746483 0.15823115
000220 85 2f 8c be 06 b2 67 3e cb 50 3f be 44 20 25 be
       -0.27380005 0.22626504 -0.18683164 -0.1612559
000230 41 7a ee 3e fb 37 0b 3d 96 16 b4 bd aa 2a 0f 3c
       0.46577647 0.033988934 -0.087933704 0.008738199
000240 a5 8d dc bd b8 e4 d6 3e 4c e9 29 3e 30 d1 e5 3e
       -0.10769204 0.41971374 0.16592902 0.4488616
000250 72 37 39 3e d4 2d 69 be 16 b4 a3 3e 74 0f a9 3e
       0.18087557 -0.22771388 0.31973332 0.33019602
000260 96 07 58 3e aa db 7c 3e 2c 5f 76 3e 84 03 4c 3e
       0.21096644 0.2469317 0.24059743 0.19923216
000270 4c 29 e0 bd ce e1 1f bd f7 c6 1c be 9b 14 26 be
       -0.10945377 -0.039033704 -0.15310274 -0.16218798
000280 fd 2f d0 3c 23 6c 20 bb bb 59 98 be 08 ed 26 3e
       0.025413508 -0.0024478517 -0.2975596 0.16301358
000290 c0 70 ea bb 23 2d 2b be 72 5e 69 bd ed 51 f5 3d
       -0.007154554 -0.16716437 -0.056974836 0.11978517
0002a0 99 c6 f0 bb 8a 09 2c 3c de f5 a1 3e b2 c7 d5 3d
       -0.0073478934 0.010500321 0.31632894 0.104384795
0002b0 40 33 f3 bd 16 5b 46 3d 10 72 69 be 28 10 82 3d
       -0.118750095 0.04842671 -0.22797418 0.06350738
0002c0 a1 03 1b be dc f6 10 3e 17 fe 8a 3d aa dc 9a 3e
       -0.15138103 0.1415667 0.06786745 0.30246478
0002d0 02 eb 1b be 74 a2 64 3e a8 b6 bf 3e 93 e9 8d bc
       -0.15226367 0.22327596 0.37444043 -0.01732329
0002e0 2a 95 d2 3b c3 c7 ed bd 05 48 48 be f2 48 01 bf
       0.006426473 -0.11610367 -0.19558723 -0.5050193
0002f0 1e 05 c6 3d 9b 7b 8f be bc 67 fe 3d a4 7b 58 3e
       0.09668945 -0.2802399 0.124221295 0.21140915
000300 13 4e fb 3d a0 f4 a7 be 9e 2e 84 bd 73 47 a7 3b
       0.12270751 -0.32803822 -0.06454204 0.005104953
000310 00 ed c2 bd 44 eb 99 be cc a3 1a 3d 9a 31 f5 3d
       -0.095178604 -0.30062306 0.037753865 0.11972351
000320 e3 32 71 be 33 ac de 3e c0 87 45 be ed ba 17 be
       -0.23554568 0.43490753 -0.19290066 -0.148174
000330 5e 5c 11 bd f7 f0 8a bc 10 d0 83 3e 5f ea f4 be
       -0.03548848 -0.016960604 0.25744677 -0.4783506
000340 72 59 41 bd 0f 90 85 bd 70 81 1c be 24 8c 27 3e
       -0.047204442 -0.065216176 -0.15283751 0.16362053
000350 83 ee fc bd a6 86 83 bc bf 02 04 3e 26 86 a5 bd
       -0.1235018 -0.016055416 0.12891673 -0.080822274
000360 f3 08 ed 3e a9 f7 60 be bd 64 a2 be 92 74 1a bd
       0.4629589 -0.21969475 -0.31717482 -0.037708826
000370 2a 35 1f be 64 2a f1 3d 5d 45 e9 be 46 77 53 bd
       -0.15547624 0.117756635 -0.45560732 -0.05162742
000380 8f 02 df 3d 61 41 35 be c6 58 b7 3e 3f 17 40 3d
       0.1088916 -0.17700721 0.35809916 0.04689717
000390 32 14 8c 3c 13 10 9c 3e a3 31 58 be 44 8d 0b be
       0.017099474 0.30481014 -0.21112685 -0.13628107
0003a0 c8 4b 6b 3e 81 ec 33 be c0 b5 4b 3e ee 99 bd be
       0.22978127 -0.17570688 0.19893551 -0.37031502
0003b0 29 81 30 bd 67 88 49 3e 90 84 94 bd cd 90 2c be
       -0.043091927 0.1968094 -0.07251847 -0.16852112
0003c0 6a 9d ee 3d 3f b6 23 3c fd 47 0b be a8 7b fc 3e
       0.11651118 0.009992181 -0.1360168 0.49313092
0003d0 ea 52 7c 3d 95 3d c1 bd 71 55 d0 3d 6b 4c 48 3c
       0.06160251 -0.09435574 0.10172547 0.012225251
0003e0 94 b1 69 3c 8b 31 69 be 76 18 42 3e 00 4b 92 3e
       0.014263529 -0.22772805 0.18954644 0.28572845
0003f0 20 47 a2 3d 71 4d b3 bd 52 a7 48 be 82 d5 51 be
       0.07923722 -0.08755005 -0.19595078 -0.20491603

base.mlp.fc_h.0.bias f4 [64]
000000 00 00 00 00 00 00 00 00 00 00 00 00 00 00 00 00
       0.0 0.0 0.0 0.0
000010 00 00 00 00 00 00 00 00 00 00 00 00 00 00 00 00
       0.0 0.0 0.0 0.0
000020 00 00 00 00 00 00 00 00 00 00 00 00 00 00 00 00
       0.0 0.0 0.0 0.0
000030 00 00 00 00 00 00 00 00 00 00 00 00 00 00 00 00
       0.0 0.0 0.0 0.0
000040 00 00 00 00 00 00 00 00 00 00 00 00 00 00 00 00
       0.0 0.0 0.0 0.0
000050 00 00 00 00 00 00 00 00 00 00 00 00 00 00 00 00
       0.0 0.0 0.0 0.0
000060 00 00 00 00 00 00 00 00 00 00 00 00 00 00 00 00
       0.0 0.0 0.0 0.0
000070 00 00 00 00 00 00 00 00 00 00 00 00 00 00 00 00
       0.0 0.0 0.0 0.0
000080 00 00 00 00 00 00 00 00 00 00 00 00 00 00 00 00
       0.0 0.0 0.0 0.0
000090 00 00 00 00 00 00 00 00 00 00 00 00 00 00 00 00
       0.0 0.0 0.0 0.0
0000a0 00 00 00 00 00 00 00 00 00 00 00 00 00 00 00 00
       0.0 0.0 0.0 0.0
0000b0 00 00 00 00 00 00 00 00 00 00 00 00 00 00 00 00
       0.0 0.0 0.0 0.0
0000c0 00 00 00 00 00 00 00 00 00 00 00 00 00 00 00 00
       0.0 0.0 0.0 0.0
0000d0 00 00 00 00 00 00 00 00 00 00 00 00 00 00 00 00
       0.0 0.0 0.0 0.0
0000e0 00 00 00 00 00 00 00 00 00 00 00 00 00 00 00 00
       0.0 0.0 0.0 0.0
0000f0 00 00 00 00 00 00 00 00 00 00 00 00 00 00 00 00
       0.0 0.0 0.0 0.0

base.mlp.fc_h.2.weight f4 [64]
000000 00 00 80 3f 00 00 80 3f 00 00 80 3f 00 00 80 3f
       1.0 1.0 1.0 1.0
000010 00 00 80 3f 00 00 80 3f 00 00 80 3f 00 00 80 3f
       1.0 1.0 1.0 1.0
000020 00 00 80 3f 00 00 80 3f 00 00 80 3f 00 00 80 3f
       1.0 1.0 1.0 1.0
000030 00 00 80 3f 00 00 80 3f 00 00 80 3f 00 00 80 3f
       1.0 1.0 1.0 1.0
000040 00 00 80 3f 00 00 80 3f 00 00 80 3f 00 00 80 3f
       1.0 1.0 1.0 1.0
000050 00 00 80 3f 00 00 80 3f 00 00 80 3f 00 00 80 3f
       1.0 1.0 1.0 1.0
000060 00 00 80 3f 00 00 80 3f 00 00 80 3f 00 00 80 3f
       1.0 1.0 1.0 1.0
000070 00 00 80 3f 00 00 80 3f 00 00 80 3f 00 00 80 3f
       1.0 1.0 1.0 1.0
000080 00 00 80 3f 00 00 80 3f 00 00 80 3f 00 00 80 3f
       1.0 1.0 1.0 1.0
000090 00 00 80 3f 00 00 80 3f 00 00 80 3f 00 00 80 3f
       1.0 1.0 1.0 1.0
0000a0 00 00 80 3f 00 00 80 3f 00 00 80 3f 00 00 80 3f
       1.0 1.0 1.0 1.0
0000b0 00 00 80 3f 00 00 80 3f 00 00 80 3f 00 00 80 3f
       1.0 1.0 1.0 1.0
0000c0 00 00 80 3f 00 00 80 3f 00 00 80 3f 00 00 80 3f
       1.0 1.0 1.0 1.0
0000d0 00 00 80 3f 00 00 80 3f 00 00 80 3f 00 00 80 3f
       1.0 1.0 1.0 1.0
0000e0 00 00 80 3f 00 00 80 3f 00 00 80 3f 00 00 80 3f
       1.0 1.0 1.0 1.0
0000f0 00 00 80 3f 00 00 80 3f 00 00 80 3f 00 00 80 3f
       1.0 1.0 1.0 1.0

base.mlp.fc_h.2.bias f4 [64]
000000 00 00 00 00 00 00 00 00 00 00 00 00 00 00 00 00
       0.0 0.0 0.0 0.0
000010 00 00 00 00 00 00 00 00 00 00 00 00 00 00 00 00
       0.0 0.0 0.0 0.0
000020 00 00 00 00 00 00 00 00 00 00 00 00 00 00 00 00
       0.0 0.0 0.0 0.0
000030 00 00 00 00 00 00 00 00 00 00 00 00 00 00 00 00
       0.0 0.0 0.0 0.0
000040 00 00 00 00 00 00 00 00 00 00 00 00 00 00 00 00
       0.0 0.0 0.0 0.0
000050 00 00 00 00 00 00 00 00 00 00 00 00 00 00 00 00
       0.0 0.0 0.0 0.0
000060 00 00 00 00 00 00 00 00 00 00 00 00 00 00 00 00
       0.0 0.0 0.0 0.0
000070 00 00 00 00 00 00 00 00 00 00 00 00 00 00 00 00
       0.0 0.0 0.0 0.0
000080 00 00 00 00 00 00 00 00 00 00 00 00 00 00 00 00
       0.0 0.0 0.0 0.0
000090 00 00 00 00 00 00 00 00 00 00 00 00 00 00 00 00
       0.0 0.0 0.0 0.0
0000a0 00 00 00 00 00 00 00 00 00 00 00 00 00 00 00 00
       0.0 0.0 0.0 0.0
0000b0 00 00 00 00 00 00 00 00 00 00 00 00 00 00 00 00
       0.0 0.0 0.0 0.0
0000c0 00 00 00 00 00 00 00 00 00 00 00 00 00 00 00 00
       0.0 0.0 0.0 0.0
0000d0 00 00 00 00 00 00 00 00 00 00 00 00 00 00 00 00
       0.0 0.0 0.0 0.0
0000e0 00 00 00 00 00 00 00 00 00 00 00 00 00 00 00 00
       0.0 0.0 0.0 0.0
0000f0 00 00 00 00 00 00 00 00 00 00 00 00 00 00 00 00
       0.0 0.0 0.0 0.0

base.mlp.fc2.0.0.weight f4 [64, 64]
000000 d4 04 52 3d 58 06 1e be cc b8 e5 3c 95 05 28 3e
       0.051274136 -0.15432107 0.02804222 0.1640838
000010 0e 89 88 be 62 c9 34 3e b5 91 8c bd 9d 9f 2f be
       -0.26667064 0.17654946 -0.06863729 -0.17150731
000020 36 49 63 be cb eb 3f 3e c1 99 a7 3d f4 44 05 bf
       -0.22195897 0.18742292 0.08183623 -0.5205834
000030 e5 10 b2 be 07 d4 99 bd 41 3e 78 be 6a 0e 4d 3e
       -0.34778515 -0.07511144 -0.24242498 0.2002503
000040 90 f1 ce bc f7 06 9c 3e b2 01 2d 3e 11 f6 35 bd
       -0.02526167 0.30474064 0.16895178 -0.04442412
000050 87 93 98 bd 9b 34 95 3b ba f7 b1 3e 97 bc c1 be
       -0.074500136 0.00455339 0.34759313 -0.37839195
000060 52 30 1d be af 13 c8 3d 47 0f 7b be 23 64 23 3e
       -0.15350464 0.09769379 -0.24517547 0.15956168
000070 b0 c7 91 3e 39 b8 79 ba fb 1e 62 bd 67 98 32 be
       0.28472662 -0.00095260475 -0.055205327 -0.1744095
000080 49 cd dd 3e f0 83 46 3c 83 88 04 3a 5f eb 3b be
       0.43320683 0.012116417 0.0005055742 -0.18351506
000090 b4 c7 19 3d ca 49 f1 be 25 42 b5 be 5d c5 ef bc
       0.037543967 -0.4712661 -0.35402027 -0.029268915
0000a0 42 21 39 bd 5a 23 aa 3d ba 90 2f bd 71 84 5e be
       -0.045197733 0.08307524 -0.04286263 -0.2173021
0000b0 00 03 bf 3e a2 de 22 bc 7a cb bc bc 56 d3 6d 3e
       0.37306976 -0.009940775 -0.023046244 0.2322515
0000c0 33 a7 be bd 66 a0 67 3d fd 48 8c 3e 97 f1 a5 be
       -0.093092345 0.056549452 0.27399436 -0.3241088
0000d0 ef f0 7d 3e a3 6b 85 3d 5b b1 86 3e ca f2 42 be
       0.2479894 0.06514671 0.26307186 -0.19037929
0000e0 e3 e2 4c be f7 cb ed 3b d0 ca 37 3e a6 1e 69 3d
       -0.20008425 0.0072569805 0.1794846 0.056913994
0000f0 7b 55 0a be 86 d3 fc bd 26 5d 3a be ea 2d 0d be
       -0.1350917 -0.123450324 -0.18199596 -0.13787046
000100 8e d2 c3 3e 97 cf 04 bd 94 51 96 3c bc a2 31 be
       0.38246578 -0.032424536 0.018349446 -0.17347234
000110 2b fa da 3d 53 7a 1a 3f 46 86 1e bf a4 fd f3 bd
       0.10692247 0.603429 -0.61923635 -0.119136125
000120 17 a1 9f bd 97 a4 39 3d 5a 26 88 be 55 f3 60 3d
       -0.07794397 0.04532298 -0.2659176 0.05491956
000130 28 54 83 3d 4f 3a f1 37 7e 29 70 be c0 3e f7 3c
       0.06412536 2.875659e-05 -0.23453328 0.030181289
000140 13 24 55 3d 29 a6 49 be 07 d5 05 3e c0 1e 17 3d
       0.052036356 -0.19692291 0.13069545 0.03689456
000150 ee 7e 07 3e 69 58 83 bc 2c 52 a7 3d 7e 50 dd bd
       0.13232014 -0.016033368 0.0816997 -0.10806368
000160 be 21 f4 bc 52 de d5 be 04 15 8e 3d 43 8f 8a 3e
       -0.029801246 -0.4177118 0.06937602 0.27062425
000170 31 c0 35 be e4 45 59 3e b1 dc 96 3d 7d b0 91 bc
       -0.17749096 0.21218067 0.07366312 -0.017784351
000180 eb 6b 7c be d8 5f b3 3d 04 02 de bd b5 11 f3 3d
       -0.24650542 0.08758515 -0.10840228 0.11868612
000190 47 0b 78 be 42 d2 d0 3d 0d ef 7a 3e eb 6e 17 3e
       -0.24223052 0.101963535 0.24505253 0.14788406
0001a0 42 07 b1 be 98 64 58 3d 33 dd 74 3e 75 6e 73 be
       -0.3457585 0.05283031 0.23912506 -0.23772605
0001b0 93 6f e0 3e 72 3a 83 be 1b 62 e3 3d e2 76 01 3e
       0.43835124 -0.25630528 0.111026965 0.12643006
0001c0 9b 26 04 3d 5d cd 0b 3e 0b 4a df 3c 0a 7b 94 3e
       0.03226338 0.13652559 0.027256986 0.2900012
0001d0 5f a4 e6 bc f1 34 b0 be ed 7f 0b 3e 8d 1a 8d be
       -0.02815455 -0.3441539 0.13623019 -0.2755932
0001e0 60 30 dc bd 00 cf cc bd aa 0b ff 3d c7 bc 2b 3e
       -0.10751414 -0.100004196 0.124533966 0.16771232
0001f0 ea 7e 33 3e 38 30 09 be 94 37 96 3e 64 e0 7b 3c
       0.17528883 -0.133973 0.29339278 0.015373323
000200 93 79 95 be ed be 68 3e b2 8a 56 3e 5a c2 84 bd
       -0.29194316 0.22729082 0.20951346 -0.06482382
000210 2e 06 98 3b 24 bc ee bd 84 7d d3 bc 76 4d 22 3e
       0.0046394086 -0.11656979 -0.025816686 0.15849862
000220 81 dc 75 be 85 0b 6a 3e ac c0 4c be d6 82 19 be
       -0.24009897 0.22855957 -0.19995373 -0.14991316
000230 74 59 e9 3e 92 1c bc 3c 10 bd cd bd 44 77 99 bb
       0.4557606 0.022962842 -0.100458264 -0.004683407
000240 bc a6 ef bd ff 0a d6 3e 3d c0 3d 3e 5e 82 e7 3e
       -0.11701724 0.41805264 0.18530364 0.4521665
000250 95 e7 49 3e e4 05 67 be f5 41 ae 3e 0e 08 aa 3e
       0.19717248 -0.22560841 0.34034696 0.3320927
000260 1e 99 5f 3e 9a cf 86 3e 6c 80 56 3e 83 73 40 3e
       0.21835753 0.26330262 0.20947427 0.18794064
000270 ea f8 e2 bd fc 76 26 bd 1d e2 39 be fa 63 2a be
       -0.11082633 -0.040640816 -0.18152662 -0.166397
000280 ea 5d 0f 3d d5 b4 1d 3c 54 70 92 be a2 d1 0a 3e
       0.035001673 0.009625633 -0.28601325 0.13556531
000290 4f c9 3b bc 09 a4 39 be 42 72 35 bd cb f6 07 3e
       -0.01146157 -0.1812898 -0.044298418 0.13277738
0002a0 30 9e 6d bb 3f f1 61 bc 2c 3c ac 3e 84 3c ec 3d
       -0.0036257617 -0.013790428 0.33639657 0.1153498
0002b0 87 23 f4 bd 69 19 a8 3d 21 f3 76 be e7 82 87 3d
       -0.11920839 0.082079716 -0.24116184 0.066167645
0002c0 d6 37 1f be 37 b5 01 3e a4 8c a2 3d 0d c6 9b 3e
       -0.15548643 0.12666784 0.07936981 0.30424538
0002d0 e7 1e 0f be b3 81 5d 3e 99 01 c3 3e 8c 1a d5 bc
       -0.13976632 0.21631508 0.38087156 -0.026013635
0002e0 db 40 6b 3b 93 74 e4 bd 94 61 56 be d0 f0 04 bf
       0.0035896811 -0.11155047 -0.2093566 -0.5192995
0002f0 bc 7d cc 3d 77 b4 86 be 86 2e eb 3d 9c 25 5c 3e
       0.099849194 -0.2630956 0.11483483 0.21498722
000300 33 8c e8 3d 5f 89 9f be 79 8d 90 bd 5d 85 ad 3c
       0.11354866 -0.31159493 -0.07058234 0.021181757
000310 52 67 eb bd d0 a7 93 be e5 d0 5b 3d d4 76 01 3e
       -0.11494316 -0.28838968 0.053666014 0.12642986
000320 cf ba 73 be 4b 2a d9 3e 09 2b 3a be 23 f0 22 be
       -0.2380173 0.4241508 -0.18180479 -0.15911917
000330 b9 4d ca bc d3 fb 19 ba 7b 0a 7a 3e 59 97 fb be
       -0.024695264 -0.00058740115 0.2441806 -0.49138907
000340 b8 b1 2d bd 44 5f a4 bd ee fe 16 be a7 72 33 3e
       -0.042405814 -0.08025983 -0.14745685 0.17524205
000350 91 6e 08 be 75 96 cc bc 3c fd e0 3d 95 e4 a1 bd
       -0.13323428 -0.024974087 0.109858006 -0.07904927
000360 7f af fa 3e 8e 24 56 be 7f 60 a8 be d7 41 2f bd
       0.48962018 -0.20912382 -0.3288612 -0.0427874
000370 c4 2a 23 be 66 b8 04 3e 86 3e ec be 26 a4 75 bd
       -0.15934283 0.12960967 -0.46141452 -0.059970997
000380 4f dd d8 3d 29 e5 3c be 94 c5 ba 3e a1 d9 48 3d
       0.10589086 -0.18446793 0.36478865 0.049035672
000390 83 8a 7c 3c 0a da a1 3e 66 b2 4c be 1e 84 05 be
       0.015413883 0.31611663 -0.19989929 -0.1303868
0003a0 80 5f 66 3e cd 01 24 be 39 32 38 3e e7 57 be be
       0.22497368 -0.16016312 0.17987908 -0.3717644
0003b0 11 0a 56 bd b3 fe 35 3e 0b 0a ae bd f6 6e 2e be
       -0.052255694 0.17772941 -0.08498009 -0.17034516
0003c0 b7 7c ce 3d c4 a9 88 3c f5 be 0a be ac 20 01 3f
       0.10082381 0.016682513 -0.13549407 0.5044048
0003d0 77 67 75 3d d4 df b9 bd c4 b0 ac 3d 32 c7 bc 3c
       0.059913125 -0.09075895 0.08432153 0.023044202
0003e0 63 cf e6 3c 0d 04 7f be c5 65 38 3e bc ce 9b 3e
       0.028175062 -0.24903889 0.18007572 0.30431163
0003f0 05 b3 66 3d ac 41 8b bd 8f a4 39 be 7d 15 46 be
       0.05632307 -0.06799635 -0.1812918 -0.19344135

base.mlp.fc2.0.0.bias f4 [64]
000000 c0 d6 03 ba 17 91 9b ba de 72 47 3c bb 74 01 bc
       -0.00050292537 -0.0011868802 0.012173383 -0.007901366
000010 6a d6 4a bc 17 7e 92 bc 65 a4 00 3d 19 fd 9e bc
       -0.012380222 -0.01788239 0.03140678 -0.019407796
000020 ea e7 b1 bc 73 28 0d 3d 13 f8 b6 bc 21 b1 0a bc
       -0.02171703 0.034462404 -0.022335088 -0.008465082
000030 1c 53 8a bb d7 e2 21 bb 56 3a a3 bc b4 a4 27 3c
       -0.004221333 -0.0024701857 -0.019925278 0.010232139
000040 fa 24 7a bc f3 49 88 3b 39 a1 0c ba ea 6d 4f bb
       -0.015267605 0.004159206 -0.00053646 -0.0031651207
000050 e5 bb 2c bc be f3 52 bb 68 24 a6 3c df 1f e6 38
       -0.010542844 -0.0032188739 0.020281032 0.00010973191
000060 36 ed c8 ba 5b dd b1 bc 6b 20 35 3b 41 f3 9b 3b
       -0.0015329483 -0.021711996 0.002763773 0.0047592227
000070 8f ae 88 3c fd 46 87 3c f0 6c ad 3b 7c a3 44 3c
       0.016684799 0.016513342 0.0052925274 0.012001868
000080 4b 20 a2 bc ff a8 cf bc 05 92 e0 ba 52 69 4f ba
       -0.01979079 -0.025349138 -0.0017133361 -0.0007912117
000090 2c a7 80 bb 0a bc cb bb 5c 8a 64 3c d4 e0 bf 3c
       -0.0039261784 -0.0062174844 0.013949003 0.023422636
0000a0 1e a0 86 bc 54 e0 bd 3a 44 4d cd bb cc e5 da bb
       -0.016433772 0.0014486411 -0.0062653143 -0.006680226
0000b0 f0 b0 6f bc 58 df 86 3c 74 90 66 3b 31 7f 83 3b
       -0.0146295875 0.01646392 0.0035181316 0.004012965
0000c0 a3 c0 9f 3c 49 bd 9b bb 9e 9f 6d 3b 5f 03 9f bc
       0.019501036 -0.004752789 0.003625847 -0.019410787
0000d0 83 90 5e 3c a9 36 a7 bc 49 64 e4 bb 3e 86 67 3c
       0.013584259 -0.020411806 -0.0069699627 0.014131127
0000e0 0e 9a 18 bb ec 00 05 bc d4 bb 6b 3b 48 ae 84 3c
       -0.0023285183 -0.008117896 0.0035970109 0.016196385
0000f0 32 ba ad bc d9 be 4b 3b b3 9a 93 3c 0c 43 85 ba
       -0.021206949 0.0031089096 0.018018102 -0.0010167076

base.mlp.fc2.0.2.weight f4 [64]
000000 cf 11 80 3f a0 31 81 3f 91 16 82 3f 64 f5 81 3f
       1.0005435 1.0093269 1.0163137 1.0153012
000010 ec 8f 82 3f a4 bb 7c 3f 27 28 7c 3f 39 ac 7a 3f
       1.0200171 0.98723817 0.9849877 0.9791904
000020 5f 29 7f 3f 01 cf 7e 3f f6 2c 7e 3f 36 50 82 3f
       0.996725 0.9953461 0.99287355 1.0180728
000030 c8 f7 78 3f d1 86 7c 3f ab fd 81 3f 91 13 82 3f
       0.97253084 0.98643214 1.0155538 1.0162221
000040 77 19 81 3f 36 58 78 3f 78 38 7b 3f 5d 58 83 3f
       1.0085896 0.970096 0.9813304 1.0261341
000050 4a 7c 7f 3f 45 82 81 3f 54 dd 7c 3f 09 e8 7c 3f
       0.99799025 1.011788 0.9877522 0.9879156
000060 55 17 7b 3f 90 bf 80 3f 1c 4a 7c 3f 4d f7 80 3f
       0.98082477 1.005846 0.9855058 1.007547
000070 b0 75 82 3f f6 ef 81 3f cf 39 85 3f 3e 86 7e 3f
       1.0192165 1.0151355 1.0408267 0.9942359
000080 4c 35 81 3f e1 47 81 3f 52 cf 82 3f 45 38 81 3f
       1.009439 1.0100061 1.0219519 1.0095297
000090 01 1a 7e 3f 94 6d 79 3f 60 e3 7a 3f 2e fd 7d 3f
       0.9925843 0.9743283 0.98003197 0.99214447
0000a0 84 e4 7b 3f fc 1c 7c 3f 4a c8 80 3f 1b 22 7f 3f
       0.9839556 0.98481727 1.0061123 0.99661416
0000b0 34 0e 7e 3f a2 0c 7a 3f 0b 6d 80 3f 86 7a 80 3f
       0.9924042 0.97675526 1.0033277 1.0037391
0000c0 c1 3f 7f 3f 66 ed 7f 3f 0a 9a 7f 3f ed e1 82 3f
       0.99706656 0.99971616 0.9984442 1.0225197
0000d0 f0 de 80 3f 72 17 80 3f 7d c7 7a 3f 78 70 7d 3f
       1.0068035 1.0007155 0.97960645 0.9899974
0000e0 28 cf 7e 3f 39 bc 79 3f 41 cc 7d 3f cf b7 81 3f
       0.99534845 0.9755283 0.9913979 1.0134219
0000f0 d0 75 81 3f 8b f5 81 3f 81 2d 82 3f 48 05 83 3f
       1.0114079 1.0153059 1.0170137 1.0235987

base.mlp.fc2.0.2.bias f4 [64]
000000 8c 8c 58 3c fc 5d 1c 3c 4b 64 17 3c 74 c5 26 bc
       0.013217103 0.009543892 0.00924022 -0.010178912
000010 1d b2 3f 3b 85 e3 8d bc 58 b7 73 3c 72 2c 5d bc
       0.002925045 -0.017320404 0.0148752555 -0.013499366
000020 94 31 84 bc 6c 84 7a 3c ae 70 9c bc 73 90 06 3b
       -0.016136922 0.015290361 -0.019096699 0.0020532876
000030 d6 94 08 3c 65 ce 5d bc ac 2a 98 bb 59 85 37 3c
       0.0083362665 -0.013537978 -0.0046437588 0.011201226
000040 e4 c2 81 bb 42 17 35 ba a5 47 3f bc 57 f4 96 3a
       -0.0039600004 -0.0006908068 -0.011674796 0.0011516911
000050 50 e9 2c bc 16 b3 fc 3b fd 45 22 3c aa 5a b2 bb
       -0.010553673 0.0077117784 0.009904382 -0.005442937
000060 8e 76 25 3c 06 38 8a bc 23 ae 1b 3c 83 b6 8f 3c
       0.010099066 -0.016872417 0.009501967 0.017543083
000070 2e 5e e8 bb 81 9a d1 3c 81 10 dd bb dd 35 3c 3c
       -0.007091305 0.025586369 -0.006746352 0.011487451
000080 b5 79 6d bc e9 d7 d7 bb 69 8d d1 3b dc 5a 07 3a
       -0.014494349 -0.006587018 0.006395031 0.00051633804
000090 7a c1 cf bc 01 c5 c7 3b 4b bf 8b bb 9e a0 10 3d
       -0.025360812 0.0060964827 -0.0042647473 0.035309426
0000a0 83 e3 1f bc 2d a6 3f ba 91 78 0e 3c 61 5a 4b bb
       -0.009758833 -0.0007310834 0.008695737 -0.0031029212
0000b0 61 ac bc bb 71 1d d4 3a 1a a0 00 3c 90 eb da bb
       -0.005757854 0.0016183091 0.007850671 -0.0066809133
0000c0 d2 d2 b5 bc 99 e6 25 3c 1f 60 f7 3c 46 09 e4 bb
       -0.022195254 0.01012578 0.030197201 -0.0069591133
0000d0 d0 10 37 3c fd c3 98 bc 4e d4 41 3b 87 c2 85 3c
       0.011173442 -0.018648142 0.0029576006 0.01632811
0000e0 c5 74 51 3c 4a b6 fd bc 48 85 75 bb 61 96 e1 3c
       0.012784188 -0.030970711 -0.0037463475 0.027537527
0000f0 17 12 0d 3b 1f a7 c6 3c 45 a8 cf 3b 0e eb 83 bc
       0.0021525675 0.024249611 0.006337198 -0.016103294

rnn.rnn.weight_ih_l0 f4 [192, 64]
000000 62 02 e3 bc 86 bc 73 bd ec fa 22 bc 6c 08 0f 3d
       -0.027711097 -0.05950596 -0.00994752 0.03492014
000010 46 d2 e7 3b 74 7f 2e 3d 0f 7b 3e bd e6 08 49 3b
       0.007074627 0.042602018 -0.046504077 0.003067547
000020 7f 95 12 bd f6 b6 0a bd b6 85 f1 3d a8 56 55 3c
       -0.0357871 -0.03386589 0.117930815 0.013021149
000030 17 8c 17 bc 66 c8 37 3c 4e 64 aa bd a3 b7 a4 3d
       -0.009249709 0.011217212 -0.08319913 0.080428384
000040 88 af 45 bd d4 13 b4 bc 72 e0 6a bd b6 78 9a bb
       -0.048263103 -0.021982111 -0.057342954 -0.004714097
000050 87 c5 81 bd 8e 34 76 3c d6 df df bd 3f 81 02 be
       -0.063365035 0.015027178 -0.10931365 -0.12744616
000060 fe ec 4c bd 77 aa 16 3d cf 91 55 3d 02 58 ae 3b
       -0.0500307 0.03678366 0.052141007 0.00532055
000070 dd 49 01 3d 25 5e 0f 3b 3d ab dc bd 16 59 18 bc
       0.031564582 0.0021876183 -0.107748486 -0.0092985835
000080 38 7b 2b bd d2 8a b7 3d b0 20 f7 3d 23 7a 66 bd
       -0.041865557 0.08962025 0.120667815 -0.056268822
000090 33 f3 75 3d b8 c5 e9 3d 47 91 6e 3d e9 c7 1f 3c
       0.060046386 0.11414665 0.058244016 0.009752252
0000a0 21 0c be bd dc 8c 8a 3d 17 2f 8c bd 90 03 c2 bc
       -0.09279657 0.06765148 -0.06844919 -0.02368334
0000b0 d1 36 e5 3d 3c dd 78 bd ca 4b 24 be 35 aa 62 3b
       0.11192096 -0.06075786 -0.16044536 0.0034586315
0000c0 cc 26 19 3e 28 34 b7 3d ae 53 50 3d 95 7a 03 bd
       0.14956206 0.08945495 0.050861053 -0.032099325
0000d0 98 ff 11 be 8b ca 7c bd 65 7c 19 bd 5b 82 2e bd
       -0.14257658 -0.061716598 -0.037472147 -0.042604785
0000e0 52 ba 57 3c 79 e2 b6 3d 60 e5 fd bc c7 02 a9 3c
       0.013166981 0.08929915 -0.030993164 0.020631207
0000f0 65 45 79 3d cf ce dd bd 94 af 0e bd 9c 07 9b 3b
       0.060857195 -0.10830461 -0.034835413 0.0047311317
000100 77 c4 a7 bc d7 89 89 bd 57 7d 25 bd b4 3a 22 3e
       -0.020479424 -0.06715744 -0.040402737 0.15842706
000110 6e ea 45 3e 37 ed aa 3d 42 a4 64 3d 20 8c 0d 3e
       0.19327709 0.083460264 0.05582071 0.13822985
000120 40 74 75 3c 46 cc b5 3d 82 c0 a0 bd b4 cb 12 be
       0.014981329 0.08876853 -0.07849218 -0.14335519
000130 03 4f 41 bc 13 e3 fd 3c 53 78 e3 3d fc 64 5b be
       -0.011798623 0.030992066 0.111069344 -0.21425241
000140 fc 64 5c bc 17 6e dc bd 52 05 00 be d7 30 20 bd
       -0.013451811 -0.107631855 -0.1250203 -0.039109077
000150 db 12 c8 3c 67 d8 39 bb f6 a0 72 3d ed c1 ed bd
       0.024423053 -0.0028357746 0.059235536 -0.11609254
000160 7d fe b4 3c 9d d6 8c bb e7 a5 ce 3a 12 17 5d 3d
       0.022094006 -0.004298045 0.0015765995 0.05397708
000170 01 84 94 bd 76 f0 70 3d fc 40 51 bd 1b 1a 08 bd
       -0.0725174 0.05882307 -0.051087365 -0.03322802
000180 a4 d1 76 bd 7b 59 42 bd 3a 78 a8 bc 14 ba d7 3c
       -0.060258523 -0.047448616 -0.020565141 0.026333846
000190 84 8b a7 39 12 34 80 3d 99 66 23 bd 55 54 fe bd
       0.0003195667 0.062599316 -0.039892767 -0.12418429
0001a0 27 f1 23 bd 10 44 77 bd 59 93 33 bc a0 37 74 3d
       -0.040024903 -0.060367644 -0.010960423 0.05962336
0001b0 f6 78 01 3e 87 42 cf 3d 4f 01 40 bc 1e 07 21 bd
       0.12643799 0.10120111 -0.011719062 -0.039313428
0001c0 df ad 54 3c 41 19 11 bd bd 56 d0 3d d3 51 b1 3b
       0.012980907 -0.035424475 0.10172794 0.0054113655
0001d0 de de e9 bc e9 b8 21 bc 32 dc 00 3e 31 be ca bc
       -0.028548654 -0.009870746 0.12583998 -0.024748893
0001e0 60 d4 9d 3d 52 99 61 3d 60 1c d7 3d e4 69 4b 3c
       0.07706523 0.05507786 0.10503459 0.012415383
0001f0 89 72 47 bd f9 5b a4 3d dd cb e5 3d 68 34 10 3d
       -0.048693214 0.08025355 0.112205245 0.03520623
000200 74 f0 f1 3b 42 3c dd bb e9 aa 25 3d 8a 8b e7 3d
       0.0073834006 -0.006751568 0.040446196 0.11305912
000210 40 78 bb bb 4f b0 14 3e 79 16 9d bc df f6 da 3d
       -0.005721122 0.14520381 -0.019175755 0.10691618
000220 fc 06 e7 3c 58 e6 3a bc 56 f4 87 3d d2 27 ea bc
       0.028201573 -0.011407457 0.066384 -0.02858344
000230 b0 ca e2 3d ae 05 19 bc 64 7f 7e bd e0 89 42 bd
       0.11073816 -0.009339733 -0.062133208 -0.04749477
000240 4c 46 05 3e 7a 8f 0d 3d 63 ed 61 3d 84 58 9f bc
       0.13015097 0.034560658 0.05515803 -0.019451387
000250 21 17 ba 3c c1 33 d0 3d 8e 8d 04 3d 7f cc c7 3c
       0.022716107 0.10166121 0.03236156 0.024389504
000260 71 c1 88 3d 94 a6 e0 3c 7b 8d e7 bc 39 61 83 3d
       0.06677521 0.02742318 -0.028265705 0.06415028
000270 d6 0a 28 bd cd 1d 22 bd 47 c7 8f bd 31 4c 8e bc
       -0.04102596 -0.0395792 -0.07020431 -0.017370315
000280 18 cf 20 be ab 21 0b bd 8d fb 1f 3c 07 29 06 3d
       -0.15704 -0.033967655 0.009764564 0.03275397
000290 22 8f 2f 3d a3 5b b9 bd 90 ab d6 bc e3 43 05 bd
       0.04286111 -0.090506814 -0.026204854 -0.032535445
0002a0 c6 ce 2c be b6 53 39 be 6a 76 d6 bc 53 4e da bd
       -0.16875753 -0.1809834 -0.026179511 -0.106594704
0002b0 db 0c c7 3d ac a3 a3 bd 4c 79 63 3d ec 8e 88 bd
       0.09719249 -0.07990202 0.0555356 -0.06667885
0002c0 80 e3 26 3d d5 8b 25 3d 5f de 89 3d d8 23 d6 3c
       0.040744305 0.040416557 0.06731867 0.026140139
0002d0 f4 f0 7f bc 70 cd 50 3c b8 06 4a bc fa 79 b2 bd
       -0.015621413 0.012744293 -0.012330703 -0.087146714
0002e0 44 cd a1 bc 23 6d 09 3d 0d 4a 3d 3d 6f e2 84 3d
       -0.019751199 0.033551347 0.0462132 0.06488501
0002f0 e3 0f 25 bd e0 4f e1 bd 56 d3 d6 3d d6 89 ae bd
       -0.040298354 -0.11001563 0.10489528 -0.08522384
000300 6f 50 15 3d 20 a5 39 3e 22 b3 97 bd aa bb 63 bd
       0.03645366 0.18129396 -0.07407214 -0.055598892
000310 57 86 54 3b 22 e7 44 bd c5 24 fe bd cb 53 b5 3d
       0.0032428706 -0.048071988 -0.12409357 0.08853873
000320 a9 d6 87 bd f2 b5 73 bd 75 43 77 bd 12 35 d1 bb
       -0.0663274 -0.05949969 -0.060367066 -0.0063845003
000330 cd 22 6c 3c de 1e 99 3c 3c 7c 13 bc 3e 1c be bd
       0.014412594 0.018691476 -0.009001788 -0.092827305
000340 a7 c5 20 3d 74 f1 e1 3d c7 5c 8f bc d0 e0 56 bd
       0.039250996 0.11032382 -0.017500294 -0.05246049
000350 c4 06 2d bd 88 2c 1e bd 9a 07 3b bd 71 b7 1b be
       -0.04224278 -0.038616687 -0.045661546 -0.15206696
000360 f5 7e 3a be f7 51 7a bd 03 a5 54 bd 14 72 89 3d
       -0.18212493 -0.061113324 -0.05191518 0.06711212
000370 fc 8d 06 bd b5 7c 45 bd d0 60 ba 3c 54 2e d2 bd
       -0.03285025 -0.048214633 0.022751242 -0.10262743
000380 b5 f6 fa bc 4b 4d 0d bb 0b fb e9 3d 67 a0 e9 bc
       -0.030635217 -0.0021560963 0.11424836 -0.028518869
000390 95 ba 72 3c 85 5e 54 3b 47 53 bc bc aa e4 00 bd
       0.014814992 0.003240497 -0.022988928 -0.03146807
0003a0 72 1a 7c bc 2b 4f 02 be fc 3d 2b 3d 01 a5 09 bd
       -0.015387164 -0.12725513 0.04180716 -0.033604626
0003b0 92 8e d4 3c b9 88 97 bb 87 3f 55 bc 37 fa 8a bd
       0.02594689 -0.004624453 -0.013015634 -0.06786006
0003c0 21 12 29 bd bb 67 9a bc 94 9e 93 3c c4 80 8a 3c
       -0.041277055 -0.01884829 0.018019952 0.016907103
0003d0 44 fc a7 3d 2e d7 5f bd 52 12 45 3d 74 0c 45 bc
       0.08202413 -0.05464857 0.048113175 -0.012026895
0003e0 03 ef 62 3d b9 c8 09 be e0 2e 18 bd b2 73 98 bd
       0.05540372 -0.13455476 -0.03715408 -0.07443942
0003f0 b1 ec 03 3e 81 1f a3 3d c2 23 90 3c 22 f8 17 3d
       0.1288326 0.07964993 0.017595176 0.037101872
