onpolicy/scripts/results/MPE/simple_spread/rmappo/check/wandb/run-20220704_235644-1axphvun/files/critic.pt (torch, 156012 bytes, 21 tensors)

base.feature_norm.weight f4 [54]
00000000: 3702 793f decd 7b3f dc19 7e3f ab8f 813f
00000010: ee73 803f 075e 7d3f 6ac1 7e3f 9370 7c3f
00000020: b2ed 803f ed89 7d3f f224 823f ac02 803f
00000030: 09a4 803f 07ba 813f 24e4 7d3f adb2 813f
00000040: 80d4 803f e1cb 7c3f 54bb 7a3f bb23 7c3f
00000050: 856c 803f 2b25 803f af9e 803f 5b88 7d3f
00000060: bbf9 803f e6a7 823f f28a 813f 6208 813f
00000070: f09c 813f a8a7 803f b560 7e3f 7b82 813f
00000080: 2b04 7a3f d9b3 7f3f c09c 803f ab84 803f
00000090: 7a75 7b3f a2db 7b3f 0c14 7e3f 446d 803f
000000a0: d989 7d3f c005 7f3f 1caa 7d3f 83ff 7d3f
000000b0: feb7 7e3f 9308 7f3f 144d 803f 72f8 803f
000000c0: ea43 7f3f 297f 823f f3c7 7f3f ed00 803f
000000d0: 4e3b 7f3f d9a3 7e3f
0.97269005 0.98361003 0.9925821 1.0121969 1.0035379 0.989716 0.99513876 0.98609275
1.0072539 0.99038583 1.0167525 1.0000815 1.005006 1.0134896 0.9917624 1.0132653
1.006485 0.98748595 0.9794209 0.9849202 1.0033118 1.0011343 1.0048426 0.99036187
1.0076212 1.0207489 1.0120528 1.0080683 1.0126019 1.0051165 0.99366313 1.0117944
0.9766261 0.998838 1.0047836 1.0040487 0.9822613 0.9838201 0.9924934 1.0033345
0.99038464 0.9961815 0.9908769 0.99218005 0.994995 0.9962246 1.0023522 1.007582
0.99713004 1.0195056 0.99914473 1.0000283 0.99699867 0.9946876

base.feature_norm.bias f4 [54]
00000000: 6a7a 26bc 843d 90bb fba6 be3c e6fb 5d3a
00000010: ea1c 9fbb e1b4 d5bb d229 aa3a 628a 473b
00000020: 8a6d 5bbb 58e5 1b3c 0ab4 4abc 5719 9d3b
00000030: cfc6 7b3b 7929 d8ba 35a6 8bbb 75b1 c9bb
00000040: 7ec8 8e3c 1e28 5c3c 0ce4 20bc 2ae5 813a
00000050: 72cd babb 7c84 5338 13df 013c 7f50 0b3b
00000060: 140e 4c3c b90a d0bc 10eb 1d3c 2033 adbb
00000070: 9dbe 263c 0162 883c 2fea 51bc bff9 72bc
00000080: 8c85 4a3c 39e4 853b 9fc2 c7ba 69be 15bb
00000090: bfc5 c43b 734b ba3c 4758 0fbc 5286 06bc
000000a0: 398c 7dbb b753 4abc 44ae 1bba f3ef 8dbb
000000b0: 4a11 13bc 9e32 46bb 9600 7b3b 7e50 abbc
000000c0: 1416 c73b 096b 9abc 50fc 05bc 8403 a9bb
000000d0: 8182 b33b fd14 983b
-0.010161022 -0.0044018645 0.023272982 0.0008468017 -0.0048557417 -0.0065218066 0.0012982434 0.0030447473
-0.0033482038 0.009515129 -0.012372026 0.0047942805 0.003841806 -0.0016491852 -0.004261757 -0.0061551877
0.017429586 0.013437299 -0.009819996 0.0009910215 -0.0057007605 5.0429706e-05 0.00792672 0.0021257696
0.012454528 -0.025395738 0.009638563 -0.0052856356 0.010177282 0.016648294 -0.012812181 -0.014830052
0.012360942 0.004086044 -0.0015240497 -0.002284909 0.0060050185 0.022741055 -0.008749074 -0.008210735
-0.0038688316 -0.012349061 -0.00059387484 -0.0043315827 -0.00897629 -0.0030242573 0.003829991 -0.020912405
0.00607563 -0.018849866 -0.008177832 -0.00515789 0.0054782038 0.004641174

base.mlp.fc1.0.weight f4 [64, 54]
00000000: 1144 bf3e 2853 debd 4b8c 22bd 86ba fbbc
00000010: 434a 6e3e 1865 85be 6114 213e 5758 abbe
00000020: 4e5f b9bc 5729 863e 92d4 81bd d30d 283d
00000030: b5d4 f1bc bb95 05bd cf23 e5be 5a2e 883e
00000040: b0d5 05bd 4bb0 063e 653e b23e a126 59be
00000050: 6527 ecbd 8c7b 2b3e 06a2 493e facc babd
00000060: 395d 55be 222b b0be 06dd 06be c869 3abd
00000070: 85ef 843d aae1 29be a35f 9dbc 2183 18be
00000080: d09c 05bf dc11 b93e 7535 413e e2fc 0ebd
00000090: a26d 653e e59e 223d f134 ce3d e0d8 4d3b
000000a0: 2330 973d 7452 b83e 45e9 aa3d eaa9 503e
000000b0: d90f 0c3e c440 7f3c 8849 9ebd 85d7 833e
000000c0: a450 353e 26d0 d13d f1da 00be 72b0 473e
000000d0: 0c66 603e 7e22 243d ec52 00be 3896 8e3c
000000e0: c088 29be 96c1 4dbe f931 0b3e 4a36 68be
000000f0: f47a 1bbe 28cc b93e dbc3 bcbe 065b a5bb
00000100: fcfc 1d3e 081c d13e 4ff9 34be 5c77 a7be
00000110: 77f0 463e 922a 64be d1e2 aebd 1e7c 3ebe
00000120: 2475 a63e e452 a63d 5e7b 65bd d29d 333e
00000130: 1e47 82bd eb28 b83e d49a 3ebe 8ef8 273e
00000140: 49d6 8ebe fa48 08bd e5ae c13e 3d9f 8d3e
00000150: a36a 173e 5b84 18bd 75b0 51be 224d 23bd
00000160: 243a a0bd 48c7 9abe 17b6 c3bd 9ec3 e13d
00000170: 5f2a 1c3e 37b7 0a3e 4c54 98be 1c16 cf3d
00000180: 8866 5cbe a08f e63e ee7d 373e 15a3 ca3d
00000190: 1a40 8c3e daef 273d e2a6 053e d01f 3eba
000001a0: 6811 cabe 3f5a fcbb e419 e93d c982 e3bd
000001b0: 3203 be3d d384 073d 7e83 2bbe 3ff9 55bd
000001c0: a643 a23e f9af 303d 5864 d33e b204 32be
000001d0: 0a04 393e 2c90 683e e369 093e ba1f 2abe
000001e0: b6be bcbd 9429 15be 4d0d b4be 7a31 babe
000001f0: 227d 423e 994e 713e 3237 48be 12c6 aa3d
00000200: 41c8 a33e c169 8f3d de59 933e 9ae3 f93d
00000210: 7355 103d 61ab 353e 112f 98bc 89f8 73bd
00000220: 5328 d43e 3ec6 c93c ddf3 febe e5f7 a83d
00000230: ef58 46be fb68 a7be cccd 4fbe ce0a 163e
00000240: 82e2 933e 46bb 2bbe 00ac 12bd 4e56 15be
00000250: fc3d 55bd 3ebd 49be d532 b3bc 905f ac3d
00000260: 2b0f 4fbe fb93 4f3e 66c8 0f3d 0e84 3fbe
00000270: 879e 1c3e 8648 593d 5132 563b f57d 70be
00000280: b8d1 cabe 45d9 803d b667 d43d 40f6 32be
00000290: abcd f1bc 4970 0cbe 26c2 103e 6283 923e
000002a0: 0578 e9bc 4d4c 8c3e a7b1 a83d 2d52 9cbe
000002b0: 1906 71bd dccf 133e 1cdb 23be 7d9b e03e
000002c0: 24cb 14bd 9245 40be c161 87be 7c2d 8f3c
000002d0: 35f6 0abe aa91 9cbc 9b6f 873d c55d b53e
000002e0: 304b 29be 7bce 7abc f1fa 0abf 7aa3 34bd
000002f0: 91d4 b53d 916d c3be de94 d93d 918a 55bd
00000300: fc69 fdbd 9997 e4bd 3e78 ed3c e846 7c3d
00000310: 3abd f43d daa7 953d 388b 45be b1d8 a23e
00000320: 728f 7fbe f248 b8be 99de 593e 9696 193e
00000330: 1d1b 713e 710e 87be 4c22 b8be 48db a7ba
00000340: 5e78 da3d db91 943e 7251 2c3c a03e d63e
00000350: 3a10 6e3e 3b58 a0bd c974 583e 4d4a 853d
00000360: ed40 2fbe 4bc0 863e ec88 d2be 881b 2dbe
00000370: b2f6 f1bd 3860 24be a2bb 75bc b3e8 343e
00000380: e22c 12bd 3284 c43d 3453 993e 558f 5fbe
00000390: 7154 023e 6dae 883e 5c06 bf3d 9594 2bbe
000003a0: 30c3 4a3e efa7 8bbd c99f cc3d 69b4 113e
000003b0: 04aa 7c3d 0580 46be 1737 c9bd e64f 8c3e
000003c0: 66e6 95be f5f7 acbd 6aa5 3b3d da6d 823e
000003d0: d1fb 233d 6a9e 34bd d566 a3be 7763 c3be
000003e0: 337e df3d 7b59 d93e 422f 4fbe 9ca3 ac3c
000003f0: 7321 1ebe 8e3e 893e 7a36 ac3e b31d 2cbd
0.37356618 -0.108557045 -0.039684575 -0.03072859 0.23270516 -0.2605369 0.1573043 -0.33465835
-0.022628453 0.26203415 -0.06339373 0.04102881 -0.029520372 -0.032613497 -0.44753882 0.26597863
-0.03267449 0.13153188 0.34813228 -0.21206142 -0.115309514 0.16746348 0.19690713 -0.091211274
-0.20836343 -0.34407908 -0.13170251 -0.045511037 0.06490997 -0.1658999 -0.019210642 -0.14893772
-0.521924 0.36146438 0.18868048 -0.034909137 0.22405103 0.039702315 0.100686915 0.0031409785
0.07382228 0.36000407 0.08345274 0.20377317 0.1367792 0.015579406 -0.07728869 0.25750366
0.17706543 0.10244779 -0.1258352 0.19500902 0.21913928 0.040071957 -0.12531632 0.017405614
-0.16556072 -0.20093378 0.13593282 -0.2267696 -0.15183622 0.3628857 -0.36868176 -0.005046251
0.15428537 0.408417 -0.17673229 -0.3270825 0.19427668 -0.22281864 -0.085393555 -0.18602034
0.32511246 0.08121279 -0.056025855 0.17540672 -0.06361221 0.35968718 -0.1861375 0.1640341
-0.27897862 -0.03327272 0.37828746 0.27660552 0.14786772 -0.0372356 -0.2047747 -0.03986848
-0.078235894 -0.30230165 -0.09556215 0.11023639 0.15250538 0.13546453 -0.29751813 0.10111639
-0.21523488 0.45031452 0.17919132 0.09894387 0.27392656 0.041000225 0.13051942 -0.0007252665
-0.39466405 -0.007701188 0.11381891 -0.1110893 0.09277953 0.033085655 -0.16749379 -0.052239653
0.31692237 0.04313657 0.41287494 -0.17384604 0.18067947 0.22711247 0.13419299 -0.16613665
-0.09216063 -0.14566642 -0.35166398 -0.36365873 0.18993047 0.23565139 -0.19552305 0.0833856
0.3198872 0.07002593 0.287795 0.12201615 0.03523774 0.17741157 -0.01857713 -0.059563193
0.41437015 0.024630662 -0.49795428 0.08250407 -0.19369863 -0.3269728 -0.20293349 0.14652559
0.2888375 -0.16770658 -0.035808563 -0.14583704 -0.052061066 -0.19701096 -0.021874825 0.084166646
-0.2022063 0.20271294 0.035103224 -0.18702719 0.15294848 0.05304768 0.00326838 -0.23485549
-0.39613128 0.06291441 0.10371344 -0.1747675 -0.029517015 -0.13714708 0.14136562 0.28615862
-0.028499613 0.27401963 0.082370095 -0.30531445 -0.058843706 0.14434761 -0.16001552 0.43868628
-0.036326542 -0.18776539 -0.26441768 0.017477743 -0.13570483 -0.019112427 0.06613084 0.35423103
-0.16532588 -0.015308018 -0.54289156 -0.044101216 0.088784344 -0.3816953 0.10624097 -0.0521341
-0.123737305 -0.111617275 0.028988 0.06159106 0.119501546 0.07307406 -0.19291389 0.31805947
-0.24957064 -0.35993153 0.2127632 0.1499885 0.23545499 -0.26378205 -0.35963666 -0.001280644
0.106674895 0.2901753 0.010517465 0.41844654 0.23248377 -0.078293286 0.211383 0.065083124
-0.17114611 0.26318583 -0.41120088 -0.16905034 -0.118146315 -0.1605233 -0.014998348 0.17666893
-0.035687335 0.09595527 0.2994629 -0.2183202 0.12727524 0.26695576 0.09327385 -0.16755898
0.1980102 -0.0681914 0.09991414 0.14228977 0.061685577 -0.19384773 -0.09824961 0.27404708
-0.29277343 -0.084457316 0.045812048 0.25474435 0.040035073 -0.044096388 -0.31914392 -0.38161823
0.109127425 0.4245108 -0.20232871 0.021074109 -0.15442447 0.26805538 0.33635312 -0.04202051

base.mlp.fc1.0.bias f4 [64]
00000000: e5eb 583b e032 67ba d217 813c ca24 17bc
00000010: e068 993b 6f21 8dbc b3bd 3ebb a08d da3b
00000020: 3c1b 01bc 6d5d a53c c852 02bb 102e 95ba
00000030: dfde cd3b ddce 3c3c 686b 3e3c 8d4e ecbb
00000040: 3df3 a3ba 4b2b 43bc 7d09 0c3c 6be6 b73b
00000050: 7a10 8c3a 7b16 0dbc 9e67 10bc 8ef7 6e3c
00000060: 89fe 16bc f108 8f3b 2952 73bb aeff 0f3b
00000070: b454 e63b ef57 2abc d8b3 473b 7b5d fabb
00000080: 4cd7 6b3b 071d 7f3b 45c0 b6bb fa9c 10bb
00000090: 42ff dabb 8c04 9fbb 425f 95bb 91bd a1bb
000000a0: 7d4e b33b edca 09bc b176 13bc b2a2 0fbc
000000b0: ec85 20bc ed92 d6ba 4d75 99ba 492f 1d3c
000000c0: 4052 31bc 6dcd 35bc de42 34bc 8494 ee3a
000000d0: f735 64bc 685a 213c aa0d 253b 13d2 d2bb
000000e0: c0a3 523c 2891 943b 0284 cd3b 8446 a33c
000000f0: cf48 2d3c 6c70 bf3b 9646 b13b 4ce6 763b
0.0033099588 -0.00088195316 0.015758429 -0.00922508 0.0046816915 -0.017227856 -0.0029104769 0.006669715
-0.007880028 0.02018615 -0.0019885767 -0.0011381526 0.006282672 0.011523929 0.011622287 -0.0072115124
-0.0012508404 -0.011912177 0.008547184 0.0056121848 0.0010686063 -0.008611317 -0.008813767 0.014585389
-0.009215959 0.0043650796 -0.0037127829 0.0021972465 0.0070291404 -0.010396942 0.0030472185 -0.0076405383
0.0035986481 0.0038927214 -0.0055771195 -0.0022066222 -0.006683261 -0.004852837 -0.0045584748 -0.004935928
0.005472003 -0.008410198 -0.009000466 -0.008766817 -0.009797554 -0.0016370692 -0.0011707932 0.009593793
-0.010822833 -0.011096341 -0.0110022705 0.001820222 -0.013928882 0.009848215 0.0025185146 -0.006433734
0.012856424 0.0045339055 0.00627184 0.019931085 0.010576441 0.005842259 0.005410026 0.0037673889

base.mlp.fc1.2.weight f4 [64]
00000000: ea55 813f b9e2 7d3f f554 7d3f 18d5 7d3f
00000010: a834 813f 9bdd 813f e904 7e3f a281 803f
00000020: 520e 7f3f 26bf 7d3f 459e 7f3f e4b8 7f3f
00000030: ee38 7f3f ce3e 7e3f c5e8 7d3f a52a 813f
00000040: 9651 813f 7dab 803f 1f1c 803f b092 7d3f
00000050: 000e 7f3f dace 7e3f 314a 813f d3f0 803f
00000060: 21fb 7e3f 60e3 7f3f d203 7f3f 333f 7e3f
00000070: ca8c 803f b97d 7b3f bd1e 7f3f df95 7e3f
00000080: c6c2 7f3f 1544 7f3f f78b 803f 02ed 7e3f
00000090: 836b 7f3f f43c 7d3f d16d 813f 8318 803f
000000a0: ec36 7f3f 4971 7e3f 58c5 813f 4539 823f
000000b0: 9dc5 813f 2d36 803f ba1b 803f 2529 7d3f
000000c0: 82a5 7f3f 1907 813f da01 7d3f 3f82 803f
000000d0: 65df 803f 892a 803f 59fd 803f e429 7d3f
000000e0: d96e 7f3f 1abf 7f3f 6f2e 803f f2a9 803f
000000f0: 0997 823f 4c1a 7f3f f3d8 803f cd02 813f
1.0104344 0.99174076 0.9895776 0.9915328 1.0094194 1.0145754 0.9922624 1.0039561
0.99631226 0.99119794 0.99850875 0.99891496 0.9969624 0.9931458 0.99183303 1.0091139
1.0103023 1.0052334 1.0008582 0.9905195 0.9963074 0.9953438 1.0100766 1.0073494
0.9960194 0.9995632 0.99615204 0.99315184 1.0042965 0.9823871 0.9965628 0.99447435
0.99906576 0.9971326 1.0042714 0.99580395 0.99773425 0.9892113 1.0111638 1.000748
0.9969318 0.9939161 1.013835 1.0173727 1.0138432 1.0016533 1.0008461 0.98890907
0.9986192 1.0080291 0.9883095 1.0039748 1.0068175 1.0012981 1.0077316 0.98892045
0.99778515 0.9990097 1.001417 1.0051863 1.0202342 0.996495 1.0066208 1.007898

base.mlp.fc1.2.bias f4 [64]
00000000: 5827 433b b040 843b a850 3c3c 1b2b 03bb
00000010: 4d96 813c a467 fabb 7117 efbb ee54 d43b
00000020: ccd5 0abc ecc4 bc3c b2ad 76b7 ddb3 faba
00000030: ee09 b23b 2af4 ba3b 4a5d 233c dc4a 28bc
00000040: d7a0 de3b a2fb 23bc 9e91 ea3b 1f02 cd39
00000050: a0d4 71bb c00b 843b 4d06 7dbb 28b9 f13c
00000060: 975a 0bbc 37c9 e33a 2049 44bc d669 76ba
00000070: ab7f 0a3c 0bf2 41bc c1a7 0e3c c8a6 723a
00000080: 874a 2d3c e1f9 773b ea5f f43b 87e9 513b
00000090: 7b08 b1bb dc03 5bbc 7165 71bb 0d91 103b
000000a0: 7bf3 323c f617 d2bb 0944 50bc c0e7 39bc
000000b0: 1c36 f9bb 51e9 ae3c a904 e83b 4beb 643c
000000c0: a555 93bc 6cb7 0a3c 8d32 60bc 24d3 603b
000000d0: 14f5 3bbc 23d5 2c3c bbec 673b 973b 6fbb
000000e0: 1a51 213c 53d6 273b 6183 09bb a9a9 973c
000000f0: bece 323c 1d7e ed3b cf93 833b 1be2 883b
0.002977809 0.0040360317 0.011493839 -0.0020014707 0.01581874 -0.0076417495 -0.0072964956 0.006479851
-0.008473825 0.023043118 -1.4703184e-05 -0.001912709 0.0054333126 0.005705376 0.009970972 -0.010271754
0.006794076 -0.010008724 0.007158472 0.00039102227 -0.0036900416 0.004029721 -0.0038608492 0.029507235
-0.008505485 0.0017378692 -0.011980325 -0.0009399926 0.00845329 -0.011837493 0.008706988 0.000925642
0.010576851 0.0037838148 0.007457723 0.0032030062 -0.0054026223 -0.013367619 -0.0036834145 0.0022059113
0.010922308 -0.006411548 -0.012711533 -0.011346757 -0.0076053273 0.021351488 0.0070806337 0.013972114
-0.017985174 0.008466583 -0.013683927 0.0034305537 -0.011472005 0.010548863 0.0035388905 -0.0036504024
0.009845996 0.0025609925 -0.002098285 0.018513517 0.010913549 0.0072477 0.004015423 0.0041773445

base.mlp.fc_h.0.weight f4 [64, 64]
00000000: c004 153d f683 813e d2d2 93be eafb dcbe
00000010: 6d8a 8fbd 229b 83be 3ed7 76be edef 31bd
00000020: 87eb 1cbc e2a2 48be 961a 85bc 0be2 1b3f
00000030: a16c b9bd c632 33be 320a b0be e466 803e
00000040: e2b1 e8bd 7e40 92be 13de 92be 90fc 1a3c
00000050: d91f adbe 9a44 a3bd 0aba 8bbe dcd8 25bd
00000060: 812a 2fbe d940 2fbe 6c6d 563e db6f d23e
00000070: 1406 06bd 91ee 89be 533d a4be bbbc 8dbd
00000080: 30ab 9cbd d271 57be cea1 8abe 2b1f 9f3c
00000090: 360f 99be 30b6 7f3d cda9 c13e 84fe e13d
000000a0: e8c2 3fbe dc88 dcbc 6131 36be 5808 93bd
000000b0: 76c8 e93d 167c 84bd 6b32 b03d 0fdb d93d
000000c0: fd5e b63d b7cc 1fbe aa04 363d bcc5 21be
000000d0: e7d2 523e 990a 243e d9e0 ab3e 8257 f83d
000000e0: 28cb 15be 1e88 403e 85fd 24be a15b 1a3e
000000f0: dc7c e23d ceca ad3c 05b5 9dbc 4b4a 38bd
00000100: 60a6 ae3d 426e e0be 2fd0 06be 1ee0 6dbe
00000110: 700a 9cbe 5a5c b5be 1ca4 bd3e 0456 1cbd
00000120: 9250 80bd 00c9 0cbd 2067 a63e e0b9 513d
00000130: 76be 8f3e 1394 533d c2b9 593e 9e95 2a3e
00000140: 4d1d 8c3e 6dab 003e 75ee 253c 2847 2abc
00000150: 7c17 e4bc 2188 1f3e ad2d 16be e8f8 313e
00000160: 95c6 acbd a813 58be d0b4 a8be 7cd0 ca3d
00000170: f139 dcbd 9bf8 643e f928 ca3d 7dd4 b93d
00000180: d9e7 a33e ab7b 893d d90c f6bd 3294 e9bd
00000190: 93e8 f93d 948c de3c 3eef 7a3e 4458 9ebe
000001a0: 5011 d53d 1e25 1bbd 025a b33e 972c b33e
000001b0: 7c20 04bb 04f3 40be 482f 063e a7b6 de3d
000001c0: 1bcd 3abd 9925 323e 5817 6b3e 3163 273e
000001d0: 41ba 833d 47f2 e63c 7b14 bc3e a3a5 ab3d
000001e0: e3ed 21be 6a4d 9e3d bc5b a4be de9f 963c
000001f0: 7932 a3be 2c34 aa3e 4f40 8f3e 75df c83e
00000200: 32e6 84be c417 8fbe 6d2c 8fbe dd29 3a3c
00000210: c595 e83d 51d1 283e e283 dfbd 2172 7dbe
00000220: ca88 8fbe 5081 a13e e9d5 ca3e a6b5 a83d
00000230: ad63 9e3e ee4a a8be f246 9d3e b733 833e
00000240: 1239 6e3c 203f 7fbb bf48 98bd 1f81 80bc
00000250: 30e6 fd3c 022f cf3e f18e 63be 8037 d4be
00000260: 3d86 a3bb 333b 0b3f 8e95 70be 4e70 bbbd
00000270: baa9 173e 245a 23be e4e7 f9bd dbf4 0fbd
00000280: 96b8 a2bd d7e5 3b3d 96c9 dbbd e00a f2bd
00000290: 5359 9c3c 8974 f2bd 2a0f 6fbe 72f1 e63c
000002a0: b572 753d e86a 9b3e bcb3 b43d ef8b b0be
000002b0: c9c9 5d3d 2bd6 b6bc 48d0 3abd c233 ebbd
000002c0: 1ab1 8a3e 9b50 6e3e bc82 a43e d61d 6ebe
000002d0: ed3c 243e ec8e 283c 20ed 4a3d 2446 d1bc
000002e0: f1e6 c2bd b4d3 cc3e 79d1 083e 4f0e c33c
000002f0: 3a55 073e 3d66 63bd ca7a 40bd d389 68be
00000300: a1f9 34be cf8d eebe a15b 7d3c c211 1ebe
00000310: c525 8b3e ab3a 223d 587f abbc e3b5 4dbd
00000320: 6b2d 8ebd cebf 293c 148e c6bd 5b6d 46be
00000330: cace 23be 114e 0fbd 1c77 27be 94ac fb3d
00000340: 7fd7 56be fb7f ca3e fa4c e8bd ff04 a6bd
00000350: f6bb 593e a3e3 02be 1ca1 1cbe 1c5a d53e
00000360: 2e6b 0fbe 4826 dfbe d26e 30be 83fa 5ebe
00000370: df3e 5dbe 4e76 29bd 5936 fcbe e432 d53b
00000380: 9829 a83d d382 63be 81da 853e 1ec0 d5bd
00000390: 4633 9fbe 8d7b c3bd 5f03 923e fce6 3cbd
000003a0: 9461 fdbd 9d0c cbbd 3b9f 853e 21df 80be
000003b0: e2a0 93bd 6ac6 2ebe b698 acbe 8f7b a6be
000003c0: 5f81 5d3e bc15 933e b79a 1cbe fddc cbbe
000003d0: fbb8 a23d 00b6 da3b a74c 34be 20de 0d3d
000003e0: c6a2 a03e 26cf cc3c 4753 8e3d c52f 033e
000003f0: e646 a5bd cb4c 13be 9b68 093e c778 79bb
0.036381483 0.2529599 -0.2887178 -0.43160945 -0.070088245 -0.25704294 -0.24105546 -0.0434417
-0.0095776385 -0.19593385 -0.016248029 0.6089179 -0.090539224 -0.17499837 -0.34382778 0.250785
-0.113620535 -0.2856483 -0.28685054 0.00945963 -0.3381336 -0.07972069 -0.27290374 -0.040490016
-0.17106058 -0.17114581 0.20940179 0.41100964 -0.03272064 -0.26939824 -0.32078037 -0.06920763
-0.07649839 -0.21039513 -0.27076572 0.019424042 -0.29894418 0.062429607 0.3782486 0.11034873
-0.18726695 -0.026920728 -0.17792274 -0.07179326 0.11415188 -0.0646898 0.086033665 0.10637485
0.08904836 -0.15605436 0.04443804 -0.15798086 0.20588265 0.16019668 0.33569983 0.12126066
-0.14628279 0.18801925 -0.16112335 0.15074016 0.11058971 0.021214869 -0.019251356 -0.044992726
0.08527827 -0.4383412 -0.13165353 -0.23230025 -0.30476713 -0.3542202 0.37039268 -0.03816797
-0.062653676 -0.034371376 0.32500553 0.051202655 0.28074998 0.051654886 0.21262267 0.16658637
0.27366105 0.12565394 0.010127653 -0.010392942 -0.02784323 0.15579273 -0.14665861 0.17380106
-0.08436314 -0.21101248 -0.3295045 0.099030465 -0.10753239 0.2236046 0.09871096 0.09073732
0.32012823 0.06713041 -0.12014169 -0.11405219 0.12202563 0.027166642 0.24505326 -0.30926716
0.10403693 -0.037877195 0.35029608 0.34994957 -0.0020160964 -0.18842703 0.13103974 0.10874682
-0.04560576 0.17397155 0.22958124 0.16346432 0.064320095 0.028191699 0.36734375 0.08381202
-0.15813403 0.07729609 -0.32101238 0.018386777 -0.31874445 0.3324293 0.2797875 0.39232984
-0.25956875 -0.2794782 -0.27963582 0.01136252 0.11356691 0.16486098 -0.109138265 -0.24750568
-0.2803405 0.3154397 0.39616325 0.08237772 0.30935422 -0.32869667 0.3071819 0.25625393
0.014539974 -0.0038947538 -0.0743575 -0.01568657 0.030993551 0.40465552 -0.22222497 -0.41448593
-0.0049903677 0.54387206 -0.2349455 -0.0915228 0.1481084 -0.15952355 -0.12202433 -0.03514562
-0.07945363 0.04587349 -0.10731809 -0.118184805 0.019085562 -0.118386336 -0.23345628 0.028191302
0.059923846 0.30355 0.08823344 -0.3448176 0.054147515 -0.02231892 -0.04560879 -0.114844814
0.27088243 0.23272936 0.32130992 -0.23253569 0.16038866 0.0102879815 0.049542546 -0.025546141
-0.09516705 0.40005267 0.13361157 0.023810534 0.13216105 -0.055517424 -0.0469921 -0.22708826
-0.17673351 -0.46592566 0.015463741 -0.15436462 0.27177253 0.03960673 -0.020934746 -0.05022229
-0.069422565 0.010360671 -0.09695068 -0.19377653 -0.15996853 -0.03498656 -0.1635403 0.12288776
-0.20980643 0.39550766 -0.11342807 -0.08106422 0.21263108 -0.12782149 -0.15295833 0.4167031
-0.1400573 -0.43583894 -0.17229775 -0.2177525 -0.21606015 -0.04137259 -0.49260214 0.006506311
0.082110584 -0.22217874 0.26143268 -0.10437034 -0.31093806 -0.0954505 0.28518197 -0.04611872
-0.12372127 -0.09914515 0.26098046 -0.25170234 -0.0720842 -0.17067876 -0.3371026 -0.32516143
0.21631382 0.2872752 -0.15293394 -0.39817038 0.079454385 0.006674528 -0.17607366 0.034635663
0.31374186 0.02500112 0.06949478 0.12811191 -0.080701634 -0.14384763 0.1341881 -0.0038066374

base.mlp.fc_h.0.bias f4 [64]
00000000: 0000 0000 0000 0000 0000 0000 0000 0000
00000010: 0000 0000 0000 0000 0000 0000 0000 0000
00000020: 0000 0000 0000 0000 0000 0000 0000 0000
00000030: 0000 0000 0000 0000 0000 0000 0000 0000
00000040: 0000 0000 0000 0000 0000 0000 0000 0000
00000050: 0000 0000 0000 0000 0000 0000 0000 0000
00000060: 0000 0000 0000 0000 0000 0000 0000 0000
00000070: 0000 0000 0000 0000 0000 0000 0000 0000
00000080: 0000 0000 0000 0000 0000 0000 0000 0000
00000090: 0000 0000 0000 0000 0000 0000 0000 0000
000000a0: 0000 0000 0000 0000 0000 0000 0000 0000
000000b0: 0000 0000 0000 0000 0000 0000 0000 0000
000000c0: 0000 0000 0000 0000 0000 0000 0000 0000
000000d0: 0000 0000 0000 0000 0000 0000 0000 0000
000000e0: 0000 0000 0000 0000 0000 0000 0000 0000
000000f0: 0000 0000 0000 0000 0000 0000 0000 0000
0.0 0.0 0.0 0.0 0.0 0.0 0.0 0.0
0.0 0.0 0.0 0.0 0.0 0.0 0.0 0.0
0.0 0.0 0.0 0.0 0.0 0.0 0.0 0.0
0.0 0.0 0.0 0.0 0.0 0.0 0.0 0.0
0.0 0.0 0.0 0.0 0.0 0.0 0.0 0.0
0.0 0.0 0.0 0.0 0.0 0.0 0.0 0.0
0.0 0.0 0.0 0.0 0.0 0.0 0.0 0.0
0.0 0.0 0.0 0.0 0.0 0.0 0.0 0.0

base.mlp.fc_h.2.weight f4 [64]
00000000: 0000 803f 0000 803f 0000 803f 0000 803f
00000010: 0000 803f 0000 803f 0000 803f 0000 803f
00000020: 0000 803f 0000 803f 0000 803f 0000 803f
00000030: 0000 803f 0000 803f 0000 803f 0000 803f
00000040: 0000 803f 0000 803f 0000 803f 0000 803f
00000050: 0000 803f 0000 803f 0000 803f 0000 803f
00000060: 0000 803f 0000 803f 0000 803f 0000 803f
00000070: 0000 803f 0000 803f 0000 803f 0000 803f
00000080: 0000 803f 0000 803f 0000 803f 0000 803f
00000090: 0000 803f 0000 803f 0000 803f 0000 803f
000000a0: 0000 803f 0000 803f 0000 803f 0000 803f
000000b0: 0000 803f 0000 803f 0000 803f 0000 803f
000000c0: 0000 803f 0000 803f 0000 803f 0000 803f
000000d0: 0000 803f 0000 803f 0000 803f 0000 803f
000000e0: 0000 803f 0000 803f 0000 803f 0000 803f
000000f0: 0000 803f 0000 803f 0000 803f 0000 803f
1.0 1.0 1.0 1.0 1.0 1.0 1.0 1.0
1.0 1.0 1.0 1.0 1.0 1.0 1.0 1.0
1.0 1.0 1.0 1.0 1.0 1.0 1.0 1.0
1.0 1.0 1.0 1.0 1.0 1.0 1.0 1.0
1.0 1.0 1.0 1.0 1.0 1.0 1.0 1.0
1.0 1.0 1.0 1.0 1.0 1.0 1.0 1.0
1.0 1.0 1.0 1.0 1.0 1.0 1.0 1.0
1.0 1.0 1.0 1.0 1.0 1.0 1.0 1.0

base.mlp.fc_h.2.bias f4 [64]
00000000: 0000 0000 0000 0000 0000 0000 0000 0000
00000010: 0000 0000 0000 0000 0000 0000 0000 0000
00000020: 0000 0000 0000 0000 0000 0000 0000 0000
00000030: 0000 0000 0000 0000 0000 0000 0000 0000
00000040: 0000 0000 0000 0000 0000 0000 0000 0000
00000050: 0000 0000 0000 0000 0000 0000 0000 0000
00000060: 0000 0000 0000 0000 0000 0000 0000 0000
00000070: 0000 0000 0000 0000 0000 0000 0000 0000
00000080: 0000 0000 0000 0000 0000 0000 0000 0000
00000090: 0000 0000 0000 0000 0000 0000 0000 0000
000000a0: 0000 0000 0000 0000 0000 0000 0000 0000
000000b0: 0000 0000 0000 0000 0000 0000 0000 0000
000000c0: 0000 0000 0000 0000 0000 0000 0000 0000
000000d0: 0000 0000 0000 0000 0000 0000 0000 0000
000000e0: 0000 0000 0000 0000 0000 0000 0000 0000
000000f0: 0000 0000 0000 0000 0000 0000 0000 0000
0.0 0.0 0.0 0.0 0.0 0.0 0.0 0.0
0.0 0.0 0.0 0.0 0.0 0.0 0.0 0.0
0.0 0.0 0.0 0.0 0.0 0.0 0.0 0.0
0.0 0.0 0.0 0.0 0.0 0.0 0.0 0.0
0.0 0.0 0.0 0.0 0.0 0.0 0.0 0.0
0.0 0.0 0.0 0.0 0.0 0.0 0.0 0.0
0.0 0.0 0.0 0.0 0.0 0.0 0.0 0.0
0.0 0.0 0.0 0.0 0.0 0.0 0.0 0.0

base.mlp.fc2.0.0.weight f4 [64, 64]
00000000: 7ec7 113d 1573 843e 6d36 91be f3c9 dfbe
00000010: 4771 acbd 2381 8abe 30c9 82be 395f cfbc
00000020: a055 aebc 9240 48be a463 fabb b390 1f3f
00000030: a279 9fbd 81e1 21be fa30 bbbe 079c 743e
00000040: b678 ccbd 1207 9abe 3bbe 89be 5e91 40ba
00000050: d322 a8be dc0b c2bd bd61 8fbe e475 23bd
00000060: ea08 41be 6019 2fbe 7b1f 4d3e 4f19 ce3e
00000070: 3c24 22bd 7876 86be 826c 9abe 5f2c 6bbd
00000080: b3a7 96bd 9ce3 67be 43c2 8dbe beee ff3c
00000090: 2aef 99be 5fb8 a73d 9084 bb3e 8113 cd3d
000000a0: 567c 3fbe ed31 36bd 03e7 22be 5db5 7bbd
000000b0: 025a 073e ddbf 83bd f1f9 8c3d 5d03 ed3d
000000c0: 8057 933d ec75 1bbe f634 043d 7318 1cbe
000000d0: 38e1 5b3e d3be 2d3e 2a5d 9f3e 5429 d43d
000000e0: 9c22 23be bd3b 493e 11b1 16be 17e8 063e
000000f0: b526 f13d 841a 173c 9e08 bfbb 75a5 58bd
00000100: 1a40 be3d 2cbd e2be 0974 03be 1e45 6cbe
00000110: 795f 99be 3a02 b7be 5f61 bf3e 4cef 73bd
00000120: 4b72 7ebd a24b e9bc 1a67 a73e 5f26 523d
00000130: b482 8c3e 3e1e 5d3d 82af 403e a9d2 343e
00000140: 5b84 8e3e 7b2f 0c3e cb29 363c ec2a a3bc
00000150: 23cb 22bd 17fe 253e b168 12be 6070 2c3e
00000160: 4be7 a9bd 5f60 57be c44b a7be 741a cb3d
00000170: 8907 efbd 8ecd 5f3e 0881 cd3d 7f78 b03d
00000180: e074 a33e 79f5 853d 7021 f3bd 5531 f3bd
00000190: be81 003e 6b94 f73c 2aaf 773e b305 95be
000001a0: 5e74 e43d 58a1 debc c9db b83e 73c1 b73e
000001b0: ba80 8fbb 30ec 3abe dd78 ff3d df20 c53d
000001c0: 9024 dfbc 731d 333e 6175 5f3e b2ea 103e
000001d0: b01b 9f3d 5471 023d 9251 b63e bc3d c93d
000001e0: 29b4 2cbe a885 9c3d 0b99 a7be 23ba 703b
000001f0: 4f10 a7be 6662 ad3e bd4d 8c3e 443a c83e
00000200: 1715 89be d350 95be aa01 89be e8f7 07bb
00000210: 1c55 ec3d 984f 2b3e 7996 d3bd 38e7 74be
00000220: d851 90be 43a4 963e a1f7 c43e 7d1c 8e3d
00000230: 9d6e 9f3e ecf8 a9be 6164 a43e 55ee 843e
00000240: 96a7 203c d798 55b9 07fd a3bd d332 8fbc
00000250: 7631 193d e66a d53e c6cc 66be 08be d4be
00000260: 5699 273c 3724 093f 29a2 72be a095 d0bd
00000270: 5104 053e 3d48 20be ecfc 00be 94e9 eebc
00000280: 6fec b7bd ea71 353d 09be b9bd 6922 f9bd
00000290: c137 f63c 7c6a 13be 6294 81be 16df d13c
000002a0: 3e7a 4c3d 3ed1 993e dbc9 8d3d bc73 b2be
000002b0: 85e6 3c3d 2a34 b7bc 876c b6bc b330 e6bd
000002c0: 7018 923e 0aa3 723e 6c20 a43e 4d58 63be
000002d0: a76b 193e 90ad dc3b 5587 a23d 6a1d a0bc
000002e0: 66f9 b0bd d6b2 cf3e 5ac1 fd3d 1fb3 293d
000002f0: e379 103e 8bef 46bd 0781 35bd e435 60be
00000300: 9212 2bbe 110e e4be ec4e 933c b622 19be
00000310: 5878 8b3e 31cd 203d 0518 92bc 645c 5abd
00000320: 9bf1 8fbd 9acf d4ba 0a3d d5bd 3422 4fbe
00000330: 89f0 20be e113 ffbc b5f6 18be 6719 093e
00000340: 315e 5cbe 62b9 cc3e d491 eabd 8647 9dbd
00000350: 8cbc 4b3e 07d6 09be 548e 18be 92a0 d83e
00000360: 4782 0ebe ff0c e0be 68fa 34be b4d2 5fbe
00000370: 987b 5fbe acf3 3abd 8f62 fdbe 5179 e93a
00000380: debd a93d 1288 5ebe 3962 893e f180 dbbd
00000390: c4b7 9fbe b660 debd 9ad5 903e 23fc 19bd
000003a0: 65a0 edbd 0a04 d2bd 9368 803e 3e34 82be
000003b0: abf4 a4bd 0488 2cbe d874 a8be 8f3e a9be
000003c0: 22a2 583e 7069 953e 3a0c 1bbe 46a2 c6be
000003d0: af7c 8c3d 74ee c63a 839a 25be c3e9 3c3d
000003e0: 30f0 a03e f840 b23c 9e2d 7f3d 0029 043e
000003f0: 1550 abbd 9965 0cbe 92be 0d3e 9e07 8abc
0.03559064 0.2586905 -0.28361836 -0.43708763 -0.084200434 -0.27051648 -0.2554412 -0.02531396
-0.021281064 -0.19555882 -0.0076412726 0.6233017 -0.077868715 -0.15808679 -0.36560804 0.23887645
-0.09983961 -0.3008352 -0.26902947 -0.000734588 -0.3283907 -0.09474918 -0.28004256 -0.03990735
-0.18851057 -0.17099524 0.2003154 0.40253684 -0.039585337 -0.2626226 -0.3016091 -0.057415362
-0.07356205 -0.2264542 -0.27687272 0.03124177 -0.3006528 0.08189463 0.36624575 0.10013486
-0.18699774 -0.044481207 -0.15908436 -0.06145226 0.13217929 -0.064330794 0.0688361 0.11572907
0.07194424 -0.15181702 0.03227707 -0.15243702 0.21472633 0.16967325 0.31125766 0.10359445
-0.15931171 0.19651695 -0.14715983 0.13174473 0.11774961 0.00922263 -0.0058298847 -0.052892167
0.0928957 -0.44284952 -0.12837233 -0.23073241 -0.29955652 -0.35743886 0.37378976 -0.059554383
-0.062120717 -0.028478447 0.32695848 0.051306125 0.2744347 0.05398392 0.18816951 0.17658485
0.27835354 0.13689987 0.011118363 -0.019917928 -0.039744508 0.16210209 -0.14297749 0.16839743
-0.08296069 -0.21032856 -0.32674992 0.09917155 -0.11671359 0.21855757 0.100343764 0.08616733
0.31925106 0.06540961 -0.11871612 -0.11874644 0.12549493 0.030222138 0.24187914 -0.2910591
0.11155008 -0.027176544 0.36105183 0.35889778 -0.004379359 -0.18254161 0.12474225 0.0962541
-0.027239114 0.17491703 0.2182212 0.14152029 0.07768953 0.03184636 0.35609108 0.09826228
-0.168656 0.076426804 -0.3273395 0.003673204 -0.3262963 0.33864135 0.2740306 0.39106953
-0.26773903 -0.29163226 -0.26759082 -0.002074713 0.11539671 0.16729581 -0.10331435 -0.23916328
-0.28187442 0.29422197 0.38470176 0.069390275 0.3113908 -0.33197725 0.32107833 0.25963083
0.009805581 -0.000203702 -0.080072455 -0.01748029 0.037400685 0.4168312 -0.22539052 -0.41551232
0.010229429 0.53570884 -0.23694672 -0.10184789 0.12989928 -0.15652557 -0.12596482 -0.029164113
-0.08980643 0.04429809 -0.090694495 -0.12164766 0.030055882 -0.1439609 -0.2530852 0.025619071
0.049921267 0.30042452 0.069232665 -0.34853923 0.046118278 -0.022363741 -0.022268547 -0.112397574
0.2853427 0.23695007 0.32055986 -0.22201653 0.14982472 0.0067345574 0.07935969 -0.019545276
-0.08641319 0.40566128 0.123903945 0.04143059 0.14108996 -0.04856829 -0.044312503 -0.21895558
-0.16706303 -0.44541982 0.017981969 -0.14954647 0.27240252 0.039258186 -0.017833719 -0.053310767
-0.070285045 -0.0016236186 -0.10412033 -0.20227891 -0.15716757 -0.031137409 -0.14937861 0.13388596
-0.21520306 0.39985186 -0.11453596 -0.07679658 0.19896144 -0.13460551 -0.14898044 0.42310005
-0.13916884 -0.43759915 -0.17673647 -0.2185772 -0.21824491 -0.04564254 -0.49489257 0.0017812644
0.082881674 -0.21731594 0.2683275 -0.10717953 -0.3119489 -0.1085829 0.28287965 -0.037593972
-0.116028585 -0.10254677 0.25079784 -0.25430483 -0.08054479 -0.16848761 -0.32901645 -0.3305554
0.21155599 0.29182005 -0.15141383 -0.3879568 0.06859719 0.0015177266 -0.16172223 0.04612137
0.3143325 0.021759495 0.062299363 0.12906265 -0.08364884 -0.13710631 0.13842228 -0.016849335

base.mlp.fc2.0.0.bias f4 [64]
00000000: 8e82 41bc 945e 013b e8a8 81bc c116 b1bb
00000010: fe0e d1bb 9864 0cbc 975c bb3a 51dd 123c
00000020: 7628 133c d00a 673b 7e8e 233a 9e84 703c
00000030: debd c1ba 8845 debb 68b2 fa3b 72e8 b73a
00000040: 6ff1 59bc 040c bc3b 48a4 e53b 8854 083c
00000050: c4a3 a8ba 285a 293c 0eff dcbb 9c49 663a
00000060: 8cf9 a439 d598 9a39 a4c9 02bb 9fd2 8cb8
00000070: 6fd2 30bb 0479 e13a c4a3 773c 9998 143c
00000080: d858 79bc 62fd 443a 7922 10bc e0f4 a03b
00000090: f0aa e93b 0926 d4bb f2b9 26bc e1f4 3dba
000000a0: 5d4e 6f3c 71c3 a93b 8e0a 73bb 7e23 36bc
000000b0: b886 ac3b 985a 393c 590a cfbb cbce bd3c
000000c0: d710 29bc 3241 0fbc 1887 0bbc 735c a53b
000000d0: ba5e 4b3b f09e 233a 9dfc c83b a33c 6abc
000000e0: e839 99bb 129d ef3b 90f0 31bc 53a8 003d
000000f0: 46f9 863c 8689 be3a fd39 8bbb 6eff f2bb
-0.011810912 0.001974021 -0.015827611 -0.005404324 -0.006379961 -0.008568905 0.0014294562 0.008963899
0.008981815 0.0035254247 0.00062391895 0.014680056 -0.0014781316 -0.006783191 0.007650662 0.0014031066
-0.013302191 0.005738737 0.0070081092 0.008320935 -0.0012866189 0.010336436 -0.006744272 0.00087847724
0.00031466444 0.00029487038 -0.0019956613 -6.7149515e-05 -0.0026980897 0.0017202203 0.015114728 0.009069585
-0.015218936 0.00075145636 -0.008797281 0.004912004 0.007130973 -0.0064742607 -0.010176169 -0.00072462676
0.014606086 0.005180769 -0.0037085149 -0.01111686 0.005265083 0.011313103 -0.006318372 0.023169896
-0.010318956 -0.008743571 -0.008516096 0.005046421 0.0031031803 0.000624164 0.0061336295 -0.0142966835
-0.0046760924 0.0073124254 -0.010860577 0.031410526 0.016476285 0.0014536835 -0.004248856 -0.0074157035

base.mlp.fc2.0.2.weight f4 [64]
00000000: 31dc 7f3f 06c1 7f3f 2e43 823f 99f1 803f
00000010: af18 7e3f a485 803f b47c 7e3f bac5 813f
00000020: 1795 7d3f 5c87 803f c447 803f 14de 803f
00000030: d716 7d3f d9c8 7f3f 4e64 803f ce42 813f
00000040: 1bc5 7e3f 3ce0 7c3f 5af0 7e3f 55b5 7f3f
00000050: 0439 813f 3418 7e3f 5c4b 803f 02d2 803f
00000060: d341 833f 8645 823f 0f3e 803f 2727 7f3f
00000070: 824e 803f d83b 7f3f 6d04 813f f1e9 7e3f
00000080: d2af 833f 29c4 803f 1fa7 7e3f 3009 7f3f
00000090: 21b3 7d3f 8c8f 823f 900f 823f 012a 803f
000000a0: fdf8 803f f541 813f 51bb 7f3f 39f5 7d3f
000000b0: caeb 803f cae2 813f 1dbf 7e3f 50b8 813f
000000c0: acbc 813f e833 803f 5faf 803f 64d1 7f3f
000000d0: afcf 7d3f cea2 7e3f 138b 803f 3561 833f
000000e0: dc91 813f c1ae 803f 820e 803f d18d 833f
000000f0: da0b 813f 7cb7 7d3f dafb 823f edc9 823f
0.9994536 0.99903905 1.0176752 1.007373 0.99256414 1.0040784 0.9940903 1.0138466
0.9905562 1.0041308 1.0021901 1.0067773 0.98862976 0.99915844 1.003061 1.0098512
0.9951951 0.98779655 0.995855 0.99886066 1.0095525 0.9925568 1.0022998 1.0064089
1.0254463 1.0177467 1.0018939 0.99669117 1.0023959 0.9970069 1.0079476 0.99575716
1.0288031 1.0059863 0.99473757 0.99623394 0.99101454 1.0200057 1.0160999 1.0012819
1.0075985 1.0098253 0.998952 0.99202305 1.0071957 1.0147336 0.99510366 1.0134373
1.0135703 1.001584 1.0053519 0.9992888 0.99145025 0.9946717 1.0042442 1.026404
1.0122638 1.0053331 1.0004427 1.0277654 1.0081742 0.991081 1.0233109 1.0217873

base.mlp.fc2.0.2.bias f4 [64]
00000000: c7e8 1bbc 9bee 8f3b 8df0 ff3b 7e96 48bb
00000010: 5be9 a0bb d4f4 fdbb 6e1f 593b 825a f13b
00000020: 1755 033c f598 7a3b 95bb 7ebb a4ea c93b
00000030: 065f 19ba 1d77 58bb f4e8 dd3a 0280 063b
00000040: 0150 f5bb 66e9 783b 6d7f 593b ea8e c73b
00000050: b679 9dbb 23f3 0e3c e931 29bb d0b2 283a
00000060: c5e2 c93b e7f9 3b3b d52f dc3a 5f2c 41ba
00000070: 66bf 52ba 863c 8e3b 48f8 ef3b f7ab 183c
00000080: 64a0 e9bb a237 02bb 7a5f bebb 96e8 043b
00000090: bff4 a53b f234 c8bb f3c8 14bc a7a2 c2ba
000000a0: 2238 f03b 0a41 883c fb85 aaba f104 f8bb
000000b0: 00e0 d93b 85b3 403c 7f9d 18bb ba40 8f3c
000000c0: 0821 1bbc c175 4aba 411a afbb 2615 eb3b
000000d0: ba2e 8d3b 1af3 82ba c041 633b af2b 9fbc
000000e0: d674 b23a aada e53b 9476 28bc 5775 093d
000000f0: f706 d43b 15e9 4e3b 84a5 813c fa89 17bc
-0.009515948 0.0043924577 0.0078106583 -0.0030607278 -0.0049106306 -0.007750133 0.0033130306 0.0073655257
0.0080158925 0.0038238142 -0.0038869132 0.0061620045 -0.00058506464 -0.0033029981 0.0016930387 0.0020523076
-0.007486344 0.0037980913 0.0033187524 0.0060900347 -0.004805769 0.0087249605 -0.0025817102 0.00064353365
0.0061610662 0.002868289 0.0016798923 -0.00073689775 -0.0008039385 0.004340711 0.0073232986 0.009318343
-0.0071297158 -0.0019869586 -0.0058097215 0.0020280234 0.0050645764 -0.006109827 -0.009081113 -0.00148495
0.0073309103 0.016632576 -0.00130099 -0.0075689484 0.0066490173 0.011761551 -0.0023287234 0.017486919
-0.0094683245 -0.0007723235 -0.005343706 0.007174152 0.0043085488 -0.0009990663 0.0034676641 -0.01943001
0.0013615142 0.007014592 -0.0102821775 0.03355917 0.006470557 0.0031572033 0.015825994 -0.009249205

rnn.rnn.weight_ih_l0 f4 [192, 64]
00000000: 4f23 cfbc e810 ee3d 4f23 613d 4b02 72bd
00000010: 70f5 eebd 046a ecbc 4803 cc3c 0840 3abd
00000020: 0727 8a3d 860a 16bd 3e98 b63d 7f03 553d
00000030: 4ee5 d9bc 4624 ff3c b22c f3bd 819f a8bc
00000040: 8f64 313c 716a 1cbd 802e 27bd 573f 02be
00000050: 0117 e1bd 4a6a 99bc af61 d93d 28e0 b8bd
00000060: b821 013d 408b a33c 6b15 6cbb 6585 b0bc
00000070: a3f5 3bbd 8b3a 9fbc ac81 4abd 8b26 8cbc
00000080: f176 7c3d d7b7 82bd 2d46 503d 835f 51bd
00000090: 0216 063e 9517 d9bd 281a b13d 046c 883d
000000a0: 2a5f 173d 1309 97bd 7e1c 213d 0b2e d53b
000000b0: 0488 0d3d 2759 e53b 2c73 a1bc 17d5 c43c
000000c0: 5045 8a3d ff3f 71bd 72c0 4bbd d4a6 30bd
000000d0: 491b c5bc 64e7 6bbd 9912 113e c3d1 703e
000000e0: 26c8 9abd b557 8abd b6b1 6f3d f6c7 453c
000000f0: 874c 08bd c50c edbc 93af 0d3d e55b 10be
00000100: 1b9d a8bd 4163 b3bc 78ac 03bd e070 8f3b
00000110: 8bd2 4b3d bd04 793d 3846 1abc b16e 3f3d
00000120: 425f ce3d 99c3 d9bb 49c0 cebd fd92 edbc
00000130: 929b 5b3c fe94 d1bd 757c 863d db1c 50bd
00000140: 7d67 94bc 8d11 c8bd 6746 b6bd 0d19 343d
00000150: 33dc 773d a886 b43d c5a3 0dbd ab61 d7bc
00000160: c17e 823c 2ab5 26bd 6635 273d fc14 63bc
00000170: b4b0 1e3c 7481 893d 1a5f be3d ae41 373d
00000180: fd0e db3c 6d2c 613e 66df 36be b068 bcbd
00000190: af87 bdbc 35bd 973d 9b46 6abd 5ee5 cdbb
000001a0: 57cd 4ebb f9a6 f03d 455b e7bd 15c7 80bb
000001b0: d47e a23d fe3e 33be 0f20 b83d 908c 64bc
000001c0: d215 aabc 83c5 f93c e8a6 df3d dbab 31bd
000001d0: 2c76 46bd 4340 c1bc b0f7 94bd c9cc d63d
000001e0: 17a2 1fbd 22b7 203d 3366 c9bd 29c6 7f3d
000001f0: 5487 4cba c7f2 ef3d 4a6b 1dbe b7b4 d83b
00000200: 1902 a83d e7ac 6a3d d95a 133c eda0 28bd
00000210: 4a57 e83d 9062 1a3d ab35 c63d 8133 f9bc
00000220: d073 073e 2c74 f8bc b18f 0dbe 38b1 eebd
00000230: 503b 1f3d b57e ddbc a844 22bd 5e06 f8bd
00000240: 2027 573d 6994 13be ac34 1c3d da23 1cbd
00000250: 0f3f 99bd f759 02bd 811a a4bd c1f3 2abb
00000260: 1e4b 0dbe 6dc6 e4bb 9445 dc3b 34f5 1dbc
00000270: 108b a93c 25b7 e03d a2d7 f73c 3610 1d3d
00000280: 700c 453c 21a3 77ba ee70 773d f7c9 853d
00000290: 84a7 01be 0d92 bebd 842f a7bd 05e8 e23d
000002a0: 7d6e 8f3d 4f9a 29be e7a0 69bc 1772 aa3c
000002b0: 1255 28bd 4f85 183e f3f7 1dbd 7e75 3c3e
000002c0: 40af 843d 408f aa3d c3eb 513d fdb4 6d3d
000002d0: 752e 0abe f532 80bc bd87 ebbd 93b6 c03c
000002e0: 00f2 00be db48 84bd 4d41 9dbd 2bb2 003d
000002f0: fb47 023e fa9d b93d 33cb 2f3d 2bf1 48bd
00000300: d6ec 55bc b947 a63d a8fa 9e3d f2a1 b03c
00000310: 52a9 18bd 6ae7 a0bd 9aaa 72bd b02a d0bb
00000320: 7723 9bbd 4d9b ac3d ea28 8b3d d0ba e93d
00000330: 7f8d 3fbd 6984 3b3d 36ae 8cbd 71ac 5fbc
00000340: 72ff 33bd 338c f33c 73b8 db3d 6a6b 72bd
00000350: 56e5 1a3e 33d5 e23c dbed dd3d bd4a f93d
00000360: e408 3a3c 9b6b 8ebd 79bc 713d a467 cebd
00000370: 45ee 78bb 67ca 1b3d 253e 4dbd cabd 33bc
00000380: 7a78 6f3c 2899 a3bc c00a 403d 38ed 123d
00000390: eb75 d03c 11cc 65bd facd a3bd 5808 b7bd
000003a0: 275c 853d f5dc 68bc d7f4 493d 7237 1bbd
000003b0: 3e59 fabb 311e e93c a78f c73d 5ee0 61bd
000003c0: 9ae9 263c 4c7b e83a e3b4 9cbd 7191 c43c
000003d0: 206e 17bd 4cec a03c 2ef2 883d fc41 c23d
000003e0: a370 8b3c 9690 d43d 2571 d6bc 3059 86bd
000003f0: 4910 733d eeee 1c3e 445f 253c 829f f63c
-0.025285391 0.11624318 0.054965314 -0.059084218 -0.11667907 -0.028859146 0.024903908 -0.04547122
0.06745725 -0.03663113 0.08915757 0.052005287 -0.026598599 0.031145226 -0.11873759 -0.02058387
0.010827198 -0.038187448 -0.04081583 -0.12719475 -0.10990716 -0.01872744 0.10614335 -0.090271294
0.031526297 0.01996386 -0.0036023508 -0.021547982 -0.045888554 -0.019437095 -0.04944007 -0.017108222
0.06163687 -0.06382721 0.050848175 -0.051116478 0.13094333 -0.10600201 0.08647567 0.06661227
0.03695599 -0.07374778 0.039333813 0.006505733 0.034553543 0.006999153 -0.019708239 0.02402739
0.067515016 -0.058898922 -0.049744077 -0.04312785 -0.024060862 -0.05759372 0.1416725 0.23517518
-0.075577065 -0.0675501 0.058519088 0.0120716 -0.033276107 -0.028936753 0.03459127 -0.14097555
-0.082330905 -0.021897914 -0.0321469 0.0043774694 0.049761336 0.060795534 -0.0094161555 0.046736423
0.10076763 -0.0066456315 -0.10095269 -0.029000754 0.01340379 -0.10233496 0.06566707 -0.05080877
-0.018115753 -0.097689725 -0.08900147 0.043969203 0.060512733 0.08814746 -0.03458001 -0.026291689
0.015929582 -0.040700115 0.04082241 -0.0138599835 0.009685684 0.06714144 0.09295483 0.04474037
0.026740545 0.21989603 -0.17858657 -0.09199655 -0.023135988 0.07409135 -0.05719624 -0.006283446
-0.0031555498 0.117505975 -0.11296705 -0.0039299824 0.07934347 -0.17504498 0.0899049 -0.013949528
-0.020762358 0.030489689 0.10920507 -0.043376785 -0.04845254 -0.023590213 -0.07273805 0.104882784
-0.03897294 0.03923715 -0.09833946 0.06244484 -0.0007802148 0.11716228 -0.15372959 0.0066133398
0.08203525 0.0572938 0.008993828 -0.041169096 0.11344774 0.037691653 0.09678205 -0.030420067
0.13227773 -0.030328833 -0.13824345 -0.116548955 0.038874924 -0.027037958 -0.039616257 -0.121105894
0.052527547 -0.14412083 0.03813617 -0.03812013 -0.074827306 -0.03182408 -0.08012868 -0.002608523
-0.13798186 -0.006981662 0.0067221615 -0.0096409805 0.020696193 0.10972432 0.030254189 0.038345538
0.012026891 -0.00094466103 0.060410433 0.06532662 -0.12661558 -0.09305201 -0.0816336 0.110794105
0.07003496 -0.1656277 -0.0142595535 0.020806355 -0.041096754 0.14894603 -0.03856654 0.18404195
0.06478739 0.08328104 0.05125023 0.058033932 -0.13494284 -0.015649298 -0.115004994 0.023524558
-0.12592316 -0.064592086 -0.07678471 0.031419914 0.12722771 0.09063335 0.042918395 -0.04905812
-0.013056954 0.08119149 0.07762653 0.021561597 -0.03727085 -0.07856639 -0.05924473 -0.006352745
-0.07575124 0.08428059 0.06794913 0.11412585 -0.0467658 0.045780573 -0.068691656 -0.013651953
-0.043944784 0.029729938 0.1072854 -0.05918447 0.15126547 0.027689552 0.10836383 0.12172458
0.011354659 -0.06954118 0.059017632 -0.10078362 -0.0037983817 0.038034823 -0.050108094 -0.010970542
0.014616126 -0.019970492 0.046885252 0.03587076 0.025446853 -0.056102816 -0.07998271 -0.08937138
0.06511717 -0.0142128365 0.049305763 -0.037894674 -0.007640033 0.02845678 0.097441964 -0.055145614
0.010187531 0.0017736941 -0.07651689 0.023995133 -0.036970258 0.019643925 0.06686817 0.09485242
0.017021483 0.1037914 -0.026176998 -0.0655998 0.059341703 0.1532552 0.010093514 0.030105356

rnn.rnn.weight_hh_l0 f4 [192, 64]
00000000: 322a 9ebc 8230 31bd 80d2 58bd b38c a2bd
00000010: 24a4 9cbd 9a6d 363d 0782 63bd 0668 0bbd
00000020: d3c6 893d 0a32 4fbb d94d 53bd 0546 38bd
00000030: 6915 143e ad24 67bd 3ce2 da39 9070 d93c
00000040: 00a6 923d e38e a6bc 0e1d 04bc 659d 263c
00000050: c8c7 723d 562a 22bd 3ccd f4bd 1e27 4bbd
00000060: c441 42bd 69d4 d83d a596 de3c ac56 f53d
00000070: a47d ab3d 617e 08be 0ab3 213d 53f5 6abc
00000080: 2793 93bd 8973 9c3d 431c a73c 8104 4e3e
00000090: f94a 90bc 621b 1c3d beed dc3d 493e 873d
000000a0: 0a82 01bd 27e7 ae3d 0f8d c83c fb70 623e
000000b0: 7645 203d b2bb c53d 3315 0c3c 3c3f 02be
000000c0: c558 9abd 4e71 cdbc 9e16 153b be7a 84bd
000000d0: 677a b2bd 11f6 403d 2edf b9bd e485 053e
000000e0: 6e05 c83d a11e 8c3d 54ad b63c e204 a63c
000000f0: 190b 663d 6164 59be 73e8 63bd 72ac 45be
00000100: 341e 90bd c47f ab3d 7d68 d03c a1c4 7e3d
00000110: e258 96bd 5100 2d3e 1f72 ce3b e3d0 b63d
00000120: fe42 a33c 6f09 96bc 75cc f3bc 97de 903d
00000130: a158 333c 0459 d83d db53 5ebd 1f0d 353d
00000140: ba47 b53d ad2a cbbc 2d99 acbd 3091 9f3d
00000150: df83 b4bd f539 89bc dd82 4e3e 160c 883d
00000160: a323 91bd 828e 0a3d 5549 023d 9a3b 883c
00000170: 73d5 1fbd 6444 44bd 03ec e2bd 0fe4 cc3d
00000180: 6b07 1b3b a683 73bc d82e fcbb a10d 85bc
00000190: 986e 97bd 61a5 df3c 1a10 82bd ef13 7ebd
000001a0: f79b 82bd ad85 c93d 7f65 f3bd 4e9c 4a3d
000001b0: 1448 953d 7c15 ee3c 66c5 debb b99c e1bc
000001c0: aabe 7cbd 96fc 7cbd 1911 d3bd b63e d43d
000001d0: a275 033e e2ca d23c 6fd8 7bbd 79d0 97bd
000001e0: f90e 85bc c971 2c3d ca51 df3c 3cfc 7f3d
000001f0: 806b 903c c35d af3d 7b51 0f3d 5d3b f1bc
00000200: 38aa 143d e2b4 5dbc ddd1 f0bd f801 01bd
00000210: 132c 4c3d c1e6 b2bd c324 c2bc 6110 b13d
00000220: d7eb c33c 2982 853d 4433 793c 1cb7 803d
00000230: c122 ea3c 982b cabd ed65 1cbe e15b 813b
00000240: 7012 993c 77f9 253d 42c2 803b e2cb b13b
00000250: 778b f53b 5a45 ddbc db5c 8dbd 74fa a43c
00000260: 8ee5 bf3d c0f7 273d d201 48be f866 4ebb
00000270: 833c 933c e8d6 96ba da2d f0bb 4698 ba3d
00000280: 923a cd3c 43f2 adbd 4002 69bd ed95 bd3d
00000290: a810 0c3e f932 cfbd c82b b9bd e1e8 6e3d
000002a0: e8c2 aabd 673b d93d cd09 393d 2ef6 d3bb
000002b0: cf1e 0abc df2d 9abd b013 783d efa1 96bd
000002c0: c775 bdb9 59dd b4bd 61db 813c 90c4 d73c
000002d0: e0bf 97bc 4a11 00bd 9f9d d7bc 7bac 073e
000002e0: 4b12 173d 72a7 e0bd d00e c9bd e36b ef3d
000002f0: a6c4 923c bd96 ab3d 1b5d c5bc c6ac 6f3d
00000300: 764c b43d 3faf a0bc c2c9 b7bd b151 37bd
00000310: e552 adbd 2200 de3c f750 f5bb bdc4 84bd
00000320: 3ec3 04bc c1be 76bc fdef 8f3d ae8d dfbc
00000330: 3aef ecbc 224b d9bb c035 e9bd 40c7 a6bd
00000340: bdf7 94bd b1ca 7dbd bac5 253d 6212 ef3c
00000350: 2a85 8bbd 2817 8cbd 9a32 abbd e3f9 68bc
00000360: 6075 d33c 8f2d 9fbd ba29 1f3e bc41 2dbe
00000370: 4dbd 263d 51ca ec3b 506a 02be e100 14be
00000380: 607f 443d e1ef 423d 1c61 7b3d 89be 863d
00000390: 5c04 d1bd 8c4b 5a3d 9044 14bd d740 7abc
000003a0: 1efd 02bd 1209 a03d a528 d1bd 9320 50bc
000003b0: cfac 7a3c 75f2 9abd 4ca1 7e3d 7a97 a4bd
000003c0: 6657 fbbd c4c4 8fbc b40b cdbd 728f 293e
000003d0: a355 a4ba 21eb 99bd 8a73 e4bd f382 d63d
000003e0: 753a 873d 4d8d fb3d 483c dd3d 7cc2 04be
000003f0: 448d fc3c cbc0 513d aa81 6fbd e940 9c3d
-0.01930723 -0.04325915 -0.052935123 -0.079369925 -0.07648495 0.044538118 -0.055543926 -0.03403475
0.06727376 -0.003161552 -0.051587913 -0.04498865 0.14461292 -0.05643146 0.00041748758 0.026542932
0.07160568 -0.020331806 -0.008063568 0.010169362 0.059272557 -0.039591156 -0.11953208 -0.049597852
-0.047426 0.10587389 0.027171442 0.11979422 0.083735734 -0.1332946 0.039477386 -0.014340716
-0.072058015 0.07639224 0.020399218 0.20118906 -0.017613875 0.03811205 0.10787533 0.06603677
-0.031618156 0.085401826 0.024481324 0.22113411 0.039128743 0.09654941 0.008549976 -0.12719434
-0.07536463 -0.025078442 0.0022749077 -0.06468724 -0.08714753 0.047109667 -0.09075771 0.13039356
0.09766661 0.068417795 0.022299446 0.020266 0.056162927 -0.21229698 -0.055641603 -0.19304064
-0.07037011 0.08373979 0.025440449 0.06219924 -0.07341172 0.16894652 0.0063002254 0.08926561
0.019929405 -0.018315045 -0.029760579 0.07073706 0.010946424 0.105638534 -0.05427919 0.044201966
0.088515714 -0.024800623 -0.084276535 0.07791364 -0.08814215 -0.016751269 0.20167108 0.0664293
-0.07086875 0.033827312 0.031808216 0.016629983 -0.03902192 -0.047916785 -0.11080172 0.10004436
0.0023655545 -0.01486293 -0.007696014 -0.01624185 -0.07394141 0.027300538 -0.063507274 -0.06203073
-0.06377404 0.0983995 -0.11884593 0.04946547 0.072891384 0.029062979 -0.006798434 -0.027540551
-0.06170527 -0.061764322 -0.103059955 0.10363524 0.12837842 0.025731508 -0.061485704 -0.0741281
-0.016242491 0.0421007 0.02726068 0.06249641 0.017629385 0.085628055 0.034989815 -0.029447252
0.036295146 -0.013531895 -0.11758778 -0.03149602 0.04984672 -0.08735419 -0.02369917 0.08645702
0.023916168 0.06518967 0.015209977 0.06284925 0.028581025 -0.09871596 -0.15273257 0.0039477204
0.01868555 0.04052111 0.0039294073 0.005425916 0.007493432 -0.027010608 -0.069024764 0.020138957
0.09369956 0.041007757 -0.19531944 -0.003149448 0.01797319 -0.0011508139 -0.0073296847 0.09111075
0.025052343 -0.084934734 -0.05688691 0.09257112 0.13678229 -0.10117144 -0.09041554 0.05832756
-0.08337957 0.10607033 0.045175362 -0.006468556 -0.008430197 -0.075282805 0.06056565 -0.07355105
-0.0003613664 -0.08831281 0.015851678 0.026338845 -0.01852411 -0.031266488 -0.026320277 0.1324939
0.03688268 -0.10969438 -0.098172784 0.116905 0.017916035 0.083783604 -0.024092248 0.05851438
0.08803646 -0.019614814 -0.08974029 -0.04475564 -0.084630765 0.027099673 -0.0074864584 -0.06482837
-0.00810319 -0.015060128 0.07028196 -0.027289238 -0.028922666 -0.006631271 -0.11387205 -0.08143473
-0.07273815 -0.06196088 0.04047177 0.02918357 -0.068125084 -0.06840354 -0.08359261 -0.014219734
0.025812805 -0.077723615 0.15543261 -0.16919607 0.040707875 0.0072262664 -0.12735868 -0.1445346
0.047973037 0.047592048 0.061371908 0.065793104 -0.102059096 0.053294703 -0.0361982 -0.015274248
-0.031979673 0.0781423 -0.102128305 -0.012703079 0.01529999 -0.07565776 0.062165543 -0.08036704
-0.12272529 -0.01754988 -0.10011998 0.16558626 -0.0012537729 -0.075155504 -0.1115485 0.10474195
0.06602947 0.1228281 0.10802513 -0.12964815 0.03082908 0.051209252 -0.058473267 0.07629568
