onpolicy/scripts/results/MPE/simple_spread/rmappo/check/wandb/run-20220704_181248-1nrunmun/files/actor.pt (torch, 147692 bytes, 22 tensors)

base.feature_norm.weight f4 [18]
0.99291265 0.99380904 1.0007327 0.9976221 1.0064248 1.0014571 0.9969742 1.0039084
1.007376 0.99422854 1.0017109 0.996913 1.0006605 0.9957293 1.0031211 1.0008291
1.0044503 1.003284
00000000: 862f 7e3f 456a 7e3f 0218 803f 2964 7f3f
00000010: 87d2 803f bf2f 803f b339 7f3f 1280 803f
00000020: b2f1 803f c385 7e3f 1038 803f b135 7f3f
00000030: a515 803f 1ee8 7e3f 4666 803f 2b1b 803f
00000040: d491 803f 9c6b 803f

base.feature_norm.bias f4 [18]
-0.00033090232 0.012546708 -0.0053425734 0.012748079 -0.012131671 -0.011721905 -0.0032939366 -0.011807998
-0.0054255393 -0.012500323 -0.001827108 0.0021050847 0.0108111035 -0.0018150345 -0.008116158 0.012152885
0.009077555 0.01198574
00000000: f57c adb9 b590 4d3c c110 afbb 52dd 503c
00000010: ebc3 46bc 3c0d 40bc 16df 57bb 5576 41bc
00000020: b9c8 b1bb 28ce 4cbc 927b efba 76f5 093b
00000030: 0e21 313c 74e6 edba a2f9 04bc e51c 473c
00000040: 06ba 143c d65f 443c

base.mlp.fc1.0.weight f4 [64, 18]
0.003676475 0.025925137 -0.2540014 -0.094499916 -0.110792354 -0.030730138 0.15484338 0.16205396
-0.43930846 0.17208926 0.19061467 0.04719772 0.04870329 0.19289352 -0.12915942 -0.22814342
-0.30692932 0.05570053 -0.118418746 0.20536523 -0.100843996 0.118096694 0.087465875 0.11483587
-0.20135336 0.17710853 -0.3468221 0.20933993 0.11152136 0.120341934 -0.22077052 -0.09342686
-0.1049493 0.008212387 0.29569694 -0.14534646 -0.25614128 -0.119741134 -0.06396851 0.11759234
0.09462894 0.09116997 -0.33700708 -0.1799406 -0.40580952 0.03802456 0.26689544 0.4770797
0.38193694 0.07743774 0.20537214 -0.027210496 0.03895839 0.16747166 0.07827957 0.11053445
-0.75512314 -0.30038974 0.374583 0.29750592 0.046345666 0.24212827 0.026387122 0.1657803
-0.29937482 -0.20357159 0.12505919 -0.11177194 0.061806507 -0.10843656 -0.32133868 0.09354371
0.01958383 -0.11250527 -0.23721814 -0.12766929 -0.28811544 0.035402182 -0.0025857766 -0.20435683
-0.08006558 -0.14303999 -0.077833414 0.069453046 -0.10466766 0.12458114 -0.16646668 0.3081913
0.13792151 -0.18191677 0.5115697 -0.19399466 0.18778034 -0.17838329 0.22640173 0.05541929
0.03423953 -0.25603634 -0.3571875 0.21815223 -0.17593272 0.28693104 -0.04880957 0.0806207
0.36072138 -0.17388344 0.011162842 0.017259661 0.16889997 -0.27316427 0.16076127 0.045712523
-0.07044044 -0.1163885 0.1916248 -0.286265 -0.07901818 0.2872898 0.20344241 -0.26716265
-0.22331508 0.03753683 0.12145181 -0.14379188 0.08325372 -0.11111184 0.06686803 0.3856205
0.02227503 -0.105941586 0.07117714 -0.27649432 0.15026341 0.24489494 -0.15235175 -0.13443762
0.01680863 -0.016444461 -0.23885982 0.006089288 0.09507545 -0.22628357 -0.2450356 0.037214685
0.26844567 -0.3497981 0.080194294 -0.14766788 0.33057213 -0.27475327 0.3389906 0.32365793
0.05333603 0.14565538 0.1401884 0.23143639 0.22253276 -0.09051122 0.016657008 -0.06122588
-0.38308206 0.10225904 -0.019260105 0.39521286 0.3024766 -0.057758655 -0.18108563 0.012810082
0.03491772 0.18035834 0.29233414 -0.13110834 -0.14133823 0.10516198 0.1575262 0.28160712
-0.030586734 -0.1620897 -0.014377866 0.0010120247 0.042316128 0.061236918 0.20842108 -0.011443482
0.09498449 0.55206645 0.107437834 0.3536068 0.14631836 0.250219 0.15726812 0.176954
-0.061998535 0.016003547 0.19879195 0.35500485 -0.2049117 -0.21589613 -0.08721609 -0.102391385
0.016901534 -0.4329723 -0.29589835 0.1426966 0.0082713645 -0.034669068 -0.15022899 -0.17107879
0.24725771 -0.2424752 0.35764217 -0.22904874 0.33600265 0.13807759 0.07522957 0.2109094
-0.25268322 -0.049669534 0.0012674876 0.12664667 0.025038294 0.5693973 -0.1861618 0.12717141
0.1339052 -0.07898295 -0.31378457 0.09169685 0.21264723 -0.17665295 -0.18269527 -0.1658801
0.32958722 0.030354008 -0.009402407 -0.09365531 -0.003322523 0.09455539 0.13643369 0.032288548
0.37043 -0.012322544 -0.13015741 -0.12627266 -0.30719078 0.17101932 -0.35746 -0.4853857
-0.039535515 0.069904596 0.024098706 0.13520786 0.17983723 0.23491204 0.31560403 0.074156985
00000000: 04f1 703b f460 d43c 790c 82be 2c89 c1bd
00000010: 1ae7 e2bd c5bd fbbc 438f 1e3e 79f1 253e
00000020: 0aed e0be 2b38 303e 7e30 433e 6552 413d
00000030: 1a7d 473d e185 453e 5e42 04be 6e9e 69be
00000040: d725 9dbe 3d26 643d 8785 f2bd 434b 523e
00000050: 4c87 cebd aedc f13d 4f21 b33d 122f eb3d
00000060: 932f 4ebe f05b 353e ab92 b1be 355d 563e
00000070: 5065 e43d d575 f63d ab11 62be 9556 bfbd
00000080: a9ef d6bd 3f8d 063c 9765 973e b4d5 14be
00000090: f324 83be d73a f5bd ec01 83bd 41d4 f03d
000000a0: d1cc c13d 52b7 ba3d 318c acbe 5942 38be
000000b0: 44c6 cfbe a4bf 1b3d 85a6 883e ca43 f43e
000000c0: 3d8d c33e ae97 9e3d 134d 523e 8ce8 debc
000000d0: d592 1f3d b17d 2b3e 0a51 a03d e35f e23d
000000e0: c04f 41bf afcc 99be 58c9 bf3e b252 983e
000000f0: f4d4 3d3d 79f0 773e ce29 d83c 50c2 293e
00000100: a847 99be 1275 50be 840f 003e b0e8 e4bd
00000110: d228 7d3d fd13 debd 8186 a4be d893 bf3d
00000120: 456e a03c 2a69 e6bd 50e9 72be bdbb 02be
00000130: de83 93be e101 113d 2276 29bb eb42 51be
00000140: 6cf9 a3bd 1379 12be 2067 9fbd 663d 8e3d
00000150: 005c d6bd 6624 ff3d 3e76 2abe 40cb 9d3e
00000160: 4c3b 0d3e 6448 3abe 3bf6 023f 89a6 46be
00000170: 7d49 403e 1caa 36be dbd5 673e 56ff 623d
00000180: c03e 0c3d 3217 83be 48e1 b6be 4c63 5f3e
00000190: b527 34be a0e8 923e 8bec 47bd 771c a53d
000001a0: 79b0 b83e 800e 32be 5ae4 363c 2264 8d3c
000001b0: 1df4 2c3e 30dc 8bbe 9a9e 243e 0e3d 3b3d
000001c0: 1443 90bd 185d eebd 4b39 443e 5391 92be
000001d0: 49d4 a1bd a617 933e 3553 503e 8bc9 88be
000001e0: b5ac 64be 38c0 193d babb f83d 2e3e 13be
000001f0: ed80 aa3d 9b8e e3bd 1bf2 883d 0d70 c53e
00000200: 207a b63c e7f7 d8bd 52c5 913d aa90 8dbe
00000210: a7de 193e bdc5 7a3e 1902 1cbe 04aa 09be
00000220: 41b2 893c 89b6 86bc ab97 74be a688 c73b
00000230: ebb6 c23d e1b6 67be 9dea 7abe 6d6e 183d
00000240: b671 893e bd18 b3be e83c a43d 4036 17be
00000250: c040 a93e 76ac 8cbe 2d90 ad3e 7eb6 a53e
00000260: e276 5a3d af26 153e 8c8d 0f3e a9fd 6c3e
00000270: a1df 633e f25d b9bd 4774 883c fdc7 7abd
00000280: 5523 c4be 306d d13d 5ec7 9dbc 5759 ca3e
00000290: 37de 9a3e 5794 6cbd 836e 39be 61e1 513c
000002a0: e205 0f3d dbaf 383e d2ac 953e 4441 06be
000002b0: f8ba 10be 2a5f d73d 8c4e 213e cf2e 903e
000002c0: 0891 fabc d8fa 25be 2491 6bbc eaa5 843a
000002d0: ad53 2d3d 90d3 7a3d 566c 553e 717d 3bbc
000002e0: 3a87 c23d 3a54 0d3f 5e08 dc3d f30b b53e
000002f0: 7bd4 153e b41c 803e e50a 213e 6e33 353e
00000300: 2df2 7dbd df19 833c 1e90 4b3e 32c3 b53e
00000310: 5fd4 51be e013 5dbe 599e b2bd 93b2 d1bd
00000320: 1675 8a3c 8cae ddbe fd7f 97be 0f1f 123e
00000330: 9e84 073c 2701 0ebd a1d5 19be 472f 2fbe
00000340: 2031 7d3e 6b4b 78be e01c b73e c18b 6abe
00000350: 8a08 ac3e 3664 0d3e f611 9a3d a2f8 573e
00000360: b25f 81be 4872 4bbd d421 a63a aaaf 013e
00000370: 1c1d cd3c 05c4 113f 33a1 3ebe 3939 023e
00000380: 721e 093e d0c1 a1bd 5fa8 a0be 8fcb bb3d
00000390: 32c0 593e 83e4 34be 7814 3bbe 79dc 29be
000003a0: a8bf a83e f8a8 f83c 8e0c 1abc 5bce bfbd
000003b0: b0be 59bb 42a6 c13d 46b5 0b3e ff40 043d
000003c0: 00a9 bd3e 7fe4 49bc fc47 05be 9f4d 01be
000003d0: 1c48 9dbe b01f 2f3e ff04 b7be 7984 f8be
000003e0: feef 21bd 242a 8f3d a66a c53c ee73 0a3e
000003f0: 4027 383e c88c 703e da96 a13e 9edf 973d

base.mlp.fc1.0.bias f4 [64]
-0.0070881676 -0.0081391055 0.008989828 -0.009201884 0.009026016 -0.0026048885 -0.011241016 0.0018303616
-0.008783299 0.011490062 -0.011119996 0.011543648 0.006438992 0.0015732665 0.0018083379 0.0067512086
-0.013010393 0.010560914 0.0025220425 -0.0073720776 -0.0048831715 0.005432056 0.0026361833 0.012478091
-0.0023442998 -0.0007191636 -0.005498854 0.0003755286 -0.0033620792 -0.0017864652 0.0004364333 0.007835651
-0.00095873757 0.00169931 1.3351081e-05 0.008770903 -0.009971021 0.00012308525 -0.0060840175 -0.0024040423
-0.003775064 -0.0005483271 -0.0061289165 0.012429029 0.011168276 0.0071891523 0.0116249025 0.0034555325
0.010863808 -0.003195237 0.0038341268 0.0051408065 -0.011649954 0.0069182604 -0.0050820783 0.0032380968
-0.00031054468 0.004443529 -0.0056465324 -0.005639911 0.010638105 -0.010269083 -0.008538758 -0.0063157137
00000000: dc43 e8bb e259 05bc 124a 133c 80c3 16bc
00000010: dbe1 133c c7b6 2abb 3d2c 38bc bee8 ef3a
00000020: d3e7 0fbc d040 3c3c a530 36bc 9221 3d3c
00000030: 2efe d23b 1036 ce3a c005 ed3a 3e39 dd3b
00000040: 8b29 55bc af07 2d3c da48 253b 7891 f1bb
00000050: 0303 a0bb 63ff b13b d1c3 2c3b e870 4c3c
00000060: d3a2 19bb 4186 3cba bb2f b4bb 98e2 c439
00000070: 5456 5cbb d327 eaba 16d1 e439 1a61 003c
00000080: ca53 7bba 62bb de3a 75fe 5f37 d5b3 0f3c
00000090: 7e5d 23bc 7210 0139 705c c7bb 238d 1dbb
000000a0: 1067 77bb 9cbd 0fba 14d5 c8bb 20a3 4b3c
000000b0: 25fb 363c fb92 eb3b 6076 3e3c 3776 623b
000000c0: 1dfe 313c 2e67 51bb f945 7b3b 3674 a83b
000000d0: 73df 3ebc 93b2 e23b 9087 a6bb 4036 543b
000000e0: 9ad0 a2b9 069b 913b 8c06 b9bb 01cf b8bb
000000f0: 724b 2e3c a83f 28bc 26e6 0bbc 0cf4 cebb

base.mlp.fc1.2.weight f4 [64]
0.99698186 1.0013897 1.0030657 1.0008388 0.99489474 1.00697 1.0063579 1.0087539
0.9926057 1.0002358 1.0067599 1.0016247 1.0000232 1.0046321 0.98883516 1.0070276
0.9970492 1.0099766 1.001032 0.99025416 1.006891 1.0012127 1.001354 1.0106739
1.0004766 1.0019472 1.0057079 1.0038733 1.0004197 1.0037137 1.000917 1.0027381
1.0047488 0.9920926 1.0005608 0.9964725 1.0007629 1.0017798 1.0000132 1.0107106
1.0062522 0.99227303 1.0006135 1.0002381 1.0056344 0.9910389 1.004832 0.99544626
1.0033747 0.99805325 0.9991488 1.0038472 0.9886336 0.9885594 1.0012008 0.9927715
0.98916507 1.0084621 0.99984866 1.0073195 1.0082226 0.99460864 0.9997749 0.9987659
00000000: 343a 7f3f 8a2d 803f 7564 803f 7c1b 803f
00000010: 6cb1 7e3f 65e4 803f 56d0 803f d91e 813f
00000020: 681b 7e3f ba07 803f 82dd 803f 3d35 803f
00000030: c300 803f c997 803f 4d24 7d3f 48e6 803f
00000040: 9e3e 7f3f ea46 813f d121 803f 4c81 7d3f
00000050: cee1 803f bd27 803f 5e2c 803f c35d 813f
00000060: 9e0f 803f ce3f 803f 09bb 803f ec7e 803f
00000070: c10d 803f b179 803f 0c1e 803f b959 803f
00000080: 9c9b 803f c8f9 7d3f 6012 803f d218 7f3f
00000090: 0019 803f 523a 803f 6f00 803f f75e 813f
000000a0: dfcc 803f 9b05 7e3f 1a14 803f cd07 803f
000000b0: a1b8 803f bab4 7d3f 569e 803f 91d5 7e3f
000000c0: 956e 803f 6b80 7f3f 37c8 7f3f 117e 803f
000000d0: 1717 7d3f 3b12 7d3f 5927 803f 4626 7e3f
000000e0: ec39 7d3f 4915 813f 15f6 7f3f d8ef 803f
000000f0: 700d 813f ac9e 7e3f 3ff1 7f3f 1faf 7f3f

base.mlp.fc1.2.bias f4 [64]
-0.008313051 -0.0047058347 0.009737433 -0.008969663 0.006207414 -0.010753249 -0.011420673 0.00034869232
-0.008700455 0.011100432 -0.009388046 0.010865299 0.0008838308 0.0007728109 0.0006076825 0.0055003637
-0.01192934 0.004216364 0.0035802443 -0.008911913 -0.005024317 0.0021855286 0.0029864034 0.009043404
-0.0044673393 0.00065740803 -0.003192923 -0.0010068205 -0.0021686272 -0.0012933679 -0.00088813243 0.009831016
-0.0035773353 -0.0012743908 0.00040865684 -0.009384165 -0.008545646 -8.198822e-05 -0.0038473196 -0.0009930829
-0.0008994243 -0.0026717097 -0.008293419 0.011922019 0.0100903185 0.007748001 0.010241577 0.0020836953
0.009521881 -0.007966519 0.0015781914 0.0072659496 -0.011893537 0.0101989405 -0.005957675 -0.00059814064
0.004386321 -0.0036036072 -0.0040326654 -0.003587317 0.009702806 -0.009937154 -0.0075203897 -0.0037038673
00000000: 7733 08bc 6733 9abb c189 1f3c 7ef5 12bc
00000010: 9067 cb3b 652e 30bc c61d 3bbc b1d0 b639
00000020: 5a8c 0ebc 96de 353c 52d0 19bc 5e04 323c
00000030: e2b0 673a 7696 4a3a e24c 1f3a 653c b43b
00000040: 4773 43bc 6d29 8a3b 88a2 6a3b 4603 12bc
00000050: 07a3 a4bb 163b 0f3b 89b7 433b c92a 143c
00000060: c262 92bb e855 2c3a 5c40 51bb 4af7 83ba
00000070: 871f 0ebb 3a86 a9ba 8fd1 68ba 4512 213c
00000080: ba71 6abb 7609 a7ba fe40 d639 0ac0 19bc
00000090: 0a03 0cbc 17f1 abb8 5023 7cbb 552a 82ba
000000a0: 58c7 6bba da17 2fbb 1fe1 07bc 9254 433c
000000b0: dd51 253c f1e2 fd3b 4acc 273c 9b8e 083b
000000c0: aa01 1c3c 0186 02bc 51db ce3a 3417 ee3b
000000d0: 1cdd 42bc 7519 273c 9a38 c3bb 8acc 1cba
000000e0: 21bb 8f3b 7f2a 6cbb 7324 84bb 3119 6bbb
000000f0: 85f8 1e3c 72cf 22bc 9a6d f6bb 95bc 72bb

base.mlp.fc_h.0.weight f4 [64, 64]
0.033481717 -0.14812307 0.04011635 0.15791598 -0.2615003 0.18384835 -0.09822951 -0.17843127
-0.24555293 0.20986752 0.05907723 -0.54988647 -0.3318764 -0.07753266 -0.25474575 0.23258102
-0.035450954 0.28970826 0.16883272 -0.0057798126 -0.08370787 0.018798333 0.37880987 -0.36313817
-0.15712099 0.1267347 -0.28262436 0.16017357 0.28880858 -0.0026906715 -0.088964894 -0.1341735
0.42363355 -0.004673656 0.008115965 -0.16290838 0.014690873 -0.453413 -0.38165897 -0.03441728
-0.041368216 0.064428605 -0.037509326 -0.19917132 0.33794647 0.0024369778 -0.043182794 0.21097796
-0.09338997 0.04619272 0.31319332 -0.30500442 0.2408755 0.0896405 0.23889908 -0.1704452
-0.22307475 0.008375955 0.16009952 0.077872336 -0.16033092 -0.105059445 -0.17032243 -0.139216
0.36742017 -0.042592585 0.040085096 -0.20250905 0.11505165 0.61356294 -0.6181027 -0.11289254
-0.085166715 0.031012287 -0.29570097 0.040453956 0.057233006 0.008733339 -0.2235725 0.039614394
0.033582117 -0.19574426 0.12904492 0.035515785 0.12646489 -0.020733485 0.07734221 -0.06801289
-0.012206997 -0.42786062 0.09767993 0.30280426 -0.18827662 0.21991913 0.06616233 -0.0055770916
-0.23240079 0.10830612 -0.08524927 0.12450691 -0.2554515 0.09275346 0.22030674 0.15197009
-0.31972292 0.03580277 0.23786221 -0.2116057 0.40954992 -0.24327704 0.12832016 0.105181046
0.037926193 0.12529507 0.035141654 0.2983124 -0.05889377 -0.35113037 0.14159437 -0.24631807
-0.09861567 -0.10742527 0.10899719 0.20247842 0.15425345 -0.15235174 0.27438882 0.0045895916
-0.28991836 0.24652463 0.21330462 -0.07810908 0.01643816 -0.10722202 -0.01746483 0.15823115
-0.27380005 0.22626504 -0.18683164 -0.1612559 0.46577647 0.033988934 -0.087933704 0.008738199
-0.10769207 0.4197137 0.16592902 0.44886166 0.18087561 -0.22771385 0.31973335 0.330196
0.21096647 0.24693169 0.2405974 0.19923212 -0.10945378 -0.039033685 -0.1531027 -0.16218801
0.025413489 -0.0024478643 -0.29755968 0.16301364 -0.00715453 -0.16716436 -0.056974825 0.11978517
-0.007347935 0.010500292 0.31632894 0.1043848 -0.11875004 0.048426673 -0.22797415 0.063507356
-0.15138099 0.14156663 0.067867465 0.30246472 -0.15226373 0.22327591 0.37444028 -0.017323263
0.006426439 -0.11610369 -0.19558729 -0.5050192 0.09668946 -0.2802399 0.12422138 0.21140912
0.12270751 -0.32803822 -0.06454204 0.005104953 -0.095178604 -0.30062306 0.037753865 0.11972351
-0.23554568 0.43490753 -0.19290066 -0.148174 -0.03548848 -0.016960604 0.25744677 -0.4783506
-0.047204465 -0.065216176 -0.15283756 0.16362056 -0.12350179 -0.016055413 0.12891677 -0.080822304
0.4629589 -0.21969476 -0.31717476 -0.037708826 -0.15547621 0.11775665 -0.45560732 -0.05162745
0.10889158 -0.17700724 0.35809916 0.046897184 0.01709948 0.30481023 -0.21112685 -0.13628109
0.22978127 -0.17570683 0.19893552 -0.37031493 -0.0430919 0.19680937 -0.07251851 -0.16852112
0.116511196 0.009992214 -0.13601677 0.49313098 0.061602466 -0.094355725 0.10172548 0.012225176
0.014263539 -0.22772805 0.18954639 0.28572857 0.079237156 -0.08755005 -0.19595084 -0.20491603
00000000: 2024 093d 93ad 17be 0b51 243d bab4 213e
00000010: 5ee3 85be be42 3c3e 8e2c c9bd b0b6 36be
00000020: 3a72 7bbe 83e7 563e f7fa 713d 5cc5 0cbf
00000030: b4eb a9be 71c9 9ebd 096e 82be b829 6e3e
00000040: 0535 11bd a454 943e 7ce2 2c3e 9564 bdbb
00000050: 086f abbd f6fe 993c 5ef3 c13e 3fed b9be
00000060: 53e4 20be bec6 013e 24b4 90be 8a04 243e
00000070: b8de 933e fa55 30bb 3a33 b6bd c764 09be
00000080: 7fe6 d83e 7825 99bb d3f8 043c 74d1 26be
00000090: fdb1 703c c025 e8be ce68 c3be 22f9 0cbd
000000a0: b871 29bd 25f3 833d 61a3 19bd 91f3 4bbe
000000b0: 5207 ad3e b4b5 1f3b 71e0 30bd 9b0a 583e
000000c0: 3e43 bfbd 9434 3d3d e05a a03e 8a29 9cbe
000000d0: 11a8 763e 7095 b73d f6a1 743e 3089 2ebe
000000e0: b56d 64be 4d3b 093c 21f1 233e 887b 9f3d
000000f0: ca2d 24be 6829 d7bd 0169 2ebe a48e 0ebe
00000100: 7f1e bc3e 9075 2ebd 4530 243d 885e 4fbe
00000110: 33a0 eb3d 7612 1d3f fb3b 1ebf 3434 e7bd
00000120: e36b aebd 7b0d fe3c 1e66 97be 0cb3 253d
00000130: 286d 6a3d 4716 0f3c 30f0 64be b442 223d
00000140: 678d 093d 2f71 48be 5a24 043e 0079 113d
00000150: 0380 013e 45d9 a9bc 9865 9e3d 584a 8bbd
00000160: dbff 47bc 8c10 dbbe 6a0c c83d 2909 9b3e
00000170: 96cb 40be 7b32 613e 1e80 873d 09c0 b6bb
00000180: 79fa 6dbe 99cf dd3d 2b97 aebd 7bfd fe3d
00000190: 8aca 82be 87f5 bd3d 1798 613e 0c9e 1b3e
000001a0: b9b2 a3be eda5 123d 2792 733e 2aaf 58be
000001b0: 87b0 d13e 9e1d 79be 5c66 033e 2969 d73d
000001c0: 7f58 1b3d 5a4d 003e b2f0 0f3d 67bc 983e
000001d0: 983a 71bd 5cc7 b3be 1dfe 103e ce3a 7cbe
000001e0: 03f7 c9bd c801 dcbd eb39 df3d 8156 4f3e
000001f0: 9ef4 1d3e 1802 1cbe b17c 8c3e 4964 963b
00000200: 2e70 94be f470 7c3e 876c 5a3e a7f7 9fbd
00000210: 52a9 863c 3897 dbbd 6712 8fbc 5907 223e
00000220: 852f 8cbe 06b2 673e cb50 3fbe 4420 25be
00000230: 417a ee3e fb37 0b3d 9616 b4bd aa2a 0f3c
00000240: a98d dcbd b7e4 d63e 4ce9 293e 32d1 e53e
00000250: 7537 393e d22d 69be 17b4 a33e 730f a93e
00000260: 9807 583e a9db 7c3e 2a5f 763e 8103 4c3e
00000270: 4e29 e0bd c9e1 1fbd f4c6 1cbe 9d14 26be
00000280: f32f d03c 596c 20bb be59 98be 0ced 263e
00000290: 8c70 eabb 222d 2bbe 6f5e 69bd ed51 f53d
000002a0: f2c6 f0bb 6b09 2c3c def5 a13e b3c7 d53d
000002b0: 3933 f3bd 0c5b 463d 0e72 69be 2510 823d
000002c0: 9e03 1bbe d8f6 103e 19fe 8a3d a8dc 9a3e
000002d0: 06eb 1bbe 71a2 643e a3b6 bf3e 84e9 8dbc
000002e0: e194 d23b c5c7 edbd 0948 48be f048 01bf
000002f0: 2005 c63d 9b7b 8fbe c767 fe3d a27b 583e
00000300: 134e fb3d a0f4 a7be 9e2e 84bd 7347 a73b
00000310: 00ed c2bd 44eb 99be cca3 1a3d 9a31 f53d
00000320: e332 71be 33ac de3e c087 45be edba 17be
00000330: 5e5c 11bd f7f0 8abc 10d0 833e 5fea f4be
00000340: 7859 41bd 0f90 85bd 7381 1cbe 268c 273e
00000350: 82ee fcbd a486 83bc c202 043e 2a86 a5bd
00000360: f308 ed3e aaf7 60be bb64 a2be 9274 1abd
00000370: 2835 1fbe 662a f13d 5d45 e9be 4e77 53bd
00000380: 8c02 df3d 6341 35be c658 b73e 4317 403d
00000390: 3514 8c3c 1610 9c3e a331 58be 458d 0bbe
000003a0: c84b 6b3e 7eec 33be c1b5 4b3e eb99 bdbe
000003b0: 2281 30bd 6588 493e 9684 94bd cd90 2cbe
000003c0: 6c9d ee3d 62b6 233c fb47 0bbe aa7b fc3e
000003d0: de52 7c3d 933d c1bd 7355 d03d 1b4c 483c
000003e0: 9eb1 693c 8b31 69be 7318 423e 044b 923e
000003f0: 1747 a23d 714d b3bd 56a7 48be 82d5 51be

base.mlp.fc_h.0.bias f4 [64]
0.0 0.0 0.0 0.0 0.0 0.0 0.0 0.0
0.0 0.0 0.0 0.0 0.0 0.0 0.0 0.0
0.0 0.0 0.0 0.0 0.0 0.0 0.0 0.0
0.0 0.0 0.0 0.0 0.0 0.0 0.0 0.0
0.0 0.0 0.0 0.0 0.0 0.0 0.0 0.0
0.0 0.0 0.0 0.0 0.0 0.0 0.0 0.0
0.0 0.0 0.0 0.0 0.0 0.0 0.0 0.0
0.0 0.0 0.0 0.0 0.0 0.0 0.0 0.0
00000000: 0000 0000 0000 0000 0000 0000 0000 0000
00000010: 0000 0000 0000 0000 0000 0000 0000 0000
00000020: 0000 0000 0000 0000 0000 0000 0000 0000
00000030: 0000 0000 0000 0000 0000 0000 0000 0000
00000040: 0000 0000 0000 0000 0000 0000 0000 0000
00000050: 0000 0000 0000 0000 0000 0000 0000 0000
00000060: 0000 0000 0000 0000 0000 0000 0000 0000
00000070: 0000 0000 0000 0000 0000 0000 0000 0000
00000080: 0000 0000 0000 0000 0000 0000 0000 0000
00000090: 0000 0000 0000 0000 0000 0000 0000 0000
000000a0: 0000 0000 0000 0000 0000 0000 0000 0000
000000b0: 0000 0000 0000 0000 0000 0000 0000 0000
000000c0: 0000 0000 0000 0000 0000 0000 0000 0000
000000d0: 0000 0000 0000 0000 0000 0000 0000 0000
000000e0: 0000 0000 0000 0000 0000 0000 0000 0000
000000f0: 0000 0000 0000 0000 0000 0000 0000 0000

base.mlp.fc_h.2.weight f4 [64]
1.0 1.0 1.0 1.0 1.0 1.0 1.0 1.0
1.0 1.0 1.0 1.0 1.0 1.0 1.0 1.0
1.0 1.0 1.0 1.0 1.0 1.0 1.0 1.0
1.0 1.0 1.0 1.0 1.0 1.0 1.0 1.0
1.0 1.0 1.0 1.0 1.0 1.0 1.0 1.0
1.0 1.0 1.0 1.0 1.0 1.0 1.0 1.0
1.0 1.0 1.0 1.0 1.0 1.0 1.0 1.0
1.0 1.0 1.0 1.0 1.0 1.0 1.0 1.0
00000000: 0000 803f 0000 803f 0000 803f 0000 803f
00000010: 0000 803f 0000 803f 0000 803f 0000 803f
00000020: 0000 803f 0000 803f 0000 803f 0000 803f
00000030: 0000 803f 0000 803f 0000 803f 0000 803f
00000040: 0000 803f 0000 803f 0000 803f 0000 803f
00000050: 0000 803f 0000 803f 0000 803f 0000 803f
00000060: 0000 803f 0000 803f 0000 803f 0000 803f
00000070: 0000 803f 0000 803f 0000 803f 0000 803f
00000080: 0000 803f 0000 803f 0000 803f 0000 803f
00000090: 0000 803f 0000 803f 0000 803f 0000 803f
000000a0: 0000 803f 0000 803f 0000 803f 0000 803f
000000b0: 0000 803f 0000 803f 0000 803f 0000 803f
000000c0: 0000 803f 0000 803f 0000 803f 0000 803f
000000d0: 0000 803f 0000 803f 0000 803f 0000 803f
000000e0: 0000 803f 0000 803f 0000 803f 0000 803f
000000f0: 0000 803f 0000 803f 0000 803f 0000 803f

base.mlp.fc_h.2.bias f4 [64]
0.0 0.0 0.0 0.0 0.0 0.0 0.0 0.0
0.0 0.0 0.0 0.0 0.0 0.0 0.0 0.0
0.0 0.0 0.0 0.0 0.0 0.0 0.0 0.0
0.0 0.0 0.0 0.0 0.0 0.0 0.0 0.0
0.0 0.0 0.0 0.0 0.0 0.0 0.0 0.0
0.0 0.0 0.0 0.0 0.0 0.0 0.0 0.0
0.0 0.0 0.0 0.0 0.0 0.0 0.0 0.0
0.0 0.0 0.0 0.0 0.0 0.0 0.0 0.0
00000000: 0000 0000 0000 0000 0000 0000 0000 0000
00000010: 0000 0000 0000 0000 0000 0000 0000 0000
00000020: 0000 0000 0000 0000 0000 0000 0000 0000
00000030: 0000 0000 0000 0000 0000 0000 0000 0000
00000040: 0000 0000 0000 0000 0000 0000 0000 0000
00000050: 0000 0000 0000 0000 0000 0000 0000 0000
00000060: 0000 0000 0000 0000 0000 0000 0000 0000
00000070: 0000 0000 0000 0000 0000 0000 0000 0000
00000080: 0000 0000 0000 0000 0000 0000 0000 0000
00000090: 0000 0000 0000 0000 0000 0000 0000 0000
000000a0: 0000 0000 0000 0000 0000 0000 0000 0000
000000b0: 0000 0000 0000 0000 0000 0000 0000 0000
000000c0: 0000 0000 0000 0000 0000 0000 0000 0000
000000d0: 0000 0000 0000 0000 0000 0000 0000 0000
000000e0: 0000 0000 0000 0000 0000 0000 0000 0000
000000f0: 0000 0000 0000 0000 0000 0000 0000 0000

base.mlp.fc2.0.0.weight f4 [64, 64]
0.03512455 -0.14819267 0.038548306 0.15854543 -0.26882237 0.18097933 -0.09126205 -0.17637132
-0.2362772 0.2012706 0.059695087 -0.546677 -0.33950937 -0.07641585 -0.25366047 0.22486402
-0.037606824 0.2965028 0.17138018 -0.01602919 -0.078557834 0.018330093 0.37262025 -0.36345163
-0.15122555 0.12189624 -0.27576387 0.1569547 0.28987712 0.0006632413 -0.0885923 -0.14298339
0.4278894 0.00035345677 0.013728678 -0.17150266 0.02011341 -0.46147755 -0.37358972 -0.02659835
-0.03870254 0.06571484 -0.036615096 -0.19839054 0.34556633 0.0036103346 -0.03484462 0.21239549
-0.08830249 0.04143995 0.30636448 -0.31084412 0.24111131 0.08307706 0.24637343 -0.17395245
-0.21871376 0.0071628625 0.165749 0.07387085 -0.15807725 -0.108099535 -0.17361294 -0.14159104
0.36790898 -0.04381961 0.04151932 -0.1990923 0.113530226 0.6146574 -0.6217106 -0.1210554
-0.08181672 0.026261058 -0.2916425 0.047713783 0.05987353 0.008930146 -0.222293 0.034389287
0.033473253 -0.18979496 0.13219409 0.031767346 0.13286686 -0.014251511 0.07498401 -0.07505284
-0.014522254 -0.4301692 0.09208754 0.30055827 -0.18769346 0.21727774 0.06550199 -0.012074391
-0.22767152 0.108759195 -0.08459119 0.12128188 -0.24980696 0.08996704 0.22566292 0.152272
-0.3210324 0.036806956 0.23910312 -0.21469836 0.41803324 -0.24262404 0.12588547 0.114074826
0.034560435 0.12406281 0.03469466 0.29970354 -0.055353157 -0.34930226 0.14180577 -0.2499429
-0.10403003 -0.10371636 0.10887238 0.19493242 0.16113423 -0.14859968 0.2732476 -0.0012266407
-0.28583738 0.2471258 0.21632774 -0.07057059 0.018109309 -0.110213436 -0.02559316 0.1560343
-0.27099305 0.23009881 -0.18164821 -0.15511511 0.47501272 0.02662321 -0.090762 0.0032357767
-0.103007026 0.41822493 0.1603019 0.44526884 0.18556938 -0.22497022 0.32454184 0.3255592
0.20718516 0.2413614 0.24108371 0.20195262 -0.111504324 -0.041555412 -0.15561204 -0.16954285
0.025157357 -0.003082484 -0.30189624 0.15908971 -0.0056864107 -0.17007971 -0.05567854 0.1181718
-0.009814644 0.011211824 0.31464115 0.10170314 -0.117720045 0.049973752 -0.22478397 0.06211161
-0.15296602 0.14299715 0.07291938 0.29902855 -0.14439881 0.21715803 0.3801054 -0.021743884
0.0034148144 -0.11543946 -0.19166985 -0.5129228 0.10214778 -0.27643728 0.12544428 0.21069981
0.117238075 -0.32943267 -0.07396326 0.015140242 -0.09708092 -0.30330437 0.03962492 0.12350256
-0.23346916 0.43304297 -0.19028866 -0.14873736 -0.030427387 -0.010180436 0.2516926 -0.48597297
-0.04678336 -0.071390525 -0.15068851 0.16268218 -0.12311639 -0.009302043 0.1237162 -0.07988319
0.4668877 -0.21390367 -0.3136233 -0.044225223 -0.16111174 0.12044756 -0.45734704 -0.058497734
0.106879845 -0.17741098 0.3501361 0.042330828 0.021867076 0.30279553 -0.2042907 -0.13917927
0.2334387 -0.16734321 0.19235201 -0.36824992 -0.04282771 0.1961832 -0.07211092 -0.17161103
0.11425451 0.011398041 -0.13332935 0.48742217 0.06046402 -0.097758844 0.1029593 0.01855802
0.020552687 -0.23436864 0.1920066 0.29175156 0.07907763 -0.08583717 -0.19786358 -0.20812525
00000000: c3de 0f3d d2bf 17be d4e4 1d3d bc59 223e
00000010: 16a3 89be a552 393e 99e7 babd af9a 34be
00000020: a6f2 71be e119 4e3e d682 743d 06f3 0bbf
00000030: 2cd4 adbe ea7f 9cbd c9df 81be c142 663e
00000040: 9d09 1abd 37cf 973e 497e 2f3e a64f 83bc
00000050: eee2 a0bd fe28 963c 15c8 be3e 5516 babe
00000060: dfda 1abe bca4 f93d ec30 8dbe bcb8 203e
00000070: c66a 943e 5fdd 2d3a e16f b5bd 3d6a 12be
00000080: 5214 db3e 2a50 b939 40ee 603c 659e 2fbe
00000090: e1c4 a43c c946 ecbe 2747 bfbe c8e4 d9bc
000000a0: 8e86 1ebd 8195 863d b6f9 15bd e426 4bbe
000000b0: 12ee b03e 5d9b 6c3b 3bb9 0ebd 347e 593e
000000c0: f0d7 b4bd f0bc 293d cedb 9c3e f626 9fbe
000000d0: e2e5 763e 4e24 aa3d 5149 7c3e 9720 32be
000000e0: 80f6 5fbe 72b6 ea3b 1bba 293e 9a49 973d
000000f0: 01df 21be 4a63 ddbd 97c7 31be 3efd 10be
00000100: 915e bc3e 317c 33bd 2a10 2a3d dade 4bbe
00000110: 8982 e83d 305a 1d3f 6d28 1fbf e5eb f7bd
00000120: 868f a7bd 6e21 d73c 2a52 95be 876f 433d
00000130: f23d 753d bf4f 123c c7a0 63be c8db 0c3d
00000140: 401b 093d 9c59 42be e35d 073e 7a1e 023d
00000150: 400e 083e 2b7f 69bc 3791 993d 4eb5 99bd
00000160: bfee 6dbc 233f dcbe 6498 bc3d c6e2 993e
00000170: b732 40be 0e7e 5e3e e825 863d abd3 45bc
00000180: b922 69be 24bd de3d 253e adbd a262 f83d
00000190: 65cd 7fbe a440 b83d 2e14 673e 31ed 1b3e
000001a0: 5c5e a4be e4c2 163d 73d7 743e e3d9 5bbe
000001b0: 7408 d63e 7072 78be 1fe8 003e 10a0 e93d
000001c0: 3e8f 0d3d a414 fe3d fd1b 0e3d be72 993e
000001d0: feb9 62bd bfd7 b2be 8835 113e 08f1 7fbe
000001e0: b20d d5bd 3e69 d4bd 7bf8 de3d 5d9c 473e
000001f0: 5f00 253e 842a 18be 1ce7 8b3e 3bc7 a0ba
00000200: 4759 92be 8c0e 7d3e 0585 5d3e 5087 90bd
00000210: f959 943c 95b7 e1bd bfa8 d1bc 75c7 1f3e
00000220: 9abf 8abe 069f 6b3e fd01 3abe 7fd6 1ebe
00000230: de34 f33e eb18 da3c 6de1 b9bd 530f 543b
00000240: 59f5 d2bd 9421 d63e 2e26 243e 47fa e33e
00000250: e605 3e3e 985e 66be 592a a63e b2af a63e
00000260: 5928 543e 7127 773e a6de 763e abcc 4e3e
00000270: 615c e4bd 0236 2abd c358 1fbe a49c 2dbe
00000280: cd16 ce3c 8003 4abb 2592 9abe 6ae8 223e
00000290: 1255 babb 6029 2ebe 2e0f 64bd 0f04 f23d
000002a0: 9acd 20bc ccb1 373c a518 a13e bc49 d03d
000002b0: 3517 f1bd 47b1 4c3d c52d 66be be68 7e3d
000002c0: 20a3 1cbe d86d 123e c256 953d 451a 993e
000002d0: 48dd 13be ad5e 5e3e 2d9d c23e 3b20 b2bc
000002e0: 14cb 5f3b 866b ecbd 1a45 44be e94e 03bf
000002f0: db32 d13d 3089 8dbe 7774 003e b1c1 573e
00000300: 841a f03d 66ab a8be 0d7a 97bd c70e 783c
00000310: 5dd2 c6bd b64a 9bbe bd4d 223d e9ee fc3d
00000320: 8a12 6fbe cfb7 dd3e 08db 42be 9b4e 18be
00000330: db42 f9bc d8cb 26bc dadd 803e 73d1 f8be
00000340: e99f 3fbd 3235 92bd 174e 1abe 2896 263e
00000350: 7224 fcbd 9967 18bc eb5e fd3d cc99 a3bd
00000360: e80b ef3e 9009 5bbe 3c93 a0be 8225 35bd
00000370: 7afa 24be 36ad f63d 6429 eabe 529b 6fbd
00000380: d2e3 da3d 39ab 35be 0a45 b33e 1763 2d3d
00000390: 9522 b33c 0408 9b3e 9531 51be 0385 0ebe
000003a0: 8e0a 6f3e 055c 2bbe edf7 443e 418b bcbe
000003b0: 1c6c 2fbd 40e4 483e e4ae 93bd cdba 2fbe
000003c0: 45fe e93d d9be 3a3c 7d87 08be 668f f93e
000003d0: 1fa9 773d ca35 c8bd 53dc d23d fd06 983c
000003e0: 1c5e a83c 55fe 6fbe 619d 443e 7660 953e
000003f0: 74f3 a13d 66cb afbd c09c 4abe c91e 55be

base.mlp.fc2.0.0.bias f4 [64]
-0.0070640165 0.00372684 0.0051967637 0.0024591964 0.003797379 -0.0041978112 0.005586618 -0.008311845
-0.011679889 0.0061600595 -0.0061112796 -0.0077555277 0.006307865 -0.008874924 -0.010034044 0.0037341102
-0.004644011 0.005661903 -0.0062991893 -0.0037665342 -0.0025113537 -0.005757374 0.0074252067 -0.0018269375
-0.005829006 -0.00079505076 0.0076676756 0.0016805143 0.008909284 0.00587177 0.0028574902 0.0118097905
0.0013833075 -0.006515245 0.006706846 0.007715897 0.0020132614 0.0014556235 0.0013074914 0.009302592
-0.0035070395 0.00034284356 -0.0053650592 0.0075401836 -0.010385936 0.004119526 0.008734042 -0.0048452485
-0.0043732957 -0.0009582029 0.006602913 0.006708233 -0.006387386 -0.004588586 0.0062183803 -0.00039151878
0.008743076 -0.002057916 -0.0021596819 0.006905413 -0.004900504 0.003315761 0.007156692 -0.0029510162
00000000: 4479 e7bb 003e 743b 9d49 aa3b 782a 213b
00000010: 73dd 783b cb8d 89bb f30f b73b 682e 08bc
00000020: 015d 3fbc 53da c93b 2141 c8bb 1522 febb
00000030: 35b2 ce3b 2168 11bc d565 24bc f9b7 743b
00000040: ca2c 98bb 7c87 b93b 6e69 cebb f5d7 76bb
00000050: 8695 24bb 5ba8 bcbb 264f f33b da75 efba
00000060: 3f01 bfbb f46a 50ba 2041 fb3b b444 dc3a
00000070: 3ff8 113c fa67 c03b bb44 3b3b da7d 413c
00000080: 1950 b53a d67d d5bb 1ac5 db3b a3d5 fc3b
00000090: ecf0 033b 9fca be3a 2260 ab3a e669 183c
000000a0: 5cd6 65bb afbf b339 61cd afbb a513 f73b
000000b0: c629 2abc 17fd 863b 3a19 0f3c e4c4 9ebb
000000c0: dd4d 8fbb e82f 7bba 405d d83b bdd0 db3b
000000d0: 474d d1bb d95b 96bb 8ec3 cb3b c344 cdb9
000000e0: 1e3f 0f3c 1ade 06bb 7389 0dbb ce46 e23b
000000f0: 6894 a0bb 3d4d 593b af82 ea3b d665 41bb

base.mlp.fc2.0.2.weight f4 [64]
0.99735695 1.0081674 1.001345 0.9992076 0.9951512 0.99968576 0.9923015 1.0039321
1.0036927 1.0024197 1.0071949 1.0072992 1.0020591 1.0007281 0.99914277 1.0033538
1.0018351 0.99985707 0.9965817 1.0082567 1.0068746 1.0013559 1.007461 0.993875
1.0018452 0.9931252 0.9971323 1.0012225 0.99938303 1.0050457 1.0019752 0.99348724
1.0038153 1.0080782 0.99139065 0.9999996 0.99561787 0.99199545 0.9988898 1.0012181
1.0005884 1.00181 1.0052999 0.9967593 1.0004041 1.0031949 1.0066264 0.9915858
0.9939261 0.99291277 0.9906992 1.0072594 0.9986429 0.9992059 0.9916303 0.99838006
0.99338126 0.9949696 0.99826396 1.0035062 0.9956524 1.0046656 0.99230975 1.0019058
00000000: c952 7f3f a10b 813f 132c 803f 12cc 7f3f
00000010: 3bc2 7e3f 68eb 7f3f 7907 7e3f d980 803f
00000020: 0179 803f 4a4f 803f c3eb 803f 2eef 803f
00000030: 7943 803f dc17 803f d2c7 7f3f e66d 803f
00000040: 223c 803f a2f6 7f3f fa1f 7f3f 8e0e 813f
00000050: 44e1 803f 6e2c 803f 7bf4 803f 986e 7e3f
00000060: 773c 803f 743d 7e3f 1044 7f3f 0f28 803f
00000070: 91d7 7f3f 56a5 803f b940 803f 2e55 7e3f
00000080: 057d 803f b508 813f c7cb 7d3f f9ff 7f3f
00000090: d0e0 7e3f 6af3 7d3f 3eb7 7f3f ea27 803f
000000a0: 4813 803f 4f3b 803f abad 803f 9e2b 7f3f
000000b0: 3e0d 803f b168 803f 22d9 803f 91d8 7d3f
000000c0: f171 7e3f 882f 7e3f 769e 7d3f e0ed 803f
000000d0: 10a7 7f3f f5cb 7f3f 7cdb 7d3f d695 7f3f
000000e0: 3c4e 7e3f 54b6 7e3f 3a8e 7f3f e472 803f
000000f0: 13e3 7e3f e298 803f 0308 7e3f 733e 803f

base.mlp.fc2.0.2.bias f4 [64]
-0.003542808 0.0027160193 0.009593942 0.0047217556 0.00816604 -0.0046550026 0.008484494 -5.5874953e-05
-0.009912653 0.0041353237 -0.00704968 -0.0042586373 0.007297267 -0.008961909 -0.010545061 0.004117166
-0.0003472064 0.005872658 -0.00865169 -0.008104109 -0.003564562 3.6986658e-05 0.0071823066 -0.0013963996
-0.003681455 -0.008491465 0.010324435 0.00052115775 0.0086191185 0.009019569 0.0020681808 0.012080511
0.003711666 -0.0018326417 0.00757263 0.00981204 -0.005218284 -0.0012145411 -0.0009254254 0.011786282
0.0011976263 -0.009824707 0.0038385575 0.009240382 -0.012049465 0.00031245215 0.009884005 -0.003898878
-0.0063873962 0.0014806449 0.0081953285 0.002716968 -0.0025529529 -0.00022812255 0.0077980254 0.0075038592
0.011757922 -0.0069754375 -0.0021732354 0.008252275 -0.007512277 0.006524355 0.008737232 -0.0045700017
00000000: 742e 68bb 3eff 313b e92f 1d3c f5b8 9a3b
00000010: dbca 053c fe88 98bb 8c02 0b3c 465b 6ab8
00000020: ae68 22bc 9c81 873b 0101 e7bb 0a8c 8bbb
00000030: ea1d ef3b f9d4 12bc 31c5 2cbc 4be9 863b
00000040: 4109 b6b9 6d6f c03b d1bf 0dbc 19c7 04bc
00000050: 6d9b 69bb 1f22 1b38 8e59 eb3b 6507 b7ba
00000060: 9144 71bb c91f 0bbc d227 293c 4e9e 083a
00000070: 3437 0d3c d0c6 133c 518a 073b 56ed 453c
00000080: 6c3f 733b 4035 f0ba d323 f83b aec2 203c
00000090: 24fe aabb 3d31 9fba 3f98 72ba 401b 413c
000000a0: acf9 9c3a cff7 20bc 4f90 7b3b f964 173c
000000b0: 1f6b 45bc 9ed0 a339 86f0 213c 5284 7fbb
000000c0: 5d4d d1bb 3312 c23a b345 063c 290f 323b
000000d0: 714f 27bb 2e34 6fb9 9486 ff3b efe2 f53b
000000e0: 4da4 403c 3692 e4bb d76c 0ebb 8d34 073c
000000f0: 8c29 f6bb 42ca d53b 9b26 0f3c f4bf 95bb

rnn.rnn.weight_ih_l0 f4 [192, 64]
-0.043684106 -0.052618664 -0.015787095 0.0389427 0.00081835705 0.055023093 -0.035568047 0.013216407
-0.0142682325 -0.042342655 0.13982986 -0.0069102226 -0.021713262 0.025068715 -0.07240662 0.061712254
-0.046840314 -0.022149147 -0.037982006 -0.009293151 -0.053851943 0.0029493473 -0.109380625 -0.12250472
-0.055493943 0.04250297 0.06755339 0.011304052 0.02053409 -0.022359181 -0.10925328 -0.014050902
-0.062809974 0.07744759 0.10811941 -0.06342564 0.06514242 0.11476025 0.04874198 0.026732486
-0.08582468 0.08027683 -0.05316125 -0.005129707 0.11480245 -0.073707975 -0.15327288 -0.019582264
0.1250815 0.096646175 0.053025976 -0.017192224 -0.15686412 -0.062458377 -0.020300176 -0.049264356
0.005857427 0.0966793 -0.025526138 0.008955762 0.06169578 -0.09226891 -0.046480883 0.011173837
-0.028472217 -0.06634856 -0.047258798 0.15514976 0.21004409 0.08533084 0.058652937 0.14051938
0.0115205385 0.07716931 -0.079516955 -0.12930657 -0.010136188 0.032398082 0.111623034 -0.20869523
-0.011286405 -0.101136506 -0.12841567 -0.03480823 0.020587988 -0.005698886 0.0549418 -0.121875785
0.035945486 -0.022542993 -0.008531627 0.041289352 -0.07427646 0.04107347 -0.055836666 -0.032972094
-0.04217038 -0.039559674 -0.014685923 0.039669693 -0.010145885 0.05658037 -0.037359264 -0.11757202
-0.047205545 -0.06429115 -0.0102725 0.05943284 0.1253634 0.105377555 -0.011695622 -0.031455114
0.009708083 -0.019913958 0.104440674 0.022925733 -0.027185967 -0.017263109 0.11933147 -0.028519373
0.086486034 0.053415064 0.097246826 0.0004825977 -0.057047382 0.07661948 0.11704689 0.024508297
0.011240434 -0.010646732 0.04010375 0.12590922 0.0018291255 0.12870952 -0.009209363 0.087513335
0.030359704 -0.017852308 0.053922676 -0.02776182 0.12815514 -0.023716206 -0.06601243 -0.043318342
0.13305178 0.024991741 0.04874874 -0.013876852 0.024612207 0.094710186 0.040858068 0.022512585
0.072911315 0.015589813 -0.047836892 0.054891374 -0.028556071 -0.049047496 -0.06337905 -0.011940892
-0.13787751 -0.0304608 0.0018953932 0.022481933 0.04490917 -0.104820415 -0.025727632 -0.03214074
-0.15714945 -0.16827013 -0.02297946 -0.107441954 0.0913249 -0.06725407 0.06932965 -0.04422121
0.040252388 0.027457686 0.0636981 0.026296923 -0.010508369 -0.0060471054 -0.024141148 -0.072342046
-0.017053789 0.032432348 0.040053636 0.08085172 -0.03518796 -0.119882844 0.12024968 -0.1007179
0.02826315 0.17069925 -0.07276042 -0.056231506 0.008039759 -0.048531357 -0.12389235 0.08211909
-0.07599726 -0.051762354 -0.06807643 0.00027139657 0.010398107 0.012995352 -0.013269924 -0.09451468
0.045751855 0.12079002 -0.024092358 -0.056776106 -0.040584277 -0.040936798 -0.043255005 -0.14002654
-0.17942153 -0.065992855 -0.054670863 0.06299814 -0.025477132 -0.046103183 0.022104848 -0.104026064
-0.026024574 0.004031262 0.11836489 -0.019829696 0.010759627 0.0041335654 -0.018218365 -0.031369172
-0.016590308 -0.12558772 0.036152568 -0.029559791 0.02477843 0.0031799576 -0.017263386 -0.059385184
-0.042587485 -0.019913074 0.026152698 0.015457897 0.08506945 -0.0593444 0.045000896 -0.014336189
0.062249113 -0.13796493 -0.04309508 -0.07626277 0.12483927 0.076139666 0.024270754 0.02822277
00000000: 1bee 32bd ab86 57bd f053 81bc 6182 1f3d
00000010: 0387 563a e55f 613d cdaf 11bd a189 583c
00000020: 4ec5 69bc 7e6f 2dbd 8f2f 0f3e 266f e2bb
00000030: 03e0 b1bc e85c cd3c ec49 94bd fdc5 7c3d
00000040: a1db 3fbd 2172 b5bc 0593 1bbd 4d42 18bc
00000050: db93 5cbd d649 413b f302 e0bd c1e3 fabd
00000060: 9e4d 63bd 9817 2e3d 6f59 8a3d a134 393c
00000070: 1c37 a83c 9a2a b7bc 2fc0 dfbd c135 66bc
00000080: 84a2 80bd d89c 9e3d b66d dd3d 4de5 81bd
00000090: 6469 853d 6c07 eb3d aca5 473d 16fe da3c
000000a0: dac4 afbd 2e68 a43d 9cbf 59bd 1a17 a8bb
000000b0: 8c1d eb3d 35f4 96bd 91f3 1cbe fc6a a0bc
000000c0: 5d15 003e 6eee c53d c431 593d b5d6 8cbc
000000d0: fda0 20be 5bd4 7fbd 8e4c a6bc 6cc9 49bd
000000e0: a9ef bf3b ccff c53d 311c d1bc 30bb 123c
000000f0: b7b4 7c3d 7bf7 bcbd bd62 3ebd 7812 373c
00000100: 913e e9bc c1e1 87bd 7192 41bd 94df 1e3e
00000110: cc15 573e efc1 ae3d 103e 703d 50e4 0f3e
00000120: a4c0 3c3c f10a 9e3d c9d9 a2bd f168 04be
00000130: 4112 26bc dab3 043d 9e9a e43d 34b4 55be
00000140: 9dea 38bc a820 cfbd 667f 03be 1393 0ebd
00000150: 24a8 a83c b8bd babb a70a 613d 039a f9bd
00000160: 933b 133d 15ac b8bc 3dc8 0bbc 061f 293d
00000170: 421e 98bd a83c 283d fdb4 64bd bf0d 07bd
00000180: d9ba 2cbd 5309 22bd 3a9d 70bc b07c 223d
00000190: ed3a 26bc d1c0 673d 0706 19bd 99c9 f0bd
000001a0: 9a5a 41bd 14ab 83bd fd4d 28bc da6f 733d
000001b0: 435f 003e 30d0 d73d fe9e 3fbc 14d7 00bd
000001c0: a70e 1f3c 9922 a3bc fee4 d53d bfce bb3c
000001d0: 1bb5 debc 5d6b 8dbc 0f64 f43d 76a1 e9bc
000001e0: 971f b13d c1c9 5a3d 5829 c73d 2b05 fd39
000001f0: 84aa 69bd adea 9c3d 48b6 ef3d a0c5 c83c
00000200: cc29 383c a16f 2ebc d443 243d 59ee 003e
00000210: 44bf ef3a 6ecc 033e dee2 16bc 313a b33d
00000220: eab4 f83c 013f 92bc 06de 5c3d c26c e3bc
00000230: 1a3b 033e 7d48 c2bc 8631 87bd 936e 31bd
00000240: ba3e 083e 7bbb cc3c c2ac 473d bc5b 63bc
00000250: 8a9f c93c 6af7 c13d ca5a 273d 506c b83c
00000260: 8752 953d 6a6c 7f3c 9ef0 43bd c7d5 603d
00000270: 6cee e9bc 07e6 48bd e0cc 81bd bba3 43bc
00000280: c32f 0dbe ed88 f9bc d86e f83a 082c b83c
00000290: aef2 373d 16ac d6bd c1c2 d2bc 02a6 03bd
000002a0: c9eb 20be 014f 2cbe 6c3f bcbc 870a dcbd
000002b0: 8d08 bb3d 80bc 89bd b4fc 8d3d 4d21 35bd
000002c0: b0df 243d f1ee e03c 2674 823d a56c d73c
000002d0: 4b2b 2cbc cc26 c6bb a8c3 c5bc 1128 94bd
000002e0: 63b4 8bbc c8d7 043d 480f 243d 9695 a53d
000002f0: 4021 10bd 2385 f5bd 7745 f63d 3045 cebd
00000300: 1f88 e73c c9cb 2e3e 6a03 95bd 0253 66bd
00000310: 31b9 033c d1c8 46bd 46bb fdbd 0e2e a83d
00000320: 74a4 9bbd c304 54bd a86b 8bbd 3b4a 8e39
00000330: d25c 2a3c 75ea 543c 186a 59bc ea90 c1bd
00000340: 4c66 3b3d c260 f73d 565d c5bc 108e 68bd
00000350: b33b 26bd 58ad 27bd 292c 31bd 1e63 0fbe
00000360: 47ba 37be 4327 87bd 8eee 5fbd 2b05 813d
00000370: 6bb5 d0bc b1d6 3cbd 3a15 b53c 9e0b d5bd
00000380: 7d31 d5bc ad18 843b 4b69 f23d e371 a2bc
00000390: 2649 303c dc72 873b ae3e 95bc f67c 00bd
000003a0: 66e8 87bc 119a 00be b714 143d 6027 f2bc
000003b0: 22fc ca3c d666 503b f26b 8dbc e13d 73bd
000003c0: 3770 2ebd be20 a3bc 2f3e d63c 1f43 7d3c
000003d0: e438 ae3d 1d13 73bd dc52 383d 56e2 6abc
000003e0: edf8 7e3d ae46 0dbe 7784 30bd a82f 9cbd
000003f0: bbab ff3d 1def 9b3d 76d3 c63c 7033 e73c

rnn.rnn.weight_hh_l0 f4 [192, 64]
-0.044609047 0.0075899 0.08722222 -0.10960522 -0.031626094 0.12824985 0.090036094 0.10223493
-0.028527262 -0.07926642 0.026752766 0.031053003 0.004736615 -0.030916564 -0.063316606 -0.13360459
0.008621131 -0.090495914 -0.056028217 0.051256355 0.049656454 0.00012248465 -0.035997074 0.06897609
0.03176996 0.07708752 -0.027478842 -0.013638655 0.012652188 0.10993543 0.019060347 -0.040911116
0.08248414 0.008173914 -0.025727719 0.022929091 -0.017327152 0.036690928 0.053672526 0.04883232
-0.013383498 -0.056218024 -0.08343276 -0.04585486 -0.04447364 -0.04468667 0.11287125 0.04570801
0.01808692 -0.035595696 0.11239326 0.097947165 0.06451188 -0.14540444 -0.063460894 0.0036299897
-0.12272242 0.009717561 0.01816874 -0.113009416 -0.11607091 -0.06887766 -0.042254675 -0.05602698
0.0011661071 -0.05375904 -0.07105264 0.007730911 0.05559091 0.023882298 0.029400768 -0.00793156
-0.06421189 0.02028489 -0.041068 -0.019296935 0.14651816 0.055044457 -0.09870859 -0.041365527
0.07924867 0.024146892 0.085001856 0.05957876 0.1394186 -0.11777128 0.020089058 -0.1233261
0.048273124 -0.035618864 0.0044519906 0.06653094 0.013195589 0.05263813 0.113894075 0.093337685
-0.05587173 0.07579635 -0.015810879 -0.013424876 -0.047720015 -0.08283807 0.0319534 -0.00052497
-0.13664034 -0.00022762314 0.0049307924 -0.031749673 0.0141828535 -0.019521495 0.063133046 0.14434335
-0.13426284 0.05576182 -0.03135819 -0.03135522 0.093016356 0.07066878 0.03507599 -0.024106495
-0.054588426 0.06335425 0.008678729 -0.04498098 0.040558755 -0.030420886 -0.05160703 0.039652023
0.01945167 -0.05174653 -0.007646938 0.026124716 -0.011016569 0.03852239 -0.0866641 -0.034177557
0.0675235 -0.01652255 -0.053201694 0.085774355 0.04286483 -0.09249441 0.003065439 -0.028450796
0.06703661 -0.05940405 0.03353764 0.10894514 0.006402486 -0.070847556 0.1212872 -0.006811979
0.022179872 0.07187941 -0.0023375563 -0.0074507114 -0.11862784 0.12254748 0.0022820546 -0.08688016
0.12657371 -0.062228978 0.14760064 -0.1114128 0.0066158385 0.049889676 -0.07037285 0.040244628
-0.06596189 0.0034518773 -0.026762404 0.07090598 -0.061495468 -0.09787086 -0.12721066 -0.05622659
0.050923 0.108335696 -0.1173832 0.037070185 -0.029432274 0.062322535 0.021093981 0.012644836
-0.106526874 -0.00887824 0.05315375 0.011356366 -0.01169512 -0.17300166 -0.054405853 0.0496835
-0.08088587 -0.03312844 0.0014021589 0.04572318 -0.0024939517 -0.069465406 0.024319855 0.056050092
-0.041073523 0.0015963417 -0.009602905 0.04851153 -0.019993672 0.029889215 0.0155482255 -0.12190182
0.03745067 -0.039392523 0.02020441 -0.08681501 0.054866944 -0.021418529 -0.05350449 0.093833566
-0.016210759 0.02262775 -0.0058245957 -0.015784977 0.011664394 -0.08050639 0.023112625 0.10617067
0.10429595 0.16686575 -0.08939844 -0.027668849 -0.08028376 0.07674086 0.02413223 -0.0696204
-0.007090237 -0.07813703 0.012543894 0.010913017 0.044761345 -0.0774364 0.1487932 0.038408294
-0.005489284 0.06149383 0.11690477 -0.036793135 0.1052782 0.013123365 -0.081655666 -0.009116825
-0.034689855 -0.03072922 0.035343703 0.009263673 -0.005289821 0.046747327 -0.04264512 0.1081941
00000000: fab7 36bd b2b4 f83b 90a1 b23d b478 e0bd
00000010: 5d8a 01bd ee53 033e d864 b83d 8c60 d13d
00000020: 01b2 e9bc 6f56 a2bd 9e28 db3c de62 fe3c
00000030: 9b35 9b3b bc44 fdbc 23ac 81bd a4cf 08be
00000040: a53f 0d3c ec55 b9bd d87d 65bd 2ff2 513d
00000050: 9164 4b3d 396f 0039 ab71 13bd 5643 8d3d
00000060: 3821 023d 10e0 9d3d 4f1b e1bc aa74 5fbc
00000070: 1f4b 4f3c d425 e13d 7224 9c3c 6a92 27bd
00000080: 72ed a83d e1eb 053c f0c2 d2bc cad5 bb3c
00000090: acf1 8dbc 3a49 163d b9d7 5b3d 6604 483d
000000a0: 7646 5bbc df44 66bd cbde aabd 4ed2 3bbd
000000b0: fe29 36bd 5f09 37bd 0b29 e73d 5338 3b3d
000000c0: 052b 943c cbcc 11bd 702e e63d 8698 c83d
000000d0: ce1e 843d e7e4 14be c9f7 81bd 1fe5 6d3b
000000e0: e455 fbbd 6836 1f3c 9cd6 943c 7b71 e7bd
000000f0: 96b6 edbd bb0f 8dbd 3d13 2dbd 8c7c 65bd
00000100: 10d8 983a 7032 5cbd 0c84 91bd 9553 fd3b
00000110: 4bb3 633d cfa4 c33c e1d9 f03c 60f3 01bc
00000120: 8681 83bd 7f2c a63c eb36 28bd 9b14 9ebc
00000130: db08 163e 4c76 613d bb27 cabd e66e 29bd
00000140: 204d a23d b4cf c53c 7415 ae3d dc08 743d
00000150: c0c3 0e3e 1232 f1bd cf91 a43c 6592 fcbd
00000160: 0aba 453d 16e5 11bd 01e2 913b 6041 883d
00000170: 5032 583c 149b 573d 4c41 e93d d427 bf3d
00000180: c1d9 64bd 1e3b 9b3d d185 81bc 03f4 5bbc
00000190: 1076 43bd 02a7 a9bd 91e1 023d 249e 09ba
000001a0: 72eb 0bbe 1fae 6eb9 7c92 a13b f20b 02bd
000001b0: 335f 683c 8beb 9fbc e64b 813d bece 133e
000001c0: 337c 09be 8266 643d 7271 00bd 556e 00bd
000001d0: 5c7f be3d cbba 903d d7ab 0f3d fc7a c5bc
000001e0: 1d98 5fbd dfbf 813d 3a31 0e3c fa3d 38bd
000001f0: f020 263d 3935 f9bc e561 53bd 296a 223d
00000200: 1c59 9f3c 2bf4 53bd 2a93 fabb 8003 d63c
00000210: d77e 34bc a7c9 1d3d f37c b1bd c4fd 0bbd
00000220: c349 8a3d 4c5a 87bc 05ea 59bd 77aa af3d
00000230: 0893 2f3d b66d bdbd 88e5 483b a511 e9bc
00000240: 7d4a 893d a951 73bd c45e 093d a11e df3d
00000250: f2cb d13b 8618 91bd 6c65 f83d 0637 dfbb
00000260: 90b2 b53c 8335 933d b031 19bb 1925 f4bb
00000270: 27f3 f2bd 2cfa fa3d 868e 153b 3aee b1bd
00000280: 8a9c 013e d0e3 7ebd 9f24 173e 652c e4bd
00000290: adc9 d83b 1e59 4c3d a41f 90bd 8dd7 243d
000002a0: 0717 87bd e438 623b d43c dbbc 2837 913d
000002b0: ace2 7bbd 8470 c8bd 8343 02be da4d 66bd
000002c0: a394 503d 1bdf dd3d 9a66 f0bd e8d6 173d
000002d0: f41b f1bc ea45 7f3d 49cd ac3c 492c 4f3c
000002e0: c32a dabd 0a76 11bc bfb7 593d 0d10 3a3c
000002f0: e39c 3fbc 5927 31be acd8 5ebd ed80 4b3d
00000300: 7ea7 a5bd b0b1 07bd a5c8 b73a 3b48 3b3d
00000310: 9171 23bb e143 8ebd 6f3a c73c c894 653d
00000320: b63c 28bd 573c d13a 8155 1dbc 07b4 463d
00000330: c5c9 a3bc 3ada f43c fcbd 7e3c a9a7 f9bd
00000340: e065 193d 0e5a 21bd b883 a53c 11cc b1bd
00000350: 29bc 603d e975 afbc 8627 5bbd d02b c03d
00000360: 6dcc 84bc d55d b93c 40dc bebb 7f4f 81bc
00000370: 041c 3f3c 89e0 a4bd b056 bd3c 0270 d93d
00000380: 1d99 d53d dbde 2a3e 8816 b7bd c8a9 e2bc
00000390: d06b a4bd 502a 9d3d f4b0 c53c 2495 8ebd
000003a0: 3855 e8bb 4f06 a0bd e884 4d3c 83cc 323c
000003b0: ac57 373d fa96 9ebd 3f5d 183e 0452 1d3d
000003c0: 74df b3bb f4e0 7b3d c56b ef3d 66b4 16bd
000003d0: 199c d73d 6203 573c 163b a7bd bc5e 15bc
000003e0: f316 0ebd d8bb fbbc 8fc4 103d a9c6 173c
000003f0: 3c56 adbb 207a 3f3d a6ac 2ebd de94 dd3d

rnn.rnn.bias_ih_l0 f4 [192]
-0.0005268102 -0.00032765372 0.001900653 0.0009691843 0.0013372455 0.00070520316 0.0017317568 0.0016227606
0.002027025 0.001772669 -0.00036765935 0.0014804143 0.002193534 -0.0011640684 -0.0006150862 -0.0008416942
-0.00012833603 0.003152189 -0.0012531521 0.0017226682 0.001524476 -0.002189497 0.003057114 -0.0010881727
0.000626686 8.1248494e-05 0.000580672 0.0006086769 0.0013986547 -0.002363023 -0.0010267317 -0.0012260164
0.0038623803 0.0027678844 -0.003779906 -0.0011203099 -0.0015596297 0.00017071996 -0.00050332234 -0.0005487772
0.002898146 0.0012018008 -6.269119e-05 0.0018231102 0.00090897304 0.0012527249 -0.0016859 0.0017566022
0.0005501527 0.0014604345 0.0015192124 -0.003267244 0.0026210141 0.0017021194 0.0025008656 0.00034065227
-0.0012939632 0.00095931935 -0.0016518377 0.00028614936 0.0011476765 -0.00045027505 -0.0028338283 0.00020716368
0.0019469964 -0.0011238329 0.0030349616 0.0056459606 0.004055748 0.00067801395 0.0022939348 0.000980792
-0.0019395656 -0.0023276226 0.004918839 0.0022704194 0.0017277978 -0.0017664694 -0.0007706417 -0.004910455
-0.0016207566 -0.0055353767 0.0068318965 -0.0034170658 -0.0028585442 -0.00011039733 -0.003483219 0.00025994686
-0.0035479802 -6.772418e-05 -0.0032260013 0.00024214842 -0.0034063777 0.0005893142 3.2341864e-05 -0.0023413594
-0.0022439456 0.00057513895 0.0038789955 0.007155502 -0.0006202347 -0.0024037869 0.0049380716 0.0060651
0.002633067 0.00280465 0.0028165968 0.0047884136 -0.0019576282 -0.0007528871 0.00036039331 -0.0024633496
0.0040663094 0.0026656727 -0.0027267204 -0.0016443708 0.0030664077 -0.0012011538 0.001927533 -0.0001668316
0.0034358287 0.00568429 0.002470185 -0.003036469 0.005894164 0.004941572 -0.0063688275 0.0046784757
-0.0032802566 0.01017197 -0.0035419017 0.0067014117 0.0059621744 0.010431996 0.012196676 -0.010697431
0.009936746 -0.0025953588 -0.00994143 0.0006723957 -0.012596073 -0.010882325 -0.005376322 -0.009641172
-0.0010214513 0.003607511 0.0056522186 -0.011265944 -0.0032911093 0.007611263 -0.010208795 0.00051625917
-0.0069592632 0.0092280125 -0.009771122 -0.009707327 0.0018441179 0.005000009 0.00024090425 0.0077325315
-0.00046174187 -0.00016199685 0.003731045 -0.0028260788 3.6391255e-05 0.0005673823 0.009683367 -0.0091671115
0.009658757 -0.0030994418 0.009287413 0.0026911122 -0.00899753 -0.010594357 0.006687965 0.00068376446
0.0035664244 -0.00080747437 -0.00017021112 0.004956645 -0.0002783324 0.010543583 -0.0073250793 0.011995918
-0.010876653 0.012146528 0.009017732 -0.007758307 -0.0118424455 0.010906728 0.00084995764 -0.0033583245
00000000: a219 0aba f0c8 abb9 551f f93a db10 7e3a
00000010: 8346 af3a 62dd 383a 1efc e23a cfb2 d43a
00000020: d6d7 043b e758 e83a 67c2 c0b9 760a c23a
00000030: 65c1 0f3b a793 98ba bc3d 21ba 24a5 5cba
00000040: f191 06b9 f594 4e3b cf40 a4ba 27cb e13a
00000050: edd0 c73a aa7d 0fbb dd59 483b 04a1 8eba
00000060: 2f48 243a f463 aa38 3d38 183a 9e8f 1f3a
00000070: 1053 b73a f3dc 1abb 6693 86ba 49b2 a0ba
00000080: fd1f 7d3b 6565 353b 4db8 77bb 5dd7 92ba
00000090: 7d6c ccba 4a03 3339 64f1 03ba d1db 0fba
000000a0: d2ee 3d3b be85 9d3a 1479 83b8 6df5 ee3a
000000b0: 2648 6e3a 7932 a43a 6bf9 dcba ca3d e63a
000000c0: 1f38 103a 0d6c bf3a 4f20 c73a 421f 56bb
000000d0: 52c5 2b3b a619 df3a 90e5 233b 9399 b239
000000e0: 339a a9ba d57a 7b3a 7a82 d8ba 5106 9639
000000f0: a26d 963a e512 ecb9 c0b7 39bb 143a 5939
00000100: 5c32 ff3a 934d 93ba 35e6 463b c001 b93b
00000110: 15e6 843b bfbc 313a d755 163b eb8d 803a
00000120: 0639 feba 078b 18bb 362e a13b 51cb 143b
00000130: 4677 e23a e188 e7ba e404 4aba e2e7 a0bb
00000140: 916f d4ba 1b62 b5bb 1ade df3b daf0 5fbb
00000150: 6a56 3bbb 1e85 e7b8 b846 64bb 7a49 8839
00000160: 3b85 68bb 2407 8eb8 526b 53bb 39e9 7d39
00000170: 893d 5fbb 357c 1a3a d0a6 0738 7e71 19bb
00000180: 290f 13bb ecc4 163a bf36 7e3b b478 ea3b
00000190: 3f97 22ba da88 1dbb 8ccf a13b bfbd c63b
000001a0: 898f 2c3b 38ce 373b a796 383b 20e8 9c3b
000001b0: 8d4b 00bb 665d 45ba 2cf3 bc39 2670 21bb
000001c0: ad3e 853b 91b2 2e3b c7b2 32bb ee87 d7ba
000001d0: c9f5 483b 0970 9dba 46a5 fc3a 84ef 2eb9
000001e0: a42b 613b 4843 ba3b d4e2 213b 7fff 46bb
000001f0: d523 c13b e9ec a13b 99b1 d0bb e64d 993b
00000200: 93f9 56bb 56a8 263c 401f 68bb 8497 db3b
00000210: 585e c33b f6ea 2a3c 91d4 473c 4744 2fbc
00000220: bccd 223c e516 2abb 61e1 22bc b643 303a
00000230: c25f 4ebc c74b 32bc dc2b b0bb 02f6 1dbc
00000240: 38e2 85ba fe6b 6c3b 3f36 b93b cb94 38bc
00000250: a7af 57bb e767 f93b ca42 27bc 9155 073a
00000260: 880a e4bb 1731 173c 0e17 20bc 7b0b 1fbc
00000270: 54b6 f13a 1ed7 a33b 3e9b 7c39 2d61 fd3b
00000280: f215 f2b9 b3dd 29b9 8c84 743b bc35 39bb
00000290: d0a2 1838 62bc 143a fca6 1e3c a731 16bc
000002a0: c33f 1e3c 0120 4bbb 3c2a 183c 5f5d 303b
000002b0: 606a 13bc f493 2dbc b726 db3b a83e 333a
000002c0: acba 693b b0ac 53ba b37a 32b9 5a6b a23b
000002d0: 24ed 91b9 febe 2c3c 3807 f0bb 878a 443c
000002e0: fd33 32bc 3b02 473c 1cbf 133c 6539 febb
000002f0: d106 42bc 22b2 323c b1cf 5e3a 5617 5cbb
