onpolicy/scripts/results/MPE/simple_spread/rmappo/check/wandb/run-20220704_181248-1nrunmun/files/critic.pt (torch, 156012 bytes, 21 tensors)

base.feature_norm.weight f4 [54]
00000000: 0773 7e3f b30d 813f f2cd 7f3f 0734 813f
00000010: 5307 7f3f 9531 803f 07e7 7e3f 7323 803f
00000020: 0064 803f 82d5 7f3f b804 813f eb50 7f3f
00000030: b46d 803f 0ab7 803f 6fd0 7f3f e289 7e3f
00000040: 89d4 7f3f e695 7f3f 5388 803f 132b 7d3f
00000050: 3aff 7f3f 7bfd 7e3f 5d66 7f3f 545a 803f
00000060: 151f 803f 8d87 803f e751 7e3f 5305 803f
00000070: e9f0 7f3f 553f 7f3f 78a1 7f3f 4d2a 7f3f
00000080: af7b 7e3f bc7f 7e3f 46a1 803f 3600 803f
00000090: 79b6 803f cf40 7e3f 71ee 7f3f 44fa 7f3f
000000a0: e6e1 803f 66b5 7f3f cb6d 813f 3c05 7f3f
000000b0: bef6 7f3f c371 803f e03a 7f3f 3581 803f
000000c0: bf87 803f b448 7f3f e136 7e3f beca 7e3f
000000d0: 0f78 803f 291d 803f
0.9939427 1.0082306 0.9992362 1.0094002 0.9962055 1.0015131 0.9957127 1.0010818
1.0030518 0.9993516 1.0079565 0.99732846 1.0033479 1.0055859 0.9992742 0.9942914
0.9993368 0.998381 1.0041603 0.9889385 0.9999882 0.9960553 0.9976557 1.0027566
1.0009485 1.0041367 0.99343723 1.0001625 0.99976975 0.9970601 0.99855757 0.9967392
0.99407476 0.9941366 1.0049217 1.0000064 1.0055686 0.9931764 0.9997321 0.9999125
1.0068939 0.9988617 1.0111631 0.9961736 0.99985874 1.0034717 0.9969921 1.0039431
1.0041426 0.9972031 0.9930249 0.9952811 1.0036639 1.0008899

base.feature_norm.bias f4 [54]
00000000: a3e4 fdbb 1c90 97bb b00a 44bb b08f 0cbc
00000010: 16db 223c 435e aebb 0f37 283c 0bc2 d4bb
00000020: 00de 79bb b57d 883b d35a 27b9 577c 753b
00000030: a15c 953b 5d12 e13b 4eaf cbbb 1bf8 9f3b
00000040: a683 09bc 3ec4 3abc 0796 713a 1567 0abb
00000050: 8f5b 06bb 3c92 b53b 7fcd 8cbb bb39 0d3c
00000060: ee8c 243b 1a6c e13b defa 2bbb ca8f 5cbb
00000070: 97ef 5bbb e30c 383b 2746 a83a d757 0ebc
00000080: 00c6 d23b 6621 4c3c 72bf 3dbc 1b2f 5f3b
00000090: 10b3 09bb 653e 95bb fbc4 cebb ae6c 17bc
000000a0: 84f8 b8bb c4c1 67bb 9750 5f3b 8cd9 033c
000000b0: ac40 1f3c 85a3 073c 51c6 9cba 3bea 8bbb
000000c0: f241 39bc c631 33bc 249e f1b9 753e e83a
000000d0: b72e c93b 1c3f 1cbc
-0.007748203 -0.0046253335 -0.0029913597 -0.00857918 0.0099399295 -0.0053212955 0.010267033 -0.0064928583
-0.0038126707 0.004165376 -0.00015960196 0.0037458146 0.0045581614 0.006868644 -0.0062159663 0.0048818714
-0.008393204 -0.011399327 0.0009215776 -0.002111857 -0.002050135 0.005541114 -0.004296958 0.008619721
0.0025108415 0.006879342 -0.0026242058 -0.003365504 -0.0033559555 0.0028083853 0.001283829 -0.008687935
0.006432295 0.012459135 -0.011581289 0.0034055177 -0.002101127 -0.004554557 -0.006310103 -0.00924222
-0.0056448597 -0.0035363296 0.0034075135 0.008047473 0.009720009 0.008278732 -0.0011960958 -0.004269866
-0.0113072265 -0.01093716 -0.00046084926 0.0017718809 0.006139602 -0.009536531

base.mlp.fc1.0.weight f4 [64, 54]
00000000: 19e3 37be 28d7 d73e 8d97 d93d 5858 503e
00000010: 1e9d d4bd 99fa c6bc 7bd1 56bd 22a5 973c
00000020: 2135 ef3d f75d ce3d 23e9 503e cc2e 30be
00000030: 6869 4abe 2f1c 863d 6ff5 88be 994f b63e
00000040: 3c22 2c3e 1165 0f3f 086a 05be e6d1 9abe
00000050: 4d5b 3fbe 413f 29be 679e d6bd 58ac 2c3e
00000060: a916 8d3e 1889 f03d e46f c73d 89e8 2a3e
00000070: ae8b 673b 09c5 233e 4921 913e 8499 653e
00000080: 9c55 c93e 4851 aebe 069e 9bbd 66fb 89be
00000090: 6468 323d 6549 283d 19a9 d4bd 7d42 40bd
000000a0: eaca 68be 2f2b 1fbe 1f67 f23d 932f a03d
000000b0: 9152 92be 26bf 083e 7d38 ab3e c743 6b3e
000000c0: 5559 9d3e 8d08 fcbd 25d4 1fbe 87a8 4abc
000000d0: b141 27bc 2a8c dfbc 2c74 913e 956d c13d
000000e0: 51a0 633e 26a0 6bbc 33ac c3bd 8b7b 063e
000000f0: 5d78 dc3e 6ec6 2ebe e58e 293f f044 833e
00000100: b30e ba3d 8241 2dbe ffe8 88bd 8761 353d
00000110: ea51 913e 1727 db3d 19d2 ba3c 12c5 8cbe
00000120: dc98 a23e 0706 0dbe 2219 e63d 9274 8e3e
00000130: 995c c3bd 1d45 593d c9c2 3f3d 857c a8be
00000140: c2f8 41be d9b9 433d 8fdc 95be 1f14 6b3e
00000150: 927f 4b3e b4f2 32be 4e31 653d c844 713c
00000160: e3c6 aebd a47f aebc e55c 663e 2a5f 223e
00000170: 9c8c f03d f314 143e c790 c5bc 7c16 2c3e
00000180: 2d76 c2be 14b7 8abd d34d 96bd 0b25 4ebe
00000190: 1802 9f3c 3f9b 0abd 7f2c 0a3d 8c29 8dbe
000001a0: 88c2 3abe 67b3 223c ea4f f53e b918 133e
000001b0: f9f7 b53e 60ae 283e 29fe 58bd ebf7 1cbf
000001c0: e598 243e 1a0a 1d3e a90d 5c3d adf3 393d
000001d0: 9c24 efbd c869 3c3e c3fa 1f3e ed7c 973d
000001e0: e0ea 013e a9cb c73d a061 2abd b179 fdbd
000001f0: 91fb 373e b1a5 663e 6767 6f3e e175 69be
00000200: 697b e8bd 56c2 033e 9b7c b23e 0ec6 3fbe
00000210: da9d 193c bcfe c53e 0907 853e 2e5a 933c
00000220: b9a8 6fbd cfd0 873e fd26 bcbc 4d64 d63e
00000230: 7848 8abe ad24 623d 4ea1 62be 01df 8e3e
00000240: 5d77 ccbd 1a36 0abe bf34 763e afdc 11bd
00000250: 3957 ea3e d142 49be 957d 93be fb28 6e3e
00000260: 7d49 7dbe 5164 3e3d b478 c73c fd80 843d
00000270: 5417 8e3e a499 0dbe ccb3 e5bd 771a bdbd
00000280: 5cad 203e f2a5 97be d847 833d 7db7 0b3d
00000290: a4e8 97be ba21 83be ae21 d53c b2dc 1dbe
000002a0: ce93 a1bd 994e 8b3e 8a6c b5be 1e4d fbbc
000002b0: 8ce9 313e c106 923d 4c2d 70be 9589 663e
000002c0: 49eb 93bd 4aad 5c3e 8dcf 383e 84b3 0dbe
000002d0: eabf f93e d832 9f3d 324b c6be 905c b53d
000002e0: 6c25 b33c 9641 7e3e 86bd 02be 1d64 a23e
000002f0: 7e36 833e 48a2 abbd b51c e23d 51bf efbd
00000300: 29d4 cebd 89f3 0fbe 2b7e 753e e4b3 6f3e
00000310: 1812 833e 224d dfbd b954 7bbd 81f3 f73e
00000320: 0760 24be 9f60 46be 37fb b13b bc7c be3d
00000330: e7bb 7fbe 5279 e1be 5ae2 ec3d f7c7 0abe
00000340: 4d6a a23e f3ba a73d b3cc 82bd f811 f5bd
00000350: 127d 41bd d718 773e 5f1d e9bd 0854 553e
00000360: 9e51 333e ad47 8b3e b720 533e 02c5 08be
00000370: 4ad0 d4bc 820d 29be 22df 603e 135e bbbe
00000380: e914 9d3d f6b3 00be 6623 fdbd 0abd 553e
00000390: 9035 7abe fce5 093b 84f9 5e3e df4a c93d
000003a0: cc25 ee3e 5231 4f3e 1c39 51be 1942 10bd
000003b0: 791c 2dbd ece5 9bbe 0e05 d8bc 35e0 273e
000003c0: 713f 65be fcda 87bd 5d4a c6bd b7c4 7e3d
000003d0: 822b 36be 57bb 273c 02c1 253d ba8f 8abd
000003e0: 9d3e b2bd 479f 883e bd9e 97be c3eb 9f3e
000003f0: 2f85 52be d82f 88be 0f9e a4be 07ca 7ebe
-0.17957725 0.4215634 0.10624609 0.203462 -0.1038153 -0.024289416 -0.05244587 0.018511359
0.116800554 0.10076516 0.20401435 -0.17205352 -0.19766772 0.06548344 -0.2674975 0.35607603
0.16809934 0.5601359 -0.13028729 -0.30238265 -0.18687172 -0.16528036 -0.104794316 0.16862619
0.2755635 0.117448986 0.09738138 0.16690268 0.0035331058 0.15993132 0.28345707 0.22421843
0.39323127 -0.34046388 -0.075985 -0.26949614 0.043556586 0.04108562 -0.10383815 -0.04693841
-0.22733656 -0.15543817 0.11836075 0.07821574 -0.28578618 0.13354167 0.33441535 0.22975074
0.30732217 -0.123063184 -0.1560827 -0.012369282 -0.010208533 -0.027288515 0.28408945 0.09444729
0.22229125 -0.014381444 -0.09554329 0.13133065 0.4306058 -0.17067882 0.66233665 0.25638533
0.09084835 -0.1691952 -0.066850655 0.044282462 0.28382808 0.10700815 0.02280526 -0.27494103
0.31757247 -0.1377183 0.112352625 0.2782331 -0.09539146 0.053044427 0.04681662 -0.329075
-0.1894255 0.04778466 -0.29269835 0.22956894 0.19872883 -0.17475396 0.055955224 0.014725871
-0.085340284 -0.021301098 0.22496374 0.15856615 0.11745569 0.14461116 -0.024116887 0.16805452
-0.37980786 -0.06773201 -0.073390625 -0.20131318 0.019410178 -0.03383946 0.03373384 -0.2757076
-0.1823827 0.009930468 0.47912532 0.143649 0.3554075 0.16472769 -0.05297676 -0.6131579
0.1607395 0.15335885 0.053723965 0.045398403 -0.116769046 0.18399727 0.15623002 0.073968746
0.12687254 0.09755642 -0.04159701 -0.123767264 0.17967059 0.22524144 0.23379289 -0.22798873
-0.113516636 0.12867102 0.3486069 -0.18727896 0.009376014 0.3867091 0.2598193 0.017987337
-0.058510516 0.26526496 -0.02296781 0.41873398 -0.27008414 0.055210758 -0.22131845 0.27904513
-0.09983704 -0.134972 0.24043559 -0.03561085 0.4576967 -0.19654395 -0.2880675 0.2325782
-0.24735065 0.046482388 0.024349548 0.06469915 0.27752173 -0.1382814 -0.11215934 -0.092335634
0.15691131 -0.29618794 0.064101875 0.034110535 -0.29669678 -0.2561167 0.026017036 -0.1541622
-0.0788952 0.27208403 -0.3543437 -0.03067642 0.17374247 0.071301945 -0.2345478 0.22513421
-0.072226115 0.2155048 0.18047924 -0.13838011 0.4877923 0.077733696 -0.38729244 0.088555455
0.02186843 0.24829707 -0.1276761 0.31717005 0.25627512 -0.08380562 0.11040632 -0.117064126
-0.1009906 -0.14057745 0.2397391 0.23408467 0.25599742 -0.10903384 -0.061360095 0.48427966
-0.16052257 -0.19372796 0.0054315585 0.09301135 -0.24974023 -0.44037873 0.11566611 -0.13552843
0.31721726 0.081899546 -0.063866995 -0.11966318 -0.047238417 0.2413057 -0.11382555 0.20832837
0.17511603 0.27203122 0.20617948 -0.13356403 -0.025978226 -0.16509059 0.21960118 -0.3659521
0.07670004 -0.1256865 -0.12360267 0.20872894 -0.24434495 0.0021041622 0.2177487 0.09828734
0.46513212 0.20233658 -0.20431942 -0.035219286 -0.04226348 -0.30448854 -0.026369598 0.16394122
-0.22387482 -0.06633565 -0.096821524 0.06219932 -0.17790034 0.010237536 0.04046727 -0.06765695
-0.08703349 0.2668402 -0.29613295 0.3123456 -0.20558618 -0.26599002 -0.3215184 -0.24881755

base.mlp.fc1.0.bias f4 [64]
00000000: 9100 1dbc 30d1 d33b 1ac9 edbb e50a 203c
00000010: 112a 843a 710c 19bc 5021 d4b9 fc8b f4bb
00000020: 9004 05bc 3375 9ebb 1a97 18bb 8192 6d3b
00000030: 57ff f6bb 7b90 c43b 8142 083c 1fbb e63b
00000040: 82bc 0b3a 0608 823b 6c61 cf3a 6422 d63b
00000050: ddd9 01bc 4a66 0bbc 3b76 1d3c 7340 b0ba
00000060: 1a2d cebb 8d8c 01bc aff7 0a3c 71fa fab8
00000070: 87d7 25bb c156 d8bb a8cc 513a 5185 243c
00000080: 03ec ceba bf06 f63b 6e89 f1bb 3763 00bc
00000090: 2659 aa3b 55b3 c9ba 9568 853b c68c 6f3b
000000a0: 2bc4 7b3b 2dba d7ba 0d86 8d3b da4d 8bbb
000000b0: e742 963b f9d9 87ba 07d8 d5bb 042f c33b
000000c0: fcc4 c93b ce2a 14bc 1682 88bb e7df d938
000000d0: 254b 8bbb 84de 9d3a f24e fabb b172 c6bb
000000e0: a8e3 5f3a 18ee 593b 8a59 cabb 0b0f 02bc
000000f0: f0a4 473b c639 8dbb 6b67 55bb 579c 7d3b
-0.009582655 0.006464146 -0.007256639 0.009768222 0.0010083338 -0.009341345 -0.0004046061 -0.0074629765
-0.008118764 -0.0048357486 -0.0023283423 0.0036250653 -0.007537763 0.0059986687 0.008316637 0.0070413495
0.0005330519 0.0039682416 0.0015821881 0.0065348614 -0.007925478 -0.008508274 0.009610708 -0.0013446942
-0.0062919976 -0.007907045 0.008481904 -0.00011967577 -0.0025305466 -0.0066021387 0.00080032134 0.010041551
-0.001578689 0.0075081284 -0.007371119 -0.007836155 0.0051986156 -0.0015388528 0.004071305 0.0036552413
0.0038416486 -0.0016458683 0.0043189586 -0.004251224 0.004585612 -0.0010364644 -0.0065259966 0.0059565324
0.0061575156 -0.009043409 -0.004165898 0.000103890714 -0.0042509013 0.0012044464 -0.0076388055 -0.0060561527
0.00085406983 0.0033253487 -0.0061752247 -0.007938157 0.00304633 -0.0043098656 -0.0032562863 0.0038697922

base.mlp.fc1.2.weight f4 [64]
00000000: 5603 803f 9f31 803f c01a 803f ca32 803f
00000010: c352 803f fb44 813f 8996 7d3f e59b 803f
00000020: 923c 803f 80c2 7f3f 9f2d 803f 614b 7f3f
00000030: 8909 803f 6ac2 803f 3672 7f3f 5c99 7d3f
00000040: 5abf 803f c81d 7f3f dc4e 803f 31c5 7f3f
00000050: a5aa 803f cd52 803f 1c5f 813f 0b13 803f
00000060: ef23 803f 9248 7f3f ac20 803f 9f23 813f
00000070: 82df 803f 9d4e 7f3f e20c 803f 5568 803f
00000080: 5be7 7e3f 5636 7f3f 35eb 7f3f b5ae 803f
00000090: 2b39 803f d959 803f dcd2 7f3f bf41 803f
000000a0: a349 803f a6cf 7e3f 9cd6 7e3f a1a4 7f3f
000000b0: c12b 7f3f d478 7f3f 5cdc 7e3f 0a10 7f3f
000000c0: f6ee 7e3f ed2f 7e3f a114 7f3f da5e 803f
000000d0: 745d 803f c6c8 7e3f 57d4 7e3f 81b4 7d3f
000000e0: af06 803f 0538 803f 4cc8 7e3f 9915 803f
000000f0: 678e 803f 7e0f 803f 0300 803f e20c 813f
1.0001018 1.0015143 1.0008163 1.00155 1.0025257 1.0099176 0.99057823 1.0047575
1.0018485 0.9990616 1.0013922 0.99724394 1.000291 1.005933 0.9978365 0.9906213
1.0058396 0.9965482 1.0024066 0.99910265 1.0052077 1.0025269 1.010715 1.0005811
1.0010966 0.9972011 1.0009971 1.0088996 1.0068209 0.9972933 1.0003932 1.003184
0.9957177 0.99692285 0.9996827 1.0053316 1.0017446 1.0027419 0.9993112 1.0020064
1.0022472 0.99535596 0.9954622 0.9986058 0.9967614 0.99793744 0.9955499 0.9963385
0.99583375 0.9929188 0.9964085 1.0028946 1.002852 0.99525106 0.99542755 0.9910355
1.000204 1.0017096 0.9952438 1.0006591 1.0043458 1.0004728 1.0000004 1.0082057

base.mlp.fc1.2.bias f4 [64]
00000000: da4c 0fbc 70ad 103c 5c4a 2dbc df1c 113c
00000010: 549f cb3b a60a 3bbc c0e0 d13a 2722 20bc
00000020: cc48 07bc 5523 16bc 9595 1abc 6fd2 103b
00000030: 9afe e5bb 517a 71b9 c1aa a7b9 194f 033c
00000040: 238e 78ba 2b4c 883b a58c 843a 3cd2 953b
00000050: 418b c9bb 12e2 12bc 6237 013c 370a 8cba
00000060: c12b 57bb 51e0 dfbb 1835 b3b9 6383 d5ba
00000070: 444f 48bb 5a1a c2bb c875 8bba 6c24 de3b
00000080: 516d d1bb 22b4 123c 0014 24ba 39af d1bb
00000090: 3a97 c1ba 13fa 8cbb 15b6 613b ac3c c039
000000a0: 4a2a 1e3a 150b 49bb 81c8 803b 292f 8bbb
000000b0: a873 df3a 22dd acb9 7656 86bb d118 133c
000000c0: 1419 153c c256 14bc 0b82 c6bb 1a37 91ba
000000d0: fc17 d6bb f0fb 413b e483 a7bb 7a6d 51bb
000000e0: 5803 7cb9 b5b0 f73b c4f3 dbbb 4910 a3bb
000000f0: c265 9f3a e96e f6bb a607 14bc daa7 d0ba
-0.00874635 0.008830413 -0.010576811 0.008856981 0.0062140618 -0.011416113 0.0016012415 -0.009773768
-0.008257102 -0.009163697 -0.009435077 0.0022098084 -0.0070188763 -0.00023029117 -0.00031979944 0.008014464
-0.0009481629 0.0041594706 0.0010112716 0.004572181 -0.0061506336 -0.008965032 0.007886739 -0.0010684197
-0.0032832476 -0.0068321605 -0.00034181098 -0.0016289767 -0.0030564824 -0.0059235515 -0.001063996 0.006779244
-0.0063912054 0.00895408 -0.0006259084 -0.006399062 -0.00147698 -0.004302272 0.0034440805 0.00036666298
0.0006033523 -0.0030676771 0.003930152 -0.0042475653 0.0017048018 -0.00032971153 -0.0040996624 0.008978085
0.009100217 -0.009053888 -0.006057983 -0.0011079044 -0.006533621 0.002959963 -0.005112158 -0.0031956122
-0.00024033838 0.007558907 -0.0067124087 -0.0049763066 0.0012161063 -0.0075205457 -0.009035027 -0.0015919164

base.mlp.fc_h.0.weight f4 [64, 64]
00000000: 6a0e 0d3e 2f99 04bc 5f78 8bbe 1eee 593e
00000010: 5f07 f93e 8310 083e 9e58 d7be a1de 0d3c
00000020: 2634 d83e 6f6b 3c3e cd80 9ebc 6ad7 ba3d
00000030: 1abd 363d 5199 47be cb7c c8be 65fe 82be
00000040: 9394 b43d cec3 7cbe 6a89 8e3e 1b09 bbbe
00000050: b188 e6bd 8a8e b8be e479 85be 6ee3 863e
00000060: ff5c 9abe 907f 363e b610 5e3e 7a22 2f3d
00000070: fadd 2fbe 0507 b0bd a3dd 653d 6297 c23d
00000080: 5f6b 48be f21a 663e 194b 943e e3a0 d43d
00000090: 55d9 f1b9 025d f63d 8fae e03d c1e8 64be
000000a0: dd3a 12be 0da3 25be f14e ce3d 5222 ed3b
000000b0: e8f8 313e 0154 83be 18e0 233d eda3 48be
000000c0: 57e8 873d ece2 473e ac5d 873c 637b e7bc
000000d0: a0b3 743e a7f8 d23d 45a7 aabd ce9c 69bd
000000e0: ccf8 6abe 6a7a 1c3e c772 23be f6ae a83d
000000f0: 265f 1ebe 235a 973e 3cf5 73be 4002 a0be
00000100: 7f3d 69be f256 c9bc e115 afbd 9f1c 80be
00000110: de71 cabd 7954 62be 11ca 6a3e c667 cd3e
00000120: a051 153d 35e9 edbd 28d9 07be 7a0b 8b3e
00000130: 6b62 2b3d c789 34be cec9 903e 544f 6dbd
00000140: 289f a63e 129c 6cbe eff1 8fbc 33d7 8bbe
00000150: 7aad 833d 11c6 923e 1b12 0b3e ea92 4bbe
00000160: 7e2e 5d3d 2e5b ec3d 54c8 243d b9c7 313e
00000170: 09ed 5bbe fb8c 84bd 6aea 75bc d328 603e
00000180: 0044 c3bd 7252 863e 3ecb 503e a74c 2cbc
00000190: 40a5 913e 97b1 3cbe 36cd cfbe 4050 04bc
000001a0: 90fe cdbd a867 1fbe 37e7 8c3e 3276 2d3c
000001b0: 150f 1b3d 0a7f ba3e 9851 01bd da59 88be
000001c0: 745b 863e ebf2 603e dd41 efbd 15ea a7bd
000001d0: 0076 2c3b 4eb0 bb3e 6d2b 783e 3c69 173f
000001e0: 5afa 3f3e 9c72 88be 3f85 063e 607f 733d
000001f0: a8f4 3cbc df29 473e e1a5 7dbd 65b1 88be
00000200: bcda d73e ddf3 7bbd 98f2 d43d b2e0 11be
00000210: 34ba a73c 5d05 be3e cea4 923d 0fba 293d
00000220: ab40 d83d 2940 5d3e da7c 1fbd 5999 87bc
00000230: ebde d4bd c6b5 933d 656e 95bd 2e05 87bd
00000240: d0f8 003e c03c 1abe 924e bf3e b6bc e1bd
00000250: 8429 063e 26e7 a6bd a6f7 7a3e 1a97 58bd
00000260: 5b09 52bd ff04 4abd f89c 3f3e 3dc9 be3e
00000270: 2946 b93e e8e9 f13c 14be 263d 7263 083f
00000280: 8a07 48be 8308 07be a57f 0abd 96b6 893e
00000290: 5f21 46be 361f 46be 0c53 71be c1dc 5cbe
000002a0: d020 0fbe bd59 00be 325d aabe 71ad c5bd
000002b0: 0e1e edbd d85e 863e 386f c43e 1c36 3bbe
000002c0: f9f8 20be 944c abbe 0fb9 45be 0622 afbe
000002d0: c500 0a3e 9e92 63be 3cc8 483d 10e4 cf3c
000002e0: 0ac0 e23e 006a af3d 6064 0cbd ad7f 80bd
000002f0: 07fe 4dbd abd6 20bd ec58 6d3e 4978 a93e
00000300: 9007 f03d 35dc 34bd 5b97 693c a87d 63be
00000310: eece 933e 5a95 583e 8e45 f5bd 0620 04be
00000320: 1f0f c33e 8813 b63e 6a1a 273e b7a9 5bbd
00000330: efee 69bd e2bb 41be b1b6 183e cb46 df3e
00000340: 5287 443e d37a 463e b333 6ebd 0745 e1bd
00000350: 7927 2bbd f4f2 72be 3adc 9ebb 7c7c edbe
00000360: b79a 28bd fc78 dbbd 087a 92be 73a8 0ebe
00000370: b237 72be f339 fb3d 8622 7dbe c4cc 4abe
00000380: 524e 0d3d 54ea 883e f472 143e f1e4 893d
00000390: 573d 44be fb29 fbbd ecee 303c fbf6 f93e
000003a0: 9777 693e 0324 c23d 90c4 7bbd 1fc9 51be
000003b0: c564 793e 74a7 6dbb fb61 393d 9cb8 61be
000003c0: cddc b5bd 6abe d63c 6299 1d3e ca16 22bc
000003d0: 51b7 42be 5830 a6be 639c 4d3e facc 71be
000003e0: fcd7 ca3e 9e2d d1be b9ef 3a3e d602 10bd
000003f0: 45b3 8abc 033d 2b3e 7603 0e3e bf6b 88be
0.1377503 -0.008093162 -0.27240273 0.21282241 0.48638436 0.13287549 -0.42059797 0.008659036
0.42227286 0.18400358 -0.019348526 0.09123118 0.044613935 -0.1949208 -0.3915771 -0.25584713
0.08817401 -0.24684069 0.27839214 -0.36530384 -0.112565406 -0.3604625 -0.26069558 0.2634539
-0.30149075 0.17822099 0.21686062 0.04275749 -0.17174521 -0.08595089 0.056119572 0.0950153
-0.19572209 0.22471216 0.28963545 0.10382249 -0.00046129027 0.120294586 0.109707944 -0.22354414
-0.14280267 -0.1617548 0.10073651 0.0072367573 0.17380106 -0.25650027 0.040008634 -0.19593783
0.06636112 0.19520158 0.016524158 -0.028257078 0.23896646 0.10301333 -0.083326854 -0.057034306
-0.22946471 0.15281072 -0.15961753 0.08236496 -0.15465984 0.29560956 -0.23824018 -0.31251717
-0.22777365 -0.024577592 -0.08549095 -0.25021836 -0.09885 -0.22102536 0.22928645 0.40118235
0.036454797 -0.11616746 -0.13266432 0.27157193 0.041841906 -0.17630683 0.28278965 -0.05793698
0.32543302 -0.23106411 -0.017571418 -0.2731262 0.064295724 0.28666738 0.13581125 -0.19880262
0.053999417 0.11540829 0.04023011 0.17361344 -0.2147714 -0.064722024 -0.015009502 0.21890573
-0.09534454 0.26234776 0.2039003 -0.010516322 0.28446388 -0.1842712 -0.4058625 -0.008075774
-0.100583196 -0.15566885 0.27520153 0.010587262 0.03785618 0.36425048 -0.031571954 -0.2663105
0.26241648 0.21967666 -0.11682484 -0.081989445 0.002631545 0.36657947 0.24235316 0.5914495
0.18747845 -0.2664994 0.13136767 0.059447646 -0.01153294 0.19449566 -0.061925773 -0.2669784
0.4215907 -0.061511863 0.103978336 -0.1424587 0.02047453 0.37113467 0.0716034 0.041437205
0.105592094 0.21606506 -0.038937427 -0.016552614 -0.10394081 0.07212405 -0.07296447 -0.06592785
0.12594914 -0.15062237 0.37364632 -0.11022322 0.13101774 -0.08149557 0.24508533 -0.052878477
-0.051278453 -0.04932117 0.18712223 0.37262908 0.3618634 0.02953048 0.040708616 0.5327674
-0.19534126 -0.1318684 -0.033813138 0.26897115 -0.19348668 -0.19347844 -0.23566836 -0.21568586
-0.1397736 -0.12534232 -0.33274227 -0.09652222 -0.11577998 0.26244235 0.38366103 -0.1828236
-0.15719976 -0.33456862 -0.19308876 -0.34205645 0.13476856 -0.22223899 0.049019083 0.025377303
0.4428714 0.0856514 -0.034275413 -0.06274352 -0.050291087 -0.039267223 0.23178452 0.33099583
0.117201924 -0.04415532 0.014257277 -0.22215903 0.28868812 0.21150723 -0.11976157 -0.12902841
0.38097474 0.35561776 0.1631867 -0.05362865 -0.05711263 -0.18919328 0.14913441 0.43608698
0.19192246 0.19382791 -0.058154773 -0.10999494 -0.04178569 -0.23725492 -0.0048480304 -0.46384037
-0.041163173 -0.10716435 -0.28608727 -0.13931446 -0.23654059 0.12266912 -0.24720201 -0.19804674
0.03449852 0.26741278 0.14496976 0.0673312 -0.19164024 -0.122638665 0.010799151 0.48821244
0.22799526 0.09479525 -0.061466753 -0.20486878 0.24354847 -0.003626314 0.045259457 -0.22043079
-0.08880005 0.026213843 0.15390542 -0.009893129 -0.19015242 -0.32458758 0.20079188 -0.23613349
0.39617908 -0.40855116 0.1825551 -0.035158955 -0.016931185 0.16722493 0.13868508 -0.26644704

base.mlp.fc_h.0.bias f4 [64]
00000000: 0000 0000 0000 0000 0000 0000 0000 0000
00000010: 0000 0000 0000 0000 0000 0000 0000 0000
00000020: 0000 0000 0000 0000 0000 0000 0000 0000
00000030: 0000 0000 0000 0000 0000 0000 0000 0000
00000040: 0000 0000 0000 0000 0000 0000 0000 0000
00000050: 0000 0000 0000 0000 0000 0000 0000 0000
00000060: 0000 0000 0000 0000 0000 0000 0000 0000
00000070: 0000 0000 0000 0000 0000 0000 0000 0000
00000080: 0000 0000 0000 0000 0000 0000 0000 0000
00000090: 0000 0000 0000 0000 0000 0000 0000 0000
000000a0: 0000 0000 0000 0000 0000 0000 0000 0000
000000b0: 0000 0000 0000 0000 0000 0000 0000 0000
000000c0: 0000 0000 0000 0000 0000 0000 0000 0000
000000d0: 0000 0000 0000 0000 0000 0000 0000 0000
000000e0: 0000 0000 0000 0000 0000 0000 0000 0000
000000f0: 0000 0000 0000 0000 0000 0000 0000 0000
0.0 0.0 0.0 0.0 0.0 0.0 0.0 0.0
0.0 0.0 0.0 0.0 0.0 0.0 0.0 0.0
0.0 0.0 0.0 0.0 0.0 0.0 0.0 0.0
0.0 0.0 0.0 0.0 0.0 0.0 0.0 0.0
0.0 0.0 0.0 0.0 0.0 0.0 0.0 0.0
0.0 0.0 0.0 0.0 0.0 0.0 0.0 0.0
0.0 0.0 0.0 0.0 0.0 0.0 0.0 0.0
0.0 0.0 0.0 0.0 0.0 0.0 0.0 0.0

base.mlp.fc_h.2.weight f4 [64]
00000000: 0000 803f 0000 803f 0000 803f 0000 803f
00000010: 0000 803f 0000 803f 0000 803f 0000 803f
00000020: 0000 803f 0000 803f 0000 803f 0000 803f
00000030: 0000 803f 0000 803f 0000 803f 0000 803f
00000040: 0000 803f 0000 803f 0000 803f 0000 803f
00000050: 0000 803f 0000 803f 0000 803f 0000 803f
00000060: 0000 803f 0000 803f 0000 803f 0000 803f
00000070: 0000 803f 0000 803f 0000 803f 0000 803f
00000080: 0000 803f 0000 803f 0000 803f 0000 803f
00000090: 0000 803f 0000 803f 0000 803f 0000 803f
000000a0: 0000 803f 0000 803f 0000 803f 0000 803f
000000b0: 0000 803f 0000 803f 0000 803f 0000 803f
000000c0: 0000 803f 0000 803f 0000 803f 0000 803f
000000d0: 0000 803f 0000 803f 0000 803f 0000 803f
000000e0: 0000 803f 0000 803f 0000 803f 0000 803f
000000f0: 0000 803f 0000 803f 0000 803f 0000 803f
1.0 1.0 1.0 1.0 1.0 1.0 1.0 1.0
1.0 1.0 1.0 1.0 1.0 1.0 1.0 1.0
1.0 1.0 1.0 1.0 1.0 1.0 1.0 1.0
1.0 1.0 1.0 1.0 1.0 1.0 1.0 1.0
1.0 1.0 1.0 1.0 1.0 1.0 1.0 1.0
1.0 1.0 1.0 1.0 1.0 1.0 1.0 1.0
1.0 1.0 1.0 1.0 1.0 1.0 1.0 1.0
1.0 1.0 1.0 1.0 1.0 1.0 1.0 1.0

base.mlp.fc_h.2.bias f4 [64]
00000000: 0000 0000 0000 0000 0000 0000 0000 0000
00000010: 0000 0000 0000 0000 0000 0000 0000 0000
00000020: 0000 0000 0000 0000 0000 0000 0000 0000
00000030: 0000 0000 0000 0000 0000 0000 0000 0000
00000040: 0000 0000 0000 0000 0000 0000 0000 0000
00000050: 0000 0000 0000 0000 0000 0000 0000 0000
00000060: 0000 0000 0000 0000 0000 0000 0000 0000
00000070: 0000 0000 0000 0000 0000 0000 0000 0000
00000080: 0000 0000 0000 0000 0000 0000 0000 0000
00000090: 0000 0000 0000 0000 0000 0000 0000 0000
000000a0: 0000 0000 0000 0000 0000 0000 0000 0000
000000b0: 0000 0000 0000 0000 0000 0000 0000 0000
000000c0: 0000 0000 0000 0000 0000 0000 0000 0000
000000d0: 0000 0000 0000 0000 0000 0000 0000 0000
000000e0: 0000 0000 0000 0000 0000 0000 0000 0000
000000f0: 0000 0000 0000 0000 0000 0000 0000 0000
0.0 0.0 0.0 0.0 0.0 0.0 0.0 0.0
0.0 0.0 0.0 0.0 0.0 0.0 0.0 0.0
0.0 0.0 0.0 0.0 0.0 0.0 0.0 0.0
0.0 0.0 0.0 0.0 0.0 0.0 0.0 0.0
0.0 0.0 0.0 0.0 0.0 0.0 0.0 0.0
0.0 0.0 0.0 0.0 0.0 0.0 0.0 0.0
0.0 0.0 0.0 0.0 0.0 0.0 0.0 0.0
0.0 0.0 0.0 0.0 0.0 0.0 0.0 0.0

base.mlp.fc2.0.0.weight f4 [64, 64]
00000000: 335a 0c3e 9866 1c3b 2872 85be f7fa 5b3e
00000010: 8633 f93e 3356 103e 74e0 d2be b359 413c
00000020: f71f d73e 8939 3d3e a2c2 b9bc 4c6b c23d
00000030: 37f8 073d 7bce 4cbe 6de1 cbbe 12be 80be
00000040: 312f c33d f2ac 81be 5151 8e3e c1ef b9be
00000050: c787 f1bd 647b bdbe 9b4c 84be 8c32 853e
00000060: 3b50 97be ae82 423e 1117 5b3e 4421 433d
00000070: bd1d 2fbe 699f b4bd 395a 863d 7b51 cd3d
00000080: 712f 46be 5a9a 5e3e 2371 963e b1ab cc3d
00000090: 9356 d9b9 fae3 f33d 1265 da3d dd43 66be
000000a0: dfbb 0cbe 8d2b 24be 2119 c03d a428 423c
000000b0: 1313 2b3e f4d6 82be 9455 2d3d 6312 4fbe
000000c0: 2cb5 8b3d b6e1 4b3e 69bf c13c 3f07 19bd
000000d0: ae7b 703e 4d97 cc3d 6a82 a7bd 66a5 8dbd
000000e0: 8f18 5fbe 4fb4 183e b277 23be 3e6e c03d
000000f0: 410e 22be 96f7 9a3e 538b 74be 3cfa a2be
00000100: d4a2 6abe 3a95 c4bc 2509 aabd ea60 84be
00000110: abdc d3bd 2194 66be 11eb 6b3e 6248 cd3e
00000120: e51f 123d 69b2 f0bd 266c 0cbe 37c6 893e
00000130: da8c 303d 9aaa 31be 79cf 923e 2abd 75bd
00000140: 262f ac3e ee9d 6abe 30a6 50bc df5f 8bbe
00000150: 0e98 843d 8fd4 923e b5ca 023e dc9d 4bbe
00000160: 7e57 5f3d 1f09 e43d 788a 213d b0f4 2d3e
00000170: 2be6 5cbe 48ad 8bbd 331c 8fbc f6a2 613e
00000180: d2ef c6bd c2a9 873e 723f 4b3e cfaa 93bc
00000190: efcc 903e 1dc8 3bbe 4ce6 ccbe 9986 90ba
000001a0: f367 cdbd 6eda 17be 7b15 903e c4c5 463c
000001b0: a905 263d 6b60 bb3e 467b 0dbd 274a 87be
000001c0: a20e 893e a18d 5a3e 982b e9bd 203f a4bd
000001d0: 2424 343b ae60 bc3e c423 733e 463d 173f
000001e0: 73e2 3d3e 81ef 89be 59de 063e 7259 5e3d
000001f0: c13a 53bc f2f8 4d3e f882 5fbd 0678 87be
00000200: cbad d73e 1d17 7bbd b418 ce3d d9af 0fbe
00000210: 0fdc f23c 9057 c23e 4052 a13d c4a2 373d
00000220: 07f9 d53d 8afd 5d3e 653f dcbc f063 acbc
00000230: 688c c9bd d009 a53d 9924 9abd 0c0d 80bd
00000240: 5c5d ff3d fe4e 0fbe fb39 bc3e e4ab ebbd
00000250: 7bc0 013e 1aa0 a8bd b076 7a3e 1413 53bd
00000260: a699 47bd 6170 51bd 2f7c 403e 18bd bf3e
00000270: a7e6 b93e 3e5b f63c a7ac 1d3d fff9 073f
00000280: 527d 49be 1508 07be d161 0fbd 2356 8a3e
00000290: 8cfa 4abe fd06 4dbe e9f5 73be a7f7 63be
000002a0: cb71 0dbe 0982 05be d31b a8be 7c77 c0bd
000002b0: 43af e2bd f6a2 853e 66d8 c13e e811 3cbe
000002c0: b025 22be fb1d aabe 2f05 46be ef42 abbe
000002d0: 4104 0b3e f86d 60be d709 433d 2143 f43c
000002e0: 21d8 de3e 0616 b33d d40b 1cbd e3dd 87bd
000002f0: 10b2 37bd 68f3 35bd 3544 683e 85e0 ab3e
00000300: f537 e83d ecb4 3bbd b9c6 503c b261 5cbe
00000310: 2189 933e f245 603e 9a63 e7bd 021f 08be
00000320: b4d5 c43e 8dfb b73e ff11 2a3e 8f44 68bd
00000330: 8598 77bd 2d2b 3fbe 4f88 153e 969b de3e
00000340: aab8 473e 9c85 4c3e a6dc 85bd 6e53 e0bd
00000350: c02c 46bd 3dfa 75be f6d5 9c3b c180 ebbe
00000360: caf0 15bd ce66 cfbd f9c3 92be 9d6c 08be
00000370: 8556 70be 09ab f73d 10be 78be ce41 4dbe
00000380: 1b93 f83c 73de 893e e840 153e d265 823d
00000390: 98fa 42be f953 f5bd ceba 813b 5f05 fb3e
000003a0: 14b6 6b3e 8598 b03d cc9f 6abd f0e0 4dbe
000003b0: b114 803e f976 09bc e2fc 293d e501 67be
000003c0: cf8b b2bd 150e fd3c 7de4 1b3e a5a5 87bb
000003d0: 5697 43be 042b a3be 6b34 4a3e f679 74be
000003e0: e9c7 c93e d3c9 d0be 9f5f 313e 4246 dfbc
000003f0: 71c9 82bc 245c 2c3e 5fdb 073e b128 8cbe
0.13706283 0.0023864862 -0.26063657 0.21482454 0.48672122 0.14095382 -0.4118687 0.011801171
0.42016575 0.18478979 -0.022675816 0.094931215 0.0331957 -0.20000641 -0.39820424 -0.25145012
0.095304854 -0.2532726 0.27796414 -0.3631573 -0.117934756 -0.37008202 -0.25839695 0.26015127
-0.29553398 0.18995163 0.21395518 0.047639146 -0.17101188 -0.088194676 0.06560177 0.10025307
-0.19354035 0.21738568 0.2938319 0.09993685 -0.00041453968 0.119087175 0.10663809 -0.22486825
-0.13743542 -0.16032238 0.09379793 0.01185051 0.16706495 -0.2555462 0.04231794 -0.20221858
0.06821665 0.1991032 0.023650842 -0.037360426 0.2348468 0.09989796 -0.081791714 -0.06916313
-0.21786712 0.14912532 -0.15963629 0.09396027 -0.1582575 0.30267018 -0.23881273 -0.3183154
-0.22913677 -0.023996938 -0.083025254 -0.2585519 -0.103448234 -0.22517444 0.2303889 0.40094286
0.03567495 -0.11752779 -0.1371313 0.26909038 0.043103077 -0.17350236 0.28673914 -0.059994854
0.3362972 -0.22911808 -0.012734935 -0.2722158 0.06474315 0.28677794 0.12772639 -0.19884437
0.0545268 0.11134552 0.039438695 0.16987872 -0.21572177 -0.0682016 -0.017469501 0.22034821
-0.09713711 0.26496702 0.19848421 -0.018025784 0.28281352 -0.18338056 -0.40019453 -0.0011026441
-0.10029592 -0.14829418 0.28141388 0.012132112 0.04053274 0.36597 -0.03454139 -0.2642376
0.26768976 0.2134309 -0.11385268 -0.08019853 0.0027487362 0.3679251 0.23744112 0.5907787
0.18543415 -0.2694054 0.13170756 0.05428452 -0.012892426 0.20114496 -0.05456826 -0.26458758
0.4212478 -0.06130134 0.100633055 -0.14031924 0.029645948 0.3795743 0.07877016 0.04483296
0.10447889 0.21678749 -0.026885698 -0.021043748 -0.098412335 0.08058512 -0.07526512 -0.062524885
0.12468979 -0.13994977 0.36762986 -0.11507395 0.12671082 -0.08233662 0.24459338 -0.051531866
-0.048730515 -0.051132564 0.18797372 0.37448955 0.36308786 0.030072805 0.038494732 0.5311584
-0.19676712 -0.13186677 -0.035005394 0.27018842 -0.19822139 -0.20022197 -0.23824276 -0.2226244
-0.1381294 -0.13037886 -0.32833728 -0.0939779 -0.11068585 0.26100892 0.3786041 -0.18366206
-0.15834689 -0.33225998 -0.19337915 -0.33449504 0.13575841 -0.2191695 0.047616806 0.029817166
0.43524268 0.08744435 -0.038097218 -0.066341184 -0.044847548 -0.044421583 0.22682269 0.33569732
0.11338798 -0.045826837 0.012742692 -0.21521643 0.2881556 0.21901682 -0.11298294 -0.13293079
0.38444293 0.35934106 0.16608427 -0.056706008 -0.06044819 -0.18668814 0.14602779 0.43478078
0.19504037 0.19972843 -0.06536226 -0.10953413 -0.04838252 -0.2402124 0.0047862483 -0.4599667
-0.036606587 -0.1012703 -0.2866514 -0.13322683 -0.23470505 0.12093169 -0.24291253 -0.20044634
0.030343583 0.26927528 0.14575541 0.06367077 -0.19040906 -0.11978907 0.0039590364 0.49027535
0.23018676 0.08622841 -0.0572813 -0.20105338 0.25015786 -0.008390182 0.041500933 -0.22559316
-0.087180726 0.030890504 0.1522388 -0.0041396194 -0.19100699 -0.31868756 0.19746558 -0.2387465
0.39410332 -0.4077898 0.17321633 -0.027255181 -0.015965195 0.16832024 0.13267277 -0.27374795

base.mlp.fc2.0.0.bias f4 [64]
00000000: d736 933b 33da 373b 7a3c 00bc d602 9abb
00000010: 9924 dcba b4db b3ba ff29 a93b 3411 18bc
00000020: 2f46 96bb 93c5 acbb c583 67bb 300c a43a
00000030: 5263 da3b 7348 b6bb dcb5 62bb eaa9 c43b
00000040: efad 993b 8174 f63b f437 8a3a 7929 01bb
00000050: 368e 8cbb c4b4 7bba 906c bd3b f024 deba
00000060: 08d6 dabb 66ba 10bb 27bb 33bb 609d 9aba
00000070: 87ce 20bc 127e 863a 0c6a 883b 1e20 48ba
00000080: 2a5a 263c f016 a3b9 9c58 07bc 6f80 c4bb
00000090: b4e5 01bc baab d63a 5fe0 dfbb 8108 2c3b
000000a0: 1fbe 283c 7fd9 59bb 550f 3b3b fbca 0e3c
000000b0: 3e14 003a 97ad cebb cd7c d93a d822 25bb
000000c0: 84ce 083b 28b6 bc39 78dd 233b a24a 09ba
000000d0: f31b e1bb 2402 ea3b eef6 46bb 2b6a f0bb
000000e0: 20c4 e5bb bbec 0ebb c783 393b 9dec 8f3b
000000f0: cdcc d0bb 244b 123c 76c8 9a3b f340 1fbb
0.0044926214 0.002805364 -0.007826919 -0.004700045 -0.0016795575 -0.0013722093 0.005162477 -0.009281445
-0.0045860033 -0.005272576 -0.0035326343 0.0012515839 0.006664672 -0.005562836 -0.003459326 0.0060017006
0.004689924 0.0075212126 0.001054524 -0.0019708558 -0.004289414 -0.00096018263 0.005780764 -0.0016948264
-0.0066783465 -0.0022083758 -0.0027424784 -0.0011796169 -0.009814865 0.001026096 0.0041630324 -0.00076341804
0.010153333 -0.00031106872 -0.008260872 -0.005996756 -0.007928301 0.0016378083 -0.006832167 0.0026250186
0.010299235 -0.003324121 0.0028543074 0.0087153865 0.0004885829 -0.0063073146 0.001659298 -0.002519777
0.0020875046 0.0003599387 0.0025003832 -0.00052372564 -0.006869787 0.0071413685 -0.0030359584 -0.007336875
-0.0070119053 -0.0021808583 0.0028307305 0.00439222 -0.0063720704 0.008929048 0.004723604 -0.0024300187

base.mlp.fc2.0.2.weight f4 [64]
00000000: 850c 803f 6057 803f f751 7f3f 0f1c 7f3f
00000010: 438d 803f 11e1 803f 6284 803f 6330 803f
00000020: 3f8c 803f ef0e 803f 7e49 803f ea85 803f
00000030: 7ac8 7f3f 60c3 803f 3293 803f fa5d 7e3f
00000040: b8be 803f aace 7d3f af3e 7f3f fe3b 803f
00000050: 3b55 803f 236e 7f3f b859 7f3f 97d1 803f
00000060: 06f2 7f3f bdf9 7d3f 9792 7f3f 6670 803f
00000070: 8fa9 7f3f cff4 7f3f 4a71 7f3f 7552 803f
00000080: 612e 803f 92de 7f3f 9255 803f 9b09 803f
00000090: a5c7 803f 884d 803f 1aa3 803f 2a8f 803f
000000a0: cd74 803f f767 803f 179f 803f 4b34 803f
000000b0: ba14 7f3f 271c 7e3f 7ead 803f 1127 813f
000000c0: 20b6 7f3f efc2 7f3f 509f 7f3f bc01 803f
000000d0: 343c 7f3f c08a 7f3f dc61 803f cb7a 803f
000000e0: 36a4 803f e9bc 7e3f 9d58 803f 8323 7f3f
000000f0: 8063 803f 2549 803f c386 803f 0d5d 803f
1.0003821 1.0026665 0.99734443 0.9965219 1.004311 1.0068685 1.00404 1.0014766
1.00428 1.0004557 1.0022428 1.0040867 0.9991528 1.0059624 1.004492 0.99362147
1.0058203 0.9914347 0.9970502 1.0018308 1.002601 0.9977743 0.99746275 1.0063962
0.99978673 0.99209195 0.99833053 1.0034301 0.998681 0.99982923 0.9978224 1.0025164
1.0014154 0.9994899 1.0026114 1.0002931 1.0060927 1.0023661 1.0049775 1.004369
1.0035645 1.0031728 1.004855 1.0015959 0.99641 0.9926171 1.0052946 1.0090047
0.99887276 0.9990682 0.99852467 1.0000529 0.9970124 0.9982109 1.0029864 1.0037473
1.0050113 0.99507004 1.0027043 0.9966356 1.0030365 1.0022322 1.0041126 1.0028397

base.mlp.fc2.0.2.bias f4 [64]
00000000: ff1e 543b bb73 42b9 3054 41bb a17d 96bb
00000010: 3d9c 5dba 4c36 b7b9 1247 f13b 2650 a8bb
00000020: f283 8dbb a827 9bbb 58d7 21bb d8f0 bb3b
00000030: 4be9 8e3b 46cd 8dbb 42ed b9bb c127 883b
00000040: bba2 f43a 659b 6b3b 0fd1 de3a 4e0a 3cba
00000050: bc98 f1ba ec21 153a b9fd 613b 10de 7a3a
00000060: ebe0 15bb 07b7 bfbb 4e12 60bb d954 b7ba
00000070: f40f c7bb 3008 0b3b 9cf1 b53b d97f 19bb
00000080: 1c82 d53b 6a01 f13a cb95 edbb 7acb 80bb
00000090: 9723 e2bb 8c7a 2f3b 14f5 c2bb 9c1b 843a
000000a0: 6b3c 1a3c 5328 34bb 468a 0d3c 358b b23b
000000b0: 1f4f 42bb 4cbe 22bb 88e7 e93a 7558 84bb
000000c0: a594 c7bb 6719 8fbb 477d 813b 8521 3c3a
000000d0: d1c2 27bb 4ba8 fb3b fcfe 71ba e369 83bb
000000e0: 38d1 40bb cf97 6cbb a066 0838 8793 633b
000000f0: 6ed2 133c 0be7 673b 742e e83b 7d7b b2ba
0.0032367108 -0.00018544395 -0.0029499643 -0.004592613 -0.0008453762 -0.00034944934 0.0073632086 -0.0051365076
-0.0043187076 -0.004734952 -0.0024695005 0.005735498 0.004361307 -0.004327449 -0.0056740353 0.0041551297
0.001866422 0.0035950777 0.001699956 -0.00071731664 -0.0018432359 0.00056889537 0.0034483506 0.0009569833
-0.0022869657 -0.005850676 -0.0034190598 -0.0013987079 -0.0060749 0.0021214597 0.0055524837 -0.002342215
0.0065157544 0.0018387262 -0.0072505227 -0.0039305063 -0.0069012153 0.0026775924 -0.0059496257 0.0010079029
0.009413819 -0.0027489855 0.008638924 0.0054487237 -0.002964921 -0.0024832664 0.0017845491 -0.004038865
-0.006090718 -0.004367042 0.003951702 0.00071766257 -0.0025598297 0.007679974 -0.0009231416 -0.0040104254
-0.002942158 -0.0036101227 3.2520504e-05 0.0034725384 0.009022338 0.0035385515 0.007085616 -0.0013617125

rnn.rnn.weight_ih_l0 f4 [192, 64]
00000000: fafd 2dbd 8e55 c7bd 1a5e d43c f5da 97bd
00000010: 8b78 c93d 3138 52bd 48b8 0b3c 4b0f 93bd
00000020: e927 a53c c2e5 09be d460 da3c ca75 9ebd
00000030: 3736 173d 693b 963d 9343 e63c 37f6 c13d
00000040: 88de 67bc 909a 5c3d d01c 363d 8ee7 05bd
00000050: 476b 423b 1e9e 583c b160 d8bc 00f9 0bbe
00000060: 469d 24be ff07 33bd a047 193c 310e e7bd
00000070: 0543 113e e951 93bd 71d2 613d d189 d43d
00000080: 9486 743d 630a c53c cb48 963c a9fd 883c
00000090: ed35 853d 50e0 5fbc a78f 2d3c fa74 90bc
000000a0: 44ff 0b3c e918 833c 84bc debc 3653 3abd
000000b0: 4b3e ef3c 8577 113d 1928 80bb b75d cb3d
000000c0: 452f 21bd be4f 81bc 6ee0 363c 65c1 a43d
000000d0: 69f3 0f3d e5ab 10bd 053a aa3d e949 24bd
000000e0: c52a 2cbd 7bb6 febc c9d9 ddbc af16 adbd
000000f0: 1a99 bebd 700a 1abe 4e7f 853d 4e99 3a3d
00000100: 24dc 5c3d 54c2 0e3c 7e9e 1ebd 39f4 42bc
00000110: 359d 8b3d 3cdf 223d 4b6a e03d 8432 0c3d
00000120: f5f7 63bd 3b86 cebd 182c fe3b a0d5 9fbc
00000130: cb2c 06be 989e 973c 3899 98bd cb90 303d
00000140: 5a13 95bd 9ac1 353d a5a2 ab3d ccc3 98bd
00000150: 09aa 32bd 6646 94bd d0ff 81bd 28e8 5d3d
00000160: 4970 2b3a 44ab 6ebc a4d9 f53d 0c5f b23d
00000170: d343 6dbd 9ea7 2d3d db42 47bc 9fb6 b4bd
00000180: 5ef2 8b3d 0661 323d 7afe 83bd f7d0 98bd
00000190: 2562 543d dd38 16bd e2d2 8f3c 5716 433c
000001a0: c8d0 38bd d1b7 0cbd 5f86 a13d 1437 16bd
000001b0: 6aca bbbd d4ea 8fbc 4e0d 333e 847d ddbc
000001c0: 655d 363d b1e6 f93c 243c f6bc d6d5 aa3b
000001d0: 1ae5 f73c c72e eebd f59a 8d3c 0b9c 083e
000001e0: 618f c6bc dc66 2b3c aeb0 7cbc 0ec4 54bd
000001f0: 6b58 3f3d 175f 83bd c79c 933d c5c4 86ba
00000200: 50bf e3bc 3406 3d3c 0959 ba3b b6e9 d7bc
00000210: 7381 5c3d 3c55 f0bc 2bc6 923d 920c cf3d
00000220: 5b44 a83c 6695 a03d f73d 74bd 65c0 3ebc
00000230: 61ac ebbd 299b 693d db4e 443b 25a4 d3bd
00000240: f7e1 e5bc 1897 da3c 82eb 6e3d 4327 3a3d
00000250: f64b cf3d bf65 e13b ba21 1e3d 8d00 93bc
00000260: 6efa 0f3c b6df dc3d 347d a7bd d881 133d
00000270: 2acc 81bd 55ed e5bc 91b9 353d 08ce 823d
00000280: 6378 b63d 050b 5c3b ca7f 9dbd 8eef 03be
00000290: 5966 d43c f762 f83c 8900 febd 2c79 b83d
000002a0: 1e2d cabd a78a c1bd 15c6 2bbd cb46 ac3d
000002b0: 671c e8bc 5e3b 113e 2e06 c5bd 2ea6 133d
000002c0: 5c3c 253e 2410 c73d 58be ddbb 8163 0e3d
000002d0: b89c 24be f57c 193e 2030 b5bc 0adf 7fbc
000002e0: 5ebe 283d 67de 403d cf6d 773d 0041 cb3d
000002f0: f24e f93d 14a5 a3bd 74bd 0f3c 6374 afbd
00000300: 5ba0 0dbd a483 f83b 863f 83bd 077a c5bc
00000310: 866e f8bd f591 023d 2103 51bb 09de 16be
00000320: 34cc 13be 14ff abbc b43a 203d 1947 72bd
00000330: d182 1a3d 1d2a adbc f8ef b5bd d2cd b4bc
00000340: b719 353d 902c 0cbd 72d4 b8bd 9fff 45bd
00000350: a888 0d3d 940a a2bd 0b03 dd3c 91a9 893d
00000360: 325b 78bd 84cf 0bbd 3e02 64bb 4143 603d
00000370: b0b4 c3bb 4f2d a2bd 2725 583d 3764 2ebd
00000380: fb92 39bb 8e3e 93bd 69ae ac3d 269d 373d
00000390: 5fc3 003d 019f b43d 641a 01be 2e49 d13d
000003a0: a9a2 dfbd e5c4 bc3d cc6c 1abc e5e1 593d
000003b0: 302c 273b 9807 4e3d 4b95 153e 76ea b93d
000003c0: da13 543d a9fc f93c 6daf c6bd fb0e b33d
000003d0: 1407 5ebd e9cc 0f3d 6729 27bd c662 703b
000003e0: 59cf 85bd 8076 973d d743 03bd ba50 23bd
000003f0: f232 aabd 081e a53c 369d 9ebc fc67 83bc
-0.04247854 -0.09733115 0.025923777 -0.074148096 0.09837445 -0.05132312 0.008527823 -0.07180651
0.020160632 -0.13466552 0.0266575 -0.0773731 0.036916938 0.0733555 0.028108394 0.0947079
-0.014152177 0.05385834 0.04446107 -0.03269153 0.0029665993 0.013221292 -0.026413294 -0.13669205
-0.1607562 -0.043708798 0.009355456 -0.11282004 0.14185722 -0.071933575 0.055132333 0.10377849
0.059698656 0.024052804 0.018345257 0.016722517 0.06504426 -0.01366432 0.010593331 -0.017633904
0.008544747 0.016003089 -0.0271895 -0.045489512 0.029204508 0.035514373 -0.00391103 0.09929984
-0.03935172 -0.015785094 0.011161907 0.080446996 0.035144243 -0.03532018 0.083118476 -0.04010955
-0.042032976 -0.031092873 -0.027081387 -0.08451592 -0.093065456 -0.15043044 0.06518422 0.04555636
0.05392088 0.008713324 -0.03872537 -0.0118990475 0.06817094 0.039763674 0.10957774 0.034227863
-0.055656392 -0.10084196 0.007756721 -0.019511044 -0.13103025 0.01850824 -0.07451099 0.043106835
-0.07279082 0.044374086 0.08380631 -0.0745922 -0.04361919 -0.0723999 -0.063476205 0.05417648
0.0006539864 -0.0145672 0.12004402 0.08709535 -0.05792601 0.04239618 -0.012161936 -0.08823895
0.06833337 0.04354956 -0.06445022 -0.07461732 0.05185141 -0.036675323 0.017556611 0.011907182
-0.045120984 -0.03435499 0.078869574 -0.03667362 -0.09169467 -0.01756803 0.17485544 -0.02703739
0.04452266 0.03050551 -0.030057974 0.0052134795 0.030260611 -0.11630016 0.017285803 0.13340776
-0.02423829 0.010461535 -0.015422983 -0.051944785 0.04671518 -0.06414621 0.07207637 -0.001028203
-0.027801186 0.0115371235 0.0056868833 -0.02635656 0.05383439 -0.029337518 0.07166704 0.101098195
0.020540407 0.078409955 -0.059629407 -0.01164255 -0.11507488 0.057032738 0.0029954228 -0.103340425
-0.02806185 0.026683375 0.058330067 0.0454476 0.1012191 0.006878584 0.038606383 -0.017944599
0.008787734 0.10784857 -0.081781775 0.0360125 -0.06337769 -0.02806727 0.044366423 0.063869536
0.08909681 0.0033575904 -0.076903895 -0.12884352 0.02592771 0.030320628 -0.12402446 0.09007487
-0.09871887 -0.09450274 -0.041936953 0.0841194 -0.028333856 0.14182803 -0.09620319 0.036047153
0.16136307 0.097198755 -0.0067670755 0.034762863 -0.16075408 0.14989074 -0.022117674 -0.0156171415
0.041197173 0.0470871 0.060407456 0.09924507 0.12173261 -0.079904705 0.0087731965 -0.08567121
-0.034576755 0.007584052 -0.064086005 -0.024106039 -0.12130456 0.031877477 -0.0031892734 -0.14733137
-0.14433366 -0.020995654 0.039118484 -0.059149835 0.037722412 -0.021138245 -0.08883661 -0.022070799
0.044213977 -0.034222186 -0.09024896 -0.048339482 0.034554154 -0.07912174 0.02697899 0.06721795
-0.060633846 -0.03413345 -0.0034791376 0.05475164 -0.0059724674 -0.07918798 0.052769806 -0.04257604
-0.0028316367 -0.07189666 0.084317036 0.044827603 0.03143632 0.0881939 -0.12607723 0.10219036
-0.10919697 0.09217242 -0.009425353 0.053193945 0.0025508516 0.05030021 0.14607732 0.09077923
0.051776744 0.030515986 -0.097014286 0.08743092 -0.05420597 0.035107527 -0.04081097 0.0036679967
-0.06533689 0.07395649 -0.03204712 -0.03987191 -0.08310498 0.020155922 -0.019362073 -0.016040795

rnn.rnn.weight_hh_l0 f4 [192, 64]
00000000: 9cb1 6ebd 0cce 3dbd 4682 063e 2e88 0a3e
00000010: 0f74 463d 29c0 0bbe a7f5 933d 907d e73b
00000020: 89ec 18bc 41fa 2cbd 47db e0bd 2909 9a3c
00000030: a08e a8bd c6d9 823d cb6c 37bd 1ee8 a6bd
00000040: dea1 f43c 6e33 29bd 092c b3bd 8e99 00be
00000050: f49b e53d 7d14 02be f69a 043e c136 e03d
00000060: 061b 173e 7f15 e83d 7b10 24bd 989f d33d
00000070: c1ce c03d ac50 713d 4223 b13c 09f3 b5bd
00000080: e3f4 a73c 0049 d5bc e38a 92bd dff7 ae3d
00000090: 3aec 20bd b8da b4bd bc46 98bd 0cd6 863c
000000a0: 70c1 9abd 219b 4cbd a568 76bd 8523 923d
000000b0: 0355 92bc 2d98 fabc 771d e63d 25c2 d83c
000000c0: 6321 f3bb df48 8dbb 4884 583d c247 813d
000000d0: 62b3 08bc 1c83 8e3d 0a72 11be 64c6 783d
000000e0: 9a52 ddbc e72a ce3c 9200 5a3d 2a86 df3d
000000f0: 64a3 bdbd 3f14 fabc 8857 01bc ae83 2cbd
00000100: 6d4f 7e3a 3f70 babd 1c19 9b3c ce98 66bd
00000110: 53b0 6bbd f71b 493e d158 393b 2027 33bd
00000120: 75af b13c 5b60 e23d d5d1 d7bd fa43 b5bc
00000130: d3d5 c4bc 9d08 b4bb 955e adbb 1e47 dabc
00000140: 3d4b 68bd 4048 d2bd 3382 cc3d 2058 1bbc
00000150: 158c 223d 34f6 813d ede0 2e3c 211b ac38
00000160: 7504 b23a d676 9cbd bdbe c93d 23d5 05bd
00000170: 9477 72bc 48ac f9bc 132a 753d b43c 83bc
00000180: 1385 003c d59b c53d c48d 043e af6e a53d
00000190: 3e3c c33c 4aaf cfbb 615b 5ebc c86b 63bd
000001a0: e390 fabc f475 34bd 3c9b 813d 9aa2 7f3a
000001b0: 41fc 6ebd 70a9 bf3d 9f72 e8ba aaa9 583e
000001c0: 844c 99bb c702 32bc 2836 6e3d a8cc 983d
000001d0: c253 ed3d 6589 b7bd 1647 41bd a406 1f3e
000001e0: 7e61 933d 1508 4dbd 16ea fe3d d216 92bc
000001f0: 669e 1cbc 74e5 7e3d c49d f93c 4b02 b13c
00000200: 2f0f f6bd 1396 ccbc a5a6 4dbd f308 8fbb
00000210: 91d7 3a3d 07a3 2e3d 92f6 c33d baa5 44bc
00000220: 778d 1abc 614f e9bd 9273 8cbd 7256 8eba
00000230: 2af4 553d 651d 77bc ff0e 043e 6621 1f3a
00000240: 5f59 413d 6166 8ebd adeb 3ebd e9ce 26bd
00000250: d4c9 36bd 5b80 ad3d 3644 943d cc6f a5bd
00000260: 0a2f 9d3d da9a 873d 3b87 8fbd c953 683d
00000270: c99e 8e3b 5849 c03c 4dcd b23c ff03 a6bd
00000280: caa6 3c3e 3186 66bd 0f35 a0bc 3cde bc3c
00000290: 80e2 173d 2c77 a4bd 1ef4 f3bc e098 113e
000002a0: f0af cb3d f44a 133d e648 893b 291e 013d
000002b0: 5f38 21bd 7226 153d fbc1 26bd d7f1 c03d
000002c0: 9683 033e 3a42 b03d 5fba 88bc 6e13 86bd
000002d0: a239 0d3d b656 74bd 9e39 b13c 4f38 cc3c
000002e0: 57b4 213b 4c9b 2fbd 4ce3 e03d 190a 4abd
000002f0: b107 913b f644 76bd 9998 17be 6ba1 2d3e
00000300: c3bd a73c b468 f7bd d391 903d 7e10 ea3a
00000310: 1f7a f0bc 882f 20bd 6b48 a03c 8877 95bd
00000320: 4f51 f13c 3054 9dbc 8751 323d a3ea 24bd
00000330: 6201 a5bd 9530 073c db18 48bd c880 dabd
00000340: 5fe5 03bd 04ca 923b 4ad8 653d 37f7 b43d
00000350: 6da8 98bc ccf1 da3c e3ec 1c3d af80 6cbc
00000360: 241f c7bd eb2a ccbc 1d74 06bd d3b6 00bc
00000370: 54d7 2a3d dc49 2d3c 1f25 4ebc 42e6 b5bd
00000380: 325d 9b3d 7455 7e3d 52af b3bd be90 4dbd
00000390: a7e1 c9bd 76bc e63d c4c5 bfbd 4271 873d
000003a0: e4f1 da3d 6493 6f3d 18a3 c6bd 216e 0abe
000003b0: 6366 b83c f3c9 5c3d 28da bb39 5bb2 3fbd
000003c0: 7e4e 13bd bc37 72bd 8ae0 acbd 9b08 88bd
000003d0: 9416 603d 7746 9b3c 5145 213c 6240 9f3d
000003e0: 3d11 083d 0f4b 0dbe 5e9d bb3d 84e5 3e3e
000003f0: 0796 893d 097b 123d b07f d63c 3963 fbbc
-0.05827485 -0.04633908 0.13135633 0.13528511 0.048450526 -0.13647522 0.07224589 0.0070645288
-0.009333738 -0.04223085 -0.10979324 0.018803196 -0.082303286 0.06389193 -0.044781487 -0.081497416
0.02986234 -0.041308813 -0.087486334 -0.12558576 0.11211386 -0.12703128 0.12949738 0.109479435
0.14756402 0.11332225 -0.04005478 0.103331745 0.09414435 0.058914825 0.021623258 -0.08884246
0.020502513 -0.026035786 -0.07155397 0.085433714 -0.039287783 -0.0883078 -0.074353665 0.016459487
-0.075564265 -0.04995263 -0.06015839 0.07135681 -0.017862802 -0.030590141 0.11236089 0.026459763
-0.0074197515 -0.0043116654 0.05286053 0.06312515 -0.008343549 0.06958601 -0.14203659 0.060736075
-0.027016927 0.025166942 0.0532232 0.10914262 -0.0925968 -0.030527232 -0.007894404 -0.042117767
0.00097011664 -0.091034405 0.018932872 -0.05629807 -0.057541203 0.19639574 0.0028281698 -0.043738484
0.02169011 0.110535346 -0.10538069 -0.02212714 -0.02402774 -0.005494191 -0.005290816 -0.02664524
-0.056712378 -0.10267687 0.09985771 -0.00948146 0.039684374 0.06345788 0.010673744 8.206652e-05
0.001358165 -0.07639854 0.098508336 -0.032673966 -0.014799017 -0.030477658 0.05985458 -0.016020156
0.007844227 0.09648863 0.12944704 0.08077752 0.023832437 -0.0063380348 -0.013571591 -0.05552271
-0.030586665 -0.0440578 0.06328437 0.00097517075 -0.058346037 0.093584895 -0.0017734355 0.21158472
-0.004678311 -0.01086492 0.058157116 0.0746091 0.11588241 -0.08961753 -0.047186933 0.15529877
0.071963295 -0.050056536 0.12446992 -0.017833147 -0.0095592495 0.062230542 0.030470736 0.021607539
-0.12014615 -0.024973905 -0.050207753 -0.0043650805 0.045615736 0.042635944 0.09568514 -0.012002403
-0.009433142 -0.113920934 -0.06857981 -0.0010859503 0.052234806 -0.015082692 0.12896346 0.00060703454
0.04720437 -0.06953121 -0.046611477 -0.04072467 -0.044626072 0.084717475 0.07239573 -0.08077964
0.076749876 0.066213325 -0.07008215 0.05672053 0.0043524248 0.023472473 0.02182641 -0.08106231
0.18423 -0.05628032 -0.01955655 0.023055188 0.03708124 -0.08030543 -0.02977949 0.14218473
0.09945667 0.035960153 0.0041895984 0.031522904 -0.0393604 0.036413617 -0.040712338 0.09421127
0.12843165 0.08606382 -0.016690431 -0.06546675 0.03447879 -0.059653006 0.02163392 0.024929194
0.0024674141 -0.042872712 0.109808534 -0.049326036 0.0044259657 -0.06012436 -0.14804305 0.16956107
0.020476228 -0.120805174 0.07059064 0.0017857698 -0.029355107 -0.03910783 0.019565782 -0.072981894
0.029457716 -0.019205183 0.04353478 -0.04026283 -0.080569044 0.008251329 -0.04885183 -0.10669094
-0.032201167 0.0044796485 0.056114472 0.08836215 -0.018635 0.026726626 0.03831185 -0.014434977
-0.097227365 -0.024922809 -0.032825578 -0.007856089 0.04170926 0.0105766915 -0.012582093 -0.08881809
0.07586135 0.062093213 -0.08773674 -0.050186865 -0.09857493 0.11266415 -0.09363893 0.06613399
0.10690668 0.058490172 -0.096990764 -0.13518573 0.02250976 0.05390353 0.00035829959 -0.046800952
-0.035963528 -0.059135184 -0.08441265 -0.06642266 0.054709032 0.018954499 0.0098431865 0.07775952
0.033219565 -0.13798164 0.09160875 0.18642241 0.067180686 0.035761867 0.026183933 -0.030686961
