onpolicy/scripts/results/MPE/simple_spread/rmappo/check/wandb/run-20220705_094856-35k06fct/files/actor.pt (torch, 147692 bytes, 22 tensors)

base.feature_norm.weight f4 [18]
0	0x3f6b450e	0.91902244
1	0x3f77d856	0.9681448
2	0x3f7e7b9b	0.99407357
3	0x3f73a468	0.9517274
4	0x3f810410	1.0079365
5	0x3f85bd8f	1.0448474
6	0x3f7d0505	0.98835784
7	0x3f8149f7	1.0100697
8	0x3f820a02	1.0159304
9	0x3f8312b9	1.0240089
10	0x3f82591e	1.0183446
11	0x3f7a7c78	0.97846174
12	0x3f7ffab8	0.9999194
13	0x3f81e121	1.0146829
14	0x3f6acead	0.9172161
15	0x3f825cda	1.0184586
16	0x3f8164b6	1.010886
17	0x3f74d89e	0.9564303

base.feature_norm.bias f4 [18]
0	0x3c363ddc	0.011123147
1	0xbbc8eefd	-0.0061320052
2	0x3d37a431	0.04483432
3	0xbcc10bf7	-0.023565276
4	0xbd6645ba	-0.05621884
5	0x3c154e6d	0.009112936
6	0xbc39d444	-0.011342112
7	0xbc2182b8	-0.009857826
8	0xbcefe5bd	-0.029284352
9	0xbc9e46d3	-0.019320881
10	0xbbde54d8	-0.0067850165
11	0xbcdb59b4	-0.026776172
12	0x3cbdcb88	0.02316834
13	0xbcc9f4bd	-0.024652833
14	0x3d7c023b	0.061525565
15	0xbd2e3688	-0.042532474
16	0x3ca8d54b	0.020609519
17	0x3ca58f2c	0.020209871

base.mlp.fc1.0.weight f4 [64, 18]
0	0xbe5bb3fa	-0.21455374
1	0x3e7517fc	0.2393493
2	0x3e5a0384	0.21290404
3	0x3e3e512b	0.1858565
4	0x3e3f8d2e	0.187062
5	0xbad21278	-0.0016027233
6	0xbd293420	-0.041309476
7	0x3e85d923	0.26142225
8	0xbe80a646	-0.25126857
9	0xbe9dbbbd	-0.30807295
10	0xbd86544d	-0.06559048
11	0x3d06308b	0.032761138
12	0xbe1b6393	-0.15174703
13	0xbe2fbbad	-0.17161436
14	0x3e8eec67	0.27914736
15	0xbe0c18b8	-0.13681304
16	0x3db091d5	0.08621565
17	0x3e2c79c2	0.16843322
18	0x3e3014df	0.17195462
19	0xbe6e65ad	-0.23280974
20	0xbdc086d7	-0.09400719
21	0x3d3cf4de	0.04613196
22	0x3bfcd4a7	0.00771578
23	0xbf0b4bd9	-0.5441261
24	0x3e01ac40	0.12663364
25	0xbe9efb82	-0.3105126
26	0xbe81c0b1	-0.25342324
27	0xbe84b295	-0.25917497
28	0x3deb0d61	0.11477161
29	0xbde50d1d	-0.11184142
30	0xbe2f4e97	-0.17119823
31	0x3e726c66	0.23674163
32	0xbdade661	-0.08491207
33	0x3d93ee08	0.07223135
34	0xbe83d763	-0.25750265
35	0x3e362a67	0.17789613
36	0xbd9490a2	-0.07254149
37	0x3e69690b	0.22793977
38	0x3c7433f3	0.014904964
39	0xbe508549	-0.20363344
40	0xbe1e88e2	-0.15481904
41	0x3ec8a321	0.39186957
42	0xbf18827f	-0.5957412
43	0x3e5e0e67	0.21685182
44	0xbe687e8b	-0.22704522
45	0xbd044ddf	-0.032300826
46	0xbdd23a4b	-0.10265025
47	0x3dbe8bf9	0.093040414
48	0xbc9b6d2d	-0.018972958
49	0xbe48837c	-0.19581407
50	0xbd55cc21	-0.052196626
51	0xbdfe712d	-0.1242393
52	0x3dbf73b3	0.0934824
53	0xbd35fa1d	-0.04442798
54	0x3e0ba003	0.13635258
55	0xbdb0e78e	-0.086379156
56	0x3c618356	0.013764223
57	0xbe3735d2	-0.17891625
58	0xbea4bf78	-0.3217733
59	0x3e8abc64	0.27096856
60	0x3e43f527	0.19136487
61	0xbf14bcc8	-0.5810056
62	0x3e32536a	0.17414632
63	0xbeb79ee0	-0.358634
64	0x3eb13f96	0.34618825
65	0xbe178e86	-0.14800462
66	0x3c899bef	0.016797988
67	0x3e8ea746	0.27861995
68	0x3e917237	0.28407452
69	0x3c7a260b	0.015267859
70	0x3e69339e	0.22773597
71	0x3e53df43	0.20690636
72	0xbd133672	-0.035940595
73	0x3e28da1f	0.16489457
74	0xbe4fcd5f	-0.20293187
75	0x3e88439c	0.26614082
76	0xbe71a766	-0.23599014
77	0x3e608b3d	0.21928115
78	0xbe06a539	-0.13148965
79	0x3db79395	0.08963696
80	0xbef8c550	-0.48588037
81	0xbe8bc3b8	-0.2729776
82	0x3d3819f0	0.04494661
83	0xbedb3557	-0.42814133
84	0xbdbc19c3	-0.09184601
85	0x3e964706	0.29351062
86	0x3e2d3f3c	0.16918653
87	0x3c957c32	0.018247698
88	0xbe4df7b2	-0.2011402
89	0xbdba7535	-0.09104387
90	0x3dafba67	0.08580475
91	0x3e9a8471	0.3017917
92	0xbec6c81e	-0.38824552
93	0x3e8ba7b8	0.27276397
94	0x3de8c363	0.11365392
95	0xbe5cb43a	-0.21553126
96	0x3d483b78	0.04888484
97	0xbcfaeb33	-0.03062973
98	0x3e838a0f	0.25691268
99	0xbe7cb584	-0.24678618
100	0xbe09d5bf	-0.13460444
101	0x3e78609a	0.242556
102	0xbd17a666	-0.037023924
103	0xbbe32219	-0.006931555
104	0x3e8dc5ca	0.27689964
105	0x3e4a670c	0.19765872
106	0xbeaed9d5	-0.34150568
107	0xbe4d0993	-0.20023184
108	0xbce18e63	-0.027533716
109	0xbc1d2dfa	-0.009593481
110	0x3e98e29a	0.29860383
111	0x3e09a7ba	0.13442889
112	0x3ea5c32e	0.32375473
113	0xbc3bde06	-0.011466509
114	0xbec8795f	-0.391551
115	0xbb3eddc5	-0.0029123884
116	0x3e07c36f	0.13258146
117	0xbe9d49eb	-0.30720457
118	0x3e27fa73	0.16404133
119	0xbe1a77ab	-0.15084712
120	0xbc9eabc7	-0.01936902
121	0x3e5aee11	0.21379878
122	0x3d45f0d1	0.048325364
123	0xbe5e3350	-0.21699262
124	0xbe220422	-0.15821889
125	0xbad23780	-0.0016038269
126	0xbe91425e	-0.28370947
127	0xbf20f3b1	-0.62871844
128	0xbddb85a3	-0.107188486
129	0xbeb08e4d	-0.34483567
130	0xbc9c8a42	-0.019108895
131	0x3e4a3465	0.1974655
132	0x3ed4584a	0.4147361
133	0x3da4311d	0.0801718
134	0xbe14be8c	-0.14525813
135	0xbe82db95	-0.25558153
136	0xbea6c630	-0.3257308
137	0x3ecfa6f6	0.4055707
138	0x3d22702e	0.039657764
139	0x3cb8c0a1	0.02255279
140	0xbd03fae0	-0.032221675
141	0xbea06136	-0.31324166
142	0xbe10442d	-0.14088507
143	0x3e5ac225	0.21363123
144	0xbe15cefd	-0.14629741
145	0xbe49ddd8	-0.19713533
146	0x3e9bbf11	0.3041921
147	0x3e8842fa	0.266136
148	0x3e233761	0.15939094
149	0x3e1e0ce1	0.154346
150	0xbe8f231e	-0.2795648
151	0xbe188712	-0.14895275
152	0xbdcebcd0	-0.10094607
153	0x3e92e1e8	0.28687978
154	0xbef05911	-0.46942952
155	0x3da788aa	0.081803635
156	0xbeb18ebb	-0.34679207
157	0xbda28796	-0.07936017
158	0xbd627f77	-0.05529734
159	0x3dbeb792	0.09312357
160	0xbe815e09	-0.25267056
161	0xbe9a4ee0	-0.30138302
162	0x3c352e7b	0.011058445
163	0xbe9ff21b	-0.312394
164	0x3e6d3b03	0.23167042
165	0x3db4a685	0.088208236
166	0xbdb168ad	-0.086625434
167	0xbdce8a29	-0.10084946
168	0xbd679522	-0.05653871
169	0xbe46f666	-0.19429931
170	0xbe5561d5	-0.20838101
171	0xbe15a7e1	-0.14614822
172	0xbde7174a	-0.11283739
173	0x3cdf1eb5	0.027236322
174	0x3ef953a9	0.4869664
175	0xbe3ee9f0	-0.18643928
176	0x3ec40e2c	0.38292062
177	0xbd3155ab	-0.04329459
178	0x3db3f941	0.08787776
179	0xbe9e7a53	-0.309527
180	0xbe037efa	-0.12841406
181	0xbea55d50	-0.32297754
182	0xbe2a38bb	-0.16623203
183	0xbc81b691	-0.015834125
184	0xbeb1eff0	-0.3475337
185	0xbe199894	-0.1499961
186	0xbe306ff0	-0.17230201
187	0xbe935d38	-0.28782058
188	0xbd98d857	-0.074631386
189	0xbdf81983	-0.12114241
190	0x3df2b202	0.118503585
191	0x3e051500	0.12996292
192	0xbe5a8310	-0.21339059
193	0x3de2b4a4	0.11069611
194	0xbcddf3d8	-0.027093813
195	0xbe7a7437	-0.24458395
196	0xbe480b68	-0.19535601
197	0xbed90d16	-0.42392796
198	0x3db43013	0.08798232
199	0x3c92916e	0.017891612
200	0x3eabb4c6	0.33536357
201	0xbe770de8	-0.24126399
202	0x3e34663f	0.17617129
203	0x3d7726f2	0.060339876
204	0x3db47128	0.08810645
205	0x3d28d62d	0.04121988
206	0xbd2c6622	-0.04208959
207	0x3d9152b8	0.070958555
208	0x3e230c7e	0.15922734
209	0xbe44f388	-0.19233525
210	0x3df1e633	0.11811485
211	0xbc869736	-0.016429525
212	0x3cebfa23	0.028805798
213	0x3d655da1	0.055997495
214	0x3e2b6758	0.16738641
215	0x3e90c7ff	0.28277585
216	0x3d22591f	0.039635774
217	0x3e6a4684	0.22878462
218	0x3d89a4bc	0.06720874
219	0x3e432d48	0.19060242
220	0xbe4a1e18	-0.19738042
221	0x3e97e68c	0.2966808
222	0x3e8ae93d	0.27131072
223	0x3e1df573	0.15425663
224	0xbf0649d1	-0.52456385
225	0xbbc9696b	-0.0061466
226	0x3e20aee6	0.15691718
227	0x3eaf4e34	0.34239352
228	0xbd253c34	-0.040340617
229	0xbd330bff	-0.043712612
230	0x3e584d12	0.2112315
231	0x3e997d88	0.29978585
232	0xbf049b5b	-0.51799554
233	0xbe903a58	-0.28169513
234	0x3d1a4898	0.037666887
235	0x3d051289	0.03248838
236	0x3e1eb3d2	0.15498284
237	0x3b05d16f	0.0020419022
238	0x3df01faa	0.117247894
239	0x3ec7f9af	0.3905768
240	0x3df66547	0.12031036
241	0xbdb4a5c6	-0.08820681
242	0x3e01040f	0.12599204
243	0xbda74589	-0.0816756
244	0xbe72761d	-0.23677869
245	0xbebb848c	-0.36624563
246	0xbee05905	-0.43817917
247	0xbeb2125e	-0.34779638
248	0xbd908d51	-0.07058204
249	0x3ef96d68	0.48716283
250	0x3e13a673	0.14418964
251	0xbe47682f	-0.19473337
252	0xbaa580ef	-0.0012626926
253	0xbdd70749	-0.104994364
254	0x3e18d03f	0.1492319
255	0xbc883c28	-0.016630247

base.mlp.fc1.0.bias f4 [64]
0	0x3d524b3d	0.051341284
1	0xbd3315fa	-0.04372213
2	0x3db534e3	0.08847978
3	0x3cfbaaec	0.03072115
4	0x3d2fa86f	0.04288524
5	0xbce0d2de	-0.0274443
6	0x3c4b912e	0.01242475
7	0x3d2d0613	0.04224212
8	0xbc73449c	-0.014847901
9	0x3c5cf7d4	0.013486821
10	0x3c59fe92	0.013305323
11	0x3b3e4f14	0.0029038833
12	0xbba3bd5a	-0.0049969377
13	0xbcc7ee7e	-0.024405714
14	0xbbd7a522	-0.0065809647
15	0x3a43b823	0.0007466098
16	0x3c76c10b	0.0150606735
17	0xbc296c35	-0.01034074
18	0xbbb8406f	-0.0056229155
19	0x3d11b3e2	0.03557194
20	0x3d10efb0	0.035384834
21	0x3d175ade	0.036951892
22	0xbca0e035	-0.01963816
23	0xbd27d923	-0.040978562
24	0xbc0eabc0	-0.008707941
25	0xbd5b1d79	-0.053494904
26	0x3c9b6e57	0.018973513
27	0xbd0ee29f	-0.03488409
28	0xbd51333e	-0.05107426
29	0x3ce7b955	0.028286615
30	0x3d4b64c0	0.04965663
31	0xbd0d410a	-0.034485854
32	0x3d02b813	0.031913828
33	0xbce319fd	-0.027722353
34	0x3bd677a1	0.0065450226
35	0xbc9b5d0c	-0.018965267
36	0x3d751e42	0.05984331
37	0x3d2c6e16	0.042097174
38	0xbd08bcaa	-0.03338305
39	0x3ce2504f	0.027626185
40	0x3cb6c962	0.022312824
41	0x3d4c78bb	0.049919825
42	0xbc4a59b4	-0.012350488
43	0xbce9fd3d	-0.028563136
44	0xbd9337b6	-0.071883604
45	0xbd6bc45b	-0.057560306
46	0x3d57bd52	0.052670784
47	0xbcf4adb5	-0.029867986
48	0x3d5178fb	0.051140767
49	0xbcab118e	-0.020882394
50	0xbcdad740	-0.026713967
51	0x3d5e4856	0.054268204
52	0xbd09b341	-0.033618215
53	0x3b66111a	0.0035105408
54	0xbd570afb	-0.052500706
55	0x3d560482	0.052250393
56	0x3c921eb8	0.017836913
57	0xbc12370c	-0.008924257
58	0x3b2f170d	0.002671662
59	0xbbaf8fb6	-0.005357708
60	0xbca32ce3	-0.019918865
61	0xbaf243ac	-0.0018483303
62	0x3d400b18	0.04688558
63	0x3ccb73b0	0.024835438

base.mlp.fc1.2.weight f4 [64]
0	0x3f807013	1.0034202
1	0x3f85073c	1.0392833
2	0x3f81871e	1.011936
3	0x3f89c19d	1.0762211
4	0x3f740c08	0.9533086
5	0x3f861432	1.0474913
6	0x3f6f5fa8	0.93505335
7	0x3f831ba1	1.0242807
8	0x3f869875	1.0515276
9	0x3f819858	1.0124617
10	0x3f75348f	0.95783323
11	0x3f753b7b	0.95793885
12	0x3f809d8e	1.0048082
13	0x3f87cbc7	1.0609063
14	0x3f80b0a3	1.0053905
15	0x3f861275	1.0474383
16	0x3f733254	0.9499867
17	0x3f875341	1.0572282
18	0x3f7432b7	0.95389885
19	0x3f82f967	1.0232362
20	0x3f84b2f7	1.0367116
21	0x3f7ae266	0.98001707
22	0x3f86f730	1.0544186
23	0x3f80a164	1.0049253
24	0x3f70ec0c	0.9411018
25	0x3f793b42	0.97356045
26	0x3f84998f	1.0359362
27	0x3f843d7a	1.0331261
28	0x3f7c656e	0.9859227
29	0x3f821129	1.0161487
30	0x3f84a42a	1.0362599
31	0x3f7f1588	0.9964223
32	0x3f81fd76	1.0155475
33	0x3f8023cf	1.0010928
34	0x3f82113f	1.0161513
35	0x3f80e281	1.0069124
36	0x3f8afec4	1.0858998
37	0x3f77f092	0.96851456
38	0x3f78c7ac	0.97179675
39	0x3f863625	1.0485274
40	0x3f767085	0.9626544
41	0x3f8681cf	1.0508364
42	0x3f81302c	1.0092826
43	0x3f8383f0	1.0274639
44	0x3f6dd5e4	0.92904496
45	0x3f7d43d9	0.9893165
46	0x3f85dcf4	1.0458055
47	0x3f87a2c4	1.0596547
48	0x3f76b9e6	0.9637741
49	0x3f7423c5	0.9536708
50	0x3f8102b0	1.0078945
51	0x3f88bcc9	1.0682613
52	0x3f7d1725	0.9886344
53	0x3f7007ee	0.937621
54	0x3f7d220d	0.9888008
55	0x3f70b73c	0.94029593
56	0x3f7d2dcf	0.98898023
57	0x3f7717db	0.96520776
58	0x3f86da70	1.0535412
59	0x3f85a2df	1.0440329
60	0x3f86b1bd	1.0522991
61	0x3f7672a1	0.9626866
62	0x3f89dff4	1.077147
63	0x3f73d856	0.9525198

base.mlp.fc1.2.bias f4 [64]
0	0x3cfe6638	0.031054601
1	0xbcc29557	-0.023752851
2	0x3d52d70a	0.05147461
3	0x3d71c62a	0.059026875
4	0xbcf03689	-0.02932288
5	0xbc73a28c	-0.014870297
6	0x3c86721c	0.016411833
7	0x3d246d09	0.040143047
8	0xbd631c1b	-0.055446725
9	0x3d14e629	0.03635231
10	0xbbedcaa5	-0.007256823
11	0xbc4ab4e8	-0.012372233
12	0x3c86ce1b	0.0164557
13	0xbd1ba88b	-0.038002532
14	0x3bc374bc	0.0059648436
15	0xbd329b0f	-0.043604907
16	0xbbbcc595	-0.0057608583
17	0xbc874017	-0.016510053
18	0xbc50eca5	-0.012751733
19	0x3c78d14b	0.015186618
20	0x3d1968d3	0.037453484
21	0xbd26c9b6	-0.04071971
22	0xbca39297	-0.01996736
23	0xbd0c15be	-0.034200422
24	0x3c022d9a	0.007945443
25	0xbd155794	-0.036460474
26	0x3ba11cb4	0.0049167518
27	0xbd036b89	-0.032084975
28	0xbd03a363	-0.03213824
29	0x3bf014ac	0.007326683
30	0x3d90f4bf	0.070779316
31	0xbd18c743	-0.037299406
32	0x3cd18bf8	0.025579438
33	0xbce654b3	-0.02811656
34	0xbc34b453	-0.011029321
35	0xbcb030f4	-0.021507718
36	0x3d35691f	0.044289704
37	0x3cc2dfcb	0.023788353
38	0xbccaee37	-0.024771793
39	0x3cc15af8	0.023602948
40	0x3d38b694	0.045095995
41	0x3cd3af2c	0.025840364
42	0x3b0e495c	0.0021711206
43	0xbc6d4a81	-0.014483095
44	0xbd914855	-0.07093874
45	0xbd3c1549	-0.045918737
46	0x3ce1e1df	0.027573524
47	0xbc9529d6	-0.018208425
48	0x3c0db432	0.008648919
49	0xbcacf7b1	-0.021114202
50	0xbcb53bde	-0.022123273
51	0x3c93b7b4	0.018031932
52	0xbc03a01f	-0.008033781
53	0x3c70786e	0.01467715
54	0xbd076370	-0.033053815
55	0x3c1ab779	0.009443157
56	0x3c3891f7	0.0112652695
57	0xbc0ebf6f	-0.0087126335
58	0x3c1a8de0	0.00943324
59	0xbc1836e6	-0.009290433
60	0xbcd18720	-0.025577128
61	0xbc0b9123	-0.00851849
62	0x3d080515	0.03320797
63	0x3c972a25	0.018452713

base.mlp.fc_h.0.weight f4 [64, 64]
0	0xbe48178a	-0.1954023
1	0x3e523854	0.205293
2	0xbe2f111f	-0.17096375
3	0xbde74d2b	-0.112940155
4	0x3eb8df09	0.36107662
5	0xbd8202be	-0.06348179
6	0x3da5102f	0.080597274
7	0xbd45f922	-0.048333295
8	0xbd1623a6	-0.03665509
9	0x3d2a41c1	0.041566614
10	0x3b9baca4	0.004750805
11	0xbe7f7ae9	-0.2494923
12	0x3ddfca51	0.10927261
13	0xbdabe201	-0.08392716
14	0x3e370362	0.17872384
15	0x3eacf989	0.3378413
16	0xbe68b9b2	-0.22727087
17	0xbdb042b0	-0.0860647
18	0x3ed28a26	0.41121024
19	0xbe910794	-0.28326094
20	0xbe9f4571	-0.31107667
21	0x3dc41635	0.09574548
22	0x3f0742c8	0.52836275
23	0xbe4d9204	-0.20075232
24	0xbe5ee91e	-0.21768615
25	0xbe04cc3c	-0.12968534
26	0xbb2d9fd0	-0.002649296
27	0x3d6f9873	0.058494996
28	0x3e2eb9bf	0.17063044
29	0x3d4a62e2	0.04941071
30	0xbcaf2f8a	-0.021384973
31	0x3ea6518b	0.32484087
32	0x3ec02d95	0.37534776
33	0xbe5231fe	-0.20526883
34	0xbdcfa95a	-0.10139723
35	0x3b47cf75	0.0030488644
36	0xbe5f9e45	-0.21837719
37	0x3d54b9c7	0.051934984
38	0xbcbfbca9	-0.02340539
39	0x3e3bd9b0	0.1834476
40	0x3e838786	0.25689334
41	0x3d39ae75	0.04533239
42	0xbe161449	-0.14656176
43	0x3c86929d	0.016427333
44	0xbeb2df8e	-0.34936184
45	0x3e33e161	0.17566444
46	0xbeaee2d0	-0.3415742
47	0xbe896eec	-0.2684244
48	0xbe06d57c	-0.13167375
49	0xbddb5340	-0.10709238
50	0xbd3cbed9	-0.046080444
51	0xbe937b41	-0.28804973
52	0x3d76f34d	0.060290623
53	0x3e465f15	0.19372208
54	0xbe8530f7	-0.2601392
55	0x3e545bcb	0.20738141
56	0xbd26f169	-0.04075757
57	0x3d39e790	0.04538685
58	0xbdf23168	-0.1182583
59	0xbf0fc311	-0.5615702
60	0xbdee779e	-0.11643909
61	0x3d436848	0.047706872
62	0x3ca2efe0	0.019889772
63	0xbe0b3835	-0.1359566
64	0x3daef655	0.08543078
65	0x3c124772	0.008928167
66	0x3ef81a5b	0.48457608
67	0xbdaf4876	-0.08558743
68	0xbe1aa2d7	-0.15101181
69	0x3e102d96	0.1407989
70	0xbd43a6d7	-0.047766533
71	0xbe254b0d	-0.16141911
72	0xbec20b6e	-0.37899345
73	0x3cb9796b	0.022640904
74	0xbdd70f74	-0.10500994
75	0xbc70e95d	-0.014704076
76	0xbdf77592	-0.12082972
77	0x3d23b726	0.039969586
78	0x3e8e0d8a	0.27744704
79	0x3dddb896	0.108262226
80	0x3e1a6f87	0.15081607
81	0xbeceeddf	-0.40415856
82	0xbe278e9f	-0.16363
83	0x3e2196cf	0.15780185
84	0xbdbccd9a	-0.09218903
85	0xbea095d9	-0.31364325
86	0x3d44489e	0.047920816
87	0x3cdb90af	0.026802389
88	0xbd12f7a5	-0.035880703
89	0xbd1cca88	-0.038279086
90	0x3e08852e	0.13332054
91	0x3d901622	0.070354715
92	0x3edad144	0.42737782
93	0x3dc9cc97	0.098534755
94	0xbd7f013c	-0.062257037
95	0x3ed81f3a	0.42211324
96	0xbe1920c1	-0.14953901
97	0xbd8db125	-0.06918553
98	0x3e393d36	0.18089756
99	0x3e1dff44	0.15429407
100	0xbe94692e	-0.28986496
101	0xbe686a8c	-0.22696894
102	0x3e22a7d4	0.15884334
103	0xbe47b43e	-0.1950235
104	0xbe2cd7da	-0.16879216
105	0xbce329df	-0.027729927
106	0x3efad8e5	0.48993602
107	0xbead723b	-0.33876213
108	0x3e6e3471	0.23262192
109	0x3e79c9c3	0.24393372
110	0xbd2655d8	-0.04060921
111	0x3e11dafc	0.14243692
112	0xbe93b330	-0.28847647
113	0xbd59bf23	-0.053160798
114	0x3c7e5798	0.015523814
115	0xbe8d2705	-0.27568832
116	0x3c96912b	0.018379768
117	0xbe818206	-0.25294513
118	0xbd568eef	-0.052382406
119	0x3e742351	0.23841597
120	0xbe9a9370	-0.3019061
121	0xbc2df271	-0.010616885
122	0xbe77a484	-0.24183851
123	0x3b52bb86	0.003215523
124	0x3d7876c8	0.060660154
125	0xbe07747d	-0.1322803
126	0x3ed44178	0.414562
127	0x3e0ad2f3	0.13557033
128	0xbebf484a	-0.3735984
129	0x3e42840c	0.18995684
130	0xbdbee87c	-0.093216866
131	0xbd0fa98c	-0.035073802
132	0xbe29d740	-0.16586018
133	0xbcf80b7a	-0.03027891
134	0x3dd9394d	0.106066324
135	0x3e1eda45	0.1551295
136	0x3e37657f	0.17909811
137	0x3d9ce956	0.07661693
138	0xbd9e879b	-0.077407084
139	0xbcce5bdf	-0.025190292
140	0x3e04c473	0.12965564
141	0x3c299fa3	0.010353002
142	0xbd2907df	-0.041267272
143	0x3d56ee04	0.052473083
144	0xbe6df79f	-0.23238991
145	0x3bb3400c	0.0054702815
146	0xbea8a5ef	-0.32939097
147	0xba203415	-0.00061112765
148	0x3e7a3de5	0.24437673
149	0xbdb006e7	-0.085950665
150	0x3d9d0fc3	0.07669022
151	0x3ed2871a	0.411187
152	0xbdb6181b	-0.088913165
153	0x3e290520	0.16505861
154	0xbe3ed59b	-0.18636172
155	0xbc697675	-0.014249434
156	0xbcffe461	-0.03123683
157	0xbdc86740	-0.097853184
158	0xbeba629e	-0.36403364
159	0x3ed0ab81	0.40755847
160	0x3e690d28	0.22758925
161	0x3ea89ef2	0.32933766
162	0xbe09ba5a	-0.13449994
163	0x3e04b68c	0.12960261
164	0x3ea1c92f	0.31598803
165	0xbdf21688	-0.11820704
166	0x3ef30697	0.47465965
167	0xbe90d8fd	-0.2829055
168	0x3dd3491d	0.103166796
169	0xbdf8e63e	-0.1215329
170	0xbebac7b2	-0.3648048
171	0xbe3ca0b6	-0.18420681
172	0xbe77a876	-0.24185356
173	0xbe0afd05	-0.13573082
174	0xbdbb0a89	-0.09132869
175	0x3d31ff12	0.043456145
176	0x3e2d0183	0.16895108
177	0x3ecf437d	0.40481177
178	0xbc103c50	-0.008803442
179	0x3e5290e1	0.2056308
180	0x3e7f1354	0.24909717
181	0xbe4b78d3	-0.1987031
182	0xbda311ff	-0.07962417
183	0x3e9a872a	0.30181247
184	0xbeb5aad3	-0.3548189
185	0x3e4079b6	0.18796429
186	0xbd45d80a	-0.048301734
187	0x3d7602c6	0.06006124
188	0xbe958ca2	-0.29208857
189	0xbe8ddaa3	-0.2770587
190	0x3d93af4c	0.072111696
191	0x3e03e334	0.1287964
192	0xbd3ff330	-0.04686278
193	0xbd6f813e	-0.058472864
194	0x3d451e80	0.04812479
195	0x3ca7cea8	0.020484284
196	0xbdfed909	-0.1244374
197	0xbb21bebe	-0.0024680342
198	0xbe1753dc	-0.14778084
199	0x3dd9a40f	0.10626995
200	0xbe6acc2b	-0.22929446
201	0xbdeac03c	-0.11462447
202	0xbe0f469e	-0.13991782
203	0x3dc94534	0.098276526
204	0xbde5e517	-0.11225336
205	0xbe195a44	-0.1497584
206	0xbdd9f085	-0.106415786
207	0xbd4ea169	-0.0504469
208	0x3e159bbd	0.1461019
209	0xbcda3480	-0.026636362
210	0x3e307484	0.17231947
211	0xbd8fa91b	-0.07014676
212	0x3e68bfa2	0.22729352
213	0xbe2fbe33	-0.17162399
214	0xbe916815	-0.2839972
215	0x3e81639c	0.25271308
216	0xbea0b5df	-0.31388757
217	0x3dc6cbf5	0.097068705
218	0xbebb54d5	-0.3658816
219	0xbe97eb27	-0.29671595
220	0x3ec08d8c	0.37607992
221	0xbd745016	-0.05964669
222	0x3cdbe3c5	0.026842007
223	0x3e844ae6	0.25838393
224	0xbe497ff9	-0.19677724
225	0xbeb9317e	-0.36170572
226	0x3dcbb4ed	0.09946618
227	0x3d2e34e9	0.042530928
228	0xbdbbac39	-0.09163708
229	0x3e38bb00	0.18040085
230	0x3c672d43	0.014109912
231	0xbe289d1d	-0.16466184
232	0x3d75d8a7	0.06002107
233	0xbe3cd22d	-0.1843955
234	0x3e8ac355	0.27102152
235	0xbca95b8e	-0.02067354
236	0xbeb426b5	-0.3518578
237	0xbd4c713b	-0.049912672
238	0xbc5ded02	-0.013545277
239	0xbe9061ba	-0.2819956
240	0x3ed9745a	0.42471582
241	0xbd3bd0d5	-0.045853455
242	0xbdfa84f8	-0.12232393
243	0xbe8296b9	-0.25505617
244	0x3e6e1086	0.2324849
245	0x3e9533e8	0.29141164
246	0xbeaf591f	-0.34247681
247	0xbccc4b70	-0.024938315
248	0x3f19983d	0.5999792
249	0x3eb1b304	0.3470689
250	0x3e9f4bca	0.3111251
251	0x3e6b0e97	0.22954784
252	0xbe1cd299	-0.15314712
253	0xbd46fb2d	-0.048579384
254	0xbdc4b419	-0.096046634
255	0xbcffdd0a	-0.03123333

base.mlp.fc_h.0.bias f4 [64]
0	0x00000000	0.0
1	0x00000000	0.0
2	0x00000000	0.0
3	0x00000000	0.0
4	0x00000000	0.0
5	0x00000000	0.0
6	0x00000000	0.0
7	0x00000000	0.0
8	0x00000000	0.0
9	0x00000000	0.0
10	0x00000000	0.0
11	0x00000000	0.0
12	0x00000000	0.0
13	0x00000000	0.0
14	0x00000000	0.0
15	0x00000000	0.0
16	0x00000000	0.0
17	0x00000000	0.0
18	0x00000000	0.0
19	0x00000000	0.0
20	0x00000000	0.0
21	0x00000000	0.0
22	0x00000000	0.0
23	0x00000000	0.0
24	0x00000000	0.0
25	0x00000000	0.0
26	0x00000000	0.0
27	0x00000000	0.0
28	0x00000000	0.0
29	0x00000000	0.0
30	0x00000000	0.0
31	0x00000000	0.0
32	0x00000000	0.0
33	0x00000000	0.0
34	0x00000000	0.0
35	0x00000000	0.0
36	0x00000000	0.0
37	0x00000000	0.0
38	0x00000000	0.0
39	0x00000000	0.0
40	0x00000000	0.0
41	0x00000000	0.0
42	0x00000000	0.0
43	0x00000000	0.0
44	0x00000000	0.0
45	0x00000000	0.0
46	0x00000000	0.0
47	0x00000000	0.0
48	0x00000000	0.0
49	0x00000000	0.0
50	0x00000000	0.0
51	0x00000000	0.0
52	0x00000000	0.0
53	0x00000000	0.0
54	0x00000000	0.0
55	0x00000000	0.0
56	0x00000000	0.0
57	0x00000000	0.0
58	0x00000000	0.0
59	0x00000000	0.0
60	0x00000000	0.0
61	0x00000000	0.0
62	0x00000000	0.0
63	0x00000000	0.0

base.mlp.fc_h.2.weight f4 [64]
0	0x3f800000	1.0
1	0x3f800000	1.0
2	0x3f800000	1.0
3	0x3f800000	1.0
4	0x3f800000	1.0
5	0x3f800000	1.0
6	0x3f800000	1.0
7	0x3f800000	1.0
8	0x3f800000	1.0
9	0x3f800000	1.0
10	0x3f800000	1.0
11	0x3f800000	1.0
12	0x3f800000	1.0
13	0x3f800000	1.0
14	0x3f800000	1.0
15	0x3f800000	1.0
16	0x3f800000	1.0
17	0x3f800000	1.0
18	0x3f800000	1.0
19	0x3f800000	1.0
20	0x3f800000	1.0
21	0x3f800000	1.0
22	0x3f800000	1.0
23	0x3f800000	1.0
24	0x3f800000	1.0
25	0x3f800000	1.0
26	0x3f800000	1.0
27	0x3f800000	1.0
28	0x3f800000	1.0
29	0x3f800000	1.0
30	0x3f800000	1.0
31	0x3f800000	1.0
32	0x3f800000	1.0
33	0x3f800000	1.0
34	0x3f800000	1.0
35	0x3f800000	1.0
36	0x3f800000	1.0
37	0x3f800000	1.0
38	0x3f800000	1.0
39	0x3f800000	1.0
40	0x3f800000	1.0
41	0x3f800000	1.0
42	0x3f800000	1.0
43	0x3f800000	1.0
44	0x3f800000	1.0
45	0x3f800000	1.0
46	0x3f800000	1.0
47	0x3f800000	1.0
48	0x3f800000	1.0
49	0x3f800000	1.0
50	0x3f800000	1.0
51	0x3f800000	1.0
52	0x3f800000	1.0
53	0x3f800000	1.0
54	0x3f800000	1.0
55	0x3f800000	1.0
56	0x3f800000	1.0
57	0x3f800000	1.0
58	0x3f800000	1.0
59	0x3f800000	1.0
60	0x3f800000	1.0
61	0x3f800000	1.0
62	0x3f800000	1.0
63	0x3f800000	1.0

base.mlp.fc_h.2.bias f4 [64]
0	0x00000000	0.0
1	0x00000000	0.0
2	0x00000000	0.0
3	0x00000000	0.0
4	0x00000000	0.0
5	0x00000000	0.0
6	0x00000000	0.0
7	0x00000000	0.0
8	0x00000000	0.0
9	0x00000000	0.0
10	0x00000000	0.0
11	0x00000000	0.0
12	0x00000000	0.0
13	0x00000000	0.0
14	0x00000000	0.0
15	0x00000000	0.0
16	0x00000000	0.0
17	0x00000000	0.0
18	0x00000000	0.0
19	0x00000000	0.0
20	0x00000000	0.0
21	0x00000000	0.0
22	0x00000000	0.0
23	0x00000000	0.0
24	0x00000000	0.0
25	0x00000000	0.0
26	0x00000000	0.0
27	0x00000000	0.0
28	0x00000000	0.0
29	0x00000000	0.0
30	0x00000000	0.0
31	0x00000000	0.0
32	0x00000000	0.0
33	0x00000000	0.0
34	0x00000000	0.0
35	0x00000000	0.0
36	0x00000000	0.0
37	0x00000000	0.0
38	0x00000000	0.0
39	0x00000000	0.0
40	0x00000000	0.0
41	0x00000000	0.0
42	0x00000000	0.0
43	0x00000000	0.0
44	0x00000000	0.0
45	0x00000000	0.0
46	0x00000000	0.0
47	0x00000000	0.0
48	0x00000000	0.0
49	0x00000000	0.0
50	0x00000000	0.0
51	0x00000000	0.0
52	0x00000000	0.0
53	0x00000000	0.0
54	0x00000000	0.0
55	0x00000000	0.0
56	0x00000000	0.0
57	0x00000000	0.0
58	0x00000000	0.0
59	0x00000000	0.0
60	0x00000000	0.0
61	0x00000000	0.0
62	0x00000000	0.0
63	0x00000000	0.0

base.mlp.fc2.0.0.weight f4 [64, 64]
0	0xbe5bcb37	-0.21464239
1	0x3e82bb0e	0.25533336
2	0xbe466472	-0.19374254
3	0xbe172b93	-0.14762716
4	0x3eabe3cd	0.33572236
5	0xbb8b3954	-0.0042487774
6	0x3d48f9b5	0.049066264
7	0xbd20efb5	-0.039291102
8	0xbd6a5979	-0.057214234
9	0xbc711d55	-0.014716466
10	0xbce52121	-0.027969899
11	0xbe6a7b4d	-0.22898598
12	0x3da3141d	0.07962821
13	0xbdf75343	-0.12076428
14	0x3e579238	0.21051872
15	0x3ec08742	0.37603194
16	0xbe4c7a6c	-0.19968575
17	0xbd8c6c7d	-0.0685663
18	0x3ebd8723	0.37017164
19	0xbe9a7a1e	-0.30171293
20	0xbea897e0	-0.3292837
21	0x3dbeecb2	0.0932249
22	0x3f12475d	0.5714014
23	0xbe25ef16	-0.16204485
24	0xbe7483b0	-0.2387836
25	0xbde38383	-0.11109068
26	0x3d430ac3	0.047617685
27	0x3d10dbb6	0.035365783
28	0x3dedfedb	0.116208754
29	0x3d3fd67e	0.046835415
30	0x3ca1cfe2	0.019752447
31	0x3e9cdbfc	0.30636585
32	0x3eb30b8a	0.3496974
33	0xbe5ea33b	-0.21741955
34	0xbd7fa3c1	-0.062412027
35	0x3bd5a437	0.00651982
36	0xbe6781a1	-0.22608043
37	0x3dd8cf97	0.105864696
38	0x3d07a36c	0.033114836
39	0x3e6cba62	0.23117974
40	0x3e7ae39a	0.24500886
41	0x3c0e725c	0.008694258
42	0xbe125fea	-0.14294401
43	0xbcc35c52	-0.023847733
44	0xbeb7a789	-0.35870007
45	0x3e464006	0.1936036
46	0xbeaf7524	-0.3426906
47	0xbe8d5312	-0.2760244
48	0xbdfa9d8f	-0.12237083
49	0xbda62bf3	-0.081138514
50	0xbc3c3d25	-0.011489187
51	0xbe90014b	-0.28125986
52	0x3d4c14d7	0.049824562
53	0x3e2d01fc	0.16895288
54	0xbe704989	-0.23465551
55	0x3e378010	0.17919946
56	0xbd8717de	-0.06596349
57	0xbc1feb65	-0.009760712
58	0xbe1d1388	-0.15339482
59	0xbf16d310	-0.58915806
60	0xbe05fcc2	-0.130847
61	0x3c1418a0	0.009039074
62	0x3d9a8e9b	0.07546731
63	0xbdbc0ca9	-0.09182102
64	0x3cb4c801	0.022068026
65	0x3ddf797f	0.109118454
66	0x3ed7cbb5	0.42147604
67	0xbdf89236	-0.121372625
68	0xbe4ad5b7	-0.19808088
69	0x3e5ac11d	0.2136273
70	0xbdcbe768	-0.099562466
71	0xbde2a649	-0.110668726
72	0xbeccd4c1	-0.40006068
73	0xbd0d79a6	-0.03453984
74	0xbd869e99	-0.06573219
75	0xbd8e4f59	-0.06948728
76	0xbe185257	-0.1487516
77	0x3cbe5f39	0.023238765
78	0x3ea2c7a1	0.3179293
79	0x3e3927ec	0.18081635
80	0x3e494526	0.19655284
81	0xbed4efca	-0.41589195
82	0xbe347bc2	-0.17625335
83	0x3e1dddd3	0.1541665
84	0xbde48e1f	-0.1115992
85	0xbeaa65e0	-0.3328085
86	0x3e13910f	0.14410804
87	0x3d8da73e	0.069166645
88	0xbdd8eb08	-0.10591704
89	0xbd0ff30b	-0.035143893
90	0x3e1dc549	0.1540729
91	0x3d54e037	0.05197164
92	0x3eb632b3	0.35585555
93	0x3dd490a7	0.10379153
94	0x3d28cc49	0.041210447
95	0x3ed067d9	0.4070423
96	0xbe42115f	-0.18951939
97	0xbda46187	-0.08026414
98	0x3e2eb4f5	0.17061217
99	0x3e1a6102	0.15076068
100	0xbeb67f42	-0.35643965
101	0xbe44a8e7	-0.19205056
102	0x3e14c100	0.14526749
103	0xbe72a77f	-0.23696707
104	0xbe726f95	-0.23675378
105	0xbdec4e9d	-0.11538432
106	0x3efde20e	0.4958653
107	0xbeced6c5	-0.4039823
108	0x3e395820	0.18100023
109	0x3e9416fd	0.2892379
110	0x3c80efb1	0.015739294
111	0x3e108c48	0.14116013
112	0xbe5ac68f	-0.21364807
113	0xbd355bda	-0.04427705
114	0x3bf1e8d4	0.0073824916
115	0xbe7fa3a5	-0.24964769
116	0xbd379dbb	-0.044828158
117	0xbe82c4c0	-0.25540733
118	0x3ccf9611	0.025340112
119	0x3e075a0c	0.13217944
120	0xbe8cbd48	-0.2748816
121	0xbd235276	-0.039873563
122	0xbe4aecdf	-0.19816922
123	0x3cfdfbd3	0.031003868
124	0x3de9f531	0.1142372
125	0xbe0dec1c	-0.138596
126	0x3ef9c009	0.48779324
127	0x3e58cfc2	0.21173003
128	0xbeb1ee0e	-0.34751934
129	0x3e584f25	0.21123941
130	0xbddaf976	-0.10692112
131	0xbd132908	-0.035927802
132	0xbe265a12	-0.16245297
133	0x3c63ef58	0.013912044
134	0x3de58b23	0.11208179
135	0x3e2dc625	0.16970117
136	0x3e5a4655	0.21315892
137	0x3d99ea89	0.07515437
138	0xbdf11d00	-0.117731094
139	0xbd2593a9	-0.040424023
140	0x3e30d583	0.17268948
141	0x3d8dec00	0.06929779
142	0xbd849939	-0.064745374
143	0xbcb88b69	-0.022527413
144	0xbe8602a9	-0.26173905
145	0x3c5bad22	0.013407977
146	0xbe963fed	-0.29345647
147	0xbc6db6dd	-0.01450893
148	0x3e3d0c4b	0.1846172
149	0xbd904dce	-0.0704609
150	0x3dbcda4a	0.09221323
151	0x3ec9472a	0.39312106
152	0xbd890ecd	-0.06692276
153	0x3e46fe2a	0.19432893
154	0xbe714225	-0.23560388
155	0x3da38a29	0.07985336
156	0xbd0560dd	-0.03256308
157	0xbe44991a	-0.19199029
158	0xbed8a042	-0.42309767
159	0x3eb6674e	0.3562569
160	0x3e6ca7f4	0.23110944
161	0x3ea771ba	0.32703954
162	0xbdded8de	-0.10881208
163	0x3e0fe26e	0.1405122
164	0x3e981ada	0.29707986
165	0xbd73d327	-0.059527542
166	0x3ef3b8cf	0.47601935
167	0xbe7ab956	-0.24484763
168	0x3d126f34	0.035750583
169	0xbe0def43	-0.13860802
170	0xbec33c91	-0.38132146
171	0xbe6ba886	-0.23013505
172	0xbe5b6ef3	-0.21429043
173	0xbe220772	-0.15823153
174	0xbd8f4198	-0.06994933
175	0xbcabc729	-0.02096899
176	0x3e1e7443	0.15474038
177	0x3eed2dd5	0.4632403
178	0xbcd5e4f5	-0.026110152
179	0x3e6bf20e	0.23041555
180	0x3e9e5564	0.30924523
181	0xbe436d72	-0.19084719
182	0xbd80b1d6	-0.062839195
183	0x3e8f1e7f	0.27952954
184	0xbec3a272	-0.38209873
185	0x3e71d456	0.23616156
186	0xbe05ecfb	-0.13078682
187	0x3d6dfe1b	0.058103662
188	0xbea73da2	-0.3266421
189	0xbe822f04	-0.25426495
190	0x3dfb672f	0.1227554
191	0x3e0a4160	0.13501501
192	0x39ef3191	0.00045622562
193	0x3b921251	0.00445775
194	0x3d60cbee	0.054881983
195	0x3cb79b9a	0.022413064
196	0xbd816c89	-0.063195296
197	0xbcbe1ff5	-0.023208598
198	0xbdb2e310	-0.08734715
199	0x3dcd2439	0.100166745
200	0xbe68d48c	-0.2273733
201	0xbda180e4	-0.07885912
202	0xbdb8e88e	-0.09028731
203	0x3db6e44f	0.08930265
204	0xbdc33db2	-0.09533252
205	0xbe353be3	-0.17698626
206	0xbda3bdd2	-0.0799519
207	0xbd76b41c	-0.06023036
208	0x3e0816f5	0.13290007
209	0xbcb53763	-0.022121137
210	0x3e156bf1	0.14591958
211	0xbd20f304	-0.039294258
212	0x3e82eae5	0.25569835
213	0xbe2520cc	-0.16125792
214	0xbe8f4b95	-0.27987352
215	0x3e947651	0.28996518
216	0xbe8ac92c	-0.27106607
217	0x3e1626b7	0.14663206
218	0xbebbd4f3	-0.36685905
219	0xbeb74e4d	-0.35801926
220	0x3eac81e4	0.3369285
221	0xbc477409	-0.012173661
222	0x3c42c1d0	0.011887029
223	0x3e8ca977	0.2747304
224	0xbe4a6eea	-0.19768873
225	0xbec86809	-0.39141873
226	0x3d8502e9	0.06494696
227	0x3d71f7ea	0.05907432
228	0xbd8ca6f4	-0.06867781
229	0x3e28fae0	0.16501951
230	0x3cb088cf	0.02154961
231	0xbe319a7c	-0.17344087
232	0xbd892e62	-0.066983
233	0xbe364d25	-0.17802866
234	0x3ea05c6f	0.3132052
235	0xbbf6b35c	-0.0075287055
236	0xbed4539e	-0.41470045
237	0xbda10ac5	-0.07863382
238	0x3d89af18	0.067228496
239	0xbe9f87f2	-0.31158406
240	0x3ed5c118	0.4174888
241	0xbcd6ecba	-0.026235927
242	0xbe09eac8	-0.13468468
243	0xbeb902ab	-0.36134848
244	0x3e43f396	0.1913589
245	0x3e924c58	0.2857387
246	0xbea6fe72	-0.32616
247	0xbd70a014	-0.058746412
248	0x3f1d7046	0.6149944
249	0x3e95d1bf	0.29261586
250	0x3e98cfae	0.29845947
251	0x3e42ac81	0.19011118
252	0xbe0a5d4e	-0.13512155
253	0xbd5f8de1	-0.054578666
254	0xbdcbd714	-0.09953132
255	0xbd7007c6	-0.058601163

base.mlp.fc2.0.0.bias f4 [64]
0	0xbc8fb6ce	-0.017543223
1	0xbc5ccc73	-0.013476479
2	0xbcd8ad80	-0.026449919
3	0x3c9e4c34	0.019323446
4	0x3c9dbe04	0.019255646
5	0x3c0c2912	0.008554714
6	0xbcc4ef92	-0.024040017
7	0xbd709b05	-0.05874159
8	0xbcb5347f	-0.022119759
9	0x3ca8774a	0.020564694
10	0x3be7b1d3	0.007070759
11	0xbd7e4475	-0.062077004
12	0xbd0398d4	-0.03212817
13	0xbca132e4	-0.019677587
14	0xbce15057	-0.02750413
15	0xbd28dff8	-0.04122922
16	0x3cbed57d	0.023295159
17	0x3c7aa160	0.015297264
18	0x3bb528b6	0.0055285348
19	0xbb42af22	-0.0029706438
20	0xbb6984e3	-0.0035632185
21	0x3ab9f0a2	0.0014186094
22	0xbb990480	-0.004669726
23	0xbcb3cf82	-0.021949533
24	0x3d2c7b2d	0.042109657
25	0x3d1d6b1c	0.038432226
26	0x3b7fb70b	0.0039019014
27	0x3b405854	0.0029349523
28	0x3d307909	0.043084178
29	0xbd920ac6	-0.07130961
30	0xbdaa6e75	-0.08321849
31	0xbcdacde8	-0.026709512
32	0x3d9a3327	0.07529288
33	0x3d03bb25	0.032160897
34	0xbcf88a12	-0.030339275
35	0xbc234948	-0.009966202
36	0xbcdeedda	-0.027213026
37	0xbbc0d470	-0.0058846995
38	0x3c7bdd90	0.015372649
39	0x3ccc5001	0.024940493
40	0xbd106ebf	-0.035261866
41	0xba176dec	-0.00057765725
42	0xbd186939	-0.037209723
43	0x3c897bb5	0.01678262
44	0x3ca61e33	0.020278072
45	0x3cea3bce	0.02859297
46	0x3d149b5e	0.036280982
47	0x3c00d566	0.007863378
48	0x3b8e703a	0.0043468745
49	0x3cd910d1	0.026497276
50	0xbcfb8698	-0.030703828
51	0xbc7b8aa4	-0.015352879
52	0x3cdfc35d	0.027314836
53	0x3cbccf69	0.02304812
54	0xbca728b7	-0.020405157
55	0x3caa8e1a	0.020819712
56	0x3cf71420	0.030160964
57	0x3cfca71f	0.030841408
58	0x3d118cd2	0.035534687
59	0xbd2d9072	-0.042374082
60	0x3d4bb52d	0.04973333
61	0xbd2b6be5	-0.041850943
62	0x3c69084e	0.014223171
63	0x3c884812	0.016635928

base.mlp.fc2.0.2.weight f4 [64]
0	0x3f7af823	0.98034877
1	0x3f838243	1.0274128
2	0x3f855d17	1.0419034
3	0x3f81ebf8	1.0150137
4	0x3f7ce54f	0.987874
5	0x3f84651d	1.0343357
6	0x3f7b7c64	0.9823668
7	0x3f732482	0.9497758
8	0x3f884378	1.064559
9	0x3f79b9be	0.97549045
10	0x3f8dd9b6	1.1082065
11	0x3f810459	1.0079452
12	0x3f83631d	1.0264622
13	0x3f8573a7	1.0425919
14	0x3f79091b	0.9727952
15	0x3f82eba1	1.0228158
16	0x3f809acc	1.004724
17	0x3f85522d	1.0415703
18	0x3f803b04	1.001801
19	0x3f79a621	0.9751912
20	0x3f82af23	1.0209697
21	0x3f762ab5	0.96158916
22	0x3f79a6d8	0.9752021
23	0x3f82c767	1.0217103
24	0x3f7cbb5b	0.9872338
25	0x3f753159	0.95778424
26	0x3f87b0a6	1.0600784
27	0x3f794ef8	0.9738612
28	0x3f7fe42f	0.99957556
29	0x3f7b6a60	0.9820919
30	0x3f75cbb6	0.96013963
31	0x3f822f6c	1.0170722
32	0x3f834827	1.0256394
33	0x3f7c17dc	0.98473907
34	0x3f86be25	1.0526778
35	0x3f7873dc	0.9705179
36	0x3f71d30c	0.94462657
37	0x3f837099	1.0268737
38	0x3f7da93f	0.99086374
39	0x3f6ed15d	0.93288213
40	0x3f7f9cc6	0.9984859
41	0x3f84f8c8	1.0388422
42	0x3f829d19	1.0204192
43	0x3f8488e2	1.0354273
44	0x3f84b2c1	1.0367051
45	0x3f80c7e7	1.0061005
46	0x3f83a211	1.0283834
47	0x3f861f02	1.0478213
48	0x3f82b2b8	1.0210791
49	0x3f82a8de	1.0207784
50	0x3f87fa35	1.0623232
51	0x3f738561	0.95125395
52	0x3f7d5276	0.9895395
53	0x3f763f98	0.96190786
54	0x3f829f56	1.0204875
55	0x3f80c4df	1.006008
56	0x3f84997c	1.035934
57	0x3f84c47c	1.0372462
58	0x3f7e5de0	0.9936199
59	0x3f82581a	1.0183136
60	0x3f835a71	1.0261976
61	0x3f83654b	1.0265287
62	0x3f810166	1.0078552
63	0x3f804b99	1.002307

base.mlp.fc2.0.2.bias f4 [64]
0	0xbb0d89c5	-0.002159701
1	0xbb2264d5	-0.002477934
2	0xb70b41a9	-8.300333e-06
3	0x3c8be9a7	0.017079188
4	0xbb8efe32	-0.0043637985
5	0x3c8be7aa	0.01707824
6	0xbd2e0986	-0.04248955
7	0xbc2a732e	-0.010403438
8	0x3b79da63	0.0038124553
9	0x3c9121fb	0.017716398
10	0x3c45d0f2	0.012073742
11	0xbd50142d	-0.05080049
12	0xbd881f22	-0.06646563
13	0xbc91bab7	-0.017789228
14	0x3c8740ba	0.016510356
15	0xbcd40acb	-0.025884053
16	0x3d24a74f	0.04019862
17	0x3c61b53d	0.013776121
18	0x3ccb97a8	0.024852589
19	0x3c9f6fc1	0.019462468
20	0x3b6b587d	0.0035910897
21	0xbb42bb76	-0.0029713786
22	0xbc990c41	-0.0186826
23	0xbca31597	-0.019907756
24	0xbaaeb0cb	-0.0013327835
25	0xbc5def47	-0.013545818
26	0x3ac19c47	0.0014771306
27	0xbb20dbd3	-0.0024545088
28	0x3c2657d0	0.010152772
29	0xbc6e0553	-0.014527637
30	0x3c8fa2ab	0.01753362
31	0xbccb0d89	-0.024786728
32	0x3cc11b24	0.023572512
33	0x3c94ef4c	0.018180512
34	0x3c31ca53	0.0108514605
35	0x3cbba32e	0.022904959
36	0xbcb1b6ed	-0.021693671
37	0x3cbe0c29	0.023199158
38	0x3c34aa6f	0.011026963
39	0xbc57e98b	-0.01317824
40	0xbc8d5d7f	-0.017256496
41	0x3c881849	0.016613143
42	0x3c782364	0.0151451565
43	0x3c82df3a	0.015975583
44	0x3bb6aa16	0.005574475
45	0x38d4802e	0.00010132823
46	0x3bb24dba	0.0054413946
47	0x3a8e8a13	0.001087489
48	0x3ce94568	0.028475478
49	0x3cbda4f0	0.023149937
50	0x3b65ec67	0.0035083534
51	0xbc39e68d	-0.0113464715
52	0x3cb8299b	0.022480777
53	0x3b482630	0.003054034
54	0x3c79fc0e	0.015257848
55	0x3c4ed48c	0.012623917
56	0x3d0c57ba	0.03426335
57	0xbbda9811	-0.0066709598
58	0xbbe54b32	-0.0069974894
59	0xbcc44cd0	-0.023962408
60	0x3d00e08a	0.031464137
61	0x3cb122e2	0.021623079
62	0x3c99cf46	0.018775593
63	0xbc81fc3c	-0.015867345

rnn.rnn.weight_ih_l0 f4 [192, 64]
0	0xbcf4fcc6	-0.029905688
1	0x3dc7b7a4	0.097518235
2	0xbdd5e5d1	-0.104442246
3	0xbddb40a6	-0.1070569
4	0x3d87d3cf	0.06632196
5	0xbcc35eb7	-0.023848874
6	0xbc8c7496	-0.017145436
7	0xbd865b07	-0.06560331
8	0xbc9bcae6	-0.019017648
9	0x3db16f7e	0.086638436
10	0x3e27d479	0.16389646
11	0xbd2b3e30	-0.041807353
12	0xbe09d9d7	-0.13462006
13	0x3dda5652	0.106609955
14	0x3d42e040	0.047577143
15	0x3c8242e3	0.015901035
16	0x3da73c63	0.08165815
17	0x3d423bb0	0.047420204
18	0x3d9bffd1	0.076171525
19	0xbccc3556	-0.024927776
20	0xbc122a6b	-0.008921246
21	0x3d520f1b	0.051283937
22	0x3d483d2c	0.048886463
23	0x3c5fa772	0.013650762
24	0xbc682314	-0.0141685195
25	0xbb0f7f23	-0.0021895848
26	0xbc08c1d2	-0.008346992
27	0xbcdddbdc	-0.027082376
28	0xbdd35bd2	-0.10320248
29	0xbe2c6e26	-0.16838893
30	0xbe1d5841	-0.15365697
31	0x3dcc456a	0.09974177
32	0x38102db7	3.437485e-05
33	0xbcd3d96c	-0.02586051
34	0x3d1bc31f	0.03802788
35	0x3d193627	0.03740516
36	0xbb3c9826	-0.002877721
37	0xbd332325	-0.04373469
38	0x3d486e1a	0.048933126
39	0x3ac06e49	0.0014681305
40	0x3d41637e	0.047214024
41	0x3db1fd64	0.086909086
42	0x3c1b4804	0.009477619
43	0x3d45a8b9	0.04825661
44	0xbd13f097	-0.036118116
45	0x3d1b4320	0.037905812
46	0x3e08010d	0.13281651
47	0xbd7a2655	-0.061071713
48	0x3c3b4037	0.011428884
49	0xbdc23317	-0.09482401
50	0x3e1a0120	0.15039492
51	0xbcc1d520	-0.023661196
52	0xbd57802e	-0.052612476
53	0x3de4e33a	0.111761525
54	0xbd96d27f	-0.07364368
55	0x3cdc111f	0.026863633
56	0x3c7a3e7c	0.0152736865
57	0x3d5d3bb6	0.054012023
58	0xbd27ffd1	-0.04101545
59	0x3d851478	0.06498045
60	0xbdd897d5	-0.10575835
61	0xbda74bb8	-0.08168739
62	0xbba31fbf	-0.0049781497
63	0x3e075d68	0.13219225
64	0xbd4dca36	-0.05024167
65	0x3d418f84	0.047256008
66	0xbd60dec5	-0.05489995
67	0x3cc8fbc1	0.024534108
68	0x3de5ab98	0.112143695
69	0x3db73363	0.08945348
70	0x3c565d00	0.013083696
71	0xba300ae2	-0.0006715489
72	0x3c8c6ca6	0.017141651
73	0x3d01960f	0.031637248
74	0x3d12490a	0.035714187
75	0x3c7422a1	0.014900834
76	0x3de408d1	0.11134494
77	0xbcbd52ca	-0.023110766
78	0xbd98a1ed	-0.0745276
79	0x3e2568b0	0.16153216
80	0x3b89f0e2	0.0042096237
81	0x3d7e06b9	0.06201813
82	0xbd12152f	-0.035664733
83	0xbce0dac3	-0.027448064
84	0xbcd7e723	-0.026355332
85	0x3db558b7	0.08854812
86	0xbdd0cf04	-0.10195735
87	0x3d531c92	0.05154092
88	0xbd3211be	-0.04347395
89	0xbda39ab9	-0.079884954
90	0x3cf16512	0.02946714
91	0x3d902e59	0.0704009
92	0x3e5a1265	0.2129608
93	0xbcea7784	-0.028621443
94	0xbd30d06b	-0.043167513
95	0x3e7e3b06	0.24827203
96	0x3db1cb68	0.08681375
97	0xbdac3bee	-0.08409868
98	0xbdb2d868	-0.087326825
99	0x3e08950b	0.13338105
100	0x3dcd024b	0.10010203
101	0x3d471e31	0.048612777
102	0xbd80257b	-0.06257149
103	0x3e0c6d4f	0.13713573
104	0xbe186599	-0.14882506
105	0xbdc16b0f	-0.09444248
106	0x3d353626	0.044241093
107	0xbe1f03b2	-0.15528753
108	0xbda7e5b0	-0.08198106
109	0x3daabad0	0.08336413
110	0x3d5a3e0d	0.053281832
111	0xbe0588d5	-0.13040479
112	0xbd867ad2	-0.06566395
113	0x3e0bde01	0.13658907
114	0xbb977420	-0.0046219975
115	0x3d0acd14	0.033886984
116	0x3d974ae6	0.073873326
117	0x3cf1b47f	0.029505013
118	0x3d0296d8	0.031882137
119	0x3d373d64	0.04473628
120	0xbd817a00	-0.06322098
121	0xbd87de94	-0.0663425
122	0xbd4fefde	-0.050765865
123	0xbe4049d4	-0.18778163
124	0x3e0c703c	0.13714689
125	0x3e26f441	0.16304113
126	0x3ceadc14	0.028669395
127	0x3c4b115b	0.012394275
128	0x3d82b964	0.06383017
129	0xbb6b51b2	-0.0035906848
130	0x3d4f0f14	0.05055149
131	0xbd54dfcb	-0.051971238
132	0xbdefe360	-0.1171329
133	0xbe2b0bd7	-0.16703735
134	0x3d881b31	0.06645811
135	0xbe398e43	-0.18120675
136	0x3d4bc120	0.049744725
137	0x3cac9423	0.02106673
138	0xbbdb5f92	-0.0066947425
139	0xbe16a948	-0.14713013
140	0xbdbcb3bc	-0.09213969
141	0x3dd173c1	0.102271564
142	0x3cc7dfed	0.024398768
143	0xbdb42ec3	-0.087979816
144	0xbda33644	-0.07969335
145	0xbcb62cd4	-0.022238173
146	0xbe10c17e	-0.14136311
147	0x3d8f0b95	0.06984631
148	0xbdca82ca	-0.09888227
149	0xbdac643e	-0.08417557
150	0xbc4ed93e	-0.012625037
151	0xbd903836	-0.070419714
152	0xbd30d364	-0.043170348
153	0x3d62d6ad	0.055380512
154	0xbd9ea67f	-0.077466
155	0xbc8686c1	-0.016421678
156	0x3e656a25	0.22403772
157	0xbcc95a9f	-0.024579344
158	0xbd2c20ee	-0.04202359
159	0xbd9836c3	-0.0743232
160	0x3d839271	0.06424416
161	0xbc68a45e	-0.014199344
162	0x3a29bbe3	0.00064748357
163	0x3d4d2a89	0.050089393
164	0x3c66e72e	0.0140932035
165	0x3cb73088	0.022362009
166	0xbaa64ecf	-0.0012688282
167	0xbda3486c	-0.07972798
168	0xbd9491d2	-0.072543755
169	0xbe199703	-0.14999013
170	0x3dd29935	0.10283128
171	0x3cee422f	0.029084293
172	0x3c94c9af	0.018162576
173	0x3e43cf6c	0.19122094
174	0x3ca5effa	0.020256031
175	0xbdaf4624	-0.085583
176	0x3e83e744	0.2576238
177	0x3d45986c	0.048241064
178	0xbcbd1bb3	-0.023084497
179	0x3e411fad	0.1885974
180	0xbc4cf591	-0.0125097195
181	0x3bb90664	0.005646514
182	0xbd023900	-0.03179264
183	0xbe18077a	-0.14846602
184	0xbdfbc7fd	-0.12294004
185	0x3deb9265	0.11502532
186	0x3e2ca14f	0.1685841
187	0x3db914e1	0.090371855
188	0x3d8e09c5	0.06935457
189	0xbdcc8dfd	-0.099880196
190	0xbd94e887	-0.072709136
191	0xbd7e42ed	-0.062075544
192	0x3c2eb87e	0.010664104
193	0x3d5ec39e	0.054385774
194	0xbcc30945	-0.023808131
195	0x3dce64e7	0.10077839
196	0xbd0c4309	-0.034243617
197	0xbdaf691b	-0.08564969
198	0x3e2bb892	0.16769627
199	0x3d49a7e4	0.04923238
200	0xbd984cba	-0.074365094
201	0x3dd0d088	0.10196024
202	0x3dec373a	0.11533971
203	0xbc10bbd4	-0.008833844
204	0xbd7f6c5c	-0.0623592
205	0x3c9a8ad2	0.018865023
206	0x3ceb548c	0.028726839
207	0x3d914132	0.07092513
208	0xbd531001	-0.051528934
209	0xbdd94407	-0.10608678
210	0x3beed77f	0.0072888727
211	0x3d252e36	0.040327273
212	0x3b606156	0.0034237704
213	0x3d8136f8	0.063093126
214	0xbccaa375	-0.024736146
215	0x3bf89df6	0.00758719
216	0xbdf94ad6	-0.12172477
217	0xbd3f4391	-0.046695296
218	0xbdd3573c	-0.10319373
219	0xbdaaff7c	-0.08349511
220	0xbd9d074a	-0.07667406
221	0x3d80a9fd	0.06282423
222	0xbe2ba3f5	-0.16761763
223	0x3c105436	0.00880914
224	0x3d5dc525	0.05414309
225	0x3cbfa49e	0.023393925
226	0xbc581916	-0.013189575
227	0xbd5841ae	-0.052797012
228	0x3e66d597	0.22542416
229	0x3c802499	0.015642451
230	0xbc6a389d	-0.014295724
231	0xbc85e87f	-0.016346214
232	0x3d91f30e	0.07126437
233	0xbe0378c9	-0.12839045
234	0x3dfdf0d3	0.12399449
235	0x3c343e9f	0.011001258
236	0xbd8c5d3b	-0.0685372
237	0x3cbbecf1	0.02294013
238	0x3d6fc254	0.058534935
239	0xba667996	-0.00087919214
240	0x3d0c4f3a	0.034255244
241	0x3cf90f87	0.030402912
242	0x3db820db	0.08990642
243	0x3da7cd9f	0.08193516
244	0x3d1afcff	0.037838932
245	0xbcca64c1	-0.024706246
246	0x3d82b37d	0.06381891
247	0x3d86bf91	0.06579507
248	0xbd99738f	-0.07492744
249	0xbb3b6058	-0.002859136
250	0x3cc97e1c	0.024596266
251	0x3dd16001	0.102233894
252	0xbe6c2c3a	-0.23063746
253	0xbcce4116	-0.02517752
254	0xbdd6c206	-0.10486226
255	0x3d741eef	0.059599813

rnn.rnn.weight_hh_l0 f4 [192, 64]
0	0x3d3a6d76	0.045514546
1	0xbc554f72	-0.0130194295
2	0xbd41f8d8	-0.047356457
3	0xbc8ef658	-0.01745145
4	0xbe38a5c9	-0.18031992
5	0xbcfc4788	-0.030795828
6	0x3df2d1fe	0.11856459
7	0xbdbcfbc5	-0.09227709
8	0x3dd7c73e	0.10536049
9	0x3ded0413	0.11573043
10	0xbd86fc9b	-0.065911494
11	0x3d1a81e1	0.03772152
12	0xbd6247f5	-0.055244405
13	0xbd39ec75	-0.04539152
14	0x3d709bf6	0.058742486
15	0x3d0c60c1	0.03427196
16	0x3d24bdbb	0.040220004
17	0xbd986b6a	-0.074423626
18	0x3da4d957	0.08049267
19	0xbd17b9bb	-0.03704236
20	0x3d3ededf	0.046599265
21	0x3e2402d9	0.16016711
22	0xbdc2af38	-0.095060766
23	0x3d1fc9e2	0.03901089
24	0xbd68038a	-0.056644
25	0x3d6cf3a0	0.057849526
26	0xbcd5fc6c	-0.02612134
27	0xbc920dba	-0.017828811
28	0xbb60b4bc	-0.0034287414
29	0x3d7d01c1	0.06176925
30	0xbcf30f86	-0.029670488
31	0x3d4a0160	0.049317718
32	0x3dbc36b4	0.09190121
33	0xbd6a0202	-0.05713082
34	0x3da8eac3	0.08247902
35	0x3e94889e	0.2901048
36	0xbd9cae3c	-0.0765042
37	0x3a6725be	0.00088175747
38	0xba20f38e	-0.0006139808
39	0xbd1e47cc	-0.03864269
40	0x3d6b966b	0.057516497
41	0x3d33444d	0.04376631
42	0x3dd2d389	0.102942534
43	0xbdcb2c4f	-0.099205606
44	0xbc393e28	-0.011306323
45	0x3bfffeb4	0.0078123454
46	0xbd81d5b7	-0.06339591
47	0xbb3fd3df	-0.0029270572
48	0x3d085530	0.033284366
49	0x3d979fa8	0.07403499
50	0x3d92de82	0.07171346
51	0x3d8a9236	0.06766169
52	0xbd4c8ac6	-0.049937032
53	0x3c533644	0.012891356
54	0x3df04b6f	0.11733138
55	0xbd9f0506	-0.0776463
56	0xbd5c342a	-0.053760685
57	0xbd06d737	-0.03292009
58	0x3d92d4d8	0.07169503
59	0xbdb205d8	-0.08692521
60	0x3e1a0367	0.1504036
61	0xbd15157b	-0.03639744
62	0x3cbffb69	0.023435311
63	0x3dbf0d64	0.09328726
64	0xbdba78ff	-0.091051094
65	0x3deb968c	0.11503324
66	0x3dd181b2	0.102298155
67	0x3c0ccf7f	0.008594393
68	0x3c3f950e	0.011693252
69	0xbd770f10	-0.0603171
70	0xbc5590ac	-0.013034981
71	0x3cb84041	0.022491576
72	0x3db64d6f	0.08901488
73	0x3d541ad3	0.051783394
74	0x3d4fdbb3	0.05074663
75	0xbd39ca52	-0.045358963
76	0x3db46ee5	0.08810214
77	0x3d89ce2f	0.067287795
78	0x3d83cea2	0.064358965
79	0xbd3d52ca	-0.046221532
80	0xbddcd461	-0.107826956
81	0x3e09d215	0.13459046
82	0xbe07e46c	-0.1327073
83	0x3d9d3d97	0.07677763
84	0x3e2dd2a6	0.16974887
85	0x3d86dc6d	0.06585012
86	0x3df674a9	0.1203397
87	0x3e2adb5c	0.16685241
88	0x3d12d5fc	0.035848603
89	0xbd8a91c5	-0.067660846
90	0xba674449	-0.0008822126
91	0xbd4ed8ba	-0.050499655
92	0x3d1250f2	0.035721727
93	0xbdd9b298	-0.10629767
94	0xbcf529bf	-0.029927133
95	0xbd2be600	-0.041967392
96	0x3cfd5f95	0.030929366
97	0x3d65d31c	0.056109533
98	0x3d22bfd3	0.03973372
99	0xbe015c43	-0.12632851
100	0xbd695fa8	-0.05697599
101	0xbe037e66	-0.12841186
102	0xbd86580d	-0.06559763
103	0xbd9aab81	-0.07552243
104	0xbbf91596	-0.00760145
105	0xbcb5ce5c	-0.022193126
106	0xbad5cf8c	-0.0016312464
107	0xbde200a6	-0.1103528
108	0x3d90b331	0.07065428
109	0x3dcfc09e	0.10144161
110	0x3bb3e8c3	0.005490394
111	0xbd820dce	-0.06350289
112	0xbdefc5b6	-0.11707632
113	0x3d363681	0.044485573
114	0x3d85e092	0.06536974
115	0x3cc1cdc0	0.02365768
116	0x3df60af6	0.120138094
117	0x3d44652a	0.04794804
118	0x3d27b497	0.04094371
119	0xbdc9dc74	-0.09856501
120	0xbd2ba518	-0.041905493
121	0xbdd40ff6	-0.10354607
122	0x3e06ce6a	0.13164678
123	0x3c96a28f	0.01838806
124	0x3bca6a5b	0.0061772293
125	0xbd0c5af9	-0.034266446
126	0xbd4d947f	-0.050190445
127	0xbd11c3be	-0.035587065
128	0xbc954af8	-0.018224224
129	0x3ca768e0	0.02043575
130	0xbce87ac8	-0.02837886
131	0xbca55d10	-0.020185977
132	0xbdd27be8	-0.102775395
133	0xbe0533b6	-0.13008007
134	0x3b8bdf99	0.0042685983
135	0x3c5c9aaf	0.013464614
136	0xbc9de9ee	-0.019276585
137	0xbceba028	-0.028762892
138	0x3d6543c9	0.055972848
139	0x3d9b483f	0.07582139
140	0xbe15f68b	-0.1464483
141	0xbc1aa2db	-0.009438242
142	0x3dde3c28	0.10851318
143	0x3e49509a	0.19659653
144	0x3c3697c7	0.011144585
145	0x3d9beb2a	0.07613213
146	0xbc2c215a	-0.0105059985
147	0xbdec3b9b	-0.11534806
148	0xbd705567	-0.058675196
149	0xbd9dfc6e	-0.07714163
150	0xbced3fc2	-0.028961066
151	0xbdc93179	-0.09823889
152	0xbcc55ef9	-0.024093138
153	0xbd63445c	-0.055485114
154	0x3dba72fa	0.09103961
155	0x3c3aacc1	0.011393727
156	0xbd6de77a	-0.05808208
157	0x3d54211e	0.051789396
158	0x3e12ff81	0.1435528
159	0x3bdb1b46	0.006686601
160	0x3da4ebad	0.08052764
161	0xbc088e66	-0.008334732
162	0x3db6eda6	0.089320466
163	0xbe0fb89f	-0.14035271
164	0xbd9fcdd5	-0.07802931
165	0xbd248842	-0.040169008
166	0xbaf66434	-0.0018798173
167	0x3d617ca1	0.055050496
168	0x3d25e3c2	0.04050041
169	0xbdce716d	-0.10080228
170	0xbd77ec35	-0.060528
171	0x3cb632bb	0.022240987
172	0xbc89fd73	-0.016844487
173	0xbd88aaaa	-0.066731766
174	0x3ce85ef1	0.028365584
175	0x3de005b0	0.10938585
176	0x3dc33280	0.095311165
177	0xbdc06dde	-0.093959555
178	0x3d36c8df	0.04462516
179	0xbd4c9627	-0.049947884
180	0x3ccc2ace	0.024922755
181	0x3a1a0e97	0.0005876808
182	0x3e14b0ab	0.14520518
183	0xbb678b37	-0.0035330781
184	0xbd86b2f1	-0.06577099
185	0xbdb51d4b	-0.08843478
186	0xbd0197d0	-0.03163892
187	0x3d558d36	0.052136622
188	0x3b7535ed	0.0037416175
189	0xbd70a336	-0.0587494
190	0x3b505f7a	0.003179519
191	0xbdb1bf15	-0.08679024
192	0xbd5f9c37	-0.054592337
193	0xbd04da0c	-0.03243451
194	0xbd905f2f	-0.07049405
195	0x3c628cbe	0.013827501
196	0xbc9422b2	-0.01808295
197	0x3d48a3b1	0.048984233
198	0x3e18b56b	0.14912955
199	0xbc85b92c	-0.016323648
200	0xbd10c787	-0.035346534
201	0xbd65c13a	-0.05609248
202	0x3d00488c	0.031319186
203	0x3d60ce85	0.054884452
204	0xbd2a9207	-0.04164317
205	0x3ce884b7	0.028383596
206	0x3d42503d	0.047439802
207	0x3d35bcc9	0.044369493
208	0xbdf2e792	-0.11860575
209	0xbe2b8533	-0.1675003
210	0xbe2331f1	-0.1593702
211	0xbd81cc77	-0.06337827
212	0xbd93db75	-0.072195925
213	0xbdca6960	-0.0988338
214	0x3c79c366	0.0152443405
215	0xbd947af2	-0.072500125
216	0x3dae1799	0.08500595
217	0xbc9e382d	-0.019313896
218	0x3d88e3c1	0.066840656
219	0x3d8e2d0b	0.06942185
220	0x3ddc8956	0.10768382
221	0x3d2ef74c	0.04271631
222	0x3d0e0186	0.03466942
223	0xbd484a44	-0.04889895
224	0xbcbf2220	-0.023331702
225	0x3d937f49	0.07202012
226	0x3d88c963	0.066790365
227	0xbd977824	-0.07395962
228	0x3db339d9	0.08751268
229	0x3b86b4ac	0.0041108932
230	0xbd43ac1d	-0.047771562
231	0x3cdd2834	0.02699671
232	0x3d0662e8	0.032809168
233	0x3dd7f5e0	0.10544944
234	0xbd92a9cd	-0.07161293
235	0xbd52f4fe	-0.051503174
236	0x3d9ab48b	0.07553967
237	0xbd58487b	-0.052803498
238	0x3d2cc31b	0.042178255
239	0x3daccf75	0.08438007
240	0x3908e3af	0.0001305479
241	0x3c74ed77	0.014949194
242	0x3d27833d	0.040896643
243	0xbde31c40	-0.11089373
244	0x3c5b0f09	0.013370284
245	0xbd5e03fb	-0.054203015
246	0xbba7f41c	-0.0051255357
247	0x3dda93e9	0.10672743
248	0xbc0fbb9b	-0.008772756
249	0x3c74adc9	0.014934012
250	0xbe0e0228	-0.1386801
251	0xbdce9eac	-0.10088858
252	0x3dcd2f40	0.10018778
253	0xbcb4278f	-0.02199152
254	0xbdc37a72	-0.09544839
255	0x3d61764d	0.05504446
