onpolicy/scripts/results/MPE/simple_spread/rmappo/check/wandb/run-20220705_094856-35k06fct/files/critic.pt (torch, 156012 bytes, 21 tensors)

base.feature_norm.weight f4 [54]
00000000: cde8 653f 4f5d 6b3f 114b 843f 8c72 813f
00000010: 720b 803f d3f9 763f 2d2c 823f 42ad 773f
00000020: 7a70 793f 3c1a 743f bcb4 833f 3c7d 833f
00000030: 498b 813f 4e07 853f 0d49 7f3f c6ad 7f3f
00000040: c092 7a3f f517 803f 41bb 673f 8c3a 633f
00000050: f83f 843f e249 813f 076d 773f a7a9 753f
00000060: 00b8 793f 4a36 793f 38f1 803f 6f07 753f
00000070: 900f 843f 7781 823f 15a8 7d3f a21e 7e3f
00000080: c288 7b3f a673 813f 21eb 803f d4a9 823f
00000090: 712e 673f 55cb 693f 0a29 763f 40d7 7e3f
000000a0: 28af 793f 48bc 773f 6e57 753f a50d 753f
000000b0: c246 7c3f 84c5 813f 720e 813f 6c56 833f
000000c0: af24 823f 6e01 823f 687c 813f 5c74 823f
000000d0: 1b64 803f a926 803f
0.8980835 0.9193925 1.0335408 1.0113082 1.0003493 0.9647495 1.0169731 0.96748745
0.9743725 0.9535253 1.0289531 1.0272593 1.0120631 1.0392854 0.9972084 0.9987453
0.9788017 1.0007311 0.905201 0.8876121 1.0332022 1.0100672 0.9665074 0.95961994
0.97546387 0.97348464 1.0073614 0.9571447 1.0317249 1.019576 0.990846 0.9926549
0.9825555 1.0113418 1.0071756 1.0208077 0.9030524 0.91325885 0.9615637 0.99547195
0.9753289 0.9677167 0.9583653 0.95723945 0.9854547 1.0138402 1.0082533 1.0260749
1.0167445 1.0156686 1.0116091 1.019176 1.003055 1.0011798

base.feature_norm.bias f4 [54]
00000000: 7cd9 4b3c b200 023c b6a6 8ebd 686e 153b
00000010: 9196 07bd fa75 fdbc f2ea 183d 319e ccbc
00000020: 8efb c43c f2a9 963c 9c70 dabc 0094 0bbd
00000030: a688 983c a20b 9c3c e6c5 2ebc 32e2 9dbc
00000040: fbd4 6cbd 442e 8cbc ac0f 0e3c df9d efbc
00000050: 4135 adbc a612 043d bd3a fd3c 3310 363d
00000060: 054b 22bc 8cad b6bb 9b63 b0bc fc02 30bd
00000070: e390 c7bc 83ff d83c 39be 353d abef 463b
00000080: c83b 22bc 2824 afbb 0409 a33c 8d1b 663b
00000090: 31ab b4bb d6c0 07bd aad0 d33a 7faf 2a3b
000000a0: 44aa 50bb 186e 033d 0862 39bc 52b5 a4bc
000000b0: 54aa 73bc 0515 4cbd e2f2 f53b c05b f6bc
000000c0: 4ec7 0ebc 5c94 1dbc 036b b33c 6655 123c
000000d0: f608 733c a323 a3bc
0.012441989 0.007934736 -0.06965391 0.0022801403 -0.033102576 -0.030940045 0.037333436 -0.024977775
0.024045732 0.018391583 -0.026665024 -0.03407669 0.018619847 0.019048516 -0.0106673 -0.019272897
-0.0578203 -0.017111905 0.008670729 -0.029250083 -0.021143558 0.032244347 0.030911798 0.044449043
-0.009905581 -0.0055748876 -0.02153187 -0.042971596 -0.02436108 0.026489025 0.044370864 0.0030355256
-0.009901948 -0.0053448863 0.01990176 0.0035111636 -0.0055135717 -0.033142887 0.0016160209 0.0026044545
-0.0031839767 0.032087415 -0.011314876 -0.020105992 -0.014872152 -0.049824733 0.0075057605 -0.030073047
-0.00871451 -0.009617891 0.021901613 0.008931493 0.014833679 -0.019914454

base.mlp.fc1.0.weight f4 [64, 54]
00000000: 8a9d a63e 2c10 66be b021 9a3d bfa4 b93d
00000010: 7d96 8bbd 5ec6 26be 6bf3 4e3e 1d1d 6a3d
00000020: e18e 9abe 3e43 95bd bda4 a8bd 88cb 793e
00000030: 5f80 3a3d 6a8f b3bd cbb5 8e3a 594b 2e3e
00000040: d946 9e3e c164 643e 6d57 b53e 1a8c 003e
00000050: 8237 083c a834 273e b108 a13d 89f4 0e3e
00000060: f032 7b3d 2359 7abd 5e3a c3bd d0f1 2e3e
00000070: 2f86 b93d 2e29 9fbe b20b 863e 4b7f 96be
00000080: a509 2cbe c0a5 bfbe 81cd 36be 5991 83be
00000090: c460 1c3e d4d7 b7bc a5c5 cbbb 28e2 d93d
000000a0: cbcd 6f3e 2fa9 d33e 0e75 813d a994 763e
000000b0: a2e9 ec3e 5b5e a7be e665 ffbd 2b4b 363c
000000c0: 39d1 c33d 75ee 1abd 7972 483d cd64 cabd
000000d0: 5550 813e 3894 9cbd 3cca b33e ce60 113e
000000e0: f0f5 8d3e 0966 41be e95f e8be 3ffb eebc
000000f0: de63 d33d acf1 6abd d222 453e 8511 d83d
00000100: 4e71 5f3e d825 dc3e 0213 66be e75f 8a3c
00000110: e196 4dbe d15f e43d bfaf ca3d 80b6 993e
00000120: b524 6cbe 79c4 5b3d 1f72 923e 2083 0fbe
00000130: 5ed7 7f3c 4df5 713d 988b ab3b 5049 49be
00000140: 41a1 983e 5ee2 d6be 377d 233e b239 c4bd
00000150: 7cc5 7b3e 2b6b 473d 02f6 c63c 1f7e 963d
00000160: 78c5 13be eff6 ec3d d4e8 b4bd fc6b b23c
00000170: 82ee ffbe a353 0b3d f1dd 1abe 6b93 d6bc
00000180: ef4d ba3c 90b8 5f3e 95d8 913d 03fc a33d
00000190: 6d6e 393e f578 ddbe c09c d4bd 6040 093e
000001a0: e2e8 fd3c 6545 0b3d 6cd9 d1bd 560c 853d
000001b0: bb1b 6dbc c0a3 bfbd 39ce cb3d 39e6 63be
000001c0: 6832 9dbd dc88 2c3e 4fbb ddbc fd1e 3ebe
000001d0: 180e 1f3e f3ce 12be 6895 16be 1cad 9e3e
000001e0: 947c 643e 4902 87be c363 f53d 51b8 43bc
000001f0: b3ed 78be 062b 27be 25fa cabd 859c 8abd
00000200: 916b 17be 368e 9b3e c65d 0e3e 3413 863e
00000210: fd9b 85bb 85bd 9bbd 3192 abbe 59b3 8c3e
00000220: e0f5 15be 04db 55be 7478 933e fe03 b93e
00000230: 411c fc3c 7e54 a4bc 2ed8 fabc f5bb dbbe
00000240: 0522 a5bd f4a3 943e 4346 003d 68ec f8bd
00000250: 1d8c 94be b2f9 9a3e eddc 9a3e 4f20 013d
00000260: 6b3a 003e 9f44 e7be e7f1 103e 845a 263d
00000270: c168 4f3e ab8e ca3b 12c5 9d3b f803 823c
00000280: 526c 00bd b4a4 3ebe f26f 573e 62c0 33be
00000290: 93ce d8bd 3842 143e 9f33 02bd aa5f a9be
000002a0: 45ca 01bf 4f05 64be e324 96bd 2c7b 6dbd
000002b0: b3b3 0dbe c9c2 57be 9ca4 7bbe e3ae 6e3d
000002c0: 2d83 a1bd 7276 0abe ea7a c03b 27fd 853e
000002d0: 020c 943e 3c65 a5be c4ec 223e 3080 5a3e
000002e0: 84d0 0bbe 4443 91bc 0a74 023e 237b 473e
000002f0: 692d 41be 66c8 793e aa81 c73d d42a 083d
00000300: adc4 41bd d48b f5bc dfe4 d1bd 2aeb fc3d
00000310: 14e3 57be e778 e2be baca e0bd f3a2 6b3e
00000320: e289 0bbd 89bc 30be 4d35 dabe 8946 d1bd
00000330: e187 e9bc 3531 06be ac38 f3bb 9200 a83e
00000340: 2c01 5c3e 69ec 23be ed87 c83d 208c d6ba
00000350: 27c4 cd3d 23e1 9f3e 51ed b93e c41c bfbc
00000360: 850a 1b3d c66b c33c bb95 883d 47b2 be3c
00000370: 427e d63e 9f06 c0bd 31b6 9d3e 7eeb 293d
00000380: 9436 12be db37 033e 2c48 723d 384a 29be
00000390: 5617 50be 5e52 123d 228e 293e f706 753e
000003a0: 0a03 d83e 6e9c 83be c1c0 43be 5103 d5bd
000003b0: 7155 4fbe 2448 0ebf eea1 84be 45d4 8a3e
000003c0: d88c e5bc 4167 21bb f240 b23b d43a 8abe
000003d0: e43f bd3e 61d5 a23d 46ca d73e 10c0 fc3d
000003e0: 1d2d b3bc 5b10 1bbe 2299 643e 2b7d 87be
000003f0: 8bc9 543e 8f5f 903d ce14 413e 0fd1 c63d
0.32542068 -0.22467107 0.07525957 0.09064626 -0.06815813 -0.16286609 0.20210044 0.05715667
-0.30187133 -0.07288216 -0.08234546 0.24394047 0.04553258 -0.087675884 0.0010887919 0.1702093
0.30913427 0.2230406 0.35418263 0.12553445 0.008314015 0.1632868 0.07862986 0.1396047
0.061327875 -0.061120164 -0.09532617 0.17084432 0.090587966 -0.31086105 0.26180798 -0.29393992
-0.16800554 -0.37431145 -0.17851831 -0.2569683 0.15271288 -0.022441782 -0.0062186294 0.10638839
0.23418348 0.41340014 0.063211545 0.24080147 0.46271998 -0.32689175 -0.124706075 0.01112632
0.095613904 -0.037825067 0.048937295 -0.098825075 0.252566 -0.07645458 0.3511523 0.14197084
0.27726698 -0.1888658 -0.45385674 -0.029172538 0.103217825 -0.057359383 0.19251564 0.105502166
0.21820566 0.42997622 -0.22468188 0.016891433 -0.20077087 0.11151088 0.09896802 0.3002205
-0.23060878 0.053654168 0.28602692 -0.14014864 0.015615312 0.059071828 0.0052351467 -0.19656873
0.29810527 -0.4196958 0.15965734 -0.09581317 0.24587053 0.048686188 0.024287228 0.073482744
-0.14430797 0.11570536 -0.08833471 0.021780007 -0.49986655 0.03401531 -0.15123726 -0.026193341
0.02274224 0.21847749 0.07121388 0.08007052 0.1810853 -0.43256345 -0.1038146 0.13403463
0.030994836 0.034001727 -0.10246548 0.064964935 -0.0144719435 -0.09357405 0.09951443 -0.22255792
-0.0767563 0.16849083 -0.027066855 -0.18566509 0.1553272 -0.14336757 -0.14705431 0.30991447
0.22313148 -0.2636893 0.11981919 -0.0119458 -0.24309425 -0.16325006 -0.099109925 -0.06768135
-0.14787127 0.30381936 0.13902959 0.26186526 -0.004077433 -0.07604507 -0.33509973 0.2748058
-0.14644575 -0.20884329 0.28802836 0.36135858 0.030775191 -0.02005982 -0.03062066 -0.42916837
-0.08063129 0.29031336 0.031317007 -0.12154466 -0.29013148 0.30268627 0.30246678 0.031524953
0.12522285 -0.4516954 0.14154778 0.040613666 0.20254804 0.006181558 0.0048147524 0.015871033
-0.031353302 -0.18617517 0.21038797 -0.17553857 -0.10586276 0.14478385 -0.03178751 -0.33080798
-0.50699264 -0.2226765 -0.07331254 -0.057978794 -0.13838081 -0.21070398 -0.24574512 0.058272254
-0.07886348 -0.13521746 0.0058740275 0.26169702 0.2891541 -0.32303798 0.15910631 0.21337962
-0.13653761 -0.01773227 0.12739578 0.19480567 -0.18864979 0.24392852 0.09741528 0.03324397
-0.047306705 -0.029973902 -0.10248732 0.123495415 -0.21082717 -0.44232866 -0.10976167 0.23011379
-0.034067042 -0.1725942 -0.4261879 -0.10218532 -0.028507175 -0.13104708 -0.0074225273 0.32812935
0.21484822 -0.16008152 0.09791551 -0.0016368665 0.10047179 0.31226453 0.3631387 -0.023329146
0.03785183 0.023855101 0.06669184 0.023278369 0.41893202 -0.09376263 0.30803064 0.04148435
-0.14278632 0.12814276 0.05915086 -0.16532218 -0.20321402 0.035723083 0.16558126 0.23928438
0.4218982 -0.25705284 -0.19116499 -0.10401023 -0.20247437 -0.5557883 -0.25904793 0.27115074
-0.028021261 -0.0024628195 0.005439871 -0.26998007 0.36962807 0.07950855 0.4214651 0.123413205
-0.021872098 -0.15142958 0.2232404 -0.26462683 0.20780008 0.07049476 0.18855593 0.097078435

base.mlp.fc1.0.bias f4 [64]
00000000: 8d42 1fbd d800 0ebd 5a69 e93c 8bb8 0cbc
00000010: f1a0 a83c 1f5d 2bbd fd1e f4bc 879c a53c
00000020: 1ed9 0b3b ea45 493c 2b79 24bc 1b35 50bc
00000030: 70a0 5e3c 0a4d 123d eb0b 5fbd 60c4 543b
00000040: 39e8 4cbc d6e6 46bc 39aa d1bc b31c 7f3d
00000050: 08d9 eebc 7691 d73b 4a98 44bc 1d3b ab3c
00000060: 077b 22bd 8ec8 873b cd6b b5bc 20a8 c5bc
00000070: 4647 ff3c 242c a33a 83ed 203c 2c20 2e3d
00000080: c7d8 09bc 3de1 5b3d a611 b33c 148a edbb
00000090: a041 103d 0c61 9f3c df53 293d f630 e03c
000000a0: 8dcb 8cbc 865d a13d 6724 97bc 0168 363c
000000b0: 6a79 393d 7bc4 6a3d c2c8 ee3b cd76 83bc
000000c0: f0b9 a13c fc5a 20bd 7f9c a7bc 8390 bfbb
000000d0: 5318 1dbd 1868 b1bb e84d 3d3c 4eca 843c
000000e0: 44eb 83bc 01dd acbc cb33 1cbc 21ed 1c3c
000000f0: fb19 a43c c8d3 f93a 03a4 43bc 0dc4 113d
-0.038881827 -0.034668773 0.028492618 -0.00858892 0.020584555 -0.041836854 -0.029799933 0.02021624
0.0021339129 0.012284735 -0.010038654 -0.012707974 0.013588056 0.035718 -0.054454725 0.0032465681
-0.012506538 -0.0121399965 -0.025593864 0.06228323 -0.029156223 0.0065786196 -0.011999199 0.02090221
-0.03966811 0.004143781 -0.02214613 -0.02412802 0.031161916 0.0012449068 0.009822252 0.04251115
-0.0084135 0.0536816 0.021859001 -0.007249126 0.035218835 0.019455455 0.04133975 0.027367096
-0.017186904 0.07879166 -0.018449975 0.011133195 0.045281805 0.057316285 0.007287116 -0.01604786
0.019741982 -0.03914927 -0.020460365 -0.0058460846 -0.038353276 -0.0054140203 0.011554219 0.016209748
-0.016103394 -0.021101477 -0.009533833 0.00957802 0.02003192 0.0019060308 -0.011940959 0.03558736

base.mlp.fc1.2.weight f4 [64]
00000000: cb0b 803f b5cf 823f 62d5 753f 9da3 7a3f
00000010: b785 803f 98ab 7f3f c50a 723f 4caf 843f
00000020: 367d 803f fc7c 7e3f d862 7d3f 25f5 813f
00000030: ced6 7c3f 6d9e 803f 3317 713f 0950 6f3f
00000040: eada 783f ff40 7d3f d9b2 7a3f 28c0 773f
00000050: 616b 813f 83a6 7f3f 6fd2 7b3f da15 843f
00000060: e13d 813f e291 7a3f 5b4b 7b3f 60c2 7d3f
00000070: 60e9 803f 0eed 743f cc96 803f 72dc 813f
00000080: 9471 7d3f b132 7a3f e763 803f 4ba4 7b3f
00000090: 8715 813f 8fa5 803f 3fff 703f 371d 833f
000000a0: e80b 813f a2f5 813f 1be9 7c3f 3109 803f
000000b0: 39f0 793f efbb 733f 4b17 823f aa24 803f
000000c0: 484b 7a3f 63df 683f 8567 7b3f 1942 723f
000000d0: 77fb 743f 2523 803f 5a3b 843f 2004 753f
000000e0: ed47 773f cf83 7b3f f419 7c3f 7325 833f
000000f0: 5901 823f f504 833f cf66 7f3f f921 703f
1.0003599 1.0219637 0.9602872 0.97905904 1.0040807 0.99871206 0.94547683 1.0365996
1.0038211 0.9940946 0.9897895 1.0152937 0.98765266 1.0048348 0.94176024 0.934815
0.97209036 0.989273 0.9792915 0.9677758 1.0110894 0.9986345 0.9836797 1.0319169
1.0097009 0.9787885 0.9816186 0.9912472 1.007122 0.95674217 1.004602 1.01454
0.9900143 0.977336 1.0030488 0.98297566 1.0084695 1.0050524 0.94139475 1.0243291
1.0081758 1.0153086 0.9879319 1.0002805 0.97632176 0.9520864 1.0163358 1.0011189
0.9777112 0.9096586 0.98204833 0.94632107 0.95696205 1.0010725 1.0330613 0.9570942
0.96594125 0.98248 0.984771 1.0245804 1.0156661 1.0235888 0.9976625 0.9380184

base.mlp.fc1.2.bias f4 [64]
00000000: c71f 4abd 379b 0abd 6dc9 f83c 5ddf 83ba
00000010: 4d09 cb3c 24b0 34bd 6b83 4dbd 60d1 ddba
00000020: b56d e0bb 83a5 47bb 9456 2abc 436d 38bc
00000030: 816f 293c 75c4 003d 11db 5cbd 7d9a 1f3c
00000040: ebe4 4ebc b5e0 4ebc 29d1 80bc 9456 933d
00000050: bd3a 05bd b4d8 2d3a 4d7e 81bc 6919 863c
00000060: f0a4 02bd ae50 b53b 96cd 8dbc 8228 a7bc
00000070: 4358 cf3c f984 b5bc e4d0 be3b 3ae5 f93c
00000080: b9d1 eabb 3441 813d be9f 9c3c 00f7 22bd
00000090: c72c ff3c 69f4 703c 4820 f63c 25f9 b53c
000000a0: 1271 fdba 4751 953d 72bf 95bc f92f 2e3c
000000b0: 4a4f 0b3d d48a 4f3d 8c5d e23b c001 82bc
000000c0: b090 9d3c ca9e 4dbd 325c 59bc 8399 b2bc
000000d0: e3e0 31bd e14f 09bc bc8b ac3c 02ec 893c
000000e0: dba2 91bc 34a6 9ebc fa1d bdbc e4a9 cd3b
000000f0: ecb9 a33c 3b05 61bb a807 9fbc 4935 c03c
-0.04934671 -0.03383943 0.030369485 -0.0010061074 0.024784708 -0.044113293 -0.050174158 -0.001692336
-0.0068490156 -0.0030463643 -0.010396618 -0.011256519 0.010341526 0.031437356 -0.053919856 0.009741423
-0.0126278205 -0.0126268165 -0.015724735 0.07194248 -0.03252672 0.00066317176 -0.015807295 0.016369538
-0.031895578 0.0055332994 -0.017309945 -0.020405058 0.025310641 -0.022158133 0.0058232415 0.030504812
-0.007166114 0.06311265 0.01911914 -0.03978634 0.031149281 0.014706709 0.03004469 0.022213528
-0.0019336066 0.07290893 -0.018279765 0.010631555 0.034011163 0.050669506 0.0069081243 -0.015869975
0.019234031 -0.05020026 -0.01326661 -0.021801716 -0.04342736 -0.008380861 0.021062724 0.01683617
-0.01777785 -0.019366361 -0.023085583 0.006276356 0.019986115 -0.0034335393 -0.01941283 0.023462908

base.mlp.fc_h.0.weight f4 [64, 64]
00000000: dd10 5d3e b887 d83d 50d9 4c3e ad75 e43c
00000010: ad05 203e 39db 0abd 89d9 5dbe 3cac 7bbe
00000020: 6669 df3e 2a13 af3e c8f3 4bbe b47a fd3d
00000030: 4af0 36be 2b7a 88be fe5b 12bd 89c0 8ebd
00000040: d4a3 94be f905 bd3d 3ac0 8c3e d018 90bd
00000050: fab4 ab3e 5947 30be 68d4 e83e 3a87 783c
00000060: e95e a1bd 0096 07ba db5c f23c 0064 6c3e
00000070: 9a2b 373d d0f1 a13e 8a8f b43d bb75 923e
00000080: e3ff d53e c911 df3d 6452 bdbe 3ce1 39be
00000090: bcb3 37be ee80 913c 98c4 e33d 3069 b7bd
000000a0: a70c ac3e 3b57 483e 4b61 07be c3bb 98bd
000000b0: 7f11 c93d 6660 06be ca85 493b ced3 be3e
000000c0: 6844 3dbd a600 51bd 200a 65bd 7226 24be
000000d0: 70d9 0dbe f2f8 92bc ca52 8f3e c8a7 793d
000000e0: 5ece 25be 0ddc a33e 8057 3e3e 9f55 c73d
000000f0: 0d97 fc3d 525f 52be 26e3 843e 915c b03e
00000100: f538 073e e5c5 b63c 4809 52be 93e1 afbc
00000110: 5d92 a0be b8de 38be 5e51 66bd d956 ab3e
00000120: 20a0 8b3e 6e6b cc3e 17f5 973e fad1 3bbe
00000130: a926 a8be b322 6b3e 8556 533e a0ca a9be
00000140: a57f 813e 75d8 453d 9798 173e fe28 983c
00000150: d2e5 a2ba 2f7c 153e 6015 47bc 00f8 33be
00000160: 18f6 ee3d 1ae1 a7bc 5906 04be 8ee9 3a3e
00000170: 36ca cdbd 5772 933e 49e3 98bd 65ee 4bbe
00000180: 55c3 8abd f9a4 72be 3073 363e a444 d63c
00000190: ae55 fb3d 1a5b 3dbe 4ff7 13bb 4d92 043e
000001a0: db88 273d e3e5 e13d be8d 00bf e2db 763e
000001b0: d05e 73bd 7681 d53d 178f c33e 8b23 39be
000001c0: 3b7d 313e 83e0 64be dd2d 6d3b a461 24be
000001d0: c5eb e2be e14f 233e 879e 193c b6f8 13be
000001e0: e06e 9d3d 06f4 0a3f 6b8c 3abe c942 333e
000001f0: 44eb 5f3c 3007 073d 75a1 c0bd 38d9 7abe
00000200: 1174 4c3d 4be6 843d 5ec7 64be 9b8f 23be
00000210: 9a98 20be 63e6 4e3e d1c7 a23d 29cb 283e
00000220: 512b 1b3e d77d 8dbd 306f 203e 8476 26bf
00000230: 4b4f 6d3e 3d2e eebc c42f b63c cfb6 273e
00000240: cdc8 b5be c69a 2ebe 1df9 aabb 70c9 c7bd
00000250: 2ca0 3bbd 7bf8 88bd 2d3c dc3d 37c6 68bc
00000260: 8121 d43d d083 0bbf aa2f 863e 847e 22be
00000270: 0c7f 99be 4a6f 643e a835 d2bd d810 f9bc
00000280: 463e f33d 4855 2e3e feea 00bf 456f 353d
00000290: b641 303e 3d36 073d f445 d03d 5d3e 7fbe
000002a0: c799 953d 4267 67bc 1cd4 1dbe 8306 76bd
000002b0: 2fe0 533d b936 4e3e 75cf aebe b867 e5bd
000002c0: 0b7a 053e 31f7 743e af0e 06be 37df a3be
000002d0: 19c7 843e c48d 8e3d b774 9ebe 86d9 943a
000002e0: 0c70 ed3e 423f f73d 60cc ecbd 94a7 0c3e
000002f0: cb74 293e c898 033e 807e 10be a49e c83d
00000300: c243 8a3e 7a17 d3bc 516a b53d 4895 bfbe
00000310: 0432 b9be 319f a53d 73d5 3fbd aa3b 183c
00000320: 480f 653d 5346 a33e e9de 893e 30e1 51be
00000330: 996a 833e 7b1f ad3e 2d33 ebbe 6c1a 973e
00000340: 6aae 49bb fbc1 9dbe b8b0 5c3b a4e8 c1bd
00000350: 2086 db3c 8f05 443e ac22 3dbe a5d3 ea3d
00000360: 9332 f43e eb67 5fbd 882e 9bbe 75f4 81bd
00000370: cbed 0d3e ffa4 89bd b8f5 3b3e c410 b63e
00000380: 1b40 913d dc1a 1bbe 9205 cfbd ca86 ac3e
00000390: 0b54 dc3c 7429 563c acc6 713c 8ec6 ecbb
000003a0: 2273 2cbb 89eb 93bd 6cab 743e 68c5 223e
000003b0: f563 07be 9bf0 be3e d382 ac3d c165 263e
000003c0: 4aba bd3d 1ca0 b7be b8f2 a53d 8caa 4d3d
000003d0: 3bb9 653d 7c58 f1bd 83a8 b23e 51f6 9a3d
000003e0: 8544 0bbe a93e 7fbd 9c4e b83e ea72 99ba
000003f0: 58e2 8dbe e4ea 1fbe c775 d4bc 935e 593e
0.21588464 0.10572761 0.20004773 0.027888143 0.15627165 -0.033900473 -0.21665014 -0.24577421
0.436351 0.3419431 -0.19917214 0.123769194 -0.178651 -0.26655707 -0.03573226 -0.06970317
-0.2903124 0.09229655 0.27490407 -0.070359826 0.33536512 -0.17214717 0.45474553 0.015168959
-0.07879431 -0.0005172193 0.029585293 0.23085022 0.044719316 0.316298 0.088164404 0.28605446
0.4179679 0.10892064 -0.36976922 -0.18152326 -0.17939657 0.017761674 0.11121482 -0.0895561
0.33603403 0.19564526 -0.13220708 -0.07457688 0.0981779 -0.1312271 0.003074991 0.3727097
-0.046207815 -0.05102601 -0.05591786 -0.1603029 -0.13852477 -0.017940972 0.2799285 0.060951024
-0.16192004 0.32003823 0.18588066 0.09733128 0.12333498 -0.20544174 0.2595455 0.34445623
0.13205321 0.02231116 -0.20511353 -0.021469867 -0.31361666 -0.1805371 -0.05622994 0.33464697
0.27270603 0.39925712 0.29679176 -0.18341818 -0.32841995 0.22962455 0.20638473 -0.33162403
0.25292698 0.048302133 0.14804302 0.018574234 -0.0012428111 0.14598154 -0.012151092 -0.17575073
0.116680324 -0.020493079 -0.12893046 0.18253157 -0.10048334 0.28798172 -0.07465226 -0.19915159
-0.06775538 -0.23695745 0.17817378 0.026155777 0.122722015 -0.18491784 -0.0022577827 0.12946434
0.040902 0.110301755 -0.5021628 0.24107316 -0.059416592 0.10425083 0.38195106 -0.18079965
0.17332928 -0.2235127 0.0036190667 -0.16052872 -0.44320503 0.1594844 0.009376175 -0.14450344
0.07687163 0.542786 -0.18217628 0.17505945 0.013666932 0.03296584 -0.094057955 -0.24496925
0.049915377 0.064892374 -0.22341678 -0.1597275 -0.15683213 0.20205073 0.07948268 0.1648375
0.15153243 -0.06908768 0.15667415 -0.6502459 0.23174779 -0.029074783 0.022239573 0.1637833
-0.3550476 -0.17051229 -0.005217685 -0.09755218 -0.04580705 -0.06688019 0.10753665 -0.014207414
0.10357953 -0.54498005 0.2620824 -0.15868574 -0.29979742 0.22308078 -0.1026414 -0.03040354
0.11877112 0.1702472 -0.5035857 0.044295568 0.17212567 0.03301071 0.101695925 -0.24926133
0.07304721 -0.01412374 -0.15412945 -0.060064804 0.05172747 0.20138063 -0.34142652 -0.112014234
0.13034837 0.23922421 -0.13091539 -0.32006237 0.2593315 0.069606334 -0.3094842 0.0011356331
0.46374547 0.12072612 -0.11562419 0.13735801 0.16548459 0.1285125 -0.14110756 0.09795883
0.2700482 -0.02576803 0.08858169 -0.3741858 -0.3617097 0.08087004 -0.04683442 0.009291569
0.055922776 0.3188959 0.2692788 -0.20496058 0.25667265 0.3381308 -0.45937482 0.29512346
-0.0030774125 -0.30812058 0.0033674669 -0.09468201 0.026797354 0.19142745 -0.18470258 0.11466149
0.47694835 -0.054542463 -0.30308938 -0.063454546 0.13860242 -0.06720924 0.18355453 0.35559666
0.07092305 -0.15146965 -0.10108484 0.33696586 0.026895544 0.013071407 0.01475684 -0.007225818
-0.0026313742 -0.07222659 0.23893517 0.15895617 -0.13221724 0.37292942 0.0842339 0.16249754
0.092640474 -0.3586434 0.081029356 0.050211474 0.056084853 -0.11784455 0.3489419 0.075665124
-0.13600357 -0.062315617 0.35997474 -0.0011707221 -0.2771175 -0.15616947 -0.025935067 0.21227483

base.mlp.fc_h.0.bias f4 [64]
00000000: 0000 0000 0000 0000 0000 0000 0000 0000
00000010: 0000 0000 0000 0000 0000 0000 0000 0000
00000020: 0000 0000 0000 0000 0000 0000 0000 0000
00000030: 0000 0000 0000 0000 0000 0000 0000 0000
00000040: 0000 0000 0000 0000 0000 0000 0000 0000
00000050: 0000 0000 0000 0000 0000 0000 0000 0000
00000060: 0000 0000 0000 0000 0000 0000 0000 0000
00000070: 0000 0000 0000 0000 0000 0000 0000 0000
00000080: 0000 0000 0000 0000 0000 0000 0000 0000
00000090: 0000 0000 0000 0000 0000 0000 0000 0000
000000a0: 0000 0000 0000 0000 0000 0000 0000 0000
000000b0: 0000 0000 0000 0000 0000 0000 0000 0000
000000c0: 0000 0000 0000 0000 0000 0000 0000 0000
000000d0: 0000 0000 0000 0000 0000 0000 0000 0000
000000e0: 0000 0000 0000 0000 0000 0000 0000 0000
000000f0: 0000 0000 0000 0000 0000 0000 0000 0000
0.0 0.0 0.0 0.0 0.0 0.0 0.0 0.0
0.0 0.0 0.0 0.0 0.0 0.0 0.0 0.0
0.0 0.0 0.0 0.0 0.0 0.0 0.0 0.0
0.0 0.0 0.0 0.0 0.0 0.0 0.0 0.0
0.0 0.0 0.0 0.0 0.0 0.0 0.0 0.0
0.0 0.0 0.0 0.0 0.0 0.0 0.0 0.0
0.0 0.0 0.0 0.0 0.0 0.0 0.0 0.0
0.0 0.0 0.0 0.0 0.0 0.0 0.0 0.0

base.mlp.fc_h.2.weight f4 [64]
00000000: 0000 803f 0000 803f 0000 803f 0000 803f
00000010: 0000 803f 0000 803f 0000 803f 0000 803f
00000020: 0000 803f 0000 803f 0000 803f 0000 803f
00000030: 0000 803f 0000 803f 0000 803f 0000 803f
00000040: 0000 803f 0000 803f 0000 803f 0000 803f
00000050: 0000 803f 0000 803f 0000 803f 0000 803f
00000060: 0000 803f 0000 803f 0000 803f 0000 803f
00000070: 0000 803f 0000 803f 0000 803f 0000 803f
00000080: 0000 803f 0000 803f 0000 803f 0000 803f
00000090: 0000 803f 0000 803f 0000 803f 0000 803f
000000a0: 0000 803f 0000 803f 0000 803f 0000 803f
000000b0: 0000 803f 0000 803f 0000 803f 0000 803f
000000c0: 0000 803f 0000 803f 0000 803f 0000 803f
000000d0: 0000 803f 0000 803f 0000 803f 0000 803f
000000e0: 0000 803f 0000 803f 0000 803f 0000 803f
000000f0: 0000 803f 0000 803f 0000 803f 0000 803f
1.0 1.0 1.0 1.0 1.0 1.0 1.0 1.0
1.0 1.0 1.0 1.0 1.0 1.0 1.0 1.0
1.0 1.0 1.0 1.0 1.0 1.0 1.0 1.0
1.0 1.0 1.0 1.0 1.0 1.0 1.0 1.0
1.0 1.0 1.0 1.0 1.0 1.0 1.0 1.0
1.0 1.0 1.0 1.0 1.0 1.0 1.0 1.0
1.0 1.0 1.0 1.0 1.0 1.0 1.0 1.0
1.0 1.0 1.0 1.0 1.0 1.0 1.0 1.0

base.mlp.fc_h.2.bias f4 [64]
00000000: 0000 0000 0000 0000 0000 0000 0000 0000
00000010: 0000 0000 0000 0000 0000 0000 0000 0000
00000020: 0000 0000 0000 0000 0000 0000 0000 0000
00000030: 0000 0000 0000 0000 0000 0000 0000 0000
00000040: 0000 0000 0000 0000 0000 0000 0000 0000
00000050: 0000 0000 0000 0000 0000 0000 0000 0000
00000060: 0000 0000 0000 0000 0000 0000 0000 0000
00000070: 0000 0000 0000 0000 0000 0000 0000 0000
00000080: 0000 0000 0000 0000 0000 0000 0000 0000
00000090: 0000 0000 0000 0000 0000 0000 0000 0000
000000a0: 0000 0000 0000 0000 0000 0000 0000 0000
000000b0: 0000 0000 0000 0000 0000 0000 0000 0000
000000c0: 0000 0000 0000 0000 0000 0000 0000 0000
000000d0: 0000 0000 0000 0000 0000 0000 0000 0000
000000e0: 0000 0000 0000 0000 0000 0000 0000 0000
000000f0: 0000 0000 0000 0000 0000 0000 0000 0000
0.0 0.0 0.0 0.0 0.0 0.0 0.0 0.0
0.0 0.0 0.0 0.0 0.0 0.0 0.0 0.0
0.0 0.0 0.0 0.0 0.0 0.0 0.0 0.0
0.0 0.0 0.0 0.0 0.0 0.0 0.0 0.0
0.0 0.0 0.0 0.0 0.0 0.0 0.0 0.0
0.0 0.0 0.0 0.0 0.0 0.0 0.0 0.0
0.0 0.0 0.0 0.0 0.0 0.0 0.0 0.0
0.0 0.0 0.0 0.0 0.0 0.0 0.0 0.0

base.mlp.fc2.0.0.weight f4 [64, 64]
00000000: dae2 633e 2c23 de3d 65dd 673e 46f5 443d
00000010: c00b 283e 98cc dbbc 8cd0 4ebe 4b20 78be
00000020: 8715 e43e 1a9f ae3e 4d93 51be 7a35 e83d
00000030: 7172 2fbe d1fc 82be cfbc f5bc f2b0 6ebd
00000040: a8b0 98be d0c1 de3d 1585 893e 9749 a5bd
00000050: 7e1e a83e 31ac 2dbe b611 eb3e d8f6 a13c
00000060: 5161 bbbd a47c 7a3b a654 9b3c a390 613e
00000070: 6c82 1e3d fdee 9f3e de84 cf3d 1224 913e
00000080: 204b d33e ba19 003e 39d4 c8be 38b0 36be
00000090: ab96 30be 9e34 123c 0178 eb3d ff56 8bbd
000000a0: bca6 a63e d1b6 423e 7530 12be bec4 8bbd
000000b0: baaa e33d b31e 01be 8d17 d63b 2761 be3e
000000c0: abc8 45bd 79e9 a0bd 41a8 55bd 086f 21be
000000d0: 971d 1dbe ba04 19bc 4b7e 903e 0c0d 473d
000000e0: af9f 3fbe 10a4 9d3e 0b57 413e 9461 df3d
000000f0: 4bc9 fc3d 9dc3 43be ae44 783e d239 b23e
00000100: b1bb 123e 0406 133d 7807 57be 91f4 37bd
00000110: bf08 adbe d20f 33be 6ec4 7abd 799b b63e
00000120: b6cc 883e 2979 ca3e 464d 9a3e cfc3 1fbe
00000130: d890 a8be 148d 673e a032 3f3e 97d7 abbe
00000140: 8812 843e efe1 5f3d c391 013e 9c20 563d
00000150: c97b 463a 5681 1e3e f105 ccbc 916c 2cbe
00000160: d341 103e 00ae d6bc eee6 02be f3b6 533e
00000170: 322c cdbd c9d3 6e3e 1c12 9bbd 395f 56be
00000180: 1e98 a9bd be97 8bbe e065 413e a396 1b3d
00000190: ba23 f63d 084e 2fbe 6732 05bd 1ba4 d13d
000001a0: 4c7b 443d f534 c03d 828f febe d10a 763e
000001b0: 1665 47bd 2973 ea3d 0152 c43e 4edc 30be
000001c0: 4609 463e f36e 56be b5ac 7f3b c85e 13be
000001d0: d0b3 d5be a4ca fc3d df82 7c3b 8dd7 0cbe
000001e0: ce45 ac3d 2793 0c3f 7ca3 39be 9312 063e
000001f0: d1a7 81bc ba28 b93c ef9e 92bd 2279 89be
00000200: 3d80 3d3d 5911 a93d 7617 27be b405 31be
00000210: 545a 10be 0c3a 563e dfd8 963d a914 083e
00000220: 5792 113e faf7 6ebd 6f36 183e bd3b 2abf
00000230: beaf 923e 9978 27bd dde1 153d 416d 323e
00000240: e5f2 a7be ce9e 0ebe 1b8b cf3c 1719 b9bd
00000250: a595 7fbd eb76 96bd d101 d63d 54cf 50bc
00000260: 9ecd b43d 4f18 0ebf 4b14 763e e23a 37be
00000270: aa18 a3be 8e4b 4b3e 5d80 d7bd 5eca 2cbc
00000280: 4d8a e53d c982 313e 28b0 01bf 1a85 a33d
00000290: 6962 2e3e 499d 373c 9e4a dd3d 74f1 6bbe
000002a0: c887 903d 810c e0bc 87ee 1fbe 2b7f 1bbd
000002b0: 88f0 7e3d 7725 373e 93ef b3be 28ac e6bd
000002c0: deaa e53d 1b48 673e 6531 04be 8a3e acbe
000002d0: 97f1 6d3e e40e 923d 8584 8fbe c6ca 9a3b
000002e0: a159 e83e 5e9f 013e f289 debd 0347 103e
000002f0: 2791 3b3e 4080 de3d 87e5 17be a058 d93d
00000300: 2562 8c3e f0d6 ca3a 84ea b53d 7a69 bbbe
00000310: 0426 bbbe 5b6c 873d 6966 9fbd 0a8f 9bbb
00000320: 2f4b 3e3d 62cf a03e 8565 943e ddfc 1abe
00000330: 0352 863e d998 bc3e e3f7 d2be c775 8d3e
00000340: 908a 953c 08f5 a5be 14f4 ff3c 9abe c0bd
00000350: 97b5 843a 8cb6 4b3e 8846 5ebe cf02 aa3d
00000360: 6cda 003f 49c7 45bd c5c4 9bbe e75b 4ebd
00000370: 36ed 073e f9b9 32bd 1abd 363e c860 bd3e
00000380: 039b 7f3d 62bf 2dbe 293e 69bd 9a27 ad3e
00000390: e223 303c 2bb1 0b3c 37c9 8f3c c3f8 eab9
000003a0: 98d0 d139 1edd c5bd 906c 883e c1c4 0e3e
000003b0: 7fa3 c9bd 84c3 b03e 5975 7f3d 5c7f 093e
000003c0: 1cc5 953d e210 a0be d4f9 953d 681d 493d
000003d0: 11fe 213d 1fc8 07be bbcd bb3e e76e 583d
000003e0: 22cb debd a745 ecbc 8b39 b43e 998b 353c
000003f0: a164 a2be 401b 2abe df8a a2bc ee1f 383e
0.22254506 0.10846552 0.22643049 0.048085473 0.16410732 -0.026830956 -0.20196742 -0.24231069
0.44547674 0.3410576 -0.20466347 0.11338325 -0.171335 -0.2558351 -0.029997258 -0.058274217
-0.29822278 0.108768106 0.26859346 -0.08070677 0.32835764 -0.16960217 0.4591195 0.019771025
-0.09149421 0.0038221264 0.018961262 0.22027831 0.0386986 0.3123702 0.10132764 0.28347832
0.41268253 0.12509814 -0.39224413 -0.1784066 -0.17244975 0.008923678 0.11497498 -0.068037026
0.32549083 0.19015051 -0.14276297 -0.06824635 0.11116548 -0.12609367 0.006533569 0.37183496
-0.048287075 -0.078570314 -0.052162413 -0.15765011 -0.15343319 -0.009339506 0.28221354 0.048596427
-0.18713258 0.30789232 0.1888086 0.109072834 0.12343081 -0.1911759 0.24244949 0.34809738
0.14329411 0.03589441 -0.20998943 -0.04491097 -0.33795735 -0.17486504 -0.061222486 0.3566549
0.26718682 0.39545563 0.3013708 -0.15602039 -0.32923007 0.22612411 0.18671656 -0.3356292
0.25795388 0.054658826 0.1265326 0.052277192 0.0007571546 0.15479025 -0.024905177 -0.1683829
0.1408761 -0.026206017 -0.12783405 0.20675258 -0.10018195 0.23322977 -0.075718135 -0.20934762
-0.08280967 -0.27264208 0.18886518 0.037985455 0.12018533 -0.1711961 -0.03251877 0.10236379
0.047969148 0.09385101 -0.49718863 0.24027564 -0.048680387 0.11447746 0.38343814 -0.1727154
0.19339475 -0.20940761 0.0039012854 -0.14391625 -0.4173875 0.12343338 0.0038530154 -0.13754101
0.08411752 0.54912037 -0.1812877 0.13093023 -0.015827091 0.022602428 -0.071592204 -0.2685023
0.046264876 0.08255262 -0.16317543 -0.17287332 -0.14096957 0.2092058 0.07365584 0.13289131
0.1421598 -0.058341958 0.14864515 -0.66497403 0.28649706 -0.040886495 0.036592353 0.1742449
-0.328025 -0.13927767 0.025334885 -0.09037989 -0.06239857 -0.073469006 0.10449565 -0.012744743
0.08828281 -0.5550584 0.24031179 -0.17893556 -0.31854755 0.1985304 -0.1052253 -0.010546295
0.112080194 0.17335047 -0.5065942 0.079843715 0.17029728 0.011206933 0.10805248 -0.23041326
0.07057148 -0.027349712 -0.15618335 -0.037963074 0.062241107 0.17885385 -0.35143718 -0.11263305
0.11214231 0.225861 -0.12909468 -0.33641464 0.2323669 0.071317464 -0.28030792 0.0047238795
0.4538088 0.1265845 -0.10866155 0.14089589 0.1831709 0.108643055 -0.14833651 0.10612607
0.27418628 0.0015475433 0.08882621 -0.3660391 -0.3655244 0.06612464 -0.07783205 -0.004747276
0.04645842 0.3140822 0.28983703 -0.15135522 0.26234445 0.36835364 -0.41204748 0.2762892
0.018254548 -0.32413507 0.031244315 -0.09411354 0.0010124919 0.19893855 -0.21706593 0.08301317
0.50333285 -0.048285756 -0.3042356 -0.050380614 0.13274083 -0.04363439 0.17845574 0.369879
0.06240369 -0.16967538 -0.056944046 0.33819276 0.010750743 0.008526127 0.017552001 -0.000448173
0.00040019 -0.096613154 0.26645327 0.13942243 -0.098456375 0.34524167 0.06236777 0.1342749
0.07312986 -0.3126288 0.073230416 0.04910031 0.039548937 -0.13259934 0.36680397 0.05284014
-0.10878588 -0.028841807 0.35200152 0.011080646 -0.317174 -0.16611958 -0.01984161 0.1798093

base.mlp.fc2.0.0.bias f4 [64]
00000000: c28e 2ebc 257b 4fbb e138 e6bc 1c71 283c
00000010: 319b 693c 5bca 0d3b 7c88 353c 77d0 78bd
00000020: 09b5 7bbc 432d 82bc a8a3 57bd 8436 ffbc
00000030: 39b4 1dbd d153 4fbc dc0b ca3c 0ea7 843c
00000040: bb88 3cbc 704b 863c 6700 823d 182a a8bc
00000050: 4580 273b 326b 003c ecf2 fc3c 131b 63bc
00000060: 6b4a 243c c3fd 84bc 2374 b13d 8245 363d
00000070: 404b 76bd 43da 38bb 6d76 94bc b4a5 2dbc
00000080: 17df 9a3c 0bee 5a3c 8433 e0bb beac 0dbb
00000090: 998e 153d 27cf 20bd 97df 97bc 0d56 ca3c
000000a0: b4e0 acbc 8305 06bc 3ba8 8fbc af0f 133d
000000b0: 6674 ba3c b617 4d3c 1975 85bc 8360 68bb
000000c0: a586 38bc e9d6 423d ce5f 0bbc c6f6 d13c
000000d0: ebdc f63c 22d9 07bd f04d 953c 3583 b1bc
000000e0: 549a e7bc 8b2a 873c fbca a4bc 3fca 59bc
000000f0: 1d95 bebb 0b92 3bbc b3a0 a83c 68da 8b3d
-0.010654153 -0.0031659093 -0.028103294 0.010280874 0.014258192 0.0021635506 0.011079904 -0.060745683
-0.015362986 -0.015890723 -0.05264631 -0.031153925 -0.03850195 -0.012654261 0.024663858 0.01619294
-0.011507208 0.016393393 0.06347733 -0.020527884 0.0025558632 0.007838057 0.030877553 -0.013861435
0.010027508 -0.016234284 0.086647294 0.04449988 -0.060130358 -0.0028206266 -0.018122876 -0.010598589
0.018905206 0.013362418 -0.0068420786 -0.0021617855 0.036512945 -0.039260056 -0.018539233 0.024699235
-0.02110324 -0.008180025 -0.017536273 0.03590363 0.022760581 0.01251786 -0.016291188 -0.0035457916
-0.0112625705 0.047568236 -0.008506728 0.025630366 0.030134639 -0.03316606 0.01822564 -0.02166901
-0.028271832 0.016499778 -0.02011632 -0.013292848 -0.0058161155 -0.011448394 0.02058444 0.06828767

base.mlp.fc2.0.2.weight f4 [64]
00000000: ae5c 7e3f b0a0 753f 3494 7c3f 7b19 7b3f
00000010: f8a0 7a3f c57d 7f3f d370 7f3f 5b7c 7f3f
00000020: d4d6 7d3f 7dee 7c3f 7f39 7d3f 736a 7c3f
00000030: 3545 733f 3384 7f3f f0cc 763f ffcf 7a3f
00000040: 5f42 7e3f 2fbd 823f 85b5 803f 822f 7c3f
00000050: 8445 6e3f 8188 723f 135b 7c3f ae7a 7f3f
00000060: 20fb 753f 7f86 823f d7ae 783f 7459 793f
00000070: e0d4 793f 9c35 7b3f 04d9 743f 1941 7b3f
00000080: 88c2 7e3f 8d1f 783f a620 803f 7a54 7b3f
00000090: 48fa 7d3f 039b 803f 4abe 6d3f 488d 7d3f
000000a0: 93c2 813f 8f25 7c3f 6bd4 7b3f 692f 783f
000000b0: bba0 7a3f af08 773f 7d8b 763f 7252 733f
000000c0: d4c8 723f 7fc3 7a3f 2510 813f 1556 773f
000000d0: bb8d 7c3f 0502 7f3f 0fbd 7f3f 72c8 773f
000000e0: 1386 7c3f a6ed 7f3f de8e 7d3f ba11 843f
000000f0: 8ee9 7e3f 6667 793f 8526 743f ae4e 7f3f
0.9936017 0.95948315 0.9866364 0.98085755 0.9790187 0.99801284 0.9978153 0.99799126
0.99155927 0.98801404 0.9891586 0.9859993 0.95027477 0.99811095 0.9640646 0.97973627
0.99320024 1.0213984 1.0055395 0.9850999 0.9307482 0.9473954 0.9857647 0.9979657
0.9608631 1.0197295 0.97141784 0.9740212 0.97590446 0.98128676 0.9564364 0.98146206
0.9951558 0.9692314 1.0009964 0.98175776 0.99210024 1.0047306 0.92868483 0.99043703
1.0137504 0.9849481 0.98371 0.9694734 0.97901505 0.96497625 0.9630659 0.95047677
0.9483769 0.97954553 1.0083052 0.96615726 0.98653764 0.99612457 0.99897856 0.9679023
0.9864208 0.99972 0.99046123 1.031791 0.99575126 0.974234 0.95371276 0.9972943

base.mlp.fc2.0.2.bias f4 [64]
00000000: 01cf 7ebb 6c91 a538 d078 a7bc b5b2 873c
00000010: f36a 393c 52d4 633c 49b0 be3c 628d 35bd
00000020: e682 73bc 3c76 e8bb 2296 10bd 158c afbc
00000030: fb19 a3bc 7a2e 48bc 76c8 ed3c a64f ad3b
00000040: 0d94 5abc 4ada a23c 9ea9 f73c 1d23 43bc
00000050: 8385 bab9 ef81 6d3c 1503 243d 94e2 65bc
00000060: 4a12 c03c 18bd 23bc 6a9e 143d 67a4 dc3c
00000070: 2852 03bd 20b5 5b3c cf26 c3bb dfca 25bc
00000080: 0cb2 0c3d d7b5 ba3c 9694 03bc dcde 6cbb
00000090: b5a8 813b 138a 90bc 7753 ddbc 95fb 093d
000000a0: 70b4 1ebc e6a1 72bc b8aa 5bbc 6ab5 3b3d
000000b0: 762f c33c b987 f03c be41 37bc 8b58 4e3c
000000c0: fac6 c5bc 5502 1f3d e23b 97bc 395d 123d
000000d0: a529 c43b 0202 f9bc 53e8 2a3d 33fe 86bc
000000e0: a5e3 08bd 0e29 ea3c c290 12bd d002 22bc
000000f0: 90a4 e9bb a56a b0bb 1a76 dc3c ab8c f03c
-0.0038880708 7.8949e-05 -0.02044335 0.016564706 0.011317003 0.013905602 0.023277419 -0.044324286
-0.014862752 -0.0070941728 -0.035299428 -0.021429101 -0.01990985 -0.012218112 0.029026251 0.005289036
-0.013340962 0.019879479 0.030232247 -0.011910227 -0.0003557616 0.014496311 0.040042 -0.014031071
0.02344622 -0.009993814 0.036283888 0.026933862 -0.032060772 0.013409883 -0.005955554 -0.010119169
0.034349486 0.022791786 -0.008031031 -0.0036143577 0.003956879 -0.017643964 -0.027017338 0.033687193
-0.009686574 -0.014809107 -0.013407402 0.045827307 0.023826342 0.029361593 -0.011185108 0.0125943525
-0.024142731 0.038820583 -0.018461172 0.035733435 0.0059864097 -0.030396465 0.041725468 -0.016478634
-0.033420224 0.02858403 -0.035782583 -0.009888366 -0.007130213 -0.005383807 0.026911784 0.02936395

rnn.rnn.weight_ih_l0 f4 [192, 64]
00000000: f229 ffbc e229 aabc 3a04 df3d ed21 513c
00000010: 3243 2dbe 493e 5abd 6a54 29bd c253 3ebe
00000020: df8f 4ebd 631c 86bb 215a 01be 046a dd3d
00000030: c153 5ebd 144d 69bd 4206 d6ba a388 bc3a
00000040: 8b7d 06bd 9c8f 37bc e68e 993d db1f 9bbd
00000050: c342 dc3d 9630 343e ce7a de3c fe0c 953d
00000060: b6fa 14bd ebb3 09bc 5678 0b3d c24a 92bc
00000070: b727 363e da29 42be f930 803d 53e8 8fbd
00000080: aa4c 8c3d c585 49bc 21b1 433d 383d 14bb
00000090: 7811 f13c 4e6c 8cbd df88 883c e578 b5bd
000000a0: 645e 41bd 9ce2 1e3d 6cae 55bd 8eb3 12bc
000000b0: 6667 d3bb ee05 553c eeca 373d c875 dcbd
000000c0: cae9 033c bde3 22be c520 9bbc e51e d03c
000000d0: ce27 afbd 4521 813d 4155 7abd 00a4 55bd
000000e0: 558d bdbd 0c1f 27bd b043 01be f3aa 0e3a
000000f0: d5f3 a6bc 1b4e aebc 873c 0fbe 729d 853b
00000100: cb2b 413d 1821 013e 10db 0d3d 9598 58bd
00000110: d185 933d 719e 06be 2a52 9c3d 5682 823c
00000120: 45e7 4a3d 75b8 0cbd 993e 79bd 0128 a63d
00000130: d7d3 20be 0bb2 f1bd 3005 78bd 2490 37be
00000140: a987 9fbd 8824 0ebe d1d6 06be 7ec1 283d
00000150: 2a07 c4bd 3ef9 183d 9693 31bd 1f36 20bd
00000160: 1d0f 783d 26fb 63bc fb43 35bd c3e7 b5bb
00000170: 51ed 133d d707 133e fa74 3c3d c89b 8a3d
00000180: 23cb bcbd f553 27bd 8e70 02bd 9b68 443e
00000190: e33e a93d 7741 84bd d34c 123d 3f19 d7bc
000001a0: 4bd9 34bd 3240 5a3e cecd 9bbd 30ab fdbd
000001b0: c4dd 473c f4b1 55bd c02e 8fbd 8a1f a1bd
000001c0: 4db6 88bc 6f90 0d3d 193e bcbd 1360 25bd
000001d0: 3b23 50bd c45d a1bd 906b 73bd 2e5f adbc
000001e0: 4fa8 103e 7869 8e3c 8b09 d8bd 2ae4 8abd
000001f0: 4988 41bd 9b92 d73c b39e a33c 35c3 8c3d
00000200: 2aea 743d 56e7 933b 5774 f53b c3aa 0dbe
00000210: 63cc b13d 04c7 a23b 46ee f63c f386 0dbd
00000220: a161 e93d 85f8 debd 549a 7a3a 94f3 523d
00000230: 2ec7 cabc 1073 8dbd 90c4 73bc 6270 733d
00000240: 2c28 1e3b 9518 dd3c b134 d3bb 8d44 4b3d
00000250: 65f5 44bb 17ab 08bd df00 a23d 8537 b9bd
00000260: c373 893d 2bbf 233d c152 b7bd 1c2e 92bd
00000270: 0261 babd e295 f7bc 1c3d 3bbb e7bd 28bc
00000280: eac8 e63b db87 953d 4153 8dbb c6ff 083e
00000290: bc81 983d c8ee d6bc 6133 6d3d 3fec d13d
000002a0: 3a24 233c 7cfd 12bd f177 ebbd 8743 6fbd
000002b0: 3b57 09bd 120e beba d1b7 f0bd 0bfe c3bd
000002c0: dc5b 9b3c c787 34bd 8f96 a3bd be63 bfbc
000002d0: ef3b 053d 2588 4a3d d932 70bd 2338 9ebd
000002e0: 73c8 febd 9b1a 243d bb82 193e 2b2f 11be
000002f0: df5c 9d3d 6c32 36be c155 103d 78ab 84bd
00000300: c776 5a3d ff3c a9bd 66ab 483d 1147 253e
00000310: f1f7 73bd 91ca 563c 31b2 d93c fc26 b3bd
00000320: e4a6 9d3c a9cb d23d 23e2 ab3d 51dc ad3b
00000330: 0d75 303d 59e5 ef3d ae4e ff3d fe72 a1bd
00000340: 5eef ca3c 9ab5 393c 7ae0 b4bc 6d20 f83b
00000350: 0d89 45bd a1b6 eb3c 30de 04be bd81 bfbb
00000360: 79b9 df3c a041 db3b 8ae8 ad3b aeed aebd
00000370: 0207 e4bb 86a8 013d 1456 77bb 4954 413d
00000380: 8b02 033c 1b33 673d 2d34 8e3d 204b 0abd
00000390: e1a3 013e 147a b93d c879 a3bd fbd6 25be
000003a0: ecb7 5d3d 41bd 29bc 4e7c 3abc 7c69 23be
000003b0: cbed 043c 4968 713d 05aa f0bb 3221 513c
000003c0: b3cd a1bc 5493 37bd 5fb0 83bd 4126 1b3d
000003d0: f18e 783c 0f5f 813e 2f3b b43d fdb6 ff3c
000003e0: d9f9 3abe 82cd 80bd 2ccc 4a3c 27c4 e5bc
000003f0: dffc 2a3c 35cd 5fbc 1cad babd 4708 a93b
-0.03114793 -0.020771924 0.10889478 0.012764436 -0.16920164 -0.053282056 -0.04134027 -0.18586639
-0.050430175 -0.0040927394 -0.12632038 0.108112365 -0.054279093 -0.056958273 -0.0016328769 0.0014383983
-0.03283457 -0.011203673 0.07497959 -0.07574435 0.10754921 0.17596659 0.027158167 0.07277869
-0.03637191 -0.008404712 0.03405031 -0.017857913 0.17788588 -0.18961278 0.06259341 -0.07026734
0.0685056 -0.01229996 0.047776345 -0.0022619497 0.029427275 -0.06856595 0.016666828 -0.088609494
-0.04720916 0.03879033 -0.052168295 -0.008953942 -0.006451535 0.013001902 0.044871263 -0.107646525
0.008051345 -0.15907188 -0.018936524 0.025405357 -0.08552514 0.06305174 -0.06111646 -0.052158356
-0.092554726 -0.040801093 -0.12623477 0.00054423435 -0.02037994 -0.021277478 -0.13987933 0.004077607
0.047160905 0.1261028 0.034632742 -0.05287989 0.07203258 -0.13146378 0.07632859 0.01593129
0.049536962 -0.0343556 -0.060850713 0.08113099 -0.1570581 -0.11801537 -0.060551822 -0.17926079
-0.07789547 -0.13881123 -0.13167883 0.041200154 -0.09571679 0.03734707 -0.04335364 -0.039114114
0.06056129 -0.013914859 -0.044254284 -0.00555131 0.036114994 0.1435846 0.046009995 0.06767994
-0.09218433 -0.040851552 -0.03184562 0.19180529 0.08263948 -0.06457799 0.035717797 -0.026257155
-0.04415254 0.21313551 -0.076076135 -0.12386167 0.012198869 -0.052171662 -0.06991339 -0.07867344
-0.01668849 0.03456157 -0.09191532 -0.040374827 -0.05081485 -0.078792125 -0.05942875 -0.02116355
0.14126705 0.017384276 -0.10548695 -0.067818 -0.047249112 0.026315024 0.019973135 0.0687317
0.05979363 0.0045136614 0.0074906754 -0.13834672 0.08681562 0.004967572 0.030142915 -0.034552526
0.11395574 -0.10887245 0.000955974 0.051501825 -0.02475318 -0.06906712 -0.014878407 0.05943335
0.002413283 0.02698926 -0.0064454903 0.049625922 -0.0030053493 -0.03336629 0.079103224 -0.09043793
0.06711533 0.039977234 -0.08951331 -0.07137701 -0.09100534 -0.030222837 -0.002857036 -0.0102991825
0.007042994 0.07301303 -0.004312903 0.1337882 0.0744662 -0.026236907 0.057910327 0.102501385
0.009957368 -0.035886273 -0.114974864 -0.05841401 -0.033530455 -0.0014500043 -0.1175381 -0.09569939
0.0189647 -0.0440748 -0.07987701 -0.02336299 0.03252786 0.049446244 -0.058642242 -0.07725551
-0.124405764 0.040064435 0.14991276 -0.1417815 0.076837294 -0.17792672 0.03523803 -0.064780176
0.05333593 -0.08263587 0.048991583 0.16140391 -0.059562627 0.013109819 0.026574226 -0.0874767
0.019244619 0.10292751 0.083927415 0.005305805 0.04308038 0.117136665 0.12466179 -0.07883261
0.024772342 0.011334801 -0.022079695 0.007572225 -0.048226405 0.028773608 -0.12975383 -0.0058443234
0.02731012 0.0066911727 0.005307262 -0.085414276 -0.006958843 0.031654857 -0.0037740516 0.04719952
0.007996212 0.056445222 0.069435455 -0.03376305 0.12660171 0.09056488 -0.07982212 -0.1619529
0.05413048 -0.010360063 -0.011382176 -0.15958208 0.008113335 0.058937345 -0.0073444867 0.012764262
-0.019751405 -0.044818237 -0.064301245 0.03787828 0.015170799 0.25267836 0.08800351 0.031215185
-0.18259372 -0.062891975 0.01237778 -0.028047634 0.010436266 -0.013659765 -0.09115049 0.0051584574

rnn.rnn.weight_hh_l0 f4 [192, 64]
00000000: 98dc cfbd 7ab7 213b 28e8 ac3d be9f 153c
00000010: fd72 aabd 2cd2 9d3b ac94 f0bc 3ddc c0bd
00000020: da15 92bd adb3 183c 6049 0fbe e38f e33c
00000030: a85f cabd af25 a73c a336 80bb 9ed0 e3bc
00000040: 1b6b 42bb fb04 ba3d a7b4 1ebd 4e3a 54bb
00000050: 18d9 6e3b 384d 4d3b 5d2d 89bd ab89 0cbc
00000060: 75c3 96bc 4f90 b0bd 4ff0 183e dc84 553e
00000070: 97f1 8abb c6fe 9bbd 8ffe 143d 4dc5 bb3d
00000080: d210 213e 4c3f 04be 34b1 5a3c a5e7 8abd
00000090: fa69 033d 5c89 bf3b d9e2 883c 84db b13d
000000a0: 6831 e93d 0764 04bc 29d2 d4bd dc1d 383d
000000b0: 6f77 84bd 13b9 873d 8c10 203d 94f7 0a3d
000000c0: f0c0 933d 371a 1bbe 7d56 a4bc 637b 3c3d
000000d0: 8bcd 09be 35d1 74bb b32e 55bd 96de 893d
000000e0: e8c9 80bc 0eb2 77bc 9bfe c3bd 36cc 36bd
000000f0: 8d85 9d3d 50ec 853d 0fdd f1bd f880 853d
00000100: 05fb 4abd 0a61 8abd 21fe 3e3b 9f94 b7bc
00000110: d0bf ed3d 1be7 223b f952 c43c e89e 54bd
00000120: 6e92 af3d 9ae2 6c3d 38e1 2ebd 4b11 6e3d
00000130: 5b6d 313e 848b 83bd 1eb7 613c dd57 d9bd
00000140: efe9 9dbc 83f2 af3d 212f 163e ed76 d1bd
00000150: e946 a7bd f0d7 9ebd c4d5 483e d5e5 aa3c
00000160: b560 413d 1708 56bb 5586 05be 38aa 493d
00000170: ef06 683d 79f9 7ebc 5036 863d 3335 d8bd
00000180: 8cf6 343d c9ca 3fbd 5a77 b8bd 1db9 153e
00000190: dc6c 933c 94e6 b5bd f1b2 103d 56a0 253e
000001a0: 20cd 9bbd 20ea 083e febb d8bd aef8 abbd
000001b0: de35 fe3c 4236 b03d 5ccb bf3d ddf0 15be
000001c0: 6c6d 9abd 6958 143e 790d 73bd db85 c4bd
000001d0: 6dd6 2b3e 1271 aebd a0f4 913d e77d e1bb
000001e0: 3030 a5bd af9c 3f3d 97c9 b93c fdbb 08bd
000001f0: faad febc c201 a73c 3861 a43c c08b e5bd
00000200: e084 9bbd 629f 333d 6b18 81bd 2aba 23bd
00000210: af0f 943d 18fa acbb 79b8 153d ebc1 453d
00000220: d9a1 26bd d148 bf3c 59c3 fa3c 4591 ab3c
00000230: d93e 993d 1c3f 05be 976e 8ebd 56f9 a53d
00000240: 8a41 92bd cf06 003d 554e fd3c 114c cf3d
00000250: 5e5e 57bd 2970 a9bd 8915 e1bc e033 29be
00000260: b414 bdbd 906e f3bc 13da e23d 12a6 99bd
00000270: cacc f3bd c2e6 0d3e e8f0 e03d 98d8 643d
00000280: f527 34bd c6fb 89bd abb2 303d 96fd 163d
00000290: a219 6d3d 787c a93b c845 ab3d 4d41 10be
000002a0: 755a e1bd e0e4 643d 5f90 61bd 7406 a6bd
000002b0: b642 2abc b7e0 353e 1bf4 8c3d 980a 5cbd
000002c0: ee78 d73d 89b8 c3bd 528b 703d e646 49bc
000002d0: d919 3cbd 5f5f 27bd f7f5 d0bc 5115 823d
000002e0: fab4 69be 9915 14bd f55f 71bd d640 6f3d
000002f0: e08d ff3d b8ce 23bd a99a 893d 53f3 8b3c
00000300: 91d6 8dbc cebb 23bd 3158 163e 0220 873c
00000310: 8ffa 81bd 95b8 d4bd 2569 403c 37e8 5e3e
00000320: a4f3 853d 8ec2 d63c 9d09 46bd af33 af3c
00000330: f191 9a3c 84e9 433c 2dd1 b4bc 892f d1bc
00000340: f93f e0bd 869b e73c 9077 42be 57d2 453c
00000350: 2337 a83d b807 0c3d 3b20 b93c a059 d4bd
00000360: 1da8 0cbd 632b d83c 5a13 bbbb 2ffc 23bd
00000370: 7985 013e 837a 9bbc 0bd2 c93c 6457 2b3d
00000380: e027 873d 265f 4ebd 953e bd3d 522c 55bd
00000390: 6649 eabd 7a66 94bb 7f51 633d 865e 883c
000003a0: b4eb e5bc 7772 8a3c 82f0 213d d821 b0bd
000003b0: 7699 82bd de23 fc3d df41 fcbd 42d4 d33d
000003c0: a3ae f3bc ef86 4bbd b068 c6bc 969e 9fbc
000003d0: 1769 b43d e333 89bd 35d9 ce3d 8ced 023d
000003e0: 6b7e b83c e83c 08bd dedc a63d 1012 453c
000003f0: 1eb5 c8bc 7404 51bd 9b6b 39bd e3d8 cbbc
-0.10149497 0.002467601 0.08442718 0.009132324 -0.083227135 0.004816314 -0.029367767 -0.09417007
-0.07133074 0.009320182 -0.13992834 0.027778571 -0.09881526 0.020403711 -0.003912763 -0.027809437
-0.002966589 0.09082981 -0.038746502 -0.0032383385 0.0036445316 0.0031326544 -0.066981055 -0.0085777445
-0.018403748 -0.08621275 0.1493542 0.20851463 -0.0042402255 -0.076169536 0.03637558 0.091684915
0.15729073 -0.12914771 0.013347913 -0.06782464 0.03208349 0.005845232 0.016709732 0.086844474
0.113863766 -0.008080489 -0.10391647 0.04495035 -0.06468093 0.06627097 0.03907828 0.033927515
0.07214534 -0.15146719 -0.020060772 0.04601611 -0.13457315 -0.0037356142 -0.05204649 0.06731908
-0.015721276 -0.015118135 -0.095700465 -0.044628344 0.076914884 0.06539214 -0.11809742 0.065187395
-0.049555797 -0.0675679 0.0029143172 -0.022409735 0.11608851 0.0024856988 0.023965346 -0.051909357
0.08572851 0.05783329 -0.042695254 0.05812196 0.17326872 -0.06423095 0.013776569 -0.10612462
-0.019276587 0.08591177 0.14666416 -0.102277614 -0.08167822 -0.077560306 0.19612795 0.020861546
0.047211368 -0.003265863 -0.13039525 0.0492346 0.056647237 -0.015562409 0.06553328 -0.10557022
0.044180438 -0.04682425 -0.090071395 0.14621396 0.017996244 -0.0888187 0.0353269 0.16174445
-0.07607484 0.13370562 -0.10582732 -0.08397041 0.031031545 0.08604099 0.093649596 -0.14642663
-0.07540402 0.14486851 -0.05933902 -0.095958434 0.16781016 -0.0851766 0.07126737 -0.006881464
-0.08065832 0.046780284 0.022679133 -0.033382405 -0.031088818 0.02038658 0.020065889 -0.11208296
-0.07593703 0.04385317 -0.063034855 -0.03997246 0.07229554 -0.005278837 0.03655288 0.048280638
-0.040681694 0.023350151 0.030610727 0.020943293 0.0748269 -0.13012356 -0.06954687 0.08104198
-0.07141407 0.031256493 0.03092114 0.101219304 -0.05258023 -0.08273346 -0.02747609 -0.16523695
-0.092324644 -0.029715806 0.110767506 -0.075023785 -0.11904295 0.13857558 0.10983449 0.055870622
-0.04398342 -0.06737475 0.04313914 0.036862932 0.057885773 0.0051723085 0.08362919 -0.1408741
-0.110035814 0.055882335 -0.055069324 -0.081066996 -0.010391882 0.17761503 0.06882497 -0.05372104
0.105211124 -0.09556682 0.058726616 -0.01228497 -0.045923088 -0.040862437 -0.02550791 0.06351722
-0.22822943 -0.03615341 -0.058929402 0.05841144 0.124782324 -0.039992064 0.06718952 0.0170838
-0.017314227 -0.039974026 0.1468208 0.016494755 -0.063466184 -0.10386769 0.011743818 0.2176827
0.065406114 0.026215818 -0.04834901 0.02138695 0.018868418 0.01195753 -0.022072399 -0.025535362
-0.10949702 0.028272402 -0.18990922 0.012074075 0.082136415 0.03418705 0.022598376 -0.10368657
-0.034340013 0.026387876 -0.005709094 -0.040035423 0.12648572 -0.018979317 0.02463629 0.04183139
0.065994024 -0.05038371 0.09240452 -0.05204422 -0.11439781 -0.0045288177 0.055497643 0.016646635
-0.028066494 0.016900284 0.039536007 -0.08600205 -0.063769266 0.123115286 -0.123172514 0.10343219
-0.02974636 -0.04968923 -0.02421984 -0.0194848 0.08809107 -0.0669935 0.10100023 0.031964824
0.022521218 -0.03326121 0.08147596 0.012028232 -0.024500426 -0.051029637 -0.045268636 -0.024883693
