onpolicy/scripts/results/MPE/simple_spread/rmappo/check/wandb/run-20220705_093310-11gjpxft/files/actor.pt (torch, 147692 bytes, 22 tensors)

base.feature_norm.weight f4 [18]
000000 70 98 7b 3f af aa 65 3f 5a f5 69 3f 5a a8 6c 3f
       0.98279476 0.8971357 0.9139 0.92444384
000010 1c 76 8c 3f ff 8b 88 3f 0c 51 85 3f 57 06 86 3f
       1.0973544 1.0667723 1.0415359 1.0470685
000020 d3 cc 85 3f 8c d1 89 3f 8c 63 82 3f 77 c6 82 3f
       1.0453132 1.0767074 1.0186629 1.0216817
000030 24 fa 79 3f e3 cc 7d 3f 59 79 85 3f 45 d5 7a 3f
       0.9764731 0.9914076 1.0427657 0.97981673
000040 51 79 66 3f 81 78 81 3f
       0.90028864 1.01149

base.feature_norm.bias f4 [18]
000000 b0 81 cd bb 77 5b 0b 3a bc 16 e7 bb 12 22 8c 3d
       -0.0062715635 0.00053160585 -0.0070522707 0.06842436
000010 07 10 36 bc 3d 75 89 bc 90 ae 4b bc 9f f6 ab bc
       -0.01111222 -0.016779536 -0.012431756 -0.020991622
000020 ec e6 06 bd be 62 da 3c e4 af 8b 3c 52 40 72 bc
       -0.032935068 0.026658412 0.017051645 -0.014785843
000030 70 33 18 3d bc 9c 27 bc a9 a0 39 bd 1b 97 fa bc
       0.03715843 -0.0102302395 -0.045319233 -0.03058963
000040 ba b3 07 3c 15 04 b0 3d
       0.008282596 0.085945286

base.mlp.fc1.0.weight f4 [64, 18]
000000 7c 57 f8 3c 9e a5 96 bd 9f ce 18 be dd 34 20 bc
       0.030315153 -0.07355808 -0.1492257 -0.009778229
000010 c7 0d 9a bd 94 e7 c8 bd d7 dc 47 3d ae 58 3c 3d
       -0.07522159 -0.09809795 0.048794594 0.04598301
000020 63 9f 07 bf 9d 67 9a 3e 9b 80 60 3e 35 9e e5 3b
       -0.5297758 0.30157176 0.21924059 0.007007385
000030 36 d0 ef 3c 09 89 28 3e 07 4f 98 bc 54 ee f0 bd
       0.029274087 0.16458525 -0.01859237 -0.117642075
000040 24 82 49 be 83 0d 2f 3e fa 0d 38 be 9f 20 84 3e
       -0.19678551 0.17094998 -0.17974082 0.25806138
000050 aa 02 2d 3c f5 8e 0c 3e 6e c5 96 3d b3 e2 ae bc
       0.010559717 0.13726409 0.073618755 -0.021348333
000060 a7 c0 be be 0b a2 4e 3e 3f ff aa be 63 8f 3c 3e
       -0.37256357 0.20179002 -0.33397862 0.18414073
000070 ee 24 0e 3e ca 72 1b 3e ed ff 2a be 81 ed 0b be
       0.13881275 0.15180507 -0.1669919 -0.1366482
000080 5a de 9a bd 66 2a 0b 3d d7 46 a4 3e 4f a8 f5 bd
       -0.075619414 0.03397598 0.32085297 -0.11994993
000090 1b 60 28 be fe 2e e8 bd 95 e8 96 bd 60 b7 19 3e
       -0.16442911 -0.11337088 -0.0736858 0.15011358
0000a0 8b d6 72 3d 9e 61 0e 3d 8c ac a4 be 70 08 8e be
       0.059286635 0.034761064 -0.32162893 -0.27740812
0000b0 05 62 ca be f0 c0 0f 3c 72 0e 9a 3e 95 9b ed 3e
       -0.39527908 0.008774027 0.30089146 0.46407762
0000c0 82 6a e0 3e fa f6 ac 3d 7b b2 35 3e 69 6a 69 bd
       0.4383126 0.084455445 0.17743866 -0.056986246
0000d0 71 bf 8b 3b 20 e3 11 3e 31 11 b7 3d bc a7 f0 3d
       0.004264765 0.14246798 0.08938826 0.11750743
0000e0 0b 8a 3d bf 70 61 a4 be 91 a4 e0 3e c4 47 b8 3e
       -0.7403876 -0.3210559 0.43875554 0.35992253
0000f0 62 50 9c 3d a2 59 61 3e e1 74 10 bd e2 49 64 3d
       0.07632519 0.22006848 -0.035267714 0.055734523
000100 d1 3b 87 be 7a 3d 1e be a9 9e af 3c f3 ad fa bd
       -0.26412824 -0.15453139 0.02143796 -0.122402094
000110 a3 f1 14 3e 1c de fb bc 90 50 7b be f5 35 2a 3e
       0.14545302 -0.030745558 -0.24542451 0.16622145
000120 5e 1e fb 3d 10 a5 52 be 4e d1 35 be 12 5e bb bd
       0.122616515 -0.20570779 -0.17755625 -0.09148802
000130 bd a3 9c be 12 ef b9 bd 79 c2 b8 3c e7 4c 54 be
       -0.30593672 -0.09078802 0.02255367 -0.20732461
000140 81 b6 a7 bd 4c 96 09 be 45 ee 2d be 30 88 74 3d
       -0.08189107 -0.1343624 -0.16985424 0.05970019
000150 ce 1b 0b be 29 24 fa 3d 3c ca f8 bd 00 36 b2 3e
       -0.13584825 0.12213928 -0.12147948 0.34806824
000160 cc 7c 36 3e 34 ab 11 be c0 e1 db 3e b3 b3 73 be
       0.17821044 -0.14225465 0.4294567 -0.23799019
000170 56 6f 58 3e 6a 5c d1 bd 60 46 74 3e f9 65 75 3c
       0.21136221 -0.10222705 0.23854971 0.014977925
000180 4a 4f 36 3e 1f 72 8d be d1 a4 11 bf fc 75 96 3e
       0.17803684 -0.2762613 -0.56892115 0.2938689
000190 ac bf f1 bd 9a b0 61 3e 33 7b a2 bd 92 6c 96 3b
       -0.11804137 0.22040024 -0.07933655 0.0045905793
0001a0 45 a8 da 3e 48 14 d9 bd e4 9f 9d 3d 29 2f aa 3d
       0.42706504 -0.105995715 0.07696512 0.08309776
0001b0 2e 45 0a 3e 26 c3 77 be 5f cc 56 3e 6a 8e 71 3d
       0.13502952 -0.24195537 0.20976399 0.058973707
0001c0 96 bc 77 bd a0 bc 17 be 22 03 c8 3d 64 82 a9 be
       -0.060482584 -0.14818048 0.097662225 -0.33107293
0001d0 a2 b9 31 be bf b8 92 3e 54 41 1b 3e 88 80 55 be
       -0.1735597 0.28656575 0.1516164 -0.20849812
0001e0 78 49 2a be f9 f3 ba 3d c9 25 2e 3e 55 e7 bf bd
       -0.16629589 0.09128565 0.17006601 -0.09370295
0001f0 81 25 04 3e 1e 47 42 bd b5 f4 18 3d 9a 44 94 3e
       0.12904932 -0.047431104 0.037342746 0.2895859
000200 72 9a 75 3d c5 e6 3f bd d5 0a 41 3d ba 5d c7 be
       0.059961744 -0.04685094 0.04712947 -0.38938695
000210 4b 49 1c 3e 54 01 8a 3e 94 18 60 be 00 aa f8 bd
       0.15262334 0.26954138 -0.21884376 -0.121418
000220 d1 a0 c4 bc 5e 5f 1f 3d 82 7c 66 be 9a c0 1c 3d
       -0.024002464 0.03890931 -0.22508433 0.038269617
000230 78 a7 0a 3e a8 d0 3d be ef 34 54 be 64 74 9f 3d
       0.13540447 -0.18536627 -0.20723318 0.077858716
000240 c9 25 65 3e 83 92 90 be 03 45 7d 3d bc aa 4d be
       0.22377695 -0.2823678 0.061833393 -0.20084661
000250 73 28 ed 3e ef 5b 67 be ac a4 d9 3d b2 f9 b4 3e
       0.46319923 -0.22593664 0.10627112 0.35346752
000260 ad 08 ef 3d 43 b3 a4 3d 7f 01 7c 3e ca 15 90 3e
       0.11671577 0.08042004 0.24609946 0.28141624
000270 88 cb 2f 3e c1 25 35 3d c4 a5 9c bd 8b 7b 1e be
       0.17167485 0.044225458 -0.07648805 -0.15476815
000280 a4 b5 f4 be b6 ba 4d 3b 3f de 91 bd 34 f3 bf 3e
       -0.4779483 0.0031391806 -0.07122468 0.37490237
000290 71 13 92 3e 6c ef 91 3b 03 52 01 be a9 30 fe 3c
       0.28530458 0.00445359 -0.12628941 0.031029062
0002a0 3b 95 85 3d ab d2 42 3e 25 63 83 3e e8 83 46 be
       0.06522604 0.19025676 0.2566158 -0.19386256
0002b0 46 d4 cc bd 16 7c 0f 3e d0 23 17 3e 74 60 6b 3e
       -0.100014254 0.14012179 0.14759755 0.22986013
0002c0 ad 93 3e bd 43 a8 39 be fc a8 01 bd 5d 78 b2 bc
       -0.046527553 -0.18130593 -0.031655297 -0.02178591
0002d0 53 25 6d 3d 48 ae 34 3d 92 79 77 3e 60 e3 ab bc
       0.057896923 0.04411152 0.24167469 -0.020982444
0002e0 ac e7 0f 3e 78 5f 17 3f 3f 06 16 3d 1b de ab 3e
       0.1405322 0.5913005 0.03662705 0.3356789
0002f0 6e 39 16 3e a0 c9 6f 3e 51 97 44 3e c1 64 1a 3e
       0.14670345 0.23416758 0.19198348 0.15077497
000300 09 79 ac bd 4f d7 bf bc 17 a4 4f 3e d2 1b b9 3e
       -0.08421523 -0.023418097 0.20277439 0.36154038
000310 46 74 48 be 68 d4 55 be e5 1e 0d be fc 54 c3 bc
       -0.19575605 -0.20881808 -0.13781317 -0.023844235
000320 e4 da b0 3d 2a de d6 be 97 a6 b9 be 96 57 29 3e
       0.086355 -0.41966373 -0.3625991 0.16537318
000330 bb 91 4f bc 79 4f 98 bc 33 68 31 be f6 ca f3 bd
       -0.012669022 -0.018592583 -0.17324905 -0.11903946
000340 6e db 64 3e 1c 3d a7 be 78 a6 ab 3e 87 ef 66 be
       0.22349331 -0.3266381 0.33525443 -0.2255231
000350 e8 0c bc 3e 30 8d 2f 3e 16 51 e0 3d 09 9c 75 3e
       0.36728597 0.17143703 0.10952966 0.23985304
000360 ef 3e 54 be fb b1 e2 bd c5 7f be bc 94 a8 1e 3d
       -0.20727132 -0.11069103 -0.023254285 0.038734987
000370 b2 c1 1f 3e f9 ad 35 3f 4b a0 91 be be 0f 86 3d
       0.15601233 0.70968586 -0.28442606 0.06545971
000380 d2 c2 43 3e cf 47 9a bd 4c 2f 80 be f2 f3 93 3d
       0.19117287 -0.07533228 -0.25036085 0.07224263
000390 5d 51 3c 3e 87 ff e9 bd 77 ea 4e be 00 f3 3a be
       0.18390413 -0.11425691 -0.20206629 -0.1825676
0003a0 94 be a0 3e 7c 17 36 3c 1e ed d6 3b 8b 42 8e bd
       0.313954 0.011113998 0.0065590283 -0.06946286
0003b0 44 d2 35 bd 6f 40 ce 3d 83 e4 34 3e 56 3a 87 3d
       -0.044389978 0.100708835 0.17665295 0.066029236
0003c0 2b dc b9 3e 8d c5 28 bd 7a 7b da bc df c3 0f be
       0.36300787 -0.041204024 -0.026670206 -0.14039563
0003d0 f8 33 8d be ec b3 12 3e a3 47 df be 20 91 06 bf
       -0.27578712 0.14326447 -0.43609342 -0.52565193
0003e0 c1 46 0a bd 20 61 9f 3d 3b 83 0f 3d 86 8e 0b 3e
       -0.033758882 0.07782197 0.03503726 0.13628587
0003f0 24 a0 4e 3e 29 a3 57 3e 11 ab b7 3e af ee de 3d
       0.20178276 0.21058334 0.358727 0.10885369

base.mlp.fc1.0.bias f4 [64]
000000 21 f6 ee 3c 41 43 86 bc c4 02 ca 3d 4b 67 71 bc
       0.029170098 -0.016389491 0.09863809 -0.0147341
000010 b1 27 28 bd 70 7f dd bc e2 a3 8d 3d 0a ef 8d 3d
       -0.041053478 -0.027038306 0.06916024 0.06930359
000020 64 9e 56 bc 19 35 c8 bc d6 f2 b6 bb 00 7a 95 bc
       -0.013099287 -0.024439381 -0.0055831475 -0.01824665
000030 62 af 8c 3a b9 60 98 bd a9 4f 6c 3b 9a ab fe 3c
       0.001073342 -0.074403234 0.0036058223 0.031087685
000040 b8 5a d3 3c cc 49 70 3c 7c 66 ce 3c 4e 63 4d 3d
       0.025800094 0.014666032 0.025195353 0.050143532
000050 35 bf 92 bd 7f 98 0c 3d 06 20 8f bc 87 3e bb bc
       -0.07165376 0.03432512 -0.017471325 -0.022856964
000060 f7 09 ae bc f4 f3 05 3d 1b 0f 10 bc cc 4b e2 3c
       -0.021244986 0.032703355 -0.008792664 0.027624033
000070 d2 6e 10 bd 1b 78 33 bb bd d7 a6 3c b7 02 10 3b
       -0.035261936 -0.002738482 0.020366544 0.0021974274
000080 2d d9 8c 3d 1d 4d 44 3d 57 2e 06 bd 27 4e c1 3b
       0.068773605 0.047925103 -0.032759037 0.005899209
000090 3e b5 17 ba 2c b8 15 bd 6b 7f 2a 3d be 9d 53 3d
       -0.00057872 -0.036552593 0.04162542 0.051664107
0000a0 e8 dd bf bc 66 72 9c bc 71 fd 2c 3b 0d c5 8e 3d
       -0.023421243 -0.019097518 0.002639618 0.06971178
0000b0 73 4e 28 3c 25 a9 45 bd d3 dc ba 3d 98 3b 9c bc
       0.01027261 -0.048257012 0.0912415 -0.019071385
0000c0 77 f3 eb 3c dc 2f 50 bd 3a 1e 3d bc f2 b8 f1 3b
       0.028802617 -0.050826892 -0.011542851 0.0073767835
0000d0 83 e4 aa 3b 6a 8e 14 3e 8a b0 3d bd ea 2e dd 3c
       0.005215229 0.14507452 -0.04631094 0.02699991
0000e0 a1 01 a5 3d 90 e4 cc 3c 89 68 58 bd c6 54 1c bc
       0.08056951 0.02501133 -0.052834067 -0.009541696
0000f0 ea 85 2b 3d 14 6f 56 bc 9d 83 04 3c 2c 96 a4 bd
       0.041875757 -0.0130880065 0.00808802 -0.080364555

base.mlp.fc1.2.weight f4 [64]
000000 93 4c 82 3f 87 3d 8b 3f 44 56 89 3f 9e f1 80 3f
       1.0179619 1.0878152 1.0729451 1.0073736
000010 ca d1 83 3f 27 f9 81 3f c7 f6 5d 3f c6 36 81 3f
       1.0298398 1.015416 0.8670468 1.009484
000020 12 28 78 3f 89 d1 70 3f 4b 43 89 3f c2 ba 89 3f
       0.9693614 0.94069725 1.0723661 1.0760119
000030 4c d4 8b 3f b6 93 85 3f 8f 51 75 3f 37 b6 81 3f
       1.0924163 1.0435703 0.95827574 1.0133733
000040 f4 df 61 3f bf 0c 89 3f 9e 21 82 3f 33 ca 80 3f
       0.8823235 1.0707015 1.0166509 1.0061706
000050 0f 60 6c 3f 78 45 85 3f 31 97 83 3f e3 42 8c 3f
       0.92334074 1.0411825 1.0280515 1.0957912
000060 f2 73 85 3f 3f 18 80 3f b6 3f 83 3f 4c 3f 76 3f
       1.0426009 1.0007399 1.0253818 0.96190333
000070 be 9b 6c 3f a3 fd 85 3f 9c 93 83 3f ad 14 82 3f
       0.92425144 1.0468029 1.0279422 1.016256
000080 e1 d7 89 3f 1e 2d 62 3f 83 39 7b 3f 1c c0 75 3f
       1.0769006 0.88350093 0.9813463 0.9599626
000090 05 22 8d 3f f9 35 8a 3f 02 48 7a 3f d9 13 7f 3f
       1.1026007 1.0797721 0.97766125 0.9963966
0000a0 5c 75 86 3f f6 38 80 3f d8 26 6f 3f f6 9f 84 3f
       1.0504565 1.0017383 0.93418646 1.0361316
0000b0 5a 89 7c 3f d6 a6 83 3f 26 00 82 3f de 1e 6a 3f
       0.9864708 1.0285289 1.0156295 0.9145335
0000c0 85 7e 7e 3f 9f 3e 88 3f dc 67 7d 3f 7d 79 84 3f
       0.99411803 1.064411 0.989866 1.0349575
0000d0 7a 29 86 3f e1 9e 6e 3f f4 6d 84 3f 64 83 72 3f
       1.0481408 0.9321118 1.0346055 0.94731736
0000e0 60 a2 82 3f 16 3e 8b 3f 8a 95 78 3f c1 b7 82 3f
       1.0205803 1.0878322 0.9710318 1.0212327
0000f0 99 64 8b 3f ef b6 89 3f 47 c5 7a 3f ed c2 6d 3f
       1.0890075 1.0758952 0.9795727 0.9287556

base.mlp.fc1.2.bias f4 [64]
000000 c7 a0 1b 3c e4 78 7e bc 43 07 21 3d 92 87 03 3d
       0.0094987815 -0.015531752 0.039313566 0.03211171
000010 48 2e b4 bc 87 cb 1f bc a1 d9 4a 3d eb 72 9e 3d
       -0.021994725 -0.009753115 0.049523953 0.077367626
000020 12 d2 ea 3c ae 25 87 bc b2 4c 3d bc 85 cc 50 bc
       0.028664622 -0.01649746 -0.01155393 -0.012744074
000030 78 06 55 bd f1 83 ca bb d5 aa 92 bc e7 0a 1e 3c
       -0.052008122 -0.0061802794 -0.017903725 0.009646154
000040 52 fc 2c 3d c5 f2 28 3c d2 2b 7e 3d 88 51 6b 3a
       0.04223282 0.010311787 0.06205351 0.00089766877
000050 29 55 87 bd 42 10 a1 3c 9a 90 3c 3c af 9c 04 3d
       -0.0660804 0.019661073 0.011509085 0.032375988
000060 f3 cc f7 bb 3b 24 93 3c 19 d9 40 bc b2 f0 d2 3d
       -0.0075622736 0.017961612 -0.01177051 0.10299815
000070 5f a1 28 3d 37 1e 6a bc 14 fe 53 3c c4 69 87 bb
       0.04116952 -0.01428943 0.012938995 -0.0041324813
000080 80 44 6a 3d 64 cc c7 3c 62 48 6e 3a 5e d5 9a bb
       0.057194233 0.024389453 0.00090897654 -0.0047251424
000090 6c d8 e1 3b 36 33 ac 3c b1 5a 97 3c b4 dc 06 3d
       0.0068922546 0.021020513 0.018475862 0.032925323
0000a0 25 15 ae 3c c2 3e 4e 3c dc c9 8c bd d8 e3 fc 3b
       0.021250317 0.012588205 -0.06874439 0.007717591
0000b0 6a 03 0f 3c 9c 96 09 bd 17 99 91 3d 18 23 36 bc
       0.008728841 -0.033590898 0.07109278 -0.011116765
0000c0 0c fb 7c 3d d1 33 9c bc 32 de de bc 88 d5 9d bc
       0.061762854 -0.019067677 -0.02720556 -0.019266859
0000d0 b9 2d dc 3b 00 58 eb 3d 10 8a 1b bc a9 85 43 3c
       0.0067193178 0.11491394 -0.009493366 0.0119337225
0000e0 ca 07 75 3d f8 19 6b bc d1 d0 02 bd 48 c0 31 3c
       0.05982188 -0.014349453 -0.031937424 0.010849066
0000f0 37 a0 3e 3d 82 c3 ee 3a 6e 64 8f bc b6 8f 81 bd
       0.04653951 0.0018216225 -0.017503943 -0.06326239

base.mlp.fc_h.0.weight f4 [64, 64]
000000 20 24 09 3d 93 ad 17 be 0b 51 24 3d ba b4 21 3e
       0.033481717 -0.14812307 0.04011635 0.15791598
000010 5e e3 85 be be 42 3c 3e 8e 2c c9 bd b0 b6 36 be
       -0.2615003 0.18384835 -0.09822951 -0.17843127
000020 3a 72 7b be 83 e7 56 3e f7 fa 71 3d 5c c5 0c bf
       -0.24555293 0.20986752 0.05907723 -0.54988647
000030 b4 eb a9 be 71 c9 9e bd 09 6e 82 be b8 29 6e 3e
       -0.3318764 -0.07753266 -0.25474575 0.23258102
000040 f8 34 11 bd a4 54 94 3e 7b e2 2c 3e bd 64 bd bb
       -0.035450906 0.28970826 0.1688327 -0.005779831
000050 08 6f ab bd 17 ff 99 3c 5f f3 c1 3e 3c ed b9 be
       -0.08370787 0.018798394 0.3788099 -0.36313808
000060 53 e4 20 be bd c6 01 3e 22 b4 90 be 88 04 24 3e
       -0.15712099 0.12673469 -0.2826243 0.16017354
000070 b8 de 93 3e 80 56 30 bb 34 33 b6 bd c7 64 09 be
       0.28880858 -0.0026907027 -0.08896485 -0.1341735
000080 7f e6 d8 3e 1a 25 99 bb b8 f8 04 3c 73 d1 26 be
       0.42363355 -0.0046736123 0.00811594 -0.16290836
000090 20 b2 70 3c c2 25 e8 be cc 68 c3 be 22 f9 0c bd
       0.014690906 -0.45341307 -0.3816589 -0.03441728
0000a0 bf 71 29 bd 27 f3 83 3d 68 a3 19 bd 8d f3 4b be
       -0.041368242 0.06442862 -0.037509352 -0.19917126
0000b0 51 07 ad 3e f6 b5 1f 3b 74 e0 30 bd 9a 0a 58 3e
       0.33794644 0.0024369932 -0.043182805 0.21097794
0000c0 3c 43 bf bd 9b 34 3d 3d e1 5a a0 3e 8b 29 9c be
       -0.09338996 0.046192747 0.31319335 -0.30500445
0000d0 11 a8 76 3e 6a 95 b7 3d f3 a1 74 3e 36 89 2e be
       0.2408755 0.08964045 0.23889904 -0.1704453
0000e0 ae 6d 64 be 46 3b 09 3c 22 f1 23 3e 84 7b 9f 3d
       -0.22307464 0.008375948 0.16009954 0.077872306
0000f0 ca 2d 24 be 6b 29 d7 bd fd 68 2e be a7 8e 0e be
       -0.16033092 -0.10505947 -0.17032237 -0.13921605
000100 7f 1e bc 3e 90 75 2e bd 45 30 24 3d 88 5e 4f be
       0.36742017 -0.042592585 0.040085096 -0.20250905
000110 33 a0 eb 3d 76 12 1d 3f fb 3b 1e bf 34 34 e7 bd
       0.11505165 0.61356294 -0.6181027 -0.11289254
000120 e3 6b ae bd 7b 0d fe 3c 1e 66 97 be 0c b3 25 3d
       -0.085166715 0.031012287 -0.29570097 0.040453956
000130 28 6d 6a 3d 47 16 0f 3c 30 f0 64 be b4 42 22 3d
       0.057233006 0.008733339 -0.2235725 0.039614394
000140 6d 8d 09 3d 2f 71 48 be 5b 24 04 3e f6 78 11 3d
       0.03358214 -0.19574426 0.12904494 0.035515748
000150 03 80 01 3e 37 d9 a9 bc 95 65 9e 3d 53 4a 8b bd
       0.12646489 -0.020733459 0.07734219 -0.068012856
000160 d8 ff 47 bc 8a 10 db be 63 0c c8 3d 2a 09 9b 3e
       -0.012206994 -0.42786056 0.097679876 0.3028043
000170 99 cb 40 be 79 32 61 3e 26 80 87 3d 31 c0 b6 bb
       -0.18827666 0.2199191 0.06616239 -0.00557711
000180 79 fa 6d be a0 cf dd 3d 23 97 ae bd 7c fd fe 3d
       -0.23240079 0.10830617 -0.08524921 0.12450692
000190 8b ca 82 be 86 f5 bd 3d 18 98 61 3e 11 9e 1b 3e
       -0.25545153 0.092753455 0.22030675 0.15197016
0001a0 ba b2 a3 be f0 a5 12 3d 27 92 73 3e 25 af 58 be
       -0.31972295 0.03580278 0.23786221 -0.21160562
0001b0 87 b0 d1 3e 9e 1d 79 be 59 66 03 3e 32 69 d7 3d
       0.40954992 -0.24327704 0.12832011 0.10518111
0001c0 80 58 1b 3d 5b 4d 00 3e a7 f0 0f 3d 67 bc 98 3e
       0.037926197 0.12529509 0.035141613 0.2983124
0001d0 9f 3a 71 bd 5d c7 b3 be 1d fe 10 3e cb 3a 7c be
       -0.058893796 -0.3511304 0.14159437 -0.24631803
0001e0 00 f7 c9 bd c7 01 dc bd e9 39 df 3d 82 56 4f 3e
       -0.09861565 -0.107425265 0.10899717 0.20247844
0001f0 a5 f4 1d 3e 18 02 1c be b0 7c 8c 3e 49 64 96 3b
       0.15425356 -0.15235174 0.2743888 0.0045895916
000200 2e 70 94 be f4 70 7c 3e 87 6c 5a 3e a7 f7 9f bd
       -0.28991836 0.24652463 0.21330462 -0.07810908
000210 52 a9 86 3c 38 97 db bd 67 12 8f bc 59 07 22 3e
       0.01643816 -0.10722202 -0.01746483 0.15823115
000220 85 2f 8c be 06 b2 67 3e cb 50 3f be 44 20 25 be
       -0.27380005 0.22626504 -0.18683164 -0.1612559
000230 41 7a ee 3e fb 37 0b 3d 96 16 b4 bd aa 2a 0f 3c
       0.46577647 0.033988934 -0.087933704 0.008738199
000240 a5 8d dc bd b8 e4 d6 3e 4c e9 29 3e 30 d1 e5 3e
       -0.10769204 0.41971374 0.16592902 0.4488616
000250 72 37 39 3e d4 2d 69 be 16 b4 a3 3e 74 0f a9 3e
       0.18087557 -0.22771388 0.31973332 0.33019602
000260 96 07 58 3e aa db 7c 3e 2c 5f 76 3e 84 03 4c 3e
       0.21096644 0.2469317 0.24059743 0.19923216
000270 4c 29 e0 bd ce e1 1f bd f7 c6 1c be 9b 14 26 be
       -0.10945377 -0.039033704 -0.15310274 -0.16218798
000280 fd 2f d0 3c 23 6c 20 bb bb 59 98 be 08 ed 26 3e
       0.025413508 -0.0024478517 -0.2975596 0.16301358
000290 c0 70 ea bb 23 2d 2b be 72 5e 69 bd ed 51 f5 3d
       -0.007154554 -0.16716437 -0.056974836 0.11978517
0002a0 99 c6 f0 bb 8a 09 2c 3c de f5 a1 3e b2 c7 d5 3d
       -0.0073478934 0.010500321 0.31632894 0.104384795
0002b0 40 33 f3 bd 16 5b 46 3d 10 72 69 be 28 10 82 3d
       -0.118750095 0.04842671 -0.22797418 0.06350738
0002c0 a1 03 1b be dc f6 10 3e 17 fe 8a 3d aa dc 9a 3e
       -0.15138103 0.1415667 0.06786745 0.30246478
0002d0 02 eb 1b be 74 a2 64 3e a8 b6 bf 3e 93 e9 8d bc
       -0.15226367 0.22327596 0.37444043 -0.01732329
0002e0 2a 95 d2 3b c3 c7 ed bd 05 48 48 be f2 48 01 bf
       0.006426473 -0.11610367 -0.19558723 -0.5050193
0002f0 1e 05 c6 3d 9b 7b 8f be bc 67 fe 3d a4 7b 58 3e
       0.09668945 -0.2802399 0.124221295 0.21140915
000300 13 4e fb 3d a0 f4 a7 be 9e 2e 84 bd 73 47 a7 3b
       0.12270751 -0.32803822 -0.06454204 0.005104953
000310 00 ed c2 bd 44 eb 99 be cc a3 1a 3d 9a 31 f5 3d
       -0.095178604 -0.30062306 0.037753865 0.11972351
000320 e3 32 71 be 33 ac de 3e c0 87 45 be ed ba 17 be
       -0.23554568 0.43490753 -0.19290066 -0.148174
000330 5e 5c 11 bd f7 f0 8a bc 10 d0 83 3e 5f ea f4 be
       -0.03548848 -0.016960604 0.25744677 -0.4783506
000340 72 59 41 bd 0f 90 85 bd 70 81 1c be 24 8c 27 3e
       -0.047204442 -0.065216176 -0.15283751 0.16362053
000350 83 ee fc bd a6 86 83 bc bf 02 04 3e 26 86 a5 bd
       -0.1235018 -0.016055416 0.12891673 -0.080822274
000360 f3 08 ed 3e a9 f7 60 be bd 64 a2 be 92 74 1a bd
       0.4629589 -0.21969475 -0.31717482 -0.037708826
000370 2a 35 1f be 64 2a f1 3d 5d 45 e9 be 46 77 53 bd
       -0.15547624 0.117756635 -0.45560732 -0.05162742
000380 8f 02 df 3d 61 41 35 be c6 58 b7 3e 3f 17 40 3d
       0.1088916 -0.17700721 0.35809916 0.04689717
000390 32 14 8c 3c 13 10 9c 3e a3 31 58 be 44 8d 0b be
       0.017099474 0.30481014 -0.21112685 -0.13628107
0003a0 c8 4b 6b 3e 81 ec 33 be c0 b5 4b 3e ee 99 bd be
       0.22978127 -0.17570688 0.19893551 -0.37031502
0003b0 29 81 30 bd 67 88 49 3e 90 84 94 bd cd 90 2c be
       -0.043091927 0.1968094 -0.07251847 -0.16852112
0003c0 6a 9d ee 3d 3f b6 23 3c fd 47 0b be a8 7b fc 3e
       0.11651118 0.009992181 -0.1360168 0.49313092
0003d0 ea 52 7c 3d 95 3d c1 bd 71 55 d0 3d 6b 4c 48 3c
       0.06160251 -0.09435574 0.10172547 0.012225251
0003e0 94 b1 69 3c 8b 31 69 be 76 18 42 3e 00 4b 92 3e
       0.014263529 -0.22772805 0.18954644 0.28572845
0003f0 20 47 a2 3d 71 4d b3 bd 52 a7 48 be 82 d5 51 be
       0.07923722 -0.08755005 -0.19595078 -0.20491603

base.mlp.fc_h.0.bias f4 [64]
000000 00 00 00 00 00 00 00 00 00 00 00 00 00 00 00 00
       0.0 0.0 0.0 0.0
000010 00 00 00 00 00 00 00 00 00 00 00 00 00 00 00 00
       0.0 0.0 0.0 0.0
000020 00 00 00 00 00 00 00 00 00 00 00 00 00 00 00 00
       0.0 0.0 0.0 0.0
000030 00 00 00 00 00 00 00 00 00 00 00 00 00 00 00 00
       0.0 0.0 0.0 0.0
000040 00 00 00 00 00 00 00 00 00 00 00 00 00 00 00 00
       0.0 0.0 0.0 0.0
000050 00 00 00 00 00 00 00 00 00 00 00 00 00 00 00 00
       0.0 0.0 0.0 0.0
000060 00 00 00 00 00 00 00 00 00 00 00 00 00 00 00 00
       0.0 0.0 0.0 0.0
000070 00 00 00 00 00 00 00 00 00 00 00 00 00 00 00 00
       0.0 0.0 0.0 0.0
000080 00 00 00 00 00 00 00 00 00 00 00 00 00 00 00 00
       0.0 0.0 0.0 0.0
000090 00 00 00 00 00 00 00 00 00 00 00 00 00 00 00 00
       0.0 0.0 0.0 0.0
0000a0 00 00 00 00 00 00 00 00 00 00 00 00 00 00 00 00
       0.0 0.0 0.0 0.0
0000b0 00 00 00 00 00 00 00 00 00 00 00 00 00 00 00 00
       0.0 0.0 0.0 0.0
0000c0 00 00 00 00 00 00 00 00 00 00 00 00 00 00 00 00
       0.0 0.0 0.0 0.0
0000d0 00 00 00 00 00 00 00 00 00 00 00 00 00 00 00 00
       0.0 0.0 0.0 0.0
0000e0 00 00 00 00 00 00 00 00 00 00 00 00 00 00 00 00
       0.0 0.0 0.0 0.0
0000f0 00 00 00 00 00 00 00 00 00 00 00 00 00 00 00 00
       0.0 0.0 0.0 0.0

base.mlp.fc_h.2.weight f4 [64]
000000 00 00 80 3f 00 00 80 3f 00 00 80 3f 00 00 80 3f
       1.0 1.0 1.0 1.0
000010 00 00 80 3f 00 00 80 3f 00 00 80 3f 00 00 80 3f
       1.0 1.0 1.0 1.0
000020 00 00 80 3f 00 00 80 3f 00 00 80 3f 00 00 80 3f
       1.0 1.0 1.0 1.0
000030 00 00 80 3f 00 00 80 3f 00 00 80 3f 00 00 80 3f
       1.0 1.0 1.0 1.0
000040 00 00 80 3f 00 00 80 3f 00 00 80 3f 00 00 80 3f
       1.0 1.0 1.0 1.0
000050 00 00 80 3f 00 00 80 3f 00 00 80 3f 00 00 80 3f
       1.0 1.0 1.0 1.0
000060 00 00 80 3f 00 00 80 3f 00 00 80 3f 00 00 80 3f
       1.0 1.0 1.0 1.0
000070 00 00 80 3f 00 00 80 3f 00 00 80 3f 00 00 80 3f
       1.0 1.0 1.0 1.0
000080 00 00 80 3f 00 00 80 3f 00 00 80 3f 00 00 80 3f
       1.0 1.0 1.0 1.0
000090 00 00 80 3f 00 00 80 3f 00 00 80 3f 00 00 80 3f
       1.0 1.0 1.0 1.0
0000a0 00 00 80 3f 00 00 80 3f 00 00 80 3f 00 00 80 3f
       1.0 1.0 1.0 1.0
0000b0 00 00 80 3f 00 00 80 3f 00 00 80 3f 00 00 80 3f
       1.0 1.0 1.0 1.0
0000c0 00 00 80 3f 00 00 80 3f 00 00 80 3f 00 00 80 3f
       1.0 1.0 1.0 1.0
0000d0 00 00 80 3f 00 00 80 3f 00 00 80 3f 00 00 80 3f
       1.0 1.0 1.0 1.0
0000e0 00 00 80 3f 00 00 80 3f 00 00 80 3f 00 00 80 3f
       1.0 1.0 1.0 1.0
0000f0 00 00 80 3f 00 00 80 3f 00 00 80 3f 00 00 80 3f
       1.0 1.0 1.0 1.0

base.mlp.fc_h.2.bias f4 [64]
000000 00 00 00 00 00 00 00 00 00 00 00 00 00 00 00 00
       0.0 0.0 0.0 0.0
000010 00 00 00 00 00 00 00 00 00 00 00 00 00 00 00 00
       0.0 0.0 0.0 0.0
000020 00 00 00 00 00 00 00 00 00 00 00 00 00 00 00 00
       0.0 0.0 0.0 0.0
000030 00 00 00 00 00 00 00 00 00 00 00 00 00 00 00 00
       0.0 0.0 0.0 0.0
000040 00 00 00 00 00 00 00 00 00 00 00 00 00 00 00 00
       0.0 0.0 0.0 0.0
000050 00 00 00 00 00 00 00 00 00 00 00 00 00 00 00 00
       0.0 0.0 0.0 0.0
000060 00 00 00 00 00 00 00 00 00 00 00 00 00 00 00 00
       0.0 0.0 0.0 0.0
000070 00 00 00 00 00 00 00 00 00 00 00 00 00 00 00 00
       0.0 0.0 0.0 0.0
000080 00 00 00 00 00 00 00 00 00 00 00 00 00 00 00 00
       0.0 0.0 0.0 0.0
000090 00 00 00 00 00 00 00 00 00 00 00 00 00 00 00 00
       0.0 0.0 0.0 0.0
0000a0 00 00 00 00 00 00 00 00 00 00 00 00 00 00 00 00
       0.0 0.0 0.0 0.0
0000b0 00 00 00 00 00 00 00 00 00 00 00 00 00 00 00 00
       0.0 0.0 0.0 0.0
0000c0 00 00 00 00 00 00 00 00 00 00 00 00 00 00 00 00
       0.0 0.0 0.0 0.0
0000d0 00 00 00 00 00 00 00 00 00 00 00 00 00 00 00 00
       0.0 0.0 0.0 0.0
0000e0 00 00 00 00 00 00 00 00 00 00 00 00 00 00 00 00
       0.0 0.0 0.0 0.0
0000f0 00 00 00 00 00 00 00 00 00 00 00 00 00 00 00 00
       0.0 0.0 0.0 0.0

base.mlp.fc2.0.0.weight f4 [64, 64]
000000 8b 8a 0f 3e 4f 8e 23 be 20 40 dc 3d 00 f6 7a 3e
       0.14017694 -0.15972255 0.107544184 0.24507904
000010 00 85 92 be e2 a7 32 3e 2e bc 86 bd a6 f5 1f be
       -0.28617096 0.17446855 -0.06578861 -0.15621051
000020 f6 65 f8 bd 53 5c 10 3e b9 6b 2e 3d 87 1d ed be
       -0.121288225 0.14097719 0.0425832 -0.4631159
000030 a8 02 d6 be d2 b2 26 be 88 1e 36 be 1f 36 33 3e
       -0.41798902 -0.16279152 -0.17785084 0.17501114
000040 e9 b2 07 be 85 9b 7e 3e 6b bc 0d 3e a1 88 13 be
       -0.13251843 0.24864013 0.13841407 -0.14407589
000050 3a 41 d0 bd 78 6d 18 bc 2e 62 e4 3e c1 7e 90 be
       -0.10168691 -0.009303443 0.44606155 -0.28221706
000060 c6 db 40 bd 6d 15 80 3c 71 fc 14 be a7 14 a0 3e
       -0.047084592 0.015635217 -0.14549424 0.31265756
000070 fc fe 59 3e b7 08 a8 3d ed ae 8e bd 89 f3 33 be
       0.21288675 0.08204787 -0.06966958 -0.1757337
000080 3e 51 f3 3e de d1 99 3d 9d 57 c0 3d 03 bf a0 be
       0.4752292 0.07510732 0.09391711 -0.3139573
000090 ab 11 00 3e 03 45 1a bf d6 e3 96 be 83 f4 ae bc
       0.1250674 -0.60261554 -0.294707 -0.021356827
0000a0 c8 69 f0 bc d0 85 20 bc 67 a0 15 be 1f 11 24 be
       -0.029347315 -0.009797528 -0.1461197 -0.16022156
0000b0 41 2d b8 3e 3f c4 09 bd 75 c5 b0 3d cd 6b 5f 3e
       0.35972026 -0.03363442 0.08631412 0.21818466
0000c0 55 c6 87 bd a7 21 86 3d 6b 29 6c 3e 02 18 8b be
       -0.06629626 0.065493874 0.23062675 -0.27166754
0000d0 1f 9b 48 3e 81 c7 93 ba a7 e4 aa 3e 4c 9c 2b be
       0.19590424 -0.0011274667 0.33377573 -0.16758841
0000e0 f2 b7 27 be a6 d1 9e 3c 16 db 29 3e 20 a4 69 bd
       -0.16378763 0.019387078 0.16587481 -0.057041287
0000f0 94 05 52 be ed 4e 57 be 3b e7 8f be 11 71 61 be
       -0.2050994 -0.21026202 -0.28106102 -0.22015788
000100 14 a2 d1 3e b5 02 be bb 6f 73 2f bd c8 45 53 be
       0.40943968 -0.0057986625 -0.042834695 -0.20632088
000110 17 01 d2 3c 04 b5 48 3f 8c 3e 09 bf f9 12 9a bd
       0.025635285 0.7840121 -0.53611064 -0.0752315
000120 9b df dd bd 3c 51 b9 bd d6 5f b0 be 25 f3 81 3d
       -0.10833665 -0.09048697 -0.34448117 0.06345204
000130 db 5b a0 bc 11 e7 e5 3d c4 11 15 be d9 16 6e 3d
       -0.01957505 0.11225713 -0.14557558 0.058127258
000140 81 cf cd bd 95 bb 2b be ed ff 45 3e 8a 87 85 3d
       -0.10049344 -0.16770776 0.19335909 0.06519993
000150 27 8c ed 3d 61 d7 4d 3c 5a 62 91 3c 05 4b 23 be
       0.115989976 0.012563557 0.017747093 -0.15946586
000160 f9 03 c0 3d 87 89 ae be 67 00 f0 3c ea a6 6a 3e
       0.09375758 -0.340893 0.029297067 0.22915235
000170 bd 0f 27 be e2 13 8a 3e 8f 4b 26 3e 3e 4e 4d 3d
       -0.16314597 0.26968294 0.16239761 0.050123446
000180 a9 2e 70 be 4e db db 3d a4 a4 2b bd de 14 11 3e
       -0.234553 0.107351884 -0.04190506 0.14168116
000190 d6 8b 50 be fe 50 b4 3d d8 f9 8c 3e 1a 33 ed 3d
       -0.20365843 0.088045105 0.27534366 0.115820125
0001a0 48 56 d2 be de 94 0e 3e 7c 43 4f 3e 08 35 6c be
       -0.41081452 0.13923976 0.20240587 -0.23067105
0001b0 da 8d 06 3f 90 6e b2 be 58 94 21 3b 32 7d 1b 3e
       0.525602 -0.34849977 0.002465507 0.15184477
0001c0 ff e9 b8 3d 73 16 88 3d c8 86 97 bd 50 73 d0 3e
       0.09029006 0.06644907 -0.07398754 0.40712976
0001d0 48 e7 f0 bd 81 fa 96 be bd f5 1d 3d a9 e5 25 be
       -0.117628634 -0.29487994 0.038564432 -0.1620089
0001e0 15 71 cd bd a4 72 ad bd b0 52 72 3d 6f 9d 29 3e
       -0.10031334 -0.084691316 0.05916089 0.16563962
0001f0 b0 ef ce 3d 12 73 16 be 87 97 6c 3e bc 0c 8a 3b
       0.101043105 -0.14692333 0.23104678 0.004212944
000200 23 fe ba be b1 92 19 3e c0 43 55 3e ea cb d4 bc
       -0.36522016 0.14997365 0.20826626 -0.02597614
000210 83 0c 4f bb b3 c6 f9 bd 20 46 09 be 1b 0a 85 3d
       -0.003159315 -0.12196102 -0.13405657 0.06496068
000220 42 d2 68 be ad 24 7e 3e d6 05 60 be b4 c4 f5 bd
       -0.22736457 0.24818678 -0.21877226 -0.12000409
000230 70 3d 09 3f 7c ed 04 3d a9 1b f1 bd 2b b6 c9 bd
       0.5360937 0.032453045 -0.11772854 -0.09849199
000240 51 d1 a9 bd 12 9f d3 3e 66 70 45 3e 4f 31 fe 3e
       -0.08291877 0.413323 0.19281158 0.49646994
000250 92 b2 9e 3e 90 c6 9b bd 02 f4 b1 3e d1 89 a9 3e
       0.30995613 -0.07606232 0.34756476 0.33112958
000260 3a 65 68 3e 56 8b 90 3e 03 ce 35 3e da fa 0f 3e
       0.22694865 0.28231305 0.17754368 0.14060536
000270 d3 76 18 be b7 49 4d bd 9f f0 97 be ba d9 f3 bd
       -0.14889078 -0.050119128 -0.29675767 -0.119067624
000280 8b 7d 32 3d 12 2a 49 3d 8c d2 9d be 07 24 1a 3e
       0.04357676 0.049112387 -0.30824697 0.15052806
000290 fc 2f 0d 3d 8a 93 39 be 13 65 68 bd 02 ae 13 3e
       0.03446959 -0.18122688 -0.056737017 0.14421847
0002a0 4f 4e 2d 3d a4 fe 27 bd 3a 16 b6 3e 89 3b 15 3e
       0.04231101 -0.04101433 0.35563833 0.14573492
0002b0 52 c3 34 be e0 e8 2e 3e e7 3c 82 be 34 98 de 3d
       -0.17652634 0.17081022 -0.2543709 0.10868874
0002c0 1c 59 19 be 3b c1 c5 3d f1 3d 12 3e 66 d9 7a 3e
       -0.14975399 0.096559964 0.14281441 0.24496993
0002d0 f1 6b f1 bd 57 9d 51 3e 48 0e b4 3e 58 6b 88 38
       -0.11788166 0.20470177 0.35167146 6.50498e-05
0002e0 23 31 72 bd 5f 54 98 bd 23 c7 64 be c2 e1 e8 be
       -0.05912889 -0.074379675 -0.2234159 -0.4548474
0002f0 2d 13 09 3e cb de 9b be de c9 c7 3d cc 92 0c 3e
       0.13386221 -0.30443415 0.097553 0.13727874
000300 19 74 f0 3d 41 bb 9e be a4 58 fd bd f5 67 92 3c
       0.11740894 -0.31002238 -0.123704225 0.017871836
000310 79 d0 82 bd aa c7 a3 be 2b 19 85 3d 8d a3 0b 3e
       -0.06387419 -0.3198827 0.06498941 0.13636608
000320 40 d6 8d be 08 77 c0 3e 11 d2 29 be d4 93 64 be
       -0.27702522 0.37590814 -0.1658404 -0.22322017
000330 c1 49 62 bc 71 81 9f 3d 1b 15 46 3e 45 92 ee be
       -0.01381153 0.07788361 0.19343989 -0.4659597
000340 1f 6a 60 bd 06 54 15 bd 76 c6 2c be b4 d6 64 3e
       -0.054788705 -0.036457084 -0.16872582 0.22347528
000350 8f 2b 32 be 5d 0c 29 bc 60 fc 54 3d b9 dd a9 bd
       -0.17399429 -0.010317889 0.051998496 -0.08294243
000360 36 a4 03 3f 84 af 2b be f4 3b a5 be 58 dc ad bd
       0.5142244 -0.16766173 -0.32272303 -0.08489293
000370 a8 6d ed bd 63 dc 15 3e ad 4f f8 be c4 70 c3 bd
       -0.11593181 0.14634852 -0.48498288 -0.09542993
000380 eb cc 4c 3d de 6e 64 be 66 05 b4 3e e4 22 9c 3d
       0.050000113 -0.22307917 0.3516037 0.07623842
000390 92 2d 1a 3c 55 44 a2 3e 22 6b 56 be ae 40 06 be
       0.009410279 0.31692758 -0.20939305 -0.13110611
0003a0 bf 8f 84 3e 5d 4f e6 bd 90 bc 6d 3e c5 cf ba be
       0.2589092 -0.11245606 0.23216462 -0.3648664
0003b0 40 02 c9 bc ad 8a 18 3e 96 60 cf bd 03 fa 4f be
       -0.024537206 0.1489665 -0.10125844 -0.20310216
0003c0 dc 1b ea 3d 53 1a 01 3d 50 58 dd bd 6d ef ef 3e
       0.11431095 0.031519245 -0.1080786 0.46862355
0003d0 d9 a9 8e bb cb 61 6f bd 14 11 9c 3d 91 33 a4 3d
       -0.0043537435 -0.058442872 0.07620445 0.08017648
0003e0 87 99 58 3d 3d e9 98 be e7 5d 5c 3e e1 25 bc 3e
       0.05288079 -0.29865447 0.21520196 0.3674765
0003f0 d8 c9 36 3d ef 3f 00 bd 0d aa 35 be 57 83 3f be
       0.044626087 -0.03131097 -0.1774065 -0.18702446

base.mlp.fc2.0.0.bias f4 [64]
000000 20 cf 42 3a 01 c6 15 bd 1c 99 06 bd 6a 13 c3 bc
       0.0007431377 -0.036565784 -0.03286086 -0.023812968
000010 42 4d 02 bc 56 6c c4 3c 58 59 02 3d cd 43 16 ba
       -0.00795299 0.02397744 0.031823486 -0.0005732149
000020 48 ec d0 3b 48 64 2f 3d 61 19 e8 bc ed f4 33 bd
       0.006375823 0.042820245 -0.028332414 -0.04393475
000030 2a bf 1a 3d 6a e5 ba 3b 14 0c 80 3d a8 6a 16 3d
       0.037779965 0.005703618 0.06252304 0.03672281
000040 8b c5 d0 bc dd 30 9b 3d d5 b5 85 bd e9 aa 8d 3c
       -0.02548482 0.07577679 -0.06528822 0.01729341
000050 f3 af 15 bd b7 73 8e bd dd 70 7a bc 87 5e 1a 3c
       -0.03654475 -0.069556646 -0.015285698 0.009421951
000060 80 b7 58 3d 64 1f ac 3c ec bf bc bc cc 90 c2 3d
       0.052909374 0.021011062 -0.023040734 0.09500274
000070 b0 c3 90 3d e2 8b 18 bd c5 9a 2a ba 6e 9f 8f ba
       0.070685744 -0.037242778 -0.0006508048 -0.0010957548
000080 b2 a8 84 3d db eb 2c bb 83 8a 22 ba c9 fd d8 3c
       0.064774886 -0.0026385698 -0.00062004494 0.026488202
000090 99 60 27 bd be 4c 53 3d 0c a9 15 3d 8c 6b b6 3c
       -0.040863607 0.05158686 0.03653817 0.02226808
0000a0 c1 2f 42 3d 82 f2 bd bc cd c1 af 3c 39 a8 86 bc
       0.047408823 -0.023186926 0.021454716 -0.016437637
0000b0 f6 d1 18 bd 7a 74 73 3d a6 7e 09 3c 8c 77 bf 3d
       -0.03730961 0.059437253 0.008392012 0.09348974
0000c0 d7 79 c7 bd 33 f5 c9 bb e9 01 48 bd ab f4 ae bc
       -0.09740036 -0.006163263 -0.048829947 -0.021356901
0000d0 92 5d 49 3c c7 a3 6c 3c 73 50 8f 3c ae cd 52 3c
       0.012290375 0.014443344 0.017494416 0.012866421
0000e0 cf 39 d5 3c 5f 4d 28 bd 7f 71 9b bd 4c ce a1 3b
       0.026028542 -0.04108941 -0.07590007 0.0049379226
0000f0 fb e2 04 bd 1a 84 a0 bc 3a 3e c8 bb c4 6a 10 bd
       -0.032443028 -0.019594241 -0.0061109336 -0.03525807

base.mlp.fc2.0.2.weight f4 [64]
000000 e0 81 7b 3f 77 2a 80 3f cf 3d 82 3f 49 69 86 3f
       0.9824505 1.0012959 1.0175112 1.050088
000010 04 45 8e 3f 07 cf 6c 3f 8a 48 76 3f 1a 02 82 3f
       1.1114812 0.925034 0.96204436 1.0156891
000020 59 4c 72 3f b3 0e 7d 3f f3 2e 7a 3f f6 5f 82 3f
       0.9464775 0.98850554 0.9772789 1.0185535
000030 56 90 6c 3f 5a 64 7c 3f 68 b5 86 3f a7 66 80 3f
       0.9240774 0.98590624 1.0524111 1.0031327
000040 7c b0 7f 3f ae 44 7c 3f 81 a6 82 3f c3 17 8c 3f
       0.9987867 0.98542297 1.0207063 1.0944752
000050 cd 9a 78 3f fc 27 81 3f 04 d5 71 3f 85 cf 83 3f
       0.9711121 1.0090327 0.9446566 1.0297705
000060 df 43 73 3f 08 b5 81 3f 05 9e 77 3f b1 8b 73 3f
       0.9502544 1.0133371 0.96725494 0.9513503
000070 f6 2c 83 3f 58 c2 87 3f 6d 1e 8b 3f 4c ec 79 3f
       1.0248096 1.0606184 1.086866 0.97626185
000080 5f 50 77 3f 7d 7a 88 3f fb 7c 83 3f 0f a9 73 3f
       0.9660701 1.066238 1.0272516 0.9517984
000090 bb a0 83 3f 28 8f 86 3f 98 77 7b 3f 4e 97 7b 3f
       1.0283426 1.0512438 0.9822936 0.9827775
0000a0 4b fa 65 3f 65 67 77 3f 75 1c 86 3f 00 de 80 3f
       0.8983504 0.9664214 1.0477434 1.0067749
0000b0 17 1d 80 3f e3 23 77 3f 00 23 6e 3f ed 78 83 3f
       1.0008878 0.96539134 0.93022156 1.0271279
0000c0 c0 4d 72 3f 9c 74 79 3f 5a 83 72 3f 24 b4 90 3f
       0.9464989 0.97443557 0.94731677 1.1304975
0000d0 e4 bb 80 3f f1 31 66 3f bb 88 7e 3f 97 11 8f 3f
       1.005734 0.89919955 0.99427384 1.1177243
0000e0 14 56 83 3f 37 d6 66 3f 0a 77 6f 3f c1 03 88 3f
       1.0260644 0.90170616 0.93541014 1.0626146
0000f0 da 56 80 3f 73 24 82 3f 45 24 88 3f 4d ae 8f 3f
       1.0026505 1.0167373 1.0636069 1.1225067

base.mlp.fc2.0.2.bias f4 [64]
000000 19 2a 4f 3d 1b 0d dc ba b6 4e 85 3c 04 3f c9 bc
       0.050577257 -0.0016788574 0.016272884 -0.024566181
000010 65 d8 b1 bc eb 42 da 3c 2e 77 47 bc 5b 07 d1 bc
       -0.02170963 0.026643237 -0.012174411 -0.025516203
000020 db 21 b1 bc a7 91 e0 bc c3 1c b0 bc 94 61 e2 3b
       -0.021622589 -0.027413202 -0.02149809 0.006908605
000030 1d fd 70 bd d2 7a a4 3c 21 80 a3 bb ec 2a db bb
       -0.058835138 0.020078097 -0.0049896394 -0.0066884663
000040 96 df 3f 3d 9f 70 a3 3c 64 3f 15 3b d2 d2 47 39
       0.046844088 0.019951163 0.002277338 0.00019056656
000050 b1 c9 4c 3c 91 85 67 3c 22 d4 46 bd 0d 90 be 3b
       0.012499259 0.014130966 -0.04854215 0.005815512
000060 7a f8 05 3d d1 ef c8 3c cc c6 cc 3c 0e 4c 1b 3c
       0.03270767 0.024528416 0.024997137 0.009478582
000070 fc f9 4c bc 04 58 f2 3b b5 0e ee b9 3a c2 83 3c
       -0.012510773 0.007395746 -0.00045405855 0.016083825
000080 2c c5 a0 bc d5 fc c3 3c 5c 14 de bb 29 21 37 3c
       -0.019625269 0.02392427 -0.0067773294 0.01117734
000090 bc e9 80 bd 72 2f 1c 3c d9 0b 27 3c fa 3b dc bc
       -0.06294581 0.009532796 0.010195696 -0.026884068
0000a0 f4 d5 a5 bc 91 80 df 3c 2f b8 95 bc 7e 08 3c bc
       -0.020243622 0.027282985 -0.018276302 -0.011476634
0000b0 4a 1a d2 3b 8f 32 62 3d 24 06 1b bd ba 74 84 3c
       0.0064118253 0.055223998 -0.037847653 0.01616894
0000c0 5a fa 8e bc 70 09 31 bc e4 97 f7 3c 69 ad 32 bd
       -0.017453361 -0.010805473 0.030223794 -0.043622408
0000d0 54 12 eb 3c d2 21 57 bd 28 72 62 bc b5 4f 29 3d
       0.028695263 -0.052522488 -0.013821162 0.04133578
0000e0 17 65 b9 ba 43 1e 16 bd fd c2 63 bd 28 a1 73 3d
       -0.0014144507 -0.036649954 -0.055605877 0.059479862
0000f0 2a f5 d4 3c 6d 8c 32 3d 4e 80 80 3c 91 8d 0c bd
       0.02599581 0.04359095 0.01568618 -0.034314696

rnn.rnn.weight_ih_l0 f4 [192, 64]
000000 19 e2 90 3b e9 e7 51 bd b2 16 5d bc 2e 05 e8 3c
       0.004421484 -0.051246557 -0.0134941805 0.028322782
000010 37 3b 2b bd 8b 76 24 3b 57 ca a9 bd 5e fa 8d 3d
       -0.04180452 0.0025095071 -0.082905464 0.069325194
000020 1d 4a c5 bd 1c a6 ab bd 31 b1 0d 3e 1e 56 21 3e
       -0.096332766 -0.08381292 0.13837124 0.15755507
000030 df 9d aa 3d 1b 92 69 bc 67 25 ac bd 2d 89 82 3d
       0.08330893 -0.014256026 -0.084055714 0.063738205
000040 71 91 c5 bd f6 5a 0b 3d 44 d9 17 be 9e 1a e9 bc
       -0.09646881 0.034022294 -0.14828974 -0.028455075
000050 e3 2b 9b bd 87 69 52 3d a6 38 36 be ad fc e1 bd
       -0.0757673 0.05137017 -0.17795047 -0.11034522
000060 ee 03 0f bd 67 8e 02 3d fc fc 84 3d e3 8f 8c bc
       -0.034915857 0.031874087 0.064935654 -0.017158454
000070 dc 22 22 3d c8 6c 8f bd fb d4 18 be cb 04 1e 3d
       0.039584026 -0.0700317 -0.14924996 0.03857879
000080 58 f9 b3 3b b5 d8 06 3e 8f 93 32 3e 07 41 52 bd
       0.0054923706 0.13168605 0.17439102 -0.051331546
000090 20 fd 9e 3b 6b d7 11 3e 98 6e 80 3d 07 66 df 3c
       0.004851952 0.14242332 0.06271094 0.02727033
0000a0 3b 0c 18 be ba 6b cc 3d 96 3e fa bc fa 0f b3 bc
       -0.14848416 0.09981485 -0.030547421 -0.021858204
0000b0 5f e3 ff 3d 72 0b 97 bd 9c af 23 be c4 5b e5 bc
       0.124945395 -0.0737523 -0.15984958 -0.027997859
0000c0 ec 45 54 3e 45 f6 d7 3d 0a 64 11 3d a5 ed 41 bd
       0.20729798 0.10545019 0.035495795 -0.047345776
0000d0 b4 e1 e4 bd e0 1b 94 bc 60 72 bc bd c3 05 24 bc
       -0.11175862 -0.018079698 -0.09201503 -0.010011139
0000e0 06 55 82 3a 77 f0 15 3d 8b f3 0c bc 00 53 4d bd
       0.0009943552 0.03660628 -0.008602987 -0.050127983
0000f0 93 59 b3 3c 96 ac d5 bd e9 40 04 bc dd 1e 10 bd
       0.021893298 -0.10433309 -0.008072116 -0.035185684
000100 44 e8 5a bd 6a 75 53 3c ff 70 db bd df 47 08 3e
       -0.053444162 0.012906412 -0.10714912 0.13308667
000110 db 12 0a 3e a5 d8 23 3e ba e8 e3 3d fb c5 52 3e
       0.13483755 0.16000612 0.111283734 0.20583336
000120 c7 94 27 3d a2 3e ce 3d 0c 69 f7 bc ea 5c c9 bd
       0.04091337 0.1007054 -0.030201457 -0.09832175
000130 a3 d1 0b bd f0 57 12 3c 42 0e 25 3e 47 12 98 be
       -0.034135472 0.008932099 0.1611872 -0.29701445
000140 e3 59 c3 bd d2 09 ce bd 19 b5 2c bd 64 73 4a bd
       -0.09538629 -0.10060467 -0.042164896 -0.04942645
000150 6e 05 c4 bb 27 54 c4 3c 0d fc 1a 3e eb 7b 9b bd
       -0.0059820926 0.023965908 0.15135212 -0.07591995
000160 e0 01 d3 bc ae 5a 8e bd b9 15 d6 bd ab 90 43 3d
       -0.02575773 -0.069508895 -0.10453362 0.047745388
000170 ef 84 be bd b1 f5 a3 3d 65 3f d3 bd 29 36 8b bd
       -0.09302699 0.08005846 -0.10314826 -0.067974396
000180 bf 6b e8 bd a0 af 0d be 40 e2 e0 bd 05 e4 59 3d
       -0.11348676 -0.13836527 -0.10980654 0.053195972
000190 97 36 e8 3b 13 65 b7 3d ab 33 50 be 8d d4 15 be
       0.0070865857 0.08954825 -0.2033221 -0.14631863
0001a0 01 00 c6 3c 89 6d 8e bd 84 92 97 3d ea e2 bf 3d
       0.024169924 -0.06954486 0.074009925 0.09369452
0001b0 0a 24 45 3e c4 b1 fe 3d 4b 89 fa bd c0 74 a8 bc
       0.19252029 0.1243625 -0.12233218 -0.020563483
0001c0 79 e3 8a bd 61 fa 9a bd a3 b9 fc 3c 8c a9 aa 3d
       -0.06781668 -0.07567287 0.030850237 0.0833312
0001d0 3d ac 2b bd e8 98 13 3d 61 d0 33 3e 91 cb 66 bd
       -0.041912306 0.036034495 0.17559959 -0.05634648
0001e0 65 3e 26 3e 71 69 25 3d d9 89 ec 3d 99 12 0e bd
       0.16234739 0.04038376 0.1154973 -0.034685705
0001f0 aa e4 9a bc 9b eb c4 3d df 02 7b 3e b7 6c 9e 3d
       -0.018907864 0.09615251 0.24512814 0.077355795
000200 b9 78 43 bb 2a ba d5 3d 27 b0 d7 b9 55 a7 f6 3d
       -0.0029826595 0.104358986 -0.0004113924 0.12043635
000210 77 81 06 3d e9 63 72 3e 73 78 55 bd 4b eb 6d 3e
       0.03283831 0.23670925 -0.052116822 0.23234288
000220 1a aa 54 3c 05 f0 23 bc 01 58 da 3d 91 0a b1 bd
       0.0129800085 -0.010005956 0.10661317 -0.086445935
000230 b2 9e 90 3c ba 33 6a 3d 27 21 66 bd 77 41 f4 bc
       0.017653797 0.057178237 -0.05618396 -0.029816372
000240 59 2f 61 3e c6 ac d5 3c 4d 74 b8 3d cc bf 20 3d
       0.21990718 0.026083361 0.090065576 0.03924541
000250 7e 0d a8 bd 02 b2 9a 3d e1 84 4f bd e8 9a ad 3d
       -0.082056984 0.075534835 -0.050663833 0.08476812
000260 e3 90 4d 3c c5 42 bf bc a9 c7 4b 3c 68 da 27 3e
       0.012546751 -0.023347268 0.012437739 0.16391909
000270 bd 9d 6c bc bd cb 99 bd 0f 3b 42 bd 26 e2 8c 3c
       -0.014441905 -0.07509563 -0.047419604 0.01719768
000280 46 1f 74 be a6 4c 04 3c 3d 92 aa 3d cf 1c e8 3c
       -0.23840055 0.008074915 0.08328674 0.02833405
000290 b1 0f af 3c e2 8b a6 bd 49 e9 6d bd a0 bd 09 be
       0.021369787 -0.08132149 -0.058083806 -0.13451242
0002a0 3c 4c 2f be 20 92 83 be f7 3d c8 bb cc c5 b3 bd
       -0.17118925 -0.25697422 -0.0061109024 -0.08777961
0002b0 d7 e9 5e 3d 77 9a c8 bd 2e 59 a5 bd 1b 3e 0f be
       0.054422226 -0.09795087 -0.0807365 -0.13988535
0002c0 64 ae 94 3d e9 36 b0 3d cc a1 bc 3b 4f e3 4f 3c
       0.07259825 0.08604223 0.0057565924 0.012688472
0002d0 df 5b 2b 3c b3 93 69 3b 7f 0a 26 3d 84 b9 4d be
       0.0104589155 0.0035641014 0.040537354 -0.200903
0002e0 6c 8d dc 3c fa 49 25 bc b0 e5 08 3e ff a5 ed 3d
       0.026922904 -0.010088438 0.13368869 0.11603927
0002f0 4f 83 14 bd e2 24 3a bd be 29 3b 3d 80 3a 93 bd
       -0.036258038 -0.04544533 0.045694105 -0.07188892
000300 27 66 1c 3d f6 62 71 3e c8 a2 cc bd 85 ae 56 bd
       0.038183358 0.23572907 -0.099919856 -0.05241253
000310 76 df 87 b8 22 a1 da bc 6e a4 f5 bd 24 31 1e 3e
       -6.4789245e-05 -0.026688162 -0.11994253 0.15448433
000320 d8 50 13 bd c2 9b a0 bd 0c 3e a5 bd 19 a6 80 bd
       -0.03596577 -0.078422084 -0.08068475 -0.062816806
000330 eb 5e 89 bc d8 5f 6c 3d ae 4e 56 3d 51 b3 e1 bd
       -0.016768893 0.05770859 0.05232113 -0.1102053
000340 36 c9 4a 3d 0f 78 12 3e 7d c0 21 3d 4b 57 59 bd
       0.049508296 0.14303611 0.03949021 -0.053061765
000350 6b db 9f bd b9 b5 df 3c e1 2b 6f 3c 09 0d 04 be
       -0.078055225 0.027308332 0.014597864 -0.12895598
000360 a8 e5 70 be b8 b2 7b bc 79 1e 02 be 9a 04 4f 3d
       -0.23525107 -0.015362434 -0.12706937 0.050541498
000370 55 23 4c bd 67 f8 25 3d 49 8b f2 bd 2f 68 bb bd
       -0.049838383 0.040520098 -0.11842973 -0.09150731
000380 b5 cd d3 bd e1 02 5e bd 8b 79 91 3d 32 f9 ee 3c
       -0.1034197 -0.054201964 0.071032606 0.02917156
000390 b0 b3 17 3c 2f c6 63 bd d9 c9 56 3c 0e e3 ab 3a
       0.009259149 -0.055608924 0.013109648 0.0013113932
0003a0 71 c1 51 bb 0b 74 2b be f0 ac c2 3d 37 27 32 bd
       -0.003200617 -0.16743486 0.095056415 -0.04349443
0003b0 19 a2 c4 3c 08 28 99 bd b9 3a 7a 3c a3 c4 6d bd
       0.024003075 -0.074783385 0.01527279 -0.058048856
0003c0 07 88 8a bd d6 d2 a2 bd b5 46 1c 3d e8 4e dd bc
       -0.067642264 -0.0795037 0.03815337 -0.027015164
0003d0 93 97 8b 3d c8 a3 18 bc 96 fb 90 3d 94 6e 91 bc
       0.0681602 -0.009316392 0.07079236 -0.017752923
0003e0 b8 82 0b bb 7b 24 03 be 79 92 a4 bd 4b 44 4e bd
       -0.0021287631 -0.12806885 -0.0803575 -0.050358098
0003f0 2c 23 62 3e 9f 3d c7 3d 63 2e 9f bc 1f f4 2a 3d
       0.2208373 0.0972855 -0.019431299 0.04173672

rnn.rnn.weight_hh_l0 f4 [192, 64]
000000 0f e6 3f 3d c8 33 43 bd bc 8f de 3d 0e b1 53 be
       0.04685026 -0.047656804 0.10867259 -0.2067301
000010 d7 d9 d9 bd e3 fe 1a 3e 2e 94 7a 3d 4e 4e 09 3e
       -0.10637253 0.15136294 0.06117647 0.13408777
000020 40 63 e0 bd 8e 24 90 bc 75 bc ce 3d b5 92 b1 3d
       -0.109564304 -0.017595556 0.10094539 0.0867056
000030 9e 6d f6 3c 5d b1 e8 bb a5 9d d8 bd 42 52 24 be
       0.030081566 -0.0071012215 -0.10576943 -0.16047004
000040 da ea 88 bc 10 3b 53 bd 99 68 a4 bd 23 2f 5f 3d
       -0.016713548 -0.05157 -0.08027763 0.054488312
000050 ba 60 85 3d 34 5f fa 3c 46 5b f2 bd a7 c2 0b 3d
       0.0651259 0.030562975 -0.11833815 0.03412118
000060 85 f7 87 bd 5b 69 99 3d c5 b6 ad bc 8d c1 e4 3d
       -0.066390075 0.07490798 -0.021205315 0.111697294
000070 e8 18 d2 3b a1 d9 43 3e 4f dd 54 bb 93 69 27 bd
       0.0064116605 0.19125988 -0.0032480543 -0.040872168
000080 27 89 35 3e 60 be 56 bd 40 93 97 3b df 89 5d 3d
       0.177281 -0.05242765 0.004625708 0.054086562
000090 1e 6d 89 bc d2 3a 6f 3d d5 6a aa 3d 4d d9 b1 bb
       -0.016775664 0.058405705 0.08321158 -0.0054275156
0000a0 94 8b 9d bb b8 fa 18 bc 0a 8d 29 bb 7e 58 81 bb
       -0.004807899 -0.00933712 -0.002587142 -0.0039473167
0000b0 cc 4b 20 bd f1 de 1e bd 83 2a 98 3d 28 ee 8f 3d
       -0.039134786 -0.038786832 0.074299835 0.070278466
0000c0 c3 5c 2c bc e0 40 0d bc cb 76 0a 3e 04 0e c0 3d
       -0.010520163 -0.008621424 0.13521878 0.09377673
0000d0 85 9a 9b 3d 1b e4 03 be 9d d1 7b bd 19 f0 84 3d
       0.07597832 -0.12879984 -0.0614792 0.064911075
0000e0 fa ee 4e be 44 13 65 bd 56 f5 5c 3d 41 05 c3 bd
       -0.2020835 -0.055926576 0.053944908 -0.095224865
0000f0 c1 b9 ce bd a5 2e fc bd 91 f9 39 bd 49 37 11 bd
       -0.100940235 -0.12313584 -0.04540402 -0.035453115
000100 a7 45 58 bd f7 8a 20 bd 06 7f ba bd 86 97 97 bd
       -0.0528008 -0.039195027 -0.09106259 -0.07401948
000110 3d 32 97 3d 0a b0 6a bd df 4d 3f 3d ea aa e9 3c
       0.07382629 -0.05729679 0.046705123 0.028523881
000120 11 44 0a 3d a9 9e 04 bc 35 4d 6d bd f4 46 3b bc
       0.03375632 -0.008094468 -0.05793496 -0.011430491
000130 e7 0e ba 3d 61 09 12 3e 6e c9 00 be 89 dd 62 bd
       0.09084874 0.1426139 -0.1257684 -0.055387054
000140 f3 2d 49 3d 8b ac 70 3d 0a 69 c3 3d d3 8b f5 3d
       0.049116086 0.0587583 0.09541519 0.1198956
000150 e7 a0 f4 3d 9a 0d 33 be 9c 84 60 3d 44 25 80 be
       0.11944752 -0.17485657 0.054813966 -0.2502843
000160 2c 3b 23 3e c0 1e 36 3c 28 f0 85 bd ab 40 ac 3d
       0.15940541 0.01111573 -0.06539947 0.08410772
000170 a3 8c ee 3c ed 72 ff 3c 6e 8f d6 3d da 5c 94 3c
       0.029119795 0.03118273 0.10476576 0.018110681
000180 b1 94 a2 bd d6 f4 b5 3d f2 cd 1f bd bf 68 11 bd
       -0.07938517 0.088845894 -0.039014764 -0.035500284
000190 4d 82 ac 3d ce db 0b be 41 3f 98 bd ec a8 63 bd
       0.084232904 -0.13658068 -0.0743394 -0.05558102
0001a0 66 92 5a be cd 9d cd 3c 65 26 66 bd 99 34 27 be
       -0.21344909 0.02509966 -0.05618896 -0.16328658
0001b0 29 4d 44 3d 3a e2 04 bd 94 f5 69 3d 30 31 e8 3d
       0.04792515 -0.03244231 0.057118967 0.11337507
0001c0 06 bc 12 be b4 76 01 3d 87 40 a5 3d f9 92 98 bc
       -0.14329538 0.031607345 0.08068948 -0.01862477
0001d0 17 38 66 3d af 3e 12 3e d0 a5 09 3d d8 1a 20 bd
       0.056205835 0.14281724 0.033605397 -0.0390881
0001e0 f5 9c cb bd 6f d4 7e 3d f6 75 85 bc 4a 27 19 bd
       -0.099420466 0.06221431 -0.0162916 -0.037390985
0001f0 d9 bf a6 3d 00 73 21 bd 59 1e f4 bd c3 8b 8f 3d
       0.08142061 -0.039416313 -0.11919851 0.07009079
000200 c2 59 02 3d bf 65 e7 bc 42 b9 b6 3c 6e 63 bf 3d
       0.03182388 -0.028246759 0.022305135 0.093451366
000210 59 bd 84 3d ad 6c f0 3d 4b 2e f3 3c 7a a3 1f bc
       0.06481428 0.11739478 0.02968516 -0.009743566
000220 9f e9 be 3d ce fe 34 3c ed 24 72 bb 32 d6 da 3d
       0.093219034 0.011047078 -0.003694828 0.10685386
000230 4c 2a 12 3d 83 d9 0d be d7 e3 6d 3c f9 b9 84 bb
       0.03568487 -0.13852505 0.014519653 -0.00405049
000240 23 f1 02 3e 98 48 c9 3c fe 67 d6 3d 4d 0e fe 3d
       0.12787299 0.024570748 0.10469054 0.124050714
000250 88 b2 6a bc 86 ca b7 bd 24 20 9a 3e 26 97 d2 3c
       -0.014324792 -0.08974175 0.30102646 0.025706839
000260 0f 51 af 3d f5 f4 b1 3d 41 3e ef 3b 00 81 e5 bb
       0.085603826 0.086893 0.0073011224 -0.0070039034
000270 2b 10 3a be 8b de 1d 3d 83 4a 81 3b e6 f2 a5 bd
       -0.1817023 0.03854231 0.00394565 -0.0810297
000280 9c eb c0 3d 25 50 b3 3d 3a 31 15 3e b0 d3 d5 bd
       0.09419939 0.08755521 0.1456956 -0.10440767
000290 d9 aa 7e 3c 97 42 ee bc 30 a3 d0 bd 33 90 e1 3b
       0.015543663 -0.029084487 -0.101873755 0.006883645
0002a0 8a 6e 9a bc e9 d5 0c 3d ef 27 8a bd 71 82 ee 3c
       -0.018851537 0.034383688 -0.06745898 0.029114934
0002b0 ad 4b 38 bd 5d 1a f7 bd 31 86 ec bd 2d b8 8a bd
       -0.044994045 -0.12065575 -0.115490325 -0.0677341
0002c0 61 a6 ac 3d 10 de 1c 3e 0d a0 d3 bd b6 2e 08 3c
       0.08430172 0.15319085 -0.10333262 0.008311918
0002d0 0a f2 90 bc 6a 14 8c 3d 33 fc 51 3c 02 10 ef 3c
       -0.017693538 0.06839831 0.012816477 0.029182438
0002e0 69 97 c7 bd 1b c1 d1 3c a4 d4 15 3e 1f 1f 0d 3d
       -0.09745676 0.025604775 0.14631897 0.034453508
0002f0 42 60 46 bd 9f 4d 28 be d4 08 f1 bc ca e7 83 bc
       -0.048431642 -0.1643586 -0.029423155 -0.016101737
000300 f0 db 93 bd 2d 3f 16 3d 4c e1 5e bd cd 27 b8 3d
       -0.07219684 0.036681343 -0.05441408 0.089919664
000310 a8 1a b2 bc 98 37 8a bd fa cf 61 3d 6a 07 d7 3d
       -0.021741226 -0.06748885 0.055129983 0.10499461
000320 ae c7 eb bd 4a 6b 07 bd f7 45 6d bd c5 07 28 3d
       -0.11512695 -0.033061303 -0.05792805 0.041023035
000330 e1 f4 a6 3c 40 be 64 3d 6a d3 c3 3d d9 f6 86 bd
       0.02038044 0.0558455 0.095618084 -0.06590051
000340 7f ac 9f 3d d1 d9 1c bd 56 3d 4a 3d 58 f3 f5 bd
       0.07796573 -0.038293663 0.0493749 -0.12009305
000350 90 a5 c9 3b a7 e5 10 bd a1 d8 15 3b 03 75 54 3d
       0.00615377 -0.035375264 0.0022864717 0.051869404
000360 8e f0 3d 3c 3f 79 15 3d 71 8b 2e bd bd b8 78 bd
       0.011592997 0.036492582 -0.04261345 -0.060723055
000370 ce c6 05 bd ed 7c 0f be 0b 62 af 3d 29 78 94 3d
       -0.032660298 -0.14012499 0.08563622 0.07249481
000380 c7 cd 0f 3e 30 7a 57 3e 22 02 ef bd 0d 06 b7 bd
       0.14043342 0.21042705 -0.11670329 -0.08936701
000390 79 c9 44 bd 8e f7 53 bc b2 0c 4d bd a2 84 2e bb
       -0.0480437 -0.01293744 -0.050060935 -0.0026629348
0003a0 d4 62 35 bd 22 7c a0 bd 6c 55 1c bc ab 2c d5 bb
       -0.044283703 -0.078361765 -0.009541851 -0.006505569
0003b0 6b 6e 2a 3d c8 2e e4 bd c7 68 0b 3e 62 72 64 3d
       0.04160921 -0.11141735 0.13614188 0.055773146
0003c0 41 88 5c bc 20 63 f8 3c 4f fb 41 3e 99 a7 25 3d
       -0.01346022 0.030320704 0.18943523 0.040443037
0003d0 84 7f e9 3d a1 83 98 3d 8b 98 cb bd fb 57 75 bd
       0.11401275 0.07446981 -0.09941205 -0.059898358
0003e0 bc cd bf bd a9 e8 58 3b 07 b5 40 3d c7 7f fa bc
       -0.093654126 0.003309766 0.04704764 -0.030578507
0003f0 27 f4 57 bd a6 6e 8d 3d ec 07 5f bd 69 d4 b2 3d
       -0.052723076 0.0690587 -0.054450914 0.0873192
