onpolicy/scripts/results/MPE/simple_spread/rmappo/check/wandb/run-20220705_093310-11gjpxft/files/critic.pt (torch, 156012 bytes, 21 tensors)

base.feature_norm.weight f4 [54]
0.91891086 0.8886559 1.046659 1.0212039 0.9837581 0.963494 0.999909 0.9956224
0.9919562 0.9615264 1.0304933 1.0035834 1.0718089 1.0033352 1.0224023 1.0127975
0.97332984 0.988373 0.8547191 0.8806659 0.94333696 0.99171203 0.97137076 0.9791772
0.9471071 0.99529 0.9547088 0.983376 1.0342834 1.0075128 1.0192602 0.98527986
1.0032761 1.0267092 1.021466 0.9750264 0.8689519 0.9086823 1.0070242 0.95358884
0.9541124 0.95615196 0.95351833 0.94889677 0.92206126 0.9832365 1.0444047 1.0310141
0.988939 1.0059055 1.0129638 0.994808 0.9855541 1.0642774
00000000: be3d 6b3f f47e 633f ecf8 853f cfb6 823f
00000010: 92d7 7b3f 8ba7 763f 09fa 7f3f 1ce1 7e3f
00000020: d7f0 7d3f 9826 763f 34e7 833f 6c75 803f
00000030: 0931 893f 4a6d 803f 14de 823f 59a3 813f
00000040: 252c 793f 0306 7d3f dfce 5a3f 5273 613f
00000050: 887e 713f d7e0 7d3f c1ab 783f 5bab 7a3f
00000060: 9c75 723f 53cb 7e3f cc67 743f 88be 7b3f
00000070: 6663 843f 2ef6 803f 1e77 823f 4d3b 7c3f
00000080: 5a6b 803f 356b 833f 66bf 823f 559b 793f
00000090: a273 5e3f 679f 683f 2be6 803f 661e 743f
000000a0: b640 743f 60c6 743f c719 743f e6ea 723f
000000b0: 350c 6c3f 63b5 7b3f 0eaf 853f 45f8 833f
000000c0: 1b2b 7d3f 83c1 803f cca8 813f bdab 7e3f
000000d0: 464d 7c3f 3e3a 883f

base.feature_norm.bias f4 [54]
0.0028963794 -0.013665499 0.0054103816 -0.016392922 0.04007355 -0.019659499 0.019640002 -0.015544583
-0.009097808 -0.017619878 0.016333796 0.029065281 0.057370927 0.086522155 -0.0036002402 0.01781492
-0.09500727 0.008577669 0.04408937 -0.00055078627 -0.016076768 0.0034011502 -0.019303612 0.0106219
-0.009062347 0.0024647082 -0.012849568 -0.01734535 -0.03080934 0.008850349 -0.022146953 -0.030723788
0.036258936 0.07999504 -0.034843054 -0.0019051827 0.010539939 -0.020293279 -0.028322462 -0.00061638944
0.021960372 -0.030169683 -0.0011054367 -0.013831567 0.031278733 0.005976346 0.03286906 0.023145616
-0.074635394 -0.01506349 0.018040394 -0.0072622215 0.027968489 -0.0025114683
00000000: 2fd1 3d3b 42e5 5fbc 9249 b13b 734a 86bc
00000010: 2a24 243d f50c a1bc 12e4 a03c b5ae 7ebc
00000020: f90e 15bc 9057 90bc 74ce 853c 501a ee3c
00000030: c7fd 6a3d 8732 b13d 02f2 6bbb 98f0 913c
00000040: 2c93 c2bd 5a89 0c3c 0e97 343d a462 10ba
00000050: 6db3 83bc d5e5 5e3b 9c22 9ebc 7a07 2e3c
00000060: 3d7a 14bc f186 213b ff86 52bc d617 8ebc
00000070: de63 fcbc 0e01 113c 876d b5bc 74b0 fbbc
00000080: 4084 143d 71d4 a33d 97b7 0ebd 53b7 f9ba
00000090: b5af 2c3c 173e a6bc 8204 e8bc 3295 21ba
000000a0: 3de6 b33c 6926 f7bc 4de4 90ba cc9d 62bc
000000b0: 211e 003d 39d5 c33b b5a1 063d e09b bd3c
000000c0: 71da 98bd dbcc 76bc 73c9 933c eef7 edbb
000000d0: 2c1e e53c 7297 24bb

base.mlp.fc1.0.weight f4 [64, 54]
-0.13813402 0.33159417 0.12297271 0.22526121 -0.09555183 -0.03135312 -0.08072011 0.004247144
0.080863245 0.07231855 0.18193588 -0.18043396 -0.24104303 0.044665772 -0.26605698 0.35368818
0.17981371 0.5601012 -0.12222522 -0.29691064 -0.19436033 -0.15288396 -0.08423669 0.16915081
0.2710766 0.1080858 0.09491139 0.148222 0.030815361 0.16592853 0.26352796 0.2159867
0.38893732 -0.35003704 -0.07108585 -0.27108186 0.075222485 0.027396593 -0.12610948 -0.051712275
-0.18910092 -0.14163049 0.12512144 0.082652345 -0.27328733 0.13126872 0.38155326 0.24996202
0.32719672 -0.112626426 -0.15754172 -0.013718309 -0.010415521 -0.028609918 0.22659789 0.11272747
0.21449757 -0.04921432 -0.08388688 0.10216408 0.49731457 -0.106316 0.68523043 0.27766326
0.091592096 -0.18328273 -0.018533373 0.0964661 0.2351376 0.060437 -0.033508416 -0.32161713
0.28913656 -0.099642426 0.105743475 0.22940709 -0.081396565 0.021766521 0.10669563 -0.25188807
-0.17339094 0.08667075 -0.30428877 0.2291022 0.22165994 -0.12658931 0.012180459 -0.024038203
-0.13559568 -0.066475846 0.1852026 0.21662866 0.15220453 0.16774294 -0.04796028 0.0872971
-0.35362646 -0.054565407 -0.086857095 -0.22873564 -0.037584916 -0.09535588 -0.004076823 -0.33852372
-0.22892718 -0.036509752 0.43246633 0.09731644 0.26409733 0.1922041 -0.06793241 -0.6131832
0.15385014 0.14749901 0.049469 0.06644919 -0.06825373 0.16372982 0.17450425 0.07523107
0.12457715 0.114285015 -0.028866073 -0.108232655 0.18230382 0.23876366 0.18974516 -0.13889357
-0.11069544 0.1276502 0.3153688 -0.19207458 -0.014053664 0.40437818 0.31130034 0.0020279072
-0.07219838 0.26699367 -0.0412308 0.43248102 -0.2536235 0.074986465 -0.21092404 0.2916066
-0.1332614 -0.16817512 0.2207704 -0.01868149 0.4572784 -0.21668842 -0.288381 0.23706967
-0.19267674 0.010271048 0.032135345 0.052952122 0.3003813 -0.150572 -0.09604097 -0.07881521
0.1705463 -0.2813594 0.10221325 -0.004773826 -0.27972007 -0.25594983 -0.007704251 -0.17405885
-0.044457808 0.27615547 -0.40043452 -0.023250006 0.15982379 0.049047373 -0.22260417 0.22521028
-0.042106476 0.24855487 0.19905525 -0.10549396 0.4586041 0.083393954 -0.39627075 0.05589677
0.016873483 0.24536954 -0.09276933 0.34981868 0.23527353 -0.047407005 0.13570216 -0.087358184
-0.07526091 -0.118308015 0.2760808 0.275263 0.28358394 -0.0767712 -0.07149064 0.4208831
-0.14606541 -0.19615218 -0.019865401 0.06473419 -0.23002604 -0.43584493 0.07507035 -0.12254611
0.31874192 0.09033288 -0.07930265 -0.13477004 -0.0165395 0.27236003 -0.08316158 0.24020737
0.1695976 0.20254615 0.2426135 -0.11299779 -0.06673782 -0.1857257 0.20487691 -0.3689908
0.069080286 -0.12719886 -0.15625723 0.20217901 -0.27791587 -0.00022310109 0.20136802 0.084565066
0.43917948 0.18818626 -0.18327382 -0.028505333 -0.049467918 -0.2931401 -0.029129134 0.15609068
-0.2082247 -0.060978334 -0.07391227 0.06876204 -0.14562677 0.014022632 0.042640332 -0.06521867
-0.09834411 0.2604148 -0.31490535 0.29886857 -0.1866457 -0.23955931 -0.32526225 -0.2288157
00000000: 0173 0dbe b6c6 a93e 1ed9 fb3d e0aa 663e
00000010: aeb0 c3bd 216c 00bd 9650 a5bd a02b 8b3b
00000020: a19b a53d bf1b 943d 664d 3a3e aec3 38be
00000030: fcd3 76be 75f3 363d 9f38 88be 9e16 b53e
00000040: 1621 383e cb62 0f3f 3751 fabd ac04 98be
00000050: 6506 47be 9d8d 1cbe 4984 acbd df35 2d3e
00000060: 8dca 8a3e 175c dd3d e760 c23d 82c7 173e
00000070: 7f70 fc3c 2be9 293e 23ed 863e 9e2b 5d3e
00000080: cb22 c73e 0e38 b3be 7595 91bd 3ecb 8abe
00000090: 3f0e 9a3d d26e e03c d822 01be 40d0 53bd
000000a0: aca3 41be 9507 11be d61f 003e a245 a93d
000000b0: 51ec 8bbe 4f6b 063e f35a c33e 0bf6 7f3e
000000c0: 5486 a73e afa8 e6bd 9e52 21be c2c2 60bc
000000d0: dda5 2abc 595f eabc 4709 683e a9dd e63d
000000e0: 40a5 5b3e f494 49bd e2cc abbd 673b d13d
000000f0: 04a0 fe3e 34bc d9bd 436b 2f3f e129 8e3e
00000100: a394 bb3d 78ae 3bbe 4dd3 97bc 0590 c53d
00000110: e9c7 703e ca8c 773d 1f40 09bd 00ab a4be
00000120: b509 943e 5411 ccbd 0990 d83d b1e9 6a3e
00000130: 3eb3 a6bd b44f b23c 3d83 da3d 79f7 80be
00000140: 658d 31be 6f80 b13d bdcb 9bbe c499 6a3e
00000150: d3fa 623e a1a0 01be 8c90 473c c4eb c4bc
00000160: 98d9 0abe 7d24 88bd c0a5 3d3e e7d3 5d3e
00000170: 81db 1b3e cec4 2b3e 0072 44bd d2c8 b23d
00000180: 870e b5be fa7f 5fbd 22e2 b1bd ad39 6abe
00000190: a4f2 19bd f249 c3bd df96 85bb fb52 adbe
000001a0: e36b 6abe 408b 15bd 3a6c dd3e d74d c73d
000001b0: c437 873e 27d1 443e 2620 8bbd 93f9 1cbf
000001c0: e48a 1d3e fb09 173e 02a0 4a3d 8316 883d
000001d0: 9dc8 8bbd caa8 273e 3eb1 323e bf12 9a3d
000001e0: 4e22 ff3d 430e ea3d 8b78 ecbc 15a9 ddbd
000001f0: daad 3a3e 767e 743e 8e4c 423e 1e3a 0ebe
00000200: 4ab4 e2bd bcb6 023e 0578 a13e 33af 44be
00000210: 5741 66bc a80a cf3e c262 9f3e a3e6 043b
00000220: bfdc 93bd 65b3 883e a1e1 28bd 276e dd3e
00000230: f0da 81be 8192 993d 79fc 57be 764d 953e
00000240: ad75 08be 1936 2cbe a311 623e ed09 99bc
00000250: 6520 ea3e 92e3 5dbe ada6 93be 64c2 723e
00000260: 0d4d 45be e647 283c 5aa0 033d 53e4 583d
00000270: 94cb 993e 8c2f 1abe 21b1 c4bd de69 a1bd
00000280: b0a3 2e3e 570e 90be 2e55 d13d c16d 9cbb
00000290: 7837 8fbe db0b 83be f173 fcbb 7c3c 32be
000002a0: 6419 36bd 4064 8d3e c105 cdbe cc76 bebc
000002b0: d9a8 233e e6e5 483d 59f2 63be 869d 663e
000002c0: d777 2cbd 2b85 7e3e 24d5 4b3e 380d d8bd
000002d0: 28ce ea3e 73ca aa3d 00e4 cabe 03f4 643d
000002e0: 423a 8a3c 2742 7b3e d9fd bdbd 6f1b b33e
000002f0: 8beb 703e d92d 42bd 82f5 0a3e d9e8 b2bd
00000300: 6422 9abd 794b f2bd 765a 8d3e 46ef 8c3e
00000310: ea31 913e 383a 9dbd af69 92bd fd7d d73e
00000320: 2c92 15be 1edc 48be c4bc a2bc 5c93 843d
00000330: f28b 6bbe 1127 dfbe 7cbe 993d 74f9 fabd
00000340: 2432 a33e 7200 b93d 6e69 a2bd 2801 0abe
00000350: d87d 87bc c672 8b3e 9e50 aabd ecf8 753e
00000360: feaa 2d3e 4268 4f3e ac6f 783e 636b e7bd
00000370: d7ad 88bd e12e 3ebe 41cb 513e 5dec bcbe
00000380: f779 8d3d 6b40 02be e501 20be 0408 4f3e
00000390: fd4a 8ebe 3ef0 69b9 6b33 4e3e 7330 ad3d
000003a0: 22dc e03e e6b3 403e 22ac 3bbe 0484 e9bc
000003b0: df9e 4abd 7616 96be 39a0 eebc 3cd6 1f3e
000003c0: db38 55be 6bc4 79bd 515f 97bd 1dd3 8c3d
000003d0: 2f1f 15be 2ebf 653c a1a7 2e3d 5e91 85bd
000003e0: a368 c9bd 1755 853e 463b a1be 4d05 993e
000003f0: 0d20 3fbe 094f 75be c688 a6be aa4e 6abe

base.mlp.fc1.0.bias f4 [64]
-0.039404947 0.03275247 0.0035060588 0.03409767 0.015217417 -0.10175721 -0.013541748 0.091996014
-0.0051162764 -0.0025621315 -0.035031844 -0.0048446837 -0.004544609 0.106365174 0.03195043 0.07758943
0.027533969 0.0044970713 -0.00022819663 0.012916203 -0.008847319 -0.075239405 0.020966068 0.016683338
-0.011402593 -0.047252383 0.016598433 0.040760234 -0.043473583 -0.06002416 0.016243858 0.03390054
-0.03871893 -0.0016308329 0.053277154 -0.10043351 0.019612098 0.019176777 0.028154409 0.0020222715
0.038223855 -0.02557214 0.012851463 -0.041656405 0.02135218 -0.0010531654 -0.0010961462 -0.021359589
0.0454277 0.027802102 0.01195392 -0.010372767 0.015221273 0.040159535 -0.023538692 0.014084997
0.01586891 0.026224798 -0.034617763 -0.02635418 0.0015465909 -0.034455765 -0.012629405 -0.004562091
00000000: 1567 21bd 7427 063d e8c5 653b 00aa 0b3d
00000010: 7952 793c 1666 d0bd 35de 5dbc 6868 bc3d
00000020: 70a6 a7bb 6fe9 27bb 8d7d 0fbd 27c0 9ebb
00000030: f2ea 94bb fcd5 d93d 74de 023d 35e7 9e3d
00000040: eb8e e13c 2b5c 933b 1148 6fb9 7b9e 533c
00000050: 58f4 10bc 1e17 9abd 08c1 ab3c 7fab 883c
00000060: f1d1 3abc b78b 41bd 70f9 873c 34f4 263d
00000070: 5b11 32bd e5db 75bd d711 853c 4bdb 0a3d
00000080: be97 1ebd acc1 d5ba 2539 5a3d 16b0 cdbd
00000090: 8da9 a03c 9e18 9d3c 13a4 e63c 1688 043b
000000a0: 9e90 1c3d aa7c d1bc f18e 523c e89f 2abd
000000b0: c4ea ae3c 5e0a 8aba 90ac 8fba 4efa aebc
000000c0: 6512 3a3d 3cc1 e33c 60da 433c 8af2 29bc
000000d0: a562 793c 537e 243d 37d4 c0bc c2c4 663c
000000e0: 84ff 813c 63d5 d63c 5bcb 0dbd b9e4 d7bc
000000f0: fbb6 ca3a 7d21 0dbd 90eb 4ebc 987d 95bb

base.mlp.fc1.2.weight f4 [64]
0.98441225 1.0469744 0.9607697 0.97211045 0.99940544 1.0221981 0.9450639 0.9918065
0.99293023 1.0169303 0.9852603 0.9872803 0.9996788 1.0435386 0.9941675 0.9569703
1.008381 0.92721367 0.95815665 1.0010661 0.98171836 0.98565626 1.0077633 1.0254139
1.0052414 1.0020266 0.9595795 0.9643286 0.9869543 1.015913 1.0126574 0.96423256
0.9728683 0.9883689 0.9590698 1.00002 0.9817824 0.9858081 0.96721333 0.9929035
1.0082018 0.9596703 0.99349916 0.991515 0.9764166 0.98144007 0.9624714 0.96933174
1.0154706 0.93208414 0.97563785 0.95923716 0.9903733 0.99115527 0.95188785 0.9696485
0.99199 0.97359896 0.9518824 1.0010772 0.997456 0.9989559 0.9961375 0.96296936
00000000: 7102 7c3f 4203 863f 01f5 753f 3bdc 783f
00000010: 09d9 7f3f 63d7 823f b5ef 713f 08e7 7d3f
00000020: ad30 7e3f c62a 823f 053a 7c3f 67be 7c3f
00000030: f3ea 7f3f ac92 853f c381 7e3f 01fc 743f
00000040: a112 813f e05d 6d3f c149 753f ef22 803f
00000050: e551 7b3f f853 7c3f 63fe 803f c340 833f
00000060: c0ab 803f 6842 803f 01a7 753f 3dde 763f
00000070: 09a9 7c3f 7009 823f c29e 813f f2d7 763f
00000080: e60d 793f bf05 7d3f 9985 753f a800 803f
00000090: 1756 7b3f eb5d 7c3f 4b9b 773f ec2e 7e3f
000000a0: c20c 813f f4ac 753f f655 7e3f edd3 7d3f
000000b0: 70f6 793f a83f 7b3f 8764 763f 2026 783f
000000c0: f1fa 813f 119d 6e3f 67c3 793f 9190 753f
000000d0: 1b89 7d3f 5abc 7d3f ecae 733f e23a 783f
000000e0: 0ef3 7d3f c83d 793f 91ae 733f 4c23 803f
000000f0: 4759 7f3f 93bb 7f3f de02 7f3f 2985 763f

base.mlp.fc1.2.bias f4 [64]
-0.02490237 0.032748617 -0.024646793 0.019851051 0.01050852 -0.118372835 -0.019674513 0.094344094
-0.013111578 -0.09701226 -0.03149649 -0.011307101 -0.021172859 0.11044631 0.013960286 0.07785958
0.008371843 0.0045962213 -0.0015653415 0.0046053175 -0.0026930585 -0.045046125 0.034480687 0.012326107
-0.0051657637 -0.06865979 -0.0038127298 0.029892381 -0.066307075 -0.048162982 0.0056718136 0.012823696
-0.074928455 0.0019074827 0.030414436 -0.06578361 -0.00018011812 0.006349463 0.024761388 -0.0064906552
0.02380525 -0.034226067 0.010428599 -0.03606602 0.02588087 -0.003722326 0.0029654047 -0.0054053627
0.058897093 0.009222894 0.009502282 -0.0044820127 -0.019627932 0.050162576 -0.0319307 0.035037067
-0.006500877 0.026337791 -0.033628665 -0.02109183 -0.006141788 -0.0335506 -0.016138801 -0.010098121
00000000: 0e00 ccbc 6a23 063d 12e8 c9bc ac9e a23c
00000010: ed2b 2c3c 756d f2bd 722c a1bc 7a37 c13d
00000020: f2d1 56bc 5dae c6bd 7702 01bd 6b41 39bc
00000030: b472 adbc ad31 e23d afb9 643c d874 9f3d
00000040: 0e2a 093c e69b 963b 252c cdba 34e8 963b
00000050: 067e 30bb 4982 38bd 9f3b 0d3d 71f3 493c
00000060: 9145 a9bb 819d 8cbd fede 79bb dee0 f43c
00000070: 01cc 87bd 8c46 45bd 9fda b93b 7b1a 523c
00000080: 1774 99bd 8004 fa3a b227 f93c 8fb9 86bd
00000090: 17de 3cb9 280f d03b 65d8 ca3c 90af d4bb
000000a0: 3a03 c33c a230 0cbd b7dc 2a3c f7b9 13bd
000000b0: 1e04 d43c 44f2 73bb 3c57 423b 781f b1bb
000000c0: 143e 713d 9f1b 173c 76af 1b3c d9dd 92bb
000000d0: c2ca a0bc 4677 4d3d c4c9 02bd 0783 0f3d
000000e0: 4f05 d5bb 5ac2 d73c 36be 09bd c6c8 acbc
000000f0: 0d41 c9bb 5b6c 09bd 8535 84bc 9772 25bc

base.mlp.fc_h.0.weight f4 [64, 64]
0.1377503 -0.008093162 -0.27240273 0.21282241 0.48638436 0.13287549 -0.42059797 0.008659036
0.42227286 0.18400358 -0.019348526 0.09123118 0.044613935 -0.1949208 -0.3915771 -0.25584713
0.08817401 -0.24684066 0.27839217 -0.3653039 -0.11256542 -0.36046255 -0.26069558 0.26345393
-0.30149075 0.17822094 0.21686062 0.042757466 -0.17174521 -0.0859509 0.05611956 0.09501529
-0.19572213 0.22471206 0.28963545 0.10382249 -0.00046122196 0.120294616 0.10970798 -0.22354409
-0.14280269 -0.16175482 0.10073651 0.0072367517 0.17380111 -0.25650024 0.040008605 -0.19593777
0.0663611 0.1952016 0.016524132 -0.028257083 0.23896646 0.10301334 -0.08332692 -0.05703428
-0.22946467 0.15281071 -0.15961756 0.08236502 -0.1546598 0.29560953 -0.23824021 -0.3125172
-0.22777365 -0.024577592 -0.08549095 -0.25021836 -0.09885 -0.22102536 0.22928645 0.40118235
0.036454797 -0.11616746 -0.13266432 0.27157193 0.041841906 -0.17630683 0.28278965 -0.05793698
0.32543293 -0.23106416 -0.017571421 -0.27312624 0.064295754 0.28666738 0.13581124 -0.1988026
0.053999398 0.115408234 0.04023009 0.17361347 -0.21477138 -0.06472206 -0.015009493 0.21890573
-0.09534455 0.26234773 0.20390026 -0.010516322 0.28446388 -0.18427119 -0.40586254 -0.008075759
-0.10058314 -0.15566878 0.27520156 0.010587275 0.037856188 0.36425054 -0.03157192 -0.26631057
0.2624164 0.21967661 -0.11682484 -0.08198954 0.0026315947 0.3665795 0.24235317 0.5914496
0.18747848 -0.2664994 0.13136767 0.059447616 -0.011532989 0.19449571 -0.061925784 -0.26697835
0.4215907 -0.061511863 0.103978336 -0.1424587 0.02047453 0.37113467 0.0716034 0.041437205
0.105592094 0.21606506 -0.038937427 -0.016552614 -0.10394081 0.07212405 -0.07296447 -0.06592785
0.12594914 -0.15062238 0.37364632 -0.110223256 0.13101773 -0.08149558 0.24508537 -0.052878458
-0.051278416 -0.049321163 0.18712217 0.372629 0.3618634 0.029530475 0.040708613 0.53276736
-0.19534133 -0.1318684 -0.033813186 0.26897112 -0.19348663 -0.1934784 -0.23566832 -0.21568586
-0.13977358 -0.12534232 -0.33274224 -0.09652219 -0.115779944 0.26244235 0.3836611 -0.18282358
-0.15719983 -0.33456862 -0.19308874 -0.34205645 0.13476858 -0.22223897 0.04901904 0.025377413
0.44287133 0.08565139 -0.034275398 -0.06274352 -0.050291087 -0.039267186 0.23178443 0.33099586
0.117201924 -0.04415532 0.014257277 -0.22215903 0.28868812 0.21150723 -0.11976157 -0.12902841
0.38097474 0.35561776 0.1631867 -0.05362865 -0.05711263 -0.18919328 0.14913441 0.43608698
0.19192244 0.19382793 -0.05815479 -0.10999493 -0.041785676 -0.23725492 -0.0048480537 -0.46384037
-0.041163184 -0.107164346 -0.28608727 -0.13931441 -0.23654063 0.1226691 -0.24720201 -0.19804674
0.03449857 0.26741278 0.14496978 0.06733113 -0.19164026 -0.12263865 0.010799161 0.4882125
0.22799523 0.09479531 -0.06146678 -0.20486876 0.2435485 -0.0036263356 0.04525943 -0.22043084
-0.08880004 0.026213747 0.15390539 -0.009893144 -0.19015244 -0.32458758 0.20079195 -0.23613341
0.39617908 -0.40855113 0.18255506 -0.035158936 -0.016931167 0.16722488 0.13868508 -0.26644707
00000000: 6a0e 0d3e 2f99 04bc 5f78 8bbe 1eee 593e
00000010: 5f07 f93e 8310 083e 9e58 d7be a1de 0d3c
00000020: 2634 d83e 6f6b 3c3e cd80 9ebc 6ad7 ba3d
00000030: 1abd 363d 5199 47be cb7c c8be 65fe 82be
00000040: 9394 b43d ccc3 7cbe 6b89 8e3e 1d09 bbbe
00000050: b388 e6bd 8c8e b8be e479 85be 6fe3 863e
00000060: ff5c 9abe 8d7f 363e b610 5e3e 7422 2f3d
00000070: fadd 2fbe 0707 b0bd a0dd 653d 6097 c23d
00000080: 626b 48be eb1a 663e 194b 943e e3a0 d43d
00000090: 2ad0 f1b9 065d f63d 94ae e03d bee8 64be
000000a0: de3a 12be 0ea3 25be f14e ce3d 4622 ed3b
000000b0: ebf8 313e 0054 83be 10e0 233d e9a3 48be
000000c0: 54e8 873d eee2 473e 9e5d 873c 667b e7bc
000000d0: a0b3 743e a8f8 d23d 4ea7 aabd c79c 69bd
000000e0: c9f8 6abe 697a 1c3e c972 23be feae a83d
000000f0: 235f 1ebe 225a 973e 3ef5 73be 4102 a0be
00000100: 7f3d 69be f256 c9bc e115 afbd 9f1c 80be
00000110: de71 cabd 7954 62be 11ca 6a3e c667 cd3e
00000120: a051 153d 35e9 edbd 28d9 07be 7a0b 8b3e
00000130: 6b62 2b3d c789 34be cec9 903e 544f 6dbd
00000140: 259f a63e 159c 6cbe f1f1 8fbc 34d7 8bbe
00000150: 7ead 833d 11c6 923e 1a12 0b3e e992 4bbe
00000160: 792e 5d3d 275b ec3d 4fc8 243d bbc7 313e
00000170: 07ed 5bbe 008d 84bd 60ea 75bc d328 603e
00000180: 0144 c3bd 7152 863e 3bcb 503e a74c 2cbc
00000190: 40a5 913e 96b1 3cbe 37cd cfbe 3050 04bc
000001a0: 89fe cdbd a367 1fbe 38e7 8c3e 4076 2d3c
000001b0: 170f 1b3d 0c7f ba3e 8f51 01bd dc59 88be
000001c0: 715b 863e e8f2 603e dd41 efbd 22ea a7bd
000001d0: d576 2c3b 4fb0 bb3e 6e2b 783e 3e69 173f
000001e0: 5cfa 3f3e 9c72 88be 3f85 063e 587f 733d
000001f0: ddf4 3cbc e229 473e e4a5 7dbd 63b1 88be
00000200: bcda d73e ddf3 7bbd 98f2 d43d b2e0 11be
00000210: 34ba a73c 5d05 be3e cea4 923d 0fba 293d
00000220: ab40 d83d 2940 5d3e da7c 1fbd 5999 87bc
00000230: ebde d4bd c6b5 933d 656e 95bd 2e05 87bd
00000240: d0f8 003e c13c 1abe 924e bf3e bbbc e1bd
00000250: 8329 063e 28e7 a6bd a9f7 7a3e 1597 58bd
00000260: 5109 52bd fd04 4abd f49c 3f3e 3ac9 be3e
00000270: 2946 b93e e5e9 f13c 13be 263d 7163 083f
00000280: 8f07 48be 8308 07be b27f 0abd 95b6 893e
00000290: 5c21 46be 341f 46be 0953 71be c1dc 5cbe
000002a0: ce20 0fbe bd59 00be 315d aabe 6dad c5bd
000002b0: 091e edbd d85e 863e 3a6f c43e 1b36 3bbe
000002c0: fef8 20be 944c abbe 0eb9 45be 0622 afbe
000002d0: c600 0a3e 9d92 63be 30c8 483d 4be4 cf3c
000002e0: 08c0 e23e ff69 af3d 5c64 0cbd ad7f 80bd
000002f0: 07fe 4dbd a1d6 20bd e658 6d3e 4a78 a93e
00000300: 9007 f03d 35dc 34bd 5b97 693c a87d 63be
00000310: eece 933e 5a95 583e 8e45 f5bd 0620 04be
00000320: 1f0f c33e 8813 b63e 6a1a 273e b7a9 5bbd
00000330: efee 69bd e2bb 41be b1b6 183e cb46 df3e
00000340: 5187 443e d47a 463e b833 6ebd 0645 e1bd
00000350: 7527 2bbd f4f2 72be 6cdc 9ebb 7c7c edbe
00000360: ba9a 28bd fb78 dbbd 087a 92be 70a8 0ebe
00000370: b537 72be f039 fb3d 8622 7dbe c4cc 4abe
00000380: 5f4e 0d3d 54ea 883e f572 143e e7e4 893d
00000390: 583d 44be f929 fbbd f7ee 303c fdf6 f93e
000003a0: 9577 693e 0b24 c23d 97c4 7bbd 1ec9 51be
000003b0: c764 793e d1a7 6dbb f461 393d 9fb8 61be
000003c0: ccdc b5bd 36be d63c 6099 1d3e da16 22bc
000003d0: 52b7 42be 5830 a6be 689c 4d3e f5cc 71be
000003e0: fcd7 ca3e 9d2d d1be b7ef 3a3e d102 10bd
000003f0: 3bb3 8abc 003d 2b3e 7603 0e3e c06b 88be

base.mlp.fc_h.0.bias f4 [64]
0.0 0.0 0.0 0.0 0.0 0.0 0.0 0.0
0.0 0.0 0.0 0.0 0.0 0.0 0.0 0.0
0.0 0.0 0.0 0.0 0.0 0.0 0.0 0.0
0.0 0.0 0.0 0.0 0.0 0.0 0.0 0.0
0.0 0.0 0.0 0.0 0.0 0.0 0.0 0.0
0.0 0.0 0.0 0.0 0.0 0.0 0.0 0.0
0.0 0.0 0.0 0.0 0.0 0.0 0.0 0.0
0.0 0.0 0.0 0.0 0.0 0.0 0.0 0.0
00000000: 0000 0000 0000 0000 0000 0000 0000 0000
00000010: 0000 0000 0000 0000 0000 0000 0000 0000
00000020: 0000 0000 0000 0000 0000 0000 0000 0000
00000030: 0000 0000 0000 0000 0000 0000 0000 0000
00000040: 0000 0000 0000 0000 0000 0000 0000 0000
00000050: 0000 0000 0000 0000 0000 0000 0000 0000
00000060: 0000 0000 0000 0000 0000 0000 0000 0000
00000070: 0000 0000 0000 0000 0000 0000 0000 0000
00000080: 0000 0000 0000 0000 0000 0000 0000 0000
00000090: 0000 0000 0000 0000 0000 0000 0000 0000
000000a0: 0000 0000 0000 0000 0000 0000 0000 0000
000000b0: 0000 0000 0000 0000 0000 0000 0000 0000
000000c0: 0000 0000 0000 0000 0000 0000 0000 0000
000000d0: 0000 0000 0000 0000 0000 0000 0000 0000
000000e0: 0000 0000 0000 0000 0000 0000 0000 0000
000000f0: 0000 0000 0000 0000 0000 0000 0000 0000

base.mlp.fc_h.2.weight f4 [64]
1.0 1.0 1.0 1.0 1.0 1.0 1.0 1.0
1.0 1.0 1.0 1.0 1.0 1.0 1.0 1.0
1.0 1.0 1.0 1.0 1.0 1.0 1.0 1.0
1.0 1.0 1.0 1.0 1.0 1.0 1.0 1.0
1.0 1.0 1.0 1.0 1.0 1.0 1.0 1.0
1.0 1.0 1.0 1.0 1.0 1.0 1.0 1.0
1.0 1.0 1.0 1.0 1.0 1.0 1.0 1.0
1.0 1.0 1.0 1.0 1.0 1.0 1.0 1.0
00000000: 0000 803f 0000 803f 0000 803f 0000 803f
00000010: 0000 803f 0000 803f 0000 803f 0000 803f
00000020: 0000 803f 0000 803f 0000 803f 0000 803f
00000030: 0000 803f 0000 803f 0000 803f 0000 803f
00000040: 0000 803f 0000 803f 0000 803f 0000 803f
00000050: 0000 803f 0000 803f 0000 803f 0000 803f
00000060: 0000 803f 0000 803f 0000 803f 0000 803f
00000070: 0000 803f 0000 803f 0000 803f 0000 803f
00000080: 0000 803f 0000 803f 0000 803f 0000 803f
00000090: 0000 803f 0000 803f 0000 803f 0000 803f
000000a0: 0000 803f 0000 803f 0000 803f 0000 803f
000000b0: 0000 803f 0000 803f 0000 803f 0000 803f
000000c0: 0000 803f 0000 803f 0000 803f 0000 803f
000000d0: 0000 803f 0000 803f 0000 803f 0000 803f
000000e0: 0000 803f 0000 803f 0000 803f 0000 803f
000000f0: 0000 803f 0000 803f 0000 803f 0000 803f

base.mlp.fc_h.2.bias f4 [64]
0.0 0.0 0.0 0.0 0.0 0.0 0.0 0.0
0.0 0.0 0.0 0.0 0.0 0.0 0.0 0.0
0.0 0.0 0.0 0.0 0.0 0.0 0.0 0.0
0.0 0.0 0.0 0.0 0.0 0.0 0.0 0.0
0.0 0.0 0.0 0.0 0.0 0.0 0.0 0.0
0.0 0.0 0.0 0.0 0.0 0.0 0.0 0.0
0.0 0.0 0.0 0.0 0.0 0.0 0.0 0.0
0.0 0.0 0.0 0.0 0.0 0.0 0.0 0.0
00000000: 0000 0000 0000 0000 0000 0000 0000 0000
00000010: 0000 0000 0000 0000 0000 0000 0000 0000
00000020: 0000 0000 0000 0000 0000 0000 0000 0000
00000030: 0000 0000 0000 0000 0000 0000 0000 0000
00000040: 0000 0000 0000 0000 0000 0000 0000 0000
00000050: 0000 0000 0000 0000 0000 0000 0000 0000
00000060: 0000 0000 0000 0000 0000 0000 0000 0000
00000070: 0000 0000 0000 0000 0000 0000 0000 0000
00000080: 0000 0000 0000 0000 0000 0000 0000 0000
00000090: 0000 0000 0000 0000 0000 0000 0000 0000
000000a0: 0000 0000 0000 0000 0000 0000 0000 0000
000000b0: 0000 0000 0000 0000 0000 0000 0000 0000
000000c0: 0000 0000 0000 0000 0000 0000 0000 0000
000000d0: 0000 0000 0000 0000 0000 0000 0000 0000
000000e0: 0000 0000 0000 0000 0000 0000 0000 0000
000000f0: 0000 0000 0000 0000 0000 0000 0000 0000

base.mlp.fc2.0.0.weight f4 [64, 64]
0.111484095 0.009775284 -0.24559738 0.22139515 0.45496967 0.1490293 -0.41172677 0.021080049
0.44577938 0.1849281 -0.05422519 0.08105359 0.023463225 -0.18382266 -0.40446705 -0.24498954
0.122987606 -0.28248763 0.24741407 -0.360192 -0.10166954 -0.3465518 -0.26641697 0.285477
-0.28931624 0.17408876 0.19306776 0.025668265 -0.21255237 -0.09916166 0.081557065 0.0853924
-0.21100286 0.1894657 0.30369475 0.07964515 0.039712876 0.10963486 0.07990695 -0.232348
-0.14488086 -0.15647683 0.103985354 0.042169355 0.15760651 -0.23334108 0.038133465 -0.16939238
0.07782527 0.16021337 0.0074607576 -0.017137326 0.27329034 0.12354939 -0.06265338 -0.0571168
-0.220577 0.17117152 -0.15221418 0.080889404 -0.1119233 0.3097563 -0.26563028 -0.28129515
-0.22646303 -0.031017974 -0.08013961 -0.247369 -0.1548017 -0.28878477 0.14539184 0.38007155
0.0023222344 -0.13503468 -0.15754549 0.2727921 0.07144353 -0.16820619 0.33084205 -0.074780464
0.35568315 -0.104827195 0.033224754 -0.2726438 0.09028438 0.31072202 0.053914767 -0.15566564
0.086722076 0.08223169 0.080870956 0.22236027 -0.21717785 -0.074606 -0.005955848 0.21088621
-0.07550669 0.28253278 0.17181294 -0.065466054 0.27447546 -0.1883394 -0.33323497 -0.01569046
-0.08061358 -0.09632836 0.277926 -0.025221463 0.014134925 0.41453898 -0.029841674 -0.24729508
0.28184637 0.25094876 -0.07138501 -0.0837142 -0.039912608 0.32133612 0.18395422 0.5551344
0.19856907 -0.32100043 0.16170228 0.024316592 -0.019109711 0.21967624 -0.034491252 -0.2697851
0.42810285 -0.08284738 0.09132223 -0.10953822 0.0500957 0.3648129 0.09651854 0.04820782
0.09880291 0.21844149 0.016383775 -0.027670672 -0.08914375 0.068383664 -0.090502724 -0.051965233
0.1056674 -0.12489258 0.37263227 -0.12435728 0.11886906 -0.06399793 0.23015656 -0.049244903
-0.054764215 -0.061429475 0.19603884 0.39491418 0.36289078 0.050687633 0.031784773 0.49690473
-0.19865032 -0.13488957 -0.033334713 0.26955315 -0.22005388 -0.1947927 -0.24043524 -0.23384118
-0.12814957 -0.14599042 -0.31681064 -0.095734306 -0.097610585 0.24696544 0.3756386 -0.17095691
-0.15458284 -0.32173362 -0.20578605 -0.30458426 0.13433929 -0.20925231 0.049920294 0.040000346
0.431391 0.07955967 -0.047272336 -0.05737339 -0.057533972 -0.053188983 0.21686958 0.34512687
0.10657532 -0.02476938 -0.026466135 -0.2400032 0.28762156 0.2503912 -0.0922364 -0.12232002
0.39670628 0.36633468 0.1600301 -0.070097275 -0.030062504 -0.16879405 0.17006706 0.3928412
0.18929338 0.16381635 -0.07798545 -0.14999364 -0.030781714 -0.26511312 0.06360242 -0.46842307
-0.03282688 -0.089798905 -0.2806971 -0.16922796 -0.19274381 0.1200173 -0.28594512 -0.19549409
0.036177196 0.30850843 0.12767527 0.052653678 -0.19142601 -0.122173145 -0.012551987 0.5166034
0.19954158 0.090804 -0.026679898 -0.1887469 0.26007298 -0.0020396165 0.036243755 -0.26313815
-0.08061475 0.02028091 0.16469166 0.023256438 -0.21141523 -0.29496047 0.19284312 -0.17962758
0.32823876 -0.38334784 0.16279428 -0.042142708 -0.050075967 0.16875571 0.13750248 -0.24497458
00000000: c651 e43d 8328 203c e17d 7bbe 69b5 623e
00000010: c9f1 e83e 239b 183e dacd d2be 11b0 ac3c
00000020: 323d e43e cb5d 3d3e 3c1b 5ebd 6dff a53d
00000030: f335 c03c 023c 3cbe 4e16 cfbe 8ade 7abe
00000040: ede0 fb3d 38a2 90be 1d5a 7d3e 166b b8be
00000050: 1f38 d0bd 3d6f b1be ce67 88be 0b2a 923e
00000060: 4221 94be 5344 323e 8eb3 453e 4146 d23c
00000070: 54a7 59be 4515 cbbd 6407 a73d 36e2 ae3d
00000080: 2211 58be 4c03 423e e17d 9b3e ff1c a33d
00000090: f8a9 223d 3e88 e03d 41a6 a33d a2ec 6dbe
000000a0: a65b 14be 763b 20be 46f6 d43d c6b9 2c3d
000000b0: 9a63 213e f7f0 6ebe d631 1c3d 3275 2dbe
000000c0: db62 9f3d f90e 243e 5f79 f43b 9463 8cbc
000000d0: b6ec 8b3e 7607 fd3d 6a50 80bd 4ef3 69bd
000000e0: f0de 61be 9647 2f3e 09de 1bbe 58a9 a53d
000000f0: 0b38 e5bd 6198 9e3e b100 88be eb05 90be
00000100: ede5 67be 6819 febc 3c20 a4bd 4d4e 7dbe
00000110: 5684 1ebe 99db 93be 99e1 143e bd98 c23e
00000120: a130 183b 8846 0abe 9b53 21be 68ab 8b3e
00000130: fc50 923d 3e3e 2cbe 2164 a93e 8026 99bd
00000140: 1a1c b63e a4af d6bd ae16 083d f897 8bbe
00000150: 04e7 b83d f516 9f3e bbd5 5c3d d066 1fbe
00000160: 589b b13d 1769 a83d ac9f a53d 69b2 633e
00000170: df63 5ebe 08cb 98bd 4629 c3bb 8ef2 573e
00000180: 40a3 9abd 23a8 903e bbef 2f3e 1113 86bd
00000190: 0c88 8c3e 0bdc 40be c69d aabe 4889 80bc
000001a0: bc18 a5bd ce47 c5bd 514c 8e3e 3e9d cebc
000001b0: 2c96 673c 743e d43e 8776 f4bc ec3a 7dbe
000001c0: 2b4e 903e 5b7c 803e 4e32 92bd 5a72 abbd
000001d0: 677b 23bd 2b86 a43e 7f5e 3c3e 4a1d 0e3f
000001e0: b155 4b3e 2b5a a4be 4895 253e 9733 c73c
000001f0: f88b 9cbc cff2 603e b346 0dbd 4621 8abe
00000200: 4c30 db3e e3ab a9bd 2607 bb3d 9355 e0bd
00000210: 2631 4d3d c2c8 ba3e 83ab c53d 9075 453d
00000220: 2e59 ca3d 20af 5f3e 4437 863c 9bad e2bc
00000230: 0091 b6bd bc0c 8c3d 7e59 b9bd 7fd9 54bd
00000240: 2668 d83d aec7 ffbd a8c9 be3e 08af febd
00000250: 9f71 f33d 5911 83bd 29ae 6b3e 06b5 49bd
00000260: 7150 60bd 799d 7bbd 68be 483e 3132 ca3e
00000270: d2cc b93e d69d 4f3d c030 023d 4c6a fe3e
00000280: fd6a 4bbe 7e20 0abe fb89 08bd df02 8a3e
00000290: ce55 61be bd77 47be a834 76be 1074 6fbe
000002a0: a439 03be 837e 15be 0135 a2be 5910 c4bd
000002b0: 0fe8 c7bd 82e4 7c3e b453 c03e 540f 2fbe
000002c0: f74a 1ebe 45ba a4be 94b9 52be 78f2 9bbe
000002d0: 3d90 093e 3d46 56be 3979 4c3d 67d7 233d
000002e0: 48df dc3e 2ef0 a23d a3a0 41bd 5c00 6bbd
000002f0: bea8 6bbd b1dc 59bd 0f13 5e3e 78b4 b03e
00000300: 2944 da3d 28e9 cabc 82cf d8bc 66c3 75be
00000310: 2243 933e 4633 803e 70e6 bcbd eb82 fabd
00000320: 161d cb3e 3890 bb3e eede 233e 298f 8fbd
00000330: a445 f6bc 59d8 2cbe 0f26 2e3e 7b22 c93e
00000340: 20d6 413e 79bf 273e d6b6 9fbd ef97 19be
00000350: ef29 fcbc e8bc 87be fc41 823d 26d5 efbe
00000360: 7b75 06bd 7de8 b7bd 88b7 8fbe 184a 2dbe
00000370: a25e 45be a1cb f53d 6667 92be 9a2f 48be
00000380: 8a2e 143d d1f4 9d3e 4ebd 023e 62ab 573d
00000390: 2e05 44be ea35 fabd d9a6 4dbc 1f40 043f
000003a0: a154 4c3e 73f7 b93d cd8f dabc de46 41be
000003b0: 4928 853e 16ab 05bb 5574 143d 0bba 86be
000003c0: 5919 a5bd 2724 a63c eea4 283e 4984 be3c
000003d0: 3c7d 58be 0f05 97be ab78 453e 4bf0 37be
000003e0: e90e a83e 2b46 c4be 8bb3 263e d59d 2cbd
000003f0: 751c 4dbd 4cce 2c3e 73cd 0c3e 9eda 7abe

base.mlp.fc2.0.0.bias f4 [64]
0.031158172 0.039974622 -0.027930386 -0.047908377 -0.07225074 -0.016370349 0.07869197 0.016107077
-0.00050131435 -0.0068811914 -0.046362326 0.0014825076 -0.022175344 0.010065232 -0.0038786244 0.033146538
0.041410256 0.02860532 -0.0021384445 -0.0072057624 -0.002063962 -0.01605237 0.021188429 -0.043351285
-0.020368172 0.03174555 -0.0289466 -0.011079297 -0.040452 0.009423054 0.013135054 -0.012642106
0.012134453 -0.015780024 -0.0152941495 -0.028287102 0.025238872 0.026462082 -0.01421239 -0.049357783
0.028500171 -0.012449155 0.063266136 -0.0707612 -0.009332376 -0.08625249 0.08338012 0.013474904
0.012499924 0.073881865 0.03574827 -0.01682199 -0.025767108 0.03992509 -0.024499873 0.019865457
0.0044269357 -0.0029138632 0.0003095209 0.0044372827 -0.04717344 0.01884136 0.014979521 0.034001514
00000000: 6c3f ff3c 6ebc 233d 44ce e4bc 933b 44bd
00000010: 32f8 93bd 1c1b 86bc 4129 a13d fdf2 833c
00000020: a36a 03ba 9e7b e1bb 6ce6 3dbd b350 c23a
00000030: 11a9 b5bc a5e8 243c 8530 7ebb aac4 073d
00000040: cd9d 293d b455 ea3c 2525 0cbb 511e ecbb
00000050: 8943 07bb 4380 83bc 5b93 ad3c 1e91 31bd
00000060: 27db a6bc 9f07 023d 6c21 edbc f185 35bc
00000070: ffb0 25bd 2763 1a3c 6934 573c d620 4fbc
00000080: 96cf 463c 1c45 81bc 5094 7abc 5aba e7bc
00000090: c0c1 ce3c 02c7 d83c 16db 68bc 632b 4abd
000000a0: 3179 e93c 8af7 4bbc ad91 813d 3feb 90bd
000000b0: d2e6 18bc 25a5 b0bd 32c3 aa3d d8c5 5c3c
000000c0: 7bcc 4c3c 604f 973d c76c 123d 45ce 89bc
000000d0: 8b15 d3bc 7e88 233d f5b3 c8bc e2bc a23c
000000e0: d40f 913b 83f6 3ebb 3147 a239 a066 913b
000000f0: f038 41bd 3259 9a3c aa6c 753c 2c45 0b3d

base.mlp.fc2.0.2.weight f4 [64]
0.963898 0.92347443 0.97687995 0.97287774 1.0084895 0.9272112 0.9903797 0.9220841
0.96792936 0.99429876 0.9859741 0.9399224 0.9589595 0.94974136 0.945789 0.97261006
0.9190359 0.9329094 0.948346 0.9826948 0.9513528 0.97478974 0.97670877 1.0148546
0.96578145 0.95090157 0.9968191 0.9717117 0.9869302 0.9848392 0.965682 0.9951005
0.9265293 0.93573225 0.91619194 0.949442 0.9274599 0.9624927 0.92724764 0.97295356
0.98318917 0.96815634 0.9984639 0.980864 0.96069705 0.9171404 0.98256314 0.9768491
0.9588753 0.93956023 0.96580577 0.9624078 0.9843642 0.9940184 0.97343916 0.9527257
0.98726386 0.961086 0.9700653 0.98016846 0.9864522 0.95107645 0.9802679 0.96949714
00000000: 05c2 763f d268 6c3f ce14 7a3f 840e 793f
00000010: 2f16 813f b75d 6d3f 8689 7d3f b40d 6c3f
00000020: 38ca 773f 5d8a 7e3f cc68 7c3f c19e 703f
00000030: 5f7e 753f 4022 733f 3a1f 723f f9fc 783f
00000040: f045 6b3f 27d3 6e3f cec6 723f e391 7b3f
00000050: db8b 733f d28b 793f 9609 7a3f c1e6 813f
00000060: 743d 773f 496e 733f 892f 7f3f 19c2 783f
00000070: 75a7 7c3f 6c1e 7c3f f036 773f e8be 7e3f
00000080: 0631 6d3f 268c 6f3f 8e8b 6a3f a20e 733f
00000090: 036e 6d3f ec65 763f 1a60 6d3f 7c13 793f
000000a0: 49b2 7b3f 18d9 773f 559b 7f3f e719 7b3f
000000b0: 3ef0 753f b7c9 6a3f 4289 7b3f c812 7a3f
000000c0: da78 753f 0587 703f 0c3f 773f 5c60 763f
000000d0: 4bff 7b3f fd77 7e3f 4f33 793f d5e5 733f
000000e0: 53bd 7c3f bb09 763f 3356 783f 52ec 7a3f
000000f0: 2288 7c3f bf79 733f d6f2 7a3f f730 783f

base.mlp.fc2.0.2.bias f4 [64]
0.023442183 0.043070477 -0.016588818 -0.03968737 -0.026478637 -0.01596802 0.10003015 0.04049041
-0.0020887153 0.0037640897 -0.0021547633 -0.010912988 -0.021067759 0.024440141 -0.048815366 0.02226094
0.014222511 0.01991271 0.0037828556 0.005588422 -0.0024311629 -0.025810424 0.009071225 -0.024893548
-0.018732678 0.026604159 -0.017964423 -0.013384398 -0.04070813 0.0137228435 0.011287357 -0.012959722
0.0049315956 -0.004832111 -0.016646426 -0.012419362 -0.01312174 0.019534517 -0.019532988 -0.050765414
0.022778131 -0.0008099791 0.0778394 -0.0863664 -0.012958533 -0.13224512 0.070637375 -0.0144251855
0.006041785 0.03922414 0.036365185 -0.005454723 -0.0036799244 0.044497833 -0.02714268 0.024581948
0.025727207 0.003241418 0.0088894125 0.0048032366 -0.004625625 0.015123908 0.009750943 0.0070919427
00000000: d209 c03c ab6a 303d 46e5 87bc 398f 22bd
00000010: bae9 d8bc 5dcf 82bc 9bdc cc3d 46d9 253d
00000020: d4e2 08bb f2ae 763b ee36 0dbb 64cc 32bc
00000030: 4b96 acbc b136 c83c 9ff2 47bd 935c b63c
00000040: 8905 693c fb1f a33c c9e9 773b 151f b73b
00000050: 2554 1fbb 6270 d3bc 7a9f 143c 8eed cbbc
00000060: 4675 99bc f7f0 d93c 202a 93bc 3c4a 5bbc
00000070: 91bd 26bd c7d5 603c 9bee 383c 0455 54bc
00000080: 3999 a13b af56 9ebb 165e 88bc 947a 4bbc
00000090: 91fc 56bc da06 a03c a503 a0bc 65ef 4fbd
000000a0: 3499 ba3c c754 54ba 436a 9f3d dee0 b0bd
000000b0: 0750 54bc 446b 07be 54aa 903d 9d57 6cbc
000000c0: 2afa c53b 7ea9 203d a9f3 143d 88bd b2bb
000000d0: e32a 71bb 5c43 363d 535a debc 1560 c93c
000000e0: ddc1 d23c f86d 543b e6a4 113c 7864 9d3b
000000f0: 8e92 97bb 45ca 773c 6bc2 1f3c 8763 e83b

rnn.rnn.weight_ih_l0 f4 [192, 64]
-0.042593807 -0.1292189 0.06484962 -0.15347101 0.106371805 -0.08264278 0.012956379 -0.03247559
0.017544407 -0.11838293 0.025226358 -0.07284661 0.03615888 0.037771203 0.06178924 0.10087343
-0.022746345 0.05970311 0.079250075 -0.09940224 -0.0006227289 0.07987949 0.019931616 -0.109109886
-0.18381935 0.03274138 0.019727549 -0.13730298 0.113188125 -0.09099006 0.018296523 0.12753117
0.04062164 -0.015175676 0.025241552 -0.0017225139 0.07988501 0.013125641 0.027558118 -0.04441413
0.0188566 -0.0023949125 0.0108176395 -0.08604412 0.035811078 0.007822203 0.010924397 0.050185133
-0.08292 0.0059327735 0.027218627 0.13536821 0.07871191 -0.057355873 0.08727969 -0.12099324
-0.0997437 0.0077373045 0.019546857 -0.008263677 -0.17128733 -0.1715812 0.06261795 0.09282374
0.03075516 0.006745006 0.0551386 -0.07075889 0.018706938 0.01794991 0.18122742 0.011391642
-0.13018093 -0.16989405 -0.031098614 -0.108149506 -0.15790655 0.035248954 0.00733513 -0.03717813
-0.011352405 0.118164524 0.11864122 -0.15379058 -0.036286537 0.014008386 -0.06473077 0.09478952
0.035179645 -0.049449585 0.18357252 0.081058174 -0.07590484 0.09489737 -0.06472482 -0.11722937
0.002973456 0.022958443 -0.03343868 -0.023249757 0.07092647 -0.067257084 0.02651893 0.03818933
0.047638394 -0.03504611 0.0816967 -0.04223278 -0.11891559 -0.045213163 0.25886673 -0.09007982
0.0853221 0.015500989 -0.050611243 0.082343645 0.108611286 -0.088138185 0.081087194 0.055573832
-0.09754567 -0.016598262 -0.06523465 0.002533999 -0.00957788 -0.055267233 -0.012733965 -0.00012378911
0.060811043 0.0065603983 -0.03609291 -0.058322415 0.05516571 -0.0794511 0.05939377 0.18744509
0.10433044 0.12941518 -0.02234383 -0.092271015 -0.11216054 -0.041836105 0.03972653 -0.06732076
0.03923898 0.013854839 0.1149232 0.09919546 0.10685066 -0.025846621 0.14347292 -0.030312156
0.041623402 0.18873422 -0.13845274 0.03140776 -0.12618363 0.0017475589 0.007983749 0.105315365
0.06386646 -0.08167559 -0.08746031 -0.12604928 0.006672046 0.030525127 -0.1472704 0.0639538
-0.10246964 -0.14823575 -0.009842433 0.067629375 -0.056156047 0.14376447 -0.12521936 0.13272294
0.096365124 0.06476123 0.04602578 0.061080147 -0.18724455 0.10461934 -0.06424013 -0.010891231
0.083832845 0.017339138 0.06573892 0.072421774 0.15731736 -0.05105991 0.00039613858 -0.11899348
0.0014229711 -0.066155516 -0.07242567 -0.058731765 -0.13925724 0.06463615 0.04833237 -0.07561678
-0.14830671 -0.09475244 0.002918236 -0.046614837 0.048916135 -0.08414694 -0.03970599 -0.035018384
0.047613245 -0.09640536 -0.0374176 -0.06904998 0.06611356 -0.058067504 0.057247613 0.07415536
-0.073286735 -0.0068180906 0.016100071 0.04777474 0.028726662 -0.04644996 0.04427782 -0.08426721
-0.06562252 -0.044612776 0.07772114 0.062327743 0.0068487083 0.08089148 -0.13048062 0.05235211
-0.06754652 0.14054413 -0.07395801 0.115135126 -0.058830462 0.07038014 0.20337078 0.05866332
0.0641699 0.045785725 -0.09000713 0.078989714 -0.051279247 0.06649556 -0.08242839 0.007523492
-0.06062688 0.011216804 -0.015153724 -0.019953031 -0.042585548 -0.044163913 -0.055627123 -0.057290982
00000000: d876 2ebd f651 04be e1cf 843d 8127 1dbe
00000010: 76d9 d93d 9e40 a9bd fe46 543c 2005 05bd
00000020: 4ab9 8f3c c072 f2bd 82a7 ce3c 9a30 95bd
00000030: 551b 143d fab5 1a3d b716 7d3d bb96 ce3d
00000040: 8b56 babc 408b 743d dd4d a23d 6793 cbbd
00000050: a13e 23ba dc97 a33d a147 a33c 0175 dfbd
00000060: 243b 3cbe d31b 063d ab9b a13c 2799 0cbe
00000070: 2dcf e73d ff58 babd 97e2 953c 8897 023e
00000080: e062 263d 66a3 78bc 5fc7 ce3c fac5 e1ba
00000090: c19a a33d ee0c 573c 90c1 e13c 97eb 35bd
000000a0: 2879 9a3c f7f3 1cbb 783c 313c e637 b0bd
000000b0: a3ae 123d b328 003c 3efc 323c ed8e 4d3d
000000c0: f6d1 a9bd b667 c23b 99f9 de3c f79d 0a3e
000000d0: b633 a13d feed 6abd b2bf b23d 4ecb f7bd
000000e0: 6d46 ccbd 3789 fd3b bb20 a03c 6064 07bc
000000f0: f265 2fbe fbb2 2fbe d73d 803d 5f1a be3d
00000100: 3ff2 fb3c 3605 dd3b 03d9 613d 09ea 90bd
00000110: 4b3f 993c b10b 933c ae93 393e 02a4 3a3c
00000120: 264e 05be b5f8 2dbe 85c2 febc 7d7d ddbd
00000130: 41b2 21be 3561 103d 885b f03b 1848 18bd
00000140: 70ff 39bc 3e00 f23d 2bfa f23d 477b 1dbe
00000150: 31a1 14bd 6e83 653c 9191 84bd 0221 c23d
00000160: 8818 103d a68b 4abd 6ffa 3b3e d401 a63d
00000170: ff73 9bbd 8d59 c23d 728e 84bd f415 f0bd
00000180: 50de 423b 5813 bc3c fff6 08bd 4676 bebc
00000190: e641 913d 15be 89bd 3a3e d93c 6a6c 1c3d
000001a0: 7a20 433d 838c 0fbd 9950 a73d 48fc 2cbd
000001b0: 048a f3bd 7031 39bd 2e8a 843e c57b b8bd
000001c0: 5abd ae3d dcf7 7d3c bc4d 4fbd c9a3 a83d
000001d0: 986f de3d cb81 b4bd 0b11 a63d 63a1 633d
000001e0: 06c6 c7bd 14f9 87bc bf99 85bd 7311 263b
000001f0: 8aec 1cbc e55f 62bd 1fa2 50bc 63cd 01b9
00000200: 0015 793d 9cf8 d63b 29d6 13bd 7ce3 6ebd
00000210: 71f5 613d 42b7 a2bd e246 733d 9bf1 3f3e
00000220: 33ab d53d 6a85 043e 680a b7bc 96f8 bcbd
00000230: 6db4 e5bd 565c 2bbd 49b8 223d 77df 89bd
00000240: 0db9 203d 68ff 623c db5c eb3d fd26 cb3d
00000250: 85d4 da3d 4bbc d3bc 91ea 123e 3351 f8bc
00000260: 4d7d 2a3d 8b43 413e 8ec6 0dbe 6ca5 003d
00000270: 4836 01be 590e e53a 45ce 023c 95af d73d
00000280: 6bcc 823d 8845 a7bd 641e b3bd 1013 01be
00000290: 2ea1 da3b d50f fa3c 0dce 16be 36fa 823d
000002a0: 9adb d1bd 1dcb 17be 2842 21bc 4581 8a3d
000002b0: e203 66bd fe36 133e 8139 00be 86e8 073e
000002c0: 145b c53d 89a1 843d 8785 3c3d 2d2f 7a3d
000002d0: 09bd 3fbe aa42 d63d 5490 83bd 2271 32bc
000002e0: 8eb0 ab3d cf0a 8e3c 20a2 863d de51 943d
000002f0: cd17 213e 3224 51bd d2b0 cf39 dbb2 f3bd
00000300: fd82 ba3a 8b7c 87bd e953 94bd b890 70bd
00000310: 7399 0ebe f55f 843d 2af8 453d f8dc 9abd
00000320: b7dd 17be 910d c2bd e03f 3f3b 33ef 3ebd
00000330: 495c 483d 3b55 acbd c0a2 22bd 706f 0fbd
00000340: 1b06 433d 2c70 c5bd 3343 19bd 136a 8dbd
00000350: 8c66 873d 31d8 6dbd 797c 6a3d c4de 973d
00000360: 5b17 96bd 4a6a dfbb 4ce4 833c 72af 433d
00000370: 2d54 eb3c 5042 3ebd a95c 353d 4994 acbd
00000380: 1a65 86bd e3bb 36bd 432c 9f3d 604b 7f3d
00000390: 216b e03b 6faa a53d b69c 05be 2b6f 563d
000003a0: d455 8abd cdea 0f3e 4c77 97bd f7cb eb3d
000003b0: 36f8 70bd 7623 903d 6e40 503e f348 703d
000003c0: 826b 833d d089 3b3d a855 b8bd 5cc5 a13d
000003d0: 300a 52bd d32e 883d 37d0 a8bd a087 f63b
000003e0: e453 78bd b0c6 373c 5347 78bc 8a74 a3bc
000003f0: 2f6e 2ebd 38e5 34bd 44d9 63bd f3a9 6abd

rnn.rnn.weight_hh_l0 f4 [192, 64]
-0.0860912 0.054461025 0.21353438 0.07130155 -0.011826309 -0.035223342 -0.004783403 0.07475384
-0.07195877 -0.00049636397 -0.08411905 0.0060733957 -0.06842672 0.121973276 -0.013669673 -0.16726108
0.07622722 0.022402406 -0.0059591504 -0.114098236 0.19717523 -0.1511779 0.14798023 0.12052727
0.16355625 0.104248196 -0.06916188 0.11224002 0.050762374 0.023004457 0.0998754 -0.05566326
0.062425047 -0.00676977 -0.13551608 -0.014153937 -0.09608207 -0.022404002 -0.16019864 -0.08109801
-0.19081934 -0.07471342 -0.16841495 0.080810465 -0.10777799 -0.0784079 0.0164285 -0.063610256
-0.07806345 -0.023594862 0.12115653 0.13492794 0.06478624 0.052764434 -0.027631573 0.058813624
-0.022265268 0.021731708 0.0031132184 0.17205594 -0.09337741 -0.036859762 -0.008868726 -0.0036259342
-0.07703658 0.06783223 0.06389868 -0.1891479 -0.12567069 0.25513455 -0.0323665 -0.047930922
0.067884654 0.20490706 -0.0064641167 -0.08185162 -0.055302966 0.08872977 0.07909113 -0.03696822
-0.035988256 -0.14061458 0.27484235 0.07959507 -0.0154189905 0.102148965 -0.0026997123 0.12395527
-0.07576231 -0.016498726 0.05202367 -0.060818404 -0.031483907 -0.16441731 0.13090955 -0.0462393
0.019239077 0.20194331 0.015836017 -0.08364562 -0.04207695 0.048538685 -0.17833695 -0.061638776
-0.21073884 -0.13728543 -0.10148374 -0.047072157 -0.145949 0.04894325 -0.16365321 0.086857885
-0.099984676 -0.036453754 0.11832431 0.14575744 0.22147146 -0.1229195 0.098629355 0.23362288
0.06589077 -0.166728 0.05542459 0.056025837 0.0075166216 0.05816844 0.107729204 0.04036077
-0.120322175 0.10337304 0.03883953 0.0052726227 0.042802908 0.16280523 -0.07086866 0.100029305
-0.08855522 -0.06970707 -0.08047046 0.060654964 0.14678398 0.02681768 0.0945316 -0.033945348
0.07478404 0.06633303 0.013907081 -0.019254694 -0.030235335 0.10834541 0.15445097 -0.1374931
0.11311525 -0.022110905 -0.040931057 0.11135131 -0.08339702 0.07184517 0.16872956 -0.039555427
0.31374943 -0.11665064 -0.13569011 -0.002849895 -0.08949974 0.0032210313 0.0023279877 -0.0037497026
-0.006169014 -0.010484382 0.034409497 0.08499807 -0.018137434 -0.095264845 -0.109438136 0.11501397
0.1920404 0.008606945 0.059257545 -0.06937961 -0.0047853827 -0.058047015 0.03912336 -0.0130183
-0.017007539 0.011054649 0.10615575 -0.11559052 -0.053750455 0.011649388 -0.16057919 0.28326565
-0.028853 -0.13253249 0.0866455 -0.04946379 -0.05934732 -0.0787552 -0.0008663477 -0.07630073
0.028900484 -0.026474038 0.059142157 -0.11971578 -0.10614128 0.09241626 -0.012017963 -0.16067182
0.004281238 0.0361432 0.07511519 0.08839637 -0.014779113 0.08063058 0.0370317 0.054827187
-0.15157382 0.03040929 -0.011322893 -0.038104523 0.12853636 -0.052096028 0.029627698 -0.03288068
0.07300066 0.09393621 -0.14330354 -0.076861955 -0.04274524 0.12055692 -0.14624605 0.0845612
0.069378905 -0.020102631 -0.16376586 -0.17157423 0.05753854 0.05524854 -0.07695327 -0.03443771
-0.09099331 -0.0043565347 -0.14790313 -0.025374366 0.039469134 -0.05703701 0.0402977 0.023085218
-0.0041502365 -0.19974485 0.015768753 0.2490893 0.07613686 0.014273919 0.07217544 -0.023584818
00000000: 9550 b0bd 8612 5f3d c2a8 5a3e 8c06 923d
00000010: 23c3 41bc 5a46 10bd 18be 9cbb 8b18 993d
00000020: 1f5f 93bd 6c1e 02ba 9c46 acbd 5603 c73b
00000030: 4f23 8cbd 20cd f93d c4f6 5fbc 7d46 2bbe
00000040: 041d 9c3d 4085 b73c fa44 c3bb 56ac e9bd
00000050: 4ee8 493e 61ce 1abe 2188 173e 00d7 f63d
00000060: 4a7b 273e 1480 d53d bea4 8dbd 18de e53d
00000070: 35ec 4f3d d873 bc3c 798b cc3d 29ff 63bd
00000080: 68b1 7f3d f2d4 ddbb bac4 0abe eae5 67bc
00000090: adc6 c4bd 9988 b7bc 1d0b 24be b716 a6bd
000000a0: 2566 43be 5903 99bd f874 2cbe f57f a53d
000000b0: b5ba dcbd 5294 a0bd 1095 863c 1846 82bd
000000c0: bbdf 9fbd 034a c1bc ea20 f83d 8d2a 0a3e
000000d0: a6ae 843d 851f 583d 9c5b e2bc 8ee6 703d
000000e0: a765 b6bc b206 b23c 2307 4c3b 6f2f 303e
000000f0: a83c bfbd 43fa 16bd 224e 11bc 15a1 6dbb
00000100: 5bc5 9dbd a0eb 8a3d 50dd 823d fdaf 41be
00000110: d1af 00be ffa0 823e bc92 04bd 3753 44bd
00000120: 1c07 8b3d 28d3 513e f1d0 d3bb d2a1 a7bd
00000130: 5d85 62bd f4b7 b53d 88fa a13d fd6b 17bd
00000140: 6c68 13bd 45fd 0fbe 23b8 8c3e bd02 a33d
00000150: ef9f 7cbc 7a33 d13d a8ed 30bb 43dc fd3d
00000160: 4529 9bbd 5628 87bc c616 553d b81c 79bd
00000170: 45f5 00bd 035d 28be 270d 063e 6c65 3dbd
00000180: 459b 9d3c 3aca 4e3e 89ba 813c 654e abbd
00000190: e158 2cbd 80d0 463d f69d 36be f178 7cbd
000001a0: eccb 57be 8d94 0cbe b5d6 cfbd bcce 40bd
000001b0: a873 15be b878 483d b594 27be 8ce2 b13d
000001c0: c4c4 ccbd 8850 15bd 0454 f23d 7041 153e
000001d0: 6ac9 623e 38bd fbbd 30fe c93d d63a 6f3e
000001e0: bdf1 863d bfba 2abe e504 633d 597b 653d
000001f0: fe4d f63b 0842 6e3d 21a1 dc3d 5651 253d
00000200: 796b f6bd 3fb5 d33d 3316 1f3d f7c5 ac3b
00000210: 1a52 2f3d 6ab6 263e 9723 91bd 2adc cc3d
00000220: 705c b5bd 95c2 8ebd b2cd a4bd 5771 783d
00000230: 8a4e 163e c0b0 db3c c999 c13d 470a 0bbd
00000240: 6028 993d 9dd9 873d 87da 633c 05bc 9dbc
00000250: 18b0 f7bc 33e4 dd3d 6528 1e3e feca 0cbe
00000260: f8a8 e73d ee21 b5bc 53a7 27bd 280c e43d
00000270: 0fcc aabd 8f23 933d 71c7 2c3e df04 22bd
00000280: c4a3 a03e 88e6 eebd 59f2 0abe 4ec5 3abb
00000290: a44b b7bd f017 533b 2791 183b 92bd 75bb
000002a0: 7125 cabb afc6 2bbc f9f0 0c3d 7813 ae3d
000002b0: f594 94bc 371a c3bd 1a21 e0bd 728c eb3d
000002c0: 3da6 443e 2504 0d3c 0ab8 723d e616 8ebd
000002d0: b3ce 9cbb b5c2 6dbd d13f 203d b54a 55bc
000002e0: 6553 8bbc 8f1e 353c 3068 d93d b9ba ecbd
000002f0: 7029 5cbd 13dd 3e3c df6e 24be 3208 913e
00000300: 205d ecbc 99b6 07be 3273 b13d 8b9a 4abd
00000310: 2d16 73bd 684a a1bd 9c1b 63ba 8f43 9cbd
00000320: b5c0 ec3c 15e0 d8bc 0c3f 723d 8c2d f5bd
00000330: 9960 d9bd bc44 bd3d fee6 44bc 2787 24be
00000340: a149 8c3b e40a 143d fed5 993d 2809 b53d
00000350: 1824 72bc a521 a53d 8dae 173d 7992 603d
00000360: 2b36 1bbe e71c f93c a883 39bc 7d13 1cbd
00000370: 099f 033e a562 55bd c9b5 f23c e4ad 06bd
00000380: 5f81 953d a161 c03d 2abe 12be cd69 9dbd
00000390: a215 2fbd 8ce6 f63d 86c1 15be 6c2e ad3d
000003a0: 8716 8e3d 46ae a4bc 3db2 27be 28b1 2fbe
000003b0: 88ad 6b3d 4b4c 623d ad99 9dbd 8e0e 0dbd
000003c0: b35a babd 43c1 8ebb eb73 17be e7dd cfbc
000003d0: 63aa 213d a49f 69bd 330f 253d 361d bd3c
000003e0: b5fe 87bb ea89 4cbe 792d 813c 4411 7f3e
000003f0: a4ed 9b3d 28dd 693c b8d0 933d f334 c1bc
