onpolicy/scripts/results/MPE/simple_spread/rmappo/check/wandb/run-20220705_000004-2hqpmua1/files/actor.pt (torch, 147692 bytes, 22 tensors)

base.feature_norm.weight f4 [18]
1.0399375 0.97142565 0.96217155 0.97894114 1.0475804 1.0007751 0.9703799 1.0327888
1.0040909 1.0141169 1.0005639 1.0047424 0.9909923 0.9605436 1.026801 1.0029616
1.0024005 1.0180683
00000000: ac1c 853f 5aaf 783f e050 763f e39b 7a3f
00000010: 1d17 863f 6619 803f d16a 783f 6c32 843f
00000020: 0d86 803f 95ce 813f 7a12 803f 669b 803f
00000030: acb1 7d3f 2fe6 753f 376e 833f 0c61 803f
00000040: a94e 803f 1050 823f

base.feature_norm.bias f4 [18]
0.00037884826 0.009576953 -0.010941805 0.030540971 -0.026252065 -0.005499354 0.007708834 0.0049149403
-0.005987877 0.008444376 0.018348165 0.014332835 0.026154462 -0.02124708 -0.0016629876 -0.0076851756
-0.027396886 0.0069648637
00000000: 27a0 c639 a7e8 1c3c 4245 33bc 0f31 fa3c
00000010: 920e d7bc ed33 b4bb 639a fc3b 820d a13b
00000020: f435 c4bb 485a 0a3c e44e 963c 44d4 6a3c
00000030: e241 d63c 5b0e aebc 9bf8 d9ba edd3 fbbb
00000040: 6f6f e0bc 8339 e43b

base.mlp.fc1.0.weight f4 [64, 18]
0.02245088 0.02313111 -0.21975955 -0.072116554 -0.11467644 -0.030684467 0.12117396 0.16948573
-0.45899716 0.20356031 0.1685044 0.021633808 0.045315802 0.18175969 -0.09844567 -0.19635443
-0.27613273 0.086976916 -0.14766136 0.20751539 -0.0997245 0.118204944 0.039666157 0.07520814
-0.18917987 0.17841367 -0.3514394 0.2210333 0.13878909 0.12360063 -0.2197067 -0.08884498
-0.09486677 0.018422544 0.3056783 -0.1355811 -0.26705688 -0.09492161 -0.061172243 0.120818794
0.07675545 0.0869008 -0.33041498 -0.19187985 -0.4230176 0.043256663 0.26469463 0.47549674
0.37717378 0.06754384 0.22450379 -0.006815382 0.058797646 0.18742873 0.054729633 0.087137856
-0.74816996 -0.27922425 0.4264897 0.2923978 0.049954433 0.24427307 0.02975728 0.128321
-0.278365 -0.2292031 0.12457664 -0.104019545 0.07636911 -0.09621873 -0.30818924 0.10710369
0.014626437 -0.09445045 -0.21729945 -0.11203788 -0.29743773 0.0075931936 -0.005293202 -0.20699914
-0.07917442 -0.15191577 -0.095069304 0.040843893 -0.09681244 0.13348088 -0.15080437 0.3207963
0.15237467 -0.16813444 0.52930486 -0.19195844 0.19709823 -0.1723851 0.20728377 0.056356747
0.03895746 -0.2516683 -0.3604136 0.2313192 -0.15880857 0.2860385 -0.05168803 0.05712524
0.3597424 -0.17413038 0.010266615 0.016762407 0.18350692 -0.24998601 0.15947771 0.058058716
-0.07339901 -0.1428968 0.17838977 -0.32558778 -0.086204745 0.2900385 0.21129109 -0.2408954
-0.19250646 0.022694627 0.12982105 -0.13511547 0.0911208 -0.102884136 0.08789032 0.38341513
0.039815396 -0.07520442 0.075893946 -0.30189028 0.15775864 0.2165318 -0.16769467 -0.10967783
0.037033707 -0.031794637 -0.23535514 -0.041488487 0.11346039 -0.20690918 -0.22632937 0.0567427
0.2670434 -0.32842273 0.08467974 -0.16450503 0.31014976 -0.2515265 0.31528273 0.3574784
0.038331345 0.16224244 0.12366779 0.25315884 0.21827787 -0.08159078 0.0013605612 -0.07748401
-0.39886954 0.08596242 -0.027786706 0.3994049 0.295392 -0.04282804 -0.15548499 0.009489487
0.058106266 0.15803178 0.28947946 -0.16594554 -0.12787564 0.106441304 0.16464052 0.26694253
-0.030037744 -0.1629408 -0.014364558 0.0010937757 0.07060306 0.06076737 0.20094927 -0.009829583
0.13032027 0.5589042 0.09494586 0.38329542 0.15613182 0.23789038 0.16701837 0.14640293
-0.07068662 -0.0077792373 0.18435483 0.34269333 -0.21830676 -0.22887449 -0.0906356 -0.13431191
0.03573774 -0.43146712 -0.29506147 0.13604613 -0.00461451 -0.024067137 -0.16995919 -0.14935376
0.22651081 -0.24910282 0.3503101 -0.22079219 0.35756537 0.16028966 0.09709289 0.23294358
-0.23387969 -0.06703666 0.008158063 0.12178281 0.046274375 0.56655765 -0.2015895 0.14452463
0.13218373 -0.059503287 -0.32499826 0.043759786 0.19359757 -0.15411349 -0.1797608 -0.16275518
0.33235422 0.033263452 -0.013219082 -0.08362529 0.0010680675 0.0929894 0.12239276 0.07036157
0.35702986 -0.0113247465 -0.12329361 -0.1402491 -0.28636435 0.1775713 -0.39917138 -0.4709512
-0.05860726 0.050371427 0.0056707934 0.1156994 0.15694107 0.23961954 0.33332103 0.06186425
00000000: e8ea b73c 747d bd3c a608 61be d8b1 93bd
00000010: 7bdb eabd fe5d fbbc 0e2a f83d ab8d 2d3e
00000020: ad01 ebbe 1d72 503e 6b8c 2c3e 6239 b13c
00000030: 109d 393d 361f 3a3e e29d c9bd 2311 49be
00000040: 4561 8dbe f420 b23d 8a34 17be ea7e 543e
00000050: 5c3c ccbd 6f15 f23d fb78 223d ba06 9a3d
00000060: 5eb8 41be 13b2 363e ddef b3be 8e56 623e
00000070: ba1e 0e3e 5422 fd3d cbfa 60be 5bf4 b5bd
00000080: 8249 c2bd e0ea 963c de81 9c3e c6d5 0abe
00000090: aebb 88be 4366 c2bd bf8f 7abd d86f f73d
000000a0: f631 9d3d 0cf9 b13d 272c a9be 277c 44be
000000b0: c395 d8be e62d 313d 0e86 873e 4f74 f33e
000000c0: ec1c c13e 6d54 8a3d 52e4 653e 9153 dfbb
000000d0: cdd5 703d 51ed 3f3e 2e2c 603d 5575 b23d
000000e0: 1188 3fbf 7bf6 8ebe dc5c da3e 2ab5 953e
000000f0: 059d 4c3d b822 7a3e 8ac5 f33c 9566 033e
00000100: db85 8ebe 38b4 6abe 0a22 ff3d 3308 d5bd
00000110: 6867 9c3d 530e c5bd fbca 9dbe 2e59 db3d
00000120: b9a3 6f3c 3d6f c1bd bf83 5ebe 1e74 e5bd
00000130: c249 98be 53d0 f83b 9972 adbb 95f7 53be
00000140: 3326 a2bd cf8f 1bbe b2b3 c2bd ed4b 273d
00000150: 9a45 c6bd 36af 083e 766c 1abe 6a3f a43e
00000160: 1b08 1c3e 6f2b 2cbe 8680 073f c190 44be
00000170: 1ed4 493e b885 30be 3242 543e 55d6 663d
00000180: dc91 1f3d abda 80be 2288 b8be f1de 6c3e
00000190: b79e 22be a373 923e d4b6 53bd 28fc 693d
000001a0: 2830 b83e 3c4f 32be 4e35 283c 5151 893c
000001b0: 3de9 3b3e 55fc 7fbe 204e 233e face 6d3d
000001c0: 3852 96bd 8a53 12be cfab 363e 71b3 a6be
000001d0: 1d8c b0bd ed7f 943e b15c 583e 49ad 76be
000001e0: 6a20 45be 15ea b93c cfef 043e b65b 0abe
000001f0: 8b9d ba3d ebb4 d2bd d7ff b33d fd4e c43e
00000200: 7815 233d c604 9abd 496e 9b3d 5d91 9abe
00000210: 7b8b 213e 83ba 5d3e 27b8 2bbe c59e e0bd
00000220: a8b0 173d 183b 02bd f000 71be d5ef 29bd
00000230: ec5d e83d 00e0 53be e3c2 67be 096b 683d
00000240: eab9 883e 0627 a8be 926c ad3d 0274 28be
00000250: f3cb 9e3e 15c8 80be bd6c a13e 6907 b73e
00000260: 5401 1d3d e222 263e 8a45 fd3d 099e 813e
00000270: 3c84 5f3e 1119 a7bd dc54 b23a f0af 9ebd
00000280: a138 ccbe 110d b03d f2a0 e3bc cd7e cc3e
00000290: 9f3d 973e 746c 2fbd 7537 1fbe cb79 1b3c
000002a0: d600 6e3d 15d3 213e a736 943e a1ed 29be
000002b0: d5f1 02be e6fd d93d 8697 283e b1ac 883e
000002c0: b711 f6bc f4d9 26be 5359 6bbc 065d 8f3a
000002d0: 5698 903d 35e7 783d a5c5 4d3e 420c 21bc
000002e0: ad72 053e 5814 0f3f fa72 c23d 4c3f c43e
000002f0: 05e1 1f3e 8999 733e dd06 2b3e a6ea 153e
00000300: 26c4 90bd f9e8 febb 83c7 3c3e 8075 af3e
00000310: cf8b 5fbe 135e 6abe 289f b9bd 1089 09be
00000320: bd61 123d 42e9 dcbe 4c12 97be ad4f 0b3e
00000330: 5135 97bb 7228 c5bc c809 2ebe 31f0 18be
00000340: 73f2 673e cf14 7fbe d85b b33e 5917 62be
00000350: cf12 b73e f922 243e a3d8 c63d c388 6e3e
00000360: 287e 6fbe 844a 89bd 65a9 053c 4469 f93d
00000370: 338a 3d3d ec09 113f 7a6d 4ebe 44fe 133e
00000380: 2c5b 073e b8b9 73bd 2c66 a6be 763d 333d
00000390: 713e 463e edcf 1dbe 3713 38be 4ba9 26be
000003a0: 552a aa3e 423f 083d d994 58bc bc43 abbd
000003b0: 66fe 8b3a 3a71 be3d 0ea9 fa3d ba19 903d
000003c0: 9ecc b63e 6e8b 39bc 5c81 fcbd 769d 0fbe
000003d0: 599e 92be 40d5 353e 3160 ccbe 8420 f1be
000003e0: 2b0e 70bd 4552 4e3d 10d2 b93b cff3 ec3d
000003f0: 29b5 203e d35e 753e 0ea9 aa3e 5e65 7d3d

base.mlp.fc1.0.bias f4 [64]
0.008639451 -0.01856252 0.032398213 -0.02737154 -0.050310455 0.001992335 0.001006927 0.04110247
-0.026807576 -0.0056578573 0.015568671 0.024452956 0.0062369783 -0.017602371 0.0030684182 0.0028425585
-0.028163146 -0.0031248608 0.013185968 -0.0027637878 0.013198246 0.018340502 -0.01189741 -0.015760235
-0.030602738 0.01164207 0.0006886628 0.025286268 -0.01868704 0.0072744554 -0.004711712 -0.007863889
-0.025677169 -0.0023197595 -0.0007755228 0.013566508 -0.014789857 -0.00017975691 0.024004566 0.03064455
-0.022403467 -0.003969345 0.010627657 0.019152557 0.011802311 -0.0034145098 0.024223156 0.0058290726
0.039120104 0.023417307 0.04395062 -0.024101887 -0.009949783 0.021502309 0.044749293 0.00548827
0.005284026 0.0104174875 -0.024092866 -0.047173847 0.01932316 -0.023825822 -0.043124363 -0.043558806
00000000: 7c8c 0d3c 6d10 98bc fdb3 043d 483a e0bc
00000010: 5612 4ebd d691 023b ddfa 833a 105b 283d
00000020: 909b dbbc 8c65 b9bb bd13 7f3c 9151 c83c
00000030: 915f cc3b d932 90bc 8417 493b 384a 3a3b
00000040: 66b6 e6bc 77ca 4cbb f509 583c aa20 35bb
00000050: 753d 583c d23e 963c 5bed 42bc 9c1b 81bc
00000060: 98b2 fabc 61be 3e3c 6187 343a 2625 cf3c
00000070: 9015 99bc 8e5e ee3b b464 9abb 8bd7 00bc
00000080: ed58 d2bc 1b07 18bb 744c 4bba 0f46 5e3c
00000090: 2851 72bc 217d 3cb9 39a5 c43c 480a fb3c
000000a0: 7a87 b7bc 4711 82bb a01f 2e3c d3e5 9c3c
000000b0: 7b5e 413c f8c5 5fbb a46f c63c ce01 bf3b
000000c0: 673c 203d a7d5 bf3c 9105 343d 5271 c5bc
000000d0: 6a04 23bc 9c25 b03c 094b 373d f2d6 b33b
000000e0: 9f25 ad3b 1cae 2a3c 675e c5bc 5d39 41bd
000000f0: 9b4b 9e3c 5f2e c3bc 2ca3 30bd b86a 32bd

base.mlp.fc1.2.weight f4 [64]
0.96731937 1.0078331 1.0147918 0.99193907 0.9708359 0.9906939 0.999007 1.00669
0.9821519 0.97664374 1.0228175 0.97976923 1.0013405 1.0003039 0.95869553 1.0197886
0.9911772 1.0168647 1.0119749 0.9682719 1.0073988 1.0136044 0.9828127 1.0605284
0.9961842 1.0313936 1.0125409 0.9932179 1.0007182 1.0061885 1.018755 0.9982437
0.9780247 0.98539084 1.0316498 0.9725148 1.0042928 1.0275292 0.97774667 1.0199684
1.0122926 0.97726613 0.98941773 1.0268517 1.0050957 1.0171806 1.0185744 0.98424476
0.9990307 1.000025 1.0047499 1.0056086 1.002004 1.00374 1.0009117 1.0125666
0.9732118 1.0010015 1.0117724 1.0056713 1.033273 1.0015969 0.9790424 0.9596093
00000000: 3ea2 773f ad00 813f b3e4 813f b8ef 7d3f
00000010: b488 783f 1e9e 7d3f ecbe 7f3f 38db 803f
00000020: 4f6e 7b3f 5305 7a3f afeb 823f 28d2 7a3f
00000030: ed2b 803f f509 803f 126d 753f 6f88 823f
00000040: cabd 7d3f 9f28 823f 6588 813f abe0 773f
00000050: 72f2 803f cabd 813f 9d99 7b3f 65bf 873f
00000060: ed05 7f3f b504 843f f19a 813f 8743 7e3f
00000070: 8917 803f c9ca 803f 9066 823f e68c 7f3f
00000080: d45f 7a3f 9342 7c3f 1a0d 843f bbf6 783f
00000090: ab8c 803f 1486 833f 9b4d 7a3f 538e 823f
000000a0: ce92 813f 1d2e 7a3f 7b4a 7d3f e06f 833f
000000b0: faa6 803f f932 823f a560 823f 77f7 7b3f
000000c0: 7ac0 7f3f d200 803f a59b 803f c8b7 803f
000000d0: ab41 803f 8d7a 803f e01d 803f c89b 813f
000000e0: 6924 793f d120 803f c281 813f d6b9 803f
000000f0: 4a42 843f 5434 803f 86a2 7a3f f5a8 753f

base.mlp.fc1.2.bias f4 [64]
-0.0046229255 -0.020364067 0.028198957 0.011970482 -0.052619934 0.00050895143 -0.0016243471 0.032721575
-0.025456043 0.007489087 0.012406897 0.027915876 -0.015948405 -0.015373494 0.0027470167 -0.003991052
-0.016314358 -0.005439072 0.011343616 -0.0010811596 0.006868773 0.022260394 -0.014664227 -0.018678911
-0.027982552 0.02091699 0.0056127543 0.012931181 -0.020775815 -0.005736866 -0.008428394 -0.003121397
-0.014670036 0.0007475668 0.0024866927 -0.0135593945 -0.0061035957 0.02478564 0.017195659 0.026939912
-0.01273526 -0.010676132 -0.00023071245 0.0028883948 0.0046349596 -0.0017916133 0.012801575 0.007112105
0.027258955 0.0014274816 0.030307367 -0.0035665284 -0.016336154 0.034704693 0.034682646 -0.013481677
0.002635764 -0.0043277247 -0.01589872 -0.038898904 0.023655124 -0.016238842 -0.041619595 -0.018511826
00000000: e97b 97bb 8bd2 a6bc 8001 e73c d71f 443c
00000010: 0088 57bd 276b 053a 0be8 d4ba 0f07 063d
00000020: 3189 d0bc 0467 f53b 4c46 4b3c d6af e43c
00000030: 3ba6 82bc 1be1 7bbc 4b07 343b 5fc7 82bb
00000040: b0a5 85bc 3e3a b2bb 93da 393c b2b5 8dba
00000050: 7213 e13b 6e5b b63c 3a42 70bc 8404 99bc
00000060: aa3b e5bc 1b5a ab3c 32eb b73b 4edd 533c
00000070: 0b32 aabc 52fc bbbb 3f17 0abc 5a90 4cbb
00000080: 975a 70bc 5cf8 433a c8f7 223b 3928 5ebc
00000090: ac00 c8bb 410b cb3c e9dd 8c3c 17b1 dc3c
000000a0: 8da7 50bc f1ea 2ebc 67eb 71b9 394b 3d3b
000000b0: dce0 973b 91d4 eaba b2bd 513c a90c e93b
000000c0: 2c4e df3c 561a bb3a 2847 f83c 6bbc 69bb
000000d0: 66d3 85bc 8226 0e3d 640f 0e3d 40e2 5cbc
000000e0: c8bc 2c3b 96cf 8dbb 083e 82bc 7554 1fbd
000000f0: 64c8 c13c 5207 85bc 4f79 2abd 1da6 97bc

base.mlp.fc_h.0.weight f4 [64, 64]
0.033481717 -0.14812307 0.04011635 0.15791598 -0.2615003 0.18384835 -0.09822951 -0.17843127
-0.24555293 0.20986752 0.05907723 -0.54988647 -0.3318764 -0.07753266 -0.25474575 0.23258102
-0.035450906 0.28970826 0.1688327 -0.005779831 -0.08370787 0.018798394 0.3788099 -0.36313808
-0.15712099 0.12673469 -0.2826243 0.16017354 0.28880858 -0.0026907027 -0.08896485 -0.1341735
0.42363355 -0.0046736123 0.00811594 -0.16290836 0.014690906 -0.45341307 -0.3816589 -0.03441728
-0.041368242 0.06442862 -0.037509352 -0.19917126 0.33794644 0.0024369932 -0.043182805 0.21097794
-0.09338996 0.046192747 0.31319335 -0.30500445 0.2408755 0.08964045 0.23889904 -0.1704453
-0.22307464 0.008375948 0.16009954 0.077872306 -0.16033092 -0.10505947 -0.17032237 -0.13921605
0.36742017 -0.042592585 0.040085096 -0.20250905 0.11505165 0.61356294 -0.6181027 -0.11289254
-0.085166715 0.031012287 -0.29570097 0.040453956 0.057233006 0.008733339 -0.2235725 0.039614394
0.03358214 -0.19574426 0.12904494 0.035515748 0.12646489 -0.020733459 0.07734219 -0.068012856
-0.012206994 -0.42786056 0.097679876 0.3028043 -0.18827666 0.2199191 0.06616239 -0.00557711
-0.23240079 0.10830617 -0.08524921 0.12450692 -0.25545153 0.092753455 0.22030675 0.15197016
-0.31972295 0.03580278 0.23786221 -0.21160562 0.40954992 -0.24327704 0.12832011 0.10518111
0.037926197 0.12529509 0.035141613 0.2983124 -0.058893796 -0.3511304 0.14159437 -0.24631803
-0.09861565 -0.107425265 0.10899717 0.20247844 0.15425356 -0.15235174 0.2743888 0.0045895916
-0.28991836 0.24652463 0.21330462 -0.07810908 0.01643816 -0.10722202 -0.01746483 0.15823115
-0.27380005 0.22626504 -0.18683164 -0.1612559 0.46577647 0.033988934 -0.087933704 0.008738199
-0.10769204 0.41971374 0.16592902 0.4488616 0.18087557 -0.22771388 0.31973332 0.33019602
0.21096644 0.2469317 0.24059743 0.19923216 -0.10945377 -0.039033704 -0.15310274 -0.16218798
0.025413508 -0.0024478517 -0.2975596 0.16301358 -0.007154554 -0.16716437 -0.056974836 0.11978517
-0.0073478934 0.010500321 0.31632894 0.104384795 -0.118750095 0.04842671 -0.22797418 0.06350738
-0.15138103 0.1415667 0.06786745 0.30246478 -0.15226367 0.22327596 0.37444043 -0.01732329
0.006426473 -0.11610367 -0.19558723 -0.5050193 0.09668945 -0.2802399 0.124221295 0.21140915
0.12270751 -0.32803822 -0.06454204 0.005104953 -0.095178604 -0.30062306 0.037753865 0.11972351
-0.23554568 0.43490753 -0.19290066 -0.148174 -0.03548848 -0.016960604 0.25744677 -0.4783506
-0.047204442 -0.065216176 -0.15283751 0.16362053 -0.1235018 -0.016055416 0.12891673 -0.080822274
0.4629589 -0.21969475 -0.31717482 -0.037708826 -0.15547624 0.117756635 -0.45560732 -0.05162742
0.1088916 -0.17700721 0.35809916 0.04689717 0.017099474 0.30481014 -0.21112685 -0.13628107
0.22978127 -0.17570688 0.19893551 -0.37031502 -0.043091927 0.1968094 -0.07251847 -0.16852112
0.11651118 0.009992181 -0.1360168 0.49313092 0.06160251 -0.09435574 0.10172547 0.012225251
0.014263529 -0.22772805 0.18954644 0.28572845 0.07923722 -0.08755005 -0.19595078 -0.20491603
00000000: 2024 093d 93ad 17be 0b51 243d bab4 213e
00000010: 5ee3 85be be42 3c3e 8e2c c9bd b0b6 36be
00000020: 3a72 7bbe 83e7 563e f7fa 713d 5cc5 0cbf
00000030: b4eb a9be 71c9 9ebd 096e 82be b829 6e3e
00000040: f834 11bd a454 943e 7be2 2c3e bd64 bdbb
00000050: 086f abbd 17ff 993c 5ff3 c13e 3ced b9be
00000060: 53e4 20be bdc6 013e 22b4 90be 8804 243e
00000070: b8de 933e 8056 30bb 3433 b6bd c764 09be
00000080: 7fe6 d83e 1a25 99bb b8f8 043c 73d1 26be
00000090: 20b2 703c c225 e8be cc68 c3be 22f9 0cbd
000000a0: bf71 29bd 27f3 833d 68a3 19bd 8df3 4bbe
000000b0: 5107 ad3e f6b5 1f3b 74e0 30bd 9a0a 583e
000000c0: 3c43 bfbd 9b34 3d3d e15a a03e 8b29 9cbe
000000d0: 11a8 763e 6a95 b73d f3a1 743e 3689 2ebe
000000e0: ae6d 64be 463b 093c 22f1 233e 847b 9f3d
000000f0: ca2d 24be 6b29 d7bd fd68 2ebe a78e 0ebe
00000100: 7f1e bc3e 9075 2ebd 4530 243d 885e 4fbe
00000110: 33a0 eb3d 7612 1d3f fb3b 1ebf 3434 e7bd
00000120: e36b aebd 7b0d fe3c 1e66 97be 0cb3 253d
00000130: 286d 6a3d 4716 0f3c 30f0 64be b442 223d
00000140: 6d8d 093d 2f71 48be 5b24 043e f678 113d
00000150: 0380 013e 37d9 a9bc 9565 9e3d 534a 8bbd
00000160: d8ff 47bc 8a10 dbbe 630c c83d 2a09 9b3e
00000170: 99cb 40be 7932 613e 2680 873d 31c0 b6bb
00000180: 79fa 6dbe a0cf dd3d 2397 aebd 7cfd fe3d
00000190: 8bca 82be 86f5 bd3d 1898 613e 119e 1b3e
000001a0: bab2 a3be f0a5 123d 2792 733e 25af 58be
000001b0: 87b0 d13e 9e1d 79be 5966 033e 3269 d73d
000001c0: 8058 1b3d 5b4d 003e a7f0 0f3d 67bc 983e
000001d0: 9f3a 71bd 5dc7 b3be 1dfe 103e cb3a 7cbe
000001e0: 00f7 c9bd c701 dcbd e939 df3d 8256 4f3e
000001f0: a5f4 1d3e 1802 1cbe b07c 8c3e 4964 963b
00000200: 2e70 94be f470 7c3e 876c 5a3e a7f7 9fbd
00000210: 52a9 863c 3897 dbbd 6712 8fbc 5907 223e
00000220: 852f 8cbe 06b2 673e cb50 3fbe 4420 25be
00000230: 417a ee3e fb37 0b3d 9616 b4bd aa2a 0f3c
00000240: a58d dcbd b8e4 d63e 4ce9 293e 30d1 e53e
00000250: 7237 393e d42d 69be 16b4 a33e 740f a93e
00000260: 9607 583e aadb 7c3e 2c5f 763e 8403 4c3e
00000270: 4c29 e0bd cee1 1fbd f7c6 1cbe 9b14 26be
00000280: fd2f d03c 236c 20bb bb59 98be 08ed 263e
00000290: c070 eabb 232d 2bbe 725e 69bd ed51 f53d
000002a0: 99c6 f0bb 8a09 2c3c def5 a13e b2c7 d53d
000002b0: 4033 f3bd 165b 463d 1072 69be 2810 823d
000002c0: a103 1bbe dcf6 103e 17fe 8a3d aadc 9a3e
000002d0: 02eb 1bbe 74a2 643e a8b6 bf3e 93e9 8dbc
000002e0: 2a95 d23b c3c7 edbd 0548 48be f248 01bf
000002f0: 1e05 c63d 9b7b 8fbe bc67 fe3d a47b 583e
00000300: 134e fb3d a0f4 a7be 9e2e 84bd 7347 a73b
00000310: 00ed c2bd 44eb 99be cca3 1a3d 9a31 f53d
00000320: e332 71be 33ac de3e c087 45be edba 17be
00000330: 5e5c 11bd f7f0 8abc 10d0 833e 5fea f4be
00000340: 7259 41bd 0f90 85bd 7081 1cbe 248c 273e
00000350: 83ee fcbd a686 83bc bf02 043e 2686 a5bd
00000360: f308 ed3e a9f7 60be bd64 a2be 9274 1abd
00000370: 2a35 1fbe 642a f13d 5d45 e9be 4677 53bd
00000380: 8f02 df3d 6141 35be c658 b73e 3f17 403d
00000390: 3214 8c3c 1310 9c3e a331 58be 448d 0bbe
000003a0: c84b 6b3e 81ec 33be c0b5 4b3e ee99 bdbe
000003b0: 2981 30bd 6788 493e 9084 94bd cd90 2cbe
000003c0: 6a9d ee3d 3fb6 233c fd47 0bbe a87b fc3e
000003d0: ea52 7c3d 953d c1bd 7155 d03d 6b4c 483c
000003e0: 94b1 693c 8b31 69be 7618 423e 004b 923e
000003f0: 2047 a23d 714d b3bd 52a7 48be 82d5 51be

base.mlp.fc_h.0.bias f4 [64]
0.0 0.0 0.0 0.0 0.0 0.0 0.0 0.0
0.0 0.0 0.0 0.0 0.0 0.0 0.0 0.0
0.0 0.0 0.0 0.0 0.0 0.0 0.0 0.0
0.0 0.0 0.0 0.0 0.0 0.0 0.0 0.0
0.0 0.0 0.0 0.0 0.0 0.0 0.0 0.0
0.0 0.0 0.0 0.0 0.0 0.0 0.0 0.0
0.0 0.0 0.0 0.0 0.0 0.0 0.0 0.0
0.0 0.0 0.0 0.0 0.0 0.0 0.0 0.0
00000000: 0000 0000 0000 0000 0000 0000 0000 0000
00000010: 0000 0000 0000 0000 0000 0000 0000 0000
00000020: 0000 0000 0000 0000 0000 0000 0000 0000
00000030: 0000 0000 0000 0000 0000 0000 0000 0000
00000040: 0000 0000 0000 0000 0000 0000 0000 0000
00000050: 0000 0000 0000 0000 0000 0000 0000 0000
00000060: 0000 0000 0000 0000 0000 0000 0000 0000
00000070: 0000 0000 0000 0000 0000 0000 0000 0000
00000080: 0000 0000 0000 0000 0000 0000 0000 0000
00000090: 0000 0000 0000 0000 0000 0000 0000 0000
000000a0: 0000 0000 0000 0000 0000 0000 0000 0000
000000b0: 0000 0000 0000 0000 0000 0000 0000 0000
000000c0: 0000 0000 0000 0000 0000 0000 0000 0000
000000d0: 0000 0000 0000 0000 0000 0000 0000 0000
000000e0: 0000 0000 0000 0000 0000 0000 0000 0000
000000f0: 0000 0000 0000 0000 0000 0000 0000 0000

base.mlp.fc_h.2.weight f4 [64]
1.0 1.0 1.0 1.0 1.0 1.0 1.0 1.0
1.0 1.0 1.0 1.0 1.0 1.0 1.0 1.0
1.0 1.0 1.0 1.0 1.0 1.0 1.0 1.0
1.0 1.0 1.0 1.0 1.0 1.0 1.0 1.0
1.0 1.0 1.0 1.0 1.0 1.0 1.0 1.0
1.0 1.0 1.0 1.0 1.0 1.0 1.0 1.0
1.0 1.0 1.0 1.0 1.0 1.0 1.0 1.0
1.0 1.0 1.0 1.0 1.0 1.0 1.0 1.0
00000000: 0000 803f 0000 803f 0000 803f 0000 803f
00000010: 0000 803f 0000 803f 0000 803f 0000 803f
00000020: 0000 803f 0000 803f 0000 803f 0000 803f
00000030: 0000 803f 0000 803f 0000 803f 0000 803f
00000040: 0000 803f 0000 803f 0000 803f 0000 803f
00000050: 0000 803f 0000 803f 0000 803f 0000 803f
00000060: 0000 803f 0000 803f 0000 803f 0000 803f
00000070: 0000 803f 0000 803f 0000 803f 0000 803f
00000080: 0000 803f 0000 803f 0000 803f 0000 803f
00000090: 0000 803f 0000 803f 0000 803f 0000 803f
000000a0: 0000 803f 0000 803f 0000 803f 0000 803f
000000b0: 0000 803f 0000 803f 0000 803f 0000 803f
000000c0: 0000 803f 0000 803f 0000 803f 0000 803f
000000d0: 0000 803f 0000 803f 0000 803f 0000 803f
000000e0: 0000 803f 0000 803f 0000 803f 0000 803f
000000f0: 0000 803f 0000 803f 0000 803f 0000 803f

base.mlp.fc_h.2.bias f4 [64]
0.0 0.0 0.0 0.0 0.0 0.0 0.0 0.0
0.0 0.0 0.0 0.0 0.0 0.0 0.0 0.0
0.0 0.0 0.0 0.0 0.0 0.0 0.0 0.0
0.0 0.0 0.0 0.0 0.0 0.0 0.0 0.0
0.0 0.0 0.0 0.0 0.0 0.0 0.0 0.0
0.0 0.0 0.0 0.0 0.0 0.0 0.0 0.0
0.0 0.0 0.0 0.0 0.0 0.0 0.0 0.0
0.0 0.0 0.0 0.0 0.0 0.0 0.0 0.0
00000000: 0000 0000 0000 0000 0000 0000 0000 0000
00000010: 0000 0000 0000 0000 0000 0000 0000 0000
00000020: 0000 0000 0000 0000 0000 0000 0000 0000
00000030: 0000 0000 0000 0000 0000 0000 0000 0000
00000040: 0000 0000 0000 0000 0000 0000 0000 0000
00000050: 0000 0000 0000 0000 0000 0000 0000 0000
00000060: 0000 0000 0000 0000 0000 0000 0000 0000
00000070: 0000 0000 0000 0000 0000 0000 0000 0000
00000080: 0000 0000 0000 0000 0000 0000 0000 0000
00000090: 0000 0000 0000 0000 0000 0000 0000 0000
000000a0: 0000 0000 0000 0000 0000 0000 0000 0000
000000b0: 0000 0000 0000 0000 0000 0000 0000 0000
000000c0: 0000 0000 0000 0000 0000 0000 0000 0000
000000d0: 0000 0000 0000 0000 0000 0000 0000 0000
000000e0: 0000 0000 0000 0000 0000 0000 0000 0000
000000f0: 0000 0000 0000 0000 0000 0000 0000 0000

base.mlp.fc2.0.0.weight f4 [64, 64]
0.040441543 -0.17714396 0.018254645 0.18226603 -0.27456656 0.16486423 -0.07043348 -0.17817228
-0.21504106 0.17919707 0.07146244 -0.510995 -0.34969682 -0.07758108 -0.2503076 0.1849595
-0.042725522 0.29154056 0.17933577 -0.056168307 -0.06366133 0.01494359 0.34572682 -0.36384764
-0.16364157 0.10831252 -0.24418269 0.15555677 0.25953373 0.011667133 -0.06686527 -0.18213615
0.45265576 0.031339075 -0.009969533 -0.20328975 0.061537225 -0.49118918 -0.3357339 -0.026254354
-0.02778293 0.07635814 -0.04019826 -0.19707364 0.38321948 0.00012515634 -0.013429287 0.24850191
-0.09165289 0.03654985 0.2685068 -0.32728586 0.23973131 0.06183561 0.285342 -0.1823901
-0.17970096 0.005663965 0.17616428 0.05304834 -0.11383979 -0.13119061 -0.20821899 -0.14666554
0.38452435 -0.03975641 0.008680287 -0.16989031 0.09765954 0.5979875 -0.60811085 -0.12403109
-0.065974295 0.02850242 -0.26705626 0.06783872 0.054174025 0.0027066087 -0.24061728 0.020621523
0.0421614 -0.18454029 0.12464385 0.0186363 0.12485942 0.002150884 0.0844897 -0.12582882
-0.02414243 -0.42047113 0.07586126 0.2597876 -0.17343424 0.2219394 0.0811453 -0.01956874
-0.2579628 0.09266471 -0.12526476 0.10752095 -0.23372611 0.09241389 0.26305804 0.1534921
-0.34253314 0.06651338 0.24622099 -0.22953966 0.453373 -0.2552193 0.121640034 0.11966408
0.043131184 0.13387892 0.022719014 0.28401423 -0.016022827 -0.35176072 0.14671655 -0.28855076
-0.09564651 -0.09560273 0.14384001 0.14489664 0.1800555 -0.13212676 0.2807458 0.0025359332
-0.29161692 0.23264708 0.20297338 -0.057469938 -0.007289234 -0.12608403 -0.033612303 0.1626358
-0.23531048 0.22172074 -0.19644974 -0.14959612 0.45538405 0.040536053 -0.10855599 -0.018415418
-0.11355189 0.42285648 0.19019097 0.44770047 0.1944792 -0.23000482 0.33492598 0.34714147
0.23344359 0.260602 0.22212718 0.18757807 -0.11438845 -0.03092395 -0.19685702 -0.17863536
0.031836186 0.015726717 -0.2710639 0.12506147 -0.003484644 -0.20070793 -0.033377066 0.14111221
0.01389797 -0.0135622155 0.32444456 0.121004604 -0.13669439 0.082729585 -0.2313695 0.049548004
-0.14553593 0.1244301 0.09144381 0.2986981 -0.15441637 0.21022896 0.39238587 -0.02641846
0.011801977 -0.1260961 -0.20924786 -0.5098274 0.08676236 -0.2589403 0.1079069 0.21329902
0.11344634 -0.30151024 -0.06581889 0.030791549 -0.120068796 -0.27763066 0.04373477 0.121935
-0.23394248 0.41401184 -0.17638697 -0.1735382 -0.015507757 0.007371509 0.23487276 -0.4971562
-0.02765001 -0.07540821 -0.15142876 0.17249009 -0.1439936 -0.016091948 0.107598595 -0.079582416
0.50730634 -0.21964762 -0.3190342 -0.042250115 -0.1605546 0.13853796 -0.48038706 -0.06257383
0.10090178 -0.18635666 0.36775458 0.044893894 0.011537878 0.30822253 -0.19689804 -0.12137877
0.23527281 -0.15639688 0.16536397 -0.363066 -0.07834961 0.17321524 -0.07766783 -0.18388745
0.11133319 0.016845336 -0.12539089 0.502277 0.048889194 -0.09644988 0.085412346 0.026206756
0.022041285 -0.2691589 0.18986276 0.32549787 0.041595586 -0.068867676 -0.17892288 -0.20159484
00000000: 08a6 253d 3a65 35be c48a 953c f2a3 3a3e
00000010: fd93 8cbe 2bd2 283e 6e3f 90bd cb72 36be
00000020: b933 5cbe 707f 373e e65a 923d 91d0 02bf
00000030: 760b b3be d4e2 9ebd 5128 80be 0666 3d3e
00000040: f500 2fbd ce44 953e cca3 373e bd10 66bd
00000050: df60 82bd f6d5 743c 1b03 b13e 3d4a babe
00000060: a891 27be f4d2 dd3d 070b 7abe 464a 1f3e
00000070: 9be1 843e 8127 3f3c a9f0 88bd e681 3abe
00000080: 7fc2 e73e 675d 003d 4157 23bc 302b 50be
00000090: 750e 7c3d 267d fbbe 50e5 abbe 5f13 d7bc
000000a0: 0799 e3bc a861 9c3d eea6 24bd accd 49be
000000b0: 5835 c43e 663c 0339 8306 5cbc 4977 7e3e
000000c0: 83b4 bbbd 4cb5 153d b979 893e 0392 a7be
000000d0: 207c 753e 5647 7d3d 5918 923e 78c4 3abe
000000e0: 8703 38be c898 b93b 6964 343e 3749 593d
000000f0: d624 e9bd d556 06be 5c37 55be 7e2f 16be
00000100: 60e0 c43e 9ed7 22bd c337 0e3c baf7 2dbe
00000110: ba01 c83d b515 193f 27ad 1bbf 0304 febd
00000120: 881d 87bd e87d e93c 99bb 88be 07ef 8a3d
00000130: 95e5 5d3d 5c61 313b 6064 76be 78ee a83c
00000140: 6fb1 2c3d 21f8 3cbe 4645 ff3d 27ab 983c
00000150: 4cb6 ff3d d8f5 0c3b f008 ad3d 45d9 00be
00000160: 58c6 c5bc fe47 d7be 265d 9b3d e102 853e
00000170: bf98 31be 1544 633e 822f a63d 9f4e a0bc
00000180: b313 84be ffc6 bd3d 6845 00be f233 dc3d
00000190: e655 6fbe 7e43 bd3d 8baf 863e 082d 1d3e
000001a0: 8160 afbe 2b38 883d 5b21 7c3e 720c 6bbe
000001b0: 8120 e83e 1bac 82be 691e f93d 7112 f53d
000001c0: 53aa 303d 8e17 093e 3a1d ba3c 506a 913e
000001d0: 4e42 83bc fb19 b4be dd3c 163e edbc 93be
000001e0: 51e2 c3bd 5dcb c3bd cc4a 133e c95f 143e
000001f0: 7860 383e 3d4c 07be eabd 8f3e e631 263b
00000200: d04e 95be 093b 6e3e 41d8 4f3e 9965 6bbd
00000210: 87da eebb 2c1c 01be 0ead 09bd 008a 263e
00000220: 3bf5 70be c30a 633e 1f2a 49be ba2f 19be
00000230: 1928 e93e 2209 263d 9a52 debd eedb 96bc
00000240: e58d e8bd a580 d83e 6cc1 423e ff38 e53e
00000250: 8e25 473e 6286 6bbe 6b7b ab3e 87bc b13e
00000260: d60b 6f3e a06d 853e 4f75 633e 7714 403e
00000270: 7e44 eabd 3954 fdbc e394 49be 30ec 36be
00000280: a966 023d 51d5 803c e3c8 8abe 1d10 003e
00000290: a05e 64bb 6186 4dbe 64b6 08bd b87f 103e
000002a0: 50b4 633c 0e34 5ebc 991d a63e 43d1 f73d
000002b0: 9df9 0bbe 216e a93d 20ec 6cbe d9f2 4a3d
000002c0: 5f07 15be 35d5 fe3d e446 bb3d f5ee 983e
000002d0: 531f 1ebe 4346 573e cde6 c83e 876b d8bc
000002e0: 145d 413c 561f 01be 1245 56be 0c84 02bf
000002f0: 77b0 b13d d393 84be 4bfe dc3d 0f6b 5a3e
00000300: 8e56 e83d 8d5f 9abe 0ecc 86bd 8f3e fc3c
00000310: a1e6 f5bd 9b25 8ebe 3b23 333d 0fb9 f93d
00000320: 9e8e 6fbe 5cf9 d33e c99e 34be ffb3 31be
00000330: 3f14 7ebc b38c f13b 7c82 703e 428b febe
00000340: 4682 e2bc 9f6f 9abd 2410 1bbe 3ea1 303e
00000350: 0f73 13be 43d3 83bc a75c dc3d 1bfc a2bd
00000360: d4de 013f 4eeb 60be 7358 a3be 750e 2dbd
00000370: 6d68 24be e5dc 0d3e 4bf5 f5be b526 80bd
00000380: 98a5 ce3d 48d4 3ebe 544a bc3e a9e2 373d
00000390: 5e09 3d3c 58cf 9d3e a49f 49be 6f95 f8bd
000003a0: 5beb 703e 8126 20be 2c55 293e c9e3 b9be
000003b0: c375 a0bd 565f 313e 5010 9fbd fe4c 3cbe
000003c0: a802 e43d 3bff 893c 7866 00be 3a95 003f
000003d0: 0940 483d 8487 c5bd abec ae3d 8daf d63c
000003e0: ed8f b43c 32cf 89be 626b 423e a8a7 a63e
000003f0: 2260 2a3d 7f0a 8dbd 8f37 37be e16e 4ebe

base.mlp.fc2.0.0.bias f4 [64]
0.004147003 0.0059691323 0.0118504 -0.012356723 0.008398405 -0.014352091 0.02733951 -0.0065392302
-0.020410348 0.041970383 -0.028489497 0.0019309431 -0.015298654 0.013051617 -0.01329956 0.0029902947
-0.024333086 0.012170005 0.00028246635 0.009721612 -0.022860294 -0.0054167416 0.02270517 -0.00021397357
0.0016326706 -0.028137693 0.006499311 0.005487165 0.008099962 0.009566876 -0.0007554517 -0.0001526543
-0.036384013 -0.029647749 -0.017831717 0.0021252942 -0.02388262 -0.0067494516 0.008449584 0.015178991
-0.018377254 0.011679258 0.00470192 0.0036870511 -0.020799698 0.016196668 -0.013850553 0.00025748086
0.01857721 0.0047648884 -0.012770818 -0.026980326 -0.001041206 -0.01128996 -0.0020084488 0.034520216
-0.014011255 -0.011266168 0.0070797927 0.028187018 -0.036390062 0.016445251 0.01070916 -0.015236815
00000000: 95e3 873b b698 c33b 2e28 423c da73 4abc
00000010: 7799 093c 0825 6bbc 1cf7 df3c 0a47 d6bb
00000020: 9a33 a7bc 23e9 2b3d ce62 e9bc b317 fd3a
00000030: 35a7 7abc 73d6 553c 66e6 59bc d2f8 433b
00000040: 2e56 c7bc b364 473c fe17 9439 6547 1f3c
00000050: 8345 bbbc ec7e b1bb 3100 ba3c 185e 60b9
00000060: 56ff d53a 0581 e6bc 2cf8 d43b adcd b33b
00000070: b4b5 043c 63be 1c3c 8109 46ba d411 20b9
00000080: 6707 15bd d6df f2bc d213 92bc 8548 0b3b
00000090: 7ca5 c3bc 812a ddbb 2070 0a3c 4db1 783c
000000a0: e58b 96bc 5c5a 3f3c 9012 9a3b 74a2 713b
000000b0: 2164 aabc e0ae 843c 6eed 62bc 7ffe 8639
000000c0: 3c2f 983c c822 9c3b b13c 51bc d805 ddbc
000000d0: 1379 88ba 86f9 38bc 2ea0 03bb 1265 0d3d
000000e0: 778f 65bc bc95 38bc 9bfd e73b 76e8 e63c
000000f0: bf0d 15bd 31b8 863c 7975 2f3c d6a3 79bc

base.mlp.fc2.0.2.weight f4 [64]
1.0100797 1.0134668 1.029411 1.0341423 1.0302274 0.9871093 0.9789298 0.98675084
0.9927991 0.98318696 0.9944504 1.0339366 0.9704476 0.98763716 1.0151929 1.0140691
0.99744934 0.96328604 0.97740555 1.0219411 1.0081735 1.0159398 0.9850474 0.9996524
0.98341537 1.0087715 0.98292285 1.0143217 1.0204964 1.0191946 1.0555894 1.0015931
0.9989346 1.005338 1.0187644 1.0127445 0.9955145 0.97659 0.97267 0.9841829
0.98817825 0.9815381 1.0064093 0.9886333 1.0042231 0.97385854 1.0000602 0.9890435
0.9943415 0.9991151 0.9979872 1.0313948 1.0057232 0.9949995 0.9881679 1.0069742
1.0003177 0.9686088 0.96690404 1.0122619 1.0188878 1.0261599 1.0346143 1.0293238
00000000: 4b4a 813f 48b9 813f bdc3 833f c65e 843f
00000010: 7ede 833f 32b3 7c3f 259b 7a3f b49b 7c3f
00000020: 1528 7e3f 24b2 7b3f 4d94 7e3f 0958 843f
00000030: 416f 783f cad5 7c3f d7f1 813f 04cd 813f
00000040: d758 7f3f ea99 763f 4037 7a3f f7ce 823f
00000050: d40b 813f 510a 823f 112c 7c3f 38e9 7f3f
00000060: 1cc1 7b3f 6d1f 813f d5a0 7b3f 4bd5 813f
00000070: a09f 823f f874 823f 8e1d 873f 3434 803f
00000080: 2eba 7f3f eaae 803f df66 823f 9da1 813f
00000090: 0ada 7e3f cd01 7a3f e700 793f 69f3 7b3f
000000a0: 40f9 7c3f 1546 7b3f 05d2 803f 1217 7d3f
000000b0: 628a 803f cb4e 793f f901 803f f431 7d3f
000000c0: 2a8d 7e3f 02c6 7f3f 177c 7f3f bf04 843f
000000d0: 8abb 803f 4ab8 7e3f 92f8 7c3f 88e4 803f
000000e0: 690a 803f bff6 773f 0687 773f cc91 813f
000000f0: ea6a 823f 3559 833f 3e6e 843f e2c0 833f

base.mlp.fc2.0.2.bias f4 [64]
0.021698255 0.020890204 0.00905212 -0.013226654 -0.0052305884 -0.01545284 0.008595082 -0.011978753
-0.011151004 0.016828513 -0.020333743 0.0076999194 -0.006799021 -0.0064553316 0.0055818474 0.010918109
-0.014041938 0.0025033636 0.0013721482 -0.00089827465 -0.018458635 0.010399655 0.0033201957 -0.018086445
0.013821098 -0.017697101 0.0068654073 0.016939916 -0.012758764 0.02902153 -0.007813569 0.0006850283
-0.021076024 -0.0057047363 0.0003745224 0.0003028484 -0.035077557 0.0002444734 -0.017661365 0.036753144
-0.01257183 0.009587766 0.017986117 -0.0068946653 -0.0017299992 -0.00020032177 0.002439263 -0.01385515
-0.025024943 0.018521797 0.027703185 -0.008943421 0.008741691 -0.013441443 0.009636254 0.016410956
0.0074120397 -0.029983684 -0.0015478274 0.037628803 0.0063094273 0.037936065 0.015511374 -0.024460167
00000000: 8ac0 b13c ef21 ab3c 584f 143c 9cb4 58bc
00000010: 5b65 abbb e92d 7dbc 63d2 0c3c 8842 44bc
00000020: b3b2 36bc f3db 893c f392 a6bc 9b4f fc3b
00000030: 52ca debb 3f87 d3bb eee7 b63b dee1 323c
00000040: 2810 66bc 790f 243b a7d9 b33a 317a 6bba
00000050: 9036 97bc 5163 2a3c a497 593b 062a 94bc
00000060: e371 623c 83f9 90bc 36f7 e03b 94c5 8a3c
00000070: 230a 51bc 8fbe ed3c 7c04 00bc 7993 333a
00000080: a0a7 acbc ccee babb 8c5b c439 a0c7 9e39
00000090: 7cad 0fbd aa2c 8039 91ae 90bc 778a 163d
000000a0: 14fa 4dbc 0116 1d3c 9f57 933c a5ec e1bb
000000b0: 24c1 e2ba 770d 52b9 0bdc 1f3b b600 63bc
000000c0: 1c01 cdbc 06bb 973c caf1 e23c 6d87 12bc
000000d0: 4f39 0f3c 8039 5cbc 61e1 1d3c 4570 863c
000000e0: b2e0 f23b 58a0 f5bc 78e0 caba a920 1a3d
000000f0: 50bf ce3b d962 1b3d 6b23 7e3c b060 c8bc

rnn.rnn.weight_ih_l0 f4 [192, 64]
-0.016598541 -0.063658044 -0.0060978034 0.031142384 0.013036391 0.050963655 -0.03850601 0.00066628476
-0.044540484 -0.025334114 0.1119952 0.020822406 -0.011222451 0.014223083 -0.073906265 0.09309021
-0.054083616 -0.024687046 -0.059435587 0.009245989 -0.058664966 0.0026227522 -0.124108985 -0.14409222
-0.02974235 0.02114151 0.052382328 0.0059424066 0.030805746 -0.0033299744 -0.1148839 -0.0025892614
-0.031210475 0.10523991 0.13424553 -0.06570015 0.03543456 0.11116458 0.06771294 0.0024077725
-0.10310672 0.051146317 -0.08924566 -0.030025303 0.12957288 -0.05623942 -0.15386726 0.008715629
0.14929262 0.08977792 0.060180504 -0.037201643 -0.13194041 -0.058169417 -0.041955747 -0.037331756
0.018649053 0.08428125 -0.036140125 0.018625667 0.044381298 -0.10659803 -0.03524976 -0.0043119113
-0.019336384 -0.068888605 -0.046367947 0.15622711 0.17151748 0.09274267 0.051690638 0.14343862
0.01952101 0.108616546 -0.08857548 -0.15086336 -0.012756922 0.029972691 0.111162096 -0.23341894
-0.02039292 -0.12352323 -0.12616992 -0.03802755 0.02608164 -0.0145716015 0.06651018 -0.10986547
0.0053679505 0.01435039 0.019477276 0.06658426 -0.07584735 0.07390201 -0.033894174 -0.031194469
-0.06841384 -0.0688374 -0.029023102 0.0054274136 0.019355536 0.06359815 -0.043537226 -0.13916753
-0.023665331 -0.07301945 -0.00700138 0.061761867 0.14095087 0.10738822 -0.015917161 -0.041257463
0.015223723 -0.05048397 0.08574552 -0.009430748 -0.024914747 -0.00044624467 0.14202853 -0.030727392
0.061168645 0.06800343 0.11386151 0.026402656 -0.029732386 0.090578854 0.106185466 0.050644785
0.014551862 -0.0009751786 0.035531994 0.10643973 -0.015632803 0.15013221 -0.01478898 0.11341848
0.028277894 -0.0076033575 0.066462696 -0.025138635 0.10455347 0.0021297138 -0.05860219 -0.048427623
0.1334003 0.03522777 0.056856334 -0.028861156 0.01857264 0.10453124 0.03067307 0.023936972
0.054532602 0.036989212 -0.021862626 0.07686653 -0.051781833 -0.033290397 -0.0739829 -0.025695419
-0.17008783 -0.03136732 0.012920316 0.033310022 0.05037254 -0.08756932 -0.029948601 -0.028955882
-0.17154121 -0.18374093 -0.027321586 -0.110490024 0.09838597 -0.08375104 0.04692461 -0.072929844
0.03845538 0.04049333 0.06326669 0.024495736 -0.012839869 0.018630574 -0.008441803 -0.094835766
-0.025363442 0.03941409 0.049746584 0.06542117 -0.03530322 -0.10659036 0.10426184 -0.07400363
0.042865034 0.1908136 -0.07922805 -0.053157084 -0.004563623 -0.04619986 -0.11376418 0.09291315
-0.05573378 -0.07056503 -0.049311128 -0.011330171 0.015662096 0.031149762 0.0009471572 -0.09710665
0.039316703 0.10738251 -0.0114968885 -0.055080876 -0.0383972 -0.03329609 -0.046819568 -0.15330456
-0.19181655 -0.055370722 -0.049277525 0.06896348 -0.040763266 -0.053351402 0.019228911 -0.10814417
-0.039609503 -0.0074802083 0.11462966 -0.029509947 0.02210722 0.0074784416 -0.030006869 -0.030671032
-0.013632242 -0.13145778 0.041939456 -0.03291215 0.026556568 -0.015244204 -0.022174116 -0.07311573
-0.051340297 -0.021161182 0.0147788925 0.02088759 0.079638325 -0.053593304 0.045632027 -0.009688726
0.05261939 -0.12810989 -0.033491664 -0.07648094 0.13053064 0.07619444 0.025625303 0.038873296
00000000: aaf9 87bc 265f 82bd 15d0 c7bb 501e ff3c
00000010: 9696 553c 44bf 503d 7ab8 1dbd 9da9 2e3a
00000020: 1570 36bd 7d89 cfbc bd5d e53d c093 aa3c
00000030: 5fde 37bc ef07 693c 2b5c 97bd 14a6 be3d
00000040: c886 5dbd 7d3c cabc bb72 73bd 7d7c 173c
00000050: ad4a 70bd 7be2 2b3b da2c febd e98c 13be
00000060: 3ba6 f3bc f630 ad3c da8e 563d 85b8 c23b
00000070: 555c fc3c b33b 5abb 4048 ebbd 99b0 29bb
00000080: 1cad ffbc 0688 d73d a977 093e cd8d 86bd
00000090: d423 113d 41aa e33d 15ad 8a3d b8cb 1d3b
000000a0: 9e29 d3bd cd7e 513d 6ec6 b6bd a0f7 f5bc
000000b0: c1ae 043e 4e5b 66bd 618f 1dbe ffcb 0e3c
000000c0: 2ae0 183e 7cdd b73d d57f 763d c060 18bd
000000d0: 631b 07be 0e43 6ebd cad9 2bbd 2fe9 18bd
000000e0: e6c5 983c a69b ac3d ab07 14bd db94 983c
000000f0: 2ac9 353d 1150 dabd 0d62 10bd ef4a 8dbb
00000100: 5667 9ebc 7815 8dbd 51ec 3dbd 00fa 1f3e
00000110: 47a2 2f3e deef bd3d 90b9 533d 93e1 123e
00000120: 86ea 9f3c 5a72 de3d 1067 b5bd ed7b 1abe
00000130: 6902 51bc 4a89 f53c f4a8 e33d 6005 6fbe
00000140: 0e0f a7bc bff9 fcbd b032 01be c7c2 1bbd
00000150: 2aa9 d53c babd 6ebc 7d36 883d 2601 e1bd
00000160: a2e5 af3b e61d 6b3c cf8e 9f3c 545d 883d
00000170: db55 9bbd f059 973d 9ed4 0abd 8b8b ffbc
00000180: 8e1c 8cbd 9ffa 8cbd dbc1 edbc 72d8 b13b
00000190: 808f 9e3c bf3f 823d 1754 32bd ef81 0ebe
000001a0: ccdd c1bc 398b 95bd d56b e5bb 03fa 7c3d
000001b0: 6d55 103e 5bee db3d b564 82bc 96fd 28bd
000001c0: ec6c 793c 48c8 4ebd 599b af3d 6d83 1abc
000001d0: 031a ccbc f2f5 e9b9 ed6f 113e 03b8 fbbc
000001e0: f98b 7a3d 6245 8b3d 3930 e93d 624a d83c
000001f0: 5591 f3bc 6881 b93d c477 d93d e870 4f3d
00000200: ef6a 6e3c 21a3 7fba ff89 113d 13fd d93d
00000210: 5d10 80bc 42bc 193e 7a4d 72bc f347 e83d
00000220: 0ba7 e73c 9625 f9bb 981d 883d 8aef cdbc
00000230: 2120 d63d ab92 0b3b da08 70bd 0b5c 46bd
00000240: 179a 083e ff4a 103d 30e2 683d 3b6e ecbc
00000250: a625 983c 7a14 d63d 1746 fb3c 7817 c43c
00000260: 945d 5f3d 0082 173d 4019 b3bc 336c 9d3d
00000270: 3019 54bd 835b 08bd 5984 97bd 337f d2bc
00000280: 812b 2ebe 057b 00bd bcaf 533c 1770 083d
00000290: 7053 4e3d 8b57 b3bd c556 f5bc e334 edbc
000002a0: 80a8 2fbe 9526 3cbe 85d1 dfbc 9848 e2bd
000002b0: 957e c93d aa85 abbd 0534 403d 3e5c 95bd
000002c0: 6383 1d3d 56dc 253d f791 813d 48ab c83c
000002d0: 505e 52bc 259f 983c 7d4f 0abc 4139 c2bd
000002e0: fec6 cfbc ab70 213d 13c3 4b3d 89fb 853d
000002f0: 1c9a 10bd 0c4c dabd 3b87 d53d 378f 97bd
00000300: 3f93 2f3d a464 433e 5142 a2bd 3ebb 59bd
00000310: 728a 95bb 103c 3dbd 32fd e8bd 4049 be3d
00000320: 1b49 64bd 6684 90bd 77fa 49bd 2ea2 39bc
00000330: cc4d 803c c92d ff3c a54a 783a dadf c6bd
00000340: 8d0a 213d 5deb db3d 725d 3cbc 7c9c 61bd
00000350: 6246 1dbd 7b61 08bd e0c5 3fbd dffb 1cbe
00000360: 8f6b 44be 69cc 62bd 3bd7 49bd ba3c 8d3d
00000370: 62f7 26bd 0087 5abd f385 9d3c b17a ddbd
00000380: 933d 22bd 891c f5bb f5c2 ea3d d8be f1bc
00000390: 331a b53c b70d f53b f7d0 f5bc d141 fbbc
000003a0: c459 5fbc de9c 06be b5c8 2b3d e4ce 06bd
000003b0: 298d d93c d3c2 79bc 7ea6 b5bc b3bd 95bd
000003c0: 344a 52bd 375a adbc 2b23 723c 731c ab3c
000003d0: 6b19 a33d a784 5bbd a6e8 3a3d 76bd 1ebc
000003e0: 6e87 573d 3d2f 03be 8e2e 09bd 0aa2 9cbd
000003f0: d3a9 053e d50b 9c3d 28ec d13c 9b39 1f3d

rnn.rnn.weight_hh_l0 f4 [192, 64]
-0.046463776 0.009277314 0.10617817 -0.10465391 -0.044572465 0.14425763 0.10749337 0.11320564
-0.022918385 -0.0634576 0.034534827 0.011154188 0.009401362 -0.02049388 -0.06871384 -0.13103975
-0.008631198 -0.07998123 -0.05547568 0.03330493 0.038923405 -0.0036139386 -0.04601992 0.07826744
0.02696438 0.050177082 -0.0059160856 0.004358961 0.014754767 0.12864581 0.033893432 -0.032983426
0.10872803 0.0068614203 -0.030917812 0.0432194 -0.012031495 0.046505295 0.06836222 0.030223964
-0.017638726 -0.04816607 -0.070711724 -0.023972336 -0.03260419 -0.031840146 0.11320327 0.059219636
0.030702695 -0.047201686 0.0926081 0.10772766 0.07224922 -0.13708243 -0.0782474 0.012336216
-0.10215387 0.0050264304 0.027537981 -0.098804176 -0.116241015 -0.060995955 -0.05358279 -0.05817088
-0.00936773 -0.06120154 -0.08525668 0.0014276581 0.059470795 0.007882976 0.038647972 -0.0217571
-0.0784715 0.012428446 -0.06267433 -0.023267388 0.16122593 0.048543528 -0.08626328 -0.030549504
0.076125436 0.009322502 0.08435097 0.07226637 0.15455638 -0.109609805 0.036380146 -0.12946342
0.040867917 -0.02641793 -0.0004035992 0.049583383 -0.010104356 0.039442793 0.10676064 0.08476725
-0.057072643 0.059133936 -0.0074279155 -0.031634122 -0.03428291 -0.0916941 0.03729782 -0.0042103603
-0.14517578 -0.0077789226 -0.014660086 -0.05148143 -0.001912338 -0.02418011 0.072655015 0.14376424
-0.13427636 0.062590525 -0.022600684 -0.02065551 0.07530917 0.058537204 0.036803514 -0.04068908
-0.037738916 0.051019315 0.004629848 -0.03882737 0.05509868 -0.033492945 -0.031058226 0.032937925
0.023294548 -0.04941009 -0.006168851 0.03494916 -0.0010579532 0.03416058 -0.076112546 -0.02851814
0.058756158 -0.010940147 -0.06367178 0.08479839 0.055362508 -0.09113324 0.015041935 -0.02277475
0.06519738 -0.046603065 0.043860517 0.121011235 0.018984146 -0.06893292 0.13612308 0.0042035053
0.019029927 0.07441968 -0.0032503118 0.0010578242 -0.12749256 0.111256875 0.0050041224 -0.100369066
0.12978661 -0.06609018 0.14148681 -0.109788015 0.01031051 0.03504209 -0.06839891 0.05056735
-0.05817878 -0.00087529817 -0.04680481 0.061703265 -0.07224151 -0.09620827 -0.13293476 -0.056093924
0.05384883 0.11725254 -0.12030959 0.03995277 -0.036589123 0.060210425 0.018897215 0.008590891
-0.114865206 -0.0018084261 0.07264679 -0.003957181 -0.016552363 -0.1704796 -0.041451655 0.05026836
-0.08377275 -0.037307747 -0.0011849239 0.039776083 -0.001015863 -0.068520755 0.019511249 0.052469093
-0.04879174 -0.0018673143 -0.0128622 0.05801854 -0.015364573 0.028686866 0.017629435 -0.11393526
0.04029077 -0.042185117 0.021150483 -0.077571966 0.06331754 -0.018541625 -0.048103053 0.08726403
-0.011034847 0.026590008 -0.007869754 -0.016512197 0.005880963 -0.08015029 0.019256126 0.1051707
0.10276379 0.16631223 -0.09059752 -0.032243337 -0.0778867 0.07473772 0.015249908 -0.068682775
-0.0033792867 -0.08365473 0.006332136 0.0057812263 0.038264386 -0.078984566 0.14568192 0.036880095
-0.008151077 0.063783154 0.12431231 -0.03289505 0.09916168 0.008950911 -0.07567982 -0.015437754
-0.038516287 -0.028277608 0.0346823 0.0088792015 -0.0044648172 0.04074843 -0.034606412 0.116091706
00000000: cd50 3ebd e0ff 173c f173 d93d ca54 d6bd
00000010: 9e91 36bd 46b8 133e 7c25 dc3d 5cd8 e73d
00000020: 56bf bbbc 0ff6 81bd 6474 0d3d 0ec0 363c
00000030: 2c08 1a3c c8e2 a7bc d7b9 8cbd 492f 06be
00000040: de69 0dbc 33cd a3bd 773a 63bd c06a 083d
00000050: 266e 1f3d d4d7 6cbb 627f 3cbd ae4a a03d
00000060: 67e4 dc3c 7c86 4d3d b9db c1bb 9dd5 8e3b
00000070: fabd 713c babb 033e d7d3 0a3d a119 07bd
00000080: cdac de3d c4d5 e03b 5a47 fdbc d306 313d
00000090: bf1f 45bc 567c 3e3d 7e01 8c3d 3f98 f73c
000000a0: 177f 90bc c949 45bd 4fd1 90bd a261 c4bc
000000b0: f98b 05bd d06a 02bd 1ed7 e73d 4a90 723d
000000c0: 3884 fb3c 8e56 41bd 51a9 bd3d 52a0 dc3d
000000d0: 66f7 933d 565f 0cbe 2c40 a0bd d71d 4a3c
000000e0: 0c36 d1bd c1b4 a43b 5597 e13c d859 cabd
000000f0: c50f eebd e5d6 79bd a179 5bbd 9744 6ebd
00000100: 1b7b 19bc 77ae 7abd 0e9b aebd 4220 bb3a
00000110: a697 733d 9927 013c 564d 1e3d f23b b2bc
00000120: aab5 a0bd aea0 4b3c 665b 80bd 409b bebc
00000130: 6918 253e 94d5 463d cdaa b0bd f442 fabc
00000140: a7e7 9b3d 68bd 183c 34c0 ac3d 6400 943d
00000150: 0744 1e3e 1b7b e0bd 5903 153d 0f92 04be
00000160: 1e65 273d 6a6a d8bc 2b9a d3b9 f217 4b3d
00000170: be8c 25bc c48e 213d 53a5 da3d 749a ad3d
00000180: 01c5 69bd 6d36 723d df65 f3bb c892 01bd
00000190: 3d6c 0cbd 1eca bbbd 99c5 183d 10f7 89bb
000001a0: f6a8 14be 55e6 febb db30 70bc 31de 52bd
000001b0: 6aa7 faba 5e15 c6bc 27cc 943d ef36 133e
000001c0: be7f 09be 762f 803d 1225 b9bc be35 a9bc
000001d0: b23b 9a3d b5c4 6f3d 48bf 163d 98a9 26bd
000001e0: 1f94 1abd a1f9 503d fbb5 973b 7309 1fbd
000001f0: 27af 613d e62f 09bd d26d febc ebe9 063d
00000200: 35d4 be3c 3c62 4abd 1324 cabb da26 0f3d
00000210: 05ab 8aba f7eb 0b3d e5e0 9bbd e09e e9bc
00000220: 4caa 703d 4d3e 33bc 5a66 82bd c7aa ad3d
00000230: ccc3 623d 10a4 babd 7372 763c 1d92 babc
00000240: 3486 853d dbe2 3ebd 16a7 333d bdd4 f73d
00000250: a484 9b3c b42c 8dbd d963 0b3e 8fbd 893b
00000260: a6e4 9b3c 5869 983d 2f03 55bb b1a6 8a3a
00000270: 698d 02be a5da e33d 9ff9 a33b 4c8e cdbd
00000280: c8e6 043e 4a5a 87bd ebe1 103e 8ad8 e0bd
00000290: 6aed 283c 4b88 0f3d ba14 8cbd b61f 4f3d
000002a0: df4c 6ebd 4474 65ba 67b6 3fbd 90bc 7c3d
000002b0: 5bf3 93bd d708 c5bd 0d20 08be bec2 65bd
000002c0: 9790 5c3d 1a22 f03d e064 f6bd 84a5 233d
000002d0: 7ade 15bd 359f 763d 55ce 9a3c cfc0 0c3c
000002e0: 733e ebbd b608 edba d7c7 943d 3dab 81bb
000002f0: d298 87bc 3492 2ebe 36c9 29bd 32e6 4d3d
00000300: 0c91 abbd 02d0 18bd 734f 9bba 3fec 223d
00000310: b526 85ba 9c54 8cbd 0ed6 9f3c d5e9 563d
00000320: d9d9 47bd acc0 f4ba fabb 52bc d9a4 6d3d
00000330: b1bb 7bbc b800 eb3c 9b6b 903c e456 e9bd
00000340: ef07 253d 4dca 2cbd c743 ad3c 0dde 9ebd
00000350: a0ac 813d 9be4 97bc b507 45bd 7cb7 b23d
00000360: 81cb 34bc 4ad3 d93c 24f0 00bc 9644 87bc
00000370: 18b5 c03b d625 a4bd 06bf 9d3c bc63 d73d
00000380: d275 d23d c14d 2a3e 318b b9bd 9711 04bd
00000390: 1083 9fbd 1710 993d c0da 793c 8ea9 8cbd
000003a0: 0677 5dbb 2c53 abbd cf7d cf3b 7170 bd3b
000003b0: 1ebb 1c3d a9c2 a1bd a42d 153e 950f 173d
000003c0: 188c 05bc bea0 823d 7497 fe3d f6bc 06bd
000003d0: 4715 cb3d d8a6 123c 05fe 9abd a2ee 7cbc
000003e0: 41c3 1dbd 71a6 e7bc 070f 0e3d 127a 113c
000003f0: 9a4d 92bb d3e7 263d 74bf 0dbd 7dc1 ed3d

rnn.rnn.bias_ih_l0 f4 [192]
0.0041962955 0.025522402 0.010397637 -0.0029760753 0.008189956 0.010557162 0.009817581 0.003098754
0.0052136197 -0.00057895115 0.005320773 -0.008853542 0.010193241 -0.007639779 0.008805325 0.009001055
0.00043546595 -0.0036719763 0.003265904 0.009858542 -0.010310888 -0.008496886 -0.0017675043 -0.0064647077
0.007129766 0.001021194 -0.0015063687 -0.00047547097 0.0022965271 0.0019553215 -0.0140223075 -0.008329126
0.008399276 0.005564135 -0.01107186 -0.009150785 0.0074617993 -0.007957251 0.002298205 0.0014454521
0.0029504127 -0.003529971 -0.0038075102 0.0014291762 -0.0039083166 -0.010140968 -0.012559409 -0.006269504
0.0039381003 -0.007151774 0.004434886 0.0020606038 0.014026377 0.0005644079 0.0119546605 -0.0026484423
0.005020559 0.0047034123 -0.0028609203 -0.007995172 0.00052907784 -0.00096108037 0.0067689316 -0.01155783
-0.0018527372 -0.016077869 0.01006859 0.015700156 -0.0067941113 0.017701704 0.020368364 -0.005814725
0.0258095 -0.025156531 0.007779125 0.032850895 0.0052979966 -0.004212875 0.0022285539 -0.026788479
-0.0019135557 -0.005455045 0.022005785 -0.011179297 -0.02131448 0.0077091777 -0.007969208 -0.036580678
-0.018001506 0.006743278 -0.010409994 -0.0007938047 0.019580418 0.0101314895 0.014303062 -0.036379755
-0.036180314 0.008245144 0.032387685 0.016911661 -0.01759465 -0.0360676 -0.016181918 0.00880136
0.017771836 -0.004401464 -0.0030542158 0.011162029 -0.025593067 0.014150476 0.017352436 0.009590223
0.014679798 0.014386144 0.0016407276 -0.031291254 -0.023760682 -0.0026242174 0.011531449 0.016703345
-0.0011794259 -0.0062653795 0.039858986 -0.02332685 -0.005556887 -0.023416994 -0.011603735 -0.005505454
-0.010299491 0.007809376 -0.00066742755 0.015212932 0.005093662 0.008222938 0.028244302 0.00062524894
0.0059682103 -0.02109941 -0.029648876 -0.012340677 -0.01634052 -0.0043096617 0.0057055214 0.012836529
-0.012737219 0.0027609193 0.0154840555 -0.000675181 0.0033951707 0.00051445415 -0.03502054 -0.011105618
-0.019205859 0.00624904 -0.034228243 0.0010080405 0.010232129 0.0015964134 0.029584853 -0.0026950238
0.022610996 0.008215095 -0.009685048 -0.013095118 0.012134962 -0.025217757 0.009035523 -0.01589139
0.017168006 -0.0077102017 -0.0045185485 0.008279416 -0.03006049 -0.027740996 0.022413036 -0.006925794
0.0008100177 -0.014220972 0.0013590243 0.02138248 -0.012478162 0.02851884 -0.02875898 0.019803796
-0.006338083 0.04525862 -0.0017503682 -0.0056671835 -0.061335918 0.0089191925 0.0238362 -0.016238585
00000000: 1481 893b 5b14 d13c da5a 2a3c 420a 43bb
00000010: 2a2f 063c f2f7 2c3c ebd9 203c 7714 4b3b
00000020: 03d7 aa3b c1c4 17ba e159 ae3b 720e 11bc
00000030: 8d01 273c 1c57 fabb 3644 103c 2979 133c
00000040: 404f e439 8aa5 70bb c708 563b b985 213c
00000050: 00ef 28bc 8636 0bbc 9aab e7ba e6d5 d3bb
00000060: d0a0 e93b 96d9 853a 5971 c5ba a248 f9b9
00000070: 5581 163b da24 003b d2bd 65bc e376 08bc
00000080: 1e9d 093c 5953 b63b bf66 35bc 2ded 15bc
00000090: 1c82 f43b 215f 02bc 7b9d 163b 5375 bd3a
000000a0: b65b 413b 1657 67bb 6c87 79bb 3253 bb3a
000000b0: 5611 80bb 4d26 26bc fbc5 4dbc 6970 cdbb
000000c0: 2e0b 813b 6e59 eabb 8552 913b 320b 073b
000000d0: e4ce 653c c6f4 133a 7bdd 433c 7d91 2dbb
000000e0: 8083 a43b 151f 9a3b 477e 3bbb 2ffe 02bc
000000f0: d0b1 0a3a 03f1 7bba eacd dd3b 0d5d 3dbc
00000100: 8bd7 f2ba bcb5 83bc baf6 243c 9d9d 803c
00000110: 23a1 debb 2a03 913c 8edb a63c 7389 bebb
00000120: 726e d33c 1215 cebc 08e8 fe3b a98e 063d
00000130: d19a ad3b 280c 8abb ee0c 123b 8373 dbbc
00000140: 46d0 faba 3cc0 b2bb 7a45 b43c 5f29 37bc
00000150: b49b aebc 459d fc3b 4891 02bc 9fd5 15bd
00000160: e577 93bc b7f6 dc3b ae8e 2abc 5517 50ba
00000170: 1d67 a03c 8cfe 253c 6457 6a3c f002 15bd
00000180: cf31 14bd a416 073c f3a8 043d 538a 8a3c
00000190: a822 90bc 9fbb 13bd f18f 84bc 9433 103c
000001a0: 3e96 913c 283a 90bb 3d29 48bb f1e0 363c
000001b0: 8da8 d1bc 66d7 673c b226 8e3c 5020 1d3c
000001c0: 8983 703c dcb3 6b3c af0d d73a 422b 00bd
000001d0: c3a5 c2bc 10fb 2bbb 67ee 3c3c 74d5 883c
000001e0: f796 9aba d04d cdbb 2d43 233d f317 bfbc
000001f0: 8c16 b6bb ffd4 bfbc 981d 3ebc 1867 b4bb
00000200: 32bf 28bc cbe5 ff3b 4ef6 2eba a93f 793c
00000210: bce8 a63b 80b9 063c 9860 e73c bfe7 233a
00000220: fa90 c33b abd8 acbc 33e2 f2bc 8d30 4abc
00000230: 8edc 85bc 1038 8dbb 62f5 ba3b 4e50 523c
00000240: c5af 50bc 8af0 343b d6b0 7d3c a1fe 30ba
00000250: 8381 5e3b 6fdc 063a b371 0fbd 57f4 35bc
00000260: 9b55 9dbc bfc4 cc3b ea32 0cbd 3a20 843a
00000270: a9a4 273c bf3e d13a ef5b f23c ff9e 30bb
00000280: b23a b93c 9b98 063c 09ae 1ebc e88c 56bc
00000290: b8d1 463c 7895 cebc bb09 143c a92e 82bc
000002a0: eba3 8c3c dca5 fcbb 5510 94bb 63a6 073c
000002b0: 6b41 f6bc 1641 e3bc 8b9b b73c c5f1 e2bb
000002c0: 5e57 543a 14ff 68bc 4a21 b23a 502a af3c
000002d0: 3471 4cbc 58a0 e93c f497 ebbc 923b a23c
000002e0: b2af cfbb 1a61 393d 9c6c e5ba c8b3 b9bb
000002f0: 5f3b 7bbd ce21 123c 2244 c33c c806 85bc
