onpolicy/scripts/results/MPE/simple_spread/rmappo/check/wandb/run-20220705_000004-2hqpmua1/files/critic.pt (torch, 156012 bytes, 21 tensors)

base.feature_norm.weight f4 [54]
0	0x3f7888e7	0.97083896
1	0x3f79fa08	0.9764714
2	0x3f807eea	1.0038731
3	0x3f827246	1.0191123
4	0x3f7f4139	0.99708897
5	0x3f7f1206	0.99636877
6	0x3f7df17e	0.9919661
7	0x3f7e483f	0.9932899
8	0x3f804e4e	1.0023897
9	0x3f76307a	0.9616772
10	0x3f82e00a	1.0224621
11	0x3f7ff868	0.9998841
12	0x3f840694	1.0314507
13	0x3f827b5c	1.0193896
14	0x3f7fb50d	0.99885637
15	0x3f814374	1.009871
16	0x3f7d5ecb	0.9897277
17	0x3f7dde35	0.99167186
18	0x3f781b17	0.96916336
19	0x3f76fe0b	0.9648139
20	0x3f776e25	0.9665244
21	0x3f7e246f	0.99274343
22	0x3f7edcfd	0.9955595
23	0x3f803693	1.0016655
24	0x3f81033a	1.007911
25	0x3f7ed5e7	0.9954514
26	0x3f7b8c4f	0.9826097
27	0x3f7f6160	0.9975796
28	0x3f813c5a	1.0096543
29	0x3f7ef792	0.9959651
30	0x3f812784	1.0090184
31	0x3f7d5116	0.9895185
32	0x3f821af1	1.0164472
33	0x3f7e480f	0.993287
34	0x3f809b87	1.0047463
35	0x3f7c4a89	0.9855123
36	0x3f7eee89	0.99582726
37	0x3f75fd28	0.9608941
38	0x3f807a39	1.0037299
39	0x3f7e98a6	0.99451673
40	0x3f7f2802	0.9967042
41	0x3f7db9f2	0.99111855
42	0x3f80bf59	1.0058395
43	0x3f7d07f2	0.9884025
44	0x3f7fe3fe	0.99957263
45	0x3f7f9d70	0.99849606
46	0x3f812445	1.0089194
47	0x3f83e3f6	1.0303943
48	0x3f80c8ae	1.0061243
49	0x3f805a09	1.0027477
50	0x3f7f94e1	0.99836546
51	0x3f7c1361	0.9846707
52	0x3f80b61b	1.0055574
53	0x3f81b925	1.0134627

base.feature_norm.bias f4 [54]
0	0xbbd3fdbd	-0.006469457
1	0xbbb7aa55	-0.005605022
2	0xbb3445e7	-0.0027507485
3	0xbc5c0ecb	-0.013431261
4	0x3c27ba00	0.010237217
5	0xba89d413	-0.0010515474
6	0x3c342e84	0.010997418
7	0xbb95f7d7	-0.004576664
8	0xbbdd8ef4	-0.006761426
9	0x3c985d90	0.018599302
10	0x3bc685e0	0.0060584396
11	0x3c1f5124	0.009723935
12	0x3cdca645	0.026934752
13	0x3d1929a2	0.03739322
14	0xbc1d87f1	-0.0096149305
15	0x3b3e2b5d	0.0029017546
16	0xbd375b23	-0.04476465
17	0xbc1f70ce	-0.009731485
18	0x3c796014	0.015220661
19	0x3aef7112	0.001826795
20	0xbb18ef63	-0.0023336045
21	0x3b5f9812	0.003411774
22	0xbc84f6a9	-0.016230898
23	0x3b3727cf	0.0027947312
24	0x3c37f48b	0.011227737
25	0x3c08fd25	0.008361136
26	0xbc16c644	-0.009202544
27	0xbc04927e	-0.008091567
28	0xbba3115a	-0.0049764337
29	0xbb98122e	-0.004640839
30	0xbbbf39e0	-0.0058357567
31	0xbc4b2e2c	-0.012401145
32	0x3c1f9f4f	0.009742572
33	0x3ce692b1	0.02814612
34	0xbca76027	-0.020431591
35	0x3bb1c013	0.0054245084
36	0x3c062819	0.008188271
37	0xbc404533	-0.011735248
38	0x3b14aa3d	0.0022684478
39	0xbbc971a3	-0.0061475798
40	0xbbce7e84	-0.006301703
41	0xbc3fa41d	-0.0116968425
42	0x3af82199	0.0018930911
43	0x3c8c5f47	0.017135276
44	0x3c92084e	0.017826226
45	0x3c33e7cf	0.01098056
46	0x3c74c8d6	0.014940461
47	0xbb6a0ff6	-0.003571508
48	0xbd129915	-0.03579052
49	0xbc3cb94e	-0.011518789
50	0x3bb2fc2e	0.005462191
51	0x3bad05d8	0.0052802376
52	0xbc0e0728	-0.008668698
53	0x3c6250a1	0.013813169

base.mlp.fc1.0.weight f4 [64, 54]
0	0xbe35b375	-0.17744239
1	0x3ec8e934	0.3924042
2	0x3dddbf3d	0.108274914
3	0x3e4da8f4	0.20083982
4	0xbdcab681	-0.09898091
5	0xbd00b850	-0.031425774
6	0xbd4695a4	-0.048482552
7	0x3cad69b8	0.021168575
8	0x3ddf84d9	0.109140106
9	0x3dc2433d	0.09485481
10	0x3e4b0673	0.19826679
11	0xbe2c4649	-0.16823687
12	0xbe56c6a2	-0.2097421
13	0x3d848222	0.06470133
14	0xbe88b0b3	-0.2669731
15	0x3eb63729	0.3558896
16	0x3e2d7fd7	0.16943298
17	0x3f0f94f7	0.5608668
18	0xbe11c9fb	-0.14237206
19	0xbe9ee790	-0.31036043
20	0xbe42d8f5	-0.19028075
21	0xbe275956	-0.16342673
22	0xbdc87e9a	-0.09789772
23	0x3e25122b	0.16120212
24	0x3e9056e7	0.281913
25	0x3dee2efa	0.11630054
26	0x3dc9583c	0.098312825
27	0x3e217cf4	0.15770322
28	0x3c31845c	0.01083478
29	0x3e20a6ca	0.15688625
30	0x3e8dfb74	0.27730906
31	0x3e636af9	0.22208776
32	0x3ec913ee	0.39273018
33	0xbeaef987	-0.3417475
34	0xbd995e17	-0.07488649
35	0xbe8a299e	-0.26984876
36	0x3d3afe39	0.045652602
37	0x3d0ce983	0.03440238
38	0xbde48e9f	-0.11160015
39	0xbd49b9a1	-0.049249295
40	0xbe5c3482	-0.21504405
41	0xbe2705d3	-0.16310816
42	0x3e02b800	0.12765503
43	0x3da4c078	0.08044523
44	0xbe8f6972	-0.28010136
45	0x3e0561bc	0.13025564
46	0x3eb2a792	0.3489347
47	0x3e6c1073	0.2305315
48	0x3ea052ec	0.31313264
49	0xbdf684de	-0.12037061
50	0xbe1fb116	-0.15594897
51	0xbc4f4353	-0.012650329
52	0xbc294c5b	-0.010333146
53	0xbcdfba6a	-0.027310569
54	0x3e8d7571	0.27628663
55	0x3dd82c8b	0.10555371
56	0x3e5b5398	0.21418607
57	0xbc8d81b1	-0.017273756
58	0xbdc9a737	-0.09846347
59	0x3dfa7e03	0.12231066
60	0x3ee1b9a2	0.4408694
61	0xbe2447bb	-0.16042988
62	0x3f2c5fb7	0.6733355
63	0x3e89b2b7	0.2689416
64	0x3daa7740	0.083235264
65	0xbe3dc22d	-0.18531103
66	0xbd8f7915	-0.070055164
67	0x3d8c41b9	0.06848473
68	0x3e8a5dc1	0.27024654
69	0x3dbf3e9c	0.09338114
70	0x3c108ee3	0.008823129
71	0xbe93a61d	-0.28837672
72	0x3e9da13b	0.30787072
73	0xbe16e749	-0.14736666
74	0x3db83b78	0.08995718
75	0x3e838aa9	0.25691727
76	0xbdbbafa8	-0.09164363
77	0x3d648cc2	0.0557983
78	0x3d872c17	0.06600206
79	0xbe99c8b2	-0.3003593
80	0xbe2ff3c2	-0.1718283
81	0x3da9c1a5	0.08288888
82	0xbe940767	-0.28911898
83	0x3e75eae1	0.2401538
84	0x3e4fe658	0.20302713
85	0xbe1105c8	-0.14162362
86	0x3d2dad6b	0.042401712
87	0x3ac94a0d	0.0015357152
88	0xbdcabbda	-0.09899111
89	0xbd0e08bf	-0.03467631
90	0x3e5f2dbd	0.21794792
91	0x3e209dd3	0.15685205
92	0x3ddaee98	0.106900394
93	0x3e2ae2b4	0.16688043
94	0xbceadd8e	-0.028670099
95	0x3e0a83e3	0.13526873
96	0xbebb4b8e	-0.3658108
97	0xbda6d871	-0.08146752
98	0xbd752969	-0.059853945
99	0xbe57f1ca	-0.21088329
100	0x3c8c5767	0.01713152
101	0xbd72864b	-0.059210103
102	0x3cce20ed	0.025162185
103	0xbea08352	-0.3135019
104	0xbe489e75	-0.19591697
105	0xbb596b9a	-0.0033175708
106	0x3eee2e56	0.46519727
107	0x3e057733	0.13033752
108	0x3eaa782a	0.33294803
109	0x3e2b3e54	0.16722995
110	0xbd4c218d	-0.049836684
111	0xbf1e41bb	-0.61819047
112	0x3e2c23f3	0.16810589
113	0x3e2ac7ad	0.16677733
114	0x3d6925fe	0.056920998
115	0x3d33778a	0.043815173
116	0xbdf49a4c	-0.11943492
117	0x3e41e457	0.18934761
118	0x3e1d4d31	0.15361477
119	0x3d962d5c	0.0733287
120	0x3df4d69b	0.11954995
121	0x3db72597	0.089427166
122	0xbd7b19ff	-0.06130409
123	0xbe12ebbd	-0.1434774
124	0x3e244e48	0.16045487
125	0x3e51d9c6	0.2049323
126	0x3e6849c4	0.2268439
127	0xbe4ab7e1	-0.19796707
128	0xbddd280c	-0.10798654
129	0x3e017c92	0.12645176
130	0x3eb86aa6	0.36018866
131	0xbe36f6bf	-0.17867564
132	0x3c728443	0.014802041
133	0x3ec495ed	0.38395634
134	0x3e82c124	0.2553798
135	0x3cac53a3	0.021035975
136	0xbd7a1eb4	-0.061064437
137	0x3e86367f	0.26213452
138	0xbcec72f1	-0.028863402
139	0x3ed0ea6d	0.40803853
140	0xbe94634e	-0.28982013
141	0x3d1098b8	0.035301894
142	0xbe76d21c	-0.24103588
143	0x3e84f962	0.25971514
144	0xbde559cb	-0.11198767
145	0xbe1858a0	-0.14877558
146	0x3e762a87	0.2403966
147	0xbd4b7a98	-0.04967746
148	0x3ef0c61b	0.47026142
149	0xbe36db9c	-0.17857212
150	0xbe905235	-0.2818772
151	0x3e71fb1f	0.23630951
152	0xbe7c7f4f	-0.2465794
153	0x3d873a58	0.06602925
154	0x3ccf7f7f	0.02532935
155	0x3d88d804	0.06681827
156	0x3e8eb8db	0.2787541
157	0xbe079fa6	-0.13244495
158	0xbe06b7fe	-0.13156125
159	0xbde4d358	-0.11173123
160	0x3e0cbfe0	0.1374507
161	0xbea2ac35	-0.3177201
162	0x3d9f8b7d	0.07790277
163	0x3cf41730	0.029796213
164	0xbe91b9aa	-0.28461963
165	0xbe7ade9d	-0.24498983
166	0x3bb911d4	0.005647877
167	0xbe2262a8	-0.15857947
168	0xbd98c7d2	-0.07459988
169	0x3e864446	0.26223963
170	0xbeb9cd4d	-0.36289445
171	0xbd149174	-0.036271527
172	0x3e3fc63d	0.18727966
173	0x3d4f27b1	0.050574962
174	0xbe6e162a	-0.23250642
175	0x3e6e58ef	0.23276113
176	0xbd60a3ac	-0.05484359
177	0x3e6ed160	0.23322058
178	0x3e4a4fad	0.19756956
179	0xbdf77f83	-0.12084868
180	0x3ef8b63c	0.48576534
181	0x3d957ea3	0.07299545
182	0xbebe7b76	-0.37203568
183	0x3d97627a	0.0739183
184	0x3b6cd3cd	0.0036136985
185	0x3e86a0d0	0.26294565
186	0xbe076850	-0.13223386
187	0x3ea9ccca	0.33164054
188	0x3e77c2f6	0.24195465
189	0xbd87dceb	-0.06633934
190	0x3dcf4792	0.10121073
191	0xbdbd7b5b	-0.09252044
192	0xbde4cedc	-0.11172268
193	0xbde5e5d2	-0.11225475
194	0x3e83d506	0.2574846
195	0x3e80d135	0.25159612
196	0x3e8c104d	0.27356187
197	0xbdbbaffc	-0.09164426
198	0xbd2629eb	-0.04056732
199	0x3ee6a87f	0.45050427
200	0xbe1d7beb	-0.15379302
201	0xbe2afbbd	-0.16697593
202	0xbbd636ed	-0.0065373094
203	0x3d9e82f1	0.07739819
204	0xbe7c1558	-0.24617517
205	0xbeed5d5b	-0.46360287
206	0x3de135af	0.109965675
207	0xbe22176d	-0.15829249
208	0x3ea4c841	0.32184032
209	0x3da070b8	0.078339994
210	0xbd45477e	-0.048163883
211	0xbe12de6a	-0.14342657
212	0xbcf24090	-0.029571801
213	0x3e847995	0.2587401
214	0xbdc4f903	-0.09617808
215	0x3e678bbb	0.22611897
216	0x3e2d1ab5	0.16904719
217	0x3e7a6f79	0.24456586
218	0x3e56bdf1	0.20970894
219	0xbe0a9caa	-0.13536325
220	0xbd0c0609	-0.034185443
221	0xbe2ae377	-0.16688333
222	0x3e5ca7b8	0.21548355
223	0xbeb9bf2e	-0.3627867
224	0x3d9c1d1b	0.07622739
225	0xbdf93065	-0.12167434
226	0xbe01dabb	-0.12681095
227	0x3e56bf9e	0.20971534
228	0xbe7f8e05	-0.2495652
229	0x3c1e2127	0.009651459
230	0x3e62836e	0.22120449
231	0x3dd0460e	0.10169612
232	0x3ef01680	0.46892166
233	0x3e52f11e	0.20599791
234	0xbe4d6a54	-0.20060092
235	0xbcd30f9a	-0.025764275
236	0xbd31be8d	-0.043394614
237	0xbe9c3709	-0.30510738
238	0xbceced8c	-0.028921865
239	0x3e257c6d	0.16160746
240	0xbe650b27	-0.22367536
241	0xbd86096d	-0.065447666
242	0xbdc070ce	-0.09396516
243	0x3d84d7f5	0.06486503
244	0xbe316038	-0.17321861
245	0x3c218346	0.009857958
246	0x3d2289e1	0.039682273
247	0xbd83ceb4	-0.0643591
248	0xbdab75ee	-0.08372103
249	0x3e8a1603	0.2696992
250	0xbe959263	-0.29213247
251	0x3ea19dde	0.31565756
252	0xbe51807c	-0.20459169
253	0xbe7e5a1e	-0.24839064
254	0xbea5e8a2	-0.32404047
255	0xbe793e7d	-0.24340244

base.mlp.fc1.0.bias f4 [64]
0	0xbc9c9c8e	-0.01911762
1	0x3bc3e59a	0.0059782984
2	0xbc4e5548	-0.012593575
3	0x3c5ac997	0.013353727
4	0x3a485882	0.0007642583
5	0xbd309317	-0.043109026
6	0xbb8f7cce	-0.0043788916
7	0x3c175559	0.009236657
8	0xbc0fe567	-0.008782721
9	0x3c0c8ebd	0.008578953
10	0xbc16ee58	-0.009212099
11	0x3c0991f0	0.008396611
12	0xbb949eb2	-0.0045355195
13	0x3cd73d7f	0.02627444
14	0x3c289633	0.0102897165
15	0x3c96f396	0.018426698
16	0x3bff20ee	0.007785908
17	0x3beb67b2	0.0071839923
18	0x3bb33a2a	0.00546958
19	0x3b513649	0.0031923226
20	0xbb88c12e	-0.0041734194
21	0xbcefcfd6	-0.029273909
22	0x3ccff993	0.025387561
23	0x3c4f3219	0.012646222
24	0xbbe74783	-0.0070580854
25	0x3abd2728	0.0014431225
26	0x3bf8a21b	0.007587684
27	0x3ca1dc45	0.019758353
28	0x3af85fa2	0.0018949399
29	0xbc9ea8a5	-0.019367525
30	0x3c2d25a5	0.010568057
31	0x3c1f9eab	0.009742419
32	0xbc3bee07	-0.011470324
33	0x3ac04277	0.0014668246
34	0xbac15fe0	-0.0014753304
35	0xbce592be	-0.028024074
36	0x3c4b8eb4	0.01242416
37	0x3c450b9c	0.012026694
38	0xbba853be	-0.005136936
39	0x3c3ea062	0.011634918
40	0x3ad879bb	0.0016515771
41	0xbc90fe37	-0.017699344
42	0x3b5d3f38	0.0033759605
43	0xbc6f4932	-0.0146048535
44	0x3b8f093f	0.004365116
45	0x3c3d49d1	0.011553244
46	0xbbd3e653	-0.006466666
47	0x3bff3ac6	0.0077889888
48	0x3cd95ba7	0.026532961
49	0x3a078b20	0.00051705725
50	0x3a2686b4	0.000635247
51	0xbc468947	-0.01211769
52	0x3c1bc8a8	0.009508289
53	0x3c1d6684	0.009606961
54	0xbc73ca2d	-0.014879745
55	0xbca9666d	-0.020678723
56	0x3bd8a367	0.006611276
57	0x3bd0a447	0.0063672396
58	0xbc8447b0	-0.016147465
59	0xbc305247	-0.010761804
60	0x3bb3ccf3	0.0054870783
61	0xbbbc9b2d	-0.005755803
62	0xbb52d2f4	-0.0032169195
63	0xbc8a4d57	-0.016882582

base.mlp.fc1.2.weight f4 [64]
0	0x3f7eb3ed	0.99493295
1	0x3f806423	1.0030559
2	0x3f7dde28	0.9916711
3	0x3f7baff7	0.98315376
4	0x3f807c13	1.0037864
5	0x3f83232f	1.0245112
6	0x3f7e20f8	0.99269056
7	0x3f81b5ee	1.0133646
8	0x3f802569	1.0011417
9	0x3f7d4df7	0.9894709
10	0x3f80a12c	1.0049186
11	0x3f7f3cf0	0.9970236
12	0x3f804c79	1.0023338
13	0x3f846690	1.03438
14	0x3f7e184d	0.9925583
15	0x3f79b7ec	0.9754627
16	0x3f8159db	1.0105547
17	0x3f777487	0.9666218
18	0x3f7b414f	0.9814653
19	0x3f7f9922	0.9984304
20	0x3f80b23a	1.005439
21	0x3f80af70	1.0053539
22	0x3f8379eb	1.0271581
23	0x3f82c08a	1.0215008
24	0x3f7ff3b5	0.9998124
25	0x3f7ae380	0.9800339
26	0x3f78224a	0.9692732
27	0x3f813f8e	1.009752
28	0x3f8252a5	1.0181471
29	0x3f7e0635	0.9922822
30	0x3f82ba2a	1.0213063
31	0x3f8004c5	1.0001456
32	0x3f7e44c8	0.993237
33	0x3f7dbdaf	0.9911756
34	0x3f7ea82d	0.99475366
35	0x3f81527d	1.0103298
36	0x3f800480	1.0001373
37	0x3f7e7ce4	0.9940932
38	0x3f80d1eb	1.0064062
39	0x3f7d5fe5	0.9897445
40	0x3f812426	1.0089157
41	0x3f7bb392	0.9832088
42	0x3f7df98c	0.99208903
43	0x3f803b17	1.0018033
44	0x3f7f1155	0.9963582
45	0x3f7e8a89	0.9943014
46	0x3f7ddff2	0.9916984
47	0x3f7857e9	0.9700914
48	0x3f80d3eb	1.0064672
49	0x3f76cbee	0.9640492
50	0x3f7d9a3e	0.9906348
51	0x3f81376f	1.0095042
52	0x3f81e1a9	1.0146991
53	0x3f7d645e	0.98981273
54	0x3f7dbce7	0.9911637
55	0x3f79d9c7	0.97597927
56	0x3f80e121	1.0068704
57	0x3f7f5164	0.9973357
58	0x3f7d3f82	0.9892503
59	0x3f7ef129	0.9958673
60	0x3f80cd99	1.0062743
61	0x3f7c50ee	0.9856099
62	0x3f818bf9	1.0120841
63	0x3f8168b1	1.0110074

base.mlp.fc1.2.bias f4 [64]
0	0xbc2bf322	-0.010494979
1	0x3ce66f46	0.028129231
2	0xbc5a4786	-0.013322717
3	0x3b8e6b32	0.004346275
4	0x3bb15c90	0.0054126456
5	0xbd2d35fe	-0.04228782
6	0xbba7a8d1	-0.00511656
7	0x3c845a29	0.016156273
8	0xbc1ec6f0	-0.009690985
9	0xbc5216fe	-0.012822865
10	0xbc67372e	-0.014112277
11	0x3b64f245	0.0034934443
12	0xbc3d9a73	-0.011572468
13	0x3cf86cb0	0.030325264
14	0xbb3361b8	-0.0027371477
15	0x3d2fa7fc	0.04288481
16	0x3bd8c62e	0.0066154217
17	0x3beabcf2	0.0071636373
18	0x3b7ea61a	0.0038856328
19	0x3b108866	0.0022053956
20	0xbaca50d2	-0.0015435463
21	0xbca7c256	-0.020478409
22	0x3ce391c5	0.02777947
23	0x3c6cae7a	0.014445895
24	0xbae3923b	-0.0017362306
25	0xbbf9ce23	-0.0076234504
26	0xbb965aea	-0.0045884745
27	0x3c2f92b9	0.010716134
28	0x3a85f943	0.001022138
29	0xbc9d1f21	-0.019179882
30	0x3b186bdb	0.0023257646
31	0x3b81872c	0.0039528813
32	0xbca3f41a	-0.020013858
33	0x3bc550c5	0.0060215914
34	0x3b8dfaf6	0.0043328954
35	0xbcb52d59	-0.02211635
36	0x38b845bc	8.786793e-05
37	0x3ada93ce	0.0016676129
38	0xbb6ed3f5	-0.0036442254
39	0x3886ed4b	6.433817e-05
40	0xbbc25784	-0.005930843
41	0xbc38d893	-0.011282104
42	0x3b11b2cf	0.0022231822
43	0xbc14f852	-0.009092407
44	0x3b052973	0.0020318895
45	0x3befd2c9	0.0073188287
46	0xbb27077b	-0.0025486636
47	0x3ad7264a	0.0016414609
48	0x3cfb4b0c	0.030675434
49	0xbb7ef368	-0.0038902406
50	0xbb3df769	-0.002898658
51	0xbc5e40f2	-0.013565289
52	0xbbb220ed	-0.005436054
53	0x3c52ced3	0.012866694
54	0xbc5d14b8	-0.013493709
55	0xbc2bcb3a	-0.010485465
56	0x3b16d1c9	0.0023013225
57	0x3c25b502	0.010113956
58	0xbc7e98c1	-0.015539349
59	0xbbcf4929	-0.00632586
60	0x3c0d7a54	0.008635122
61	0xbc97849e	-0.018495854
62	0xbc12d2e5	-0.008961414
63	0xbc63c0bb	-0.013900931

base.mlp.fc_h.0.weight f4 [64, 64]
0	0x3e0d0e6a	0.1377503
1	0xbc04992f	-0.008093162
2	0xbe8b785f	-0.27240273
3	0x3e59ee1e	0.21282241
4	0x3ef9075f	0.48638436
5	0x3e081083	0.13287549
6	0xbed7589e	-0.42059797
7	0x3c0ddea1	0.008659036
8	0x3ed83426	0.42227286
9	0x3e3c6b6f	0.18400358
10	0xbc9e80cd	-0.019348526
11	0x3dbad76a	0.09123118
12	0x3d36bd1a	0.044613935
13	0xbe479951	-0.1949208
14	0xbec87ccb	-0.3915771
15	0xbe82fe65	-0.25584713
16	0x3db49493	0.08817401
17	0xbe7cc3cc	-0.24684066
18	0x3e8e896b	0.27839217
19	0xbebb091d	-0.3653039
20	0xbde688b3	-0.11256542
21	0xbeb88e8c	-0.36046255
22	0xbe8579e4	-0.26069558
23	0x3e86e36f	0.26345393
24	0xbe9a5cff	-0.30149075
25	0x3e367f8d	0.17822094
26	0x3e5e10b6	0.21686062
27	0x3d2f2274	0.042757466
28	0xbe2fddfa	-0.17174521
29	0xbdb00707	-0.0859509
30	0x3d65dda0	0.05611956
31	0x3dc29760	0.09501529
32	0xbe486b62	-0.19572213
33	0x3e661aeb	0.22471206
34	0x3e944b19	0.28963545
35	0x3dd4a0e3	0.10382249
36	0xb9f1d02a	-0.00046122196
37	0x3df65d06	0.120294616
38	0x3de0ae94	0.10970798
39	0xbe64e8be	-0.22354409
40	0xbe123ade	-0.14280269
41	0xbe25a30e	-0.16175482
42	0x3dce4ef1	0.10073651
43	0x3bed2246	0.0072367517
44	0x3e31f8eb	0.17380111
45	0xbe835400	-0.25650024
46	0x3d23e010	0.040008605
47	0xbe48a3e9	-0.19593777
48	0x3d87e854	0.0663611
49	0x3e47e2ee	0.1952016
50	0x3c875d9e	0.016524132
51	0xbce77b66	-0.028257083
52	0x3e74b3a0	0.23896646
53	0x3dd2f8a8	0.10301334
54	0xbdaaa74e	-0.08332692
55	0xbd699cc7	-0.05703428
56	0xbe6af8c9	-0.22946467
57	0x3e1c7a69	0.15281071
58	0xbe2372c9	-0.15961756
59	0x3da8aefe	0.08236502
60	0xbe1e5f23	-0.1546598
61	0x3e975a22	0.29560953
62	0xbe73f53e	-0.23824021
63	0xbea00241	-0.3125172
64	0xbe693d7f	-0.22777365
65	0xbcc956f2	-0.024577592
66	0xbdaf15e1	-0.08549095
67	0xbe801c9f	-0.25021836
68	0xbdca71de	-0.09885
69	0xbe625479	-0.22102536
70	0x3e6aca11	0.22928645
71	0x3ecd67c6	0.40118235
72	0x3d1551a0	0.036454797
73	0xbdede935	-0.11616746
74	0xbe07d928	-0.13266432
75	0x3e8b0b7a	0.27157193
76	0x3d2b626b	0.041841906
77	0xbe3489c7	-0.17630683
78	0x3e90c9ce	0.28278965
79	0xbd6d4f54	-0.05793698
80	0x3ea69f25	0.32543293
81	0xbe6c9c15	-0.23106416
82	0xbc8ff1f1	-0.017571421
83	0xbe8bd734	-0.27312624
84	0x3d83ad7e	0.064295754
85	0x3e92c611	0.28666738
86	0x3e0b121a	0.13581124
87	0xbe4b92e9	-0.1988026
88	0x3d5d2e79	0.053999398
89	0x3dec5b27	0.115408234
90	0x3d24c84f	0.04023009
91	0x3e31c7bb	0.17361347
92	0xbe5bed07	-0.21477138
93	0xbd848d00	-0.06472206
94	0xbc75ea60	-0.015009493
95	0x3e6028d3	0.21890573
96	0xbdc34401	-0.09534455
97	0x3e865271	0.26234773
98	0x3e50cb3b	0.20390026
99	0xbc2c4ca7	-0.010516322
100	0x3e91a540	0.28446388
101	0xbe3cb196	-0.18427119
102	0xbecfcd37	-0.40586254
103	0xbc045030	-0.008075759
104	0xbdcdfe89	-0.10058314
105	0xbe1f67a3	-0.15566878
106	0x3e8ce738	0.27520156
107	0x3c2d7640	0.010587275
108	0x3d1b0f17	0.037856188
109	0x3eba7f0c	0.36425054
110	0xbd01518f	-0.03157192
111	0xbe8859dc	-0.26631057
112	0x3e865b71	0.2624164
113	0x3e60f2e8	0.21967661
114	0xbdef41dd	-0.11682484
115	0xbda7ea22	-0.08198954
116	0x3b2c76d5	0.0026315947
117	0x3ebbb04f	0.3665795
118	0x3e782b6e	0.24235317
119	0x3f17693e	0.5914496
120	0x3e3ffa5c	0.18747848
121	0xbe88729c	-0.2664994
122	0x3e06853f	0.13136767
123	0x3d737f58	0.059447616
124	0xbc3cf4dd	-0.011532989
125	0x3e4729e2	0.19449571
126	0xbd7da5e4	-0.061925784
127	0xbe88b163	-0.26697835
128	0x3ed7dabc	0.4215907
129	0xbd7bf3dd	-0.061511863
130	0x3dd4f298	0.103978336
131	0xbe11e0b2	-0.1424587
132	0x3ca7ba34	0.02047453
133	0x3ebe055d	0.37113467
134	0x3d92a4ce	0.0716034
135	0x3d29ba0f	0.041437205
136	0x3dd840ab	0.105592094
137	0x3e5d4029	0.21606506
138	0xbd1f7cda	-0.038937427
139	0xbc879959	-0.016552614
140	0xbdd4deeb	-0.10394081
141	0x3d93b5c6	0.07212405
142	0xbd956e65	-0.07296447
143	0xbd87052e	-0.06592785
144	0x3e00f8d0	0.12594914
145	0xbe1a3cc1	-0.15062238
146	0x3ebf4e92	0.37364632
147	0xbde1bcbb	-0.110223256
148	0x3e062983	0.13101773
149	0xbda6e728	-0.08149558
150	0x3e7af7a9	0.24508537
151	0xbd589715	-0.052878458
152	0xbd520951	-0.051278416
153	0xbd4a04fd	-0.049321163
154	0x3e3f9cf4	0.18712217
155	0x3ebec93a	0.372629
156	0x3eb94629	0.3618634
157	0x3cf1e9e5	0.029530475
158	0x3d26be13	0.040708613
159	0x3f086371	0.53276736
160	0xbe48078f	-0.19534133
161	0xbe070883	-0.1318684
162	0xbd0a7fb2	-0.033813186
163	0x3e89b695	0.26897112
164	0xbe46215c	-0.19348663
165	0xbe461f34	-0.1934784
166	0xbe715309	-0.23566832
167	0xbe5cdcc1	-0.21568586
168	0xbe0f20ce	-0.13977358
169	0xbe0059bd	-0.12534232
170	0xbeaa5d31	-0.33274224
171	0xbdc5ad6d	-0.09652219
172	0xbded1e09	-0.115779944
173	0x3e865ed8	0.26244235
174	0x3ec46f3a	0.3836611
175	0xbe3b361b	-0.18282358
176	0xbe20f8fe	-0.15719983
177	0xbeab4c94	-0.33456862
178	0xbe45b90e	-0.19308874
179	0xbeaf2206	-0.34205645
180	0x3e0a00c6	0.13476858
181	0xbe63929d	-0.22223897
182	0x3d48c830	0.04901904
183	0x3ccfe44b	0.025377413
184	0x3ee2c008	0.44287133
185	0x3daf69ff	0.08565139
186	0xbd0c645c	-0.034275398
187	0xbd807fad	-0.06274352
188	0xbd4dfe07	-0.050291087
189	0xbd20d6a1	-0.039267186
190	0x3e6d58e6	0.23178443
191	0x3ea9784a	0.33099586
192	0x3df00790	0.117201924
193	0xbd34dc35	-0.04415532
194	0x3c69975b	0.014257277
195	0xbe637da8	-0.22215903
196	0x3e93ceee	0.28868812
197	0x3e58955a	0.21150723
198	0xbdf5458e	-0.11976157
199	0xbe042006	-0.12902841
200	0x3ec30f1f	0.38097474
201	0x3eb61388	0.35561776
202	0x3e271a6a	0.1631867
203	0xbd5ba9b7	-0.05362865
204	0xbd69eeef	-0.05711263
205	0xbe41bbe2	-0.18919328
206	0x3e18b6b1	0.14913441
207	0x3edf46cb	0.43608698
208	0x3e448751	0.19192244
209	0x3e467ad4	0.19382793
210	0xbd6e33b8	-0.05815479
211	0xbde14506	-0.10999493
212	0xbd2b2775	-0.041785676
213	0xbe72f2f4	-0.23725492
214	0xbb9edc6c	-0.0048480537
215	0xbeed7c7c	-0.46384037
216	0xbd289aba	-0.041163184
217	0xbddb78fb	-0.107164346
218	0xbe927a08	-0.28608727
219	0xbe0ea870	-0.13931441
220	0xbe7237b5	-0.23654063
221	0x3dfb39f0	0.1226691
222	0xbe7d2286	-0.24720201
223	0xbe4accc4	-0.19804674
224	0x3d0d4e5f	0.03449857
225	0x3e88ea54	0.26741278
226	0x3e1472f5	0.14496978
227	0x3d89e4e7	0.06733113
228	0xbe443d58	-0.19164026
229	0xbdfb29f9	-0.12263865
230	0x3c30eef7	0.010799161
231	0x3ef9f6fd	0.4882125
232	0x3e697795	0.22799523
233	0x3dc2240b	0.09479531
234	0xbd7bc497	-0.06146678
235	0xbe51c91e	-0.20486876
236	0x3e7964c7	0.2435485
237	0xbb6da7d1	-0.0036263356
238	0x3d3961f4	0.04525943
239	0xbe61b89f	-0.22043084
240	0xbdb5dccc	-0.08880004
241	0x3cd6be36	0.026213747
242	0x3e1d9960	0.15390539
243	0xbc2216da	-0.009893144
244	0xbe42b752	-0.19015244
245	0xbea63058	-0.32458758
246	0x3e4d9c68	0.20079195
247	0xbe71ccf5	-0.23613341
248	0x3ecad7fc	0.39617908
249	0xbed12d9d	-0.40855113
250	0x3e3aefb7	0.18255506
251	0xbd1002d1	-0.035158936
252	0xbc8ab33b	-0.016931167
253	0x3e2b3d00	0.16722488
254	0x3e0e0376	0.13868508
255	0xbe886bc0	-0.26644707

base.mlp.fc_h.0.bias f4 [64]
0	0x00000000	0.0
1	0x00000000	0.0
2	0x00000000	0.0
3	0x00000000	0.0
4	0x00000000	0.0
5	0x00000000	0.0
6	0x00000000	0.0
7	0x00000000	0.0
8	0x00000000	0.0
9	0x00000000	0.0
10	0x00000000	0.0
11	0x00000000	0.0
12	0x00000000	0.0
13	0x00000000	0.0
14	0x00000000	0.0
15	0x00000000	0.0
16	0x00000000	0.0
17	0x00000000	0.0
18	0x00000000	0.0
19	0x00000000	0.0
20	0x00000000	0.0
21	0x00000000	0.0
22	0x00000000	0.0
23	0x00000000	0.0
24	0x00000000	0.0
25	0x00000000	0.0
26	0x00000000	0.0
27	0x00000000	0.0
28	0x00000000	0.0
29	0x00000000	0.0
30	0x00000000	0.0
31	0x00000000	0.0
32	0x00000000	0.0
33	0x00000000	0.0
34	0x00000000	0.0
35	0x00000000	0.0
36	0x00000000	0.0
37	0x00000000	0.0
38	0x00000000	0.0
39	0x00000000	0.0
40	0x00000000	0.0
41	0x00000000	0.0
42	0x00000000	0.0
43	0x00000000	0.0
44	0x00000000	0.0
45	0x00000000	0.0
46	0x00000000	0.0
47	0x00000000	0.0
48	0x00000000	0.0
49	0x00000000	0.0
50	0x00000000	0.0
51	0x00000000	0.0
52	0x00000000	0.0
53	0x00000000	0.0
54	0x00000000	0.0
55	0x00000000	0.0
56	0x00000000	0.0
57	0x00000000	0.0
58	0x00000000	0.0
59	0x00000000	0.0
60	0x00000000	0.0
61	0x00000000	0.0
62	0x00000000	0.0
63	0x00000000	0.0

base.mlp.fc_h.2.weight f4 [64]
0	0x3f800000	1.0
1	0x3f800000	1.0
2	0x3f800000	1.0
3	0x3f800000	1.0
4	0x3f800000	1.0
5	0x3f800000	1.0
6	0x3f800000	1.0
7	0x3f800000	1.0
8	0x3f800000	1.0
9	0x3f800000	1.0
10	0x3f800000	1.0
11	0x3f800000	1.0
12	0x3f800000	1.0
13	0x3f800000	1.0
14	0x3f800000	1.0
15	0x3f800000	1.0
16	0x3f800000	1.0
17	0x3f800000	1.0
18	0x3f800000	1.0
19	0x3f800000	1.0
20	0x3f800000	1.0
21	0x3f800000	1.0
22	0x3f800000	1.0
23	0x3f800000	1.0
24	0x3f800000	1.0
25	0x3f800000	1.0
26	0x3f800000	1.0
27	0x3f800000	1.0
28	0x3f800000	1.0
29	0x3f800000	1.0
30	0x3f800000	1.0
31	0x3f800000	1.0
32	0x3f800000	1.0
33	0x3f800000	1.0
34	0x3f800000	1.0
35	0x3f800000	1.0
36	0x3f800000	1.0
37	0x3f800000	1.0
38	0x3f800000	1.0
39	0x3f800000	1.0
40	0x3f800000	1.0
41	0x3f800000	1.0
42	0x3f800000	1.0
43	0x3f800000	1.0
44	0x3f800000	1.0
45	0x3f800000	1.0
46	0x3f800000	1.0
47	0x3f800000	1.0
48	0x3f800000	1.0
49	0x3f800000	1.0
50	0x3f800000	1.0
51	0x3f800000	1.0
52	0x3f800000	1.0
53	0x3f800000	1.0
54	0x3f800000	1.0
55	0x3f800000	1.0
56	0x3f800000	1.0
57	0x3f800000	1.0
58	0x3f800000	1.0
59	0x3f800000	1.0
60	0x3f800000	1.0
61	0x3f800000	1.0
62	0x3f800000	1.0
63	0x3f800000	1.0

base.mlp.fc_h.2.bias f4 [64]
0	0x00000000	0.0
1	0x00000000	0.0
2	0x00000000	0.0
3	0x00000000	0.0
4	0x00000000	0.0
5	0x00000000	0.0
6	0x00000000	0.0
7	0x00000000	0.0
8	0x00000000	0.0
9	0x00000000	0.0
10	0x00000000	0.0
11	0x00000000	0.0
12	0x00000000	0.0
13	0x00000000	0.0
14	0x00000000	0.0
15	0x00000000	0.0
16	0x00000000	0.0
17	0x00000000	0.0
18	0x00000000	0.0
19	0x00000000	0.0
20	0x00000000	0.0
21	0x00000000	0.0
22	0x00000000	0.0
23	0x00000000	0.0
24	0x00000000	0.0
25	0x00000000	0.0
26	0x00000000	0.0
27	0x00000000	0.0
28	0x00000000	0.0
29	0x00000000	0.0
30	0x00000000	0.0
31	0x00000000	0.0
32	0x00000000	0.0
33	0x00000000	0.0
34	0x00000000	0.0
35	0x00000000	0.0
36	0x00000000	0.0
37	0x00000000	0.0
38	0x00000000	0.0
39	0x00000000	0.0
40	0x00000000	0.0
41	0x00000000	0.0
42	0x00000000	0.0
43	0x00000000	0.0
44	0x00000000	0.0
45	0x00000000	0.0
46	0x00000000	0.0
47	0x00000000	0.0
48	0x00000000	0.0
49	0x00000000	0.0
50	0x00000000	0.0
51	0x00000000	0.0
52	0x00000000	0.0
53	0x00000000	0.0
54	0x00000000	0.0
55	0x00000000	0.0
56	0x00000000	0.0
57	0x00000000	0.0
58	0x00000000	0.0
59	0x00000000	0.0
60	0x00000000	0.0
61	0x00000000	0.0
62	0x00000000	0.0
63	0x00000000	0.0

base.mlp.fc2.0.0.weight f4 [64, 64]
0	0x3deda139	0.116030164
1	0x3c6b65c4	0.014367525
2	0xbe7da3ce	-0.24769518
3	0x3e6a1fbc	0.22863668
4	0x3eeebdb0	0.46629095
5	0x3e36352e	0.17793724
6	0xbed26115	-0.41089693
7	0x3cb85645	0.022502074
8	0x3ed5e8d3	0.41779193
9	0x3e490d7b	0.19634049
10	0xbcfd7c07	-0.03094293
11	0x3dae72aa	0.08517964
12	0x3d0a5e32	0.033781238
13	0xbe40fc76	-0.18846306
14	0xbecec4b9	-0.40384462
15	0xbe736b26	-0.23771343
16	0x3dfea534	0.12433854
17	0xbe7da16b	-0.24768607
18	0x3e860f3d	0.261835
19	0xbebde077	-0.37085316
20	0xbdf3eb5e	-0.11910127
21	0xbebfa6e8	-0.37432027
22	0xbe8ef8d3	-0.27924213
23	0x3e8a0dd5	0.26963678
24	0xbe861966	-0.26191252
25	0x3e3bfaa7	0.18357335
26	0x3e50ae4a	0.20378986
27	0x3d77356c	0.06035368
28	0xbe477f66	-0.19482192
29	0xbde439a5	-0.11143807
30	0x3dab3b71	0.08360947
31	0x3dd954f9	0.106119104
32	0xbe4495c0	-0.1919775
33	0x3e4e0e20	0.20122576
34	0x3e95f733	0.2929016
35	0x3daaf08f	0.08346664
36	0x3c602db4	0.0136827715
37	0x3dcc0208	0.09961325
38	0x3ddc305e	0.10751413
39	0xbe705298	-0.23469007
40	0xbdf2b569	-0.118510075
41	0xbe394d2a	-0.18095842
42	0x3d9cafee	0.076507434
43	0x3ce2d682	0.027690176
44	0x3e2a2ddd	0.16619058
45	0xbe82fe0b	-0.25584444
46	0x3d3e2847	0.04642513
47	0xbe57dd2e	-0.21080467
48	0x3d97f0c4	0.07418969
49	0x3e56a749	0.20962252
50	0x3d257314	0.04039295
51	0xbd173e65	-0.03692474
52	0x3e767e36	0.24071583
53	0x3dd8026c	0.10547337
54	0xbdbc754f	-0.09202062
55	0xbda268b7	-0.07930129
56	0xbe587d59	-0.21141566
57	0x3e18db4d	0.14927407
58	0xbe11563d	-0.14193054
59	0x3dc9f40a	0.09861
60	0xbe1590f9	-0.14606084
61	0x3ea32cfd	0.3187026
62	0xbe885de8	-0.26634145
63	0xbea49f2a	-0.32152683
64	0xbe6694a1	-0.22517635
65	0xbcb3cb46	-0.021947514
66	0xbd8230e4	-0.063569814
67	0xbe80eee3	-0.25182256
68	0xbde1ba48	-0.110218585
69	0xbe82a4c1	-0.25516322
70	0x3e631b44	0.2217837
71	0x3eccf89f	0.40033433
72	0x3cb015cb	0.021494767
73	0xbdfd0852	-0.123551026
74	0xbe188813	-0.14895658
75	0x3e8bd63e	0.2731189
76	0x3d25db7d	0.040492523
77	0xbe3a1231	-0.18171002
78	0x3e97e107	0.2966387
79	0xbd6bec93	-0.05759866
80	0x3eb31d3c	0.34983242
81	0xbe4ed21e	-0.20197341
82	0x3a91d147	0.0011124992
83	0xbe8683f8	-0.2627256
84	0x3d85a20e	0.0652505
85	0x3e9112c0	0.28334618
86	0x3e03a7e1	0.1285701
87	0xbe4aff1c	-0.19823879
88	0x3d5dde79	0.054167245
89	0x3de00f41	0.109404095
90	0x3d2fac36	0.042888843
91	0x3e3cd31c	0.18439907
92	0xbe579b3d	-0.21055312
93	0xbd8efe96	-0.06982152
94	0xbc488dcb	-0.012240837
95	0x3e613c43	0.21995644
96	0xbdc34249	-0.09534127
97	0x3e861c66	0.2619354
98	0x3e4988cb	0.19681089
99	0xbd0b161d	-0.033956636
100	0x3e88ffce	0.26757663
101	0xbe383dbb	-0.17992298
102	0xbecb9a22	-0.39766032
103	0x39d26f0d	0.0004013706
104	0xbdb9af9b	-0.09066697
105	0xbe036dcd	-0.12834854
106	0x3e90bec0	0.2827053
107	0x3c50ee62	0.012752147
108	0x3cce5f4c	0.025191925
109	0x3ebf9bf7	0.3742368
110	0xbd323556	-0.043507896
111	0xbe8871d9	-0.2664936
112	0x3e8da0cf	0.2766175
113	0x3e5917e7	0.21200524
114	0xbdc92906	-0.09822278
115	0xbdae9e01	-0.085262306
116	0xbb0eaa8f	-0.0021769141
117	0x3eb3982c	0.35077035
118	0x3e6f2a0a	0.2335588
119	0x3f1505df	0.58212084
120	0x3e45f43f	0.19331454
121	0xbe988692	-0.2979017
122	0x3e171d56	0.14757285
123	0x3d317acd	0.043330003
124	0xbcb85029	-0.02249916
125	0x3e566ad4	0.20939189
126	0xbd052ffd	-0.03251647
127	0xbe846c71	-0.25863984
128	0x3ed4a803	0.41534433
129	0xbd9be3b5	-0.07611791
130	0x3dc64230	0.09680593
131	0xbe06bd67	-0.13158189
132	0x3d2c3ffd	0.04205321
133	0x3ebfd183	0.37464532
134	0x3da3936c	0.07987103
135	0x3d22f64e	0.039785676
136	0x3de6a12e	0.11261211
137	0x3e678bc7	0.22611915
138	0xbc1e21fc	-0.009651657
139	0xbcf44d46	-0.029822003
140	0xbdd4b4e4	-0.10386065
141	0x3dadbcdf	0.0848329
142	0xbda323bd	-0.07965801
143	0xbd726869	-0.059181605
144	0x3df38534	0.11890641
145	0xbe015868	-0.1263138
146	0x3eb22f34	0.34801638
147	0xbde577d6	-0.112044975
148	0x3ded3b6e	0.11583601
149	0xbd8f0d1c	-0.06984922
150	0x3e6dfc1b	0.23240702
151	0xbd25ffbb	-0.040527087
152	0xbd368e0b	-0.044569056
153	0xbd3424a3	-0.043980252
154	0x3e48846a	0.19581762
155	0x3ec5144a	0.38492042
156	0x3eba2e2e	0.36363357
157	0x3d22b090	0.039719164
158	0x3d42bec9	0.04754523
159	0x3f07028e	0.52738273
160	0xbe54f4ab	-0.20796458
161	0xbe0584c5	-0.13038929
162	0xbd12452b	-0.035710495
163	0x3e8e3439	0.27774218
164	0xbe4c39fd	-0.19943996
165	0xbe49724a	-0.19672504
166	0xbe79c0f2	-0.24390009
167	0xbe75304c	-0.23944205
168	0xbe0bbe10	-0.13646722
169	0xbe121534	-0.14265901
170	0xbea57f8d	-0.32323876
171	0xbdc87a89	-0.09788997
172	0xbdcec729	-0.100965805
173	0x3e7e2788	0.24819767
174	0x3ec02f69	0.3753617
175	0xbe3da061	-0.18518211
176	0xbe236891	-0.15957858
177	0xbea545c9	-0.32279804
178	0xbe52faec	-0.20603532
179	0xbea733df	-0.32656762
180	0x3e103aa9	0.14084877
181	0xbe5492cb	-0.20759122
182	0x3d2d6956	0.042336784
183	0x3ce2a4e2	0.027666513
184	0x3edf8290	0.436543
185	0x3dc2e27e	0.09515856
186	0xbd455db1	-0.048185054
187	0xbd7d6f37	-0.06187364
188	0xbcee5795	-0.029094497
189	0xbd4ceb32	-0.050028987
190	0x3e5aca77	0.21366297
191	0x3eae3d88	0.3403132
192	0x3de44513	0.11145987
193	0xbd81ab36	-0.06331484
194	0x3c8622b9	0.016373979
195	0xbe4781ec	-0.19483155
196	0x3e9730cc	0.29529417
197	0x3e623c83	0.22093396
198	0xbdd388a2	-0.10328795
199	0xbe0afc1f	-0.13572739
200	0x3ec2f7ef	0.38079783
201	0x3eb82d62	0.35972124
202	0x3e35febf	0.17772959
203	0xbd801685	-0.06254295
204	0xbd75ce75	-0.060011346
205	0xbe43d4b7	-0.19124113
206	0x3e1be61d	0.152245
207	0x3edf0182	0.43555838
208	0x3e3bcaeb	0.18339126
209	0x3e4ab22a	0.19794527
210	0xbd60a488	-0.05484441
211	0xbddbdbba	-0.10735269
212	0xbd4722dc	-0.04861723
213	0xbe779e42	-0.24181464
214	0x3c7e28ff	0.015512704
215	0xbee98dc2	-0.45615965
216	0xbd047e23	-0.032346856
217	0xbdda0b88	-0.10646731
218	0xbe922738	-0.28545547
219	0xbe016f35	-0.12640078
220	0xbe6a4fb3	-0.22881965
221	0x3dfbfc65	0.12304
222	0xbe79c2b0	-0.24390674
223	0xbe50ce82	-0.20391276
224	0x3cdcad69	0.026938157
225	0x3e8b1c70	0.27170134
226	0x3e1278ac	0.14303845
227	0x3d7d32fa	0.061816193
228	0xbe53b1e2	-0.20673326
229	0xbded7ef1	-0.11596478
230	0xbc293858	-0.010328375
231	0x3ef72958	0.4827373
232	0x3e6f2b69	0.23356403
233	0x3dad4f13	0.08462348
234	0xbd2e59c4	-0.042566076
235	0xbe49acf7	-0.19694887
236	0x3e8198b4	0.25311816
237	0xbc61c161	-0.013779015
238	0x3d11fa94	0.03563936
239	0xbe692f35	-0.22771914
240	0xbda7114b	-0.08157595
241	0x3d1639ea	0.036676325
242	0x3e184594	0.14870292
243	0x3b4d1640	0.003129378
244	0xbe419bf0	-0.18907142
245	0xbea404f3	-0.32035026
246	0x3e48b5a6	0.19600543
247	0xbe6c371b	-0.23067896
248	0x3ec853b5	0.39126363
249	0xbed5d0e7	-0.41760942
250	0x3e2f39e9	0.17111935
251	0xbd11f86a	-0.035637297
252	0xbc9bc986	-0.019016992
253	0x3e2a8af6	0.16654572
254	0x3e0bed1d	0.1366467
255	0xbe86cea7	-0.26329538

base.mlp.fc2.0.0.bias f4 [64]
0	0x3c3f5941	0.011678995
1	0x3c62f87d	0.01385319
2	0xbc0249c3	-0.0079521565
3	0xbc3b6ddb	-0.011439766
4	0xbc748232	-0.014923619
5	0xbb530bee	-0.0032203156
6	0x3be4d520	0.0069834143
7	0xba4b1482	-0.00077468914
8	0x3bb7af52	0.0056056166
9	0xbb493c46	-0.0030706092
10	0xbbd1152e	-0.0063806986
11	0xbbfd18c4	-0.0077238996
12	0xbb239c30	-0.0024964921
13	0xbc50d8a1	-0.012746961
14	0xbc30f95c	-0.010801639
15	0x3c181084	0.009281281
16	0x3becdcdc	0.007228477
17	0x3c3bbcf0	0.01145862
18	0xbb25cd15	-0.002529924
19	0x38a53416	7.877515e-05
20	0x3ab9bd86	0.0014170862
21	0xbc3d3128	-0.011547364
22	0x3bad7c84	0.0052943844
23	0xbcbb1b69	-0.022840219
24	0xbbce7125	-0.006300109
25	0x3b5d0aef	0.003372844
26	0xbc380cb2	-0.011233496
27	0xbb8e4277	-0.0043414193
28	0xbcbd75b8	-0.023127422
29	0xbba9b157	-0.0051786113
30	0x3be709fb	0.0070507503
31	0xbb8c9228	-0.004289884
32	0x3c7bb7d8	0.015363656
33	0xbc167676	-0.009183517
34	0xbc4a9304	-0.012364153
35	0xba3e508b	-0.00072599266
36	0x3c14bb95	0.009077926
37	0x3b9218bc	0.004458515
38	0xbc87498e	-0.016514566
39	0xbc3fdd98	-0.011710547
40	0x3c5c6a6a	0.013453105
41	0xbc12d7b8	-0.008962564
42	0x3cbb5ffd	0.02287292
43	0xbd004d85	-0.03132393
44	0x3b611cd6	0.0034349463
45	0xbd034323	-0.03204645
46	0x3baac9ce	0.0052120453
47	0x3bb32ac0	0.0054677427
48	0x3bc2948b	0.005938118
49	0x3c1f5039	0.009723716
50	0x3bce6c0a	0.0062995004
51	0xbc370071	-0.011169539
52	0xbc5249a7	-0.012834943
53	0x3c8d892f	0.017277328
54	0xbc47c4cf	-0.012192919
55	0xbb4552ca	-0.003010916
56	0xbb065b40	-0.0020501167
57	0xbb9043f2	-0.004402631
58	0x3bbe470a	0.0058068084
59	0x3b6c1078	0.0036020558
60	0xbcf8c03a	-0.030365098
61	0x3c432331	0.011910246
62	0x3c78862e	0.01516871
63	0x3b818eeb	0.0039538047

base.mlp.fc2.0.2.weight f4 [64]
0	0x3f816379	1.0108482
1	0x3f7fc4d8	0.99909735
2	0x3f7e9b95	0.9945615
3	0x3f7dac21	0.9909077
4	0x3f7bea1f	0.98404115
5	0x3f810b8d	1.008165
6	0x3f82f465	1.0230833
7	0x3f7c7a11	0.9862376
8	0x3f816b00	1.0110779
9	0x3f82ade9	1.0209323
10	0x3f816cec	1.0111365
11	0x3f80ac6b	1.0052618
12	0x3f802571	1.0011426
13	0x3f7f3f90	0.99706364
14	0x3f807d8a	1.0038311
15	0x3f7cd47d	0.9876173
16	0x3f7f4789	0.9971853
17	0x3f7c1a80	0.98477936
18	0x3f7e8b19	0.99430996
19	0x3f808e5f	1.0043448
20	0x3f807074	1.0034318
21	0x3f82a75f	1.0207328
22	0x3f7eeb47	0.99577755
23	0x3f832264	1.024487
24	0x3f7f1da5	0.9965461
25	0x3f7ad4cd	0.9798096
26	0x3f7f38ab	0.99695843
27	0x3f80c4d5	1.0060068
28	0x3f811a9a	1.0086243
29	0x3f807156	1.0034587
30	0x3f7d8c4d	0.99042207
31	0x3f8051ab	1.0024923
32	0x3f828e4b	1.0199674
33	0x3f804753	1.0021766
34	0x3f80ea33	1.0071472
35	0x3f8195ef	1.0123881
36	0x3f812858	1.0090437
37	0x3f80f5e7	1.0075043
38	0x3f816459	1.0108749
39	0x3f8099e1	1.004696
40	0x3f81197d	1.0085903
41	0x3f81b84d	1.0134369
42	0x3f81fd1f	1.0155371
43	0x3f845b1e	1.0340307
44	0x3f7ef381	0.9959031
45	0x3f7d41e1	0.9892865
46	0x3f80436b	1.0020574
47	0x3f826def	1.0189799
48	0x3f80065a	1.0001938
49	0x3f80d59b	1.0065187
50	0x3f7e7844	0.9940226
51	0x3f811a9e	1.0086248
52	0x3f7ef8f1	0.99598604
53	0x3f80a748	1.005105
54	0x3f808981	1.0041963
55	0x3f80bb2b	1.0057119
56	0x3f82c187	1.021531
57	0x3f7cdb40	0.9877205
58	0x3f805d9a	1.0028565
59	0x3f7e0ee4	0.9924147
60	0x3f84b57b	1.0367883
61	0x3f80514e	1.0024812
62	0x3f816ca6	1.0111282
63	0x3f827669	1.0192386

base.mlp.fc2.0.2.bias f4 [64]
0	0x3be49ec1	0.0069769328
1	0x3c725c25	0.014792477
2	0xb9ef5102	-0.00045645988
3	0xbc418d9c	-0.011813547
4	0xbb737ff1	-0.0037155116
5	0xbab1cb09	-0.0013564538
6	0x3cea2cab	0.028585752
7	0x3b57279c	0.0032830006
8	0x3bbcd155	0.005762259
9	0x38bd5ba2	9.02929e-05
10	0xbbb3ded7	-0.005489211
11	0xbba9ec8a	-0.0051856684
12	0xbb1c0641	-0.0023807439
13	0xbcc79bca	-0.024366278
14	0xbc43d34c	-0.011952233
15	0x3bafb0fc	0.0053616744
16	0x3abc0486	0.001434461
17	0x3be40877	0.006959017
18	0xbad46b99	-0.0016206383
19	0x3b986791	0.004651018
20	0xb99d9f2e	-0.00030063972
21	0xbbdfb7f0	-0.006827347
22	0x3af12056	0.0018396478
23	0xbc8f926d	-0.017525876
24	0xbb429bca	-0.0029694908
25	0xbac3c73b	-0.0014936695
26	0xbc05b04b	-0.008159707
27	0xbb8d3b54	-0.004310051
28	0xbc8537a4	-0.016261883
29	0xbba432f3	-0.0050109564
30	0x3bd3fddf	0.006469473
31	0xbb4fca1e	-0.0031706165
32	0x3c20e6e9	0.009820678
33	0x3b2e6706	0.00266117
34	0xbc65f301	-0.014034987
35	0x3b092ad5	0.002093007
36	0x3c2f5d10	0.01070334
37	0x3b9f4e30	0.0048616156
38	0xbc868d93	-0.01642493
39	0xbc53cfba	-0.012927944
40	0x3b3f04e4	0.0029147202
41	0x3a152bdc	0.00056904345
42	0x3d1e7000	0.03868103
43	0xbcf0ef73	-0.029411053
44	0xbad26233	-0.0016050994
45	0xbcda1b09	-0.02662422
46	0x3bc4fde6	0.0060117124
47	0x3b57ffe5	0.0032958922
48	0xbb14de0b	-0.0022715356
49	0x3a36b9ac	0.0006970416
50	0x3c0194d7	0.007909021
51	0xbb1f3fea	-0.002429957
52	0xb8ffe7e9	-0.00012202544
53	0x3c870652	0.016482506
54	0xbc056727	-0.008142269
55	0x3a39249c	0.0007062645
56	0x3b33ee07	0.0027455108
57	0xbb8171e6	-0.0039503453
58	0x3a9e26d0	0.001206601
59	0x3a612a4b	0.0008589371
60	0xb9d366b7	-0.00040321585
61	0x3bf417b1	0.0074491133
62	0x3c0ccfb4	0.008594442
63	0x3b419670	0.002953913

rnn.rnn.weight_ih_l0 f4 [192, 64]
0	0xbd82a982	-0.06379987
1	0xbe05ad43	-0.13054375
2	0x3d5832bf	0.05278277
3	0xbda9f595	-0.08298794
4	0x3d922529	0.07135994
5	0xbd088b7d	-0.03333615
6	0x3d00460d	0.031316806
7	0xbd922671	-0.07136238
8	0xbc81c2b3	-0.01583991
9	0xbe25ebe0	-0.1620326
10	0xbb8a4397	-0.004219483
11	0xbddc00d1	-0.10742343
12	0x3ca49ba8	0.020093754
13	0x3d47a159	0.048737857
14	0x3d593440	0.053028345
15	0x3d9347ac	0.07191405
16	0x3bed3dea	0.0072400467
17	0x3d6c9ab4	0.057764724
18	0x3d942d0b	0.07235154
19	0xbd8c59d3	-0.0685307
20	0x3c3c34be	0.011487184
21	0x3ccf99a4	0.025341816
22	0xbb6c407b	-0.0036049176
23	0xbdd917fa	-0.10600276
24	0xbe1a7fc2	-0.15087798
25	0xbc8f00fc	-0.017456524
26	0x3d156b42	0.036479242
27	0xbd9cf9e6	-0.07664852
28	0x3e2bfc1d	0.16795392
29	0xbd97a688	-0.0740481
30	0x3d0e2eb2	0.0347125
31	0x3da33ca8	0.07970554
32	0x3cbd5872	0.023113463
33	0xbad1bb4d	-0.0016001255
34	0x3cb1a77c	0.021686308
35	0x3d462ef5	0.048384625
36	0x3d09fbbd	0.033687342
37	0xbbfc3019	-0.0076961634
38	0x3bc16252	0.0059016133
39	0xbd26429b	-0.040590864
40	0x3d312ec5	0.043257494
41	0x3d2be9a7	0.041970875
42	0xbca8cd2d	-0.020605648
43	0xbd9eb2e2	-0.07748963
44	0x3d604133	0.05474968
45	0x3d84c9cf	0.064838044
46	0x3cb1f03d	0.021721
47	0x3dd15a82	0.10222341
48	0xbd4ac35a	-0.049502708
49	0xbc29e31f	-0.010369091
50	0x3c97210f	0.01844838
51	0x3d9a4066	0.07531814
52	0x3d65fc60	0.056148887
53	0xbd632654	-0.055456474
54	0x3dd4855c	0.10376999
55	0xbd3a55c5	-0.045491952
56	0xbd62c136	-0.05536004
57	0xbca6f204	-0.020379074
58	0xbccee258	-0.025254413
59	0xbd82355b	-0.06357833
60	0xbde84422	-0.1134112
61	0xbe3f08ac	-0.18655652
62	0x3d41bf6a	0.047301687
63	0x3d5a5ee7	0.053313162
64	0x3d917c71	0.071038134
65	0xbd1de00b	-0.038543742
66	0xbbf4e1f3	-0.0074732243
67	0xbd57d9b8	-0.052697867
68	0x3d8995d1	0.06718028
69	0x3d7db5e5	0.061941046
70	0x3e2f6a41	0.17130376
71	0x3d6e13e2	0.05812443
72	0xbd8dbbc7	-0.06920581
73	0xbe046f45	-0.12933071
74	0xbd07df99	-0.033172224
75	0xbd8b10b1	-0.06790293
76	0xbe390242	-0.18067268
77	0xbc448f4e	-0.011997057
78	0xbd2fb644	-0.04289843
79	0xbc90351e	-0.017603453
80	0xbd195dfb	-0.037443142
81	0x3da62345	0.08112196
82	0x3de8bd59	0.1136424
83	0xbde34054	-0.11096254
84	0xbce08493	-0.027406966
85	0xbcd74887	-0.0262797
86	0xbd59e27a	-0.0531945
87	0x3dd47704	0.10374263
88	0x3d04b40b	0.032398265
89	0x3cecf997	0.028927607
90	0x3e1e237e	0.15443227
91	0x3dee8af6	0.116475984
92	0xbd32a37e	-0.04361295
93	0x3d976758	0.07392758
94	0xbce68b7a	-0.02814268
95	0xbe0929ad	-0.13394804
96	0x3cdec59e	0.02719384
97	0x3c71b228	0.014751948
98	0xbd437626	-0.047720097
99	0xbca8bd1e	-0.02059799
100	0x3d3ec8d8	0.04657826
101	0xbd9b37e1	-0.075790174
102	0xb94d0e03	-0.00019555543
103	0x3ca716c5	0.0203966
104	0x3c666ac6	0.014063543
105	0xbd3b831e	-0.04577934
106	0x3d2c5b3a	0.042079188
107	0xbd050bbb	-0.03248189
108	0xbdb13eb8	-0.08654541
109	0xbc82dff4	-0.01597593
110	0x3e53476c	0.20632714
111	0xbd29532b	-0.04133908
112	0x3d8d3289	0.068944044
113	0x3d3de6aa	0.046362557
114	0xbcb7075d	-0.022342378
115	0x3d263839	0.04058096
116	0x3d83f214	0.06442657
117	0xbdbc5b56	-0.091971084
118	0x3d74bb8a	0.059749164
119	0x3dae384f	0.08506834
120	0xbd90a169	-0.070620365
121	0xbcec23eb	-0.02882572
122	0xbd01e0c9	-0.031708512
123	0xbd3d2c05	-0.04618456
124	0x3cf5d556	0.030008953
125	0xbdc9da0e	-0.09856044
126	0x3d0a08d6	0.033699833
127	0xbd2cbf00	-0.04217434
128	0x3ca91dfd	0.020644182
129	0x3d45a67e	0.048254482
130	0xbd26293e	-0.040566675
131	0xbd188de0	-0.037244678
132	0x3ca0e235	0.019639114
133	0xbd84bd96	-0.06481473
134	0x3d06d2fd	0.032916058
135	0x3e0aa3e5	0.13539083
136	0x3d92ddc5	0.071712054
137	0x3dfe64ef	0.12421595
138	0xbca137c1	-0.019679906
139	0xbcb12157	-0.021622343
140	0xbdb86bb8	-0.09004921
141	0x3caef741	0.021358134
142	0x3c90523f	0.017617343
143	0xbd9095d0	-0.070598245
144	0xbb426ac3	-0.0029665686
145	0x3b9c1a78	0.0047638975
146	0x3dd3881f	0.103286974
147	0x3db7bd6c	0.08971676
148	0x3e063de5	0.13109548
149	0xbd061742	-0.032737024
150	0x3da36911	0.07979024
151	0xbd6191b5	-0.055070598
152	0x3d6e0221	0.0581075
153	0x3dc50723	0.09620502
154	0xbe0255a6	-0.12727985
155	0x3d56bbb4	0.0524251
156	0xbddbb908	-0.10728651
157	0x3c3c0530	0.011475846
158	0x3ac2d8fe	0.0014865694
159	0x3dd253d6	0.10269897
160	0x3dd50f4f	0.104033105
161	0xbd19fcbd	-0.037594546
162	0xbdcd350a	-0.10019882
163	0xbe2b0a7a	-0.16703215
164	0xbc60ef56	-0.013728937
165	0x3d7e2600	0.06204796
166	0xbdfdb7a5	-0.12388543
167	0x3d4f5bc1	0.050624613
168	0xbe11c7e1	-0.14236404
169	0xbe03b2cf	-0.12861179
170	0xbcf9e8b4	-0.03050647
171	0x3de1421f	0.1099894
172	0xbd12e0d6	-0.03585895
173	0x3e3a4689	0.1819097
174	0xbde2f3ad	-0.11081634
175	0x3da36742	0.07978679
176	0x3ddf3081	0.10897923
177	0x3db13467	0.08652573
178	0x3d069219	0.032854173
179	0x3c7299bf	0.014807164
180	0xbe517adf	-0.20457028
181	0x3df0c566	0.11756401
182	0xbd8d8a45	-0.069111384
183	0xbc284159	-0.010269486
184	0x3d8abbdf	0.06774115
185	0x3d2394f8	0.03993699
186	0x3dc31f94	0.095275074
187	0x3e0859c8	0.13315499
188	0x3e16bf07	0.14721309
189	0xbd7a7872	-0.06115002
190	0x3d25a7ef	0.040443357
191	0xbde58967	-0.11207848
192	0xbc9e37b4	-0.01931367
193	0xbd2c1729	-0.042014275
194	0xbd89eac3	-0.0673423
195	0xbd7ab0be	-0.06120371
196	0xbe200f96	-0.15630946
197	0x3d7322b6	0.059359275
198	0x3d1ddac0	0.038538694
199	0xbdffafdd	-0.12484715
200	0xbe20fff6	-0.15722641
201	0xbd571b22	-0.05251611
202	0x3b004c9e	0.0019576917
203	0xbdcec284	-0.10095695
204	0x3d64e3e4	0.055881396
205	0xbd4c625b	-0.049898487
206	0xbd5dad17	-0.05412015
207	0xbd7eaa97	-0.062174406
208	0x3d9a226e	0.07526098
209	0xbd64a5e0	-0.055822253
210	0xbd6a3f27	-0.057189133
211	0xbd85eeab	-0.06539663
212	0x3d6f0514	0.058354452
213	0xbd57db7f	-0.052699562
214	0x3c8f5f1d	0.017501408
215	0x3db5b652	0.088726655
216	0xbd438dc0	-0.047742605
217	0xbca0bf4f	-0.019622473
218	0x3c57e836	0.013177922
219	0x3d8cf941	0.06883479
220	0x3cd55da3	0.026045626
221	0xbd2d66fb	-0.042334538
222	0x3d046a3d	0.03232788
223	0xbda5f4eb	-0.08103355
224	0xbcc8fd83	-0.024534946
225	0xbda13515	-0.07871453
226	0x3d9e8bde	0.07741521
227	0x3d298a8d	0.041391898
228	0xbb71701a	-0.00368405
229	0x3dca43ac	0.09876189
230	0xbe180888	-0.14847004
231	0x3da15101	0.078767784
232	0xbd996d1d	-0.07491515
233	0x3e000dbe	0.12505242
234	0xbd33b408	-0.043872863
235	0x3d71c849	0.059028897
236	0xbc811aea	-0.015759904
237	0x3d9c5ddf	0.07635092
238	0x3e40985d	0.18808122
239	0x3d728c9d	0.05921613
240	0x3d993932	0.07481612
241	0x3d81852a	0.06324227
242	0xbdc96612	-0.098339215
243	0x3db18bf6	0.086692736
244	0xbd725264	-0.059160605
245	0x3d61ffe0	0.055175662
246	0xbd3abd0b	-0.04559044
247	0x3bbd3965	0.005774664
248	0xbdaca41e	-0.0842974
249	0x3d386a0b	0.045023005
250	0xbc635833	-0.013876009
251	0xbc90dd4d	-0.01768365
252	0xbd71c30f	-0.059023913
253	0x3c95ed08	0.018301502
254	0xbd770083	-0.060303222
255	0xbd6d10ad	-0.05787723

rnn.rnn.weight_hh_l0 f4 [192, 64]
0	0xbdb42e00	-0.08797836
1	0xbd424af7	-0.047434773
2	0x3e26c46f	0.16285871
3	0x3e0fa1b3	0.14026527
4	0x3d01219d	0.031526197
5	0xbe056d6a	-0.1303002
6	0x3dba03a6	0.09082727
7	0x3c9ee605	0.019396791
8	0x3a766120	0.0009398628
9	0xbcc2cddc	-0.023779802
10	0xbdcfd9e4	-0.10148981
11	0xbc14ccf8	-0.0090820715
12	0xbdcde564	-0.100535184
13	0x3dafb266	0.08578949
14	0xbd20904a	-0.039200105
15	0xbd590a7e	-0.05298852
16	0x3d6ebe62	0.058287032
17	0xbd7611a0	-0.060075402
18	0xbdd35e59	-0.1032073
19	0xbdda11e4	-0.106479436
20	0x3ddccd6e	0.1078137
21	0xbdeb8709	-0.11500365
22	0x3e14bd58	0.14525354
23	0x3e114201	0.14185335
24	0x3defea2d	0.11714587
25	0x3db84c87	0.089989714
26	0xbc99e541	-0.018786075
27	0x3d8bddae	0.068293914
28	0x3dbb9a8a	0.09160335
29	0x3ca8fe97	0.02062921
30	0x3c2a9329	0.010411062
31	0xbdf9a511	-0.12189687
32	0xbc263f6d	-0.010146958
33	0xbaf8ac40	-0.0018972233
34	0xbd360af6	-0.044444047
35	0x3d859f41	0.06524516
36	0xbcade801	-0.021228792
37	0xbdf8b29e	-0.121434435
38	0xbdc186f7	-0.094495706
39	0xbc4c4b67	-0.012469149
40	0xbd995f85	-0.07488922
41	0xbd822e55	-0.063564934
42	0xbdaac324	-0.08338001
43	0x3da0f2ff	0.07858848
44	0xbba3bef7	-0.00499713
45	0xbd0220c8	-0.031769544
46	0x3d9127ce	0.0708767
47	0xbb59c721	-0.0033230262
48	0xbd5e5877	-0.054283585
49	0x3cdd054a	0.026980061
50	0x3d903a71	0.07042397
51	0x3dd147dc	0.10218784
52	0x3be408cc	0.0069590565
53	0x3d407c7b	0.046993714
54	0xbdee7533	-0.11643448
55	0x3db70af3	0.08937635
56	0xbd466be5	-0.04844274
57	0xbc17841f	-0.009247809
58	0x3d143605	0.03618433
59	0x3e13ddea	0.14440122
60	0xbd8d05c9	-0.06885869
61	0xbd6ba04e	-0.057525925
62	0x3bec46aa	0.0072105723
63	0xbd3b6fbe	-0.045760863
64	0xbd663585	-0.056203384
65	0xbde69bca	-0.11260183
66	0x3ae808a8	0.0017702775
67	0xbdcece3d	-0.100979306
68	0xbdb0b5f3	-0.08628454
69	0x3e2d55a9	0.16927208
70	0x3d2afdf2	0.041746087
71	0xbdae527f	-0.08511829
72	0x3d88b2b8	0.06674713
73	0x3e276183	0.16345792
74	0xbdb78f05	-0.08962826
75	0xbda0037a	-0.07813163
76	0xbd7e074a	-0.06201867
77	0xbcac9508	-0.021067157
78	0x3d1b11bd	0.037858713
79	0x3cd2e34e	0.025743153
80	0xbd8ca0ba	-0.06866594
81	0xbe257de8	-0.1616131
82	0x3e14df49	0.14538302
83	0xbc17a6f7	-0.009256116
84	0xbcb6ef82	-0.022331003
85	0x3de74d2b	0.112940155
86	0xbc2046ca	-0.009782502
87	0x3d60a065	0.054840464
88	0xbd336937	-0.043801513
89	0xbda2d877	-0.07951444
90	0x3d6892cd	0.056780625
91	0xbdb1c478	-0.086800516
92	0x3d1491b0	0.03627175
93	0xbd9b7086	-0.075898215
94	0x3d4f7ede	0.0506581
95	0xbd22ba00	-0.039728165
96	0xbb3002da	-0.0026857168
97	0x3e1420d6	0.14465651
98	0x3dea0bd7	0.114280395
99	0x3d009d8c	0.03140025
100	0x3d8fb07f	0.07016086
101	0xbd050e2e	-0.032484226
102	0xbd1eec4e	-0.038799576
103	0xbd0990e8	-0.03358546
104	0xbd6bf378	-0.057605237
105	0xbdc48a91	-0.09596742
106	0x3d7f1395	0.062274534
107	0xbc82a410	-0.015947372
108	0xbd86ee0a	-0.06588371
109	0x3d6a4596	0.05719527
110	0xbd59f540	-0.053212404
111	0x3e2b4004	0.16723639
112	0xbd66e7da	-0.056373455
113	0xbc556513	-0.013024586
114	0x3d96e831	0.07368506
115	0x3e05b068	0.13055575
116	0x3e2e9815	0.17050202
117	0xbdeae8df	-0.11470198
118	0x3b8dd6eb	0.0043285987
119	0x3e615499	0.22004928
120	0x3d507f00	0.050902367
121	0xbdef313f	-0.11679315
122	0x3dc676ff	0.096906655
123	0xb9e7293d	-0.00044090478
124	0x3c41c2f0	0.011826262
125	0x3dc73907	0.09727674
126	0x3da91135	0.08255235
127	0xb91bf4fd	-0.00014873217
128	0xbdb6b687	-0.08921533
129	0x3c5a7b10	0.013335004
130	0xbd8fbf21	-0.07018877
131	0x3c95cfe1	0.018287601
132	0x3d1b6791	0.037940565
133	0x3d79f3a7	0.06102338
134	0x3d51ebf5	0.051250417
135	0x3d0afc2f	0.033931907
136	0xbd5d7c6d	-0.05407374
137	0xbe13f751	-0.14449812
138	0xbde7dc81	-0.11321355
139	0x3d2060c5	0.039154787
140	0x3dd05e8a	0.10174282
141	0xbcacddea	-0.02110191
142	0x3dc0c674	0.09412852
143	0xbc5e49e0	-0.013567418
144	0x3da17819	0.07884235
145	0xbcaeecae	-0.021353092
146	0xbdb479fa	-0.08812328
147	0xbd252f07	-0.040328052
148	0xbcceee6e	-0.025260177
149	0x3d96ce14	0.07363525
150	0x3dfe24d0	0.12409365
151	0xbdf9c852	-0.12196411
152	0x3df4ffdd	0.119628645
153	0x3c9524ac	0.018205963
154	0xbd0d9329	-0.03456417
155	0x3d864223	0.06555583
156	0xbd4227ef	-0.047401365
157	0x3ce3598a	0.027752656
158	0x3d807b09	0.06273467
159	0xbd52de67	-0.05148163
160	0x3e75db76	0.24009499
161	0xbdd23f1e	-0.10265945
162	0xbd85f7a1	-0.06541372
163	0x3d82d9a4	0.06389168
164	0xbc39cbdd	-0.011340109
165	0xbdca9ded	-0.09893403
166	0xbaefdcaf	-0.0018300022
167	0x3e1b7605	0.1518174
168	0x3dd646b1	0.10462702
169	0x3d36ac5a	0.04459796
170	0x3d6b130a	0.057391204
171	0x3d86c065	0.06579665
172	0xbc236b37	-0.0099742925
173	0xbc14d7d8	-0.009084664
174	0xbd44a5ba	-0.04800961
175	0x3e1393a2	0.14411786
176	0x3e2d3dc8	0.16918099
177	0x3d888410	0.06665814
178	0x3b91f07a	0.004453716
179	0xbdbfcfde	-0.093658194
180	0xbc2a6597	-0.0104001975
181	0xbd236427	-0.039890435
182	0xbb707be5	-0.003669494
183	0xbc21f450	-0.009884909
184	0x3d05e37b	0.032687645
185	0x3bb39313	0.005480179
186	0x3e1d76bf	0.1537733
187	0xbdcc81b7	-0.09985679
188	0xbc622f72	-0.013805257
189	0xbd9830ae	-0.0743116
190	0xbdf22080	-0.11822605
191	0x3e64ebfd	0.22355647
192	0xbceba82f	-0.02876672
193	0xbe0aab98	-0.1354202
194	0x3dcf1f1f	0.10113358
195	0xbd228ee8	-0.039687067
196	0xbd74162e	-0.059591465
197	0xbd8e3a4c	-0.06944713
198	0x3cd7c2ea	0.02633806
199	0xbd823613	-0.0635797
200	0x3d5ad066	0.0534214
201	0xbc5a7f2a	-0.013335982
202	0x3d5ea0c3	0.054352533
203	0xbdb8d07a	-0.09024139
204	0xbdb3dd0a	-0.08782394
205	0x3d378246	0.044801973
206	0xbc686f04	-0.014186624
207	0xbe0a83d0	-0.13526845
208	0x3aa975bf	0.0012928768
209	0x3cc77387	0.02434708
210	0x3d497654	0.049185112
211	0x3d89b5ab	0.067241035
212	0xbd2032e0	-0.03911102
213	0x3d885002	0.06655885
214	0x3cb41bf1	0.02198598
215	0x3cfe5fbf	0.031051515
216	0xbe154299	-0.14576186
217	0xbd429690	-0.04750687
218	0xbcab87fc	-0.020938866
219	0xbd3b1bdd	-0.04568087
220	0x3db99abb	0.090627156
221	0xbd1935c0	-0.037404776
222	0xbc9882d4	-0.018617071
223	0xbd8422d2	-0.06451954
224	0x3d80c51d	0.062875964
225	0x3dd52794	0.104079396
226	0xbdbfa671	-0.09357918
227	0xbd81fc70	-0.06346977
228	0xbd5603d2	-0.052249737
229	0x3daa0f5c	0.08303711
230	0xbe01ba52	-0.12668732
231	0x3da9dca1	0.08294035
232	0x3dbccdae	0.09218918
233	0x3c3ef89f	0.011655956
234	0xbdf345f0	-0.11878574
235	0xbe19347b	-0.14961426
236	0x3d622a50	0.055216134
237	0x3d6dce34	0.05805798
238	0xbd3f6abc	-0.04673265
239	0xbd3109f0	-0.043222368
240	0xbd9e087d	-0.07716463
241	0xbc627ac4	-0.013823215
242	0xbdbd64c4	-0.09247735
243	0xbca7b7ec	-0.020473443
244	0x3d578da4	0.052625313
245	0xbc030aee	-0.007998211
246	0xbc3e207d	-0.0116044255
247	0x3d9e0814	0.077163845
248	0x3b6b85c7	0.0035937892
249	0xbe42309f	-0.1896386
250	0x3da10dc8	0.07863957
251	0x3e690fe7	0.22759973
252	0x3db7afc7	0.08969074
253	0x3c0ec87f	0.008714794
254	0x3d800dc8	0.062526286
255	0xbce63aa8	-0.028104141
