onpolicy/scripts/results/MPE/simple_spread/rmappo/check/wandb/run-20220705_093004-23iswi3s/files/critic.pt (torch, 156012 bytes, 21 tensors)

base.feature_norm.weight f4 [54]
000000 53 75 73 3f 24 b7 73 3f 4c 1a 81 3f 6e ae 83 3f
       0.951009 0.95201325 1.008615 1.0287607
000010 d9 9f 7f 3f 47 57 7d 3f 2d 78 7b 3f 9d f7 7d 3f
       0.99853283 0.989613 0.9823025 0.9920595
000020 4d 01 7f 3f 7d 76 76 3f 5d 16 83 3f 9b c9 80 3f
       0.9961136 0.9627455 1.02412 1.0061525
000030 be 16 87 3f 60 0a 82 3f 6a 1e 81 3f 19 a7 82 3f
       1.0553815 1.0159416 1.0087407 1.0207244
000040 4c 4b 7c 3f 84 7a 7c 3f da c0 6e 3f 67 29 6f 3f
       0.98552394 0.98624444 0.9326302 0.9342255
000050 fa da 70 3f 82 b3 7d 3f 37 18 7f 3f cd 91 80 3f
       0.9408413 0.9910203 0.99646324 1.0044495
000060 28 6f 7d 3f 79 fb 7d 3f a9 81 79 3f 22 26 7f 3f
       0.98997736 0.9921184 0.9746347 0.9966756
000070 d9 2a 82 3f eb 66 7f 3f dd 2a 83 3f e7 86 7d 3f
       1.0169326 0.99766415 1.0247456 0.9903397
000080 99 3a 84 3f 34 d0 80 3f 2f 6b 81 3f a2 b3 79 3f
       1.0330383 1.0063539 1.0110835 0.9753972
000090 e1 61 7c 3f e4 0c 70 3f b2 67 80 3f 66 96 7d 3f
       0.9858685 0.9376967 1.0031645 0.99057615
0000a0 1e a2 7f 3f 1e 49 7e 3f fd 36 80 3f 3a 18 7d 3f
       0.99856746 0.9933032 1.0016781 0.9886509
0000b0 da dc 7a 3f f6 17 7d 3f 29 36 81 3f cb c7 83 3f
       0.9799324 0.98864686 1.0094653 1.0295347
0000c0 e7 57 80 3f 49 cf 80 3f a9 47 82 3f 35 b4 7c 3f
       1.0026826 1.0063258 1.0178119 0.98712474
0000d0 2e b2 7e 3f 8e 97 83 3f
       0.9949063 1.0280626

base.feature_norm.bias f4 [54]
000000 34 51 1b 38 e2 2c eb bb 03 9a d9 3a 44 23 73 bc
       3.7030506e-05 -0.0071769813 0.0016601685 -0.014839951
000010 3b 41 83 3c 9e db 22 bb 6b 04 59 3c 4b 5c 99 bb
       0.016022315 -0.002485014 0.013245682 -0.0046801916
000020 48 50 0f bb a7 ac 91 3b d5 24 18 3c d5 8e 61 3c
       -0.002186792 0.0044456306 0.009286125 0.013766964
000030 00 92 0d 3d 20 5b 30 3d c1 71 ff bb 36 8f 8f 3b
       0.034563065 0.043055654 -0.007795543 0.0043810857
000040 d7 44 73 bd fe 44 88 bb c4 bb 65 3c 8c 34 1e 3b
       -0.059391823 -0.004158615 0.014021818 0.0024140207
000050 f4 c7 73 3b 23 ca ef 3b 97 58 2d bc e6 e7 b7 bb
       0.0037198039 0.0073177977 -0.0105802035 -0.0056123612
000060 ce 22 06 3c cb c1 55 3c ec ad 66 bc 9e 88 60 bc
       0.008187009 0.013046692 -0.014079552 -0.013704447
000070 14 a1 0b bc 16 6e 41 bc 81 00 2b bb e2 5f 91 bc
       -0.008522291 -0.011806032 -0.002609283 -0.017745916
000080 43 db 91 3c 19 e2 2b 3d 66 8e b2 bc 7c 42 29 3c
       0.017804747 0.04196367 -0.021796416 0.0103307925
000090 f1 14 9d 3b 3a f1 8e bc 7f 5a 35 ba 2a eb de ba
       0.004793756 -0.01744901 -0.0006918087 -0.001700734
0000a0 7d 80 5e 3b df 1d 5c bc a9 ed 03 3b 8a f1 2b 3c
       0.0033951097 -0.013434856 0.002013067 0.010494599
0000b0 55 4e bd 3c b9 33 75 3b 10 ab 9d 3c 02 09 0e bb
       0.02310864 0.0037414862 0.019246608 -0.002167285
0000c0 9a 15 3c bd 4f 49 d2 bc be ca 9e bb 4e 60 82 3b
       -0.04591904 -0.025669722 -0.004845946 0.0039787656
0000d0 07 47 1e bc 56 fa db 3b
       -0.009660489 0.006713192

base.mlp.fc1.0.weight f4 [64, 54]
000000 cc 43 2d be d1 97 bd 3e bd c2 d8 3d 54 38 51 3e
       -0.16920394 0.3702989 0.105840184 0.20431644
000010 8d 4a c8 bd 5c 3a fc bc 90 48 4a bd 33 1f 9a 3c
       -0.097798444 -0.030789547 -0.049385607 0.018813705
000020 64 43 d7 3d 94 e4 b1 3d 04 7e 4e 3e 15 7f 35 be
       0.105109006 0.08686176 0.20165259 -0.17724259
000030 d8 b4 5e be 19 dc 79 3d bc 47 89 be d5 27 b5 3e
       -0.21748674 0.061000917 -0.2681254 0.35381952
000040 78 cf 2f 3e f9 46 0f 3f db 8c 01 be 5e 9b 9b be
       0.17168987 0.5596767 -0.12651388 -0.30391973
000050 dc 47 41 be 97 34 2f be dd f4 cb bd 7a 92 2b 3e
       -0.18875068 -0.17109905 -0.09958813 0.16755095
000060 84 c2 8e 3e 96 9c f9 3d da f4 bd 3d 6b c3 22 3e
       0.2788278 0.121880695 0.09275217 0.15894859
000070 7f e3 be 3b ff 36 27 3e f8 af 87 3e e0 e1 65 3e
       0.0058254595 0.16329573 0.2650144 0.22449446
000080 cc a9 c7 3e 45 27 b1 be f9 45 99 bd be 45 8b be
       0.38996732 -0.34600273 -0.07484049 -0.27201647
000090 01 8a 5c 3d 14 1c 0e 3d 73 d3 f2 bd d5 58 4c bd
       0.05384255 0.034694746 -0.11856737 -0.049889404
0000a0 93 95 55 be bc dc 22 be a2 86 06 3e 23 7e a5 3d
       -0.2085784 -0.15904516 0.13137296 0.08080699
0000b0 b3 a9 8d be f7 47 02 3e 37 6a b6 3e 65 ca 6e 3e
       -0.27668533 0.12722765 0.3562791 0.23319395
0000c0 75 fe a5 3e e9 4e fc bd bc 94 21 be 39 ee 71 bc
       0.32420698 -0.123197384 -0.15779394 -0.014766269
0000d0 af af 39 bc 42 26 f3 bc ca 71 8e 3e 51 29 e9 3d
       -0.01133339 -0.029681329 0.2782119 0.113848336
0000e0 ee c2 53 3e f2 ce d0 bc 17 25 a4 bd 4e 27 fb 3d
       0.20679829 -0.025489304 -0.08014887 0.12263356
0000f0 0c 18 e9 3e d2 6e 1e be ac 40 2b 3f dc 1b 8f 3e
       0.4552616 -0.15471962 0.66895556 0.27950943
000100 5d 7b b4 3d 2d cd 39 be d1 3b 66 bd 2b f1 90 3d
       0.08812592 -0.18144675 -0.05620939 0.07077249
000110 aa 72 81 3e 75 6e 9c 3d 7c c2 23 bc 76 89 9c be
       0.25282794 0.076382555 -0.009995099 -0.30573624
000120 be 44 9d 3e e0 71 08 be 9b f3 b8 3d c8 96 82 3e
       0.3071651 -0.1332469 0.09030839 0.25505662
000130 aa 8f 92 bd bf d5 47 3d c3 c4 94 3d e6 ed 99 be
       -0.07156308 0.04878783 0.07264092 -0.30064315
000140 8f 6e 3b be 20 3d b7 3d ab 1c 98 be b1 8d 6d 3e
       -0.18303894 0.089472055 -0.29709372 0.23198582
000150 93 8d 51 3e c0 30 15 be 59 2a d2 3c b6 cb 61 bc
       0.20464163 -0.14569378 0.025654959 -0.013781479
000160 01 ae ef bd a1 62 50 bd 5a 4f 42 3e 67 7f 38 3e
       -0.117031105 -0.05087531 0.18975583 0.1801735
000170 98 36 e6 3d 20 e8 26 3e bc 95 8f bc e1 be 06 3e
       0.11240882 0.16299486 -0.017527454 0.13158752
000180 6a 58 ba be c0 eb a2 bd 6c 78 9b bd 3a 85 4f be
       -0.3639558 -0.07955122 -0.07591328 -0.20265666
000190 3d 9c 52 39 61 4c 88 bd 73 d0 99 3c ac c4 a0 be
       0.00020085364 -0.06655193 0.018776154 -0.3140005
0001a0 9f 93 59 be b4 1c a1 bc 2c 57 e5 3e c1 cc e8 3d
       -0.21247719 -0.019667007 0.4479307 0.11367179
0001b0 a8 92 a6 3e 3b 36 35 3e 5c 4d 5f bd 8a c6 1d bf
       0.32533765 0.17696469 -0.054517135 -0.6163107
0001c0 e4 ae 30 3e d6 3c 26 3e c1 2c 75 3d ea b9 e3 3c
       0.17254215 0.16234145 0.059857134 0.027798612
0001d0 20 c5 da bd 3e 1e 40 3e 51 be 20 3e 8a 79 7e 3d
       -0.1068213 0.18761536 0.156976 0.062127627
0001e0 ec 45 f7 3d bc 73 b8 3d 89 0b 8a bd af 8b 18 be
       0.120738834 0.090064496 -0.067404814 -0.14897035
0001f0 86 96 1b 3e 0b 66 4b 3e 1b 70 61 3e 99 b2 36 be
       0.15194139 0.19863145 0.22015421 -0.17841567
000200 b0 a4 dd bd 58 fb e2 3d 68 32 b8 3e 6d e9 2d be
       -0.10822427 0.11083096 0.35975957 -0.16983576
000210 3c c1 50 3c 07 c7 c5 3e bd af 89 3e a3 92 12 3d
       0.012741383 0.38628408 0.2689189 0.035784375
000220 3d 56 86 bd 79 15 8b 3e e9 4d 03 bd 9b a8 d8 3e
       -0.065594174 0.2716482 -0.032056723 0.42316136
000230 cd f4 96 be 86 2f 01 3d d5 09 7e be ba 5d 82 3e
       -0.29483643 0.031539463 -0.24808438 0.25462133
000240 bc 94 ec bd 1e 3b 12 be 00 0e 73 3e 63 5f 3a bd
       -0.11551806 -0.14280364 0.2373581 -0.045501124
000250 e1 55 f2 3e 6d d0 3c be d4 9a 8f be db da 63 3e
       0.47331145 -0.18438883 -0.28047812 0.22251455
000260 1e 64 70 be a5 d4 78 3d 32 7a b9 3c 65 72 84 3d
       -0.23475692 0.06074967 0.022641275 0.064671315
000270 23 94 8f 3e 8f 5f 1b be d1 45 0c be 19 70 ef bd
       0.28042707 -0.15173171 -0.13698508 -0.11691303
000280 23 98 06 3e 7a 57 a5 be de 5e ac 3d a7 2d 27 3d
       0.13143973 -0.32293302 0.08416532 0.04081502
000290 4c 50 8f be 01 9c 76 be 58 2a a9 ba a6 1d 2c be
       -0.2799095 -0.24082948 -0.0012906296 -0.16808185
0002a0 8c 54 90 bd 4c 0c 81 3e 30 ec b8 be c3 91 08 bd
       -0.07047376 0.25204694 -0.36117697 -0.033342134
0002b0 56 08 49 3e c3 ad 19 3d 11 42 68 be 09 e5 71 3e
       0.19632086 0.037519228 -0.22681452 0.23622526
0002c0 94 2f 30 bd a1 04 7a 3e f3 70 59 3e ff b4 df bd
       -0.043014124 0.24415828 0.21234493 -0.10923194
0002d0 e2 6a f8 3e ea 71 7d 3d c7 f6 b9 be 3a 43 7a 3d
       0.48519045 0.061876215 -0.3632109 0.06109927
0002e0 bc ec af bb f9 d6 86 3e d9 29 0a be b1 26 ac 3e
       -0.005368797 0.26335886 -0.13492526 0.3362327
0002f0 59 4d 73 3e 6e 83 45 bd cd 78 c2 3d bf 83 9e bd
       0.23759975 -0.048221044 0.09495697 -0.07739972
000300 44 7d ea bd 92 83 c4 bd 2c 2e 89 3e 76 2c 85 3e
       -0.11449674 -0.095954075 0.2679304 0.26010484
000310 90 b0 92 3e 7f 96 a6 bd b5 5d 08 bd 17 99 e0 3e
       0.28650331 -0.081341736 -0.03329249 0.43866798
000320 26 01 17 be 46 f1 20 be f4 db 5c bc 87 6c 6c 3d
       -0.14746532 -0.15717039 -0.013480175 0.057720687
000330 43 ba 7b be 7f d5 f5 be c3 80 de 3d 44 ff 20 be
       -0.24582772 -0.48014447 0.10864403 -0.15722376
000340 72 a6 a3 3e 43 12 9e 3d 6c b6 2a bd 3d 89 20 be
       0.31962925 0.07718327 -0.041677877 -0.15677352
000350 f1 6f 98 bc c7 cc 89 3e 90 e6 ac bd cb a7 72 3e
       -0.018608065 0.26914045 -0.08442414 0.2369682
000360 94 88 2d 3e e9 4c 74 3e 45 6a 55 3e 56 10 05 be
       0.16946632 0.23857464 0.2084132 -0.12994513
000370 e4 44 0b bd 78 5f 2e be 1e c4 5a 3e 36 15 bc be
       -0.034001246 -0.17028606 0.21363875 -0.36734933
000380 02 c3 ab 3d 96 0c 01 be 27 eb 00 be 86 08 54 3e
       0.08386804 -0.12602457 -0.12589704 0.20706376
000390 fc 5c 82 be 85 af 04 3c 1b 9c 5e 3e 04 66 c9 3d
       -0.25461566 0.008098488 0.21739237 0.09833911
0003a0 0c 63 ed 3e 27 02 4f 3e 9b 6a 41 be 22 0a bc bc
       0.4636463 0.20215665 -0.18888323 -0.02295405
0003b0 e8 aa 2f bd 9a 81 9b be ea 96 f5 bc 6a 42 26 3e
       -0.0428876 -0.30372316 -0.029979188 0.16236272
0003c0 74 7a 67 be f9 18 85 bd 6d 22 b9 bd 8f 98 83 3d
       -0.22605306 -0.06498904 -0.09039769 0.064255826
0003d0 43 72 33 be c5 d7 3f 3c 0e ef 0a 3d 01 4b 81 bd
       -0.17524056 0.011709158 0.033919387 -0.06313134
0003e0 74 b4 b1 bd 4a f1 88 3e 2b c8 97 be 7c 11 a0 3e
       -0.08676997 0.2674659 -0.29644904 0.3126334
0003f0 7a e4 43 be 6d fa 83 be 17 60 a8 be d0 8d 74 be
       -0.19130126 -0.25776997 -0.3288581 -0.23882222

base.mlp.fc1.0.bias f4 [64]
000000 d0 49 ed bc 28 df 81 3c a3 15 c6 bb 82 89 6f 3b
       -0.02896586 0.01585348 -0.0060450598 0.0036550467
000010 17 c9 89 3b 76 0f 70 bd 9e f7 0e bc 14 a3 a7 3c
       0.00420488 -0.058608495 -0.008726029 0.020463504
000020 fc de 0a 3b 6b 94 2f 3c 46 ea 8e bc d3 16 ef 3b
       0.0021190038 0.010716538 -0.017445695 0.007296422
000030 69 f0 f6 bb c5 c0 3b 3d ee 9a 35 3c 54 64 07 3d
       -0.0075359833 0.045838136 0.011084301 0.033054665
000040 6b e6 93 3c fa 61 0a 3c a7 0c a6 bb 03 02 bc 3b
       0.018054208 0.008446211 -0.0050674262 0.0057375445
000050 0a a8 fe bb c3 ea 10 bd de 01 d0 3c 55 41 66 3c
       -0.0077714967 -0.035380136 0.025391515 0.014053662
000060 ee 4f 50 bb 6f 20 2f bc 8a e4 1d 3c af 08 fa 3c
       -0.0031785923 -0.010688885 0.0096370075 0.030521719
000070 34 d5 84 bc 0d bd ca bc ac 51 52 3c 0b a1 9d 3c
       -0.016214944 -0.02474835 0.012836855 0.01924183
000080 d8 7c 85 bc fc f1 3f 3b 58 45 dc 3c b9 a2 26 bd
       -0.016294882 0.002928852 0.026888534 -0.04068253
000090 41 0d 8d 3c a9 46 8c 3c a0 9e 18 bc ad 24 03 3c
       0.017218234 0.017123537 -0.009315163 0.00800435
0000a0 61 4b 08 3c 3e 9a d5 bc 06 49 17 3b 11 bd bf bc
       0.008318753 -0.026074525 0.0023084297 -0.023405584
0000b0 a2 1a ba 3b d1 bf 80 3c aa cc 9a bb 9f c3 b2 ba
       0.0056794444 0.015716465 -0.004724105 -0.0013638622
0000c0 41 7f d7 3c 26 17 b9 3c a3 6b 9d 3b 96 b7 f2 bb
       0.026305797 0.022594046 0.004804091 -0.007407139
0000d0 96 f6 99 3c ef 6a d1 3c 51 83 d9 bc c3 be 3c bc
       0.01879434 0.025563685 -0.026551874 -0.0115200905
0000e0 d1 37 0e 3b 90 f0 ec 3b 09 64 a5 bc 1a 52 5e bc
       0.002170075 0.0072308257 -0.020189302 -0.013569379
0000f0 da c3 8d 3c b7 ea 13 ba ae 23 0a 3b 91 4e 79 bc
       0.017305303 -0.000564258 0.0021078396 -0.015216486

base.mlp.fc1.2.weight f4 [64]
000000 31 ac 7e 3f 8a 75 80 3f 2f fa 7d 3f 6a 18 7a 3f
       0.99481493 1.003587 0.99209875 0.976935
000010 c5 84 80 3f 23 95 81 3f e4 ff 77 3f e9 5d 81 3f
       1.0040518 1.0123638 0.96874833 1.0106784
000020 1f 5e 80 3f 5f 4d 80 3f 43 7e 7f 3f 36 2e 7f 3f
       1.0028723 1.0023612 0.99802035 0.9967989
000030 e7 b2 81 3f 47 52 85 3f 46 ba 7d 3f 0c d3 7c 3f
       1.0132722 1.0415734 0.99112356 0.9875953
000040 5c fd 80 3f 7b 85 76 3f 8c 72 77 3f 34 c7 7f 3f
       1.0077319 0.96297425 0.9665916 0.99913335
000050 2d c2 80 3f d7 e6 80 3f 21 1f 82 3f 05 6f 83 3f
       1.0059258 1.0070447 1.016575 1.0268255
000060 d6 f0 7e 3f 37 71 7b 3f 3b 60 76 3f cf 67 7e 3f
       0.99586236 0.9821963 0.96240586 0.9937715
000070 8b 43 84 3f 71 4b 7c 3f c7 f3 81 3f 14 1e 7f 3f
       1.0333112 0.98552614 1.015252 0.9965527
000080 d2 9e 7e 3f 83 2a 7d 3f e0 2f 7d 3f 8b bd 80 3f
       0.9946109 0.9889299 0.98901176 1.0057844
000090 d5 d5 7e 3f 09 2c 7c 3f 10 26 80 3f bd be 7d 3f
       0.9954503 0.9850469 1.0011616 0.9911917
0000a0 bc 49 81 3f 8b 85 7a 3f 6a b8 7e 3f cf c9 7f 3f
       1.0100627 0.9786002 0.99500144 0.9991731
0000b0 6b 34 7e 3f 08 5d 7c 3f e4 3a 7d 3f e7 6c 75 3f
       0.99298733 0.98579454 0.98917985 0.95869297
0000c0 5c e6 81 3f ed db 77 3f 6b fa 7d 3f eb d9 79 3f
       1.0148425 0.96819955 0.9921023 0.9759814
0000d0 d3 9e 80 3f ef e8 7d 3f d3 06 7c 3f a4 83 80 3f
       1.0048469 0.99183553 0.9844791 1.0040174
0000e0 b2 1e 81 3f ad 58 7f 3f 06 20 7a 3f 53 6a 7f 3f
       1.0087492 0.99744684 0.97705114 0.9977161
0000f0 a4 18 80 3f 9f 85 7d 3f be a9 81 3f a1 01 82 3f
       1.000752 0.99032015 1.0129926 1.0156747

base.mlp.fc1.2.bias f4 [64]
000000 b6 3c 79 bc e6 e7 19 3d 39 5e 63 bc 1a 40 0d bc
       -0.0152122285 0.03757467 -0.013877445 -0.00862124
000010 61 a7 b9 3b 7e 52 73 bd 4c d4 23 bc 3b 88 c6 3c
       0.005665705 -0.059404843 -0.009999346 0.024234882
000020 66 d9 28 bc 69 9b ab bc 99 fc a2 bc 1c 5d d7 3a
       -0.010305738 -0.020948129 -0.019895839 0.0016430947
000030 68 bb 9a bc be 6d 4e 3d b0 32 af bb 18 ca 54 3d
       -0.01888819 0.050397627 -0.0053466186 0.051950544
000040 47 ee 12 3c df c5 cf 3b a7 bd ed ba 9c e6 6e 3b
       0.008967943 0.0063407267 -0.0018138186 0.0036453372
000050 19 69 4f bb 9c 85 ea bc 2e 40 04 3d d3 52 99 3c
       -0.0031648336 -0.028628163 0.03228777 0.018716251
000060 21 63 87 3a 5a a5 04 bd a2 9b 56 ba 8b b8 81 3c
       0.0010329225 -0.032384254 -0.0008186643 0.015835067
000070 2a ae d8 bc 57 91 c8 bc 97 17 eb 3a 76 f3 39 3c
       -0.026450235 -0.024483366 0.0017936107 0.0113495495
000080 fa 12 d1 bc e1 25 ce 3b f2 93 94 3c e9 76 b1 bc
       -0.025521744 0.0062911366 0.018136952 -0.021663146
000090 ba 7b 1f 3b 03 b2 85 3b 12 38 ae bb 7f c0 6d bb
       0.0024335221 0.0040800585 -0.0053167427 -0.0036278067
0000a0 64 98 d1 ba 59 71 97 bc ff 55 a5 3a ab fe 54 bc
       -0.001599085 -0.018486666 0.001261413 -0.013000171
0000b0 f5 1e 88 3b 11 9b 2a 3c 10 e5 e8 39 3d a4 01 bc
       0.004154081 0.010412947 0.00044421153 -0.007912693
0000c0 32 d0 0b 3d 4a 10 32 3c fb 60 92 3a 5e 2f 58 bc
       0.034134097 0.010868141 0.0011167818 -0.013194887
0000d0 63 41 a7 bb 97 66 d8 3c 7b 22 c3 bc a5 37 06 ba
       -0.0051042303 0.026416106 -0.023820153 -0.0005119986
0000e0 80 a8 4c bb 26 88 53 3c 72 51 9a bc 36 81 0b bc
       -0.0031228364 0.012910878 -0.018837664 -0.008514693
0000f0 9c 93 2b 3c a3 ce 8a bc a3 c9 f1 bb d3 e6 7e bc
       0.010472205 -0.016944235 -0.0073787733 -0.0155579625

base.mlp.fc_h.0.weight f4 [64, 64]
000000 6a 0e 0d 3e 2f 99 04 bc 5f 78 8b be 1e ee 59 3e
       0.1377503 -0.008093162 -0.27240273 0.21282241
000010 5f 07 f9 3e 83 10 08 3e 9e 58 d7 be a1 de 0d 3c
       0.48638436 0.13287549 -0.42059797 0.008659036
000020 26 34 d8 3e 6f 6b 3c 3e cd 80 9e bc 6a d7 ba 3d
       0.42227286 0.18400358 -0.019348526 0.09123118
000030 1a bd 36 3d 51 99 47 be cb 7c c8 be 65 fe 82 be
       0.044613935 -0.1949208 -0.3915771 -0.25584713
000040 93 94 b4 3d cc c3 7c be 6b 89 8e 3e 1d 09 bb be
       0.08817401 -0.24684066 0.27839217 -0.3653039
000050 b3 88 e6 bd 8c 8e b8 be e4 79 85 be 6f e3 86 3e
       -0.11256542 -0.36046255 -0.26069558 0.26345393
000060 ff 5c 9a be 8d 7f 36 3e b6 10 5e 3e 74 22 2f 3d
       -0.30149075 0.17822094 0.21686062 0.042757466
000070 fa dd 2f be 07 07 b0 bd a0 dd 65 3d 60 97 c2 3d
       -0.17174521 -0.0859509 0.05611956 0.09501529
000080 62 6b 48 be eb 1a 66 3e 19 4b 94 3e e3 a0 d4 3d
       -0.19572213 0.22471206 0.28963545 0.10382249
000090 2a d0 f1 b9 06 5d f6 3d 94 ae e0 3d be e8 64 be
       -0.00046122196 0.120294616 0.10970798 -0.22354409
0000a0 de 3a 12 be 0e a3 25 be f1 4e ce 3d 46 22 ed 3b
       -0.14280269 -0.16175482 0.10073651 0.0072367517
0000b0 eb f8 31 3e 00 54 83 be 10 e0 23 3d e9 a3 48 be
       0.17380111 -0.25650024 0.040008605 -0.19593777
0000c0 54 e8 87 3d ee e2 47 3e 9e 5d 87 3c 66 7b e7 bc
       0.0663611 0.1952016 0.016524132 -0.028257083
0000d0 a0 b3 74 3e a8 f8 d2 3d 4e a7 aa bd c7 9c 69 bd
       0.23896646 0.10301334 -0.08332692 -0.05703428
0000e0 c9 f8 6a be 69 7a 1c 3e c9 72 23 be fe ae a8 3d
       -0.22946467 0.15281071 -0.15961756 0.08236502
0000f0 23 5f 1e be 22 5a 97 3e 3e f5 73 be 41 02 a0 be
       -0.1546598 0.29560953 -0.23824021 -0.3125172
000100 7f 3d 69 be f2 56 c9 bc e1 15 af bd 9f 1c 80 be
       -0.22777365 -0.024577592 -0.08549095 -0.25021836
000110 de 71 ca bd 79 54 62 be 11 ca 6a 3e c6 67 cd 3e
       -0.09885 -0.22102536 0.22928645 0.40118235
000120 a0 51 15 3d 35 e9 ed bd 28 d9 07 be 7a 0b 8b 3e
       0.036454797 -0.11616746 -0.13266432 0.27157193
000130 6b 62 2b 3d c7 89 34 be ce c9 90 3e 54 4f 6d bd
       0.041841906 -0.17630683 0.28278965 -0.05793698
000140 25 9f a6 3e 15 9c 6c be f1 f1 8f bc 34 d7 8b be
       0.32543293 -0.23106416 -0.017571421 -0.27312624
000150 7e ad 83 3d 11 c6 92 3e 1a 12 0b 3e e9 92 4b be
       0.064295754 0.28666738 0.13581124 -0.1988026
000160 79 2e 5d 3d 27 5b ec 3d 4f c8 24 3d bb c7 31 3e
       0.053999398 0.115408234 0.04023009 0.17361347
000170 07 ed 5b be 00 8d 84 bd 60 ea 75 bc d3 28 60 3e
       -0.21477138 -0.06472206 -0.015009493 0.21890573
000180 01 44 c3 bd 71 52 86 3e 3b cb 50 3e a7 4c 2c bc
       -0.09534455 0.26234773 0.20390026 -0.010516322
000190 40 a5 91 3e 96 b1 3c be 37 cd cf be 30 50 04 bc
       0.28446388 -0.18427119 -0.40586254 -0.008075759
0001a0 89 fe cd bd a3 67 1f be 38 e7 8c 3e 40 76 2d 3c
       -0.10058314 -0.15566878 0.27520156 0.010587275
0001b0 17 0f 1b 3d 0c 7f ba 3e 8f 51 01 bd dc 59 88 be
       0.037856188 0.36425054 -0.03157192 -0.26631057
0001c0 71 5b 86 3e e8 f2 60 3e dd 41 ef bd 22 ea a7 bd
       0.2624164 0.21967661 -0.11682484 -0.08198954
0001d0 d5 76 2c 3b 4f b0 bb 3e 6e 2b 78 3e 3e 69 17 3f
       0.0026315947 0.3665795 0.24235317 0.5914496
0001e0 5c fa 3f 3e 9c 72 88 be 3f 85 06 3e 58 7f 73 3d
       0.18747848 -0.2664994 0.13136767 0.059447616
0001f0 dd f4 3c bc e2 29 47 3e e4 a5 7d bd 63 b1 88 be
       -0.011532989 0.19449571 -0.061925784 -0.26697835
000200 bc da d7 3e dd f3 7b bd 98 f2 d4 3d b2 e0 11 be
       0.4215907 -0.061511863 0.103978336 -0.1424587
000210 34 ba a7 3c 5d 05 be 3e ce a4 92 3d 0f ba 29 3d
       0.02047453 0.37113467 0.0716034 0.041437205
000220 ab 40 d8 3d 29 40 5d 3e da 7c 1f bd 59 99 87 bc
       0.105592094 0.21606506 -0.038937427 -0.016552614
000230 eb de d4 bd c6 b5 93 3d 65 6e 95 bd 2e 05 87 bd
       -0.10394081 0.07212405 -0.07296447 -0.06592785
000240 d0 f8 00 3e c1 3c 1a be 92 4e bf 3e bb bc e1 bd
       0.12594914 -0.15062238 0.37364632 -0.110223256
000250 83 29 06 3e 28 e7 a6 bd a9 f7 7a 3e 15 97 58 bd
       0.13101773 -0.08149558 0.24508537 -0.052878458
000260 51 09 52 bd fd 04 4a bd f4 9c 3f 3e 3a c9 be 3e
       -0.051278416 -0.049321163 0.18712217 0.372629
000270 29 46 b9 3e e5 e9 f1 3c 13 be 26 3d 71 63 08 3f
       0.3618634 0.029530475 0.040708613 0.53276736
000280 8f 07 48 be 83 08 07 be b2 7f 0a bd 95 b6 89 3e
       -0.19534133 -0.1318684 -0.033813186 0.26897112
000290 5c 21 46 be 34 1f 46 be 09 53 71 be c1 dc 5c be
       -0.19348663 -0.1934784 -0.23566832 -0.21568586
0002a0 ce 20 0f be bd 59 00 be 31 5d aa be 6d ad c5 bd
       -0.13977358 -0.12534232 -0.33274224 -0.09652219
0002b0 09 1e ed bd d8 5e 86 3e 3a 6f c4 3e 1b 36 3b be
       -0.115779944 0.26244235 0.3836611 -0.18282358
0002c0 fe f8 20 be 94 4c ab be 0e b9 45 be 06 22 af be
       -0.15719983 -0.33456862 -0.19308874 -0.34205645
0002d0 c6 00 0a 3e 9d 92 63 be 30 c8 48 3d 4b e4 cf 3c
       0.13476858 -0.22223897 0.04901904 0.025377413
0002e0 08 c0 e2 3e ff 69 af 3d 5c 64 0c bd ad 7f 80 bd
       0.44287133 0.08565139 -0.034275398 -0.06274352
0002f0 07 fe 4d bd a1 d6 20 bd e6 58 6d 3e 4a 78 a9 3e
       -0.050291087 -0.039267186 0.23178443 0.33099586
000300 90 07 f0 3d 35 dc 34 bd 5b 97 69 3c a8 7d 63 be
       0.117201924 -0.04415532 0.014257277 -0.22215903
000310 ee ce 93 3e 5a 95 58 3e 8e 45 f5 bd 06 20 04 be
       0.28868812 0.21150723 -0.11976157 -0.12902841
000320 1f 0f c3 3e 88 13 b6 3e 6a 1a 27 3e b7 a9 5b bd
       0.38097474 0.35561776 0.1631867 -0.05362865
000330 ef ee 69 bd e2 bb 41 be b1 b6 18 3e cb 46 df 3e
       -0.05711263 -0.18919328 0.14913441 0.43608698
000340 51 87 44 3e d4 7a 46 3e b8 33 6e bd 06 45 e1 bd
       0.19192244 0.19382793 -0.05815479 -0.10999493
000350 75 27 2b bd f4 f2 72 be 6c dc 9e bb 7c 7c ed be
       -0.041785676 -0.23725492 -0.0048480537 -0.46384037
000360 ba 9a 28 bd fb 78 db bd 08 7a 92 be 70 a8 0e be
       -0.041163184 -0.107164346 -0.28608727 -0.13931441
000370 b5 37 72 be f0 39 fb 3d 86 22 7d be c4 cc 4a be
       -0.23654063 0.1226691 -0.24720201 -0.19804674
000380 5f 4e 0d 3d 54 ea 88 3e f5 72 14 3e e7 e4 89 3d
       0.03449857 0.26741278 0.14496978 0.06733113
000390 58 3d 44 be f9 29 fb bd f7 ee 30 3c fd f6 f9 3e
       -0.19164026 -0.12263865 0.010799161 0.4882125
0003a0 95 77 69 3e 0b 24 c2 3d 97 c4 7b bd 1e c9 51 be
       0.22799523 0.09479531 -0.06146678 -0.20486876
0003b0 c7 64 79 3e d1 a7 6d bb f4 61 39 3d 9f b8 61 be
       0.2435485 -0.0036263356 0.04525943 -0.22043084
0003c0 cc dc b5 bd 36 be d6 3c 60 99 1d 3e da 16 22 bc
       -0.08880004 0.026213747 0.15390539 -0.009893144
0003d0 52 b7 42 be 58 30 a6 be 68 9c 4d 3e f5 cc 71 be
       -0.19015244 -0.32458758 0.20079195 -0.23613341
0003e0 fc d7 ca 3e 9d 2d d1 be b7 ef 3a 3e d1 02 10 bd
       0.39617908 -0.40855113 0.18255506 -0.035158936
0003f0 3b b3 8a bc 00 3d 2b 3e 76 03 0e 3e c0 6b 88 be
       -0.016931167 0.16722488 0.13868508 -0.26644707

base.mlp.fc_h.0.bias f4 [64]
000000 00 00 00 00 00 00 00 00 00 00 00 00 00 00 00 00
       0.0 0.0 0.0 0.0
000010 00 00 00 00 00 00 00 00 00 00 00 00 00 00 00 00
       0.0 0.0 0.0 0.0
000020 00 00 00 00 00 00 00 00 00 00 00 00 00 00 00 00
       0.0 0.0 0.0 0.0
000030 00 00 00 00 00 00 00 00 00 00 00 00 00 00 00 00
       0.0 0.0 0.0 0.0
000040 00 00 00 00 00 00 00 00 00 00 00 00 00 00 00 00
       0.0 0.0 0.0 0.0
000050 00 00 00 00 00 00 00 00 00 00 00 00 00 00 00 00
       0.0 0.0 0.0 0.0
000060 00 00 00 00 00 00 00 00 00 00 00 00 00 00 00 00
       0.0 0.0 0.0 0.0
000070 00 00 00 00 00 00 00 00 00 00 00 00 00 00 00 00
       0.0 0.0 0.0 0.0
000080 00 00 00 00 00 00 00 00 00 00 00 00 00 00 00 00
       0.0 0.0 0.0 0.0
000090 00 00 00 00 00 00 00 00 00 00 00 00 00 00 00 00
       0.0 0.0 0.0 0.0
0000a0 00 00 00 00 00 00 00 00 00 00 00 00 00 00 00 00
       0.0 0.0 0.0 0.0
0000b0 00 00 00 00 00 00 00 00 00 00 00 00 00 00 00 00
       0.0 0.0 0.0 0.0
0000c0 00 00 00 00 00 00 00 00 00 00 00 00 00 00 00 00
       0.0 0.0 0.0 0.0
0000d0 00 00 00 00 00 00 00 00 00 00 00 00 00 00 00 00
       0.0 0.0 0.0 0.0
0000e0 00 00 00 00 00 00 00 00 00 00 00 00 00 00 00 00
       0.0 0.0 0.0 0.0
0000f0 00 00 00 00 00 00 00 00 00 00 00 00 00 00 00 00
       0.0 0.0 0.0 0.0

base.mlp.fc_h.2.weight f4 [64]
000000 00 00 80 3f 00 00 80 3f 00 00 80 3f 00 00 80 3f
       1.0 1.0 1.0 1.0
000010 00 00 80 3f 00 00 80 3f 00 00 80 3f 00 00 80 3f
       1.0 1.0 1.0 1.0
000020 00 00 80 3f 00 00 80 3f 00 00 80 3f 00 00 80 3f
       1.0 1.0 1.0 1.0
000030 00 00 80 3f 00 00 80 3f 00 00 80 3f 00 00 80 3f
       1.0 1.0 1.0 1.0
000040 00 00 80 3f 00 00 80 3f 00 00 80 3f 00 00 80 3f
       1.0 1.0 1.0 1.0
000050 00 00 80 3f 00 00 80 3f 00 00 80 3f 00 00 80 3f
       1.0 1.0 1.0 1.0
000060 00 00 80 3f 00 00 80 3f 00 00 80 3f 00 00 80 3f
       1.0 1.0 1.0 1.0
000070 00 00 80 3f 00 00 80 3f 00 00 80 3f 00 00 80 3f
       1.0 1.0 1.0 1.0
000080 00 00 80 3f 00 00 80 3f 00 00 80 3f 00 00 80 3f
       1.0 1.0 1.0 1.0
000090 00 00 80 3f 00 00 80 3f 00 00 80 3f 00 00 80 3f
       1.0 1.0 1.0 1.0
0000a0 00 00 80 3f 00 00 80 3f 00 00 80 3f 00 00 80 3f
       1.0 1.0 1.0 1.0
0000b0 00 00 80 3f 00 00 80 3f 00 00 80 3f 00 00 80 3f
       1.0 1.0 1.0 1.0
0000c0 00 00 80 3f 00 00 80 3f 00 00 80 3f 00 00 80 3f
       1.0 1.0 1.0 1.0
0000d0 00 00 80 3f 00 00 80 3f 00 00 80 3f 00 00 80 3f
       1.0 1.0 1.0 1.0
0000e0 00 00 80 3f 00 00 80 3f 00 00 80 3f 00 00 80 3f
       1.0 1.0 1.0 1.0
0000f0 00 00 80 3f 00 00 80 3f 00 00 80 3f 00 00 80 3f
       1.0 1.0 1.0 1.0

base.mlp.fc_h.2.bias f4 [64]
000000 00 00 00 00 00 00 00 00 00 00 00 00 00 00 00 00
       0.0 0.0 0.0 0.0
000010 00 00 00 00 00 00 00 00 00 00 00 00 00 00 00 00
       0.0 0.0 0.0 0.0
000020 00 00 00 00 00 00 00 00 00 00 00 00 00 00 00 00
       0.0 0.0 0.0 0.0
000030 00 00 00 00 00 00 00 00 00 00 00 00 00 00 00 00
       0.0 0.0 0.0 0.0
000040 00 00 00 00 00 00 00 00 00 00 00 00 00 00 00 00
       0.0 0.0 0.0 0.0
000050 00 00 00 00 00 00 00 00 00 00 00 00 00 00 00 00
       0.0 0.0 0.0 0.0
000060 00 00 00 00 00 00 00 00 00 00 00 00 00 00 00 00
       0.0 0.0 0.0 0.0
000070 00 00 00 00 00 00 00 00 00 00 00 00 00 00 00 00
       0.0 0.0 0.0 0.0
000080 00 00 00 00 00 00 00 00 00 00 00 00 00 00 00 00
       0.0 0.0 0.0 0.0
000090 00 00 00 00 00 00 00 00 00 00 00 00 00 00 00 00
       0.0 0.0 0.0 0.0
0000a0 00 00 00 00 00 00 00 00 00 00 00 00 00 00 00 00
       0.0 0.0 0.0 0.0
0000b0 00 00 00 00 00 00 00 00 00 00 00 00 00 00 00 00
       0.0 0.0 0.0 0.0
0000c0 00 00 00 00 00 00 00 00 00 00 00 00 00 00 00 00
       0.0 0.0 0.0 0.0
0000d0 00 00 00 00 00 00 00 00 00 00 00 00 00 00 00 00
       0.0 0.0 0.0 0.0
0000e0 00 00 00 00 00 00 00 00 00 00 00 00 00 00 00 00
       0.0 0.0 0.0 0.0
0000f0 00 00 00 00 00 00 00 00 00 00 00 00 00 00 00 00
       0.0 0.0 0.0 0.0

base.mlp.fc2.0.0.weight f4 [64, 64]
000000 7d ae d7 3d d4 da b7 3c b6 86 65 be be 9f 66 3e
       0.10531328 0.022443213 -0.2241467 0.22521874
000010 2d 06 e9 3e 21 dc 38 3e 3f 3e cf be 37 e1 e8 3c
       0.45512524 0.18052723 -0.40477178 0.028427703
000020 80 30 d7 3e db 35 4a 3e e3 56 27 bd cf c0 a4 3d
       0.4202919 0.19747107 -0.040854346 0.08044588
000030 45 d2 a7 3c 0f ad 41 be 9e f1 cd be 9a fb 70 be
       0.020486007 -0.18913673 -0.40223402 -0.23533478
000040 f3 58 02 3e 99 ab 8b be fb d4 83 3e 4b 31 ba be
       0.12729244 -0.27279356 0.2574843 -0.36365733
000050 5f 4b fa bd 7d dd be be ad fc 97 be 4b 5f 8a 3e
       -0.12221407 -0.37278357 -0.29684964 0.27025828
000060 7b 78 7b be a7 17 3e 3e 77 79 42 3e f3 16 58 3d
       -0.24557678 0.1856371 0.18991648 0.05275626
000070 7d a4 58 be bf df f4 bd 85 6b c9 3d 2b 86 ec 3d
       -0.21156497 -0.11956739 0.09834961 0.11549028
000080 f8 ca 4f be e6 5c 41 3e e0 f3 94 3e 47 c9 b6 3d
       -0.2029227 0.18883094 0.29092312 0.08925109
000090 35 d0 b1 3c cd 8d b8 3d 12 6d d9 3d b8 3e 71 be
       0.021705726 0.09011421 0.10616507 -0.23559082
0000a0 61 f9 ff bd ed 60 31 be e2 bb bc 3d 9d 35 21 3d
       -0.12498737 -0.1732213 0.09215523 0.03935777
0000b0 03 08 2c 3e 92 40 82 be 20 e8 34 3d d5 39 4d be
       0.16799931 -0.25439888 0.044166684 -0.20041592
0000c0 a0 db ad 3d 49 90 45 3e 41 c1 20 3d d2 7d 01 bd
       0.08489156 0.19293322 0.0392468 -0.031614132
0000d0 f4 61 82 3e 77 6d e9 3d 0d e8 c6 bd fc d2 bc bd
       0.25465357 0.11397832 -0.09712229 -0.092199296
0000e0 c3 fb 55 be 9b ed 1d 3e 4d 3e 15 be 90 40 d4 3d
       -0.2089682 0.1542267 -0.14574547 0.10363877
0000f0 63 5b 00 be a7 f0 a7 3e e2 f3 88 be 9b 57 a4 be
       -0.12534861 0.3280079 -0.26748568 -0.32098088
000100 1f d6 64 be 47 51 15 bd c0 c7 65 bd f9 f7 81 be
       -0.22347306 -0.036454465 -0.0560987 -0.253845
000110 32 8d e7 bd 9a 5f 90 be 07 d8 4a 3e 71 db c9 3e
       -0.11306228 -0.28197938 0.1980897 0.39425233
000120 9e be ce 3c c9 5a 07 be a6 e9 15 be 90 19 93 3e
       0.025237378 -0.13218226 -0.14639911 0.2873044
000130 58 17 36 3d 66 b8 3c be b2 94 99 3e 52 24 8e bd
       0.044455856 -0.18429717 0.29996258 -0.06940521
000140 10 d6 ab 3e 12 ae 46 be 7b 3d 20 3c 77 a0 84 be
       0.33561754 -0.1940234 0.009780283 -0.25903675
000150 64 f2 86 3d 0f 8f 98 3e 22 60 df 3d d7 6a 49 be
       0.06589201 0.29796645 0.10907008 -0.19669662
000160 af c3 4e 3d 79 3c e8 3d 5f 7a 45 3d 4d 11 31 3e
       0.050479587 0.11339659 0.048212405 0.17291756
000170 ba a6 5b be 8a 54 6a bd 74 25 3c bc 96 d2 72 3e
       -0.2145032 -0.05720953 -0.011483539 0.23713145
000180 97 43 ce bd 62 7f 8b 3e f7 92 45 3e 4c f8 00 bd
       -0.100714855 0.27245623 0.19294344 -0.031486794
000190 7b 6d 89 3e 83 d6 27 be e8 b3 c9 be 4c b7 a4 bb
       0.2684134 -0.16390423 -0.3939507 -0.0050267335
0001a0 29 dd d5 bd e2 e5 ef bd 66 0a 96 3e 24 8d 0b bc
       -0.104425736 -0.117137685 0.29304808 -0.008517537
0001b0 5e da e1 3c 21 8d be 3e bb c5 06 bd b2 8d 76 be
       0.027569946 0.37217048 -0.032903414 -0.2407749
0001c0 3a 48 8a 3e f6 1b 5a 3e d0 b5 dc bd b1 4b ae bd
       0.2700823 0.21299729 -0.107768655 -0.08510531
0001d0 ed f6 a7 bc e6 5b b4 3e a4 85 68 3e 78 5f 15 3f
       -0.020503486 0.35226363 0.2270723 0.583488
0001e0 21 97 45 3e 34 6e 9b be 0d d0 0f 3e 8b 53 5c 3d
       0.19295932 -0.30357516 0.14044209 0.05379061
0001f0 a5 df 32 bc a9 c6 4f 3e 7e fa a0 bc 28 49 85 be
       -0.010917579 0.20290627 -0.019650694 -0.26032376
000200 4d fa d3 3e 78 34 9c bd fd d9 c0 3d 45 c2 00 be
       0.41401902 -0.07627195 0.09416578 -0.12574108
000210 61 cc 13 3d 02 93 c1 3e ee d8 9d 3d b6 4c 37 3d
       0.036083583 0.3780747 0.07707392 0.04475089
000220 04 f6 ea 3d 08 89 67 3e 92 9b 6a bc 07 f4 f9 bc
       0.11472705 0.22610867 -0.014319317 -0.03051187
000230 66 28 cf bd ba 37 b3 3d a0 cf a7 bd 94 fb 6e bd
       -0.10115127 0.087508634 -0.08193898 -0.058345392
000240 01 4d ee 3d ec 7e 07 be c7 08 b3 3e bc 55 e0 bd
       0.11635781 -0.1323201 0.34967634 -0.109538525
000250 7e 1e ee 3d b0 d7 8d bd 66 32 66 3e d8 27 35 bd
       0.1162691 -0.06925905 0.22480163 -0.04422745
000260 79 c7 3b bd 78 1e 43 bd 3c d6 45 3e 5f de c3 3e
       -0.04584453 -0.04763648 0.19320005 0.38255593
000270 4d e8 b6 3e 17 66 18 3d 5d e9 49 3d e1 0a 08 3f
       0.35724106 0.037206735 0.04929482 0.531416
000280 33 39 54 be 75 a0 06 be 73 fd 2b bd 08 39 8f 3e
       -0.20724945 -0.13147147 -0.041989755 0.279732
000290 f0 7f 4c be 27 97 4b be 15 91 74 be ca 68 74 be
       -0.1997068 -0.19881879 -0.2388347 -0.23868099
0002a0 2c cf 0c be 4a 3b 0f be fc 65 a8 be ad eb c8 bd
       -0.13750905 -0.1398746 -0.32890308 -0.098105766
0002b0 d1 f9 c3 bd 31 63 7b 3e f7 42 c0 3e 1f ab 37 be
       -0.09569133 0.24549557 0.3755109 -0.17936371
0002c0 55 ec 1f be 71 8a a5 be 40 f7 52 be 8b a5 a4 be
       -0.15617497 -0.32332185 -0.20602131 -0.3215755
0002d0 36 67 12 3e d0 4b 51 be 62 c8 28 3d f2 e6 e8 3c
       0.14297184 -0.20439076 0.041206725 0.028430436
0002e0 f3 66 e0 3e 38 f0 c2 3d ce 11 3c bd 4f 2f 78 bd
       0.43828544 0.09518474 -0.045915417 -0.060591992
0002f0 67 36 0f bd 7c c4 40 bd 99 b9 5e 3e ce fd ae 3e
       -0.03496399 -0.047062382 0.21750487 0.34178013
000300 2c 51 dd 3d 6a bc 36 bd 31 fb b3 3c f8 a0 3f be
       0.10806498 -0.04461328 0.021970363 -0.18713748
000310 29 ab 95 3e 87 d2 6c 3e 29 94 c8 bd 7e 4c 0c be
       0.29232147 0.23127185 -0.09793884 -0.13701054
000320 8f 10 c1 3e 12 9f b8 3e 98 87 2f 3e a7 e5 8c bd
       0.37707946 0.3605886 0.17141569 -0.0687974
000330 04 4b 95 bd d0 6d 47 be ad 5f 1b 3e f6 20 e3 3e
       -0.07289699 -0.19475484 0.15173216 0.44361085
000340 c4 66 46 3e 80 0f 3a 3e a4 fe 49 bd 11 ff d1 bd
       0.1937514 0.18169975 -0.04931511 -0.10253728
000350 1d 29 57 bd ee 35 8a be d0 6f 10 3d c3 58 e8 be
       -0.052529443 -0.2699427 0.035262883 -0.4538022
000360 3c 01 bb bc c0 2e d0 bd 2b 03 97 be 4a b6 e7 bd
       -0.022827737 -0.10165167 -0.29494604 -0.11314066
000370 33 ba 6a be eb 3b e9 3d b9 41 70 be 7f 3c 51 be
       -0.22922592 0.113883816 -0.23462571 -0.20433234
000380 37 6a e0 3c 6d e9 86 3e 00 31 13 3e a8 0c 26 3d
       0.027394397 0.26349965 0.14374161 0.040539414
000390 ec d4 58 be 19 c7 f7 bd 0a fd 28 bc 16 f2 f7 3e
       -0.21174973 -0.12098522 -0.010314235 0.48426884
0003a0 5c 6a 79 3e 25 13 bf 3d f7 2b 44 bd 61 dc 3c be
       0.24356979 0.093298234 -0.04789349 -0.18443443
0003b0 da 6a 7d 3e fb 6e 72 bc ae f1 d0 3c 8e 99 77 be
       0.24747792 -0.014796968 0.025505867 -0.2417967
0003c0 8b db 97 bd 90 7d 17 3d 76 d5 26 3e 27 a5 b5 3a
       -0.074149214 0.03698498 0.16292366 0.0013858423
0003d0 05 33 3b be 6c 4e a7 be 5a 40 4a 3e 94 df 6c be
       -0.18281181 -0.3267702 0.1975111 -0.23132163
0003e0 d8 71 ca 3e c8 e0 d9 be a5 7b 33 3e df bb 1e bd
       0.3953998 -0.42554307 0.17527635 -0.038753387
0003f0 32 4a f8 bc 78 2d 34 3e a0 90 0f 3e c1 05 82 be
       -0.030308817 0.1759547 0.14020014 -0.25395015

base.mlp.fc2.0.0.bias f4 [64]
000000 da 7a 9f 3c 69 35 c8 3c 7a 77 3b bc 63 54 99 bc
       0.01946776 0.02443953 -0.01144206 -0.018716997
000010 db 54 54 bc 58 94 48 bb 56 35 58 3c 0b da 60 bb
       -0.012959684 -0.0030605998 0.01319631 -0.0034309651
000020 1f 46 9a 3b ba 95 01 3b 94 db 87 bc b3 95 66 bc
       0.004708066 0.0019773082 -0.016584195 -0.014073777
000030 f9 4c 26 bc f1 00 7f bc 67 2e 3d bc 7c 04 55 3c
       -0.010150188 -0.015564189 -0.011546708 0.013001557
000040 e7 14 92 3c 0f 75 6a 3c b8 6e 78 bb be 8f 0c ba
       0.017832233 0.0143101355 -0.003790779 -0.00053619954
000050 97 a2 60 ba b9 e0 47 bc 8e 71 19 3c d1 ef 04 bd
       -0.00085691496 -0.012199574 0.009365452 -0.03245527
000060 1b 57 0f bc 0a e3 8d 3c 12 06 70 bc 5f b4 94 bb
       -0.008748795 0.017320175 -0.014649885 -0.0045381035
000070 45 d4 cd bc 6c 5c 8e bb b2 20 dc 3b 6f f0 e0 bb
       -0.025125632 -0.0043445136 0.006717765 -0.0068645994
000080 90 78 27 3c d6 8d 8c bc 14 b7 8d bc 89 50 52 3a
       0.010221615 -0.017157476 -0.017299213 0.0008022865
000090 1a 3e 8b 3c f6 0d 4e 3c 5d 05 84 bc a2 14 84 bc
       0.016997386 0.012576571 -0.016115839 -0.01612312
0000a0 9f 91 40 3c b9 45 64 bc ae dd 12 3d 2c ad 2f bd
       0.011753469 -0.013932639 0.03585594 -0.04288976
0000b0 57 38 60 3b f1 4d 3e bd 71 8e 66 3c 5f 2a e8 3b
       0.0034213269 -0.04646105 0.014072047 0.007085129
0000c0 40 20 21 3c ac 46 fa 3c 60 e2 39 3c 8e e5 59 bc
       0.009834349 0.030551277 0.011345476 -0.013299359
0000d0 6c 42 9a bc 1c 32 a0 3c 89 45 b8 bc 68 ff 82 ba
       -0.0188305 0.019555144 -0.022494094 -0.000999433
0000e0 6d b4 5f bb dc 8f ea bb 7c 6f 17 3c 02 18 1a 3b
       -0.0034134642 -0.0071582627 0.009242889 0.0023512845
0000f0 cf 79 2a bd aa 29 6f 3c c3 89 22 3c cd f6 b7 bb
       -0.041620072 0.014597336 0.00992054 -0.0056141377

base.mlp.fc2.0.2.weight f4 [64]
000000 44 2b 80 3f f2 6e 7f 3f 94 c5 7d 3f bf 5a 7d 3f
       1.0013204 0.99778664 0.99129605 0.9896659
000010 36 f8 77 3f 1a 60 80 3f 32 fd 81 3f 82 1d 79 3f
       0.96863115 1.0029328 1.0155394 0.9731065
000020 9f 9d 81 3f 93 d2 81 3f ba 67 81 3f ce d6 7e 3f
       1.0126227 1.0142387 1.010978 0.99546516
000030 24 6b 7e 3f 62 6b 79 3f 11 e6 7f 3f 0c d0 7b 3f
       0.99382234 0.9742948 0.9996043 0.9836433
000040 cc b2 7d 3f df db 78 3f 5f f2 7b 3f 85 44 7f 3f
       0.9910095 0.97210497 0.98416704 0.9971393
000050 59 fb 7d 3f 37 5a 81 3f da d5 7d 3f 38 20 83 3f
       0.9921165 1.0105656 0.99154437 1.0244207
000060 25 0e 80 3f 24 28 7a 3f 74 e5 7f 3f 67 72 7f 3f
       1.0004317 0.977175 0.9995949 0.9978394
000070 89 93 80 3f f8 c1 80 3f ec 94 7c 3f f0 89 80 3f
       1.0045024 1.0059195 0.98664737 1.0042095
000080 85 20 80 3f c1 b9 7d 3f f3 44 7f 3f 79 5c 7e 3f
       1.0009924 0.9911156 0.99714583 0.9935985
000090 72 19 7e 3f 2b b4 7e 3f 48 3d 7c 3f 0a b1 7e 3f
       0.99257576 0.99493665 0.9853101 0.9948889
0000a0 85 47 80 3f 60 65 80 3f f6 d1 81 3f e9 4f 82 3f
       1.0021826 1.0030937 1.01422 1.0180637
0000b0 0a 13 7d 3f 03 d5 7c 3f 5a 80 7e 3f c6 a6 80 3f
       0.98857176 0.9876253 0.994146 1.0050895
0000c0 ac 9f 7f 3f 71 0e 81 3f d7 93 7c 3f 68 1c 80 3f
       0.99853015 1.0082532 0.98663086 1.0008669
0000d0 cd e2 7e 3f 40 10 7e 3f 5f 4a 7f 3f 91 59 7e 3f
       0.9956482 0.99243546 0.99722856 0.9935542
0000e0 35 bf 81 3f fc c6 7a 3f f1 d4 7f 3f 3d 80 7d 3f
       1.0136477 0.97959876 0.999343 0.990238
0000f0 05 45 85 3f a6 07 81 3f 23 2e 81 3f da c0 81 3f
       1.0411688 1.0080459 1.0092205 1.0136979

base.mlp.fc2.0.2.bias f4 [64]
000000 f0 1b 56 3c df 3d d4 3c ed 36 05 bb c0 6a 96 bc
       0.013068184 0.025908409 -0.0020326928 -0.01836145
000010 3f 96 3f bb 69 cd 59 39 8b 88 42 3d b7 fe 44 bb
       -0.002923384 0.00020771254 0.0474935 -0.0030059048
000020 91 aa 0d 3c 01 3c d6 3b a3 f0 07 bc 14 df 46 bc
       0.008646623 0.0065379147 -0.008297118 -0.012138147
000030 e3 9b 16 bc e6 e5 99 bc a0 d9 a6 bc f5 d7 10 3c
       -0.00919244 -0.018786382 -0.020367444 0.008840551
000040 20 d7 54 3c cc aa 09 3c 66 5e 28 bb fd 51 ac 3b
       0.012990743 0.008402538 -0.0025691031 0.005258797
000050 72 07 d8 3a cb a9 f5 bb 0a a7 75 3b 60 75 ba bc
       0.0016481711 -0.0074970475 0.0037483596 -0.022761047
000060 b3 20 d1 bb d2 96 52 3c 8c ab 29 bc 10 e9 49 bb
       -0.006382072 0.012853341 -0.010355841 -0.0030809082
000070 28 3b 8c bc 00 0e 6d bb cb 0a cb 3b cd cd f0 bb
       -0.017118052 -0.0036171675 0.006196355 -0.007348752
000080 67 7f ee 3b b0 af 71 bb 77 87 ab bc 0f fb 47 3b
       0.007278371 -0.00368784 -0.020938618 0.0030514633
000090 39 bb 85 3c 9f 69 18 3c d0 3e 96 bc a6 70 ae bc
       0.016324626 0.009302526 -0.018340498 -0.02129395
0000a0 c5 a9 7b 3a cb 1a 9b b8 c6 79 50 3d a5 52 3b bd
       0.0009600188 -7.3959665e-05 0.050897382 -0.045733113
0000b0 35 87 8b bb 4c 7b 3d bd 41 89 7a 3c 20 54 ac 3b
       -0.0042580613 -0.046260163 0.015291513 0.005259052
0000c0 e1 8d 57 ba 4e 51 66 3c 66 da 41 3c d1 35 72 b8
       -0.0008222741 0.0140574705 0.011831855 -5.7747417e-05
0000d0 a1 10 52 ba 97 30 a3 3c 73 1c 27 bc 25 6b a2 3b
       -0.0008013342 0.01992063 -0.010199654 0.0049566203
0000e0 74 ed b1 3b 7d 95 a1 bb 79 7b 08 3b bb b4 0e b9
       0.005429918 -0.0049311505 0.0020825549 -0.00013609503
0000f0 7b 31 39 bb 86 0c 36 3c 97 dc 1f 3c 7b 10 d0 3a
       -0.0028258252 0.011111384 0.009757183 0.0015874052

rnn.rnn.weight_ih_l0 f4 [192, 64]
000000 b9 ae 4a bd bb 61 29 be c9 db 4c 3d b2 c9 b6 bd
       -0.049483035 -0.16541187 0.05001429 -0.08925189
000010 26 3d b8 3d 10 50 62 bd 32 70 ac 3c 08 0b 61 bd
       0.08996038 -0.055252135 0.021049593 -0.05494216
000020 d8 d8 05 3c c2 9e 16 be a7 a7 1d 3b e7 bb bc bd
       0.008169375 -0.14708999 0.0024056227 -0.09215527
000030 cb d3 16 3c 8f 8d 62 3d 9a 3c 62 3d a2 35 c1 3d
       0.009205769 0.055310782 0.055233575 0.09434058
000040 bf b1 ce 3b 6c d6 06 3d cf 20 b6 3d a4 43 a0 bd
       0.00630781 0.032919332 0.088929765 -0.078254014
000050 58 7b 43 3c cd f8 1f 3d 0b 53 35 3d 72 ce e2 bd
       0.011931263 0.039055634 0.04426865 -0.110745326
000060 2c fe 28 be 7c d9 a7 3b d2 6e fe 3c 80 7a dd bd
       -0.16503209 0.0051223617 0.031058703 -0.10814381
000070 ad 89 18 3e 82 50 b6 bd 2a 2f 3b 3d fe 3a bb 3d
       0.14896269 -0.089020744 0.045699276 0.09142111
000080 95 bc 68 3c ed 3a 71 bc 94 a5 82 3c 3c 7f 75 3d
       0.014205118 -0.014723522 0.015948094 0.059935793
000090 68 4b 22 3d 79 68 f6 bc 9f 4f c7 3c 62 d4 87 bd
       0.039622694 -0.030079113 0.024329958 -0.06632306
0000a0 8b 69 1e 3d 8a 74 8a 3c ad f8 84 bc 46 2a 70 bd
       0.038674872 0.016901273 -0.01623186 -0.058634065
0000b0 38 5b 49 3d 7c 93 90 3d 22 43 be 3b ff c1 cc 3d
       0.04915926 0.070593804 0.0058063427 0.09997939
0000c0 8f 4b 8f bd bc 75 92 3c 96 80 39 3c 2a 93 8b 3d
       -0.069968335 0.017878406 0.011322161 0.06815179
0000d0 0a 64 98 3d a6 44 43 bd df 0c ae 3d 4e 03 b6 bd
       0.07440956 -0.04767289 0.08498549 -0.08887349
0000e0 27 6d 52 bd 1c 22 0d bd dd 24 94 3b c7 46 92 bd
       -0.051373627 -0.034456357 0.004520996 -0.07142406
0000f0 7a a6 e8 bd 95 5c 4e be b8 c4 64 3d 6d 65 ac 3d
       -0.11359878 -0.20152505 0.055851668 0.08417783
000100 ae 4a a9 3d eb 7f 23 bd e7 a8 4d b9 fc fe 97 bd
       0.08266197 -0.039916914 -0.00019613245 -0.07421681
000110 d7 52 1c 3d 4c ab 50 3d 59 4f 4b 3e c1 a0 4e 3d
       0.03816494 0.05094461 0.19854487 0.050446276
000120 e8 ff 7f bd bb a2 0c be 81 7b 28 bd 0b 77 c3 bd
       -0.06249991 -0.13733952 -0.041133408 -0.0954419
000130 22 ae 31 be 54 3d dc bc 7d 00 36 bc 8e a4 c9 bc
       -0.17351583 -0.026884712 -0.011108515 -0.024614599
000140 86 5d b2 bc 7b f9 a2 3d fc 89 fe 3d 41 95 01 be
       -0.021773111 0.07957741 0.12428662 -0.12654592
000150 88 4e de bb ce c0 98 bc a4 e1 32 bd 47 08 d7 3d
       -0.006784264 -0.018646624 -0.04367222 0.10499626
000160 cb ec 2c 3d f6 13 3e bb cf dd 23 3e ad 7e b2 3d
       0.04221801 -0.0029003597 0.16002582 0.08715568
000170 db 6c 46 bd 58 16 f9 3d b6 d7 5f bd 43 d4 10 be
       -0.048443656 0.12162465 -0.054649077 -0.14143471
000180 65 69 e1 3c 85 a9 16 3c f4 73 86 bd 39 f7 2a bc
       0.027516076 0.00919569 -0.06565085 -0.010434919
000190 41 62 30 3d 91 5f b2 bd bd 00 ab bb a3 0b a8 3b
       0.043062452 -0.08709634 -0.005218594 0.0051283403
0001a0 91 3c eb 3c 00 31 47 bd c9 f8 23 3d 44 42 20 ba
       0.028715404 -0.048630714 0.040032182 -0.000611339
0001b0 c6 a9 cd bd ee e3 ac bb fc 27 81 3e 04 88 be bd
       -0.10042147 -0.005276195 0.25225818 -0.09303287
0001c0 94 a2 8e 3d 9e ef 97 3d c4 b8 11 bd 3c 55 73 3d
       0.06964603 0.0741875 -0.035576597 0.059407458
0001d0 3a 09 a6 3d 89 d5 a0 bd 99 a7 89 3d 89 6f 88 3d
       0.081072286 -0.078532286 0.0672142 0.06661899
0001e0 e7 9b 95 bd 62 f9 9e bd 1d fc 05 bd 4f b2 37 bc
       -0.07305127 -0.0776241 -0.032711137 -0.011211946
0001f0 d6 34 25 3d 15 24 ab bd 31 84 2f 3c 86 6c 73 bd
       0.04033359 -0.083564915 0.010712669 -0.059429668
000200 a9 53 1d 3d 90 6a d0 3c 6d 0b 1f bd 95 5b 14 bd
       0.038409863 0.025441438 -0.038829256 -0.036220152
000210 ab 09 8f 3c ef d3 85 bd d0 6a 85 3d 00 d9 22 3e
       0.017460665 -0.06534564 0.065145135 0.15903091
000220 d3 d1 9e 3d a8 84 00 3e c0 75 f1 bc c2 1b 8c bd
       0.077548645 0.12550604 -0.029475093 -0.06841232
000230 fc 06 f8 bd 7e f4 91 bb 6b 0a 51 3d 14 9f d8 bd
       -0.12110707 -0.0044541946 0.051035326 -0.10577217
000240 a8 63 da 3c 34 13 32 3c b5 97 02 3e 35 63 b5 3d
       0.026658848 0.010868836 0.12753184 0.08856813
000250 fe 0b f7 3d da 43 ba bc 6f 37 c0 3d 60 74 29 bd
       0.12062834 -0.022737432 0.09385573 -0.04137075
000260 08 7a 72 3d 8a 3a 12 3e 10 9d fd bd f1 02 77 3d
       0.05919841 0.14280143 -0.12383473 0.06030554
000270 d9 fe d7 bd 59 37 d5 3c de c2 6a bc 5e a6 be 3d
       -0.10546655 0.026027368 -0.0143286865 0.09309076
000280 93 a1 9d 3d f4 55 6f bd b6 08 a2 bd 7c 6d 21 be
       0.076968335 -0.05843158 -0.07911818 -0.15764421
000290 d8 b2 7a bc 15 e8 35 3d 4f c8 f6 bd 4a a7 59 3d
       -0.015301429 0.044410784 -0.120499246 0.053138055
0002a0 ea d8 ed bd 3e 5a 08 be cb 35 fc bc 44 23 b8 3d
       -0.11613639 -0.13315675 -0.03078737 0.089911014
0002b0 53 1a 27 bd bd 60 30 3e 05 09 c8 bd 21 39 d2 3d
       -0.04079659 0.17224403 -0.09767345 0.10264803
0002c0 14 1f c9 3d 7b e3 ad 3d 0c 7f 3e 3d 44 df fa 3c
       0.09820381 0.08490654 0.04650788 0.03062404
0002d0 8e 0b 4d be c1 15 d8 3d e4 5c 89 bd 01 dd e1 bc
       -0.20023939 0.10551024 -0.067071706 -0.027571203
0002e0 12 f4 8a 3d 42 19 09 3d 73 24 b8 3d 6c 5d 03 3e
       0.06784834 0.033471353 0.08991327 0.12828606
0002f0 47 b7 06 3e c4 85 78 bd d5 75 f1 3c af 79 07 be
       0.13155852 -0.060674444 0.029475132 -0.13230012
000300 73 b0 1d bc 63 b8 87 bd 2d 25 94 bd 0d f6 78 bd
       -0.009624588 -0.06626966 -0.07233653 -0.060781527
000310 52 29 1b be dd e1 7c 3d cc 62 18 3d 3c 64 ec bd
       -0.15152481 0.061738838 0.037203595 -0.11542556
000320 a3 43 16 be dd 55 84 bd a1 0a 19 ba 2f 29 c2 bd
       -0.14674239 -0.064616896 -0.00058380706 -0.094805114
000330 bd 52 8f 3d ba 86 45 bd 54 a2 25 bd 3c 66 43 bd
       0.06998203 -0.04822419 -0.04043801 -0.04770492
000340 ca 49 a7 3d b2 5f 9a bd 70 e2 46 bd b0 ca 89 bd
       0.08168371 -0.07537784 -0.04855579 -0.06728113
000350 f0 dd 8b 3d d4 2e 15 bd 1d b3 c1 3c cf a5 a3 3d
       0.068294406 -0.036421612 0.023644978 0.0799061
000360 2d e0 12 bd de 71 05 bd 44 70 2a 3c 26 51 50 3d
       -0.035858322 -0.032579295 0.010402743 0.05085864
000370 a6 ee dc 3c 49 16 d9 bc e7 9e 9e 3c d5 f7 a5 bd
       0.026969265 -0.026499884 0.01936288 -0.08103911
000380 9e 62 dc bc 93 2d 8d bd 26 75 81 3d 91 a3 35 3d
       -0.026902493 -0.06893458 0.063211724 0.044345442
000390 5e 58 4c bc 78 a3 cb 3d 2a 5d 11 be 3d b7 80 3d
       -0.01247224 0.099432886 -0.14195696 0.0628495
0003a0 bc 6e 9b bd 4d f4 05 3e 60 e6 72 bd 8b b7 bb 3d
       -0.0758948 0.13081475 -0.059301734 0.091658674
0003b0 75 18 c2 bc 1b 31 b0 3d ae 64 42 3e bd eb 2e 3d
       -0.023693303 0.08603116 0.18983719 0.042705286
0003c0 e8 53 91 3d 1f 7d 82 3d 82 f7 cd bd a2 0d b1 3d
       0.07096082 0.06371521 -0.10056974 0.086451784
0003d0 f4 08 50 bd 8b 8d 87 3d f1 b9 7c bd 04 2f 2e 3c
       -0.05078979 0.06618794 -0.061700765 0.010631327
0003e0 3c e8 ab bd cf 38 3f 3c ea e3 37 bc bd 86 59 bc
       -0.083939046 0.011671259 -0.011223773 -0.013276753
0003f0 ad 8f 41 bd c3 0b 6a 3c f8 c2 83 bd 2f 9d 81 bd
       -0.04725616 0.014285031 -0.06433672 -0.063288085
