onpolicy/scripts/results/MPE/simple_spread/rmappo/check/wandb/run-20220704_233210-35v00p53/files/actor.pt (torch, 147692 bytes, 22 tensors)

base.feature_norm.weight f4 [18]
0	0x3f60a780	0.87755585
1	0x3f536539	0.8257633
2	0x3f577cdb	0.8417489
3	0x3f5e7f42	0.8691293
4	0x3f8eecf1	1.1166059
5	0x3f894008	1.0722666
6	0x3f885b58	1.0652876
7	0x3f89c90a	1.0764477
8	0x3f8d0dcb	1.1019834
9	0x3f8b4b54	1.0882363
10	0x3f8956fb	1.0729669
11	0x3f7bb914	0.9832928
12	0x3f805cc8	1.0028315
13	0x3f85bf2b	1.0448965
14	0x3f8eb3ca	1.1148617
15	0x3f831b75	1.0242754
16	0x3f616546	0.88045156
17	0x3f84f925	1.0388533

base.feature_norm.bias f4 [18]
0	0xbcb31a86	-0.021863233
1	0x3bb419a0	0.005496219
2	0xbcee85ce	-0.029116537
3	0x3d98ef41	0.07467509
4	0xbc7bb19b	-0.015362169
5	0xbc157b0f	-0.009123578
6	0xbca15f34	-0.019698717
7	0x3a79e7da	0.0009533145
8	0xba057f16	-0.00050924846
9	0x3c5cd053	0.013477403
10	0x3d437beb	0.0477256
11	0xbc7c9c73	-0.01541816
12	0x3d01c3f5	0.03168102
13	0xbd14e827	-0.03635421
14	0xbd01cbfe	-0.031688683
15	0xbd2f5dbf	-0.042814013
16	0xbcaee177	-0.021347744
17	0x3dd7edcd	0.10543404

base.mlp.fc1.0.weight f4 [64, 18]
0	0xbd2efa14	-0.04271896
1	0xbd65059f	-0.055913564
2	0xbe113c13	-0.14183073
3	0x3c1160d3	0.008873182
4	0xbc15c5a7	-0.009141362
5	0xbdd43f7a	-0.1036367
6	0xbc9e0544	-0.01928962
7	0x3e094c8c	0.13408107
8	0xbf2528d8	-0.6451545
9	0x3e9ba517	0.3039939
10	0x3e25f6b5	0.16207393
11	0xbc8a1ac1	-0.01685846
12	0x3d8daebc	0.069180936
13	0x3e687b63	0.22703318
14	0xbd38aaba	-0.045084693
15	0xbe1b646c	-0.15175027
16	0xbe66fca7	-0.22557317
17	0x3e232195	0.1593078
18	0xbe529d83	-0.20567898
19	0x3e19dd91	0.15025927
20	0xbbc267bc	-0.0059327763
21	0x3e1706d3	0.14748697
22	0x3df24e42	0.11831333
23	0xbd1dca0f	-0.038522776
24	0xbed74314	-0.42043364
25	0x3e20bff4	0.15698224
26	0xbeb44f1a	-0.352166
27	0x3e8fb806	0.28070086
28	0x3e0d13ca	0.1377708
29	0x3e23af8d	0.15984936
30	0xbe33d450	-0.1756146
31	0xbe017f60	-0.12646246
32	0xbd3a8859	-0.045540188
33	0x3d7a9d33	0.061185073
34	0x3eb3db74	0.35128367
35	0xbdbbada0	-0.09163976
36	0xbdb2bdf9	-0.08727641
37	0xbe158126	-0.14600047
38	0xbc886678	-0.016650423
39	0x3e498719	0.19680442
40	0x3d4a4f57	0.04939207
41	0x3d57b0ba	0.052658774
42	0xbec3570b	-0.38152346
43	0xbe8417f2	-0.2579952
44	0xbeb31aa2	-0.34981257
45	0xbd4a30c8	-0.049362928
46	0x3eae237b	0.34011444
47	0x3ee0da8f	0.43916747
48	0x3ed69d76	0.41917008
49	0x3d82701e	0.06369041
50	0x3de9ac7e	0.114098534
51	0xbe008c7c	-0.1255359
52	0xbd7b32fd	-0.061327923
53	0x3db07634	0.086162955
54	0x3d8b0751	0.06788505
55	0xbd019d79	-0.03164432
56	0xbf33a901	-0.70179754
57	0xbe9df50c	-0.30851018
58	0x3eb8ec65	0.36117855
59	0x3edffd9a	0.4374817
60	0x3e17f7bb	0.14840595
61	0x3e60189a	0.21884385
62	0xbcbb0ce3	-0.022833293
63	0x3c57b09a	0.013164664
64	0xbe8b3bdb	-0.27194104
65	0xbe0a4345	-0.13502224
66	0x3d7954ad	0.06087177
67	0xbde4931e	-0.11160873
68	0x3e18eed4	0.14934856
69	0xbce1c197	-0.027558131
70	0xbe79a68a	-0.24379936
71	0x3e1e1d38	0.15440834
72	0x3d16e530	0.036839664
73	0xbe3e46d4	-0.18581706
74	0xbe65350e	-0.2238352
75	0xbd821ba2	-0.06352927
76	0xbec54cf6	-0.3853528
77	0xbd3074bd	-0.04308008
78	0x3e025812	0.12728909
79	0xbe25a256	-0.16175207
80	0xbd96ad69	-0.07357294
81	0xbe659d88	-0.22423375
82	0xbde257a8	-0.11051875
83	0x3d959b82	0.073050514
84	0xbe5e60a3	-0.21716551
85	0x3e2f9b13	0.17149
86	0xbe0800ad	-0.13281508
87	0x3eab0167	0.33399507
88	0x3e2ee9ac	0.17081326
89	0xbe2686a7	-0.16262303
90	0x3ecd56b2	0.40105206
91	0xbe5f881e	-0.21829268
92	0x3e44ad85	0.19206817
93	0xbdcbb45c	-0.0994651
94	0x3e8c41bb	0.27393898
95	0x3bbe5559	0.005808514
96	0x3e4fbca6	0.20286807
97	0xbe7279c4	-0.23679262
98	0xbf24b7b2	-0.64342797
99	0x3ea6cd9d	0.32578745
100	0xbe082d0a	-0.13298431
101	0x3e6fa9a7	0.23404561
102	0xbdfa1523	-0.12211063
103	0x3d19d26d	0.037554193
104	0x3ec9bd61	0.39402297
105	0xbe08cba0	-0.13358927
106	0x3d30dbec	0.043178484
107	0x3d123b46	0.03570106
108	0x3de24eb9	0.110501714
109	0xbd9f89bb	-0.07789942
110	0x3e400f93	0.18755941
111	0x3d6a8ce8	0.057263285
112	0xbce0f8f1	-0.027462455
113	0xbe120d07	-0.14262782
114	0xbd41b565	-0.047292132
115	0xbe9de3a9	-0.30837753
116	0xbe077c41	-0.13230993
117	0x3e98d959	0.29853323
118	0x3e5018f5	0.2032202
119	0xbe6b084b	-0.22952382
120	0xbe6b7675	-0.22994407
121	0x3dea82db	0.1145074
122	0x3e1ab76b	0.15109031
123	0xbded51da	-0.115878776
124	0x3de5c17b	0.11218544
125	0xbd3f22f8	-0.04666421
126	0x3d66a747	0.05631187
127	0x3e7195d6	0.23592314
128	0x3cff6064	0.031173892
129	0xbd59c414	-0.05316551
130	0x3e243b2d	0.16038199
131	0xbed32a11	-0.41243032
132	0x3dc855b9	0.09781975
133	0x3e7e1acf	0.24814914
134	0xbe6da4b5	-0.23207362
135	0xbdb1e478	-0.08686155
136	0xbd0fe694	-0.035132006
137	0x3d3ae4ab	0.04562823
138	0xbe827f40	-0.2548771
139	0x3d6440eb	0.055725973
140	0x3e41c1df	0.18921612
141	0xbe08ea61	-0.13370658
142	0xbe1b8594	-0.15187675
143	0x3e062ed2	0.13103798
144	0x3e4f987c	0.20273012
145	0xbe7efc05	-0.24900825
146	0x3e0491f6	0.12946305
147	0xbe75864b	-0.2397701
148	0x3efbab97	0.4915435
149	0xbe5a3a3e	-0.2131128
150	0x3d729789	0.059226546
151	0x3ed1301b	0.40857014
152	0x3dadc558	0.08484906
153	0x3dd2956f	0.102824084
154	0x3e57a597	0.21059261
155	0x3e8db247	0.27675077
156	0x3e0805c6	0.13283452
157	0x3d845e8e	0.064633474
158	0xbd9999b3	-0.07500019
159	0xbe21557f	-0.1575527
160	0xbef3a745	-0.47588554
161	0xbb34b74c	-0.0027575074
162	0x3b394ed8	0.0028275754
163	0x3e6a2419	0.22865333
164	0x3e7c4592	0.24635914
165	0xbae0cf3d	-0.0017151606
166	0xbe06a192	-0.13147572
167	0xbc151686	-0.009099608
168	0x3e1df65d	0.15426011
169	0x3e5257c9	0.205413
170	0x3e9e8f98	0.30968928
171	0xbe870fbc	-0.26379192
172	0x3ba061d8	0.0048944764
173	0x3de257f0	0.11051929
174	0x3d9fe2e7	0.0780695
175	0x3e38224b	0.17981832
176	0x3cd17bc5	0.025571713
177	0xbdde4a7f	-0.10854053
178	0x3d50db0d	0.050990153
179	0x3d8c29e7	0.0684393
180	0x3d8c89c4	0.06862214
181	0x3c760f21	0.015018255
182	0x3e802aca	0.25032645
183	0x3d27601b	0.040863138
184	0x3e248b43	0.16068749
185	0x3f2d39bf	0.6766624
186	0x3d25823d	0.040407408
187	0x3e86967f	0.26286694
188	0x3e115fed	0.14196749
189	0x3e5aca43	0.21366219
190	0x3e5e8e82	0.2173405
191	0x3e2393af	0.15974306
192	0xbd98b1be	-0.07455777
193	0xbd8835ad	-0.06650863
194	0x3e264780	0.16238213
195	0x3ea310c3	0.31848726
196	0xbe6f368c	-0.23360652
197	0xbe76d96d	-0.24106379
198	0xbe281e94	-0.16417915
199	0x3c4a52c6	0.012348836
200	0x3e113a19	0.14182319
201	0xbed7d815	-0.42157045
202	0xbeb64915	-0.35602632
203	0x3dc95526	0.09830694
204	0x3ccb1c65	0.024793813
205	0x3d55a5b1	0.05215997
206	0xbe5bfa2f	-0.21482156
207	0xbdc565c4	-0.09638551
208	0x3e1fbbc8	0.15598977
209	0xbea825bf	-0.32841298
210	0x3ea3e235	0.3200852
211	0xbe7c1897	-0.24618755
212	0x3ec0ee91	0.37682012
213	0x3e3d8d3b	0.18510906
214	0x3dfb1499	0.12259788
215	0x3e7c379f	0.24630593
216	0xbe4dd8d3	-0.20102243
217	0xbe3f9629	-0.18709625
218	0x3ca6c8fa	0.020359505
219	0x3c76bee4	0.01506016
220	0x3dec2c01	0.115318306
221	0x3f404570	0.75105953
222	0xbe9e85dc	-0.30961502
223	0x3c9bb423	0.019006794
224	0x3e8e7cac	0.27829492
225	0xbda304b8	-0.079598844
226	0xbe5fcc71	-0.21855332
227	0x3dd0ae80	0.10189533
228	0x3e239b15	0.15977128
229	0xbd3dba2f	-0.046320137
230	0xbe882732	-0.26592404
231	0xbe7e4bc8	-0.24833596
232	0x3e81c0cb	0.25342402
233	0xbd61e437	-0.055149283
234	0x3d453ddb	0.048154693
235	0xbcd4483e	-0.025913354
236	0xbd3030ec	-0.043015406
237	0x3dd5a493	0.10431781
238	0x3e26f9d0	0.16306233
239	0x3d8e615a	0.06952162
240	0x3eaa7726	0.33294028
241	0xbdc343dc	-0.095344275
242	0xbd5820db	-0.05276571
243	0xbdbb40b8	-0.091432035
244	0xbe8d01d5	-0.2754046
245	0x3e252818	0.16128576
246	0xbef70d4a	-0.48252326
247	0xbf0df7f9	-0.554565
248	0x3c414f26	0.011798656
249	0x3e0217ac	0.12704343
250	0x3da56ecb	0.08077773
251	0x3e352d5c	0.17693084
252	0x3e306b71	0.17228486
253	0x3dfa4534	0.12220231
254	0x3eb5e9a4	0.35529816
255	0x3df75e8b	0.120785795

base.mlp.fc1.0.bias f4 [64]
0	0x3da7c450	0.081917405
1	0xbc24e80c	-0.01006509
2	0x3e06aeb1	0.13152577
3	0xbd52cfcb	-0.051467698
4	0xbd9f2b23	-0.077718996
5	0xbdc3aae7	-0.095540814
6	0x3e090859	0.1338209
7	0x3db30af4	0.087423235
8	0xbd075ab2	-0.03304548
9	0x3cd671a2	0.026177231
10	0x3d03f346	0.032214426
11	0xbd025c84	-0.03182651
12	0xbc0e1133	-0.008671093
13	0xbdc04018	-0.09387225
14	0xbd190f56	-0.03736814
15	0xbb85f4b9	-0.004088011
16	0xbcaeeecc	-0.021354102
17	0xbc612734	-0.013742257
18	0x3c08d1d1	0.008350805
19	0x3d0f98d9	0.035057876
20	0x3b9829a9	0.004643638
21	0x3dc9bab9	0.09850068
22	0xbd370b73	-0.044688653
23	0xbd2bc046	-0.041931413
24	0xb78d5df8	-1.6852267e-05
25	0x3d472761	0.04862154
26	0xbda4adf3	-0.08040991
27	0x3d4cdf21	0.05001748
28	0xbe0b1507	-0.1358224
29	0x3adbcd1c	0.0016769501
30	0x3c3e6641	0.011621059
31	0xbced6729	-0.028979855
32	0x3d5e15e2	0.054220088
33	0x3baf6046	0.005352053
34	0x3beec472	0.0072866017
35	0xbc8c8910	-0.0171552
36	0x3cdd62ee	0.027024712
37	0xbce10e95	-0.027472774
38	0x3dae3de6	0.085079
39	0x3d033547	0.03203323
40	0xbcc0056f	-0.023440091
41	0xbc4998c9	-0.012304493
42	0x3d2dfa3c	0.04247497
43	0x3caa4656	0.020785492
44	0xbd091bdd	-0.033473838
45	0xbcb85c85	-0.022505054
46	0x3e1485fb	0.14504234
47	0x3bc9bf0b	0.0061568073
48	0x3d5d02e3	0.05395783
49	0xbdb25282	-0.08707143
50	0x3cdec299	0.0271924
51	0xbd11e5ce	-0.03561955
52	0xbcc7f374	-0.02440808
53	0x3dee08de	0.11622785
54	0x3cb277eb	0.021785697
55	0x3cf35c76	0.029707175
56	0x3dd836e4	0.105573446
57	0x3c90de22	0.017684046
58	0xbd78adad	-0.060712505
59	0x3cdc2e4a	0.026877541
60	0x3dc1dc24	0.094658166
61	0xbb925274	-0.0044653956
62	0xbca1fea5	-0.019774744
63	0xbd6324c1	-0.055454973

base.mlp.fc1.2.weight f4 [64]
0	0x3f8df0e3	1.1089138
1	0x3f8db838	1.1071844
2	0x3f8a6554	1.0812173
3	0x3f729f35	0.9477418
4	0x3f92cc0a	1.1468518
5	0x3f861d84	1.0477757
6	0x3f5b14f8	0.8557887
7	0x3f846600	1.0343628
8	0x3f80dc5b	1.0067247
9	0x3f6025c6	0.8755764
10	0x3f8b2859	1.0871688
11	0x3f810473	1.0079483
12	0x3f9316da	1.1491349
13	0x3f8a5fd3	1.0810493
14	0x3f800bf3	1.0003647
15	0x3f7fc553	0.9991047
16	0x3f678f20	0.90452766
17	0x3f8b7d40	1.0897598
18	0x3f84a063	1.0361446
19	0x3f84fbee	1.0389383
20	0x3f852ef0	1.0404949
21	0x3f85dbf4	1.0457749
22	0x3f854afb	1.0413507
23	0x3f8c7d3c	1.0975718
24	0x3f87de7c	1.0614772
25	0x3f804280	1.0020294
26	0x3f87007a	1.054702
27	0x3f86f215	1.0542628
28	0x3f7aac28	0.9791894
29	0x3f8e1a50	1.110178
30	0x3f8ca25b	1.0987047
31	0x3f7c406b	0.98535794
32	0x3f8b75b5	1.0895296
33	0x3f603c74	0.87592244
34	0x3f86747c	1.0504298
35	0x3f8410f6	1.0317676
36	0x3f8bbaa0	1.0916328
37	0x3f8a3f5e	1.0800588
38	0x3f79754d	0.9744461
39	0x3f894c1e	1.0726354
40	0x3f832ad8	1.024745
41	0x3f8f55e2	1.1198084
42	0x3f75e10b	0.96046513
43	0x3f860fc9	1.0473567
44	0x3f80634c	1.0030303
45	0x3f8485d0	1.0353336
46	0x3f77ce1b	0.96798867
47	0x3f63909c	0.8889253
48	0x3f86cffd	1.0532223
49	0x3f8b3425	1.0875288
50	0x3f798664	0.9747069
51	0x3f7afa0d	0.980378
52	0x3f8798e6	1.0593536
53	0x3f76bd92	0.9638301
54	0x3f87f8ea	1.0622838
55	0x3f680b20	0.90641975
56	0x3f8bf943	1.0935444
57	0x3f917164	1.1362729
58	0x3f84704a	1.0346768
59	0x3f8a2f01	1.0795594
60	0x3f90ddbf	1.1317672
61	0x3f8f33c3	1.1187671
62	0x3f857e33	1.0429138
63	0x3f8daefa	1.1069024

base.mlp.fc1.2.bias f4 [64]
0	0x3c3c43bf	0.011490761
1	0xbc102c07	-0.008799559
2	0x3d198fe6	0.037490748
3	0x3c028be7	0.007967926
4	0xbd019075	-0.031631906
5	0xbd3a76dd	-0.045523513
6	0x3da65921	0.08122469
7	0x3d3cd04b	0.04609708
8	0x3ccfb9a5	0.025357077
9	0x3bbf29b0	0.005833827
10	0x3ccf2bd8	0.025289461
11	0x3d0c710c	0.034287497
12	0xbd596d03	-0.053082477
13	0x3a9f43a2	0.0012150893
14	0xbcee49e0	-0.02908796
15	0x3b8af81a	0.004241002
16	0x3d1c2f0f	0.038130816
17	0xbca03f57	-0.019561453
18	0x3d2f6b3c	0.042826876
19	0xbb5e5114	-0.0033922838
20	0x3bcec752	0.006310382
21	0x3d7aa724	0.061194554
22	0xbcf65e96	-0.030074399
23	0x3c2fbdc3	0.010726395
24	0x3add4c92	0.0016883782
25	0x3d56ef0b	0.052474063
26	0xbc9fbae8	-0.019498304
27	0x3dde3e66	0.10851745
28	0x3d13210b	0.035920184
29	0xbc3758a2	-0.011190565
30	0x3aea1c05	0.0017861134
31	0x3c9a970e	0.018870857
32	0xbb99f525	-0.004698413
33	0xbd3a853a	-0.04553721
34	0x3d3055ae	0.04305046
35	0x3b340a91	0.0027472118
36	0x3cf8bf31	0.030364605
37	0x3d243c85	0.04009678
38	0x3c6fb9d5	0.014631708
39	0x3d25fbfb	0.04052351
40	0x3d0fd267	0.035112765
41	0x3d43ba93	0.047785353
42	0xbd09fa8d	-0.03368621
43	0xbaa980f0	-0.0012932103
44	0xbd152553	-0.03641255
45	0xbd767490	-0.060169756
46	0x3da1e949	0.07905824
47	0xbca792a9	-0.020455675
48	0x3dd6bf77	0.10485738
49	0xbb91309f	-0.004430845
50	0x3c0dde0b	0.008658896
51	0xbd7ed4aa	-0.06221453
52	0xbd0404c9	-0.032231126
53	0x3d90f315	0.07077614
54	0x3c4492af	0.011997863
55	0x3ce70084	0.028198488
56	0x3d86027a	0.06543441
57	0xbca34603	-0.019930845
58	0xbc6b01c8	-0.014343686
59	0x3cea15e7	0.028574897
60	0x3d92ad4f	0.07161962
61	0xbad7a10c	-0.0016451194
62	0xbc78df6c	-0.015189987
63	0xbc59bfe2	-0.013290377

base.mlp.fc_h.0.weight f4 [64, 64]
0	0x3d092420	0.033481717
1	0xbe17ad93	-0.14812307
2	0x3d24510b	0.04011635
3	0x3e21b4ba	0.15791598
4	0xbe85e35e	-0.2615003
5	0x3e3c42be	0.18384835
6	0xbdc92c8e	-0.09822951
7	0xbe36b6b0	-0.17843127
8	0xbe7b723a	-0.24555293
9	0x3e56e783	0.20986752
10	0x3d71faf7	0.05907723
11	0xbf0cc55c	-0.54988647
12	0xbea9ebb4	-0.3318764
13	0xbd9ec971	-0.07753266
14	0xbe826e09	-0.25474575
15	0x3e6e29b8	0.23258102
16	0xbd1134f8	-0.035450906
17	0x3e9454a4	0.28970826
18	0x3e2ce27b	0.1688327
19	0xbbbd64bd	-0.005779831
20	0xbdab6f08	-0.08370787
21	0x3c99ff17	0.018798394
22	0x3ec1f35f	0.3788099
23	0xbeb9ed3c	-0.36313808
24	0xbe20e453	-0.15712099
25	0x3e01c6bd	0.12673469
26	0xbe90b422	-0.2826243
27	0x3e240488	0.16017354
28	0x3e93deb8	0.28880858
29	0xbb305680	-0.0026907027
30	0xbdb63334	-0.08896485
31	0xbe0964c7	-0.1341735
32	0x3ed8e67f	0.42363355
33	0xbb99251a	-0.0046736123
34	0x3c04f8b8	0.00811594
35	0xbe26d173	-0.16290836
36	0x3c70b220	0.014690906
37	0xbee825c2	-0.45341307
38	0xbec368cc	-0.3816589
39	0xbd0cf922	-0.03441728
40	0xbd2971bf	-0.041368242
41	0x3d83f327	0.06442862
42	0xbd19a368	-0.037509352
43	0xbe4bf38d	-0.19917126
44	0x3ead0751	0.33794644
45	0x3b1fb5f6	0.0024369932
46	0xbd30e074	-0.043182805
47	0x3e580a9a	0.21097794
48	0xbdbf433c	-0.09338996
49	0x3d3d349b	0.046192747
50	0x3ea05ae1	0.31319335
51	0xbe9c298b	-0.30500445
52	0x3e76a811	0.2408755
53	0x3db7956a	0.08964045
54	0x3e74a1f3	0.23889904
55	0xbe2e8936	-0.1704453
56	0xbe646dae	-0.22307464
57	0x3c093b46	0.008375948
58	0x3e23f122	0.16009954
59	0x3d9f7b84	0.077872306
60	0xbe242dca	-0.16033092
61	0xbdd7296b	-0.10505947
62	0xbe2e68fd	-0.17032237
63	0xbe0e8ea7	-0.13921605
64	0x3ebc1e7f	0.36742017
65	0xbd2e7590	-0.042592585
66	0x3d243045	0.040085096
67	0xbe4f5e88	-0.20250905
68	0x3deba033	0.11505165
69	0x3f1d1276	0.61356294
70	0xbf1e3bfb	-0.6181027
71	0xbde73434	-0.11289254
72	0xbdae6be3	-0.085166715
73	0x3cfe0d7b	0.031012287
74	0xbe97661e	-0.29570097
75	0x3d25b30c	0.040453956
76	0x3d6a6d28	0.057233006
77	0x3c0f1647	0.008733339
78	0xbe64f030	-0.2235725
79	0x3d2242b4	0.039614394
80	0x3d098d6d	0.03358214
81	0xbe48712f	-0.19574426
82	0x3e04245b	0.12904494
83	0x3d1178f6	0.035515748
84	0x3e018003	0.12646489
85	0xbca9d937	-0.020733459
86	0x3d9e6595	0.07734219
87	0xbd8b4a53	-0.068012856
88	0xbc47ffd8	-0.012206994
89	0xbedb108a	-0.42786056
90	0x3dc80c63	0.097679876
91	0x3e9b092a	0.3028043
92	0xbe40cb99	-0.18827666
93	0x3e613279	0.2199191
94	0x3d878026	0.06616239
95	0xbbb6c031	-0.00557711
96	0xbe6dfa79	-0.23240079
97	0x3dddcfa0	0.10830617
98	0xbdae9723	-0.08524921
99	0x3dfefd7c	0.12450692
100	0xbe82ca8b	-0.25545153
101	0x3dbdf586	0.092753455
102	0x3e619818	0.22030675
103	0x3e1b9e11	0.15197016
104	0xbea3b2ba	-0.31972295
105	0x3d12a5f0	0.03580278
106	0x3e739227	0.23786221
107	0xbe58af25	-0.21160562
108	0x3ed1b087	0.40954992
109	0xbe791d9e	-0.24327704
110	0x3e036659	0.12832011
111	0x3dd76932	0.10518111
112	0x3d1b5880	0.037926197
113	0x3e004d5b	0.12529509
114	0x3d0ff0a7	0.035141613
115	0x3e98bc67	0.2983124
116	0xbd713a9f	-0.058893796
117	0xbeb3c75d	-0.3511304
118	0x3e10fe1d	0.14159437
119	0xbe7c3acb	-0.24631803
120	0xbdc9f700	-0.09861565
121	0xbddc01c7	-0.107425265
122	0x3ddf39e9	0.10899717
123	0x3e4f5682	0.20247844
124	0x3e1df4a5	0.15425356
125	0xbe1c0218	-0.15235174
126	0x3e8c7cb0	0.2743888
127	0x3b966449	0.0045895916
128	0xbe94702e	-0.28991836
129	0x3e7c70f4	0.24652463
130	0x3e5a6c87	0.21330462
131	0xbd9ff7a7	-0.07810908
132	0x3c86a952	0.01643816
133	0xbddb9738	-0.10722202
134	0xbc8f1267	-0.01746483
135	0x3e220759	0.15823115
136	0xbe8c2f85	-0.27380005
137	0x3e67b206	0.22626504
138	0xbe3f50cb	-0.18683164
139	0xbe252044	-0.1612559
140	0x3eee7a41	0.46577647
141	0x3d0b37fb	0.033988934
142	0xbdb41696	-0.087933704
143	0x3c0f2aaa	0.008738199
144	0xbddc8da5	-0.10769204
145	0x3ed6e4b8	0.41971374
146	0x3e29e94c	0.16592902
147	0x3ee5d130	0.4488616
148	0x3e393772	0.18087557
149	0xbe692dd4	-0.22771388
150	0x3ea3b416	0.31973332
151	0x3ea90f74	0.33019602
152	0x3e580796	0.21096644
153	0x3e7cdbaa	0.2469317
154	0x3e765f2c	0.24059743
155	0x3e4c0384	0.19923216
156	0xbde0294c	-0.10945377
157	0xbd1fe1ce	-0.039033704
158	0xbe1cc6f7	-0.15310274
159	0xbe26149b	-0.16218798
160	0x3cd02ffd	0.025413508
161	0xbb206c23	-0.0024478517
162	0xbe9859bb	-0.2975596
163	0x3e26ed08	0.16301358
164	0xbbea70c0	-0.007154554
165	0xbe2b2d23	-0.16716437
166	0xbd695e72	-0.056974836
167	0x3df551ed	0.11978517
168	0xbbf0c699	-0.0073478934
169	0x3c2c098a	0.010500321
170	0x3ea1f5de	0.31632894
171	0x3dd5c7b2	0.104384795
172	0xbdf33340	-0.118750095
173	0x3d465b16	0.04842671
174	0xbe697210	-0.22797418
175	0x3d821028	0.06350738
176	0xbe1b03a1	-0.15138103
177	0x3e10f6dc	0.1415667
178	0x3d8afe17	0.06786745
179	0x3e9adcaa	0.30246478
180	0xbe1beb02	-0.15226367
181	0x3e64a274	0.22327596
182	0x3ebfb6a8	0.37444043
183	0xbc8de993	-0.01732329
184	0x3bd2952a	0.006426473
185	0xbdedc7c3	-0.11610367
186	0xbe484805	-0.19558723
187	0xbf0148f2	-0.5050193
188	0x3dc6051e	0.09668945
189	0xbe8f7b9b	-0.2802399
190	0x3dfe67bc	0.124221295
191	0x3e587ba4	0.21140915
192	0x3dfb4e13	0.12270751
193	0xbea7f4a0	-0.32803822
194	0xbd842e9e	-0.06454204
195	0x3ba74773	0.005104953
196	0xbdc2ed00	-0.095178604
197	0xbe99eb44	-0.30062306
198	0x3d1aa3cc	0.037753865
199	0x3df5319a	0.11972351
200	0xbe7132e3	-0.23554568
201	0x3edeac33	0.43490753
202	0xbe4587c0	-0.19290066
203	0xbe17baed	-0.148174
204	0xbd115c5e	-0.03548848
205	0xbc8af0f7	-0.016960604
206	0x3e83d010	0.25744677
207	0xbef4ea5f	-0.4783506
208	0xbd415972	-0.047204442
209	0xbd85900f	-0.065216176
210	0xbe1c8170	-0.15283751
211	0x3e278c24	0.16362053
212	0xbdfcee83	-0.1235018
213	0xbc8386a6	-0.016055416
214	0x3e0402bf	0.12891673
215	0xbda58626	-0.080822274
216	0x3eed08f3	0.4629589
217	0xbe60f7a9	-0.21969475
218	0xbea264bd	-0.31717482
219	0xbd1a7492	-0.037708826
220	0xbe1f352a	-0.15547624
221	0x3df12a64	0.117756635
222	0xbee9455d	-0.45560732
223	0xbd537746	-0.05162742
224	0x3ddf028f	0.1088916
225	0xbe354161	-0.17700721
226	0x3eb758c6	0.35809916
227	0x3d40173f	0.04689717
228	0x3c8c1432	0.017099474
229	0x3e9c1013	0.30481014
230	0xbe5831a3	-0.21112685
231	0xbe0b8d44	-0.13628107
232	0x3e6b4bc8	0.22978127
233	0xbe33ec81	-0.17570688
234	0x3e4bb5c0	0.19893551
235	0xbebd99ee	-0.37031502
236	0xbd308129	-0.043091927
237	0x3e498867	0.1968094
238	0xbd948490	-0.07251847
239	0xbe2c90cd	-0.16852112
240	0x3dee9d6a	0.11651118
241	0x3c23b63f	0.009992181
242	0xbe0b47fd	-0.1360168
243	0x3efc7ba8	0.49313092
244	0x3d7c52ea	0.06160251
245	0xbdc13d95	-0.09435574
246	0x3dd05571	0.10172547
247	0x3c484c6b	0.012225251
248	0x3c69b194	0.014263529
249	0xbe69318b	-0.22772805
250	0x3e421876	0.18954644
251	0x3e924b00	0.28572845
252	0x3da24720	0.07923722
253	0xbdb34d71	-0.08755005
254	0xbe48a752	-0.19595078
255	0xbe51d582	-0.20491603

base.mlp.fc_h.0.bias f4 [64]
0	0x00000000	0.0
1	0x00000000	0.0
2	0x00000000	0.0
3	0x00000000	0.0
4	0x00000000	0.0
5	0x00000000	0.0
6	0x00000000	0.0
7	0x00000000	0.0
8	0x00000000	0.0
9	0x00000000	0.0
10	0x00000000	0.0
11	0x00000000	0.0
12	0x00000000	0.0
13	0x00000000	0.0
14	0x00000000	0.0
15	0x00000000	0.0
16	0x00000000	0.0
17	0x00000000	0.0
18	0x00000000	0.0
19	0x00000000	0.0
20	0x00000000	0.0
21	0x00000000	0.0
22	0x00000000	0.0
23	0x00000000	0.0
24	0x00000000	0.0
25	0x00000000	0.0
26	0x00000000	0.0
27	0x00000000	0.0
28	0x00000000	0.0
29	0x00000000	0.0
30	0x00000000	0.0
31	0x00000000	0.0
32	0x00000000	0.0
33	0x00000000	0.0
34	0x00000000	0.0
35	0x00000000	0.0
36	0x00000000	0.0
37	0x00000000	0.0
38	0x00000000	0.0
39	0x00000000	0.0
40	0x00000000	0.0
41	0x00000000	0.0
42	0x00000000	0.0
43	0x00000000	0.0
44	0x00000000	0.0
45	0x00000000	0.0
46	0x00000000	0.0
47	0x00000000	0.0
48	0x00000000	0.0
49	0x00000000	0.0
50	0x00000000	0.0
51	0x00000000	0.0
52	0x00000000	0.0
53	0x00000000	0.0
54	0x00000000	0.0
55	0x00000000	0.0
56	0x00000000	0.0
57	0x00000000	0.0
58	0x00000000	0.0
59	0x00000000	0.0
60	0x00000000	0.0
61	0x00000000	0.0
62	0x00000000	0.0
63	0x00000000	0.0

base.mlp.fc_h.2.weight f4 [64]
0	0x3f800000	1.0
1	0x3f800000	1.0
2	0x3f800000	1.0
3	0x3f800000	1.0
4	0x3f800000	1.0
5	0x3f800000	1.0
6	0x3f800000	1.0
7	0x3f800000	1.0
8	0x3f800000	1.0
9	0x3f800000	1.0
10	0x3f800000	1.0
11	0x3f800000	1.0
12	0x3f800000	1.0
13	0x3f800000	1.0
14	0x3f800000	1.0
15	0x3f800000	1.0
16	0x3f800000	1.0
17	0x3f800000	1.0
18	0x3f800000	1.0
19	0x3f800000	1.0
20	0x3f800000	1.0
21	0x3f800000	1.0
22	0x3f800000	1.0
23	0x3f800000	1.0
24	0x3f800000	1.0
25	0x3f800000	1.0
26	0x3f800000	1.0
27	0x3f800000	1.0
28	0x3f800000	1.0
29	0x3f800000	1.0
30	0x3f800000	1.0
31	0x3f800000	1.0
32	0x3f800000	1.0
33	0x3f800000	1.0
34	0x3f800000	1.0
35	0x3f800000	1.0
36	0x3f800000	1.0
37	0x3f800000	1.0
38	0x3f800000	1.0
39	0x3f800000	1.0
40	0x3f800000	1.0
41	0x3f800000	1.0
42	0x3f800000	1.0
43	0x3f800000	1.0
44	0x3f800000	1.0
45	0x3f800000	1.0
46	0x3f800000	1.0
47	0x3f800000	1.0
48	0x3f800000	1.0
49	0x3f800000	1.0
50	0x3f800000	1.0
51	0x3f800000	1.0
52	0x3f800000	1.0
53	0x3f800000	1.0
54	0x3f800000	1.0
55	0x3f800000	1.0
56	0x3f800000	1.0
57	0x3f800000	1.0
58	0x3f800000	1.0
59	0x3f800000	1.0
60	0x3f800000	1.0
61	0x3f800000	1.0
62	0x3f800000	1.0
63	0x3f800000	1.0

base.mlp.fc_h.2.bias f4 [64]
0	0x00000000	0.0
1	0x00000000	0.0
2	0x00000000	0.0
3	0x00000000	0.0
4	0x00000000	0.0
5	0x00000000	0.0
6	0x00000000	0.0
7	0x00000000	0.0
8	0x00000000	0.0
9	0x00000000	0.0
10	0x00000000	0.0
11	0x00000000	0.0
12	0x00000000	0.0
13	0x00000000	0.0
14	0x00000000	0.0
15	0x00000000	0.0
16	0x00000000	0.0
17	0x00000000	0.0
18	0x00000000	0.0
19	0x00000000	0.0
20	0x00000000	0.0
21	0x00000000	0.0
22	0x00000000	0.0
23	0x00000000	0.0
24	0x00000000	0.0
25	0x00000000	0.0
26	0x00000000	0.0
27	0x00000000	0.0
28	0x00000000	0.0
29	0x00000000	0.0
30	0x00000000	0.0
31	0x00000000	0.0
32	0x00000000	0.0
33	0x00000000	0.0
34	0x00000000	0.0
35	0x00000000	0.0
36	0x00000000	0.0
37	0x00000000	0.0
38	0x00000000	0.0
39	0x00000000	0.0
40	0x00000000	0.0
41	0x00000000	0.0
42	0x00000000	0.0
43	0x00000000	0.0
44	0x00000000	0.0
45	0x00000000	0.0
46	0x00000000	0.0
47	0x00000000	0.0
48	0x00000000	0.0
49	0x00000000	0.0
50	0x00000000	0.0
51	0x00000000	0.0
52	0x00000000	0.0
53	0x00000000	0.0
54	0x00000000	0.0
55	0x00000000	0.0
56	0x00000000	0.0
57	0x00000000	0.0
58	0x00000000	0.0
59	0x00000000	0.0
60	0x00000000	0.0
61	0x00000000	0.0
62	0x00000000	0.0
63	0x00000000	0.0

base.mlp.fc2.0.0.weight f4 [64, 64]
0	0x3e183a5f	0.14866017
1	0xbe059d88	-0.13048375
2	0x3e0a2d24	0.13493782
3	0x3e8c92fc	0.2745589
4	0xbeb4ae09	-0.35289028
5	0x3e388462	0.1801925
6	0xbe090808	-0.1338197
7	0xbe1a456f	-0.1506555
8	0xbe0c08d5	-0.13675244
9	0x3e33fb68	0.17576373
10	0x3d7b2f5f	0.061324473
11	0xbeca4cd4	-0.3951174
12	0xbec28aa8	-0.3799641
13	0xbe5db105	-0.21649559
14	0xbd4d2c33	-0.05009098
15	0x3dc6e384	0.09711364
16	0xbd9df23b	-0.077122174
17	0x3e304e3a	0.17217341
18	0x3e360b2d	0.177777
19	0xbe3155bb	-0.1731786
20	0xbdbd7995	-0.092517056
21	0x3c7f0988	0.015566237
22	0x3ef736a4	0.48283875
23	0xbe8bd40a	-0.2731021
24	0x3dd5cfe9	0.10440046
25	0xbcf164c8	-0.029467002
26	0xbdac201f	-0.08404564
27	0x3ebf3db3	0.3735176
28	0x3e36e65f	0.17861317
29	0x3dbec355	0.093146004
30	0xbdae25d9	-0.085033126
31	0xbde9ae2c	-0.11410174
32	0x3ef5d76b	0.48015913
33	0x3db501de	0.08838247
34	0x3dd52b30	0.10408628
35	0xbeb8787c	-0.36029422
36	0x3e287d91	0.1645415
37	0xbf1af485	-0.6052936
38	0xbea04ad6	-0.31307095
39	0xbd6a7ec7	-0.05724981
40	0xbd85c808	-0.065322936
41	0x3ccaa5ac	0.024737202
42	0xbe8aca43	-0.27107438
43	0xbe424fae	-0.18975708
44	0x3e9eeeac	0.31041467
45	0xbd915e2f	-0.07098042
46	0x3dcc3dcb	0.099727236
47	0x3e9bab53	0.30404148
48	0xbd95adc9	-0.073085375
49	0x3e0acf04	0.13555533
50	0x3e4fdbe4	0.20298725
51	0xbe8b5618	-0.27214122
52	0x3e4028da	0.18765584
53	0xbd487cb8	-0.048947066
54	0x3e8aa78f	0.27080962
55	0xbe40a793	-0.18813924
56	0xbe3ffcc8	-0.18748772
57	0x3d9990e8	0.07498342
58	0x3e08d990	0.13364244
59	0xbe106fdf	-0.14105175
60	0xbe90f662	-0.28312975
61	0xbe80f0c7	-0.251837
62	0xbe8171e5	-0.25282207
63	0xbe8f3a37	-0.27974102
64	0x3efed7dc	0.49774063
65	0x3d860dea	0.06545623
66	0xbdad4ab6	-0.084615156
67	0xbe50d406	-0.2039338
68	0x3d307e5e	0.043089263
69	0x3f70aea9	0.9401651
70	0xbf051305	-0.51982147
71	0x3d352af7	0.044230428
72	0xbe17c0b1	-0.148196
73	0xbd66682b	-0.056251686
74	0xbec4c8a5	-0.3843433
75	0x3c90ae26	0.017661165
76	0xbd772afd	-0.06034373
77	0x3e114097	0.14184795
78	0xbddde126	-0.10833959
79	0x3e38b7d2	0.18038872
80	0xbdb40b10	-0.087911725
81	0xbe7b150c	-0.24519747
82	0x3e5684ae	0.20949051
83	0x3e1aeb72	0.15128878
84	0x3dd15986	0.10222153
85	0x3cb614ae	0.022226658
86	0x3cb3f369	0.021966653
87	0xbe2abd90	-0.16673875
88	0x3e0d6945	0.13809688
89	0xbe831ef0	-0.2560954
90	0xbb99f4e4	-0.0046983827
91	0x3e4e6ef6	0.20159516
92	0xbdd3f790	-0.10349953
93	0x3ea58581	0.32328418
94	0x3e0d7384	0.13813597
95	0x3db0ab1b	0.08626386
96	0xbea0e81f	-0.31427094
97	0x3d16455d	0.036687244
98	0xbc389674	-0.01126634
99	0x3e050fd6	0.12994322
100	0xbe7ab0a9	-0.24481453
101	0x3e054e5a	0.1301817
102	0x3e5b3e34	0.21410447
103	0x3ddf8311	0.10913671
104	0xbee5cc30	-0.44882345
105	0x3e0f5d27	0.14000379
106	0x3e50add9	0.20378818
107	0xbe69f9ed	-0.22849245
108	0x3edd1893	0.4318281
109	0xbebf5be9	-0.3737481
110	0xbe0a6d50	-0.13518262
111	0x3dd22037	0.10260051
112	0x3d4af0e8	0.049546152
113	0x3d73ccbc	0.05952142
114	0xbd99b717	-0.07505625
115	0x3f0601d1	0.5234652
116	0xbe326ecc	-0.17425078
117	0xbe8eff85	-0.2792932
118	0xbd93c9c8	-0.07216221
119	0xbd4e3b93	-0.050349783
120	0xbe109e86	-0.14122972
121	0xbdb755f2	-0.0895194
122	0xbd39e02b	-0.0453798
123	0x3e46ef0d	0.19427128
124	0x3cf53b0a	0.029935379
125	0xbdeb321d	-0.11484168
126	0x3e6502bf	0.22364329
127	0x3d8b995e	0.06816362
128	0xbee2085f	-0.44147012
129	0x3dd23c8a	0.10265453
130	0x3e848f27	0.25890467
131	0xbd3486b0	-0.04407376
132	0xbd11bcd8	-0.035580486
133	0xbe4b8700	-0.19875717
134	0xbe268615	-0.16262086
135	0x3cd581ea	0.026062924
136	0xbe3bad04	-0.18327719
137	0x3e763f4b	0.24047582
138	0xbe537a68	-0.20652163
139	0xbe08244c	-0.13295096
140	0x3f0db31b	0.5535142
141	0x3c157c34	0.009123851
142	0xbe05614e	-0.130254
143	0xbdf5161b	-0.11967107
144	0xbdade1c0	-0.08490324
145	0x3ee0f158	0.4393413
146	0x3e230ebe	0.15923592
147	0x3ee99f8e	0.45629543
148	0x3e8e50cc	0.27796018
149	0xbda7e476	-0.08197872
150	0x3eae8ebb	0.3409327
151	0x3ec94383	0.3930932
152	0x3e491433	0.19636612
153	0x3e87cfe9	0.2652581
154	0x3e51634c	0.20448035
155	0x3dbbee8d	0.09176359
156	0xbe37b3b6	-0.17939648
157	0xbd24806f	-0.040161546
158	0xbeba8d2f	-0.3643584
159	0xbd91c336	-0.07117312
160	0x3dc12836	0.09431498
161	0x3db7e091	0.089783795
162	0xbeb39edf	-0.35082147
163	0x3e0a2d00	0.13493729
164	0x3d9a2bd8	0.07527894
165	0xbe55a2d2	-0.20862892
166	0xbc990eee	-0.018683877
167	0x3e2f45a9	0.17116417
168	0x3dc2b3fb	0.09506985
169	0xbd735523	-0.059407365
170	0x3ea13cc8	0.31491685
171	0x3e3b4b70	0.18290496
172	0xbe6f5041	-0.23370458
173	0x3e67ef3e	0.22649857
174	0xbe398c41	-0.18119909
175	0x3dd94078	0.106079996
176	0xbdf25d04	-0.118341476
177	0x3d821013	0.06350722
178	0x3e1d9140	0.1538744
179	0x3e3d16dc	0.18465751
180	0xbdc183e7	-0.094489865
181	0x3e2f1585	0.17098053
182	0x3ece2443	0.4026204
183	0xbcc04b94	-0.023473538
184	0xbc06eea5	-0.008235608
185	0xbd3ce633	-0.046117973
186	0xbe23f58d	-0.16011639
187	0xbeeddf0f	-0.46459243
188	0x3e125e81	0.14293863
189	0xbe9dd9eb	-0.3083032
190	0x3d88527c	0.06656358
191	0x3e0f007a	0.13965026
192	0x3df3d056	0.11904971
193	0xbea7b2b3	-0.32753524
194	0xbd6018bc	-0.05471109
195	0x3cb43d71	0.022001954
196	0xbd62d3ff	-0.055377956
197	0xbeae1b19	-0.3400505
198	0x3d4e2500	0.050328255
199	0x3ddeb35b	0.10874053
200	0xbe68f10f	-0.22748207
201	0x3eb38d2c	0.35068643
202	0xbe25374c	-0.16134375
203	0xbe546582	-0.20741847
204	0xbd20ebcb	-0.03928737
205	0x3d4b4d82	0.049634464
206	0x3e2084d3	0.15675668
207	0xbef3b1d3	-0.47596607
208	0xbd86fcc7	-0.06591182
209	0xbd11ef8b	-0.035628837
210	0xbe518c2a	-0.20463625
211	0x3e55cf35	0.20879824
212	0xbe3c21d5	-0.18372281
213	0xbb0f4967	-0.002186382
214	0x3d8de02f	0.06927525
215	0xbdd1744a	-0.102272585
216	0x3f04d509	0.51887566
217	0xbe675f92	-0.22595051
218	0xbe9dfafb	-0.30855545
219	0xbd553a78	-0.052057713
220	0xbdb586ca	-0.088635996
221	0x3e11295f	0.14175938
222	0xbf02bbfc	-0.5106809
223	0xbdc57453	-0.09641328
224	0x3d6ef9e4	0.058343783
225	0xbe517b2b	-0.20457141
226	0x3ecb9d12	0.39768273
227	0x3dba2e0c	0.09090814
228	0xbb3c8576	-0.0028766072
229	0x3e9f22ca	0.3108123
230	0xbe58a752	-0.21157578
231	0xbdc25cb5	-0.09490339
232	0x3e8764ab	0.2644399
233	0xbe122c9c	-0.1427483
234	0x3e6a6e2a	0.22893587
235	0xbebed8f6	-0.37274903
236	0xbc8fcdc0	-0.017554164
237	0x3e325831	0.17416455
238	0xbd8f8863	-0.070084356
239	0xbe60ab3f	-0.21940325
240	0x3e05f21d	0.1308064
241	0x3d462ceb	0.04838268
242	0xbda81ffa	-0.08209224
243	0x3ede866f	0.4346194
244	0x3c68ba02	0.014204504
245	0xbd8d7575	-0.06907169
246	0x3defb8d9	0.11705179
247	0x3d0c6cbc	0.034283385
248	0x3cc69790	0.024242193
249	0xbe8d9ed5	-0.27660242
250	0x3e79a9fb	0.24381249
251	0x3eb5c312	0.3550039
252	0x3cf8af74	0.0303571
253	0xbc788969	-0.01516948
254	0xbe3958ff	-0.18100356
255	0xbe6c3199	-0.23065795

base.mlp.fc2.0.0.bias f4 [64]
0	0xbcde7d3b	-0.027159324
1	0xbd8e44bf	-0.06946706
2	0xbd8adba5	-0.06780175
3	0xbc777139	-0.015102678
4	0x3cb9e813	0.02269367
5	0xbd11b8d8	-0.03557667
6	0x3d493f19	0.04913244
7	0xbc5daf4a	-0.013530562
8	0xbc8a1537	-0.01685582
9	0x3d606510	0.05478388
10	0xbc551a64	-0.01300678
11	0xbd82a0ea	-0.06378348
12	0x3d97a9d8	0.07405442
13	0x3dacfa3d	0.08446167
14	0x3d1fdfcf	0.0390318
15	0x3bd947b5	0.0066308626
16	0xbdddc80b	-0.10829171
17	0x3dc4a7f7	0.09602349
18	0xbd19b461	-0.03752554
19	0xbbd5f0a7	-0.006528932
20	0x3d1b92d1	0.037981812
21	0xbc10008e	-0.008789195
22	0x3cdd116a	0.026985843
23	0x3ccfea31	0.025380226
24	0x3d348193	0.044068884
25	0x3d86ac28	0.06575805
26	0xbd3f5330	-0.046710193
27	0x3cb7998c	0.022412084
28	0x3d4ca80d	0.049964953
29	0xbd77644f	-0.060398396
30	0x3b90360f	0.0044009755
31	0xbaa2fcbb	-0.0012434939
32	0x3db15c9b	0.08660241
33	0xbd45d763	-0.048301112
34	0xbd32da1e	-0.043665044
35	0x3c9c7723	0.019099778
36	0xbda60f21	-0.08108354
37	0x3d7f31db	0.062303405
38	0xbb94a381	-0.0045360927
39	0x3d6382e7	0.05554476
40	0x3ce71513	0.028208291
41	0x3d018a83	0.031626236
42	0x3c6aa7ae	0.0143222045
43	0xbb14ec27	-0.0022723766
44	0xbca8b0e9	-0.02059217
45	0x3d0fc510	0.035100043
46	0xbde7ace2	-0.11312272
47	0x3d91e0bb	0.07122942
48	0xbdda5695	-0.106610455
49	0x3b22de8b	0.0024851884
50	0xbdc07862	-0.09397961
51	0xbd2d8809	-0.04236606
52	0x3a849627	0.001011555
53	0x3d6d600d	0.05795293
54	0xbc85c6df	-0.01633018
55	0x3d4db2fc	0.05021952
56	0x3d4f5803	0.050621044
57	0xbdd5529a	-0.104161456
58	0xbcb5db9f	-0.02219945
59	0xbc3f43ef	-0.0116739115
60	0xbd1b3e5a	-0.03790126
61	0xbd0fb677	-0.03508612
62	0xbaa037a4	-0.0012223613
63	0x3a84539e	0.0010095721

base.mlp.fc2.0.2.weight f4 [64]
0	0x3f7bb137	0.98317283
1	0x3f8a8675	1.0822283
2	0x3f805507	1.0025948
3	0x3f7fef1d	0.9997423
4	0x3f944e76	1.1586444
5	0x3f827f35	1.019507
6	0x3f7b70b6	0.9821886
7	0x3f83ef0d	1.0307328
8	0x3f7b29b5	0.98110515
9	0x3f77047d	0.96491224
10	0x3f7f692c	0.99769855
11	0x3f7a8ee2	0.9787427
12	0x3f63e684	0.89023614
13	0x3f8413d0	1.0318546
14	0x3f8cbbb4	1.0994782
15	0x3f803e75	1.001906
16	0x3f716553	0.94295233
17	0x3f8056c4	1.0026479
18	0x3f72efe3	0.9489729
19	0x3f96a09b	1.1767763
20	0x3f798ada	0.97477496
21	0x3f820ec3	1.0160755
22	0x3f54f85c	0.83191466
23	0x3f80d767	1.0065736
24	0x3f6ca255	0.924352
25	0x3f6fa7d4	0.9361546
26	0x3f75f7e2	0.96081364
27	0x3f6f5292	0.9348537
28	0x3f7d1eeb	0.988753
29	0x3f830fe7	1.0239228
30	0x3f8dbba3	1.1072887
31	0x3f7be455	0.9839528
32	0x3f7aa40c	0.97906566
33	0x3f8cabd3	1.0989937
34	0x3f82e26e	1.0225351
35	0x3f702971	0.93813235
36	0x3f87eb65	1.0618712
37	0x3f8ea15d	1.1142994
38	0x3f759bf6	0.959411
39	0x3f7fe18f	0.9995355
40	0x3f61b321	0.88163954
41	0x3f845279	1.0337669
42	0x3f8eda6f	1.1160411
43	0x3f83dba1	1.03014
44	0x3f79b713	0.97544974
45	0x3f7c3032	0.9851104
46	0x3f67ed78	0.90596724
47	0x3f8e42c9	1.1114131
48	0x3f792526	0.9732231
49	0x3f7c1428	0.98468256
50	0x3f6fedf7	0.9372248
51	0x3f96b79b	1.1774782
52	0x3f7d5ebf	0.98972696
53	0x3f582556	0.8443197
54	0x3f7c1004	0.9846194
55	0x3f89f6ec	1.077848
56	0x3f831775	1.0241534
57	0x3f5fd682	0.8743669
58	0x3f564877	0.8370432
59	0x3f87e68e	1.0617235
60	0x3f834401	1.0255128
61	0x3f7c034a	0.9844252
62	0x3f82b35c	1.0210986
63	0x3f8ce7e9	1.1008273

base.mlp.fc2.0.2.bias f4 [64]
0	0x3d162cd1	0.036663834
1	0xbcae812d	-0.02130183
2	0x3ca0ccca	0.019628901
3	0xbcbb1d8a	-0.022841234
4	0xba99d765	-0.0011737166
5	0x3d17450e	0.03693109
6	0xbc95288e	-0.018207815
7	0xbc566fd9	-0.01308819
8	0xbd7567c0	-0.059913397
9	0xbceca904	-0.028889187
10	0xbc09e4f7	-0.008416406
11	0x3c26c9d3	0.010179955
12	0xbbd8e496	-0.0066190464
13	0x3c8c6aca	0.017140765
14	0xbaa113fe	-0.0012289283
15	0xbc82ec5f	-0.015981851
16	0x3c965718	0.018352076
17	0x3cbe47ea	0.02322765
18	0x3d907636	0.07053797
19	0xbca0ea51	-0.01964298
20	0x3b8fde6d	0.004390529
21	0x3d1a43b0	0.037662208
22	0x3bc28610	0.0059363917
23	0xbae7464a	-0.0017644849
24	0x3cdbbd29	0.026823597
25	0x3c26d0d7	0.010181627
26	0xbc9bf156	-0.019035976
27	0x3d828a25	0.06374005
28	0xbc6ad766	-0.014333582
29	0x3b203cbf	0.002445027
30	0xbbd552c4	-0.0065101106
31	0x3ca8c647	0.020602359
32	0xbca0b8fa	-0.019619454
33	0x3ca9021f	0.020630894
34	0xbb8a8784	-0.0042275805
35	0x3c750f5a	0.014957273
36	0xbd3d2b7f	-0.04618406
37	0xbc40bd89	-0.011763939
38	0x3d163f17	0.03668126
39	0xbcde37ed	-0.027126277
40	0xbb2c725f	-0.0026313288
41	0x3c72544c	0.014790606
42	0x3b3e4bd2	0.0029036892
43	0xbd330093	-0.04370172
44	0x3ba55c1c	0.0050463807
45	0x3d65366f	0.055960115
46	0xbbd5d344	-0.006525429
47	0x3d53d550	0.051717103
48	0xbd07bdf1	-0.033140127
49	0xbd71fcd3	-0.059079003
50	0x3d28ac18	0.041179746
51	0xbd205742	-0.039145716
52	0xbcc57cfb	-0.024107447
53	0xbd801d5f	-0.06255602
54	0xbbc6154f	-0.0060450207
55	0x3d07332b	0.033007782
56	0x3c892563	0.01674146
57	0xbd4fa6be	-0.050696127
58	0xbd0f7b50	-0.03502971
59	0x3d3f8a49	0.04676274
60	0x3c3fb2b6	0.011700323
61	0x3c809884	0.015697725
62	0x3c4157de	0.011800734
63	0xbcfeecdd	-0.031118805

rnn.rnn.weight_ih_l0 f4 [192, 64]
0	0x3e182a60	0.14859915
1	0xbdb9958c	-0.09061727
2	0x3cac14d5	0.021006027
3	0x3e079a52	0.13242462
4	0xbe4da669	-0.20083012
5	0xbe0eca69	-0.13944401
6	0x3bec5a1d	0.007212891
7	0xbd31e084	-0.043427005
8	0x3df18b44	0.11794141
9	0xbe584563	-0.21120219
10	0x3dd3e8dd	0.103471495
11	0x3e853425	0.26016346
12	0x3e03f33c	0.12885755
13	0xbc9e0f65	-0.01929445
14	0xbdaeb8f7	-0.08531373
15	0xbd09847e	-0.03357362
16	0xbd889144	-0.06668332
17	0xbcfdf4a7	-0.031000448
18	0xbe024467	-0.12721406
19	0x3d732840	0.059364557
20	0xbcea4ff2	-0.028602574
21	0x3b3d8379	0.0028917475
22	0xbe168dd4	-0.1470254
23	0xbe1a6517	-0.15077625
24	0x3ae718e0	0.0017631315
25	0x3e193880	0.1496296
26	0x3dc4a397	0.09601515
27	0xbd416991	-0.047219817
28	0x3b7442ff	0.0037271378
29	0x3c1fccbc	0.009753402
30	0xbdc82c2c	-0.0977405
31	0xbdb4a85d	-0.08821175
32	0xbccb753e	-0.024836179
33	0x3e05125c	0.12995285
34	0x3db97b3a	0.09056707
35	0xbd96afe6	-0.07357769
36	0x3cee7ac2	0.02911127
37	0x3dc1693f	0.09443902
38	0x3cde9f57	0.027175589
39	0x3d3aa091	0.045563284
40	0xbdfae813	-0.12251296
41	0x3dda563c	0.10660979
42	0x3ca75383	0.020425564
43	0x3b0d6568	0.0021575335
44	0x3e5d9af6	0.21641144
45	0xbd95d4f7	-0.073160104
46	0xbbceb7b8	-0.006308522
47	0xbc6197bb	-0.0137690855
48	0x3dd197c2	0.10234024
49	0xbd234158	-0.03985724
50	0xbd282df8	-0.041059464
51	0xbe2431e9	-0.16034664
52	0xbde90274	-0.11377421
53	0x3cc8ac06	0.02449609
54	0xbe0b58c1	-0.13608076
55	0x3d5ee71c	0.05441962
56	0xbdd21cc3	-0.10259392
57	0x3c2a91ad	0.010410708
58	0xbde7eb19	-0.11324138
59	0x3cbc26e7	0.022967769
60	0x3e5e2b68	0.21696246
61	0xbe1882b5	-0.14893611
62	0x3c8e6ca0	0.01738578
63	0xbdf367ab	-0.118850075
64	0xbd75887c	-0.059944615
65	0x3e1bd2d3	0.15217142
66	0xbe1ec208	-0.15503705
67	0x3ddfd68e	0.10929595
68	0x3da5a020	0.08087182
69	0x3e24efd0	0.16107106
70	0x3db8374e	0.089949235
71	0x3e995c58	0.29953265
72	0x3d3a9c8c	0.04555945
73	0x3d3d7f86	0.046264194
74	0xbd79207a	-0.060821988
75	0xbe23b2e7	-0.15986215
76	0xbd955af1	-0.07292736
77	0x3c9abbba	0.018888343
78	0x3e257e73	0.16161518
79	0xbe9f8cc3	-0.3116208
80	0x3cfd4174	0.030915
81	0xbe1d9a76	-0.15390953
82	0xbcb31517	-0.021860642
83	0xbb896150	-0.0041925088
84	0x3d4af0e6	0.049546145
85	0x3ab21f11	0.0013589581
86	0x3d26c287	0.04071286
87	0x3c383dfb	0.011245246
88	0xbcf700fd	-0.030151838
89	0xbdf70861	-0.12062145
90	0xbdbbf6a9	-0.09177906
91	0x3cca208c	0.024673723
92	0xbce935c3	-0.028468018
93	0x3cebc7cb	0.028781792
94	0xbd6dc5e5	-0.058050055
95	0xbdcd72bf	-0.10031652
96	0xbe0f3414	-0.1398471
97	0xbe03fcbb	-0.12889378
98	0xbdeb55f0	-0.11491001
99	0x3d835eb5	0.06414548
100	0xbd3d2a9d	-0.046183217
101	0x3c45e1af	0.012077733
102	0xbe9e19a3	-0.30878934
103	0xbe2e404f	-0.1701672
104	0xbbec5492	-0.00721223
105	0xbd9179ea	-0.071033314
106	0xbd1392d5	-0.0360287
107	0x3e063167	0.13104783
108	0x3e412ee4	0.18865544
109	0x3e05f927	0.13083325
110	0xbe285ce1	-0.1644168
111	0x3b6943a6	0.00355933
112	0xbd6ebb4b	-0.058284085
113	0xbda1e0b3	-0.07904186
114	0x3d9c857f	0.0764265
115	0x3e43a5ba	0.19106188
116	0xbd65c6f5	-0.056097943
117	0x3cae586a	0.021282393
118	0x3e6be5d7	0.23036896
119	0x3d39d7b6	0.045371734
120	0x3e93ed04	0.28891766
121	0x3c0f90e7	0.008762575
122	0x3e34b41f	0.17646836
123	0xbcd31316	-0.025765937
124	0xbd1a9940	-0.037743807
125	0x3d8acab3	0.06776943
126	0x3e89cd47	0.26914427
127	0x3d9dc837	0.077042036
128	0x3c58065c	0.01318511
129	0x3e522d2c	0.20525044
130	0x3c480724	0.012208734
131	0xbc96b554	-0.01839701
132	0x3dc2ec93	0.09517779
133	0x3e87043e	0.26370424
134	0xbd6968a0	-0.056984544
135	0x3ea40bf7	0.32040378
136	0x3c029c22	0.007971795
137	0xbbb41705	-0.005495908
138	0x3df33d1c	0.1187689
139	0xbe3298d0	-0.17441106
140	0xbcb3947e	-0.021921393
141	0x3d15e03d	0.036590803
142	0xbd75c7e5	-0.060005087
143	0x3d691b18	0.056910604
144	0x3e8ef5b0	0.2792182
145	0x3da60c5c	0.08107826
146	0x3e043d53	0.12914018
147	0x3d9eac26	0.077476785
148	0xbcb58ad6	-0.022160929
149	0x3d05bf4b	0.032653134
150	0xbc997b38	-0.018735513
151	0x3de82568	0.1133526
152	0xbd2796e4	-0.040915385
153	0xbd4c2c7b	-0.049847107
154	0xbd0a33a3	-0.03374065
155	0x3e3f857a	0.18703261
156	0x3ce44495	0.027864734
157	0xbe143327	-0.14472638
158	0xbd3b297d	-0.045693863
159	0xbd98c7d6	-0.07459991
160	0xbe97370f	-0.29534194
161	0xbb986fd8	-0.0046520047
162	0xbdea7163	-0.11447408
163	0x3c9b8e9f	0.018988905
164	0xbe00ed54	-0.12590533
165	0xbd83db4a	-0.064383104
166	0xbd8dc2f2	-0.069219485
167	0xbe2fee41	-0.1718073
168	0xbe093d28	-0.13402236
169	0xbe6f6163	-0.23376994
170	0xbd46a4b3	-0.048496913
171	0xbd25c849	-0.04047421
172	0x3d6c373f	0.057669874
173	0xbdacef07	-0.08444028
174	0xbe0d31d1	-0.13788535
175	0xbe0a6911	-0.13516642
176	0xbcaad0bc	-0.020851485
177	0x3d69b58f	0.057057913
178	0x3d069cfd	0.03286456
179	0x3d75502c	0.05989091
180	0xbce400cc	-0.027832411
181	0x3bb25365	0.0054420703
182	0x3e23c253	0.15992098
183	0xbdb3bfdb	-0.08776828
184	0x3d6b64ca	0.057469167
185	0xbd387c73	-0.04504056
186	0x3d887ba9	0.06664211
187	0x3e0ebbe8	0.13938868
188	0x3c78d825	0.015188252
189	0xbbd98007	-0.0066375765
190	0x3e061fc7	0.1309806
191	0xbda83651	-0.08213485
192	0xbc8f1973	-0.01746819
193	0x3ea3bea4	0.31981385
194	0xbe46772c	-0.19381398
195	0xbda0c6cd	-0.07850418
196	0xbdb62589	-0.08893878
197	0x3deda47a	0.11603637
198	0xbd768842	-0.06018854
199	0x3e374ac6	0.17899618
200	0xbe0d636f	-0.13807462
201	0xbd60fbb1	-0.05492753
202	0xbd84a7b0	-0.06477296
203	0xbda0597f	-0.0782957
204	0xbdcd7f67	-0.10034066
205	0x3e2a21d3	0.16614465
206	0x3d0afd1c	0.03393279
207	0xbe0ea303	-0.13929372
208	0x3dbc1942	0.09184505
209	0x3dfe5f0c	0.124204725
210	0x3d6cccc2	0.05781246
211	0xbe11577b	-0.14193527
212	0xbe0c3777	-0.13693033
213	0x3e19c4cb	0.15016477
214	0xbc647ac7	-0.013945288
215	0xbdf95543	-0.121744655
216	0xbe5b1b4e	-0.21397135
217	0xbdb00e08	-0.08596426
218	0xbe25160d	-0.16121693
219	0x3dd6f8e5	0.104966916
220	0xbcc8f43a	-0.024530519
221	0xbc390ae4	-0.0112941
222	0xbe4ab0f0	-0.19794059
223	0xbd4b07c8	-0.049567968
224	0xbe99cd7a	-0.3003958
225	0x3bc5ab9a	0.0060324194
226	0x3e3b19b3	0.18271522
227	0xbe096574	-0.13417608
228	0x3d7e380c	0.06206517
229	0x3d99b356	0.07504909
230	0xbca1c16c	-0.019745551
231	0x3d0c6f0e	0.034285598
232	0xbd505fba	-0.050872542
233	0xbe616ff7	-0.22015367
234	0x3e05d946	0.13071164
235	0xbdb970e7	-0.090547375
236	0x3cdacb7e	0.02670836
237	0xbe30250b	-0.17201631
238	0xbd96390d	-0.073351
239	0xbdc26b60	-0.094931364
240	0xbddbd831	-0.107345946
241	0xbc8ecc0b	-0.01743128
242	0x3db80583	0.08985426
243	0x3d3aa735	0.045569617
244	0xbc83a98f	-0.016072063
245	0x3d917482	0.071023
246	0x3e128a12	0.14310482
247	0xbd00d809	-0.031456027
248	0x3bf6a5d4	0.0075270925
249	0xbba2042d	-0.0049443454
250	0x3e0e15bb	0.13875477
251	0xbd9d1709	-0.07670409
252	0x3df0c52e	0.11756359
253	0x3d8defd5	0.0693051
254	0x3cd37f2a	0.025817472
255	0x3c9fbcd9	0.01949923

rnn.rnn.weight_hh_l0 f4 [192, 64]
0	0x3d3d9be2	0.04629124
1	0xbe10b60c	-0.14131945
2	0x3e05d11c	0.1306805
3	0xbe4fe0ef	-0.20300649
4	0xbd464ba6	-0.048411988
5	0x3e535909	0.20639433
6	0x3c63d504	0.013905767
7	0x3dbefa59	0.09325094
8	0xbe1f6744	-0.15566736
9	0x3af8294f	0.0018933209
10	0x3e2e69de	0.17032573
11	0xbcb1adea	-0.021689374
12	0x3d7a6841	0.06113458
13	0x3cd62c7c	0.026144259
14	0xbe1e91e9	-0.15485348
15	0xbe3c82ab	-0.18409221
16	0xbe005d25	-0.12535532
17	0xbe236c99	-0.15959395
18	0xbe108f67	-0.14117204
19	0x3e0694b5	0.13142665
20	0x3d8e182c	0.06938204
21	0x3de3c2f6	0.1112117
22	0xbe6d3578	-0.23164928
23	0xbc9236ba	-0.017848361
24	0xbdb41ac7	-0.0879417
25	0x3cac558e	0.02103689
26	0xbda4bb90	-0.08043587
27	0x3e23f8e1	0.16012909
28	0x3cb2f476	0.021845084
29	0x3ea07a2c	0.3134321
30	0x3d16dd6e	0.036832266
31	0xbd3e7a48	-0.046503335
32	0x3e6b2849	0.22964586
33	0xbe357410	-0.17720056
34	0x3d31d4e1	0.043415908
35	0x3d9365b6	0.07197134
36	0xbd5537d1	-0.052055184
37	0x3e0e62ff	0.13904952
38	0x3d2eef66	0.042708777
39	0xbc120714	-0.00891282
40	0xbd7dd1e1	-0.061967734
41	0x3d7ccc45	0.061718244
42	0x3c890e5b	0.016730478
43	0xbd88fe57	-0.066891365
44	0xbe0eb960	-0.13937902
45	0x3d2bf086	0.041977428
46	0x3d59c62a	0.0531675
47	0x3e34511a	0.17609063
48	0xbcf42ebb	-0.02980744
49	0x3d3b1eb9	0.045683596
50	0x3e1181cc	0.1420967
51	0x3db03bd8	0.08605164
52	0x3c5682b7	0.013092688
53	0xbe6021d3	-0.21887903
54	0x3c542eb3	0.012950587
55	0xbd6dc253	-0.05804665
56	0xbe866fac	-0.26257074
57	0xbe10be69	-0.14135136
58	0xbe0c39cb	-0.13693921
59	0x3d2c4019	0.042053316
60	0x3cca93c0	0.024728656
61	0xbe690ace	-0.22758028
62	0xbdcae605	-0.09907154
63	0x3dd6a7fa	0.10481258
64	0x3caca5d6	0.02107517
65	0xbdafbf98	-0.085814655
66	0xbe204795	-0.15652306
67	0xbda55f2f	-0.080747955
68	0x3da11dcb	0.07867011
69	0x3ce312c9	0.027718918
70	0x3d8603d5	0.065437
71	0x3c36662e	0.01113276
72	0x3d81b5f9	0.06333537
73	0x3c57b541	0.013165773
74	0xbd35c9dc	-0.04438196
75	0xbd143976	-0.03618761
76	0x3cc92daa	0.024557907
77	0x3df2afe5	0.118499555
78	0xbe1dd5af	-0.15413545
79	0xbd8c07ec	-0.068374485
80	0x3d9ad8a0	0.07560849
81	0x3cacbf38	0.021087274
82	0x3df9e38e	0.12201606
83	0x3e15248d	0.14564724
84	0x3c84371c	0.01613956
85	0xbe3fb840	-0.1872263
86	0x3d65508b	0.055985015
87	0xbe92ebe3	-0.28695592
88	0x3e49b90f	0.196995
89	0x3cf02b67	0.02931757
90	0xbdc2b875	-0.09507839
91	0x3dfa5da3	0.12224891
92	0x3bdcab66	0.0067342995
93	0x3c5ba388	0.013405688
94	0x3e5223d5	0.20521481
95	0x3d82c9c1	0.06386138
96	0xbe24b072	-0.16082934
97	0x3d64169c	0.055685624
98	0xbca6a20f	-0.020340947
99	0x3c9dff4e	0.019286778
100	0x3e02d9dd	0.12778421
101	0xbe21efc3	-0.15814118
102	0xbd41245f	-0.047153827
103	0xbda82b4e	-0.08211385
104	0xbe1039d1	-0.14084555
105	0x3c1ab358	0.009442173
106	0xbd51b7d5	-0.051200707
107	0xbe57741f	-0.2104039
108	0x3d803d60	0.06261706
109	0xbd20c2ef	-0.039248403
110	0x3c3cb3f5	0.0115175145
111	0x3e52e482	0.20594981
112	0xbdd9121a	-0.10599156
113	0x3de8c2b1	0.113652594
114	0x3e0a41a6	0.13501605
115	0xbd5e4b86	-0.054271244
116	0x3d8e2c66	0.06942062
117	0x3de323b6	0.11090796
118	0x3cb98c77	0.022649987
119	0xbdf318e4	-0.11869982
120	0xbd84bca9	-0.064812966
121	0x3dcf1758	0.10111874
122	0x3cfc612e	0.030808058
123	0xbcb9aff6	-0.022666913
124	0x3dbd2c46	0.0923696
125	0xbd2ab35c	-0.041674957
126	0xbe1c7101	-0.15277483
127	0x3d3d32c2	0.046190985
128	0xbda635ae	-0.08115707
129	0xbdc8aeb8	-0.0979895
130	0xbd8f61be	-0.07001065
131	0xbc432c86	-0.011912471
132	0x3df335b7	0.1187548
133	0x3e0bdd8d	0.13658734
134	0x3d1eee69	0.038801584
135	0xbd6b65f7	-0.057470288
136	0x3de71d6f	0.11284911
137	0xbd9904e5	-0.07471637
138	0xbd860f58	-0.06545895
139	0x3a98acc6	0.001164817
140	0x3d5ea90b	0.05436043
141	0xbdd9a3c7	-0.10626941
142	0x3e01e20b	0.12683885
143	0x3d79e8c3	0.061012994
144	0x3dad733d	0.084692456
145	0xbbe23d38	-0.0069042705
146	0x3e3f3033	0.1867073
147	0x3df20877	0.11818021
148	0xbc633223	-0.013866934
149	0xbdf9d270	-0.12198341
150	0x3ec8a03d	0.39184752
151	0x3d7de3b6	0.06198474
152	0x3d8554d5	0.06510321
153	0x3d710f5e	0.058852546
154	0x3b1917ca	0.0023360127
155	0xbdaea07c	-0.08526704
156	0xbe494ab8	-0.19657409
157	0xbc17dbc0	-0.009268701
158	0x3dbe17d6	0.0928189
159	0xbc361b75	-0.011114945
160	0x3e050ee1	0.12993957
161	0x3e270dfd	0.1631393
162	0x3e118f41	0.14214803
163	0xbdd28551	-0.10279334
164	0x3df4750c	0.119363874
165	0xbd819fcd	-0.06329308
166	0xbd9c115e	-0.076205
167	0x3beabffa	0.0071639987
168	0xbdec0ca5	-0.11525849
169	0x3d97ef13	0.07418647
170	0xbe143a34	-0.14475328
171	0x3d10c0df	0.035340186
172	0xbc0e56c7	-0.0086876815
173	0xbe1006e7	-0.14065133
174	0xbdf10a80	-0.11769581
175	0xbc573f97	-0.01313772
176	0x3da7ce1e	0.081936106
177	0x3df1608d	0.11785994
178	0xbe13fd65	-0.14452131
179	0x3d0cc5ba	0.034368254
180	0xbd5a827c	-0.053347096
181	0xbd4a4a77	-0.04938742
182	0x3d767383	0.060168754
183	0xbd416dc9	-0.04722384
184	0xbd309781	-0.043113235
185	0x3daf4b86	0.08559327
186	0x3e123655	0.14278539
187	0x3d81de18	0.06341189
188	0xbe12ab20	-0.14323092
189	0xbe3d1068	-0.1846329
190	0x3dd9c45c	0.10633156
191	0xbd96e7c9	-0.07368428
192	0xbdb67c59	-0.08910436
193	0x3e016037	0.1263436
194	0xbd9a467d	-0.07532976
195	0x3e458a77	0.19291101
196	0xbd4b25e2	-0.049596675
197	0xbdbe6783	-0.09297087
198	0x3e5c9618	0.21541631
199	0x3d3bb7f0	0.045829713
200	0xbe4f0240	-0.20215702
201	0xbccb2e78	-0.024802431
202	0xbe4bbdca	-0.19896618
203	0x3d2bc18f	0.04193264
204	0xbc49d9f3	-0.01232003
205	0x3c744acf	0.014910414
206	0x3db7a271	0.0896653
207	0x3b0ede9a	0.0021800161
208	0x3e090e34	0.13384324
209	0x3caf018b	0.02136304
210	0xbcb52017	-0.022110028
211	0xbe2ef15b	-0.17084257
212	0xbaf349e6	-0.0018561452
213	0xbcf1ae50	-0.029502064
214	0x3d38212a	0.044953503
215	0xbd594cf6	-0.05305191
216	0xbcef920d	-0.029244447
217	0xbb86c83a	-0.0041132243
218	0xbd012fa5	-0.031539578
219	0x3c82e936	0.015980344
220	0xbcc5565f	-0.024089037
221	0xbe4088dc	-0.18802208
222	0x3c9c0737	0.019046409
223	0x3dc379d7	0.095447235
224	0x3e1bd30d	0.15217228
225	0x3e855820	0.26043797
226	0xbd51bb9f	-0.05120432
227	0xbdb22f3e	-0.08700417
228	0xbac3471d	-0.0014898513
229	0x3b35560b	0.0027669694
230	0xbcfe59ab	-0.031048616
231	0xbd8ac2a5	-0.06775407
232	0xbd79a2d3	-0.060946297
233	0xbda03db0	-0.07824266
234	0xbd029893	-0.031883787
235	0xbcf5d9f9	-0.030011164
236	0xbc9f60b0	-0.019455284
237	0xbd812767	-0.063063435
238	0x3d558e4d	0.05213766
239	0x3d8bd826	0.068283364
240	0xbcfbb724	-0.030726977
241	0x3c7bc304	0.01536632
242	0x3e77e56c	0.24208611
243	0x3d470e1c	0.04859744
244	0x3d7ca6df	0.06168258
245	0xbc2a134e	-0.010380579
246	0xbda243f5	-0.07923118
247	0xbe375fc9	-0.17907633
248	0xbd54f46b	-0.051990908
249	0xbd2fdfda	-0.04293809
250	0x3d869a55	0.06572405
251	0xbdc50985	-0.09620956
252	0xbdf04c39	-0.11733288
253	0xbd0b4a0f	-0.034006175
254	0x3daf601d	0.08563254
255	0x3cedf42a	0.02904709
