onpolicy/scripts/results/MPE/simple_spread/rmappo/check/wandb/run-20220704_213016-1sk1ijb5/files/actor.pt (torch, 147692 bytes, 22 tensors)

base.feature_norm.weight f4 [18]
0	0x3f84e738	1.0383062
1	0x3f7a5885	0.9779132
2	0x3f743556	0.95393884
3	0x3f791b6d	0.97307473
4	0x3f8651f5	1.0493761
5	0x3f7fcf7f	0.9992599
6	0x3f77e7e2	0.968382
7	0x3f83e72f	1.0304927
8	0x3f809193	1.0044426
9	0x3f839d7f	1.0282439
10	0x3f8076ea	1.003629
11	0x3f81425e	1.0098379
12	0x3f7df2f1	0.99198824
13	0x3f7875e8	0.9705491
14	0x3f8193a9	1.0123187
15	0x3f817e39	1.0116645
16	0x3f7fd829	0.9993921
17	0x3f8165d9	1.0109206

base.feature_norm.bias f4 [18]
0	0xba1c2872	-0.00059569546
1	0xbb6f37b4	-0.0036501708
2	0xbb69def6	-0.0035685874
3	0x3cb042dc	0.021516256
4	0xbcae41ff	-0.021271704
5	0xbc1bb6e4	-0.009504054
6	0xbadd0954	-0.0016863742
7	0x3c3e3a8f	0.011610641
8	0xbbc8db6b	-0.0061296723
9	0x3c1216a1	0.008916528
10	0x3c26b25d	0.010174361
11	0x3c79ab5a	0.015238607
12	0x3ccfa99c	0.02534943
13	0xbcaf8ebd	-0.021430368
14	0x3c6f3959	0.014601075
15	0xba889648	-0.0010420764
16	0xbd06f38a	-0.0329471
17	0x3cbd6631	0.023120018

base.mlp.fc1.0.weight f4 [64, 18]
0	0x3d272470	0.040806234
1	0x3d265e02	0.040616997
2	0xbe601103	-0.2188149
3	0xbd869b8a	-0.065726355
4	0xbdd6bec0	-0.104856014
5	0xbd11198b	-0.03542475
6	0x3def74ae	0.11692177
7	0x3e26edc0	0.16301632
8	0xbef32e37	-0.47496197
9	0x3e4c9d7f	0.19981955
10	0x3e3667e6	0.17813072
11	0x3bfa3b4d	0.0076364637
12	0x3d513e13	0.05108459
13	0x3e30d131	0.172673
14	0xbdc44357	-0.095831566
15	0xbe459a7c	-0.19297212
16	0xbe8b027a	-0.27150327
17	0x3db720a9	0.08941776
18	0xbe10b0d6	-0.14129958
19	0x3e51322d	0.20429297
20	0xbdbe66e0	-0.092969656
21	0x3dfd0431	0.12354315
22	0x3d22ede9	0.03977767
23	0x3d6038d1	0.054741684
24	0xbe3da31f	-0.18519257
25	0x3e3cef97	0.18450771
26	0xbeb9cfa9	-0.36291245
27	0x3e5bb739	0.21456613
28	0x3e0aa9e2	0.13541368
29	0x3e02d27f	0.1277561
30	0xbe549b9a	-0.20762482
31	0xbdde2bf0	-0.10848224
32	0xbdb6bb93	-0.08922496
33	0x3cc5aef6	0.02413128
34	0x3e9f844d	0.31155625
35	0xbe052837	-0.13003622
36	0xbe8747ee	-0.26422065
37	0xbdd89d6d	-0.105769016
38	0xbd771592	-0.060323305
39	0x3df90dd3	0.1216084
40	0x3d997952	0.07493843
41	0x3db2f930	0.08738935
42	0xbeaae686	-0.33379
43	0xbe3ee163	-0.18640666
44	0xbedc01f9	-0.42970255
45	0x3d0f6084	0.035004154
46	0x3e887fcd	0.26660004
47	0x3ef5e507	0.48026296
48	0x3ec3b046	0.38220423
49	0x3d979914	0.07402244
50	0x3e66cfaf	0.22540163
51	0xbbbda336	-0.0057872785
52	0x3d75de50	0.060026467
53	0x3e40e81f	0.18838547
54	0x3d39a40c	0.045322463
55	0x3dadfbc4	0.08495286
56	0xbf3ea8e5	-0.7447646
57	0xbe8df7d2	-0.27728134
58	0x3ed45258	0.41469073
59	0x3e97197a	0.29511625
60	0x3d6495e9	0.055807028
61	0x3e7df5a7	0.2480074
62	0x3cf2fc62	0.029661361
63	0x3e0c36db	0.136928
64	0xbe933da6	-0.28757972
65	0xbe66fb50	-0.22556806
66	0x3dfdd895	0.12394825
67	0xbdc872d5	-0.097875275
68	0x3d8767bb	0.06611582
69	0xbdd9ca5d	-0.10634301
70	0xbea300a0	-0.31836414
71	0x3dc6ba6a	0.097035244
72	0x3c68d340	0.014210522
73	0xbda3c0c7	-0.07995754
74	0xbe5f3d64	-0.21800762
75	0xbdddc1e4	-0.10827997
76	0xbe9575bb	-0.29191384
77	0xbc29b068	-0.010357
78	0xbc203e41	-0.0097804675
79	0xbe591a56	-0.21201453
80	0xbda8eba3	-0.08248069
81	0xbe171b3f	-0.14756487
82	0xbdc55963	-0.0963619
83	0x3d010bf7	0.03150555
84	0xbdbb199e	-0.091357455
85	0x3e0eeec3	0.13958268
86	0xbe16c22c	-0.14722508
87	0x3ea60d26	0.32431906
88	0x3e1fbbd3	0.15598993
89	0xbe28a194	-0.16467887
90	0x3f033ec2	0.51267636
91	0xbe5a8614	-0.21340209
92	0x3e3b3917	0.18283497
93	0xbe3e042b	-0.18556277
94	0x3e44ea88	0.19230092
95	0x3da2dc2e	0.07952152
96	0x3d6afaab	0.05736796
97	0xbe80b2f4	-0.2513653
98	0xbeb5b43c	-0.3548907
99	0x3e7d9f90	0.247679
100	0xbe22b1d9	-0.15888156
101	0x3e99002b	0.2988294
102	0xbd2e9a98	-0.0426279
103	0x3d8c646c	0.068550915
104	0x3eb26e1d	0.34849635
105	0xbe3dd380	-0.18537712
106	0xbab03247	-0.0013442718
107	0x3bbb4afc	0.005715726
108	0x3e39d318	0.18146932
109	0xbe79de72	-0.24401262
110	0x3e21b402	0.15791324
111	0x3d314f84	0.043288723
112	0xbd8b9380	-0.06815243
113	0xbe10336f	-0.1408212
114	0x3e335789	0.17513861
115	0xbea541c4	-0.32276738
116	0xbdccc7d7	-0.09999054
117	0x3e9b14e0	0.30289364
118	0x3e4f4733	0.20242004
119	0xbe6ec71e	-0.23318145
120	0xbe459fab	-0.1929919
121	0x3d2de38e	0.04245334
122	0x3dfab5a9	0.1224168
123	0xbe11ee00	-0.14250946
124	0x3dab45fc	0.08362958
125	0xbde1ad7c	-0.11019418
126	0x3d955007	0.07290655
127	0x3ec695a9	0.38786057
128	0x3cc9d95c	0.024639778
129	0xbd8f5de7	-0.07000332
130	0x3da4224f	0.08014356
131	0xbea0ee46	-0.31431788
132	0x3e314031	0.17309643
133	0x3e603d87	0.21898471
134	0xbe1c501c	-0.15264934
135	0xbdf711d9	-0.12063951
136	0x3d639a38	0.055566996
137	0xbd0b2281	-0.033968452
138	0xbe5f0795	-0.21780236
139	0xbd7132ea	-0.058886446
140	0x3dd85c0a	0.1056443
141	0xbe5bbe32	-0.21459273
142	0xbe6fe6ff	-0.23427962
143	0x3d498190	0.049195826
144	0x3e8b57b0	0.27215338
145	0xbea36900	-0.31916046
146	0x3daf0f67	0.0854786
147	0xbe2edc34	-0.17076188
148	0x3ea6132e	0.32436508
149	0xbe7cf15f	-0.24701451
150	0x3e9d21e3	0.30689916
151	0x3ebd9b5e	0.37032598
152	0x3d40cbd1	0.047069374
153	0x3e278d16	0.16362414
154	0x3df721f7	0.12067025
155	0x3e7de986	0.24796113
156	0x3e55b6b3	0.20870475
157	0xbda8fd48	-0.082514346
158	0xbba1bdba	-0.0049359472
159	0xbdac829a	-0.08423348
160	0xbecff20b	-0.40614352
161	0x3da34af6	0.07973282
162	0xbcf192c3	-0.029488927
163	0x3eceffc5	0.40429512
164	0x3e9548a5	0.29156986
165	0xbd2fd7b1	-0.04293031
166	0xbe1f9373	-0.15583591
167	0x3ca56d90	0.020193845
168	0x3d7afba6	0.061275147
169	0x3e1c861a	0.1528553
170	0x3e979376	0.2960469
171	0xbe36a782	-0.17837337
172	0xbdf0598e	-0.11735831
173	0x3df1f395	0.11814038
174	0x3e2048e4	0.15652806
175	0x3e86d1f5	0.2633206
176	0xbd1294e4	-0.035786524
177	0xbe2c7a4f	-0.16843532
178	0xbc9d0b22	-0.019170348
179	0xbb9d8e07	-0.0048081907
180	0x3d8c84d6	0.06861274
181	0x3d50091e	0.050789945
182	0x3e50e2a0	0.2039895
183	0x3906067c	0.00012781651
184	0x3e06d37b	0.13166611
185	0x3f103c26	0.5634178
186	0x3dbba3fd	0.09162138
187	0x3ec2457d	0.3794364
188	0x3e2046b2	0.15651968
189	0x3e703aed	0.23459978
190	0x3e285594	0.16438895
191	0x3e0b29a1	0.13590099
192	0xbd8afa13	-0.06785979
193	0xbc26191b	-0.010137822
194	0x3e3f4ff5	0.18682845
195	0x3eb0bdb7	0.3451974
196	0xbe5cf004	-0.21575934
197	0xbe67c3de	-0.22633311
198	0xbdbbb19a	-0.09164734
199	0xbe0bec00	-0.13664246
200	0x3d1774d3	0.036976647
201	0xbedb2d67	-0.42808077
202	0xbe9a7a38	-0.3017137
203	0x3e0c1f74	0.13683873
204	0xbc222df4	-0.009898651
205	0xbc57c6d1	-0.01316996
206	0xbe319b19	-0.17344321
207	0xbe1b6bab	-0.15177791
208	0x3e6f6900	0.23379898
209	0xbe80149d	-0.25015727
210	0x3eb344ea	0.35013515
211	0xbe623443	-0.22090249
212	0x3eb65a1f	0.35615632
213	0x3e22a0a7	0.15881597
214	0x3dc39446	0.09549765
215	0x3e6d323c	0.23163694
216	0xbe687e13	-0.22704343
217	0xbda7bb43	-0.08190014
218	0x3c1720c9	0.009224125
219	0x3e0914e6	0.13386878
220	0x3d6105de	0.054937236
221	0x3f12369a	0.57114565
222	0xbe4f36d4	-0.20235759
223	0x3e0bb3eb	0.13642852
224	0x3e0d07f0	0.13772559
225	0xbd816756	-0.06318538
226	0xbea5460e	-0.3228001
227	0x3d130183	0.035890114
228	0x3e4435d7	0.19161163
229	0xbe25ecba	-0.16203585
230	0xbe32ef96	-0.17474207
231	0xbe21acb6	-0.1578854
232	0x3eac7bbd	0.33688155
233	0x3d1ce65d	0.03830563
234	0xbb3cfc00	-0.0028836727
235	0xbdca841b	-0.09888478
236	0x3bd24e02	0.0064179907
237	0x3ddbac05	0.107261695
238	0x3e08707f	0.13324164
239	0x3d96e34a	0.07367571
240	0x3eb527db	0.3538197
241	0xbc6cd81e	-0.014455823
242	0xbdfca93b	-0.12336966
243	0xbe21ce1e	-0.15801284
244	0xbe90cd79	-0.28281763
245	0x3e2b651d	0.1673779
246	0xbec9bd1f	-0.394021
247	0xbef8809f	-0.4853563
248	0xbd3bf79d	-0.04589044
249	0x3d808116	0.06274621
250	0x3c902ebe	0.017600413
251	0x3e033281	0.12812234
252	0x3e16944a	0.14705005
253	0x3e76f05d	0.24115129
254	0x3ea9a712	0.33135277
255	0x3d6b6e62	0.057478316

base.mlp.fc1.0.bias f4 [64]
0	0xbbbf3e59	-0.00583629
1	0xbcd4b14b	-0.025963446
2	0x3d01ba84	0.031672016
3	0xbcac8d54	-0.021063484
4	0xbd5ed18e	-0.054399066
5	0x3c25f2e0	0.010128707
6	0x3bc413f9	0.0059838262
7	0x3d3fb372	0.04680199
8	0xbc8ae4f9	-0.016954886
9	0xbc8b60b6	-0.017013889
10	0x3c713efc	0.014724489
11	0x3cef7441	0.029230239
12	0x3c2b8b02	0.010470154
13	0xbc86a995	-0.016438285
14	0xbc59d52d	-0.013295454
15	0x3a59b71f	0.000830518
16	0xbc849c75	-0.016187886
17	0x3b2a511b	0.0025988284
18	0x3bfdec55	0.0077491202
19	0x3bdabb81	0.0066751842
20	0x3cc7ae17	0.024375005
21	0x3cbbd8a1	0.022930445
22	0xbc4264c2	-0.011864843
23	0xbc9c3661	-0.019068899
24	0xbcd7da6b	-0.026349267
25	0x3cc1207c	0.02357506
26	0xbc30f2c6	-0.010800069
27	0x3c63460e	0.013871683
28	0xbc895b7a	-0.016767252
29	0x39bf4033	0.0003647819
30	0xbc28a618	-0.010293506
31	0xbc4243c5	-0.011856978
32	0xbcb61955	-0.022228876
33	0xbb4d6877	-0.0031342783
34	0x3c752676	0.014962783
35	0x3c975f22	0.01847798
36	0xbcffcd5b	-0.03122585
37	0x3bc7196b	0.006076028
38	0x3c8ac826	0.016941141
39	0x3d221bf0	0.039577425
40	0xbcbb4b11	-0.022862943
41	0xbc13a05c	-0.009010401
42	0x3d099bea	0.033595957
43	0x3bd24e1e	0.0064180037
44	0x3c69ed46	0.014277762
45	0xbc0a9bf8	-0.008460037
46	0x3cf719b0	0.030163616
47	0xbaabef80	-0.0013117641
48	0x3d1e02c5	0.03857686
49	0x3c83d017	0.016090436
50	0x3d4934a9	0.049122486
51	0xbc3c15fa	-0.011479849
52	0xbc0771b2	-0.008266853
53	0x3d063a40	0.032770395
54	0x3d6c1262	0.05763472
55	0xbc0554b1	-0.008137868
56	0x3bad78a4	0.0052939225
57	0x3bced17c	0.0063115936
58	0xbd41c3fb	-0.047306042
59	0xbd5ec9ba	-0.0543916
60	0x3caf9661	0.021434011
61	0xbc7126a9	-0.01471869
62	0xbd1369d4	-0.035989597
63	0xbd3e9ae0	-0.04653442

base.mlp.fc1.2.weight f4 [64]
0	0x3f7b0ef8	0.98069715
1	0x3f80968e	1.0045946
2	0x3f844c3f	1.0335768
3	0x3f7cc3c5	0.9873622
4	0x3f782dd0	0.96944904
5	0x3f7e39ed	0.9930714
6	0x3f7dc06c	0.9912174
7	0x3f816045	1.0107504
8	0x3f7db0ba	0.9909779
9	0x3f7b7418	0.9822402
10	0x3f8266f1	1.0187665
11	0x3f7c5093	0.98560447
12	0x3f81d297	1.0142392
13	0x3f81afb1	1.0131742
14	0x3f76ec43	0.96454257
15	0x3f82c159	1.0215255
16	0x3f7cf8e7	0.98817295
17	0x3f83a972	1.0286086
18	0x3f81a6e8	1.0129061
19	0x3f75ae06	0.95968664
20	0x3f7fa8f9	0.99867207
21	0x3f8199b8	1.0125036
22	0x3f7f26c3	0.9966852
23	0x3f88b389	1.067979
24	0x3f80defc	1.006805
25	0x3f846e95	1.0346247
26	0x3f803513	1.0016197
27	0x3f7d3950	0.98915577
28	0x3f804620	1.00214
29	0x3f8049be	1.0022504
30	0x3f80681e	1.0031774
31	0x3f802de7	1.0014008
32	0x3f79bc91	0.97553355
33	0x3f7cbd73	0.98726577
34	0x3f8423b2	1.0323393
35	0x3f77a1e8	0.96731424
36	0x3f807f1d	1.0038792
37	0x3f84bf50	1.0370884
38	0x3f7ab1db	0.97927636
39	0x3f812f9c	1.0092654
40	0x3f823354	1.0171914
41	0x3f7741a0	0.9658451
42	0x3f79b621	0.9754353
43	0x3f83252c	1.0245719
44	0x3f8163be	1.0108564
45	0x3f83b5c0	1.0289841
46	0x3f81bc55	1.0135599
47	0x3f7d5e5e	0.9897212
48	0x3f7c7817	0.9862074
49	0x3f7bb0fc	0.9831693
50	0x3f8110ad	1.0083214
51	0x3f808608	1.0040903
52	0x3f815d97	1.0106686
53	0x3f7d946a	0.99054587
54	0x3f7fd561	0.99934965
55	0x3f807c06	1.0037849
56	0x3f7a39ca	0.9774443
57	0x3f81459a	1.0099366
58	0x3f8052f9	1.0025321
59	0x3f82534d	1.0181671
60	0x3f854b65	1.0413634
61	0x3f7eb4fe	0.9949492
62	0x3f79241f	0.9732074
63	0x3f764759	0.9620262

base.mlp.fc1.2.bias f4 [64]
0	0xbc8f3a76	-0.017483931
1	0xbcc99b75	-0.02461026
2	0x3c810cf5	0.015753249
3	0x3cbcc35b	0.023042371
4	0xbd67000a	-0.05639652
5	0x3acbb650	0.0015542004
6	0x3b89c1a2	0.004203991
7	0x3d13f211	0.036119524
8	0xbc6ab07d	-0.014324305
9	0xbbeb3d51	-0.0071789403
10	0x3c5ad54b	0.013356517
11	0x3d072dd3	0.033002686
12	0xbca6e515	-0.020372907
13	0xbc25fa27	-0.010130442
14	0xbbb9272b	-0.005650421
15	0xbbcd8319	-0.0062717316
16	0xbad999fa	-0.0016601675
17	0xba3828f1	-0.0007025144
18	0x3afe8c2a	0.0019420434
19	0xbb8e6024	-0.004344957
20	0x3c3584f1	0.011079059
21	0x3d09cb9d	0.033641446
22	0xbc973827	-0.018459393
23	0xbc83b197	-0.016075892
24	0xbcea43d4	-0.028596796
25	0x3cfaaaa5	0.030598948
26	0xbbe27140	-0.006910473
27	0x38967f10	7.1762246e-05
28	0xbc5cc398	-0.013474368
29	0xbc5c29e2	-0.01343772
30	0xbc9c036a	-0.019044597
31	0xba409064	-0.00073457346
32	0xb9c4f1c5	-0.00037564166
33	0x3a8eb489	0.0010887544
34	0xb983ec4c	-0.00025162322
35	0xbc40551f	-0.011739044
36	0xbc523bbd	-0.0128316255
37	0x3d0b3188	0.033982784
38	0x3c496dbc	0.012294229
39	0x3cfb91a6	0.030709099
40	0xbc908ac5	-0.017644295
41	0xbc22ebb5	-0.009943892
42	0x3ca9df39	0.020736324
43	0xbbac1ccb	-0.005252456
44	0x3bcdb24e	0.006277359
45	0x3a4ff007	0.000793219
46	0x3c4f1f40	0.012641728
47	0x3b9ee28b	0.0048487834
48	0x3ce3ff4e	0.0278317
49	0x39e48c1a	0.00043591933
50	0x3ce69226	0.02814586
51	0x3aa4e239	0.0012579627
52	0xbc69ee54	-0.014278013
53	0x3d002a77	0.031290498
54	0x3d3b4944	0.04572417
55	0xbcbf18fc	-0.023327343
56	0x3b821c26	0.0039706407
57	0xbbc7e800	-0.0061006546
58	0xbd2d2d5e	-0.042279594
59	0xbd44237e	-0.04788541
60	0x3ccd14af	0.025034277
61	0xbc0a2248	-0.008431025
62	0xbce57ee8	-0.028014615
63	0xbcc5608a	-0.024093885

base.mlp.fc_h.0.weight f4 [64, 64]
0	0x3d092420	0.033481717
1	0xbe17ad93	-0.14812307
2	0x3d24510b	0.04011635
3	0x3e21b4ba	0.15791598
4	0xbe85e35e	-0.2615003
5	0x3e3c42be	0.18384835
6	0xbdc92c8e	-0.09822951
7	0xbe36b6b0	-0.17843127
8	0xbe7b723a	-0.24555293
9	0x3e56e783	0.20986752
10	0x3d71faf7	0.05907723
11	0xbf0cc55c	-0.54988647
12	0xbea9ebb4	-0.3318764
13	0xbd9ec971	-0.07753266
14	0xbe826e09	-0.25474575
15	0x3e6e29b8	0.23258102
16	0xbd1134f8	-0.035450906
17	0x3e9454a4	0.28970826
18	0x3e2ce27b	0.1688327
19	0xbbbd64bd	-0.005779831
20	0xbdab6f08	-0.08370787
21	0x3c99ff17	0.018798394
22	0x3ec1f35f	0.3788099
23	0xbeb9ed3c	-0.36313808
24	0xbe20e453	-0.15712099
25	0x3e01c6bd	0.12673469
26	0xbe90b422	-0.2826243
27	0x3e240488	0.16017354
28	0x3e93deb8	0.28880858
29	0xbb305680	-0.0026907027
30	0xbdb63334	-0.08896485
31	0xbe0964c7	-0.1341735
32	0x3ed8e67f	0.42363355
33	0xbb99251a	-0.0046736123
34	0x3c04f8b8	0.00811594
35	0xbe26d173	-0.16290836
36	0x3c70b220	0.014690906
37	0xbee825c2	-0.45341307
38	0xbec368cc	-0.3816589
39	0xbd0cf922	-0.03441728
40	0xbd2971bf	-0.041368242
41	0x3d83f327	0.06442862
42	0xbd19a368	-0.037509352
43	0xbe4bf38d	-0.19917126
44	0x3ead0751	0.33794644
45	0x3b1fb5f6	0.0024369932
46	0xbd30e074	-0.043182805
47	0x3e580a9a	0.21097794
48	0xbdbf433c	-0.09338996
49	0x3d3d349b	0.046192747
50	0x3ea05ae1	0.31319335
51	0xbe9c298b	-0.30500445
52	0x3e76a811	0.2408755
53	0x3db7956a	0.08964045
54	0x3e74a1f3	0.23889904
55	0xbe2e8936	-0.1704453
56	0xbe646dae	-0.22307464
57	0x3c093b46	0.008375948
58	0x3e23f122	0.16009954
59	0x3d9f7b84	0.077872306
60	0xbe242dca	-0.16033092
61	0xbdd7296b	-0.10505947
62	0xbe2e68fd	-0.17032237
63	0xbe0e8ea7	-0.13921605
64	0x3ebc1e7f	0.36742017
65	0xbd2e7590	-0.042592585
66	0x3d243045	0.040085096
67	0xbe4f5e88	-0.20250905
68	0x3deba033	0.11505165
69	0x3f1d1276	0.61356294
70	0xbf1e3bfb	-0.6181027
71	0xbde73434	-0.11289254
72	0xbdae6be3	-0.085166715
73	0x3cfe0d7b	0.031012287
74	0xbe97661e	-0.29570097
75	0x3d25b30c	0.040453956
76	0x3d6a6d28	0.057233006
77	0x3c0f1647	0.008733339
78	0xbe64f030	-0.2235725
79	0x3d2242b4	0.039614394
80	0x3d098d6d	0.03358214
81	0xbe48712f	-0.19574426
82	0x3e04245b	0.12904494
83	0x3d1178f6	0.035515748
84	0x3e018003	0.12646489
85	0xbca9d937	-0.020733459
86	0x3d9e6595	0.07734219
87	0xbd8b4a53	-0.068012856
88	0xbc47ffd8	-0.012206994
89	0xbedb108a	-0.42786056
90	0x3dc80c63	0.097679876
91	0x3e9b092a	0.3028043
92	0xbe40cb99	-0.18827666
93	0x3e613279	0.2199191
94	0x3d878026	0.06616239
95	0xbbb6c031	-0.00557711
96	0xbe6dfa79	-0.23240079
97	0x3dddcfa0	0.10830617
98	0xbdae9723	-0.08524921
99	0x3dfefd7c	0.12450692
100	0xbe82ca8b	-0.25545153
101	0x3dbdf586	0.092753455
102	0x3e619818	0.22030675
103	0x3e1b9e11	0.15197016
104	0xbea3b2ba	-0.31972295
105	0x3d12a5f0	0.03580278
106	0x3e739227	0.23786221
107	0xbe58af25	-0.21160562
108	0x3ed1b087	0.40954992
109	0xbe791d9e	-0.24327704
110	0x3e036659	0.12832011
111	0x3dd76932	0.10518111
112	0x3d1b5880	0.037926197
113	0x3e004d5b	0.12529509
114	0x3d0ff0a7	0.035141613
115	0x3e98bc67	0.2983124
116	0xbd713a9f	-0.058893796
117	0xbeb3c75d	-0.3511304
118	0x3e10fe1d	0.14159437
119	0xbe7c3acb	-0.24631803
120	0xbdc9f700	-0.09861565
121	0xbddc01c7	-0.107425265
122	0x3ddf39e9	0.10899717
123	0x3e4f5682	0.20247844
124	0x3e1df4a5	0.15425356
125	0xbe1c0218	-0.15235174
126	0x3e8c7cb0	0.2743888
127	0x3b966449	0.0045895916
128	0xbe94702e	-0.28991836
129	0x3e7c70f4	0.24652463
130	0x3e5a6c87	0.21330462
131	0xbd9ff7a7	-0.07810908
132	0x3c86a952	0.01643816
133	0xbddb9738	-0.10722202
134	0xbc8f1267	-0.01746483
135	0x3e220759	0.15823115
136	0xbe8c2f85	-0.27380005
137	0x3e67b206	0.22626504
138	0xbe3f50cb	-0.18683164
139	0xbe252044	-0.1612559
140	0x3eee7a41	0.46577647
141	0x3d0b37fb	0.033988934
142	0xbdb41696	-0.087933704
143	0x3c0f2aaa	0.008738199
144	0xbddc8da5	-0.10769204
145	0x3ed6e4b8	0.41971374
146	0x3e29e94c	0.16592902
147	0x3ee5d130	0.4488616
148	0x3e393772	0.18087557
149	0xbe692dd4	-0.22771388
150	0x3ea3b416	0.31973332
151	0x3ea90f74	0.33019602
152	0x3e580796	0.21096644
153	0x3e7cdbaa	0.2469317
154	0x3e765f2c	0.24059743
155	0x3e4c0384	0.19923216
156	0xbde0294c	-0.10945377
157	0xbd1fe1ce	-0.039033704
158	0xbe1cc6f7	-0.15310274
159	0xbe26149b	-0.16218798
160	0x3cd02ffd	0.025413508
161	0xbb206c23	-0.0024478517
162	0xbe9859bb	-0.2975596
163	0x3e26ed08	0.16301358
164	0xbbea70c0	-0.007154554
165	0xbe2b2d23	-0.16716437
166	0xbd695e72	-0.056974836
167	0x3df551ed	0.11978517
168	0xbbf0c699	-0.0073478934
169	0x3c2c098a	0.010500321
170	0x3ea1f5de	0.31632894
171	0x3dd5c7b2	0.104384795
172	0xbdf33340	-0.118750095
173	0x3d465b16	0.04842671
174	0xbe697210	-0.22797418
175	0x3d821028	0.06350738
176	0xbe1b03a1	-0.15138103
177	0x3e10f6dc	0.1415667
178	0x3d8afe17	0.06786745
179	0x3e9adcaa	0.30246478
180	0xbe1beb02	-0.15226367
181	0x3e64a274	0.22327596
182	0x3ebfb6a8	0.37444043
183	0xbc8de993	-0.01732329
184	0x3bd2952a	0.006426473
185	0xbdedc7c3	-0.11610367
186	0xbe484805	-0.19558723
187	0xbf0148f2	-0.5050193
188	0x3dc6051e	0.09668945
189	0xbe8f7b9b	-0.2802399
190	0x3dfe67bc	0.124221295
191	0x3e587ba4	0.21140915
192	0x3dfb4e13	0.12270751
193	0xbea7f4a0	-0.32803822
194	0xbd842e9e	-0.06454204
195	0x3ba74773	0.005104953
196	0xbdc2ed00	-0.095178604
197	0xbe99eb44	-0.30062306
198	0x3d1aa3cc	0.037753865
199	0x3df5319a	0.11972351
200	0xbe7132e3	-0.23554568
201	0x3edeac33	0.43490753
202	0xbe4587c0	-0.19290066
203	0xbe17baed	-0.148174
204	0xbd115c5e	-0.03548848
205	0xbc8af0f7	-0.016960604
206	0x3e83d010	0.25744677
207	0xbef4ea5f	-0.4783506
208	0xbd415972	-0.047204442
209	0xbd85900f	-0.065216176
210	0xbe1c8170	-0.15283751
211	0x3e278c24	0.16362053
212	0xbdfcee83	-0.1235018
213	0xbc8386a6	-0.016055416
214	0x3e0402bf	0.12891673
215	0xbda58626	-0.080822274
216	0x3eed08f3	0.4629589
217	0xbe60f7a9	-0.21969475
218	0xbea264bd	-0.31717482
219	0xbd1a7492	-0.037708826
220	0xbe1f352a	-0.15547624
221	0x3df12a64	0.117756635
222	0xbee9455d	-0.45560732
223	0xbd537746	-0.05162742
224	0x3ddf028f	0.1088916
225	0xbe354161	-0.17700721
226	0x3eb758c6	0.35809916
227	0x3d40173f	0.04689717
228	0x3c8c1432	0.017099474
229	0x3e9c1013	0.30481014
230	0xbe5831a3	-0.21112685
231	0xbe0b8d44	-0.13628107
232	0x3e6b4bc8	0.22978127
233	0xbe33ec81	-0.17570688
234	0x3e4bb5c0	0.19893551
235	0xbebd99ee	-0.37031502
236	0xbd308129	-0.043091927
237	0x3e498867	0.1968094
238	0xbd948490	-0.07251847
239	0xbe2c90cd	-0.16852112
240	0x3dee9d6a	0.11651118
241	0x3c23b63f	0.009992181
242	0xbe0b47fd	-0.1360168
243	0x3efc7ba8	0.49313092
244	0x3d7c52ea	0.06160251
245	0xbdc13d95	-0.09435574
246	0x3dd05571	0.10172547
247	0x3c484c6b	0.012225251
248	0x3c69b194	0.014263529
249	0xbe69318b	-0.22772805
250	0x3e421876	0.18954644
251	0x3e924b00	0.28572845
252	0x3da24720	0.07923722
253	0xbdb34d71	-0.08755005
254	0xbe48a752	-0.19595078
255	0xbe51d582	-0.20491603

base.mlp.fc_h.0.bias f4 [64]
0	0x00000000	0.0
1	0x00000000	0.0
2	0x00000000	0.0
3	0x00000000	0.0
4	0x00000000	0.0
5	0x00000000	0.0
6	0x00000000	0.0
7	0x00000000	0.0
8	0x00000000	0.0
9	0x00000000	0.0
10	0x00000000	0.0
11	0x00000000	0.0
12	0x00000000	0.0
13	0x00000000	0.0
14	0x00000000	0.0
15	0x00000000	0.0
16	0x00000000	0.0
17	0x00000000	0.0
18	0x00000000	0.0
19	0x00000000	0.0
20	0x00000000	0.0
21	0x00000000	0.0
22	0x00000000	0.0
23	0x00000000	0.0
24	0x00000000	0.0
25	0x00000000	0.0
26	0x00000000	0.0
27	0x00000000	0.0
28	0x00000000	0.0
29	0x00000000	0.0
30	0x00000000	0.0
31	0x00000000	0.0
32	0x00000000	0.0
33	0x00000000	0.0
34	0x00000000	0.0
35	0x00000000	0.0
36	0x00000000	0.0
37	0x00000000	0.0
38	0x00000000	0.0
39	0x00000000	0.0
40	0x00000000	0.0
41	0x00000000	0.0
42	0x00000000	0.0
43	0x00000000	0.0
44	0x00000000	0.0
45	0x00000000	0.0
46	0x00000000	0.0
47	0x00000000	0.0
48	0x00000000	0.0
49	0x00000000	0.0
50	0x00000000	0.0
51	0x00000000	0.0
52	0x00000000	0.0
53	0x00000000	0.0
54	0x00000000	0.0
55	0x00000000	0.0
56	0x00000000	0.0
57	0x00000000	0.0
58	0x00000000	0.0
59	0x00000000	0.0
60	0x00000000	0.0
61	0x00000000	0.0
62	0x00000000	0.0
63	0x00000000	0.0

base.mlp.fc_h.2.weight f4 [64]
0	0x3f800000	1.0
1	0x3f800000	1.0
2	0x3f800000	1.0
3	0x3f800000	1.0
4	0x3f800000	1.0
5	0x3f800000	1.0
6	0x3f800000	1.0
7	0x3f800000	1.0
8	0x3f800000	1.0
9	0x3f800000	1.0
10	0x3f800000	1.0
11	0x3f800000	1.0
12	0x3f800000	1.0
13	0x3f800000	1.0
14	0x3f800000	1.0
15	0x3f800000	1.0
16	0x3f800000	1.0
17	0x3f800000	1.0
18	0x3f800000	1.0
19	0x3f800000	1.0
20	0x3f800000	1.0
21	0x3f800000	1.0
22	0x3f800000	1.0
23	0x3f800000	1.0
24	0x3f800000	1.0
25	0x3f800000	1.0
26	0x3f800000	1.0
27	0x3f800000	1.0
28	0x3f800000	1.0
29	0x3f800000	1.0
30	0x3f800000	1.0
31	0x3f800000	1.0
32	0x3f800000	1.0
33	0x3f800000	1.0
34	0x3f800000	1.0
35	0x3f800000	1.0
36	0x3f800000	1.0
37	0x3f800000	1.0
38	0x3f800000	1.0
39	0x3f800000	1.0
40	0x3f800000	1.0
41	0x3f800000	1.0
42	0x3f800000	1.0
43	0x3f800000	1.0
44	0x3f800000	1.0
45	0x3f800000	1.0
46	0x3f800000	1.0
47	0x3f800000	1.0
48	0x3f800000	1.0
49	0x3f800000	1.0
50	0x3f800000	1.0
51	0x3f800000	1.0
52	0x3f800000	1.0
53	0x3f800000	1.0
54	0x3f800000	1.0
55	0x3f800000	1.0
56	0x3f800000	1.0
57	0x3f800000	1.0
58	0x3f800000	1.0
59	0x3f800000	1.0
60	0x3f800000	1.0
61	0x3f800000	1.0
62	0x3f800000	1.0
63	0x3f800000	1.0

base.mlp.fc_h.2.bias f4 [64]
0	0x00000000	0.0
1	0x00000000	0.0
2	0x00000000	0.0
3	0x00000000	0.0
4	0x00000000	0.0
5	0x00000000	0.0
6	0x00000000	0.0
7	0x00000000	0.0
8	0x00000000	0.0
9	0x00000000	0.0
10	0x00000000	0.0
11	0x00000000	0.0
12	0x00000000	0.0
13	0x00000000	0.0
14	0x00000000	0.0
15	0x00000000	0.0
16	0x00000000	0.0
17	0x00000000	0.0
18	0x00000000	0.0
19	0x00000000	0.0
20	0x00000000	0.0
21	0x00000000	0.0
22	0x00000000	0.0
23	0x00000000	0.0
24	0x00000000	0.0
25	0x00000000	0.0
26	0x00000000	0.0
27	0x00000000	0.0
28	0x00000000	0.0
29	0x00000000	0.0
30	0x00000000	0.0
31	0x00000000	0.0
32	0x00000000	0.0
33	0x00000000	0.0
34	0x00000000	0.0
35	0x00000000	0.0
36	0x00000000	0.0
37	0x00000000	0.0
38	0x00000000	0.0
39	0x00000000	0.0
40	0x00000000	0.0
41	0x00000000	0.0
42	0x00000000	0.0
43	0x00000000	0.0
44	0x00000000	0.0
45	0x00000000	0.0
46	0x00000000	0.0
47	0x00000000	0.0
48	0x00000000	0.0
49	0x00000000	0.0
50	0x00000000	0.0
51	0x00000000	0.0
52	0x00000000	0.0
53	0x00000000	0.0
54	0x00000000	0.0
55	0x00000000	0.0
56	0x00000000	0.0
57	0x00000000	0.0
58	0x00000000	0.0
59	0x00000000	0.0
60	0x00000000	0.0
61	0x00000000	0.0
62	0x00000000	0.0
63	0x00000000	0.0

base.mlp.fc2.0.0.weight f4 [64, 64]
0	0x3ce1c82c	0.02756127
1	0xbe4630ce	-0.19354555
2	0x3cd528af	0.026020376
3	0x3e306ab2	0.17228201
4	0xbe88868d	-0.26665154
5	0x3e345476	0.17610344
6	0xbd7e290b	-0.06205086
7	0xbe435050	-0.19073606
8	0xbe49fc89	-0.19725241
9	0x3e302c35	0.17204364
10	0x3d7e9924	0.062157765
11	0xbf01afe0	-0.5065899
12	0xbeb8c571	-0.36088136
13	0xbd8eb79f	-0.06968617
14	0xbe7fff47	-0.24999724
15	0x3e3b738f	0.18305801
16	0xbd54c69d	-0.051947225
17	0x3e9e101e	0.3087167
18	0x3e379f3a	0.17931834
19	0xbd704e68	-0.058668524
20	0xbd8d4ecb	-0.06899794
21	0x3cbc562d	0.02299031
22	0x3eb1f80c	0.34759557
23	0xbebc1367	-0.36733553
24	0xbe20bb76	-0.1569651
25	0x3dc35a44	0.09538701
26	0xbe7dd704	-0.24789053
27	0x3e2232ef	0.15839742
28	0x3e8a2111	0.26978353
29	0x39a36842	0.0003116746
30	0xbd733d67	-0.05938473
31	0xbe390ded	-0.18071719
32	0x3ee897a8	0.45428205
33	0x3d2678f4	0.040642694
34	0xbbf6aef7	-0.0075281817
35	0xbe4ed22b	-0.2019736
36	0x3d4cd440	0.050007105
37	0xbefd1ed0	-0.4943757
38	0xbeabc141	-0.3354588
39	0xbccfc95b	-0.025364568
40	0xbc90a640	-0.0176574
41	0x3d98836a	0.0744694
42	0xbc977034	-0.01848612
43	0xbe492d97	-0.19646297
44	0x3ec3768c	0.38176382
45	0x3ca33d04	0.019926555
46	0xbc956e48	-0.018241063
47	0x3e780884	0.24221998
48	0xbdb2f066	-0.087372586
49	0x3d1e1346	0.0385926
50	0x3e8b5dcf	0.27220008
51	0xbea616d4	-0.3243929
52	0x3e74b797	0.23898159
53	0x3d736654	0.05942376
54	0x3e8dc45b	0.2768887
55	0xbe49066e	-0.19631359
56	0xbe3a4be4	-0.18193012
57	0x3bda85f9	0.006668803
58	0x3e31e845	0.1737376
59	0x3d67c60a	0.05658535
60	0xbdda141e	-0.10648368
61	0xbe04d120	-0.129704
62	0xbe5e63d9	-0.21717776
63	0xbe1ed500	-0.1551094
64	0x3ebe8580	0.37211227
65	0xbd4a54d9	-0.049397323
66	0x3bd2c3b4	0.006432021
67	0xbe340126	-0.17578563
68	0x3dcc884e	0.099869356
69	0x3f199d29	0.6000543
70	0xbf1a5a4c	-0.6029403
71	0xbe10f124	-0.14154488
72	0xbd87cbbc	-0.06630656
73	0x3ca97240	0.020684361
74	0xbe8bb20c	-0.27284276
75	0x3da84464	0.082161695
76	0x3d87fd63	0.066401266
77	0x3ba3716b	0.0049878857
78	0xbe72b1aa	-0.23700586
79	0x3ca1a86e	0.019733634
80	0x3d03ab24	0.032145634
81	0xbe38ea2a	-0.18058077
82	0x3e0094ae	0.12556717
83	0x3cfa016d	0.030518258
84	0x3dfe6111	0.12420858
85	0x3c65e997	0.014032743
86	0x3d9133c5	0.070899524
87	0xbe0cc1b0	-0.13745761
88	0xbcd01fed	-0.025405848
89	0xbecafc68	-0.39645696
90	0x3d8a4e8c	0.06753263
91	0x3e835729	0.25652435
92	0xbe2ef251	-0.17084624
93	0x3e60eb9b	0.21964876
94	0x3db40946	0.08790831
95	0xbc61c0e2	-0.013778897
96	0xbe83cb5d	-0.2574109
97	0x3db7fb43	0.08983471
98	0xbe07a2a9	-0.13245644
99	0x3de0e3a7	0.10980921
100	0xbe69cafd	-0.2283134
101	0x3dcb83da	0.09937258
102	0x3e893cc2	0.26804167
103	0x3e134c8f	0.14384674
104	0xbeb25e81	-0.34837726
105	0x3da299d8	0.079394996
106	0x3e80d911	0.2516561
107	0xbe6a50aa	-0.22882333
108	0x3eee17a4	0.4650241
109	0xbe82836b	-0.2549089
110	0x3de329a0	0.11091924
111	0x3e0230ea	0.12713972
112	0x3d072eec	0.033003733
113	0x3e0c9810	0.13729882
114	0x3cb0148f	0.021494178
115	0x3e98a112	0.29810387
116	0xbc8a318a	-0.016869325
117	0xbeb0f78e	-0.3456387
118	0x3e0c50f0	0.1370275
119	0xbe8fed90	-0.28110933
120	0xbdccaba7	-0.099936776
121	0xbda70b70	-0.081564784
122	0x3e0e7c03	0.13914494
123	0x3e12a9a8	0.14322531
124	0x3e402c77	0.18766962
125	0xbdfdba3d	-0.12389038
126	0x3e8e042c	0.27737558
127	0xb9a82fff	-0.00032079217
128	0xbe9c1ed7	-0.3049228
129	0x3e67533d	0.22590347
130	0x3e55e9b1	0.20889927
131	0xbd6309f2	-0.055429406
132	0xbb8a273b	-0.0042161024
133	0xbe02a61b	-0.12758677
134	0xbd1979a7	-0.037469532
135	0x3e1ca085	0.15295608
136	0xbe6f1eef	-0.23351644
137	0x3e621a22	0.22080281
138	0xbe486906	-0.19571313
139	0xbe294b99	-0.16532744
140	0x3ee8a0df	0.45435235
141	0x3d6d1205	0.057878513
142	0xbdf54f55	-0.11978022
143	0xbccd9cf4	-0.025099255
144	0xbdddef5c	-0.1083667
145	0x3ee055a5	0.43815342
146	0x3e3e5a1d	0.18589063
147	0x3ee3e7f2	0.44512898
148	0x3e45e647	0.19326125
149	0xbe673fdf	-0.22582959
150	0x3eab0d8d	0.33408776
151	0x3eb70a17	0.35749885
152	0x3e6c74a6	0.23091373
153	0x3e7fc98a	0.24979225
154	0x3e63e8a9	0.22256722
155	0x3e39f7d9	0.18160953
156	0xbde90559	-0.11377973
157	0xbd225c12	-0.039638586
158	0xbe560c84	-0.20903212
159	0xbe425d06	-0.18980798
160	0x3d0968a4	0.03354706
161	0x3cac3b75	0.021024445
162	0xbe8ba3cf	-0.27273414
163	0x3e04bc88	0.12962544
164	0xbb8e672f	-0.0043457965
165	0xbe52f515	-0.20601304
166	0xbd023dac	-0.031797096
167	0x3e141068	0.14459383
168	0x3d076a6f	0.033060487
169	0xbca5889d	-0.020206744
170	0x3ea9b25d	0.33143893
171	0x3df6de7d	0.12054155
172	0xbe17b2d3	-0.1481431
173	0x3dc8b61a	0.09800358
174	0xbe6624f9	-0.22475041
175	0x3d1449c7	0.036203172
176	0xbe0a8d06	-0.13530359
177	0x3dec9773	0.11552324
178	0x3de3548a	0.11100109
179	0x3e91e297	0.28493187
180	0xbe2715e8	-0.1631695
181	0x3e59f09a	0.21283188
182	0x3ec895a6	0.39176673
183	0xbcda7221	-0.026665749
184	0x3c775db3	0.015098023
185	0xbe0d7941	-0.13815786
186	0xbe496783	-0.19668393
187	0xbefc8832	-0.4932266
188	0x3dba78fa	0.09105106
189	0xbe81e404	-0.25369275
190	0x3ddd712e	0.10812603
191	0x3e4fd622	0.20296529
192	0x3de3cebb	0.11123415
193	0xbe983d9a	-0.29734498
194	0xbd8ba816	-0.06819169
195	0x3d05abba	0.032634474
196	0xbdda1d24	-0.106500894
197	0xbe8f9049	-0.28039768
198	0x3d411144	0.047135606
199	0x3deda681	0.11604024
200	0xbe7d3553	-0.24727373
201	0x3ed16b53	0.40902194
202	0xbe2d7d1a	-0.16942254
203	0xbe2a7199	-0.16644897
204	0xbc48b9bf	-0.012251317
205	0x3c9ae1a9	0.018906431
206	0x3e724859	0.23660411
207	0xbefffab8	-0.4999597
208	0xbcadb4af	-0.02120432
209	0xbd98fbe4	-0.07469919
210	0xbe267d45	-0.16258724
211	0x3e2208f9	0.15823735
212	0xbe17c3b0	-0.14820743
213	0xbc6c7281	-0.014431597
214	0x3dcba6ef	0.099439494
215	0xbd8fe6d6	-0.0702645
216	0x3f0033a8	0.5007882
217	0xbe6eea68	-0.23331606
218	0xbe9b61cb	-0.30348048
219	0xbd0cb0d9	-0.034348343
220	0xbe29738e	-0.16547987
221	0x3e0e1bcb	0.1387779
222	0xbeef38da	-0.46723062
223	0xbd940a92	-0.072285786
224	0x3dc7910d	0.09744463
225	0xbe3d1012	-0.18463162
226	0x3eb82df8	0.3597257
227	0x3d4eddbf	0.050504442
228	0x3cd51702	0.026011948
229	0x3e9ac1a4	0.3022586
230	0xbe4b0cfb	-0.1982917
231	0xbe0749ba	-0.13211718
232	0x3e7c2d57	0.24626671
233	0xbe12e2ee	-0.1434438
234	0x3e1e8dfe	0.15483853
235	0xbeba8772	-0.36431462
236	0xbd9df4c8	-0.07712704
237	0x3e2c478c	0.16824168
238	0xbd8b5d89	-0.0680495
239	0xbe475e77	-0.19469629
240	0x3df46380	0.119330406
241	0x3c70c3e7	0.014695144
242	0xbe007266	-0.1254364
243	0x3efdff11	0.49608663
244	0x3d06ec26	0.032940052
245	0xbdcb78f7	-0.099351816
246	0x3db6e77b	0.0893087
247	0x3d117d6d	0.035520006
248	0x3d017cb1	0.031613056
249	0xbe8da660	-0.27665997
250	0x3e512935	0.20425875
251	0x3eabc880	0.33551407
252	0x3d3f5ec4	0.046721235
253	0xbd9cffff	-0.07666015
254	0xbe3b62ec	-0.18299454
255	0xbe53273a	-0.20620432

base.mlp.fc2.0.0.bias f4 [64]
0	0xbbc96dd8	-0.0061471276
1	0xbaa1cddc	-0.0012344676
2	0x3c4eab12	0.0126140285
3	0xbc630994	-0.013857264
4	0x3b8922aa	0.0041850405
5	0xbcc397ad	-0.023876036
6	0x3c96e9cb	0.018422028
7	0xbb69e8db	-0.0035691771
8	0xbc818073	-0.01580832
9	0x3d0811e7	0.033220198
10	0xbcad369d	-0.021144206
11	0x3c0786df	0.008271902
12	0xbc815f8e	-0.015792634
13	0x3cbaaa62	0.022786323
14	0xbb31f8d2	-0.0027156365
15	0xbb351136	-0.0027628667
16	0xbcab6f89	-0.020927208
17	0x3c0b9923	0.008520397
18	0x3b5947d1	0.0033154378
19	0x3bd09936	0.0063659204
20	0xbd046c92	-0.032330103
21	0xbc22eafa	-0.009943718
22	0x3c62182b	0.013799707
23	0x3caa09bc	0.020756595
24	0x3cc856f5	0.024455527
25	0xbc96ec37	-0.018423183
26	0xbbac3562	-0.005255387
27	0x3cb86fd9	0.02251427
28	0x3c6a5d52	0.014304476
29	0x3be47b5e	0.0069727143
30	0xbc9fca4d	-0.019505644
31	0xbc15597d	-0.009115574
32	0xbd1c4c2c	-0.03815858
33	0xbccfc458	-0.025362179
34	0xbc97ae60	-0.018515766
35	0x3b8ef100	0.0043622255
36	0xbd193746	-0.03740623
37	0x3c141f50	0.009040669
38	0x3c3581a0	0.011078268
39	0x3cdda9d5	0.027058521
40	0xbcd8fc59	-0.026487516
41	0x3c3e0f5a	0.01160034
42	0x3a434be4	0.0007449968
43	0xbb9f550f	-0.0048624347
44	0xbcaa8140	-0.020813584
45	0x3ccbf49e	0.024896916
46	0xbc883da9	-0.016630964
47	0xbbb64db5	-0.0055634626
48	0x3ccd3bcf	0.025052933
49	0x3bdc0043	0.0067138984
50	0xbc00f60a	-0.00787116
51	0xbd1717b4	-0.03688784
52	0xb9ab1743	-0.00032632993
53	0xbce94291	-0.028474124
54	0xbb1a409f	-0.0023537052
55	0x3d5607da	0.05225358
56	0xbca28c2f	-0.019842235
57	0xbc805da9	-0.01566966
58	0x3b83edd4	0.004026154
59	0x3d1b4f64	0.03791751
60	0xbd11d49f	-0.035603162
61	0x3cd00d0a	0.025396843
62	0x3cb3f647	0.02196802
63	0xbc356d02	-0.011073353

base.mlp.fc2.0.2.weight f4 [64]
0	0x3f81cd71	1.0140821
1	0x3f80edba	1.0072548
2	0x3f842133	1.0322632
3	0x3f834b92	1.0257437
4	0x3f84d4c2	1.0377429
5	0x3f7bf35f	0.9841823
6	0x3f7ab800	0.9793701
7	0x3f7a73c3	0.9783289
8	0x3f7c3e1f	0.9853229
9	0x3f7a7876	0.9784006
10	0x3f7a3eff	0.97752374
11	0x3f83aff1	1.0288068
12	0x3f76a88e	0.96350944
13	0x3f7f82c6	0.9980892
14	0x3f814af3	1.0100998
15	0x3f82feb1	1.0233976
16	0x3f81cfb4	1.0141511
17	0x3f746aea	0.9547564
18	0x3f7bf670	0.9842291
19	0x3f823e98	1.0175352
20	0x3f804c97	1.0023373
21	0x3f821908	1.0163889
22	0x3f7da1c8	0.99074984
23	0x3f819665	1.0124022
24	0x3f7d53f5	0.98956233
25	0x3f809c51	1.0047704
26	0x3f7b2604	0.9810488
27	0x3f81550d	1.010408
28	0x3f83ade9	1.0287448
29	0x3f829211	1.0200826
30	0x3f885736	1.0651615
31	0x3f7f330e	0.9968728
32	0x3f804b9b	1.0023073
33	0x3f80d031	1.0063535
34	0x3f83b572	1.0289748
35	0x3f81560e	1.0104387
36	0x3f7d3319	0.98906094
37	0x3f7b7f7b	0.98241395
38	0x3f7ad4e7	0.97981113
39	0x3f7b298d	0.98110276
40	0x3f7abf54	0.97948194
41	0x3f7c2dc2	0.9850732
42	0x3f81b16d	1.0132271
43	0x3f7c5f45	0.9858287
44	0x3f80ccb2	1.0062468
45	0x3f768be0	0.9630718
46	0x3f8120a3	1.0088085
47	0x3f7c956f	0.9866552
48	0x3f7c4f22	0.9855825
49	0x3f7fbf54	0.9990132
50	0x3f807ce5	1.0038115
51	0x3f84ba98	1.0369444
52	0x3f811c1e	1.0086706
53	0x3f80727b	1.0034937
54	0x3f7f17dc	0.9964578
55	0x3f818935	1.0119997
56	0x3f7d7665	0.9900878
57	0x3f74e272	0.9565803
58	0x3f75b41e	0.9597796
59	0x3f8139f3	1.009581
60	0x3f8276e9	1.0192538
61	0x3f85519d	1.0415531
62	0x3f85d8f1	1.045683
63	0x3f84b616	1.0368068

base.mlp.fc2.0.2.bias f4 [64]
0	0x3cfbd885	0.030742893
1	0x3cc2e873	0.023792481
2	0x3c17fafb	0.009276147
3	0xbc7b84d9	-0.015351498
4	0xbc5b37ef	-0.013380035
5	0xbc4409f6	-0.0119652655
6	0x3b1c0f49	0.0023812822
7	0xbc879b52	-0.016553555
8	0xbb9f99ef	-0.0048706452
9	0x3c69c247	0.014267511
10	0xbc608360	-0.013703197
11	0x3c222787	0.009897119
12	0xbc21e6f5	-0.009881725
13	0x3b0e46cd	0.002170968
14	0x3c97f455	0.018549124
15	0xb9e6e716	-0.0004404119
16	0xbc53ec10	-0.0129347
17	0xba44e669	-0.00075111404
18	0x3b91cb8c	0.0044493135
19	0x3b763e57	0.0037573779
20	0xbc7b0de7	-0.015323139
21	0x3c011bab	0.007880132
22	0xbc1bdbcc	-0.009512853
23	0xbc83cb81	-0.01608825
24	0x3cb4438b	0.022004863
25	0xbc5819eb	-0.013189773
26	0xb951d814	-0.00020012289
27	0x3cd7c24a	0.026337761
28	0xbc9aec17	-0.018911405
29	0x3ce28ced	0.02765509
30	0xbc5ee1b7	-0.013603619
31	0x380db80f	3.3788438e-05
32	0xbce114f6	-0.027475815
33	0xbb395d04	-0.0028284201
34	0xbc096c44	-0.008387629
35	0xba8da0f7	-0.0010805418
36	0xbd26f172	-0.040757604
37	0x3bf5987d	0.0074949847
38	0xbc7643af	-0.015030785
39	0x3d29859d	0.04138719
40	0xbcb4acd3	-0.022055065
41	0x3c6e4153	0.014541942
42	0x3c4f7d5c	0.012664165
43	0xbc31bccb	-0.010848234
44	0x3ba746de	0.0051048836
45	0x3bd48e74	0.0064867083
46	0xbab45820	-0.0013759173
47	0xbcb20709	-0.02173187
48	0xbcb869c1	-0.022511365
49	0x3cb4f2e3	0.022088474
50	0x3d007f40	0.031371355
51	0xbc6bc617	-0.01439049
52	0x3c8cc8da	0.017185617
53	0xbc89b1d9	-0.016808437
54	0x3b9b0328	0.004730601
55	0x3cb238dc	0.021755628
56	0xbc1133b6	-0.0088624265
57	0xbce37692	-0.0277665
58	0x3933eaa7	0.00017158185
59	0x3d242e2e	0.040083103
60	0x3c82d92d	0.015972698
61	0x3d40925b	0.047014575
62	0x3c61b6c7	0.013776488
63	0xbcfe3553	-0.031031286

rnn.rnn.weight_ih_l0 f4 [192, 64]
0	0xbc180273	-0.009277928
1	0xbd75995c	-0.059960708
2	0xbcacc2d1	-0.02108899
3	0x3cf395b6	0.029734474
4	0x3c9d9f37	0.019240959
5	0x3d49635f	0.049167033
6	0xbd0dbcd7	-0.03460392
7	0x3bb0b6ed	0.0053929
8	0xbd3b11ca	-0.04567126
9	0xbcf70799	-0.03015499
10	0x3df5c672	0.12000741
11	0x3cd88303	0.026429659
12	0x3a94424e	0.0011311264
13	0x3c44889b	0.01199546
14	0xbd87fe34	-0.06640282
15	0x3dccabd9	0.09993715
16	0xbd6ff7e9	-0.058586035
17	0xbc84b0b1	-0.016197534
18	0xbd68f65e	-0.05687558
19	0x3c8c976c	0.017162047
20	0xbd850672	-0.0649537
21	0x3b3bd167	0.002865875
22	0xbe0aaa55	-0.13541539
23	0xbe1fcc4d	-0.15605278
24	0xbca29a65	-0.019849012
25	0x3c274544	0.010209385
26	0x3d28f92d	0.041253258
27	0xbbbba1ed	-0.00572609
28	0x3d118e88	0.03553632
29	0xbc7b705b	-0.015346612
30	0xbdeda32f	-0.116033904
31	0xbac8243b	-0.0015269587
32	0xbcd5801a	-0.02606206
33	0x3de22812	0.11042799
34	0x3e0b75d5	0.13619168
35	0xbd86cd00	-0.065820694
36	0x3cca8cc6	0.02472533
37	0x3ddb066a	0.10694583
38	0x3d89ca06	0.06727986
39	0xbb267d5f	-0.0025404317
40	0xbddac0e2	-0.10681321
41	0x3d43b309	0.047778163
42	0xbdaae597	-0.08344572
43	0xbd08d757	-0.03340849
44	0x3e0117d7	0.1260675
45	0xbd63a1e4	-0.055574313
46	0xbe1cea1d	-0.15323682
47	0x3c83f628	0.016108587
48	0x3e11f550	0.14253736
49	0x3dbc9965	0.09208945
50	0x3d7d7b84	0.06188537
51	0xbd027c52	-0.031856842
52	0xbe05b3cd	-0.1305687
53	0xbd617d53	-0.05505116
54	0xbd329d04	-0.043606773
55	0xbcd83902	-0.026394371
56	0x3ce1ed32	0.027578924
57	0x3da2c493	0.0794765
58	0xbd1f1c6d	-0.03884547
59	0x3cbf48b1	0.023350092
60	0x3d3a797e	0.04552602
61	0xbde4ad99	-0.111659236
62	0xbcefe852	-0.029285584
63	0xbcbd4337	-0.02310334
64	0xbcc9e7f4	-0.024646737
65	0xbd8aa164	-0.06769064
66	0xbd5211e7	-0.051286604
67	0x3e2418de	0.16025111
68	0x3e26d495	0.16292031
69	0x3dbe77d0	0.09300196
70	0x3d709516	0.05873593
71	0x3e11bfdd	0.14233346
72	0x3c32486f	0.010881527
73	0x3dec6229	0.1154216
74	0xbdc73fe8	-0.09728986
75	0xbe17ac1c	-0.14811748
76	0xbbcd9896	-0.006274293
77	0x3d0a4160	0.033753753
78	0x3ddbc9d8	0.10731858
79	0xbe795db2	-0.24352148
80	0xbca28a6a	-0.019841392
81	0xbe00e655	-0.12587865
82	0xbe09c91c	-0.13455623
83	0xbd1281d4	-0.035768345
84	0x3d037dcb	0.032102387
85	0xbcb71458	-0.022348568
86	0x3d92046f	0.07129752
87	0xbdd81501	-0.10550881
88	0x3c0954aa	0.008382002
89	0x3c86c1fa	0.016449917
90	0x3cc12d6f	0.023581235
91	0x3d680c5d	0.056652416
92	0xbd9daa44	-0.07698491
93	0x3d86875f	0.06568789
94	0xbcca8e42	-0.024726037
95	0xbcca25d1	-0.024676235
96	0xbd78231f	-0.06058037
97	0xbd9b4f0b	-0.075834356
98	0xbcbbf07d	-0.022941822
99	0x3bed458f	0.007240958
100	0x3c825762	0.015910808
101	0x3d7aaac7	0.061198022
102	0xbd3620a2	-0.044464715
103	0xbe1b51d5	-0.15167935
104	0xbcb9dc4b	-0.022688052
105	0xbda0c33f	-0.0784974
106	0xbc98c3f0	-0.018648118
107	0x3d8bf2a0	0.068333864
108	0x3e1b269c	0.15151447
109	0x3de96326	0.11395864
110	0xbc90ec3c	-0.01769077
111	0xbd0cefb8	-0.0344083
112	0x3bfc5c70	0.007701449
113	0xbd6ed6e4	-0.058310404
114	0x3d9b8fd5	0.07595793
115	0xbc75de95	-0.015006681
116	0xbccbc3c2	-0.024873618
117	0x3c01ed6b	0.00793014
118	0x3e196d6d	0.14983149
119	0xbce470d5	-0.027885834
120	0x3d874a57	0.06605976
121	0x3d994f16	0.074857876
122	0x3def86bb	0.1169562
123	0x3cf02f6b	0.029319486
124	0xbd12e61f	-0.03586399
125	0x3db247c9	0.08705098
126	0x3dfaa504	0.122385055
127	0x3d61e9e5	0.0551547
128	0x3d08823f	0.033327337
129	0x3c421c6e	0.0118475985
130	0x3ce6f15f	0.028191267
131	0x3dd44c0e	0.10366069
132	0xbceaf937	-0.028683288
133	0x3e1ea1a0	0.15491343
134	0xbc1b648f	-0.009484424
135	0x3de6dc24	0.11272457
136	0x3d2453b3	0.040118884
137	0xbc047be0	-0.008086175
138	0x3d8955f4	0.067058474
139	0xbceea616	-0.02913193
140	0x3dcfee2d	0.1015285
141	0x3c8429a1	0.016133131
142	0xbd5cedc1	-0.053937677
143	0xbd4e26c7	-0.05032995
144	0x3e0ee698	0.13955152
145	0x3cb63f6e	0.022247043
146	0x3d7aae92	0.06120164
147	0xbd0cdf94	-0.03439291
148	0x3cdabe97	0.026702208
149	0x3dd9de14	0.10638061
150	0x3c888baf	0.016668169
151	0x3c81b3a3	0.015832728
152	0x3d291e64	0.04128875
153	0x3d5a0376	0.053225957
154	0xbc73a566	-0.014870977
155	0x3dad0115	0.08447472
156	0xbd73877b	-0.059455376
157	0xbd064d5f	-0.03278863
158	0xbd8cf1c2	-0.06882049
159	0xbd146e0a	-0.036237754
160	0xbe3805b5	-0.17970927
161	0xbcb3fa87	-0.021970047
162	0x3ccde857	0.025135202
163	0x3d0c2d94	0.034223154
164	0x3d3b8615	0.045782167
165	0xbdb705d7	-0.08936661
166	0xbd05e793	-0.03269155
167	0xbcda62c2	-0.02665842
168	0xbe28b0f9	-0.1647376
169	0xbe416190	-0.18884873
170	0xbcf2624b	-0.029587885
171	0xbdf97908	-0.12181288
172	0x3dd48dc5	0.10378603
173	0xbdbdc316	-0.09265725
174	0x3d173a22	0.036920674
175	0xbd9732b1	-0.073827155
176	0x3cfd1848	0.030895367
177	0x3cb6af6e	0.022300448
178	0x3d724d5a	0.0591558
179	0x3c8134a7	0.015772177
180	0xbbf3444f	-0.0074239145
181	0x3c8931e5	0.016747424
182	0xbbbfcf15	-0.0058535435
183	0xbdbc43a6	-0.091925904
184	0xbd16cf1b	-0.036818605
185	0x3d5cb2ce	0.05388146
186	0x3d2f632f	0.0428192
187	0x3d9f513f	0.07779168
188	0xbc9c33ce	-0.019067671
189	0xbdddc3d4	-0.10828367
190	0x3dd05bbc	0.10173747
191	0xbd7fb1f3	-0.062425565
192	0x3d459699	0.048239324
193	0x3e44b043	0.19207864
194	0xbdaf25e2	-0.085521474
195	0xbd53262c	-0.051550075
196	0xbc18c13b	-0.0093234135
197	0xbd2795ed	-0.040914465
198	0xbde1ccfb	-0.11025425
199	0x3dc38277	0.095463686
200	0xbd6472ef	-0.05577367
201	0xbd91983f	-0.07109117
202	0xbd34005a	-0.043945648
203	0xbc322f42	-0.010875525
204	0x3c3c61c4	0.0114979185
205	0x3d0a9f1a	0.033843137
206	0x3b68f13b	0.0035544175
207	0xbdc7ef39	-0.09762425
208	0x3d3e99f8	0.046533555
209	0x3dd32577	0.1030988
210	0xbc2a71ee	-0.0104031395
211	0xbd4b4664	-0.049627677
212	0xbd0a2cd8	-0.033734173
213	0xbcfec379	-0.031099068
214	0xbd6b6660	-0.05747068
215	0xbe1f9402	-0.15583804
216	0xbe45e1ad	-0.1932437
217	0xbd5adf5b	-0.053435665
218	0xbd3fedeb	-0.046857756
219	0x3d9397c7	0.072066836
220	0xbd2fb88a	-0.0429006
221	0xbd5db8d6	-0.05413135
222	0x3caa6a4f	0.020802645
223	0xbde4a67c	-0.11164567
224	0xbd27d5e2	-0.04097546
225	0xbb1e10c5	-0.0024118882
226	0x3df9bd63	0.12194326
227	0xbcfd21a5	-0.030899832
228	0x3c874d70	0.016516417
229	0x3b8dd6aa	0.0043285685
230	0xbcc2c8c6	-0.023777377
231	0xbd0bf129	-0.034165535
232	0xbc9d4352	-0.01919714
233	0xbe10b71e	-0.14132354
234	0x3d15ff07	0.036620166
235	0xbd04ec55	-0.032451946
236	0x3d037e9e	0.032103173
237	0xbc938430	-0.018007368
238	0xbcc95217	-0.024575276
239	0xbd983160	-0.074312925
240	0xbd6bd1ef	-0.057573255
241	0xbcd110f8	-0.025520787
242	0x3c6a6f57	0.014308772
243	0x3cae20e9	0.021255927
244	0x3da7fc5b	0.0820243
245	0xbd5650c2	-0.05232311
246	0x3d327661	0.043569926
247	0xbbe9fa43	-0.007140429
248	0x3d56bdaa	0.05242697
249	0xbe001a93	-0.12510137
250	0xbd113c2d	-0.03545778
251	0xbd900b35	-0.070333876
252	0x3e08a06e	0.13342449
253	0x3d94749e	0.072488055
254	0x3cb31818	0.021862075
255	0x3d27e519	0.04098997

rnn.rnn.weight_hh_l0 f4 [192, 64]
0	0xbd25c93f	-0.040475126
1	0x3c2fd204	0.010731224
2	0x3de602e8	0.11231023
3	0xbde19b44	-0.11015943
4	0xbd2affe8	-0.041747957
5	0x3e17eb30	0.1483581
6	0x3dd0f0f3	0.102022074
7	0x3deda25f	0.116032355
8	0xbcc4345a	-0.023950744
9	0xbd82854a	-0.06373079
10	0x3d2ccc00	0.042186737
11	0x3c744cf0	0.014910921
12	0x3b0fd2a4	0.002194562
13	0xbccf68c8	-0.025318518
14	0xbd9cc547	-0.07654815
15	0xbe09177c	-0.13387865
16	0xbc10e579	-0.008843773
17	0xbd969fe1	-0.07354713
18	0xbd831c5f	-0.06401896
19	0x3d1fb8db	0.03899465
20	0x3d18ad4a	0.037274636
21	0xbc34ea26	-0.011042153
22	0xbd4b03e1	-0.049564246
23	0x3d945230	0.072422385
24	0x3ce2fdf7	0.02770899
25	0x3d4ead72	0.05045838
26	0xbbc48c5e	-0.0059981784
27	0x3c1b0f83	0.0094641475
28	0x3c958838	0.01825343
29	0x3e0b6a2d	0.13614722
30	0x3d1a1e75	0.037626702
31	0xbcb93238	-0.022606954
32	0x3ddccdc5	0.10781435
33	0x3c763153	0.015026408
34	0xbccffc0a	-0.025388736
35	0x3d36f1df	0.04466426
36	0xbc3779b8	-0.011198454
37	0x3d49e315	0.049288828
38	0x3d7ad405	0.061237354
39	0x3cd9d676	0.02659152
40	0xbc649350	-0.013951138
41	0xbd5345ac	-0.051580116
42	0xbd8ac879	-0.067765184
43	0xbcb830be	-0.02248418
44	0xbce12190	-0.027481824
45	0xbd1d5136	-0.038407527
46	0x3de6008a	0.112305716
47	0x3d685249	0.0567191
48	0x3d1281ec	0.035768434
49	0xbd357bd6	-0.044307552
50	0x3db536c9	0.0884834
51	0x3dd92d9c	0.106044024
52	0x3d9aa7d6	0.075515434
53	0xbe0b95dd	-0.13631387
54	0xbd9a72eb	-0.0754145
55	0x3c7af569	0.015317299
56	0xbdd412a6	-0.103551194
57	0x3b22cc0c	0.002484086
58	0x3cc85783	0.024455791
59	0xbdb62b78	-0.0889501
60	0xbdf7d600	-0.12101364
61	0xbd75bada	-0.05999265
62	0xbd6b89a5	-0.057504315
63	0xbd6b5752	-0.057456322
64	0xbc48e40f	-0.012261405
65	0xbd86d5b9	-0.06583733
66	0xbda91936	-0.08256762
67	0xbc15aed6	-0.009135922
68	0x3d725c8e	0.0591703
69	0x3c16ed62	0.00921187
70	0x3d141b8b	0.03615908
71	0xbcedd955	-0.029034296
72	0xbd9b4808	-0.07582098
73	0x3c603b72	0.013686048
74	0xbd7e577b	-0.062095147
75	0xbce862e8	-0.028367475
76	0x3e2433f0	0.16035438
77	0x3d2b3345	0.04179694
78	0xbdc182fa	-0.0944881
79	0xbcf831dc	-0.030297212
80	0x3d89d8de	0.06730817
81	0x3bcc3633	0.006232047
82	0x3db1028e	0.086430654
83	0x3d8c7d51	0.0685984
84	0x3e20e5f5	0.15712722
85	0xbdeaabd3	-0.11458554
86	0x3d2f7613	0.042837214
87	0xbe0211a6	-0.12702045
88	0x3d251742	0.040305384
89	0xbcf4d021	-0.0298844
90	0x3a9d5c37	0.0012005632
91	0x3d347f2c	0.044066593
92	0xbca4a99c	-0.020100407
93	0x3d395540	0.045247316
94	0x3de18d6f	0.110133044
95	0x3db36405	0.087593116
96	0xbd6f9f9b	-0.05850182
97	0x3d7007a6	0.058601044
98	0xbb149949	-0.0022674373
99	0xbcf2de26	-0.029646944
100	0xbd08a3dd	-0.033359397
101	0xbdb2e74f	-0.08735525
102	0x3d1c90dc	0.038224086
103	0xbc679765	-0.014135216
104	0xbe15279b	-0.1456589
105	0xbc29e53b	-0.010369594
106	0xbc873125	-0.016502926
107	0xbd7184fd	-0.058964718
108	0xb9163ccf	-0.00014327768
109	0xbcc46fa8	-0.023979023
110	0x3d90932a	0.07059319
111	0x3e1be933	0.15225677
112	0xbe07a457	-0.13246284
113	0x3d8af8a0	0.06785703
114	0xbcbb8efb	-0.022895327
115	0xbcab2c59	-0.02089517
116	0x3d94c661	0.072644
117	0x3d4d9746	0.050193094
118	0x3d3188fc	0.04334353
119	0xbd3e801c	-0.046508893
120	0xbcf45457	-0.029825373
121	0x3d4787bf	0.048713442
122	0x3a55de79	0.0008158456
123	0xbcf1f64f	-0.029536394
124	0x3d6b1afd	0.057398785
125	0xbd12ca73	-0.035837602
126	0xbd0c85c0	-0.03430724
127	0x3cf986ea	0.03045984
128	0x3cfd3be2	0.030912343
129	0xbd5c0546	-0.053715967
130	0xbc36a209	-0.011147031
131	0x3cfea992	0.031086717
132	0x3ac451e1	0.0014978015
133	0x3d00c048	0.031433374
134	0xbd99ed11	-0.0751592
135	0xbcd708bc	-0.026249282
136	0x3d48317f	0.04887533
137	0xbc3a43ad	-0.011368674
138	0xbd91f1b8	-0.07126182
139	0x3dada9fc	0.084796876
140	0x3d703d65	0.0586523
141	0xbdbe3e6a	-0.09289248
142	0x3c97adc1	0.01851547
143	0xbc86adae	-0.016440239
144	0x3d803e25	0.06261853
145	0xbd48f753	-0.04906399
146	0x3d35809b	0.0443121
147	0x3dfd7760	0.123762846
148	0x3cd725a5	0.026263067
149	0xbd9528ee	-0.07283197
150	0x3e0cf472	0.13765123
151	0x3bb0c793	0.005394885
152	0x3c7a9f15	0.015296717
153	0x3d914217	0.07092684
154	0x3b1328e9	0.0022454804
155	0xbaca47d6	-0.0015432786
156	0xbe129bae	-0.143172
157	0x3ddc26a2	0.10749556
158	0x3c21f791	0.009885685
159	0xbdbdffb5	-0.09277288
160	0x3e0700d9	0.13183917
161	0xbd90b645	-0.07066015
162	0x3e15c6f0	0.1462667
163	0xbdee5060	-0.11636424
164	0x3c39d1e2	0.011341544
165	0x3d0e861b	0.03479586
166	0xbd8321f2	-0.06402959
167	0x3d3b7d73	0.045773935
168	0xbd4e1fa0	-0.05032313
169	0xbc052767	-0.00812707
170	0xbd65e4eb	-0.056126516
171	0x3d6c8c02	0.05775071
172	0xbd9a31ec	-0.07529053
173	0xbdbd22f9	-0.09235186
174	0xbe0ac0ea	-0.13550153
175	0xbd4de038	-0.05026266
176	0x3d8af2f0	0.06784618
177	0x3dfdb9e5	0.12388972
178	0xbdfa5427	-0.12223082
179	0x3d44dfe5	0.048065085
180	0xbd30729f	-0.04307806
181	0x3d5c74ba	0.053822257
182	0x3cc0729f	0.023492156
183	0xbb628dc7	-0.003456937
184	0xbde60385	-0.1123114
185	0x3b7c06f3	0.003845629
186	0x3d9ecb72	0.07753648
187	0x3b5b3153	0.0033446148
188	0xbcbc3d84	-0.022978552
189	0xbe332053	-0.174928
190	0xbd17944e	-0.03700667
191	0x3d75e333	0.060031127
192	0xbda3b1e6	-0.07992916
193	0xbd243b10	-0.04009539
194	0xbb6512ba	-0.003495379
195	0x3d28deb9	0.04122803
196	0xba3bc5b1	-0.0007162942
197	0xbd911abb	-0.070851766
198	0x3c9d8742	0.019229535
199	0x3d516e96	0.051130854
200	0xbd4a6551	-0.04941303
201	0xba5c1789	-0.0008395841
202	0xbc331264	-0.010929678
203	0x3d706e35	0.05869885
204	0xbc36b1fb	-0.011150832
205	0x3cf03881	0.029323818
206	0x3c58bacb	0.013228129
207	0xbde32352	-0.11090721
208	0x3d1ceeb6	0.03831359
209	0xbd275de0	-0.04086101
210	0x3ca46d96	0.020071786
211	0xbda056b4	-0.07829037
212	0x3d7e57b4	0.06209536
213	0xbcacd7af	-0.02109894
214	0xbd38fb02	-0.045161255
215	0x3db23386	0.087012336
216	0xbc556ee7	-0.013026929
217	0x3cc96b7f	0.024587391
218	0xbb372fd7	-0.0027952099
219	0xbc53ae5c	-0.0129199885
220	0x3b4e3586	0.0031465008
221	0xbda4633f	-0.08026742
222	0x3cb1c79b	0.021701625
223	0x3ddd79f8	0.10814279
224	0x3dd8ed29	0.1059211
225	0x3e29b0e1	0.1657138
226	0xbdb3d6b5	-0.087811865
227	0xbcdb42aa	-0.026765186
228	0xbd9cd750	-0.07658255
229	0x3d9ce585	0.07660965
230	0x3c8fc8b2	0.017551754
231	0xbd9263e5	-0.071479596
232	0x3a7fa2e2	0.00097517495
233	0xbda97331	-0.08273924
234	0x3bf5ebdf	0.0075049247
235	0x3bb914d0	0.005648233
236	0x3d214b36	0.039378367
237	0xbd9d8429	-0.07691223
238	0x3e13c3e7	0.144302
239	0x3d20aef1	0.039229337
240	0xba63ba30	-0.0008687107
241	0x3d83b189	0.064303465
242	0x3dfd4810	0.123672605
243	0xbd001cc9	-0.03127745
244	0x3dcba875	0.0994424
245	0x3be30557	0.006928127
246	0xbda0edc0	-0.07857847
247	0xbc942d97	-0.018088145
248	0xbd129a9b	-0.035791975
249	0xbce9dd9c	-0.028548054
250	0x3d1a0e32	0.037611194
251	0x3c554d55	0.013018926
252	0xbb29b844	-0.0025897184
253	0x3d2b837d	0.041873444
254	0xbd0a3cd1	-0.033749405
255	0x3df119ef	0.117725246
