onpolicy/scripts/results/MPE/simple_spread/rmappo/check/wandb/run-20220705_093513-2a08wzfa/files/actor.pt (torch, 147692 bytes, 22 tensors)

base.feature_norm.weight f4 [18]
0	0x3f606ecb	0.87669057
1	0x3f70afe0	0.94018364
2	0x3f76373a	0.9617802
3	0x3f667ef9	0.90037495
4	0x3f8212a9	1.0161945
5	0x3f89d1ef	1.0767192
6	0x3f85d0bd	1.0454327
7	0x3f828b07	1.0198678
8	0x3f847eae	1.035116
9	0x3f909d61	1.1298028
10	0x3f843760	1.0329399
11	0x3f738398	0.9512267
12	0x3f7e3bb3	0.99309844
13	0x3f8130e9	1.0093051
14	0x3f6ac503	0.91706866
15	0x3f799bd6	0.9750341
16	0x3f8761bf	1.0576705
17	0x3f64d9ec	0.8939502

base.feature_norm.bias f4 [18]
0	0x3c02cb93	0.007983106
1	0xbcf3923b	-0.029732814
2	0x3cde34eb	0.027124843
3	0xbd0fa6d2	-0.0350712
4	0xbda2cddb	-0.0794942
5	0x3bee7db1	0.007278167
6	0xbd13e72c	-0.036109135
7	0xbce2c781	-0.027683022
8	0xbc8fe7dc	-0.017566614
9	0xbcd85140	-0.02640593
10	0xbb896058	-0.0041923933
11	0xbd13f27c	-0.036119923
12	0x3d23779e	0.039908998
13	0xbbc42c96	-0.0059867604
14	0x3d68103b	0.056656104
15	0xbd60862f	-0.054815467
16	0x3de0d2b9	0.10977692
17	0x3bfec3e4	0.007774817

base.mlp.fc1.0.weight f4 [64, 18]
0	0xbe268db1	-0.16264988
1	0x3eaf4e49	0.34239414
2	0x3e46c7a4	0.19412094
3	0x3dd681e9	0.10473997
4	0x3e52249b	0.20521776
5	0x3d960022	0.07324244
6	0x3b5bbbdd	0.0033528723
7	0x3e7d7cb1	0.24754597
8	0xbea2c390	-0.31789827
9	0xbec236c0	-0.37932396
10	0xbda8d0b5	-0.08242933
11	0xbcc7e0cf	-0.02439919
12	0xbe2b8690	-0.1675055
13	0xbe042080	-0.12903023
14	0x3e97fa0a	0.29682952
15	0xbdc71bad	-0.097220756
16	0x3de7b213	0.11313262
17	0x3e4ba81b	0.19888346
18	0x3e1e7f5f	0.15478276
19	0xbe4179bb	-0.18894093
20	0xbe0f36a7	-0.13985692
21	0x3cc3153e	0.02381384
22	0x3d8233d0	0.06357539
23	0xbf0fb7b2	-0.5613967
24	0x3d8f7036	0.070038244
25	0xbe75df87	-0.2401105
26	0xbe53e9d3	-0.20694666
27	0xbe8aa5bb	-0.27079567
28	0x3e238854	0.15969974
29	0xbdd2c749	-0.10291917
30	0xbe409100	-0.18805313
31	0x3e6dd594	0.23226005
32	0xbe0f7db3	-0.14012794
33	0x3c6148c3	0.013750258
34	0xbe9e5015	-0.30920473
35	0x3dfaa042	0.12237598
36	0x3d859cba	0.06524034
37	0x3e1623ab	0.14662044
38	0xbbe37c8d	-0.006942338
39	0xbe3240d6	-0.17407545
40	0xbde1b475	-0.110207476
41	0x3eac65dd	0.33671466
42	0xbf393121	-0.7234059
43	0x3e2a5bbf	0.16636561
44	0xbe4b4017	-0.19848667
45	0xbd19b875	-0.037529428
46	0xbdd75f39	-0.10516209
47	0x3d9c1434	0.07621041
48	0x3ca75aee	0.0204291
49	0xbe839d7b	-0.25706086
50	0x3c891cd6	0.016737383
51	0xbd53d993	-0.051721167
52	0x3e2777f9	0.1635436
53	0x3cd932e3	0.026513522
54	0x3d386116	0.045014463
55	0x3c93a3c3	0.018022424
56	0x3d060d23	0.032727372
57	0xbe164f49	-0.14678682
58	0xbea5d023	-0.32385358
59	0x3e9bf2de	0.3045873
60	0x3e4d0875	0.20022757
61	0xbf1aa033	-0.60400695
62	0x3e44318f	0.1915953
63	0xbecfc880	-0.40582657
64	0x3eb159fa	0.3463896
65	0xbe2646eb	-0.1623799
66	0x3c5ac5ec	0.013352852
67	0x3e66f46f	0.22554182
68	0x3e90db4b	0.28292307
69	0x3c16e467	0.009209729
70	0x3e683da8	0.2267977
71	0x3e501e4a	0.20324054
72	0xbd9f632c	-0.077825874
73	0x3e646927	0.22305737
74	0xbe671c2a	-0.22569337
75	0x3e826b03	0.25472268
76	0xbe864f03	-0.26232156
77	0x3e1a6b72	0.1508005
78	0xbde86fb5	-0.113494314
79	0x3e249b8f	0.16074966
80	0xbef45294	-0.47719252
81	0xbea0a564	-0.31376183
82	0x3af6d2b2	0.0018831103
83	0xbed49228	-0.41517758
84	0xbdb53c06	-0.08849339
85	0x3ead1745	0.33806816
86	0x3e5dd2d1	0.21662451
87	0x3d96d28b	0.07364377
88	0xbe227417	-0.15864597
89	0xbd2eeef4	-0.042708352
90	0xbd1021e4	-0.03518857
91	0x3ea9569c	0.3307389
92	0xbeca5ee8	-0.39525533
93	0x3e872677	0.26396534
94	0x3db20264	0.08691862
95	0xbe83a4f6	-0.25711793
96	0x3dd55bfb	0.104179345
97	0x3d2e9819	0.04262552
98	0x3e9efdec	0.31053102
99	0xbe86f4ff	-0.26358792
100	0xbdbf44df	-0.09339308
101	0x3e5fc737	0.21853338
102	0xbcc00b76	-0.023442965
103	0xbbbb92e1	-0.0057242964
104	0x3e6dc643	0.23220162
105	0x3e2210e3	0.15826754
106	0xbec410c6	-0.38294047
107	0xbe77a80b	-0.24185197
108	0xbd885a8d	-0.06657896
109	0xbc2b5488	-0.010457166
110	0x3ea82fc5	0.32848945
111	0x3de8c64e	0.113659486
112	0x3e7a852e	0.24464867
113	0xbd007fd2	-0.0313719
114	0xbf017246	-0.5056499
115	0x3d6acb15	0.05732258
116	0x3e7c1bb0	0.24619937
117	0xbe4347ba	-0.1907033
118	0x3dd38901	0.10328866
119	0xbe099f8f	-0.13439773
120	0xbdbb88ad	-0.09156928
121	0x3e7cb622	0.24678853
122	0x3d9f8325	0.07788686
123	0xbe390a9d	-0.18070455
124	0xbe128ee1	-0.14312316
125	0x3cd71f4a	0.026260037
126	0xbe85061a	-0.25981218
127	0xbf31f70b	-0.6951758
128	0xbdddb734	-0.10825959
129	0xbead49c8	-0.33845353
130	0xbcbfc8a9	-0.023411112
131	0x3e12f199	0.14349975
132	0x3ee4d308	0.44692254
133	0x3df12949	0.11775453
134	0xbdf58936	-0.119890615
135	0xbe95b20c	-0.292374
136	0xbe960a71	-0.2930484
137	0x3eb3b643	0.35099992
138	0x3dd20ea9	0.102567025
139	0x3c1473cd	0.009060812
140	0xbd339fcb	-0.043853562
141	0xbe9d51b5	-0.307264
142	0xbe197308	-0.14985287
143	0x3e54cdf0	0.20781684
144	0xbdbf8c7a	-0.09352966
145	0xbe758fc5	-0.23980625
146	0x3e416e4e	0.18889734
147	0x3e81a3ab	0.2532018
148	0x3e53dd40	0.20689869
149	0x3e604cf6	0.21904358
150	0xbeb9fae8	-0.3632424
151	0xbe6d77ff	-0.23190306
152	0xbd936f6c	-0.071989864
153	0x3ea2a12b	0.31763586
154	0xbed3a867	-0.41339418
155	0x3e09c70e	0.1345484
156	0xbea26ba7	-0.31722757
157	0xbd814c8d	-0.06313429
158	0xbda32fe1	-0.079681166
159	0x3d9b7cd4	0.075921685
160	0xbe8c2f25	-0.27379718
161	0xbea4a4dc	-0.32157028
162	0x3beb741f	0.0071854736
163	0xbe9440b9	-0.2895563
164	0x3e7afe47	0.24511062
165	0x3dc4fad4	0.09618154
166	0xbd52f9f7	-0.051507916
167	0xbe0c1fa3	-0.13683943
168	0xbda4894f	-0.08034002
169	0xbe641209	-0.22272505
170	0xbe5d11e6	-0.21588859
171	0xbd0e4b76	-0.034739934
172	0xbe01dfe9	-0.12683071
173	0xbc322565	-0.010873173
174	0x3ef77672	0.48332554
175	0xbe6f960b	-0.2339708
176	0x3ed2d1be	0.41175646
177	0xbcc95406	-0.024576198
178	0x3df6d89a	0.12053032
179	0xbe90550a	-0.2818988
180	0xbe24d9d6	-0.16098723
181	0xbea4ce94	-0.32188857
182	0xbe498fcb	-0.19683759
183	0xbd40f364	-0.047107115
184	0xbe9b726d	-0.30360737
185	0xbe3281b2	-0.17432287
186	0xbe4d134a	-0.2002689
187	0xbe7a1a27	-0.24424039
188	0xbe09540d	-0.13410969
189	0xbdb71e59	-0.08941335
190	0x3e0f1dcf	0.13976215
191	0x3e3cca9c	0.18436664
192	0xbe5c7bb7	-0.21531568
193	0x3df20811	0.11817945
194	0xbca6f3db	-0.020379951
195	0xbe7e435f	-0.24830388
196	0xbe407ed7	-0.18798386
197	0xbed7876b	-0.42095503
198	0x3d5424b3	0.05179281
199	0x3de720b5	0.11285535
200	0x3eb214d5	0.3478152
201	0xbe7c5922	-0.24643376
202	0x3e4401af	0.19141267
203	0x3d5bbc80	0.053646564
204	0x3d816cb9	0.06319565
205	0x3da7c0e3	0.08191087
206	0xbde54c0e	-0.11196147
207	0x3e02ec10	0.12785363
208	0x3e0c9394	0.13728172
209	0xbe858663	-0.2607909
210	0x3d4ecc72	0.050487943
211	0x3d030974	0.031991437
212	0x3d51d131	0.05122489
213	0x3da614ff	0.081094734
214	0x3e418271	0.18897416
215	0x3e9d7a38	0.30757308
216	0x3e24cd1d	0.1609387
217	0x3e82fe74	0.25584757
218	0x3d33f486	0.043934368
219	0x3e51a814	0.20474273
220	0xbe58a74c	-0.21157569
221	0x3e8a45c6	0.27006358
222	0x3e7d27a9	0.2472216
223	0x3e01326a	0.12616888
224	0xbf039737	-0.5140261
225	0x3cccd2c7	0.02500285
226	0x3e024957	0.1272329
227	0x3ec4b7bf	0.38421437
228	0xbd3e2f0e	-0.046431594
229	0xbdb9f725	-0.09080342
230	0x3e69c8bd	0.22830482
231	0x3ea6169a	0.3243912
232	0xbeff904c	-0.49914777
233	0xbe872217	-0.26393196
234	0x3c707dfc	0.0146784745
235	0x3dfb8c6b	0.12282642
236	0x3e56c202	0.20972446
237	0x3cf6fb0d	0.030149007
238	0x3ced9a8e	0.029004361
239	0x3ebfcdde	0.37461752
240	0x3e06643e	0.13124177
241	0xbe25bf08	-0.16186154
242	0x3db322b5	0.08746854
243	0x3d268f4a	0.040663995
244	0xbe6db4d3	-0.2321351
245	0xbea67e4a	-0.32518226
246	0xbf085b54	-0.53264356
247	0xbebdbd71	-0.37058595
248	0x3c0a8f06	0.008456951
249	0x3f0b455c	0.5440271
250	0x3e64ce53	0.22344331
251	0xbdf98391	-0.121832974
252	0x3d21ddc5	0.039518137
253	0xbdb27250	-0.0871321
254	0x3ddceca4	0.10787323
255	0xbc81e5d5	-0.015856663

base.mlp.fc1.0.bias f4 [64]
0	0xbb76eabb	-0.0037676531
1	0xbc686be4	-0.014185879
2	0x3d8e5f93	0.06951823
3	0x3d5ad4e2	0.053425677
4	0x3cd59a3e	0.026074525
5	0xbd3df227	-0.046373513
6	0xbb07a978	-0.0020700376
7	0xbd20c6d6	-0.039252125
8	0xbd3c61c9	-0.045991693
9	0x3d709b91	0.05874211
10	0x3d896961	0.067095526
11	0x3c0e0226	0.008667504
12	0xbcdc7a00	-0.026913643
13	0x3cd9adcb	0.026572129
14	0xbdac80c0	-0.084229946
15	0xbc2b6354	-0.010460693
16	0xbc7b9571	-0.015355454
17	0xbc959553	-0.01825968
18	0xbd387f62	-0.045043357
19	0x3d42538a	0.04744295
20	0xb9fdfc42	-0.00048443867
21	0x3d0479e6	0.032342814
22	0xbc86cc57	-0.016454859
23	0xbcd08e07	-0.025458349
24	0x3c87d8db	0.016582897
25	0xbcebbebd	-0.028777475
26	0xbcfcc59d	-0.030855948
27	0xbd33e822	-0.04392255
28	0xbcf28949	-0.029606478
29	0x3d14ab06	0.036295913
30	0x3dc7b09c	0.097504824
31	0xbc4eed61	-0.012629838
32	0xbc62a234	-0.013832618
33	0xbd09b307	-0.033618
34	0x3ce73b17	0.028226418
35	0x3bc79f53	0.006091991
36	0x3d48863b	0.048956137
37	0x3d2dcbaf	0.042430576
38	0xbcb940e9	-0.02261396
39	0xbb9e7892	-0.0048361504
40	0x3db52d09	0.088464804
41	0x3d6af5d1	0.057363335
42	0x3c4fd1d0	0.012684301
43	0xbd933c74	-0.07189265
44	0xbd74dd06	-0.059781097
45	0xbdbc6a51	-0.09199966
46	0x3d35666f	0.04428714
47	0x3cfc1269	0.030770497
48	0x3d1008c0	0.035164595
49	0x3cf8ba9e	0.030362424
50	0xbcff0660	-0.03113097
51	0x3d7a0241	0.061037306
52	0xbdac8f2e	-0.08425747
53	0x3b3d17f3	0.0028853386
54	0xbd3e0c7b	-0.04639862
55	0x3d987058	0.07443303
56	0x3cc9ebea	0.024648625
57	0xbd867b17	-0.06566446
58	0xbd236636	-0.039892398
59	0xbd2176ec	-0.039420053
60	0x3b780bb1	0.0037848765
61	0xbc56a8ff	-0.013101815
62	0xbc5a5737	-0.013326458
63	0xbd48e81e	-0.04904949

base.mlp.fc1.2.weight f4 [64]
0	0x3f84c70e	1.0373247
1	0x3f7e9940	0.9945259
2	0x3f876930	1.0578976
3	0x3f8efe02	1.1171267
4	0x3f7ac2db	0.97953576
5	0x3f8a8bd4	1.0823922
6	0x3f800093	1.0000175
7	0x3f889854	1.0671487
8	0x3f8cc1e1	1.0996667
9	0x3f70fffb	0.94140595
10	0x3f7a836e	0.97856796
11	0x3f858e9e	1.0434148
12	0x3f7c7c63	0.986273
13	0x3f8f751e	1.1207616
14	0x3f86e5dc	1.0538898
15	0x3f85a66c	1.0441413
16	0x3f76d9e2	0.9642621
17	0x3f872e15	1.0560938
18	0x3f73bc70	0.9520941
19	0x3f82a400	1.0206299
20	0x3f8d5e26	1.1044357
21	0x3f80984d	1.0046479
22	0x3f88af9b	1.067859
23	0x3f7f9f20	0.9985218
24	0x3f7cb992	0.9872066
25	0x3f726d19	0.9469772
26	0x3f876a59	1.057933
27	0x3f7f8bfe	0.99822986
28	0x3f766dcf	0.96261305
29	0x3f897225	1.0737959
30	0x3f8d9466	1.1060913
31	0x3f77f2e1	0.9685498
32	0x3f90cb54	1.1312051
33	0x3f84ee36	1.0385196
34	0x3f8365fb	1.0265497
35	0x3f7d0ec9	0.98850685
36	0x3f8c5e58	1.0966291
37	0x3f83b56c	1.028974
38	0x3f821bc7	1.0164727
39	0x3f86db0f	1.0535601
40	0x3f752df6	0.95773256
41	0x3f86fe46	1.0546348
42	0x3f85c980	1.0452118
43	0x3f8f0dd8	1.11761
44	0x3f86f832	1.0544493
45	0x3f7fd12b	0.9992854
46	0x3f832a3d	1.0247265
47	0x3f87ced9	1.061
48	0x3f76eed4	0.9645817
49	0x3f68d41b	0.9094865
50	0x3f826a73	1.0188736
51	0x3f87bebf	1.0605086
52	0x3f814313	1.0098594
53	0x3f70aed4	0.94016767
54	0x3f7e10cc	0.9924438
55	0x3f7a14ff	0.9768829
56	0x3f847094	1.0346856
57	0x3f789f7c	0.97118354
58	0x3f879948	1.0593653
59	0x3f87d563	1.0611995
60	0x3f86e0b0	1.0537319
61	0x3f53a705	0.82676727
62	0x3f82adb1	1.0209256
63	0x3f7d3a53	0.9891712

base.mlp.fc1.2.bias f4 [64]
0	0xbce89ee6	-0.028396081
1	0x3c869983	0.016430622
2	0x3d4ab0e4	0.049485102
3	0x3d959ba1	0.073050745
4	0xbcc48ec9	-0.023993867
5	0xbc0a1750	-0.00842841
6	0x3cbb1ad6	0.022839945
7	0x3d0faeb2	0.03507871
8	0xbdc4231d	-0.0957701
9	0x3da141c6	0.078738734
10	0x3cef0654	0.029177822
11	0xbd01d4e5	-0.031697173
12	0xbcfaedd9	-0.030630993
13	0x3c8d8a05	0.017277727
14	0xbdafe219	-0.085880466
15	0xbcb2ab00	-0.021810055
16	0xbc929dba	-0.017897476
17	0x3beae008	0.00716782
18	0xbd2b1c17	-0.041774835
19	0x3cca0997	0.024662776
20	0xbcd1383e	-0.025539514
21	0xbd5f03f5	-0.054447133
22	0xbd60a854	-0.05484803
23	0xbd87bd18	-0.06627864
24	0x3cdb1b30	0.026746362
25	0xbc637b99	-0.013884448
26	0xbd3b0367	-0.04565754
27	0xbd5de344	-0.054171816
28	0xbd25ba21	-0.04046071
29	0x3d01154b	0.031514447
30	0x3de6d8cc	0.112718195
31	0xbcc229cd	-0.023701573
32	0xbb527c2b	-0.0032117467
33	0xbcd48596	-0.025942605
34	0xbcc73861	-0.024318876
35	0x3a88571c	0.0010401937
36	0x3cc94c98	0.024572656
37	0x3cd56080	0.026046991
38	0x3b27410d	0.002552095
39	0xbc79abc7	-0.015238709
40	0x3da38f60	0.07986331
41	0x3ce5fe1f	0.028075276
42	0x3d6d1ba1	0.057887677
43	0xbd218dd1	-0.039441887
44	0xbd5b0ec1	-0.053480867
45	0xbd26044f	-0.040531453
46	0x3c48062e	0.012208505
47	0xbbcbd061	-0.006219909
48	0xbc332794	-0.010934729
49	0x3d5b90e2	0.053604968
50	0xbd0bffd9	-0.034179542
51	0x3c0ce264	0.008598898
52	0xbd1fc1cb	-0.039003175
53	0xba097767	-0.00052439276
54	0xbd04763a	-0.032339312
55	0x3a950490	0.0011369158
56	0x3cbd42cc	0.02310314
57	0xbd4e5a84	-0.05037929
58	0xba93b1d9	-0.0011268213
59	0xbd1c4dbb	-0.038160067
60	0xbc30b733	-0.010785866
61	0xbd5cd58a	-0.053914584
62	0x37c360fa	2.329097e-05
63	0xbc876f44	-0.016532548

base.mlp.fc_h.0.weight f4 [64, 64]
0	0xbe48178a	-0.1954023
1	0x3e523854	0.205293
2	0xbe2f111f	-0.17096375
3	0xbde74d2b	-0.112940155
4	0x3eb8df09	0.36107662
5	0xbd8202be	-0.06348179
6	0x3da5102f	0.080597274
7	0xbd45f922	-0.048333295
8	0xbd1623a6	-0.03665509
9	0x3d2a41c1	0.041566614
10	0x3b9baca4	0.004750805
11	0xbe7f7ae9	-0.2494923
12	0x3ddfca51	0.10927261
13	0xbdabe201	-0.08392716
14	0x3e370362	0.17872384
15	0x3eacf989	0.3378413
16	0xbe68b9b2	-0.22727087
17	0xbdb042b0	-0.0860647
18	0x3ed28a26	0.41121024
19	0xbe910794	-0.28326094
20	0xbe9f4571	-0.31107667
21	0x3dc41635	0.09574548
22	0x3f0742c8	0.52836275
23	0xbe4d9204	-0.20075232
24	0xbe5ee91e	-0.21768615
25	0xbe04cc3c	-0.12968534
26	0xbb2d9fd0	-0.002649296
27	0x3d6f9873	0.058494996
28	0x3e2eb9bf	0.17063044
29	0x3d4a62e2	0.04941071
30	0xbcaf2f8a	-0.021384973
31	0x3ea6518b	0.32484087
32	0x3ec02d95	0.37534776
33	0xbe5231fe	-0.20526883
34	0xbdcfa95a	-0.10139723
35	0x3b47cf75	0.0030488644
36	0xbe5f9e45	-0.21837719
37	0x3d54b9c7	0.051934984
38	0xbcbfbca9	-0.02340539
39	0x3e3bd9b0	0.1834476
40	0x3e838786	0.25689334
41	0x3d39ae75	0.04533239
42	0xbe161449	-0.14656176
43	0x3c86929d	0.016427333
44	0xbeb2df8e	-0.34936184
45	0x3e33e161	0.17566444
46	0xbeaee2d0	-0.3415742
47	0xbe896eec	-0.2684244
48	0xbe06d57c	-0.13167375
49	0xbddb5340	-0.10709238
50	0xbd3cbed9	-0.046080444
51	0xbe937b41	-0.28804973
52	0x3d76f34d	0.060290623
53	0x3e465f15	0.19372208
54	0xbe8530f7	-0.2601392
55	0x3e545bcb	0.20738141
56	0xbd26f169	-0.04075757
57	0x3d39e790	0.04538685
58	0xbdf23168	-0.1182583
59	0xbf0fc311	-0.5615702
60	0xbdee779e	-0.11643909
61	0x3d436848	0.047706872
62	0x3ca2efe0	0.019889772
63	0xbe0b3835	-0.1359566
64	0x3daef655	0.08543078
65	0x3c124772	0.008928167
66	0x3ef81a5b	0.48457608
67	0xbdaf4876	-0.08558743
68	0xbe1aa2d7	-0.15101181
69	0x3e102d96	0.1407989
70	0xbd43a6d7	-0.047766533
71	0xbe254b0d	-0.16141911
72	0xbec20b6e	-0.37899345
73	0x3cb9796b	0.022640904
74	0xbdd70f74	-0.10500994
75	0xbc70e95d	-0.014704076
76	0xbdf77592	-0.12082972
77	0x3d23b726	0.039969586
78	0x3e8e0d8a	0.27744704
79	0x3dddb896	0.108262226
80	0x3e1a6f87	0.15081607
81	0xbeceeddf	-0.40415856
82	0xbe278e9f	-0.16363
83	0x3e2196cf	0.15780185
84	0xbdbccd9a	-0.09218903
85	0xbea095d9	-0.31364325
86	0x3d44489e	0.047920816
87	0x3cdb90af	0.026802389
88	0xbd12f7a5	-0.035880703
89	0xbd1cca88	-0.038279086
90	0x3e08852e	0.13332054
91	0x3d901622	0.070354715
92	0x3edad144	0.42737782
93	0x3dc9cc97	0.098534755
94	0xbd7f013c	-0.062257037
95	0x3ed81f3a	0.42211324
96	0xbe1920c1	-0.14953901
97	0xbd8db125	-0.06918553
98	0x3e393d36	0.18089756
99	0x3e1dff44	0.15429407
100	0xbe94692e	-0.28986496
101	0xbe686a8c	-0.22696894
102	0x3e22a7d4	0.15884334
103	0xbe47b43e	-0.1950235
104	0xbe2cd7da	-0.16879216
105	0xbce329df	-0.027729927
106	0x3efad8e5	0.48993602
107	0xbead723b	-0.33876213
108	0x3e6e3471	0.23262192
109	0x3e79c9c3	0.24393372
110	0xbd2655d8	-0.04060921
111	0x3e11dafc	0.14243692
112	0xbe93b330	-0.28847647
113	0xbd59bf23	-0.053160798
114	0x3c7e5798	0.015523814
115	0xbe8d2705	-0.27568832
116	0x3c96912b	0.018379768
117	0xbe818206	-0.25294513
118	0xbd568eef	-0.052382406
119	0x3e742351	0.23841597
120	0xbe9a9370	-0.3019061
121	0xbc2df271	-0.010616885
122	0xbe77a484	-0.24183851
123	0x3b52bb86	0.003215523
124	0x3d7876c8	0.060660154
125	0xbe07747d	-0.1322803
126	0x3ed44178	0.414562
127	0x3e0ad2f3	0.13557033
128	0xbebf484a	-0.3735984
129	0x3e42840c	0.18995684
130	0xbdbee87c	-0.093216866
131	0xbd0fa98c	-0.035073802
132	0xbe29d740	-0.16586018
133	0xbcf80b7a	-0.03027891
134	0x3dd9394d	0.106066324
135	0x3e1eda45	0.1551295
136	0x3e37657f	0.17909811
137	0x3d9ce956	0.07661693
138	0xbd9e879b	-0.077407084
139	0xbcce5bdf	-0.025190292
140	0x3e04c473	0.12965564
141	0x3c299fa3	0.010353002
142	0xbd2907df	-0.041267272
143	0x3d56ee04	0.052473083
144	0xbe6df79f	-0.23238991
145	0x3bb3400c	0.0054702815
146	0xbea8a5ef	-0.32939097
147	0xba203415	-0.00061112765
148	0x3e7a3de5	0.24437673
149	0xbdb006e7	-0.085950665
150	0x3d9d0fc3	0.07669022
151	0x3ed2871a	0.411187
152	0xbdb6181b	-0.088913165
153	0x3e290520	0.16505861
154	0xbe3ed59b	-0.18636172
155	0xbc697675	-0.014249434
156	0xbcffe461	-0.03123683
157	0xbdc86740	-0.097853184
158	0xbeba629e	-0.36403364
159	0x3ed0ab81	0.40755847
160	0x3e690d28	0.22758925
161	0x3ea89ef2	0.32933766
162	0xbe09ba5a	-0.13449994
163	0x3e04b68c	0.12960261
164	0x3ea1c92f	0.31598803
165	0xbdf21688	-0.11820704
166	0x3ef30697	0.47465965
167	0xbe90d8fd	-0.2829055
168	0x3dd3491d	0.103166796
169	0xbdf8e63e	-0.1215329
170	0xbebac7b2	-0.3648048
171	0xbe3ca0b6	-0.18420681
172	0xbe77a876	-0.24185356
173	0xbe0afd05	-0.13573082
174	0xbdbb0a89	-0.09132869
175	0x3d31ff12	0.043456145
176	0x3e2d0183	0.16895108
177	0x3ecf437d	0.40481177
178	0xbc103c50	-0.008803442
179	0x3e5290e1	0.2056308
180	0x3e7f1354	0.24909717
181	0xbe4b78d3	-0.1987031
182	0xbda311ff	-0.07962417
183	0x3e9a872a	0.30181247
184	0xbeb5aad3	-0.3548189
185	0x3e4079b6	0.18796429
186	0xbd45d80a	-0.048301734
187	0x3d7602c6	0.06006124
188	0xbe958ca2	-0.29208857
189	0xbe8ddaa3	-0.2770587
190	0x3d93af4c	0.072111696
191	0x3e03e334	0.1287964
192	0xbd3ff330	-0.04686278
193	0xbd6f813e	-0.058472864
194	0x3d451e80	0.04812479
195	0x3ca7cea8	0.020484284
196	0xbdfed909	-0.1244374
197	0xbb21bebe	-0.0024680342
198	0xbe1753dc	-0.14778084
199	0x3dd9a40f	0.10626995
200	0xbe6acc2b	-0.22929446
201	0xbdeac03c	-0.11462447
202	0xbe0f469e	-0.13991782
203	0x3dc94534	0.098276526
204	0xbde5e517	-0.11225336
205	0xbe195a44	-0.1497584
206	0xbdd9f085	-0.106415786
207	0xbd4ea169	-0.0504469
208	0x3e159bbd	0.1461019
209	0xbcda3480	-0.026636362
210	0x3e307484	0.17231947
211	0xbd8fa91b	-0.07014676
212	0x3e68bfa2	0.22729352
213	0xbe2fbe33	-0.17162399
214	0xbe916815	-0.2839972
215	0x3e81639c	0.25271308
216	0xbea0b5df	-0.31388757
217	0x3dc6cbf5	0.097068705
218	0xbebb54d5	-0.3658816
219	0xbe97eb27	-0.29671595
220	0x3ec08d8c	0.37607992
221	0xbd745016	-0.05964669
222	0x3cdbe3c5	0.026842007
223	0x3e844ae6	0.25838393
224	0xbe497ff9	-0.19677724
225	0xbeb9317e	-0.36170572
226	0x3dcbb4ed	0.09946618
227	0x3d2e34e9	0.042530928
228	0xbdbbac39	-0.09163708
229	0x3e38bb00	0.18040085
230	0x3c672d43	0.014109912
231	0xbe289d1d	-0.16466184
232	0x3d75d8a7	0.06002107
233	0xbe3cd22d	-0.1843955
234	0x3e8ac355	0.27102152
235	0xbca95b8e	-0.02067354
236	0xbeb426b5	-0.3518578
237	0xbd4c713b	-0.049912672
238	0xbc5ded02	-0.013545277
239	0xbe9061ba	-0.2819956
240	0x3ed9745a	0.42471582
241	0xbd3bd0d5	-0.045853455
242	0xbdfa84f8	-0.12232393
243	0xbe8296b9	-0.25505617
244	0x3e6e1086	0.2324849
245	0x3e9533e8	0.29141164
246	0xbeaf591f	-0.34247681
247	0xbccc4b70	-0.024938315
248	0x3f19983d	0.5999792
249	0x3eb1b304	0.3470689
250	0x3e9f4bca	0.3111251
251	0x3e6b0e97	0.22954784
252	0xbe1cd299	-0.15314712
253	0xbd46fb2d	-0.048579384
254	0xbdc4b419	-0.096046634
255	0xbcffdd0a	-0.03123333

base.mlp.fc_h.0.bias f4 [64]
0	0x00000000	0.0
1	0x00000000	0.0
2	0x00000000	0.0
3	0x00000000	0.0
4	0x00000000	0.0
5	0x00000000	0.0
6	0x00000000	0.0
7	0x00000000	0.0
8	0x00000000	0.0
9	0x00000000	0.0
10	0x00000000	0.0
11	0x00000000	0.0
12	0x00000000	0.0
13	0x00000000	0.0
14	0x00000000	0.0
15	0x00000000	0.0
16	0x00000000	0.0
17	0x00000000	0.0
18	0x00000000	0.0
19	0x00000000	0.0
20	0x00000000	0.0
21	0x00000000	0.0
22	0x00000000	0.0
23	0x00000000	0.0
24	0x00000000	0.0
25	0x00000000	0.0
26	0x00000000	0.0
27	0x00000000	0.0
28	0x00000000	0.0
29	0x00000000	0.0
30	0x00000000	0.0
31	0x00000000	0.0
32	0x00000000	0.0
33	0x00000000	0.0
34	0x00000000	0.0
35	0x00000000	0.0
36	0x00000000	0.0
37	0x00000000	0.0
38	0x00000000	0.0
39	0x00000000	0.0
40	0x00000000	0.0
41	0x00000000	0.0
42	0x00000000	0.0
43	0x00000000	0.0
44	0x00000000	0.0
45	0x00000000	0.0
46	0x00000000	0.0
47	0x00000000	0.0
48	0x00000000	0.0
49	0x00000000	0.0
50	0x00000000	0.0
51	0x00000000	0.0
52	0x00000000	0.0
53	0x00000000	0.0
54	0x00000000	0.0
55	0x00000000	0.0
56	0x00000000	0.0
57	0x00000000	0.0
58	0x00000000	0.0
59	0x00000000	0.0
60	0x00000000	0.0
61	0x00000000	0.0
62	0x00000000	0.0
63	0x00000000	0.0

base.mlp.fc_h.2.weight f4 [64]
0	0x3f800000	1.0
1	0x3f800000	1.0
2	0x3f800000	1.0
3	0x3f800000	1.0
4	0x3f800000	1.0
5	0x3f800000	1.0
6	0x3f800000	1.0
7	0x3f800000	1.0
8	0x3f800000	1.0
9	0x3f800000	1.0
10	0x3f800000	1.0
11	0x3f800000	1.0
12	0x3f800000	1.0
13	0x3f800000	1.0
14	0x3f800000	1.0
15	0x3f800000	1.0
16	0x3f800000	1.0
17	0x3f800000	1.0
18	0x3f800000	1.0
19	0x3f800000	1.0
20	0x3f800000	1.0
21	0x3f800000	1.0
22	0x3f800000	1.0
23	0x3f800000	1.0
24	0x3f800000	1.0
25	0x3f800000	1.0
26	0x3f800000	1.0
27	0x3f800000	1.0
28	0x3f800000	1.0
29	0x3f800000	1.0
30	0x3f800000	1.0
31	0x3f800000	1.0
32	0x3f800000	1.0
33	0x3f800000	1.0
34	0x3f800000	1.0
35	0x3f800000	1.0
36	0x3f800000	1.0
37	0x3f800000	1.0
38	0x3f800000	1.0
39	0x3f800000	1.0
40	0x3f800000	1.0
41	0x3f800000	1.0
42	0x3f800000	1.0
43	0x3f800000	1.0
44	0x3f800000	1.0
45	0x3f800000	1.0
46	0x3f800000	1.0
47	0x3f800000	1.0
48	0x3f800000	1.0
49	0x3f800000	1.0
50	0x3f800000	1.0
51	0x3f800000	1.0
52	0x3f800000	1.0
53	0x3f800000	1.0
54	0x3f800000	1.0
55	0x3f800000	1.0
56	0x3f800000	1.0
57	0x3f800000	1.0
58	0x3f800000	1.0
59	0x3f800000	1.0
60	0x3f800000	1.0
61	0x3f800000	1.0
62	0x3f800000	1.0
63	0x3f800000	1.0

base.mlp.fc_h.2.bias f4 [64]
0	0x00000000	0.0
1	0x00000000	0.0
2	0x00000000	0.0
3	0x00000000	0.0
4	0x00000000	0.0
5	0x00000000	0.0
6	0x00000000	0.0
7	0x00000000	0.0
8	0x00000000	0.0
9	0x00000000	0.0
10	0x00000000	0.0
11	0x00000000	0.0
12	0x00000000	0.0
13	0x00000000	0.0
14	0x00000000	0.0
15	0x00000000	0.0
16	0x00000000	0.0
17	0x00000000	0.0
18	0x00000000	0.0
19	0x00000000	0.0
20	0x00000000	0.0
21	0x00000000	0.0
22	0x00000000	0.0
23	0x00000000	0.0
24	0x00000000	0.0
25	0x00000000	0.0
26	0x00000000	0.0
27	0x00000000	0.0
28	0x00000000	0.0
29	0x00000000	0.0
30	0x00000000	0.0
31	0x00000000	0.0
32	0x00000000	0.0
33	0x00000000	0.0
34	0x00000000	0.0
35	0x00000000	0.0
36	0x00000000	0.0
37	0x00000000	0.0
38	0x00000000	0.0
39	0x00000000	0.0
40	0x00000000	0.0
41	0x00000000	0.0
42	0x00000000	0.0
43	0x00000000	0.0
44	0x00000000	0.0
45	0x00000000	0.0
46	0x00000000	0.0
47	0x00000000	0.0
48	0x00000000	0.0
49	0x00000000	0.0
50	0x00000000	0.0
51	0x00000000	0.0
52	0x00000000	0.0
53	0x00000000	0.0
54	0x00000000	0.0
55	0x00000000	0.0
56	0x00000000	0.0
57	0x00000000	0.0
58	0x00000000	0.0
59	0x00000000	0.0
60	0x00000000	0.0
61	0x00000000	0.0
62	0x00000000	0.0
63	0x00000000	0.0

base.mlp.fc2.0.0.weight f4 [64, 64]
0	0xbe3a2d95	-0.1818145
1	0x3ebfddc6	0.37473887
2	0xbe6ae546	-0.22939023
3	0xbe4048e9	-0.18777813
4	0x3ea62033	0.3244644
5	0xbbb68837	-0.0055704373
6	0x3dd2dbcb	0.102958284
7	0xbd8c7f23	-0.06860187
8	0xbd8db211	-0.06918729
9	0xbc756c43	-0.014979425
10	0xbb517e1c	-0.0031966036
11	0xbe414a6c	-0.18876046
12	0x3d18a064	0.037262335
13	0xbe1b6d16	-0.15178332
14	0x3e8e0f93	0.27746257
15	0x3eba5b45	0.36397758
16	0xbe1e5670	-0.15462661
17	0xbd98f332	-0.07468261
18	0x3eb01fc1	0.34399226
19	0xbe937465	-0.2879974
20	0xbea8c698	-0.32964015
21	0x3df1792b	0.11790689
22	0x3f20c8e3	0.6280653
23	0xbe08b565	-0.13350447
24	0xbe89bb59	-0.26900747
25	0xbd528079	-0.051392052
26	0x3db47262	0.08810879
27	0xbd8dc374	-0.06922045
28	0x3da6db35	0.08147279
29	0x3de8ab83	0.11360838
30	0x3d8721f3	0.06598272
31	0x3ea13d6f	0.31492183
32	0x3e9b5915	0.30341402
33	0xbe7e0c17	-0.248093
34	0xbd94416b	-0.0723904
35	0x3d282e34	0.041059688
36	0xbe788f62	-0.24273446
37	0x3e3f2e21	0.1866994
38	0x3d9996ce	0.07499467
39	0x3e853ae9	0.26021507
40	0x3da5248b	0.08063611
41	0xbd963086	-0.07333474
42	0xbd6ecbd9	-0.058299873
43	0xbd9619c4	-0.07329133
44	0xbee02c39	-0.4378374
45	0x3e2f02e4	0.17090946
46	0xbe89f980	-0.26948166
47	0xbe9f98d4	-0.31171286
48	0xbe18ebd8	-0.14933717
49	0xbca97602	-0.020686153
50	0xbd48733c	-0.04893802
51	0xbea0fe95	-0.3144423
52	0xbd088ea3	-0.033339154
53	0x3dfe759a	0.124247745
54	0xbe1cad0e	-0.1530039
55	0x3e277c64	0.16356045
56	0xbd8e7cb2	-0.069573775
57	0xbd8486f3	-0.06471052
58	0xbe166594	-0.14687186
59	0xbf23ff11	-0.64061075
60	0xbde2ecf2	-0.1108035
61	0xbc9b7ee9	-0.018981414
62	0x3e26b425	0.16279657
63	0xbda135ae	-0.07871567
64	0x3c9d9be3	0.019239372
65	0x3dfe23b5	0.12409154
66	0x3ecec65b	0.40385708
67	0xbe2f6ddf	-0.17131756
68	0xbe7908e6	-0.243198
69	0x3e4219ec	0.18955201
70	0xbde04980	-0.10951519
71	0xbd520709	-0.05127624
72	0xbedcafdf	-0.4310293
73	0x3ce9b2c9	0.028527634
74	0xbdaef001	-0.08541871
75	0xbd27d8d1	-0.040978257
76	0xbe29d4fd	-0.16585155
77	0xbd0cce30	-0.034376323
78	0x3ea5a467	0.32351992
79	0x3e898d5d	0.26865664
80	0x3e8c7ec5	0.27440467
81	0xbed2dc4b	-0.41183695
82	0xbe6a88dc	-0.2290377
83	0x3e249557	0.16072594
84	0xbd4207d5	-0.04737075
85	0xbe8521df	-0.26002404
86	0x3e34d629	0.1765982
87	0x3d8ef67b	0.06980606
88	0xbd04f93a	-0.032464243
89	0xbcd1531e	-0.025552329
90	0x3e4019fe	0.18759915
91	0x3c95544a	0.018228669
92	0x3e9927b4	0.29913104
93	0x3df3a73e	0.11897133
94	0x3d766971	0.06015915
95	0x3ed68394	0.4189726
96	0xbe706582	-0.23476222
97	0xbdc55f3f	-0.096373074
98	0x3e3bad44	0.18327814
99	0x3e093437	0.13398825
100	0xbe954933	-0.2915741
101	0xbe21b178	-0.15790355
102	0x3e63b861	0.22238304
103	0xbe79bcc7	-0.24388419
104	0xbe876e5e	-0.2645139
105	0xbe31dc58	-0.1736921
106	0x3efb3d24	0.49070084
107	0xbeda173e	-0.42595857
108	0x3e451efe	0.19250104
109	0x3e95f730	0.29290152
110	0x3cc1e053	0.023666536
111	0x3e011f9a	0.12609711
112	0xbe5de08a	-0.21667686
113	0xbcf341f8	-0.029694542
114	0xbd754202	-0.059877403
115	0xbe768f38	-0.24078071
116	0xbd535c42	-0.051601656
117	0xbeadecaf	-0.33969638
118	0x3d069af4	0.03286262
119	0x3e249671	0.16073014
120	0xbea87268	-0.32899785
121	0xbe384f3b	-0.17998974
122	0xbe4e56fd	-0.20150371
123	0xbbf345b7	-0.007424082
124	0x3df8ff02	0.12158014
125	0xbde09bb2	-0.109671965
126	0x3f01323a	0.50467265
127	0x3e4c93ac	0.19978207
128	0xbec6d63b	-0.3883532
129	0x3e213da5	0.15746172
130	0xbdc5f0eb	-0.09665092
131	0x3dfb7e63	0.12279966
132	0xbe59fd93	-0.21288137
133	0xbd527f9b	-0.051391225
134	0x3dd7485e	0.1051185
135	0x3e3d651e	0.18495604
136	0x3e575308	0.21027768
137	0x3dec48e3	0.115373395
138	0xbdeeb5e6	-0.11655788
139	0xbca66826	-0.020313334
140	0x3e1a0f02	0.15044788
141	0x3dc27adf	0.09496092
142	0xbe2e0991	-0.16995837
143	0xbd4bc23f	-0.049745794
144	0xbe9b71bc	-0.3036021
145	0x3dffdfd9	0.124938674
146	0xbe731582	-0.23738673
147	0xbc8093de	-0.015695509
148	0x3dcfbc74	0.101433665
149	0xbd7df9fa	-0.062005974
150	0x3c8586cc	0.016299628
151	0x3eb7a059	0.35864523
152	0xbdbf5b0f	-0.0934354
153	0x3e08adca	0.13347545
154	0xbe83f2c9	-0.25771168
155	0x3e1e2c73	0.15446644
156	0x3d6c72ff	0.057726856
157	0xbe52c388	-0.20582402
158	0xbeff449f	-0.4985704
159	0x3ea06412	0.31326348
160	0x3e7f454e	0.24928781
161	0x3eb5a39f	0.35476395
162	0xbdbc9d3b	-0.09209677
163	0x3da78305	0.08179287
164	0x3ea5fe47	0.3242056
165	0xbd8851bf	-0.06656217
166	0x3edafe5a	0.4277218
167	0xbeaabc6d	-0.33346882
168	0x3e1df13e	0.15424058
169	0xbd94109e	-0.07229732
170	0xbee90e83	-0.45518884
171	0xbe0d9da4	-0.13829666
172	0xbe4673b8	-0.1938008
173	0xbe44021a	-0.19141427
174	0xbe2d1f1b	-0.16906397
175	0x3c847629	0.016169624
176	0x3e4d3c10	0.20042443
177	0x3ece04ae	0.40237945
178	0xbd3a434b	-0.04547433
179	0x3eb1bc0f	0.3471379
180	0x3eacdf63	0.3376418
181	0xbe48c998	-0.19608152
182	0xbd2ed418	-0.042682737
183	0x3ea75470	0.32681608
184	0xbea3c569	-0.3198655
185	0x3e915b8c	0.28390157
186	0xbd3fb3ef	-0.046802457
187	0x3df965f7	0.121776514
188	0xbeae8dae	-0.34092468
189	0xbe6b64bb	-0.22987644
190	0x3cc3fed1	0.023925217
191	0x3de4b0a0	0.11166501
192	0xbdab1959	-0.08354444
193	0xbaba7c04	-0.0014227633
194	0x3cfadd1e	0.030623015
195	0xbd0b5289	-0.03401426
196	0xbdffe1ee	-0.124942645
197	0xbdc49664	-0.09598997
198	0xbddeed22	-0.10885073
199	0x3e353636	0.17696461
200	0xbe3fb574	-0.18721563
201	0xbc6cb97d	-0.014448521
202	0xbdac2722	-0.084059015
203	0x3da21a6e	0.07915197
204	0xbdf51975	-0.11967746
205	0xbe5d944e	-0.21638605
206	0xbdad002e	-0.084473
207	0xbd672360	-0.05643022
208	0x3dffeaf3	0.12495985
209	0xbc06d097	-0.008228443
210	0x3e0908ac	0.13382214
211	0xbddc9a27	-0.1077159
212	0x3e385cd3	0.1800416
213	0xbe537bf8	-0.20652759
214	0xbe995387	-0.2994654
215	0x3e7a47d3	0.24441461
216	0xbe6ee37c	-0.23328966
217	0x3dd58241	0.104252346
218	0xbeac5398	-0.33657527
219	0xbe90be19	-0.28270033
220	0x3e9b680a	0.30352813
221	0xbc2866cc	-0.010278415
222	0xbd13cc85	-0.036083717
223	0x3e9b8f84	0.3038293
224	0xbe3d972d	-0.185147
225	0xbeb99920	-0.36249638
226	0x3d7a44f4	0.061100915
227	0x3dd04ff8	0.10171503
228	0xbdc6a59c	-0.09699556
229	0x3e72989c	0.23691028
230	0x3dc008e8	0.09376699
231	0xbe4d4ae9	-0.20048107
232	0xbdcf8fca	-0.101348475
233	0xbe3c30e5	-0.18378027
234	0x3ead3ff7	0.33837864
235	0x3d80e687	0.062939696
236	0xbee3572a	-0.44402438
237	0xbd298af6	-0.04139229
238	0x3db7e1e7	0.08978634
239	0xbe9b5e18	-0.30345225
240	0x3eb85749	0.36004093
241	0xbc6f1875	-0.014593233
242	0xbe7c2968	-0.2462517
243	0xbeb1dba8	-0.34737897
244	0x3e4d2f67	0.20037614
245	0x3e7f0521	0.249043
246	0xbeadb7df	-0.33929345
247	0xbb96fafc	-0.0046075564
248	0x3f209222	0.6272298
249	0x3e8c4def	0.2740321
250	0x3eb7b7dd	0.35882464
251	0x3e7527b6	0.2394093
252	0xbd8c1785	-0.068404235
253	0xbc317ac5	-0.010832493
254	0xbdae8553	-0.08521523
255	0xbd1f859f	-0.03894579

base.mlp.fc2.0.0.bias f4 [64]
0	0xbcc580ab	-0.024109205
1	0x3b766cd9	0.00376015
2	0xbc9d6cad	-0.01921686
3	0x3ce2d146	0.02768768
4	0x3bafeb68	0.005368639
5	0x3da577ed	0.08079515
6	0xbc9c9d73	-0.019118046
7	0xbd433df9	-0.047666524
8	0x3be87fd6	0.0070953174
9	0x3cb90006	0.022583019
10	0xbca0915e	-0.019600566
11	0xbd77340e	-0.060352378
12	0x3c12f3d3	0.008969265
13	0xbc8e02e7	-0.017335368
14	0xbd05b4e2	-0.032643206
15	0xbd2ebf07	-0.042662647
16	0x3bd55dc8	0.0065114237
17	0x3c69a989	0.014261612
18	0xbd441b96	-0.04787787
19	0xbe3b1cbb	-0.18272679
20	0x3c5182c4	0.012787525
21	0x3d16e9c5	0.036844034
22	0xbc2a0d72	-0.010379182
23	0xbc8dbb8d	-0.017301345
24	0x3ba83a30	0.0051338896
25	0xbd50d235	-0.05098172
26	0xbbf0d84e	-0.0073500043
27	0xbce4e401	-0.027940752
28	0x3d7e5990	0.062097132
29	0xbc63b5ac	-0.013898294
30	0xbd42641a	-0.047458746
31	0x3c84681f	0.01616293
32	0x3d96bcae	0.073602065
33	0x3d68ad45	0.056805868
34	0xbb19dbc3	-0.0023476935
35	0xbc0b64d2	-0.008507924
36	0x3c95638d	0.018235946
37	0xbce760f9	-0.028244482
38	0x3d938b49	0.07204301
39	0x3d094b1e	0.033518903
40	0xbce16ddc	-0.027518205
41	0xbb043fec	-0.0020179702
42	0xbc413a96	-0.011793753
43	0xbb12a9ab	-0.0022378962
44	0x3d1614d7	0.03664097
45	0x3d1d8d39	0.03846476
46	0x3c6437d1	0.013929323
47	0xbd6d829a	-0.05798588
48	0x3c091f31	0.008369253
49	0x3d79db64	0.061000243
50	0xbcec0c64	-0.028814502
51	0xbd41da5b	-0.04732738
52	0x3de22d6d	0.110438205
53	0x3d91cde5	0.071193494
54	0x3b93cd7b	0.004510579
55	0x3d3c5323	0.045977723
56	0x3d443b7c	0.04790829
57	0x3cd1d9c5	0.025616536
58	0x3da136f8	0.078718126
59	0xbd6c661f	-0.057714578
60	0x3d65b872	0.056084104
61	0xbc033afa	-0.008009667
62	0x3ba7f402	0.0051255235
63	0x3d62950e	0.05531793

base.mlp.fc2.0.2.weight f4 [64]
0	0x3f800b41	1.0003434
1	0x3f8708c1	1.0549546
2	0x3f85fa2e	1.0466974
3	0x3f6e25ad	0.9302624
4	0x3f78e032	0.97217095
5	0x3f86e03b	1.053718
6	0x3f7e54b7	0.99348015
7	0x3f752e81	0.95774084
8	0x3f8a22ac	1.0791831
9	0x3f8208f8	1.0158987
10	0x3f936a39	1.1516792
11	0x3f8647e4	1.0490689
12	0x3f833349	1.0250026
13	0x3f854c9e	1.0414007
14	0x3f705dcc	0.9389312
15	0x3f833e6f	1.0253428
16	0x3f7e294f	0.9928178
17	0x3f855479	1.0416404
18	0x3f80e6df	1.0070456
19	0x3f724056	0.9462942
20	0x3f873ee0	1.0566063
21	0x3f7c87b6	0.9864458
22	0x3f6ed730	0.932971
23	0x3f778a3a	0.9669529
24	0x3f6db371	0.9285193
25	0x3f794d24	0.9738333
26	0x3f8075c0	1.0035934
27	0x3f8101f4	1.0078721
28	0x3f82e0c0	1.0224838
29	0x3f7b2c19	0.9811416
30	0x3f742049	0.95361763
31	0x3f825290	1.0181446
32	0x3f850848	1.0393152
33	0x3f70249e	0.93805873
34	0x3f8b4838	1.0881414
35	0x3f6eb7cb	0.93249196
36	0x3f79c8ea	0.97572196
37	0x3f8697e0	1.0515099
38	0x3f69fbe1	0.9139996
39	0x3f66d269	0.9016481
40	0x3f716053	0.94287604
41	0x3f8139c5	1.0095755
42	0x3f7defe4	0.9919417
43	0x3f812976	1.0090778
44	0x3f8ec16a	1.1152775
45	0x3f648830	0.89270306
46	0x3f8683d3	1.050898
47	0x3f884586	1.0646217
48	0x3f813416	1.009402
49	0x3f8df9fc	1.1091914
50	0x3f8aba78	1.0838156
51	0x3f71a100	0.9438629
52	0x3f794757	0.9737448
53	0x3f7bd840	0.98376846
54	0x3f878fd3	1.0590767
55	0x3f82bc0c	1.0213637
56	0x3f855a5f	1.0418204
57	0x3f8cc325	1.0997053
58	0x3f7b4b45	0.9816173
59	0x3f81b8c0	1.0134506
60	0x3f8076c7	1.0036248
61	0x3f8ce782	1.100815
62	0x3f8665d6	1.0499828
63	0x3f7f2a64	0.9967406

base.mlp.fc2.0.2.bias f4 [64]
0	0xbb4ac39a	-0.0030939342
1	0xbb07d421	-0.0020725804
2	0x3c66dc48	0.014090605
3	0x3c1e04c3	0.00964469
4	0x3c003c22	0.007826837
5	0x3b848d91	0.0040451963
6	0xbd0fb2d2	-0.035082646
7	0xba9436d3	-0.0011307843
8	0x3b531917	0.0032211
9	0x3b65b957	0.0035053098
10	0x3c97f258	0.018548176
11	0xbd6c6dd4	-0.057721928
12	0xbd9325eb	-0.07184967
13	0xbc389afe	-0.011267422
14	0x3c68846c	0.014191728
15	0xbd3345ae	-0.043767624
16	0x3cc6d399	0.02427082
17	0xbb858b69	-0.004075457
18	0x3c62f045	0.01385123
19	0xbcd10d42	-0.025519017
20	0x3b4113f4	0.0029461356
21	0xbc69d3d6	-0.014271697
22	0xbc0f5cf5	-0.00875019
23	0xbcbb38c0	-0.022854209
24	0xbbcaf0dc	-0.0061932635
25	0xbd21a255	-0.039461453
26	0x3bc30514	0.005951533
27	0xbaf306c9	-0.0018541451
28	0x3bf5ec0b	0.007504945
29	0xbc9f0589	-0.019411819
30	0x3d0f936e	0.03505271
31	0xbbc07f4e	-0.005874551
32	0x3d2111ae	0.0393235
33	0xbc0f88a1	-0.008760602
34	0x3bd25601	0.006418944
35	0x3d14b952	0.036309548
36	0xbb3d30aa	-0.0028868117
37	0x3d0e3cd4	0.03472598
38	0x3cb9d612	0.022685084
39	0xbcf225ae	-0.029558983
40	0x3bce17da	0.0062894644
41	0x3ca5a93f	0.020222304
42	0x3cd0aed6	0.025473993
43	0x3bc4bdab	0.0060040555
44	0xbc1f0808	-0.009706505
45	0x3c5ceb13	0.01348378
46	0x3d040ed9	0.032240722
47	0x3cb6ef3d	0.022330875
48	0x3cf47e2e	0.029845323
49	0x3c27d2a2	0.01024309
50	0xbbace0a4	-0.0052758027
51	0x39e4992b	0.00043601668
52	0x3d6e5500	0.05818653
53	0x3ce389c1	0.027775647
54	0x3c0812ed	0.0083052935
55	0x3d1e83ec	0.03870003
56	0x3d17abca	0.037029065
57	0x3c30d660	0.0107932985
58	0xbbf66d5b	-0.0075203604
59	0xbc828997	-0.015934749
60	0x3d911d2a	0.07085641
61	0x3be39527	0.0069452706
62	0x3cba1386	0.022714388
63	0xbb402c28	-0.0029323194

rnn.rnn.weight_ih_l0 f4 [192, 64]
0	0xbab44b1d	-0.0013755296
1	0x3e1aec2e	0.15129158
2	0xbe2514fb	-0.16121285
3	0xbd928d76	-0.07155888
4	0x3e4fad0b	0.20280854
5	0xbcead4f0	-0.02866599
6	0xbd339ed1	-0.04385263
7	0xbdee4e77	-0.1163606
8	0x3da0058a	0.078135565
9	0x3dc98f54	0.09841791
10	0x3e1da01a	0.15393105
11	0xbd81b1da	-0.063327506
12	0xbe7a34ce	-0.24434206
13	0x3d6afdc0	0.0573709
14	0x3db9131f	0.0903685
15	0xbda5c918	-0.08094996
16	0x3af3c224	0.0018597287
17	0x3de322b5	0.11090604
18	0x3e0861f2	0.13318613
19	0x3cb5a8e7	0.022175265
20	0xbda71c7b	-0.08159729
21	0x3da26617	0.07929628
22	0x3d2d6e8f	0.042341765
23	0xbdaf6b1c	-0.08565351
24	0x3d0af2ea	0.033923067
25	0x3984b975	0.00025315178
26	0xbdcbef8d	-0.099578
27	0xbc901f39	-0.017593013
28	0xbe2fd342	-0.17170432
29	0xbdf5f581	-0.12009717
30	0xbe26a9b6	-0.16275677
31	0x3de1c068	0.11023027
32	0x3e43caba	0.19120303
33	0xbe245942	-0.16049674
34	0x3d94f6a8	0.072736084
35	0x3a8336ee	0.0010010877
36	0x3ad25dcd	0.0016049683
37	0xbd19f41e	-0.037586324
38	0x3d867529	0.06565315
39	0x3c902086	0.017593633
40	0x3d9979f1	0.074939616
41	0x3e609ec8	0.2193557
42	0x3b066b28	0.0020510647
43	0x3d53328c	0.051561877
44	0xbcf69548	-0.03010048
45	0xbd0a3e9f	-0.033751126
46	0x3df37533	0.11887588
47	0xbda8d213	-0.082431935
48	0xbdc6ec5a	-0.09713049
49	0xbe0722a4	-0.13196808
50	0x3e4d0e98	0.20025098
51	0x3d5c7d0d	0.053830195
52	0xbe266b4f	-0.16251872
53	0x3d9d5b3c	0.07683417
54	0xbc6defe1	-0.014522524
55	0x3c8e297a	0.017353762
56	0xbbbeca35	-0.005822445
57	0x3d270920	0.040780187
58	0xbd90b8fd	-0.07066534
59	0x3d2031ed	0.039110113
60	0xbe2fcfad	-0.17169066
61	0xbd44ee88	-0.048079044
62	0x3ccce983	0.02501369
63	0x3e8a905d	0.27063265
64	0x3dbc39d3	0.091907166
65	0x3ce42c26	0.027853083
66	0xbe0528b3	-0.13003807
67	0x3dad6900	0.08467293
68	0x3da2aa68	0.07942659
69	0x3db6090d	0.08888445
70	0x3caad736	0.020854574
71	0xbda1fb5c	-0.07909271
72	0xbc01471f	-0.007890492
73	0x3d39dc97	0.045376386
74	0x3c1e7bda	0.009673083
75	0xba894049	-0.0010471429
76	0x3d8a2b70	0.06746566
77	0x3db27863	0.08714368
78	0xbdaa9cc4	-0.08330682
79	0x3e2d90f6	0.1694983
80	0x3d909a00	0.07060623
81	0x3dff08a5	0.12452821
82	0xbd3e25f8	-0.04642293
83	0xbd32da6f	-0.043665346
84	0xbcda8685	-0.026675472
85	0x3d312082	0.043243892
86	0xbe27a684	-0.16372114
87	0x3cc576af	0.024104444
88	0x3c326020	0.010887176
89	0xbe25900e	-0.16168234
90	0xbd6a2ca1	-0.057171468
91	0x3d472cd0	0.04862672
92	0x3e8eb941	0.27875713
93	0x3d31c061	0.043396357
94	0xbb6d7fd7	-0.0036239529
95	0x3e85525c	0.26039398
96	0x3da5791b	0.0807974
97	0xbdb4aac6	-0.08821635
98	0xbd643988	-0.05571893
99	0x3caa2be8	0.02077289
100	0x3dd7489f	0.10511898
101	0x3d3d76a2	0.046255715
102	0xbdc66a81	-0.09688283
103	0x3d97a2ee	0.07404123
104	0xbe1cf978	-0.1532954
105	0xbe264eab	-0.16240947
106	0xbcbfa1b1	-0.02339253
107	0xbe134853	-0.14383058
108	0xbd75a2b9	-0.059969638
109	0x3d5c2f21	0.053755883
110	0x3d281ebc	0.041044936
111	0xbdf63304	-0.12021449
112	0xbdc841f2	-0.09778203
113	0x3e337196	0.17523798
114	0x3d7ad717	0.061240282
115	0x3ce5342c	0.027978979
116	0x3cf9026e	0.030396666
117	0x3ccb05fd	0.024783129
118	0x3dd8f0c5	0.10592798
119	0x3d9e27a6	0.07722406
120	0x3c78d8a0	0.015188366
121	0xbc845003	-0.016151434
122	0xbd82dd4c	-0.06389865
123	0xbe2ac4d3	-0.16676645
124	0x3dc8cc38	0.09804577
125	0x3e2b45b1	0.16725804
126	0x3c353024	0.011058841
127	0x3d780d2d	0.06055944
128	0x3df34696	0.118786976
129	0x3cf0578d	0.029338622
130	0x3d690307	0.056887653
131	0xbdb0e950	-0.08638251
132	0xbe47e344	-0.19520289
133	0xbe07d9c7	-0.13266669
134	0x3e1309cc	0.14359206
135	0xbe84ea1e	-0.25959867
136	0x3a6509d9	0.0008737124
137	0xbc449434	-0.011998225
138	0xbd9d8943	-0.07692196
139	0xbe561fa8	-0.20910513
140	0xbd6a61b0	-0.05722207
141	0x3e30e9b3	0.17276649
142	0xbc96afc0	-0.018394351
143	0xbe1aca7e	-0.15116307
144	0xbdf980f1	-0.12182797
145	0x3d2fdbdf	0.042934295
146	0x3d12af4b	0.035811704
147	0x3dbc468b	0.091931425
148	0xbdf95c17	-0.12175768
149	0xbe210a74	-0.15726644
150	0x3d59b8b9	0.05315468
151	0xbdba9a43	-0.09111454
152	0xbba1ca56	-0.0049374504
153	0x3d886898	0.06660575
154	0xbde2c6db	-0.11073085
155	0x3b54b43f	0.0032456068
156	0x3e0c92f3	0.13727932
157	0x3d6962ee	0.056979112
158	0xbdcf74cf	-0.10129701
159	0xbc9638e1	-0.018337669
160	0x3d6af260	0.057360053
161	0x3d522697	0.051306333
162	0xbc22a3a8	-0.009926714
163	0x3c8d69a1	0.017262282
164	0xbc8a2541	-0.016863467
165	0x3d821247	0.063511424
166	0x3c6ef9d5	0.014585932
167	0xbe2e7b42	-0.17039207
168	0xbdcd7598	-0.10032195
169	0xbe100e7b	-0.14068024
170	0x3dbee743	0.093214534
171	0xbd5baf74	-0.053634122
172	0xbc3bb1e9	-0.011455991
173	0x3e72ff9d	0.23730321
174	0xbc82cc59	-0.015966581
175	0xbd88b953	-0.06675973
176	0x3e8adc89	0.2712138
177	0x3cd4c1e5	0.025971362
178	0xbcd5f7e5	-0.026119182
179	0x3e4eebbb	0.20207112
180	0xbbd04890	-0.0063563064
181	0xbcdf888a	-0.027286787
182	0x3dd85bf5	0.105644144
183	0xbe27c621	-0.16384174
184	0xbbd39ba2	-0.006457762
185	0x3e5dc6bd	0.21657844
186	0x3e078b5c	0.13236755
187	0x3d892874	0.06697169
188	0x3c8096f3	0.015696978
189	0xbd8b6d45	-0.06807951
190	0xbe64f657	-0.22359596
191	0x3d0cd4ba	0.03438256
192	0x3dda6ce5	0.10665301
193	0x3d8e60e3	0.069520734
194	0xbd7a2ce5	-0.06107797
195	0x3e2b654e	0.16737863
196	0x3b04e6cc	0.0020279167
197	0xbd210723	-0.039313447
198	0x3e2051b5	0.15656169
199	0xbc65a836	-0.014017155
200	0xbcd23eae	-0.025664654
201	0xbc6c9eed	-0.014442188
202	0x3c4033ae	0.011731071
203	0xbd89c369	-0.06726725
204	0xbdc7cf9a	-0.09756394
205	0x3da4f9a2	0.08055426
206	0x3d888999	0.0666687
207	0x3d8de354	0.06928125
208	0xbdf0f52f	-0.11765515
209	0xbde194c7	-0.11014705
210	0xbc4f9e1d	-0.0126719745
211	0x3ddf3c23	0.10900142
212	0xbc82fd11	-0.015989812
213	0xbce26afd	-0.027638907
214	0xbcc260c7	-0.023727788
215	0xbd299009	-0.04139713
216	0xbda6efa2	-0.08151175
217	0xbd5fcb97	-0.054637518
218	0xbe725f90	-0.23669267
219	0xbd63add4	-0.055585697
220	0xbd2e6f9e	-0.042586915
221	0x3e39e359	0.18153132
222	0xbe0a9b23	-0.13535742
223	0x3bcf07f9	0.006318089
224	0x3d97012e	0.07373272
225	0xbd88791d	-0.066637255
226	0x3bd70e1b	0.006562961
227	0xbd9bb8e7	-0.07603627
228	0x3e9049f0	0.2818141
229	0x3e0116c4	0.1260634
230	0xbca06f2c	-0.01958426
231	0xbce00077	-0.027343972
232	0x3d2297a9	0.039695416
233	0xbe0fb5cf	-0.14034198
234	0x3c0ab4a2	0.008465918
235	0x3c97b416	0.018518489
236	0xbd588352	-0.05285961
237	0xba9d822c	-0.0012016944
238	0x3a5cf7bf	0.0008429251
239	0xbc7ae663	-0.015313718
240	0xbcd6bc16	-0.026212733
241	0x3d9494e5	0.07254962
242	0x3e29b939	0.16574563
243	0x3d99ad89	0.07503802
244	0x3c8cc031	0.017181488
245	0x3b62f85c	0.0034632897
246	0x3e0b0c8a	0.13579002
247	0x3d9556d8	0.07291955
248	0xbd1a5a8a	-0.037684
249	0x3dc8093b	0.097673856
250	0x3d63c57d	0.05560826
251	0x3e057958	0.1303457
252	0xbebaef8a	-0.3651088
253	0xbca7842b	-0.020448765
254	0xbdeccc6b	-0.11562427
255	0x3d9fab66	0.077963635

rnn.rnn.weight_hh_l0 f4 [192, 64]
0	0x3e5b0209	0.21387495
1	0xbc53165a	-0.012883747
2	0xbdbeded2	-0.09319843
3	0x3d1008b1	0.03516454
4	0xbe6127da	-0.21987858
5	0xbd781863	-0.060570132
6	0x3dd6c21d	0.10486243
7	0xbdc6405e	-0.09680246
8	0x3dc11650	0.09428084
9	0x3da8447a	0.08216186
10	0xbe49d660	-0.19710684
11	0x3dd73065	0.105072774
12	0xbd123454	-0.035694435
13	0xbd665684	-0.05623485
14	0x3d04d1b8	0.032426566
15	0x3d6a0948	0.057137758
16	0x3ddbf0f3	0.10739317
17	0xbd861ef3	-0.06548872
18	0x3db232a2	0.08701064
19	0xbda958f0	-0.082689166
20	0x3d9824e8	0.07428914
21	0x3e34bded	0.17650576
22	0xbd928819	-0.07154865
23	0xbc282138	-0.010261826
24	0xbd54c68e	-0.05194717
25	0x3d88e17f	0.06683635
26	0x3e0c0174	0.1367243
27	0xbd375e19	-0.044767473
28	0xbd358ffd	-0.04432677
29	0x3d95f9f4	0.073230654
30	0xbde4902d	-0.11160312
31	0x3df61865	0.12016372
32	0x3dc973e5	0.09836558
33	0x3d9b28bc	0.07576129
34	0x3d048b3d	0.03235935
35	0x3e8f4c41	0.27987865
36	0xbdf3dd35	-0.11907426
37	0xbd013338	-0.031542987
38	0xbcad5e45	-0.021163115
39	0xbe0aa20d	-0.1353838
40	0x3dfa1ed3	0.122129105
41	0x3db473d3	0.08811154
42	0x3de514e5	0.11185626
43	0xbe21d396	-0.1580337
44	0x3a44267c	0.0007482541
45	0x3c12e4b8	0.008965664
46	0x3d832b67	0.06404763
47	0x3d4f7323	0.050646912
48	0xbbd21728	-0.006411452
49	0x3e22b673	0.15889911
50	0x3dfd9882	0.12382604
51	0x3bd8ec6d	0.006619981
52	0xbdf19dea	-0.11797698
53	0x3dd2570a	0.10270508
54	0x3e84d040	0.25940132
55	0xbe084fc3	-0.13311677
56	0xbddac50c	-0.10682115
57	0xbda5e8f9	-0.08101077
58	0x3c89b57e	0.016810175
59	0xbd93ab39	-0.072103925
60	0x3e5a666d	0.21328135
61	0x3bd28475	0.0064244815
62	0xbcfdcb13	-0.030980622
63	0x3df8e2cc	0.12152633
64	0xbdd4735d	-0.10373566
65	0x3e19a936	0.15005955
66	0x3dd35083	0.10318091
67	0x3dbd79ec	0.092517704
68	0x3c398a64	0.011324499
69	0xbdf3bd06	-0.11901288
70	0xbdb89543	-0.090128444
71	0xbc9518c8	-0.018200293
72	0xbcf197da	-0.029491354
73	0x3af3596e	0.0018566081
74	0x3b1f1721	0.002427526
75	0xbd0a5a2f	-0.033777412
76	0x3cd26042	0.025680665
77	0x3ca2db3d	0.019879932
78	0xbbcad9e5	-0.006190526
79	0xbd88236c	-0.06647381
80	0xbe206fe8	-0.15667689
81	0x3e88cf65	0.2672073
82	0xbe43e07c	-0.19128603
83	0x3d1113c7	0.03541925
84	0x3e71b4af	0.23604082
85	0x3d855be2	0.06511666
86	0x3df38952	0.11891426
87	0x3e174d0f	0.1477549
88	0x3d7ed8af	0.062218364
89	0xbe25886c	-0.16165322
90	0xbd09cf79	-0.033645127
91	0xbdc4e752	-0.09614433
92	0x3dcc3556	0.099711105
93	0x3ab55fcc	0.0013837754
94	0xbe01edfd	-0.12688442
95	0xbdaeca2b	-0.08534654
96	0x3d952c68	0.072838604
97	0x3d9b7294	0.075902134
98	0xbd8495d4	-0.0647389
99	0xbe56651e	-0.2093701
100	0x3c1dde58	0.00963553
101	0xbe3ae5be	-0.18251702
102	0xbd81aa04	-0.06331256
103	0xbdc525ad	-0.09626327
104	0xbcd78cea	-0.02631231
105	0x3cd22b61	0.02565545
106	0xbd843a71	-0.06456459
107	0xbe06509f	-0.13116692
108	0x3dd229ed	0.10261903
109	0x3d063ee9	0.03277484
110	0x3d5f60f3	0.054535817
111	0x3d0c5a49	0.03426579
112	0xbd9ae8f4	-0.075639635
113	0x3c5da8a9	0.013528981
114	0x3ca8d54e	0.020609524
115	0x3d856a4f	0.065144174
116	0x3e231394	0.15925437
117	0x3d70abfe	0.058757775
118	0x3df944ef	0.12171351
119	0xbe11b304	-0.14228445
120	0xbdf09872	-0.11747827
121	0xbe34a931	-0.17642666
122	0x3d345bf1	0.044032995
123	0xbc98cbb6	-0.018651824
124	0xbd273095	-0.040817816
125	0xbde13e15	-0.10998169
126	0xbceae6f7	-0.028674586
127	0xbd4c1171	-0.04982132
128	0x3d346495	0.044041235
129	0x3d12623b	0.03573821
130	0x3d147950	0.036248505
131	0xbc2f1674	-0.010686506
132	0xbdf30e6b	-0.118679844
133	0xbe6cb25f	-0.23114918
134	0x3b23e936	0.002501083
135	0xbcc4f5ce	-0.02404299
136	0xbb5ac4bc	-0.0033381423
137	0xbd91b5a6	-0.07114725
138	0x3d82032f	0.063482635
139	0x3dda1045	0.106476344
140	0xbe815aeb	-0.25264677
141	0xbcd35870	-0.025799006
142	0x3d7e8585	0.062139053
143	0x3e168606	0.14699563
144	0xbd5c0beb	-0.053722303
145	0x3e09e2b9	0.13465394
146	0xbcefdde3	-0.029280609
147	0xbe64420f	-0.22290824
148	0xbd7012fa	-0.058611847
149	0xbd23d824	-0.04000105
150	0xbd7666dc	-0.060156688
151	0xbe1fcb40	-0.15604877
152	0xba139cde	-0.000563098
153	0xbd9cd1f3	-0.07657232
154	0x3d987ffa	0.074462846
155	0xbc55fee2	-0.013061257
156	0xbd530916	-0.051522337
157	0x3d9f02f4	0.07764235
158	0x3d1cfa4a	0.03832463
159	0x3c197828	0.009367026
160	0x3dd0c120	0.10193086
161	0xb93c04e2	-0.00017930896
162	0x3d73432c	0.059390232
163	0xbe1cad6d	-0.15300532
164	0xbda01072	-0.07815637
165	0xbc9aa81c	-0.018878989
166	0x3c6642e2	0.014054032
167	0x3da18afa	0.07887836
168	0x3d16ee50	0.036848366
169	0xbd963856	-0.07334964
170	0xbde3f078	-0.1112985
171	0x3d9b7257	0.07590168
172	0xbd96128d	-0.07327757
173	0xbdef7d91	-0.11693872
174	0x3df7edfc	0.12105939
175	0x3dd49f32	0.103819266
176	0x3e1444ea	0.14479414
177	0xbcc8c3a3	-0.02450735
178	0xba8295c3	-0.0009962845
179	0xbc8edd8e	-0.01743963
180	0x3d48a913	0.048989367
181	0xbd2c5e01	-0.042081837
182	0x3e48fca4	0.19627625
183	0xbd312cd7	-0.043255653
184	0xbe00f0e4	-0.12591892
185	0xbd7d6748	-0.061866075
186	0xbd9b2f1b	-0.07577344
187	0x3d8dfbba	0.06932779
188	0x3c455578	0.012044303
189	0xbd9f146c	-0.07767567
190	0xbd2bbb8d	-0.04192691
191	0xbdac0cc2	-0.08400871
192	0xbc6d3843	-0.014478746
193	0xbd01da91	-0.03170258
194	0xbd319923	-0.043358933
195	0x3d140e45	0.03614642
196	0xbbfeb177	-0.0077726203
197	0x3c01bd40	0.007918656
198	0x3e0792a9	0.1323954
199	0xbd6a4d5c	-0.057202682
200	0xbd525dd4	-0.051359013
201	0xbdee7279	-0.11642928
202	0xba17c768	-0.0005789907
203	0x3ddb7bd3	0.10716977
204	0xbd3aacf1	-0.045575086
205	0x3d79cf81	0.060988907
206	0x3a2bebec	0.00065582874
207	0x3ccc4689	0.024935978
208	0xbe3686fe	-0.17824933
209	0xbdc0ea95	-0.09419743
210	0xbe69792c	-0.2280013
211	0xbdfe8f79	-0.12429709
212	0xbbbfeb43	-0.005856903
213	0xbe0ed640	-0.13948917
214	0x3c86d4f0	0.016458958
215	0xbd7c986b	-0.061668795
216	0x3dbf5a9b	0.093434535
217	0xbb15a0df	-0.0022831482
218	0x3d54c3c6	0.051944517
219	0x3d0f0a86	0.034922145
220	0x3e35b6db	0.17745535
221	0x3dcdf16a	0.10055812
222	0xbca9cd79	-0.02072786
223	0xbd7615aa	-0.060079254
224	0xbc38b4a7	-0.01127354
225	0x3dbb0afc	0.091329545
226	0xbc23e5c7	-0.010003514
227	0xbe06ce2b	-0.13164584
228	0x3d8ffafd	0.07030294
229	0x3d0a79dd	0.033807624
230	0xbcc520ba	-0.024063457
231	0xbba4bdce	-0.0050275093
232	0xbd3f6bad	-0.046733547
233	0x3e1288c3	0.14309983
234	0xbdfe38de	-0.1241319
235	0xbd8cfd2f	-0.068842284
236	0x3da57e86	0.08080773
237	0xbdf23e02	-0.11828233
238	0x3e039367	0.12849198
239	0x3e255c19	0.16148414
240	0x3d4e70df	0.05040061
241	0x3d3b4c4d	0.045727063
242	0x3d3ec5ce	0.04657536
243	0xbde79947	-0.11308532
244	0xbcddba0c	-0.027066253
245	0xbcdfa1ab	-0.027298769
246	0x3dcc4142	0.099733844
247	0x3da39a83	0.07988455
248	0xbd5ac43d	-0.053409804
249	0xbd5dc23f	-0.054140326
250	0xbe5de15b	-0.21667998
251	0xbd9b959b	-0.07596894
252	0x3dcde0ef	0.10052668
253	0xbd9b9eeb	-0.075986706
254	0xbd529656	-0.051412903
255	0x3b229ec6	0.0024813875
