onpolicy/scripts/results/MPE/simple_spread/rmappo/check/wandb/run-20220705_094259-2opmmmgz/files/critic.pt (torch, 156012 bytes, 21 tensors)

base.feature_norm.weight f4 [54]
0.84606534 0.91074765 1.0254186 1.0062125 1.0141118 0.98078275 1.0370064 0.93196243
0.9783872 0.93318033 1.0264838 1.018819 1.0185702 1.0263003 1.0077686 1.0166886
0.9910964 1.0093734 0.8696612 0.8317188 1.0414857 0.99638844 0.96140987 0.9599122
0.9927163 0.957683 0.9950871 0.92802185 1.0556371 1.0062759 0.99715304 0.9718658
0.99151033 1.0483378 1.0227842 1.0061005 0.8637998 0.86702305 0.93804896 0.97708595
0.95912296 0.9855845 0.91080993 0.9671691 0.9778052 0.98720014 1.0102412 1.0194454
1.0050395 1.0240301 1.0042354 1.0127401 1.0056378 0.9951614
00000000: bd97 583f c226 693f eb40 833f 92cb 803f
00000010: 6ace 813f 9414 7b3f a0bc 843f 1795 6e3f
00000020: 9577 7a3f e8e4 6e3f d263 833f a968 823f
00000030: 8260 823f cf5d 833f 90fe 803f da22 823f
00000040: 7eb8 7d3f 2633 813f 1ea2 5e3f 86eb 543f
00000050: 674f 853f 5013 7f3f f51e 763f cebc 753f
00000060: a822 7e3f b72a 753f 07be 7e3f d792 6d3f
00000070: 1e1f 873f a6cd 803f 6c45 7f3f 32cc 783f
00000080: 9fd3 7d3f ef2f 863f 98ea 823f e7c7 803f
00000090: fc21 5d3f 39f5 5d3f fa23 703f 4e22 7a3f
000000a0: 1589 753f 444f 7c3f d72a 693f 6598 773f
000000b0: 7151 7a3f 26b9 7c3f 954f 813f 307d 823f
000000c0: 22a5 803f 6b13 833f c98a 803f 78a1 813f
000000d0: bdb8 803f e6c2 7e3f

base.feature_norm.bias f4 [54]
0.004219566 0.009553207 -0.11174011 -0.0037117803 -0.044890188 -0.037897825 0.04693381 -0.040493898
0.030728934 0.017188054 -0.039553408 -0.036689788 0.02414605 -0.00911273 -0.016224844 -0.027536687
-0.12109825 -0.023909973 0.0120525295 -0.047675274 -0.0197317 0.039784342 0.054477036 0.054088183
-0.003649243 -0.010105211 -0.01663175 -0.035131052 -0.0352105 0.00717596 0.053057693 -0.0026202162
-0.011685595 0.006393257 0.03933835 -0.007946374 -0.024441492 -0.041978005 0.008130748 -0.008437681
0.014015973 0.03542771 -0.00987959 -0.029219497 -0.023117738 -0.062189043 0.010383514 -0.035282865
-0.038552955 -0.009952134 0.033116046 0.018312894 0.0088605555 -0.025424857
00000000: 4944 8a3b 0e85 1c3c 00d8 e4bd 5741 73bb
00000010: c6de 37bd c03a 1bbd ab3d 403d eedc 25bd
00000020: 3fbb fb3c f6cd 8c3c c102 22bd 0848 16bd
00000030: f0cd c53c 8f4d 15bc f7e9 84bc 9e94 e1bc
00000040: 5c02 f8bd d9de c3bc f977 453c 2647 43bd
00000050: 60a4 a1bc e8f4 223d 5023 5f3d 928b 5d3d
00000060: 2328 6fbb 5490 25bc 4f3f 88bc 94e5 0fbd
00000070: e338 10bd 5124 eb3b 0653 593d efb7 2bbb
00000080: f074 3fbc 877e d13b 4021 213d 8231 02bc
00000090: 8639 c8bc 21f1 2bbd d436 053c 333e 0abc
000000a0: 40a3 653c a51c 113d 01de 21bc ba5d efbc
000000b0: 6961 bdbc f0b9 7ebd 9d1f 2a3c c484 10bd
000000c0: b4e9 1dbd 470e 23bc b1a4 073d ec04 963c
000000d0: dd2b 113c ca47 d0bc

base.mlp.fc1.0.weight f4 [64, 54]
0.3073475 -0.17658581 0.062662244 0.07787628 -0.07533797 -0.12456741 0.21951641 0.05850511
-0.28314903 -0.06114623 -0.07111037 0.25522608 0.04883341 -0.07542178 -0.019747991 0.15171526
0.3064748 0.20430008 0.30964607 0.1366262 0.0065758517 0.16648304 0.055267893 0.16202815
0.069506586 -0.07666307 -0.08713677 0.16945998 0.07511452 -0.32773226 0.2511224 -0.2946794
-0.18856293 -0.3962345 -0.20820086 -0.2801117 0.17732674 -0.037203424 -0.015357203 0.11284288
0.21865731 0.43234026 0.07458416 0.2244186 0.47615284 -0.32981947 -0.13507448 -0.006133879
0.098739564 -0.04302884 0.021121603 -0.12574401 0.2275406 -0.094843484 0.34820354 0.12147788
0.3008658 -0.18075345 -0.44911402 -0.040640205 0.09384169 -0.0462853 0.13533475 0.09116931
0.18711972 0.41398916 -0.25068262 0.045132194 -0.16011874 0.15500128 0.15875083 0.343419
-0.21748178 0.025441697 0.2589435 -0.16101035 0.053983193 0.06560892 0.031446118 -0.16897571
0.2671678 -0.40726542 0.20021032 -0.07144927 0.25360754 0.09125942 0.06404109 0.11231223
-0.116321936 0.15244804 -0.12291641 0.014741797 -0.51382977 0.069803365 -0.12591393 -0.06183875
0.03869653 0.20558755 0.03923134 0.04335195 0.21390939 -0.45168325 -0.10567835 0.09606944
0.059227753 0.06597163 -0.07023962 0.10815212 0.0200979 -0.09549989 0.08850231 -0.2253893
-0.08343014 0.19229314 -0.034416545 -0.19023083 0.18384926 -0.1383547 -0.1268981 0.32725972
0.22114477 -0.2728187 0.1134723 -0.020460028 -0.26566634 -0.17139441 -0.12793222 -0.049215853
-0.124474846 0.3261079 0.108975075 0.2654925 -0.04141953 -0.096375175 -0.32877553 0.25710937
-0.17077771 -0.22741294 0.26927462 0.3379628 0.025040919 -0.024326103 -0.027613197 -0.43261003
-0.082848065 0.26294068 0.02401141 -0.13241144 -0.29150897 0.33306924 0.2984842 0.03334876
0.15021634 -0.44188842 0.14361478 0.047298755 0.22358778 0.029955575 0.007166117 0.01569377
-0.032151587 -0.19438072 0.21420912 -0.14447173 -0.07376642 0.13702945 -0.052104402 -0.31271932
-0.5280292 -0.20419896 -0.091817394 -0.066990204 -0.15871616 -0.17933434 -0.2521926 0.05348392
-0.074497566 -0.12952243 0.02110022 0.2673299 0.28487456 -0.32124686 0.15328412 0.24693449
-0.13308671 -0.038438883 0.1352531 0.18083018 -0.17930806 0.19102983 0.12279092 0.0011031553
-0.036026735 -0.05922523 -0.098308675 0.1266341 -0.21249141 -0.43954402 -0.12102837 0.23543411
-0.027792389 -0.1822253 -0.4348013 -0.08579671 -0.032532882 -0.1128846 -0.011313455 0.3282845
0.2219805 -0.15280831 0.08588827 0.03245426 0.0996736 0.31271 0.36439648 -0.017716346
0.077194296 -0.016594734 0.08803365 0.035296675 0.40508828 -0.12323404 0.29479173 0.025428496
-0.12274122 0.0914012 0.042821772 -0.16949046 -0.19271709 -0.0072359177 0.19856863 0.27485996
0.4759685 -0.22163388 -0.17562531 -0.13268657 -0.21309838 -0.55647665 -0.25398368 0.2524757
-0.016330408 -0.011017698 0.043321375 -0.2940632 0.39477956 0.091756776 0.4435559 0.08426722
0.009945872 -0.1210447 0.24300854 -0.23519583 0.196273 0.060258877 0.2082242 0.056308474
00000000: a75c 9d3e e9d2 34be 1055 803d 997d 9f3d
00000010: cb4a 9abd 331d ffbd e9c8 603e 0ea3 6f3d
00000020: e9f8 90be 7874 7abd 50a2 91bd feac 823e
00000030: 8b05 483d bc76 9abd 8ac6 a1bc 3f5b 1b3e
00000040: 44ea 9c3e 0a34 513e ee89 9e3e bde7 0b3e
00000050: 3e7a d73b 887a 2a3e 9660 623d b5ea 253e
00000060: 7859 8e3d 8701 9dbd c374 b2bd eb86 2d3e
00000070: a4d5 993d 86cc a7be 1d93 803e 38e0 96be
00000080: a416 41be 40df cabe 9b32 55be cd6a 8fbe
00000090: 2495 353e 9e62 18bd c79c 7bbc 2b1a e73d
000000a0: b4e7 5f3e b45b dd3e 94bf 983d fdcd 653e
000000b0: 4eca f33e 19de a8be f750 0abe b5fe c8bb
000000c0: f837 ca3d 023f 30bd 3607 ad3c 0ac3 00be
000000d0: 6700 693e 4d3d c2bd bc47 b23e 65c9 f83d
000000e0: 150b 9a3e 6f17 39be 46f2 e5be 5876 26bd
000000f0: 1230 c03d a895 3dbd 3195 0a3e fab6 ba3d
00000100: 509c 3f3e 63f6 d33e 7959 80be 89dc 383d
00000110: 2bf6 23be a8b8 1e3e 948f 223e 9dd4 af3e
00000120: 8bb3 5ebe 1b6b d03c 3e94 843e e6df 24be
00000130: 7b1d 5d3d f85d 863d a5cd 003d f807 2dbe
00000140: 38ca 883e 1885 d0be ef03 4d3e ff53 92bd
00000150: d9d8 813e 38e6 ba3d fa27 833d f403 e63d
00000160: 323a eebd 571b 1c3e 99bb fbbd 9487 713c
00000170: 598a 03bf 11f5 8e3d 95ef 00be a14a 7dbd
00000180: 4180 1e3d 8b85 523e 0bb1 203d d091 313d
00000190: 100b 5b3e 0743 e7be e46d d8bd 0ec0 c43d
000001a0: cd98 723d 221c 873d cad9 8fbd dc7e dd3d
000001b0: 5aa4 a43c 7295 c3bd b340 b53d 74cc 66be
000001c0: 6cdd aabd 7ee8 443e 5df8 0cbd dfcb 42be
000001d0: fb42 3c3e dbac 0dbe 93f1 01be 968e a73e
000001e0: c673 623e e5ae 8bbe 2a64 e83d ca9b a7bc
000001f0: 6b05 88be 0482 2fbe aa00 03be 9096 49bd
00000200: abec febd 9df7 a63e 532e df3d a2ee 873e
00000210: 86a7 29bd 5960 c5bd 4455 a8be d7a3 833e
00000220: 5ae0 2ebe f0de 68be 5dde 893e 7609 ad3e
00000230: 9d22 cd3c 8947 c7bc 1235 e2bc 107f ddbe
00000240: 3fac a9bd 29a0 863e 94b3 c43c dd96 07be
00000250: aa40 95be 0d88 aa3e ecd2 983e b698 083d
00000260: 50d2 193e 333f e2be c10f 133e 57bc 413d
00000270: 32f4 643e 6565 f53c bfd1 ea3b 3990 803c
00000280: 62b1 03bd bd0b 47be a359 5b3e 66f0 13be
00000290: d912 97bd 7351 0c3e 6d6b 55bd bf1c a0be
000002a0: ec2c 07bf 8819 51be c20a bcbd 2932 89bd
000002b0: 7d86 22be 6ca3 37be 631f 81be f411 5b3d
000002c0: 2e92 98bd 87a1 04be 5eda ac3c 77df 883e
000002d0: 14db 913e 787a a4be 83f6 1c3e 65dc 7c3e
000002e0: e247 08be 1772 1dbd ca7f 0a3e 8c2b 393e
000002f0: 889c 37be 539d 433e ce79 fb3d c097 903a
00000300: c590 13bd 2896 72bd 0f56 c9bd 5fac 013e
00000310: 5997 59be ea0b e1be b9dd f7bd a415 713e
00000320: ddac e3bc 4599 3abe 479e debe 2fb6 afbd
00000330: 3341 05bd 0b30 e7bd 125c 39bc e814 a83e
00000340: db4e 633e c879 1cbe 30e6 af3d c2ee 043d
00000350: ac21 cc3d 861b a03e 2d92 ba3e df21 91bc
00000360: 0b18 9e3d aef1 87bc fc4a b43d 3f93 103d
00000370: bb67 cf3e 2162 fcbd f1ee 963e 6c4f d03c
00000380: c05f fbbd 8d30 bb3d e265 2f3d e88e 2dbe
00000390: a157 45be 471b edbb 9355 4b3e 72ba 8c3e
000003a0: 25b2 f33e fef3 62be 1fd7 33be fdde 07be
000003b0: 7636 5abe 4175 0ebf 260a 82be 7f44 813e
000003c0: 59c7 85bc 9383 34bc c171 313d 748f 96be
000003d0: 8c20 ca3e faea bb3d c219 e33e 4b94 ac3d
000003e0: 03f4 223c 49e6 f7bd 3bd7 783e 2dd7 70be
000003f0: cafb 483e 03d2 763d ba38 553e b7a3 663d

base.mlp.fc1.0.bias f4 [64]
-0.069506876 -0.07420539 0.042415008 -0.02249995 -0.0031608916 -0.055594325 -0.034204874 0.005548275
0.00759166 0.017070465 -0.014104092 -0.0013588642 0.024522865 0.055948168 -0.092216335 0.031533316
-0.01830734 -0.028192217 -0.03373329 0.064185016 -0.04725394 -0.00043031972 0.0006343955 0.033952657
-0.04804546 0.027197069 -0.024728486 -0.031822313 0.032042433 -0.016477259 0.009756426 0.06988814
-0.02115059 0.06524301 0.023416346 -0.012798597 0.031045666 0.019377545 0.071581684 0.035161838
-0.01997815 0.121751584 -0.0212435 0.01802597 0.049288567 0.081126794 0.0025421442 -0.0182114
0.02942329 -0.06414761 -0.029271686 -0.009870162 -0.01713131 -0.0129824355 0.030135063 0.019171583
-0.022776376 -0.026908124 -0.008063728 0.020409497 0.044936433 0.0046079517 -0.00967113 0.03392156
00000000: 9f59 8ebd fff8 97bd 5cbb 2d3d d151 b8bc
00000010: f626 4fbb e0b6 63bd 691a 0cbd 4ece b53b
00000020: 76c3 f83b 5cd7 8b3c d914 67bc eb1b b2ba
00000030: 2de4 c83c e829 653d ebdb bcbd 1429 013d
00000040: 46f9 95bc 5df3 e6bc eb2b 0abd 6f73 833d
00000050: 598d 41bd 899c e1b9 904d 263a f111 0b3d
00000060: 51cb 44bd 63cc de3c 6593 cabc 1d58 02bd
00000070: ed3e 033d 51fb 86bc 6bd9 1f3c 8321 8f3d
00000080: 0144 adbc 219e 853d a3d3 bf3c 35b1 51bc
00000090: 7b53 fe3c a8bd 9e3c 6b99 923d dc05 103d
000000a0: 38a9 a3bc e558 f93d d906 aebc 33ab 933c
000000b0: cfe2 493d ce25 a63d 1a9a 263b 1330 95bc
000000c0: 1d09 f13c d25f 83bd 2dcb efbc 76b6 21bc
000000d0: f656 8cbc 48b4 54bc cfdd f63c b90d 9d3c
000000e0: 8695 babc 6d6e dcbc ba1d 04bc d131 a73c
000000f0: 440f 383d 4dfe 963b a973 1ebc 55f1 0a3d

base.mlp.fc1.2.weight f4 [64]
1.0035312 0.9933509 0.9943891 0.9660782 0.9971625 0.99387836 0.91992784 1.0344522
0.99201715 0.98331887 0.9859962 1.0264201 0.97586733 1.0036204 0.9086601 0.9305104
0.965137 0.95871115 0.9459654 0.9842325 1.0038246 1.0161971 0.95635617 1.0532414
1.013476 0.97035164 0.9806831 0.98600185 0.99442077 0.90609396 0.987769 1.0215231
0.9613613 0.93300176 0.98394436 0.9504303 1.0062912 0.9877065 0.9094838 1.0329088
0.99063945 1.023272 0.99303424 0.99837774 0.9781422 0.94551545 1.0258393 0.99106205
0.9554696 0.871319 0.9631063 0.9018938 0.98484784 0.9847856 0.99726456 0.9653924
0.9484126 0.9725644 0.99113053 1.0070081 1.0114405 1.0345327 0.9892216 0.9324784
00000000: b673 803f 3f4c 7e3f 4990 7e3f e750 773f
00000010: 0b46 7f3f d06e 7e3f 6480 6b3f ee68 843f
00000020: d6f4 7d3f c9ba 7b3f 3f6a 7c3f bc61 833f
00000030: 71d2 793f a276 803f f39d 683f ee35 6e3f
00000040: 3813 773f 186e 753f ca2a 723f a9f6 7b3f
00000050: 537d 803f bf12 823f c2d3 743f 9dd0 863f
00000060: 95b9 813f f768 783f 0c0e 7b3f 9e6a 7c3f
00000070: 5c92 7e3f c6f5 673f 6ede 7c3f 45c1 823f
00000080: c61b 763f 34d9 6e3f c7e3 7b3f 664f 733f
00000090: 26ce 803f 55da 7c3f eed3 683f 5b36 843f
000000a0: 8c9a 7d3f 94fa 823f 7e37 7e3f af95 7f3f
000000b0: 8767 7a3f 4d0d 723f b44e 833f 3eb6 7d3f
000000c0: a899 743f c30e 5f3f 228e 763f 83e2 663f
000000d0: fd1e 7c3f e91a 7c3f bb4c 7f3f f523 773f
000000e0: 2bcb 723f fbf9 783f bbba 7d3f a4e5 803f
000000f0: e276 813f 916b 843f a03d 7d3f e8b6 6e3f

base.mlp.fc1.2.bias f4 [64]
-0.0724812 -0.071512416 0.042464215 -0.007373625 0.015633574 -0.058626324 -0.056122925 -0.010483422
0.0012110765 0.0008322691 -0.012516663 -0.0036620973 0.015958559 0.051681045 -0.07845881 0.018273287
-0.018805858 -0.019266283 -0.020501921 0.10431829 -0.04540748 -0.0058941413 -0.004240342 0.025356118
-0.040383432 0.018165195 -0.02044668 -0.023387745 0.021402812 -0.03866668 0.0074081817 0.04905676
-0.023123981 0.08817307 0.021581948 -0.03415393 0.023821248 0.020327093 0.05468525 0.03188764
0.0029542127 0.12401579 -0.01902359 0.015193879 0.041465044 0.06474504 0.0054957527 -0.016315829
0.027589208 -0.06361644 -0.011860166 -0.02355024 -0.03048298 -0.014133661 0.023942096 0.018776795
-0.02559273 -0.025240287 -0.025198238 0.0046583246 0.035428315 -0.0017072102 -0.021088297 0.019568548
00000000: 0671 94bd 1a75 92bd f5ee 2d3d 739e f1bb
00000010: fb11 803c 2822 70bd 27e1 65bd a9c2 2bbc
00000020: fcbc 9e3a a22c 5a3a b112 4dbc ccff 6fbb
00000030: 86bb 823c 81af 533d 03af a0bd dcb1 953c
00000040: be0e 9abc 53d4 9dbc a5f3 a7bc d4a4 d53d
00000050: 32fd 39bd a423 c1bb 91f2 8abb a2b7 cf3c
00000060: 1969 25bd 2dcf 943c cc7f a7bc a897 bfbc
00000070: f354 af3c f460 1ebd 55c0 f23b beef 483d
00000080: 816e bdbc 1594 b43d a0cc b03c fee4 0bbd
00000090: c724 c33c 0185 a63c a4fd 5f3d 9d9c 023d
000000a0: 779b 413b fefb fd3d 5cd7 9bbc bfef 783c
000000b0: 40d7 293d 0c99 843d b715 b43b c6a8 85bc
000000c0: c302 e23c 5649 82bd 2451 42bc 6fec c0bc
000000d0: 71b7 f9bc df90 67bc 3722 c43c cbd1 993c
000000e0: d8a7 d1bc b8c4 cebc 896c cebc dca4 983b
000000f0: 481d 113d 78c4 dfba 5dc1 acbc 384e a03c

base.mlp.fc_h.0.weight f4 [64, 64]
0.21588464 0.10572761 0.20004773 0.027888143 0.15627165 -0.033900473 -0.21665014 -0.24577421
0.436351 0.3419431 -0.19917214 0.123769194 -0.178651 -0.26655707 -0.03573226 -0.06970317
-0.2903124 0.09229655 0.27490407 -0.070359826 0.33536512 -0.17214717 0.45474553 0.015168959
-0.07879431 -0.0005172193 0.029585293 0.23085022 0.044719316 0.316298 0.088164404 0.28605446
0.4179679 0.10892064 -0.36976922 -0.18152326 -0.17939657 0.017761674 0.11121482 -0.0895561
0.33603403 0.19564526 -0.13220708 -0.07457688 0.0981779 -0.1312271 0.003074991 0.3727097
-0.046207815 -0.05102601 -0.05591786 -0.1603029 -0.13852477 -0.017940972 0.2799285 0.060951024
-0.16192004 0.32003823 0.18588066 0.09733128 0.12333498 -0.20544174 0.2595455 0.34445623
0.13205321 0.02231116 -0.20511353 -0.021469867 -0.31361666 -0.1805371 -0.05622994 0.33464697
0.27270603 0.39925712 0.29679176 -0.18341818 -0.32841995 0.22962455 0.20638473 -0.33162403
0.25292698 0.048302133 0.14804302 0.018574234 -0.0012428111 0.14598154 -0.012151092 -0.17575073
0.116680324 -0.020493079 -0.12893046 0.18253157 -0.10048334 0.28798172 -0.07465226 -0.19915159
-0.06775538 -0.23695745 0.17817378 0.026155777 0.122722015 -0.18491784 -0.0022577827 0.12946434
0.040902 0.110301755 -0.5021628 0.24107316 -0.059416592 0.10425083 0.38195106 -0.18079965
0.17332928 -0.2235127 0.0036190667 -0.16052872 -0.44320503 0.1594844 0.009376175 -0.14450344
0.07687163 0.542786 -0.18217628 0.17505945 0.013666932 0.03296584 -0.094057955 -0.24496925
0.049915377 0.064892374 -0.22341678 -0.1597275 -0.15683213 0.20205073 0.07948268 0.1648375
0.15153243 -0.06908768 0.15667415 -0.6502459 0.23174779 -0.029074783 0.022239573 0.1637833
-0.3550476 -0.17051229 -0.005217685 -0.09755218 -0.04580705 -0.06688019 0.10753665 -0.014207414
0.10357953 -0.54498005 0.2620824 -0.15868574 -0.29979742 0.22308078 -0.1026414 -0.03040354
0.11877112 0.1702472 -0.5035857 0.044295568 0.17212567 0.03301071 0.101695925 -0.24926133
0.07304721 -0.01412374 -0.15412945 -0.060064804 0.05172747 0.20138063 -0.34142652 -0.112014234
0.13034837 0.23922421 -0.13091539 -0.32006237 0.2593315 0.069606334 -0.3094842 0.0011356331
0.46374547 0.12072612 -0.11562419 0.13735801 0.16548459 0.1285125 -0.14110756 0.09795883
0.2700482 -0.02576803 0.08858169 -0.3741858 -0.3617097 0.08087004 -0.04683442 0.009291569
0.055922776 0.3188959 0.2692788 -0.20496058 0.25667265 0.3381308 -0.45937482 0.29512346
-0.0030774125 -0.30812058 0.0033674669 -0.09468201 0.026797354 0.19142745 -0.18470258 0.11466149
0.47694835 -0.054542463 -0.30308938 -0.063454546 0.13860242 -0.06720924 0.18355453 0.35559666
0.07092305 -0.15146965 -0.10108484 0.33696586 0.026895544 0.013071407 0.01475684 -0.007225818
-0.0026313742 -0.07222659 0.23893517 0.15895617 -0.13221724 0.37292942 0.0842339 0.16249754
0.092640474 -0.3586434 0.081029356 0.050211474 0.056084853 -0.11784455 0.3489419 0.075665124
-0.13600357 -0.062315617 0.35997474 -0.0011707221 -0.2771175 -0.15616947 -0.025935067 0.21227483
00000000: dd10 5d3e b887 d83d 50d9 4c3e ad75 e43c
00000010: ad05 203e 39db 0abd 89d9 5dbe 3cac 7bbe
00000020: 6669 df3e 2a13 af3e c8f3 4bbe b47a fd3d
00000030: 4af0 36be 2b7a 88be fe5b 12bd 89c0 8ebd
00000040: d4a3 94be f905 bd3d 3ac0 8c3e d018 90bd
00000050: fab4 ab3e 5947 30be 68d4 e83e 3a87 783c
00000060: e95e a1bd 0096 07ba db5c f23c 0064 6c3e
00000070: 9a2b 373d d0f1 a13e 8a8f b43d bb75 923e
00000080: e3ff d53e c911 df3d 6452 bdbe 3ce1 39be
00000090: bcb3 37be ee80 913c 98c4 e33d 3069 b7bd
000000a0: a70c ac3e 3b57 483e 4b61 07be c3bb 98bd
000000b0: 7f11 c93d 6660 06be ca85 493b ced3 be3e
000000c0: 6844 3dbd a600 51bd 200a 65bd 7226 24be
000000d0: 70d9 0dbe f2f8 92bc ca52 8f3e c8a7 793d
000000e0: 5ece 25be 0ddc a33e 8057 3e3e 9f55 c73d
000000f0: 0d97 fc3d 525f 52be 26e3 843e 915c b03e
00000100: f538 073e e5c5 b63c 4809 52be 93e1 afbc
00000110: 5d92 a0be b8de 38be 5e51 66bd d956 ab3e
00000120: 20a0 8b3e 6e6b cc3e 17f5 973e fad1 3bbe
00000130: a926 a8be b322 6b3e 8556 533e a0ca a9be
00000140: a57f 813e 75d8 453d 9798 173e fe28 983c
00000150: d2e5 a2ba 2f7c 153e 6015 47bc 00f8 33be
00000160: 18f6 ee3d 1ae1 a7bc 5906 04be 8ee9 3a3e
00000170: 36ca cdbd 5772 933e 49e3 98bd 65ee 4bbe
00000180: 55c3 8abd f9a4 72be 3073 363e a444 d63c
00000190: ae55 fb3d 1a5b 3dbe 4ff7 13bb 4d92 043e
000001a0: db88 273d e3e5 e13d be8d 00bf e2db 763e
000001b0: d05e 73bd 7681 d53d 178f c33e 8b23 39be
000001c0: 3b7d 313e 83e0 64be dd2d 6d3b a461 24be
000001d0: c5eb e2be e14f 233e 879e 193c b6f8 13be
000001e0: e06e 9d3d 06f4 0a3f 6b8c 3abe c942 333e
000001f0: 44eb 5f3c 3007 073d 75a1 c0bd 38d9 7abe
00000200: 1174 4c3d 4be6 843d 5ec7 64be 9b8f 23be
00000210: 9a98 20be 63e6 4e3e d1c7 a23d 29cb 283e
00000220: 512b 1b3e d77d 8dbd 306f 203e 8476 26bf
00000230: 4b4f 6d3e 3d2e eebc c42f b63c cfb6 273e
00000240: cdc8 b5be c69a 2ebe 1df9 aabb 70c9 c7bd
00000250: 2ca0 3bbd 7bf8 88bd 2d3c dc3d 37c6 68bc
00000260: 8121 d43d d083 0bbf aa2f 863e 847e 22be
00000270: 0c7f 99be 4a6f 643e a835 d2bd d810 f9bc
00000280: 463e f33d 4855 2e3e feea 00bf 456f 353d
00000290: b641 303e 3d36 073d f445 d03d 5d3e 7fbe
000002a0: c799 953d 4267 67bc 1cd4 1dbe 8306 76bd
000002b0: 2fe0 533d b936 4e3e 75cf aebe b867 e5bd
000002c0: 0b7a 053e 31f7 743e af0e 06be 37df a3be
000002d0: 19c7 843e c48d 8e3d b774 9ebe 86d9 943a
000002e0: 0c70 ed3e 423f f73d 60cc ecbd 94a7 0c3e
000002f0: cb74 293e c898 033e 807e 10be a49e c83d
00000300: c243 8a3e 7a17 d3bc 516a b53d 4895 bfbe
00000310: 0432 b9be 319f a53d 73d5 3fbd aa3b 183c
00000320: 480f 653d 5346 a33e e9de 893e 30e1 51be
00000330: 996a 833e 7b1f ad3e 2d33 ebbe 6c1a 973e
00000340: 6aae 49bb fbc1 9dbe b8b0 5c3b a4e8 c1bd
00000350: 2086 db3c 8f05 443e ac22 3dbe a5d3 ea3d
00000360: 9332 f43e eb67 5fbd 882e 9bbe 75f4 81bd
00000370: cbed 0d3e ffa4 89bd b8f5 3b3e c410 b63e
00000380: 1b40 913d dc1a 1bbe 9205 cfbd ca86 ac3e
00000390: 0b54 dc3c 7429 563c acc6 713c 8ec6 ecbb
000003a0: 2273 2cbb 89eb 93bd 6cab 743e 68c5 223e
000003b0: f563 07be 9bf0 be3e d382 ac3d c165 263e
000003c0: 4aba bd3d 1ca0 b7be b8f2 a53d 8caa 4d3d
000003d0: 3bb9 653d 7c58 f1bd 83a8 b23e 51f6 9a3d
000003e0: 8544 0bbe a93e 7fbd 9c4e b83e ea72 99ba
000003f0: 58e2 8dbe e4ea 1fbe c775 d4bc 935e 593e

base.mlp.fc_h.0.bias f4 [64]
0.0 0.0 0.0 0.0 0.0 0.0 0.0 0.0
0.0 0.0 0.0 0.0 0.0 0.0 0.0 0.0
0.0 0.0 0.0 0.0 0.0 0.0 0.0 0.0
0.0 0.0 0.0 0.0 0.0 0.0 0.0 0.0
0.0 0.0 0.0 0.0 0.0 0.0 0.0 0.0
0.0 0.0 0.0 0.0 0.0 0.0 0.0 0.0
0.0 0.0 0.0 0.0 0.0 0.0 0.0 0.0
0.0 0.0 0.0 0.0 0.0 0.0 0.0 0.0
00000000: 0000 0000 0000 0000 0000 0000 0000 0000
00000010: 0000 0000 0000 0000 0000 0000 0000 0000
00000020: 0000 0000 0000 0000 0000 0000 0000 0000
00000030: 0000 0000 0000 0000 0000 0000 0000 0000
00000040: 0000 0000 0000 0000 0000 0000 0000 0000
00000050: 0000 0000 0000 0000 0000 0000 0000 0000
00000060: 0000 0000 0000 0000 0000 0000 0000 0000
00000070: 0000 0000 0000 0000 0000 0000 0000 0000
00000080: 0000 0000 0000 0000 0000 0000 0000 0000
00000090: 0000 0000 0000 0000 0000 0000 0000 0000
000000a0: 0000 0000 0000 0000 0000 0000 0000 0000
000000b0: 0000 0000 0000 0000 0000 0000 0000 0000
000000c0: 0000 0000 0000 0000 0000 0000 0000 0000
000000d0: 0000 0000 0000 0000 0000 0000 0000 0000
000000e0: 0000 0000 0000 0000 0000 0000 0000 0000
000000f0: 0000 0000 0000 0000 0000 0000 0000 0000

base.mlp.fc_h.2.weight f4 [64]
1.0 1.0 1.0 1.0 1.0 1.0 1.0 1.0
1.0 1.0 1.0 1.0 1.0 1.0 1.0 1.0
1.0 1.0 1.0 1.0 1.0 1.0 1.0 1.0
1.0 1.0 1.0 1.0 1.0 1.0 1.0 1.0
1.0 1.0 1.0 1.0 1.0 1.0 1.0 1.0
1.0 1.0 1.0 1.0 1.0 1.0 1.0 1.0
1.0 1.0 1.0 1.0 1.0 1.0 1.0 1.0
1.0 1.0 1.0 1.0 1.0 1.0 1.0 1.0
00000000: 0000 803f 0000 803f 0000 803f 0000 803f
00000010: 0000 803f 0000 803f 0000 803f 0000 803f
00000020: 0000 803f 0000 803f 0000 803f 0000 803f
00000030: 0000 803f 0000 803f 0000 803f 0000 803f
00000040: 0000 803f 0000 803f 0000 803f 0000 803f
00000050: 0000 803f 0000 803f 0000 803f 0000 803f
00000060: 0000 803f 0000 803f 0000 803f 0000 803f
00000070: 0000 803f 0000 803f 0000 803f 0000 803f
00000080: 0000 803f 0000 803f 0000 803f 0000 803f
00000090: 0000 803f 0000 803f 0000 803f 0000 803f
000000a0: 0000 803f 0000 803f 0000 803f 0000 803f
000000b0: 0000 803f 0000 803f 0000 803f 0000 803f
000000c0: 0000 803f 0000 803f 0000 803f 0000 803f
000000d0: 0000 803f 0000 803f 0000 803f 0000 803f
000000e0: 0000 803f 0000 803f 0000 803f 0000 803f
000000f0: 0000 803f 0000 803f 0000 803f 0000 803f

base.mlp.fc_h.2.bias f4 [64]
0.0 0.0 0.0 0.0 0.0 0.0 0.0 0.0
0.0 0.0 0.0 0.0 0.0 0.0 0.0 0.0
0.0 0.0 0.0 0.0 0.0 0.0 0.0 0.0
0.0 0.0 0.0 0.0 0.0 0.0 0.0 0.0
0.0 0.0 0.0 0.0 0.0 0.0 0.0 0.0
0.0 0.0 0.0 0.0 0.0 0.0 0.0 0.0
0.0 0.0 0.0 0.0 0.0 0.0 0.0 0.0
0.0 0.0 0.0 0.0 0.0 0.0 0.0 0.0
00000000: 0000 0000 0000 0000 0000 0000 0000 0000
00000010: 0000 0000 0000 0000 0000 0000 0000 0000
00000020: 0000 0000 0000 0000 0000 0000 0000 0000
00000030: 0000 0000 0000 0000 0000 0000 0000 0000
00000040: 0000 0000 0000 0000 0000 0000 0000 0000
00000050: 0000 0000 0000 0000 0000 0000 0000 0000
00000060: 0000 0000 0000 0000 0000 0000 0000 0000
00000070: 0000 0000 0000 0000 0000 0000 0000 0000
00000080: 0000 0000 0000 0000 0000 0000 0000 0000
00000090: 0000 0000 0000 0000 0000 0000 0000 0000
000000a0: 0000 0000 0000 0000 0000 0000 0000 0000
000000b0: 0000 0000 0000 0000 0000 0000 0000 0000
000000c0: 0000 0000 0000 0000 0000 0000 0000 0000
000000d0: 0000 0000 0000 0000 0000 0000 0000 0000
000000e0: 0000 0000 0000 0000 0000 0000 0000 0000
000000f0: 0000 0000 0000 0000 0000 0000 0000 0000

base.mlp.fc2.0.0.weight f4 [64, 64]
0.21449652 0.104144536 0.22997749 0.035966262 0.17000961 -0.02592004 -0.20554999 -0.23754016
0.44252932 0.3471847 -0.20031244 0.12323753 -0.16552635 -0.26123595 -0.02590966 -0.062578484
-0.28884435 0.115699805 0.2751224 -0.072651744 0.33479276 -0.17521384 0.44143218 0.016621161
-0.088908546 0.0071436707 0.013081662 0.21614963 0.04449083 0.313919 0.10537234 0.27969724
0.40975323 0.1333086 -0.37543926 -0.17856075 -0.16585845 0.00081044197 0.12599866 -0.07909807
0.31977436 0.18242678 -0.14982802 -0.06996563 0.122921474 -0.12331537 0.003626577 0.3758886
-0.052866235 -0.075148396 -0.0513645 -0.17467113 -0.15967163 0.002664342 0.28097123 0.044150524
-0.18620528 0.3159898 0.19552174 0.10565281 0.11317642 -0.19798338 0.23791467 0.3541339
0.15923321 0.055086706 -0.18956274 -0.07203719 -0.33014098 -0.17046937 -0.04922036 0.36335957
0.26667172 0.3968085 0.30980068 -0.1745011 -0.3223773 0.20800947 0.1999769 -0.33724636
0.2557902 0.06671421 0.1351123 0.07082548 -0.0075747226 0.15122552 -0.021886822 -0.16450994
0.15669383 -0.04079327 -0.12317317 0.20523573 -0.10107044 0.20822258 -0.07524649 -0.21070673
-0.096274726 -0.2626434 0.18056844 0.04373443 0.12016642 -0.1904677 -0.04304553 0.08787461
0.039764065 0.09484789 -0.5003749 0.24007665 -0.045141593 0.108455256 0.3909298 -0.14916223
0.18339737 -0.19758254 0.010135705 -0.12905706 -0.44124106 0.12428028 -0.0027918313 -0.15550189
0.07438566 0.54680353 -0.16420221 0.10773894 -0.036379017 0.015888037 -0.073216505 -0.27202454
0.05503993 0.084364116 -0.15042976 -0.16464381 -0.13663463 0.20956317 0.07211384 0.099082336
0.1453605 -0.055287093 0.1380351 -0.6647061 0.28692162 -0.02284847 0.03852728 0.18361284
-0.3201565 -0.14560546 0.031341378 -0.10878272 -0.07162752 -0.057984523 0.08495035 -0.013989453
0.09514249 -0.5609958 0.24307595 -0.17509843 -0.33696756 0.2101449 -0.10209862 -0.01543139
0.12018715 0.14555985 -0.48912367 0.07799064 0.16634597 0.022867212 0.09153416 -0.22097647
0.07614734 -0.0447941 -0.15408246 -0.048489314 0.053176656 0.17777257 -0.34969965 -0.12612814
0.10420867 0.21588846 -0.12197875 -0.3370765 0.246933 0.068469875 -0.26277328 -0.021203518
0.4445958 0.1320039 -0.11117162 0.15603937 0.20169996 0.114270195 -0.13996361 0.10324549
0.27684945 0.01469941 0.10092549 -0.37753728 -0.36834925 0.057414502 -0.049421854 -0.0022249725
0.042504206 0.31942016 0.28515664 -0.14099589 0.2559251 0.38155657 -0.41013205 0.27109692
0.006693239 -0.29781443 0.041525688 -0.079337426 -0.0009409884 0.19077899 -0.22578813 0.083652556
0.50002253 -0.06070161 -0.30371222 -0.04960197 0.1407472 -0.05004878 0.18085729 0.36152154
0.04325612 -0.15251152 -0.05616672 0.3262344 0.011272935 0.013113102 0.040678184 -0.009279886
-0.0038011975 -0.09277225 0.2699334 0.13490175 -0.094232924 0.3428739 0.06399325 0.12562318
0.094314866 -0.30097064 0.066032775 0.054153115 0.0071812095 -0.14451717 0.34569594 0.047528923
-0.100368805 -0.02137828 0.3561316 -0.0038399375 -0.3262604 -0.17614564 -0.012037583 0.17202547
00000000: faa4 5b3e bb49 d53d 387f 6b3e 5c51 133d
00000010: 0017 2e3e 4456 d4bc b27b 52be ba3d 73be
00000020: 3493 e23e 31c2 b13e b41e 4dbe f563 fc3d
00000030: bd7f 29be b8c0 85be 7f40 d4bc 2629 80bd
00000040: 68e3 93be 05f4 ec3d d8dc 8c3e 70ca 94bd
00000050: f569 ab3e 426b 33be 6603 e23e 1a29 883c
00000060: af15 b6bd 7415 ea3b 7854 563c 5456 5d3e
00000070: 043c 363d feb9 a03e 74cd d73d 7a34 8f3e
00000080: 2dcb d13e 0d82 083e 9339 c0be a1d8 36be
00000090: ccd6 29be d773 543a cb05 013e 2bfe a1bd
000000a0: 77b9 a33e 16ce 3a3e 846c 19be 244a 8fbd
000000b0: 41be fb3d c58c fcbd deab 6d3b 7874 c03e
000000c0: 448a 58bd 67e7 99bd 9563 52bd fddc 32be
000000d0: f680 23be 3e9c 2e3b 76db 8f3e 2ed7 343d
000000e0: 99ac 3ebe 6ac9 a13e da36 483e 8060 d83d
000000f0: 0ac9 e73d 28bc 4abe e79f 733e 0a51 b53e
00000100: 080e 233e 99a2 613d bc1c 42be 3c88 93bd
00000110: 3d08 a9be 868f 2ebe 4a9b 49bd 440a ba3e
00000120: 3289 883e 7c2a cb3e 329e 9e3e 6bb0 32be
00000130: a30e a5be 6f00 553e bfc6 4c3e 8eab acbe
00000140: eff6 823e 76a1 883d e15a 0a3e f30c 913d
00000150: 6135 f8bb ddda 1a3e fe4b b3bc 4b75 28be
00000160: 5974 203e d816 27bd 3742 fcbd 5129 523e
00000170: 05fe cebd 4d38 553e d51a 9abd 81c3 57be
00000180: af2b c5bd 3279 86be efe6 383e e022 333d
00000190: d019 f63d f709 43be 8250 30bd 9bf7 b33d
000001a0: a5df 223d 9c3f c23d 9218 00bf a7d6 753e
000001b0: 64e6 38bd ca1d de3d f327 c83e fcbd 18be
000001c0: 85cc 3b3e 1453 4abe 3a10 263c 8927 04be
000001d0: 59ea e1be a986 fe3d 28f7 36bb e33b 1fbe
000001e0: 8257 983d 51fb 0b3f a024 28be 3ca6 dc3d
000001f0: 2a02 15bd a127 823c 89f2 95bd cd46 8bbe
00000200: 8d71 613d 18c7 ac3d 420a 1abe 6398 28be
00000210: f3e9 0bbe ba97 563e 6cb0 933d aeeb ca3d
00000220: 62d9 143e b874 62bd 1359 0d3e 2e2a 2abf
00000230: 64e7 923e b72c bbbc c8ce 1d3d 0105 3c3e
00000240: 8eeb a3be 9919 15be d15f 003d 7ac9 debd
00000250: 73b1 92bd 2e81 6dbd 73fa ad3d 0534 65bc
00000260: 11da c23d 6c9d 0fbf e7e8 783e 014d 33be
00000270: 0387 acbe 3a30 573e 1519 d1bd f1d3 7cbc
00000280: ae24 f63d a40d 153e 6b6e fabe 8fb9 9f3d
00000290: 9956 2a3e 0554 bb3c 4376 bb3d a847 62be
000002a0: 23f3 9b3d 057a 37bd cbc7 1dbe bb9c 46bd
000002b0: c4cf 593d 030a 363e d50b b3be bc27 01be
000002c0: 5b6b d53d dd11 5d3e ffcf f9bd 4a95 acbe
000002d0: 01dc 7c3e ef39 8c3d 388a 86be 00b3 adbc
000002e0: 10a2 e33e 082c 073e f2ad e3bd c9c8 1f3e
000002f0: 6f8a 4e3e 7e06 ea3d 9f52 0fbe 5f72 d33d
00000300: 36bf 8d3e cbd5 703c 06b2 ce3d 914c c1be
00000310: 4698 bcbe 782b 6b3d 926e 4abd d8d0 11bb
00000320: e418 2e3d 0a8b a33e 0d00 923e 3a61 10be
00000330: 9d08 833e 625b c33e d4fc d1be 37cd 8a3e
00000340: f552 db3b 227b 98be d716 2a3d a97b a2bd
00000350: aaac 76ba 915b 433e 0135 67be 0852 ab3d
00000360: 7a01 003f 40a2 78bd 2b80 9bbe 6f2b 4bbd
00000370: 0920 103e f3ff 4cbd a732 393e 5a19 b93e
00000380: 542d 313d fb2b 1cbe 130f 66bd 3208 a73e
00000390: 1eb2 383c 56d8 563c 2b9e 263d aa0a 18bc
000003a0: 831d 79bb 61ff bdbd b634 8a3e af23 0a3e
000003b0: 31fd c0bd 2b8d af3e e50e 833d 5da3 003e
000003c0: 2728 c13d d318 9abe 313c 873d a8cf 5d3d
000003d0: 5a50 eb3b 4ffc 13be 0fff b03e b0ad 423d
000003e0: 298e cdbd 8121 afbc e256 b63e 76a7 7bbb
000003f0: 9a0b a7be 865f 34be 4839 45bc 7227 303e

base.mlp.fc2.0.0.bias f4 [64]
-0.008339775 -0.016713083 -0.040743317 0.021778941 0.006065943 0.008764245 0.019188443 -0.08527476
-0.007268877 -0.021963365 -0.0778791 -0.040384427 -0.06645591 -0.020875286 0.037690025 0.016166743
-0.015484116 0.016688868 0.08325937 -0.023123268 0.006951613 0.006694656 0.04115807 -0.02552282
0.017216858 -0.013252152 0.124187 0.069023356 -0.070233494 0.013608653 -0.007312908 -0.01117384
0.031785063 0.010110353 -0.0046957363 -0.013838029 0.021592198 -0.05086537 -0.008477422 0.038821463
-0.03069098 0.0032435714 -0.024046654 0.041575637 0.028256716 0.016428977 -0.014209432 -0.00018177598
-0.017556366 0.044790633 -0.017477304 0.03656407 0.029668953 -0.046015643 0.015790367 -0.02373466
-0.063471794 0.026078457 -0.03081613 -0.014968844 -0.015216967 -0.009298377 0.025951736 0.07999611
00000000: 8da3 08bc e0e9 88bc 77e2 26bd c069 b23c
00000010: d1c4 c63b e897 0f3c 1531 9d3c 89a4 aebd
00000020: c22f eebb 84ec b3bc 147f 9fbd 246a 25bd
00000030: 091a 88bd a602 abbc db60 1a3d 1e70 843c
00000040: 17b1 7dbc 18b7 883c e383 aa3d 026d bdbc
00000050: 5bca e33b d85e db3b 5d95 283d 3c15 d1bc
00000060: 5e0a 8d3c 8e1f 59bc c155 fe3d 1e5c 8d3d
00000070: 94d6 8fbd d4f6 5e3c 1ea1 efbb 7b12 37bc
00000080: 0e31 023d e5a5 253c b1de 99bb e6b8 62bc
00000090: 1fe2 b03c 3558 50bd e3e4 0abc 4103 1f3d
000000a0: a66b fbbc 1992 543b 7dfd c4bc 374b 2a3d
000000b0: a17a e73c 1096 863c adce 68bc 1e9b 3eb9
000000c0: 5ed2 8fbc 6276 373d 902c 8fbc 35c4 153d
000000d0: 4e0c f33c e67a 3cbd cd5a 813c 316f c2bc
000000e0: 80fd 81bd 7da2 d53c 1c72 fcbc e23f 75bc
000000f0: 9650 79bc 3858 18bc bc98 d43c 00d5 a33d

base.mlp.fc2.0.2.weight f4 [64]
0.98147124 0.93339044 0.9749528 0.9328766 0.9577211 0.96379805 0.98735625 0.9680324
0.9890177 0.9839016 0.9682977 0.9657131 0.9158415 0.9838902 0.9435714 0.96830755
0.96590465 1.0120342 0.98945135 0.9747232 0.8981722 0.92310286 0.9639873 0.98907006
0.91799086 1.0057096 0.930919 0.9619568 0.9620036 0.95823616 0.9235954 0.9647591
0.97755 0.9338647 0.9871244 0.9660271 0.9721557 0.9845513 0.89802057 0.9782507
0.9984104 0.9670698 0.9688483 0.94084394 0.9732351 0.9583261 0.94781494 0.9321048
0.9017519 0.95274115 0.98571974 0.93233013 0.96702194 0.9854955 0.9745138 0.9415084
0.9639265 0.96860904 0.9496861 1.0401819 0.9893983 0.9709581 0.91983587 0.97992015
00000000: b341 7b3f adf2 6e3f 8296 793f 00d1 6e3f
00000010: 362d 753f 78bb 763f 61c3 7c3f f9d0 773f
00000020: 4430 7d3f fae0 7b3f 5ce2 773f f938 773f
00000030: 9774 6a3f 3ae0 7b3f e58d 713f 01e3 773f
00000040: 8745 773f 568a 813f af4c 7d3f 7687 793f
00000050: 9dee 653f 7850 6c3f dfc7 763f b233 7d3f
00000060: 7301 6b3f 18bb 803f b550 6e3f cd42 763f
00000070: de45 763f f74e 753f c070 6c3f 74fa 763f
00000080: b840 7a3f c211 6f3f 2fb4 7c3f 8d4d 773f
00000090: 32df 783f 8e0b 7c3f ade4 653f a36e 7a3f
000000a0: d397 7f3f e391 773f 7106 783f 26db 703f
000000b0: ef25 793f dc54 753f 00a4 723f 6c9e 6e3f
000000c0: 36d9 663f d8e6 733f 2158 7c3f 30ad 6e3f
000000d0: c08e 773f 6f49 7c3f bd79 793f b206 713f
000000e0: e3c3 763f c3f6 773f a11e 733f ae24 853f
000000f0: 3549 7d3f b690 783f 5d7a 6b3f 0cdc 7a3f

base.mlp.fc2.0.2.bias f4 [64]
-0.0025238404 -0.012100448 -0.026710438 0.017817004 0.007672013 0.018814422 0.025692716 -0.053512882
-0.01901192 -0.008909582 -0.0524403 -0.02732957 -0.04185407 -0.013281923 0.040322684 0.0019811708
-0.014560691 0.010893387 0.035651334 -0.0149261765 -0.0003340285 0.010761273 0.053621992 -0.019876
0.033893596 -0.013079866 0.04486618 0.04065753 -0.047623295 0.022949861 8.359561e-05 -0.010697078
0.05165726 0.023206936 -0.005180124 -0.00251054 -0.00312547 -0.018135961 -0.027032057 0.058296856
-0.016474485 -0.017292542 -0.017343419 0.064458616 0.03129981 0.040369842 -0.01081218 0.0165783
-0.04688604 0.043741535 -0.042915877 0.05005702 -6.407083e-05 -0.044621967 0.053872306 -0.023288151
-0.052742776 0.039656334 -0.06160421 -0.016623074 -0.01242545 -0.0052281884 0.029229416 0.04620783
00000000: 0467 25bb f540 46bc d9cf dabc f7f4 913c
00000010: 8265 fb3b b420 9a3c 8879 d23c 5330 5bbd
00000020: e3be 9bbc 7ff9 11bc a4cb 56bd 43e2 dfbc
00000030: 2c6f 2bbd 6c9c 59bc 6629 253d 88d6 013b
00000040: f78f 6ebc 2d7a 323c 2207 123d ec8c 74bc
00000050: 8c20 afb9 0d50 303c bca2 5b3d fed2 a2bc
00000060: 03d4 0a3d ef4c 56bc 99c5 373d 8388 263d
00000070: a510 43bd 5901 bc3c 0d50 af38 cc42 2fbc
00000080: 9096 533d 791c be3c 08be a9bb df87 24bb
00000090: afd4 4cbb de91 94bc 5572 ddbc afc8 6e3d
000000a0: 80f5 86bc 17a9 8dbc c913 8ebc e102 843d
000000b0: 3b34 003d d95a 253d 9225 31bc 37cf 873c
000000c0: 940b 40bd 532a 333d 8fc8 2fbd 9708 4d3d
000000d0: c45d 86b8 86c5 36bd 35a9 5c3d cbc6 bebc
000000e0: cf08 58bd ae6e 223d b254 7cbd 1d2d 88bc
000000f0: 1d94 4bbc 3951 abbb 8772 ef3c 6c44 3d3d

rnn.rnn.weight_ih_l0 f4 [192, 64]
-0.010003862 0.00057400315 0.08967309 -0.008188673 -0.16995429 -0.06348923 -0.051479407 -0.2039128
-0.048247065 0.011196943 -0.11682268 0.1317173 -0.00023690112 -0.038522974 -0.018132083 0.009996069
-0.009706198 -0.0047023264 0.050199542 -0.07952138 0.08787633 0.17620862 0.012583877 0.06919562
-0.023795359 -0.0131715 0.044767335 -0.025089536 0.20533034 -0.18765537 0.057785735 -0.06736186
0.054383297 -0.005542113 0.07351486 0.037390128 0.02120604 -0.060642857 0.0023187955 -0.105078645
-0.035847884 0.042544525 -0.08019196 -0.0041432334 -0.030810952 0.0041053053 0.038371716 -0.1242565
0.04327076 -0.17363358 -0.0007272373 0.018232396 -0.08157229 0.067314096 -0.08609285 -0.052246504
-0.09727725 -0.03711601 -0.11249769 0.014832115 -0.030213038 -0.04654993 -0.1590997 -0.017171519
0.022384053 0.16430902 0.014056907 -0.05087303 0.06256632 -0.13571146 0.10366519 0.020615445
0.040643316 -0.039804086 -0.055841744 0.10602309 -0.19307813 -0.13093673 -0.057581183 -0.18705066
-0.033800114 -0.1536937 -0.14292781 0.027329149 -0.0942368 0.061342325 -0.03890828 -0.056725547
0.088947855 -0.029820018 -0.035525814 -0.00906077 0.04431593 0.1598159 0.05636445 0.08757764
-0.08049335 -0.05354127 -0.021454073 0.16711529 0.03316405 -0.059864815 0.017330727 -0.008981895
-0.070365496 0.2094231 -0.03348868 -0.14059182 -0.0061474186 -0.090274595 -0.057095375 -0.060596544
-0.04970216 0.018019183 -0.081879854 -0.026788317 -0.04406441 -0.06200882 -0.050311852 -0.006054778
0.1606165 0.03164594 -0.11358152 -0.08002583 -0.016606923 0.0203667 0.020667288 0.060818672
0.043852914 0.012324387 -0.012821193 -0.14053942 0.0660138 -0.012701053 0.04507283 -0.0036008006
0.09536225 -0.13204966 0.026857538 0.06291403 -0.026327565 -0.05966921 -0.009187621 0.026916202
-0.017624594 0.008345857 -0.0067451345 0.089694194 -0.032305583 -0.04338079 0.083087966 -0.10684033
0.09596107 0.026149465 -0.11407838 -0.057512928 -0.08389346 -0.0068123294 0.013305954 0.022748454
0.02771571 0.06384085 -0.019890891 0.11239226 0.07912547 -0.048111126 0.062109802 0.111635916
-0.011045677 -0.013984518 -0.12009531 -0.050508436 -0.022283103 0.017100226 -0.095673464 -0.09848287
0.016424604 -0.038589768 -0.081478015 -0.03672183 0.00063349766 0.023598218 -0.065990515 -0.07139315
-0.11380175 0.01718083 0.15495558 -0.12725109 0.08603928 -0.16255279 0.09074433 -0.057041295
0.014805987 -0.04308699 0.040785134 0.16574827 -0.064113855 0.008674774 0.020915793 -0.08691847
0.021404058 0.12475099 0.08369246 0.0053854026 0.012617748 0.12213288 0.115400635 -0.08638971
0.054266367 0.00812551 -0.052295964 0.00085915404 -0.052369412 0.03260054 -0.1427124 -0.010162442
0.0068173013 -0.005396792 0.0076396517 -0.093001254 0.0048153484 0.029924111 0.011479409 0.0572214
0.0033216823 0.053954206 0.089586824 -0.0174219 0.10240747 0.096034765 -0.08569626 -0.14917968
0.06849326 -0.015310351 0.001896416 -0.16122256 -0.004295783 0.043291938 0.013547253 0.014826687
-0.023251316 -0.050088603 -0.03640167 0.029047756 0.009121418 0.2593516 0.09602734 0.050100274
-0.17639688 -0.051862232 0.015009136 -0.043052755 -0.009563852 -0.014520567 -0.0780491 -0.00034384505
00000000: 3de7 23bc b378 163a 86a6 b73d c929 06bc
00000010: 7f08 2ebe a406 82bd 12dc 52bd 84ce 50be
00000020: b79e 45bd 6273 373c bb40 efbd e6e0 063e
00000030: a968 78b9 44ca 1dbd bc89 94bc 8dc6 233c
00000040: bf06 1fbc f915 9abb 099e 4d3d 1bdc a2bd
00000050: 81f8 b33d 0870 343e 9b2c 4e3c 6fb6 8d3d
00000060: 7cee c2bc 46cd 57bc f45d 373d 9288 cdbc
00000070: 1e42 523e bb28 40be bcb0 6c3d 04f5 89bd
00000080: 05c1 5e3d 9d9a b5bb f58e 963d 6426 193d
00000090: 4ab8 ad3c a564 78bd eff6 173b 7933 d7bd
000000a0: 3bd5 12bd 2b43 2e3d af3b a4bd f6c3 87bb
000000b0: 4067 fcbc cc85 863b a92b 1d3d 317a febd
000000c0: ae3c 313d 00cd 31be 12a4 3eba 1b5c 953c
000000d0: 5f0f a7bd f9db 893d 7351 b0bd 6e00 56bd
000000e0: 4b39 c7bd f506 18bd 3065 e6bd 6602 733c
000000f0: 5581 f7bc 24ab 3ebd 08eb 22be 49ab 8cbc
00000100: c35e b73c a040 283e f14e 663c 3d60 50bd
00000110: c522 803d f2f7 0abe 6a4e d43d b9e1 a83c
00000120: 9b79 263d 9c09 23bd 50ba 64bd a222 d93d
00000130: 46b6 45be 4714 06be 3fda 6bbd 358a 3fbe
00000140: fd71 0abd e261 1dbe ab5b 12be 61e1 df3c
00000150: 39ff c0bd 1742 7b3d 4a5e 1fbd 0c59 68bd
00000160: 4b2a b63d 1c49 f4bc 8483 11bd a073 14bc
00000170: 9f84 353d c7a6 233e 69de 663d e85b b33d
00000180: b3d9 a4bd 174e 5bbd 74c0 afbc 4520 2b3e
00000190: 07d7 073d cf34 75bd 2bf9 8d3c cc28 13bc
000001a0: c91b 90bd 0273 563e 6d2b 09bd 4df7 0fbe
000001b0: 4970 c9bb e3e1 b8bd d7dc 69bd 1534 78bd
000001c0: 7e94 4bbd f79c 933c a0b0 a7bd 2c73 dbbc
000001d0: e27c 34bd f6fc 7dbd cd13 4ebd 2967 c6bb
000001e0: a778 243e 2c9f 013d 6e9d e8bd 95e4 a3bd
000001f0: 3e0b 88bc 11d8 a63c 724e a93c 001d 793d
00000200: 1d9f 333d 3aec 493c fb0f 52bc 91e9 0fbe
00000210: 3e32 873d 1418 50bc 4a9e 383d 69fb 6bbb
00000220: 494d c33d 0738 07be 5704 dc3c 12d9 803d
00000230: e8ac d7bc b467 74bd ad87 16bc 5e7f dc3c
00000240: 7461 90bc 10bd 083c 4a06 ddbb 97b1 b73d
00000250: dc52 04bd 0eb0 31bd 062a aa3d 1acf dabd
00000260: 3d87 c43d 6737 d63c eda1 e9bd ad92 6bbd
00000270: 56d0 abbd f639 dfbb 3701 5a3c f75a ba3c
00000280: 0f0c e33c febe 823d 39f2 a2bc ea2d e63d
00000290: 890c a23d 2c10 45bd d966 7e3d 5fa1 e43d
000002a0: edf8 34bc 521f 65bc 88f4 f5bd efe1 4ebd
000002b0: 0e8b b6bc c615 8c3c 73f0 c3bd 63b1 c9bd
000002c0: e48c 863c 4e10 1ebd f2dd a6bd a169 16bd
000002d0: 4f11 263a 0d51 c13c 0926 87bd 9236 92bd
000002e0: e410 e9bd d0be 8c3c adac 1e3e 1c4e 02be
000002f0: 5d35 b03d 3d74 26be 2ad8 b93d 22a4 69bd
00000300: cf94 723c fc7b 30bd 500e 273d eab9 293e
00000310: 204e 83bd a420 0e3c 9957 ab3c 5002 b2bd
00000320: 9057 af3c 727d ff3d f466 ab3d 0878 b03b
00000330: acba 4e3c ce20 fa3d 2b57 ec3d 17ed b0bd
00000340: 6946 5e3d dc20 053c 4b34 56bd da38 613a
00000350: 4f81 56bd 2588 053d 3323 12be 5f80 26bc
00000360: ab63 df3b 93d7 b0bb 0b56 fa3b 7177 bebd
00000370: 12ca 9d3b 6923 f53c 2214 3c3c fd60 6a3d
00000380: 95b0 593b 16ff 5c3d 4c79 b73d 5fb8 8ebc
00000390: 02bb d13d e0ad c43d 8581 afbd 8fc2 18be
000003a0: 3246 8c3d 44d8 7abc 2991 f83a 8717 25be
000003b0: a4c3 8cbb e352 313d 4cf5 5d3c a2eb 723c
000003c0: 8b79 bebc b529 4dbd eb19 15bd 8ff5 ed3c
000003d0: 0072 153c bcc9 843e fba9 c43d f235 4d3d
000003e0: 62a1 34be 7e6d 54bd e1e8 753c 1658 30bd
000003f0: b4b1 1cbc ace7 6dbc 35d8 9fbd 1a46 b4b9

rnn.rnn.weight_hh_l0 f4 [192, 64]
-0.098935686 0.017390272 0.07947086 -0.00047007474 -0.07731481 0.02884239 -0.046929296 -0.08923156
-0.08390069 0.022496229 -0.13733076 0.040830165 -0.10956175 0.031843722 0.00091012445 -0.044911046
-0.020143038 0.119059384 -0.05341787 0.0016762654 0.005289844 0.0059698904 -0.07105953 0.010412266
-0.04915606 -0.060999203 0.1378721 0.22594059 -0.010608969 -0.06775638 0.045853898 0.10121643
0.16588803 -0.15076515 0.017552784 -0.07190958 0.031168869 -0.011141724 0.017679349 0.090449974
0.12712501 -0.00029479875 -0.093730815 0.05432137 -0.071697764 0.060035314 0.036854852 0.035880864
0.06601869 -0.17406131 0.008856345 0.0665645 -0.120674446 0.0066457847 -0.014227351 0.08691155
0.0062603164 0.0037372443 -0.11355327 -0.05565746 0.085271426 0.06931014 -0.10137123 0.056256294
-0.052974768 -0.07288764 0.02600777 -0.02388722 0.12132427 0.0057478584 0.0053756554 -0.03756013
0.10729089 0.06451401 -0.02521282 0.06429839 0.16460192 -0.058138642 -0.010977853 -0.121830694
0.0034379954 0.100290656 0.15907417 -0.10721856 -0.1008547 -0.10412884 0.19187497 0.032274716
0.07019819 0.0024895289 -0.11672918 0.034062218 0.07701373 -0.043767747 0.055732954 -0.10178387
0.0426083 -0.056885332 -0.10585914 0.1584846 0.0037597942 -0.0827315 0.017980201 0.14466943
-0.08884866 0.13197386 -0.11025157 -0.084720924 0.0523834 0.10526735 0.07803031 -0.12349313
-0.044484694 0.16530704 -0.09911872 -0.101487026 0.17175087 -0.104920514 0.06380906 -0.034320533
-0.05649383 0.051774815 0.049132276 -0.011994432 -0.050741516 0.013248856 0.044790767 -0.13629343
-0.08496644 0.039196264 -0.07664798 -0.020955691 0.06265819 0.011756013 0.074346766 0.08635776
-0.03609138 0.044305366 0.017617732 0.10851839 0.087093815 -0.16723476 -0.08881598 0.13941197
-0.037302785 0.060203955 0.055589177 0.097239785 -0.07948014 -0.075334616 -0.019876534 -0.11353587
-0.043893263 -0.024071882 0.15493697 -0.027807506 -0.10954981 0.11918492 0.05908395 0.006257951
-0.07316699 -0.057250712 0.03681972 0.08164842 0.067036204 0.04676685 0.038172197 -0.13271755
-0.16754434 0.056728292 -0.03586154 -0.10212609 0.030447299 0.18775703 0.09665886 -0.082344234
0.15774675 -0.06829058 0.039691973 -0.06412828 -0.034585 -0.060647093 -0.05688558 0.053326678
-0.23955509 -0.021972878 -0.07735422 0.11063725 0.14221944 -0.09103224 0.073921934 -0.0038882683
-0.013104418 -0.02599107 0.15103753 -0.008837738 -0.067913584 -0.08597039 0.010416008 0.24641447
0.09105607 0.02782241 -0.051795144 0.037794124 0.0018903802 0.0033705845 -0.032636892 -0.02430241
-0.119177915 0.016640069 -0.21432056 -0.001756337 0.087398246 0.024467522 0.012289929 -0.10782992
-0.050559103 0.01704679 -0.024284793 -0.025475731 0.11657966 -0.019087503 0.038029958 0.05043244
0.07480156 -0.08184228 0.09010776 -0.052526712 -0.11581083 0.001751185 0.051384315 0.026695115
-0.021740388 0.021633122 0.05333352 -0.07333209 -0.08260303 0.12191195 -0.13597135 0.10786954
-0.0062591545 -0.05588424 -0.002500026 -0.021945955 0.08438664 -0.079276375 0.08903112 0.043627612
0.03453307 -0.026867779 0.06817194 -0.00084420445 -0.025054406 -0.069457814 -0.035435017 -0.024700373
00000000: cb9e cabd 0b76 8e3c 9ec1 a23d 5d74 f6b9
00000010: 3a57 9ebd e046 ec3c ef38 40bd 09bf b6bd
00000020: 20d4 abbd 034a b83c 6fa0 0cbe 883d 273d
00000030: e961 e0bd 906e 023d 6b95 6e3a a5f4 37bd
00000040: 0303 a5bc 68d5 f33d b2cc 5abd 22b6 db3a
00000050: 6d56 ad3b 129f c33b a987 91bd 3598 2a3c
00000060: dd57 49bd 4dda 79bd 582e 0d3e f85c 673e
00000070: 3ed1 2dbc dbc3 8abd 4cd1 3b3d 8f4a cf3d
00000080: 8dde 293e 2e62 1abe dbca 8f3c 5445 93bd
00000090: db55 ff3c c78b 36bc 48d4 903c d63d b93d
000000a0: 0f2d 023e 388f 9ab9 f1f5 bfbd 1680 5e3d
000000b0: 47d6 92bd 97e7 753d 1df5 163d d0f7 123d
000000c0: cf34 873d 213d 32be 341a 113c f852 883d
000000d0: 2a24 f7bd e2c4 d93b d619 69bc affe b13d
000000e0: 5723 cd3b 8eec 743b 9e8e e8bd 14f9 63bd
000000f0: c9a2 ae3d 7af2 8d3d b89b cfbd 006d 663d
00000100: 12fc 58bd 1d46 95bd 3f0e d53c 22af c3bc
00000110: dc78 f83d 8858 bc3b 4426 b03b a7d8 19bd
00000120: 53bb db3d ec1f 843d 1e8b cebc e0ae 833d
00000130: 688d 283e c922 6ebd 74dc 33bc 5f82 f9bd
00000140: fe4f 613b 3065 cd3d 57e4 223e 6895 dbbd
00000150: e98c cebd 8041 d5bd df7a 443e 7e32 043d
00000160: 12c4 8f3d 5d27 233b b50f efbd d384 0b3d
00000170: 60b9 9d3d cf45 33bd 3d48 643d 1074 d0bd
00000180: 0a86 2e3d 9800 69bd adcc d8bd c949 223e
00000190: e166 763b 226f a9bd 374b 933c 3924 143e
000001a0: 49f6 b5bd 2824 073e 93cb e1bd 2a82 adbd
000001b0: fa8f 563d 6996 d73d 5bce 9f3d f7e9 fcbd
000001c0: 9535 36bd 4046 293e c1fe cabd 6ed8 cfbd
000001d0: 76df 2f3e 91e0 d6bd 53ae 823d b093 0cbd
000001e0: 1366 67bd d411 543d ed3e 493d 4b84 44bc
000001f0: 56d6 4fbd bb11 593c 8676 373d 8190 0bbe
00000200: e302 aebd 438c 203d 9ef9 9cbd 45ab abbc
00000210: f052 803d 4b9c 403c 1e43 983d 56dc b03d
00000220: 8ed4 13bd 8b79 353d 1053 903c e43e de3d
00000230: 3e5e b23d 973f 2bbe 27e5 b5bd 03c2 0e3e
00000240: ceca 18bd 6c98 763d 7ab1 633d a725 c73d
00000250: 7cc6 a2bd 0949 9abd 1dd4 a2bc 7f85 e8bd
00000260: 6cc9 33bd 6532 c5bc cca7 1e3e 91cc e3bc
00000270: a75b e0bd 3917 f43d 0302 723d 7f0f cd3b
00000280: 93d8 95bd b97f 6abd 46d0 163d 4937 a73d
00000290: 474a 893d 998e 3f3d 735a 1c3d 1ce7 07be
000002a0: be90 2bbe ed5b 683d 8de3 12bd 7c27 d1bd
000002b0: 9d6c f93c 6143 403e 15f5 c53d 18a4 a8bd
000002c0: 5d88 213e eedb 8bbd 0d94 223d b055 83bd
000002d0: 00a9 0dbd 1669 78bd db00 69bd 136d 5a3d
000002e0: ee4d 75be 7700 b4bc e46b 9ebd c895 e23d
000002f0: f9a1 113e 1c6f babd 6264 973d 51d2 7ebb
00000300: eab3 56bc 39eb d4bc 95a9 1a3e 29cc 10bc
00000310: 4716 8bbd 3e11 b0bd e7a7 2a3c 1354 7c3e
00000320: 9b7b ba3d d3eb e33c 2527 54bd 03ce 1a3d
00000330: a2c6 f73a 06e5 5c3b 43ae 05bd d915 c7bc
00000340: 8d13 f4bd c150 883c d976 5bbe e434 e6ba
00000350: dafd b23d 1d70 c83c b35b 493c efd5 dcbd
00000360: 1017 4fbd b6a5 8b3c e7f0 c6bc 7bb2 d0bc
00000370: 51c1 ee3d 655d 9cbc 4dc5 1b3d 3f92 4e3d
00000380: 8f31 993d ed9c a7bd 6b8a b83d 4026 57bd
00000390: 3a2e edbd 0588 e53a 5c78 523d b7af da3c
000003a0: e618 b2bc f237 b13c 4074 5a3d 232f 96bd
000003b0: c72b a9bd f9ac f93d 133c 0bbe b5ea dc3d
000003c0: 9819 cdbb dfe6 64bd 7ad7 23bb 01c8 b3bc
000003d0: e7d2 ac3d a75b a2bd f355 b63d deb2 323d
000003e0: 8c72 0d3d d119 dcbc bb9d 8b3d 9a4d 5dba
000003f0: e63e cdbc e63f 8ebd 4f24 11bd 7058 cabc
