onpolicy/scripts/results/MPE/simple_spread/rmappo/check/wandb/run-20220704_211253-2t3rdal5/files/actor.pt (torch, 147692 bytes, 22 tensors)

base.feature_norm.weight f4 [18]
0	0x3f847869	1.0349246
1	0x3f7b4ae8	0.9816117
2	0x3f779968	0.96718454
3	0x3f7ab849	0.97937447
4	0x3f837c27	1.0272263
5	0x3f805633	1.0026306
6	0x3f7a0697	0.97666305
7	0x3f85073b	1.0392832
8	0x3f80b27f	1.0054473
9	0x3f80ad26	1.0052841
10	0x3f8008d7	1.0002698
11	0x3f807129	1.0034534
12	0x3f7e8b03	0.99430865
13	0x3f77dd81	0.96822363
14	0x3f830061	1.0234491
15	0x3f7fe4d6	0.9995855
16	0x3f805707	1.0026559
17	0x3f824464	1.0177121

base.feature_norm.bias f4 [18]
0	0xbba944db	-0.005165679
1	0x3bd8ddd5	0.0066182413
2	0xbc10653d	-0.0088132
3	0x3cd73438	0.026270017
4	0xbceb787a	-0.028743971
5	0xbc31f65d	-0.01086196
6	0x3c12e02e	0.008964581
7	0x3b2a8ed9	0.0026025085
8	0xbad80c10	-0.0016483087
9	0x3ab3149c	0.0013662758
10	0x3cce49b2	0.025181625
11	0x3cbe96a3	0.023265189
12	0x3cc4e45d	0.024034673
13	0xbce35a52	-0.027753029
14	0xbc3e8707	-0.011628873
15	0x3b815751	0.0039471765
16	0xbc184ece	-0.009296132
17	0x3a1df113	0.00060249976

base.mlp.fc1.0.weight f4 [64, 18]
0	0x3c0502b0	0.0081183165
1	0x3cb71456	0.022348564
2	0xbe5df754	-0.2167638
3	0xbda7c1af	-0.08191239
4	0xbe01baea	-0.12668958
5	0xbcc13d6b	-0.023588857
6	0x3e03865f	0.12844227
7	0x3e3a31b8	0.18183029
8	0xbee95008	-0.45568871
9	0x3e43f918	0.1913799
10	0x3e22b795	0.15890343
11	0x3cf69f69	0.03010531
12	0x3d36e84a	0.044655122
13	0x3e4bcdb3	0.19902687
14	0xbdce8c07	-0.10085302
15	0xbe4c456b	-0.19948356
16	0xbe8e9f22	-0.27855784
17	0x3dac2b4e	0.08406697
18	0xbe1dd4fc	-0.15413278
19	0x3e5acc2f	0.21366952
20	0xbde165de	-0.11005758
21	0x3dececce	0.115686044
22	0x3d61adaa	0.05509726
23	0x3da98b13	0.082784794
24	0xbe426f2b	-0.1898772
25	0x3e314904	0.1731301
26	0xbeadd344	-0.33950245
27	0x3e5fe52a	0.21864763
28	0x3e110b3a	0.14164439
29	0x3e01a418	0.12660253
30	0xbe5b4e8c	-0.21416682
31	0xbdc82ebe	-0.0977454
32	0xbdd02e68	-0.10165101
33	0x3c3b117e	0.011417745
34	0x3e98eed2	0.29869705
35	0xbe11c57a	-0.14235488
36	0xbe82a0ea	-0.25513393
37	0xbdbf6310	-0.093450665
38	0xbd8531d6	-0.06503646
39	0x3df401f2	0.119144335
40	0x3db0f1eb	0.08639892
41	0x3dab787f	0.08372592
42	0xbeabe648	-0.33574128
43	0xbe46768c	-0.1938116
44	0xbed86e48	-0.42271638
45	0x3d4239b7	0.047418322
46	0x3e837cef	0.25681254
47	0x3ef47598	0.47745967
48	0x3ec0ee1a	0.37681657
49	0x3d9568db	0.0729539
50	0x3e630a39	0.22171868
51	0xbc1fcd31	-0.009753511
52	0x3d658a06	0.056039833
53	0x3e3d021e	0.18457839
54	0x3d552855	0.052040417
55	0x3dbc6e4c	0.09200725
56	0xbf3fe916	-0.74965036
57	0xbe8d41e0	-0.2758932
58	0x3ed3de48	0.41380525
59	0x3e951ee0	0.29125118
60	0x3d56e1f3	0.052461576
61	0x3e7e66b8	0.24843872
62	0x3ccbf63e	0.02489769
63	0x3e03d714	0.12875015
64	0xbe8f1e47	-0.27952787
65	0xbe6a10ce	-0.22857973
66	0x3e09dde9	0.13463558
67	0xbde8313d	-0.113375165
68	0x3d9e5438	0.07730907
69	0xbdc464fb	-0.09589573
70	0xbe9d386f	-0.30707118
71	0x3ddbb3bf	0.10727643
72	0x3c96fa78	0.01842998
73	0xbdc2944b	-0.09500941
74	0xbe64524e	-0.22297022
75	0xbde77d36	-0.11303179
76	0xbe931c33	-0.28732452
77	0x3cb64d03	0.022253519
78	0x3bac488a	0.005257671
79	0xbe5e2a8e	-0.21695921
80	0xbda168d7	-0.07881325
81	0xbe20a599	-0.1568817
82	0xbdb62a11	-0.08894742
83	0x3d2dfb33	0.04247589
84	0xbdd5fbec	-0.10448441
85	0x3dfbb45a	0.12290259
86	0xbe1aab0c	-0.15104312
87	0x3ea47623	0.3212138
88	0x3e1bc623	0.15212302
89	0xbe2bcb76	-0.16776833
90	0x3f086216	0.5327467
91	0xbe380bbd	-0.17973228
92	0x3e4cc995	0.19998772
93	0xbe2e5c5e	-0.17027423
94	0x3e6325cd	0.22182389
95	0x3d5501b9	0.052003596
96	0x3cb77e47	0.02239908
97	0xbe83c396	-0.25735158
98	0xbeb7c532	-0.35892636
99	0x3e649361	0.22321846
100	0xbe2bf658	-0.16793191
101	0x3e922927	0.28547022
102	0xbd3da130	-0.0462963
103	0x3d63bf68	0.05560246
104	0x3eba082d	0.36334363
105	0xbe2f17c5	-0.17098911
106	0x3c64a5ee	0.013955576
107	0x3ca4516f	0.020058362
108	0x3e3beece	0.18352816
109	0xbe842e97	-0.25816795
110	0x3e2130f2	0.15741327
111	0x3d6af683	0.057364
112	0xbd9075fe	-0.07053755
113	0xbe14c264	-0.14527279
114	0x3e35538f	0.17707656
115	0xbea5f186	-0.3241083
116	0xbda1ac03	-0.07894137
117	0x3e92b05d	0.2865018
118	0x3e631650	0.2217648
119	0xbe7b8ecf	-0.24566196
120	0xbe41b08b	-0.18915002
121	0x3cb28f34	0.0217968
122	0x3e01f124	0.12689644
123	0xbe0d9c31	-0.13829114
124	0x3db4d9fe	0.08830641
125	0xbdd92dbe	-0.10604428
126	0x3dbef83e	0.09324692
127	0x3ec609b0	0.38679266
128	0x3d433726	0.047660016
129	0xbda45dd4	-0.08025709
130	0x3d917534	0.07102433
131	0xbe9b9051	-0.30383542
132	0x3e11441e	0.14186141
133	0x3e67f952	0.22653702
134	0xbe2a9d71	-0.16661622
135	0xbde26340	-0.11054087
136	0x3ccf769f	0.025325118
137	0xbcaa7061	-0.02080554
138	0xbe78a986	-0.24283418
139	0xbcc60821	-0.024173798
140	0x3de211ca	0.11038549
141	0xbe57a9f1	-0.21060921
142	0xbe6ae0d8	-0.22937334
143	0x3d591bd9	0.053005073
144	0x3e8567f9	0.26055887
145	0xbeaa9484	-0.33316433
146	0x3db3abb1	0.08772982
147	0xbe21ba90	-0.15793824
148	0x3e9d2d4a	0.30698615
149	0xbe842ed5	-0.2581698
150	0x3ea47126	0.32117575
151	0x3eb2ebdc	0.3494557
152	0x3d1f96ae	0.03896206
153	0x3e27ee9d	0.16399617
154	0x3e0397b8	0.12850845
155	0x3e832c33	0.2561966
156	0x3e600b58	0.21879327
157	0xbdb5e04b	-0.08880671
158	0x3b90c350	0.0044178143
159	0xbd97e366	-0.0741642
160	0xbecab775	-0.39593092
161	0x3db6c66d	0.089245655
162	0xbccbc2ca	-0.024873156
163	0x3ecbc1de	0.39796346
164	0x3e9595b6	0.29215783
165	0xbd457562	-0.048207648
166	0xbe22e628	-0.1590811
167	0x3c276103	0.0102160005
168	0x3d6069b1	0.054788295
169	0x3e26dad0	0.16294408
170	0x3e94c307	0.29055044
171	0xbe2066f7	-0.15664278
172	0xbe0209b0	-0.12699008
173	0x3dd5c7a6	0.104384705
174	0x3e289af4	0.1646536
175	0x3e8cb818	0.27484202
176	0xbd0216be	-0.03175997
177	0xbe28a2f9	-0.16468419
178	0xbc8342a7	-0.016022993
179	0xba4181e5	-0.00073817215
180	0x3d74ff81	0.05981398
181	0x3d938ac3	0.07204201
182	0x3e4b101a	0.19830361
183	0xbc1f9425	-0.00973991
184	0x3e04e96e	0.12979671
185	0x3f0c1112	0.5471355
186	0x3dbe5e14	0.09295288
187	0x3ec513f2	0.3849178
188	0x3e1efa7a	0.15525237
189	0x3e750b63	0.23930125
190	0x3e293e2c	0.16527623
191	0x3e20362b	0.15645663
192	0xbd840884	-0.06446937
193	0x3b919263	0.0044424995
194	0x3e3a14dc	0.1817202
195	0x3eae033b	0.3398684
196	0xbe62317c	-0.2208919
197	0xbe6d3afa	-0.23167029
198	0xbdd74599	-0.105113216
199	0xbe015449	-0.12629808
200	0x3d07bf0e	0.03314119
201	0xbedb45bc	-0.4282664
202	0xbe95f77d	-0.2929038
203	0x3e05f986	0.13083467
204	0xbb80e205	-0.0039331936
205	0xbcccb48c	-0.024988435
206	0xbe2a130c	-0.16608828
207	0xbe1c53d1	-0.15266348
208	0x3e6a3f9e	0.2287583
209	0xbe8271a7	-0.25477335
210	0x3eb6b3af	0.35683963
211	0xbe5ba756	-0.21450552
212	0x3eb54a51	0.3540826
213	0x3e20802c	0.15673894
214	0x3dbfdf10	0.09368718
215	0x3e6ada2d	0.2293479
216	0xbe7c594b	-0.24643438
217	0xbd84331e	-0.06455062
218	0x3ad3e126	0.0016165122
219	0x3deead0e	0.11654101
220	0x3d28a0f2	0.041169114
221	0x3f0f8394	0.5606015
222	0xbe47978d	-0.19491406
223	0x3e1f3a36	0.1554955
224	0x3e04d409	0.1297151
225	0xbd7cc3b8	-0.06171009
226	0xbea4c2bb	-0.32179818
227	0x3d6c3e68	0.057676703
228	0x3e4e4ba1	0.20146038
229	0xbe1a8c23	-0.1509252
230	0xbe43047b	-0.19044678
231	0xbe31b47b	-0.17354004
232	0x3ea4b2ce	0.32167667
233	0x3cb856ff	0.02250242
234	0xbc927675	-0.01787875
235	0xbdac345a	-0.08408423
236	0xbb9cfcb1	-0.0047908654
237	0x3dbe9557	0.09305828
238	0x3df99d13	0.12188163
239	0x3d998a82	0.074971214
240	0x3eb7fbe6	0.3593437
241	0xbc63f8b9	-0.013914281
242	0xbe06254b	-0.13100164
243	0xbe08a4d8	-0.13344133
244	0xbe96d19d	-0.29456797
245	0x3e3dae0a	0.18523422
246	0xbecbf185	-0.39832702
247	0xbef11a4a	-0.4709037
248	0xbd58cf58	-0.052932113
249	0x3d66ed16	0.056378447
250	0x3c341fce	0.010993911
251	0x3df9afb6	0.12191717
252	0x3e2fad82	0.17156032
253	0x3e749826	0.23886165
254	0x3ea92a7e	0.3304023
255	0x3d77433d	0.060366858

base.mlp.fc1.0.bias f4 [64]
0	0xbba4e0d5	-0.005031685
1	0xbc7f670a	-0.015588531
2	0x3cee0937	0.029057128
3	0xbd2eb2eb	-0.0426511
4	0xbd0962f5	-0.03354164
5	0xbbfde1be	-0.007747858
6	0xbc43ef2d	-0.011958879
7	0x3cc66843	0.024219638
8	0xbc88bd94	-0.01669196
9	0xbc3002bc	-0.010742839
10	0x3bffe043	0.0078087165
11	0x3cb64f76	0.022254687
12	0x3b733a39	0.003711356
13	0x3a0d2fd8	0.00053858524
14	0xbad9e423	-0.0016623776
15	0x3b02a52a	0.0019934871
16	0xbcc73d6c	-0.02432128
17	0x3bb30c67	0.005464125
18	0x3c65c2ea	0.014023522
19	0xbc126cad	-0.008937043
20	0x3c298309	0.010346183
21	0x3c7ee1a2	0.015556725
22	0xbab03045	-0.001344212
23	0xbc319ae8	-0.010840155
24	0xbcef4f51	-0.029212626
25	0x3b8fca12	0.0043881023
26	0x3a21605d	0.0006156022
27	0x3ce225ab	0.027605852
28	0xbbb90c59	-0.005647224
29	0x3b8f6e14	0.004377136
30	0xbbd30f55	-0.0064410367
31	0xbbbf1fe4	-0.005832659
32	0xbd04ac1f	-0.03239071
33	0x3bd8ad44	0.0066124517
34	0x3c0d7889	0.008634695
35	0x3b475c7e	0.003042012
36	0xbc08cee1	-0.008350105
37	0x3c1f6c26	0.009730374
38	0x3c685bc4	0.014182035
39	0x3cc59cb5	0.024122575
40	0xbc599490	-0.013280049
41	0xbb5c50ba	-0.0033617453
42	0xbac04414	-0.0014668726
43	0x3cc31497	0.023813529
44	0x3c93a3c8	0.018022433
45	0xb98f5f9f	-0.0002734633
46	0x3cd373b8	0.025812015
47	0xb9892c7d	-0.00026163823
48	0x3d1819e7	0.037134077
49	0x3c97f52a	0.01854952
50	0x3cefdb7c	0.029279463
51	0xbcdbe75a	-0.026843715
52	0xba7de81c	-0.0009685771
53	0x3c8e26f2	0.017352555
54	0x3d05155f	0.032491084
55	0xbadde406	-0.0016928918
56	0x3bc19a31	0.0059082736
57	0x3c99ce33	0.018775081
58	0xbbfc7e4b	-0.007705485
59	0xbd337fab	-0.043822926
60	0x3c4162bb	0.011803324
61	0xbcb838da	-0.022488046
62	0xbd12a71e	-0.035803907
63	0xbd28d4fb	-0.04121874

base.mlp.fc1.2.weight f4 [64]
0	0x3f78754d	0.97053987
1	0x3f81a40a	1.0128186
2	0x3f80fd0c	1.0077224
3	0x3f7d8a5c	0.99039245
4	0x3f7a3e2c	0.97751117
5	0x3f7ffaf7	0.99992317
6	0x3f80f296	1.0074031
7	0x3f827050	1.0190525
8	0x3f7bf67e	0.9842299
9	0x3f7a19ed	0.9769581
10	0x3f822e2c	1.017034
11	0x3f7bc06e	0.983405
12	0x3f807b5b	1.0037645
13	0x3f80e2b4	1.0069184
14	0x3f764e60	0.9621334
15	0x3f8196f4	1.0124192
16	0x3f7ec4bb	0.99518937
17	0x3f81f808	1.0153818
18	0x3f80f58d	1.0074936
19	0x3f7b689c	0.98206496
20	0x3f80bef4	1.0058274
21	0x3f80dacd	1.0066773
22	0x3f7ccc7f	0.98749536
23	0x3f86bb76	1.0525959
24	0x3f7e586e	0.99353683
25	0x3f82eb4f	1.022806
26	0x3f822991	1.0168935
27	0x3f7ee323	0.99565333
28	0x3f802861	1.0012323
29	0x3f8002f7	1.0000905
30	0x3f82913a	1.020057
31	0x3f7ec101	0.9951325
32	0x3f7b30e5	0.9812148
33	0x3f7db2ca	0.99100935
34	0x3f82b4c3	1.0211414
35	0x3f791e1e	0.9731158
36	0x3f814175	1.0098101
37	0x3f82615c	1.0185962
38	0x3f7b2fce	0.9811982
39	0x3f8234d1	1.0172368
40	0x3f81ece0	1.0150414
41	0x3f7b49ff	0.98159784
42	0x3f8000a8	1.00002
43	0x3f8309fc	1.0237422
44	0x3f7ff390	0.9998102
45	0x3f80a995	1.0051752
46	0x3f837cd7	1.0272473
47	0x3f7c5bee	0.98577774
48	0x3f7d66ab	0.98984784
49	0x3f7ddcaf	0.9916486
50	0x3f813154	1.0093179
51	0x3f801719	1.0007049
52	0x3f7e7aff	0.9940643
53	0x3f80d575	1.0065142
54	0x3f80da17	1.0066556
55	0x3f80ca66	1.0061767
56	0x3f7b64a0	0.98200417
57	0x3f7c0eaf	0.98459905
58	0x3f82dae3	1.0223049
59	0x3f7f5d6a	0.99751914
60	0x3f8400cd	1.0312744
61	0x3f807861	1.0036737
62	0x3f7be504	0.98396325
63	0x3f76b480	0.9636917

base.mlp.fc1.2.bias f4 [64]
0	0xbc3c20d7	-0.011482439
1	0xbc5771ae	-0.013149662
2	0x3ccf0759	0.025272058
3	0xbb94e988	-0.0045444407
4	0xbd14c3fd	-0.03631972
5	0xbbf81045	-0.007570299
6	0xbc696ab1	-0.014246629
7	0x3c8d877e	0.017276522
8	0xbc86f5c9	-0.016474621
9	0x3abea3ed	0.0014544703
10	0x3c002993	0.007822412
11	0x3cee1154	0.029060997
12	0xbc5f0ad2	-0.01361342
13	0xbba21749	-0.0049466235
14	0xb9feb125	-0.00048578638
15	0xbb90ac8e	-0.0044151014
16	0xbc826d20	-0.015921175
17	0xbb6f84d2	-0.0036547673
18	0x3c8ca89b	0.017170241
19	0xbbc33dad	-0.00595828
20	0x3b83700a	0.004011159
21	0x3c8f71e8	0.01751037
22	0xbb863383	-0.004095496
23	0xbc390859	-0.011293494
24	0xbce29d23	-0.02766282
25	0x3c4ecfe6	0.012622809
26	0x3b9b19d2	0.0047333026
27	0x3c9590a0	0.01825744
28	0xbb97028c	-0.004608458
29	0xbbcbcec4	-0.0062197167
30	0xbb3034e0	-0.0026886985
31	0x3ae8ecb7	0.0017770742
32	0xbcc9e0d3	-0.024643337
33	0x3ba02517	0.004887234
34	0x3c1160bc	0.008873161
35	0xbc9246ec	-0.017856084
36	0xbbb23dfe	-0.005439519
37	0x3cfaac3f	0.030599711
38	0x3c003f88	0.007827647
39	0x3cb2e3b1	0.021837087
40	0xbb24ec53	-0.0025165274
41	0xbc4494c6	-0.011998361
42	0xbc0577b0	-0.0081462115
43	0x3b8cd543	0.0042978837
44	0x3c745783	0.014913443
45	0x3b0a5c90	0.00211123
46	0x3c954a95	0.01822404
47	0x3aae906e	0.001331819
48	0x3cd37eeb	0.025817355
49	0xbb67b0f8	-0.0035353284
50	0x3ca3e360	0.020005882
51	0xbc2aa76d	-0.010415894
52	0xbc16b8f5	-0.009199371
53	0x3cfdc412	0.030977283
54	0x3cc8f452	0.024530564
55	0xbc81a706	-0.015826713
56	0x3bc39c02	0.0059695253
57	0x3a57d3c8	0.0008233157
58	0xbaa21486	-0.0012365736
59	0xbd1949d0	-0.03742391
60	0x3c9073a7	0.017633272
61	0xbc9d6898	-0.019214913
62	0xbcfa7144	-0.030571587
63	0xbc961dd9	-0.01832478

base.mlp.fc_h.0.weight f4 [64, 64]
0	0x3d092420	0.033481717
1	0xbe17ad93	-0.14812307
2	0x3d24510b	0.04011635
3	0x3e21b4ba	0.15791598
4	0xbe85e35e	-0.2615003
5	0x3e3c42be	0.18384835
6	0xbdc92c8e	-0.09822951
7	0xbe36b6b0	-0.17843127
8	0xbe7b723a	-0.24555293
9	0x3e56e783	0.20986752
10	0x3d71faf7	0.05907723
11	0xbf0cc55c	-0.54988647
12	0xbea9ebb4	-0.3318764
13	0xbd9ec971	-0.07753266
14	0xbe826e09	-0.25474575
15	0x3e6e29b8	0.23258102
16	0xbd1134f8	-0.035450906
17	0x3e9454a4	0.28970826
18	0x3e2ce27b	0.1688327
19	0xbbbd64bd	-0.005779831
20	0xbdab6f08	-0.08370787
21	0x3c99ff17	0.018798394
22	0x3ec1f35f	0.3788099
23	0xbeb9ed3c	-0.36313808
24	0xbe20e453	-0.15712099
25	0x3e01c6bd	0.12673469
26	0xbe90b422	-0.2826243
27	0x3e240488	0.16017354
28	0x3e93deb8	0.28880858
29	0xbb305680	-0.0026907027
30	0xbdb63334	-0.08896485
31	0xbe0964c7	-0.1341735
32	0x3ed8e67f	0.42363355
33	0xbb99251a	-0.0046736123
34	0x3c04f8b8	0.00811594
35	0xbe26d173	-0.16290836
36	0x3c70b220	0.014690906
37	0xbee825c2	-0.45341307
38	0xbec368cc	-0.3816589
39	0xbd0cf922	-0.03441728
40	0xbd2971bf	-0.041368242
41	0x3d83f327	0.06442862
42	0xbd19a368	-0.037509352
43	0xbe4bf38d	-0.19917126
44	0x3ead0751	0.33794644
45	0x3b1fb5f6	0.0024369932
46	0xbd30e074	-0.043182805
47	0x3e580a9a	0.21097794
48	0xbdbf433c	-0.09338996
49	0x3d3d349b	0.046192747
50	0x3ea05ae1	0.31319335
51	0xbe9c298b	-0.30500445
52	0x3e76a811	0.2408755
53	0x3db7956a	0.08964045
54	0x3e74a1f3	0.23889904
55	0xbe2e8936	-0.1704453
56	0xbe646dae	-0.22307464
57	0x3c093b46	0.008375948
58	0x3e23f122	0.16009954
59	0x3d9f7b84	0.077872306
60	0xbe242dca	-0.16033092
61	0xbdd7296b	-0.10505947
62	0xbe2e68fd	-0.17032237
63	0xbe0e8ea7	-0.13921605
64	0x3ebc1e7f	0.36742017
65	0xbd2e7590	-0.042592585
66	0x3d243045	0.040085096
67	0xbe4f5e88	-0.20250905
68	0x3deba033	0.11505165
69	0x3f1d1276	0.61356294
70	0xbf1e3bfb	-0.6181027
71	0xbde73434	-0.11289254
72	0xbdae6be3	-0.085166715
73	0x3cfe0d7b	0.031012287
74	0xbe97661e	-0.29570097
75	0x3d25b30c	0.040453956
76	0x3d6a6d28	0.057233006
77	0x3c0f1647	0.008733339
78	0xbe64f030	-0.2235725
79	0x3d2242b4	0.039614394
80	0x3d098d6d	0.03358214
81	0xbe48712f	-0.19574426
82	0x3e04245b	0.12904494
83	0x3d1178f6	0.035515748
84	0x3e018003	0.12646489
85	0xbca9d937	-0.020733459
86	0x3d9e6595	0.07734219
87	0xbd8b4a53	-0.068012856
88	0xbc47ffd8	-0.012206994
89	0xbedb108a	-0.42786056
90	0x3dc80c63	0.097679876
91	0x3e9b092a	0.3028043
92	0xbe40cb99	-0.18827666
93	0x3e613279	0.2199191
94	0x3d878026	0.06616239
95	0xbbb6c031	-0.00557711
96	0xbe6dfa79	-0.23240079
97	0x3dddcfa0	0.10830617
98	0xbdae9723	-0.08524921
99	0x3dfefd7c	0.12450692
100	0xbe82ca8b	-0.25545153
101	0x3dbdf586	0.092753455
102	0x3e619818	0.22030675
103	0x3e1b9e11	0.15197016
104	0xbea3b2ba	-0.31972295
105	0x3d12a5f0	0.03580278
106	0x3e739227	0.23786221
107	0xbe58af25	-0.21160562
108	0x3ed1b087	0.40954992
109	0xbe791d9e	-0.24327704
110	0x3e036659	0.12832011
111	0x3dd76932	0.10518111
112	0x3d1b5880	0.037926197
113	0x3e004d5b	0.12529509
114	0x3d0ff0a7	0.035141613
115	0x3e98bc67	0.2983124
116	0xbd713a9f	-0.058893796
117	0xbeb3c75d	-0.3511304
118	0x3e10fe1d	0.14159437
119	0xbe7c3acb	-0.24631803
120	0xbdc9f700	-0.09861565
121	0xbddc01c7	-0.107425265
122	0x3ddf39e9	0.10899717
123	0x3e4f5682	0.20247844
124	0x3e1df4a5	0.15425356
125	0xbe1c0218	-0.15235174
126	0x3e8c7cb0	0.2743888
127	0x3b966449	0.0045895916
128	0xbe94702e	-0.28991836
129	0x3e7c70f4	0.24652463
130	0x3e5a6c87	0.21330462
131	0xbd9ff7a7	-0.07810908
132	0x3c86a952	0.01643816
133	0xbddb9738	-0.10722202
134	0xbc8f1267	-0.01746483
135	0x3e220759	0.15823115
136	0xbe8c2f85	-0.27380005
137	0x3e67b206	0.22626504
138	0xbe3f50cb	-0.18683164
139	0xbe252044	-0.1612559
140	0x3eee7a41	0.46577647
141	0x3d0b37fb	0.033988934
142	0xbdb41696	-0.087933704
143	0x3c0f2aaa	0.008738199
144	0xbddc8da5	-0.10769204
145	0x3ed6e4b8	0.41971374
146	0x3e29e94c	0.16592902
147	0x3ee5d130	0.4488616
148	0x3e393772	0.18087557
149	0xbe692dd4	-0.22771388
150	0x3ea3b416	0.31973332
151	0x3ea90f74	0.33019602
152	0x3e580796	0.21096644
153	0x3e7cdbaa	0.2469317
154	0x3e765f2c	0.24059743
155	0x3e4c0384	0.19923216
156	0xbde0294c	-0.10945377
157	0xbd1fe1ce	-0.039033704
158	0xbe1cc6f7	-0.15310274
159	0xbe26149b	-0.16218798
160	0x3cd02ffd	0.025413508
161	0xbb206c23	-0.0024478517
162	0xbe9859bb	-0.2975596
163	0x3e26ed08	0.16301358
164	0xbbea70c0	-0.007154554
165	0xbe2b2d23	-0.16716437
166	0xbd695e72	-0.056974836
167	0x3df551ed	0.11978517
168	0xbbf0c699	-0.0073478934
169	0x3c2c098a	0.010500321
170	0x3ea1f5de	0.31632894
171	0x3dd5c7b2	0.104384795
172	0xbdf33340	-0.118750095
173	0x3d465b16	0.04842671
174	0xbe697210	-0.22797418
175	0x3d821028	0.06350738
176	0xbe1b03a1	-0.15138103
177	0x3e10f6dc	0.1415667
178	0x3d8afe17	0.06786745
179	0x3e9adcaa	0.30246478
180	0xbe1beb02	-0.15226367
181	0x3e64a274	0.22327596
182	0x3ebfb6a8	0.37444043
183	0xbc8de993	-0.01732329
184	0x3bd2952a	0.006426473
185	0xbdedc7c3	-0.11610367
186	0xbe484805	-0.19558723
187	0xbf0148f2	-0.5050193
188	0x3dc6051e	0.09668945
189	0xbe8f7b9b	-0.2802399
190	0x3dfe67bc	0.124221295
191	0x3e587ba4	0.21140915
192	0x3dfb4e13	0.12270751
193	0xbea7f4a0	-0.32803822
194	0xbd842e9e	-0.06454204
195	0x3ba74773	0.005104953
196	0xbdc2ed00	-0.095178604
197	0xbe99eb44	-0.30062306
198	0x3d1aa3cc	0.037753865
199	0x3df5319a	0.11972351
200	0xbe7132e3	-0.23554568
201	0x3edeac33	0.43490753
202	0xbe4587c0	-0.19290066
203	0xbe17baed	-0.148174
204	0xbd115c5e	-0.03548848
205	0xbc8af0f7	-0.016960604
206	0x3e83d010	0.25744677
207	0xbef4ea5f	-0.4783506
208	0xbd415972	-0.047204442
209	0xbd85900f	-0.065216176
210	0xbe1c8170	-0.15283751
211	0x3e278c24	0.16362053
212	0xbdfcee83	-0.1235018
213	0xbc8386a6	-0.016055416
214	0x3e0402bf	0.12891673
215	0xbda58626	-0.080822274
216	0x3eed08f3	0.4629589
217	0xbe60f7a9	-0.21969475
218	0xbea264bd	-0.31717482
219	0xbd1a7492	-0.037708826
220	0xbe1f352a	-0.15547624
221	0x3df12a64	0.117756635
222	0xbee9455d	-0.45560732
223	0xbd537746	-0.05162742
224	0x3ddf028f	0.1088916
225	0xbe354161	-0.17700721
226	0x3eb758c6	0.35809916
227	0x3d40173f	0.04689717
228	0x3c8c1432	0.017099474
229	0x3e9c1013	0.30481014
230	0xbe5831a3	-0.21112685
231	0xbe0b8d44	-0.13628107
232	0x3e6b4bc8	0.22978127
233	0xbe33ec81	-0.17570688
234	0x3e4bb5c0	0.19893551
235	0xbebd99ee	-0.37031502
236	0xbd308129	-0.043091927
237	0x3e498867	0.1968094
238	0xbd948490	-0.07251847
239	0xbe2c90cd	-0.16852112
240	0x3dee9d6a	0.11651118
241	0x3c23b63f	0.009992181
242	0xbe0b47fd	-0.1360168
243	0x3efc7ba8	0.49313092
244	0x3d7c52ea	0.06160251
245	0xbdc13d95	-0.09435574
246	0x3dd05571	0.10172547
247	0x3c484c6b	0.012225251
248	0x3c69b194	0.014263529
249	0xbe69318b	-0.22772805
250	0x3e421876	0.18954644
251	0x3e924b00	0.28572845
252	0x3da24720	0.07923722
253	0xbdb34d71	-0.08755005
254	0xbe48a752	-0.19595078
255	0xbe51d582	-0.20491603

base.mlp.fc_h.0.bias f4 [64]
0	0x00000000	0.0
1	0x00000000	0.0
2	0x00000000	0.0
3	0x00000000	0.0
4	0x00000000	0.0
5	0x00000000	0.0
6	0x00000000	0.0
7	0x00000000	0.0
8	0x00000000	0.0
9	0x00000000	0.0
10	0x00000000	0.0
11	0x00000000	0.0
12	0x00000000	0.0
13	0x00000000	0.0
14	0x00000000	0.0
15	0x00000000	0.0
16	0x00000000	0.0
17	0x00000000	0.0
18	0x00000000	0.0
19	0x00000000	0.0
20	0x00000000	0.0
21	0x00000000	0.0
22	0x00000000	0.0
23	0x00000000	0.0
24	0x00000000	0.0
25	0x00000000	0.0
26	0x00000000	0.0
27	0x00000000	0.0
28	0x00000000	0.0
29	0x00000000	0.0
30	0x00000000	0.0
31	0x00000000	0.0
32	0x00000000	0.0
33	0x00000000	0.0
34	0x00000000	0.0
35	0x00000000	0.0
36	0x00000000	0.0
37	0x00000000	0.0
38	0x00000000	0.0
39	0x00000000	0.0
40	0x00000000	0.0
41	0x00000000	0.0
42	0x00000000	0.0
43	0x00000000	0.0
44	0x00000000	0.0
45	0x00000000	0.0
46	0x00000000	0.0
47	0x00000000	0.0
48	0x00000000	0.0
49	0x00000000	0.0
50	0x00000000	0.0
51	0x00000000	0.0
52	0x00000000	0.0
53	0x00000000	0.0
54	0x00000000	0.0
55	0x00000000	0.0
56	0x00000000	0.0
57	0x00000000	0.0
58	0x00000000	0.0
59	0x00000000	0.0
60	0x00000000	0.0
61	0x00000000	0.0
62	0x00000000	0.0
63	0x00000000	0.0

base.mlp.fc_h.2.weight f4 [64]
0	0x3f800000	1.0
1	0x3f800000	1.0
2	0x3f800000	1.0
3	0x3f800000	1.0
4	0x3f800000	1.0
5	0x3f800000	1.0
6	0x3f800000	1.0
7	0x3f800000	1.0
8	0x3f800000	1.0
9	0x3f800000	1.0
10	0x3f800000	1.0
11	0x3f800000	1.0
12	0x3f800000	1.0
13	0x3f800000	1.0
14	0x3f800000	1.0
15	0x3f800000	1.0
16	0x3f800000	1.0
17	0x3f800000	1.0
18	0x3f800000	1.0
19	0x3f800000	1.0
20	0x3f800000	1.0
21	0x3f800000	1.0
22	0x3f800000	1.0
23	0x3f800000	1.0
24	0x3f800000	1.0
25	0x3f800000	1.0
26	0x3f800000	1.0
27	0x3f800000	1.0
28	0x3f800000	1.0
29	0x3f800000	1.0
30	0x3f800000	1.0
31	0x3f800000	1.0
32	0x3f800000	1.0
33	0x3f800000	1.0
34	0x3f800000	1.0
35	0x3f800000	1.0
36	0x3f800000	1.0
37	0x3f800000	1.0
38	0x3f800000	1.0
39	0x3f800000	1.0
40	0x3f800000	1.0
41	0x3f800000	1.0
42	0x3f800000	1.0
43	0x3f800000	1.0
44	0x3f800000	1.0
45	0x3f800000	1.0
46	0x3f800000	1.0
47	0x3f800000	1.0
48	0x3f800000	1.0
49	0x3f800000	1.0
50	0x3f800000	1.0
51	0x3f800000	1.0
52	0x3f800000	1.0
53	0x3f800000	1.0
54	0x3f800000	1.0
55	0x3f800000	1.0
56	0x3f800000	1.0
57	0x3f800000	1.0
58	0x3f800000	1.0
59	0x3f800000	1.0
60	0x3f800000	1.0
61	0x3f800000	1.0
62	0x3f800000	1.0
63	0x3f800000	1.0

base.mlp.fc_h.2.bias f4 [64]
0	0x00000000	0.0
1	0x00000000	0.0
2	0x00000000	0.0
3	0x00000000	0.0
4	0x00000000	0.0
5	0x00000000	0.0
6	0x00000000	0.0
7	0x00000000	0.0
8	0x00000000	0.0
9	0x00000000	0.0
10	0x00000000	0.0
11	0x00000000	0.0
12	0x00000000	0.0
13	0x00000000	0.0
14	0x00000000	0.0
15	0x00000000	0.0
16	0x00000000	0.0
17	0x00000000	0.0
18	0x00000000	0.0
19	0x00000000	0.0
20	0x00000000	0.0
21	0x00000000	0.0
22	0x00000000	0.0
23	0x00000000	0.0
24	0x00000000	0.0
25	0x00000000	0.0
26	0x00000000	0.0
27	0x00000000	0.0
28	0x00000000	0.0
29	0x00000000	0.0
30	0x00000000	0.0
31	0x00000000	0.0
32	0x00000000	0.0
33	0x00000000	0.0
34	0x00000000	0.0
35	0x00000000	0.0
36	0x00000000	0.0
37	0x00000000	0.0
38	0x00000000	0.0
39	0x00000000	0.0
40	0x00000000	0.0
41	0x00000000	0.0
42	0x00000000	0.0
43	0x00000000	0.0
44	0x00000000	0.0
45	0x00000000	0.0
46	0x00000000	0.0
47	0x00000000	0.0
48	0x00000000	0.0
49	0x00000000	0.0
50	0x00000000	0.0
51	0x00000000	0.0
52	0x00000000	0.0
53	0x00000000	0.0
54	0x00000000	0.0
55	0x00000000	0.0
56	0x00000000	0.0
57	0x00000000	0.0
58	0x00000000	0.0
59	0x00000000	0.0
60	0x00000000	0.0
61	0x00000000	0.0
62	0x00000000	0.0
63	0x00000000	0.0

base.mlp.fc2.0.0.weight f4 [64, 64]
0	0x3d4ee84c	0.050514504
1	0xbe24c540	-0.1609087
2	0x3cca8f60	0.02472657
3	0x3e2eb9ae	0.17063019
4	0xbe876587	-0.26444647
5	0x3e345bb6	0.1761311
6	0xbd9522df	-0.07282042
7	0xbe3089cd	-0.17240067
8	0xbe633220	-0.2218709
9	0x3e40a93d	0.1881456
10	0x3da4b23d	0.08041809
11	0xbf050de8	-0.51974344
12	0xbeaffb3d	-0.34371367
13	0xbd9ba794	-0.07600322
14	0xbe789f73	-0.24279575
15	0x3e4a3651	0.19747283
16	0xbce4b375	-0.027917603
17	0x3e985ce5	0.29758373
18	0x3e2f53f4	0.1712187
19	0xbd3513e9	-0.04420844
20	0xbd919176	-0.071078226
21	0x3c22f18f	0.009945287
22	0x3eb40592	0.351605
23	0xbec110e2	-0.37708193
24	0xbe1f9f97	-0.15588222
25	0x3dd13d6d	0.10216794
26	0xbe7c0b09	-0.24613585
27	0x3e217ddb	0.15770666
28	0x3e8e8f53	0.27843723
29	0xb99bfcb8	-0.00029752194
30	0xbd6e5177	-0.05818316
31	0xbe32923f	-0.17438601
32	0x3edeb354	0.43496192
33	0x3c6c38ea	0.014417866
34	0xbb5116c0	-0.003190443
35	0xbe3f3468	-0.18672335
36	0x3d336d0e	0.043805175
37	0xbef2dfbf	-0.4743633
38	0xbeb3e728	-0.35137296
39	0xbd02b4bf	-0.031910654
40	0xbd2aa210	-0.04165846
41	0x3da6549b	0.08121606
42	0xbd2938b6	-0.04131385
43	0xbe5a1330	-0.21296382
44	0x3ec01886	0.3751871
45	0xbc03005e	-0.007995693
46	0xbccd451e	-0.025057372
47	0x3e72f16f	0.23724912
48	0xbdca15e0	-0.098674536
49	0x3d582e1a	0.05277834
50	0x3e8cacf0	0.2747569
51	0xbea65579	-0.32487085
52	0x3e7ca9ae	0.24674103
53	0x3d80dfe9	0.062927075
54	0x3e889cab	0.26682028
55	0xbe3dcb98	-0.18534696
56	0xbe49e79d	-0.1971726
57	0x3c06e087	0.008232242
58	0x3e332409	0.17494215
59	0x3d6f0097	0.058350172
60	0xbe044f42	-0.1292086
61	0xbdfeb566	-0.12436943
62	0xbe401f67	-0.18761979
63	0xbe11bae3	-0.14231448
64	0x3ec4bec8	0.38426805
65	0xbd053ccc	-0.032528684
66	0x3ca66c1b	0.02031522
67	0xbe31910e	-0.1734049
68	0x3dcfe716	0.10151498
69	0x3f1a310d	0.60231096
70	0xbf1e1192	-0.6174556
71	0xbdf7b8a3	-0.120957635
72	0xbd997d42	-0.07494594
73	0x3d1e835d	0.038699497
74	0xbe884937	-0.26618358
75	0x3d7cfd91	0.061765257
76	0x3d7bae0e	0.06144529
77	0x3b3cf3c1	0.0028831812
78	0xbe707532	-0.23482206
79	0x3cd0830e	0.025453117
80	0x3d489042	0.0489657
81	0xbe42cc89	-0.19023336
82	0x3e01c5ff	0.12673186
83	0x3cfb68ed	0.030689681
84	0x3e054c4c	0.13017386
85	0xbc16ed05	-0.009211783
86	0x3da8be33	0.082394026
87	0xbde68465	-0.11255721
88	0xbcc5a378	-0.0241258
89	0xbed7d3a5	-0.4215366
90	0x3d9738ff	0.07383918
91	0x3e8a073a	0.26958638
92	0xbe3328d2	-0.1749604
93	0x3e5ca85b	0.21548598
94	0x3d973e8c	0.07384977
95	0xbc856c2b	-0.01628693
96	0xbe80d5dd	-0.25163165
97	0x3dba2073	0.090882204
98	0xbde2f4dc	-0.110818595
99	0x3de8becf	0.11364519
100	0xbe732f54	-0.23748523
101	0x3dc611c4	0.09671357
102	0x3e8017c9	0.25018147
103	0x3e1a6623	0.15078025
104	0xbeafaa3c	-0.34309566
105	0x3d698948	0.057015687
106	0x3e735753	0.2376378
107	0xbe719451	-0.23591734
108	0x3ee1883b	0.44049248
109	0xbe845a12	-0.25849968
110	0x3df0d05d	0.11758492
111	0x3df8d59a	0.12150116
112	0x3d1b6bdb	0.037944656
113	0x3e0a1657	0.13485084
114	0x3cdda022	0.027053896
115	0x3e93c727	0.2886288
116	0xbcd6c498	-0.02621679
117	0xbeb1b463	-0.34707937
118	0x3e0e4825	0.13894708
119	0xbe8f0d29	-0.27939728
120	0xbdd534c6	-0.10410456
121	0xbdcbf483	-0.09958746
122	0x3e06d73f	0.13168047
123	0x3e2331af	0.15936922
124	0x3e305a53	0.17221956
125	0xbe09aa70	-0.13443923
126	0x3e93e2a9	0.28883865
127	0x3c13b4fc	0.009015318
128	0xbe9301de	-0.28712362
129	0x3e6b9ae2	0.23008302
130	0x3e4e1a12	0.20127133
131	0xbd6eea52	-0.058328934
132	0x3b8a5fd0	0.0042228475
133	0xbdfb6368	-0.122748196
134	0xbd046dbb	-0.03233121
135	0x3e28523e	0.16437623
136	0xbe6f2dc1	-0.23357297
137	0x3e6c68a4	0.23086792
138	0xbe48ee92	-0.19622257
139	0xbe1e28ea	-0.15445295
140	0x3ee9b59f	0.45646378
141	0x3ce13c0a	0.02749445
142	0xbdd629f2	-0.10457219
143	0xbc33aeb7	-0.010966948
144	0xbdeb805c	-0.11499092
145	0x3ed6ba2f	0.41938922
146	0x3e413d73	0.18871097
147	0x3ee7da42	0.45283705
148	0x3e4d0889	0.20022787
149	0xbe6a6c59	-0.22892894
150	0x3eb01a1b	0.34394917
151	0x3eaa115d	0.33216372
152	0x3e6606cd	0.22463532
153	0x3e86f87c	0.26361454
154	0x3e596eef	0.21233724
155	0x3e3de9f8	0.18546283
156	0xbdda9c74	-0.10674372
157	0xbd15a004	-0.036529556
158	0xbe40ce52	-0.18828705
159	0xbe313b2b	-0.17307727
160	0x3cf1ab37	0.029500587
161	0x3bed3326	0.0072387634
162	0xbe8eea03	-0.27912912
163	0x3e02ce72	0.12774065
164	0xbc38d245	-0.011280601
165	0xbe42e60a	-0.19033065
166	0xbd1d78b7	-0.0384452
167	0x3e0cb067	0.13739167
168	0x3a83bfe9	0.00100517
169	0xbc8f4b3c	-0.01749193
170	0x3eabb7d3	0.33538684
171	0x3dea9ffc	0.11456296
172	0xbdf9babd	-0.121938206
173	0x3dacb4b2	0.084329024
174	0xbe79d183	-0.24396329
175	0x3d717780	0.058951855
176	0xbe201266	-0.15632018
177	0x3e03ebc8	0.12882912
178	0x3daeee88	0.0854159
179	0x3e9935e5	0.2992393
180	0xbe0d8b9c	-0.13822788
181	0x3e57cfae	0.21075317
182	0x3ec5f92d	0.3866667
183	0xbce5da5c	-0.028058223
184	0x3b40df76	0.0029430068
185	0xbde52cbf	-0.11190175
186	0xbe57fffb	-0.21093743
187	0xbf05e1b5	-0.52297527
188	0x3dbf8639	0.09351773
189	0xbe83c8db	-0.25739178
190	0x3dee8317	0.11646097
191	0x3e5bb53c	0.21455854
192	0x3de44eb7	0.11147826
193	0xbe9dbbec	-0.30807436
194	0xbda0c2b0	-0.07849634
195	0x3cc3f7b6	0.023921829
196	0xbdf6bdf0	-0.120479465
197	0xbe92d85e	-0.286807
198	0x3d5101ab	0.05102698
199	0x3e09209f	0.1339135
200	0xbe7251c9	-0.23664011
201	0x3eda8bed	0.4268488
202	0xbe39ce61	-0.18145134
203	0xbe2af097	-0.1669334
204	0xbccf5796	-0.025310319
205	0x3b5a4110	0.003330294
206	0x3e78ca3d	0.24295898
207	0xbefc0e9a	-0.4922989
208	0xbd1811f7	-0.037126508
209	0xbda5dbf3	-0.080985926
210	0xbe1183da	-0.14210454
211	0x3e36724a	0.17817035
212	0xbe05ace3	-0.13054232
213	0xbcde63fd	-0.027147288
214	0x3ddec5ec	0.10877594
215	0xbd9ef0db	-0.07760783
216	0x3efd3602	0.49455267
217	0xbe551163	-0.20807414
218	0xbeaa4234	-0.33253634
219	0xbd419fbc	-0.047271475
220	0xbe22f002	-0.15911868
221	0x3e07523d	0.13214965
222	0xbeeeea69	-0.46663216
223	0xbd78f1a2	-0.060777314
224	0x3dd7de89	0.10540492
225	0xbe41a625	-0.18911035
226	0x3eba5aca	0.36397392
227	0x3d4c0de0	0.04981792
228	0x3c0abcd5	0.008467873
229	0x3ea2ce26	0.31797904
230	0xbe4b8b58	-0.19877374
231	0xbe02f018	-0.12786901
232	0x3e635ebb	0.22204106
233	0xbe218619	-0.1577381
234	0x3e366457	0.17811714
235	0xbebd1ddf	-0.36936852
236	0xbd71720f	-0.058946665
237	0x3e38af6f	0.18035673
238	0xbdb577ba	-0.08860727
239	0xbe2fc42b	-0.17164676
240	0x3dd3ffcc	0.10351524
241	0x3c6b40c2	0.014358701
242	0xbe0b4fa6	-0.13604602
243	0x3f00970b	0.50230473
244	0x3d79dc9c	0.061001405
245	0xbdb67398	-0.089087665
246	0x3da87b10	0.08226597
247	0x3cb3556b	0.021891316
248	0x3cea14c7	0.02857436
249	0xbe80fda1	-0.25193503
250	0x3e385615	0.18001588
251	0x3e9e5120	0.30921268
252	0x3d502988	0.050820857
253	0xbd88dc5c	-0.06682655
254	0xbe352ec5	-0.17693622
255	0xbe4232d2	-0.18964699

base.mlp.fc2.0.0.bias f4 [64]
0	0x3b083d62	0.002078854
1	0x3bcfe494	0.0063443873
2	0x3bac4c34	0.0052581076
3	0xbc7d65cf	-0.015466168
4	0xbbd70954	-0.0065623913
5	0xbc8d7f84	-0.017272718
6	0x3cf9405e	0.0304262
7	0xbc589a69	-0.013220408
8	0xbcbfa171	-0.023392411
9	0x3d0e1159	0.034684513
10	0xbce4d7c6	-0.02793492
11	0xbbcac555	-0.0061880746
12	0xbc0c1e75	-0.008552183
13	0x3b3fffd3	0.002929677
14	0xbc556931	-0.013025568
15	0x3c29f147	0.010372466
16	0xbc87621c	-0.016526274
17	0x3c1e2db2	0.009654449
18	0x3acd247c	0.0015651132
19	0xbb3ba7e8	-0.0028634015
20	0xbc8d37b9	-0.017238485
21	0xbb5c6fa9	-0.003363589
22	0x3cba478b	0.022739192
23	0x39114c05	0.00013856597
24	0xbb1813e1	-0.0023205208
25	0xbccc7811	-0.024959596
26	0xb901deea	-0.0001238544
27	0x3be1dc9f	0.006892755
28	0x3c0dca2d	0.0086541595
29	0x3c541917	0.012945435
30	0x3b98990b	0.004656916
31	0x3b7fc65f	0.003902815
32	0xbcd69934	-0.0261961
33	0xbcd6a07e	-0.026199576
34	0xbc2983bf	-0.010346352
35	0x3b91e23e	0.004452019
36	0xbc065629	-0.008199253
37	0xbc4db059	-0.012554252
38	0x3c21243b	0.009835298
39	0x3cbc1458	0.02295892
40	0xbc6e628f	-0.014549865
41	0x3bd2bdc4	0.006431313
42	0x38ed3a2d	0.00011311877
43	0xba225d16	-0.00061936805
44	0xbc57201a	-0.013130212
45	0x3c833947	0.016018523
46	0xbb7f218b	-0.0038929905
47	0x3a8ed129	0.0010896075
48	0x3ca83429	0.020532684
49	0xbb7140dc	-0.003681234
50	0xb98f038d	-0.0002727773
51	0xbc8ed768	-0.017436698
52	0x3c534470	0.012894735
53	0xbc7f221a	-0.015572095
54	0xbb28b506	-0.0025742664
55	0x3cb84703	0.022494799
56	0xbc1016ba	-0.008794481
57	0xbbffbca5	-0.0078044706
58	0x3b7ddbc0	0.0038735718
59	0x3c87f89f	0.016598044
60	0xbcce2072	-0.025161956
61	0x3bcf4229	0.0063250256
62	0x3c541ecd	0.012946797
63	0xbb9f1535	-0.004854823

base.mlp.fc2.0.2.weight f4 [64]
0	0x3f80ba54	1.0056863
1	0x3f8147f4	1.0100083
2	0x3f831bc3	1.0242847
3	0x3f82b20f	1.0210589
4	0x3f83409e	1.0254095
5	0x3f7bfea3	0.9843542
6	0x3f7b49ed	0.98159677
7	0x3f7bd3f4	0.9837029
8	0x3f7f14e1	0.99641234
9	0x3f7dafef	0.9909658
10	0x3f7df907	0.9920811
11	0x3f830634	1.0236268
12	0x3f77da5f	0.9681758
13	0x3f7d1878	0.9886546
14	0x3f8187fe	1.0119627
15	0x3f81c995	1.0139643
16	0x3f802dec	1.0014014
17	0x3f773f57	0.96581024
18	0x3f7a8d57	0.9787192
19	0x3f82f647	1.0231408
20	0x3f807b95	1.0037714
21	0x3f81521f	1.0103186
22	0x3f7ca87b	0.9869458
23	0x3f7d3fcf	0.9892549
24	0x3f7c6de0	0.98605156
25	0x3f816b1c	1.0110812
26	0x3f7c8d80	0.9865341
27	0x3f80da7b	1.0066675
28	0x3f82ae03	1.0209354
29	0x3f81bff8	1.0136709
30	0x3f85f35a	1.046489
31	0x3f7e776e	0.99400985
32	0x3f80fd02	1.0077212
33	0x3f8119e3	1.0086025
34	0x3f82e428	1.0225878
35	0x3f8162ce	1.0108278
36	0x3f7d6564	0.98982835
37	0x3f787727	0.9705681
38	0x3f79518b	0.9739005
39	0x3f7df1bf	0.99197
40	0x3f7b856a	0.9825045
41	0x3f7bd6d0	0.9837465
42	0x3f808bbf	1.0042647
43	0x3f7f129c	0.9963777
44	0x3f7e71ac	0.993922
45	0x3f799ce1	0.97505003
46	0x3f804ab0	1.0022793
47	0x3f801be1	1.0008508
48	0x3f8002cd	1.0000855
49	0x3f8041d8	1.0020094
50	0x3f7f64f8	0.9976344
51	0x3f834e69	1.0258304
52	0x3f814cf0	1.0101604
53	0x3f7f523a	0.9973484
54	0x3f7d0a3a	0.9884373
55	0x3f7e8b38	0.9943118
56	0x3f7f3103	0.9968416
57	0x3f78572f	0.9700803
58	0x3f7c6f3c	0.9860723
59	0x3f819f1c	1.0126681
60	0x3f81d09e	1.014179
61	0x3f824c98	1.0179625
62	0x3f82e6f0	1.0226727
63	0x3f833052	1.0249121

base.mlp.fc2.0.2.bias f4 [64]
0	0x3c923eab	0.017852148
1	0x3c6f7080	0.014614224
2	0x3b239e8f	0.0024966334
3	0xbc869e7b	-0.016432991
4	0xbaa2bc16	-0.0012415673
5	0xbc817d9b	-0.015806964
6	0x3c9508b1	0.018192621
7	0xbc0b5d8d	-0.008506191
8	0xbc6c6c01	-0.014430047
9	0x3c575d30	0.013144776
10	0xbca68105	-0.020325193
11	0x3ba53b97	0.005042504
12	0x3ace6047	0.0015745246
13	0xbc28acc5	-0.010295098
14	0x3b71c573	0.003689137
15	0x3c4fead5	0.012690266
16	0xbbbc472a	-0.005745788
17	0x3bb370d4	0.0054760966
18	0xbbe992c6	-0.0071280925
19	0xbb2c97aa	-0.0026335516
20	0xbc7c5f0e	-0.015403522
21	0x3c2b700a	0.010463724
22	0x3c1df952	0.009641962
23	0xbc46b5d7	-0.012128315
24	0x3c162f4f	0.009166553
25	0xbc852a9a	-0.016255666
26	0x3b5f02e3	0.003402882
27	0x3c9d9e53	0.019240534
28	0xbbe331c2	-0.006933422
29	0x3cec4107	0.028839601
30	0xbbc62009	-0.0060462994
31	0x3b8c6e2a	0.0042855935
32	0xbc97e57c	-0.018542044
33	0xbb941c47	-0.0045199725
34	0x3b51e123	0.003202506
35	0x3ac4a71d	0.0015003417
36	0xbcdd9a73	-0.027051186
37	0x3b18e5c6	0.0023330315
38	0xbc27c5c4	-0.010240022
39	0x3d1ebbdb	0.03875337
40	0xbc09df70	-0.008415088
41	0x3b6d81a8	0.0036240611
42	0x3c7539e3	0.014967415
43	0xba80d609	-0.0009829412
44	0xbb73f249	-0.003722327
45	0x3a14d64e	0.0005677686
46	0x3bb1d215	0.005426655
47	0xbbb38ce6	-0.005479443
48	0xbcb2d2ef	-0.021829097
49	0x3c3d8fdb	0.011569942
50	0x3cf3e7c2	0.029773597
51	0xbb2e5478	-0.002660064
52	0x3bff92d0	0.007799484
53	0xbc4c8767	-0.012483454
54	0x3c3403f4	0.010987271
55	0x3c4ef04d	0.012630534
56	0x3c3080be	0.010772882
57	0xbcf3257f	-0.029680965
58	0xbbc59dfd	-0.0060307966
59	0x3ce2319c	0.027611546
60	0x3b5f8514	0.003410642
61	0x3ce0f613	0.027461087
62	0x3c50d643	0.0127463965
63	0xbc81c411	-0.015840562

rnn.rnn.weight_ih_l0 f4 [192, 64]
0	0xbcc59b11	-0.024121793
1	0xbd7c3f5f	-0.061583873
2	0xbb8972b9	-0.004194584
3	0x3cfebef0	0.031096905
4	0x3c3c0684	0.011476163
5	0x3d39dc41	0.045376066
6	0xbd39cd65	-0.045361895
7	0x3a845539	0.0010096199
8	0xbd249b43	-0.04018713
9	0xbcda9193	-0.026680743
10	0x3de144b7	0.109994344
11	0x3c8d1618	0.01722245
12	0xbc109342	-0.0088241715
13	0x3c247b78	0.010039203
14	0xbda79cf5	-0.08184234
15	0x3db2b54e	0.087259874
16	0xbd3eca31	-0.046579544
17	0xbcbcad4a	-0.02303185
18	0xbd6def3a	-0.058089472
19	0x3a625b1d	0.0008634793
20	0xbd7b3824	-0.061332837
21	0x3c18625a	0.009300793
22	0xbdecef95	-0.11569134
23	0xbe094a62	-0.13407281
24	0xbd33e2a3	-0.04391731
25	0x3d02b3e2	0.03190983
26	0x3d479f05	0.048735637
27	0x3bf916f7	0.0076016146
28	0x3d09c0fb	0.033631306
29	0x3b81b674	0.0039585177
30	0xbdd9e63d	-0.106396176
31	0xbc02817c	-0.007965442
32	0xbd1650f9	-0.036698315
33	0x3dca3b54	0.09874597
34	0x3e01068c	0.12600154
35	0xbd721d64	-0.05911006
36	0x3d532cae	0.05155628
37	0x3dd7611c	0.10516569
38	0x3d83c15a	0.06433363
39	0x3bfa05f3	0.0076301037
40	0xbdb9a116	-0.09063928
41	0x3d75a830	0.05997485
42	0xbd9c9efa	-0.0764751
43	0xbd00341a	-0.031299688
44	0x3def66f9	0.11689562
45	0xbd67c806	-0.05658724
46	0xbe24381a	-0.16037026
47	0x3beb9d16	0.007190357
48	0x3e1c7493	0.15278845
49	0x3dad60d6	0.084657356
50	0x3d63d582	0.05562354
51	0xbd1bf1b8	-0.038072318
52	0xbe08ca52	-0.13358429
53	0xbd8ae964	-0.06782797
54	0xbd2b620b	-0.041841548
55	0xbd26e67d	-0.040747155
56	0x3c8ce7ee	0.017200436
57	0x3dae7f6e	0.08520399
58	0xbd17bc01	-0.03704453
59	0x3cd329bf	0.025776742
60	0x3d761b5a	0.06008468
61	0xbde23767	-0.110457234
62	0xbd18cdd9	-0.037305687
63	0x3b088bf9	0.0020835383
64	0xbc826783	-0.015918499
65	0xbd88cba0	-0.066794634
66	0xbd29e0d7	-0.04147419
67	0x3e1f3d9f	0.1555085
68	0x3e3c886d	0.18411417
69	0x3db80c74	0.0898675
70	0x3d636b4f	0.05552226
71	0x3e0f6c6f	0.14006208
72	0x3ca5c90c	0.020237468
73	0x3dc0d944	0.0941644
74	0xbd9da8cc	-0.07698211
75	0xbe18d4cf	-0.1492493
76	0xbc5bbc7a	-0.0134116355
77	0x3d124a86	0.035715602
78	0x3deff5fe	0.11716841
79	0xbe5f5a2d	-0.21811743
80	0xbc99cb08	-0.01877357
81	0xbde6eb2f	-0.112753265
82	0xbdf9873a	-0.121839955
83	0xbd30b4bc	-0.04314111
84	0x3cd051f7	0.025429709
85	0xbb4f41bb	-0.0031624872
86	0x3d8106a2	0.06300093
87	0xbdf04b73	-0.11733141
88	0x3c77aee4	0.015117381
89	0x3b66260a	0.0035117888
90	0x3c1b1a0d	0.00946666
91	0x3d744a61	0.059641246
92	0xbda0c322	-0.07849719
93	0x3d82db77	0.06389516
94	0xbd442fed	-0.047897268
95	0xbd1048f7	-0.035225835
96	0xbd87dac1	-0.06633521
97	0xbd5fea1d	-0.054666627
98	0xbcce402f	-0.02517709
99	0x3c97dd03	0.018538004
100	0x3c0448d5	0.008074005
101	0x3d8663f0	0.0656203
102	0xbd34e252	-0.04416115
103	0xbe006afb	-0.1254081
104	0xbd112d66	-0.035443686
105	0xbd80c20d	-0.06287012
106	0xbc065e86	-0.008201247
107	0x3d6cc093	0.05780084
108	0x3e0751cf	0.13214801
109	0x3dc9bf77	0.09850972
110	0xbc35c660	-0.01109466
111	0xbd359de7	-0.04434004
112	0x3c1e91d7	0.009678326
113	0xbd1f47cf	-0.03888684
114	0x3dc4a48c	0.09601697
115	0x3a966083	0.0011472855
116	0xbcfc1b58	-0.030774757
117	0xbb8923e7	-0.004185188
118	0x3e060484	0.1308766
119	0xbcf0702a	-0.029350359
120	0x3d8b7005	0.068084754
121	0x3d7fa9b2	0.062417693
122	0x3de3c2c2	0.111211315
123	0x3c7512c9	0.014958092
124	0xbd2bad50	-0.04191333
125	0x3daeef90	0.08541787
126	0x3ddabbed	0.10680375
127	0x3d31c75c	0.043403015
128	0x3c2b7d1d	0.010466841
129	0xbbb23c28	-0.0054393
130	0x3d1c5516	0.03816708
131	0x3de2462b	0.1104854
132	0xbc417a3f	-0.011808931
133	0x3e168ef0	0.14702964
134	0xbc91ad95	-0.017782966
135	0x3de04daf	0.10952317
136	0x3cdd4ecb	0.02701511
137	0xbc36563a	-0.011128956
138	0x3d89e95d	0.06733964
139	0xbcd1acf4	-0.025595166
140	0x3ddf5b68	0.10906106
141	0xbb8f69ec	-0.0043766405
142	0xbd806cd4	-0.06270757
143	0xbd4a6169	-0.049409304
144	0x3e0714ff	0.13191603
145	0x3d1080c7	0.03527906
146	0x3d5dc8fe	0.05414676
147	0xbcbc16f1	-0.022960158
148	0x3cb3be93	0.021941459
149	0x3dcf3ab0	0.101186156
150	0x3cf4965a	0.02985685
151	0x3cd855db	0.026408127
152	0x3d797450	0.06090194
153	0x3d0406b2	0.032232948
154	0xbcc316e3	-0.023814624
155	0x3d8c9137	0.06863635
156	0xbd3735d8	-0.044729084
157	0xbd16fc30	-0.0368616
158	0xbd8ce04e	-0.0687872
159	0xbc96ca90	-0.018407136
160	0xbe270ab0	-0.1631267
161	0xbd0835ab	-0.033254307
162	0x3c51fa0c	0.0128159635
163	0x3d07a051	0.033111874
164	0x3d40e80b	0.047096293
165	0xbdb1a47a	-0.086739495
166	0xbcf512a7	-0.02991612
167	0xbd0af97d	-0.033929337
168	0xbe2db2d3	-0.16962747
169	0xbe3c04cf	-0.1836121
170	0xbcf6a9b2	-0.030110214
171	0xbddbea67	-0.10738068
172	0x3dcb940e	0.099403486
173	0xbda59867	-0.08085709
174	0x3d4c87ad	0.049934078
175	0xbd8d3450	-0.068947434
176	0x3d28df23	0.041228425
177	0x3d1f5dd8	0.038907856
178	0x3d8680e7	0.06567555
179	0x3cc31dda	0.023817945
180	0xbc543b52	-0.012953596
181	0x3c91493f	0.017735122
182	0xbc36f061	-0.011165709
183	0xbdb568df	-0.08857893
184	0xbcad9a61	-0.021191778
185	0x3d11586d	0.03548472
186	0x3d459a29	0.04824272
187	0x3d87ea65	0.06636504
188	0xbd1e6a91	-0.03867585
189	0xbddd1ab0	-0.10796106
190	0x3dd73e9b	0.10509988
191	0xbda62c8b	-0.08113965
192	0x3d21e5cf	0.039525803
193	0x3e3c9930	0.18417811
194	0xbd995389	-0.07486636
195	0xbd6679ba	-0.05626843
196	0x3a3a8578	0.00071152253
197	0xbd3ffc47	-0.04687145
198	0xbdf655df	-0.12028097
199	0x3db7d1cb	0.08975562
200	0xbd8118a2	-0.063035265
201	0xbd7fd506	-0.062459014
202	0xbd6f009d	-0.058350194
203	0xbc162f99	-0.009166622
204	0x3c6f61cb	0.014610718
205	0x3cb8f470	0.022577494
206	0xbbd47895	-0.006484101
207	0xbdbf2ae6	-0.09334354
208	0x3d1cac6e	0.03825038
209	0x3dde80db	0.10864421
210	0xbc729ec1	-0.014808358
211	0xbd5ec5e4	-0.054387942
212	0xbd250a87	-0.040293243
213	0xbd1c8022	-0.038208134
214	0xbd388336	-0.045047008
215	0xbe1c7ccd	-0.15281983
216	0xbe3dc81e	-0.1853337
217	0xbd70a4dc	-0.058750972
218	0xbd537426	-0.05162444
219	0x3d881dd0	0.06646311
220	0xbd107812	-0.035270758
221	0xbd483e5d	-0.0488876
222	0x3cbd4e6d	0.023108685
223	0xbdd42c7e	-0.10360049
224	0xbd07be4e	-0.033140473
225	0xbb8bf184	-0.0042707343
226	0x3de67edc	0.11254665
227	0xbcee0d9d	-0.029059226
228	0x3c8eaed7	0.017417355
229	0x3b394c72	0.0028274325
230	0xbcccde31	-0.025008293
231	0xbcfe31bf	-0.03102958
232	0xbc589418	-0.013218902
233	0xbe0368f9	-0.12833013
234	0x3d2c83ad	0.042117763
235	0xbd07e41f	-0.033176538
236	0x3cdc0d0c	0.02686169
237	0xbc02823b	-0.00796562
238	0xbc732aba	-0.01484173
239	0xbd90310f	-0.07040607
240	0xbd3497f3	-0.044090223
241	0xbcad0ea1	-0.02112514
242	0x3c8ae5a8	0.016955212
243	0x3c9311ae	0.017952766
244	0x3da6127c	0.08108994
245	0xbd5d2db5	-0.053998668
246	0x3d47da9b	0.048792463
247	0xbc26d835	-0.010183384
248	0x3d5dff1c	0.05419837
249	0xbe082bdc	-0.13297981
250	0xbd17afe9	-0.037032995
251	0xbd9a730c	-0.07541475
252	0x3e066c54	0.13127261
253	0x3da2d7e6	0.079513356
254	0x3c9aaf9b	0.018882563
255	0x3d1e2bcd	0.03861599

rnn.rnn.weight_hh_l0 f4 [192, 64]
0	0xbd321584	-0.04347755
1	0x3c6684df	0.014069765
2	0x3dda9656	0.106732056
3	0xbdd2556d	-0.102702
4	0xbd1ef4b3	-0.038807582
5	0x3e0b90be	0.13629434
6	0x3dd2164b	0.10258158
7	0x3de9f704	0.114240676
8	0xbcb588e4	-0.022160001
9	0xbd85337c	-0.065039605
10	0x3d1688db	0.03675161
11	0x3c74793b	0.014921482
12	0x3a53f7d5	0.0008085941
13	0xbcce78e7	-0.025204135
14	0xbd83c747	-0.064344935
15	0xbe0d4aee	-0.13798115
16	0x37c73cc2	2.3750941e-05
17	0xbda98fa1	-0.08279348
18	0xbd67e386	-0.056613468
19	0x3d0868f4	0.033303216
20	0x3d27184c	0.040794656
21	0xbb35cff5	-0.002774236
22	0xbd47923f	-0.048723456
23	0x3da1ee03	0.07906725
24	0x3cebdf68	0.028793052
25	0x3d670c05	0.056407947
26	0xbc1e74b9	-0.009671384
27	0xbbfd5709	-0.0077313227
28	0x3c51e5ad	0.012811107
29	0x3df60111	0.12011922
30	0x3cf10b44	0.029424317
31	0xbd083ed5	-0.033263046
32	0x3dccba4c	0.09996471
33	0x3c5f788c	0.01363958
34	0xbd11a220	-0.035555005
35	0x3d121005	0.03565981
36	0xbc9e2df3	-0.01930902
37	0x3d49c8bf	0.049263712
38	0x3d8c1bf0	0.06841266
39	0x3d107c14	0.03527458
40	0xbcab6e2a	-0.020926554
41	0xbd41787a	-0.047234036
42	0xbd912c6a	-0.070885494
43	0xbce917e0	-0.028453767
44	0xbd0a9e14	-0.03384216
45	0xbd08286b	-0.03324167
46	0x3de40873	0.11134424
47	0x3d633daf	0.055478748
48	0x3cf8a1e2	0.03035063
49	0xbd46d5b8	-0.04854366
50	0x3dbff314	0.09372535
51	0x3dd3bb5b	0.103384696
52	0x3d948baa	0.07253201
53	0xbe0cf4ae	-0.13765213
54	0xbd92b168	-0.07162744
55	0x3c50f021	0.012752564
56	0xbdda365f	-0.10654902
57	0x3b5c3f3e	0.0033607031
58	0x3c9b9acf	0.018994717
59	0xbdd4e0ba	-0.10394426
60	0xbdeea4ce	-0.11652528
61	0xbd757531	-0.059926216
62	0xbd69e50d	-0.057103205
63	0xbd7a71d5	-0.061143715
64	0xbbb8adb5	-0.005635942
65	0xbd73ef88	-0.059554607
66	0xbda6038c	-0.08106145
67	0x3bcc0cf1	0.0062271287
68	0x3d689a4e	0.05678778
69	0x3c873444	0.016504414
70	0x3d13bd7b	0.036069375
71	0xbc8a879d	-0.016910369
72	0xbd9cb05a	-0.07650824
73	0x3c34ef5b	0.011043395
74	0xbd656e3f	-0.056013342
75	0xbc9d0f1e	-0.019172247
76	0x3e20b56b	0.15694205
77	0x3d60cc2b	0.05488221
78	0xbdb17a5d	-0.08665917
79	0xbcfe9fe3	-0.0310821
80	0x3da2e8b2	0.07954539
81	0x3c8c3ec2	0.017119769
82	0x3dafc95b	0.085833274
83	0x3d92d11e	0.07168792
84	0x3e1ac85d	0.15115495
85	0xbde186bd	-0.110120274
86	0x3cd26a34	0.025685407
87	0xbe035906	-0.12826928
88	0x3d375627	0.044759896
89	0xbcefb2e0	-0.029260099
90	0xbb20f311	-0.0024558941
91	0x3d71ed33	0.0590641
92	0xbb00b8da	-0.001964143
93	0x3d37f071	0.044907037
94	0x3de72b00	0.112874985
95	0x3db4a99c	0.08821413
96	0xbd55d9d5	-0.052209694
97	0x3d84ed71	0.06490601
98	0xbc857b90	-0.01629427
99	0xbcd4033f	-0.025880454
100	0xbd126d7b	-0.03574894
101	0xbdc11b4e	-0.09429036
102	0x3d092330	0.033480823
103	0x3b44d1f5	0.003003237
104	0xbe0ed393	-0.13947897
105	0xbbdd1209	-0.0067465347
106	0xbc334e99	-0.010944032
107	0xbd2e9df2	-0.042631097
108	0x3b246d9b	0.0025089744
109	0xbca7aa52	-0.020466957
110	0x3d90ffd0	0.07080042
111	0x3e0ee86b	0.13955848
112	0xbe067f53	-0.13134508
113	0x3d72bcc0	0.059262037
114	0xbcccd6ea	-0.025004823
115	0xbcad23c8	-0.021135226
116	0x3da80ab6	0.08205168
117	0x3d893095	0.066987194
118	0x3d060eeb	0.03272907
119	0xbd0f79b9	-0.035028193
120	0xbd49e20f	-0.049287852
121	0x3d715e9c	0.058928117
122	0x3c2dff1d	0.010619906
123	0xbd40661c	-0.04697238
124	0x3d3984ff	0.04529285
125	0xbd0a1711	-0.033713404
126	0xbd10a440	-0.03531289
127	0x3d198e3d	0.037489165
128	0x3cb7989b	0.022411635
129	0xbd4acbb3	-0.04951067
130	0xbb95eefc	-0.0045756083
131	0x3d04fd3b	0.032468062
132	0xbaf7aa85	-0.0018895423
133	0x3d143642	0.036184557
134	0xbd9e7d7d	-0.07738779
135	0xbce83f1e	-0.02835041
136	0x3d7d0c0b	0.061779063
137	0xbc28b467	-0.0102969175
138	0xbd6eb211	-0.058275286
139	0x3dac33af	0.08408295
140	0x3d57c6b7	0.052679744
141	0xbdb9ef72	-0.09078874
142	0x3c2ec792	0.010667698
143	0xbcdeb301	-0.027184965
144	0x3d84c03a	0.06481977
145	0xbd4556c5	-0.048178453
146	0x3d300d7d	0.042981613
147	0x3df12fea	0.11776717
148	0x3c7ef8a2	0.015562208
149	0xbd8dec95	-0.0692989
150	0x3e08c5c3	0.1335669
151	0x3ba32c8a	0.0049796747
152	0x3c9c52f5	0.019082526
153	0x3d96d424	0.07364681
154	0x3a161fae	0.00057267665
155	0x3a77d1c3	0.0009453559
156	0xbdfcfcd5	-0.123529114
157	0x3de8e513	0.113718174
158	0x3bc02c2f	0.005864642
159	0xbdc54259	-0.096317954
160	0x3e03d512	0.12874249
161	0xbd8489eb	-0.06471618
162	0x3e1449cf	0.1448128
163	0xbdd8c4e5	-0.1058443
164	0x3c010329	0.007874289
165	0x3d205456	0.03914293
166	0xbd8af872	-0.067856684
167	0x3d452fe9	0.048141394
168	0xbd758ce2	-0.05994881
169	0x3b526c7b	0.0032108116
170	0xbd2f2009	-0.04275516
171	0x3d8203a8	0.063483536
172	0xbd8b0a7f	-0.06789111
173	0xbdc6131d	-0.09671614
174	0xbe06f40c	-0.13179034
175	0xbd63e00c	-0.05563359
176	0x3d5c0141	0.053712133
177	0x3dede34c	0.11615619
178	0xbdf6c420	-0.120491266
179	0x3d179789	0.03700975
180	0xbd0a1e40	-0.033720255
181	0x3d765bd7	0.06014618
182	0x3ca13a3f	0.019681094
183	0x3c3af6c0	0.011411369
184	0xbde9b8bb	-0.11412188
185	0xbba5b0d1	-0.0050564785
186	0x3d914911	0.070940144
187	0x3a52de2f	0.0008043972
188	0xbc5cf619	-0.013486409
189	0xbe2dcbfc	-0.16972345
190	0xbd362e85	-0.04447796
191	0x3d49903a	0.04920981
192	0xbdaba3ce	-0.08380853
193	0xbd18226d	-0.037142206
194	0xbae52a33	-0.001748389
195	0x3d2bc68b	0.041937392
196	0xbaaec904	-0.0013335054
197	0xbd8a5dd8	-0.067561805
198	0x3cbc3339	0.022973644
199	0x3d609fad	0.05483978
200	0xbd46d20a	-0.048540153
201	0xba3ede55	-0.0007281055
202	0xbc608624	-0.013703857
203	0x3d64a372	0.055819936
204	0xbc893b83	-0.01675201
205	0x3ce2cd6e	0.027685847
206	0x3c95e6ba	0.018298496
207	0xbdf17179	-0.11789221
208	0x3d1fc14b	0.039002698
209	0xbd2d3bbf	-0.042293306
210	0x3caa749a	0.020807553
211	0xbda554b3	-0.08072796
212	0x3d74859e	0.05969774
213	0xbc934966	-0.017979335
214	0xbd4fd5c0	-0.050740957
215	0x3dba14b2	0.090859786
216	0xbc702a93	-0.014658588
217	0x3ccf96e3	0.025340503
218	0xbc0a3c45	-0.008437221
219	0xbc92b326	-0.01790769
220	0x3c07f034	0.008297015
221	0xbda41262	-0.08011319
222	0x3ca938c0	0.020656943
223	0x3dd93891	0.10606492
224	0x3dd6f642	0.10496189
225	0x3e2a358e	0.16621992
226	0xbdb62ba7	-0.08895045
227	0xbd01d4d6	-0.031697117
228	0xbda3f80d	-0.08006296
229	0x3d9df79a	0.07713242
230	0x3c8baf68	0.017051414
231	0xbd8bdc91	-0.06829179
232	0xbb6a93ed	-0.0035793737
233	0xbda55fa2	-0.08074881
234	0x3bf76a70	0.00755053
235	0x3c12ee04	0.00896788
236	0x3d253482	0.04033328
237	0xbda53fdf	-0.08068823
238	0x3e190d97	0.1494659
239	0x3d15bfaf	0.036559757
240	0xbc143e5a	-0.009048069
241	0x3d8111c9	0.063022204
242	0x3df9164c	0.12162456
243	0xbd0d5546	-0.03450515
244	0x3dd0a5be	0.10187863
245	0x3c35e8eb	0.011102895
246	0xbd9fdd3e	-0.078058705
247	0xbc537e4e	-0.012908531
248	0xbd0feb78	-0.03513667
249	0xbcf568c9	-0.029957192
250	0x3d11ec06	0.03562548
251	0x3c14cc02	0.009081842
252	0xbba60a41	-0.0050671403
253	0x3d37f636	0.04491254
254	0xbd10e8c1	-0.03537822
255	0x3de6a56c	0.112620205
