onpolicy/scripts/results/MPE/simple_spread/rmappo/check/wandb/run-20220704_211253-2t3rdal5/files/critic.pt (torch, 156012 bytes, 21 tensors)

base.feature_norm.weight f4 [54]
0.97916436 0.9822628 1.0005491 1.0188414 0.9974732 0.9967992 0.9934156 0.996772
1.0022727 0.97119004 1.0201889 0.9974448 1.0249721 1.0152044 0.99560994 1.0066426
0.9904266 0.9937994 0.98313034 0.96936023 0.968604 0.9928696 0.99952424 1.0029156
1.0092322 0.9960911 0.98087436 0.9984988 1.0053438 0.9943867 1.0078264 0.9905571
1.0079178 0.9910078 1.0049987 0.9840714 1.0011177 0.9680841 1.0020584 0.99775404
1.0006864 0.9923983 1.0032436 0.9861452 1.001433 1.0008816 1.0088459 1.0279164
1.009328 0.99996537 0.9970661 0.984086 1.0090278 1.0098141
00000000: 84aa 7a3f 9375 7b3f fe11 803f 6569 823f
00000010: 675a 7f3f 3b2e 7f3f 7c50 7e3f 732c 7f3f
00000020: 794a 803f e99f 783f 8d95 823f 8b58 7f3f
00000030: 4932 833f 38f2 813f 4be0 7e3f aad9 803f
00000040: 998c 7d3f a369 7e3f 6eae 7b3f fe27 783f
00000050: 6ff6 773f b42c 7e3f d2e0 7f3f 8a5f 803f
00000060: 852e 813f d4ff 7e3f 951a 7b3f 9e9d 7f3f
00000070: 1baf 803f 2090 7e3f 7500 813f 2695 7d3f
00000080: 7303 813f b0b2 7d3f cca3 803f 1aec 7b3f
00000090: a024 803f 5cd4 773f 7343 803f cf6c 7f3f
000000a0: 7e16 803f d10d 7e3f 496a 803f 0374 7c3f
000000b0: f52e 803f e31c 803f dd21 813f c492 833f
000000c0: a931 813f bbfd 7f3f b93f 7f3f 0fed 7b3f
000000d0: d327 813f 9741 813f

base.feature_norm.bias f4 [54]
-0.008347459 -0.0045685726 -0.0021882046 -0.014241624 0.011826466 -0.0035762168 0.011012637 -0.006357285
-0.0083355 0.021060176 0.0040209475 0.007610003 0.025404178 0.03393118 -0.011026757 0.0030035784
-0.039383285 -0.009168702 0.011677533 -0.00064549944 -0.0026226179 0.005214954 -0.015682394 0.0054190555
0.00873044 0.0016106302 -0.008551429 -0.008018857 -0.0051807687 -0.0028320774 -0.009926038 -0.013156655
0.009529783 0.027025146 -0.01949561 0.0046351613 0.0036722024 -0.010390935 -0.0005782699 -0.0067109545
-0.007817338 -0.009140483 0.00030496868 0.02072614 0.017690977 0.017280918 0.012959464 -0.0003476117
-0.03160724 -0.009081744 2.8977298e-05 0.004482318 -0.007370065 0.014787083
00000000: c8c3 08bc f7b3 95bb fb67 0fbb b355 69bc
00000010: cbc3 413c f65e 6abb 596e 343c c650 d0bb
00000020: 9f91 08bc 6486 ac3c 27c2 833b 555d f93b
00000030: 6c1c d03c 6cfb 0a3d 92a9 34bc afd7 443b
00000040: 5e50 21bd 5338 16bc 2053 3f3c bc36 29ba
00000050: 3ae0 2bbb 34e2 aa3b 5d78 80bc 5592 b13b
00000060: 1f0a 0f3c c81b d33a 4b1b 0cbc 8661 03bc
00000070: 70c3 a9bb 609a 39bb d2a0 22bc 038f 57bc
00000080: cf22 1c3c d763 dd3c 42b5 9fbc 8de2 973b
00000090: 55a9 703b bd3e 2abc 0997 17ba 91e7 dbbb
000000a0: 4b14 00bc f7c1 15bc 34e4 9f39 dec9 a93c
000000b0: abec 903c b690 8d3c ef53 543c a73f b6b9
000000c0: 9876 01bd 98cb 14bc 4614 f337 69e0 923b
000000d0: 9680 f1bb 8545 723c

base.mlp.fc1.0.weight f4 [64, 54]
-0.18019938 0.40248412 0.10922242 0.20106488 -0.099753745 -0.0324257 -0.04873262 0.021664575
0.11287982 0.09518702 0.19872107 -0.16817103 -0.20744683 0.06674641 -0.2666348 0.35629937
0.16962124 0.561205 -0.139429 -0.31170785 -0.18945561 -0.16319962 -0.09865756 0.16058913
0.2814948 0.11694611 0.10005363 0.1580176 0.010429096 0.15698534 0.2793476 0.2233789
0.3931758 -0.34121692 -0.07460674 -0.26943767 0.039775357 0.034534413 -0.10930207 -0.047185566
-0.2173436 -0.16627648 0.12620026 0.07918305 -0.27984476 0.1285571 0.34647232 0.22849415
0.3113729 -0.121740304 -0.155561 -0.012240042 -0.009970982 -0.026842307 0.2790518 0.10193266
0.21709102 -0.011713895 -0.099991165 0.118027054 0.43566015 -0.16494013 0.6724092 0.26173943
0.08003729 -0.18688405 -0.0711305 0.06223758 0.27567732 0.0987722 0.014282452 -0.28294343
0.31656635 -0.14832644 0.0881128 0.26091 -0.08880181 0.05246535 0.065729745 -0.30277044
-0.16872285 0.07628 -0.2852605 0.24298173 0.20613596 -0.14392857 0.04774983 0.006709673
-0.093479104 -0.029414933 0.22346403 0.15539125 0.10886238 0.166501 -0.02929642 0.13596137
-0.37019134 -0.07991452 -0.059458207 -0.2135272 0.0199388 -0.052049197 0.023131486 -0.30982676
-0.1904802 0.0019560133 0.4705943 0.13577197 0.33504778 0.16113275 -0.053040277 -0.6178171
0.17012954 0.16489756 0.05780707 0.043155804 -0.11446196 0.18890382 0.15808581 0.075305216
0.122253776 0.09149932 -0.057012215 -0.13917673 0.1647776 0.20931299 0.23253877 -0.20585124
-0.106722146 0.12943046 0.35652205 -0.18190685 0.010409247 0.38155267 0.2568714 0.017910907
-0.06413173 0.26106694 -0.030475933 0.40774736 -0.28556457 0.039442476 -0.23666988 0.26381955
-0.110844545 -0.1511842 0.23885027 -0.04708627 0.4703941 -0.1817862 -0.28260624 0.234424
-0.24310671 0.06288718 0.023931062 0.06602297 0.28194556 -0.13072316 -0.12734619 -0.10760023
0.14169233 -0.3132396 0.07610684 0.035069507 -0.28657788 -0.24737084 0.008293447 -0.15852351
-0.07672333 0.2669472 -0.36051765 -0.03626663 0.18258764 0.054699052 -0.23384379 0.23062997
-0.05875258 0.22920653 0.19381604 -0.12478982 0.48541743 0.07922547 -0.3763514 0.07666463
0.00772094 0.25856718 -0.13077734 0.331519 0.2467184 -0.071089715 0.10508667 -0.0974698
-0.108323514 -0.1184159 0.253452 0.24752684 0.269679 -0.09557634 -0.052368302 0.4550385
-0.1554646 -0.17321116 -0.004482554 0.07985852 -0.24722584 -0.45498967 0.11210122 -0.15522797
0.32152304 0.0794874 -0.052598517 -0.13823132 -0.03352525 0.25480342 -0.100130074 0.22199741
0.17326973 0.25181583 0.20913245 -0.13516416 -0.034461636 -0.16892822 0.21649724 -0.36288247
0.074883476 -0.12146695 -0.12909433 0.20938976 -0.2489506 0.006029646 0.21923192 0.0997904
0.4668498 0.20399691 -0.20363103 -0.023613349 -0.045577046 -0.30520466 -0.027516896 0.16043639
-0.22127602 -0.06526853 -0.09289509 0.06538486 -0.17120321 0.009877972 0.042313065 -0.066124074
-0.08558505 0.2679509 -0.29417518 0.3138228 -0.2053406 -0.24982627 -0.3236422 -0.24682505
00000000: 3086 38be 6612 ce3e 01b0 df3d f4e3 4d3e
00000010: b14b ccbd d0d0 04bd db9b 47bd e879 b13c
00000020: 892d e73d 6af1 c23d 897d 4b3e 0735 2cbe
00000030: f16c 54be 58b2 883d 5b84 88be df6c b63e
00000040: 31b1 2d3e 22ab 0f3f 7ac6 0ebe 2c98 9fbe
00000050: a700 42be cd1d 27be fa0c cabd 7a71 243e
00000060: 1620 903e 7181 ef3d ebe8 cc3d 5ecf 213e
00000070: cdde 2a3c c4c0 203e a606 8f3e 70bd 643e
00000080: 574e c93e fcb3 aebe 6bcb 98bd bcf3 89be
00000090: 7ceb 223d f573 0d3d c4d9 dfbd a745 41bd
000000a0: 528f 5ebe 6244 2abe a43a 013e b92a a23d
000000b0: d047 8fbe 79a4 033e d264 b13e 5ffa 693e
000000c0: 456c 9f3e fb52 f9bd 624b 1fbe 758a 48bc
000000d0: 545d 23bc 66e4 dbbc e1df 8e3e 12c2 d03d
000000e0: 1c4d 5e3e a3eb 3fbc 2bc8 ccbd 2bb8 f13d
000000f0: d90e df3e 11e6 28be 0223 2c3f b602 863e
00000100: 97ea a33d 885e 3fbe deac 91bd d5ec 7e3d
00000110: 9425 8d3e 1449 ca3d f200 6a3c f6dd 90be
00000120: fc14 a23e e3e2 17be 7c74 b43d ff95 853e
00000130: b9dd b5bd e8e5 563d 519d 863d ba04 9bbe
00000140: afc5 2cbe b038 9c3d aa0d 92be 34d0 783e
00000150: 4e15 533e 0362 13be 5395 433d d1dc db3b
00000160: f971 bfbd 96f7 f0bc c1d3 643e e21e 1f3e
00000170: 3df3 de3d 3d7f 2a3e 0cff efbc 7539 0b3e
00000180: b889 bdbe 39aa a3bd 738a 73bd e0a6 5abe
00000190: b256 a33c 8a31 55bd 3e7e bd3c 9da1 9ebe
000001a0: 3e0d 43be 7530 003b bcf1 f03e cf07 0b3e
000001b0: 628b ab3e fcff 243e c340 59bd 4329 1ebf
000001c0: 7036 2e3e e8da 283e 1bc7 6c3d 24c4 303d
000001d0: 086b eabd 0170 413e 3fe1 213e 9f39 9a3d
000001e0: 3060 fa3d ff63 bb3d a485 69bd 5884 0ebe
000001f0: 76bb 283e 2556 563e a51e 6e3e abca 52be
00000200: 2491 dabd 6b89 043e 0f8a b63e ca45 3abe
00000210: 8c8b 2a3c df5a c33e a684 833e e5b9 923c
00000220: 7f57 83bd 91aa 853e aaa8 f9bc 43c4 d03e
00000230: 8535 92be 6f8e 213d 9759 72be 5b13 873e
00000240: 7702 e3bd 08d0 1abe 2a95 743e 88dd 40bd
00000250: 7fd7 f03e 2926 3abe c4b1 90be d80c 703e
00000260: f7f0 78be feca 803d 130b c43c 0d37 873d
00000270: 2b5b 903e 4bdc 05be 0a67 02be 825d dcbd
00000280: cb17 113e f160 a0be e7dd 9b3d 0ba5 0f3d
00000290: 56ba 92be c84e 7dbe 3de1 073c fd53 22be
000002a0: 1f21 9dbd 4ead 883e c595 b8be 518c 14bd
000002b0: 41f8 3a3e 1d0c 603d bf74 6fbe 432a 6c3e
000002c0: 8ca6 70bd 1eb5 6a3e b677 463e ce91 ffbd
000002d0: a288 f83e f740 a23d 21b1 c0be 5802 9d3d
000002e0: f0ff fc3b eb62 843e 7fea 05be dcbc a93e
000002f0: c0a3 7c3e 7c97 91bd ae37 d73d 3f9e c7bd
00000300: b8d8 ddbd 0984 f2bd 76c4 813e ad77 7d3e
00000310: 5e13 8a3e 87bd c3bd 2580 56bd cefa e83e
00000320: 1d32 1fbe 445e 31be 63e2 92bb dd8c a33d
00000330: c528 7dbe 68f4 e8be 5395 e53d 15f4 1ebe
00000340: ab9e a43e 4aca a23d 8b71 57bd 838c 0dbe
00000350: c651 09bd 9875 823e ff10 cdbd 4a53 633e
00000360: 9f6d 313e 01ee 803e d126 563e 7968 0abe
00000370: a527 0dbd 85fb 2cbe 74b1 5d3e bbcb b9be
00000380: 825c 993d aac3 f8bd 4e31 04be 456a 563e
00000390: e8ec 7ebe 5694 c53b 557e 603e e95e cc3d
000003a0: f006 ef3e 91e4 503e a784 50be c870 c1bc
000003b0: ffae 3abd c943 9cbe 1d6b e1bc 7049 243e
000003c0: 2e96 62be 82ab 85bd c83f bebd 7fe8 853d
000003d0: e54f 2fbe 38d7 213c 7750 2d3d 0f6c 87bd
000003e0: 3747 afbd dc30 893e 219e 96be 62ad a03e
000003f0: ce44 52be 75d2 7fbe 6eb4 a5be b5bf 7cbe

base.mlp.fc1.0.bias f4 [64]
-0.01838636 0.005126979 -0.012017712 0.0124248015 0.0010935501 -0.03834547 -0.0008994123 0.006895535
-0.008957094 0.0014716067 -0.010815974 0.0069674565 -0.0053638304 0.023711057 0.013596332 0.014675254
0.00638771 0.0073258104 0.0046534687 0.0027224699 -0.004519345 -0.023432503 0.023418887 0.011138456
-0.009518223 0.0034200493 0.007868437 0.015109953 0.006991424 -0.019236319 0.009980032 0.013609666
-0.009174265 0.003375008 -0.0115845455 -0.02063415 0.011498489 0.00908947 -0.0026875099 0.012161879
-0.0009525283 -0.01547697 0.0044622077 -0.017699098 0.0064359307 0.006449341 -0.0072959634 0.00805234
0.020431975 -0.004258939 -0.00014840817 -0.007030544 0.005837687 0.00843768 -0.011439146 -0.014568221
0.0015973245 0.006028433 -0.014612599 -0.01193192 0.0029755442 -0.0003330892 -0.006209316 -0.013780562
00000000: fe9e 96bc 3800 a83b f0e5 44bc 6591 4b3c
00000010: 7455 8f3a 2410 1dbd 8ac6 6bba f1f3 e13b
00000020: c6c0 12bc ede2 c03a 7c35 31bc 434f e43b
00000030: 12c3 afbb b13d c23c 26c3 5e3c 7a70 703c
00000040: ff4f d13b 5a0d f03b 207c 983b 776b 323b
00000050: 0317 94bb 85f5 bfbc f7d8 bf3c 127e 363c
00000060: 52f2 1bbc e822 603b 9eea 003c bc8f 773c
00000070: 5118 e53b 7c95 9dbc 4a83 233c 14fb 5e3c
00000080: a84f 16bc 3d2f 5d3b 1bcd 3dbc f308 a9bc
00000090: 2964 3c3c 00ec 143c ef20 30bb 9e42 473c
000000a0: 18b3 79ba 1e93 7dbc b637 923b b3fd 90bc
000000b0: 80e4 d23b fe54 d33b fa12 efbb f6ed 033c
000000c0: f560 a73c 928e 8bbb 049e 1bb9 7a60 e6bb
000000d0: 114a bf3b 323e 0a3c 416b 3bbc 8caf 6ebc
000000e0: 515d d13a 298a c53b af69 6fbc 1a7e 43bc
000000f0: 5901 433b 7aa2 aeb9 8577 cbbb dec7 61bc

base.mlp.fc1.2.weight f4 [64]
0.9974066 0.9998379 0.99280775 0.9897345 1.0032624 1.0239365 0.9932968 1.0144039
1.0000213 0.99089974 1.003935 0.99676365 1.0032762 1.0325261 0.9956581 0.96824855
1.0100484 0.969023 0.9850452 0.99872905 1.0088158 1.0054018 1.0260942 1.0175989
0.9989022 0.9855396 0.9729958 1.0143104 1.0182412 0.9903063 1.0223426 0.99948895
0.994512 0.9921757 0.9997538 1.0104309 1.0010201 0.9953373 1.0074004 0.991167
1.0108548 0.9892039 0.9928825 1.001371 0.99543834 0.99598753 0.99130493 0.96700597
1.0044316 0.9613532 0.99029034 1.0132617 1.0142983 0.9909402 0.99320006 0.9734281
1.005979 0.99586636 0.99170136 0.9954221 1.0048501 0.98827213 1.007331 1.013466
00000000: 0a56 7f3f 60f5 7f3f a628 7e3f 3d5f 7d3f
00000010: e76a 803f 5a10 833f b348 7e3f fdd7 813f
00000020: b300 803f 9bab 7d3f f180 803f e72b 7f3f
00000030: 5b6b 803f d129 843f 73e3 7e3f 23df 773f
00000040: 4449 813f e411 783f ec2b 7c3f b5ac 7f3f
00000050: e020 813f 02b1 803f 0e57 833f ae40 823f
00000060: 0eb8 7f3f 534c 7c3f 4116 793f ecd4 813f
00000070: ba55 823f b784 7d3f 1fdc 823f 82de 7f3f
00000080: 5798 7e3f 3aff 7d3f ddef 7f3f cd55 813f
00000090: 6d21 803f 6dce 7e3f 7ff2 803f 1fbd 7d3f
000000a0: b163 813f 773c 7d3f 8c2d 7e3f ed2c 803f
000000b0: 0cd5 7e3f 0af9 7e3f 29c6 7d3f b48d 773f
000000c0: 3791 803f 3e1b 763f ab83 7d3f 8fb2 813f
000000d0: 87d4 813f 42ae 7d3f 5c42 7e3f 9532 793f
000000e0: ebc3 803f 19f1 7e3f 24e0 7d3f fcd3 7e3f
000000f0: ee9e 803f 67ff 7c3f 39f0 803f 41b9 813f

base.mlp.fc1.2.bias f4 [64]
-0.010844338 0.024409842 -0.013244457 0.008566235 0.005964966 -0.038863678 -0.002311954 0.012388752
-0.010204923 -0.023018809 -0.015365406 0.0029845673 -0.012826876 0.023982465 0.0004069492 0.03606474
0.0062031774 0.007168429 0.0039062733 0.0027066586 -0.00234459 -0.018414816 0.026673658 0.0105666155
-0.0047791186 -0.009507135 -0.0035081091 0.006088808 0.0071136546 -0.018124284 0.0028139243 0.009057556
-0.017367495 0.007353062 0.0016758115 -0.017199317 -0.001343748 0.00015143002 -0.001223763 0.0012036908
-0.008243091 -0.0109596625 0.0034268093 -0.011011316 0.0052863955 0.0037050971 -0.0029173316 0.006514156
0.024174536 -0.006756905 -0.0043662265 -0.007866913 -0.0068584136 0.0106751975 -0.0108502945 -0.0104775755
-0.0036557796 0.009299394 -0.014291314 -0.007389618 0.005965128 -0.012799398 -0.011069467 -0.013100483
00000000: 73ac 31bc 26f7 c73c 47ff 58bc 6559 0c3c
00000010: c375 c33b 852f 1fbd 2784 17bb 31fa 4a3c
00000020: 8d32 27bc f191 bcbc 2fbf 7bbc bb98 433b
00000030: d127 52bc e076 c43c cc5b d539 9fb8 133d
00000040: 0644 cb3b 24e5 ea3b 3200 803b 3262 313b
00000050: b1a7 19bb abda 96bc b782 da3c 991f 2d3c
00000060: 279a 9cbb d0c3 1bbc 4ee8 65bb a084 c73b
00000070: a919 e93b 6179 94bc d169 383b 2566 143c
00000080: 4746 8ebc f4f1 f03b e7a6 db3a 95e5 8cbc
00000090: b320 b0ba 30c9 1e39 ac66 a0ba 29c5 9d3a
000000a0: 080e 07bc 2890 33bc 5294 603b cf68 34bc
000000b0: 8039 ad3b 37d1 723b b430 3fbb b374 d53b
000000c0: ad09 c63c 0769 ddbb 9012 8fbb 3ae4 00bc
000000d0: 8bbc e0bb 06e7 2e3c 6fc5 31bc 23aa 2bbc
000000e0: ce95 6fbb 7c5c 183c 1e26 6abc 9c24 f2bb
000000f0: 1f77 c33b 91b4 51bc b65c 35bc 69a3 56bc

base.mlp.fc_h.0.weight f4 [64, 64]
0.1377503 -0.008093162 -0.27240273 0.21282241 0.48638436 0.13287549 -0.42059797 0.008659036
0.42227286 0.18400358 -0.019348526 0.09123118 0.044613935 -0.1949208 -0.3915771 -0.25584713
0.08817401 -0.24684066 0.27839217 -0.3653039 -0.11256542 -0.36046255 -0.26069558 0.26345393
-0.30149075 0.17822094 0.21686062 0.042757466 -0.17174521 -0.0859509 0.05611956 0.09501529
-0.19572213 0.22471206 0.28963545 0.10382249 -0.00046122196 0.120294616 0.10970798 -0.22354409
-0.14280269 -0.16175482 0.10073651 0.0072367517 0.17380111 -0.25650024 0.040008605 -0.19593777
0.0663611 0.1952016 0.016524132 -0.028257083 0.23896646 0.10301334 -0.08332692 -0.05703428
-0.22946467 0.15281071 -0.15961756 0.08236502 -0.1546598 0.29560953 -0.23824021 -0.3125172
-0.22777365 -0.024577592 -0.08549095 -0.25021836 -0.09885 -0.22102536 0.22928645 0.40118235
0.036454797 -0.11616746 -0.13266432 0.27157193 0.041841906 -0.17630683 0.28278965 -0.05793698
0.32543293 -0.23106416 -0.017571421 -0.27312624 0.064295754 0.28666738 0.13581124 -0.1988026
0.053999398 0.115408234 0.04023009 0.17361347 -0.21477138 -0.06472206 -0.015009493 0.21890573
-0.09534455 0.26234773 0.20390026 -0.010516322 0.28446388 -0.18427119 -0.40586254 -0.008075759
-0.10058314 -0.15566878 0.27520156 0.010587275 0.037856188 0.36425054 -0.03157192 -0.26631057
0.2624164 0.21967661 -0.11682484 -0.08198954 0.0026315947 0.3665795 0.24235317 0.5914496
0.18747848 -0.2664994 0.13136767 0.059447616 -0.011532989 0.19449571 -0.061925784 -0.26697835
0.4215907 -0.061511863 0.103978336 -0.1424587 0.02047453 0.37113467 0.0716034 0.041437205
0.105592094 0.21606506 -0.038937427 -0.016552614 -0.10394081 0.07212405 -0.07296447 -0.06592785
0.12594914 -0.15062238 0.37364632 -0.110223256 0.13101773 -0.08149558 0.24508537 -0.052878458
-0.051278416 -0.049321163 0.18712217 0.372629 0.3618634 0.029530475 0.040708613 0.53276736
-0.19534133 -0.1318684 -0.033813186 0.26897112 -0.19348663 -0.1934784 -0.23566832 -0.21568586
-0.13977358 -0.12534232 -0.33274224 -0.09652219 -0.115779944 0.26244235 0.3836611 -0.18282358
-0.15719983 -0.33456862 -0.19308874 -0.34205645 0.13476858 -0.22223897 0.04901904 0.025377413
0.44287133 0.08565139 -0.034275398 -0.06274352 -0.050291087 -0.039267186 0.23178443 0.33099586
0.117201924 -0.04415532 0.014257277 -0.22215903 0.28868812 0.21150723 -0.11976157 -0.12902841
0.38097474 0.35561776 0.1631867 -0.05362865 -0.05711263 -0.18919328 0.14913441 0.43608698
0.19192244 0.19382793 -0.05815479 -0.10999493 -0.041785676 -0.23725492 -0.0048480537 -0.46384037
-0.041163184 -0.107164346 -0.28608727 -0.13931441 -0.23654063 0.1226691 -0.24720201 -0.19804674
0.03449857 0.26741278 0.14496978 0.06733113 -0.19164026 -0.12263865 0.010799161 0.4882125
0.22799523 0.09479531 -0.06146678 -0.20486876 0.2435485 -0.0036263356 0.04525943 -0.22043084
-0.08880004 0.026213747 0.15390539 -0.009893144 -0.19015244 -0.32458758 0.20079195 -0.23613341
0.39617908 -0.40855113 0.18255506 -0.035158936 -0.016931167 0.16722488 0.13868508 -0.26644707
00000000: 6a0e 0d3e 2f99 04bc 5f78 8bbe 1eee 593e
00000010: 5f07 f93e 8310 083e 9e58 d7be a1de 0d3c
00000020: 2634 d83e 6f6b 3c3e cd80 9ebc 6ad7 ba3d
00000030: 1abd 363d 5199 47be cb7c c8be 65fe 82be
00000040: 9394 b43d ccc3 7cbe 6b89 8e3e 1d09 bbbe
00000050: b388 e6bd 8c8e b8be e479 85be 6fe3 863e
00000060: ff5c 9abe 8d7f 363e b610 5e3e 7422 2f3d
00000070: fadd 2fbe 0707 b0bd a0dd 653d 6097 c23d
00000080: 626b 48be eb1a 663e 194b 943e e3a0 d43d
00000090: 2ad0 f1b9 065d f63d 94ae e03d bee8 64be
000000a0: de3a 12be 0ea3 25be f14e ce3d 4622 ed3b
000000b0: ebf8 313e 0054 83be 10e0 233d e9a3 48be
000000c0: 54e8 873d eee2 473e 9e5d 873c 667b e7bc
000000d0: a0b3 743e a8f8 d23d 4ea7 aabd c79c 69bd
000000e0: c9f8 6abe 697a 1c3e c972 23be feae a83d
000000f0: 235f 1ebe 225a 973e 3ef5 73be 4102 a0be
00000100: 7f3d 69be f256 c9bc e115 afbd 9f1c 80be
00000110: de71 cabd 7954 62be 11ca 6a3e c667 cd3e
00000120: a051 153d 35e9 edbd 28d9 07be 7a0b 8b3e
00000130: 6b62 2b3d c789 34be cec9 903e 544f 6dbd
00000140: 259f a63e 159c 6cbe f1f1 8fbc 34d7 8bbe
00000150: 7ead 833d 11c6 923e 1a12 0b3e e992 4bbe
00000160: 792e 5d3d 275b ec3d 4fc8 243d bbc7 313e
00000170: 07ed 5bbe 008d 84bd 60ea 75bc d328 603e
00000180: 0144 c3bd 7152 863e 3bcb 503e a74c 2cbc
00000190: 40a5 913e 96b1 3cbe 37cd cfbe 3050 04bc
000001a0: 89fe cdbd a367 1fbe 38e7 8c3e 4076 2d3c
000001b0: 170f 1b3d 0c7f ba3e 8f51 01bd dc59 88be
000001c0: 715b 863e e8f2 603e dd41 efbd 22ea a7bd
000001d0: d576 2c3b 4fb0 bb3e 6e2b 783e 3e69 173f
000001e0: 5cfa 3f3e 9c72 88be 3f85 063e 587f 733d
000001f0: ddf4 3cbc e229 473e e4a5 7dbd 63b1 88be
00000200: bcda d73e ddf3 7bbd 98f2 d43d b2e0 11be
00000210: 34ba a73c 5d05 be3e cea4 923d 0fba 293d
00000220: ab40 d83d 2940 5d3e da7c 1fbd 5999 87bc
00000230: ebde d4bd c6b5 933d 656e 95bd 2e05 87bd
00000240: d0f8 003e c13c 1abe 924e bf3e bbbc e1bd
00000250: 8329 063e 28e7 a6bd a9f7 7a3e 1597 58bd
00000260: 5109 52bd fd04 4abd f49c 3f3e 3ac9 be3e
00000270: 2946 b93e e5e9 f13c 13be 263d 7163 083f
00000280: 8f07 48be 8308 07be b27f 0abd 95b6 893e
00000290: 5c21 46be 341f 46be 0953 71be c1dc 5cbe
000002a0: ce20 0fbe bd59 00be 315d aabe 6dad c5bd
000002b0: 091e edbd d85e 863e 3a6f c43e 1b36 3bbe
000002c0: fef8 20be 944c abbe 0eb9 45be 0622 afbe
000002d0: c600 0a3e 9d92 63be 30c8 483d 4be4 cf3c
000002e0: 08c0 e23e ff69 af3d 5c64 0cbd ad7f 80bd
000002f0: 07fe 4dbd a1d6 20bd e658 6d3e 4a78 a93e
00000300: 9007 f03d 35dc 34bd 5b97 693c a87d 63be
00000310: eece 933e 5a95 583e 8e45 f5bd 0620 04be
00000320: 1f0f c33e 8813 b63e 6a1a 273e b7a9 5bbd
00000330: efee 69bd e2bb 41be b1b6 183e cb46 df3e
00000340: 5187 443e d47a 463e b833 6ebd 0645 e1bd
00000350: 7527 2bbd f4f2 72be 6cdc 9ebb 7c7c edbe
00000360: ba9a 28bd fb78 dbbd 087a 92be 70a8 0ebe
00000370: b537 72be f039 fb3d 8622 7dbe c4cc 4abe
00000380: 5f4e 0d3d 54ea 883e f572 143e e7e4 893d
00000390: 583d 44be f929 fbbd f7ee 303c fdf6 f93e
000003a0: 9577 693e 0b24 c23d 97c4 7bbd 1ec9 51be
000003b0: c764 793e d1a7 6dbb f461 393d 9fb8 61be
000003c0: ccdc b5bd 36be d63c 6099 1d3e da16 22bc
000003d0: 52b7 42be 5830 a6be 689c 4d3e f5cc 71be
000003e0: fcd7 ca3e 9d2d d1be b7ef 3a3e d102 10bd
000003f0: 3bb3 8abc 003d 2b3e 7603 0e3e c06b 88be

base.mlp.fc_h.0.bias f4 [64]
0.0 0.0 0.0 0.0 0.0 0.0 0.0 0.0
0.0 0.0 0.0 0.0 0.0 0.0 0.0 0.0
0.0 0.0 0.0 0.0 0.0 0.0 0.0 0.0
0.0 0.0 0.0 0.0 0.0 0.0 0.0 0.0
0.0 0.0 0.0 0.0 0.0 0.0 0.0 0.0
0.0 0.0 0.0 0.0 0.0 0.0 0.0 0.0
0.0 0.0 0.0 0.0 0.0 0.0 0.0 0.0
0.0 0.0 0.0 0.0 0.0 0.0 0.0 0.0
00000000: 0000 0000 0000 0000 0000 0000 0000 0000
00000010: 0000 0000 0000 0000 0000 0000 0000 0000
00000020: 0000 0000 0000 0000 0000 0000 0000 0000
00000030: 0000 0000 0000 0000 0000 0000 0000 0000
00000040: 0000 0000 0000 0000 0000 0000 0000 0000
00000050: 0000 0000 0000 0000 0000 0000 0000 0000
00000060: 0000 0000 0000 0000 0000 0000 0000 0000
00000070: 0000 0000 0000 0000 0000 0000 0000 0000
00000080: 0000 0000 0000 0000 0000 0000 0000 0000
00000090: 0000 0000 0000 0000 0000 0000 0000 0000
000000a0: 0000 0000 0000 0000 0000 0000 0000 0000
000000b0: 0000 0000 0000 0000 0000 0000 0000 0000
000000c0: 0000 0000 0000 0000 0000 0000 0000 0000
000000d0: 0000 0000 0000 0000 0000 0000 0000 0000
000000e0: 0000 0000 0000 0000 0000 0000 0000 0000
000000f0: 0000 0000 0000 0000 0000 0000 0000 0000

base.mlp.fc_h.2.weight f4 [64]
1.0 1.0 1.0 1.0 1.0 1.0 1.0 1.0
1.0 1.0 1.0 1.0 1.0 1.0 1.0 1.0
1.0 1.0 1.0 1.0 1.0 1.0 1.0 1.0
1.0 1.0 1.0 1.0 1.0 1.0 1.0 1.0
1.0 1.0 1.0 1.0 1.0 1.0 1.0 1.0
1.0 1.0 1.0 1.0 1.0 1.0 1.0 1.0
1.0 1.0 1.0 1.0 1.0 1.0 1.0 1.0
1.0 1.0 1.0 1.0 1.0 1.0 1.0 1.0
00000000: 0000 803f 0000 803f 0000 803f 0000 803f
00000010: 0000 803f 0000 803f 0000 803f 0000 803f
00000020: 0000 803f 0000 803f 0000 803f 0000 803f
00000030: 0000 803f 0000 803f 0000 803f 0000 803f
00000040: 0000 803f 0000 803f 0000 803f 0000 803f
00000050: 0000 803f 0000 803f 0000 803f 0000 803f
00000060: 0000 803f 0000 803f 0000 803f 0000 803f
00000070: 0000 803f 0000 803f 0000 803f 0000 803f
00000080: 0000 803f 0000 803f 0000 803f 0000 803f
00000090: 0000 803f 0000 803f 0000 803f 0000 803f
000000a0: 0000 803f 0000 803f 0000 803f 0000 803f
000000b0: 0000 803f 0000 803f 0000 803f 0000 803f
000000c0: 0000 803f 0000 803f 0000 803f 0000 803f
000000d0: 0000 803f 0000 803f 0000 803f 0000 803f
000000e0: 0000 803f 0000 803f 0000 803f 0000 803f
000000f0: 0000 803f 0000 803f 0000 803f 0000 803f

base.mlp.fc_h.2.bias f4 [64]
0.0 0.0 0.0 0.0 0.0 0.0 0.0 0.0
0.0 0.0 0.0 0.0 0.0 0.0 0.0 0.0
0.0 0.0 0.0 0.0 0.0 0.0 0.0 0.0
0.0 0.0 0.0 0.0 0.0 0.0 0.0 0.0
0.0 0.0 0.0 0.0 0.0 0.0 0.0 0.0
0.0 0.0 0.0 0.0 0.0 0.0 0.0 0.0
0.0 0.0 0.0 0.0 0.0 0.0 0.0 0.0
0.0 0.0 0.0 0.0 0.0 0.0 0.0 0.0
00000000: 0000 0000 0000 0000 0000 0000 0000 0000
00000010: 0000 0000 0000 0000 0000 0000 0000 0000
00000020: 0000 0000 0000 0000 0000 0000 0000 0000
00000030: 0000 0000 0000 0000 0000 0000 0000 0000
00000040: 0000 0000 0000 0000 0000 0000 0000 0000
00000050: 0000 0000 0000 0000 0000 0000 0000 0000
00000060: 0000 0000 0000 0000 0000 0000 0000 0000
00000070: 0000 0000 0000 0000 0000 0000 0000 0000
00000080: 0000 0000 0000 0000 0000 0000 0000 0000
00000090: 0000 0000 0000 0000 0000 0000 0000 0000
000000a0: 0000 0000 0000 0000 0000 0000 0000 0000
000000b0: 0000 0000 0000 0000 0000 0000 0000 0000
000000c0: 0000 0000 0000 0000 0000 0000 0000 0000
000000d0: 0000 0000 0000 0000 0000 0000 0000 0000
000000e0: 0000 0000 0000 0000 0000 0000 0000 0000
000000f0: 0000 0000 0000 0000 0000 0000 0000 0000

base.mlp.fc2.0.0.weight f4 [64, 64]
0.12203618 0.014000464 -0.24847847 0.22656687 0.47191074 0.16581455 -0.41391867 0.02443554
0.41842273 0.19286555 -0.030432614 0.09002813 0.02813652 -0.1933976 -0.406117 -0.23593234
0.1150321 -0.2523664 0.26382565 -0.3692693 -0.1257056 -0.3760136 -0.2775648 0.26351252
-0.26845875 0.18910147 0.20276786 0.0546652 -0.18983027 -0.103847064 0.08485088 0.11105471
-0.19058515 0.20217264 0.2895406 0.092351876 0.009123568 0.103112705 0.103647254 -0.23846878
-0.12005406 -0.1775995 0.07889888 0.01949561 0.16361967 -0.2594534 0.052711517 -0.20556322
0.073157415 0.20894319 0.038905792 -0.043885056 0.23908947 0.10164117 -0.08932701 -0.0828677
-0.2068534 0.14905147 -0.14041734 0.101729445 -0.14139836 0.31665608 -0.2582374 -0.3195259
-0.22727701 -0.018317692 -0.06659181 -0.25895882 -0.11048955 -0.24488918 0.22549358 0.40362072
0.02368401 -0.12110813 -0.14777419 0.2678489 0.04594299 -0.17529398 0.2958748 -0.055543616
0.35085315 -0.20532978 -0.0012558645 -0.26745102 0.0659813 0.28142056 0.125541 -0.20017467
0.052597973 0.105168484 0.038058646 0.17796366 -0.21373817 -0.07237434 -0.017429827 0.21596949
-0.094538786 0.26270333 0.19653116 -0.033805512 0.2730641 -0.18444125 -0.39479315 0.0043521873
-0.08869817 -0.13176829 0.28155953 0.013755281 0.029851353 0.37669653 -0.04113662 -0.2698936
0.27779907 0.20944229 -0.09959498 -0.08356615 0.0011992161 0.35548607 0.23333323 0.58407915
0.19076592 -0.28972435 0.14973463 0.03807986 -0.022834118 0.20734708 -0.037502293 -0.25832626
0.41759375 -0.073610924 0.09811618 -0.13318577 0.042150278 0.3744418 0.083374135 0.041773926
0.10994367 0.2249871 -0.011757931 -0.029062347 -0.102649175 0.082239 -0.081477985 -0.057820827
0.118845105 -0.12420964 0.35151935 -0.11046839 0.11734253 -0.07168665 0.23471227 -0.04273169
-0.04621468 -0.0443004 0.19553682 0.38565612 0.3654865 0.039351992 0.045684017 0.5227752
-0.20583154 -0.1305351 -0.034441177 0.27689034 -0.20133264 -0.19858897 -0.24390216 -0.23809342
-0.13540365 -0.14118885 -0.32340705 -0.09672648 -0.10420012 0.25077996 0.37559992 -0.18702763
-0.15917255 -0.3224697 -0.2035354 -0.32756644 0.13981347 -0.21075758 0.042600397 0.026446477
0.43737128 0.09350423 -0.045495823 -0.06484356 -0.03364299 -0.050958294 0.21447255 0.34007797
0.11289731 -0.06732569 0.017234879 -0.1952957 0.29627874 0.216103 -0.10511218 -0.13742538
0.38371146 0.36075938 0.17786063 -0.0613928 -0.062242124 -0.19247644 0.1526066 0.4320088
0.18282886 0.1976932 -0.05792844 -0.10633407 -0.049625408 -0.23719761 0.0148127405 -0.45504668
-0.03498642 -0.10261297 -0.28563097 -0.1318822 -0.22718574 0.12599857 -0.24464238 -0.20447958
0.026059635 0.2722632 0.14346108 0.06530504 -0.20547935 -0.11139756 -0.011574782 0.48362258
0.22818595 0.08387186 -0.038971156 -0.19957297 0.25412002 -0.014847355 0.036799096 -0.2243224
-0.08317818 0.03620442 0.14362387 0.0035416242 -0.19098967 -0.31871453 0.19700503 -0.23039106
0.39044032 -0.41511846 0.16805775 -0.03225201 -0.017337449 0.1643628 0.13553113 -0.26347786
00000000: 1bee f93d 3462 653c 2471 7ebe 2501 683e
00000010: 499e f13e 4acb 293e 26ed d3be 0b2d c83c
00000020: 813b d63e 8c7e 453e d14d f9bc ab60 b83d
00000030: 8f7e e63c 050a 46be 91ee cfbe 3f98 71be
00000040: f395 eb3d 2b36 81be 2814 873e de10 bdbe
00000050: f8b8 00be db84 c0be f91c 8ebe 1deb 863e
00000060: 6d73 89be d1a3 413e 61a2 4f3e 9ee8 5f3d
00000070: de62 42be c5ad d4bd 4cc6 ad3d a770 e33d
00000080: c128 43be 5806 4f3e aa3e 943e fb22 bd3d
00000090: 057b 153c c12c d33d 0345 d43d 2931 74be
000000a0: e7de f5bd a5dc 35be bc95 a13d 42b5 9f3c
000000b0: ea8b 273e 13d7 84be 08e8 573d 2a7f 52be
000000c0: 8ed3 953d 34f5 553e ae5b 1f3d d1c0 33bd
000000d0: dfd3 743e 3f29 d03d 14f1 b6bd 8ab6 a9bd
000000e0: 61d1 53be f3a0 183e 90c9 0fbe 8757 d03d
000000f0: bbca 10be bf20 a23e b137 84be e698 a3be
00000100: 4ebb 68be fc0e 96bc 4961 88bd 4096 84be
00000110: 5848 e2bd 3bc4 7abe cae7 663e 60a7 ce3e
00000120: f804 c23c 8a07 f8bd 1e52 17be 7e23 893e
00000130: b72e 3c3d 4480 33be e77c 973e b481 63bd
00000140: 06a3 b33e f841 52be d29b a4ba 57ef 88be
00000150: 3421 873d 5b16 903e d28d 003e 97fa 4cbe
00000160: f970 573d 9362 d73d 62e3 1b3d 1b3c 363e
00000170: 2ede 5abe ff38 94bd ffc8 8ebc 1b27 5d3e
00000180: 8d9d c1bd 0d81 863e 773f 493e a677 0abd
00000190: 0fcf 8b3e 2bde 3cbe 5422 cabe cb9c 8e3b
000001a0: 63a7 b5bd 44ee 06be 9228 903e d55d 613c
000001b0: d38a f43c 5ede c03e df7e 28bd 7e2f 8abe
000001c0: ae3b 8e3e 0a78 563e 74f8 cbbd bb24 abbd
000001d0: 042f 9d3a 4502 b63e e8ee 6e3e 3686 153f
000001e0: 2458 433e c056 94be 0954 193e a1f9 1b3d
000001f0: 9e0e bbbc cb52 543e 019c 19bd 5743 84be
00000200: d9ce d53e 53c1 96bd 23f1 c83d da61 08be
00000210: c5a5 2c3d d6b6 bf3e 0fc0 aa3d 231b 2b3d
00000220: 262a e13d 0563 663e 56a4 40bc 2914 eebc
00000230: bb39 d2bd ec6c a83d eedd a6bd 88d5 6cbd
00000240: 1065 f33d a061 febd 58fa b33e 403d e2bd
00000250: 4851 f03d 73d0 92bd 6a58 703e 6d07 2fbd
00000260: 9b4b 3dbd 5674 35bd ce3a 483e b874 c53e
00000270: 0c21 bb3e 8e2f 213d 2a1f 3b3d 98d4 053f
00000280: 81c5 52be feaa 05be 3112 0dbd 92c4 8d3e
00000290: 252a 4ebe e85a 4bbe 7dc1 79be c3ce 73be
000002a0: 41a7 0abe cf93 10be 9c95 a5be 8818 c6bd
000002b0: df66 d5bd 3b66 803e a24e c03e 2c84 3fbe
000002c0: 21fe 22be c01a a5be 956b 50be cab6 a7be
000002d0: 432b 0f3e d6d0 57be c17d 2e3d 48a6 d83c
000002e0: 21ef df3e 257f bf3d d459 3abd b3cc 84bd
000002f0: 3bcd 09bd a5b9 50bd b19e 5b3e b31e ae3e
00000300: b436 e73d 0de2 89bd 2930 8d3c 99fb 47be
00000310: d9b1 973e 1b4a 5d3e 0e45 d7bd 3db9 0cbe
00000320: d475 c43e 74b5 b83e 1921 363e 0477 7bbd
00000330: 99f1 7ebd 8b18 45be e844 1c3e 4230 dd3e
00000340: 7d37 3b3e 1670 4a3e 5f46 6dbd adc5 d9bd
00000350: 0344 4bbd eee3 72be 23b1 723c e1fb e8be
00000360: ec4d 0fbd c026 d2bd 393e 92be 210c 07be
00000370: 61a3 68be c505 013e 8883 7abe 1863 51be
00000380: 047b d53c 1566 8b3e 76e7 123e a6be 853d
00000390: 2e69 52be 6724 e4bd 28a4 3dbc 619d f73e
000003a0: 94a9 693e 02c5 ab3d 38a0 1fbd db5c 4cbe
000003b0: 051c 823e 5242 73bc a6ba 163d c5b4 65be
000003c0: 5259 aabd 164b 143d 2312 133e 981a 683b
000003d0: cc92 43be 8d2e a3be b0bb 493e a2eb 6bbe
000003e0: cbe7 c73e 688a d4be 5517 2c3e af1a 04bd
000003f0: 4407 8ebc b94e 283e acc8 0a3e 92e6 86be

base.mlp.fc2.0.0.bias f4 [64]
0.011885115 0.012467755 -0.008738705 -0.011165563 -0.023090223 -0.0021932567 0.009095941 0.003344792
0.0018190504 -0.0065497346 -0.0063632475 -0.0039117853 0.00038249782 -0.013930136 -0.010018702 0.010179199
0.008022218 0.012174197 -0.002911015 -0.0028027317 -0.0015956964 -0.0068060565 0.0067834207 -0.014624362
-0.0057687135 0.000570454 -0.010980594 -0.0015137014 -0.021222528 -0.0036817663 0.007879623 -0.004775016
0.015425069 -0.002967396 -0.013090295 -0.0060967123 0.007455244 0.0028301557 -0.014355341 -0.009970675
0.015114344 -0.008098712 0.018511325 -0.021730065 0.0018355274 -0.028910358 0.005098409 0.003907489
0.0037316233 0.0020161099 0.004934289 -0.009783053 -0.013006283 0.01449832 -0.010585088 -0.0062889364
-0.0025948219 -0.0033855715 0.006638643 0.0052034324 -0.028094534 0.011385851 0.013475765 -0.00017483074
00000000: c9b9 423c 8e45 4c3c c92c 0fbc c4ef 36bc
00000010: b527 bdbc bebc 0fbb 2407 153c 4c34 5b3b
00000020: 346d ee3a 289f d6bb ca82 d0bb 6f2e 80bb
00000030: fd89 c839 3a3b 64bc 7b25 24bc a8c6 263c
00000040: 9f6f 033c 4876 473c bac6 3ebb 09ae 37bb
00000050: b026 d1ba 5705 dfbb 7547 de3b 059b 6fbc
00000060: 7a07 bdbb 858a 153a f3e7 33bc 6467 c6ba
00000070: deda adbc ca49 71bb 8919 013c bd77 9cbb
00000080: 6eb9 7c3c a578 42bb ad78 56bc eec6 c7bb
00000090: 1f4b f43b 227a 393b aa32 6bbc 0b5c 23bc
000000a0: 27a2 773c 76b0 04bc 10a5 973c 4003 b2bc
000000b0: 1496 f03a 6ad5 ecbc 8e10 a73b 650a 803b
000000c0: 408e 743b b620 043b d1af a13b 1949 20bc
000000d0: 4e18 55bc 5d8a 6d3c 146d 2dbc 6c13 cebb
000000e0: e30d 2abb 77e0 5dbb f988 d93b 8e81 aa3b
000000f0: 8226 e6bc b88b 3a3c 74c9 5c3c c552 37b9

base.mlp.fc2.0.2.weight f4 [64]
1.0102344 1.0026933 0.99544686 0.9890347 0.9867439 1.0078611 1.0252967 0.99027336
1.0098312 1.0139258 1.0110896 1.0071152 1.0050309 1.007612 1.0094008 0.9881044
1.0039245 0.987849 0.9936937 1.0045948 1.0034049 1.0176817 0.99625933 1.0241427
0.9985947 0.9825857 0.9970577 1.0089753 1.0082881 1.0036192 0.9894842 1.0037736
1.0208503 1.0023826 1.011225 1.0050386 1.0114489 1.0079026 1.0133215 1.0063823
1.0088384 1.0127025 1.0149785 1.0321915 0.99652606 0.9895387 1.0041834 1.0206174
1.0045466 1.0068159 0.9965362 1.0062889 0.99420136 1.0130357 1.0044626 1.0077177
1.0204468 0.98962015 1.0035633 0.9920498 1.0318646 1.0026288 1.0101575 1.0178796
00000000: 5c4f 813f 4158 803f 9bd5 7e3f 6131 7d3f
00000010: 409b 7c3f 9801 813f ec3c 833f 8e82 7d3f
00000020: 2642 813f 52c8 813f 626b 813f 27e9 803f
00000030: daa4 803f 6ef9 803f 0c34 813f 69f4 7c3f
00000040: 9980 803f ace3 7c3f b662 7e3f 9096 803f
00000050: 926f 803f 6543 823f da0a 7f3f 1c17 833f
00000060: e7a3 7f3f bd8a 7b3f 2c3f 7f3f 1a26 813f
00000070: 960f 813f 9876 803f d64e 7d3f a77b 803f
00000080: 39ab 823f 134e 803f d26f 813f 1ba5 803f
00000090: 2877 813f f402 813f 85b4 813f 23d1 803f
000000a0: 9e21 813f 3ca0 813f d1ea 813f da1e 843f
000000b0: 551c 7f3f 6952 7d3f 1589 803f 97a3 823f
000000c0: fc94 803f 58df 803f ff1c 7f3f 13ce 803f
000000d0: fb83 7e3f 27ab 813f 3b92 803f e5fc 803f
000000e0: 009e 823f bf57 7d3f c374 803f faf6 7d3f
000000f0: 2414 843f 2456 803f d74c 813f e149 823f

base.mlp.fc2.0.2.bias f4 [64]
0.007600103 0.012992132 -0.002290876 -0.011391594 -0.007710077 -0.00016696173 0.0220337 0.0054918923
0.003078888 -0.003462844 -0.004155334 -0.0007432784 0.0010809344 -0.022195175 -0.010643604 0.0058191526
0.003492097 0.007387337 -0.0014571024 0.0030082592 -0.001661131 -0.003310516 0.0035442517 -0.01245364
-0.0034758768 -0.003953719 -0.007184875 -0.0033755256 -0.015173965 -0.0032036353 0.007050488 -0.003159148
0.010751748 0.006011301 -0.014679685 -0.0019012159 0.008390005 0.0042382297 -0.0132527705 -0.009610026
0.005316244 5.691554e-05 0.032377828 -0.021301704 -0.0033035912 -0.022101024 0.0029322188 0.0015359349
-0.004442896 -0.0021402717 0.0062695667 -0.0017911956 -0.0007194467 0.013820212 -0.0056697475 -0.0018509456
0.001353636 -0.0036418603 0.0034391745 0.0024688845 0.0019062664 0.006785805 0.007857234 0.0010129365
00000000: 490a f93b f4dc 543c 8522 16bb cfa3 3abc
00000010: d0a4 fcbb 7312 2fb9 0580 b43c 55f5 b33b
00000020: 2bc7 493b e2f0 62bb 7829 88bb 92d8 42ba
00000030: 24ae 8d3a a8d2 b5bc 8362 2ebc 97ae be3b
00000040: aadb 643b 7911 f23b 3efc beba 3726 453b
00000050: 4fba d9ba 3ef5 58bb ad46 683b 5a0a 4cbc
00000060: 89cb 63bb 338e 81bb 1a6f ebbb ec37 5dbb
00000070: 399c 78bc 15f4 51bb c807 e73b b509 4fbb
00000080: 1a28 303c 73fa c43b 1083 70bc 3832 f9ba
00000090: 3b76 093c d9e0 8a3b 2622 59bc 5f73 1dbc
000000a0: e333 ae3b 99b8 6e38 9d9e 043d e980 aebc
000000b0: 1081 58bb 350d b5bc 782a 403b 6c51 c93a
000000c0: b795 91bb cd43 0cbb f070 cd3b 8dc6 eaba
000000d0: 4099 3cba 2c6e 623c 4ac9 b9bb 6e9b f2ba
000000e0: 7d6c b13a 47ac 6ebb c663 613b 02cd 213b
000000f0: b0db f93a 755b de3b a1bb 003c 82c4 843a

rnn.rnn.weight_ih_l0 f4 [192, 64]
-0.061816566 -0.12841904 0.047614083 -0.080675945 0.07411411 -0.025963789 0.030306933 -0.07102299
-0.009830656 -0.15752761 0.00104903 -0.1031586 0.024027633 0.05178223 0.05093073 0.07114981
0.004762453 0.0570099 0.06706011 -0.06510135 0.004219043 0.027132899 -0.014077202 -0.109242454
-0.15218681 -0.026144104 0.030419925 -0.07999789 0.16595538 -0.07559233 0.0342746 0.083922245
0.028655525 0.005951827 0.028276362 0.043728378 0.041296583 -0.015388903 0.007793764 -0.030622099
0.038648944 0.03779273 -0.024956675 -0.07428881 0.05062029 0.058240727 0.016977618 0.08941428
-0.036634546 -0.003370409 0.014407761 0.07962817 0.055355426 -0.047111053 0.10261152 -0.04803747
-0.053915367 -0.02625367 -0.023901971 -0.064062394 -0.1108827 -0.17692715 0.047295377 0.043531522
0.061108388 -0.031779796 -0.013635784 -0.04391186 0.07067385 0.07010152 0.15872504 0.05215734
-0.07169613 -0.12184493 -0.026262518 -0.05677329 -0.1733657 -0.0035894099 -0.046754412 -0.007868908
-0.048296466 0.06979114 0.10191904 -0.11169775 -0.031932857 -0.032811034 -0.066601485 0.096408166
0.02730308 0.022015821 0.15356053 0.12015419 -0.039203398 0.06076489 -0.02086703 -0.12972538
0.036704347 0.022745391 -0.04537214 -0.029170344 0.051124327 -0.06784759 0.00585663 0.013709254
0.004178533 -0.03929295 0.046136767 -0.03654457 -0.082820006 -0.015797991 0.19532304 -0.03589302
0.06658164 0.049556784 -0.03089451 0.03095325 0.06489751 -0.08660405 0.056608133 0.09293767
-0.0667781 -0.020417597 -0.03038422 -0.046900876 0.036170885 -0.10160757 0.036086284 -0.035490315
0.010592907 0.048579294 -0.032693155 -0.03694544 0.033489153 -0.06259964 0.035126165 0.13021158
0.06524791 0.117680244 -0.022448191 -0.0103283 -0.087998055 0.029836515 0.0027138696 -0.06914627
-0.009193615 0.0052565765 0.09005868 0.08353169 0.12643476 -0.029090231 0.074984156 -0.053168826
0.044663087 0.09348502 -0.122102536 0.03943061 -0.103150055 0.003706797 0.013219125 0.10368405
0.10732723 -0.0329096 -0.10410747 -0.16372886 -0.0061385883 0.059565745 -0.12416537 0.059371978
-0.14042403 -0.12453012 -0.03300398 0.112878636 -0.038866147 0.16937637 -0.1130529 0.06942242
0.11966669 0.09246524 0.026814168 0.017617231 -0.1989065 0.1254083 -0.06287479 -0.0075853225
0.067091934 0.045907535 0.0875839 0.12266231 0.14644022 -0.059469417 0.033922844 -0.10566557
-0.032111015 -0.029301306 -0.07190132 -0.05413709 -0.15473957 0.059762113 0.035601646 -0.12635256
-0.16385135 -0.04913159 0.00091162446 -0.09571094 0.048930313 -0.045781262 -0.060162194 -0.061089896
0.068044886 -0.05508948 -0.06007294 -0.06652234 0.056495197 -0.06322594 0.021190489 0.08420216
-0.055986274 -0.020687025 0.01178526 0.07895006 0.029323583 -0.05228126 0.04519039 -0.08236833
-0.027612144 -0.07467244 0.083004706 0.039779175 -0.0014565613 0.09223758 -0.1433093 0.07630654
-0.076458305 0.124640346 -0.03845862 0.047509063 -0.019341014 0.075842805 0.184805 0.0611737
0.079969265 0.06153176 -0.09795211 0.080342606 -0.06286967 0.05248745 -0.04795053 0.010668025
-0.08051726 0.050949585 -0.005299611 -0.016715102 -0.059991475 0.011968368 -0.052807577 -0.054111056
00000000: 5e33 7dbd 4880 03be fc06 433d 6e39 a5bd
00000010: 23c9 973d 03b2 d4bc 3f46 f83c 8074 91bd
00000020: c310 21bc eb4e 21be 9b7f 893a d144 d3bd
00000030: 99d5 c43c 9b19 543d be9c 503d feb6 913d
00000040: 5a0e 9c3b 3783 693d d056 893d db53 85bd
00000050: e63f 8a3b d045 de3c 11a4 66bc 82ba dfbd
00000060: dcd6 1bbe 292c d6bc 3533 f93c efd5 a3bd
00000070: 35f0 293e 27d0 9abd 8663 0c3d 6ddf ab3d
00000080: febe ea3c 8b07 c33b d4a3 e73c 871c 333d
00000090: 9b26 293d bd21 7cbc d562 ff3b 32db fabc
000000a0: 5b4e 1e3d 8dcc 1a3d f171 ccbc bb24 98bd
000000b0: 3957 4f3d d48d 6e3d a514 8b3c d61e b73d
000000c0: 1b0e 16bd 14e2 5cbb 880e 6c3c 1814 a33d
000000d0: 5fbc 623d 85f7 40bd fd25 d23d f0c2 44bd
000000e0: 5cd6 5cbd f011 d7bc 11ce c3bc 2533 83bd
000000f0: 7816 e3bd 642c 35be ccb8 413d 1c4e 323d
00000100: ca4c 7a3d 882b 02bd a068 5fbc ecdc 33bd
00000110: 74bd 903d 6391 8f3d d188 223e efa2 553d
00000120: 6cd5 92bd d689 f9bd 7e24 d7bc 1c8b 68bd
00000130: c786 31be 4e3c 6bbb 8e81 3fbd 98ec 00bc
00000140: 84d2 45bd a8ee 8e3d eeba d03d cac1 e4bd
00000150: 07cc 02bd dd64 06bd 5c66 88bd a571 c53d
00000160: b5aa df3c 865a b43c f93e 1d3e 6613 f63d
00000170: be93 20bd 9be4 783d 55f1 aabc bbd6 04be
00000180: 4c57 163d 8b54 ba3c 23d8 39bd a5f6 eebc
00000190: be67 513d adf3 8abd f9e8 bf3b c79c 603c
000001a0: 13ec 883b a5f1 20bd e8f9 3c3d c2af 15bd
000001b0: 899d a9bd ca6a 81bc c302 483e 8f04 13bd
000001c0: f45b 883d 0efc 4a3d 7c16 fdbc ac91 fd3c
000001d0: fce8 843d 775d b1bd eedd 673d 1b56 be3d
000001e0: f5c2 88bd ce42 a7bc 54e8 f8bc 221b 40bd
000001f0: ec27 143d a117 d0bd 36cf 133d 4b5e 11bd
00000200: df8d 2d3c 15fb 463d 42e9 05bd 1a54 17bd
00000210: ec2b 093d 3d34 80bd 74e0 0f3d 2f56 053e
00000220: b2a0 853d 5702 f13d 45e5 b7bc 0838 29bc
00000230: 5338 b4bd b56b f43c 2ddb 313b 8f9c 8dbd
00000240: d1a0 16bc 5c3f ac3b af70 b83d aa12 ab3d
00000250: 1d78 013e a34e eebc 4b91 993d 8ec7 59bd
00000260: a4f0 363d 1375 bf3d e510 fabd fe81 213d
00000270: 5640 d3bd bced 723b 0795 583c 4e58 d43d
00000280: 61ce db3d 37cc 06bd 4c36 d5bd 8aa8 27be
00000290: 3626 c9bb 36fb 733d 6a4a febd 0830 733d
000002a0: 51cb 0fbe a609 ffbd 2e2f 07bd ea2c e73d
000002b0: 1c32 1fbd 0071 2d3e 4788 e7bd 572d 8e3d
000002c0: cf13 f53d 6a5e bd3d 63a9 db3c 0352 903c
000002d0: 25ae 4bbe 096b 003e 7fc4 80bd 4c8e f8bb
000002e0: 7f67 893d 8a09 3c3d 305f b33d 6136 fb3d
000002f0: 6df4 153e 3496 73bd aef2 0a3d 3167 d8bd
00000300: d786 03bd 4b09 f0bc 0041 93bd dabe 5dbd
00000310: 0d74 1ebe 1ec9 743d 08d3 113d 9162 01be
00000320: a6c8 27be 353e 49bd 15fa 6e3a 1904 c4bd
00000330: 276b 483d 2285 3bbd a26c 76bd 6639 7abd
00000340: 1e5b 8b3d 82a5 61bd 0b0f 76bd dd3c 88bd
00000350: 8267 673d 9a7c 81bd ad97 ad3c 2f72 ac3d
00000360: dd51 65bd d677 a9bc f716 413c 92b0 a13d
00000370: 0338 f03c e024 56bd 8f19 393d bab0 a8bd
00000380: dd32 e2bc dded 98bd 5ffe a93d 7def 223d
00000390: 16ea beba 0ee7 bc3d acbf 12be 9a46 9c3d
000003a0: 2c96 9cbd 7043 ff3d c986 1dbd dd98 423d
000003b0: 0c71 9ebc 7953 9b3d 863d 3d3e 4691 7a3d
000003c0: edc6 a33d ba08 7c3d 1e9b c8bd aa8a a43d
000003d0: d0c1 80bd 15fd 563d c667 44bd f1c8 2e3c
000003e0: 3ce6 a4bd 83b0 503d 5ca8 adbb 1cee 88bc
000003f0: 9fb9 75bd f916 443c c24c 58bd 8ea3 5dbd

rnn.rnn.weight_hh_l0 f4 [192, 64]
-0.085554525 -0.05431544 0.15842995 0.13383877 0.03518021 -0.12630926 0.08841477 0.017776275
0.0035863162 -0.020267505 -0.10423231 -0.0054292106 -0.09825928 0.08459865 -0.03787778 -0.05894251
0.04996251 -0.06007752 -0.099111006 -0.1134074 0.109636605 -0.11398459 0.13760337 0.13546531
0.12038416 0.08918324 -0.026490305 0.07086888 0.09254186 0.0302358 0.008678872 -0.11682425
-0.005472038 -0.0031520983 -0.0485402 0.06608635 -0.020400612 -0.11887754 -0.09249754 -0.0057569756
-0.07154492 -0.064525686 -0.07596041 0.08032348 -0.008138565 -0.021723064 0.077246904 0.0022522388
-0.046356108 0.019777544 0.06656875 0.096844986 0.0066940826 0.051735293 -0.12632163 0.08265312
-0.03849489 -0.0043510636 0.03537945 0.139629 -0.072352715 -0.049848504 0.004571119 -0.047302466
-0.04497032 -0.11792835 0.006044369 -0.08664084 -0.07937719 0.17571463 0.034170017 -0.07841029
0.063733235 0.15568441 -0.093853936 -0.067008555 -0.05433525 -0.0171028 0.03249966 0.012020877
-0.0734473 -0.15262607 0.13987947 -0.008546762 -0.009107942 0.10337207 -0.01743905 0.042135164
-0.03135233 -0.07637364 0.06437656 -0.077788 0.027649388 -0.06568662 0.044895492 -0.035391644
-0.0017269369 0.1356612 0.121070065 0.041312 0.06008292 -0.024336254 -0.036860406 -0.03674199
-0.052016035 -0.08565021 0.059445944 -0.011165361 -0.07025382 0.073533885 -0.041373905 0.17086329
-0.05107638 -0.01902113 0.0723885 0.12179822 0.16078888 -0.10584657 -0.0049963957 0.20734271
0.054737303 -0.10269353 0.10195175 -0.0026495033 0.0038213783 0.09146954 0.06900553 -0.0031045058
-0.0960739 0.009576686 -0.06440372 0.018360604 0.03768062 0.05631551 0.056929298 0.024990037
-0.04664478 -0.14441563 -0.10443543 0.035292696 0.09486786 -0.013250656 0.10000459 -0.016542688
0.07235249 -0.02817537 -0.07904807 -0.045131963 -0.023938246 0.073609784 0.11428672 -0.11642663
0.11467493 0.030089512 -0.04060895 0.07270377 -0.039567653 0.030160708 0.05649268 -0.054998733
0.23018748 -0.09675547 -0.057672855 0.05842169 -0.0015845322 -0.09090656 -0.012195427 0.1522439
0.10166411 0.040491898 0.045613635 0.056409184 -0.010571969 -0.00056681613 -0.04412807 0.13523972
0.16544884 0.07604467 -0.0044854544 -0.09501624 -0.004100956 -0.041373268 0.00037475472 -0.007708396
0.026178075 -0.0024981496 0.1464298 -0.09233638 -0.0137611 -0.07808523 -0.12189564 0.21385154
-0.023033587 -0.13191533 0.10200988 -0.032230925 -0.05476929 -0.061110504 0.027618995 -0.058803014
0.054644737 -0.021527117 0.054046527 -0.086492024 -0.084830515 0.043236293 -0.022933874 -0.13029014
-0.00067480834 0.025264893 0.060473837 0.073815994 -0.035887964 0.05486916 0.027073061 0.029324632
-0.14249317 -0.049432565 -0.017708454 -0.044779535 0.082031325 -0.029146211 -0.01583151 -0.07027522
0.062889285 0.096164435 -0.086695656 -0.061977446 -0.05838927 0.08069199 -0.12682825 0.07585468
0.09743984 0.020938974 -0.11330627 -0.1443556 0.051452994 0.06833766 -0.041169275 -0.036645014
-0.07325007 -0.018267239 -0.10107433 -0.02686388 0.044790927 -0.009705987 -0.009601354 0.07280569
0.0008427511 -0.18339373 0.06990092 0.22463112 0.08847335 0.012476822 0.055693142 -0.027323585
00000000: 3637 afbd de79 5ebd 763b 223e 080d 093e
00000010: 2019 103d 3757 01be ce12 b53d 8d9f 913c
00000020: 6708 6b3b 0a08 a6bc c077 d5bd 85e7 b1bb
00000030: 293c c9bd 0f42 ad3d bb25 1bbd b46d 71bd
00000040: 7da5 4c3d d813 76bd b6fa cabd 2442 e8bd
00000050: 2889 e03d c170 e9bd e6e7 0c3e 6bb7 0a3e
00000060: f88b f63d b4a5 b63d 3202 d9bc b423 913d
00000070: 9686 bd3d 12b1 f73c d431 0e3c 8d41 efbd
00000080: c84e b3bb 6f93 4ebb 17d2 46bd 4858 873d
00000090: 2f1f a7bc 1176 f3bd 5a6f bdbd 03a5 bcbb
000000a0: 2586 92bd 0b26 84bd 2291 9bbd a380 a43d
000000b0: 9e57 05bc 91f4 b1bc a033 9e3d 4c9a 133b
000000c0: e7df 3dbd 8404 a23c 3255 883d aa56 c63d
000000d0: 095a db3b 63e8 533d 755a 01be 0a46 a93d
000000e0: d1ac 1dbd 5e93 8ebb 0bea 103d e8fa 0e3e
000000f0: a92d 94bd f22d 4cbd 53c9 953b 3bc0 41bd
00000100: cc32 38bd 6b84 f1bd d80f c63b c170 b1bd
00000110: 8290 a2bd 89ee 333e dcf5 0b3d 9395 a0bd
00000120: 9286 823d bc6b 1f3e 7e36 c0bd c83b 89bd
00000130: a48e 5ebd 2c1b 8cbc 5d1e 053d 36f3 443c
00000140: 8a6b 96bd 024a 1cbe 903c 0f3e b807 0cbc
00000150: 7a39 15bc bcb4 d33d 57dc 8ebc ec95 2c3d
00000160: 4d6b 00bd c869 9cbd dcd7 833d 514f 9fbd
00000170: f880 e23c b586 86bd 56e4 373d d4f6 10bd
00000180: 635a e2ba c5ea 0a3e 95f3 f73d c636 293d
00000190: 8219 763d d35c c7bc f0fa 16bd c57e 16bd
000001a0: c40e 55bd 6169 afbd 977d 733d ebee 36bc
000001b0: 3ce1 8fbd ef98 963d af77 29bd c9f6 2e3e
000001c0: 7735 51bd 33d2 9bbc 6c40 943d 5871 f93d
000001d0: d7a5 243e 16c6 d8bd ceb8 a3bb a651 543e
000001e0: 3934 603d fc50 d2bd 14cc d03d 4aa3 2dbb
000001f0: 1770 7a3b 6254 bb3d c552 8d3d f774 4bbb
00000200: 65c2 c4bd 88e7 1c3c 19e6 83bd fa68 963c
00000210: fe56 1a3d 18ab 663d b22e 693d e8b7 cc3c
00000220: 990e 3fbd b1e1 13be 3ee2 d5bd 138f 103d
00000230: 154a c23d 4819 59bc 35cf cc3d 8884 87bc
00000240: 8b2d 943d 09d0 e6bc f4e3 a1bd 4bdc 38bd
00000250: 241a c4bc bac0 963d 280f ea3d 1671 eebd
00000260: b1da ea3d 487e f63c 9255 26bd b7e5 943d
00000270: b111 22bd 9713 f73c de64 673d 5a46 61bd
00000280: 44b6 6b3e bb27 c6bd 5f3a 6cbd 954b 6f3d
00000290: 14b0 cfba 382d babd 54cf 47bc d3e5 1b3e
000002a0: 4635 d03d d5da 253d 5dd5 3a3d 510d 673d
000002b0: 0d36 2dbc 6396 14ba a3bf 34bd 487c 0a3e
000002c0: 6c6b 293e 4fbd 9b3d b8fa 92bb e097 c2bd
000002d0: 5061 86bb 0477 29bd ba7a c439 b696 fcbb
000002e0: 6773 d63c ffb7 23bb b2f1 153e db1a bdbd
000002f0: 3d76 61bc 26eb 9fbd 6ca4 f9bd e6fb 5a3e
00000300: efb0 bcbc d014 07be 8eea d03d 9304 04bd
00000310: c355 60bd 024f 7abd 3b41 e23c 6edb 70bd
00000320: 29d3 5f3d a359 b0bc e45f 5d3d bb22 b1bd
00000330: 9fbb adbd 8a18 313d d2df bbbc c76a 05be
00000340: 9fe5 30ba 52f8 ce3c 6ab3 773d d72c 973d
00000350: 42ff 12bd 7cbe 603d 53c8 dd3c 363a f03c
00000360: bbe9 11be cd79 4abd 5211 91bc bf6a 37bd
00000370: 0a00 a83d 09c4 eebc 15b1 81bc 74ec 8fbd
00000380: 19cc 803d dcf1 c43d 7e8d b1bd 10dc 7dbd
00000390: 9629 6fbd d841 a53d 44df 01be b359 9b3d
000003a0: 8a8e c73d 3688 ab3c 1e0d e8bd f4d1 13be
000003b0: 60c0 523d 9df4 8b3d 1da1 28bd 1519 16bd
000003c0: 2204 96bd 2da5 95bc 0f00 cfbd a411 dcbc
000003d0: b176 373d dc05 1fbc ff4e 1dbc 261b 953d
000003e0: 12ec 5c3a 91cb 3bbe 3728 8f3d b305 663e
000003f0: 8431 b53d 966b 4c3c 7e1e 643d b6d5 dfbc
