onpolicy/scripts/results/MPE/simple_spread/rmappo/check/wandb/run-20220704_235822-2m8xnpfe/files/actor.pt (torch, 147692 bytes, 22 tensors)

base.feature_norm.weight f4 [18]
000000 00 00 80 3f 00 00 80 3f 00 00 80 3f 00 00 80 3f
       1.0 1.0 1.0 1.0
000010 00 00 80 3f 00 00 80 3f 00 00 80 3f 00 00 80 3f
       1.0 1.0 1.0 1.0
000020 00 00 80 3f 00 00 80 3f 00 00 80 3f 00 00 80 3f
       1.0 1.0 1.0 1.0
000030 00 00 80 3f 00 00 80 3f 00 00 80 3f 00 00 80 3f
       1.0 1.0 1.0 1.0
000040 00 00 80 3f 00 00 80 3f
       1.0 1.0

base.feature_norm.bias f4 [18]
000000 00 00 00 00 00 00 00 00 00 00 00 00 00 00 00 00
       0.0 0.0 0.0 0.0
000010 00 00 00 00 00 00 00 00 00 00 00 00 00 00 00 00
       0.0 0.0 0.0 0.0
000020 00 00 00 00 00 00 00 00 00 00 00 00 00 00 00 00
       0.0 0.0 0.0 0.0
000030 00 00 00 00 00 00 00 00 00 00 00 00 00 00 00 00
       0.0 0.0 0.0 0.0
000040 00 00 00 00 00 00 00 00
       0.0 0.0

base.mlp.fc1.0.weight f4 [64, 18]
000000 60 32 a4 3d 61 8e 0f be 4b ce dc bd 62 66 4d be
       0.08017421 -0.14019157 -0.10781535 -0.20058587
000010 dd 57 f5 3d 40 2c 1e 3e c4 cd 6a 3d 59 0c aa be
       0.11979649 0.15446568 0.05732514 -0.33212546
000020 a9 af 31 be a7 e2 09 bf 20 bf de 3d 9e fd a5 3e
       -0.17352165 -0.5386147 0.10876298 0.32420057
000030 77 b4 79 be 5f 67 7f be 17 b6 67 3e 94 30 7e 3c
       -0.24385248 -0.24941777 0.22628056 0.015514512
000040 5d c4 79 bd 4a 8f 6e be 1d d9 6d be c9 f1 55 bd
       -0.060978282 -0.23296848 -0.23227353 -0.052232537
000050 3e 68 f0 3d a3 3e b8 3e dc 5c 67 3e b5 2f d7 ba
       0.117386326 0.35985288 0.22594017 -0.0016417416
000060 a6 8d 55 3d 8b 47 44 be 3f 6c af be 32 06 eb 3b
       0.05213704 -0.19167916 -0.34262273 0.0071723694
000070 99 e8 f3 bd 88 9d f5 bd d4 a2 a4 3c 07 d4 74 3e
       -0.11909599 -0.11992937 0.020097174 0.23909007
000080 39 fd 48 3e bf ae c9 bd b1 80 88 be e4 11 82 3d
       0.19627847 -0.09847783 -0.26660684 0.063510686
000090 19 ee 1d be 94 26 af 3c e4 56 8d bd 53 c8 e6 bd
       -0.15422858 0.0213807 -0.06901339 -0.112686776
0000a0 46 ce 48 3e 9c 50 40 3e e5 99 8f 3c 2e d2 d6 3c
       0.19609937 0.1878075 0.017529437 0.026223268
0000b0 ca 84 42 be c4 de 1a 3f 06 21 bd bd 57 d4 0b 3e
       -0.18995968 0.60496163 -0.09234814 0.1365522
0000c0 5d 3d 8a 3d c3 34 6f be a1 3f 92 be f9 c5 a5 bd
       0.06749985 -0.23359971 -0.2856417 -0.08094401
0000d0 a8 e7 22 3e 5b 9c 88 3b f7 25 ca 3d 0d 14 c6 bc
       0.15908682 0.0041690296 0.098705225 -0.024179483
0000e0 f7 14 08 3e b9 2c 1e be cd ba 0b be 4f 7f 0e bf
       0.13289247 -0.15446748 -0.13645478 -0.5566301
0000f0 b0 05 4e bd 92 e7 a8 be 91 4c f2 bc 62 60 72 3e
       -0.050298393 -0.32989174 -0.029577525 0.2366958
000100 bc f1 79 3d ae 72 59 3e c7 ba c4 3d 46 8f e4 3d
       0.06102155 0.21235153 0.096059375 0.1116014
000110 0b b9 20 3e fd 35 6d 3e bd b3 0d be 34 d8 39 be
       0.15695588 0.23165126 -0.13838096 -0.18148881
000120 3c 26 04 be 63 21 2c 3d 79 6e 3d be fd 60 48 be
       -0.1290521 0.042024028 -0.18499173 -0.19568248
000130 65 51 74 be 0b 7e 8b 3d 41 84 b8 3e 1c e7 84 be
       -0.23859175 0.0681115 0.36038402 -0.25957572
000140 f4 3a b7 bd 8b b5 5f 3e fa 6d b3 be 68 5c 34 3e
       -0.08946791 0.21846597 -0.35044843 0.17613375
000150 8d d2 8e bd 08 9d 83 3d cb 7e 8f bc e1 3e d3 3e
       -0.06973753 0.06426436 -0.017516514 0.4125891
000160 6a e3 55 3e cb 85 ca 3e e6 9c 79 be 24 f9 75 be
       0.20887533 0.395552 -0.24376258 -0.24020821
000170 08 3c 6b 3d 51 48 4e 3e 79 c0 a2 bd ad b4 05 3e
       0.057430297 0.20144774 -0.079468675 0.13057204
000180 77 0a 34 3e 6e 45 3b bd 29 24 2a be e9 af 32 be
       0.17582117 -0.04572051 -0.16615357 -0.17449917
000190 c1 9f 4b 3e b0 17 de bd b9 05 19 be 31 d5 a9 3c
       0.1988516 -0.10844362 -0.1494359 0.02073154
0001a0 59 6f 10 3e b4 6b d1 bc 6e 5d 44 3e 19 28 99 bc
       0.14104976 -0.025564052 0.19176266 -0.018695878
0001b0 25 02 17 3e 2b f0 55 3e f1 85 b7 3d b8 0c 52 3d
       0.14746912 0.20892398 0.08961094 0.05128166
0001c0 1b 02 13 be 7f 9a b8 bd ec c1 50 bd 41 7c 22 3e
       -0.14356272 -0.09013843 -0.05096619 0.15867712
0001d0 57 e5 d0 bd d5 46 03 3e c9 55 cf bd e3 40 65 be
       -0.10199993 0.12819989 -0.10123784 -0.22388034
0001e0 7b fd c8 be eb 8a 8a bd c7 35 2e be cc be 58 be
       -0.3925589 -0.06764778 -0.17012702 -0.21166533
0001f0 92 36 2e 3e 16 dc 56 be 64 f5 96 be 61 f0 84 be
       0.17013004 -0.20982394 -0.29484093 -0.25964645
000200 65 0a 31 bc 67 19 d9 be 2d 13 4e bd 93 3e db bc
       -0.010805701 -0.42402193 -0.050311256 -0.026763236
000210 33 25 3e bd be 17 31 be e8 f1 f2 3c 0f 6a a5 3d
       -0.046422195 -0.17294213 0.029656366 0.0807687
000220 fa a3 98 3b 5c 59 2c be 0f 09 65 3e 55 12 03 bf
       0.0046582194 -0.16830963 0.22366737 -0.5119985
000230 fb a9 ad 3e ef 46 03 be ac 2b 83 3e 4f f9 eb bd
       0.33918747 -0.12820028 0.25619256 -0.11522161
000240 f1 59 a9 bd cd ea 1a be 41 14 dd be 76 f8 c7 3d
       -0.08269108 -0.15128632 -0.43179515 0.09764187
000250 95 5e 9a be aa a8 7c be 21 fd 12 3e 47 43 9a be
       -0.30150285 -0.24673715 0.14354374 -0.30129454
000260 01 4c 2d 3d 70 24 e9 3d b3 9e 80 be f1 5a 10 3e
       0.04230881 0.11383903 -0.25121078 0.14097191
000270 e5 d6 f5 be ba c2 05 be 4f 92 c6 bd d0 c5 26 3c
       -0.48015514 -0.13062564 -0.09695875 0.010178998
000280 f4 65 21 3e 89 29 6e 3e 1d ca 51 3d 24 d6 23 be
       0.15761548 0.23258032 0.05121814 -0.15999657
000290 ea 92 f3 bd d3 18 53 be da 54 c0 3e b7 bb c0 3c
       -0.11893256 -0.20614938 0.37564737 0.02352701
0002a0 f1 2b 81 bd 77 55 35 3d 64 71 b7 bd 08 d2 81 3d
       -0.06307209 0.04427096 -0.089571744 0.063388884
0002b0 7f 8b b4 be 26 e0 c7 bc 59 2e c7 bd 16 a8 78 3e
       -0.35262677 -0.024398874 -0.09725637 0.2428287
0002c0 55 b5 a8 be dc ec 0f 3e 0e f3 89 bd 04 59 3c bd
       -0.32950845 0.14055198 -0.06735812 -0.04598333
0002d0 39 12 82 be 0b 30 53 be 80 a5 64 bd e9 66 a8 bd
       -0.25404528 -0.20623796 -0.055821896 -0.082227536
0002e0 30 0e 30 3e af 82 35 3e c5 c8 b3 3d 99 ef ef 3e
       0.17192912 0.17725633 0.08778528 0.46862486
0002f0 f0 b4 cb 3d cf 0f cc 3e 60 0b 1e be b2 40 5b 3d
       0.099466205 0.3985581 -0.15434027 0.053528495
000300 eb cd 02 3f b2 0a 97 3d 85 dd 72 3e 7c b2 42 3e
       0.51095456 0.07375087 0.23717315 0.19013399
000310 3b d3 3f 3e 4b 95 ac 3d c7 10 29 3c e3 f1 f5 bd
       0.18732922 0.08426913 0.010318941 -0.12009027
000320 10 90 66 be 0e ef 4f be af 31 ec 3c 16 97 d4 bd
       -0.22515893 -0.20306036 0.028832285 -0.1038038
000330 2c 3c 44 3d 22 2a 1b 3e c0 4d 89 3e ae 83 06 be
       0.047908947 0.15152791 0.2681713 -0.1313617
000340 cc 14 52 be 43 6a 39 be 3e db 3e be 6a 6b 5a 3e
       -0.20515746 -0.18106942 -0.18638322 0.21330038
000350 b4 52 78 3e 95 7b ad 3d 2a 3c 58 3d d5 ee 0c 3e
       0.24250299 0.08470837 0.052791752 0.13762982
000360 2e e4 4c be d9 14 28 3c 5e a4 9e be af 83 99 3d
       -0.20008919 0.010258877 -0.30984777 0.0749582
000370 37 9a c6 be fd 87 32 be 26 7b 59 3d 2e 3b 10 be
       -0.38789532 -0.17434688 0.05309596 -0.14085075
000380 86 56 a5 be 93 f0 23 3e 53 82 d7 3d 1e 8d 09 3e
       -0.32292575 0.1600974 0.10522904 0.13432738
000390 ba 28 1c 3e ad 75 7a be 9e 8b 3b be ce 70 b9 bd
       0.15249911 -0.24458952 -0.18314978 -0.09054719
0003a0 8d bc b6 bd b3 d3 f6 be 73 84 19 be a1 42 af 3e
       -0.08922682 -0.4820839 -0.14991932 0.3423052
0003b0 7f f1 88 be c4 b5 bd 3e 35 bd b5 bd c7 f9 1e be
       -0.26746747 0.3705274 -0.08873979 -0.1552497
0003c0 b9 11 4b bd b8 e8 9c bd a8 75 0d 3e 6a 12 a1 3c
       -0.04957745 -0.07661575 0.13814414 0.0196621
0003d0 4d d9 5d 3d 14 68 f7 be fd c0 6e 3e 42 73 0e bd
       0.054162312 -0.48321593 0.23315807 -0.034777887
0003e0 97 d1 f6 bc b5 44 45 be 71 c7 47 3d 5c 8e 26 3e
       -0.030129237 -0.19264491 0.048774187 0.16265243
0003f0 1b 90 79 bd 01 d5 0d 3e 15 ce f1 bd a4 63 ed 3d
       -0.060928445 0.13850786 -0.11806885 0.115912706

base.mlp.fc1.0.bias f4 [64]
000000 00 00 00 00 00 00 00 00 00 00 00 00 00 00 00 00
       0.0 0.0 0.0 0.0
000010 00 00 00 00 00 00 00 00 00 00 00 00 00 00 00 00
       0.0 0.0 0.0 0.0
000020 00 00 00 00 00 00 00 00 00 00 00 00 00 00 00 00
       0.0 0.0 0.0 0.0
000030 00 00 00 00 00 00 00 00 00 00 00 00 00 00 00 00
       0.0 0.0 0.0 0.0
000040 00 00 00 00 00 00 00 00 00 00 00 00 00 00 00 00
       0.0 0.0 0.0 0.0
000050 00 00 00 00 00 00 00 00 00 00 00 00 00 00 00 00
       0.0 0.0 0.0 0.0
000060 00 00 00 00 00 00 00 00 00 00 00 00 00 00 00 00
       0.0 0.0 0.0 0.0
000070 00 00 00 00 00 00 00 00 00 00 00 00 00 00 00 00
       0.0 0.0 0.0 0.0
000080 00 00 00 00 00 00 00 00 00 00 00 00 00 00 00 00
       0.0 0.0 0.0 0.0
000090 00 00 00 00 00 00 00 00 00 00 00 00 00 00 00 00
       0.0 0.0 0.0 0.0
0000a0 00 00 00 00 00 00 00 00 00 00 00 00 00 00 00 00
       0.0 0.0 0.0 0.0
0000b0 00 00 00 00 00 00 00 00 00 00 00 00 00 00 00 00
       0.0 0.0 0.0 0.0
0000c0 00 00 00 00 00 00 00 00 00 00 00 00 00 00 00 00
       0.0 0.0 0.0 0.0
0000d0 00 00 00 00 00 00 00 00 00 00 00 00 00 00 00 00
       0.0 0.0 0.0 0.0
0000e0 00 00 00 00 00 00 00 00 00 00 00 00 00 00 00 00
       0.0 0.0 0.0 0.0
0000f0 00 00 00 00 00 00 00 00 00 00 00 00 00 00 00 00
       0.0 0.0 0.0 0.0

base.mlp.fc1.2.weight f4 [64]
000000 00 00 80 3f 00 00 80 3f 00 00 80 3f 00 00 80 3f
       1.0 1.0 1.0 1.0
000010 00 00 80 3f 00 00 80 3f 00 00 80 3f 00 00 80 3f
       1.0 1.0 1.0 1.0
000020 00 00 80 3f 00 00 80 3f 00 00 80 3f 00 00 80 3f
       1.0 1.0 1.0 1.0
000030 00 00 80 3f 00 00 80 3f 00 00 80 3f 00 00 80 3f
       1.0 1.0 1.0 1.0
000040 00 00 80 3f 00 00 80 3f 00 00 80 3f 00 00 80 3f
       1.0 1.0 1.0 1.0
000050 00 00 80 3f 00 00 80 3f 00 00 80 3f 00 00 80 3f
       1.0 1.0 1.0 1.0
000060 00 00 80 3f 00 00 80 3f 00 00 80 3f 00 00 80 3f
       1.0 1.0 1.0 1.0
000070 00 00 80 3f 00 00 80 3f 00 00 80 3f 00 00 80 3f
       1.0 1.0 1.0 1.0
000080 00 00 80 3f 00 00 80 3f 00 00 80 3f 00 00 80 3f
       1.0 1.0 1.0 1.0
000090 00 00 80 3f 00 00 80 3f 00 00 80 3f 00 00 80 3f
       1.0 1.0 1.0 1.0
0000a0 00 00 80 3f 00 00 80 3f 00 00 80 3f 00 00 80 3f
       1.0 1.0 1.0 1.0
0000b0 00 00 80 3f 00 00 80 3f 00 00 80 3f 00 00 80 3f
       1.0 1.0 1.0 1.0
0000c0 00 00 80 3f 00 00 80 3f 00 00 80 3f 00 00 80 3f
       1.0 1.0 1.0 1.0
0000d0 00 00 80 3f 00 00 80 3f 00 00 80 3f 00 00 80 3f
       1.0 1.0 1.0 1.0
0000e0 00 00 80 3f 00 00 80 3f 00 00 80 3f 00 00 80 3f
       1.0 1.0 1.0 1.0
0000f0 00 00 80 3f 00 00 80 3f 00 00 80 3f 00 00 80 3f
       1.0 1.0 1.0 1.0

base.mlp.fc1.2.bias f4 [64]
000000 00 00 00 00 00 00 00 00 00 00 00 00 00 00 00 00
       0.0 0.0 0.0 0.0
000010 00 00 00 00 00 00 00 00 00 00 00 00 00 00 00 00
       0.0 0.0 0.0 0.0
000020 00 00 00 00 00 00 00 00 00 00 00 00 00 00 00 00
       0.0 0.0 0.0 0.0
000030 00 00 00 00 00 00 00 00 00 00 00 00 00 00 00 00
       0.0 0.0 0.0 0.0
000040 00 00 00 00 00 00 00 00 00 00 00 00 00 00 00 00
       0.0 0.0 0.0 0.0
000050 00 00 00 00 00 00 00 00 00 00 00 00 00 00 00 00
       0.0 0.0 0.0 0.0
000060 00 00 00 00 00 00 00 00 00 00 00 00 00 00 00 00
       0.0 0.0 0.0 0.0
000070 00 00 00 00 00 00 00 00 00 00 00 00 00 00 00 00
       0.0 0.0 0.0 0.0
000080 00 00 00 00 00 00 00 00 00 00 00 00 00 00 00 00
       0.0 0.0 0.0 0.0
000090 00 00 00 00 00 00 00 00 00 00 00 00 00 00 00 00
       0.0 0.0 0.0 0.0
0000a0 00 00 00 00 00 00 00 00 00 00 00 00 00 00 00 00
       0.0 0.0 0.0 0.0
0000b0 00 00 00 00 00 00 00 00 00 00 00 00 00 00 00 00
       0.0 0.0 0.0 0.0
0000c0 00 00 00 00 00 00 00 00 00 00 00 00 00 00 00 00
       0.0 0.0 0.0 0.0
0000d0 00 00 00 00 00 00 00 00 00 00 00 00 00 00 00 00
       0.0 0.0 0.0 0.0
0000e0 00 00 00 00 00 00 00 00 00 00 00 00 00 00 00 00
       0.0 0.0 0.0 0.0
0000f0 00 00 00 00 00 00 00 00 00 00 00 00 00 00 00 00
       0.0 0.0 0.0 0.0

base.mlp.fc_h.0.weight f4 [64, 64]
000000 15 d8 e2 3d 22 a7 1c bd 04 2b 49 3d b7 d7 6b be
       0.110763706 -0.038245328 0.04911329 -0.23031507
000010 b2 48 8b 3b 6d 67 78 3e 81 83 c3 3d c3 dd 87 3e
       0.0042506093 0.24258204 0.09546567 0.26536378
000020 80 b6 35 3d 8d dc 04 bd f0 ca 32 3e be db 2f be
       0.0443635 -0.032436896 0.17460227 -0.17173669
000030 aa 2c e7 bd 4c 0d 65 be e8 f4 4f be ca 97 0a 3e
       -0.11287816 -0.22368354 -0.20308268 0.13534465
000040 42 e5 8a be a9 d1 d5 3b a8 e9 5c 3c fc 74 1c 3d
       -0.27128035 0.0065252376 0.013483442 0.038197502
000050 10 5a 50 3d d3 c9 8b be 81 f9 61 3e 7e a5 47 3e
       0.05086714 -0.27302417 0.22067834 0.19496724
000060 2b 5f 93 be 9a e8 88 be ac 7f 65 bc 78 10 40 bd
       -0.28783545 -0.2673996 -0.01400749 -0.046890706
000070 a3 20 3c be 4e d1 e4 be a8 f6 88 3d 84 b4 35 be
       -0.18371825 -0.44690937 0.06687671 -0.17744642
000080 b5 c8 32 3e 13 a8 23 bf 83 03 68 3e 63 6a 8c be
       0.17459376 -0.63928336 0.2265759 -0.27424917
000090 c4 58 7e be ae 14 37 be f4 1b 6f be 56 a7 fa bd
       -0.24838549 -0.17878982 -0.23350507 -0.12238948
0000a0 2f f1 02 3d 85 f0 b9 3d 98 55 87 3e b3 25 96 be
       0.03196829 0.090790786 0.2643249 -0.29325637
0000b0 68 b6 c3 3e b4 02 b0 3d c8 00 e2 3c 35 9e 3e 3e
       0.38225102 0.085942656 0.027588263 0.18615039
0000c0 a5 2c d6 bd 8d 40 03 be 58 4d f0 3d ef 18 88 3e
       -0.10457734 -0.12817593 0.11733502 0.26581523
0000d0 08 c4 f6 3c c0 40 02 be 33 9b a9 be 51 15 02 be
       0.030122772 -0.12720013 -0.3312622 -0.12703444
0000e0 99 6a 56 3e 77 9b 02 3f 30 37 09 3e d2 fc da 3d
       0.20939101 0.5101847 0.13399959 0.10692753
0000f0 60 9c e4 3d 5d 86 11 3d 78 4f 3b 3e 73 17 0c bd
       0.11162639 0.03552853 0.18292034 -0.03420205
000100 5d 0b 16 be 4c ff 1d be cf f3 66 bd 39 14 36 be
       -0.14652772 -0.1542942 -0.056384858 -0.17781152
000110 66 68 ac 3e a8 67 fa bd 2e 75 4f be b9 ad cd bb
       0.336734 -0.12226802 -0.20259544 -0.006276813
000120 0d fb 85 3e 92 da 4a bd 5c b6 40 bd 55 85 e1 bd
       0.261681 -0.04952485 -0.04704891 -0.11011759
000130 46 09 bb ba ff 08 52 be f0 9b 3e 3a cd e8 83 bd
       -0.0014269731 -0.20511244 0.00072711613 -0.064408876
000140 bd e9 8f 3e 11 25 ea 3b eb 7d 86 3e 04 fd 65 be
       0.28108016 0.007145532 0.26267943 -0.22459799
000150 5d b2 1b 3e c3 b0 a7 be 96 58 6e be fc ad 26 3c
       0.15204759 -0.32752046 -0.2327598 0.010173317
000160 df a0 81 bd 1e b0 fe 3d f4 d5 5f 3d ec b3 d5 3d
       -0.06329512 0.124359354 0.0546474 0.10434708
000170 23 ec 7a be be 90 bc 3e d3 bb 5f bd ac 88 b4 bd
       -0.24504142 0.3682918 -0.054622483 -0.088151306
000180 12 b9 de bd 26 65 4f bc 09 ff ec 3e fa f9 bb be
       -0.10875143 -0.012658393 0.46288326 -0.36714154
000190 f1 15 12 bb 27 8e 98 be e5 02 49 3e 66 b9 cb 3d
       -0.002229091 -0.29795954 0.1963001 0.09947471
0001a0 a6 d9 22 be c3 af ec 3e f4 a5 9d be be 9a e5 3e
       -0.15903339 0.46227846 -0.30790675 0.4484462
0001b0 b0 d3 43 3d af cb 3b bd 2a e6 8d bc f7 43 80 be
       0.047809303 -0.045848545 -0.017321665 -0.25051853
0001c0 65 99 04 3e 08 14 36 3c f3 60 b3 3d 01 ee 33 be
       0.1294914 0.011113174 0.08758726 -0.1757126
0001d0 49 8d 98 be b7 a2 44 be 31 cf 5e bd 38 a4 3a 3e
       -0.29795292 -0.19202696 -0.054396812 0.18226707
0001e0 df 2b 8b be 4f 45 96 3e 3a a9 c1 3e 52 50 71 bd
       -0.27181908 0.29349753 0.37824422 -0.05891449
0001f0 8a ed 93 3e e4 68 01 3e c0 24 72 ba 41 da 64 be
       0.28892165 0.12637669 -0.00092370436 -0.22348882
000200 38 95 d8 bc 11 da 3f bf ed 2d 11 3e 6b ad c2 bc
       -0.02643834 -0.7494212 0.14177676 -0.023764333
000210 6c ad 27 be bc 9a 48 bd 6d 30 5a be d3 7e 94 bd
       -0.16374749 -0.04897569 -0.21307535 -0.07250752
000220 0a 78 9c 3e 43 89 91 3e 32 ac 37 be d4 9a 0c bd
       0.30560333 0.28425035 -0.17936781 -0.034327343
000230 a5 be d0 bd 23 ec 92 be 16 43 11 3e 64 a4 a0 3e
       -0.101926126 -0.28695783 0.14185748 0.3137542
000240 a2 c9 34 bd 53 2e 67 be ba e3 96 be e0 b1 3e bd
       -0.044137605 -0.22576265 -0.29470617 -0.046556354
000250 2f 65 43 3e 2b 15 c7 3d fc ce 82 3c 00 28 3f 3e
       0.19081567 0.09720834 0.015967838 0.18667603
000260 1e 6e 48 bd 77 16 37 be b9 db fc bd e9 69 6d bd
       -0.04893314 -0.17879663 -0.12346596 -0.057962332
000270 0b f9 d5 be 0a bf 7f be c8 c6 9a 3d 08 33 79 3e
       -0.41791567 -0.2497522 0.07557446 0.24335873
000280 9f 51 19 be 4e 14 e4 3d d6 c3 30 bd 7b e9 b9 bb
       -0.14972542 0.11136685 -0.043155514 -0.005673585
000290 3e b1 de 3c cb 05 0a 3d 95 62 01 3d eb eb 80 bd
       0.027184125 0.03369693 0.031588156 -0.06294998
0002a0 de d9 95 3d 1b d8 b0 be 16 a9 61 be 36 57 c3 bd
       0.073169455 -0.34539875 -0.22037157 -0.095381185
0002b0 c3 40 c8 3d 88 7b 47 3e 80 10 58 3e af 7f 5a 3c
       0.09777977 0.19480717 0.21100044 0.013336106
0002c0 34 fe 11 3e 65 ae 89 3e c0 c0 9c be c3 6a 9d 3c
       0.14257127 0.26890865 -0.30615807 0.019215947
0002d0 9d df ac bc 47 8e f8 bc ac 30 9f 3e e5 22 dc bd
       -0.02110272 -0.03034128 0.3109182 -0.10748843
0002e0 10 60 52 be 37 ec 49 3e 60 a7 40 be 31 b6 8c be
       -0.20544457 0.19719015 -0.18813848 -0.2748275
0002f0 76 0e 9c 3e 13 28 ce be 9f 79 6c be 5a df 70 bd
       0.30479783 -0.4026495 -0.2309327 -0.058806755
000300 de ea 5c 3d 14 90 72 3e 17 3f 61 bc a0 af be be
       0.053934924 0.23687774 -0.013747952 -0.37243366
000310 e6 c9 bc bd 31 06 b9 bd 3f 47 96 be 63 56 02 3e
       -0.092181966 -0.09034384 -0.2935123 0.12728266
000320 78 b8 86 be f5 57 b2 3d 82 b9 20 bd 13 88 7d 3d
       -0.26312613 0.08708183 -0.039239414 0.06189735
000330 2b 6a e2 be 07 5a c1 bc cd cb 12 3e c4 a5 26 3e
       -0.44221625 -0.023602499 0.14335556 0.16274172
000340 dd b0 87 be 75 e7 64 3e 0a c5 f4 bd 09 7d 77 3e
       -0.26502123 0.22353919 -0.11951645 0.24168791
000350 7e da 03 3d ca a6 19 be b1 a2 87 be c2 49 e0 bd
       0.032190792 -0.15005031 -0.2649131 -0.10951568
000360 c7 b8 57 bd da d4 9b 3d d4 94 b5 be b5 e5 88 be
       -0.05266645 0.076089576 -0.3546511 -0.26737753
000370 6c 8a a3 3d 16 51 49 3e 5e b6 33 3d 50 24 46 3e
       0.07985386 0.19659838 0.04387509 0.1934979
000380 8c 8c 13 3e 10 37 e3 3e c8 f8 0e be ae 21 be bd
       0.14409083 0.44377947 -0.1396209 -0.09283768
000390 bb 25 ef 3c cd 9a 05 3d e2 52 c8 be 68 3a f8 3d
       0.029192796 0.032618333 -0.39125735 0.12120515
0003a0 c6 ac 71 3d 65 a8 9c be 5d aa 90 bd 9a ff 6d 3e
       0.05900266 -0.30597225 -0.07063744 0.23242036
0003b0 c6 2a 99 3e 67 0f ca 3c 4c 54 ba 3e 69 48 5b 3d
       0.29915446 0.024665548 0.36392438 0.053535853
0003c0 af 08 22 be 9c 2a 85 3e 62 d0 ab 3e fd 50 80 be
       -0.15823625 0.2600907 0.3355742 -0.2506179
0003d0 0b 23 ab 3d b7 df ed bd 34 9b 15 be da f3 c7 3e
       0.08356293 -0.11614936 -0.14609987 0.3905323
0003e0 9d 3c 9f 3e 5c 47 d2 3d 75 2c 87 3e 81 24 c3 bd
       0.31100932 0.10267517 0.26401106 -0.09528447
0003f0 5d c2 5f 3e d9 ec 85 bd f4 72 5a 3e ca 48 76 3d
       0.21851487 -0.06539316 0.21332914 0.06012801

base.mlp.fc_h.0.bias f4 [64]
000000 00 00 00 00 00 00 00 00 00 00 00 00 00 00 00 00
       0.0 0.0 0.0 0.0
000010 00 00 00 00 00 00 00 00 00 00 00 00 00 00 00 00
       0.0 0.0 0.0 0.0
000020 00 00 00 00 00 00 00 00 00 00 00 00 00 00 00 00
       0.0 0.0 0.0 0.0
000030 00 00 00 00 00 00 00 00 00 00 00 00 00 00 00 00
       0.0 0.0 0.0 0.0
000040 00 00 00 00 00 00 00 00 00 00 00 00 00 00 00 00
       0.0 0.0 0.0 0.0
000050 00 00 00 00 00 00 00 00 00 00 00 00 00 00 00 00
       0.0 0.0 0.0 0.0
000060 00 00 00 00 00 00 00 00 00 00 00 00 00 00 00 00
       0.0 0.0 0.0 0.0
000070 00 00 00 00 00 00 00 00 00 00 00 00 00 00 00 00
       0.0 0.0 0.0 0.0
000080 00 00 00 00 00 00 00 00 00 00 00 00 00 00 00 00
       0.0 0.0 0.0 0.0
000090 00 00 00 00 00 00 00 00 00 00 00 00 00 00 00 00
       0.0 0.0 0.0 0.0
0000a0 00 00 00 00 00 00 00 00 00 00 00 00 00 00 00 00
       0.0 0.0 0.0 0.0
0000b0 00 00 00 00 00 00 00 00 00 00 00 00 00 00 00 00
       0.0 0.0 0.0 0.0
0000c0 00 00 00 00 00 00 00 00 00 00 00 00 00 00 00 00
       0.0 0.0 0.0 0.0
0000d0 00 00 00 00 00 00 00 00 00 00 00 00 00 00 00 00
       0.0 0.0 0.0 0.0
0000e0 00 00 00 00 00 00 00 00 00 00 00 00 00 00 00 00
       0.0 0.0 0.0 0.0
0000f0 00 00 00 00 00 00 00 00 00 00 00 00 00 00 00 00
       0.0 0.0 0.0 0.0

base.mlp.fc_h.2.weight f4 [64]
000000 00 00 80 3f 00 00 80 3f 00 00 80 3f 00 00 80 3f
       1.0 1.0 1.0 1.0
000010 00 00 80 3f 00 00 80 3f 00 00 80 3f 00 00 80 3f
       1.0 1.0 1.0 1.0
000020 00 00 80 3f 00 00 80 3f 00 00 80 3f 00 00 80 3f
       1.0 1.0 1.0 1.0
000030 00 00 80 3f 00 00 80 3f 00 00 80 3f 00 00 80 3f
       1.0 1.0 1.0 1.0
000040 00 00 80 3f 00 00 80 3f 00 00 80 3f 00 00 80 3f
       1.0 1.0 1.0 1.0
000050 00 00 80 3f 00 00 80 3f 00 00 80 3f 00 00 80 3f
       1.0 1.0 1.0 1.0
000060 00 00 80 3f 00 00 80 3f 00 00 80 3f 00 00 80 3f
       1.0 1.0 1.0 1.0
000070 00 00 80 3f 00 00 80 3f 00 00 80 3f 00 00 80 3f
       1.0 1.0 1.0 1.0
000080 00 00 80 3f 00 00 80 3f 00 00 80 3f 00 00 80 3f
       1.0 1.0 1.0 1.0
000090 00 00 80 3f 00 00 80 3f 00 00 80 3f 00 00 80 3f
       1.0 1.0 1.0 1.0
0000a0 00 00 80 3f 00 00 80 3f 00 00 80 3f 00 00 80 3f
       1.0 1.0 1.0 1.0
0000b0 00 00 80 3f 00 00 80 3f 00 00 80 3f 00 00 80 3f
       1.0 1.0 1.0 1.0
0000c0 00 00 80 3f 00 00 80 3f 00 00 80 3f 00 00 80 3f
       1.0 1.0 1.0 1.0
0000d0 00 00 80 3f 00 00 80 3f 00 00 80 3f 00 00 80 3f
       1.0 1.0 1.0 1.0
0000e0 00 00 80 3f 00 00 80 3f 00 00 80 3f 00 00 80 3f
       1.0 1.0 1.0 1.0
0000f0 00 00 80 3f 00 00 80 3f 00 00 80 3f 00 00 80 3f
       1.0 1.0 1.0 1.0

base.mlp.fc_h.2.bias f4 [64]
000000 00 00 00 00 00 00 00 00 00 00 00 00 00 00 00 00
       0.0 0.0 0.0 0.0
000010 00 00 00 00 00 00 00 00 00 00 00 00 00 00 00 00
       0.0 0.0 0.0 0.0
000020 00 00 00 00 00 00 00 00 00 00 00 00 00 00 00 00
       0.0 0.0 0.0 0.0
000030 00 00 00 00 00 00 00 00 00 00 00 00 00 00 00 00
       0.0 0.0 0.0 0.0
000040 00 00 00 00 00 00 00 00 00 00 00 00 00 00 00 00
       0.0 0.0 0.0 0.0
000050 00 00 00 00 00 00 00 00 00 00 00 00 00 00 00 00
       0.0 0.0 0.0 0.0
000060 00 00 00 00 00 00 00 00 00 00 00 00 00 00 00 00
       0.0 0.0 0.0 0.0
000070 00 00 00 00 00 00 00 00 00 00 00 00 00 00 00 00
       0.0 0.0 0.0 0.0
000080 00 00 00 00 00 00 00 00 00 00 00 00 00 00 00 00
       0.0 0.0 0.0 0.0
000090 00 00 00 00 00 00 00 00 00 00 00 00 00 00 00 00
       0.0 0.0 0.0 0.0
0000a0 00 00 00 00 00 00 00 00 00 00 00 00 00 00 00 00
       0.0 0.0 0.0 0.0
0000b0 00 00 00 00 00 00 00 00 00 00 00 00 00 00 00 00
       0.0 0.0 0.0 0.0
0000c0 00 00 00 00 00 00 00 00 00 00 00 00 00 00 00 00
       0.0 0.0 0.0 0.0
0000d0 00 00 00 00 00 00 00 00 00 00 00 00 00 00 00 00
       0.0 0.0 0.0 0.0
0000e0 00 00 00 00 00 00 00 00 00 00 00 00 00 00 00 00
       0.0 0.0 0.0 0.0
0000f0 00 00 00 00 00 00 00 00 00 00 00 00 00 00 00 00
       0.0 0.0 0.0 0.0

base.mlp.fc2.0.0.weight f4 [64, 64]
000000 15 d8 e2 3d 22 a7 1c bd 04 2b 49 3d b7 d7 6b be
       0.110763706 -0.038245328 0.04911329 -0.23031507
000010 b2 48 8b 3b 6d 67 78 3e 81 83 c3 3d c3 dd 87 3e
       0.0042506093 0.24258204 0.09546567 0.26536378
000020 80 b6 35 3d 8d dc 04 bd f0 ca 32 3e be db 2f be
       0.0443635 -0.032436896 0.17460227 -0.17173669
000030 aa 2c e7 bd 4c 0d 65 be e8 f4 4f be ca 97 0a 3e
       -0.11287816 -0.22368354 -0.20308268 0.13534465
000040 42 e5 8a be a9 d1 d5 3b a8 e9 5c 3c fc 74 1c 3d
       -0.27128035 0.0065252376 0.013483442 0.038197502
000050 10 5a 50 3d d3 c9 8b be 81 f9 61 3e 7e a5 47 3e
       0.05086714 -0.27302417 0.22067834 0.19496724
000060 2b 5f 93 be 9a e8 88 be ac 7f 65 bc 78 10 40 bd
       -0.28783545 -0.2673996 -0.01400749 -0.046890706
000070 a3 20 3c be 4e d1 e4 be a8 f6 88 3d 84 b4 35 be
       -0.18371825 -0.44690937 0.06687671 -0.17744642
000080 b5 c8 32 3e 13 a8 23 bf 83 03 68 3e 63 6a 8c be
       0.17459376 -0.63928336 0.2265759 -0.27424917
000090 c4 58 7e be ae 14 37 be f4 1b 6f be 56 a7 fa bd
       -0.24838549 -0.17878982 -0.23350507 -0.12238948
0000a0 2f f1 02 3d 85 f0 b9 3d 98 55 87 3e b3 25 96 be
       0.03196829 0.090790786 0.2643249 -0.29325637
0000b0 68 b6 c3 3e b4 02 b0 3d c8 00 e2 3c 35 9e 3e 3e
       0.38225102 0.085942656 0.027588263 0.18615039
0000c0 a5 2c d6 bd 8d 40 03 be 58 4d f0 3d ef 18 88 3e
       -0.10457734 -0.12817593 0.11733502 0.26581523
0000d0 08 c4 f6 3c c0 40 02 be 33 9b a9 be 51 15 02 be
       0.030122772 -0.12720013 -0.3312622 -0.12703444
0000e0 99 6a 56 3e 77 9b 02 3f 30 37 09 3e d2 fc da 3d
       0.20939101 0.5101847 0.13399959 0.10692753
0000f0 60 9c e4 3d 5d 86 11 3d 78 4f 3b 3e 73 17 0c bd
       0.11162639 0.03552853 0.18292034 -0.03420205
000100 5d 0b 16 be 4c ff 1d be cf f3 66 bd 39 14 36 be
       -0.14652772 -0.1542942 -0.056384858 -0.17781152
000110 66 68 ac 3e a8 67 fa bd 2e 75 4f be b9 ad cd bb
       0.336734 -0.12226802 -0.20259544 -0.006276813
000120 0d fb 85 3e 92 da 4a bd 5c b6 40 bd 55 85 e1 bd
       0.261681 -0.04952485 -0.04704891 -0.11011759
000130 46 09 bb ba ff 08 52 be f0 9b 3e 3a cd e8 83 bd
       -0.0014269731 -0.20511244 0.00072711613 -0.064408876
000140 bd e9 8f 3e 11 25 ea 3b eb 7d 86 3e 04 fd 65 be
       0.28108016 0.007145532 0.26267943 -0.22459799
000150 5d b2 1b 3e c3 b0 a7 be 96 58 6e be fc ad 26 3c
       0.15204759 -0.32752046 -0.2327598 0.010173317
000160 df a0 81 bd 1e b0 fe 3d f4 d5 5f 3d ec b3 d5 3d
       -0.06329512 0.124359354 0.0546474 0.10434708
000170 23 ec 7a be be 90 bc 3e d3 bb 5f bd ac 88 b4 bd
       -0.24504142 0.3682918 -0.054622483 -0.088151306
000180 12 b9 de bd 26 65 4f bc 09 ff ec 3e fa f9 bb be
       -0.10875143 -0.012658393 0.46288326 -0.36714154
000190 f1 15 12 bb 27 8e 98 be e5 02 49 3e 66 b9 cb 3d
       -0.002229091 -0.29795954 0.1963001 0.09947471
0001a0 a6 d9 22 be c3 af ec 3e f4 a5 9d be be 9a e5 3e
       -0.15903339 0.46227846 -0.30790675 0.4484462
0001b0 b0 d3 43 3d af cb 3b bd 2a e6 8d bc f7 43 80 be
       0.047809303 -0.045848545 -0.017321665 -0.25051853
0001c0 65 99 04 3e 08 14 36 3c f3 60 b3 3d 01 ee 33 be
       0.1294914 0.011113174 0.08758726 -0.1757126
0001d0 49 8d 98 be b7 a2 44 be 31 cf 5e bd 38 a4 3a 3e
       -0.29795292 -0.19202696 -0.054396812 0.18226707
0001e0 df 2b 8b be 4f 45 96 3e 3a a9 c1 3e 52 50 71 bd
       -0.27181908 0.29349753 0.37824422 -0.05891449
0001f0 8a ed 93 3e e4 68 01 3e c0 24 72 ba 41 da 64 be
       0.28892165 0.12637669 -0.00092370436 -0.22348882
000200 38 95 d8 bc 11 da 3f bf ed 2d 11 3e 6b ad c2 bc
       -0.02643834 -0.7494212 0.14177676 -0.023764333
000210 6c ad 27 be bc 9a 48 bd 6d 30 5a be d3 7e 94 bd
       -0.16374749 -0.04897569 -0.21307535 -0.07250752
000220 0a 78 9c 3e 43 89 91 3e 32 ac 37 be d4 9a 0c bd
       0.30560333 0.28425035 -0.17936781 -0.034327343
000230 a5 be d0 bd 23 ec 92 be 16 43 11 3e 64 a4 a0 3e
       -0.101926126 -0.28695783 0.14185748 0.3137542
000240 a2 c9 34 bd 53 2e 67 be ba e3 96 be e0 b1 3e bd
       -0.044137605 -0.22576265 -0.29470617 -0.046556354
000250 2f 65 43 3e 2b 15 c7 3d fc ce 82 3c 00 28 3f 3e
       0.19081567 0.09720834 0.015967838 0.18667603
000260 1e 6e 48 bd 77 16 37 be b9 db fc bd e9 69 6d bd
       -0.04893314 -0.17879663 -0.12346596 -0.057962332
000270 0b f9 d5 be 0a bf 7f be c8 c6 9a 3d 08 33 79 3e
       -0.41791567 -0.2497522 0.07557446 0.24335873
000280 9f 51 19 be 4e 14 e4 3d d6 c3 30 bd 7b e9 b9 bb
       -0.14972542 0.11136685 -0.043155514 -0.005673585
000290 3e b1 de 3c cb 05 0a 3d 95 62 01 3d eb eb 80 bd
       0.027184125 0.03369693 0.031588156 -0.06294998
0002a0 de d9 95 3d 1b d8 b0 be 16 a9 61 be 36 57 c3 bd
       0.073169455 -0.34539875 -0.22037157 -0.095381185
0002b0 c3 40 c8 3d 88 7b 47 3e 80 10 58 3e af 7f 5a 3c
       0.09777977 0.19480717 0.21100044 0.013336106
0002c0 34 fe 11 3e 65 ae 89 3e c0 c0 9c be c3 6a 9d 3c
       0.14257127 0.26890865 -0.30615807 0.019215947
0002d0 9d df ac bc 47 8e f8 bc ac 30 9f 3e e5 22 dc bd
       -0.02110272 -0.03034128 0.3109182 -0.10748843
0002e0 10 60 52 be 37 ec 49 3e 60 a7 40 be 31 b6 8c be
       -0.20544457 0.19719015 -0.18813848 -0.2748275
0002f0 76 0e 9c 3e 13 28 ce be 9f 79 6c be 5a df 70 bd
       0.30479783 -0.4026495 -0.2309327 -0.058806755
000300 de ea 5c 3d 14 90 72 3e 17 3f 61 bc a0 af be be
       0.053934924 0.23687774 -0.013747952 -0.37243366
000310 e6 c9 bc bd 31 06 b9 bd 3f 47 96 be 63 56 02 3e
       -0.092181966 -0.09034384 -0.2935123 0.12728266
000320 78 b8 86 be f5 57 b2 3d 82 b9 20 bd 13 88 7d 3d
       -0.26312613 0.08708183 -0.039239414 0.06189735
000330 2b 6a e2 be 07 5a c1 bc cd cb 12 3e c4 a5 26 3e
       -0.44221625 -0.023602499 0.14335556 0.16274172
000340 dd b0 87 be 75 e7 64 3e 0a c5 f4 bd 09 7d 77 3e
       -0.26502123 0.22353919 -0.11951645 0.24168791
000350 7e da 03 3d ca a6 19 be b1 a2 87 be c2 49 e0 bd
       0.032190792 -0.15005031 -0.2649131 -0.10951568
000360 c7 b8 57 bd da d4 9b 3d d4 94 b5 be b5 e5 88 be
       -0.05266645 0.076089576 -0.3546511 -0.26737753
000370 6c 8a a3 3d 16 51 49 3e 5e b6 33 3d 50 24 46 3e
       0.07985386 0.19659838 0.04387509 0.1934979
000380 8c 8c 13 3e 10 37 e3 3e c8 f8 0e be ae 21 be bd
       0.14409083 0.44377947 -0.1396209 -0.09283768
000390 bb 25 ef 3c cd 9a 05 3d e2 52 c8 be 68 3a f8 3d
       0.029192796 0.032618333 -0.39125735 0.12120515
0003a0 c6 ac 71 3d 65 a8 9c be 5d aa 90 bd 9a ff 6d 3e
       0.05900266 -0.30597225 -0.07063744 0.23242036
0003b0 c6 2a 99 3e 67 0f ca 3c 4c 54 ba 3e 69 48 5b 3d
       0.29915446 0.024665548 0.36392438 0.053535853
0003c0 af 08 22 be 9c 2a 85 3e 62 d0 ab 3e fd 50 80 be
       -0.15823625 0.2600907 0.3355742 -0.2506179
0003d0 0b 23 ab 3d b7 df ed bd 34 9b 15 be da f3 c7 3e
       0.08356293 -0.11614936 -0.14609987 0.3905323
0003e0 9d 3c 9f 3e 5c 47 d2 3d 75 2c 87 3e 81 24 c3 bd
       0.31100932 0.10267517 0.26401106 -0.09528447
0003f0 5d c2 5f 3e d9 ec 85 bd f4 72 5a 3e ca 48 76 3d
       0.21851487 -0.06539316 0.21332914 0.06012801

base.mlp.fc2.0.0.bias f4 [64]
000000 00 00 00 00 00 00 00 00 00 00 00 00 00 00 00 00
       0.0 0.0 0.0 0.0
000010 00 00 00 00 00 00 00 00 00 00 00 00 00 00 00 00
       0.0 0.0 0.0 0.0
000020 00 00 00 00 00 00 00 00 00 00 00 00 00 00 00 00
       0.0 0.0 0.0 0.0
000030 00 00 00 00 00 00 00 00 00 00 00 00 00 00 00 00
       0.0 0.0 0.0 0.0
000040 00 00 00 00 00 00 00 00 00 00 00 00 00 00 00 00
       0.0 0.0 0.0 0.0
000050 00 00 00 00 00 00 00 00 00 00 00 00 00 00 00 00
       0.0 0.0 0.0 0.0
000060 00 00 00 00 00 00 00 00 00 00 00 00 00 00 00 00
       0.0 0.0 0.0 0.0
000070 00 00 00 00 00 00 00 00 00 00 00 00 00 00 00 00
       0.0 0.0 0.0 0.0
000080 00 00 00 00 00 00 00 00 00 00 00 00 00 00 00 00
       0.0 0.0 0.0 0.0
000090 00 00 00 00 00 00 00 00 00 00 00 00 00 00 00 00
       0.0 0.0 0.0 0.0
0000a0 00 00 00 00 00 00 00 00 00 00 00 00 00 00 00 00
       0.0 0.0 0.0 0.0
0000b0 00 00 00 00 00 00 00 00 00 00 00 00 00 00 00 00
       0.0 0.0 0.0 0.0
0000c0 00 00 00 00 00 00 00 00 00 00 00 00 00 00 00 00
       0.0 0.0 0.0 0.0
0000d0 00 00 00 00 00 00 00 00 00 00 00 00 00 00 00 00
       0.0 0.0 0.0 0.0
0000e0 00 00 00 00 00 00 00 00 00 00 00 00 00 00 00 00
       0.0 0.0 0.0 0.0
0000f0 00 00 00 00 00 00 00 00 00 00 00 00 00 00 00 00
       0.0 0.0 0.0 0.0

base.mlp.fc2.0.2.weight f4 [64]
000000 00 00 80 3f 00 00 80 3f 00 00 80 3f 00 00 80 3f
       1.0 1.0 1.0 1.0
000010 00 00 80 3f 00 00 80 3f 00 00 80 3f 00 00 80 3f
       1.0 1.0 1.0 1.0
000020 00 00 80 3f 00 00 80 3f 00 00 80 3f 00 00 80 3f
       1.0 1.0 1.0 1.0
000030 00 00 80 3f 00 00 80 3f 00 00 80 3f 00 00 80 3f
       1.0 1.0 1.0 1.0
000040 00 00 80 3f 00 00 80 3f 00 00 80 3f 00 00 80 3f
       1.0 1.0 1.0 1.0
000050 00 00 80 3f 00 00 80 3f 00 00 80 3f 00 00 80 3f
       1.0 1.0 1.0 1.0
000060 00 00 80 3f 00 00 80 3f 00 00 80 3f 00 00 80 3f
       1.0 1.0 1.0 1.0
000070 00 00 80 3f 00 00 80 3f 00 00 80 3f 00 00 80 3f
       1.0 1.0 1.0 1.0
000080 00 00 80 3f 00 00 80 3f 00 00 80 3f 00 00 80 3f
       1.0 1.0 1.0 1.0
000090 00 00 80 3f 00 00 80 3f 00 00 80 3f 00 00 80 3f
       1.0 1.0 1.0 1.0
0000a0 00 00 80 3f 00 00 80 3f 00 00 80 3f 00 00 80 3f
       1.0 1.0 1.0 1.0
0000b0 00 00 80 3f 00 00 80 3f 00 00 80 3f 00 00 80 3f
       1.0 1.0 1.0 1.0
0000c0 00 00 80 3f 00 00 80 3f 00 00 80 3f 00 00 80 3f
       1.0 1.0 1.0 1.0
0000d0 00 00 80 3f 00 00 80 3f 00 00 80 3f 00 00 80 3f
       1.0 1.0 1.0 1.0
0000e0 00 00 80 3f 00 00 80 3f 00 00 80 3f 00 00 80 3f
       1.0 1.0 1.0 1.0
0000f0 00 00 80 3f 00 00 80 3f 00 00 80 3f 00 00 80 3f
       1.0 1.0 1.0 1.0

base.mlp.fc2.0.2.bias f4 [64]
000000 00 00 00 00 00 00 00 00 00 00 00 00 00 00 00 00
       0.0 0.0 0.0 0.0
000010 00 00 00 00 00 00 00 00 00 00 00 00 00 00 00 00
       0.0 0.0 0.0 0.0
000020 00 00 00 00 00 00 00 00 00 00 00 00 00 00 00 00
       0.0 0.0 0.0 0.0
000030 00 00 00 00 00 00 00 00 00 00 00 00 00 00 00 00
       0.0 0.0 0.0 0.0
000040 00 00 00 00 00 00 00 00 00 00 00 00 00 00 00 00
       0.0 0.0 0.0 0.0
000050 00 00 00 00 00 00 00 00 00 00 00 00 00 00 00 00
       0.0 0.0 0.0 0.0
000060 00 00 00 00 00 00 00 00 00 00 00 00 00 00 00 00
       0.0 0.0 0.0 0.0
000070 00 00 00 00 00 00 00 00 00 00 00 00 00 00 00 00
       0.0 0.0 0.0 0.0
000080 00 00 00 00 00 00 00 00 00 00 00 00 00 00 00 00
       0.0 0.0 0.0 0.0
000090 00 00 00 00 00 00 00 00 00 00 00 00 00 00 00 00
       0.0 0.0 0.0 0.0
0000a0 00 00 00 00 00 00 00 00 00 00 00 00 00 00 00 00
       0.0 0.0 0.0 0.0
0000b0 00 00 00 00 00 00 00 00 00 00 00 00 00 00 00 00
       0.0 0.0 0.0 0.0
0000c0 00 00 00 00 00 00 00 00 00 00 00 00 00 00 00 00
       0.0 0.0 0.0 0.0
0000d0 00 00 00 00 00 00 00 00 00 00 00 00 00 00 00 00
       0.0 0.0 0.0 0.0
0000e0 00 00 00 00 00 00 00 00 00 00 00 00 00 00 00 00
       0.0 0.0 0.0 0.0
0000f0 00 00 00 00 00 00 00 00 00 00 00 00 00 00 00 00
       0.0 0.0 0.0 0.0

rnn.rnn.weight_ih_l0 f4 [192, 64]
000000 60 f8 52 3d b3 51 93 bd 9f d1 ed bd 7e 3b b4 bc
       0.0515064 -0.07193317 -0.11612248 -0.022001024
000010 3e d6 af bc b8 34 79 be b3 3f 0d bd ab dd b1 bd
       -0.021464463 -0.24336517 -0.034484576 -0.08684858
000020 91 ec 40 3d 43 ad 29 3e a2 31 94 3c c8 ca 82 bc
       0.047100607 0.1657 0.018090073 -0.015965834
000030 6e 58 0c 3c c6 03 05 3d 74 5e 41 bd ad 9e 93 bd
       0.008566005 0.0324743 -0.04720922 -0.072079994
000040 be ac 29 bd 32 4e e7 3c 7c 35 0e bc 36 37 ff bd
       -0.041424505 0.028235529 -0.008679744 -0.124617025
000050 de 01 85 bb 99 ff 14 3b 01 66 12 be a4 cd 62 bd
       -0.0040590605 0.0022735356 -0.14296724 -0.055371895
000060 ba 4e 2c bd dc 1a 45 3c e2 db a3 bd eb 0e 98 3d
       -0.042067267 0.01203033 -0.08000924 0.074247204
000070 5f 16 02 bd aa dc 34 bd a0 df 16 be 6d f1 02 bd
       -0.031759616 -0.044155754 -0.14733744 -0.031968523
000080 c8 95 95 bd 4a 5b d3 bd a6 55 0b be fc 52 f6 bc
       -0.07303959 -0.103201464 -0.13606891 -0.030068867
000090 b2 18 90 3c 0a c9 5c 3c dd 1d bd bb 9c 7f 8e bb
       0.0175899 0.013475666 -0.0057713822 -0.0043487083
0000a0 d6 f6 fd bc 72 9a 17 bd f3 6f d8 bd 30 35 87 3c
       -0.03100149 -0.037012525 -0.105682276 0.016504854
0000b0 e0 8b 93 bb a6 ec a4 bc 91 dc a7 bd 1c 58 b9 bb
       -0.0045027584 -0.020132374 -0.081963666 -0.0056562554
0000c0 92 9c 99 3d 1a 3a b9 bc 47 cb 42 bd 24 4d b5 3c
       0.075005665 -0.022610713 -0.04755714 0.02213151
0000d0 bf 7c 92 3d a5 08 c0 3d ee af f1 3c 3a 9a 60 bc
       0.071527 0.09376649 0.029502835 -0.0137086455
0000e0 b7 28 fb 3c 00 f8 23 3d 4e 36 cf bb bf b7 7d bd
       0.030659063 0.040031433 -0.0063236123 -0.061942812
0000f0 5c ce a7 3d 0e 79 c6 3c 41 9d ac bd 1c 66 7b 3d
       0.08193657 0.024227645 -0.08428431 0.061376676
000100 70 31 cf 3d a9 cc 3a 3d d2 e4 5a bd d5 e0 8d 3d
       0.10116851 0.045605335 -0.053440876 0.06927649
000110 f1 09 96 bd 9b cf 27 3d 5a 14 fd bd 68 d9 b4 3d
       -0.07326115 0.040969472 -0.123573974 0.088305295
000120 f5 d1 25 bd c2 1d e0 3c d2 d0 37 3c c2 ff d2 3c
       -0.040483434 0.02735794 0.01121922 0.02575672
000130 83 bd ae 3d 86 e6 b0 3c 3e f7 91 3d 7c a5 3c 3d
       0.0853224 0.021594297 0.07127236 0.046056256
000140 99 62 29 bd c4 20 de 3c a9 d4 71 bd 67 c4 04 3c
       -0.041353796 0.027115233 -0.0590407 0.008103467
000150 96 be 22 3d 56 a1 0b 3d 95 dd 02 be 8c 40 a7 3c
       0.03973254 0.03408941 -0.1277984 0.02041652
000160 0e 9e 9b 3c 79 f7 90 3c 22 c3 d9 bd 4e 88 9f bc
       0.018996265 0.01769613 -0.10632922 -0.019474175
000170 45 78 66 3d 1d a3 7e 3d 3e 62 d2 bd b9 b1 af bd
       0.05626704 0.062167276 -0.102726445 -0.0857882
000180 88 34 9b bd a2 43 9e bd f8 a6 0d 3b b5 5f ef 3d
       -0.07578379 -0.07727744 0.0021614414 0.116881765
000190 0a 35 68 3b eb 94 b0 bc 36 d2 3f bd 34 a9 85 bc
       0.0035432004 -0.021555385 -0.046831332 -0.016316034
0001a0 3b 68 8a bd a0 03 8d 3d dc bb 1b 3d 40 85 2f 39
       -0.06758162 0.06885457 0.038020954 0.0001673894
0001b0 c3 2b 62 bd 47 39 92 3c 4b bc d3 bc b1 b6 76 3d
       -0.055217516 0.017849578 -0.025846621 0.06023282
0001c0 8a e2 ac 3d 13 e6 2c 3c e2 97 4c 3b ed f8 a8 bc
       0.084416464 0.010552901 0.003121846 -0.02062651
0001d0 41 c9 87 3d c5 7f 16 be 62 ed c3 bd 95 a9 c8 3c
       0.06630183 -0.14697178 -0.095667616 0.024494926
0001e0 8b 74 f9 3d 87 24 ab bd 96 8e e6 bd 72 a9 6f 3c
       0.12180432 -0.083565764 -0.11257665 0.014627801
0001f0 60 b2 e3 3c 41 f4 98 bd 58 e7 3d bd 07 1a fc bd
       0.027795017 -0.07468463 -0.046363205 -0.12309652
000200 16 59 40 3d a7 00 8a 3c 71 e4 fc 3b b4 95 95 bd
       0.04695996 0.016846014 0.007717662 -0.07303944
000210 4e 1e 3b 3b 44 fd 93 bc 46 9c dd bd e7 c6 47 bd
       0.0028551999 -0.018065102 -0.108208224 -0.048773672
000220 cd 67 87 3d a6 8c 28 be d3 fa 97 bd d0 4a a4 3a
       0.06611595 -0.16459903 -0.07420888 0.0012534503
000230 0b 47 c2 bd ce 21 6f bc 38 93 83 3d 7f f5 96 3d
       -0.094862066 -0.014595462 0.06424564 0.073710434
000240 9c 92 6e bd 9c c7 07 bd d0 09 21 bd ae bc 24 bd
       -0.058245286 -0.033149347 -0.039316 -0.040219
000250 8c 46 84 bd 64 d3 a4 bb fa 06 ed 3d 8f 5b e2 bd
       -0.06458768 -0.0050300825 0.11573596 -0.1105262
000260 44 3b d5 bd 4b 96 b2 3c 2a 52 53 bd 9b 15 17 bd
       -0.10411695 0.02180018 -0.05159203 -0.03688584
000270 ae aa 36 be dd b5 b2 bc aa 12 e8 bc 7b cd cb 3c
       -0.17838547 -0.021815235 -0.028329212 0.024878254
000280 25 78 29 3c 7d 7b a1 3d a4 4b 7b bd 74 51 07 ba
       0.010343586 0.07884882 -0.061351433 -0.0005161979
000290 07 f7 83 3d 64 3a 59 3d 03 97 2c bc 6a 96 c1 3c
       0.06443601 0.0530342 -0.010534051 0.023631293
0002a0 56 58 4e bd 27 76 26 bc f5 69 21 3c 54 18 b6 3b
       -0.050377212 -0.010160006 0.009851922 0.0055570994
0002b0 5d 09 22 bb fd 6a 3d 3d 2b 64 14 3c b6 75 08 3e
       -0.002472482 0.04624461 0.009057085 0.13326153
0002c0 a0 4e 54 3d ea 2c 78 3d 4a 77 cb bd d0 3d e1 bd
       0.051832795 0.06058971 -0.09934862 -0.10998118
0002d0 64 3c 2f 3d ec 36 c1 bc aa 37 6d bd 0c 1b 6d 3a
       0.042782202 -0.02358576 -0.057914414 0.0009044863
0002e0 85 3e dc 3d 69 7b c9 bd 19 f8 7f bd 2e d7 4b bc
       0.10754112 -0.09837992 -0.062492464 -0.01244144
0002f0 77 fc 13 3c c8 be aa bd b9 4c dd bc de 54 f1 bb
       0.00903236 -0.0833717 -0.027014123 -0.0073648533
000300 e1 21 59 3c ff 0a 84 3c 14 db be 3d 77 43 b0 bc
       0.013252706 0.016118525 0.093191296 -0.021516545
000310 bf 75 4b bd d5 bf 6f 3d 93 cc 39 3d 4f 38 ad 3a
       -0.04967284 0.058532555 0.045361113 0.0013215634
000320 52 6f 71 bd 92 7d 05 3d 20 a4 80 bd 3d e0 e9 bd
       -0.058944054 0.032590456 -0.06281304 -0.11419723
000330 7a 5b 44 3c 09 aa e1 3d 28 34 6f 3d 17 81 48 bd
       0.0119847 0.1101876 0.05839935 -0.048951235
000340 51 b9 7e bc 62 4a 4e 3b 51 81 da bc 69 67 45 be
       -0.015547113 0.003147744 -0.026672991 -0.19277729
000350 f5 af a3 3d e9 14 6e 3c a6 8a b9 bd 4c c7 cb 3d
       0.079925455 0.014531353 -0.09059648 0.09950122
000360 59 a4 81 bc 26 c4 8e bc da c1 3a 3c 9c 0e 54 3d
       -0.015825437 -0.017427515 0.011398757 0.051771745
000370 61 23 1c 3c 3e 06 a4 bc 39 13 98 3d c8 10 d3 bc
       0.009529919 -0.020022508 0.074255414 -0.025764838
000380 56 4f 99 bd 8e 01 ce bc d3 22 d1 bd 14 dc 8d bd
       -0.07485835 -0.025147226 -0.1021172 -0.06926742
000390 97 ff 8f 3b c2 8f 8f bd 12 ab 1b bd 46 d3 23 bd
       0.0043944824 -0.070098415 -0.038004942 -0.039996408
0003a0 8f 58 ab 3d 5d 83 4a 3e 65 d4 a0 bb 11 53 28 3d
       0.083665006 0.19776674 -0.004908132 0.041094843
0003b0 61 2a c0 bd ec ae 80 3d 45 16 8d 3d d8 64 2c 3d
       -0.09383083 0.06283364 0.06889013 0.04208836
0003c0 c3 7a 67 bd b8 54 ce 3d 25 a0 bf bd a9 af 9a bd
       -0.05651356 0.100747526 -0.09356717 -0.07553036
0003d0 b8 01 b0 bd 33 9b 19 bd 38 68 c5 bc 7d 34 8a 3d
       -0.08594078 -0.037501525 -0.024097547 0.067482926
0003e0 20 06 61 bd ee a8 13 bd 4b 1f 09 bd 66 13 1a 3e
       -0.054937482 -0.036049776 -0.03347711 0.15046462
0003f0 82 d4 b4 3d 61 39 85 3b fb 05 79 3e bb 67 be bc
       0.08829595 0.004065678 0.24318688 -0.023242822

rnn.rnn.weight_hh_l0 f4 [192, 64]
000000 00 fe 08 bd 79 5a 37 be 7d c3 fb bd 06 4a 16 3d
       -0.03344536 -0.17905606 -0.12293146 0.036691688
000010 22 47 9b bd be c9 f0 3c cc 14 79 bd db b1 1d 3e
       -0.07581927 0.029393073 -0.06081085 0.15399878
000020 d9 5d 80 bc e7 89 0e 3e 34 f6 6e bd a0 35 ca 3c
       -0.01566975 0.13919793 -0.058340266 0.024683774
000030 fc db a1 3d 37 81 4c bd 39 6a 0e bd f6 88 13 3d
       0.07903287 -0.049927916 -0.03476927 0.036019288
000040 78 e8 ce 3d 6a 77 84 bc db fc 18 be 08 9b 29 bd
       0.10102934 -0.016170222 -0.14940207 -0.041407615
000050 ec 43 ec bc 53 05 92 3c e1 48 a5 bd dd 97 56 3d
       -0.028840981 0.017824804 -0.08070541 0.05239092
000060 51 9f 16 bd c8 55 3f bd bb a1 c7 bd 60 7d 13 3c
       -0.03677303 -0.046712667 -0.097476445 0.00900206
000070 f3 17 1b 3d 70 cb 3a bb 74 b9 41 3c 6c fe a6 3c
       0.037864637 -0.0028502606 0.011824001 0.02038499
000080 9e 31 12 bc e0 16 d5 ba e9 ae 0c bd 68 7d 38 bd
       -0.0089229625 -0.0016257428 -0.034346495 -0.04504147
000090 47 50 f9 3c bc 39 4f 3d 64 de 53 bd d2 5d 02 3d
       0.030433787 0.05059217 -0.05172576 0.031827755
0000a0 38 dc 48 bd c6 19 95 bd c2 8c 25 3e dc 48 74 3d
       -0.049038142 -0.072803065 0.16166976 0.059639797
0000b0 5c cc e7 3b 4f 80 42 3e 0b 6f 78 3d 49 9e 0d be
       0.007073922 0.18994258 0.060652774 -0.13829912
0000c0 60 c7 d1 3d 0a 1a 15 bd 38 75 4c 3d a0 3c c0 38
       0.10243106 -0.036401786 0.049916476 9.166566e-05
0000d0 51 48 0d 3d ae 41 0a 3e 0d 44 1a bd 4f 81 99 3c
       0.034492794 0.13501617 -0.037662555 0.018738417
0000e0 fb 7f 39 3d c5 79 07 3d 77 01 19 3d 5c 7f 91 3b
       0.045288067 0.033075113 0.037354913 0.0044402312
0000f0 80 5c 1a bd 6e f2 a2 3d 6a 05 f7 bb aa f6 0a 3d
       -0.03768587 0.07956396 -0.007538487 0.033926643
000100 86 12 ab 3c b7 a8 ee bd 66 32 84 3d 35 a8 f6 bc
       0.020882856 -0.116532736 0.06454925 -0.030109504
000110 67 44 11 3e 6c c5 ea 3d a9 43 8b bd 92 d7 9f bd
       0.1418625 0.114634365 -0.068000145 -0.07804789
000120 80 3e 45 bd b5 8f 94 3d 20 00 58 bc 43 0a b8 3d
       -0.048155308 0.072539724 -0.013183624 0.08986332
000130 6a 12 bd bd 0e 14 40 3c 39 7f 21 3d 81 fe ad bd
       -0.09232028 0.011723531 0.03942797 -0.084958084
000140 b6 f3 d7 bd 97 58 f5 3b 58 06 3c bd 56 d5 44 3d
       -0.10544531 0.0074873674 -0.045904487 0.048055016
000150 75 8d f1 3d ee d1 37 3d 5f 99 80 3d e5 a9 f0 3b
       0.11794559 0.04487794 0.06279253 0.0073444718
000160 82 55 61 3d 56 03 59 bd b1 0e 8e 3c 91 1c 7c bd
       0.055013187 -0.052981697 0.01734099 -0.06155068
000170 60 74 26 be 03 c6 f2 bd 45 4c 6f 3b b3 48 a5 3d
       -0.16255331 -0.11854174 0.0036513966 0.08070507
000180 1b b2 09 3c eb e2 ac bd 42 28 b8 3d c5 ed f8 bb
       0.00840428 -0.08441719 0.089920536 -0.0075967037
000190 a8 19 fa 3d 1d 89 48 3d 2e 00 2c 3d f2 0f 28 bc
       0.12211925 0.048958886 0.04199236 -0.010257708
0001a0 26 29 ac 3b ee 12 0a 3e 4f 94 a7 3d b5 48 42 3c
       0.0052539287 0.13483784 0.081825845 0.011858155
0001b0 e2 02 18 3e 66 33 04 bc f3 6c 99 3d 09 73 1c be
       0.1484485 -0.008068895 0.074914835 -0.15278257
0001c0 3a f5 8f bd 9d 18 08 bd 9a 57 09 3c 19 dc 52 bd
       -0.07029195 -0.033226598 0.008382702 -0.051479433
0001d0 d3 ef 59 bd 39 fd 49 bc 12 a1 79 3d 55 d3 95 3d
       -0.05320723 -0.012328439 0.060944624 0.07315699
0001e0 5d 29 05 3d d2 fb 59 3b 1f 05 90 3d 38 0c 76 3c
       0.03251015 0.003326167 0.07032227 0.015017562
0001f0 c5 da 8e bc 23 34 89 bd a7 08 c5 3d 32 17 09 3d
       -0.017438302 -0.066993974 0.09620791 0.033469386
000200 48 8f 14 ba a9 b3 c8 bd 2e 86 a9 bc fa 9b 23 bd
       -0.00056671025 -0.097998925 -0.020693865 -0.039943673
000210 75 70 b7 bc 0b ae 26 bd d7 51 b0 3c 26 73 9a bc
       -0.02239249 -0.040693324 0.0215234 -0.018853735
000220 fb 2e 23 be 6f dc 23 3d 8e 0e 38 bd 1f d2 a5 3d
       -0.1593589 0.040005144 -0.044935755 0.08096718
000230 fd f4 26 3c d6 13 60 3d 82 a0 70 3d 4d 9c e7 ba
       0.010190246 0.054706417 0.058746822 -0.0017670483
000240 e9 b5 12 3e 18 b4 20 bc 3a 3d 12 3e d6 fd 5f 3d
       0.14327206 -0.009808563 0.14281169 0.054685436
000250 3b 46 04 bb 86 5a 88 3c 2d 4d 94 bd 08 89 a2 bd
       -0.0020183462 0.016644727 -0.072412826 -0.07936293
000260 30 18 07 3d d8 9c 19 bd bd 1d 05 3e b2 2c 0e 3c
       0.03298205 -0.037503093 0.12999626 0.008677648
000270 9c 0b b1 bd 20 04 3d 3e 1a a3 86 3c 68 2f 0d be
       -0.086447924 0.18458605 0.016435195 -0.13787615
000280 e9 c4 db bd 02 b4 00 3d 34 70 13 bd b4 a0 7e 3c
       -0.10730917 0.03142167 -0.035995677 0.015541244
000290 0f 8e 43 bd b1 30 5c bc d8 b6 97 3d 2d 87 02 3c
       -0.0477429 -0.013439343 0.074079216 0.007966799
0002a0 a2 4c 30 3d 31 be 40 3e f0 54 f6 bc a5 9f db 3c
       0.043041833 0.18822552 -0.030069798 0.026809523
0002b0 7e 8b 5c bc e7 39 0d 3d ec b9 3f 3d 8a c4 0f 3d
       -0.013460992 0.034479048 0.04680817 0.035099544
0002c0 3a 49 a2 bd b0 19 a0 3d 98 80 b6 3b 14 59 a6 bd
       -0.07924123 0.078173995 0.005569529 -0.08122459
0002d0 06 33 1a 3c 71 f4 d1 bc 5c c6 51 3d 87 7d 27 bd
       0.009411579 -0.025629254 0.05121456 -0.040891197
0002e0 53 a6 d4 bd 1e 99 a3 3d d5 91 68 3d 1d f7 86 bc
       -0.10383286 0.07988189 0.0567797 -0.016475255
0002f0 00 d0 66 3d f2 2e 8e 3d e0 dc e5 bc fe b3 50 bd
       0.056350708 0.06942548 -0.028059423 -0.050952904
000300 2b 7e 4f bc e5 b0 e3 bd 5c fa 5c 3d 9f 82 b4 bd
       -0.012664358 -0.11117724 0.0539497 -0.088139765
000310 b3 90 12 bc fb 4b d5 bc 8a 42 cd 3d a7 7c b5 bd
       -0.008945632 -0.026037207 0.10022457 -0.08861666
000320 45 2f b2 bd ac fd b5 3d 85 6d 19 bc 52 5b e2 bd
       -0.08700422 0.08886275 -0.00936449 -0.11052574
000330 f6 af c2 3c eb a1 e1 bc 9a 3e 9a 3d 8d 73 ff 3d
       0.023765545 -0.027543029 0.075314716 0.124732114
000340 3a 1b bf bb 2e 18 ce 3d fb b2 0c 3c 8a 03 49 bc
       -0.005832103 0.10063206 0.008587594 -0.01226891
000350 9f 78 79 3c 94 5d de bd ae 2c 00 be 44 72 31 3d
       0.015226512 -0.10857692 -0.12517044 0.043321863
000360 a6 18 0c 3d b3 d2 ef bc fa b7 1e 3c c4 24 a6 bc
       0.034203194 -0.029275274 0.009687418 -0.020281203
000370 c1 92 bf bb a0 c1 b6 3c 88 e7 2a 3e d1 bd 0e 3d
       -0.005846352 0.022309124 0.16689885 0.03484899
000380 30 7e b1 bd 4d 22 2c 3e 72 db 3d 3d f9 aa 12 3e
       -0.086666465 0.1680996 0.046351857 0.14323033
000390 7d 18 e9 3d c3 d5 55 3d 76 6e ac 3c 06 cd a4 ba
       0.11381624 0.052205812 0.021048766 -0.0012573309
0003a0 3c 36 a1 3c 34 19 d4 3b 73 38 dc 3c 97 e3 47 bd
       0.019679181 0.006472731 0.026882386 -0.04880103
0003b0 d4 ed 59 3d 5e ad 01 3d 5c 77 ba bc d4 1c 98 bd
       0.053205326 0.031659476 -0.022761993 -0.074273735
0003c0 14 18 f4 bd 74 28 dd bb a3 c8 36 bd 0e a8 89 bd
       -0.11918655 -0.006749207 -0.044624936 -0.06721507
0003d0 c9 be f1 bc 54 1f 28 3d ba 20 12 3b 3b f6 d1 3d
       -0.029509919 0.0410455 0.0022297339 0.10252043
0003e0 0d 4e 65 be 35 64 af bd 73 55 b0 3d 8d e1 a7 3c
       -0.22393055 -0.08564035 0.08610048 0.020493293
0003f0 b2 c4 2b 3d be f6 ef bb 00 4d 78 3d 7c c6 f5 3d
       0.04193563 -0.007323115 0.060620308 0.120007485
