onpolicy/scripts/results/MPE/simple_spread/rmappo/check/wandb/run-20220704_235601-1ql8wav8/files/actor.pt (torch, 147692 bytes, 22 tensors)

base.feature_norm.weight f4 [18]
1.0163504 0.994138 0.9767038 0.9857413 1.0119209 0.9956383 0.9919276 1.022407
1.0039554 1.0001253 1.006987 0.9930609 1.0026393 0.9814391 1.0218077 0.99031234
1.0046213 1.0105122
00000000: c517 823f d47f 7e3f 4309 7a3f 8b59 7c3f
00000010: a086 813f 27e2 7e3f f8ee 7d3f 3cde 823f
00000020: 9c81 803f 1b04 803f f3e4 803f 3d39 7e3f
00000030: 7c56 803f 983f 7b3f 98ca 823f 1c85 7d3f
00000040: 6e97 803f 7758 813f

base.feature_norm.bias f4 [18]
-0.0039366065 0.008173082 -0.012732502 0.033623524 -0.010630144 -0.01439148 0.020169972 -0.006476861
0.0077248984 -0.016879532 0.009897024 0.011621177 0.025826568 -0.016248476 -0.0140116345 0.01887841
-0.0054336027 0.00028208212
00000000: a6fe 80bb 64e8 053c fc9b 50bc d2b8 093d
00000010: 0e2a 2ebc 3eca 6bbc 7f3b a53c d93b d4bb
00000020: 2521 fd3b f246 8abc 2127 223c c066 3e3c
00000030: 3d92 d33c 861b 85bc 0e91 65bc e5a6 9a3c
00000040: 5d0c b2bb 6ce4 9339

base.mlp.fc1.0.weight f4 [64, 18]
-0.0036775735 0.02275856 -0.2244363 -0.08770058 -0.1242467 -0.027512543 0.14422493 0.1877548
-0.44839996 0.17592038 0.1661023 0.032789215 0.039933342 0.2060046 -0.10738405 -0.2067761
-0.2852996 0.07725026 -0.14417158 0.2161562 -0.1074188 0.12161182 0.070807084 0.08854894
-0.19607648 0.17794569 -0.34044406 0.21480696 0.13296847 0.10763478 -0.22055632 -0.10689313
-0.09719991 0.015486751 0.30306265 -0.1380413 -0.25519383 -0.10362084 -0.06521847 0.123573124
0.08674143 0.09395004 -0.34229714 -0.19099365 -0.41672856 0.049837243 0.25673229 0.4623572
0.37189263 0.07688559 0.22588834 -0.006301006 0.059976164 0.18847339 0.064884424 0.09395708
-0.75581735 -0.27946907 0.39709705 0.3012031 0.05669801 0.2319545 0.021514786 0.13962431
-0.2946482 -0.21330535 0.15017751 -0.122879945 0.07204099 -0.099829406 -0.31190732 0.10266217
0.026801411 -0.10883284 -0.22965568 -0.12134041 -0.2816285 0.022466011 0.0056678546 -0.20238665
-0.074066445 -0.16203514 -0.08161671 0.05289732 -0.101207204 0.12003635 -0.16011387 0.3136439
0.14361057 -0.17623238 0.5290391 -0.17834646 0.21041043 -0.16837487 0.21423142 0.05075057
0.016339505 -0.26117337 -0.35811305 0.2232648 -0.181232 0.2724637 -0.046130907 0.07263927
0.3724833 -0.1618418 0.023079174 0.029193949 0.17763479 -0.24874981 0.1595257 0.055196244
-0.064284 -0.13544285 0.17178181 -0.3052466 -0.07431592 0.2867429 0.21945645 -0.2613236
-0.2148205 0.02906501 0.1279284 -0.13795473 0.08917128 -0.10527743 0.06951593 0.39655754
0.037327647 -0.10730964 0.064954124 -0.2755859 0.14318453 0.23545823 -0.15762496 -0.107555486
0.020129438 -0.008974858 -0.25224558 0.0017980783 0.09173135 -0.2289469 -0.2477932 0.034545552
0.27505198 -0.346255 0.08675842 -0.14137112 0.31698275 -0.2745042 0.3318134 0.32299483
0.045790274 0.15004967 0.1370177 0.24972846 0.22567022 -0.10502769 0.0131221935 -0.065588996
-0.38728753 0.09790062 -0.023071919 0.39690626 0.29456592 -0.051954035 -0.16791646 0.017229715
0.054459844 0.15608281 0.29379267 -0.14605278 -0.13422781 0.0976374 0.17365679 0.2723137
-0.032422956 -0.16418119 -0.016334647 -0.00092097075 0.051916376 0.07749796 0.20418085 -0.01105442
0.11538742 0.53429365 0.10685777 0.3732498 0.14583974 0.24185789 0.15593985 0.1639922
-0.062963754 0.0035225458 0.1924258 0.34987262 -0.21050176 -0.22131559 -0.09342067 -0.11545225
0.028562393 -0.43134776 -0.30301863 0.13785349 -0.0018386843 -0.028117105 -0.15120913 -0.15927143
0.23545569 -0.25802982 0.35310882 -0.21825783 0.34776846 0.14982595 0.08713638 0.22285402
-0.24570715 -0.06080749 0.0044750716 0.116825104 0.028146118 0.564697 -0.18543698 0.14229909
0.12927239 -0.06620289 -0.32296342 0.0771283 0.21664205 -0.166824 -0.18619308 -0.16987124
0.32566196 0.026515128 -0.021602096 -0.0953247 -0.003188933 0.09438947 0.13474038 0.058178704
0.36588368 -0.010996196 -0.13907276 -0.12438904 -0.3003893 0.18685617 -0.37837258 -0.48511058
-0.042760737 0.06694924 0.021147294 0.13222891 0.19252078 0.22949257 0.316667 0.068451345
00000000: 7203 71bb 2970 ba3c a1d2 65be 5d9c b3bd
00000010: 0e75 febd fc61 e1bc b3af 133e cb42 403e
00000020: ae94 e5be 7924 343e b916 2a3e fc4d 063d
00000030: 2591 233d dff2 523e 2bec dbbd 1dbd 53be
00000040: ca12 92be 6235 9e3d b7a1 13be 0d58 5d3e
00000050: 63fe dbbd 9e0f f93d 4e03 913d 2659 b53d
00000060: 46c8 48be 6537 363e af4e aebe 5bf6 5b3e
00000070: e328 083e a06f dc3d 84d9 61be c9ea dabd
00000080: bf10 c7bd 24bc 7d3c 072b 9b3e b35a 0dbe
00000090: c4a8 82be 2a37 d4bd 4391 85bd e813 fd3d
000000a0: 7ea5 b13d e168 c03d 9241 afbe d793 43be
000000b0: 725d d5be 2322 4c3d 6a72 833e 15ba ec3e
000000c0: b668 be3e 3176 9d3d 464f 673e ab78 cebb
000000d0: 91a9 753d 2bff 403e 20e2 843d 926c c03d
000000e0: 3f7d 41bf 9216 8fbe 4e50 cb3e 4b37 9a3e
000000f0: 2c3c 683d 7b85 6d3e c73f b03c adf9 0e3e
00000100: 21dc 96be b86c 5abe 22c8 193e 7ba8 fbbd
00000110: 3a8a 933d 5c73 ccbd 51b2 9fbe 8b40 d23d
00000120: a28e db3c c1e3 debd dc2a 6bbe 5281 f8bd
00000130: 9c31 90be a40a b83c 69b9 b93b 723e 4fbe
00000140: 26b0 97bd 8aec 25be a926 a7bd dcaa 583d
00000150: b945 cfbd 9ed5 f53d e4f4 23be ef95 a03e
00000160: a60e 133e 4376 34be 1b6f 073f 74a0 36be
00000170: d575 573e 766a 2cbe 7b5f 5b3e d4df 4f3d
00000180: 6dda 853c 84b8 85be 985a b7be 879f 643e
00000190: e294 39be 5d80 8b3e c3f3 3cbd e6c3 943d
000001a0: 22b6 be3e dbb9 25be 8910 bd3c 2628 ef3c
000001b0: e5e5 353e 45b8 7ebe b55a 233e 7515 623d
000001c0: 54a7 83bd 88b1 0abe 92e7 2f3e 4849 9cbe
000001d0: f232 98bd f7cf 923e 31b9 603e 35cc 85be
000001e0: e8f9 5bbe be19 ee3c aaff 023e 0144 0dbe
000001f0: 6f9f b63d b19b d7bd 5e5e 8e3d 9709 cb3e
00000200: e0e4 183d 28c5 dbbd ab06 853d 9819 8dbe
00000210: f79e 123e f61b 713e 7068 21be 0d46 dcbd
00000220: 7ee6 a43c 480b 13bc 5526 81be 7fad eb3a
00000230: a5dd bb3d 0e71 6abe 80bd 7dbe a37f 0d3d
00000240: 9dd3 8c3e 5648 b1be 66ae b13d 97c3 10be
00000250: 904b a23e d18b 8cbe 72e3 a93e 945f a53e
00000260: 958e 3b3d 9fa6 193e 5e4e 0c3e d1b8 7f3e
00000270: 1816 673e c218 d7bd 78fe 563c 8653 86bd
00000280: 8d4a c6be 1f80 c83d 5201 bdbc 4c37 cb3e
00000290: 58d1 963e c1cd 54bd 4bf2 2bbe 5525 8d3c
000002a0: 4911 5f3d 2cd4 1f3e fe6b 963e dc8e 15be
000002b0: 0473 09be 1ef6 c73d 16d3 313e b46c 8b3e
000002c0: efcd 04bd 1d1f 28be 3dd0 85bc 4d6d 71ba
000002d0: 44a6 543d 40b7 9e3d c914 513e 991d 35bc
000002e0: 3d50 ec3d 78c7 083f 3fd8 da3d 991a bf3e
000002f0: 0357 153e 98a9 773e b2ae 1f3e 92ed 273e
00000300: 24f3 80bd 83da 663b 450b 453e 8122 b33e
00000310: c68d 57be 8ea0 62be 5653 bfbd 3b72 ecbd
00000320: aefb e93c 9dd9 dcbe 4225 9bbe 7729 0d3e
00000330: 0200 f1ba d855 e6bc 91d6 1abe 0d18 23be
00000340: 4c1b 713e 7c1c 84be aeca b43e fb7e 5fbe
00000350: b50e b23e f96b 193e 8f74 b23d d833 643e
00000360: a89a 7bbe 4611 79bd 9fa3 923b 0042 ef3d
00000370: b092 e63c fc8f 103f 31e3 3dbe dab6 113e
00000380: fb5f 043e 6195 87bd 765b a5be 71f5 9d3d
00000390: 6ad7 5d3e e9d3 2abe 66a9 3ebe baf2 2dbe
000003a0: 2abd a63e 4136 d93c e1f6 b0bc 9939 c3bd
000003b0: 6bfd 50bb 444f c13d 62f9 093e cb4c 6e3d
000003c0: 1b55 bb3e 6429 34bc 1769 0ebe aebf febd
000003d0: a0cc 99be 3957 3f3e 0dba c1be 6a60 f8be
000003e0: e225 2fbd af1c 893d 173d ad3c 0467 073e
000003f0: 2b24 453e 1a00 6b3e 2d22 a23e 3830 8c3d

base.mlp.fc1.0.bias f4 [64]
-0.013053531 -0.022540124 0.016184801 -0.030480713 -0.011624658 -0.0039809207 -0.024581801 0.016134564
-0.019341813 0.006266155 0.00018626534 0.01717582 -0.0022368566 0.007435792 0.0006956891 -0.013762708
-0.035888534 0.005739307 0.0018444398 -0.013752494 0.008957256 0.0098097855 0.007995794 0.0059682988
-0.016224362 0.014830098 -0.0059390315 0.00843414 -0.004577606 -0.0111286435 -0.013200846 0.0022103207
-0.017103909 0.0131151425 0.014805442 -0.004058064 -0.0044720727 0.015261105 -0.012677862 0.015989106
0.0075073075 0.0010081975 -0.00057532877 0.03296359 0.02454182 0.0065197316 0.02284113 0.0072553293
0.022096924 0.003687912 0.0148581965 -0.016275078 -0.0039280267 0.026012307 0.017246181 0.0087837195
0.011676911 -0.002424119 -0.009126702 -0.027200988 0.017723016 -0.011397443 -0.02372527 -0.035448276
00000000: 7ade 55bc 11a6 b8bc fd95 843c b0b2 f9bc
00000010: 5975 3ebc 6272 82bb c65f c9bc a22c 843c
00000020: b972 9ebc 5154 cd3b 3950 4339 4eb4 8c3c
00000030: 3a98 12bb f2a7 f33b e85e 363a fb7c 61bc
00000040: dbff 12bd cc10 bc3b 21c1 f13a 2452 61bc
00000050: 74c1 123c 39b9 203c ca00 033c b891 c33b
00000060: f4e8 84bc f0f9 723c 359c c2bb 592f 0a3c
00000070: beff 95bb ea54 36bc 5c48 58bc 07db 103b
00000080: 7f1d 8cbc e5e0 563c 8692 723c 82f9 84bb
00000090: 778a 92bb b709 7a3c cfb6 4fbc 96fb 823c
000000a0: dcff f53b 7f25 843a a9d1 16ba d404 073d
000000b0: ed0b c93c 79a3 d53b 521d bb3c 1dbe ed3b
000000c0: 9c04 b53c e5b0 713b cb6f 733c 5053 85bc
000000d0: adb6 80bb c317 d53c dd47 8d3c 97e9 0f3c
000000e0: 8450 3f3c f8dd 1ebb 2a88 15bc 9bd4 debc
000000f0: dc2f 913c 57bc 3abc 7f5b c2bc 3632 11bd

base.mlp.fc1.2.weight f4 [64]
0.98569083 1.0170931 0.9964366 0.9978269 0.97645056 1.0103661 1.0058595 1.0139841
0.9953492 0.9792981 1.0020119 0.99203825 1.0085235 1.0244302 0.9758538 1.0029162
1.0020325 1.0175172 1.0053126 0.98008317 1.0051777 0.98734236 0.9953797 1.0328445
0.9909844 1.0169413 1.0054992 1.0081431 1.0099112 0.9979447 1.0047547 0.9933732
1.0022728 0.99774057 1.0004646 0.9835109 1.0135497 1.0016819 0.9842442 1.0045489
1.0143633 0.99020237 1.0186622 1.0089886 1.0011121 0.98697394 1.0154352 0.99165726
0.9812276 0.99916685 1.0105257 1.0118848 0.9886068 0.9898534 1.0036384 0.9915492
0.9876362 0.9934557 1.0255553 1.0005455 1.0300611 0.9968129 0.98742294 0.9865079
00000000: 3c56 7c3f 1b30 823f 7816 7f3f 9571 7f3f
00000010: aaf8 793f ad53 813f 01c0 803f 3bca 813f
00000020: 35cf 7e3f 48b3 7a3f ed41 803f 38f6 7d3f
00000030: 4c17 813f 8720 833f 8ed1 793f 8f5f 803f
00000040: 9a42 803f 013e 823f 15ae 803f bbe6 7a3f
00000050: aaa9 803f 78c2 7c3f 34d1 7e3f 4034 843f
00000060: 27b1 7d3f 222b 823f 33b4 803f d50a 813f
00000070: c544 813f 4e79 7f3f cd9b 803f b54d 7e3f
00000080: 7a4a 803f ed6b 7f3f 390f 803f 5fc7 7b3f
00000090: ffbb 813f 1d37 803f 6ef7 7b3f 0f95 803f
000000a0: a8d6 813f e77d 7d3f 8663 823f 8a26 813f
000000b0: 7124 803f 53aa 7c3f c8f9 813f 40dd 7d3f
000000c0: bb31 7b3f 66c9 7f3f e858 813f 7185 813f
000000d0: 5615 7d3f 0867 7d3f 3977 803f 2bd6 7d3f
000000e0: bad5 7c3f 1d53 7e3f 6545 833f e011 803f
000000f0: 0bd9 833f 212f 7f3f c0c7 7c3f c88b 7c3f

base.mlp.fc1.2.bias f4 [64]
-0.018338101 -0.017499885 0.012570659 -0.0043278397 -0.014318713 -0.002175942 -0.026018793 0.0148726655
-0.02000946 0.011851889 -0.0033629215 0.022865318 -0.012533565 -0.0015130603 0.00073330593 -0.01214665
-0.032700885 -0.0016775875 0.015214252 -0.014199418 0.0025535293 0.003837785 0.0075771688 0.0035492755
-0.012890835 0.01746919 -0.0022563827 0.009884522 -0.0022494525 -0.0076815146 -0.0056132036 0.007773034
-0.016267829 0.016865198 0.015526038 -0.02536755 -0.0032035387 0.021635242 -0.01170206 0.015961232
0.01813497 -0.0067752763 -0.011966532 0.018691463 0.022510666 0.0049569644 0.022733323 0.0051969034
0.020251552 -0.0152812805 0.011067238 -0.0029447312 -0.012007413 0.035007313 0.016188005 -0.0003644637
0.011214346 -0.014129171 -0.008007664 -0.024735926 0.01673385 -0.009869922 -0.021475684 -0.025876772
00000000: c939 96bc eb5b 8fbc 2af5 4d3c 8dd0 8dbb
00000010: 0999 6abc 409a 0ebb 5d25 d5bc 7bac 733c
00000020: e1ea a3bc 6d2e 423c 7664 5cbb 0c50 bb3c
00000030: 9559 4dbc e151 c6ba 543b 403a be02 47bc
00000040: 5df1 05bd 7fe2 dbba 3345 793c ada4 68bc
00000050: 1d59 273b 5983 7b3b e649 f83b f69a 683b
00000060: 1534 53bc 8c1b 8f3c d2df 13bb b1f2 213c
00000070: 8d6b 13bb 37b5 fbbb f7ee b7bb efb4 fe3b
00000080: 1c44 85bc e228 8a3c ec60 7e3c 9ccf cfbc
00000090: 76f2 51bb 643c b13c ffb9 3fbc 21c1 823c
000000a0: ca8f 943c 2303 debb 460f 44bc d71e 993c
000000b0: 4a68 b83c 086e a23b 3c3b ba3c c94a aa3b
000000c0: 95e6 a53c 565e 7abc 5c53 353c 64fc 40bb
000000d0: beba 44bc d463 0f3d b59c 843c 7d15 bfb9
000000e0: 60bc 373c 0a7e 67bc 9432 03bc ffa2 cabc
000000f0: 6d15 893c 74b5 21bc c6ed afbc 86fb d3bc

base.mlp.fc_h.0.weight f4 [64, 64]
0.033481717 -0.14812307 0.04011635 0.15791598 -0.2615003 0.18384835 -0.09822951 -0.17843127
-0.24555293 0.20986752 0.05907723 -0.54988647 -0.3318764 -0.07753266 -0.25474575 0.23258102
-0.035450906 0.28970826 0.1688327 -0.005779831 -0.08370787 0.018798394 0.3788099 -0.36313808
-0.15712099 0.12673469 -0.2826243 0.16017354 0.28880858 -0.0026907027 -0.08896485 -0.1341735
0.42363355 -0.0046736123 0.00811594 -0.16290836 0.014690906 -0.45341307 -0.3816589 -0.03441728
-0.041368242 0.06442862 -0.037509352 -0.19917126 0.33794644 0.0024369932 -0.043182805 0.21097794
-0.09338996 0.046192747 0.31319335 -0.30500445 0.2408755 0.08964045 0.23889904 -0.1704453
-0.22307464 0.008375948 0.16009954 0.077872306 -0.16033092 -0.10505947 -0.17032237 -0.13921605
0.36742017 -0.042592585 0.040085096 -0.20250905 0.11505165 0.61356294 -0.6181027 -0.11289254
-0.085166715 0.031012287 -0.29570097 0.040453956 0.057233006 0.008733339 -0.2235725 0.039614394
0.03358214 -0.19574426 0.12904494 0.035515748 0.12646489 -0.020733459 0.07734219 -0.068012856
-0.012206994 -0.42786056 0.097679876 0.3028043 -0.18827666 0.2199191 0.06616239 -0.00557711
-0.23240079 0.10830617 -0.08524921 0.12450692 -0.25545153 0.092753455 0.22030675 0.15197016
-0.31972295 0.03580278 0.23786221 -0.21160562 0.40954992 -0.24327704 0.12832011 0.10518111
0.037926197 0.12529509 0.035141613 0.2983124 -0.058893796 -0.3511304 0.14159437 -0.24631803
-0.09861565 -0.107425265 0.10899717 0.20247844 0.15425356 -0.15235174 0.2743888 0.0045895916
-0.28991836 0.24652463 0.21330462 -0.07810908 0.01643816 -0.10722202 -0.01746483 0.15823115
-0.27380005 0.22626504 -0.18683164 -0.1612559 0.46577647 0.033988934 -0.087933704 0.008738199
-0.10769204 0.41971374 0.16592902 0.4488616 0.18087557 -0.22771388 0.31973332 0.33019602
0.21096644 0.2469317 0.24059743 0.19923216 -0.10945377 -0.039033704 -0.15310274 -0.16218798
0.025413508 -0.0024478517 -0.2975596 0.16301358 -0.007154554 -0.16716437 -0.056974836 0.11978517
-0.0073478934 0.010500321 0.31632894 0.104384795 -0.118750095 0.04842671 -0.22797418 0.06350738
-0.15138103 0.1415667 0.06786745 0.30246478 -0.15226367 0.22327596 0.37444043 -0.01732329
0.006426473 -0.11610367 -0.19558723 -0.5050193 0.09668945 -0.2802399 0.124221295 0.21140915
0.12270751 -0.32803822 -0.06454204 0.005104953 -0.095178604 -0.30062306 0.037753865 0.11972351
-0.23554568 0.43490753 -0.19290066 -0.148174 -0.03548848 -0.016960604 0.25744677 -0.4783506
-0.047204442 -0.065216176 -0.15283751 0.16362053 -0.1235018 -0.016055416 0.12891673 -0.080822274
0.4629589 -0.21969475 -0.31717482 -0.037708826 -0.15547624 0.117756635 -0.45560732 -0.05162742
0.1088916 -0.17700721 0.35809916 0.04689717 0.017099474 0.30481014 -0.21112685 -0.13628107
0.22978127 -0.17570688 0.19893551 -0.37031502 -0.043091927 0.1968094 -0.07251847 -0.16852112
0.11651118 0.009992181 -0.1360168 0.49313092 0.06160251 -0.09435574 0.10172547 0.012225251
0.014263529 -0.22772805 0.18954644 0.28572845 0.07923722 -0.08755005 -0.19595078 -0.20491603
00000000: 2024 093d 93ad 17be 0b51 243d bab4 213e
00000010: 5ee3 85be be42 3c3e 8e2c c9bd b0b6 36be
00000020: 3a72 7bbe 83e7 563e f7fa 713d 5cc5 0cbf
00000030: b4eb a9be 71c9 9ebd 096e 82be b829 6e3e
00000040: f834 11bd a454 943e 7be2 2c3e bd64 bdbb
00000050: 086f abbd 17ff 993c 5ff3 c13e 3ced b9be
00000060: 53e4 20be bdc6 013e 22b4 90be 8804 243e
00000070: b8de 933e 8056 30bb 3433 b6bd c764 09be
00000080: 7fe6 d83e 1a25 99bb b8f8 043c 73d1 26be
00000090: 20b2 703c c225 e8be cc68 c3be 22f9 0cbd
000000a0: bf71 29bd 27f3 833d 68a3 19bd 8df3 4bbe
000000b0: 5107 ad3e f6b5 1f3b 74e0 30bd 9a0a 583e
000000c0: 3c43 bfbd 9b34 3d3d e15a a03e 8b29 9cbe
000000d0: 11a8 763e 6a95 b73d f3a1 743e 3689 2ebe
000000e0: ae6d 64be 463b 093c 22f1 233e 847b 9f3d
000000f0: ca2d 24be 6b29 d7bd fd68 2ebe a78e 0ebe
00000100: 7f1e bc3e 9075 2ebd 4530 243d 885e 4fbe
00000110: 33a0 eb3d 7612 1d3f fb3b 1ebf 3434 e7bd
00000120: e36b aebd 7b0d fe3c 1e66 97be 0cb3 253d
00000130: 286d 6a3d 4716 0f3c 30f0 64be b442 223d
00000140: 6d8d 093d 2f71 48be 5b24 043e f678 113d
00000150: 0380 013e 37d9 a9bc 9565 9e3d 534a 8bbd
00000160: d8ff 47bc 8a10 dbbe 630c c83d 2a09 9b3e
00000170: 99cb 40be 7932 613e 2680 873d 31c0 b6bb
00000180: 79fa 6dbe a0cf dd3d 2397 aebd 7cfd fe3d
00000190: 8bca 82be 86f5 bd3d 1898 613e 119e 1b3e
000001a0: bab2 a3be f0a5 123d 2792 733e 25af 58be
000001b0: 87b0 d13e 9e1d 79be 5966 033e 3269 d73d
000001c0: 8058 1b3d 5b4d 003e a7f0 0f3d 67bc 983e
000001d0: 9f3a 71bd 5dc7 b3be 1dfe 103e cb3a 7cbe
000001e0: 00f7 c9bd c701 dcbd e939 df3d 8256 4f3e
000001f0: a5f4 1d3e 1802 1cbe b07c 8c3e 4964 963b
00000200: 2e70 94be f470 7c3e 876c 5a3e a7f7 9fbd
00000210: 52a9 863c 3897 dbbd 6712 8fbc 5907 223e
00000220: 852f 8cbe 06b2 673e cb50 3fbe 4420 25be
00000230: 417a ee3e fb37 0b3d 9616 b4bd aa2a 0f3c
00000240: a58d dcbd b8e4 d63e 4ce9 293e 30d1 e53e
00000250: 7237 393e d42d 69be 16b4 a33e 740f a93e
00000260: 9607 583e aadb 7c3e 2c5f 763e 8403 4c3e
00000270: 4c29 e0bd cee1 1fbd f7c6 1cbe 9b14 26be
00000280: fd2f d03c 236c 20bb bb59 98be 08ed 263e
00000290: c070 eabb 232d 2bbe 725e 69bd ed51 f53d
000002a0: 99c6 f0bb 8a09 2c3c def5 a13e b2c7 d53d
000002b0: 4033 f3bd 165b 463d 1072 69be 2810 823d
000002c0: a103 1bbe dcf6 103e 17fe 8a3d aadc 9a3e
000002d0: 02eb 1bbe 74a2 643e a8b6 bf3e 93e9 8dbc
000002e0: 2a95 d23b c3c7 edbd 0548 48be f248 01bf
000002f0: 1e05 c63d 9b7b 8fbe bc67 fe3d a47b 583e
00000300: 134e fb3d a0f4 a7be 9e2e 84bd 7347 a73b
00000310: 00ed c2bd 44eb 99be cca3 1a3d 9a31 f53d
00000320: e332 71be 33ac de3e c087 45be edba 17be
00000330: 5e5c 11bd f7f0 8abc 10d0 833e 5fea f4be
00000340: 7259 41bd 0f90 85bd 7081 1cbe 248c 273e
00000350: 83ee fcbd a686 83bc bf02 043e 2686 a5bd
00000360: f308 ed3e a9f7 60be bd64 a2be 9274 1abd
00000370: 2a35 1fbe 642a f13d 5d45 e9be 4677 53bd
00000380: 8f02 df3d 6141 35be c658 b73e 3f17 403d
00000390: 3214 8c3c 1310 9c3e a331 58be 448d 0bbe
000003a0: c84b 6b3e 81ec 33be c0b5 4b3e ee99 bdbe
000003b0: 2981 30bd 6788 493e 9084 94bd cd90 2cbe
000003c0: 6a9d ee3d 3fb6 233c fd47 0bbe a87b fc3e
000003d0: ea52 7c3d 953d c1bd 7155 d03d 6b4c 483c
000003e0: 94b1 693c 8b31 69be 7618 423e 004b 923e
000003f0: 2047 a23d 714d b3bd 52a7 48be 82d5 51be

base.mlp.fc_h.0.bias f4 [64]
0.0 0.0 0.0 0.0 0.0 0.0 0.0 0.0
0.0 0.0 0.0 0.0 0.0 0.0 0.0 0.0
0.0 0.0 0.0 0.0 0.0 0.0 0.0 0.0
0.0 0.0 0.0 0.0 0.0 0.0 0.0 0.0
0.0 0.0 0.0 0.0 0.0 0.0 0.0 0.0
0.0 0.0 0.0 0.0 0.0 0.0 0.0 0.0
0.0 0.0 0.0 0.0 0.0 0.0 0.0 0.0
0.0 0.0 0.0 0.0 0.0 0.0 0.0 0.0
00000000: 0000 0000 0000 0000 0000 0000 0000 0000
00000010: 0000 0000 0000 0000 0000 0000 0000 0000
00000020: 0000 0000 0000 0000 0000 0000 0000 0000
00000030: 0000 0000 0000 0000 0000 0000 0000 0000
00000040: 0000 0000 0000 0000 0000 0000 0000 0000
00000050: 0000 0000 0000 0000 0000 0000 0000 0000
00000060: 0000 0000 0000 0000 0000 0000 0000 0000
00000070: 0000 0000 0000 0000 0000 0000 0000 0000
00000080: 0000 0000 0000 0000 0000 0000 0000 0000
00000090: 0000 0000 0000 0000 0000 0000 0000 0000
000000a0: 0000 0000 0000 0000 0000 0000 0000 0000
000000b0: 0000 0000 0000 0000 0000 0000 0000 0000
000000c0: 0000 0000 0000 0000 0000 0000 0000 0000
000000d0: 0000 0000 0000 0000 0000 0000 0000 0000
000000e0: 0000 0000 0000 0000 0000 0000 0000 0000
000000f0: 0000 0000 0000 0000 0000 0000 0000 0000

base.mlp.fc_h.2.weight f4 [64]
1.0 1.0 1.0 1.0 1.0 1.0 1.0 1.0
1.0 1.0 1.0 1.0 1.0 1.0 1.0 1.0
1.0 1.0 1.0 1.0 1.0 1.0 1.0 1.0
1.0 1.0 1.0 1.0 1.0 1.0 1.0 1.0
1.0 1.0 1.0 1.0 1.0 1.0 1.0 1.0
1.0 1.0 1.0 1.0 1.0 1.0 1.0 1.0
1.0 1.0 1.0 1.0 1.0 1.0 1.0 1.0
1.0 1.0 1.0 1.0 1.0 1.0 1.0 1.0
00000000: 0000 803f 0000 803f 0000 803f 0000 803f
00000010: 0000 803f 0000 803f 0000 803f 0000 803f
00000020: 0000 803f 0000 803f 0000 803f 0000 803f
00000030: 0000 803f 0000 803f 0000 803f 0000 803f
00000040: 0000 803f 0000 803f 0000 803f 0000 803f
00000050: 0000 803f 0000 803f 0000 803f 0000 803f
00000060: 0000 803f 0000 803f 0000 803f 0000 803f
00000070: 0000 803f 0000 803f 0000 803f 0000 803f
00000080: 0000 803f 0000 803f 0000 803f 0000 803f
00000090: 0000 803f 0000 803f 0000 803f 0000 803f
000000a0: 0000 803f 0000 803f 0000 803f 0000 803f
000000b0: 0000 803f 0000 803f 0000 803f 0000 803f
000000c0: 0000 803f 0000 803f 0000 803f 0000 803f
000000d0: 0000 803f 0000 803f 0000 803f 0000 803f
000000e0: 0000 803f 0000 803f 0000 803f 0000 803f
000000f0: 0000 803f 0000 803f 0000 803f 0000 803f

base.mlp.fc_h.2.bias f4 [64]
0.0 0.0 0.0 0.0 0.0 0.0 0.0 0.0
0.0 0.0 0.0 0.0 0.0 0.0 0.0 0.0
0.0 0.0 0.0 0.0 0.0 0.0 0.0 0.0
0.0 0.0 0.0 0.0 0.0 0.0 0.0 0.0
0.0 0.0 0.0 0.0 0.0 0.0 0.0 0.0
0.0 0.0 0.0 0.0 0.0 0.0 0.0 0.0
0.0 0.0 0.0 0.0 0.0 0.0 0.0 0.0
0.0 0.0 0.0 0.0 0.0 0.0 0.0 0.0
00000000: 0000 0000 0000 0000 0000 0000 0000 0000
00000010: 0000 0000 0000 0000 0000 0000 0000 0000
00000020: 0000 0000 0000 0000 0000 0000 0000 0000
00000030: 0000 0000 0000 0000 0000 0000 0000 0000
00000040: 0000 0000 0000 0000 0000 0000 0000 0000
00000050: 0000 0000 0000 0000 0000 0000 0000 0000
00000060: 0000 0000 0000 0000 0000 0000 0000 0000
00000070: 0000 0000 0000 0000 0000 0000 0000 0000
00000080: 0000 0000 0000 0000 0000 0000 0000 0000
00000090: 0000 0000 0000 0000 0000 0000 0000 0000
000000a0: 0000 0000 0000 0000 0000 0000 0000 0000
000000b0: 0000 0000 0000 0000 0000 0000 0000 0000
000000c0: 0000 0000 0000 0000 0000 0000 0000 0000
000000d0: 0000 0000 0000 0000 0000 0000 0000 0000
000000e0: 0000 0000 0000 0000 0000 0000 0000 0000
000000f0: 0000 0000 0000 0000 0000 0000 0000 0000

base.mlp.fc2.0.0.weight f4 [64, 64]
0.045333657 -0.15449339 0.03274317 0.15385056 -0.2631323 0.17188865 -0.073927194 -0.1712911
-0.2293072 0.19488026 0.07075921 -0.5308192 -0.35018787 -0.074724674 -0.24735989 0.21327332
-0.033307787 0.30745426 0.17102236 -0.03471518 -0.07515396 0.0018745034 0.3545236 -0.36536446
-0.15619296 0.10549722 -0.25273532 0.16128717 0.2892137 -0.0024292846 -0.06590456 -0.16629058
0.43412444 0.010805844 0.009364241 -0.1784878 0.028867522 -0.4697539 -0.36255506 -0.029253315
-0.03950715 0.07298979 -0.03665149 -0.21156572 0.36196882 -0.0009351805 -0.025413783 0.2218755
-0.08801322 0.052278344 0.28539282 -0.32072878 0.23926187 0.07447922 0.26031712 -0.1833214
-0.20362528 0.0074647265 0.17267285 0.06562957 -0.14033811 -0.12160184 -0.18128513 -0.13985972
0.37598926 -0.042164713 0.029605588 -0.18381026 0.116112016 0.6091987 -0.6124404 -0.12817141
-0.07795372 0.04035848 -0.27705657 0.056320827 0.05932422 -0.00926703 -0.23771201 0.041461147
0.040454146 -0.1924586 0.12980774 0.03931301 0.1238218 -0.02493175 0.07790913 -0.09719204
-0.04061873 -0.4121516 0.06551925 0.28124735 -0.17984605 0.21514152 0.07538721 -0.013735383
-0.23274373 0.093981795 -0.10164874 0.12540396 -0.24576913 0.10558092 0.23999596 0.14874591
-0.3356941 0.0410764 0.24782932 -0.22799146 0.43659353 -0.24873313 0.108250804 0.12977277
0.029443026 0.13137431 0.0311691 0.30446297 -0.03596697 -0.3402332 0.13866195 -0.27241302
-0.11157238 -0.09625757 0.115987875 0.17828402 0.18454769 -0.13393503 0.28509656 0.015439539
-0.2937969 0.23374918 0.20727767 -0.05964496 0.0094695175 -0.1143341 -0.029975971 0.15537594
-0.2590105 0.23264265 -0.19136642 -0.13999374 0.4689487 0.024718951 -0.09284871 -0.005558684
-0.10830555 0.40849838 0.17672852 0.45340717 0.19795215 -0.21992415 0.33526722 0.3276728
0.22006306 0.25883237 0.22116128 0.19151618 -0.11947911 -0.04381543 -0.1704189 -0.16602087
0.031265527 0.002040882 -0.29931322 0.14375168 -0.00032010168 -0.16982608 -0.049566206 0.11858809
-0.01266055 0.002262695 0.3207668 0.1073208 -0.11953673 0.06746369 -0.23631687 0.07166159
-0.15738915 0.13413832 0.07013607 0.30800438 -0.13951693 0.21448986 0.37465873 -0.017632643
0.002288527 -0.113693364 -0.20746341 -0.5143545 0.09967619 -0.2691294 0.121697076 0.21427628
0.11759584 -0.31986135 -0.069149815 0.023842067 -0.1057585 -0.29540834 0.048168946 0.11748696
-0.24127874 0.4267228 -0.1771873 -0.14959392 -0.015141057 -0.0030289672 0.24893716 -0.49106273
-0.043087505 -0.08251341 -0.1544812 0.17163862 -0.12932445 -0.0141860135 0.11301651 -0.08698925
0.48776072 -0.21041438 -0.3190612 -0.039200842 -0.15905672 0.123808995 -0.45463878 -0.06147601
0.09984929 -0.18570946 0.35604423 0.04548224 0.027339486 0.31298533 -0.20202295 -0.13915686
0.22973892 -0.15741232 0.17454255 -0.37418064 -0.045260284 0.1750863 -0.07938005 -0.17407937
0.09921876 0.022830658 -0.13187425 0.50318795 0.06270426 -0.09659851 0.090199195 0.025114873
0.024854798 -0.24335949 0.18397835 0.29612473 0.06070391 -0.06891858 -0.18633391 -0.20237778
00000000: c9af 393d 8433 1ebe b41d 063d 008b 1d3e
00000010: 47b9 86be 9403 303e 2467 97bd ef66 2fbe
00000020: 82cf 6abe b18e 473e 34ea 903d c4e3 07bf
00000030: d34b b3be 4009 99bd e94b 7dbe 5264 5a3e
00000040: bf6d 08bd a56a 9d3e 7c20 2f3e 8131 0ebd
00000050: 52ea 99bd e6b1 f53a 1e84 b53e 0d11 bbbe
00000060: 0cf1 1fbe ed0e d83d 8666 81be 7728 253e
00000070: d113 943e a234 1fbb f8f8 86bd 1448 2abe
00000080: 8f45 de3e ff0a 313c 796c 193c 81c5 36be
00000090: 957b ec3c 9583 f0be d1a0 b9be a6a4 efbc
000000a0: 40d2 21bd ac7b 953d df1f 16bd afa4 58be
000000b0: fa53 b93e e726 75ba 9130 d0bc 5533 633e
000000c0: 4640 b4bd d121 563d 021f 923e 9036 a4be
000000d0: 1001 753e 9088 983d 4948 853e 9bb8 3bbe
000000e0: 2583 50be aa9a f43b 27d1 303e cc68 863d
000000f0: cbb4 0fbe 630a f9bd cfa2 39be 6337 0fbe
00000100: aa81 c03e e8b4 2cbd 6b87 f23c c238 3cbe
00000110: 23cc ed3d 72f4 1b3f e5c8 1cbf 5e3f 03be
00000120: 33a6 9fbd ef4e 253d 5cda 8dbe abb0 663d
00000130: f4fd 723d bed4 17bc c76a 73be 2ad3 293d
00000140: 3fb3 253d de13 45be 52ec 043e ae06 213d
00000150: 4996 fd3d ab3d ccbc d28e 9f3d 9f0c c7bd
00000160: d35f 26bd 8905 d3be f52e 863d a7ff 8f3e
00000170: 9029 38be 0f4e 5c3e 9c64 9a3d 5f0a 61bc
00000180: 5f54 6ebe 8779 c03d 372d d0bd e569 003e
00000190: e7aa 7bbe cf3a d83d 80c1 753e d950 183e
000001a0: 19e0 abbe ba3f 283d f8c6 7d3e 9876 69be
000001b0: 3089 df3e e6b3 7ebe 99b2 dd3d 27e3 043e
000001c0: 8032 f13c fd86 063e 5756 ff3c 92e2 9b3e
000001d0: 1a52 13bd 0c33 aebe 66fd 0d3e b879 8bbe
000001e0: 0f80 e4bd b022 c5bd 0d8b ed3d 1690 363e
000001f0: 12fa 3c3e 4426 09be 2df8 913e 1ff6 7c3c
00000200: 8c6c 96be f25b 6f3e 9940 543e 464e 74bd
00000210: 0926 1b3c ff27 eabd 2b90 f5bc df1a 1f3e
00000220: 069d 84be e039 6e3e 8ff5 43be 855a 0fbe
00000230: 0b1a f03e 667f ca3c 7727 bebd 9f25 b6bb
00000240: 4dcf ddbd b326 d13e 52f8 343e fc24 e83e
00000250: f8b3 4a3e cc33 61be 25a8 ab3e bbc4 a73e
00000260: 3658 613e ad85 843e 1a78 623e d11c 443e
00000270: 77b1 f4bd cf77 33bd 4b82 2ebe 6001 2abe
00000280: 4810 003d 51c0 053b 953f 99be a433 133e
00000290: 52d3 a7b9 e3e6 2dbe ef05 4bbd 50de f23d
000002a0: 326e 4fbc b949 143b 8c3b a43e 02cb db3d
000002b0: accf f4bd 672a 8a3d 0dfd 71be 50c3 923d
000002c0: 9f2a 21be 8e5b 093e 80a3 8f3d c0b2 9d3e
000002d0: 87dd 0ebe 3ba3 5b3e 45d3 bf3e 5572 90bc
000002e0: 1dfb 153b 11d8 e8bd 4a71 54be bdac 03bf
000002f0: 0823 cc3d 54cb 89be 513c f93d 3e6b 5b3e
00000300: 16d6 f03d dec4 a3be 6b9e 8dbd 7050 c33c
00000310: ea97 d8bd c33f 97be cd4c 453d 019d f03d
00000320: c611 77be 697b da3e 9670 35be 262f 19be
00000330: 3212 78bc a381 46bb 62e9 7e3e 936c fbbe
00000340: 867c 30bd cafc a8bd 5230 1ebe 09c2 2f3e
00000350: a16d 04be 746c 68bc 3375 e73d 6b27 b2bd
00000360: c6bb f93e de76 57be fd5b a3be 1091 20bd
00000370: c4df 22be 928f fd3d 6ac6 e8be 45ce 7bbd
00000380: c97d cc3d 9f2a 3ebe 6e4b b63e 964b 3a3d
00000390: 0ff7 df3c 9d3f a03e 1bdf 4ebe 237f 0ebe
000003a0: ae40 6b3e b230 21be 48bb 323e 9b94 bfbe
000003b0: d962 39bd d349 333e 0292 a2bd dd41 32be
000003c0: 3533 cb3d 5c07 bb3c 0b0a 07be edd0 003f
000003d0: 176b 803d 71d5 c5bd 5bba b83d b5bd cd3c
000003e0: 4a9c cb3c 3b33 79be d264 3c3e a99d 973e
000003f0: aaa4 783d 2f25 8dbd 51ce 3ebe 1f3c 4fbe

base.mlp.fc2.0.0.bias f4 [64]
0.0007298354 0.00030009588 0.0114381015 0.0018485984 -0.01662907 -0.01050594 0.028021023 -0.024675187
-0.02549791 0.029700605 -0.023953862 -0.009237725 -0.002264522 -0.0038016154 -0.019576045 0.011444872
-0.007905607 0.0043545286 -0.01109687 0.0041445633 -0.0090384325 0.00376644 0.01404393 0.0066260146
-0.007995159 -0.009188698 -0.00018022457 -0.0029163498 0.030955644 0.020691613 0.008163158 0.023389671
-0.007759491 -0.026596153 0.0021305461 -0.0005487137 -0.010116844 0.0013757917 0.020016335 0.020446876
-0.018374056 0.0037639565 -0.007338197 0.0043624584 -0.017649347 0.016004048 0.011164344 0.0018984061
0.017664833 -0.014170087 0.013073909 -0.0096847 0.009654271 -0.022753052 -0.006829075 0.002688207
0.0033095388 -0.0074265148 0.00038144912 0.0027128262 -0.020702576 0.0018587374 0.015606942 -0.008208921
00000000: 6d52 3f3a 3056 9d39 e066 3b3c ab4c f23a
00000010: b039 88bc 1b21 2cbc 588c e53c 9e23 cabc
00000020: fee0 d0bc af4e f33c e43a c4bc d459 17bc
00000030: 6068 14bb 8624 79bb f15d a0bc 4683 3b3c
00000040: 8586 01bc 6fb0 8e3b a5cf 35bc 1ecf 873b
00000050: ef15 14bc 61d6 763b 8318 663c 0a1f d93b
00000060: 21fe 02bc 318c 16bc aafa 3cb9 3b20 3fbb
00000070: b196 fd3c 7581 a93c c4be 053c b29b bf3c
00000080: 5443 febb 2de0 d9bc a2a0 0b3b 8ed7 0fba
00000090: 1fc1 25bc e953 b43a 4cf9 a33c 3580 a73c
000000a0: 3085 96bc b6ac 763b 4275 f0bb f4f2 8e3b
000000b0: 5d95 90bc ec1a 833c a7ea 363c f0d3 f83a
000000c0: d7b5 903c a729 68bc f333 563c 93ac 1ebc
000000d0: f32c 1e3c 9c64 babc 6fc6 dfbb a12c 303b
000000e0: d9e4 583b 1f5a f3bb 3cfd c739 acc9 313b
000000f0: 7398 a9bc e1a0 f33a 42b4 7f3c b67e 06bc

base.mlp.fc2.0.2.weight f4 [64]
1.0009594 1.0120733 1.0036345 1.0127152 1.0101731 0.99316764 0.97717655 0.9856646
1.0016677 0.99900836 0.9972998 1.0151476 0.9792385 0.9924007 1.016571 1.0166202
1.0216538 0.9786552 0.98686457 1.0224991 0.99634063 1.0102489 0.98976606 0.99456406
0.98495334 0.9923812 0.98495185 1.0132545 1.0120677 1.0054593 1.0290805 0.9981398
1.0089539 1.0160879 1.0063088 1.0027467 0.99750125 0.97919077 0.9895269 0.99692273
0.99839365 0.9930465 1.0084444 0.99136454 0.98454285 0.9853554 1.0058749 0.9991633
0.99012685 0.99904794 0.99845004 1.0180488 0.9946102 1.0091345 0.9751257 0.9874171
0.9979576 0.98553836 0.99466324 1.0060295 1.0096972 1.0224526 1.0146086 1.0142891
00000000: 701f 803f 9e8b 813f 1877 803f a7a0 813f
00000010: 5a4d 813f 3c40 7e3f 3e28 7a3f 8454 7c3f
00000020: a636 803f 03bf 7f3f 0a4f 7f3f 5bf0 813f
00000030: 60af 7a3f f90d 7e3f 001f 823f 9c20 823f
00000040: 8dc5 823f 2689 7a3f 28a3 7c3f 40e1 823f
00000050: 2e10 7f3f d64f 813f 4f61 7d3f c09b 7e3f
00000060: e725 7c3f b20c 7e3f ce25 7c3f 53b2 813f
00000070: 6f8b 813f e4b2 803f e9b8 833f 1786 7f3f
00000080: 6725 813f 2b0f 823f bace 803f 015a 803f
00000090: 3e5c 7f3f 3fac 7a3f a351 7d3f 5436 7f3f
000000a0: ba96 7f3f 4c38 7e3f b514 813f 11ca 7d3f
000000b0: 000b 7c3f 4040 7c3f 82c0 803f 2bc9 7f3f
000000c0: f478 7d3f 9bc1 7f3f 6c9a 7f3f 6c4f 823f
000000d0: c69e 7e3f 522b 813f d6a1 793f 5ec7 7c3f
000000e0: 267a 7f3f 3e4c 7c3f 40a2 7e3f 93c5 803f
000000f0: c23d 813f badf 823f b2de 813f 3ad4 813f

base.mlp.fc2.0.2.bias f4 [64]
0.007436055 0.0049101817 0.008400719 -0.0046716854 0.0025080356 -0.01400928 0.017096806 -0.014852935
-0.021627627 0.015208966 -0.016606355 -0.0034698448 0.010104282 -0.017322829 -0.016880777 0.012629394
0.007153302 -0.0032677045 -0.019017674 0.0004608163 -0.007049512 0.009984346 0.0096888635 0.006028342
0.0018055474 -0.016387777 0.015265073 0.013484732 0.0045195096 0.022058554 -0.0020483336 0.018467808
-0.004961809 -0.012942623 0.0026970336 0.0036603922 -0.027426576 0.005825009 0.00916713 0.02723645
-0.010608144 -0.0025480343 -0.0005458604 0.005831616 -0.004998616 0.0006804581 0.008873946 0.0021289343
-0.016221076 0.004216432 0.028161725 -0.014667909 0.009531899 -0.018772885 -0.000886991 0.013366017
0.012455128 -0.02842016 -0.0029685732 0.017459929 -0.0009264037 0.012736689 0.006185468 -0.012091813
00000000: 27aa f33b 97e5 a03b 2ba3 093c f014 99bb
00000010: db5d 243b 2e87 65bc 9a0e 8c3c ba59 73bc
00000020: 6c2c b1bc 072f 793c 0d0a 88bc 5666 63bb
00000030: 6e8c 253c 9be8 8dbc 8e49 8abc 85eb 4e3c
00000040: 3f66 ea3b fc26 56bb f4ca 9bbc b899 f139
00000050: 98ff e6bb 6295 233c 0abe 1e3c 6689 c53b
00000060: 1ea8 ec3a a93f 86bc 5b1a 7a3c 11ef 5c3c
00000070: 6518 943b 24b4 b43c 563d 06bb cd49 973c
00000080: ac96 a2bb 4c0d 54bc b7c0 303b 31e3 6f3b
00000090: b3ad e0bc b8df be3b bb31 163c fa1e df3c
000000a0: c8cd 2dbc ecfc 26bb 1218 0fba 2417 bf3b
000000b0: 6ecb a3bb c560 323a 0764 113c 9785 0b3b
000000c0: 10e2 84bc ff29 8a3b 6bb3 e63c ab51 70bc
000000d0: af2b 1c3c 98c9 99bc f584 68ba 23fd 5a3c
000000e0: 9810 4c3c 65d1 e8bc 658c 42bb 2008 8f3c
000000f0: e6d9 72ba 8cad 503c 77af ca3b bd1c 46bc

rnn.rnn.weight_ih_l0 f4 [192, 64]
-0.03318835 -0.055022303 -0.016015785 0.046453014 -0.001439784 0.039974947 -0.04008913 0.004752283
-0.024615288 -0.043277953 0.13051689 0.0025249037 -0.0069262255 0.017575141 -0.079027615 0.07010756
-0.045634057 -0.030036068 -0.05176514 -0.0025274933 -0.053868823 0.013399201 -0.10821962 -0.12312105
-0.057273775 0.04565293 0.058758765 0.0028189756 0.02830482 -0.009354594 -0.108174704 -0.008506186
-0.04958711 0.07528071 0.11210125 -0.06500695 0.06903323 0.11597106 0.051938754 0.013871894
-0.093888 0.07865351 -0.059138086 -0.014071907 0.11591087 -0.07142009 -0.15305795 -0.0037438096
0.13914824 0.089622274 0.04799988 -0.031470545 -0.14878961 -0.060522854 -0.033689767 -0.03922611
0.004745639 0.098794274 -0.021885391 0.022605877 0.0654969 -0.10667657 -0.039256677 0.008409917
-0.02414344 -0.06715627 -0.047512054 0.15735923 0.20321962 0.07448449 0.060299583 0.13766034
0.013349481 0.08071029 -0.08048222 -0.13004516 -0.0044366485 0.027575377 0.1067541 -0.21013382
-0.0081648 -0.10157827 -0.1323433 -0.038117215 0.020793775 -0.0030687405 0.0606565 -0.117438324
0.028709544 -0.011377634 -0.008143343 0.046239354 -0.07466975 0.050291687 -0.054948207 -0.034098756
-0.04699819 -0.04312845 -0.01469371 0.036447044 -0.006862866 0.06142639 -0.040671032 -0.12426777
-0.050031073 -0.057765156 -0.012672846 0.06279803 0.119623676 0.10626006 -0.011705189 -0.034014054
0.01549739 -0.029282192 0.10421694 0.017595151 -0.02838807 -0.018307008 0.118942805 -0.027302438
0.08629504 0.054783292 0.10058598 0.0039797784 -0.054401234 0.07445419 0.12139565 0.028243134
0.0064290655 -0.008098688 0.040906925 0.121820696 -0.000967711 0.13670895 -0.016946286 0.09630835
0.02894755 -0.017141541 0.06206686 -0.030395621 0.11969578 -0.016494012 -0.06209637 -0.04874105
0.12850776 0.033064682 0.053874463 -0.017570704 0.02737484 0.099874966 0.04135324 0.027245484
0.07005908 0.024214588 -0.03642173 0.056888975 -0.03734807 -0.044366967 -0.07029094 -0.01472494
-0.14759065 -0.039268497 0.0012746358 0.028283807 0.042931017 -0.097454615 -0.027072886 -0.032976285
-0.16285507 -0.17288576 -0.01973581 -0.10433525 0.092509665 -0.07668709 0.06470954 -0.05921922
0.03910926 0.038638424 0.065856695 0.027284037 -0.01471022 0.004912463 -0.01581425 -0.08205939
-0.020853627 0.033259027 0.042578172 0.06903348 -0.03820823 -0.11240131 0.11364955 -0.09254608
0.033988573 0.17761584 -0.07535186 -0.056098253 0.0032822783 -0.049255647 -0.1246904 0.085436836
-0.0708874 -0.056279738 -0.06518629 -0.001749315 0.014136302 0.015676115 -0.009150813 -0.094561
0.041058138 0.11330155 -0.021511033 -0.053591277 -0.03980906 -0.03910692 -0.04536621 -0.14639363
-0.18113829 -0.060103044 -0.051228072 0.06682406 -0.031661738 -0.04518116 0.02296579 -0.10478022
-0.029345553 0.0005192007 0.114986576 -0.027224516 0.015523386 0.0037311171 -0.02183242 -0.033469696
-0.017640868 -0.12746152 0.040254578 -0.032046985 0.025460908 -0.0011755611 -0.014454124 -0.06463104
-0.04111865 -0.02106815 0.019296302 0.01428035 0.08537677 -0.05411287 0.046514705 -0.012284314
0.054289903 -0.13324687 -0.03886398 -0.07314285 0.12849817 0.0787563 0.019282866 0.03589132
00000000: 82f0 07bd 115f 61bd 8933 83bc 8445 3e3d
00000010: 22b7 bcba c5bc 233d 8034 24bd 0ab9 9b3b
00000020: 00a6 c9bc 3944 31bd 38a6 053e db78 253b
00000030: 64f5 e2bb bef9 8f3c 3bd9 a1bd 8d94 8f3d
00000040: c7ea 3abd 330e f6bc af07 54bd 4da4 25bb
00000050: 8ea5 5cbd 5388 5b3c 40a2 ddbd e426 fcbd
00000060: e897 6abd 91fe 3a3d 08ad 703d 90be 383b
00000070: 83df e73c 0344 19bc b38a ddbd 885d 0bbc
00000080: da1b 4bbd c62c 9a3d 5795 e53d 5d22 85bd
00000090: 4b61 8d3d 3c82 ed3d bbbd 543d f146 633c
000000a0: 5a48 c0bd 1715 a13d c73a 72bd db8d 66bc
000000b0: ae62 ed3d b244 92bd 39bb 1cbe b45a 75bb
000000c0: e07c 0e3e e28b b73d 869b 443d 42e7 00bd
000000d0: 4e5c 18be d0e6 77bd 48fe 09bd 8fab 20bd
000000e0: 4e81 9b3b a754 ca3d fe48 b3bc f62f b93c
000000f0: 3d23 863d 3f79 dabd 9ccb 20bd c0c9 093c
00000100: 77c8 c5bc 3a89 89bd 009c 42bd c722 213e
00000110: ce18 503e 538b 983d b2fc 763d d5f6 0c3e
00000120: c8b7 5a3c 704b a53d ddd3 a4bd 8f2a 05be
00000130: 4e61 91bb c2e5 e13c e5a1 da3d 522d 57be
00000140: a7c5 05bc 4508 d0bd 0185 07be cc20 1cbd
00000150: b557 aa3c ec1c 49bb f372 783d 8183 f0bd
00000160: 4730 eb3c 4169 3abc a86b 05bc 7a65 3d3d
00000170: 74ec 98bd a8fe 4d3d 5f11 61bd 23ab 0bbd
00000180: 2d81 40bd 75a7 30bd e3bd 70bc 7f49 153d
00000190: e5e1 e0bb 3d9a 7b3d ab96 26bd 1a80 febd
000001a0: 62ed 4cbd 289b 6cbd c5a1 4fbc 419c 803d
000001b0: 42fd f43d e09e d93d 1fc7 3fbc 5252 0bbd
000001c0: c4e8 7d3c 35e1 efbc b16f d53d b523 903c
000001d0: 198e e8bc 94f8 95bc 4998 f33d 5da9 dfbc
000001e0: 74bb b03d 7264 603d 0600 ce3d cd68 823b
000001f0: d4d3 5ebd 707b 983d 489e f83d 255e e73c
00000200: e9aa d23b 5cb0 04bc 058e 273d 217d f93d
00000210: fcad 7dba 6efd 0b3e f0d2 8abc 503d c53d
00000220: 6a23 ed3c 6b6c 8cbc d239 7e3d 3d00 f9bc
00000230: 1023 f53d 731e 87bc c358 7ebd b2a4 47bd
00000240: 8a97 033e d56e 073d 78ab 5c3d 70f0 8fbc
00000250: 3341 e03c 3f8b cc3d 0462 293d ec31 df3c
00000260: 237b 8f3d ac5d c63c f42e 15bd 6a04 693d
00000270: 4afa 18bd 23ba 35bd b2f4 8fbd e040 71bc
00000280: 0122 17be 01d8 20bd ae11 a73a 71b3 e73c
00000290: 6fd8 2f3d 4996 c7bd f5c7 ddbc 2412 07bd
000002a0: 7bc3 26be f708 31be feac a1bc b8ad d5bd
000002b0: b575 bd3d 1f0e 9dbd 6f86 843d da8f 72bd
000002c0: 0831 203d 5343 1e3d e0df 863d c682 df3c
000002d0: 2203 71bc baf8 a03b e38c 81bc c10e a8bd
000002e0: 3ad5 aabc 9e3a 083d 7366 2e3d 6d61 8d3d
000002f0: 3c80 1cbd a832 e6bd 18c1 e83d cd88 bdbd
00000300: 9a37 0b3d ede0 353e 1352 9abd 48c7 65bd
00000310: 7e1b 573b 4ac0 49bd ae5d ffbd 82f9 ae3d
00000320: 6a2d 91bd 9585 66bd 6480 85bd 4549 e5ba
00000330: f39b 673c 326b 803c 4bed 15bc 33a9 c1bd
00000340: 942c 283d a50a e83d e837 b0bc 8782 5bbd
00000350: d30e 23bd 942e 20bd ebd1 39bd 36e8 15be
00000360: 517c 39be 9c2e 76bd 87d4 51bd 0edb 883d
00000370: bdaf 01bd e10f 39bd c122 bc3c 0397 d6bd
00000380: 1666 f0bc f81a 083a 157e eb3d f305 dfbc
00000390: cd55 7e3c c285 743b e7d9 b2bc 8517 09bd
000003a0: 9583 90bc 4685 02be fce1 243d b343 03bd
000003b0: 6593 d03c 4915 9aba fdd0 6cbc 475d 84bd
000003c0: 086c 28bd 1d97 acbc 4713 9e3c 21f8 693c
000003d0: 04da ae3d 75a5 5dbd 3486 3e3d 2644 49bc
000003e0: 175f 5e3d de71 08be d62f 1fbd ebcb 95bd
000003f0: 0695 033e fc4a a13d 1af7 9d3c c702 133d

rnn.rnn.weight_hh_l0 f4 [192, 64]
-0.05295729 0.008646841 0.09327613 -0.110551104 -0.03800497 0.13036695 0.091431476 0.102162614
-0.025520427 -0.07352188 0.033326417 0.026493976 0.0039998675 -0.03118424 -0.06330979 -0.13605393
0.0042916406 -0.091240324 -0.05792601 0.04437951 0.045453686 0.0010407731 -0.04696008 0.07378976
0.030838137 0.06914472 -0.021934196 -0.011897402 0.012069048 0.11915456 0.019938184 -0.038913976
0.08788026 0.011540246 -0.033855867 0.029160867 -0.018768575 0.03893107 0.058483765 0.03940113
-0.022343878 -0.047888435 -0.07397827 -0.04066196 -0.04030148 -0.043854367 0.11104814 0.047540117
0.019606689 -0.0467317 0.108472414 0.099673286 0.06879011 -0.14235964 -0.06654949 0.009105614
-0.11392794 0.0014120108 0.0096150385 -0.106958985 -0.111799955 -0.06580339 -0.049250588 -0.059171036
-0.0014825143 -0.05483349 -0.072036155 0.008669495 0.054321427 0.020378314 0.029011229 -0.009289098
-0.06308061 0.02072436 -0.041164983 -0.02366874 0.14691351 0.05399677 -0.09501844 -0.041635178
0.07781428 0.024233878 0.08413347 0.05852935 0.1400059 -0.11675449 0.01592512 -0.12276629
0.044642072 -0.03465671 0.0038080628 0.063434236 0.009620039 0.053014345 0.116566114 0.09225281
-0.05724748 0.076358184 -0.014728561 -0.012602868 -0.045326293 -0.086297005 0.035891674 -0.0024730195
-0.14257358 0.0030931504 0.00571635 -0.033515844 0.014931944 -0.019579127 0.06419987 0.14564228
-0.13164927 0.05187904 -0.029645886 -0.031012218 0.09411142 0.07397472 0.03177117 -0.021336468
-0.05361652 0.059225187 0.0065111294 -0.044463877 0.042229433 -0.03199027 -0.051388808 0.03849659
0.018035984 -0.049213357 -0.0066215578 0.029525824 -0.008357682 0.037475575 -0.084711626 -0.031916298
0.06457136 -0.013028969 -0.056641363 0.08520381 0.047716137 -0.0936828 0.006828924 -0.028279778
0.066104546 -0.0551665 0.036870707 0.11336759 0.010070995 -0.070127785 0.1259736 -0.0011759844
0.02094091 0.074629925 -0.0016619572 -0.003802639 -0.119780935 0.119531475 0.003073097 -0.09361049
0.12686568 -0.06261161 0.1460764 -0.11017461 0.0067553576 0.045288857 -0.07154805 0.044982914
-0.064681545 0.0037501815 -0.033515178 0.06725311 -0.063467436 -0.0978435 -0.12747166 -0.05465605
0.048186954 0.110885166 -0.11828356 0.035220366 -0.031956375 0.060403485 0.021250645 0.010653889
-0.111990154 -0.0090172 0.060415927 0.0054492443 -0.012408537 -0.17263743 -0.04871845 0.048263185
-0.08267374 -0.03549332 -0.0005122302 0.04245561 -0.003496949 -0.06861312 0.02323511 0.055839058
-0.04545525 -0.00019129388 -0.011829859 0.052445136 -0.01743873 0.02825272 0.017260538 -0.1203226
0.037796564 -0.04056178 0.01863545 -0.083452374 0.056670614 -0.019514494 -0.051839508 0.0935175
-0.015448873 0.02340609 -0.0073007857 -0.015337208 0.009955098 -0.078537375 0.02114434 0.104625985
0.10475196 0.16539997 -0.08928113 -0.028830696 -0.08032971 0.07619464 0.020723214 -0.06957084
-0.006759656 -0.07828751 0.010309095 0.010129832 0.04212446 -0.07913122 0.1490929 0.036647886
-0.007867588 0.0621465 0.11990291 -0.036448285 0.10438533 0.012602549 -0.08059841 -0.010749219
-0.03413375 -0.031898916 0.03535896 0.009159571 -0.003703164 0.046141867 -0.03763025 0.11057523
00000000: bee9 58bd 7bab 0d3c 8e07 bf3d 9e68 e2bd
00000010: 19ab 1bbd ea7e 053e 6d40 bb3d a23a d13d
00000020: 3710 d1bc a492 96bd 4881 083d e509 d93c
00000030: 5211 833b 1776 ffbc 90a8 81bd b951 0bbe
00000040: e4a0 8c3b 35dc babd d343 6dbd 4ac7 353d
00000050: a52d 3a3d 8d6a 883a 3659 40bd 161f 973d
00000060: 43a0 fc3c bf9b 8d3d 58af b3bc 52ed 42bc
00000070: 42bd 453c 4e07 f43d 6755 a33c 4364 1fbd
00000080: 91fa b33d 4d13 3d3c 73ac 0abd c5e2 ee3c
00000090: 8ec0 99bc 3076 1f3d ac8c 6f3d 1463 213d
000000a0: 820a b7bc aa26 44bd eb81 97bd 288d 26bd
000000b0: 2a13 25bd a3a0 33bd 356d e33d 6db9 423d
000000c0: 359e a03c bd69 3fbd c926 de3d 8221 cc3d
000000d0: d4e1 8c3d bac6 11be 194b 88bd b72f 153c
000000e0: 0d53 e9bd 3813 b93a 6588 1d3c 500d dbbd
000000f0: 60f7 e4bd eec3 86bd fcba 49bd 545d 72bd
00000100: ed50 c2ba 1599 60bd b187 93bd 7f0a 0e3c
00000110: 2580 5e3d 6cf0 a63c f5a8 ed3c 4d31 18bc
00000120: 6830 81bd 22c6 a93c 9d9c 28bd f2e4 c1bc
00000130: 7f70 163e b82b 5d3d 0799 c2bd a689 2abd
00000140: 185d 9f3d 2086 c63c 2b4e ac3d 79bc 6f3d
00000150: b55d 0f3e fa1c efbd 6675 823c e56c fbbd
00000160: 9bda 363d 32f4 0dbd b190 793b cfe9 813d
00000170: 5e9d 1d3c 9225 593d 37ba ee3d 0bef bc3d
00000180: 557c 6abd ae61 9c3d 1050 71bc 427c 4ebc
00000190: 10a8 39bd 7cbc b0bd 2603 133d 6212 22bb
000001a0: cffe 11be 74b6 4a3b 3850 bb3b e947 09bd
000001b0: 1da5 743c 6864 a0bc 397b 833d 4023 153e
000001c0: 11cf 06be 1e7f 543d eedb f2bc 560d febc
000001d0: 7dbd c03d 0f80 973d 7d22 023d d1c9 aebc
000001e0: ff9c 5bbd 1c96 723d 505b d53b c11f 36bd
000001f0: c5f8 2c3d 3b08 03bd 127d 52bd 9aae 1d3d
00000200: 33c0 933c f293 49bd a7f9 d8bb 24e0 f13c
00000210: a9ee 08bc fd7f 193d 4a7d adbd aaba 02bd
00000220: fd3d 843d 7577 55bc c600 68bd 567f ae3d
00000230: ff71 433d c5dc bfbd 2bc5 df3b feaa e7bc
00000240: d261 873d 45f6 61bd bd05 173d 442d e83d
00000250: d100 253c 289f 8fbd 39ff 003e 7d23 9aba
00000260: 458c ab3c 93d7 983d 08d6 d9ba b235 79bb
00000270: b54f f5bd ebcc f43d 0366 493b dbb6 bfbd
00000280: 14e9 013e 843a 80bd 0d95 153e 3aa3 e1bd
00000290: 0c5c dd3b cf80 393d c987 92bd 0140 383d
000002a0: c277 84bd 9bc5 753b 3647 09bd 00bc 893d
000002b0: 37fb 81bd 2c62 c8bd ee87 02be 06df 5fbd
000002c0: af5f 453d c317 e33d a73e f2bd 3b43 103d
000002d0: b0e4 02bd a569 773d d515 ae3c a68d 2e3c
000002e0: 185b e5bd e1bc 13bc b176 773d 938f b23b
000002f0: 2d4d 4bbc dec7 30be ff8c 47bd 9eaf 453d
00000300: da50 a9bd 7261 11bd 3047 06ba efe5 2d3d
00000310: 122d 65bb 0985 8cbd 8f57 be3c 7fb7 643d
00000320: 492f 3abd 0f96 48b9 06d2 41bc b6d0 563d
00000330: abdb 8ebc 4072 e73c f965 8d3c b26b f6bd
00000340: 92d0 1a3d 1c24 26bd 5fa9 983c 14e9 aabd
00000350: 721f 683d dcdc 9fbc aa55 54bd 1a86 bf3d
00000360: 451d 7dbc 21be bf3c 6e3b efbb ea48 7bbc
00000370: b51a 233c 34d8 a0bd e536 ad3c 2646 d63d
00000380: 3288 d63d 9c5e 293e 06d9 b6bd 5a2e ecbc
00000390: e783 a4bd ef0b 9c3d bbc3 a93c 287b 8ebd
000003a0: 1b80 ddbb 3455 a0bd 7ae7 283c 98f7 253c
000003b0: b38a 2c3d 8d0f a2bd cfab 183e 181c 163d
000003c0: 0ee7 00bc 548d 7e3d a88f f53d cc4a 15bd
000003d0: fac7 d53d ec7a 4e3c c710 a5bd 7e1d 30bc
000003e0: d5cf 0bbd 70a8 02bd 8fd4 103d 0612 163c
000003f0: c8b0 72bb 41ff 3c3d 2d22 1abd 4475 e23d

rnn.rnn.bias_ih_l0 f4 [192]
-0.0036706985 0.009438284 0.009861989 -0.00082033436 0.0059948275 0.0040486553 0.0063144886 3.1527492e-05
0.00610178 0.008431039 0.0004265617 0.0050835973 0.008501662 -0.0004998305 0.0038841448 0.0012550815
3.5593323e-05 0.0034557825 0.000905955 0.0058259917 0.0025839158 -0.003361442 0.0011062969 -0.00225947
0.0018251273 -0.000365152 0.00643042 0.0015695543 0.0007381189 0.0013538239 -0.0073070875 -0.0018968628
0.005538721 0.002800366 -0.010117915 -0.005266744 0.0044643567 -2.0951742e-05 -0.005318815 -0.0045294254
0.0037532211 0.0021284996 -0.0010938862 0.004721037 0.0054399176 8.041306e-05 -0.0073798783 0.007823309
0.002485683 0.004377689 -0.000792525 -0.0062976186 0.009158371 0.0005188879 0.009092185 0.004198099
-0.002817152 0.006190517 -0.0022826062 0.0034772875 0.0052207997 0.005882774 0.005226413 -0.0047225994
-0.002295552 -0.0047396175 0.0017568414 0.006810446 -0.0041406834 0.007871481 0.007483293 -0.0056279805
0.0065156184 -0.004923912 0.009926285 0.0031801336 0.004902258 -0.011481304 0.0031876196 -0.0034556317
0.00267126 -0.014018345 0.015051085 -0.0057550566 -0.020420559 0.0022053123 -0.008555167 -0.0083396025
-0.015184449 0.0016996856 0.0033520332 -0.00077757705 -0.006161867 -0.0010157531 -0.004050695 -0.010874703
-0.020023713 -0.0023498253 0.017535146 0.015554073 -0.0039370763 -0.000610591 -0.004725219 0.014539271
0.006960463 -0.0024216915 0.0056669046 -0.0033405551 -0.00086060003 -0.0067738555 0.0069851065 0.0029490595
0.0096616475 0.0019477422 0.008865509 -0.018879334 -0.011905134 -0.0008469532 0.0032904677 0.0009004387
0.0028006784 -0.001411119 0.005988815 -0.0047315815 -0.0052879043 -0.0064229346 -0.0025196616 -0.0025923576
-0.008349961 0.013858648 -0.0078077237 0.006557423 0.004944849 0.005026641 0.027075002 -0.016402246
0.012294501 -0.003713157 -0.012415274 -0.014222326 -0.0040419693 -0.004125716 -0.0071433736 -0.0010895053
-0.004209854 0.0048369425 0.0046726903 -0.017966084 -0.017272111 0.0039461576 -0.03437088 -0.003982923
-0.024196338 0.00824001 -0.017298775 -0.013270395 0.0025579405 0.0014191959 0.017681876 0.0064454675
0.01169816 0.0027749427 -0.0046957815 0.008187543 0.008761596 -0.008352458 0.028008958 -0.022557855
0.016569074 0.009253524 0.023506766 0.006147639 -0.008277503 -0.019654129 0.011288259 0.0031736789
0.004352565 -0.015832748 -0.0060906694 0.014850811 -0.00293288 0.019316977 -0.03216659 0.01672517
0.0012149467 0.02350989 0.0033970284 -0.013573031 -0.036346402 0.023777159 0.012598402 -0.012734825
00000000: 1a90 70bb 08a3 1a3c 2e94 213c b50b 57ba
00000010: 4270 c43b 95aa 843b c5e9 ce3b 633c 0438
00000020: 71f1 c73b 5722 0a3c 24a4 df39 4e94 a63b
00000030: 8e4a 0b3c 0f07 03ba 238d 7e3b 8c81 a43a
00000040: 0a4a 1538 697a 623b 9c7d 6d3a f6e7 be3b
00000050: ea56 293b a34b 5cbb 2a01 913a 9e13 14bb
00000060: 1c39 ef3a df71 bfb9 46b6 d23b 81b9 cd3a
00000070: 527e 413a cb72 b13a 4b70 efbb 27a0 f8ba
00000080: 297e b53b 5886 373b 9dc5 25bc a794 acbb
00000090: bd49 923b 86c1 afb7 7449 aebb 936b 94bb
000000a0: 9af8 753b 4c7e 0b3b bb60 8fba eeb2 9a3b
000000b0: 5641 b23b 6fa3 a838 e8d2 f1bb 562d 003c
000000c0: d7e6 223b b872 8f3b 74c1 4fba 415c cebb
000000d0: fe0c 163c fa05 083a 63f7 143c 3590 893b
000000e0: f89f 38bb d2d9 ca3b c797 15bb 34e3 633b
000000f0: 3e13 ab3b 49c4 c03b 5442 ab3b 09c0 9abb
00000100: f970 16bb cb4e 9bbb d145 e63a 292a df3b
00000110: 92ae 87bb 62f7 003c 6936 f53b ec6a b8bb
00000120: f880 d53b c558 a1bb dba1 223c ca69 503b
00000130: 1fa3 a03b 141c 3cbc 62e7 503b e177 62bb
00000140: 4e10 2f3b 33ad 65bc d398 763c ea94 bcbb
00000150: 0449 a7bc 0087 103b f92a 0cbc d4a2 08bc
00000160: 32c8 78bc fcc7 de3a c9ad 5b3b 50d6 4bba
00000170: 7de9 c9bb 0523 85ba b1bb 84bb cf2b 32bc
00000180: c508 a4bc 87ff 19bb dea5 8f3c 83d6 7e3c
00000190: 9702 81bb 1210 20ba 03d6 9abb 1f36 6e3c
000001a0: 9814 e43b 3eb5 1ebb 71b1 b93b 37ed 5abb
000001b0: e499 61ba 38f7 ddbb 52e3 e43b 0245 413b
000001c0: e34b 1e3c 624b ff3a a440 113c d5a8 9abc
000001d0: c00d 43bc 1106 5eba e3a4 573b 6b0b 6c3a
000001e0: 968b 373b 4cf5 b8ba d23d c43b 620b 9bbb
000001f0: 2846 adbb 7b77 d2bb e820 25bb 8be4 29bb
00000200: 46ce 08bc 620f 633c efd7 ffbb a7df d63b
00000210: 6608 a23b 85b6 a43b 65cc dd3c 015e 86bc
00000220: e06e 493c 7058 73bb 6f69 4bbc c204 69bc
00000230: 7f72 84bb 0431 87bb f612 eabb bbcd 8eba
00000240: d1f2 89bb 377f 9e3b 5e1d 993b 9c2d 93bc
00000250: 3e7e 8dbc c54e 813b 7bc8 0cbd 2e83 82bb
00000260: 6637 c6bc 1b01 073c 29b6 8dbc 126c 59bc
00000270: 1fa3 273b 5004 ba3a 95d9 903c 8034 d33b
00000280: a4a9 3f3c d0db 353b 12df 99bb 0b25 063c
00000290: cc8c 0f3c bfd8 08bc 0b73 e53c 40cb b8bc
000002a0: debb 873c 189c 173c 4391 c03c 2272 c93b
000002b0: 5d9e 07bc b201 a1bc 64f2 383c 7ffd 4f3b
000002c0: f69f 8e3b aeb3 81bc 3d94 c7bb d150 733c
000002d0: 9035 40bb a33e 9e3c 1dc1 03bd 3903 893c
000002e0: d93e 9f3a d097 c03c aea0 5e3b 6b61 5ebc
000002f0: f7df 14bd 51c8 c23c 8769 4e3c baa5 50bc
