onpolicy/scripts/results/MPE/simple_spread/rmappo/check/wandb/run-20220704_235601-1ql8wav8/files/critic.pt (torch, 156012 bytes, 21 tensors)

base.feature_norm.weight f4 [54]
000000 c8 fb 7c 3f 3e d5 7e 3f 3a 17 80 3f 3d bf 81 3f
       0.9882169 0.9954413 1.0007088 1.0136486
000010 49 5f 7f 3f 89 03 80 3f 14 36 7e 3f 82 3f 7f 3f
       0.9975477 1.0001079 0.99301267 0.9970628
000020 fd a3 80 3f 49 8b 7d 3f 57 e2 81 3f f8 ee 7e 3f
       1.0050045 0.9904066 1.0147198 0.9958339
000030 99 bc 81 3f ce 90 81 3f 7d e7 7d 3f 30 ea 7f 3f
       1.013568 1.0122316 0.9918135 0.99966717
000040 1c c1 7c 3f 48 ce 7e 3f e2 05 80 3f 3e 85 7a 3f
       0.9873216 0.9953351 1.0001795 0.9785956
000050 26 2f 7b 3f 0b e1 7e 3f ad ba 80 3f 74 7f 80 3f
       0.9811882 0.9956214 1.0056969 1.0038896
000060 b2 ca 7e 3f b8 dc 7f 3f 17 30 7c 3f 0a b5 7f 3f
       0.9952804 0.99946165 0.9851088 0.9988562
000070 67 e2 7f 3f 7f be 7e 3f 3e e3 80 3f a1 36 7e 3f
       0.9995484 0.99509424 1.0069349 0.9930211
000080 e9 95 80 3f 23 92 7e 3f 72 65 80 3f 55 2a 7e 3f
       1.0045749 0.99441737 1.0030959 0.99283344
000090 6d bd 7e 3f 57 eb 7a 3f f9 47 80 3f d3 5d 80 3f
       0.9950779 0.9801535 1.0021964 1.0028633
0000a0 dd 59 80 3f 62 0a 7f 3f 44 52 81 3f c4 c1 7d 3f
       1.0027424 0.9962522 1.010323 0.9912379
0000b0 44 62 80 3f e0 44 80 3f 30 7b 80 3f 28 af 82 3f
       1.0029988 1.0021019 1.0037594 1.0209703
0000c0 dc 64 80 3f b0 e3 7d 3f c1 bb 7e 3f dc 01 7c 3f
       1.003078 0.9917555 0.9950524 0.9844034
0000d0 a4 5f 82 3f af 5a 81 3f
       1.0185437 1.01058

base.feature_norm.bias f4 [54]
000000 3f ca 2a bc 7d 59 60 bb 67 5e 28 bb b3 68 78 bc
       -0.010424196 -0.0034233027 -0.0025691034 -0.015161681
000010 6a 9f 4a 3c 51 63 a2 bb f5 a3 2e 3c aa 11 0a bc
       0.012367109 -0.004955687 0.010659208 -0.008427063
000020 12 be e8 bb d1 0b 89 3c 04 62 97 3a 84 d4 d6 3b
       -0.0071027363 0.016729267 0.0011549597 0.0065560956
000030 17 e1 90 3c 3d 26 ab 3c 6f bb 03 bc f5 22 1b 3b
       0.017685456 0.020892257 -0.008040293 0.002367196
000040 10 f9 b5 bc 8f 28 31 bc a0 51 e6 3b fa 8b 54 bb
       -0.022213489 -0.010812893 0.0070287734 -0.0032432065
000050 78 c3 f8 ba f1 42 9a 3b 88 86 60 bc f6 97 10 3c
       -0.0018979153 0.004707687 -0.01370395 0.008825293
000060 c1 6b c4 3b 05 17 1b 3c f6 03 af bb e3 70 07 bc
       0.0059942906 0.0094659375 -0.0053410484 -0.00826666
000070 a0 7e a7 bb 05 b6 27 3a 63 eb 0f bc 76 ae 3a bc
       -0.0051115304 0.00063976675 -0.008784148 -0.011394134
000080 50 69 01 3c 70 8e cb 3c 95 92 a7 bc ce 00 a2 3b
       0.007898644 0.024848193 -0.020455638 0.0049439436
000090 2f 8b 0a bb 73 cb 0c bc 01 72 25 bb 16 6e fd bb
       -0.0021140089 -0.008593428 -0.0025244954 -0.0077340705
0000a0 46 69 00 bc e6 3b c0 bb 97 71 6c 3b f1 49 b2 3c
       -0.007837599 -0.0058665155 0.0036078447 0.021763774
0000b0 29 30 74 3c 40 d0 7b 3c 2d cf 0a 3c e2 2e 95 ba
       0.01490406 0.015369475 0.008472246 -0.001138177
0000c0 bd 30 a6 bc e4 fa 00 bc a7 a0 d8 bb 9f 6a 63 3b
       -0.020286912 -0.007872317 -0.006610948 0.0034701002
0000d0 a8 73 6b 3a fd ab e9 3b
       0.00089817727 0.0071310983

base.mlp.fc1.0.weight f4 [64, 54]
000000 c0 84 3a be d1 96 d4 3e c3 8d d7 3d 87 38 4f 3e
       -0.18214703 0.41521314 0.10525086 0.20236407
000010 26 24 cb bd 0a 7f 03 bd a8 e2 49 bd 29 c3 8c 3c
       -0.09919004 -0.032103576 -0.049288422 0.017182903
000020 4c f9 ee 3d 69 04 c8 3d b9 7a 51 3e f4 72 2e be
       0.11668643 0.09766466 0.20456971 -0.17036039
000030 07 78 4f be 8c b8 82 3d bc 88 87 be f0 90 b7 3e
       -0.2026063 0.06382856 -0.26471508 0.35852766
000040 f5 2c 2f 3e b5 26 10 3f a3 38 0c be 44 23 9f be
       0.17106993 0.5630906 -0.1369348 -0.31081593
000050 15 d9 3f be 68 32 29 be 2b 2f d1 bd be b0 26 3e
       -0.18735154 -0.16523135 -0.10214075 0.1627836
000060 19 1a 8e 3e db e9 ea 3d 2b 23 c7 3d c6 03 27 3e
       0.27754286 0.11470386 0.09723505 0.16310033
000070 54 1c 80 3b 5e 68 23 3e be 6c 8e 3e 81 22 64 3e
       0.003909627 0.15957782 0.2781734 0.22278787
000080 94 86 ca 3e a4 44 ad be 8c 7c 95 bd 0c cb 88 be
       0.395558 -0.3384143 -0.07299146 -0.26717412
000090 97 41 0c 3d a2 48 20 3d 81 90 dd bd 13 b8 4b bd
       0.03424224 0.039131768 -0.108185776 -0.049736094
0000a0 a1 ae 61 be 8f a0 25 be cb 72 fc 3d 6f 9f a1 3d
       -0.22039272 -0.1617453 0.123265825 0.07891738
0000b0 c6 18 90 be 3a d4 08 3e 3c 0b af 3e 51 54 6e 3e
       -0.281439 0.13362208 0.3418826 0.23274352
0000c0 a5 49 a0 3e 3f e7 f6 bd b6 3f 1d be 8d 34 24 bc
       0.31306186 -0.120558254 -0.15356335 -0.010022295
0000d0 d4 bf ff bb 20 f3 c7 bc 00 ef 90 3e d9 9a c2 3d
       -0.00780485 -0.024407923 0.28307343 0.09502191
0000e0 cd 73 61 3e 4b 23 65 bc f9 b4 d5 bd f9 8e 01 3e
       0.2201683 -0.013985465 -0.104349084 0.12652196
0000f0 c4 b5 de 3e 89 af 2b be ad a8 2b 3f 9d 57 86 3e
       0.4349805 -0.1676618 0.67054254 0.2623872
000100 80 c0 a6 3d b1 71 32 be 50 2e 8f bd 2e 08 53 3d
       0.08142185 -0.17426182 -0.06991255 0.051521473
000110 57 3e 8f 3e a1 23 d2 3d b0 a2 9a 3c 88 c9 8e be
       0.2797725 0.10260702 0.018876404 -0.2788813
000120 dd c5 9e 3e 4c 96 1a be f8 ec c0 3d 36 f5 8b 3e
       0.31010333 -0.15096396 0.09420198 0.2733552
000130 5d 6c c9 bd ec b3 4e 3d 66 b2 82 3d 1e 7a a3 be
       -0.09835122 0.050464556 0.06381683 -0.31929106
000140 83 b1 2f be ad bc 81 3d cb 3e 92 be 57 2f 6e 3e
       -0.17157559 0.06334815 -0.28563532 0.23260246
000150 ba f0 52 3e d7 11 26 be 6c c8 52 3d 51 de 24 3c
       0.20599642 -0.16217743 0.05146067 0.01006277
000160 94 b3 b6 bd 9a 07 d2 bc 07 93 64 3e 45 84 20 3e
       -0.089209706 -0.02563839 0.22321711 0.15675457
000170 5b 9f e7 3d 99 d0 1d 3e cd 70 0f bd d1 ef 1c 3e
       0.113096915 0.15411605 -0.035019685 0.15325858
000180 eb 39 be be 07 1d 94 bd bd a9 7d bd 49 9a 4f be
       -0.37153563 -0.07232099 -0.061929453 -0.20273699
000190 3b a8 a5 3c 45 ac 29 bd 23 c9 c7 3c 28 b4 94 be
       0.02022182 -0.041424055 0.024387902 -0.29043698
0001a0 0c 08 3f be dd 69 ba 3b b5 07 f3 3e 8d cd 0e 3e
       -0.18655413 0.0056888894 0.47466817 0.13945599
0001b0 32 4e b3 3e 87 27 27 3e e3 9b 61 bd 12 9d 1d bf
       0.35020596 0.16323672 -0.055080306 -0.61567795
0001c0 89 55 2d 3e 56 16 25 3e e7 82 68 3d e3 0a 1b 3d
       0.1692716 0.16121802 0.056765463 0.03785218
0001d0 b3 64 ed bd 5a 50 40 3e 02 ec 24 3e 50 33 9b 3d
       -0.115914725 0.18780652 0.16105655 0.075781465
0001e0 90 69 fe 3d be 60 c0 3d 81 9d 44 bd 69 e3 04 be
       0.12422478 0.09393452 -0.04800177 -0.12977375
0001f0 2d 57 31 3e 40 b1 5f 3e 9c 30 71 3e 08 af 60 be
       0.17318411 0.2184496 0.235537 -0.21941769
000200 94 05 dc bd bb cc 05 3e d7 28 b4 3e 06 7f 3c be
       -0.107432514 0.1306638 0.35187408 -0.1840783
000210 52 fb c8 3b 9e eb c1 3e 34 cc 80 3e a4 2d 8f 3c
       0.0061334753 0.37875074 0.25155795 0.017477818
000220 d8 39 84 bd 2b 5a 86 3e 30 d5 fa bc 28 5e d2 3e
       -0.06456345 0.26240668 -0.030619234 0.4108746
000230 43 56 8d be 79 2f 4a 3d 41 74 69 be 15 c3 8b 3e
       -0.27604875 0.04936168 -0.22798254 0.27297273
000240 4c 31 dc bd 5c 94 12 be c4 bc 72 3e c3 46 30 bd
       -0.1075159 -0.14314407 0.23704821 -0.043036234
000250 75 04 f0 3e 28 b5 3e be e3 69 91 be 1e 22 6b 3e
       0.468784 -0.18623793 -0.28401098 0.22962233
000260 89 c1 7a be 0a 4b 73 3d 19 8b ce 3c 8f 37 88 3d
       -0.2448789 0.059397735 0.025212811 0.06651222
000270 ff da 91 3e a0 75 06 be bb 6a f2 bd dc ad c9 bd
       0.28487393 -0.13130808 -0.118367635 -0.09847614
000280 46 8c 1a 3e 95 37 9b be 21 fa 74 3d b5 36 18 3d
       0.15092573 -0.30315843 0.059808854 0.037161548
000290 66 31 9a be 7c 52 82 be eb d8 c6 3c 21 49 1e be
       -0.30115813 -0.25453556 0.024273356 -0.15457584
0002a0 7e aa 93 bd 24 d4 8a 3e 34 6f b3 be 78 7c fb bc
       -0.07210253 0.27114975 -0.3504578 -0.030699
0002b0 20 7b 34 3e b7 f6 78 3d e3 a3 6c be e9 ba 6c 3e
       0.17625093 0.06078216 -0.23109393 0.23118176
0002c0 4a 29 98 bd 34 a7 5a 3e 35 a9 36 3e cd e5 0f be
       -0.0742975 0.21352845 0.17837985 -0.14052506
0002d0 d3 d6 f9 3e e6 50 a2 3d 64 51 c6 be ea 94 9e 3d
       0.4879671 0.079255864 -0.3873397 0.07743247
0002e0 04 c7 9d 3c d6 5e 83 3e f8 df 00 be b6 8a a7 3e
       0.019259937 0.25658292 -0.12585437 0.32723016
0002f0 04 9c 83 3e 71 34 95 bd da 1c da 3d 8f c4 db bd
       0.25704968 -0.07285393 0.10650034 -0.1073085
000300 fb 38 cf bd ea a8 ff bd b0 85 73 3e b3 b9 6d 3e
       -0.1011829 -0.1248339 0.23781466 0.2321537
000310 36 06 82 3e c9 1b e3 bd 73 ed 62 bd 90 42 f1 3e
       0.25395364 -0.11089284 -0.05540223 0.47121096
000320 6f ec 23 be ad 6e 38 be 55 3b 15 3b ea 66 ab 3d
       -0.16008161 -0.1801097 0.002277096 0.08369239
000330 a6 e3 7d be 76 f7 e7 be 9d 6e ed 3d b5 e1 18 be
       -0.24793872 -0.45305985 0.115933634 -0.1492985
000340 73 c5 9f 3e 29 c6 9a 3d 62 56 84 bd 09 c0 0a be
       0.3120533 0.07557327 -0.06461789 -0.13549818
000350 6d 30 49 bd 6b 36 75 3e 2f 10 ed bd fa f2 52 3e
       -0.049118448 0.2394654 -0.115753524 0.206005
000360 42 ea 33 3e 61 a6 85 3e ca 39 57 3e 3d 70 09 be
       0.17569831 0.261035 0.21018139 -0.13421722
000370 d9 d5 0f bd 3b 19 2a be cc 43 5f 3e 1b d3 b9 be
       -0.03511605 -0.16611187 0.21803206 -0.36293873
000380 14 9a 9b 3d 79 4e 00 be 8c 10 05 be 29 f4 54 3e
       0.075977474 -0.12529935 -0.12994593 0.20796265
000390 ed c6 7f be e4 64 d3 3a c8 31 5b 3e 61 ff c1 3d
       -0.24978228 0.001612809 0.21405709 0.09472538
0003a0 7e 50 ec 3e d3 6d 4b 3e 1b 6a 50 be 52 08 ca bc
       0.4615516 0.19866113 -0.20352976 -0.02466217
0003b0 86 df 38 bd 34 aa 9c be 3b de e3 bc 57 bc 27 3e
       -0.045135044 -0.30598605 -0.027815929 0.1638044
0003c0 c0 71 61 be 99 ed 82 bd 4f 88 bc bd 32 df 81 3d
       -0.22016048 -0.063929744 -0.09205686 0.06341399
0003d0 78 e5 2f be ac dc 2a 3c cf 1a 2b 3d 61 33 8a bd
       -0.17177379 0.010428589 0.041773614 -0.06748081
0003e0 9a 7e b9 bd 0b c4 86 3e bf 63 99 be cf 2b 9e 3e
       -0.090573505 0.26321444 -0.29958913 0.30892798
0003f0 95 b4 52 be c8 18 82 be dd 5d a5 be aa c3 7f be
       -0.20576699 -0.25409532 -0.32298175 -0.24976984

base.mlp.fc1.0.bias f4 [64]
000000 5e 33 72 bc 9c a9 ff 3a 26 a6 c9 bb c5 e9 48 3c
       -0.014782755 0.0019505504 -0.0061538396 0.012262766
000010 7f 99 e2 3a 31 bf cb bc bb e0 02 3a 38 c8 d6 bb
       0.0017288177 -0.02487144 0.0004992594 -0.0065546297
000020 67 ab 58 bc 9b 18 29 bb 78 c5 37 bc 9d ec c1 3b
       -0.013224459 -0.002580202 -0.011216514 0.005918099
000030 bc fa 00 bc 10 04 82 3c 40 8f 57 3c 35 d2 20 3c
       -0.00787228 0.015871078 0.013156712 0.009815742
000040 69 fe ad 3b 46 cf d0 3b 7f 5b a8 3b 42 06 a6 3b
       0.005309869 0.006372365 0.0051378603 0.005066664
000050 97 a0 92 bb 1e c0 89 bc c2 1f 90 3c a7 74 c4 3b
       -0.00447471 -0.016815241 0.017593268 0.0059953514
000060 63 64 38 bc 80 ba 64 bb 32 44 40 3c a6 d2 00 3c
       -0.011254403 -0.0034901202 0.011735009 0.0078627225
000070 cd 80 2e 3c a1 d5 88 bc 8f 4a e7 3b 86 98 55 3c
       0.010650826 -0.016703429 0.0070584486 0.013036853
000080 cb 79 15 bb 10 be df 3b 7e 8c 4e bc f3 a1 42 bc
       -0.002280819 0.006828077 -0.012606738 -0.011879432
000090 5f a8 0c 3c 81 53 6b 3a 35 ab aa b9 0f 00 f9 3b
       0.008585065 0.00089769816 -0.00032552486 0.007598884
0000a0 f1 2a 07 ba f4 0f 0c bc 68 7b a9 3b be 79 32 bc
       -0.000515624 -0.008548725 0.005172182 -0.010893283
0000b0 d4 c2 da 3b f5 17 45 3b fb 83 0b bc 7b ab 79 3b
       0.0066760574 0.0030074094 -0.008515353 0.0038096595
0000c0 e7 23 43 3c aa 3d a9 bb b7 a9 34 bb 42 74 cc ba
       0.011910415 -0.0051648216 -0.0027566978 -0.0015598612
0000d0 b1 9f 21 38 9d 56 98 3b 93 d7 40 bc 1c df 9f bc
       3.8534115e-05 0.004648997 -0.011770147 -0.019515567
0000e0 8b 1a 00 3a 38 04 ac 3b 65 6f 29 bc 57 6d 41 bc
       0.0004886768 0.0052495264 -0.0103415 -0.011805854
0000f0 e7 6b 92 3b f1 46 dc bb 5b f9 ae bb 5c 7f c0 bb
       0.0044684294 -0.006722324 -0.005339784 -0.0058745574

base.mlp.fc1.2.weight f4 [64]
000000 8a d7 7f 3f d0 8e 7f 3f 23 be 7e 3f a5 30 7f 3f
       0.9993826 0.9982729 0.99508876 0.996836
000010 1b 6e 80 3f 77 fe 82 3f 26 da 7e 3f 14 fb 80 3f
       1.0033602 1.0233907 0.9955162 1.0076623
000020 31 d1 7f 3f ef a2 7e 3f ef 1f 81 3f 9c 4b 7f 3f
       0.99928576 0.99467367 1.008787 0.99724746
000030 20 61 80 3f f5 29 83 3f 91 7c 7e 3f 2a 80 79 3f
       1.002964 1.0247179 0.99408823 0.9746119
000040 cd ce 80 3f 13 7e 7a 3f e0 b4 7d 3f 9b c0 7f 3f
       1.006311 0.97848624 0.9910412 0.9990327
000050 74 fe 80 3f cf 7c 80 3f 50 54 83 3f 68 c8 81 3f
       1.0077653 1.0038089 1.0260105 1.0139284
000060 a3 3a 80 3f b2 78 7b 3f 70 41 7d 3f 34 fb 81 3f
       1.0017895 0.9823104 0.98927975 1.0154786
000070 81 d7 81 3f 86 0c 7d 3f 13 be 81 3f a4 43 80 3f
       1.0143892 0.98847234 1.0136131 1.0020642
000080 32 8c 7e 3f 77 93 7e 3f 89 73 80 3f f6 39 81 3f
       0.9943267 0.99443763 1.0035259 1.0095813
000090 a3 1b 80 3f f1 62 7f 3f 1d 34 80 3f 90 06 80 3f
       1.0008434 0.9976035 1.0015904 1.0002003
0000a0 53 a2 80 3f 54 d7 7c 3f 1b be 7e 3f 0e d4 80 3f
       1.0049537 0.98766065 0.9950883 1.0064714
0000b0 27 bc 7e 3f bb 49 7f 3f 84 7f 7d 3f 94 03 7a 3f
       0.9950585 0.9972188 0.990227 0.9766171
0000c0 60 16 7f 3f 18 c4 78 3f 57 54 7e 3f d7 e2 81 3f
       0.99643517 0.97174215 0.9934744 1.0147351
0000d0 d7 08 81 3f 9e 10 7e 3f 16 53 7e 3f ea cd 7a 3f
       1.0080823 0.99244106 0.9934553 0.9797045
0000e0 99 47 80 3f 26 d4 7e 3f b4 f5 7d 3f f5 fc 7e 3f
       1.002185 0.9954246 0.9920304 0.9960473
0000f0 df 55 81 3f c7 48 7d 3f 4c 7b 80 3f f2 57 82 3f
       1.0104331 0.98939174 1.0037627 1.0183089

base.mlp.fc1.2.bias f4 [64]
000000 c7 7a 20 bc 4a 5a 8a 3c dc dd 41 bc 0c 1a 1f 3c
       -0.009794897 0.016888756 -0.011832681 0.0097108
000010 66 be d1 3b 1a 74 ec bc ef 4b 18 3b 5f 86 c1 ba
       0.006400871 -0.028863955 0.002323862 -0.0014764777
000020 a6 31 39 bc cf d1 7c bc ee 20 58 bc f2 74 19 3b
       -0.011303341 -0.015430882 -0.013191445 0.0023415652
000030 70 64 2f bc 44 f7 5e 3c e6 62 15 3b 0e bf b5 3c
       -0.0107050985 0.013608757 0.0022794544 0.022185829
000040 f0 ad 86 3b bb 11 d0 3b 39 8b 91 3b ff 47 b2 3b
       0.0041100904 0.00634977 0.0044416455 0.0054407115
000050 77 e7 8a bb f2 a3 57 bc c5 93 a5 3c a5 75 94 3b
       -0.0042390185 -0.013161646 0.020212064 0.004530626
000060 8b 53 c5 bb 11 f7 8a bc af 71 e6 3a 66 25 58 3b
       -0.006021922 -0.016963514 0.0017581488 0.0032981276
000070 c6 ed 0e 3c 0e 8d 77 bc 20 40 13 3b d5 e7 0d 3c
       0.008723682 -0.015109314 0.0022468641 0.00866123
000080 2c da ba bb be 6d 20 3c ee 90 ae 3b d6 33 6c bc
       -0.0057022776 0.00979179 0.0053273356 -0.0144166555
000090 7d 72 2a bb 35 e1 83 bb 79 8a 9a 3a 83 6d 00 ba
       -0.0026008182 -0.0040246495 0.0011790536 -0.0004899131
0000a0 2d 29 1a bc 65 b2 0f bc df 5f 9b 3b 5e d4 0c bc
       -0.009409231 -0.00877056 0.0047416533 -0.008595554
0000b0 01 cf bb 3b df 39 d1 3a b1 ae aa bb 4f a3 95 3b
       0.005731464 0.0015962682 -0.005208813 0.004566587
0000c0 76 e9 8c 3c 6c 76 0d bc 7e aa d8 bb 12 9f 75 bb
       0.017201167 -0.008634191 -0.006612121 -0.0037478846
0000d0 c5 29 10 bc 6a 56 e2 3b cb 0c 25 bc 1b 7a 6c bc
       -0.008799021 0.006907274 -0.010073851 -0.014433409
0000e0 69 5e 43 bb 38 b3 21 3c 34 7c 36 bc ea 19 de bb
       -0.0029810912 0.009869389 -0.011138011 -0.0067779915
0000f0 51 84 55 3b b3 81 6f bc 1e dd 33 bc 3f 25 17 bc
       0.0032580087 -0.014618325 -0.010978011 -0.009225189

base.mlp.fc_h.0.weight f4 [64, 64]
000000 6a 0e 0d 3e 2f 99 04 bc 5f 78 8b be 1e ee 59 3e
       0.1377503 -0.008093162 -0.27240273 0.21282241
000010 5f 07 f9 3e 83 10 08 3e 9e 58 d7 be a1 de 0d 3c
       0.48638436 0.13287549 -0.42059797 0.008659036
000020 26 34 d8 3e 6f 6b 3c 3e cd 80 9e bc 6a d7 ba 3d
       0.42227286 0.18400358 -0.019348526 0.09123118
000030 1a bd 36 3d 51 99 47 be cb 7c c8 be 65 fe 82 be
       0.044613935 -0.1949208 -0.3915771 -0.25584713
000040 93 94 b4 3d cc c3 7c be 6b 89 8e 3e 1d 09 bb be
       0.08817401 -0.24684066 0.27839217 -0.3653039
000050 b3 88 e6 bd 8c 8e b8 be e4 79 85 be 6f e3 86 3e
       -0.11256542 -0.36046255 -0.26069558 0.26345393
000060 ff 5c 9a be 8d 7f 36 3e b6 10 5e 3e 74 22 2f 3d
       -0.30149075 0.17822094 0.21686062 0.042757466
000070 fa dd 2f be 07 07 b0 bd a0 dd 65 3d 60 97 c2 3d
       -0.17174521 -0.0859509 0.05611956 0.09501529
000080 62 6b 48 be eb 1a 66 3e 19 4b 94 3e e3 a0 d4 3d
       -0.19572213 0.22471206 0.28963545 0.10382249
000090 2a d0 f1 b9 06 5d f6 3d 94 ae e0 3d be e8 64 be
       -0.00046122196 0.120294616 0.10970798 -0.22354409
0000a0 de 3a 12 be 0e a3 25 be f1 4e ce 3d 46 22 ed 3b
       -0.14280269 -0.16175482 0.10073651 0.0072367517
0000b0 eb f8 31 3e 00 54 83 be 10 e0 23 3d e9 a3 48 be
       0.17380111 -0.25650024 0.040008605 -0.19593777
0000c0 54 e8 87 3d ee e2 47 3e 9e 5d 87 3c 66 7b e7 bc
       0.0663611 0.1952016 0.016524132 -0.028257083
0000d0 a0 b3 74 3e a8 f8 d2 3d 4e a7 aa bd c7 9c 69 bd
       0.23896646 0.10301334 -0.08332692 -0.05703428
0000e0 c9 f8 6a be 69 7a 1c 3e c9 72 23 be fe ae a8 3d
       -0.22946467 0.15281071 -0.15961756 0.08236502
0000f0 23 5f 1e be 22 5a 97 3e 3e f5 73 be 41 02 a0 be
       -0.1546598 0.29560953 -0.23824021 -0.3125172
000100 7f 3d 69 be f2 56 c9 bc e1 15 af bd 9f 1c 80 be
       -0.22777365 -0.024577592 -0.08549095 -0.25021836
000110 de 71 ca bd 79 54 62 be 11 ca 6a 3e c6 67 cd 3e
       -0.09885 -0.22102536 0.22928645 0.40118235
000120 a0 51 15 3d 35 e9 ed bd 28 d9 07 be 7a 0b 8b 3e
       0.036454797 -0.11616746 -0.13266432 0.27157193
000130 6b 62 2b 3d c7 89 34 be ce c9 90 3e 54 4f 6d bd
       0.041841906 -0.17630683 0.28278965 -0.05793698
000140 25 9f a6 3e 15 9c 6c be f1 f1 8f bc 34 d7 8b be
       0.32543293 -0.23106416 -0.017571421 -0.27312624
000150 7e ad 83 3d 11 c6 92 3e 1a 12 0b 3e e9 92 4b be
       0.064295754 0.28666738 0.13581124 -0.1988026
000160 79 2e 5d 3d 27 5b ec 3d 4f c8 24 3d bb c7 31 3e
       0.053999398 0.115408234 0.04023009 0.17361347
000170 07 ed 5b be 00 8d 84 bd 60 ea 75 bc d3 28 60 3e
       -0.21477138 -0.06472206 -0.015009493 0.21890573
000180 01 44 c3 bd 71 52 86 3e 3b cb 50 3e a7 4c 2c bc
       -0.09534455 0.26234773 0.20390026 -0.010516322
000190 40 a5 91 3e 96 b1 3c be 37 cd cf be 30 50 04 bc
       0.28446388 -0.18427119 -0.40586254 -0.008075759
0001a0 89 fe cd bd a3 67 1f be 38 e7 8c 3e 40 76 2d 3c
       -0.10058314 -0.15566878 0.27520156 0.010587275
0001b0 17 0f 1b 3d 0c 7f ba 3e 8f 51 01 bd dc 59 88 be
       0.037856188 0.36425054 -0.03157192 -0.26631057
0001c0 71 5b 86 3e e8 f2 60 3e dd 41 ef bd 22 ea a7 bd
       0.2624164 0.21967661 -0.11682484 -0.08198954
0001d0 d5 76 2c 3b 4f b0 bb 3e 6e 2b 78 3e 3e 69 17 3f
       0.0026315947 0.3665795 0.24235317 0.5914496
0001e0 5c fa 3f 3e 9c 72 88 be 3f 85 06 3e 58 7f 73 3d
       0.18747848 -0.2664994 0.13136767 0.059447616
0001f0 dd f4 3c bc e2 29 47 3e e4 a5 7d bd 63 b1 88 be
       -0.011532989 0.19449571 -0.061925784 -0.26697835
000200 bc da d7 3e dd f3 7b bd 98 f2 d4 3d b2 e0 11 be
       0.4215907 -0.061511863 0.103978336 -0.1424587
000210 34 ba a7 3c 5d 05 be 3e ce a4 92 3d 0f ba 29 3d
       0.02047453 0.37113467 0.0716034 0.041437205
000220 ab 40 d8 3d 29 40 5d 3e da 7c 1f bd 59 99 87 bc
       0.105592094 0.21606506 -0.038937427 -0.016552614
000230 eb de d4 bd c6 b5 93 3d 65 6e 95 bd 2e 05 87 bd
       -0.10394081 0.07212405 -0.07296447 -0.06592785
000240 d0 f8 00 3e c1 3c 1a be 92 4e bf 3e bb bc e1 bd
       0.12594914 -0.15062238 0.37364632 -0.110223256
000250 83 29 06 3e 28 e7 a6 bd a9 f7 7a 3e 15 97 58 bd
       0.13101773 -0.08149558 0.24508537 -0.052878458
000260 51 09 52 bd fd 04 4a bd f4 9c 3f 3e 3a c9 be 3e
       -0.051278416 -0.049321163 0.18712217 0.372629
000270 29 46 b9 3e e5 e9 f1 3c 13 be 26 3d 71 63 08 3f
       0.3618634 0.029530475 0.040708613 0.53276736
000280 8f 07 48 be 83 08 07 be b2 7f 0a bd 95 b6 89 3e
       -0.19534133 -0.1318684 -0.033813186 0.26897112
000290 5c 21 46 be 34 1f 46 be 09 53 71 be c1 dc 5c be
       -0.19348663 -0.1934784 -0.23566832 -0.21568586
0002a0 ce 20 0f be bd 59 00 be 31 5d aa be 6d ad c5 bd
       -0.13977358 -0.12534232 -0.33274224 -0.09652219
0002b0 09 1e ed bd d8 5e 86 3e 3a 6f c4 3e 1b 36 3b be
       -0.115779944 0.26244235 0.3836611 -0.18282358
0002c0 fe f8 20 be 94 4c ab be 0e b9 45 be 06 22 af be
       -0.15719983 -0.33456862 -0.19308874 -0.34205645
0002d0 c6 00 0a 3e 9d 92 63 be 30 c8 48 3d 4b e4 cf 3c
       0.13476858 -0.22223897 0.04901904 0.025377413
0002e0 08 c0 e2 3e ff 69 af 3d 5c 64 0c bd ad 7f 80 bd
       0.44287133 0.08565139 -0.034275398 -0.06274352
0002f0 07 fe 4d bd a1 d6 20 bd e6 58 6d 3e 4a 78 a9 3e
       -0.050291087 -0.039267186 0.23178443 0.33099586
000300 90 07 f0 3d 35 dc 34 bd 5b 97 69 3c a8 7d 63 be
       0.117201924 -0.04415532 0.014257277 -0.22215903
000310 ee ce 93 3e 5a 95 58 3e 8e 45 f5 bd 06 20 04 be
       0.28868812 0.21150723 -0.11976157 -0.12902841
000320 1f 0f c3 3e 88 13 b6 3e 6a 1a 27 3e b7 a9 5b bd
       0.38097474 0.35561776 0.1631867 -0.05362865
000330 ef ee 69 bd e2 bb 41 be b1 b6 18 3e cb 46 df 3e
       -0.05711263 -0.18919328 0.14913441 0.43608698
000340 51 87 44 3e d4 7a 46 3e b8 33 6e bd 06 45 e1 bd
       0.19192244 0.19382793 -0.05815479 -0.10999493
000350 75 27 2b bd f4 f2 72 be 6c dc 9e bb 7c 7c ed be
       -0.041785676 -0.23725492 -0.0048480537 -0.46384037
000360 ba 9a 28 bd fb 78 db bd 08 7a 92 be 70 a8 0e be
       -0.041163184 -0.107164346 -0.28608727 -0.13931441
000370 b5 37 72 be f0 39 fb 3d 86 22 7d be c4 cc 4a be
       -0.23654063 0.1226691 -0.24720201 -0.19804674
000380 5f 4e 0d 3d 54 ea 88 3e f5 72 14 3e e7 e4 89 3d
       0.03449857 0.26741278 0.14496978 0.06733113
000390 58 3d 44 be f9 29 fb bd f7 ee 30 3c fd f6 f9 3e
       -0.19164026 -0.12263865 0.010799161 0.4882125
0003a0 95 77 69 3e 0b 24 c2 3d 97 c4 7b bd 1e c9 51 be
       0.22799523 0.09479531 -0.06146678 -0.20486876
0003b0 c7 64 79 3e d1 a7 6d bb f4 61 39 3d 9f b8 61 be
       0.2435485 -0.0036263356 0.04525943 -0.22043084
0003c0 cc dc b5 bd 36 be d6 3c 60 99 1d 3e da 16 22 bc
       -0.08880004 0.026213747 0.15390539 -0.009893144
0003d0 52 b7 42 be 58 30 a6 be 68 9c 4d 3e f5 cc 71 be
       -0.19015244 -0.32458758 0.20079195 -0.23613341
0003e0 fc d7 ca 3e 9d 2d d1 be b7 ef 3a 3e d1 02 10 bd
       0.39617908 -0.40855113 0.18255506 -0.035158936
0003f0 3b b3 8a bc 00 3d 2b 3e 76 03 0e 3e c0 6b 88 be
       -0.016931167 0.16722488 0.13868508 -0.26644707

base.mlp.fc_h.0.bias f4 [64]
000000 00 00 00 00 00 00 00 00 00 00 00 00 00 00 00 00
       0.0 0.0 0.0 0.0
000010 00 00 00 00 00 00 00 00 00 00 00 00 00 00 00 00
       0.0 0.0 0.0 0.0
000020 00 00 00 00 00 00 00 00 00 00 00 00 00 00 00 00
       0.0 0.0 0.0 0.0
000030 00 00 00 00 00 00 00 00 00 00 00 00 00 00 00 00
       0.0 0.0 0.0 0.0
000040 00 00 00 00 00 00 00 00 00 00 00 00 00 00 00 00
       0.0 0.0 0.0 0.0
000050 00 00 00 00 00 00 00 00 00 00 00 00 00 00 00 00
       0.0 0.0 0.0 0.0
000060 00 00 00 00 00 00 00 00 00 00 00 00 00 00 00 00
       0.0 0.0 0.0 0.0
000070 00 00 00 00 00 00 00 00 00 00 00 00 00 00 00 00
       0.0 0.0 0.0 0.0
000080 00 00 00 00 00 00 00 00 00 00 00 00 00 00 00 00
       0.0 0.0 0.0 0.0
000090 00 00 00 00 00 00 00 00 00 00 00 00 00 00 00 00
       0.0 0.0 0.0 0.0
0000a0 00 00 00 00 00 00 00 00 00 00 00 00 00 00 00 00
       0.0 0.0 0.0 0.0
0000b0 00 00 00 00 00 00 00 00 00 00 00 00 00 00 00 00
       0.0 0.0 0.0 0.0
0000c0 00 00 00 00 00 00 00 00 00 00 00 00 00 00 00 00
       0.0 0.0 0.0 0.0
0000d0 00 00 00 00 00 00 00 00 00 00 00 00 00 00 00 00
       0.0 0.0 0.0 0.0
0000e0 00 00 00 00 00 00 00 00 00 00 00 00 00 00 00 00
       0.0 0.0 0.0 0.0
0000f0 00 00 00 00 00 00 00 00 00 00 00 00 00 00 00 00
       0.0 0.0 0.0 0.0

base.mlp.fc_h.2.weight f4 [64]
000000 00 00 80 3f 00 00 80 3f 00 00 80 3f 00 00 80 3f
       1.0 1.0 1.0 1.0
000010 00 00 80 3f 00 00 80 3f 00 00 80 3f 00 00 80 3f
       1.0 1.0 1.0 1.0
000020 00 00 80 3f 00 00 80 3f 00 00 80 3f 00 00 80 3f
       1.0 1.0 1.0 1.0
000030 00 00 80 3f 00 00 80 3f 00 00 80 3f 00 00 80 3f
       1.0 1.0 1.0 1.0
000040 00 00 80 3f 00 00 80 3f 00 00 80 3f 00 00 80 3f
       1.0 1.0 1.0 1.0
000050 00 00 80 3f 00 00 80 3f 00 00 80 3f 00 00 80 3f
       1.0 1.0 1.0 1.0
000060 00 00 80 3f 00 00 80 3f 00 00 80 3f 00 00 80 3f
       1.0 1.0 1.0 1.0
000070 00 00 80 3f 00 00 80 3f 00 00 80 3f 00 00 80 3f
       1.0 1.0 1.0 1.0
000080 00 00 80 3f 00 00 80 3f 00 00 80 3f 00 00 80 3f
       1.0 1.0 1.0 1.0
000090 00 00 80 3f 00 00 80 3f 00 00 80 3f 00 00 80 3f
       1.0 1.0 1.0 1.0
0000a0 00 00 80 3f 00 00 80 3f 00 00 80 3f 00 00 80 3f
       1.0 1.0 1.0 1.0
0000b0 00 00 80 3f 00 00 80 3f 00 00 80 3f 00 00 80 3f
       1.0 1.0 1.0 1.0
0000c0 00 00 80 3f 00 00 80 3f 00 00 80 3f 00 00 80 3f
       1.0 1.0 1.0 1.0
0000d0 00 00 80 3f 00 00 80 3f 00 00 80 3f 00 00 80 3f
       1.0 1.0 1.0 1.0
0000e0 00 00 80 3f 00 00 80 3f 00 00 80 3f 00 00 80 3f
       1.0 1.0 1.0 1.0
0000f0 00 00 80 3f 00 00 80 3f 00 00 80 3f 00 00 80 3f
       1.0 1.0 1.0 1.0

base.mlp.fc_h.2.bias f4 [64]
000000 00 00 00 00 00 00 00 00 00 00 00 00 00 00 00 00
       0.0 0.0 0.0 0.0
000010 00 00 00 00 00 00 00 00 00 00 00 00 00 00 00 00
       0.0 0.0 0.0 0.0
000020 00 00 00 00 00 00 00 00 00 00 00 00 00 00 00 00
       0.0 0.0 0.0 0.0
000030 00 00 00 00 00 00 00 00 00 00 00 00 00 00 00 00
       0.0 0.0 0.0 0.0
000040 00 00 00 00 00 00 00 00 00 00 00 00 00 00 00 00
       0.0 0.0 0.0 0.0
000050 00 00 00 00 00 00 00 00 00 00 00 00 00 00 00 00
       0.0 0.0 0.0 0.0
000060 00 00 00 00 00 00 00 00 00 00 00 00 00 00 00 00
       0.0 0.0 0.0 0.0
000070 00 00 00 00 00 00 00 00 00 00 00 00 00 00 00 00
       0.0 0.0 0.0 0.0
000080 00 00 00 00 00 00 00 00 00 00 00 00 00 00 00 00
       0.0 0.0 0.0 0.0
000090 00 00 00 00 00 00 00 00 00 00 00 00 00 00 00 00
       0.0 0.0 0.0 0.0
0000a0 00 00 00 00 00 00 00 00 00 00 00 00 00 00 00 00
       0.0 0.0 0.0 0.0
0000b0 00 00 00 00 00 00 00 00 00 00 00 00 00 00 00 00
       0.0 0.0 0.0 0.0
0000c0 00 00 00 00 00 00 00 00 00 00 00 00 00 00 00 00
       0.0 0.0 0.0 0.0
0000d0 00 00 00 00 00 00 00 00 00 00 00 00 00 00 00 00
       0.0 0.0 0.0 0.0
0000e0 00 00 00 00 00 00 00 00 00 00 00 00 00 00 00 00
       0.0 0.0 0.0 0.0
0000f0 00 00 00 00 00 00 00 00 00 00 00 00 00 00 00 00
       0.0 0.0 0.0 0.0

base.mlp.fc2.0.0.weight f4 [64, 64]
000000 cc fe 01 3e 61 33 38 3c 7e 98 7d be a1 6e 64 3e
       0.12694854 0.011242718 -0.24765202 0.22307827
000010 da 34 f4 3e 28 45 1b 3e 1d 41 d3 be 4f 54 ad 3c
       0.47696573 0.151631 -0.41260615 0.021158366
000020 fb a4 d7 3e e1 48 42 3e 0b 19 f1 bc 30 7e c3 3d
       0.42118058 0.18973114 -0.029430887 0.09545553
000030 8b e7 c8 3c 07 9a 4f be de d7 cf be d7 30 75 be
       0.02452447 -0.202736 -0.4059438 -0.23944412
000040 7b de d9 3d 7f 0f 81 be 76 d3 8a 3e 63 48 b8 be
       0.10638138 -0.25207135 0.27114457 -0.35992727
000050 3d 88 02 be 08 80 c0 be 5f cd 8b be fa 9a 86 3e
       -0.12747283 -0.3759768 -0.27305123 0.26290113
000060 73 a8 8d be 84 dc 45 3e 93 07 52 3e 12 00 4b 3d
       -0.2766758 0.19322401 0.20510702 0.049560614
000070 86 44 3b be bf af c2 bd 74 a9 ab 3d 51 de da 3d
       -0.18287858 -0.09506177 0.0838193 0.10686935
000080 e4 ff 45 be c7 59 54 3e b9 21 94 3e 70 b0 cb 3d
       -0.19335896 0.20737372 0.28931978 0.09945762
000090 c2 e2 34 3b b1 cd e3 3d 20 28 d2 3d b9 15 73 be
       0.0027600979 0.11123217 0.102615595 -0.23738755
0000a0 7b fb 01 be 47 81 2e be ef 06 ae 3d eb 4c 8c 3c
       -0.12693588 -0.17041503 0.08497416 0.017126521
0000b0 0d 99 26 3e bb ce 86 be c3 f6 55 3d cb 55 4d be
       0.16269322 -0.26329598 0.052237283 -0.20052259
0000c0 bf 0d 95 3d cd b2 54 3e c4 2f 11 3d b3 4a 35 bd
       0.072780125 0.20771332 0.035445943 -0.04426069
0000d0 4b 7f 6e 3e 14 35 cb 3d b3 aa b7 bd a7 c8 a4 bd
       0.23290746 0.09922233 -0.08968105 -0.08046084
0000e0 4c 92 52 be 21 1a 16 3e 3a b0 16 be 15 6d d8 3d
       -0.2056362 0.14658405 -0.14715663 0.10567681
0000f0 09 86 18 be b6 48 a0 3e 2a 3e 80 be 60 01 a4 be
       -0.1489488 0.31305474 -0.25047427 -0.320323
000100 e4 81 6b be 9f 88 9d bc f7 b4 a4 bd ab 3c 88 be
       -0.22998768 -0.019230185 -0.08042329 -0.26608786
000110 2f 81 e3 bd 5d b1 6e be a2 fd 6a 3e 4e 58 cc 3e
       -0.11108624 -0.23309846 0.22948316 0.3991112
000120 ec 2e fe 3c b5 f9 f3 bd 5f 7b 16 be 6f 95 89 3e
       0.031028233 -0.11912862 -0.146955 0.2687182
000130 61 e5 3b 3d 67 2c 2f be ed 2c 96 3e ee b2 73 bd
       0.04587305 -0.17106782 0.2933115 -0.059496813
000140 b7 86 b2 3e 4e 55 5b be b2 c6 7f bb ed 60 89 be
       0.34868404 -0.2141926 -0.0039028344 -0.2683176
000150 8c 8a 86 3d bb 10 91 3e 52 eb 05 3e 3f e8 4b be
       0.065693945 0.28333077 0.13078049 -0.19912814
000160 bc 5b 55 3d ca a0 da 3d 0c 72 2a 3d 8e 41 30 3e
       0.052089438 0.10675199 0.04161267 0.17212507
000170 d6 70 59 be d4 63 95 bd ad c1 99 bc 30 47 5d 3e
       -0.2123445 -0.07294431 -0.01876911 0.21609187
000180 b1 71 c2 bd 24 df 87 3e 49 df 48 3e 87 cf ef bc
       -0.09494341 0.2653743 0.19616427 -0.029273761
000190 f2 2c 91 3e eb 1a 3b be fc 62 c8 be ea 2c 16 3c
       0.28354603 -0.18271987 -0.3913802 0.009165982
0001a0 e7 98 c0 bd 39 6e 07 be 92 26 8d 3e 4f 06 76 3c
       -0.09404164 -0.1322564 0.2756849 0.0150161525
0001b0 1c 20 13 3d e0 1b c0 3e 1d c1 26 bd b3 4d 8b be
       0.035919294 0.37521267 -0.04071151 -0.27207717
0001c0 4a 54 8c 3e 27 0f 56 3e 03 0b d8 bd db 70 a6 bd
       0.27408057 0.20904218 -0.10548975 -0.08126994
0001d0 38 40 36 3a 59 39 ba 3e 59 e4 6f 3e c8 ec 15 3f
       0.00069523184 0.36371878 0.23426951 0.58564425
0001e0 e8 13 40 3e 3f 90 8e be 42 1b 0e 3e 41 e0 20 3d
       0.18757594 -0.27844426 0.13877586 0.039276365
0001f0 ee f6 c7 bc 27 bc 54 3e 68 3b 39 bd ad 0d 88 be
       -0.024409737 0.207749 -0.04522267 -0.26572934
000200 99 7c d5 3e f9 0c 8d bd 25 40 c8 3d b1 65 0a be
       0.41696623 -0.0688724 0.097778596 -0.13515355
000210 4b 9c 1d 3d 46 17 c3 3e 48 27 ad 3d 0c 61 20 3d
       0.03847913 0.38103694 0.08454758 0.03915505
000220 05 8c de 3d a9 59 67 3e 74 08 65 bc 1d eb d2 bc
       0.1086655 0.22592796 -0.013979066 -0.025746876
000230 14 fa cb bd b4 ea b1 3d ce 62 a1 bd 29 98 7f bd
       -0.09959808 0.08687344 -0.078801736 -0.06240097
000240 6b 3e fa 3d a6 66 07 be 25 41 b6 3e e7 08 e9 bd
       0.122189365 -0.13222751 0.35596576 -0.11378651
000250 cb 5a f7 3d a3 ba a0 bd 44 26 79 3e 8e f9 32 bd
       0.12077864 -0.07848098 0.24331003 -0.043695025
000260 da 96 42 bd c1 c9 2c bd 18 c4 44 3e 91 23 c3 3e
       -0.047507145 -0.042184595 0.19215429 0.38113073
000270 2c c4 bc 3e 04 29 0f 3d 5b cc 26 3d 35 41 07 3f
       0.36868417 0.034951225 0.040722232 0.52833873
000280 6c 4b 50 be 1e 13 06 be 69 5e 09 bd 4b 0d 8c 3e
       -0.20341271 -0.1309323 -0.033537302 0.27353892
000290 1c 8f 4b be 66 0a 4a be 44 4f 78 be f6 1c 6a be
       -0.1987881 -0.19730529 -0.24248987 -0.2286261
0002a0 cb 79 0e be 18 ce 0c be f1 04 a8 be ef 03 c1 bd
       -0.13913648 -0.13750494 -0.3281627 -0.094245784
0002b0 0d d8 d3 bd d5 2f 82 3e 7b bb bf 3e 15 33 44 be
       -0.10343943 0.25427118 0.37447724 -0.19160111
0002c0 56 3b 25 be 72 f2 a6 be 60 b8 4c be 3b 94 a8 be
       -0.16135916 -0.32606846 -0.19992208 -0.3292559
0002d0 da a2 0a 3e 99 c4 55 be b0 9a 3a 3d b7 26 de 3c
       0.13538685 -0.20875777 0.045557678 0.02711807
0002e0 d6 de dc 3e 09 42 c1 3d 3e 57 40 bd e2 15 86 bd
       0.4313876 0.09436423 -0.0469582 -0.065471426
0002f0 5d bf 28 bd 6c c0 48 bd a6 5f 5d 3e fd 80 ab 3e
       -0.041198123 -0.049011633 0.21618518 0.33496848
000300 70 57 e8 3d 95 d5 7e bd 82 92 39 3c ef 38 4f be
       0.113448024 -0.062215406 0.011326434 -0.20236562
000310 33 f0 96 3e 54 d6 5e 3e 04 94 e0 bd f4 d1 0b be
       0.29480132 0.21761447 -0.10965732 -0.1365431
000320 10 ca c5 3e 33 f1 b8 3e f6 db 34 3e f6 8c 73 bd
       0.38630724 0.3612152 0.17662033 -0.059460603
000330 bb 87 79 bd d4 5d 43 be 34 ef 17 3e b8 7c db 3e
       -0.06092046 -0.19078761 0.14837343 0.4286859
000340 ca bb 3b 3e fd dc 47 3e 40 e8 77 bd db c6 de bd
       0.18333355 0.19517894 -0.060524225 -0.108777724
000350 da a3 4a bd 2a a2 72 be 7e f4 3a 3c 1a bf e9 be
       -0.049472667 -0.23694673 0.011410831 -0.4565361
000360 3c c0 17 bd 33 95 d0 bd 9b 2c 92 be c3 e2 0d be
       -0.037048563 -0.101847075 -0.28549656 -0.13856034
000370 b7 40 68 be 77 44 ff 3d e4 e8 7b be a0 c6 4d be
       -0.22680937 0.124642305 -0.2460056 -0.200953
000380 5d 04 de 3c 0d 33 8c 3e c8 ca 0f 3e 82 b4 8d 3d
       0.02710169 0.273827 0.14042199 0.06919195
000390 d4 fe 4c be d2 55 e3 bd 69 05 fd bb 98 ba fa 3e
       -0.20019084 -0.11100353 -0.007721592 0.48970485
0003a0 04 31 65 3e 64 6f aa 3d 19 ab 2b bd 1e 62 4f be
       0.22381979 0.08322027 -0.04191122 -0.20252272
0003b0 3d c2 82 3e d2 9a 6c bc b4 7f 27 3d 1e af 61 be
       0.25538817 -0.014441209 0.04089327 -0.22039458
0003c0 fb 76 ae bd 1d a1 13 3d f5 ea 12 3e fd 26 a6 3a
       -0.085187875 0.03604232 0.14347441 0.0012676414
0003d0 5c a9 46 be 7e e6 a1 be 36 7e 48 3e 4f e2 6c be
       -0.19400543 -0.31621164 0.19579396 -0.23133205
0003e0 a7 09 c7 3e eb 75 d0 be 64 0e 2a 3e 9d ce e3 bc
       0.38874552 -0.40714964 0.16607052 -0.027808482
0003f0 ee a4 81 bc af 9b 28 3e b8 d2 09 3e 96 08 8a be
       -0.015825715 0.16465639 0.13459289 -0.26959676

base.mlp.fc2.0.0.bias f4 [64]
000000 03 f9 10 3c 25 73 f8 3b 84 19 05 bc bb 86 25 bc
       0.0088484315 0.0075820857 -0.008123759 -0.010102923
000010 2d fa 87 bc df 0c ac 39 29 d5 c5 3b f4 d0 11 3a
       -0.016598785 0.00032815986 0.0060373736 0.00055624475
000020 12 90 2d bb 62 93 18 bc 24 e0 76 39 ef e6 94 39
       -0.0026483578 -0.009312483 0.00023543887 0.0002840082
000030 7c 32 be 3b 38 da 68 bc a8 f9 19 bc d6 d6 0f 3c
       0.005804358 -0.014212184 -0.009397902 0.008779248
000040 04 64 e2 3b a8 36 28 3c e2 71 cb ba bc b4 0b bb
       0.0069088954 0.010266937 -0.0015521611 -0.0021317443
000050 d6 a7 6b bb 2a 3e 47 bb fc ca e7 3b 1e a9 a9 bb
       -0.0035958192 -0.0030402043 0.007073758 -0.005177631
000060 83 02 f0 bb f9 6d 99 bb 22 f5 fc bb 38 db 10 bb
       -0.007324518 -0.004682299 -0.007719652 -0.002210332
000070 49 be 7c bc ba 6b 36 bb 9a 98 fd 3b 19 e9 9b bb
       -0.015426227 -0.0027835206 0.007739139 -0.004758012
000080 10 68 67 3c f2 4d 42 bb ba 0a 63 bc 89 1b cd bb
       0.0141239315 -0.002964851 -0.013857538 -0.006259386
000090 09 9d 93 ba d0 28 3b 3b b6 45 30 bc 32 be 8c bb
       -0.001126201 0.0028558262 -0.010758808 -0.004295134
0000a0 45 cc 6e 3c d5 cc 0b bc 05 34 0e 3c 1c 29 0d bc
       0.014575069 -0.0085327225 0.008679395 -0.008615758
0000b0 be 0e 26 39 46 46 d9 bc 73 84 bd 3b c6 68 a9 b9
       0.00015836486 -0.026522767 0.0057836114 -0.00032312254
0000c0 6a 63 dd 3a 1d 75 ac bb a2 73 21 3b 58 87 19 bc
       0.001689059 -0.0052629844 0.0024635573 -0.009370647
0000d0 07 b5 2d bc 3c 9d 2b 3c a2 56 19 bc 85 62 03 bc
       -0.010602242 0.010474499 -0.009359034 -0.008019094
0000e0 35 8c bf bb 67 4b 75 bb 42 d0 43 3b 2b 94 d6 3b
       -0.0058455714 -0.0037428977 0.002987877 0.0065484247
0000f0 ad c4 44 bc 67 7a 24 3c c5 67 34 3c a8 40 a3 bb
       -0.012009782 0.010038949 0.011011069 -0.004982073

base.mlp.fc2.0.2.weight f4 [64]
000000 2e e0 80 3f a2 b2 80 3f 83 10 7f 3f f4 37 7d 3f
       1.0068414 1.0054514 0.9963457 0.989135
000010 42 96 7e 3f 9d 91 81 3f f0 40 82 3f f0 ca 7f 3f
       0.99448025 1.0122563 1.0176067 0.99919033
000020 83 03 81 3f 6a b2 80 3f 1d c7 80 3f 32 ad 80 3f
       1.0079197 1.0054448 1.0060765 1.0052855
000030 12 58 80 3f 79 ea 80 3f eb 5c 81 3f ae 05 7d 3f
       1.0026877 1.0071555 1.0106481 0.9883679
000040 d0 89 80 3f b2 23 7d 3f f2 d7 7e 3f a6 7d 80 3f
       1.0042057 0.9888259 0.99548256 1.0038345
000050 62 5c 80 3f 26 dc 80 3f 1e ed 7e 3f cb 32 82 3f
       1.0028193 1.0067184 0.9958056 1.0171751
000060 06 bc 7f 3f 51 1c 7d 3f f2 14 7f 3f a2 f5 80 3f
       0.99896276 0.9887133 0.99641335 1.0074961
000070 40 e2 80 3f 66 70 80 3f 61 a7 7d 3f 2d 86 80 3f
       1.0069046 1.0034301 0.99083525 1.0040947
000080 aa d3 81 3f b9 c7 7f 3f dc 1e 81 3f 3a 26 80 3f
       1.014272 0.9991413 1.0087543 1.0011666
000090 0a 59 81 3f e8 02 81 3f 1f c3 81 3f ba 05 81 3f
       1.0105298 1.0079012 1.0137671 1.0079873
0000a0 bd 40 81 3f 52 66 81 3f 54 23 81 3f b9 9e 82 3f
       1.0097882 1.0109351 1.0088906 1.0204688
0000b0 31 ee 7e 3f f3 52 7b 3f aa c9 80 3f 10 71 82 3f
       0.995822 0.98173445 1.0061543 1.0190754
0000c0 1b 27 80 3f 75 9d 80 3f 5e c5 7e 3f bb 25 80 3f
       1.0011934 1.0048052 0.9951991 1.0011514
0000d0 40 d1 7e 3f ef ff 80 3f d2 8d 80 3f b9 0e 81 3f
       0.9953804 1.0078105 1.004328 1.0082618
0000e0 38 b6 81 3f ce 78 7d 3f fb 72 80 3f ab 6a 7e 3f
       1.0133734 0.9901246 1.0035089 0.9938151
0000f0 04 cd 82 3f d4 73 80 3f f2 29 81 3f b3 23 81 3f
       1.0218816 1.0035348 1.0090926 1.008902

base.mlp.fc2.0.2.bias f4 [64]
000000 1e a0 c1 3b 34 32 d7 3b e8 16 81 bb fe 14 27 bc
       0.00590898 0.006567264 -0.003939498 -0.010197876
000010 1c 21 b1 bb 9f 74 9f 3a 43 2e 53 3c 98 79 83 3b
       -0.0054055583 0.0012165493 0.012889448 0.004012298
000020 8f 17 8e ba a9 0c c4 bb f5 b5 ac 3a 1f fa 7a 3b
       -0.0010840761 -0.0059829545 0.0013176786 0.0038296056
000030 4d 12 9b 3b 71 3c a2 bc eb c3 32 bc b7 e3 bd 3b
       0.004732406 -0.019804211 -0.010910968 0.005794968
000040 09 59 18 3b e3 8a d0 3b f5 ec 20 b9 4d 04 cb 3a
       0.0023246428 0.006364213 -0.00015347062 0.0015488953
000050 f0 bc 0c bb cf d7 14 ba 2a 00 a0 3b fe 7e a7 bb
       -0.002147492 -0.000567791 0.004882832 -0.005111574
000060 47 eb 6a bb f5 0f 14 bc 17 ab a7 bb 6d 87 e4 ba
       -0.0035845803 -0.009037008 -0.005116831 -0.001743538
000070 ab c7 31 bc 3c 89 13 b9 97 72 e5 3b 73 37 76 bb
       -0.010850827 -0.00014070136 0.0070021856 -0.0037569671
000080 50 ef 1d 3c 8d 1c a2 3b 71 d0 71 bc 72 41 91 bb
       0.009639576 0.004947251 -0.014759169 -0.0044328505
000090 13 62 d9 3a 92 9f 9e 3b da 62 19 bc 7f b3 a3 bb
       0.0016585015 0.0048407996 -0.009361947 -0.004995763
0000a0 f6 19 0f 3c 70 fd c5 ba e2 db 8d 3c fc 7f f2 bb
       0.008734217 -0.0015105437 0.017316762 -0.007400511
0000b0 66 e8 ad bb 71 56 b7 bc 94 2f a9 3b b6 4c 58 bb
       -0.005307245 -0.022380086 0.0051631425 -0.0033004708
0000c0 dc 24 ca bb 35 b1 44 bb 3a 65 a5 3b 07 80 b1 ba
       -0.0061689448 -0.003001285 0.0050474675 -0.0013542183
0000d0 a3 92 09 bb c2 72 3b 3c e8 c9 41 bb 9a 19 86 bb
       -0.0020991943 0.011440935 -0.0029569808 -0.0040924074
0000e0 cc 08 bd ba 37 db 95 bb 4b 24 35 3a 27 76 97 3b
       -0.0014422177 -0.0045732516 0.000691001 0.004622239
0000f0 d8 01 20 3c e6 2d af 3b 9f fc 0f 3c 90 93 df ba
       0.009766065 0.0053460477 0.008788257 -0.0017057527

rnn.rnn.weight_ih_l0 f4 [192, 64]
000000 51 be 62 bd 33 6f f0 bd 8a a4 1b 3d 89 4a aa bd
       -0.05535728 -0.117399596 0.037998714 -0.08314998
000010 43 16 a8 3d 03 8a 0f bd 13 ad ac 3c c4 77 98 bd
       0.08207371 -0.035043728 0.021078622 -0.074447185
000020 85 58 8e 3a 8a d5 1a be e2 00 3d 3c 96 6d bd bd
       0.0010860121 -0.15120521 0.011535855 -0.092494175
000030 74 39 20 3d 1f f3 85 3d 4d 05 31 3d 66 8b a6 3d
       0.03911729 0.06540512 0.043217946 0.08132057
000040 80 62 5f bb 4e a0 44 3d 61 59 55 3d 88 d2 60 bd
       -0.003408581 0.04800444 0.05208719 -0.05488828
000050 8d 4d f6 3b f7 08 e5 3c 11 70 db bc bd da ee bd
       0.007516569 0.027958376 -0.026786836 -0.11662815
000060 ce 35 21 be af f1 2b bd 2b c3 b2 3c bc 4c c7 bd
       -0.15743181 -0.041978534 0.021821579 -0.09731433
000070 32 93 1f 3e f7 7e 91 bd 16 7f 2f 3d 81 bd bc 3d
       0.15583494 -0.07104295 0.042845808 0.092158325
000080 7f 5b 41 3d cd 65 ad 3c 24 ac ab 3c 64 fc cc 3c
       0.047206398 0.021166706 0.020956106 0.025022693
000090 61 59 62 3d 40 b2 c0 bc 86 23 20 3b 4b 50 bb bc
       0.05526102 -0.023522496 0.0024435236 -0.022865435
0000a0 02 cb dd 3c 68 3d 04 3d 6a ef 06 bd 67 24 71 bd
       0.02707434 0.032285124 -0.032943167 -0.058872607
0000b0 db 71 1e 3d f3 df 4e 3d 3c d6 21 3c 24 a2 b5 3d
       0.0386828 0.050506543 0.009877738 0.088688165
0000c0 f8 2c 03 bd 8c e0 ec bb 7f 1f 02 3b 33 d4 af 3d
       -0.032025307 -0.0072289165 0.00198552 0.08585396
0000d0 76 3a 64 3d 1d b9 03 bd 24 79 c1 3d 5a b2 42 bd
       0.055719815 -0.03215896 0.09446934 -0.04753337
0000e0 5b 56 69 bd aa c8 0d bd b5 9c 04 bd 92 1c 8d bd
       -0.05696712 -0.034615196 -0.03237601 -0.06890215
0000f0 2b 42 b9 bd e2 aa 1f be f8 60 58 3d e3 fc 38 3d
       -0.09045824 -0.1559253 0.05282685 0.045163047
000100 07 4b 57 3d ef 7d 5e bc db f5 b9 bc 57 63 0a bd
       0.052561786 -0.01357983 -0.02270024 -0.033786144
000110 e6 f7 88 3d af 4d 5e 3d 08 27 0d 3e a5 9e 35 3d
       0.06687908 0.054273304 0.1378442 0.04434075
000120 46 b8 8f bd 22 ed fa bd 6e e0 4d bc 2b 1a 19 bd
       -0.07017569 -0.12252261 -0.012565715 -0.03737847
000130 c3 a3 16 be 3a 0c 37 3c d3 c4 50 bd df b7 74 3c
       -0.14710908 0.011172349 -0.050968956 0.014936416
000140 4d 44 83 bd 4c 6d 40 3d 6b 73 a9 3d ee 55 ca bd
       -0.06409512 0.046979234 0.08273967 -0.09879671
000150 6b 91 e2 bc 85 be 43 bd 5b 48 92 bd a4 7a a5 3d
       -0.027657231 -0.047789115 -0.07142707 0.080800325
000160 a2 4b b0 3c ef f5 a2 bb 7d ae 14 3e f3 df cb 3d
       0.02152044 -0.004973165 0.14519687 0.09954824
000170 a9 9f 43 bd 53 1d 52 3d d9 63 88 bb d8 ee e4 bd
       -0.047759686 0.051297497 -0.0041622934 -0.11178368
000180 b7 cf 5a 3d 07 9f 27 3d 01 da 80 bd 49 56 4e bd
       0.05342075 0.040923145 -0.06291581 -0.050375257
000190 14 79 7c 3d dc 7b 76 bd 72 f7 0f 3c 94 e2 fc 3a
       0.061638907 -0.060176715 0.008787023 0.00192936
0001a0 18 61 85 bc ec 18 01 bd 34 29 57 3d f5 db 10 bd
       -0.01628165 -0.031517908 0.05252953 -0.035366017
0001b0 83 81 b6 bd 5f fc 99 bb ca 53 3c 3e cd 7c d6 bc
       -0.08911421 -0.0046992744 0.18391338 -0.026182557
0001c0 46 34 67 3d 91 f2 0a 3d 49 9e 3a bd d4 2e b0 3c
       0.056446336 0.033922736 -0.04556111 0.021506704
0001d0 c9 c4 75 3d 6a f4 be bd 14 18 21 3d 9f 93 e3 3d
       0.060002122 -0.09323962 0.039329603 0.11112141
0001e0 3e 18 63 bd 18 82 28 bc b6 e7 0a bd 42 55 35 bd
       -0.05544304 -0.010284923 -0.033912383 -0.04427076
0001f0 5e 27 58 3d f3 2f b1 bd 14 78 50 3d fb f9 ad bc
       0.05277192 -0.08651724 0.050895765 -0.021237364
000200 33 87 6d bb 7f 10 0b 3d d7 71 91 bc 52 7f 05 bd
       -0.0036243915 0.03395128 -0.017754478 -0.032592125
000210 ac 04 37 3d 9b c8 4b bd 79 54 42 3d 46 30 f5 3d
       0.04468219 -0.04975186 0.04744384 0.11972098
000220 ab d2 40 3d 39 49 d2 3d b8 10 0e bd f3 8b d8 bb
       0.04707591 0.10267872 -0.034683913 -0.00660848
000230 ee 63 c4 bd b0 5e 24 3d fc 53 96 bb 36 86 a5 bd
       -0.095893726 0.040129364 -0.0045876484 -0.08082239
000240 dc b3 8f bc 00 1a 12 3c ac 59 96 3d 1a b0 8e 3d
       -0.017541818 0.008917332 0.07341322 0.069671825
000250 ef 5c ef 3d 24 9a 89 bc e5 ec 7e 3d 16 28 26 bd
       0.116876476 -0.016797133 0.06223764 -0.040565573
000260 02 ad ec 3c c0 df d1 3d 5c 3e da bd b2 36 11 3d
       0.02889109 0.10247755 -0.10656425 0.035452552
000270 78 69 b4 bd f3 53 d1 bb 63 46 d7 3c b8 b2 b5 3d
       -0.08809179 -0.0063881814 0.02627868 0.088719785
000280 9b fd cf 3d 72 32 9c bc 11 b6 c3 bd d7 8a 1c be
       0.10155793 -0.019067023 -0.09556211 -0.15287338
000290 58 25 bb 3b 08 79 46 3d 9f 95 ff bd a6 93 93 3d
       0.005711239 0.04845527 -0.1247971 0.07205896
0002a0 f6 8a fe bd b9 dd e4 bd f7 9b 27 bd 1a 41 d4 3d
       -0.124288484 -0.11175103 -0.040920224 0.1036398
0002b0 fa 87 03 bd a7 51 1b 3e 2a da e1 bd e3 42 62 3d
       -0.0321121 0.15167867 -0.110279396 0.05523957
0002c0 25 08 0c 3e 84 3f cd 3d 6a 41 74 3c ff 96 9f 3c
       0.13674982 0.1002188 0.014908174 0.01948118
0002d0 7d ed 3e be 3d 28 0c 3e ba 16 43 bd 58 5a db bb
       -0.18645282 0.13687225 -0.047629096 -0.0066941194
0002e0 ba cd 61 3d 51 99 4a 3d be a3 a3 3d 59 44 df 3d
       0.055127837 0.04946262 0.07990216 0.10901708
0002f0 ed 06 0b 3e ae 6b 8d bd 5a c5 f2 3c 3f 96 ce bd
       0.1357686 -0.06905304 0.02963512 -0.10087251
000300 a5 fc ff bc 3c e9 0c bc 47 d1 a2 bd ca bf 3f bd
       -0.0312484 -0.008600529 -0.07950073 -0.046813764
000310 23 c0 14 be ed ac 5a 3d 4b cb a5 3c 7f 0d 03 be
       -0.1452642 0.05338757 0.02023854 -0.12798117
000320 be 21 23 be a0 63 2c bd 68 76 86 3c 84 dd ac bd
       -0.1593084 -0.042087197 0.016413882 -0.08440688
000330 3d eb 31 3d bd c0 22 bd 8f 7d 89 bd b1 00 52 bd
       0.04343723 -0.03973459 -0.067134015 -0.05127019
000340 b9 75 87 3d 4d 95 34 bd ac ea 8e bd 1f 5b 60 bd
       0.06614251 -0.044087697 -0.06978354 -0.0547744
000350 c9 e9 4a 3d 61 3b 82 bd 64 c8 11 3d 73 c9 97 3d
       0.04953936 -0.06358982 0.035591498 0.0741147
000360 5e 72 69 bd ca 47 ca bc cc 43 b1 3a 1f b2 9a 3d
       -0.056993835 -0.024692435 0.0013524233 0.07553505
000370 8f 6c 81 3c 9b 58 6c bd 7d 73 2c 3d dd 32 89 bd
       0.015798835 -0.05770169 0.042102326 -0.066991545
000380 b4 74 a2 bc 2b cf a6 bd df f7 b5 3d e4 31 28 3d
       -0.019831039 -0.08144983 0.08885168 0.041063204
000390 b8 a3 35 3c c3 4f b5 3d c3 5a 0b be ce 05 a2 3d
       0.011086397 0.08853104 -0.13608842 0.079112634
0003a0 c2 0c aa bd 30 4c e3 3d 85 f4 de bc f8 0f 3f 3d
       -0.083032146 0.11098516 -0.027216205 0.04664609
0003b0 4c 8c 70 bc c9 46 9a 3d 72 bd 2f 3e 95 9d 9b 3d
       -0.014681887 0.075330324 0.17162111 0.07598416
0003c0 6f ae 71 3d 84 dc 4e 3d 80 0e c5 bd e8 f0 b8 3d
       0.059004243 0.05050327 -0.09621906 0.09030324
0003d0 eb a9 87 bd 64 a4 28 3d e4 cd 58 bd 76 4c 3e 3b
       -0.06624206 0.0411724 -0.052930728 0.0029037273
0003e0 8d 42 98 bd 75 72 6a 3d fd 60 67 bc 2c 76 9f bc
       -0.074345686 0.05723806 -0.014122245 -0.019465528
0003f0 1d 49 8b bd 9c 34 4f 3c e7 73 2a bd 37 ae 2e bd
       -0.068010546 0.01264682 -0.04161444 -0.042646613
