onpolicy/scripts/results/MPE/simple_spread/rmappo/check/wandb/run-20220628_214449-3cv6vp2k/files/actor.pt (torch, 147692 bytes, 22 tensors)

base.feature_norm.weight f4 [18]
0	0x3f0d35b5	0.55160075
1	0x3f0b5c80	0.5443802
2	0x3dbbd493	0.09171405
3	0x3da6797b	0.08128639
4	0x3fb4cf04	1.4125676
5	0x3fbb7531	1.4645139
6	0x3fb8c3f8	1.4434805
7	0x3fb88496	1.4415462
8	0x3fbfeba9	1.4993793
9	0x3fba5639	1.4557563
10	0x3f856d43	1.0423969
11	0x3f76418a	0.96193755
12	0x3f663219	0.8992019
13	0x3f887655	1.0661112
14	0x3fb60a83	1.4221958
15	0x3f97ab55	1.1849161
16	0x3f9a5162	1.2056086
17	0x3fb30ba5	1.3987929

base.feature_norm.bias f4 [18]
0	0xbc2a8119	-0.010406756
1	0xbd0905b5	-0.03345271
2	0xbcdd22eb	-0.02699419
3	0x3c90073d	0.017581576
4	0x3b17e0d7	0.0023174786
5	0xbc716769	-0.014734128
6	0xbb9606e4	-0.004578458
7	0x3be2a68e	0.0069168275
8	0x3bba9079	0.005693492
9	0xbd1c82ae	-0.038210563
10	0x3d2e14fb	0.042500477
11	0x3d838c57	0.06423252
12	0xbc775207	-0.01509524
13	0x3d032092	0.032013483
14	0x3d234e8c	0.03986983
15	0x3a84a156	0.0010118883
16	0xbc5bc849	-0.013414451
17	0x3ce735f9	0.028223978

base.mlp.fc1.0.weight f4 [64, 18]
0	0x3e1abe3a	0.15111628
1	0xbebe0022	-0.37109476
2	0xbf20d9c3	-0.6283228
3	0x3dca2566	0.098704144
4	0xbe06b54c	-0.13155097
5	0x3d41657e	0.04721593
6	0xbe1d29bb	-0.1534795
7	0x3dd227a3	0.10261466
8	0xbc69b539	-0.014264398
9	0xbe0060a2	-0.12536862
10	0x3e9624e4	0.2932502
11	0x3de69917	0.11259668
12	0x3f1741e4	0.59084916
13	0x3eabbbb1	0.33541635
14	0xbecc605e	-0.39917272
15	0xbf124b49	-0.57146126
16	0xbf22c88a	-0.6358725
17	0xbe7b8eb7	-0.2456616
18	0x3edc7c34	0.4306351
19	0x3d148538	0.03625986
20	0x3d42c79c	0.047553644
21	0x3e2e602d	0.17028876
22	0x3d6c4b88	0.05768922
23	0xbd57562d	-0.052572418
24	0xbe65e97f	-0.22452353
25	0xbc9f1b4f	-0.019422201
26	0xbf8f122d	-1.1177422
27	0xbd630676	-0.055426084
28	0xbac8c00a	-0.0015316021
29	0x3cee9c52	0.029127274
30	0xbea73003	-0.32653818
31	0xbd534d7c	-0.051587567
32	0x3e6f79c4	0.23386294
33	0x3eabd12d	0.33558026
34	0x3f1de323	0.6167471
35	0x3e341a8e	0.17588255
36	0x3d1b2be7	0.037883665
37	0xbd9bbf7e	-0.076048836
38	0xbd9332b3	-0.071874045
39	0x3e044b6f	0.129194
40	0x3e18f43a	0.14936915
41	0xbe2549fa	-0.16141501
42	0xbeb9198e	-0.3615231
43	0xbea5e287	-0.3239939
44	0xbeef4043	-0.46728715
45	0x3980a09f	0.00024533735
46	0x3e6676a1	0.22506191
47	0x3e9d997f	0.3078117
48	0x3e93f538	0.28898025
49	0xbd3ed021	-0.046585206
50	0x3f217fe3	0.63085765
51	0x3ecb869b	0.39751133
52	0x3eef4fbe	0.46740526
53	0x3f182adf	0.59440416
54	0xbf0eef64	-0.5583403
55	0x3d62207f	0.055206772
56	0xbf51ff1c	-0.8202989
57	0x3e68f2d8	0.22748888
58	0x3ee3f4f2	0.44522816
59	0x3e95fd5b	0.29294857
60	0x3ee1b6e0	0.44084835
61	0x3e7ce51a	0.2469677
62	0x3df96dd6	0.12179153
63	0xbc7f4b7e	-0.015581964
64	0xbdbda7f4	-0.0926055
65	0xbe81fd05	-0.2538835
66	0x3e599ad2	0.21250466
67	0xbee2d53c	-0.4430331
68	0xbdb118fd	-0.08647344
69	0xbe72d880	-0.237154
70	0xbedf4bd2	-0.43612534
71	0xbd517603	-0.051137935
72	0x3e368b66	0.17826614
73	0xbf1b2555	-0.6060384
74	0x3e0472c1	0.129344
75	0xbe7fa01c	-0.2496342
76	0xbf09bd3d	-0.5380438
77	0x3f48e44a	0.7847334
78	0xbe0763eb	-0.1322171
79	0xbe55e1e8	-0.20886958
80	0xbdbe97dc	-0.093063086
81	0xbe784ce4	-0.24248081
82	0xbe5d1a9f	-0.21592186
83	0x3e95cc55	0.29257455
84	0xbecc5de5	-0.39915386
85	0x3eafd99e	0.34345716
86	0xbdb10d19	-0.08645076
87	0x3eb72f51	0.35778287
88	0x3e63dfdb	0.22253363
89	0xbdeff36f	-0.11716353
90	0x3f237b5f	0.63860124
91	0xbe8844c0	-0.26614952
92	0xbd7a0fc4	-0.06105019
93	0xbda8cc4e	-0.08242093
94	0x3e00e10c	0.12585849
95	0xbda5c412	-0.08094038
96	0x3d8600cf	0.06543123
97	0xbd09a24b	-0.03360204
98	0xbf9f91c7	-1.2466363
99	0x3e7d52b4	0.2473858
100	0x3d0265b4	0.031835273
101	0x3eb36e6e	0.3504519
102	0xbdd5807e	-0.104248986
103	0x3c68da52	0.014212208
104	0x3ef6e9a3	0.48225126
105	0xbd89e21e	-0.067325816
106	0x3dd20f9d	0.10256884
107	0x3e0417c7	0.12899695
108	0x3ebd20a7	0.36938974
109	0xbceb7164	-0.028740592
110	0x3ed610a1	0.41809562
111	0xbd0f8d25	-0.035046715
112	0xbe06959e	-0.13143012
113	0xbd019526	-0.03163638
114	0x3c55c09c	0.01304641
115	0xbebd9f72	-0.3703571
116	0x3db78c8b	0.08962353
117	0x3d50e2ed	0.050997663
118	0x3e3008d4	0.17190868
119	0xbf189728	-0.59605646
120	0xbeac58d7	-0.3366153
121	0x3c1db2fa	0.009625191
122	0x3e9ba036	0.3039567
123	0x3d4052b5	0.046953876
124	0x3e85eb21	0.26155952
125	0x3daa99bc	0.08330104
126	0x3cd711ec	0.026253663
127	0x3ea945a8	0.33060956
128	0x3b234bec	0.002491708
129	0xbe0600b1	-0.13086201
130	0x3e90dd80	0.2829399
131	0xbf1b2690	-0.60605717
132	0xbe9ed6d4	-0.31023276
133	0x3eb9194e	0.36152118
134	0xbe098267	-0.13428651
135	0x3dff0e56	0.12453906
136	0x3e7a35e1	0.24434616
137	0x3cff6390	0.031175405
138	0xbee07d84	-0.4384576
139	0xbe88f8ab	-0.2675222
140	0x3eb003f5	0.3437802
141	0x3c79f0a2	0.015255125
142	0xbc3da847	-0.011575765
143	0x3e922f00	0.28551483
144	0x3dc81d4f	0.09771215
145	0xbdbf8a15	-0.09352509
146	0x3daafda1	0.08349157
147	0x3dca564e	0.098797426
148	0x3ef20a8e	0.47273678
149	0xbe9b0860	-0.30279827
150	0x3e043040	0.12909031
151	0x3ef3f88e	0.4765057
152	0x3e32cbfa	0.17460623
153	0x3e1960e0	0.14978361
154	0x3de36944	0.11104062
155	0x3deaf7ad	0.11473022
156	0x3d9abcd9	0.07555551
157	0x3c96bece	0.01840153
158	0xbea6f192	-0.3260618
159	0xbec502c6	-0.38478678
160	0xbf3971e6	-0.7243942
161	0xbe769261	-0.24079277
162	0x3ed4f336	0.41591805
163	0xbef040dc	-0.46924484
164	0x3d764965	0.06012859
165	0xbe77dbd4	-0.24204952
166	0xbdfae42e	-0.12250553
167	0x3e884503	0.26615152
168	0xbd786b2f	-0.060649093
169	0x3e108078	0.14111507
170	0x3e9d11b0	0.30677557
171	0x3ddb6b03	0.1071377
172	0xbf08b5b6	-0.5340227
173	0x3e40d640	0.1883173
174	0x3e9211e4	0.28529274
175	0x3f132491	0.5747767
176	0x3e1098c5	0.14120777
177	0x3c00e9a0	0.007868201
178	0x3e26aa72	0.16275957
179	0x3e2eef34	0.17083436
180	0xbda26e19	-0.07931156
181	0xbe30a90b	-0.17251985
182	0x3dc5ae7b	0.0965242
183	0x3ec9bdfd	0.39402762
184	0x3e9c14fb	0.30484757
185	0x3f0006cc	0.5001037
186	0x3ba06a23	0.004895465
187	0x3e58afcc	0.21160811
188	0xbc0d3ce0	-0.008620471
189	0x3e07b15b	0.1325125
190	0x3d0e8087	0.034790542
191	0x3f2ce5fd	0.67538434
192	0xbe8e03c1	-0.2773724
193	0x3dc720b4	0.097230345
194	0x3e7e0bde	0.24809214
195	0x3ed44254	0.41456854
196	0xbe10566c	-0.14095467
197	0xbe2180e6	-0.15771827
198	0xbe0661d1	-0.13123251
199	0xbe074693	-0.13210516
200	0xbd7a4cde	-0.061108463
201	0xbf02414f	-0.50880903
202	0xbdd79b32	-0.10527648
203	0xbe0dc6cd	-0.13845368
204	0xbd9e5064	-0.07730177
205	0xbdd236fb	-0.10264393
206	0xba086359	-0.0005202792
207	0x3ca7c6a8	0.020480469
208	0x3e1b2f6c	0.15154809
209	0x3b5ada44	0.0033394257
210	0x3fa87416	1.3160427
211	0xbeeabf34	-0.45849
212	0x3e0d23b3	0.1378315
213	0xbd882e0a	-0.06649406
214	0xbe0a8d1c	-0.13530391
215	0x3b8971e0	0.004194483
216	0x3e4b61db	0.19861548
217	0xbebc18ec	-0.36737764
218	0xbd4a7e90	-0.049437106
219	0xbd374fab	-0.04475371
220	0xbf011f8f	-0.5043878
221	0x3fd3a727	1.6535386
222	0x3d8102dc	0.062993735
223	0x3e531a73	0.20615558
224	0x3e156a01	0.14591219
225	0x3de6d31f	0.11270737
226	0xbdbe701d	-0.09298728
227	0xbd1a2e8f	-0.037642058
228	0xbcd4f953	-0.025997793
229	0xbe3e584a	-0.18588367
230	0xbeb43355	-0.35195413
231	0xbeab05e1	-0.33402923
232	0x3e1f4765	0.15554579
233	0xbe16cecd	-0.14727326
234	0x3d5e92cf	0.054339226
235	0x3df097af	0.11747681
236	0x3e3b513e	0.1829271
237	0x3e023096	0.12713847
238	0xbbaf3876	-0.005347307
239	0xbcffda56	-0.03123204
240	0x3e102769	0.14077534
241	0xbe0c0480	-0.13673592
242	0x3a805322	0.00097904
243	0x3c8baf0c	0.017051242
244	0xbd229649	-0.039694104
245	0x3e6fc03d	0.23413177
246	0xbf505693	-0.813821
247	0xbfbd7e40	-1.4804153
248	0x3edadaab	0.42744955
249	0x3f070e06	0.52755773
250	0x3efe0f85	0.49621215
251	0x3f18d2b7	0.59696525
252	0x3dece15b	0.11566421
253	0xbd5c4db8	-0.053785056
254	0x3e78db8d	0.24302502
255	0x3e188a1f	0.14896439

base.mlp.fc1.0.bias f4 [64]
0	0x3ec2a742	0.38018233
1	0xbdb72f2c	-0.08944544
2	0x3d962aa6	0.07332353
3	0xbd21173f	-0.03932881
4	0x3dab2f51	0.08358634
5	0x3d75e33f	0.060031172
6	0x3daf883b	0.08570906
7	0x3e6aedc6	0.22942266
8	0xbdb9b182	-0.0906706
9	0xbc8457bd	-0.016155118
10	0xbd4101af	-0.047120746
11	0x3e27b0bf	0.16376017
12	0x3bff9fbd	0.0078010247
13	0x3c1396fc	0.009008165
14	0x3e0bb120	0.13641787
15	0xbd0dfb14	-0.034663275
16	0xbc21f5bb	-0.009885247
17	0xbd5b23e3	-0.05350102
18	0xbe5565bc	-0.2083959
19	0x3de16285	0.11005119
20	0xbcdb33e4	-0.026758142
21	0x3dc24eea	0.09487708
22	0x3cb3ced2	0.021949206
23	0x3d10323c	0.035204157
24	0x3caf4b14	0.021398105
25	0x3b22b799	0.002482867
26	0xbc3439f1	-0.011000142
27	0x3d68bc43	0.056820165
28	0x3dc0d15f	0.09414934
29	0xbdcd7e8a	-0.10033901
30	0xbdaacc47	-0.08339744
31	0x3d184ca6	0.037182473
32	0x3ca9a918	0.020710513
33	0x3daa235e	0.08307527
34	0x3d3e8fcb	0.04652385
35	0x3c62d87c	0.013845559
36	0xbe33f0b5	-0.17572291
37	0x3e1f4d5c	0.15556854
38	0xbc8f7a8e	-0.017514493
39	0xbc714390	-0.014725581
40	0x3d5c277a	0.053748585
41	0x3d19ce45	0.03755023
42	0xbcf4e33c	-0.02989351
43	0xbdac4265	-0.08411101
44	0x3de27eb6	0.110593244
45	0x3d97076c	0.073744625
46	0x3dd7da7e	0.10539721
47	0x3df7551a	0.12076779
48	0xbd0150ce	-0.031571202
49	0x3cdfa97d	0.027302498
50	0xbc44206b	-0.01197062
51	0x3d81478a	0.06312473
52	0xbcc776bf	-0.024348615
53	0x3d285afc	0.041102394
54	0xbdb09ddc	-0.08623859
55	0xbd159508	-0.03651908
56	0x3c38414d	0.011246038
57	0xbe3f3c35	-0.18675311
58	0xbd89d254	-0.0672957
59	0xbdd09af7	-0.10185807
60	0x3cd9513e	0.026527997
61	0xbd8ae083	-0.067811035
62	0x3c335ec9	0.0109478915
63	0x3d7b2e4b	0.061323445

base.mlp.fc1.2.weight f4 [64]
0	0x3f429f59	0.76024395
1	0x3f5f3e15	0.87204105
2	0x3f389e6f	0.7211675
3	0x3f09f833	0.53894347
4	0x3f4232fc	0.75859046
5	0x3f8124e8	1.0089388
6	0x3f6f3089	0.93433434
7	0x3f4f54d7	0.8098883
8	0x3ec15b70	0.37765074
9	0x3f359e25	0.70944434
10	0x3f889db4	1.0673127
11	0x3f5a9981	0.8539048
12	0x3f8efd4d	1.1171051
13	0x3faecaee	1.3655679
14	0x3f38765b	0.72055596
15	0x3f54193c	0.82851005
16	0x3fa14802	1.26001
17	0x3f3703c5	0.71490127
18	0x3f759f8d	0.9594658
19	0x3facc8ab	1.3498739
20	0x3fad5591	1.3541738
21	0x3f55c7e1	0.83508116
22	0x3f8224e6	1.016751
23	0x3fb70597	1.4298581
24	0x3f31ff9d	0.6953066
25	0x3f6ac8ac	0.9171245
26	0x3f4e1476	0.8049997
27	0x40024d82	2.0359807
28	0x3f82f5d5	1.0231272
29	0x3f233082	0.6374589
30	0x3f3b840a	0.7324835
31	0x3f8181e8	1.0117769
32	0x3f44343c	0.76642203
33	0x3f83de77	1.0302266
34	0x3f6c0272	0.9219123
35	0x3febc4c9	1.8419429
36	0x3f55a742	0.8345834
37	0x3f23f3d0	0.64043903
38	0x3f71f7e7	0.94518894
39	0x400a727d	2.1632378
40	0x3fe0d5eb	1.7565283
41	0x3f64c1a5	0.8935798
42	0x3f9ba025	1.2158247
43	0x3f47680a	0.77893126
44	0x3f4eb77c	0.80748725
45	0x3f34cb0d	0.7062233
46	0x3f432936	0.7623476
47	0x3f4d7434	0.80255437
48	0x3f39edc9	0.72628456
49	0x3f28f33f	0.65996164
50	0x3fbcc637	1.474799
51	0x3f742216	0.9536451
52	0x3f43fbc3	0.7655603
53	0x3f56e673	0.8394539
54	0x3f87117f	1.0552214
55	0x3f6bd35e	0.92119396
56	0x3f5f872a	0.8731562
57	0x3f46a672	0.77597725
58	0x3f0d7b3f	0.55266184
59	0x3f65f4d7	0.8982672
60	0x3f6f2aea	0.93424857
61	0x3fafa6b2	1.3722746
62	0x4014c31e	2.324409
63	0x3f58b6b6	0.84653795

base.mlp.fc1.2.bias f4 [64]
0	0x3d603176	0.05473467
1	0x3c512f59	0.012767636
2	0x3bd9b7dd	0.0066442327
3	0x3d1f4565	0.03888454
4	0xbd3759e0	-0.044763446
5	0x3d2711c3	0.040788423
6	0x3d099593	0.03358991
7	0xbd886990	-0.066607594
8	0xbda9d19e	-0.082919344
9	0xbd9ec4a0	-0.07752347
10	0x3d50064a	0.050787248
11	0xbc9261b3	-0.017868852
12	0xbd7d768e	-0.06188064
13	0x3ca89a50	0.020581394
14	0x3caf7009	0.021415727
15	0x3a9bb2c4	0.0011878838
16	0x3db6d845	0.08927969
17	0xbd4721ec	-0.048616335
18	0xbac943c1	-0.0015355275
19	0xbcc7440c	-0.02432444
20	0xbd8a53e3	-0.06754281
21	0xbc9f0e35	-0.019415954
22	0x3d9a7e08	0.0754357
23	0xbdd09edb	-0.10186549
24	0xbc81f5e7	-0.015864326
25	0x3d84968b	0.06474026
26	0xbcd62bf1	-0.026144
27	0xbd0f496b	-0.034982126
28	0xbcc5f9b7	-0.024166925
29	0x3d6e5b9e	0.05819284
30	0xbbebe81d	-0.007199301
31	0x3c8d6f64	0.01726503
32	0x3b97d1a9	0.0046331477
33	0xbcf97463	-0.030451005
34	0x3d06f748	0.03295067
35	0x3d5e830e	0.054324202
36	0x3e14872c	0.14504689
37	0xbcc29950	-0.023754746
38	0x3d649c4e	0.055813126
39	0xbd4e336b	-0.050342005
40	0xbc4240df	-0.011856287
41	0x3d2a0c6c	0.041515753
42	0xbc36eef5	-0.01116537
43	0x3dc18163	0.09448507
44	0x3ba2efe2	0.004972444
45	0xbdea1b32	-0.11430968
46	0x3c097480	0.008389592
47	0xbc069ce1	-0.008216114
48	0xbd196a83	-0.037455093
49	0xbd16e729	-0.036841545
50	0x3da77e05	0.08178333
51	0xbb5daed6	-0.0033826134
52	0x3df9ccd1	0.12197269
53	0x3ca94187	0.020661129
54	0x3c28ebd7	0.010310135
55	0x3d6cd1ba	0.0578172
56	0xbc5493ae	-0.012974663
57	0xbd7dbace	-0.06194573
58	0xbbea0b6c	-0.007142475
59	0xbc7ba848	-0.015359946
60	0xbd30b03a	-0.043136813
61	0x3e046717	0.1292995
62	0x3c5ddeda	0.0135419015
63	0xbcb46693	-0.022021567

base.mlp.fc_h.0.weight f4 [64, 64]
0	0x3d092420	0.033481717
1	0xbe17ad93	-0.14812307
2	0x3d24510b	0.04011635
3	0x3e21b4ba	0.15791598
4	0xbe85e35e	-0.2615003
5	0x3e3c42be	0.18384835
6	0xbdc92c8e	-0.09822951
7	0xbe36b6b0	-0.17843127
8	0xbe7b723a	-0.24555293
9	0x3e56e783	0.20986752
10	0x3d71faf7	0.05907723
11	0xbf0cc55c	-0.54988647
12	0xbea9ebb4	-0.3318764
13	0xbd9ec971	-0.07753266
14	0xbe826e09	-0.25474575
15	0x3e6e29b8	0.23258102
16	0xbd113505	-0.035450954
17	0x3e9454a4	0.28970826
18	0x3e2ce27c	0.16883272
19	0xbbbd6495	-0.0057798126
20	0xbdab6f08	-0.08370787
21	0x3c99fef6	0.018798333
22	0x3ec1f35e	0.37880987
23	0xbeb9ed3f	-0.36313817
24	0xbe20e453	-0.15712099
25	0x3e01c6be	0.1267347
26	0xbe90b424	-0.28262436
27	0x3e24048a	0.16017357
28	0x3e93deb8	0.28880858
29	0xbb3055fa	-0.0026906715
30	0xbdb6333a	-0.088964894
31	0xbe0964c7	-0.1341735
32	0x3ed8e67f	0.42363355
33	0xbb992578	-0.004673656
34	0x3c04f8d3	0.008115965
35	0xbe26d174	-0.16290838
36	0x3c70b1fd	0.014690873
37	0xbee825c0	-0.453413
38	0xbec368ce	-0.38165897
39	0xbd0cf922	-0.03441728
40	0xbd2971b8	-0.041368216
41	0x3d83f325	0.064428605
42	0xbd19a361	-0.037509326
43	0xbe4bf391	-0.19917132
44	0x3ead0752	0.33794647
45	0x3b1fb5b4	0.0024369778
46	0xbd30e071	-0.043182794
47	0x3e580a9b	0.21097796
48	0xbdbf433e	-0.09338997
49	0x3d3d3494	0.04619272
50	0x3ea05ae0	0.31319332
51	0xbe9c298a	-0.30500442
52	0x3e76a811	0.2408755
53	0x3db79570	0.0896405
54	0x3e74a1f6	0.23889908
55	0xbe2e8930	-0.1704452
56	0xbe646db5	-0.22307475
57	0x3c093b4d	0.008375955
58	0x3e23f121	0.16009952
59	0x3d9f7b88	0.077872336
60	0xbe242dca	-0.16033092
61	0xbdd72968	-0.105059445
62	0xbe2e6901	-0.17032243
63	0xbe0e8ea4	-0.139216
64	0x3ebc1e7f	0.36742017
65	0xbd2e7590	-0.042592585
66	0x3d243045	0.040085096
67	0xbe4f5e88	-0.20250905
68	0x3deba033	0.11505165
69	0x3f1d1276	0.61356294
70	0xbf1e3bfb	-0.6181027
71	0xbde73434	-0.11289254
72	0xbdae6be3	-0.085166715
73	0x3cfe0d7b	0.031012287
74	0xbe97661e	-0.29570097
75	0x3d25b30c	0.040453956
76	0x3d6a6d28	0.057233006
77	0x3c0f1647	0.008733339
78	0xbe64f030	-0.2235725
79	0x3d2242b4	0.039614394
80	0x3d098d67	0.033582117
81	0xbe48712f	-0.19574426
82	0x3e04245a	0.12904492
83	0x3d117900	0.035515785
84	0x3e018003	0.12646489
85	0xbca9d945	-0.020733485
86	0x3d9e6598	0.07734221
87	0xbd8b4a58	-0.06801289
88	0xbc47ffdb	-0.012206997
89	0xbedb108c	-0.42786062
90	0x3dc80c6a	0.09767993
91	0x3e9b0929	0.30280426
92	0xbe40cb96	-0.18827662
93	0x3e61327b	0.21991913
94	0x3d87801e	0.06616233
95	0xbbb6c009	-0.0055770916
96	0xbe6dfa79	-0.23240079
97	0x3dddcf99	0.10830612
98	0xbdae972b	-0.08524927
99	0x3dfefd7b	0.12450691
100	0xbe82ca8a	-0.2554515
101	0x3dbdf587	0.09275346
102	0x3e619817	0.22030674
103	0x3e1b9e0c	0.15197009
104	0xbea3b2b9	-0.31972292
105	0x3d12a5ed	0.03580277
106	0x3e739227	0.23786221
107	0xbe58af2a	-0.2116057
108	0x3ed1b087	0.40954992
109	0xbe791d9e	-0.24327704
110	0x3e03665c	0.12832016
111	0x3dd76929	0.105181046
112	0x3d1b587f	0.037926193
113	0x3e004d5a	0.12529507
114	0x3d0ff0b2	0.035141654
115	0x3e98bc67	0.2983124
116	0xbd713a98	-0.05889377
117	0xbeb3c75c	-0.35113037
118	0x3e10fe1d	0.14159437
119	0xbe7c3ace	-0.24631807
120	0xbdc9f703	-0.09861567
121	0xbddc01c8	-0.10742527
122	0x3ddf39eb	0.10899719
123	0x3e4f5681	0.20247842
124	0x3e1df49e	0.15425345
125	0xbe1c0218	-0.15235174
126	0x3e8c7cb1	0.27438882
127	0x3b966449	0.0045895916
128	0xbe94702e	-0.28991836
129	0x3e7c70f4	0.24652463
130	0x3e5a6c87	0.21330462
131	0xbd9ff7a7	-0.07810908
132	0x3c86a952	0.01643816
133	0xbddb9738	-0.10722202
134	0xbc8f1267	-0.01746483
135	0x3e220759	0.15823115
136	0xbe8c2f85	-0.27380005
137	0x3e67b206	0.22626504
138	0xbe3f50cb	-0.18683164
139	0xbe252044	-0.1612559
140	0x3eee7a41	0.46577647
141	0x3d0b37fb	0.033988934
142	0xbdb41696	-0.087933704
143	0x3c0f2aaa	0.008738199
144	0xbddc8da9	-0.10769207
145	0x3ed6e4b7	0.4197137
146	0x3e29e94c	0.16592902
147	0x3ee5d132	0.44886166
148	0x3e393775	0.18087561
149	0xbe692dd2	-0.22771385
150	0x3ea3b417	0.31973335
151	0x3ea90f73	0.330196
152	0x3e580798	0.21096647
153	0x3e7cdba9	0.24693169
154	0x3e765f2a	0.2405974
155	0x3e4c0381	0.19923212
156	0xbde0294e	-0.10945378
157	0xbd1fe1c9	-0.039033685
158	0xbe1cc6f4	-0.1531027
159	0xbe26149d	-0.16218801
160	0x3cd02ff3	0.025413489
161	0xbb206c59	-0.0024478643
162	0xbe9859be	-0.29755968
163	0x3e26ed0c	0.16301364
164	0xbbea708c	-0.00715453
165	0xbe2b2d22	-0.16716436
166	0xbd695e6f	-0.056974825
167	0x3df551ed	0.11978517
168	0xbbf0c6f2	-0.007347935
169	0x3c2c096b	0.010500292
170	0x3ea1f5de	0.31632894
171	0x3dd5c7b3	0.1043848
172	0xbdf33339	-0.11875004
173	0x3d465b0c	0.048426673
174	0xbe69720e	-0.22797415
175	0x3d821025	0.063507356
176	0xbe1b039e	-0.15138099
177	0x3e10f6d8	0.14156663
178	0x3d8afe19	0.067867465
179	0x3e9adca8	0.30246472
180	0xbe1beb06	-0.15226373
181	0x3e64a271	0.22327591
182	0x3ebfb6a3	0.37444028
183	0xbc8de984	-0.017323263
184	0x3bd294e1	0.006426439
185	0xbdedc7c5	-0.11610369
186	0xbe484809	-0.19558729
187	0xbf0148f0	-0.5050192
188	0x3dc60520	0.09668946
189	0xbe8f7b9b	-0.2802399
190	0x3dfe67c7	0.12422138
191	0x3e587ba2	0.21140912
192	0x3dfb4e13	0.12270751
193	0xbea7f4a0	-0.32803822
194	0xbd842e9e	-0.06454204
195	0x3ba74773	0.005104953
196	0xbdc2ed00	-0.095178604
197	0xbe99eb44	-0.30062306
198	0x3d1aa3cc	0.037753865
199	0x3df5319a	0.11972351
200	0xbe7132e3	-0.23554568
201	0x3edeac33	0.43490753
202	0xbe4587c0	-0.19290066
203	0xbe17baed	-0.148174
204	0xbd115c5e	-0.03548848
205	0xbc8af0f7	-0.016960604
206	0x3e83d010	0.25744677
207	0xbef4ea5f	-0.4783506
208	0xbd415978	-0.047204465
209	0xbd85900f	-0.065216176
210	0xbe1c8173	-0.15283756
211	0x3e278c26	0.16362056
212	0xbdfcee82	-0.12350179
213	0xbc8386a4	-0.016055413
214	0x3e0402c2	0.12891677
215	0xbda5862a	-0.080822304
216	0x3eed08f3	0.4629589
217	0xbe60f7aa	-0.21969476
218	0xbea264bb	-0.31717476
219	0xbd1a7492	-0.037708826
220	0xbe1f3528	-0.15547621
221	0x3df12a66	0.11775665
222	0xbee9455d	-0.45560732
223	0xbd53774e	-0.05162745
224	0x3ddf028c	0.10889158
225	0xbe354163	-0.17700724
226	0x3eb758c6	0.35809916
227	0x3d401743	0.046897184
228	0x3c8c1435	0.01709948
229	0x3e9c1016	0.30481023
230	0xbe5831a3	-0.21112685
231	0xbe0b8d45	-0.13628109
232	0x3e6b4bc8	0.22978127
233	0xbe33ec7e	-0.17570683
234	0x3e4bb5c1	0.19893552
235	0xbebd99eb	-0.37031493
236	0xbd308122	-0.0430919
237	0x3e498865	0.19680937
238	0xbd948496	-0.07251851
239	0xbe2c90cd	-0.16852112
240	0x3dee9d6c	0.116511196
241	0x3c23b662	0.009992214
242	0xbe0b47fb	-0.13601677
243	0x3efc7baa	0.49313098
244	0x3d7c52de	0.061602466
245	0xbdc13d93	-0.094355725
246	0x3dd05573	0.10172548
247	0x3c484c1b	0.012225176
248	0x3c69b19e	0.014263539
249	0xbe69318b	-0.22772805
250	0x3e421873	0.18954639
251	0x3e924b04	0.28572857
252	0x3da24717	0.079237156
253	0xbdb34d71	-0.08755005
254	0xbe48a756	-0.19595084
255	0xbe51d582	-0.20491603

base.mlp.fc_h.0.bias f4 [64]
0	0x00000000	0.0
1	0x00000000	0.0
2	0x00000000	0.0
3	0x00000000	0.0
4	0x00000000	0.0
5	0x00000000	0.0
6	0x00000000	0.0
7	0x00000000	0.0
8	0x00000000	0.0
9	0x00000000	0.0
10	0x00000000	0.0
11	0x00000000	0.0
12	0x00000000	0.0
13	0x00000000	0.0
14	0x00000000	0.0
15	0x00000000	0.0
16	0x00000000	0.0
17	0x00000000	0.0
18	0x00000000	0.0
19	0x00000000	0.0
20	0x00000000	0.0
21	0x00000000	0.0
22	0x00000000	0.0
23	0x00000000	0.0
24	0x00000000	0.0
25	0x00000000	0.0
26	0x00000000	0.0
27	0x00000000	0.0
28	0x00000000	0.0
29	0x00000000	0.0
30	0x00000000	0.0
31	0x00000000	0.0
32	0x00000000	0.0
33	0x00000000	0.0
34	0x00000000	0.0
35	0x00000000	0.0
36	0x00000000	0.0
37	0x00000000	0.0
38	0x00000000	0.0
39	0x00000000	0.0
40	0x00000000	0.0
41	0x00000000	0.0
42	0x00000000	0.0
43	0x00000000	0.0
44	0x00000000	0.0
45	0x00000000	0.0
46	0x00000000	0.0
47	0x00000000	0.0
48	0x00000000	0.0
49	0x00000000	0.0
50	0x00000000	0.0
51	0x00000000	0.0
52	0x00000000	0.0
53	0x00000000	0.0
54	0x00000000	0.0
55	0x00000000	0.0
56	0x00000000	0.0
57	0x00000000	0.0
58	0x00000000	0.0
59	0x00000000	0.0
60	0x00000000	0.0
61	0x00000000	0.0
62	0x00000000	0.0
63	0x00000000	0.0

base.mlp.fc_h.2.weight f4 [64]
0	0x3f800000	1.0
1	0x3f800000	1.0
2	0x3f800000	1.0
3	0x3f800000	1.0
4	0x3f800000	1.0
5	0x3f800000	1.0
6	0x3f800000	1.0
7	0x3f800000	1.0
8	0x3f800000	1.0
9	0x3f800000	1.0
10	0x3f800000	1.0
11	0x3f800000	1.0
12	0x3f800000	1.0
13	0x3f800000	1.0
14	0x3f800000	1.0
15	0x3f800000	1.0
16	0x3f800000	1.0
17	0x3f800000	1.0
18	0x3f800000	1.0
19	0x3f800000	1.0
20	0x3f800000	1.0
21	0x3f800000	1.0
22	0x3f800000	1.0
23	0x3f800000	1.0
24	0x3f800000	1.0
25	0x3f800000	1.0
26	0x3f800000	1.0
27	0x3f800000	1.0
28	0x3f800000	1.0
29	0x3f800000	1.0
30	0x3f800000	1.0
31	0x3f800000	1.0
32	0x3f800000	1.0
33	0x3f800000	1.0
34	0x3f800000	1.0
35	0x3f800000	1.0
36	0x3f800000	1.0
37	0x3f800000	1.0
38	0x3f800000	1.0
39	0x3f800000	1.0
40	0x3f800000	1.0
41	0x3f800000	1.0
42	0x3f800000	1.0
43	0x3f800000	1.0
44	0x3f800000	1.0
45	0x3f800000	1.0
46	0x3f800000	1.0
47	0x3f800000	1.0
48	0x3f800000	1.0
49	0x3f800000	1.0
50	0x3f800000	1.0
51	0x3f800000	1.0
52	0x3f800000	1.0
53	0x3f800000	1.0
54	0x3f800000	1.0
55	0x3f800000	1.0
56	0x3f800000	1.0
57	0x3f800000	1.0
58	0x3f800000	1.0
59	0x3f800000	1.0
60	0x3f800000	1.0
61	0x3f800000	1.0
62	0x3f800000	1.0
63	0x3f800000	1.0

base.mlp.fc_h.2.bias f4 [64]
0	0x00000000	0.0
1	0x00000000	0.0
2	0x00000000	0.0
3	0x00000000	0.0
4	0x00000000	0.0
5	0x00000000	0.0
6	0x00000000	0.0
7	0x00000000	0.0
8	0x00000000	0.0
9	0x00000000	0.0
10	0x00000000	0.0
11	0x00000000	0.0
12	0x00000000	0.0
13	0x00000000	0.0
14	0x00000000	0.0
15	0x00000000	0.0
16	0x00000000	0.0
17	0x00000000	0.0
18	0x00000000	0.0
19	0x00000000	0.0
20	0x00000000	0.0
21	0x00000000	0.0
22	0x00000000	0.0
23	0x00000000	0.0
24	0x00000000	0.0
25	0x00000000	0.0
26	0x00000000	0.0
27	0x00000000	0.0
28	0x00000000	0.0
29	0x00000000	0.0
30	0x00000000	0.0
31	0x00000000	0.0
32	0x00000000	0.0
33	0x00000000	0.0
34	0x00000000	0.0
35	0x00000000	0.0
36	0x00000000	0.0
37	0x00000000	0.0
38	0x00000000	0.0
39	0x00000000	0.0
40	0x00000000	0.0
41	0x00000000	0.0
42	0x00000000	0.0
43	0x00000000	0.0
44	0x00000000	0.0
45	0x00000000	0.0
46	0x00000000	0.0
47	0x00000000	0.0
48	0x00000000	0.0
49	0x00000000	0.0
50	0x00000000	0.0
51	0x00000000	0.0
52	0x00000000	0.0
53	0x00000000	0.0
54	0x00000000	0.0
55	0x00000000	0.0
56	0x00000000	0.0
57	0x00000000	0.0
58	0x00000000	0.0
59	0x00000000	0.0
60	0x00000000	0.0
61	0x00000000	0.0
62	0x00000000	0.0
63	0x00000000	0.0

base.mlp.fc2.0.0.weight f4 [64, 64]
0	0x3e2de163	0.1698051
1	0xbe5c3035	-0.21502765
2	0x3e8d9577	0.27653095
3	0x3e713cf9	0.23558415
4	0xbe61c70e	-0.2204859
5	0x3e1c9b34	0.1529358
6	0xbedc5137	-0.43030712
7	0xbe3f14d1	-0.18660285
8	0x3d437339	0.047717307
9	0x3dd69ae7	0.10478764
10	0x3f092124	0.53566194
11	0xbef0f80c	-0.47064245
12	0xbed651e1	-0.41859344
13	0xbca9146f	-0.020639626
14	0x3f109235	0.56473094
15	0x3c9c925c	0.019112758
16	0x3ea38526	0.31937522
17	0x3f0847f6	0.53234804
18	0xbe9efd41	-0.31052592
19	0xbf27f9b5	-0.656154
20	0xbe3c64a3	-0.18397765
21	0xbd710383	-0.05884124
22	0x3f2895fe	0.6585387
23	0xbdbaa2d4	-0.09113088
24	0x3d852d79	0.06502814
25	0xbe8fe57a	-0.28104764
26	0x3eebfe66	0.46092528
27	0x3dc6eae6	0.09712772
28	0x3e0c6250	0.13709378
29	0xbf033ac2	-0.5126153
30	0x3dae394a	0.08507021
31	0xbef727cf	-0.4827256
32	0xbdffd150	-0.12491095
33	0x3e14ac66	0.1451889
34	0x3e22f3ca	0.1591331
35	0xbdb202f8	-0.086919725
36	0xbe560c99	-0.20903243
37	0xbee337b3	-0.44378433
38	0xbf1ed657	-0.62045807
39	0x3dbf0884	0.09327796
40	0x3e6092be	0.21930978
41	0xbe7ddb4a	-0.24790683
42	0xbb84432f	-0.004036329
43	0xbe239239	-0.15973748
44	0x3e7c7844	0.24655253
45	0xbcb5efda	-0.022209097
46	0x3e97b6b7	0.29631588
47	0xbe34ee05	-0.17668922
48	0x3e823463	0.25430593
49	0x3d564d2e	0.052319698
50	0x3f868710	1.0509968
51	0xbf21a369	-0.6313997
52	0x3e5748f1	0.21023919
53	0xbe802a9a	-0.25032502
54	0x3dde87fb	0.1086578
55	0xbf1a37b1	-0.6024123
56	0x3cbad0d8	0.022804663
57	0x3d943604	0.07236865
58	0x3e187dcc	0.14891738
59	0xbe80df33	-0.25170287
60	0xbe67790f	-0.22604774
61	0x3e328ba2	0.17436078
62	0xbe59ad57	-0.2125753
63	0xbe9fc579	-0.31205347
64	0x3f110407	0.5664677
65	0xbdac3105	-0.08407787
66	0xbdfcf0e2	-0.12350632
67	0x3da9eaa4	0.08296707
68	0xbe0b83ed	-0.13624544
69	0x3f3fded6	0.74949396
70	0xbf2d2f26	-0.6765007
71	0xbe215d9c	-0.15758365
72	0x3eb3d046	0.35119838
73	0xbf06c4d0	-0.5264406
74	0xbc9e4f19	-0.019324826
75	0x3ec00f38	0.3751161
76	0xbdc5c856	-0.09657352
77	0x3bcfca2a	0.0063412385
78	0xbe71fea7	-0.23632298
79	0xbdfd9bbe	-0.12383221
80	0xbef3af19	-0.47594526
81	0xbca51dc0	-0.020155787
82	0x3e1a2809	0.15054335
83	0xbeeb4565	-0.4595138
84	0xbe82d34a	-0.25551826
85	0x3db32e34	0.08749047
86	0x3b6f8090	0.0036545135
87	0xbe9715ab	-0.2950872
88	0x3ee29fa1	0.44262412
89	0xbec06d4e	-0.37583393
90	0x3f579017	0.8420424
91	0x3ea601ff	0.32423398
92	0xbe69341c	-0.22773784
93	0x3f47fcae	0.78119934
94	0xbd974176	-0.073855326
95	0x3e2aa34c	0.16663855
96	0xbe6955d3	-0.22786646
97	0x3f2f8f0a	0.68577635
98	0xbe5263cf	-0.20545886
99	0xbe738e12	-0.23784664
100	0xbe4bb395	-0.19892724
101	0xbdc1f663	-0.09470823
102	0x3e942909	0.28937557
103	0x3e9a005a	0.30078393
104	0xbf118a28	-0.56851435
105	0xbe5578a7	-0.20846806
106	0x3e0cd985	0.13754852
107	0x3e836a70	0.25667143
108	0x3ea84927	0.3286831
109	0xbe8c0a42	-0.27351576
110	0x3f2dff9e	0.67968166
111	0xbdb0597e	-0.08610819
112	0x3dd2ed56	0.102991745
113	0xbd9ffac4	-0.078115016
114	0x3e5ba088	0.21447957
115	0x3f214435	0.629947
116	0x3e3d54f0	0.18489432
117	0xbf8b1811	-1.086672
118	0x3f1ebfe4	0.6201155
119	0xbedf64ab	-0.4363149
120	0xbec0619a	-0.37574464
121	0xbe09f536	-0.13472447
122	0x3ebdb614	0.37052977
123	0xbe47f589	-0.19527258
124	0xbdc0faec	-0.094228595
125	0x3cc209ff	0.023686407
126	0xbe963926	-0.29340476
127	0xbefec766	-0.49761504
128	0x3e87a4de	0.2649297
129	0x3e484c62	0.19560388
130	0xbec1ce1f	-0.3785257
131	0x3e9f0525	0.31058612
132	0xbec7b0d7	-0.39002106
133	0xbed84dbe	-0.42246813
134	0xbf58409c	-0.84473586
135	0x3ebaf0ca	0.36511832
136	0x3ec7547c	0.38931644
137	0x3e98d3b4	0.29849017
138	0x3e014886	0.12625322
139	0xbe226d0f	-0.15861915
140	0x3ec45987	0.38349554
141	0x3dae8790	0.0852195
142	0x3e8e7d90	0.27830172
143	0xbec195c5	-0.37809578
144	0xbc009ca3	-0.007849845
145	0x3f85fdd8	1.0468092
146	0xbd7893c3	-0.06068779
147	0x3e7cb48d	0.2467825
148	0x3f1901f7	0.59768623
149	0xbe5fb03a	-0.21844569
150	0x3e4f4b4e	0.2024357
151	0x3eecc938	0.46247268
152	0x3e229a90	0.15879273
153	0xbf01d5c9	-0.50716835
154	0xbeaabcda	-0.33347207
155	0xbe232af4	-0.15934354
156	0x3ea5fb08	0.32418084
157	0xbda12ced	-0.07869897
158	0xbf08f527	-0.5349907
159	0xbe68764c	-0.22701377
160	0x3e392b8d	0.1808302
161	0x3e0e9ed3	0.13927774
162	0xbf443468	-0.76642466
163	0xbe4dd2a4	-0.20099884
164	0x3e875ff9	0.2644041
165	0xbf2936e4	-0.6609938
166	0x3ced483b	0.028965106
167	0x3e630452	0.22169617
168	0x3dc93786	0.098250434
169	0xbda82512	-0.082101956
170	0x3f88a869	1.0676395
171	0xbe559448	-0.20857346
172	0xbe52b6fc	-0.20577615
173	0x3eb4adc8	0.35288835
174	0x3d7a53e8	0.061115175
175	0xbe6a4334	-0.22877198
176	0x3ed6f2f1	0.41982225
177	0xbe64d72c	-0.22347707
178	0x3e1e1523	0.1543775
179	0xbec95794	-0.3932463
180	0x3d19fdb0	0.03759545
181	0x3f60ea1e	0.87857234
182	0x3ed90dd1	0.42393354
183	0xbf7b6e80	-0.98215485
184	0x3e5cff19	0.21581687
185	0xbdf6e670	-0.12055671
186	0x3e91de65	0.28489986
187	0xbf96f192	-1.1792471
188	0x3f418245	0.755894
189	0xbf04724a	-0.5173689
190	0x3f3cd44e	0.7376145
191	0x3e93f996	0.28901356
192	0x3f321a2a	0.69571173
193	0xbe98fda7	-0.2988102
194	0xbd844dd9	-0.06460161
195	0x3d5f653e	0.05453991
196	0xbc36204d	-0.0111161
197	0xbe961d4e	-0.29319233
198	0xbee9fc5f	-0.45700356
199	0x3d47f203	0.048814785
200	0xbe046348	-0.12928498
201	0x3f0390e1	0.5139294
202	0x3d0bef60	0.034163833
203	0xbcf1a650	-0.02949825
204	0xbe78e017	-0.24304233
205	0x3e730200	0.23731232
206	0x3e8d13ff	0.27554318
207	0xbf026486	-0.50934637
208	0xba800456	-0.0009766917
209	0x3e633b4f	0.22190593
210	0xbf2bd633	-0.6712372
211	0x3f267a9d	0.65030843
212	0xbd0fb9bf	-0.03508925
213	0x3c69e8e8	0.014276721
214	0x3ec61363	0.38686666
215	0xbd4223ce	-0.047397427
216	0x3f119456	0.5686697
217	0xbeb6cf3c	-0.35704982
218	0x3de2b485	0.110695876
219	0xbdf9eb12	-0.12203039
220	0x3df6d143	0.12051632
221	0x3e513e03	0.20433812
222	0xbec3f528	-0.38272977
223	0xbedd0968	-0.4317124
224	0xbd4aad31	-0.049481574
225	0xbea3bea9	-0.319814
226	0x3f38eecb	0.7223937
227	0x3e96ef73	0.2947956
228	0x3d157439	0.03648779
229	0x3db5d634	0.08878747
230	0xbdeca663	-0.11555173
231	0xbe79d3d4	-0.24397212
232	0x3e33c96d	0.17557307
233	0xbe949a5d	-0.2902402
234	0xbc9b31c4	-0.018944629
235	0xbf078b11	-0.52946573
236	0xbe457a28	-0.1928488
237	0x3e3c583e	0.18393037
238	0xbe1ca272	-0.15296343
239	0xbe626f64	-0.22112805
240	0xbd0b0a46	-0.033945344
241	0x3e97436d	0.2954363
242	0xbe9ce9d1	-0.30647138
243	0x3f02b45b	0.5105645
244	0x3e1ed236	0.15509877
245	0xbe84f764	-0.25969994
246	0xbe2be640	-0.16787052
247	0xbe8db7fc	-0.2767943
248	0x3a5b1a41	0.0008358099
249	0xbcf5863c	-0.029971235
250	0x3d025bde	0.031825893
251	0xbdfd919f	-0.12381291
252	0xbe19d613	-0.15023069
253	0x3d85caca	0.065328196
254	0xbdd41f8e	-0.10357581
255	0xbea29118	-0.31751323

base.mlp.fc2.0.0.bias f4 [64]
0	0xbd163089	-0.03666738
1	0xbf09c463	-0.5381529
2	0xbeaf1698	-0.34196925
3	0xbda87592	-0.0822555
4	0xbe0b8d1b	-0.13628046
5	0xbd705f68	-0.058684736
6	0xbd2797f9	-0.040916417
7	0x3e89257f	0.2678642
8	0x3dea24ea	0.11432822
9	0x3c9835fc	0.01858043
10	0x3e87937c	0.2647971
11	0x3dfb45b9	0.12269158
12	0x3d3c99cf	0.04604512
13	0xbdcb1351	-0.09915794
14	0x3d068b53	0.032847714
15	0xbb0abe00	-0.0021170378
16	0xbc29a88c	-0.010355126
17	0xbe45bc58	-0.19310129
18	0x3d5289e6	0.05140104
19	0x3d73c567	0.05951443
20	0xbdc1e3ae	-0.094672546
21	0x3e9f96e7	0.31169817
22	0x3e425410	0.1897738
23	0x3de500de	0.11181806
24	0x3dd43333	0.10361328
25	0x3e5e0d80	0.21684837
26	0xbe6930b7	-0.2277249
27	0xbd06457c	-0.03278111
28	0x3e5c3707	0.21505366
29	0xbd73df2e	-0.059539013
30	0xbdb804ff	-0.08985328
31	0xbe77d281	-0.24201395
32	0x3cdbe308	0.026841655
33	0xbef23081	-0.4730263
34	0x3e23215b	0.15930693
35	0x3c74d97c	0.01494443
36	0xbd98fc73	-0.07470026
37	0x3e17d8e6	0.14828834
38	0x3de1913b	0.11014029
39	0xbe0c93ad	-0.13728209
40	0x3e283385	0.16425903
41	0x3cef94f6	0.029245835
42	0x3d45b6c9	0.04827002
43	0x3d5dbbe5	0.05413427
44	0x3dc9b2d4	0.09848562
45	0x3d58dda8	0.052945763
46	0xbdb6aff5	-0.0892028
47	0xbc4bcbf9	-0.012438768
48	0x3e5a68e4	0.21329075
49	0xbce516cc	-0.027964972
50	0xbc9eaf9b	-0.019370845
51	0xbd138ec9	-0.036024842
52	0xbd963c50	-0.073357224
53	0x3e5a8ce4	0.21342808
54	0xbe77a3db	-0.241836
55	0x3ed18f3b	0.4092959
56	0xbdf9bf9d	-0.121947505
57	0x3d9e1dc6	0.077205226
58	0xbdbf0a26	-0.093281075
59	0xbe06fafb	-0.13181679
60	0xbd7972d4	-0.060900524
61	0x3ea3c8a4	0.31989014
62	0xbdfe0228	-0.12402755
63	0xbdd37c6d	-0.10326467

base.mlp.fc2.0.2.weight f4 [64]
0	0x3fb2d9db	1.3972734
1	0x3da6f4eb	0.08152183
2	0x3f3989e2	0.7247602
3	0x3fa62060	1.297863
4	0x3f863f60	1.048809
5	0x3fdbf19a	1.7183106
6	0x3f766ff8	0.962646
7	0x3f3a1cf0	0.72700405
8	0x3ebdf13e	0.37098116
9	0x3f64836a	0.8926302
10	0x3f5112f3	0.8166954
11	0x3f7d4fac	0.98949695
12	0x3f95591c	1.1667819
13	0x3f4964e3	0.78669566
14	0x3f8e060d	1.1095597
15	0x3f95aed4	1.1693978
16	0x3f8f1512	1.1178305
17	0x3f789768	0.9710603
18	0x3f14f3b4	0.5818436
19	0x3f9b42da	1.2129776
20	0x3f29768e	0.66196525
21	0x3ea3e1ca	0.320082
22	0x3dfade45	0.12249426
23	0x3f545c3e	0.8295325
24	0x3f2a676f	0.6656408
25	0x3f808281	1.0039827
26	0x3f6d85ac	0.9278209
27	0x3f478f81	0.77953345
28	0x3f224749	0.6339002
29	0x3fc71480	1.5553131
30	0x3f4237d3	0.7586643
31	0x3e8a977d	0.270687
32	0x3fbc3618	1.4704008
33	0x3f3790e2	0.7170545
34	0x3f38b723	0.72154444
35	0x3f9b69a2	1.2141612
36	0x3face377	1.3506917
37	0x3f80bb23	1.005711
38	0x3ee9c875	0.4566075
39	0x3f6e8777	0.9317545
40	0x3f23806c	0.6386783
41	0x3f92c886	1.1467445
42	0x3fc17cae	1.5116174
43	0x3fa783d6	1.3087108
44	0x3f3dbb63	0.74114054
45	0x3f856e4e	1.0424287
46	0x3fadec26	1.3587692
47	0x3fa64545	1.2989889
48	0x3e98a032	0.2980972
49	0x3fa07e38	1.2538519
50	0x3fadeb06	1.3587348
51	0x3f73528d	0.9504784
52	0x3fa0e031	1.2568418
53	0x3f4e5761	0.8060208
54	0x3f84e42a	1.038213
55	0x3f07089b	0.52747506
56	0x3ed6a1ad	0.41920224
57	0x3f84423d	1.0332714
58	0x3f319c54	0.6937916
59	0x3f957cdf	1.1678733
60	0x3fc0caf8	1.5061941
61	0x3ed92520	0.42411137
62	0x3f822e71	1.0170423
63	0x3f9d13f0	1.227171

base.mlp.fc2.0.2.bias f4 [64]
0	0x3e36915f	0.17828892
1	0xbdf853d3	-0.12125363
2	0xbe8b9413	-0.2726141
3	0xbc81c742	-0.015842084
4	0x3dbf7908	0.09349257
5	0xbd3027a9	-0.043006573
6	0x3b43148c	0.0029766886
7	0x3e48c959	0.19608058
8	0xbc8676b3	-0.016414022
9	0xbc187163	-0.009304377
10	0x3dbb916d	0.09158597
11	0x3b9a7a60	0.0047142953
12	0x3e1fbc68	0.15599215
13	0xbe183364	-0.14863354
14	0xbd095730	-0.033530414
15	0x3ca28b26	0.019841742
16	0xbe51655d	-0.20448823
17	0xbe09350d	-0.13399144
18	0xbd00e2e5	-0.031466383
19	0x3d950285	0.07275871
20	0x3db89d43	0.0901437
21	0x3e3ef423	0.18647818
22	0xbe7b162c	-0.24520177
23	0x3dcf9679	0.10136122
24	0x3ec2500e	0.37951702
25	0x3ee8b4bf	0.45450398
26	0xbe8ee5ff	-0.27909848
27	0x3e1dd5fc	0.1541366
28	0xbf0bc8dc	-0.5460336
29	0x3dd0b5c5	0.1019092
30	0xbe4577ec	-0.19284028
31	0xbebaae10	-0.36460924
32	0x3cb5b195	0.022179404
33	0x3e182a50	0.14859891
34	0xbe12012e	-0.14258263
35	0xbbc6d18c	-0.0060674604
36	0xbd054792	-0.032538958
37	0xbe5a6cff	-0.21330641
38	0x3eb130fc	0.34607685
39	0xba15b478	-0.0005710791
40	0x3eb7ab5e	0.3587293
41	0x3cb7d4d4	0.022440352
42	0x3c4fc1e0	0.012680501
43	0x3d6ceb1f	0.057841416
44	0x3b5d81f4	0.0033799382
45	0xbca18910	-0.019718677
46	0x3d858436	0.06519358
47	0xba82d889	-0.0009982745
48	0x3e88e143	0.2673436
49	0xbe48460f	-0.19557975
50	0x3e1da17f	0.15393637
51	0xbe1433fe	-0.14472958
52	0x3dcb407b	0.09924408
53	0xbc5bdd51	-0.013419465
54	0x3dabacc2	0.0838256
55	0x3ecae284	0.39625943
56	0xbdcd643f	-0.10028886
57	0xbd9ccdfc	-0.07656476
58	0x3d172b56	0.036906563
59	0x3e91b245	0.2845632
60	0x3ce6acd8	0.02815859
61	0x3d85298f	0.06502067
62	0x3d96dd6a	0.0736645
63	0xbd827fe6	-0.06372051

rnn.rnn.weight_ih_l0 f4 [192, 64]
0	0x3e52f009	0.20599379
1	0x3d09192d	0.033471275
2	0xbe6a49ba	-0.22879687
3	0xbf0adf25	-0.5424674
4	0xbed0dfa3	-0.4079562
5	0xbf0fa22a	-0.5610682
6	0xbe969bf7	-0.29415867
7	0x3dc23f65	0.09484748
8	0xbe8b8df3	-0.27256736
9	0x3e5ecb03	0.2175713
10	0x3e582363	0.21107249
11	0x3f24bffa	0.64355433
12	0x3f5dabe8	0.86590433
13	0x3d2c57b8	0.042075843
14	0xbee4106e	-0.44543785
15	0xbe080e55	-0.13286717
16	0x3e2addfb	0.16686241
17	0xbf329304	-0.6975558
18	0xbe3b8d17	-0.1831554
19	0x3c4bbaee	0.012434704
20	0xbecb53ac	-0.39712274
21	0xbe088d38	-0.1333512
22	0x3f1f7b87	0.6229786
23	0x3af9ccb8	0.0019058203
24	0x3ecf5a98	0.40498805
25	0x3ec74124	0.38916886
26	0x3e61f95f	0.22067784
27	0x3d86aaf5	0.06575576
28	0x3d723f8e	0.05914264
29	0x3efc4f84	0.49279416
30	0xbed17aa9	-0.40913895
31	0x3e376b3d	0.17912002
32	0x3e812072	0.25220066
33	0xbe1bbcc5	-0.15208729
34	0xbdb9528b	-0.09048947
35	0xbf34db72	-0.70647347
36	0x3e5bbed7	0.21459518
37	0xbed49b5e	-0.41524786
38	0xbeb13c37	-0.34616253
39	0xbe91eef4	-0.2850262
40	0xbe87240a	-0.26394683
41	0xbe25ecdd	-0.16203637
42	0x3cacd1cb	0.02109613
43	0x3e1a2f1b	0.15057032
44	0x3ea5ee61	0.3240843
45	0xbee89963	-0.45429525
46	0x3e9676c9	0.293875
47	0x3ee1cd54	0.44101965
48	0x3ecabb9c	0.3959626
49	0xbe966dd2	-0.2938066
50	0xbf1f961e	-0.62338436
51	0xbf13cd74	-0.5773537
52	0x3f0a5118	0.5402999
53	0x3eb0a26d	0.3449892
54	0xbeead5bf	-0.458662
55	0x3e104601	0.14089204
56	0x3cd44afb	0.02591466
57	0xbe67ed83	-0.22649197
58	0x3d501ddd	0.05080973
59	0x3f2ff62c	0.68735003
60	0x3e81a328	0.2531979
61	0xbf08bbef	-0.53411764
62	0x3f0f54d9	0.5598884
63	0xbedea442	-0.43484694
64	0xbf258992	-0.6466304
65	0x3e302180	0.17200279
66	0xbddffb02	-0.10936548
67	0x3c7d4847	0.015459127
68	0x3e91cc81	0.28476337
69	0x3e942d8c	0.28941
70	0xbf269fcb	-0.65087575
71	0x3cbdc813	0.023166692
72	0xbe1c5ee1	-0.15270568
73	0x3eaecf53	0.3414255
74	0xbe9a716a	-0.30164653
75	0xbec39464	-0.3819915
76	0xbe3a9228	-0.18219817
77	0xbee1177a	-0.43963224
78	0xbe5ad938	-0.21371925
79	0xbf6db2e4	-0.9285109
80	0x3e909ff8	0.28247046
81	0x3ddc3d15	0.10753838
82	0xbe9567e8	-0.29180837
83	0x3ef27635	0.4735581
84	0xbeacc0e0	-0.33740902
85	0x3e4ed9d6	0.20200285
86	0x3f133411	0.5750132
87	0xbe4b0980	-0.19827843
88	0x3ec16227	0.37770197
89	0xbe7ded61	-0.24797584
90	0x3b83571f	0.0040081884
91	0xbe57b015	-0.21063264
92	0x3e3507c7	0.17678748
93	0xbedbbadd	-0.42916003
94	0xbce43a99	-0.027859973
95	0xbefe80d8	-0.49707675
96	0xbdf06362	-0.11737706
97	0xbf5dc042	-0.8662149
98	0x3efc7d71	0.49314454
99	0x3f09bb7e	0.53801715
100	0xbdc62c17	-0.09676378
101	0x3ed05d4c	0.4069618
102	0x3c734e60	0.014850229
103	0x3e8e9ee6	0.27855605
104	0x3f0eaec5	0.5573543
105	0x3cc85edb	0.024459293
106	0xbe3cfdcf	-0.18456195
107	0x3e8209fe	0.25398248
108	0x3d574f21	0.052565698
109	0x3e3af3ee	0.18257114
110	0xbd12efbe	-0.035873167
111	0x3e05c1b5	0.13062175
112	0x3f1eb4f5	0.6199487
113	0x3eac4664	0.33647454
114	0x3e7e0f13	0.24810438
115	0xbf46b9a9	-0.77627045
116	0x3e1f0209	0.1552812
117	0x3ea30801	0.31842044
118	0x3e53b0c3	0.20672898
119	0xbd3fea6f	-0.046854433
120	0x3ec7b705	0.3900682
121	0xbf15a0e0	-0.584486
122	0xbe80bd62	-0.25144488
123	0x3ef86370	0.48513365
124	0x3ee65b3c	0.4499148
125	0x3dfa631b	0.12225934
126	0x3ed2c170	0.41163206
127	0xbf0b62f3	-0.5444786
128	0x3ef7b684	0.48381436
129	0xbdc6983d	-0.09697006
130	0xbe63ab10	-0.22233224
131	0x3f0a9366	0.5413116
132	0xbd6d9930	-0.05800742
133	0xbdd7f9b2	-0.105456725
134	0xbed9dba2	-0.4255038
135	0x3e7f2295	0.24915536
136	0xbeb73660	-0.35783672
137	0x3d5a84cd	0.053349305
138	0x3ceb3c59	0.0287153
139	0xbe0e7fbd	-0.13915916
140	0x3e5a87da	0.21340886
141	0xbed2b20b	-0.4115146
142	0x3ad46744	0.0016205092
143	0xbe42a03c	-0.19006437
144	0x3e24dd8d	0.1610014
145	0xbdd0a461	-0.10187603
146	0xbeb24c53	-0.34823856
147	0x3eabd38d	0.33559838
148	0xbd3fc496	-0.04681834
149	0xbbf6c005	-0.0075302147
150	0x3f296e34	0.6618378
151	0xbe245824	-0.16049248
152	0x3e5665c4	0.20937258
153	0x3f29acdb	0.6627938
154	0x3f0a58ea	0.5404192
155	0xbe07564e	-0.13216516
156	0x3e851436	0.25991982
157	0x3e8d5cfb	0.2761
158	0xbe93faa6	-0.28902167
159	0x3e6e6a96	0.23282847
160	0x3ed104eb	0.40824065
161	0xbe884fd7	-0.26623413
162	0xbede3e15	-0.4340674
163	0xbda89557	-0.08231609
164	0xbe6b2e6a	-0.22966924
165	0xbed755f8	-0.42057776
166	0xbeac20f9	-0.33618906
167	0x3de5aefc	0.11215016
168	0x3ea7433f	0.32668492
169	0x3db012c6	0.08597331
170	0x3ef5c092	0.47998482
171	0xbd91b90d	-0.07115374
172	0x3cb5f1b1	0.022209974
173	0xbdee2e3d	-0.11629913
174	0x3ecb3e74	0.39696085
175	0xbe979ce5	-0.2961189
176	0x3e44ca61	0.19217826
177	0xbeb1c566	-0.34720916
178	0xbeccb072	-0.39978367
179	0xbe8777f4	-0.26458704
180	0x3ebab0f0	0.36463118
181	0xbe963608	-0.29338098
182	0xbf8512ea	-1.0396397
183	0x3cf08f5f	0.02936524
184	0xbe93f3c8	-0.28896928
185	0xbe8ebbfc	-0.27877796
186	0x3eaa0988	0.33210397
187	0x3f453c2f	0.7704496
188	0x3f272fd6	0.65307367
189	0xbf5637e6	-0.83679044
190	0x3f255e60	0.6459713
191	0xbdce5698	-0.1007511
192	0x3ec1a00a	0.37817413
193	0x3f0c9f56	0.5493063
194	0x3e677c64	0.22606045
195	0x3f4b4609	0.7940374
196	0xbe5fd2c7	-0.21857749
197	0xbef5118f	-0.4786496
198	0x3e57dd5b	0.21080534
199	0x3b99e6e8	0.0046967156
200	0xbefc95d1	-0.4933305
201	0xbeb55973	-0.35419807
202	0x3e8a6806	0.2703249
203	0x3d796cbb	0.06089471
204	0x3e83b7d4	0.25726187
205	0x3e74a81e	0.23892257
206	0x3e04c5ee	0.12966129
207	0xbf170ef0	-0.5900717
208	0xbecd79e9	-0.40132073
209	0xbe4c8dc7	-0.19975959
210	0x3e1197db	0.14218085
211	0xbde482ae	-0.11157738
212	0x3ee48e61	0.44639876
213	0xbe9785f0	-0.29594374
214	0x3e08193a	0.13290873
215	0x3eaa9b0a	0.3332141
216	0x3d8633b6	0.06552832
217	0xbe30ffc6	-0.1728507
218	0x3efe468d	0.496632
219	0xbeb2b31f	-0.34902284
220	0x3d72ab38	0.05924532
221	0xbe39195c	-0.1807608
222	0x3e450b30	0.19242549
223	0x3d8998f4	0.067186266
224	0xbf204be9	-0.6261583
225	0xbec96c69	-0.39340523
226	0x3dc9a949	0.09846742
227	0x3d051409	0.03248981
228	0x3d8f2d98	0.06991118
229	0xbe888eff	-0.26671597
230	0xbede7d78	-0.434551
231	0xbe88373e	-0.26604646
232	0x3f219101	0.63111883
233	0x3cda1384	0.026620634
234	0xbd34ab22	-0.044108517
235	0x3e58b322	0.21162084
236	0xbdc67483	-0.096901916
237	0xbee35497	-0.44400474
238	0x3e815304	0.25258648
239	0xbf32fd58	-0.6991782
240	0xbe0aa4c5	-0.13539417
241	0xbed514ab	-0.4161733
242	0xbf313a5d	-0.6922968
243	0xbeced0dc	-0.40393722
244	0xbdf073b7	-0.11740821
245	0x3dd91038	0.105987966
246	0x3e082034	0.13293535
247	0x3def95a1	0.11698461
248	0x3e245e1c	0.16051525
249	0xbd0b2154	-0.03396733
250	0x3eb19b7c	0.34688938
251	0x3ee28c3b	0.44247612
252	0x3ebdd992	0.37080055
253	0xbee8fb6c	-0.4550432
254	0x3e60c9c2	0.21951964
255	0x3ee9c243	0.45656022

rnn.rnn.weight_hh_l0 f4 [192, 64]
0	0xbe90e291	-0.28297856
1	0x3da3e520	0.080026865
2	0x3eaf082a	0.34185916
3	0xbedae31d	-0.427514
4	0xbe48e97f	-0.19620322
5	0x3effc26c	0.4995302
6	0x3e908a5d	0.28230563
7	0x3e079357	0.132398
8	0xbdc44aab	-0.09584554
9	0xbf43445a	-0.7627617
10	0x3e1216ce	0.14266512
11	0xbd2db694	-0.04241045
12	0xbc5464e5	-0.012963508
13	0x3f232304	0.63725305
14	0xbe8854ce	-0.266272
15	0x3f363d75	0.71187526
16	0xbe779725	-0.24178751
17	0xbd4cfa04	-0.05004312
18	0xbe315622	-0.17318013
19	0xbc7d88e4	-0.015474532
20	0xbca61adb	-0.020276478
21	0x3c0f5bc4	0.008749906
22	0x3f28d6d7	0.6595282
23	0xbdc96f58	-0.0983569
24	0xbf137572	-0.5760108
25	0x3ed6e76e	0.41973442
26	0x3e50187d	0.20321842
27	0xbf400ad7	-0.7501654
28	0x3c0fe7d4	0.0087832995
29	0x3e1c6277	0.15271936
30	0xbe3f226f	-0.18665479
31	0x3e1478c1	0.14499189
32	0xbf13dc2c	-0.5775783
33	0x3e36494d	0.178014
34	0x3e6681f7	0.22510515
35	0x3e28428a	0.16431633
36	0x3cf7162b	0.030161938
37	0xbe804c09	-0.2505801
38	0xbe03d4e9	-0.12874188
39	0x3f213ac2	0.6298028
40	0xbcff8e85	-0.031195888
41	0x3f0c680e	0.54846275
42	0xbf432c8e	-0.7623986
43	0xbedc0423	-0.42971906
44	0xbed47f98	-0.41503596
45	0xbe141eb7	-0.14464842
46	0x3f5bb6e5	0.8582595
47	0x3e9c8c51	0.30575803
48	0xbf0409e1	-0.51577574
49	0x3ece5a3c	0.40303218
50	0x3c564f87	0.013080484
51	0x3ea4f631	0.3221908
52	0x3d51a4be	0.0511825
53	0x3e824a30	0.25447226
54	0xbdc22cb6	-0.09481184
55	0x3e0692c4	0.13141924
56	0x3dded0d3	0.10879674
57	0x3e15f57e	0.14644429
58	0x3f536259	0.8257194
59	0xbeb0a9b4	-0.34504473
60	0xbebc29c2	-0.3675061
61	0xbe6df1ec	-0.23236817
62	0x3df71f35	0.12066499
63	0x3d461465	0.048359293
64	0xbe7b6c0e	-0.24552938
65	0xbe6e1802	-0.23251346
66	0xbe21a8c4	-0.15787035
67	0xbd90924e	-0.070591554
68	0x3d2c8cdf	0.042126533
69	0xbda7135d	-0.0815799
70	0x3cc80ea6	0.024421047
71	0x3ec6a07b	0.38794312
72	0xbcc4e654	-0.02403561
73	0x3d5a86f7	0.05335137
74	0xbec1bc31	-0.3783889
75	0x3e4d24c2	0.20033553
76	0x3d7ea686	0.062170528
77	0xbdcd4df0	-0.10024631
78	0x3b809400	0.003923893
79	0x3e0eeae9	0.13956799
80	0xbe572275	-0.21009238
81	0xbed69a45	-0.41914573
82	0x3f0c53c3	0.5481531
83	0x3f39cb2a	0.7257563
84	0x3f059c68	0.5219178
85	0x3db8c930	0.090227485
86	0x3dc56967	0.096392445
87	0x3ebf4068	0.37353826
88	0xbea0724f	-0.3133721
89	0xbf4cad2f	-0.7995176
90	0xbeb5f925	-0.35541645
91	0xbc1e0079	-0.009643667
92	0xbe67490d	-0.2258646
93	0x3ea1159e	0.31461805
94	0x3e17ca53	0.14823274
95	0x3e681ef6	0.2266806
96	0x3ea3bede	0.31981558
97	0xbf0e801c	-0.5566423
98	0x3ea7ecf1	0.3279796
99	0x3eab7451	0.3348718
100	0xbdcc9e8f	-0.0999118
101	0xbf20049b	-0.6250703
102	0xbeb79546	-0.35856074
103	0xbeb153ed	-0.34634343
104	0xbeace8b6	-0.33771294
105	0xbe4ee5d5	-0.20204861
106	0x3e9ef4de	0.31046194
107	0x3f333602	0.70004284
108	0xbf4db782	-0.80358136
109	0xbf91d555	-1.1393229
110	0x3e83d575	0.25748792
111	0x3f1f470a	0.6221777
112	0x3f0eadca	0.5573393
113	0x3d39976a	0.045310415
114	0xbe9d3b65	-0.30709377
115	0xbca60b21	-0.020268979
116	0xbd9c85ff	-0.07642745
117	0xbe429293	-0.19001226
118	0x3ea36d99	0.31919554
119	0x3e3865bb	0.18007557
120	0xbebc2089	-0.36743572
121	0xbe4fb1fd	-0.20282741
122	0x3f6a66d3	0.9156315
123	0x3eacec00	0.33773804
124	0xbdec6ec8	-0.11544567
125	0xbe711baa	-0.23545709
126	0xbb4e37fd	-0.0031466477
127	0x3f20e49d	0.62848836
128	0xbeb0241d	-0.34402552
129	0x3e905017	0.28186104
130	0xbf40592e	-0.7513608
131	0x3dce08b6	0.10060255
132	0xbe83cd74	-0.25742686
133	0xbed679a3	-0.41889676
134	0x3f0bf065	0.5466369
135	0x3e7caf47	0.24676238
136	0x3f7740fa	0.9658352
137	0x3da5db93	0.08098521
138	0x3f30ccba	0.6906239
139	0x3d7aa0d2	0.061188526
140	0xbed94d27	-0.42441675
141	0xbdade413	-0.08490767
142	0xbdec88a8	-0.115495026
143	0x3eb9053a	0.361368
144	0xbf3167f4	-0.69299245
145	0x3da79991	0.08183587
146	0x3eb4b113	0.35291347
147	0x3f10cd83	0.56563586
148	0xbeca935e	-0.39565557
149	0xbcee96e6	-0.029124688
150	0x3ea545d1	0.32279828
151	0x3f30a90e	0.69007957
152	0xbeee0ced	-0.46494237
153	0xbeccd86b	-0.40008864
154	0x3ec6bd47	0.38816282
155	0x3dfe6355	0.1242129
156	0x3de3da41	0.11125613
157	0xbd96f98c	-0.07371816
158	0xbed2b8e8	-0.41156697
159	0x3d3db948	0.046319276
160	0x3eb450ec	0.35217988
161	0xbf4ba7dd	-0.79553014
162	0x3e022147	0.12708007
163	0x3f1c0805	0.60949737
164	0xbf0dffe8	-0.55468607
165	0x3ee237f0	0.44183302
166	0x3e4b762a	0.19869295
167	0xbe6e20c7	-0.23254691
168	0xbe7d67aa	-0.24746576
169	0xbdcb012e	-0.099123344
170	0xbd87d2f4	-0.06632033
171	0xbec5502e	-0.38537735
172	0x3f05f015	0.5231946
173	0x3ea4389e	0.32074445
174	0x3edb9d51	0.4289346
175	0x3f5b46bc	0.8565481
176	0x3ee0f8af	0.4393973
177	0x3dcdab72	0.10042466
178	0xbe82a97e	-0.25519937
179	0xbe2f8ea6	-0.1714426
180	0xbe64f1f1	-0.22357918
181	0x3f1d5127	0.61451954
182	0xbd337a3e	-0.04381775
183	0xbdcdeb4b	-0.10054644
184	0xbeca0b10	-0.39461565
185	0xbf0f7611	-0.5603953
186	0x3eea1f71	0.45727113
187	0x3f1c9aaa	0.611735
188	0x3d2c7e58	0.04211268
189	0xbe9a0ac3	-0.30086336
190	0xbdd6b9df	-0.10484671
191	0x3f808d11	1.004305
192	0x3d82676e	0.06367384
193	0x3e0856e4	0.13314396
194	0x3f10ac71	0.56513125
195	0xbea3b671	-0.3197513
196	0x3e8d7c73	0.2763401
197	0x3e0e93b5	0.13923533
198	0x3cb56ca3	0.022146529
199	0xbebfbdf0	-0.37449598
200	0xbf54c5d3	-0.83114356
201	0x3ec28668	0.3799317
202	0x3e5d47e1	0.21609451
203	0x3e6d38d4	0.2316621
204	0xbc970391	-0.018434318
205	0x3e3f31bb	0.18671314
206	0xbd1b3d8c	-0.037900493
207	0xbefa1ddb	-0.48850903
208	0x3f08aeec	0.5339191
209	0x3f1a99be	0.6039084
210	0xbe36e4b2	-0.17860678
211	0x3d22a35f	0.039706584
212	0x3e2e96ea	0.17049757
213	0x3edcc3ba	0.43118078
214	0x3dc9057b	0.098154984
215	0x3ebf4342	0.37356
216	0x3e94f7e1	0.29095367
217	0x3e310d87	0.17290317
218	0xbe616928	-0.2201277
219	0x3e150f93	0.14556722
220	0xbe697e1e	-0.22802016
221	0x3ea7d231	0.3277755
222	0xbe6c7438	-0.23091209
223	0x3f033a0e	0.5126046
224	0x3edfacd3	0.43686542
225	0xbc91c9a4	-0.017796345
226	0xbeb91499	-0.36148527
227	0xbf0c834b	-0.5488784
228	0x3e6e1d34	0.23253328
229	0xbe4c42a9	-0.19947304
230	0xbf009ef0	-0.5024252
231	0x3e9c2703	0.30498514
232	0xbdbad9df	-0.09123587
233	0xbf66d5f6	-0.9017023
234	0xbf009174	-0.50221944
235	0xbebbdf6e	-0.366939
236	0x3f031c99	0.5121551
237	0x3c595fb1	0.0132674435
238	0xbe00cfdc	-0.12579292
239	0x3e47f97e	0.19528767
240	0x3de454b9	0.11148972
241	0x3e16b290	0.14716554
242	0x3efbc234	0.49171603
243	0xbe2964bf	-0.16542338
244	0xbf148b71	-0.5802527
245	0xbe7d2f0b	-0.24724977
246	0xbed05690	-0.40691042
247	0x3eec1603	0.46110544
248	0xbf02301f	-0.50854677
249	0xbe078d77	-0.13237558
250	0x3efc2d9b	0.49253544
251	0xbdcf46f1	-0.10120953
252	0xbf2db938	-0.67860746
253	0x3f2f8ee2	0.68577397
254	0x3eb70bd1	0.35751203
255	0x3bd3f625	0.0064685517
